module @compiled_vae {
  util.global private @__auto.vae.post_quant_conv.weight = #stream.parameter.named<"model"::"vae.post_quant_conv.weight"> : tensor<4x4x1x1xf16>
  util.global private @__auto.vae.post_quant_conv.bias = #stream.parameter.named<"model"::"vae.post_quant_conv.bias"> : tensor<4xf16>
  util.global private @__auto.vae.decoder.conv_in.weight = #stream.parameter.named<"model"::"vae.decoder.conv_in.weight"> : tensor<512x4x3x3xf16>
  util.global private @__auto.vae.decoder.conv_in.bias = #stream.parameter.named<"model"::"vae.decoder.conv_in.bias"> : tensor<512xf16>
  util.global private @__auto.vae.decoder.mid_block.resnets.0.norm1.bias = #stream.parameter.named<"model"::"vae.decoder.mid_block.resnets.0.norm1.bias"> : tensor<512xf16>
  util.global private @__auto.vae.decoder.mid_block.resnets.0.norm1.weight = #stream.parameter.named<"model"::"vae.decoder.mid_block.resnets.0.norm1.weight"> : tensor<512xf16>
  util.global private @__auto.vae.decoder.mid_block.resnets.0.conv1.weight = #stream.parameter.named<"model"::"vae.decoder.mid_block.resnets.0.conv1.weight"> : tensor<512x512x3x3xf16>
  util.global private @__auto.vae.decoder.mid_block.resnets.0.conv1.bias = #stream.parameter.named<"model"::"vae.decoder.mid_block.resnets.0.conv1.bias"> : tensor<512xf16>
  util.global private @__auto.vae.decoder.mid_block.resnets.0.norm2.bias = #stream.parameter.named<"model"::"vae.decoder.mid_block.resnets.0.norm2.bias"> : tensor<512xf16>
  util.global private @__auto.vae.decoder.mid_block.resnets.0.norm2.weight = #stream.parameter.named<"model"::"vae.decoder.mid_block.resnets.0.norm2.weight"> : tensor<512xf16>
  util.global private @__auto.vae.decoder.mid_block.resnets.0.conv2.weight = #stream.parameter.named<"model"::"vae.decoder.mid_block.resnets.0.conv2.weight"> : tensor<512x512x3x3xf16>
  util.global private @__auto.vae.decoder.mid_block.resnets.0.conv2.bias = #stream.parameter.named<"model"::"vae.decoder.mid_block.resnets.0.conv2.bias"> : tensor<512xf16>
  util.global private @__auto.vae.decoder.mid_block.attentions.0.group_norm.bias = #stream.parameter.named<"model"::"vae.decoder.mid_block.attentions.0.group_norm.bias"> : tensor<512xf16>
  util.global private @__auto.vae.decoder.mid_block.attentions.0.group_norm.weight = #stream.parameter.named<"model"::"vae.decoder.mid_block.attentions.0.group_norm.weight"> : tensor<512xf16>
  util.global private @__auto.vae.decoder.mid_block.attentions.0.to_q.weight = #stream.parameter.named<"model"::"vae.decoder.mid_block.attentions.0.to_q.weight"> : tensor<512x512xf16>
  util.global private @__auto.vae.decoder.mid_block.attentions.0.to_q.bias = #stream.parameter.named<"model"::"vae.decoder.mid_block.attentions.0.to_q.bias"> : tensor<512xf16>
  util.global private @__auto.vae.decoder.mid_block.attentions.0.to_k.weight = #stream.parameter.named<"model"::"vae.decoder.mid_block.attentions.0.to_k.weight"> : tensor<512x512xf16>
  util.global private @__auto.vae.decoder.mid_block.attentions.0.to_k.bias = #stream.parameter.named<"model"::"vae.decoder.mid_block.attentions.0.to_k.bias"> : tensor<512xf16>
  util.global private @__auto.vae.decoder.mid_block.attentions.0.to_v.weight = #stream.parameter.named<"model"::"vae.decoder.mid_block.attentions.0.to_v.weight"> : tensor<512x512xf16>
  util.global private @__auto.vae.decoder.mid_block.attentions.0.to_v.bias = #stream.parameter.named<"model"::"vae.decoder.mid_block.attentions.0.to_v.bias"> : tensor<512xf16>
  util.global private @__auto.vae.decoder.mid_block.attentions.0.to_out.0.weight = #stream.parameter.named<"model"::"vae.decoder.mid_block.attentions.0.to_out.0.weight"> : tensor<512x512xf16>
  util.global private @__auto.vae.decoder.mid_block.attentions.0.to_out.0.bias = #stream.parameter.named<"model"::"vae.decoder.mid_block.attentions.0.to_out.0.bias"> : tensor<512xf16>
  util.global private @__auto.vae.decoder.mid_block.resnets.1.norm1.bias = #stream.parameter.named<"model"::"vae.decoder.mid_block.resnets.1.norm1.bias"> : tensor<512xf16>
  util.global private @__auto.vae.decoder.mid_block.resnets.1.norm1.weight = #stream.parameter.named<"model"::"vae.decoder.mid_block.resnets.1.norm1.weight"> : tensor<512xf16>
  util.global private @__auto.vae.decoder.mid_block.resnets.1.conv1.weight = #stream.parameter.named<"model"::"vae.decoder.mid_block.resnets.1.conv1.weight"> : tensor<512x512x3x3xf16>
  util.global private @__auto.vae.decoder.mid_block.resnets.1.conv1.bias = #stream.parameter.named<"model"::"vae.decoder.mid_block.resnets.1.conv1.bias"> : tensor<512xf16>
  util.global private @__auto.vae.decoder.mid_block.resnets.1.norm2.bias = #stream.parameter.named<"model"::"vae.decoder.mid_block.resnets.1.norm2.bias"> : tensor<512xf16>
  util.global private @__auto.vae.decoder.mid_block.resnets.1.norm2.weight = #stream.parameter.named<"model"::"vae.decoder.mid_block.resnets.1.norm2.weight"> : tensor<512xf16>
  util.global private @__auto.vae.decoder.mid_block.resnets.1.conv2.weight = #stream.parameter.named<"model"::"vae.decoder.mid_block.resnets.1.conv2.weight"> : tensor<512x512x3x3xf16>
  util.global private @__auto.vae.decoder.mid_block.resnets.1.conv2.bias = #stream.parameter.named<"model"::"vae.decoder.mid_block.resnets.1.conv2.bias"> : tensor<512xf16>
  util.global private @__auto.vae.decoder.up_blocks.0.resnets.0.norm1.bias = #stream.parameter.named<"model"::"vae.decoder.up_blocks.0.resnets.0.norm1.bias"> : tensor<512xf16>
  util.global private @__auto.vae.decoder.up_blocks.0.resnets.0.norm1.weight = #stream.parameter.named<"model"::"vae.decoder.up_blocks.0.resnets.0.norm1.weight"> : tensor<512xf16>
  util.global private @__auto.vae.decoder.up_blocks.0.resnets.0.conv1.weight = #stream.parameter.named<"model"::"vae.decoder.up_blocks.0.resnets.0.conv1.weight"> : tensor<512x512x3x3xf16>
  util.global private @__auto.vae.decoder.up_blocks.0.resnets.0.conv1.bias = #stream.parameter.named<"model"::"vae.decoder.up_blocks.0.resnets.0.conv1.bias"> : tensor<512xf16>
  util.global private @__auto.vae.decoder.up_blocks.0.resnets.0.norm2.bias = #stream.parameter.named<"model"::"vae.decoder.up_blocks.0.resnets.0.norm2.bias"> : tensor<512xf16>
  util.global private @__auto.vae.decoder.up_blocks.0.resnets.0.norm2.weight = #stream.parameter.named<"model"::"vae.decoder.up_blocks.0.resnets.0.norm2.weight"> : tensor<512xf16>
  util.global private @__auto.vae.decoder.up_blocks.0.resnets.0.conv2.weight = #stream.parameter.named<"model"::"vae.decoder.up_blocks.0.resnets.0.conv2.weight"> : tensor<512x512x3x3xf16>
  util.global private @__auto.vae.decoder.up_blocks.0.resnets.0.conv2.bias = #stream.parameter.named<"model"::"vae.decoder.up_blocks.0.resnets.0.conv2.bias"> : tensor<512xf16>
  util.global private @__auto.vae.decoder.up_blocks.0.resnets.1.norm1.bias = #stream.parameter.named<"model"::"vae.decoder.up_blocks.0.resnets.1.norm1.bias"> : tensor<512xf16>
  util.global private @__auto.vae.decoder.up_blocks.0.resnets.1.norm1.weight = #stream.parameter.named<"model"::"vae.decoder.up_blocks.0.resnets.1.norm1.weight"> : tensor<512xf16>
  util.global private @__auto.vae.decoder.up_blocks.0.resnets.1.conv1.weight = #stream.parameter.named<"model"::"vae.decoder.up_blocks.0.resnets.1.conv1.weight"> : tensor<512x512x3x3xf16>
  util.global private @__auto.vae.decoder.up_blocks.0.resnets.1.conv1.bias = #stream.parameter.named<"model"::"vae.decoder.up_blocks.0.resnets.1.conv1.bias"> : tensor<512xf16>
  util.global private @__auto.vae.decoder.up_blocks.0.resnets.1.norm2.bias = #stream.parameter.named<"model"::"vae.decoder.up_blocks.0.resnets.1.norm2.bias"> : tensor<512xf16>
  util.global private @__auto.vae.decoder.up_blocks.0.resnets.1.norm2.weight = #stream.parameter.named<"model"::"vae.decoder.up_blocks.0.resnets.1.norm2.weight"> : tensor<512xf16>
  util.global private @__auto.vae.decoder.up_blocks.0.resnets.1.conv2.weight = #stream.parameter.named<"model"::"vae.decoder.up_blocks.0.resnets.1.conv2.weight"> : tensor<512x512x3x3xf16>
  util.global private @__auto.vae.decoder.up_blocks.0.resnets.1.conv2.bias = #stream.parameter.named<"model"::"vae.decoder.up_blocks.0.resnets.1.conv2.bias"> : tensor<512xf16>
  util.global private @__auto.vae.decoder.up_blocks.0.resnets.2.norm1.bias = #stream.parameter.named<"model"::"vae.decoder.up_blocks.0.resnets.2.norm1.bias"> : tensor<512xf16>
  util.global private @__auto.vae.decoder.up_blocks.0.resnets.2.norm1.weight = #stream.parameter.named<"model"::"vae.decoder.up_blocks.0.resnets.2.norm1.weight"> : tensor<512xf16>
  util.global private @__auto.vae.decoder.up_blocks.0.resnets.2.conv1.weight = #stream.parameter.named<"model"::"vae.decoder.up_blocks.0.resnets.2.conv1.weight"> : tensor<512x512x3x3xf16>
  util.global private @__auto.vae.decoder.up_blocks.0.resnets.2.conv1.bias = #stream.parameter.named<"model"::"vae.decoder.up_blocks.0.resnets.2.conv1.bias"> : tensor<512xf16>
  util.global private @__auto.vae.decoder.up_blocks.0.resnets.2.norm2.bias = #stream.parameter.named<"model"::"vae.decoder.up_blocks.0.resnets.2.norm2.bias"> : tensor<512xf16>
  util.global private @__auto.vae.decoder.up_blocks.0.resnets.2.norm2.weight = #stream.parameter.named<"model"::"vae.decoder.up_blocks.0.resnets.2.norm2.weight"> : tensor<512xf16>
  util.global private @__auto.vae.decoder.up_blocks.0.resnets.2.conv2.weight = #stream.parameter.named<"model"::"vae.decoder.up_blocks.0.resnets.2.conv2.weight"> : tensor<512x512x3x3xf16>
  util.global private @__auto.vae.decoder.up_blocks.0.resnets.2.conv2.bias = #stream.parameter.named<"model"::"vae.decoder.up_blocks.0.resnets.2.conv2.bias"> : tensor<512xf16>
  util.global private @__auto.vae.decoder.up_blocks.0.upsamplers.0.conv.weight = #stream.parameter.named<"model"::"vae.decoder.up_blocks.0.upsamplers.0.conv.weight"> : tensor<512x512x3x3xf16>
  util.global private @__auto.vae.decoder.up_blocks.0.upsamplers.0.conv.bias = #stream.parameter.named<"model"::"vae.decoder.up_blocks.0.upsamplers.0.conv.bias"> : tensor<512xf16>
  util.global private @__auto.vae.decoder.up_blocks.1.resnets.0.norm1.bias = #stream.parameter.named<"model"::"vae.decoder.up_blocks.1.resnets.0.norm1.bias"> : tensor<512xf16>
  util.global private @__auto.vae.decoder.up_blocks.1.resnets.0.norm1.weight = #stream.parameter.named<"model"::"vae.decoder.up_blocks.1.resnets.0.norm1.weight"> : tensor<512xf16>
  util.global private @__auto.vae.decoder.up_blocks.1.resnets.0.conv1.weight = #stream.parameter.named<"model"::"vae.decoder.up_blocks.1.resnets.0.conv1.weight"> : tensor<512x512x3x3xf16>
  util.global private @__auto.vae.decoder.up_blocks.1.resnets.0.conv1.bias = #stream.parameter.named<"model"::"vae.decoder.up_blocks.1.resnets.0.conv1.bias"> : tensor<512xf16>
  util.global private @__auto.vae.decoder.up_blocks.1.resnets.0.norm2.bias = #stream.parameter.named<"model"::"vae.decoder.up_blocks.1.resnets.0.norm2.bias"> : tensor<512xf16>
  util.global private @__auto.vae.decoder.up_blocks.1.resnets.0.norm2.weight = #stream.parameter.named<"model"::"vae.decoder.up_blocks.1.resnets.0.norm2.weight"> : tensor<512xf16>
  util.global private @__auto.vae.decoder.up_blocks.1.resnets.0.conv2.weight = #stream.parameter.named<"model"::"vae.decoder.up_blocks.1.resnets.0.conv2.weight"> : tensor<512x512x3x3xf16>
  util.global private @__auto.vae.decoder.up_blocks.1.resnets.0.conv2.bias = #stream.parameter.named<"model"::"vae.decoder.up_blocks.1.resnets.0.conv2.bias"> : tensor<512xf16>
  util.global private @__auto.vae.decoder.up_blocks.1.resnets.1.norm1.bias = #stream.parameter.named<"model"::"vae.decoder.up_blocks.1.resnets.1.norm1.bias"> : tensor<512xf16>
  util.global private @__auto.vae.decoder.up_blocks.1.resnets.1.norm1.weight = #stream.parameter.named<"model"::"vae.decoder.up_blocks.1.resnets.1.norm1.weight"> : tensor<512xf16>
  util.global private @__auto.vae.decoder.up_blocks.1.resnets.1.conv1.weight = #stream.parameter.named<"model"::"vae.decoder.up_blocks.1.resnets.1.conv1.weight"> : tensor<512x512x3x3xf16>
  util.global private @__auto.vae.decoder.up_blocks.1.resnets.1.conv1.bias = #stream.parameter.named<"model"::"vae.decoder.up_blocks.1.resnets.1.conv1.bias"> : tensor<512xf16>
  util.global private @__auto.vae.decoder.up_blocks.1.resnets.1.norm2.bias = #stream.parameter.named<"model"::"vae.decoder.up_blocks.1.resnets.1.norm2.bias"> : tensor<512xf16>
  util.global private @__auto.vae.decoder.up_blocks.1.resnets.1.norm2.weight = #stream.parameter.named<"model"::"vae.decoder.up_blocks.1.resnets.1.norm2.weight"> : tensor<512xf16>
  util.global private @__auto.vae.decoder.up_blocks.1.resnets.1.conv2.weight = #stream.parameter.named<"model"::"vae.decoder.up_blocks.1.resnets.1.conv2.weight"> : tensor<512x512x3x3xf16>
  util.global private @__auto.vae.decoder.up_blocks.1.resnets.1.conv2.bias = #stream.parameter.named<"model"::"vae.decoder.up_blocks.1.resnets.1.conv2.bias"> : tensor<512xf16>
  util.global private @__auto.vae.decoder.up_blocks.1.resnets.2.norm1.bias = #stream.parameter.named<"model"::"vae.decoder.up_blocks.1.resnets.2.norm1.bias"> : tensor<512xf16>
  util.global private @__auto.vae.decoder.up_blocks.1.resnets.2.norm1.weight = #stream.parameter.named<"model"::"vae.decoder.up_blocks.1.resnets.2.norm1.weight"> : tensor<512xf16>
  util.global private @__auto.vae.decoder.up_blocks.1.resnets.2.conv1.weight = #stream.parameter.named<"model"::"vae.decoder.up_blocks.1.resnets.2.conv1.weight"> : tensor<512x512x3x3xf16>
  util.global private @__auto.vae.decoder.up_blocks.1.resnets.2.conv1.bias = #stream.parameter.named<"model"::"vae.decoder.up_blocks.1.resnets.2.conv1.bias"> : tensor<512xf16>
  util.global private @__auto.vae.decoder.up_blocks.1.resnets.2.norm2.bias = #stream.parameter.named<"model"::"vae.decoder.up_blocks.1.resnets.2.norm2.bias"> : tensor<512xf16>
  util.global private @__auto.vae.decoder.up_blocks.1.resnets.2.norm2.weight = #stream.parameter.named<"model"::"vae.decoder.up_blocks.1.resnets.2.norm2.weight"> : tensor<512xf16>
  util.global private @__auto.vae.decoder.up_blocks.1.resnets.2.conv2.weight = #stream.parameter.named<"model"::"vae.decoder.up_blocks.1.resnets.2.conv2.weight"> : tensor<512x512x3x3xf16>
  util.global private @__auto.vae.decoder.up_blocks.1.resnets.2.conv2.bias = #stream.parameter.named<"model"::"vae.decoder.up_blocks.1.resnets.2.conv2.bias"> : tensor<512xf16>
  util.global private @__auto.vae.decoder.up_blocks.1.upsamplers.0.conv.weight = #stream.parameter.named<"model"::"vae.decoder.up_blocks.1.upsamplers.0.conv.weight"> : tensor<512x512x3x3xf16>
  util.global private @__auto.vae.decoder.up_blocks.1.upsamplers.0.conv.bias = #stream.parameter.named<"model"::"vae.decoder.up_blocks.1.upsamplers.0.conv.bias"> : tensor<512xf16>
  util.global private @__auto.vae.decoder.up_blocks.2.resnets.0.norm1.bias = #stream.parameter.named<"model"::"vae.decoder.up_blocks.2.resnets.0.norm1.bias"> : tensor<512xf16>
  util.global private @__auto.vae.decoder.up_blocks.2.resnets.0.norm1.weight = #stream.parameter.named<"model"::"vae.decoder.up_blocks.2.resnets.0.norm1.weight"> : tensor<512xf16>
  util.global private @__auto.vae.decoder.up_blocks.2.resnets.0.conv1.weight = #stream.parameter.named<"model"::"vae.decoder.up_blocks.2.resnets.0.conv1.weight"> : tensor<256x512x3x3xf16>
  util.global private @__auto.vae.decoder.up_blocks.2.resnets.0.conv1.bias = #stream.parameter.named<"model"::"vae.decoder.up_blocks.2.resnets.0.conv1.bias"> : tensor<256xf16>
  util.global private @__auto.vae.decoder.up_blocks.2.resnets.0.norm2.bias = #stream.parameter.named<"model"::"vae.decoder.up_blocks.2.resnets.0.norm2.bias"> : tensor<256xf16>
  util.global private @__auto.vae.decoder.up_blocks.2.resnets.0.norm2.weight = #stream.parameter.named<"model"::"vae.decoder.up_blocks.2.resnets.0.norm2.weight"> : tensor<256xf16>
  util.global private @__auto.vae.decoder.up_blocks.2.resnets.0.conv2.weight = #stream.parameter.named<"model"::"vae.decoder.up_blocks.2.resnets.0.conv2.weight"> : tensor<256x256x3x3xf16>
  util.global private @__auto.vae.decoder.up_blocks.2.resnets.0.conv2.bias = #stream.parameter.named<"model"::"vae.decoder.up_blocks.2.resnets.0.conv2.bias"> : tensor<256xf16>
  util.global private @__auto.vae.decoder.up_blocks.2.resnets.0.conv_shortcut.weight = #stream.parameter.named<"model"::"vae.decoder.up_blocks.2.resnets.0.conv_shortcut.weight"> : tensor<256x512x1x1xf16>
  util.global private @__auto.vae.decoder.up_blocks.2.resnets.0.conv_shortcut.bias = #stream.parameter.named<"model"::"vae.decoder.up_blocks.2.resnets.0.conv_shortcut.bias"> : tensor<256xf16>
  util.global private @__auto.vae.decoder.up_blocks.2.resnets.1.norm1.bias = #stream.parameter.named<"model"::"vae.decoder.up_blocks.2.resnets.1.norm1.bias"> : tensor<256xf16>
  util.global private @__auto.vae.decoder.up_blocks.2.resnets.1.norm1.weight = #stream.parameter.named<"model"::"vae.decoder.up_blocks.2.resnets.1.norm1.weight"> : tensor<256xf16>
  util.global private @__auto.vae.decoder.up_blocks.2.resnets.1.conv1.weight = #stream.parameter.named<"model"::"vae.decoder.up_blocks.2.resnets.1.conv1.weight"> : tensor<256x256x3x3xf16>
  util.global private @__auto.vae.decoder.up_blocks.2.resnets.1.conv1.bias = #stream.parameter.named<"model"::"vae.decoder.up_blocks.2.resnets.1.conv1.bias"> : tensor<256xf16>
  util.global private @__auto.vae.decoder.up_blocks.2.resnets.1.norm2.bias = #stream.parameter.named<"model"::"vae.decoder.up_blocks.2.resnets.1.norm2.bias"> : tensor<256xf16>
  util.global private @__auto.vae.decoder.up_blocks.2.resnets.1.norm2.weight = #stream.parameter.named<"model"::"vae.decoder.up_blocks.2.resnets.1.norm2.weight"> : tensor<256xf16>
  util.global private @__auto.vae.decoder.up_blocks.2.resnets.1.conv2.weight = #stream.parameter.named<"model"::"vae.decoder.up_blocks.2.resnets.1.conv2.weight"> : tensor<256x256x3x3xf16>
  util.global private @__auto.vae.decoder.up_blocks.2.resnets.1.conv2.bias = #stream.parameter.named<"model"::"vae.decoder.up_blocks.2.resnets.1.conv2.bias"> : tensor<256xf16>
  util.global private @__auto.vae.decoder.up_blocks.2.resnets.2.norm1.bias = #stream.parameter.named<"model"::"vae.decoder.up_blocks.2.resnets.2.norm1.bias"> : tensor<256xf16>
  util.global private @__auto.vae.decoder.up_blocks.2.resnets.2.norm1.weight = #stream.parameter.named<"model"::"vae.decoder.up_blocks.2.resnets.2.norm1.weight"> : tensor<256xf16>
  util.global private @__auto.vae.decoder.up_blocks.2.resnets.2.conv1.weight = #stream.parameter.named<"model"::"vae.decoder.up_blocks.2.resnets.2.conv1.weight"> : tensor<256x256x3x3xf16>
  util.global private @__auto.vae.decoder.up_blocks.2.resnets.2.conv1.bias = #stream.parameter.named<"model"::"vae.decoder.up_blocks.2.resnets.2.conv1.bias"> : tensor<256xf16>
  util.global private @__auto.vae.decoder.up_blocks.2.resnets.2.norm2.bias = #stream.parameter.named<"model"::"vae.decoder.up_blocks.2.resnets.2.norm2.bias"> : tensor<256xf16>
  util.global private @__auto.vae.decoder.up_blocks.2.resnets.2.norm2.weight = #stream.parameter.named<"model"::"vae.decoder.up_blocks.2.resnets.2.norm2.weight"> : tensor<256xf16>
  util.global private @__auto.vae.decoder.up_blocks.2.resnets.2.conv2.weight = #stream.parameter.named<"model"::"vae.decoder.up_blocks.2.resnets.2.conv2.weight"> : tensor<256x256x3x3xf16>
  util.global private @__auto.vae.decoder.up_blocks.2.resnets.2.conv2.bias = #stream.parameter.named<"model"::"vae.decoder.up_blocks.2.resnets.2.conv2.bias"> : tensor<256xf16>
  util.global private @__auto.vae.decoder.up_blocks.2.upsamplers.0.conv.weight = #stream.parameter.named<"model"::"vae.decoder.up_blocks.2.upsamplers.0.conv.weight"> : tensor<256x256x3x3xf16>
  util.global private @__auto.vae.decoder.up_blocks.2.upsamplers.0.conv.bias = #stream.parameter.named<"model"::"vae.decoder.up_blocks.2.upsamplers.0.conv.bias"> : tensor<256xf16>
  util.global private @__auto.vae.decoder.up_blocks.3.resnets.0.norm1.bias = #stream.parameter.named<"model"::"vae.decoder.up_blocks.3.resnets.0.norm1.bias"> : tensor<256xf16>
  util.global private @__auto.vae.decoder.up_blocks.3.resnets.0.norm1.weight = #stream.parameter.named<"model"::"vae.decoder.up_blocks.3.resnets.0.norm1.weight"> : tensor<256xf16>
  util.global private @__auto.vae.decoder.up_blocks.3.resnets.0.conv1.weight = #stream.parameter.named<"model"::"vae.decoder.up_blocks.3.resnets.0.conv1.weight"> : tensor<128x256x3x3xf16>
  util.global private @__auto.vae.decoder.up_blocks.3.resnets.0.conv1.bias = #stream.parameter.named<"model"::"vae.decoder.up_blocks.3.resnets.0.conv1.bias"> : tensor<128xf16>
  util.global private @__auto.vae.decoder.up_blocks.3.resnets.0.norm2.bias = #stream.parameter.named<"model"::"vae.decoder.up_blocks.3.resnets.0.norm2.bias"> : tensor<128xf16>
  util.global private @__auto.vae.decoder.up_blocks.3.resnets.0.norm2.weight = #stream.parameter.named<"model"::"vae.decoder.up_blocks.3.resnets.0.norm2.weight"> : tensor<128xf16>
  util.global private @__auto.vae.decoder.up_blocks.3.resnets.0.conv2.weight = #stream.parameter.named<"model"::"vae.decoder.up_blocks.3.resnets.0.conv2.weight"> : tensor<128x128x3x3xf16>
  util.global private @__auto.vae.decoder.up_blocks.3.resnets.0.conv2.bias = #stream.parameter.named<"model"::"vae.decoder.up_blocks.3.resnets.0.conv2.bias"> : tensor<128xf16>
  util.global private @__auto.vae.decoder.up_blocks.3.resnets.0.conv_shortcut.weight = #stream.parameter.named<"model"::"vae.decoder.up_blocks.3.resnets.0.conv_shortcut.weight"> : tensor<128x256x1x1xf16>
  util.global private @__auto.vae.decoder.up_blocks.3.resnets.0.conv_shortcut.bias = #stream.parameter.named<"model"::"vae.decoder.up_blocks.3.resnets.0.conv_shortcut.bias"> : tensor<128xf16>
  util.global private @__auto.vae.decoder.up_blocks.3.resnets.1.norm1.bias = #stream.parameter.named<"model"::"vae.decoder.up_blocks.3.resnets.1.norm1.bias"> : tensor<128xf16>
  util.global private @__auto.vae.decoder.up_blocks.3.resnets.1.norm1.weight = #stream.parameter.named<"model"::"vae.decoder.up_blocks.3.resnets.1.norm1.weight"> : tensor<128xf16>
  util.global private @__auto.vae.decoder.up_blocks.3.resnets.1.conv1.weight = #stream.parameter.named<"model"::"vae.decoder.up_blocks.3.resnets.1.conv1.weight"> : tensor<128x128x3x3xf16>
  util.global private @__auto.vae.decoder.up_blocks.3.resnets.1.conv1.bias = #stream.parameter.named<"model"::"vae.decoder.up_blocks.3.resnets.1.conv1.bias"> : tensor<128xf16>
  util.global private @__auto.vae.decoder.up_blocks.3.resnets.1.norm2.bias = #stream.parameter.named<"model"::"vae.decoder.up_blocks.3.resnets.1.norm2.bias"> : tensor<128xf16>
  util.global private @__auto.vae.decoder.up_blocks.3.resnets.1.norm2.weight = #stream.parameter.named<"model"::"vae.decoder.up_blocks.3.resnets.1.norm2.weight"> : tensor<128xf16>
  util.global private @__auto.vae.decoder.up_blocks.3.resnets.1.conv2.weight = #stream.parameter.named<"model"::"vae.decoder.up_blocks.3.resnets.1.conv2.weight"> : tensor<128x128x3x3xf16>
  util.global private @__auto.vae.decoder.up_blocks.3.resnets.1.conv2.bias = #stream.parameter.named<"model"::"vae.decoder.up_blocks.3.resnets.1.conv2.bias"> : tensor<128xf16>
  util.global private @__auto.vae.decoder.up_blocks.3.resnets.2.norm1.bias = #stream.parameter.named<"model"::"vae.decoder.up_blocks.3.resnets.2.norm1.bias"> : tensor<128xf16>
  util.global private @__auto.vae.decoder.up_blocks.3.resnets.2.norm1.weight = #stream.parameter.named<"model"::"vae.decoder.up_blocks.3.resnets.2.norm1.weight"> : tensor<128xf16>
  util.global private @__auto.vae.decoder.up_blocks.3.resnets.2.conv1.weight = #stream.parameter.named<"model"::"vae.decoder.up_blocks.3.resnets.2.conv1.weight"> : tensor<128x128x3x3xf16>
  util.global private @__auto.vae.decoder.up_blocks.3.resnets.2.conv1.bias = #stream.parameter.named<"model"::"vae.decoder.up_blocks.3.resnets.2.conv1.bias"> : tensor<128xf16>
  util.global private @__auto.vae.decoder.up_blocks.3.resnets.2.norm2.bias = #stream.parameter.named<"model"::"vae.decoder.up_blocks.3.resnets.2.norm2.bias"> : tensor<128xf16>
  util.global private @__auto.vae.decoder.up_blocks.3.resnets.2.norm2.weight = #stream.parameter.named<"model"::"vae.decoder.up_blocks.3.resnets.2.norm2.weight"> : tensor<128xf16>
  util.global private @__auto.vae.decoder.up_blocks.3.resnets.2.conv2.weight = #stream.parameter.named<"model"::"vae.decoder.up_blocks.3.resnets.2.conv2.weight"> : tensor<128x128x3x3xf16>
  util.global private @__auto.vae.decoder.up_blocks.3.resnets.2.conv2.bias = #stream.parameter.named<"model"::"vae.decoder.up_blocks.3.resnets.2.conv2.bias"> : tensor<128xf16>
  util.global private @__auto.vae.decoder.conv_norm_out.bias = #stream.parameter.named<"model"::"vae.decoder.conv_norm_out.bias"> : tensor<128xf16>
  util.global private @__auto.vae.decoder.conv_norm_out.weight = #stream.parameter.named<"model"::"vae.decoder.conv_norm_out.weight"> : tensor<128xf16>
  util.global private @__auto.vae.decoder.conv_out.weight = #stream.parameter.named<"model"::"vae.decoder.conv_out.weight"> : tensor<3x128x3x3xf16>
  util.global private @__auto.vae.decoder.conv_out.bias = #stream.parameter.named<"model"::"vae.decoder.conv_out.bias"> : tensor<3xf16>
  func.func @decode(%arg0: !torch.vtensor<[8,4,128,128],f16>) -> !torch.vtensor<[8,3,1024,1024],f16> attributes {torch.assume_strict_symbolic_shapes} {
    %float7.677540e00 = torch.constant.float 7.6775431861804221
    %0 = torch.aten.mul.Scalar %arg0, %float7.677540e00 : !torch.vtensor<[8,4,128,128],f16>, !torch.float -> !torch.vtensor<[8,4,128,128],f16>
    %__auto.vae.post_quant_conv.weight = util.global.load @__auto.vae.post_quant_conv.weight : tensor<4x4x1x1xf16>
    %1 = torch_c.from_builtin_tensor %__auto.vae.post_quant_conv.weight : tensor<4x4x1x1xf16> -> !torch.vtensor<[4,4,1,1],f16>
    %__auto.vae.post_quant_conv.bias = util.global.load @__auto.vae.post_quant_conv.bias : tensor<4xf16>
    %2 = torch_c.from_builtin_tensor %__auto.vae.post_quant_conv.bias : tensor<4xf16> -> !torch.vtensor<[4],f16>
    %int1 = torch.constant.int 1
    %int1_0 = torch.constant.int 1
    %3 = torch.prim.ListConstruct %int1, %int1_0 : (!torch.int, !torch.int) -> !torch.list<int>
    %int0 = torch.constant.int 0
    %int0_1 = torch.constant.int 0
    %4 = torch.prim.ListConstruct %int0, %int0_1 : (!torch.int, !torch.int) -> !torch.list<int>
    %int1_2 = torch.constant.int 1
    %int1_3 = torch.constant.int 1
    %5 = torch.prim.ListConstruct %int1_2, %int1_3 : (!torch.int, !torch.int) -> !torch.list<int>
    %false = torch.constant.bool false
    %int0_4 = torch.constant.int 0
    %int0_5 = torch.constant.int 0
    %6 = torch.prim.ListConstruct %int0_4, %int0_5 : (!torch.int, !torch.int) -> !torch.list<int>
    %int1_6 = torch.constant.int 1
    %7 = torch.aten.convolution %0, %1, %2, %3, %4, %5, %false, %6, %int1_6 : !torch.vtensor<[8,4,128,128],f16>, !torch.vtensor<[4,4,1,1],f16>, !torch.vtensor<[4],f16>, !torch.list<int>, !torch.list<int>, !torch.list<int>, !torch.bool, !torch.list<int>, !torch.int -> !torch.vtensor<[8,4,128,128],f16>
    %__auto.vae.decoder.conv_in.weight = util.global.load @__auto.vae.decoder.conv_in.weight : tensor<512x4x3x3xf16>
    %8 = torch_c.from_builtin_tensor %__auto.vae.decoder.conv_in.weight : tensor<512x4x3x3xf16> -> !torch.vtensor<[512,4,3,3],f16>
    %__auto.vae.decoder.conv_in.bias = util.global.load @__auto.vae.decoder.conv_in.bias : tensor<512xf16>
    %9 = torch_c.from_builtin_tensor %__auto.vae.decoder.conv_in.bias : tensor<512xf16> -> !torch.vtensor<[512],f16>
    %int1_7 = torch.constant.int 1
    %int1_8 = torch.constant.int 1
    %10 = torch.prim.ListConstruct %int1_7, %int1_8 : (!torch.int, !torch.int) -> !torch.list<int>
    %int1_9 = torch.constant.int 1
    %int1_10 = torch.constant.int 1
    %11 = torch.prim.ListConstruct %int1_9, %int1_10 : (!torch.int, !torch.int) -> !torch.list<int>
    %int1_11 = torch.constant.int 1
    %int1_12 = torch.constant.int 1
    %12 = torch.prim.ListConstruct %int1_11, %int1_12 : (!torch.int, !torch.int) -> !torch.list<int>
    %false_13 = torch.constant.bool false
    %int0_14 = torch.constant.int 0
    %int0_15 = torch.constant.int 0
    %13 = torch.prim.ListConstruct %int0_14, %int0_15 : (!torch.int, !torch.int) -> !torch.list<int>
    %int1_16 = torch.constant.int 1
    %14 = torch.aten.convolution %7, %8, %9, %10, %11, %12, %false_13, %13, %int1_16 : !torch.vtensor<[8,4,128,128],f16>, !torch.vtensor<[512,4,3,3],f16>, !torch.vtensor<[512],f16>, !torch.list<int>, !torch.list<int>, !torch.list<int>, !torch.bool, !torch.list<int>, !torch.int -> !torch.vtensor<[8,512,128,128],f16>
    %int8 = torch.constant.int 8
    %int32 = torch.constant.int 32
    %int16 = torch.constant.int 16
    %int16384 = torch.constant.int 16384
    %15 = torch.prim.ListConstruct %int8, %int32, %int16, %int16384 : (!torch.int, !torch.int, !torch.int, !torch.int) -> !torch.list<int>
    %16 = torch.aten.view %14, %15 : !torch.vtensor<[8,512,128,128],f16>, !torch.list<int> -> !torch.vtensor<[8,32,16,16384],f16>
    %int6 = torch.constant.int 6
    %17 = torch.prims.convert_element_type %16, %int6 : !torch.vtensor<[8,32,16,16384],f16>, !torch.int -> !torch.vtensor<[8,32,16,16384],f32>
    %int2 = torch.constant.int 2
    %int3 = torch.constant.int 3
    %18 = torch.prim.ListConstruct %int2, %int3 : (!torch.int, !torch.int) -> !torch.list<int>
    %int0_17 = torch.constant.int 0
    %true = torch.constant.bool true
    %result0, %result1 = torch.aten.var_mean.correction %17, %18, %int0_17, %true : !torch.vtensor<[8,32,16,16384],f32>, !torch.list<int>, !torch.int, !torch.bool -> !torch.vtensor<[8,32,1,1],f32>, !torch.vtensor<[8,32,1,1],f32>
    %float9.999990e-07 = torch.constant.float 9.9999999999999995E-7
    %int1_18 = torch.constant.int 1
    %19 = torch.aten.add.Scalar %result0, %float9.999990e-07, %int1_18 : !torch.vtensor<[8,32,1,1],f32>, !torch.float, !torch.int -> !torch.vtensor<[8,32,1,1],f32>
    %20 = torch.aten.rsqrt %19 : !torch.vtensor<[8,32,1,1],f32> -> !torch.vtensor<[8,32,1,1],f32>
    %int1_19 = torch.constant.int 1
    %21 = torch.aten.sub.Tensor %16, %result1, %int1_19 : !torch.vtensor<[8,32,16,16384],f16>, !torch.vtensor<[8,32,1,1],f32>, !torch.int -> !torch.vtensor<[8,32,16,16384],f32>
    %22 = torch.aten.mul.Tensor %21, %20 : !torch.vtensor<[8,32,16,16384],f32>, !torch.vtensor<[8,32,1,1],f32> -> !torch.vtensor<[8,32,16,16384],f32>
    %int8_20 = torch.constant.int 8
    %int512 = torch.constant.int 512
    %int128 = torch.constant.int 128
    %int128_21 = torch.constant.int 128
    %23 = torch.prim.ListConstruct %int8_20, %int512, %int128, %int128_21 : (!torch.int, !torch.int, !torch.int, !torch.int) -> !torch.list<int>
    %24 = torch.aten.view %22, %23 : !torch.vtensor<[8,32,16,16384],f32>, !torch.list<int> -> !torch.vtensor<[8,512,128,128],f32>
    %__auto.vae.decoder.mid_block.resnets.0.norm1.bias = util.global.load @__auto.vae.decoder.mid_block.resnets.0.norm1.bias : tensor<512xf16>
    %25 = torch_c.from_builtin_tensor %__auto.vae.decoder.mid_block.resnets.0.norm1.bias : tensor<512xf16> -> !torch.vtensor<[512],f16>
    %int0_22 = torch.constant.int 0
    %26 = torch.aten.unsqueeze %25, %int0_22 : !torch.vtensor<[512],f16>, !torch.int -> !torch.vtensor<[1,512],f16>
    %int2_23 = torch.constant.int 2
    %27 = torch.aten.unsqueeze %26, %int2_23 : !torch.vtensor<[1,512],f16>, !torch.int -> !torch.vtensor<[1,512,1],f16>
    %int3_24 = torch.constant.int 3
    %28 = torch.aten.unsqueeze %27, %int3_24 : !torch.vtensor<[1,512,1],f16>, !torch.int -> !torch.vtensor<[1,512,1,1],f16>
    %__auto.vae.decoder.mid_block.resnets.0.norm1.weight = util.global.load @__auto.vae.decoder.mid_block.resnets.0.norm1.weight : tensor<512xf16>
    %29 = torch_c.from_builtin_tensor %__auto.vae.decoder.mid_block.resnets.0.norm1.weight : tensor<512xf16> -> !torch.vtensor<[512],f16>
    %int0_25 = torch.constant.int 0
    %30 = torch.aten.unsqueeze %29, %int0_25 : !torch.vtensor<[512],f16>, !torch.int -> !torch.vtensor<[1,512],f16>
    %int2_26 = torch.constant.int 2
    %31 = torch.aten.unsqueeze %30, %int2_26 : !torch.vtensor<[1,512],f16>, !torch.int -> !torch.vtensor<[1,512,1],f16>
    %int3_27 = torch.constant.int 3
    %32 = torch.aten.unsqueeze %31, %int3_27 : !torch.vtensor<[1,512,1],f16>, !torch.int -> !torch.vtensor<[1,512,1,1],f16>
    %33 = torch.aten.mul.Tensor %24, %32 : !torch.vtensor<[8,512,128,128],f32>, !torch.vtensor<[1,512,1,1],f16> -> !torch.vtensor<[8,512,128,128],f32>
    %int1_28 = torch.constant.int 1
    %34 = torch.aten.add.Tensor %33, %28, %int1_28 : !torch.vtensor<[8,512,128,128],f32>, !torch.vtensor<[1,512,1,1],f16>, !torch.int -> !torch.vtensor<[8,512,128,128],f32>
    %int5 = torch.constant.int 5
    %35 = torch.prims.convert_element_type %34, %int5 : !torch.vtensor<[8,512,128,128],f32>, !torch.int -> !torch.vtensor<[8,512,128,128],f16>
    %36 = torch.aten.silu %35 : !torch.vtensor<[8,512,128,128],f16> -> !torch.vtensor<[8,512,128,128],f16>
    %__auto.vae.decoder.mid_block.resnets.0.conv1.weight = util.global.load @__auto.vae.decoder.mid_block.resnets.0.conv1.weight : tensor<512x512x3x3xf16>
    %37 = torch_c.from_builtin_tensor %__auto.vae.decoder.mid_block.resnets.0.conv1.weight : tensor<512x512x3x3xf16> -> !torch.vtensor<[512,512,3,3],f16>
    %__auto.vae.decoder.mid_block.resnets.0.conv1.bias = util.global.load @__auto.vae.decoder.mid_block.resnets.0.conv1.bias : tensor<512xf16>
    %38 = torch_c.from_builtin_tensor %__auto.vae.decoder.mid_block.resnets.0.conv1.bias : tensor<512xf16> -> !torch.vtensor<[512],f16>
    %int1_29 = torch.constant.int 1
    %int1_30 = torch.constant.int 1
    %39 = torch.prim.ListConstruct %int1_29, %int1_30 : (!torch.int, !torch.int) -> !torch.list<int>
    %int1_31 = torch.constant.int 1
    %int1_32 = torch.constant.int 1
    %40 = torch.prim.ListConstruct %int1_31, %int1_32 : (!torch.int, !torch.int) -> !torch.list<int>
    %int1_33 = torch.constant.int 1
    %int1_34 = torch.constant.int 1
    %41 = torch.prim.ListConstruct %int1_33, %int1_34 : (!torch.int, !torch.int) -> !torch.list<int>
    %false_35 = torch.constant.bool false
    %int0_36 = torch.constant.int 0
    %int0_37 = torch.constant.int 0
    %42 = torch.prim.ListConstruct %int0_36, %int0_37 : (!torch.int, !torch.int) -> !torch.list<int>
    %int1_38 = torch.constant.int 1
    %43 = torch.aten.convolution %36, %37, %38, %39, %40, %41, %false_35, %42, %int1_38 : !torch.vtensor<[8,512,128,128],f16>, !torch.vtensor<[512,512,3,3],f16>, !torch.vtensor<[512],f16>, !torch.list<int>, !torch.list<int>, !torch.list<int>, !torch.bool, !torch.list<int>, !torch.int -> !torch.vtensor<[8,512,128,128],f16>
    %int8_39 = torch.constant.int 8
    %int32_40 = torch.constant.int 32
    %int16_41 = torch.constant.int 16
    %int16384_42 = torch.constant.int 16384
    %44 = torch.prim.ListConstruct %int8_39, %int32_40, %int16_41, %int16384_42 : (!torch.int, !torch.int, !torch.int, !torch.int) -> !torch.list<int>
    %45 = torch.aten.view %43, %44 : !torch.vtensor<[8,512,128,128],f16>, !torch.list<int> -> !torch.vtensor<[8,32,16,16384],f16>
    %int6_43 = torch.constant.int 6
    %46 = torch.prims.convert_element_type %45, %int6_43 : !torch.vtensor<[8,32,16,16384],f16>, !torch.int -> !torch.vtensor<[8,32,16,16384],f32>
    %int2_44 = torch.constant.int 2
    %int3_45 = torch.constant.int 3
    %47 = torch.prim.ListConstruct %int2_44, %int3_45 : (!torch.int, !torch.int) -> !torch.list<int>
    %int0_46 = torch.constant.int 0
    %true_47 = torch.constant.bool true
    %result0_48, %result1_49 = torch.aten.var_mean.correction %46, %47, %int0_46, %true_47 : !torch.vtensor<[8,32,16,16384],f32>, !torch.list<int>, !torch.int, !torch.bool -> !torch.vtensor<[8,32,1,1],f32>, !torch.vtensor<[8,32,1,1],f32>
    %float9.999990e-07_50 = torch.constant.float 9.9999999999999995E-7
    %int1_51 = torch.constant.int 1
    %48 = torch.aten.add.Scalar %result0_48, %float9.999990e-07_50, %int1_51 : !torch.vtensor<[8,32,1,1],f32>, !torch.float, !torch.int -> !torch.vtensor<[8,32,1,1],f32>
    %49 = torch.aten.rsqrt %48 : !torch.vtensor<[8,32,1,1],f32> -> !torch.vtensor<[8,32,1,1],f32>
    %int1_52 = torch.constant.int 1
    %50 = torch.aten.sub.Tensor %45, %result1_49, %int1_52 : !torch.vtensor<[8,32,16,16384],f16>, !torch.vtensor<[8,32,1,1],f32>, !torch.int -> !torch.vtensor<[8,32,16,16384],f32>
    %51 = torch.aten.mul.Tensor %50, %49 : !torch.vtensor<[8,32,16,16384],f32>, !torch.vtensor<[8,32,1,1],f32> -> !torch.vtensor<[8,32,16,16384],f32>
    %int8_53 = torch.constant.int 8
    %int512_54 = torch.constant.int 512
    %int128_55 = torch.constant.int 128
    %int128_56 = torch.constant.int 128
    %52 = torch.prim.ListConstruct %int8_53, %int512_54, %int128_55, %int128_56 : (!torch.int, !torch.int, !torch.int, !torch.int) -> !torch.list<int>
    %53 = torch.aten.view %51, %52 : !torch.vtensor<[8,32,16,16384],f32>, !torch.list<int> -> !torch.vtensor<[8,512,128,128],f32>
    %__auto.vae.decoder.mid_block.resnets.0.norm2.bias = util.global.load @__auto.vae.decoder.mid_block.resnets.0.norm2.bias : tensor<512xf16>
    %54 = torch_c.from_builtin_tensor %__auto.vae.decoder.mid_block.resnets.0.norm2.bias : tensor<512xf16> -> !torch.vtensor<[512],f16>
    %int0_57 = torch.constant.int 0
    %55 = torch.aten.unsqueeze %54, %int0_57 : !torch.vtensor<[512],f16>, !torch.int -> !torch.vtensor<[1,512],f16>
    %int2_58 = torch.constant.int 2
    %56 = torch.aten.unsqueeze %55, %int2_58 : !torch.vtensor<[1,512],f16>, !torch.int -> !torch.vtensor<[1,512,1],f16>
    %int3_59 = torch.constant.int 3
    %57 = torch.aten.unsqueeze %56, %int3_59 : !torch.vtensor<[1,512,1],f16>, !torch.int -> !torch.vtensor<[1,512,1,1],f16>
    %__auto.vae.decoder.mid_block.resnets.0.norm2.weight = util.global.load @__auto.vae.decoder.mid_block.resnets.0.norm2.weight : tensor<512xf16>
    %58 = torch_c.from_builtin_tensor %__auto.vae.decoder.mid_block.resnets.0.norm2.weight : tensor<512xf16> -> !torch.vtensor<[512],f16>
    %int0_60 = torch.constant.int 0
    %59 = torch.aten.unsqueeze %58, %int0_60 : !torch.vtensor<[512],f16>, !torch.int -> !torch.vtensor<[1,512],f16>
    %int2_61 = torch.constant.int 2
    %60 = torch.aten.unsqueeze %59, %int2_61 : !torch.vtensor<[1,512],f16>, !torch.int -> !torch.vtensor<[1,512,1],f16>
    %int3_62 = torch.constant.int 3
    %61 = torch.aten.unsqueeze %60, %int3_62 : !torch.vtensor<[1,512,1],f16>, !torch.int -> !torch.vtensor<[1,512,1,1],f16>
    %62 = torch.aten.mul.Tensor %53, %61 : !torch.vtensor<[8,512,128,128],f32>, !torch.vtensor<[1,512,1,1],f16> -> !torch.vtensor<[8,512,128,128],f32>
    %int1_63 = torch.constant.int 1
    %63 = torch.aten.add.Tensor %62, %57, %int1_63 : !torch.vtensor<[8,512,128,128],f32>, !torch.vtensor<[1,512,1,1],f16>, !torch.int -> !torch.vtensor<[8,512,128,128],f32>
    %int5_64 = torch.constant.int 5
    %64 = torch.prims.convert_element_type %63, %int5_64 : !torch.vtensor<[8,512,128,128],f32>, !torch.int -> !torch.vtensor<[8,512,128,128],f16>
    %65 = torch.aten.silu %64 : !torch.vtensor<[8,512,128,128],f16> -> !torch.vtensor<[8,512,128,128],f16>
    %none = torch.constant.none
    %66 = torch.aten.clone %65, %none : !torch.vtensor<[8,512,128,128],f16>, !torch.none -> !torch.vtensor<[8,512,128,128],f16>
    %__auto.vae.decoder.mid_block.resnets.0.conv2.weight = util.global.load @__auto.vae.decoder.mid_block.resnets.0.conv2.weight : tensor<512x512x3x3xf16>
    %67 = torch_c.from_builtin_tensor %__auto.vae.decoder.mid_block.resnets.0.conv2.weight : tensor<512x512x3x3xf16> -> !torch.vtensor<[512,512,3,3],f16>
    %__auto.vae.decoder.mid_block.resnets.0.conv2.bias = util.global.load @__auto.vae.decoder.mid_block.resnets.0.conv2.bias : tensor<512xf16>
    %68 = torch_c.from_builtin_tensor %__auto.vae.decoder.mid_block.resnets.0.conv2.bias : tensor<512xf16> -> !torch.vtensor<[512],f16>
    %int1_65 = torch.constant.int 1
    %int1_66 = torch.constant.int 1
    %69 = torch.prim.ListConstruct %int1_65, %int1_66 : (!torch.int, !torch.int) -> !torch.list<int>
    %int1_67 = torch.constant.int 1
    %int1_68 = torch.constant.int 1
    %70 = torch.prim.ListConstruct %int1_67, %int1_68 : (!torch.int, !torch.int) -> !torch.list<int>
    %int1_69 = torch.constant.int 1
    %int1_70 = torch.constant.int 1
    %71 = torch.prim.ListConstruct %int1_69, %int1_70 : (!torch.int, !torch.int) -> !torch.list<int>
    %false_71 = torch.constant.bool false
    %int0_72 = torch.constant.int 0
    %int0_73 = torch.constant.int 0
    %72 = torch.prim.ListConstruct %int0_72, %int0_73 : (!torch.int, !torch.int) -> !torch.list<int>
    %int1_74 = torch.constant.int 1
    %73 = torch.aten.convolution %66, %67, %68, %69, %70, %71, %false_71, %72, %int1_74 : !torch.vtensor<[8,512,128,128],f16>, !torch.vtensor<[512,512,3,3],f16>, !torch.vtensor<[512],f16>, !torch.list<int>, !torch.list<int>, !torch.list<int>, !torch.bool, !torch.list<int>, !torch.int -> !torch.vtensor<[8,512,128,128],f16>
    %int1_75 = torch.constant.int 1
    %74 = torch.aten.add.Tensor %14, %73, %int1_75 : !torch.vtensor<[8,512,128,128],f16>, !torch.vtensor<[8,512,128,128],f16>, !torch.int -> !torch.vtensor<[8,512,128,128],f16>
    %int1_76 = torch.constant.int 1
    %75 = torch.aten.div.Scalar %74, %int1_76 : !torch.vtensor<[8,512,128,128],f16>, !torch.int -> !torch.vtensor<[8,512,128,128],f16>
    %int8_77 = torch.constant.int 8
    %int512_78 = torch.constant.int 512
    %int16384_79 = torch.constant.int 16384
    %76 = torch.prim.ListConstruct %int8_77, %int512_78, %int16384_79 : (!torch.int, !torch.int, !torch.int) -> !torch.list<int>
    %77 = torch.aten.view %75, %76 : !torch.vtensor<[8,512,128,128],f16>, !torch.list<int> -> !torch.vtensor<[8,512,16384],f16>
    %int1_80 = torch.constant.int 1
    %int2_81 = torch.constant.int 2
    %78 = torch.aten.transpose.int %77, %int1_80, %int2_81 : !torch.vtensor<[8,512,16384],f16>, !torch.int, !torch.int -> !torch.vtensor<[8,16384,512],f16>
    %int1_82 = torch.constant.int 1
    %int2_83 = torch.constant.int 2
    %79 = torch.aten.transpose.int %78, %int1_82, %int2_83 : !torch.vtensor<[8,16384,512],f16>, !torch.int, !torch.int -> !torch.vtensor<[8,512,16384],f16>
    %int8_84 = torch.constant.int 8
    %int32_85 = torch.constant.int 32
    %int16_86 = torch.constant.int 16
    %int16384_87 = torch.constant.int 16384
    %80 = torch.prim.ListConstruct %int8_84, %int32_85, %int16_86, %int16384_87 : (!torch.int, !torch.int, !torch.int, !torch.int) -> !torch.list<int>
    %81 = torch.aten.view %79, %80 : !torch.vtensor<[8,512,16384],f16>, !torch.list<int> -> !torch.vtensor<[8,32,16,16384],f16>
    %int6_88 = torch.constant.int 6
    %82 = torch.prims.convert_element_type %81, %int6_88 : !torch.vtensor<[8,32,16,16384],f16>, !torch.int -> !torch.vtensor<[8,32,16,16384],f32>
    %int2_89 = torch.constant.int 2
    %int3_90 = torch.constant.int 3
    %83 = torch.prim.ListConstruct %int2_89, %int3_90 : (!torch.int, !torch.int) -> !torch.list<int>
    %int0_91 = torch.constant.int 0
    %true_92 = torch.constant.bool true
    %result0_93, %result1_94 = torch.aten.var_mean.correction %82, %83, %int0_91, %true_92 : !torch.vtensor<[8,32,16,16384],f32>, !torch.list<int>, !torch.int, !torch.bool -> !torch.vtensor<[8,32,1,1],f32>, !torch.vtensor<[8,32,1,1],f32>
    %float9.999990e-07_95 = torch.constant.float 9.9999999999999995E-7
    %int1_96 = torch.constant.int 1
    %84 = torch.aten.add.Scalar %result0_93, %float9.999990e-07_95, %int1_96 : !torch.vtensor<[8,32,1,1],f32>, !torch.float, !torch.int -> !torch.vtensor<[8,32,1,1],f32>
    %85 = torch.aten.rsqrt %84 : !torch.vtensor<[8,32,1,1],f32> -> !torch.vtensor<[8,32,1,1],f32>
    %int1_97 = torch.constant.int 1
    %86 = torch.aten.sub.Tensor %81, %result1_94, %int1_97 : !torch.vtensor<[8,32,16,16384],f16>, !torch.vtensor<[8,32,1,1],f32>, !torch.int -> !torch.vtensor<[8,32,16,16384],f32>
    %87 = torch.aten.mul.Tensor %86, %85 : !torch.vtensor<[8,32,16,16384],f32>, !torch.vtensor<[8,32,1,1],f32> -> !torch.vtensor<[8,32,16,16384],f32>
    %int8_98 = torch.constant.int 8
    %int512_99 = torch.constant.int 512
    %int16384_100 = torch.constant.int 16384
    %88 = torch.prim.ListConstruct %int8_98, %int512_99, %int16384_100 : (!torch.int, !torch.int, !torch.int) -> !torch.list<int>
    %89 = torch.aten.view %87, %88 : !torch.vtensor<[8,32,16,16384],f32>, !torch.list<int> -> !torch.vtensor<[8,512,16384],f32>
    %__auto.vae.decoder.mid_block.attentions.0.group_norm.bias = util.global.load @__auto.vae.decoder.mid_block.attentions.0.group_norm.bias : tensor<512xf16>
    %90 = torch_c.from_builtin_tensor %__auto.vae.decoder.mid_block.attentions.0.group_norm.bias : tensor<512xf16> -> !torch.vtensor<[512],f16>
    %int0_101 = torch.constant.int 0
    %91 = torch.aten.unsqueeze %90, %int0_101 : !torch.vtensor<[512],f16>, !torch.int -> !torch.vtensor<[1,512],f16>
    %int2_102 = torch.constant.int 2
    %92 = torch.aten.unsqueeze %91, %int2_102 : !torch.vtensor<[1,512],f16>, !torch.int -> !torch.vtensor<[1,512,1],f16>
    %__auto.vae.decoder.mid_block.attentions.0.group_norm.weight = util.global.load @__auto.vae.decoder.mid_block.attentions.0.group_norm.weight : tensor<512xf16>
    %93 = torch_c.from_builtin_tensor %__auto.vae.decoder.mid_block.attentions.0.group_norm.weight : tensor<512xf16> -> !torch.vtensor<[512],f16>
    %int0_103 = torch.constant.int 0
    %94 = torch.aten.unsqueeze %93, %int0_103 : !torch.vtensor<[512],f16>, !torch.int -> !torch.vtensor<[1,512],f16>
    %int2_104 = torch.constant.int 2
    %95 = torch.aten.unsqueeze %94, %int2_104 : !torch.vtensor<[1,512],f16>, !torch.int -> !torch.vtensor<[1,512,1],f16>
    %96 = torch.aten.mul.Tensor %89, %95 : !torch.vtensor<[8,512,16384],f32>, !torch.vtensor<[1,512,1],f16> -> !torch.vtensor<[8,512,16384],f32>
    %int1_105 = torch.constant.int 1
    %97 = torch.aten.add.Tensor %96, %92, %int1_105 : !torch.vtensor<[8,512,16384],f32>, !torch.vtensor<[1,512,1],f16>, !torch.int -> !torch.vtensor<[8,512,16384],f32>
    %int5_106 = torch.constant.int 5
    %98 = torch.prims.convert_element_type %97, %int5_106 : !torch.vtensor<[8,512,16384],f32>, !torch.int -> !torch.vtensor<[8,512,16384],f16>
    %int1_107 = torch.constant.int 1
    %int2_108 = torch.constant.int 2
    %99 = torch.aten.transpose.int %98, %int1_107, %int2_108 : !torch.vtensor<[8,512,16384],f16>, !torch.int, !torch.int -> !torch.vtensor<[8,16384,512],f16>
    %__auto.vae.decoder.mid_block.attentions.0.to_q.weight = util.global.load @__auto.vae.decoder.mid_block.attentions.0.to_q.weight : tensor<512x512xf16>
    %100 = torch_c.from_builtin_tensor %__auto.vae.decoder.mid_block.attentions.0.to_q.weight : tensor<512x512xf16> -> !torch.vtensor<[512,512],f16>
    %int0_109 = torch.constant.int 0
    %int1_110 = torch.constant.int 1
    %101 = torch.aten.transpose.int %100, %int0_109, %int1_110 : !torch.vtensor<[512,512],f16>, !torch.int, !torch.int -> !torch.vtensor<[512,512],f16>
    %int0_111 = torch.constant.int 0
    %102 = torch.aten.clone %99, %int0_111 : !torch.vtensor<[8,16384,512],f16>, !torch.int -> !torch.vtensor<[8,16384,512],f16>
    %int131072 = torch.constant.int 131072
    %int512_112 = torch.constant.int 512
    %103 = torch.prim.ListConstruct %int131072, %int512_112 : (!torch.int, !torch.int) -> !torch.list<int>
    %104 = torch.aten._unsafe_view %102, %103 : !torch.vtensor<[8,16384,512],f16>, !torch.list<int> -> !torch.vtensor<[131072,512],f16>
    %105 = torch.aten.mm %104, %101 : !torch.vtensor<[131072,512],f16>, !torch.vtensor<[512,512],f16> -> !torch.vtensor<[131072,512],f16>
    %int8_113 = torch.constant.int 8
    %int16384_114 = torch.constant.int 16384
    %int512_115 = torch.constant.int 512
    %106 = torch.prim.ListConstruct %int8_113, %int16384_114, %int512_115 : (!torch.int, !torch.int, !torch.int) -> !torch.list<int>
    %107 = torch.aten.view %105, %106 : !torch.vtensor<[131072,512],f16>, !torch.list<int> -> !torch.vtensor<[8,16384,512],f16>
    %__auto.vae.decoder.mid_block.attentions.0.to_q.bias = util.global.load @__auto.vae.decoder.mid_block.attentions.0.to_q.bias : tensor<512xf16>
    %108 = torch_c.from_builtin_tensor %__auto.vae.decoder.mid_block.attentions.0.to_q.bias : tensor<512xf16> -> !torch.vtensor<[512],f16>
    %int1_116 = torch.constant.int 1
    %109 = torch.aten.add.Tensor %107, %108, %int1_116 : !torch.vtensor<[8,16384,512],f16>, !torch.vtensor<[512],f16>, !torch.int -> !torch.vtensor<[8,16384,512],f16>
    %__auto.vae.decoder.mid_block.attentions.0.to_k.weight = util.global.load @__auto.vae.decoder.mid_block.attentions.0.to_k.weight : tensor<512x512xf16>
    %110 = torch_c.from_builtin_tensor %__auto.vae.decoder.mid_block.attentions.0.to_k.weight : tensor<512x512xf16> -> !torch.vtensor<[512,512],f16>
    %int0_117 = torch.constant.int 0
    %int1_118 = torch.constant.int 1
    %111 = torch.aten.transpose.int %110, %int0_117, %int1_118 : !torch.vtensor<[512,512],f16>, !torch.int, !torch.int -> !torch.vtensor<[512,512],f16>
    %int0_119 = torch.constant.int 0
    %112 = torch.aten.clone %99, %int0_119 : !torch.vtensor<[8,16384,512],f16>, !torch.int -> !torch.vtensor<[8,16384,512],f16>
    %int131072_120 = torch.constant.int 131072
    %int512_121 = torch.constant.int 512
    %113 = torch.prim.ListConstruct %int131072_120, %int512_121 : (!torch.int, !torch.int) -> !torch.list<int>
    %114 = torch.aten._unsafe_view %112, %113 : !torch.vtensor<[8,16384,512],f16>, !torch.list<int> -> !torch.vtensor<[131072,512],f16>
    %115 = torch.aten.mm %114, %111 : !torch.vtensor<[131072,512],f16>, !torch.vtensor<[512,512],f16> -> !torch.vtensor<[131072,512],f16>
    %int8_122 = torch.constant.int 8
    %int16384_123 = torch.constant.int 16384
    %int512_124 = torch.constant.int 512
    %116 = torch.prim.ListConstruct %int8_122, %int16384_123, %int512_124 : (!torch.int, !torch.int, !torch.int) -> !torch.list<int>
    %117 = torch.aten.view %115, %116 : !torch.vtensor<[131072,512],f16>, !torch.list<int> -> !torch.vtensor<[8,16384,512],f16>
    %__auto.vae.decoder.mid_block.attentions.0.to_k.bias = util.global.load @__auto.vae.decoder.mid_block.attentions.0.to_k.bias : tensor<512xf16>
    %118 = torch_c.from_builtin_tensor %__auto.vae.decoder.mid_block.attentions.0.to_k.bias : tensor<512xf16> -> !torch.vtensor<[512],f16>
    %int1_125 = torch.constant.int 1
    %119 = torch.aten.add.Tensor %117, %118, %int1_125 : !torch.vtensor<[8,16384,512],f16>, !torch.vtensor<[512],f16>, !torch.int -> !torch.vtensor<[8,16384,512],f16>
    %__auto.vae.decoder.mid_block.attentions.0.to_v.weight = util.global.load @__auto.vae.decoder.mid_block.attentions.0.to_v.weight : tensor<512x512xf16>
    %120 = torch_c.from_builtin_tensor %__auto.vae.decoder.mid_block.attentions.0.to_v.weight : tensor<512x512xf16> -> !torch.vtensor<[512,512],f16>
    %int0_126 = torch.constant.int 0
    %int1_127 = torch.constant.int 1
    %121 = torch.aten.transpose.int %120, %int0_126, %int1_127 : !torch.vtensor<[512,512],f16>, !torch.int, !torch.int -> !torch.vtensor<[512,512],f16>
    %int0_128 = torch.constant.int 0
    %122 = torch.aten.clone %99, %int0_128 : !torch.vtensor<[8,16384,512],f16>, !torch.int -> !torch.vtensor<[8,16384,512],f16>
    %int131072_129 = torch.constant.int 131072
    %int512_130 = torch.constant.int 512
    %123 = torch.prim.ListConstruct %int131072_129, %int512_130 : (!torch.int, !torch.int) -> !torch.list<int>
    %124 = torch.aten._unsafe_view %122, %123 : !torch.vtensor<[8,16384,512],f16>, !torch.list<int> -> !torch.vtensor<[131072,512],f16>
    %125 = torch.aten.mm %124, %121 : !torch.vtensor<[131072,512],f16>, !torch.vtensor<[512,512],f16> -> !torch.vtensor<[131072,512],f16>
    %int8_131 = torch.constant.int 8
    %int16384_132 = torch.constant.int 16384
    %int512_133 = torch.constant.int 512
    %126 = torch.prim.ListConstruct %int8_131, %int16384_132, %int512_133 : (!torch.int, !torch.int, !torch.int) -> !torch.list<int>
    %127 = torch.aten.view %125, %126 : !torch.vtensor<[131072,512],f16>, !torch.list<int> -> !torch.vtensor<[8,16384,512],f16>
    %__auto.vae.decoder.mid_block.attentions.0.to_v.bias = util.global.load @__auto.vae.decoder.mid_block.attentions.0.to_v.bias : tensor<512xf16>
    %128 = torch_c.from_builtin_tensor %__auto.vae.decoder.mid_block.attentions.0.to_v.bias : tensor<512xf16> -> !torch.vtensor<[512],f16>
    %int1_134 = torch.constant.int 1
    %129 = torch.aten.add.Tensor %127, %128, %int1_134 : !torch.vtensor<[8,16384,512],f16>, !torch.vtensor<[512],f16>, !torch.int -> !torch.vtensor<[8,16384,512],f16>
    %int8_135 = torch.constant.int 8
    %int-1 = torch.constant.int -1
    %int1_136 = torch.constant.int 1
    %int512_137 = torch.constant.int 512
    %130 = torch.prim.ListConstruct %int8_135, %int-1, %int1_136, %int512_137 : (!torch.int, !torch.int, !torch.int, !torch.int) -> !torch.list<int>
    %131 = torch.aten.view %109, %130 : !torch.vtensor<[8,16384,512],f16>, !torch.list<int> -> !torch.vtensor<[8,16384,1,512],f16>
    %int1_138 = torch.constant.int 1
    %int2_139 = torch.constant.int 2
    %132 = torch.aten.transpose.int %131, %int1_138, %int2_139 : !torch.vtensor<[8,16384,1,512],f16>, !torch.int, !torch.int -> !torch.vtensor<[8,1,16384,512],f16>
    %int8_140 = torch.constant.int 8
    %int-1_141 = torch.constant.int -1
    %int1_142 = torch.constant.int 1
    %int512_143 = torch.constant.int 512
    %133 = torch.prim.ListConstruct %int8_140, %int-1_141, %int1_142, %int512_143 : (!torch.int, !torch.int, !torch.int, !torch.int) -> !torch.list<int>
    %134 = torch.aten.view %119, %133 : !torch.vtensor<[8,16384,512],f16>, !torch.list<int> -> !torch.vtensor<[8,16384,1,512],f16>
    %int1_144 = torch.constant.int 1
    %int2_145 = torch.constant.int 2
    %135 = torch.aten.transpose.int %134, %int1_144, %int2_145 : !torch.vtensor<[8,16384,1,512],f16>, !torch.int, !torch.int -> !torch.vtensor<[8,1,16384,512],f16>
    %int8_146 = torch.constant.int 8
    %int-1_147 = torch.constant.int -1
    %int1_148 = torch.constant.int 1
    %int512_149 = torch.constant.int 512
    %136 = torch.prim.ListConstruct %int8_146, %int-1_147, %int1_148, %int512_149 : (!torch.int, !torch.int, !torch.int, !torch.int) -> !torch.list<int>
    %137 = torch.aten.view %129, %136 : !torch.vtensor<[8,16384,512],f16>, !torch.list<int> -> !torch.vtensor<[8,16384,1,512],f16>
    %int1_150 = torch.constant.int 1
    %int2_151 = torch.constant.int 2
    %138 = torch.aten.transpose.int %137, %int1_150, %int2_151 : !torch.vtensor<[8,16384,1,512],f16>, !torch.int, !torch.int -> !torch.vtensor<[8,1,16384,512],f16>
    %float2.102240e-01 = torch.constant.float 0.21022410381342863
    %139 = torch.aten.mul.Scalar %132, %float2.102240e-01 : !torch.vtensor<[8,1,16384,512],f16>, !torch.float -> !torch.vtensor<[8,1,16384,512],f16>
    %int-2 = torch.constant.int -2
    %int-1_152 = torch.constant.int -1
    %140 = torch.aten.transpose.int %135, %int-2, %int-1_152 : !torch.vtensor<[8,1,16384,512],f16>, !torch.int, !torch.int -> !torch.vtensor<[8,1,512,16384],f16>
    %float2.102240e-01_153 = torch.constant.float 0.21022410381342863
    %141 = torch.aten.mul.Scalar %140, %float2.102240e-01_153 : !torch.vtensor<[8,1,512,16384],f16>, !torch.float -> !torch.vtensor<[8,1,512,16384],f16>
    %int8_154 = torch.constant.int 8
    %int1_155 = torch.constant.int 1
    %int16384_156 = torch.constant.int 16384
    %int512_157 = torch.constant.int 512
    %142 = torch.prim.ListConstruct %int8_154, %int1_155, %int16384_156, %int512_157 : (!torch.int, !torch.int, !torch.int, !torch.int) -> !torch.list<int>
    %false_158 = torch.constant.bool false
    %143 = torch.aten.expand %139, %142, %false_158 : !torch.vtensor<[8,1,16384,512],f16>, !torch.list<int>, !torch.bool -> !torch.vtensor<[8,1,16384,512],f16>
    %int8_159 = torch.constant.int 8
    %int16384_160 = torch.constant.int 16384
    %int512_161 = torch.constant.int 512
    %144 = torch.prim.ListConstruct %int8_159, %int16384_160, %int512_161 : (!torch.int, !torch.int, !torch.int) -> !torch.list<int>
    %145 = torch.aten.view %143, %144 : !torch.vtensor<[8,1,16384,512],f16>, !torch.list<int> -> !torch.vtensor<[8,16384,512],f16>
    %int8_162 = torch.constant.int 8
    %int1_163 = torch.constant.int 1
    %int512_164 = torch.constant.int 512
    %int16384_165 = torch.constant.int 16384
    %146 = torch.prim.ListConstruct %int8_162, %int1_163, %int512_164, %int16384_165 : (!torch.int, !torch.int, !torch.int, !torch.int) -> !torch.list<int>
    %false_166 = torch.constant.bool false
    %147 = torch.aten.expand %141, %146, %false_166 : !torch.vtensor<[8,1,512,16384],f16>, !torch.list<int>, !torch.bool -> !torch.vtensor<[8,1,512,16384],f16>
    %int8_167 = torch.constant.int 8
    %int512_168 = torch.constant.int 512
    %int16384_169 = torch.constant.int 16384
    %148 = torch.prim.ListConstruct %int8_167, %int512_168, %int16384_169 : (!torch.int, !torch.int, !torch.int) -> !torch.list<int>
    %149 = torch.aten.view %147, %148 : !torch.vtensor<[8,1,512,16384],f16>, !torch.list<int> -> !torch.vtensor<[8,512,16384],f16>
    %150 = torch.aten.bmm %145, %149 : !torch.vtensor<[8,16384,512],f16>, !torch.vtensor<[8,512,16384],f16> -> !torch.vtensor<[8,16384,16384],f16>
    %int8_170 = torch.constant.int 8
    %int1_171 = torch.constant.int 1
    %int16384_172 = torch.constant.int 16384
    %int16384_173 = torch.constant.int 16384
    %151 = torch.prim.ListConstruct %int8_170, %int1_171, %int16384_172, %int16384_173 : (!torch.int, !torch.int, !torch.int, !torch.int) -> !torch.list<int>
    %152 = torch.aten.view %150, %151 : !torch.vtensor<[8,16384,16384],f16>, !torch.list<int> -> !torch.vtensor<[8,1,16384,16384],f16>
    %int-1_174 = torch.constant.int -1
    %false_175 = torch.constant.bool false
    %153 = torch.aten._softmax %152, %int-1_174, %false_175 : !torch.vtensor<[8,1,16384,16384],f16>, !torch.int, !torch.bool -> !torch.vtensor<[8,1,16384,16384],f16>
    %int8_176 = torch.constant.int 8
    %int1_177 = torch.constant.int 1
    %int16384_178 = torch.constant.int 16384
    %int16384_179 = torch.constant.int 16384
    %154 = torch.prim.ListConstruct %int8_176, %int1_177, %int16384_178, %int16384_179 : (!torch.int, !torch.int, !torch.int, !torch.int) -> !torch.list<int>
    %false_180 = torch.constant.bool false
    %155 = torch.aten.expand %153, %154, %false_180 : !torch.vtensor<[8,1,16384,16384],f16>, !torch.list<int>, !torch.bool -> !torch.vtensor<[8,1,16384,16384],f16>
    %int8_181 = torch.constant.int 8
    %int16384_182 = torch.constant.int 16384
    %int16384_183 = torch.constant.int 16384
    %156 = torch.prim.ListConstruct %int8_181, %int16384_182, %int16384_183 : (!torch.int, !torch.int, !torch.int) -> !torch.list<int>
    %157 = torch.aten.view %155, %156 : !torch.vtensor<[8,1,16384,16384],f16>, !torch.list<int> -> !torch.vtensor<[8,16384,16384],f16>
    %int8_184 = torch.constant.int 8
    %int1_185 = torch.constant.int 1
    %int16384_186 = torch.constant.int 16384
    %int512_187 = torch.constant.int 512
    %158 = torch.prim.ListConstruct %int8_184, %int1_185, %int16384_186, %int512_187 : (!torch.int, !torch.int, !torch.int, !torch.int) -> !torch.list<int>
    %false_188 = torch.constant.bool false
    %159 = torch.aten.expand %138, %158, %false_188 : !torch.vtensor<[8,1,16384,512],f16>, !torch.list<int>, !torch.bool -> !torch.vtensor<[8,1,16384,512],f16>
    %int8_189 = torch.constant.int 8
    %int16384_190 = torch.constant.int 16384
    %int512_191 = torch.constant.int 512
    %160 = torch.prim.ListConstruct %int8_189, %int16384_190, %int512_191 : (!torch.int, !torch.int, !torch.int) -> !torch.list<int>
    %161 = torch.aten.view %159, %160 : !torch.vtensor<[8,1,16384,512],f16>, !torch.list<int> -> !torch.vtensor<[8,16384,512],f16>
    %162 = torch.aten.bmm %157, %161 : !torch.vtensor<[8,16384,16384],f16>, !torch.vtensor<[8,16384,512],f16> -> !torch.vtensor<[8,16384,512],f16>
    %int8_192 = torch.constant.int 8
    %int1_193 = torch.constant.int 1
    %int16384_194 = torch.constant.int 16384
    %int512_195 = torch.constant.int 512
    %163 = torch.prim.ListConstruct %int8_192, %int1_193, %int16384_194, %int512_195 : (!torch.int, !torch.int, !torch.int, !torch.int) -> !torch.list<int>
    %164 = torch.aten.view %162, %163 : !torch.vtensor<[8,16384,512],f16>, !torch.list<int> -> !torch.vtensor<[8,1,16384,512],f16>
    %int1_196 = torch.constant.int 1
    %int2_197 = torch.constant.int 2
    %165 = torch.aten.transpose.int %164, %int1_196, %int2_197 : !torch.vtensor<[8,1,16384,512],f16>, !torch.int, !torch.int -> !torch.vtensor<[8,16384,1,512],f16>
    %int1_198 = torch.constant.int 1
    %int2_199 = torch.constant.int 2
    %166 = torch.aten.transpose.int %165, %int1_198, %int2_199 : !torch.vtensor<[8,16384,1,512],f16>, !torch.int, !torch.int -> !torch.vtensor<[8,1,16384,512],f16>
    %int1_200 = torch.constant.int 1
    %int2_201 = torch.constant.int 2
    %167 = torch.aten.transpose.int %166, %int1_200, %int2_201 : !torch.vtensor<[8,1,16384,512],f16>, !torch.int, !torch.int -> !torch.vtensor<[8,16384,1,512],f16>
    %int8_202 = torch.constant.int 8
    %int-1_203 = torch.constant.int -1
    %int512_204 = torch.constant.int 512
    %168 = torch.prim.ListConstruct %int8_202, %int-1_203, %int512_204 : (!torch.int, !torch.int, !torch.int) -> !torch.list<int>
    %169 = torch.aten.view %167, %168 : !torch.vtensor<[8,16384,1,512],f16>, !torch.list<int> -> !torch.vtensor<[8,16384,512],f16>
    %int5_205 = torch.constant.int 5
    %170 = torch.prims.convert_element_type %169, %int5_205 : !torch.vtensor<[8,16384,512],f16>, !torch.int -> !torch.vtensor<[8,16384,512],f16>
    %int131072_206 = torch.constant.int 131072
    %int512_207 = torch.constant.int 512
    %171 = torch.prim.ListConstruct %int131072_206, %int512_207 : (!torch.int, !torch.int) -> !torch.list<int>
    %172 = torch.aten.view %170, %171 : !torch.vtensor<[8,16384,512],f16>, !torch.list<int> -> !torch.vtensor<[131072,512],f16>
    %__auto.vae.decoder.mid_block.attentions.0.to_out.0.weight = util.global.load @__auto.vae.decoder.mid_block.attentions.0.to_out.0.weight : tensor<512x512xf16>
    %173 = torch_c.from_builtin_tensor %__auto.vae.decoder.mid_block.attentions.0.to_out.0.weight : tensor<512x512xf16> -> !torch.vtensor<[512,512],f16>
    %int0_208 = torch.constant.int 0
    %int1_209 = torch.constant.int 1
    %174 = torch.aten.transpose.int %173, %int0_208, %int1_209 : !torch.vtensor<[512,512],f16>, !torch.int, !torch.int -> !torch.vtensor<[512,512],f16>
    %__auto.vae.decoder.mid_block.attentions.0.to_out.0.bias = util.global.load @__auto.vae.decoder.mid_block.attentions.0.to_out.0.bias : tensor<512xf16>
    %175 = torch_c.from_builtin_tensor %__auto.vae.decoder.mid_block.attentions.0.to_out.0.bias : tensor<512xf16> -> !torch.vtensor<[512],f16>
    %int6_210 = torch.constant.int 6
    %176 = torch.prims.convert_element_type %175, %int6_210 : !torch.vtensor<[512],f16>, !torch.int -> !torch.vtensor<[512],f32>
    %int6_211 = torch.constant.int 6
    %177 = torch.prims.convert_element_type %172, %int6_211 : !torch.vtensor<[131072,512],f16>, !torch.int -> !torch.vtensor<[131072,512],f32>
    %int6_212 = torch.constant.int 6
    %178 = torch.prims.convert_element_type %174, %int6_212 : !torch.vtensor<[512,512],f16>, !torch.int -> !torch.vtensor<[512,512],f32>
    %179 = torch.aten.mm %177, %178 : !torch.vtensor<[131072,512],f32>, !torch.vtensor<[512,512],f32> -> !torch.vtensor<[131072,512],f32>
    %int1_213 = torch.constant.int 1
    %180 = torch.aten.mul.Scalar %179, %int1_213 : !torch.vtensor<[131072,512],f32>, !torch.int -> !torch.vtensor<[131072,512],f32>
    %int1_214 = torch.constant.int 1
    %181 = torch.aten.mul.Scalar %176, %int1_214 : !torch.vtensor<[512],f32>, !torch.int -> !torch.vtensor<[512],f32>
    %int1_215 = torch.constant.int 1
    %182 = torch.aten.add.Tensor %180, %181, %int1_215 : !torch.vtensor<[131072,512],f32>, !torch.vtensor<[512],f32>, !torch.int -> !torch.vtensor<[131072,512],f32>
    %int5_216 = torch.constant.int 5
    %183 = torch.prims.convert_element_type %182, %int5_216 : !torch.vtensor<[131072,512],f32>, !torch.int -> !torch.vtensor<[131072,512],f16>
    %int8_217 = torch.constant.int 8
    %int16384_218 = torch.constant.int 16384
    %int512_219 = torch.constant.int 512
    %184 = torch.prim.ListConstruct %int8_217, %int16384_218, %int512_219 : (!torch.int, !torch.int, !torch.int) -> !torch.list<int>
    %185 = torch.aten.view %183, %184 : !torch.vtensor<[131072,512],f16>, !torch.list<int> -> !torch.vtensor<[8,16384,512],f16>
    %none_220 = torch.constant.none
    %186 = torch.aten.clone %185, %none_220 : !torch.vtensor<[8,16384,512],f16>, !torch.none -> !torch.vtensor<[8,16384,512],f16>
    %int-1_221 = torch.constant.int -1
    %int-2_222 = torch.constant.int -2
    %187 = torch.aten.transpose.int %186, %int-1_221, %int-2_222 : !torch.vtensor<[8,16384,512],f16>, !torch.int, !torch.int -> !torch.vtensor<[8,512,16384],f16>
    %int8_223 = torch.constant.int 8
    %int512_224 = torch.constant.int 512
    %int128_225 = torch.constant.int 128
    %int128_226 = torch.constant.int 128
    %188 = torch.prim.ListConstruct %int8_223, %int512_224, %int128_225, %int128_226 : (!torch.int, !torch.int, !torch.int, !torch.int) -> !torch.list<int>
    %189 = torch.aten.view %187, %188 : !torch.vtensor<[8,512,16384],f16>, !torch.list<int> -> !torch.vtensor<[8,512,128,128],f16>
    %int1_227 = torch.constant.int 1
    %190 = torch.aten.add.Tensor %189, %75, %int1_227 : !torch.vtensor<[8,512,128,128],f16>, !torch.vtensor<[8,512,128,128],f16>, !torch.int -> !torch.vtensor<[8,512,128,128],f16>
    %int1_228 = torch.constant.int 1
    %191 = torch.aten.div.Scalar %190, %int1_228 : !torch.vtensor<[8,512,128,128],f16>, !torch.int -> !torch.vtensor<[8,512,128,128],f16>
    %int8_229 = torch.constant.int 8
    %int32_230 = torch.constant.int 32
    %int16_231 = torch.constant.int 16
    %int16384_232 = torch.constant.int 16384
    %192 = torch.prim.ListConstruct %int8_229, %int32_230, %int16_231, %int16384_232 : (!torch.int, !torch.int, !torch.int, !torch.int) -> !torch.list<int>
    %193 = torch.aten.view %191, %192 : !torch.vtensor<[8,512,128,128],f16>, !torch.list<int> -> !torch.vtensor<[8,32,16,16384],f16>
    %int6_233 = torch.constant.int 6
    %194 = torch.prims.convert_element_type %193, %int6_233 : !torch.vtensor<[8,32,16,16384],f16>, !torch.int -> !torch.vtensor<[8,32,16,16384],f32>
    %int2_234 = torch.constant.int 2
    %int3_235 = torch.constant.int 3
    %195 = torch.prim.ListConstruct %int2_234, %int3_235 : (!torch.int, !torch.int) -> !torch.list<int>
    %int0_236 = torch.constant.int 0
    %true_237 = torch.constant.bool true
    %result0_238, %result1_239 = torch.aten.var_mean.correction %194, %195, %int0_236, %true_237 : !torch.vtensor<[8,32,16,16384],f32>, !torch.list<int>, !torch.int, !torch.bool -> !torch.vtensor<[8,32,1,1],f32>, !torch.vtensor<[8,32,1,1],f32>
    %float9.999990e-07_240 = torch.constant.float 9.9999999999999995E-7
    %int1_241 = torch.constant.int 1
    %196 = torch.aten.add.Scalar %result0_238, %float9.999990e-07_240, %int1_241 : !torch.vtensor<[8,32,1,1],f32>, !torch.float, !torch.int -> !torch.vtensor<[8,32,1,1],f32>
    %197 = torch.aten.rsqrt %196 : !torch.vtensor<[8,32,1,1],f32> -> !torch.vtensor<[8,32,1,1],f32>
    %int1_242 = torch.constant.int 1
    %198 = torch.aten.sub.Tensor %193, %result1_239, %int1_242 : !torch.vtensor<[8,32,16,16384],f16>, !torch.vtensor<[8,32,1,1],f32>, !torch.int -> !torch.vtensor<[8,32,16,16384],f32>
    %199 = torch.aten.mul.Tensor %198, %197 : !torch.vtensor<[8,32,16,16384],f32>, !torch.vtensor<[8,32,1,1],f32> -> !torch.vtensor<[8,32,16,16384],f32>
    %int8_243 = torch.constant.int 8
    %int512_244 = torch.constant.int 512
    %int128_245 = torch.constant.int 128
    %int128_246 = torch.constant.int 128
    %200 = torch.prim.ListConstruct %int8_243, %int512_244, %int128_245, %int128_246 : (!torch.int, !torch.int, !torch.int, !torch.int) -> !torch.list<int>
    %201 = torch.aten.view %199, %200 : !torch.vtensor<[8,32,16,16384],f32>, !torch.list<int> -> !torch.vtensor<[8,512,128,128],f32>
    %__auto.vae.decoder.mid_block.resnets.1.norm1.bias = util.global.load @__auto.vae.decoder.mid_block.resnets.1.norm1.bias : tensor<512xf16>
    %202 = torch_c.from_builtin_tensor %__auto.vae.decoder.mid_block.resnets.1.norm1.bias : tensor<512xf16> -> !torch.vtensor<[512],f16>
    %int0_247 = torch.constant.int 0
    %203 = torch.aten.unsqueeze %202, %int0_247 : !torch.vtensor<[512],f16>, !torch.int -> !torch.vtensor<[1,512],f16>
    %int2_248 = torch.constant.int 2
    %204 = torch.aten.unsqueeze %203, %int2_248 : !torch.vtensor<[1,512],f16>, !torch.int -> !torch.vtensor<[1,512,1],f16>
    %int3_249 = torch.constant.int 3
    %205 = torch.aten.unsqueeze %204, %int3_249 : !torch.vtensor<[1,512,1],f16>, !torch.int -> !torch.vtensor<[1,512,1,1],f16>
    %__auto.vae.decoder.mid_block.resnets.1.norm1.weight = util.global.load @__auto.vae.decoder.mid_block.resnets.1.norm1.weight : tensor<512xf16>
    %206 = torch_c.from_builtin_tensor %__auto.vae.decoder.mid_block.resnets.1.norm1.weight : tensor<512xf16> -> !torch.vtensor<[512],f16>
    %int0_250 = torch.constant.int 0
    %207 = torch.aten.unsqueeze %206, %int0_250 : !torch.vtensor<[512],f16>, !torch.int -> !torch.vtensor<[1,512],f16>
    %int2_251 = torch.constant.int 2
    %208 = torch.aten.unsqueeze %207, %int2_251 : !torch.vtensor<[1,512],f16>, !torch.int -> !torch.vtensor<[1,512,1],f16>
    %int3_252 = torch.constant.int 3
    %209 = torch.aten.unsqueeze %208, %int3_252 : !torch.vtensor<[1,512,1],f16>, !torch.int -> !torch.vtensor<[1,512,1,1],f16>
    %210 = torch.aten.mul.Tensor %201, %209 : !torch.vtensor<[8,512,128,128],f32>, !torch.vtensor<[1,512,1,1],f16> -> !torch.vtensor<[8,512,128,128],f32>
    %int1_253 = torch.constant.int 1
    %211 = torch.aten.add.Tensor %210, %205, %int1_253 : !torch.vtensor<[8,512,128,128],f32>, !torch.vtensor<[1,512,1,1],f16>, !torch.int -> !torch.vtensor<[8,512,128,128],f32>
    %int5_254 = torch.constant.int 5
    %212 = torch.prims.convert_element_type %211, %int5_254 : !torch.vtensor<[8,512,128,128],f32>, !torch.int -> !torch.vtensor<[8,512,128,128],f16>
    %213 = torch.aten.silu %212 : !torch.vtensor<[8,512,128,128],f16> -> !torch.vtensor<[8,512,128,128],f16>
    %__auto.vae.decoder.mid_block.resnets.1.conv1.weight = util.global.load @__auto.vae.decoder.mid_block.resnets.1.conv1.weight : tensor<512x512x3x3xf16>
    %214 = torch_c.from_builtin_tensor %__auto.vae.decoder.mid_block.resnets.1.conv1.weight : tensor<512x512x3x3xf16> -> !torch.vtensor<[512,512,3,3],f16>
    %__auto.vae.decoder.mid_block.resnets.1.conv1.bias = util.global.load @__auto.vae.decoder.mid_block.resnets.1.conv1.bias : tensor<512xf16>
    %215 = torch_c.from_builtin_tensor %__auto.vae.decoder.mid_block.resnets.1.conv1.bias : tensor<512xf16> -> !torch.vtensor<[512],f16>
    %int1_255 = torch.constant.int 1
    %int1_256 = torch.constant.int 1
    %216 = torch.prim.ListConstruct %int1_255, %int1_256 : (!torch.int, !torch.int) -> !torch.list<int>
    %int1_257 = torch.constant.int 1
    %int1_258 = torch.constant.int 1
    %217 = torch.prim.ListConstruct %int1_257, %int1_258 : (!torch.int, !torch.int) -> !torch.list<int>
    %int1_259 = torch.constant.int 1
    %int1_260 = torch.constant.int 1
    %218 = torch.prim.ListConstruct %int1_259, %int1_260 : (!torch.int, !torch.int) -> !torch.list<int>
    %false_261 = torch.constant.bool false
    %int0_262 = torch.constant.int 0
    %int0_263 = torch.constant.int 0
    %219 = torch.prim.ListConstruct %int0_262, %int0_263 : (!torch.int, !torch.int) -> !torch.list<int>
    %int1_264 = torch.constant.int 1
    %220 = torch.aten.convolution %213, %214, %215, %216, %217, %218, %false_261, %219, %int1_264 : !torch.vtensor<[8,512,128,128],f16>, !torch.vtensor<[512,512,3,3],f16>, !torch.vtensor<[512],f16>, !torch.list<int>, !torch.list<int>, !torch.list<int>, !torch.bool, !torch.list<int>, !torch.int -> !torch.vtensor<[8,512,128,128],f16>
    %int8_265 = torch.constant.int 8
    %int32_266 = torch.constant.int 32
    %int16_267 = torch.constant.int 16
    %int16384_268 = torch.constant.int 16384
    %221 = torch.prim.ListConstruct %int8_265, %int32_266, %int16_267, %int16384_268 : (!torch.int, !torch.int, !torch.int, !torch.int) -> !torch.list<int>
    %222 = torch.aten.view %220, %221 : !torch.vtensor<[8,512,128,128],f16>, !torch.list<int> -> !torch.vtensor<[8,32,16,16384],f16>
    %int6_269 = torch.constant.int 6
    %223 = torch.prims.convert_element_type %222, %int6_269 : !torch.vtensor<[8,32,16,16384],f16>, !torch.int -> !torch.vtensor<[8,32,16,16384],f32>
    %int2_270 = torch.constant.int 2
    %int3_271 = torch.constant.int 3
    %224 = torch.prim.ListConstruct %int2_270, %int3_271 : (!torch.int, !torch.int) -> !torch.list<int>
    %int0_272 = torch.constant.int 0
    %true_273 = torch.constant.bool true
    %result0_274, %result1_275 = torch.aten.var_mean.correction %223, %224, %int0_272, %true_273 : !torch.vtensor<[8,32,16,16384],f32>, !torch.list<int>, !torch.int, !torch.bool -> !torch.vtensor<[8,32,1,1],f32>, !torch.vtensor<[8,32,1,1],f32>
    %float9.999990e-07_276 = torch.constant.float 9.9999999999999995E-7
    %int1_277 = torch.constant.int 1
    %225 = torch.aten.add.Scalar %result0_274, %float9.999990e-07_276, %int1_277 : !torch.vtensor<[8,32,1,1],f32>, !torch.float, !torch.int -> !torch.vtensor<[8,32,1,1],f32>
    %226 = torch.aten.rsqrt %225 : !torch.vtensor<[8,32,1,1],f32> -> !torch.vtensor<[8,32,1,1],f32>
    %int1_278 = torch.constant.int 1
    %227 = torch.aten.sub.Tensor %222, %result1_275, %int1_278 : !torch.vtensor<[8,32,16,16384],f16>, !torch.vtensor<[8,32,1,1],f32>, !torch.int -> !torch.vtensor<[8,32,16,16384],f32>
    %228 = torch.aten.mul.Tensor %227, %226 : !torch.vtensor<[8,32,16,16384],f32>, !torch.vtensor<[8,32,1,1],f32> -> !torch.vtensor<[8,32,16,16384],f32>
    %int8_279 = torch.constant.int 8
    %int512_280 = torch.constant.int 512
    %int128_281 = torch.constant.int 128
    %int128_282 = torch.constant.int 128
    %229 = torch.prim.ListConstruct %int8_279, %int512_280, %int128_281, %int128_282 : (!torch.int, !torch.int, !torch.int, !torch.int) -> !torch.list<int>
    %230 = torch.aten.view %228, %229 : !torch.vtensor<[8,32,16,16384],f32>, !torch.list<int> -> !torch.vtensor<[8,512,128,128],f32>
    %__auto.vae.decoder.mid_block.resnets.1.norm2.bias = util.global.load @__auto.vae.decoder.mid_block.resnets.1.norm2.bias : tensor<512xf16>
    %231 = torch_c.from_builtin_tensor %__auto.vae.decoder.mid_block.resnets.1.norm2.bias : tensor<512xf16> -> !torch.vtensor<[512],f16>
    %int0_283 = torch.constant.int 0
    %232 = torch.aten.unsqueeze %231, %int0_283 : !torch.vtensor<[512],f16>, !torch.int -> !torch.vtensor<[1,512],f16>
    %int2_284 = torch.constant.int 2
    %233 = torch.aten.unsqueeze %232, %int2_284 : !torch.vtensor<[1,512],f16>, !torch.int -> !torch.vtensor<[1,512,1],f16>
    %int3_285 = torch.constant.int 3
    %234 = torch.aten.unsqueeze %233, %int3_285 : !torch.vtensor<[1,512,1],f16>, !torch.int -> !torch.vtensor<[1,512,1,1],f16>
    %__auto.vae.decoder.mid_block.resnets.1.norm2.weight = util.global.load @__auto.vae.decoder.mid_block.resnets.1.norm2.weight : tensor<512xf16>
    %235 = torch_c.from_builtin_tensor %__auto.vae.decoder.mid_block.resnets.1.norm2.weight : tensor<512xf16> -> !torch.vtensor<[512],f16>
    %int0_286 = torch.constant.int 0
    %236 = torch.aten.unsqueeze %235, %int0_286 : !torch.vtensor<[512],f16>, !torch.int -> !torch.vtensor<[1,512],f16>
    %int2_287 = torch.constant.int 2
    %237 = torch.aten.unsqueeze %236, %int2_287 : !torch.vtensor<[1,512],f16>, !torch.int -> !torch.vtensor<[1,512,1],f16>
    %int3_288 = torch.constant.int 3
    %238 = torch.aten.unsqueeze %237, %int3_288 : !torch.vtensor<[1,512,1],f16>, !torch.int -> !torch.vtensor<[1,512,1,1],f16>
    %239 = torch.aten.mul.Tensor %230, %238 : !torch.vtensor<[8,512,128,128],f32>, !torch.vtensor<[1,512,1,1],f16> -> !torch.vtensor<[8,512,128,128],f32>
    %int1_289 = torch.constant.int 1
    %240 = torch.aten.add.Tensor %239, %234, %int1_289 : !torch.vtensor<[8,512,128,128],f32>, !torch.vtensor<[1,512,1,1],f16>, !torch.int -> !torch.vtensor<[8,512,128,128],f32>
    %int5_290 = torch.constant.int 5
    %241 = torch.prims.convert_element_type %240, %int5_290 : !torch.vtensor<[8,512,128,128],f32>, !torch.int -> !torch.vtensor<[8,512,128,128],f16>
    %242 = torch.aten.silu %241 : !torch.vtensor<[8,512,128,128],f16> -> !torch.vtensor<[8,512,128,128],f16>
    %none_291 = torch.constant.none
    %243 = torch.aten.clone %242, %none_291 : !torch.vtensor<[8,512,128,128],f16>, !torch.none -> !torch.vtensor<[8,512,128,128],f16>
    %__auto.vae.decoder.mid_block.resnets.1.conv2.weight = util.global.load @__auto.vae.decoder.mid_block.resnets.1.conv2.weight : tensor<512x512x3x3xf16>
    %244 = torch_c.from_builtin_tensor %__auto.vae.decoder.mid_block.resnets.1.conv2.weight : tensor<512x512x3x3xf16> -> !torch.vtensor<[512,512,3,3],f16>
    %__auto.vae.decoder.mid_block.resnets.1.conv2.bias = util.global.load @__auto.vae.decoder.mid_block.resnets.1.conv2.bias : tensor<512xf16>
    %245 = torch_c.from_builtin_tensor %__auto.vae.decoder.mid_block.resnets.1.conv2.bias : tensor<512xf16> -> !torch.vtensor<[512],f16>
    %int1_292 = torch.constant.int 1
    %int1_293 = torch.constant.int 1
    %246 = torch.prim.ListConstruct %int1_292, %int1_293 : (!torch.int, !torch.int) -> !torch.list<int>
    %int1_294 = torch.constant.int 1
    %int1_295 = torch.constant.int 1
    %247 = torch.prim.ListConstruct %int1_294, %int1_295 : (!torch.int, !torch.int) -> !torch.list<int>
    %int1_296 = torch.constant.int 1
    %int1_297 = torch.constant.int 1
    %248 = torch.prim.ListConstruct %int1_296, %int1_297 : (!torch.int, !torch.int) -> !torch.list<int>
    %false_298 = torch.constant.bool false
    %int0_299 = torch.constant.int 0
    %int0_300 = torch.constant.int 0
    %249 = torch.prim.ListConstruct %int0_299, %int0_300 : (!torch.int, !torch.int) -> !torch.list<int>
    %int1_301 = torch.constant.int 1
    %250 = torch.aten.convolution %243, %244, %245, %246, %247, %248, %false_298, %249, %int1_301 : !torch.vtensor<[8,512,128,128],f16>, !torch.vtensor<[512,512,3,3],f16>, !torch.vtensor<[512],f16>, !torch.list<int>, !torch.list<int>, !torch.list<int>, !torch.bool, !torch.list<int>, !torch.int -> !torch.vtensor<[8,512,128,128],f16>
    %int1_302 = torch.constant.int 1
    %251 = torch.aten.add.Tensor %191, %250, %int1_302 : !torch.vtensor<[8,512,128,128],f16>, !torch.vtensor<[8,512,128,128],f16>, !torch.int -> !torch.vtensor<[8,512,128,128],f16>
    %int1_303 = torch.constant.int 1
    %252 = torch.aten.div.Scalar %251, %int1_303 : !torch.vtensor<[8,512,128,128],f16>, !torch.int -> !torch.vtensor<[8,512,128,128],f16>
    %int5_304 = torch.constant.int 5
    %253 = torch.prims.convert_element_type %252, %int5_304 : !torch.vtensor<[8,512,128,128],f16>, !torch.int -> !torch.vtensor<[8,512,128,128],f16>
    %int8_305 = torch.constant.int 8
    %int32_306 = torch.constant.int 32
    %int16_307 = torch.constant.int 16
    %int16384_308 = torch.constant.int 16384
    %254 = torch.prim.ListConstruct %int8_305, %int32_306, %int16_307, %int16384_308 : (!torch.int, !torch.int, !torch.int, !torch.int) -> !torch.list<int>
    %255 = torch.aten.view %253, %254 : !torch.vtensor<[8,512,128,128],f16>, !torch.list<int> -> !torch.vtensor<[8,32,16,16384],f16>
    %int6_309 = torch.constant.int 6
    %256 = torch.prims.convert_element_type %255, %int6_309 : !torch.vtensor<[8,32,16,16384],f16>, !torch.int -> !torch.vtensor<[8,32,16,16384],f32>
    %int2_310 = torch.constant.int 2
    %int3_311 = torch.constant.int 3
    %257 = torch.prim.ListConstruct %int2_310, %int3_311 : (!torch.int, !torch.int) -> !torch.list<int>
    %int0_312 = torch.constant.int 0
    %true_313 = torch.constant.bool true
    %result0_314, %result1_315 = torch.aten.var_mean.correction %256, %257, %int0_312, %true_313 : !torch.vtensor<[8,32,16,16384],f32>, !torch.list<int>, !torch.int, !torch.bool -> !torch.vtensor<[8,32,1,1],f32>, !torch.vtensor<[8,32,1,1],f32>
    %float9.999990e-07_316 = torch.constant.float 9.9999999999999995E-7
    %int1_317 = torch.constant.int 1
    %258 = torch.aten.add.Scalar %result0_314, %float9.999990e-07_316, %int1_317 : !torch.vtensor<[8,32,1,1],f32>, !torch.float, !torch.int -> !torch.vtensor<[8,32,1,1],f32>
    %259 = torch.aten.rsqrt %258 : !torch.vtensor<[8,32,1,1],f32> -> !torch.vtensor<[8,32,1,1],f32>
    %int1_318 = torch.constant.int 1
    %260 = torch.aten.sub.Tensor %255, %result1_315, %int1_318 : !torch.vtensor<[8,32,16,16384],f16>, !torch.vtensor<[8,32,1,1],f32>, !torch.int -> !torch.vtensor<[8,32,16,16384],f32>
    %261 = torch.aten.mul.Tensor %260, %259 : !torch.vtensor<[8,32,16,16384],f32>, !torch.vtensor<[8,32,1,1],f32> -> !torch.vtensor<[8,32,16,16384],f32>
    %int8_319 = torch.constant.int 8
    %int512_320 = torch.constant.int 512
    %int128_321 = torch.constant.int 128
    %int128_322 = torch.constant.int 128
    %262 = torch.prim.ListConstruct %int8_319, %int512_320, %int128_321, %int128_322 : (!torch.int, !torch.int, !torch.int, !torch.int) -> !torch.list<int>
    %263 = torch.aten.view %261, %262 : !torch.vtensor<[8,32,16,16384],f32>, !torch.list<int> -> !torch.vtensor<[8,512,128,128],f32>
    %__auto.vae.decoder.up_blocks.0.resnets.0.norm1.bias = util.global.load @__auto.vae.decoder.up_blocks.0.resnets.0.norm1.bias : tensor<512xf16>
    %264 = torch_c.from_builtin_tensor %__auto.vae.decoder.up_blocks.0.resnets.0.norm1.bias : tensor<512xf16> -> !torch.vtensor<[512],f16>
    %int0_323 = torch.constant.int 0
    %265 = torch.aten.unsqueeze %264, %int0_323 : !torch.vtensor<[512],f16>, !torch.int -> !torch.vtensor<[1,512],f16>
    %int2_324 = torch.constant.int 2
    %266 = torch.aten.unsqueeze %265, %int2_324 : !torch.vtensor<[1,512],f16>, !torch.int -> !torch.vtensor<[1,512,1],f16>
    %int3_325 = torch.constant.int 3
    %267 = torch.aten.unsqueeze %266, %int3_325 : !torch.vtensor<[1,512,1],f16>, !torch.int -> !torch.vtensor<[1,512,1,1],f16>
    %__auto.vae.decoder.up_blocks.0.resnets.0.norm1.weight = util.global.load @__auto.vae.decoder.up_blocks.0.resnets.0.norm1.weight : tensor<512xf16>
    %268 = torch_c.from_builtin_tensor %__auto.vae.decoder.up_blocks.0.resnets.0.norm1.weight : tensor<512xf16> -> !torch.vtensor<[512],f16>
    %int0_326 = torch.constant.int 0
    %269 = torch.aten.unsqueeze %268, %int0_326 : !torch.vtensor<[512],f16>, !torch.int -> !torch.vtensor<[1,512],f16>
    %int2_327 = torch.constant.int 2
    %270 = torch.aten.unsqueeze %269, %int2_327 : !torch.vtensor<[1,512],f16>, !torch.int -> !torch.vtensor<[1,512,1],f16>
    %int3_328 = torch.constant.int 3
    %271 = torch.aten.unsqueeze %270, %int3_328 : !torch.vtensor<[1,512,1],f16>, !torch.int -> !torch.vtensor<[1,512,1,1],f16>
    %272 = torch.aten.mul.Tensor %263, %271 : !torch.vtensor<[8,512,128,128],f32>, !torch.vtensor<[1,512,1,1],f16> -> !torch.vtensor<[8,512,128,128],f32>
    %int1_329 = torch.constant.int 1
    %273 = torch.aten.add.Tensor %272, %267, %int1_329 : !torch.vtensor<[8,512,128,128],f32>, !torch.vtensor<[1,512,1,1],f16>, !torch.int -> !torch.vtensor<[8,512,128,128],f32>
    %int5_330 = torch.constant.int 5
    %274 = torch.prims.convert_element_type %273, %int5_330 : !torch.vtensor<[8,512,128,128],f32>, !torch.int -> !torch.vtensor<[8,512,128,128],f16>
    %275 = torch.aten.silu %274 : !torch.vtensor<[8,512,128,128],f16> -> !torch.vtensor<[8,512,128,128],f16>
    %__auto.vae.decoder.up_blocks.0.resnets.0.conv1.weight = util.global.load @__auto.vae.decoder.up_blocks.0.resnets.0.conv1.weight : tensor<512x512x3x3xf16>
    %276 = torch_c.from_builtin_tensor %__auto.vae.decoder.up_blocks.0.resnets.0.conv1.weight : tensor<512x512x3x3xf16> -> !torch.vtensor<[512,512,3,3],f16>
    %__auto.vae.decoder.up_blocks.0.resnets.0.conv1.bias = util.global.load @__auto.vae.decoder.up_blocks.0.resnets.0.conv1.bias : tensor<512xf16>
    %277 = torch_c.from_builtin_tensor %__auto.vae.decoder.up_blocks.0.resnets.0.conv1.bias : tensor<512xf16> -> !torch.vtensor<[512],f16>
    %int1_331 = torch.constant.int 1
    %int1_332 = torch.constant.int 1
    %278 = torch.prim.ListConstruct %int1_331, %int1_332 : (!torch.int, !torch.int) -> !torch.list<int>
    %int1_333 = torch.constant.int 1
    %int1_334 = torch.constant.int 1
    %279 = torch.prim.ListConstruct %int1_333, %int1_334 : (!torch.int, !torch.int) -> !torch.list<int>
    %int1_335 = torch.constant.int 1
    %int1_336 = torch.constant.int 1
    %280 = torch.prim.ListConstruct %int1_335, %int1_336 : (!torch.int, !torch.int) -> !torch.list<int>
    %false_337 = torch.constant.bool false
    %int0_338 = torch.constant.int 0
    %int0_339 = torch.constant.int 0
    %281 = torch.prim.ListConstruct %int0_338, %int0_339 : (!torch.int, !torch.int) -> !torch.list<int>
    %int1_340 = torch.constant.int 1
    %282 = torch.aten.convolution %275, %276, %277, %278, %279, %280, %false_337, %281, %int1_340 : !torch.vtensor<[8,512,128,128],f16>, !torch.vtensor<[512,512,3,3],f16>, !torch.vtensor<[512],f16>, !torch.list<int>, !torch.list<int>, !torch.list<int>, !torch.bool, !torch.list<int>, !torch.int -> !torch.vtensor<[8,512,128,128],f16>
    %int8_341 = torch.constant.int 8
    %int32_342 = torch.constant.int 32
    %int16_343 = torch.constant.int 16
    %int16384_344 = torch.constant.int 16384
    %283 = torch.prim.ListConstruct %int8_341, %int32_342, %int16_343, %int16384_344 : (!torch.int, !torch.int, !torch.int, !torch.int) -> !torch.list<int>
    %284 = torch.aten.view %282, %283 : !torch.vtensor<[8,512,128,128],f16>, !torch.list<int> -> !torch.vtensor<[8,32,16,16384],f16>
    %int6_345 = torch.constant.int 6
    %285 = torch.prims.convert_element_type %284, %int6_345 : !torch.vtensor<[8,32,16,16384],f16>, !torch.int -> !torch.vtensor<[8,32,16,16384],f32>
    %int2_346 = torch.constant.int 2
    %int3_347 = torch.constant.int 3
    %286 = torch.prim.ListConstruct %int2_346, %int3_347 : (!torch.int, !torch.int) -> !torch.list<int>
    %int0_348 = torch.constant.int 0
    %true_349 = torch.constant.bool true
    %result0_350, %result1_351 = torch.aten.var_mean.correction %285, %286, %int0_348, %true_349 : !torch.vtensor<[8,32,16,16384],f32>, !torch.list<int>, !torch.int, !torch.bool -> !torch.vtensor<[8,32,1,1],f32>, !torch.vtensor<[8,32,1,1],f32>
    %float9.999990e-07_352 = torch.constant.float 9.9999999999999995E-7
    %int1_353 = torch.constant.int 1
    %287 = torch.aten.add.Scalar %result0_350, %float9.999990e-07_352, %int1_353 : !torch.vtensor<[8,32,1,1],f32>, !torch.float, !torch.int -> !torch.vtensor<[8,32,1,1],f32>
    %288 = torch.aten.rsqrt %287 : !torch.vtensor<[8,32,1,1],f32> -> !torch.vtensor<[8,32,1,1],f32>
    %int1_354 = torch.constant.int 1
    %289 = torch.aten.sub.Tensor %284, %result1_351, %int1_354 : !torch.vtensor<[8,32,16,16384],f16>, !torch.vtensor<[8,32,1,1],f32>, !torch.int -> !torch.vtensor<[8,32,16,16384],f32>
    %290 = torch.aten.mul.Tensor %289, %288 : !torch.vtensor<[8,32,16,16384],f32>, !torch.vtensor<[8,32,1,1],f32> -> !torch.vtensor<[8,32,16,16384],f32>
    %int8_355 = torch.constant.int 8
    %int512_356 = torch.constant.int 512
    %int128_357 = torch.constant.int 128
    %int128_358 = torch.constant.int 128
    %291 = torch.prim.ListConstruct %int8_355, %int512_356, %int128_357, %int128_358 : (!torch.int, !torch.int, !torch.int, !torch.int) -> !torch.list<int>
    %292 = torch.aten.view %290, %291 : !torch.vtensor<[8,32,16,16384],f32>, !torch.list<int> -> !torch.vtensor<[8,512,128,128],f32>
    %__auto.vae.decoder.up_blocks.0.resnets.0.norm2.bias = util.global.load @__auto.vae.decoder.up_blocks.0.resnets.0.norm2.bias : tensor<512xf16>
    %293 = torch_c.from_builtin_tensor %__auto.vae.decoder.up_blocks.0.resnets.0.norm2.bias : tensor<512xf16> -> !torch.vtensor<[512],f16>
    %int0_359 = torch.constant.int 0
    %294 = torch.aten.unsqueeze %293, %int0_359 : !torch.vtensor<[512],f16>, !torch.int -> !torch.vtensor<[1,512],f16>
    %int2_360 = torch.constant.int 2
    %295 = torch.aten.unsqueeze %294, %int2_360 : !torch.vtensor<[1,512],f16>, !torch.int -> !torch.vtensor<[1,512,1],f16>
    %int3_361 = torch.constant.int 3
    %296 = torch.aten.unsqueeze %295, %int3_361 : !torch.vtensor<[1,512,1],f16>, !torch.int -> !torch.vtensor<[1,512,1,1],f16>
    %__auto.vae.decoder.up_blocks.0.resnets.0.norm2.weight = util.global.load @__auto.vae.decoder.up_blocks.0.resnets.0.norm2.weight : tensor<512xf16>
    %297 = torch_c.from_builtin_tensor %__auto.vae.decoder.up_blocks.0.resnets.0.norm2.weight : tensor<512xf16> -> !torch.vtensor<[512],f16>
    %int0_362 = torch.constant.int 0
    %298 = torch.aten.unsqueeze %297, %int0_362 : !torch.vtensor<[512],f16>, !torch.int -> !torch.vtensor<[1,512],f16>
    %int2_363 = torch.constant.int 2
    %299 = torch.aten.unsqueeze %298, %int2_363 : !torch.vtensor<[1,512],f16>, !torch.int -> !torch.vtensor<[1,512,1],f16>
    %int3_364 = torch.constant.int 3
    %300 = torch.aten.unsqueeze %299, %int3_364 : !torch.vtensor<[1,512,1],f16>, !torch.int -> !torch.vtensor<[1,512,1,1],f16>
    %301 = torch.aten.mul.Tensor %292, %300 : !torch.vtensor<[8,512,128,128],f32>, !torch.vtensor<[1,512,1,1],f16> -> !torch.vtensor<[8,512,128,128],f32>
    %int1_365 = torch.constant.int 1
    %302 = torch.aten.add.Tensor %301, %296, %int1_365 : !torch.vtensor<[8,512,128,128],f32>, !torch.vtensor<[1,512,1,1],f16>, !torch.int -> !torch.vtensor<[8,512,128,128],f32>
    %int5_366 = torch.constant.int 5
    %303 = torch.prims.convert_element_type %302, %int5_366 : !torch.vtensor<[8,512,128,128],f32>, !torch.int -> !torch.vtensor<[8,512,128,128],f16>
    %304 = torch.aten.silu %303 : !torch.vtensor<[8,512,128,128],f16> -> !torch.vtensor<[8,512,128,128],f16>
    %none_367 = torch.constant.none
    %305 = torch.aten.clone %304, %none_367 : !torch.vtensor<[8,512,128,128],f16>, !torch.none -> !torch.vtensor<[8,512,128,128],f16>
    %__auto.vae.decoder.up_blocks.0.resnets.0.conv2.weight = util.global.load @__auto.vae.decoder.up_blocks.0.resnets.0.conv2.weight : tensor<512x512x3x3xf16>
    %306 = torch_c.from_builtin_tensor %__auto.vae.decoder.up_blocks.0.resnets.0.conv2.weight : tensor<512x512x3x3xf16> -> !torch.vtensor<[512,512,3,3],f16>
    %__auto.vae.decoder.up_blocks.0.resnets.0.conv2.bias = util.global.load @__auto.vae.decoder.up_blocks.0.resnets.0.conv2.bias : tensor<512xf16>
    %307 = torch_c.from_builtin_tensor %__auto.vae.decoder.up_blocks.0.resnets.0.conv2.bias : tensor<512xf16> -> !torch.vtensor<[512],f16>
    %int1_368 = torch.constant.int 1
    %int1_369 = torch.constant.int 1
    %308 = torch.prim.ListConstruct %int1_368, %int1_369 : (!torch.int, !torch.int) -> !torch.list<int>
    %int1_370 = torch.constant.int 1
    %int1_371 = torch.constant.int 1
    %309 = torch.prim.ListConstruct %int1_370, %int1_371 : (!torch.int, !torch.int) -> !torch.list<int>
    %int1_372 = torch.constant.int 1
    %int1_373 = torch.constant.int 1
    %310 = torch.prim.ListConstruct %int1_372, %int1_373 : (!torch.int, !torch.int) -> !torch.list<int>
    %false_374 = torch.constant.bool false
    %int0_375 = torch.constant.int 0
    %int0_376 = torch.constant.int 0
    %311 = torch.prim.ListConstruct %int0_375, %int0_376 : (!torch.int, !torch.int) -> !torch.list<int>
    %int1_377 = torch.constant.int 1
    %312 = torch.aten.convolution %305, %306, %307, %308, %309, %310, %false_374, %311, %int1_377 : !torch.vtensor<[8,512,128,128],f16>, !torch.vtensor<[512,512,3,3],f16>, !torch.vtensor<[512],f16>, !torch.list<int>, !torch.list<int>, !torch.list<int>, !torch.bool, !torch.list<int>, !torch.int -> !torch.vtensor<[8,512,128,128],f16>
    %int1_378 = torch.constant.int 1
    %313 = torch.aten.add.Tensor %253, %312, %int1_378 : !torch.vtensor<[8,512,128,128],f16>, !torch.vtensor<[8,512,128,128],f16>, !torch.int -> !torch.vtensor<[8,512,128,128],f16>
    %float1.000000e00 = torch.constant.float 1.000000e+00
    %314 = torch.aten.div.Scalar %313, %float1.000000e00 : !torch.vtensor<[8,512,128,128],f16>, !torch.float -> !torch.vtensor<[8,512,128,128],f16>
    %int8_379 = torch.constant.int 8
    %int32_380 = torch.constant.int 32
    %int16_381 = torch.constant.int 16
    %int16384_382 = torch.constant.int 16384
    %315 = torch.prim.ListConstruct %int8_379, %int32_380, %int16_381, %int16384_382 : (!torch.int, !torch.int, !torch.int, !torch.int) -> !torch.list<int>
    %316 = torch.aten.view %314, %315 : !torch.vtensor<[8,512,128,128],f16>, !torch.list<int> -> !torch.vtensor<[8,32,16,16384],f16>
    %int6_383 = torch.constant.int 6
    %317 = torch.prims.convert_element_type %316, %int6_383 : !torch.vtensor<[8,32,16,16384],f16>, !torch.int -> !torch.vtensor<[8,32,16,16384],f32>
    %int2_384 = torch.constant.int 2
    %int3_385 = torch.constant.int 3
    %318 = torch.prim.ListConstruct %int2_384, %int3_385 : (!torch.int, !torch.int) -> !torch.list<int>
    %int0_386 = torch.constant.int 0
    %true_387 = torch.constant.bool true
    %result0_388, %result1_389 = torch.aten.var_mean.correction %317, %318, %int0_386, %true_387 : !torch.vtensor<[8,32,16,16384],f32>, !torch.list<int>, !torch.int, !torch.bool -> !torch.vtensor<[8,32,1,1],f32>, !torch.vtensor<[8,32,1,1],f32>
    %float9.999990e-07_390 = torch.constant.float 9.9999999999999995E-7
    %int1_391 = torch.constant.int 1
    %319 = torch.aten.add.Scalar %result0_388, %float9.999990e-07_390, %int1_391 : !torch.vtensor<[8,32,1,1],f32>, !torch.float, !torch.int -> !torch.vtensor<[8,32,1,1],f32>
    %320 = torch.aten.rsqrt %319 : !torch.vtensor<[8,32,1,1],f32> -> !torch.vtensor<[8,32,1,1],f32>
    %int1_392 = torch.constant.int 1
    %321 = torch.aten.sub.Tensor %316, %result1_389, %int1_392 : !torch.vtensor<[8,32,16,16384],f16>, !torch.vtensor<[8,32,1,1],f32>, !torch.int -> !torch.vtensor<[8,32,16,16384],f32>
    %322 = torch.aten.mul.Tensor %321, %320 : !torch.vtensor<[8,32,16,16384],f32>, !torch.vtensor<[8,32,1,1],f32> -> !torch.vtensor<[8,32,16,16384],f32>
    %int8_393 = torch.constant.int 8
    %int512_394 = torch.constant.int 512
    %int128_395 = torch.constant.int 128
    %int128_396 = torch.constant.int 128
    %323 = torch.prim.ListConstruct %int8_393, %int512_394, %int128_395, %int128_396 : (!torch.int, !torch.int, !torch.int, !torch.int) -> !torch.list<int>
    %324 = torch.aten.view %322, %323 : !torch.vtensor<[8,32,16,16384],f32>, !torch.list<int> -> !torch.vtensor<[8,512,128,128],f32>
    %__auto.vae.decoder.up_blocks.0.resnets.1.norm1.bias = util.global.load @__auto.vae.decoder.up_blocks.0.resnets.1.norm1.bias : tensor<512xf16>
    %325 = torch_c.from_builtin_tensor %__auto.vae.decoder.up_blocks.0.resnets.1.norm1.bias : tensor<512xf16> -> !torch.vtensor<[512],f16>
    %int0_397 = torch.constant.int 0
    %326 = torch.aten.unsqueeze %325, %int0_397 : !torch.vtensor<[512],f16>, !torch.int -> !torch.vtensor<[1,512],f16>
    %int2_398 = torch.constant.int 2
    %327 = torch.aten.unsqueeze %326, %int2_398 : !torch.vtensor<[1,512],f16>, !torch.int -> !torch.vtensor<[1,512,1],f16>
    %int3_399 = torch.constant.int 3
    %328 = torch.aten.unsqueeze %327, %int3_399 : !torch.vtensor<[1,512,1],f16>, !torch.int -> !torch.vtensor<[1,512,1,1],f16>
    %__auto.vae.decoder.up_blocks.0.resnets.1.norm1.weight = util.global.load @__auto.vae.decoder.up_blocks.0.resnets.1.norm1.weight : tensor<512xf16>
    %329 = torch_c.from_builtin_tensor %__auto.vae.decoder.up_blocks.0.resnets.1.norm1.weight : tensor<512xf16> -> !torch.vtensor<[512],f16>
    %int0_400 = torch.constant.int 0
    %330 = torch.aten.unsqueeze %329, %int0_400 : !torch.vtensor<[512],f16>, !torch.int -> !torch.vtensor<[1,512],f16>
    %int2_401 = torch.constant.int 2
    %331 = torch.aten.unsqueeze %330, %int2_401 : !torch.vtensor<[1,512],f16>, !torch.int -> !torch.vtensor<[1,512,1],f16>
    %int3_402 = torch.constant.int 3
    %332 = torch.aten.unsqueeze %331, %int3_402 : !torch.vtensor<[1,512,1],f16>, !torch.int -> !torch.vtensor<[1,512,1,1],f16>
    %333 = torch.aten.mul.Tensor %324, %332 : !torch.vtensor<[8,512,128,128],f32>, !torch.vtensor<[1,512,1,1],f16> -> !torch.vtensor<[8,512,128,128],f32>
    %int1_403 = torch.constant.int 1
    %334 = torch.aten.add.Tensor %333, %328, %int1_403 : !torch.vtensor<[8,512,128,128],f32>, !torch.vtensor<[1,512,1,1],f16>, !torch.int -> !torch.vtensor<[8,512,128,128],f32>
    %int5_404 = torch.constant.int 5
    %335 = torch.prims.convert_element_type %334, %int5_404 : !torch.vtensor<[8,512,128,128],f32>, !torch.int -> !torch.vtensor<[8,512,128,128],f16>
    %336 = torch.aten.silu %335 : !torch.vtensor<[8,512,128,128],f16> -> !torch.vtensor<[8,512,128,128],f16>
    %__auto.vae.decoder.up_blocks.0.resnets.1.conv1.weight = util.global.load @__auto.vae.decoder.up_blocks.0.resnets.1.conv1.weight : tensor<512x512x3x3xf16>
    %337 = torch_c.from_builtin_tensor %__auto.vae.decoder.up_blocks.0.resnets.1.conv1.weight : tensor<512x512x3x3xf16> -> !torch.vtensor<[512,512,3,3],f16>
    %__auto.vae.decoder.up_blocks.0.resnets.1.conv1.bias = util.global.load @__auto.vae.decoder.up_blocks.0.resnets.1.conv1.bias : tensor<512xf16>
    %338 = torch_c.from_builtin_tensor %__auto.vae.decoder.up_blocks.0.resnets.1.conv1.bias : tensor<512xf16> -> !torch.vtensor<[512],f16>
    %int1_405 = torch.constant.int 1
    %int1_406 = torch.constant.int 1
    %339 = torch.prim.ListConstruct %int1_405, %int1_406 : (!torch.int, !torch.int) -> !torch.list<int>
    %int1_407 = torch.constant.int 1
    %int1_408 = torch.constant.int 1
    %340 = torch.prim.ListConstruct %int1_407, %int1_408 : (!torch.int, !torch.int) -> !torch.list<int>
    %int1_409 = torch.constant.int 1
    %int1_410 = torch.constant.int 1
    %341 = torch.prim.ListConstruct %int1_409, %int1_410 : (!torch.int, !torch.int) -> !torch.list<int>
    %false_411 = torch.constant.bool false
    %int0_412 = torch.constant.int 0
    %int0_413 = torch.constant.int 0
    %342 = torch.prim.ListConstruct %int0_412, %int0_413 : (!torch.int, !torch.int) -> !torch.list<int>
    %int1_414 = torch.constant.int 1
    %343 = torch.aten.convolution %336, %337, %338, %339, %340, %341, %false_411, %342, %int1_414 : !torch.vtensor<[8,512,128,128],f16>, !torch.vtensor<[512,512,3,3],f16>, !torch.vtensor<[512],f16>, !torch.list<int>, !torch.list<int>, !torch.list<int>, !torch.bool, !torch.list<int>, !torch.int -> !torch.vtensor<[8,512,128,128],f16>
    %int8_415 = torch.constant.int 8
    %int32_416 = torch.constant.int 32
    %int16_417 = torch.constant.int 16
    %int16384_418 = torch.constant.int 16384
    %344 = torch.prim.ListConstruct %int8_415, %int32_416, %int16_417, %int16384_418 : (!torch.int, !torch.int, !torch.int, !torch.int) -> !torch.list<int>
    %345 = torch.aten.view %343, %344 : !torch.vtensor<[8,512,128,128],f16>, !torch.list<int> -> !torch.vtensor<[8,32,16,16384],f16>
    %int6_419 = torch.constant.int 6
    %346 = torch.prims.convert_element_type %345, %int6_419 : !torch.vtensor<[8,32,16,16384],f16>, !torch.int -> !torch.vtensor<[8,32,16,16384],f32>
    %int2_420 = torch.constant.int 2
    %int3_421 = torch.constant.int 3
    %347 = torch.prim.ListConstruct %int2_420, %int3_421 : (!torch.int, !torch.int) -> !torch.list<int>
    %int0_422 = torch.constant.int 0
    %true_423 = torch.constant.bool true
    %result0_424, %result1_425 = torch.aten.var_mean.correction %346, %347, %int0_422, %true_423 : !torch.vtensor<[8,32,16,16384],f32>, !torch.list<int>, !torch.int, !torch.bool -> !torch.vtensor<[8,32,1,1],f32>, !torch.vtensor<[8,32,1,1],f32>
    %float9.999990e-07_426 = torch.constant.float 9.9999999999999995E-7
    %int1_427 = torch.constant.int 1
    %348 = torch.aten.add.Scalar %result0_424, %float9.999990e-07_426, %int1_427 : !torch.vtensor<[8,32,1,1],f32>, !torch.float, !torch.int -> !torch.vtensor<[8,32,1,1],f32>
    %349 = torch.aten.rsqrt %348 : !torch.vtensor<[8,32,1,1],f32> -> !torch.vtensor<[8,32,1,1],f32>
    %int1_428 = torch.constant.int 1
    %350 = torch.aten.sub.Tensor %345, %result1_425, %int1_428 : !torch.vtensor<[8,32,16,16384],f16>, !torch.vtensor<[8,32,1,1],f32>, !torch.int -> !torch.vtensor<[8,32,16,16384],f32>
    %351 = torch.aten.mul.Tensor %350, %349 : !torch.vtensor<[8,32,16,16384],f32>, !torch.vtensor<[8,32,1,1],f32> -> !torch.vtensor<[8,32,16,16384],f32>
    %int8_429 = torch.constant.int 8
    %int512_430 = torch.constant.int 512
    %int128_431 = torch.constant.int 128
    %int128_432 = torch.constant.int 128
    %352 = torch.prim.ListConstruct %int8_429, %int512_430, %int128_431, %int128_432 : (!torch.int, !torch.int, !torch.int, !torch.int) -> !torch.list<int>
    %353 = torch.aten.view %351, %352 : !torch.vtensor<[8,32,16,16384],f32>, !torch.list<int> -> !torch.vtensor<[8,512,128,128],f32>
    %__auto.vae.decoder.up_blocks.0.resnets.1.norm2.bias = util.global.load @__auto.vae.decoder.up_blocks.0.resnets.1.norm2.bias : tensor<512xf16>
    %354 = torch_c.from_builtin_tensor %__auto.vae.decoder.up_blocks.0.resnets.1.norm2.bias : tensor<512xf16> -> !torch.vtensor<[512],f16>
    %int0_433 = torch.constant.int 0
    %355 = torch.aten.unsqueeze %354, %int0_433 : !torch.vtensor<[512],f16>, !torch.int -> !torch.vtensor<[1,512],f16>
    %int2_434 = torch.constant.int 2
    %356 = torch.aten.unsqueeze %355, %int2_434 : !torch.vtensor<[1,512],f16>, !torch.int -> !torch.vtensor<[1,512,1],f16>
    %int3_435 = torch.constant.int 3
    %357 = torch.aten.unsqueeze %356, %int3_435 : !torch.vtensor<[1,512,1],f16>, !torch.int -> !torch.vtensor<[1,512,1,1],f16>
    %__auto.vae.decoder.up_blocks.0.resnets.1.norm2.weight = util.global.load @__auto.vae.decoder.up_blocks.0.resnets.1.norm2.weight : tensor<512xf16>
    %358 = torch_c.from_builtin_tensor %__auto.vae.decoder.up_blocks.0.resnets.1.norm2.weight : tensor<512xf16> -> !torch.vtensor<[512],f16>
    %int0_436 = torch.constant.int 0
    %359 = torch.aten.unsqueeze %358, %int0_436 : !torch.vtensor<[512],f16>, !torch.int -> !torch.vtensor<[1,512],f16>
    %int2_437 = torch.constant.int 2
    %360 = torch.aten.unsqueeze %359, %int2_437 : !torch.vtensor<[1,512],f16>, !torch.int -> !torch.vtensor<[1,512,1],f16>
    %int3_438 = torch.constant.int 3
    %361 = torch.aten.unsqueeze %360, %int3_438 : !torch.vtensor<[1,512,1],f16>, !torch.int -> !torch.vtensor<[1,512,1,1],f16>
    %362 = torch.aten.mul.Tensor %353, %361 : !torch.vtensor<[8,512,128,128],f32>, !torch.vtensor<[1,512,1,1],f16> -> !torch.vtensor<[8,512,128,128],f32>
    %int1_439 = torch.constant.int 1
    %363 = torch.aten.add.Tensor %362, %357, %int1_439 : !torch.vtensor<[8,512,128,128],f32>, !torch.vtensor<[1,512,1,1],f16>, !torch.int -> !torch.vtensor<[8,512,128,128],f32>
    %int5_440 = torch.constant.int 5
    %364 = torch.prims.convert_element_type %363, %int5_440 : !torch.vtensor<[8,512,128,128],f32>, !torch.int -> !torch.vtensor<[8,512,128,128],f16>
    %365 = torch.aten.silu %364 : !torch.vtensor<[8,512,128,128],f16> -> !torch.vtensor<[8,512,128,128],f16>
    %none_441 = torch.constant.none
    %366 = torch.aten.clone %365, %none_441 : !torch.vtensor<[8,512,128,128],f16>, !torch.none -> !torch.vtensor<[8,512,128,128],f16>
    %__auto.vae.decoder.up_blocks.0.resnets.1.conv2.weight = util.global.load @__auto.vae.decoder.up_blocks.0.resnets.1.conv2.weight : tensor<512x512x3x3xf16>
    %367 = torch_c.from_builtin_tensor %__auto.vae.decoder.up_blocks.0.resnets.1.conv2.weight : tensor<512x512x3x3xf16> -> !torch.vtensor<[512,512,3,3],f16>
    %__auto.vae.decoder.up_blocks.0.resnets.1.conv2.bias = util.global.load @__auto.vae.decoder.up_blocks.0.resnets.1.conv2.bias : tensor<512xf16>
    %368 = torch_c.from_builtin_tensor %__auto.vae.decoder.up_blocks.0.resnets.1.conv2.bias : tensor<512xf16> -> !torch.vtensor<[512],f16>
    %int1_442 = torch.constant.int 1
    %int1_443 = torch.constant.int 1
    %369 = torch.prim.ListConstruct %int1_442, %int1_443 : (!torch.int, !torch.int) -> !torch.list<int>
    %int1_444 = torch.constant.int 1
    %int1_445 = torch.constant.int 1
    %370 = torch.prim.ListConstruct %int1_444, %int1_445 : (!torch.int, !torch.int) -> !torch.list<int>
    %int1_446 = torch.constant.int 1
    %int1_447 = torch.constant.int 1
    %371 = torch.prim.ListConstruct %int1_446, %int1_447 : (!torch.int, !torch.int) -> !torch.list<int>
    %false_448 = torch.constant.bool false
    %int0_449 = torch.constant.int 0
    %int0_450 = torch.constant.int 0
    %372 = torch.prim.ListConstruct %int0_449, %int0_450 : (!torch.int, !torch.int) -> !torch.list<int>
    %int1_451 = torch.constant.int 1
    %373 = torch.aten.convolution %366, %367, %368, %369, %370, %371, %false_448, %372, %int1_451 : !torch.vtensor<[8,512,128,128],f16>, !torch.vtensor<[512,512,3,3],f16>, !torch.vtensor<[512],f16>, !torch.list<int>, !torch.list<int>, !torch.list<int>, !torch.bool, !torch.list<int>, !torch.int -> !torch.vtensor<[8,512,128,128],f16>
    %int1_452 = torch.constant.int 1
    %374 = torch.aten.add.Tensor %314, %373, %int1_452 : !torch.vtensor<[8,512,128,128],f16>, !torch.vtensor<[8,512,128,128],f16>, !torch.int -> !torch.vtensor<[8,512,128,128],f16>
    %float1.000000e00_453 = torch.constant.float 1.000000e+00
    %375 = torch.aten.div.Scalar %374, %float1.000000e00_453 : !torch.vtensor<[8,512,128,128],f16>, !torch.float -> !torch.vtensor<[8,512,128,128],f16>
    %int8_454 = torch.constant.int 8
    %int32_455 = torch.constant.int 32
    %int16_456 = torch.constant.int 16
    %int16384_457 = torch.constant.int 16384
    %376 = torch.prim.ListConstruct %int8_454, %int32_455, %int16_456, %int16384_457 : (!torch.int, !torch.int, !torch.int, !torch.int) -> !torch.list<int>
    %377 = torch.aten.view %375, %376 : !torch.vtensor<[8,512,128,128],f16>, !torch.list<int> -> !torch.vtensor<[8,32,16,16384],f16>
    %int6_458 = torch.constant.int 6
    %378 = torch.prims.convert_element_type %377, %int6_458 : !torch.vtensor<[8,32,16,16384],f16>, !torch.int -> !torch.vtensor<[8,32,16,16384],f32>
    %int2_459 = torch.constant.int 2
    %int3_460 = torch.constant.int 3
    %379 = torch.prim.ListConstruct %int2_459, %int3_460 : (!torch.int, !torch.int) -> !torch.list<int>
    %int0_461 = torch.constant.int 0
    %true_462 = torch.constant.bool true
    %result0_463, %result1_464 = torch.aten.var_mean.correction %378, %379, %int0_461, %true_462 : !torch.vtensor<[8,32,16,16384],f32>, !torch.list<int>, !torch.int, !torch.bool -> !torch.vtensor<[8,32,1,1],f32>, !torch.vtensor<[8,32,1,1],f32>
    %float9.999990e-07_465 = torch.constant.float 9.9999999999999995E-7
    %int1_466 = torch.constant.int 1
    %380 = torch.aten.add.Scalar %result0_463, %float9.999990e-07_465, %int1_466 : !torch.vtensor<[8,32,1,1],f32>, !torch.float, !torch.int -> !torch.vtensor<[8,32,1,1],f32>
    %381 = torch.aten.rsqrt %380 : !torch.vtensor<[8,32,1,1],f32> -> !torch.vtensor<[8,32,1,1],f32>
    %int1_467 = torch.constant.int 1
    %382 = torch.aten.sub.Tensor %377, %result1_464, %int1_467 : !torch.vtensor<[8,32,16,16384],f16>, !torch.vtensor<[8,32,1,1],f32>, !torch.int -> !torch.vtensor<[8,32,16,16384],f32>
    %383 = torch.aten.mul.Tensor %382, %381 : !torch.vtensor<[8,32,16,16384],f32>, !torch.vtensor<[8,32,1,1],f32> -> !torch.vtensor<[8,32,16,16384],f32>
    %int8_468 = torch.constant.int 8
    %int512_469 = torch.constant.int 512
    %int128_470 = torch.constant.int 128
    %int128_471 = torch.constant.int 128
    %384 = torch.prim.ListConstruct %int8_468, %int512_469, %int128_470, %int128_471 : (!torch.int, !torch.int, !torch.int, !torch.int) -> !torch.list<int>
    %385 = torch.aten.view %383, %384 : !torch.vtensor<[8,32,16,16384],f32>, !torch.list<int> -> !torch.vtensor<[8,512,128,128],f32>
    %__auto.vae.decoder.up_blocks.0.resnets.2.norm1.bias = util.global.load @__auto.vae.decoder.up_blocks.0.resnets.2.norm1.bias : tensor<512xf16>
    %386 = torch_c.from_builtin_tensor %__auto.vae.decoder.up_blocks.0.resnets.2.norm1.bias : tensor<512xf16> -> !torch.vtensor<[512],f16>
    %int0_472 = torch.constant.int 0
    %387 = torch.aten.unsqueeze %386, %int0_472 : !torch.vtensor<[512],f16>, !torch.int -> !torch.vtensor<[1,512],f16>
    %int2_473 = torch.constant.int 2
    %388 = torch.aten.unsqueeze %387, %int2_473 : !torch.vtensor<[1,512],f16>, !torch.int -> !torch.vtensor<[1,512,1],f16>
    %int3_474 = torch.constant.int 3
    %389 = torch.aten.unsqueeze %388, %int3_474 : !torch.vtensor<[1,512,1],f16>, !torch.int -> !torch.vtensor<[1,512,1,1],f16>
    %__auto.vae.decoder.up_blocks.0.resnets.2.norm1.weight = util.global.load @__auto.vae.decoder.up_blocks.0.resnets.2.norm1.weight : tensor<512xf16>
    %390 = torch_c.from_builtin_tensor %__auto.vae.decoder.up_blocks.0.resnets.2.norm1.weight : tensor<512xf16> -> !torch.vtensor<[512],f16>
    %int0_475 = torch.constant.int 0
    %391 = torch.aten.unsqueeze %390, %int0_475 : !torch.vtensor<[512],f16>, !torch.int -> !torch.vtensor<[1,512],f16>
    %int2_476 = torch.constant.int 2
    %392 = torch.aten.unsqueeze %391, %int2_476 : !torch.vtensor<[1,512],f16>, !torch.int -> !torch.vtensor<[1,512,1],f16>
    %int3_477 = torch.constant.int 3
    %393 = torch.aten.unsqueeze %392, %int3_477 : !torch.vtensor<[1,512,1],f16>, !torch.int -> !torch.vtensor<[1,512,1,1],f16>
    %394 = torch.aten.mul.Tensor %385, %393 : !torch.vtensor<[8,512,128,128],f32>, !torch.vtensor<[1,512,1,1],f16> -> !torch.vtensor<[8,512,128,128],f32>
    %int1_478 = torch.constant.int 1
    %395 = torch.aten.add.Tensor %394, %389, %int1_478 : !torch.vtensor<[8,512,128,128],f32>, !torch.vtensor<[1,512,1,1],f16>, !torch.int -> !torch.vtensor<[8,512,128,128],f32>
    %int5_479 = torch.constant.int 5
    %396 = torch.prims.convert_element_type %395, %int5_479 : !torch.vtensor<[8,512,128,128],f32>, !torch.int -> !torch.vtensor<[8,512,128,128],f16>
    %397 = torch.aten.silu %396 : !torch.vtensor<[8,512,128,128],f16> -> !torch.vtensor<[8,512,128,128],f16>
    %__auto.vae.decoder.up_blocks.0.resnets.2.conv1.weight = util.global.load @__auto.vae.decoder.up_blocks.0.resnets.2.conv1.weight : tensor<512x512x3x3xf16>
    %398 = torch_c.from_builtin_tensor %__auto.vae.decoder.up_blocks.0.resnets.2.conv1.weight : tensor<512x512x3x3xf16> -> !torch.vtensor<[512,512,3,3],f16>
    %__auto.vae.decoder.up_blocks.0.resnets.2.conv1.bias = util.global.load @__auto.vae.decoder.up_blocks.0.resnets.2.conv1.bias : tensor<512xf16>
    %399 = torch_c.from_builtin_tensor %__auto.vae.decoder.up_blocks.0.resnets.2.conv1.bias : tensor<512xf16> -> !torch.vtensor<[512],f16>
    %int1_480 = torch.constant.int 1
    %int1_481 = torch.constant.int 1
    %400 = torch.prim.ListConstruct %int1_480, %int1_481 : (!torch.int, !torch.int) -> !torch.list<int>
    %int1_482 = torch.constant.int 1
    %int1_483 = torch.constant.int 1
    %401 = torch.prim.ListConstruct %int1_482, %int1_483 : (!torch.int, !torch.int) -> !torch.list<int>
    %int1_484 = torch.constant.int 1
    %int1_485 = torch.constant.int 1
    %402 = torch.prim.ListConstruct %int1_484, %int1_485 : (!torch.int, !torch.int) -> !torch.list<int>
    %false_486 = torch.constant.bool false
    %int0_487 = torch.constant.int 0
    %int0_488 = torch.constant.int 0
    %403 = torch.prim.ListConstruct %int0_487, %int0_488 : (!torch.int, !torch.int) -> !torch.list<int>
    %int1_489 = torch.constant.int 1
    %404 = torch.aten.convolution %397, %398, %399, %400, %401, %402, %false_486, %403, %int1_489 : !torch.vtensor<[8,512,128,128],f16>, !torch.vtensor<[512,512,3,3],f16>, !torch.vtensor<[512],f16>, !torch.list<int>, !torch.list<int>, !torch.list<int>, !torch.bool, !torch.list<int>, !torch.int -> !torch.vtensor<[8,512,128,128],f16>
    %int8_490 = torch.constant.int 8
    %int32_491 = torch.constant.int 32
    %int16_492 = torch.constant.int 16
    %int16384_493 = torch.constant.int 16384
    %405 = torch.prim.ListConstruct %int8_490, %int32_491, %int16_492, %int16384_493 : (!torch.int, !torch.int, !torch.int, !torch.int) -> !torch.list<int>
    %406 = torch.aten.view %404, %405 : !torch.vtensor<[8,512,128,128],f16>, !torch.list<int> -> !torch.vtensor<[8,32,16,16384],f16>
    %int6_494 = torch.constant.int 6
    %407 = torch.prims.convert_element_type %406, %int6_494 : !torch.vtensor<[8,32,16,16384],f16>, !torch.int -> !torch.vtensor<[8,32,16,16384],f32>
    %int2_495 = torch.constant.int 2
    %int3_496 = torch.constant.int 3
    %408 = torch.prim.ListConstruct %int2_495, %int3_496 : (!torch.int, !torch.int) -> !torch.list<int>
    %int0_497 = torch.constant.int 0
    %true_498 = torch.constant.bool true
    %result0_499, %result1_500 = torch.aten.var_mean.correction %407, %408, %int0_497, %true_498 : !torch.vtensor<[8,32,16,16384],f32>, !torch.list<int>, !torch.int, !torch.bool -> !torch.vtensor<[8,32,1,1],f32>, !torch.vtensor<[8,32,1,1],f32>
    %float9.999990e-07_501 = torch.constant.float 9.9999999999999995E-7
    %int1_502 = torch.constant.int 1
    %409 = torch.aten.add.Scalar %result0_499, %float9.999990e-07_501, %int1_502 : !torch.vtensor<[8,32,1,1],f32>, !torch.float, !torch.int -> !torch.vtensor<[8,32,1,1],f32>
    %410 = torch.aten.rsqrt %409 : !torch.vtensor<[8,32,1,1],f32> -> !torch.vtensor<[8,32,1,1],f32>
    %int1_503 = torch.constant.int 1
    %411 = torch.aten.sub.Tensor %406, %result1_500, %int1_503 : !torch.vtensor<[8,32,16,16384],f16>, !torch.vtensor<[8,32,1,1],f32>, !torch.int -> !torch.vtensor<[8,32,16,16384],f32>
    %412 = torch.aten.mul.Tensor %411, %410 : !torch.vtensor<[8,32,16,16384],f32>, !torch.vtensor<[8,32,1,1],f32> -> !torch.vtensor<[8,32,16,16384],f32>
    %int8_504 = torch.constant.int 8
    %int512_505 = torch.constant.int 512
    %int128_506 = torch.constant.int 128
    %int128_507 = torch.constant.int 128
    %413 = torch.prim.ListConstruct %int8_504, %int512_505, %int128_506, %int128_507 : (!torch.int, !torch.int, !torch.int, !torch.int) -> !torch.list<int>
    %414 = torch.aten.view %412, %413 : !torch.vtensor<[8,32,16,16384],f32>, !torch.list<int> -> !torch.vtensor<[8,512,128,128],f32>
    %__auto.vae.decoder.up_blocks.0.resnets.2.norm2.bias = util.global.load @__auto.vae.decoder.up_blocks.0.resnets.2.norm2.bias : tensor<512xf16>
    %415 = torch_c.from_builtin_tensor %__auto.vae.decoder.up_blocks.0.resnets.2.norm2.bias : tensor<512xf16> -> !torch.vtensor<[512],f16>
    %int0_508 = torch.constant.int 0
    %416 = torch.aten.unsqueeze %415, %int0_508 : !torch.vtensor<[512],f16>, !torch.int -> !torch.vtensor<[1,512],f16>
    %int2_509 = torch.constant.int 2
    %417 = torch.aten.unsqueeze %416, %int2_509 : !torch.vtensor<[1,512],f16>, !torch.int -> !torch.vtensor<[1,512,1],f16>
    %int3_510 = torch.constant.int 3
    %418 = torch.aten.unsqueeze %417, %int3_510 : !torch.vtensor<[1,512,1],f16>, !torch.int -> !torch.vtensor<[1,512,1,1],f16>
    %__auto.vae.decoder.up_blocks.0.resnets.2.norm2.weight = util.global.load @__auto.vae.decoder.up_blocks.0.resnets.2.norm2.weight : tensor<512xf16>
    %419 = torch_c.from_builtin_tensor %__auto.vae.decoder.up_blocks.0.resnets.2.norm2.weight : tensor<512xf16> -> !torch.vtensor<[512],f16>
    %int0_511 = torch.constant.int 0
    %420 = torch.aten.unsqueeze %419, %int0_511 : !torch.vtensor<[512],f16>, !torch.int -> !torch.vtensor<[1,512],f16>
    %int2_512 = torch.constant.int 2
    %421 = torch.aten.unsqueeze %420, %int2_512 : !torch.vtensor<[1,512],f16>, !torch.int -> !torch.vtensor<[1,512,1],f16>
    %int3_513 = torch.constant.int 3
    %422 = torch.aten.unsqueeze %421, %int3_513 : !torch.vtensor<[1,512,1],f16>, !torch.int -> !torch.vtensor<[1,512,1,1],f16>
    %423 = torch.aten.mul.Tensor %414, %422 : !torch.vtensor<[8,512,128,128],f32>, !torch.vtensor<[1,512,1,1],f16> -> !torch.vtensor<[8,512,128,128],f32>
    %int1_514 = torch.constant.int 1
    %424 = torch.aten.add.Tensor %423, %418, %int1_514 : !torch.vtensor<[8,512,128,128],f32>, !torch.vtensor<[1,512,1,1],f16>, !torch.int -> !torch.vtensor<[8,512,128,128],f32>
    %int5_515 = torch.constant.int 5
    %425 = torch.prims.convert_element_type %424, %int5_515 : !torch.vtensor<[8,512,128,128],f32>, !torch.int -> !torch.vtensor<[8,512,128,128],f16>
    %426 = torch.aten.silu %425 : !torch.vtensor<[8,512,128,128],f16> -> !torch.vtensor<[8,512,128,128],f16>
    %none_516 = torch.constant.none
    %427 = torch.aten.clone %426, %none_516 : !torch.vtensor<[8,512,128,128],f16>, !torch.none -> !torch.vtensor<[8,512,128,128],f16>
    %__auto.vae.decoder.up_blocks.0.resnets.2.conv2.weight = util.global.load @__auto.vae.decoder.up_blocks.0.resnets.2.conv2.weight : tensor<512x512x3x3xf16>
    %428 = torch_c.from_builtin_tensor %__auto.vae.decoder.up_blocks.0.resnets.2.conv2.weight : tensor<512x512x3x3xf16> -> !torch.vtensor<[512,512,3,3],f16>
    %__auto.vae.decoder.up_blocks.0.resnets.2.conv2.bias = util.global.load @__auto.vae.decoder.up_blocks.0.resnets.2.conv2.bias : tensor<512xf16>
    %429 = torch_c.from_builtin_tensor %__auto.vae.decoder.up_blocks.0.resnets.2.conv2.bias : tensor<512xf16> -> !torch.vtensor<[512],f16>
    %int1_517 = torch.constant.int 1
    %int1_518 = torch.constant.int 1
    %430 = torch.prim.ListConstruct %int1_517, %int1_518 : (!torch.int, !torch.int) -> !torch.list<int>
    %int1_519 = torch.constant.int 1
    %int1_520 = torch.constant.int 1
    %431 = torch.prim.ListConstruct %int1_519, %int1_520 : (!torch.int, !torch.int) -> !torch.list<int>
    %int1_521 = torch.constant.int 1
    %int1_522 = torch.constant.int 1
    %432 = torch.prim.ListConstruct %int1_521, %int1_522 : (!torch.int, !torch.int) -> !torch.list<int>
    %false_523 = torch.constant.bool false
    %int0_524 = torch.constant.int 0
    %int0_525 = torch.constant.int 0
    %433 = torch.prim.ListConstruct %int0_524, %int0_525 : (!torch.int, !torch.int) -> !torch.list<int>
    %int1_526 = torch.constant.int 1
    %434 = torch.aten.convolution %427, %428, %429, %430, %431, %432, %false_523, %433, %int1_526 : !torch.vtensor<[8,512,128,128],f16>, !torch.vtensor<[512,512,3,3],f16>, !torch.vtensor<[512],f16>, !torch.list<int>, !torch.list<int>, !torch.list<int>, !torch.bool, !torch.list<int>, !torch.int -> !torch.vtensor<[8,512,128,128],f16>
    %int1_527 = torch.constant.int 1
    %435 = torch.aten.add.Tensor %375, %434, %int1_527 : !torch.vtensor<[8,512,128,128],f16>, !torch.vtensor<[8,512,128,128],f16>, !torch.int -> !torch.vtensor<[8,512,128,128],f16>
    %float1.000000e00_528 = torch.constant.float 1.000000e+00
    %436 = torch.aten.div.Scalar %435, %float1.000000e00_528 : !torch.vtensor<[8,512,128,128],f16>, !torch.float -> !torch.vtensor<[8,512,128,128],f16>
    %int6_529 = torch.constant.int 6
    %437 = torch.prims.convert_element_type %436, %int6_529 : !torch.vtensor<[8,512,128,128],f16>, !torch.int -> !torch.vtensor<[8,512,128,128],f32>
    %int256 = torch.constant.int 256
    %int6_530 = torch.constant.int 6
    %none_531 = torch.constant.none
    %cpu = torch.constant.device "cpu"
    %false_532 = torch.constant.bool false
    %438 = torch.aten.arange %int256, %int6_530, %none_531, %cpu, %false_532 : !torch.int, !torch.int, !torch.none, !torch.Device, !torch.bool -> !torch.vtensor<[256],f32>
    %float0.000000e00 = torch.constant.float 0.000000e+00
    %int1_533 = torch.constant.int 1
    %439 = torch.aten.add.Scalar %438, %float0.000000e00, %int1_533 : !torch.vtensor<[256],f32>, !torch.float, !torch.int -> !torch.vtensor<[256],f32>
    %float5.000000e-01 = torch.constant.float 5.000000e-01
    %440 = torch.aten.mul.Scalar %439, %float5.000000e-01 : !torch.vtensor<[256],f32>, !torch.float -> !torch.vtensor<[256],f32>
    %int4 = torch.constant.int 4
    %441 = torch.prims.convert_element_type %440, %int4 : !torch.vtensor<[256],f32>, !torch.int -> !torch.vtensor<[256],si64>
    %int-1_534 = torch.constant.int -1
    %442 = torch.aten.unsqueeze %441, %int-1_534 : !torch.vtensor<[256],si64>, !torch.int -> !torch.vtensor<[256,1],si64>
    %int256_535 = torch.constant.int 256
    %int6_536 = torch.constant.int 6
    %none_537 = torch.constant.none
    %cpu_538 = torch.constant.device "cpu"
    %false_539 = torch.constant.bool false
    %443 = torch.aten.arange %int256_535, %int6_536, %none_537, %cpu_538, %false_539 : !torch.int, !torch.int, !torch.none, !torch.Device, !torch.bool -> !torch.vtensor<[256],f32>
    %float0.000000e00_540 = torch.constant.float 0.000000e+00
    %int1_541 = torch.constant.int 1
    %444 = torch.aten.add.Scalar %443, %float0.000000e00_540, %int1_541 : !torch.vtensor<[256],f32>, !torch.float, !torch.int -> !torch.vtensor<[256],f32>
    %float5.000000e-01_542 = torch.constant.float 5.000000e-01
    %445 = torch.aten.mul.Scalar %444, %float5.000000e-01_542 : !torch.vtensor<[256],f32>, !torch.float -> !torch.vtensor<[256],f32>
    %int4_543 = torch.constant.int 4
    %446 = torch.prims.convert_element_type %445, %int4_543 : !torch.vtensor<[256],f32>, !torch.int -> !torch.vtensor<[256],si64>
    %none_544 = torch.constant.none
    %none_545 = torch.constant.none
    %447 = torch.prim.ListConstruct %none_544, %none_545, %442, %446 : (!torch.none, !torch.none, !torch.vtensor<[256,1],si64>, !torch.vtensor<[256],si64>) -> !torch.list<optional<vtensor>>
    %448 = torch.aten.index.Tensor %437, %447 : !torch.vtensor<[8,512,128,128],f32>, !torch.list<optional<vtensor>> -> !torch.vtensor<[8,512,256,256],f32>
    %int2_546 = torch.constant.int 2
    %449 = torch.aten.clone %448, %int2_546 : !torch.vtensor<[8,512,256,256],f32>, !torch.int -> !torch.vtensor<[8,512,256,256],f32>
    %int5_547 = torch.constant.int 5
    %450 = torch.prims.convert_element_type %449, %int5_547 : !torch.vtensor<[8,512,256,256],f32>, !torch.int -> !torch.vtensor<[8,512,256,256],f16>
    %__auto.vae.decoder.up_blocks.0.upsamplers.0.conv.weight = util.global.load @__auto.vae.decoder.up_blocks.0.upsamplers.0.conv.weight : tensor<512x512x3x3xf16>
    %451 = torch_c.from_builtin_tensor %__auto.vae.decoder.up_blocks.0.upsamplers.0.conv.weight : tensor<512x512x3x3xf16> -> !torch.vtensor<[512,512,3,3],f16>
    %__auto.vae.decoder.up_blocks.0.upsamplers.0.conv.bias = util.global.load @__auto.vae.decoder.up_blocks.0.upsamplers.0.conv.bias : tensor<512xf16>
    %452 = torch_c.from_builtin_tensor %__auto.vae.decoder.up_blocks.0.upsamplers.0.conv.bias : tensor<512xf16> -> !torch.vtensor<[512],f16>
    %int1_548 = torch.constant.int 1
    %int1_549 = torch.constant.int 1
    %453 = torch.prim.ListConstruct %int1_548, %int1_549 : (!torch.int, !torch.int) -> !torch.list<int>
    %int1_550 = torch.constant.int 1
    %int1_551 = torch.constant.int 1
    %454 = torch.prim.ListConstruct %int1_550, %int1_551 : (!torch.int, !torch.int) -> !torch.list<int>
    %int1_552 = torch.constant.int 1
    %int1_553 = torch.constant.int 1
    %455 = torch.prim.ListConstruct %int1_552, %int1_553 : (!torch.int, !torch.int) -> !torch.list<int>
    %false_554 = torch.constant.bool false
    %int0_555 = torch.constant.int 0
    %int0_556 = torch.constant.int 0
    %456 = torch.prim.ListConstruct %int0_555, %int0_556 : (!torch.int, !torch.int) -> !torch.list<int>
    %int1_557 = torch.constant.int 1
    %457 = torch.aten.convolution %450, %451, %452, %453, %454, %455, %false_554, %456, %int1_557 : !torch.vtensor<[8,512,256,256],f16>, !torch.vtensor<[512,512,3,3],f16>, !torch.vtensor<[512],f16>, !torch.list<int>, !torch.list<int>, !torch.list<int>, !torch.bool, !torch.list<int>, !torch.int -> !torch.vtensor<[8,512,256,256],f16>
    %int8_558 = torch.constant.int 8
    %int32_559 = torch.constant.int 32
    %int16_560 = torch.constant.int 16
    %int65536 = torch.constant.int 65536
    %458 = torch.prim.ListConstruct %int8_558, %int32_559, %int16_560, %int65536 : (!torch.int, !torch.int, !torch.int, !torch.int) -> !torch.list<int>
    %459 = torch.aten.view %457, %458 : !torch.vtensor<[8,512,256,256],f16>, !torch.list<int> -> !torch.vtensor<[8,32,16,65536],f16>
    %int6_561 = torch.constant.int 6
    %460 = torch.prims.convert_element_type %459, %int6_561 : !torch.vtensor<[8,32,16,65536],f16>, !torch.int -> !torch.vtensor<[8,32,16,65536],f32>
    %int2_562 = torch.constant.int 2
    %int3_563 = torch.constant.int 3
    %461 = torch.prim.ListConstruct %int2_562, %int3_563 : (!torch.int, !torch.int) -> !torch.list<int>
    %int0_564 = torch.constant.int 0
    %true_565 = torch.constant.bool true
    %result0_566, %result1_567 = torch.aten.var_mean.correction %460, %461, %int0_564, %true_565 : !torch.vtensor<[8,32,16,65536],f32>, !torch.list<int>, !torch.int, !torch.bool -> !torch.vtensor<[8,32,1,1],f32>, !torch.vtensor<[8,32,1,1],f32>
    %float9.999990e-07_568 = torch.constant.float 9.9999999999999995E-7
    %int1_569 = torch.constant.int 1
    %462 = torch.aten.add.Scalar %result0_566, %float9.999990e-07_568, %int1_569 : !torch.vtensor<[8,32,1,1],f32>, !torch.float, !torch.int -> !torch.vtensor<[8,32,1,1],f32>
    %463 = torch.aten.rsqrt %462 : !torch.vtensor<[8,32,1,1],f32> -> !torch.vtensor<[8,32,1,1],f32>
    %int1_570 = torch.constant.int 1
    %464 = torch.aten.sub.Tensor %459, %result1_567, %int1_570 : !torch.vtensor<[8,32,16,65536],f16>, !torch.vtensor<[8,32,1,1],f32>, !torch.int -> !torch.vtensor<[8,32,16,65536],f32>
    %465 = torch.aten.mul.Tensor %464, %463 : !torch.vtensor<[8,32,16,65536],f32>, !torch.vtensor<[8,32,1,1],f32> -> !torch.vtensor<[8,32,16,65536],f32>
    %int8_571 = torch.constant.int 8
    %int512_572 = torch.constant.int 512
    %int256_573 = torch.constant.int 256
    %int256_574 = torch.constant.int 256
    %466 = torch.prim.ListConstruct %int8_571, %int512_572, %int256_573, %int256_574 : (!torch.int, !torch.int, !torch.int, !torch.int) -> !torch.list<int>
    %467 = torch.aten.view %465, %466 : !torch.vtensor<[8,32,16,65536],f32>, !torch.list<int> -> !torch.vtensor<[8,512,256,256],f32>
    %__auto.vae.decoder.up_blocks.1.resnets.0.norm1.bias = util.global.load @__auto.vae.decoder.up_blocks.1.resnets.0.norm1.bias : tensor<512xf16>
    %468 = torch_c.from_builtin_tensor %__auto.vae.decoder.up_blocks.1.resnets.0.norm1.bias : tensor<512xf16> -> !torch.vtensor<[512],f16>
    %int0_575 = torch.constant.int 0
    %469 = torch.aten.unsqueeze %468, %int0_575 : !torch.vtensor<[512],f16>, !torch.int -> !torch.vtensor<[1,512],f16>
    %int2_576 = torch.constant.int 2
    %470 = torch.aten.unsqueeze %469, %int2_576 : !torch.vtensor<[1,512],f16>, !torch.int -> !torch.vtensor<[1,512,1],f16>
    %int3_577 = torch.constant.int 3
    %471 = torch.aten.unsqueeze %470, %int3_577 : !torch.vtensor<[1,512,1],f16>, !torch.int -> !torch.vtensor<[1,512,1,1],f16>
    %__auto.vae.decoder.up_blocks.1.resnets.0.norm1.weight = util.global.load @__auto.vae.decoder.up_blocks.1.resnets.0.norm1.weight : tensor<512xf16>
    %472 = torch_c.from_builtin_tensor %__auto.vae.decoder.up_blocks.1.resnets.0.norm1.weight : tensor<512xf16> -> !torch.vtensor<[512],f16>
    %int0_578 = torch.constant.int 0
    %473 = torch.aten.unsqueeze %472, %int0_578 : !torch.vtensor<[512],f16>, !torch.int -> !torch.vtensor<[1,512],f16>
    %int2_579 = torch.constant.int 2
    %474 = torch.aten.unsqueeze %473, %int2_579 : !torch.vtensor<[1,512],f16>, !torch.int -> !torch.vtensor<[1,512,1],f16>
    %int3_580 = torch.constant.int 3
    %475 = torch.aten.unsqueeze %474, %int3_580 : !torch.vtensor<[1,512,1],f16>, !torch.int -> !torch.vtensor<[1,512,1,1],f16>
    %476 = torch.aten.mul.Tensor %467, %475 : !torch.vtensor<[8,512,256,256],f32>, !torch.vtensor<[1,512,1,1],f16> -> !torch.vtensor<[8,512,256,256],f32>
    %int1_581 = torch.constant.int 1
    %477 = torch.aten.add.Tensor %476, %471, %int1_581 : !torch.vtensor<[8,512,256,256],f32>, !torch.vtensor<[1,512,1,1],f16>, !torch.int -> !torch.vtensor<[8,512,256,256],f32>
    %int5_582 = torch.constant.int 5
    %478 = torch.prims.convert_element_type %477, %int5_582 : !torch.vtensor<[8,512,256,256],f32>, !torch.int -> !torch.vtensor<[8,512,256,256],f16>
    %479 = torch.aten.silu %478 : !torch.vtensor<[8,512,256,256],f16> -> !torch.vtensor<[8,512,256,256],f16>
    %__auto.vae.decoder.up_blocks.1.resnets.0.conv1.weight = util.global.load @__auto.vae.decoder.up_blocks.1.resnets.0.conv1.weight : tensor<512x512x3x3xf16>
    %480 = torch_c.from_builtin_tensor %__auto.vae.decoder.up_blocks.1.resnets.0.conv1.weight : tensor<512x512x3x3xf16> -> !torch.vtensor<[512,512,3,3],f16>
    %__auto.vae.decoder.up_blocks.1.resnets.0.conv1.bias = util.global.load @__auto.vae.decoder.up_blocks.1.resnets.0.conv1.bias : tensor<512xf16>
    %481 = torch_c.from_builtin_tensor %__auto.vae.decoder.up_blocks.1.resnets.0.conv1.bias : tensor<512xf16> -> !torch.vtensor<[512],f16>
    %int1_583 = torch.constant.int 1
    %int1_584 = torch.constant.int 1
    %482 = torch.prim.ListConstruct %int1_583, %int1_584 : (!torch.int, !torch.int) -> !torch.list<int>
    %int1_585 = torch.constant.int 1
    %int1_586 = torch.constant.int 1
    %483 = torch.prim.ListConstruct %int1_585, %int1_586 : (!torch.int, !torch.int) -> !torch.list<int>
    %int1_587 = torch.constant.int 1
    %int1_588 = torch.constant.int 1
    %484 = torch.prim.ListConstruct %int1_587, %int1_588 : (!torch.int, !torch.int) -> !torch.list<int>
    %false_589 = torch.constant.bool false
    %int0_590 = torch.constant.int 0
    %int0_591 = torch.constant.int 0
    %485 = torch.prim.ListConstruct %int0_590, %int0_591 : (!torch.int, !torch.int) -> !torch.list<int>
    %int1_592 = torch.constant.int 1
    %486 = torch.aten.convolution %479, %480, %481, %482, %483, %484, %false_589, %485, %int1_592 : !torch.vtensor<[8,512,256,256],f16>, !torch.vtensor<[512,512,3,3],f16>, !torch.vtensor<[512],f16>, !torch.list<int>, !torch.list<int>, !torch.list<int>, !torch.bool, !torch.list<int>, !torch.int -> !torch.vtensor<[8,512,256,256],f16>
    %int8_593 = torch.constant.int 8
    %int32_594 = torch.constant.int 32
    %int16_595 = torch.constant.int 16
    %int65536_596 = torch.constant.int 65536
    %487 = torch.prim.ListConstruct %int8_593, %int32_594, %int16_595, %int65536_596 : (!torch.int, !torch.int, !torch.int, !torch.int) -> !torch.list<int>
    %488 = torch.aten.view %486, %487 : !torch.vtensor<[8,512,256,256],f16>, !torch.list<int> -> !torch.vtensor<[8,32,16,65536],f16>
    %int6_597 = torch.constant.int 6
    %489 = torch.prims.convert_element_type %488, %int6_597 : !torch.vtensor<[8,32,16,65536],f16>, !torch.int -> !torch.vtensor<[8,32,16,65536],f32>
    %int2_598 = torch.constant.int 2
    %int3_599 = torch.constant.int 3
    %490 = torch.prim.ListConstruct %int2_598, %int3_599 : (!torch.int, !torch.int) -> !torch.list<int>
    %int0_600 = torch.constant.int 0
    %true_601 = torch.constant.bool true
    %result0_602, %result1_603 = torch.aten.var_mean.correction %489, %490, %int0_600, %true_601 : !torch.vtensor<[8,32,16,65536],f32>, !torch.list<int>, !torch.int, !torch.bool -> !torch.vtensor<[8,32,1,1],f32>, !torch.vtensor<[8,32,1,1],f32>
    %float9.999990e-07_604 = torch.constant.float 9.9999999999999995E-7
    %int1_605 = torch.constant.int 1
    %491 = torch.aten.add.Scalar %result0_602, %float9.999990e-07_604, %int1_605 : !torch.vtensor<[8,32,1,1],f32>, !torch.float, !torch.int -> !torch.vtensor<[8,32,1,1],f32>
    %492 = torch.aten.rsqrt %491 : !torch.vtensor<[8,32,1,1],f32> -> !torch.vtensor<[8,32,1,1],f32>
    %int1_606 = torch.constant.int 1
    %493 = torch.aten.sub.Tensor %488, %result1_603, %int1_606 : !torch.vtensor<[8,32,16,65536],f16>, !torch.vtensor<[8,32,1,1],f32>, !torch.int -> !torch.vtensor<[8,32,16,65536],f32>
    %494 = torch.aten.mul.Tensor %493, %492 : !torch.vtensor<[8,32,16,65536],f32>, !torch.vtensor<[8,32,1,1],f32> -> !torch.vtensor<[8,32,16,65536],f32>
    %int8_607 = torch.constant.int 8
    %int512_608 = torch.constant.int 512
    %int256_609 = torch.constant.int 256
    %int256_610 = torch.constant.int 256
    %495 = torch.prim.ListConstruct %int8_607, %int512_608, %int256_609, %int256_610 : (!torch.int, !torch.int, !torch.int, !torch.int) -> !torch.list<int>
    %496 = torch.aten.view %494, %495 : !torch.vtensor<[8,32,16,65536],f32>, !torch.list<int> -> !torch.vtensor<[8,512,256,256],f32>
    %__auto.vae.decoder.up_blocks.1.resnets.0.norm2.bias = util.global.load @__auto.vae.decoder.up_blocks.1.resnets.0.norm2.bias : tensor<512xf16>
    %497 = torch_c.from_builtin_tensor %__auto.vae.decoder.up_blocks.1.resnets.0.norm2.bias : tensor<512xf16> -> !torch.vtensor<[512],f16>
    %int0_611 = torch.constant.int 0
    %498 = torch.aten.unsqueeze %497, %int0_611 : !torch.vtensor<[512],f16>, !torch.int -> !torch.vtensor<[1,512],f16>
    %int2_612 = torch.constant.int 2
    %499 = torch.aten.unsqueeze %498, %int2_612 : !torch.vtensor<[1,512],f16>, !torch.int -> !torch.vtensor<[1,512,1],f16>
    %int3_613 = torch.constant.int 3
    %500 = torch.aten.unsqueeze %499, %int3_613 : !torch.vtensor<[1,512,1],f16>, !torch.int -> !torch.vtensor<[1,512,1,1],f16>
    %__auto.vae.decoder.up_blocks.1.resnets.0.norm2.weight = util.global.load @__auto.vae.decoder.up_blocks.1.resnets.0.norm2.weight : tensor<512xf16>
    %501 = torch_c.from_builtin_tensor %__auto.vae.decoder.up_blocks.1.resnets.0.norm2.weight : tensor<512xf16> -> !torch.vtensor<[512],f16>
    %int0_614 = torch.constant.int 0
    %502 = torch.aten.unsqueeze %501, %int0_614 : !torch.vtensor<[512],f16>, !torch.int -> !torch.vtensor<[1,512],f16>
    %int2_615 = torch.constant.int 2
    %503 = torch.aten.unsqueeze %502, %int2_615 : !torch.vtensor<[1,512],f16>, !torch.int -> !torch.vtensor<[1,512,1],f16>
    %int3_616 = torch.constant.int 3
    %504 = torch.aten.unsqueeze %503, %int3_616 : !torch.vtensor<[1,512,1],f16>, !torch.int -> !torch.vtensor<[1,512,1,1],f16>
    %505 = torch.aten.mul.Tensor %496, %504 : !torch.vtensor<[8,512,256,256],f32>, !torch.vtensor<[1,512,1,1],f16> -> !torch.vtensor<[8,512,256,256],f32>
    %int1_617 = torch.constant.int 1
    %506 = torch.aten.add.Tensor %505, %500, %int1_617 : !torch.vtensor<[8,512,256,256],f32>, !torch.vtensor<[1,512,1,1],f16>, !torch.int -> !torch.vtensor<[8,512,256,256],f32>
    %int5_618 = torch.constant.int 5
    %507 = torch.prims.convert_element_type %506, %int5_618 : !torch.vtensor<[8,512,256,256],f32>, !torch.int -> !torch.vtensor<[8,512,256,256],f16>
    %508 = torch.aten.silu %507 : !torch.vtensor<[8,512,256,256],f16> -> !torch.vtensor<[8,512,256,256],f16>
    %none_619 = torch.constant.none
    %509 = torch.aten.clone %508, %none_619 : !torch.vtensor<[8,512,256,256],f16>, !torch.none -> !torch.vtensor<[8,512,256,256],f16>
    %__auto.vae.decoder.up_blocks.1.resnets.0.conv2.weight = util.global.load @__auto.vae.decoder.up_blocks.1.resnets.0.conv2.weight : tensor<512x512x3x3xf16>
    %510 = torch_c.from_builtin_tensor %__auto.vae.decoder.up_blocks.1.resnets.0.conv2.weight : tensor<512x512x3x3xf16> -> !torch.vtensor<[512,512,3,3],f16>
    %__auto.vae.decoder.up_blocks.1.resnets.0.conv2.bias = util.global.load @__auto.vae.decoder.up_blocks.1.resnets.0.conv2.bias : tensor<512xf16>
    %511 = torch_c.from_builtin_tensor %__auto.vae.decoder.up_blocks.1.resnets.0.conv2.bias : tensor<512xf16> -> !torch.vtensor<[512],f16>
    %int1_620 = torch.constant.int 1
    %int1_621 = torch.constant.int 1
    %512 = torch.prim.ListConstruct %int1_620, %int1_621 : (!torch.int, !torch.int) -> !torch.list<int>
    %int1_622 = torch.constant.int 1
    %int1_623 = torch.constant.int 1
    %513 = torch.prim.ListConstruct %int1_622, %int1_623 : (!torch.int, !torch.int) -> !torch.list<int>
    %int1_624 = torch.constant.int 1
    %int1_625 = torch.constant.int 1
    %514 = torch.prim.ListConstruct %int1_624, %int1_625 : (!torch.int, !torch.int) -> !torch.list<int>
    %false_626 = torch.constant.bool false
    %int0_627 = torch.constant.int 0
    %int0_628 = torch.constant.int 0
    %515 = torch.prim.ListConstruct %int0_627, %int0_628 : (!torch.int, !torch.int) -> !torch.list<int>
    %int1_629 = torch.constant.int 1
    %516 = torch.aten.convolution %509, %510, %511, %512, %513, %514, %false_626, %515, %int1_629 : !torch.vtensor<[8,512,256,256],f16>, !torch.vtensor<[512,512,3,3],f16>, !torch.vtensor<[512],f16>, !torch.list<int>, !torch.list<int>, !torch.list<int>, !torch.bool, !torch.list<int>, !torch.int -> !torch.vtensor<[8,512,256,256],f16>
    %int1_630 = torch.constant.int 1
    %517 = torch.aten.add.Tensor %457, %516, %int1_630 : !torch.vtensor<[8,512,256,256],f16>, !torch.vtensor<[8,512,256,256],f16>, !torch.int -> !torch.vtensor<[8,512,256,256],f16>
    %float1.000000e00_631 = torch.constant.float 1.000000e+00
    %518 = torch.aten.div.Scalar %517, %float1.000000e00_631 : !torch.vtensor<[8,512,256,256],f16>, !torch.float -> !torch.vtensor<[8,512,256,256],f16>
    %int8_632 = torch.constant.int 8
    %int32_633 = torch.constant.int 32
    %int16_634 = torch.constant.int 16
    %int65536_635 = torch.constant.int 65536
    %519 = torch.prim.ListConstruct %int8_632, %int32_633, %int16_634, %int65536_635 : (!torch.int, !torch.int, !torch.int, !torch.int) -> !torch.list<int>
    %520 = torch.aten.view %518, %519 : !torch.vtensor<[8,512,256,256],f16>, !torch.list<int> -> !torch.vtensor<[8,32,16,65536],f16>
    %int6_636 = torch.constant.int 6
    %521 = torch.prims.convert_element_type %520, %int6_636 : !torch.vtensor<[8,32,16,65536],f16>, !torch.int -> !torch.vtensor<[8,32,16,65536],f32>
    %int2_637 = torch.constant.int 2
    %int3_638 = torch.constant.int 3
    %522 = torch.prim.ListConstruct %int2_637, %int3_638 : (!torch.int, !torch.int) -> !torch.list<int>
    %int0_639 = torch.constant.int 0
    %true_640 = torch.constant.bool true
    %result0_641, %result1_642 = torch.aten.var_mean.correction %521, %522, %int0_639, %true_640 : !torch.vtensor<[8,32,16,65536],f32>, !torch.list<int>, !torch.int, !torch.bool -> !torch.vtensor<[8,32,1,1],f32>, !torch.vtensor<[8,32,1,1],f32>
    %float9.999990e-07_643 = torch.constant.float 9.9999999999999995E-7
    %int1_644 = torch.constant.int 1
    %523 = torch.aten.add.Scalar %result0_641, %float9.999990e-07_643, %int1_644 : !torch.vtensor<[8,32,1,1],f32>, !torch.float, !torch.int -> !torch.vtensor<[8,32,1,1],f32>
    %524 = torch.aten.rsqrt %523 : !torch.vtensor<[8,32,1,1],f32> -> !torch.vtensor<[8,32,1,1],f32>
    %int1_645 = torch.constant.int 1
    %525 = torch.aten.sub.Tensor %520, %result1_642, %int1_645 : !torch.vtensor<[8,32,16,65536],f16>, !torch.vtensor<[8,32,1,1],f32>, !torch.int -> !torch.vtensor<[8,32,16,65536],f32>
    %526 = torch.aten.mul.Tensor %525, %524 : !torch.vtensor<[8,32,16,65536],f32>, !torch.vtensor<[8,32,1,1],f32> -> !torch.vtensor<[8,32,16,65536],f32>
    %int8_646 = torch.constant.int 8
    %int512_647 = torch.constant.int 512
    %int256_648 = torch.constant.int 256
    %int256_649 = torch.constant.int 256
    %527 = torch.prim.ListConstruct %int8_646, %int512_647, %int256_648, %int256_649 : (!torch.int, !torch.int, !torch.int, !torch.int) -> !torch.list<int>
    %528 = torch.aten.view %526, %527 : !torch.vtensor<[8,32,16,65536],f32>, !torch.list<int> -> !torch.vtensor<[8,512,256,256],f32>
    %__auto.vae.decoder.up_blocks.1.resnets.1.norm1.bias = util.global.load @__auto.vae.decoder.up_blocks.1.resnets.1.norm1.bias : tensor<512xf16>
    %529 = torch_c.from_builtin_tensor %__auto.vae.decoder.up_blocks.1.resnets.1.norm1.bias : tensor<512xf16> -> !torch.vtensor<[512],f16>
    %int0_650 = torch.constant.int 0
    %530 = torch.aten.unsqueeze %529, %int0_650 : !torch.vtensor<[512],f16>, !torch.int -> !torch.vtensor<[1,512],f16>
    %int2_651 = torch.constant.int 2
    %531 = torch.aten.unsqueeze %530, %int2_651 : !torch.vtensor<[1,512],f16>, !torch.int -> !torch.vtensor<[1,512,1],f16>
    %int3_652 = torch.constant.int 3
    %532 = torch.aten.unsqueeze %531, %int3_652 : !torch.vtensor<[1,512,1],f16>, !torch.int -> !torch.vtensor<[1,512,1,1],f16>
    %__auto.vae.decoder.up_blocks.1.resnets.1.norm1.weight = util.global.load @__auto.vae.decoder.up_blocks.1.resnets.1.norm1.weight : tensor<512xf16>
    %533 = torch_c.from_builtin_tensor %__auto.vae.decoder.up_blocks.1.resnets.1.norm1.weight : tensor<512xf16> -> !torch.vtensor<[512],f16>
    %int0_653 = torch.constant.int 0
    %534 = torch.aten.unsqueeze %533, %int0_653 : !torch.vtensor<[512],f16>, !torch.int -> !torch.vtensor<[1,512],f16>
    %int2_654 = torch.constant.int 2
    %535 = torch.aten.unsqueeze %534, %int2_654 : !torch.vtensor<[1,512],f16>, !torch.int -> !torch.vtensor<[1,512,1],f16>
    %int3_655 = torch.constant.int 3
    %536 = torch.aten.unsqueeze %535, %int3_655 : !torch.vtensor<[1,512,1],f16>, !torch.int -> !torch.vtensor<[1,512,1,1],f16>
    %537 = torch.aten.mul.Tensor %528, %536 : !torch.vtensor<[8,512,256,256],f32>, !torch.vtensor<[1,512,1,1],f16> -> !torch.vtensor<[8,512,256,256],f32>
    %int1_656 = torch.constant.int 1
    %538 = torch.aten.add.Tensor %537, %532, %int1_656 : !torch.vtensor<[8,512,256,256],f32>, !torch.vtensor<[1,512,1,1],f16>, !torch.int -> !torch.vtensor<[8,512,256,256],f32>
    %int5_657 = torch.constant.int 5
    %539 = torch.prims.convert_element_type %538, %int5_657 : !torch.vtensor<[8,512,256,256],f32>, !torch.int -> !torch.vtensor<[8,512,256,256],f16>
    %540 = torch.aten.silu %539 : !torch.vtensor<[8,512,256,256],f16> -> !torch.vtensor<[8,512,256,256],f16>
    %__auto.vae.decoder.up_blocks.1.resnets.1.conv1.weight = util.global.load @__auto.vae.decoder.up_blocks.1.resnets.1.conv1.weight : tensor<512x512x3x3xf16>
    %541 = torch_c.from_builtin_tensor %__auto.vae.decoder.up_blocks.1.resnets.1.conv1.weight : tensor<512x512x3x3xf16> -> !torch.vtensor<[512,512,3,3],f16>
    %__auto.vae.decoder.up_blocks.1.resnets.1.conv1.bias = util.global.load @__auto.vae.decoder.up_blocks.1.resnets.1.conv1.bias : tensor<512xf16>
    %542 = torch_c.from_builtin_tensor %__auto.vae.decoder.up_blocks.1.resnets.1.conv1.bias : tensor<512xf16> -> !torch.vtensor<[512],f16>
    %int1_658 = torch.constant.int 1
    %int1_659 = torch.constant.int 1
    %543 = torch.prim.ListConstruct %int1_658, %int1_659 : (!torch.int, !torch.int) -> !torch.list<int>
    %int1_660 = torch.constant.int 1
    %int1_661 = torch.constant.int 1
    %544 = torch.prim.ListConstruct %int1_660, %int1_661 : (!torch.int, !torch.int) -> !torch.list<int>
    %int1_662 = torch.constant.int 1
    %int1_663 = torch.constant.int 1
    %545 = torch.prim.ListConstruct %int1_662, %int1_663 : (!torch.int, !torch.int) -> !torch.list<int>
    %false_664 = torch.constant.bool false
    %int0_665 = torch.constant.int 0
    %int0_666 = torch.constant.int 0
    %546 = torch.prim.ListConstruct %int0_665, %int0_666 : (!torch.int, !torch.int) -> !torch.list<int>
    %int1_667 = torch.constant.int 1
    %547 = torch.aten.convolution %540, %541, %542, %543, %544, %545, %false_664, %546, %int1_667 : !torch.vtensor<[8,512,256,256],f16>, !torch.vtensor<[512,512,3,3],f16>, !torch.vtensor<[512],f16>, !torch.list<int>, !torch.list<int>, !torch.list<int>, !torch.bool, !torch.list<int>, !torch.int -> !torch.vtensor<[8,512,256,256],f16>
    %int8_668 = torch.constant.int 8
    %int32_669 = torch.constant.int 32
    %int16_670 = torch.constant.int 16
    %int65536_671 = torch.constant.int 65536
    %548 = torch.prim.ListConstruct %int8_668, %int32_669, %int16_670, %int65536_671 : (!torch.int, !torch.int, !torch.int, !torch.int) -> !torch.list<int>
    %549 = torch.aten.view %547, %548 : !torch.vtensor<[8,512,256,256],f16>, !torch.list<int> -> !torch.vtensor<[8,32,16,65536],f16>
    %int6_672 = torch.constant.int 6
    %550 = torch.prims.convert_element_type %549, %int6_672 : !torch.vtensor<[8,32,16,65536],f16>, !torch.int -> !torch.vtensor<[8,32,16,65536],f32>
    %int2_673 = torch.constant.int 2
    %int3_674 = torch.constant.int 3
    %551 = torch.prim.ListConstruct %int2_673, %int3_674 : (!torch.int, !torch.int) -> !torch.list<int>
    %int0_675 = torch.constant.int 0
    %true_676 = torch.constant.bool true
    %result0_677, %result1_678 = torch.aten.var_mean.correction %550, %551, %int0_675, %true_676 : !torch.vtensor<[8,32,16,65536],f32>, !torch.list<int>, !torch.int, !torch.bool -> !torch.vtensor<[8,32,1,1],f32>, !torch.vtensor<[8,32,1,1],f32>
    %float9.999990e-07_679 = torch.constant.float 9.9999999999999995E-7
    %int1_680 = torch.constant.int 1
    %552 = torch.aten.add.Scalar %result0_677, %float9.999990e-07_679, %int1_680 : !torch.vtensor<[8,32,1,1],f32>, !torch.float, !torch.int -> !torch.vtensor<[8,32,1,1],f32>
    %553 = torch.aten.rsqrt %552 : !torch.vtensor<[8,32,1,1],f32> -> !torch.vtensor<[8,32,1,1],f32>
    %int1_681 = torch.constant.int 1
    %554 = torch.aten.sub.Tensor %549, %result1_678, %int1_681 : !torch.vtensor<[8,32,16,65536],f16>, !torch.vtensor<[8,32,1,1],f32>, !torch.int -> !torch.vtensor<[8,32,16,65536],f32>
    %555 = torch.aten.mul.Tensor %554, %553 : !torch.vtensor<[8,32,16,65536],f32>, !torch.vtensor<[8,32,1,1],f32> -> !torch.vtensor<[8,32,16,65536],f32>
    %int8_682 = torch.constant.int 8
    %int512_683 = torch.constant.int 512
    %int256_684 = torch.constant.int 256
    %int256_685 = torch.constant.int 256
    %556 = torch.prim.ListConstruct %int8_682, %int512_683, %int256_684, %int256_685 : (!torch.int, !torch.int, !torch.int, !torch.int) -> !torch.list<int>
    %557 = torch.aten.view %555, %556 : !torch.vtensor<[8,32,16,65536],f32>, !torch.list<int> -> !torch.vtensor<[8,512,256,256],f32>
    %__auto.vae.decoder.up_blocks.1.resnets.1.norm2.bias = util.global.load @__auto.vae.decoder.up_blocks.1.resnets.1.norm2.bias : tensor<512xf16>
    %558 = torch_c.from_builtin_tensor %__auto.vae.decoder.up_blocks.1.resnets.1.norm2.bias : tensor<512xf16> -> !torch.vtensor<[512],f16>
    %int0_686 = torch.constant.int 0
    %559 = torch.aten.unsqueeze %558, %int0_686 : !torch.vtensor<[512],f16>, !torch.int -> !torch.vtensor<[1,512],f16>
    %int2_687 = torch.constant.int 2
    %560 = torch.aten.unsqueeze %559, %int2_687 : !torch.vtensor<[1,512],f16>, !torch.int -> !torch.vtensor<[1,512,1],f16>
    %int3_688 = torch.constant.int 3
    %561 = torch.aten.unsqueeze %560, %int3_688 : !torch.vtensor<[1,512,1],f16>, !torch.int -> !torch.vtensor<[1,512,1,1],f16>
    %__auto.vae.decoder.up_blocks.1.resnets.1.norm2.weight = util.global.load @__auto.vae.decoder.up_blocks.1.resnets.1.norm2.weight : tensor<512xf16>
    %562 = torch_c.from_builtin_tensor %__auto.vae.decoder.up_blocks.1.resnets.1.norm2.weight : tensor<512xf16> -> !torch.vtensor<[512],f16>
    %int0_689 = torch.constant.int 0
    %563 = torch.aten.unsqueeze %562, %int0_689 : !torch.vtensor<[512],f16>, !torch.int -> !torch.vtensor<[1,512],f16>
    %int2_690 = torch.constant.int 2
    %564 = torch.aten.unsqueeze %563, %int2_690 : !torch.vtensor<[1,512],f16>, !torch.int -> !torch.vtensor<[1,512,1],f16>
    %int3_691 = torch.constant.int 3
    %565 = torch.aten.unsqueeze %564, %int3_691 : !torch.vtensor<[1,512,1],f16>, !torch.int -> !torch.vtensor<[1,512,1,1],f16>
    %566 = torch.aten.mul.Tensor %557, %565 : !torch.vtensor<[8,512,256,256],f32>, !torch.vtensor<[1,512,1,1],f16> -> !torch.vtensor<[8,512,256,256],f32>
    %int1_692 = torch.constant.int 1
    %567 = torch.aten.add.Tensor %566, %561, %int1_692 : !torch.vtensor<[8,512,256,256],f32>, !torch.vtensor<[1,512,1,1],f16>, !torch.int -> !torch.vtensor<[8,512,256,256],f32>
    %int5_693 = torch.constant.int 5
    %568 = torch.prims.convert_element_type %567, %int5_693 : !torch.vtensor<[8,512,256,256],f32>, !torch.int -> !torch.vtensor<[8,512,256,256],f16>
    %569 = torch.aten.silu %568 : !torch.vtensor<[8,512,256,256],f16> -> !torch.vtensor<[8,512,256,256],f16>
    %none_694 = torch.constant.none
    %570 = torch.aten.clone %569, %none_694 : !torch.vtensor<[8,512,256,256],f16>, !torch.none -> !torch.vtensor<[8,512,256,256],f16>
    %__auto.vae.decoder.up_blocks.1.resnets.1.conv2.weight = util.global.load @__auto.vae.decoder.up_blocks.1.resnets.1.conv2.weight : tensor<512x512x3x3xf16>
    %571 = torch_c.from_builtin_tensor %__auto.vae.decoder.up_blocks.1.resnets.1.conv2.weight : tensor<512x512x3x3xf16> -> !torch.vtensor<[512,512,3,3],f16>
    %__auto.vae.decoder.up_blocks.1.resnets.1.conv2.bias = util.global.load @__auto.vae.decoder.up_blocks.1.resnets.1.conv2.bias : tensor<512xf16>
    %572 = torch_c.from_builtin_tensor %__auto.vae.decoder.up_blocks.1.resnets.1.conv2.bias : tensor<512xf16> -> !torch.vtensor<[512],f16>
    %int1_695 = torch.constant.int 1
    %int1_696 = torch.constant.int 1
    %573 = torch.prim.ListConstruct %int1_695, %int1_696 : (!torch.int, !torch.int) -> !torch.list<int>
    %int1_697 = torch.constant.int 1
    %int1_698 = torch.constant.int 1
    %574 = torch.prim.ListConstruct %int1_697, %int1_698 : (!torch.int, !torch.int) -> !torch.list<int>
    %int1_699 = torch.constant.int 1
    %int1_700 = torch.constant.int 1
    %575 = torch.prim.ListConstruct %int1_699, %int1_700 : (!torch.int, !torch.int) -> !torch.list<int>
    %false_701 = torch.constant.bool false
    %int0_702 = torch.constant.int 0
    %int0_703 = torch.constant.int 0
    %576 = torch.prim.ListConstruct %int0_702, %int0_703 : (!torch.int, !torch.int) -> !torch.list<int>
    %int1_704 = torch.constant.int 1
    %577 = torch.aten.convolution %570, %571, %572, %573, %574, %575, %false_701, %576, %int1_704 : !torch.vtensor<[8,512,256,256],f16>, !torch.vtensor<[512,512,3,3],f16>, !torch.vtensor<[512],f16>, !torch.list<int>, !torch.list<int>, !torch.list<int>, !torch.bool, !torch.list<int>, !torch.int -> !torch.vtensor<[8,512,256,256],f16>
    %int1_705 = torch.constant.int 1
    %578 = torch.aten.add.Tensor %518, %577, %int1_705 : !torch.vtensor<[8,512,256,256],f16>, !torch.vtensor<[8,512,256,256],f16>, !torch.int -> !torch.vtensor<[8,512,256,256],f16>
    %float1.000000e00_706 = torch.constant.float 1.000000e+00
    %579 = torch.aten.div.Scalar %578, %float1.000000e00_706 : !torch.vtensor<[8,512,256,256],f16>, !torch.float -> !torch.vtensor<[8,512,256,256],f16>
    %int8_707 = torch.constant.int 8
    %int32_708 = torch.constant.int 32
    %int16_709 = torch.constant.int 16
    %int65536_710 = torch.constant.int 65536
    %580 = torch.prim.ListConstruct %int8_707, %int32_708, %int16_709, %int65536_710 : (!torch.int, !torch.int, !torch.int, !torch.int) -> !torch.list<int>
    %581 = torch.aten.view %579, %580 : !torch.vtensor<[8,512,256,256],f16>, !torch.list<int> -> !torch.vtensor<[8,32,16,65536],f16>
    %int6_711 = torch.constant.int 6
    %582 = torch.prims.convert_element_type %581, %int6_711 : !torch.vtensor<[8,32,16,65536],f16>, !torch.int -> !torch.vtensor<[8,32,16,65536],f32>
    %int2_712 = torch.constant.int 2
    %int3_713 = torch.constant.int 3
…
    %int1_1076 = torch.constant.int 1
    %869 = torch.prim.ListConstruct %int1_1075, %int1_1076 : (!torch.int, !torch.int) -> !torch.list<int>
    %int1_1077 = torch.constant.int 1
    %int1_1078 = torch.constant.int 1
    %870 = torch.prim.ListConstruct %int1_1077, %int1_1078 : (!torch.int, !torch.int) -> !torch.list<int>
    %false_1079 = torch.constant.bool false
    %int0_1080 = torch.constant.int 0
    %int0_1081 = torch.constant.int 0
    %871 = torch.prim.ListConstruct %int0_1080, %int0_1081 : (!torch.int, !torch.int) -> !torch.list<int>
    %int1_1082 = torch.constant.int 1
    %872 = torch.aten.convolution %865, %866, %867, %868, %869, %870, %false_1079, %871, %int1_1082 : !torch.vtensor<[8,256,1024,1024],f16>, !torch.vtensor<[256,256,3,3],f16>, !torch.vtensor<[256],f16>, !torch.list<int>, !torch.list<int>, !torch.list<int>, !torch.bool, !torch.list<int>, !torch.int -> !torch.vtensor<[8,256,1024,1024],f16>
    %int8_1083 = torch.constant.int 8
    %int32_1084 = torch.constant.int 32
    %int8_1085 = torch.constant.int 8
    %int1048576 = torch.constant.int 1048576
    %873 = torch.prim.ListConstruct %int8_1083, %int32_1084, %int8_1085, %int1048576 : (!torch.int, !torch.int, !torch.int, !torch.int) -> !torch.list<int>
    %874 = torch.aten.view %872, %873 : !torch.vtensor<[8,256,1024,1024],f16>, !torch.list<int> -> !torch.vtensor<[8,32,8,1048576],f16>
    %int6_1086 = torch.constant.int 6
    %875 = torch.prims.convert_element_type %874, %int6_1086 : !torch.vtensor<[8,32,8,1048576],f16>, !torch.int -> !torch.vtensor<[8,32,8,1048576],f32>
    %int2_1087 = torch.constant.int 2
    %int3_1088 = torch.constant.int 3
    %876 = torch.prim.ListConstruct %int2_1087, %int3_1088 : (!torch.int, !torch.int) -> !torch.list<int>
    %int0_1089 = torch.constant.int 0
    %true_1090 = torch.constant.bool true
    %result0_1091, %result1_1092 = torch.aten.var_mean.correction %875, %876, %int0_1089, %true_1090 : !torch.vtensor<[8,32,8,1048576],f32>, !torch.list<int>, !torch.int, !torch.bool -> !torch.vtensor<[8,32,1,1],f32>, !torch.vtensor<[8,32,1,1],f32>
    %float9.999990e-07_1093 = torch.constant.float 9.9999999999999995E-7
    %int1_1094 = torch.constant.int 1
    %877 = torch.aten.add.Scalar %result0_1091, %float9.999990e-07_1093, %int1_1094 : !torch.vtensor<[8,32,1,1],f32>, !torch.float, !torch.int -> !torch.vtensor<[8,32,1,1],f32>
    %878 = torch.aten.rsqrt %877 : !torch.vtensor<[8,32,1,1],f32> -> !torch.vtensor<[8,32,1,1],f32>
    %int1_1095 = torch.constant.int 1
    %879 = torch.aten.sub.Tensor %874, %result1_1092, %int1_1095 : !torch.vtensor<[8,32,8,1048576],f16>, !torch.vtensor<[8,32,1,1],f32>, !torch.int -> !torch.vtensor<[8,32,8,1048576],f32>
    %880 = torch.aten.mul.Tensor %879, %878 : !torch.vtensor<[8,32,8,1048576],f32>, !torch.vtensor<[8,32,1,1],f32> -> !torch.vtensor<[8,32,8,1048576],f32>
    %int8_1096 = torch.constant.int 8
    %int256_1097 = torch.constant.int 256
    %int1024_1098 = torch.constant.int 1024
    %int1024_1099 = torch.constant.int 1024
    %881 = torch.prim.ListConstruct %int8_1096, %int256_1097, %int1024_1098, %int1024_1099 : (!torch.int, !torch.int, !torch.int, !torch.int) -> !torch.list<int>
    %882 = torch.aten.view %880, %881 : !torch.vtensor<[8,32,8,1048576],f32>, !torch.list<int> -> !torch.vtensor<[8,256,1024,1024],f32>
    %__auto.vae.decoder.up_blocks.3.resnets.0.norm1.bias = util.global.load @__auto.vae.decoder.up_blocks.3.resnets.0.norm1.bias : tensor<256xf16>
    %883 = torch_c.from_builtin_tensor %__auto.vae.decoder.up_blocks.3.resnets.0.norm1.bias : tensor<256xf16> -> !torch.vtensor<[256],f16>
    %int0_1100 = torch.constant.int 0
    %884 = torch.aten.unsqueeze %883, %int0_1100 : !torch.vtensor<[256],f16>, !torch.int -> !torch.vtensor<[1,256],f16>
    %int2_1101 = torch.constant.int 2
    %885 = torch.aten.unsqueeze %884, %int2_1101 : !torch.vtensor<[1,256],f16>, !torch.int -> !torch.vtensor<[1,256,1],f16>
    %int3_1102 = torch.constant.int 3
    %886 = torch.aten.unsqueeze %885, %int3_1102 : !torch.vtensor<[1,256,1],f16>, !torch.int -> !torch.vtensor<[1,256,1,1],f16>
    %__auto.vae.decoder.up_blocks.3.resnets.0.norm1.weight = util.global.load @__auto.vae.decoder.up_blocks.3.resnets.0.norm1.weight : tensor<256xf16>
    %887 = torch_c.from_builtin_tensor %__auto.vae.decoder.up_blocks.3.resnets.0.norm1.weight : tensor<256xf16> -> !torch.vtensor<[256],f16>
    %int0_1103 = torch.constant.int 0
    %888 = torch.aten.unsqueeze %887, %int0_1103 : !torch.vtensor<[256],f16>, !torch.int -> !torch.vtensor<[1,256],f16>
    %int2_1104 = torch.constant.int 2
    %889 = torch.aten.unsqueeze %888, %int2_1104 : !torch.vtensor<[1,256],f16>, !torch.int -> !torch.vtensor<[1,256,1],f16>
    %int3_1105 = torch.constant.int 3
    %890 = torch.aten.unsqueeze %889, %int3_1105 : !torch.vtensor<[1,256,1],f16>, !torch.int -> !torch.vtensor<[1,256,1,1],f16>
    %891 = torch.aten.mul.Tensor %882, %890 : !torch.vtensor<[8,256,1024,1024],f32>, !torch.vtensor<[1,256,1,1],f16> -> !torch.vtensor<[8,256,1024,1024],f32>
    %int1_1106 = torch.constant.int 1
    %892 = torch.aten.add.Tensor %891, %886, %int1_1106 : !torch.vtensor<[8,256,1024,1024],f32>, !torch.vtensor<[1,256,1,1],f16>, !torch.int -> !torch.vtensor<[8,256,1024,1024],f32>
    %int5_1107 = torch.constant.int 5
    %893 = torch.prims.convert_element_type %892, %int5_1107 : !torch.vtensor<[8,256,1024,1024],f32>, !torch.int -> !torch.vtensor<[8,256,1024,1024],f16>
    %894 = torch.aten.silu %893 : !torch.vtensor<[8,256,1024,1024],f16> -> !torch.vtensor<[8,256,1024,1024],f16>
    %__auto.vae.decoder.up_blocks.3.resnets.0.conv1.weight = util.global.load @__auto.vae.decoder.up_blocks.3.resnets.0.conv1.weight : tensor<128x256x3x3xf16>
    %895 = torch_c.from_builtin_tensor %__auto.vae.decoder.up_blocks.3.resnets.0.conv1.weight : tensor<128x256x3x3xf16> -> !torch.vtensor<[128,256,3,3],f16>
    %__auto.vae.decoder.up_blocks.3.resnets.0.conv1.bias = util.global.load @__auto.vae.decoder.up_blocks.3.resnets.0.conv1.bias : tensor<128xf16>
    %896 = torch_c.from_builtin_tensor %__auto.vae.decoder.up_blocks.3.resnets.0.conv1.bias : tensor<128xf16> -> !torch.vtensor<[128],f16>
    %int1_1108 = torch.constant.int 1
    %int1_1109 = torch.constant.int 1
    %897 = torch.prim.ListConstruct %int1_1108, %int1_1109 : (!torch.int, !torch.int) -> !torch.list<int>
    %int1_1110 = torch.constant.int 1
    %int1_1111 = torch.constant.int 1
    %898 = torch.prim.ListConstruct %int1_1110, %int1_1111 : (!torch.int, !torch.int) -> !torch.list<int>
    %int1_1112 = torch.constant.int 1
    %int1_1113 = torch.constant.int 1
    %899 = torch.prim.ListConstruct %int1_1112, %int1_1113 : (!torch.int, !torch.int) -> !torch.list<int>
    %false_1114 = torch.constant.bool false
    %int0_1115 = torch.constant.int 0
    %int0_1116 = torch.constant.int 0
    %900 = torch.prim.ListConstruct %int0_1115, %int0_1116 : (!torch.int, !torch.int) -> !torch.list<int>
    %int1_1117 = torch.constant.int 1
    %901 = torch.aten.convolution %894, %895, %896, %897, %898, %899, %false_1114, %900, %int1_1117 : !torch.vtensor<[8,256,1024,1024],f16>, !torch.vtensor<[128,256,3,3],f16>, !torch.vtensor<[128],f16>, !torch.list<int>, !torch.list<int>, !torch.list<int>, !torch.bool, !torch.list<int>, !torch.int -> !torch.vtensor<[8,128,1024,1024],f16>
    %int8_1118 = torch.constant.int 8
    %int32_1119 = torch.constant.int 32
    %int4_1120 = torch.constant.int 4
    %int1048576_1121 = torch.constant.int 1048576
    %902 = torch.prim.ListConstruct %int8_1118, %int32_1119, %int4_1120, %int1048576_1121 : (!torch.int, !torch.int, !torch.int, !torch.int) -> !torch.list<int>
    %903 = torch.aten.view %901, %902 : !torch.vtensor<[8,128,1024,1024],f16>, !torch.list<int> -> !torch.vtensor<[8,32,4,1048576],f16>
    %int6_1122 = torch.constant.int 6
    %904 = torch.prims.convert_element_type %903, %int6_1122 : !torch.vtensor<[8,32,4,1048576],f16>, !torch.int -> !torch.vtensor<[8,32,4,1048576],f32>
    %int2_1123 = torch.constant.int 2
    %int3_1124 = torch.constant.int 3
    %905 = torch.prim.ListConstruct %int2_1123, %int3_1124 : (!torch.int, !torch.int) -> !torch.list<int>
    %int0_1125 = torch.constant.int 0
    %true_1126 = torch.constant.bool true
    %result0_1127, %result1_1128 = torch.aten.var_mean.correction %904, %905, %int0_1125, %true_1126 : !torch.vtensor<[8,32,4,1048576],f32>, !torch.list<int>, !torch.int, !torch.bool -> !torch.vtensor<[8,32,1,1],f32>, !torch.vtensor<[8,32,1,1],f32>
    %float9.999990e-07_1129 = torch.constant.float 9.9999999999999995E-7
    %int1_1130 = torch.constant.int 1
    %906 = torch.aten.add.Scalar %result0_1127, %float9.999990e-07_1129, %int1_1130 : !torch.vtensor<[8,32,1,1],f32>, !torch.float, !torch.int -> !torch.vtensor<[8,32,1,1],f32>
    %907 = torch.aten.rsqrt %906 : !torch.vtensor<[8,32,1,1],f32> -> !torch.vtensor<[8,32,1,1],f32>
    %int1_1131 = torch.constant.int 1
    %908 = torch.aten.sub.Tensor %903, %result1_1128, %int1_1131 : !torch.vtensor<[8,32,4,1048576],f16>, !torch.vtensor<[8,32,1,1],f32>, !torch.int -> !torch.vtensor<[8,32,4,1048576],f32>
    %909 = torch.aten.mul.Tensor %908, %907 : !torch.vtensor<[8,32,4,1048576],f32>, !torch.vtensor<[8,32,1,1],f32> -> !torch.vtensor<[8,32,4,1048576],f32>
    %int8_1132 = torch.constant.int 8
    %int128_1133 = torch.constant.int 128
    %int1024_1134 = torch.constant.int 1024
    %int1024_1135 = torch.constant.int 1024
    %910 = torch.prim.ListConstruct %int8_1132, %int128_1133, %int1024_1134, %int1024_1135 : (!torch.int, !torch.int, !torch.int, !torch.int) -> !torch.list<int>
    %911 = torch.aten.view %909, %910 : !torch.vtensor<[8,32,4,1048576],f32>, !torch.list<int> -> !torch.vtensor<[8,128,1024,1024],f32>
    %__auto.vae.decoder.up_blocks.3.resnets.0.norm2.bias = util.global.load @__auto.vae.decoder.up_blocks.3.resnets.0.norm2.bias : tensor<128xf16>
    %912 = torch_c.from_builtin_tensor %__auto.vae.decoder.up_blocks.3.resnets.0.norm2.bias : tensor<128xf16> -> !torch.vtensor<[128],f16>
    %int0_1136 = torch.constant.int 0
    %913 = torch.aten.unsqueeze %912, %int0_1136 : !torch.vtensor<[128],f16>, !torch.int -> !torch.vtensor<[1,128],f16>
    %int2_1137 = torch.constant.int 2
    %914 = torch.aten.unsqueeze %913, %int2_1137 : !torch.vtensor<[1,128],f16>, !torch.int -> !torch.vtensor<[1,128,1],f16>
    %int3_1138 = torch.constant.int 3
    %915 = torch.aten.unsqueeze %914, %int3_1138 : !torch.vtensor<[1,128,1],f16>, !torch.int -> !torch.vtensor<[1,128,1,1],f16>
    %__auto.vae.decoder.up_blocks.3.resnets.0.norm2.weight = util.global.load @__auto.vae.decoder.up_blocks.3.resnets.0.norm2.weight : tensor<128xf16>
    %916 = torch_c.from_builtin_tensor %__auto.vae.decoder.up_blocks.3.resnets.0.norm2.weight : tensor<128xf16> -> !torch.vtensor<[128],f16>
    %int0_1139 = torch.constant.int 0
    %917 = torch.aten.unsqueeze %916, %int0_1139 : !torch.vtensor<[128],f16>, !torch.int -> !torch.vtensor<[1,128],f16>
    %int2_1140 = torch.constant.int 2
    %918 = torch.aten.unsqueeze %917, %int2_1140 : !torch.vtensor<[1,128],f16>, !torch.int -> !torch.vtensor<[1,128,1],f16>
    %int3_1141 = torch.constant.int 3
    %919 = torch.aten.unsqueeze %918, %int3_1141 : !torch.vtensor<[1,128,1],f16>, !torch.int -> !torch.vtensor<[1,128,1,1],f16>
    %920 = torch.aten.mul.Tensor %911, %919 : !torch.vtensor<[8,128,1024,1024],f32>, !torch.vtensor<[1,128,1,1],f16> -> !torch.vtensor<[8,128,1024,1024],f32>
    %int1_1142 = torch.constant.int 1
    %921 = torch.aten.add.Tensor %920, %915, %int1_1142 : !torch.vtensor<[8,128,1024,1024],f32>, !torch.vtensor<[1,128,1,1],f16>, !torch.int -> !torch.vtensor<[8,128,1024,1024],f32>
    %int5_1143 = torch.constant.int 5
    %922 = torch.prims.convert_element_type %921, %int5_1143 : !torch.vtensor<[8,128,1024,1024],f32>, !torch.int -> !torch.vtensor<[8,128,1024,1024],f16>
    %923 = torch.aten.silu %922 : !torch.vtensor<[8,128,1024,1024],f16> -> !torch.vtensor<[8,128,1024,1024],f16>
    %none_1144 = torch.constant.none
    %924 = torch.aten.clone %923, %none_1144 : !torch.vtensor<[8,128,1024,1024],f16>, !torch.none -> !torch.vtensor<[8,128,1024,1024],f16>
    %__auto.vae.decoder.up_blocks.3.resnets.0.conv2.weight = util.global.load @__auto.vae.decoder.up_blocks.3.resnets.0.conv2.weight : tensor<128x128x3x3xf16>
    %925 = torch_c.from_builtin_tensor %__auto.vae.decoder.up_blocks.3.resnets.0.conv2.weight : tensor<128x128x3x3xf16> -> !torch.vtensor<[128,128,3,3],f16>
    %__auto.vae.decoder.up_blocks.3.resnets.0.conv2.bias = util.global.load @__auto.vae.decoder.up_blocks.3.resnets.0.conv2.bias : tensor<128xf16>
    %926 = torch_c.from_builtin_tensor %__auto.vae.decoder.up_blocks.3.resnets.0.conv2.bias : tensor<128xf16> -> !torch.vtensor<[128],f16>
    %int1_1145 = torch.constant.int 1
    %int1_1146 = torch.constant.int 1
    %927 = torch.prim.ListConstruct %int1_1145, %int1_1146 : (!torch.int, !torch.int) -> !torch.list<int>
    %int1_1147 = torch.constant.int 1
    %int1_1148 = torch.constant.int 1
    %928 = torch.prim.ListConstruct %int1_1147, %int1_1148 : (!torch.int, !torch.int) -> !torch.list<int>
    %int1_1149 = torch.constant.int 1
    %int1_1150 = torch.constant.int 1
    %929 = torch.prim.ListConstruct %int1_1149, %int1_1150 : (!torch.int, !torch.int) -> !torch.list<int>
    %false_1151 = torch.constant.bool false
    %int0_1152 = torch.constant.int 0
    %int0_1153 = torch.constant.int 0
    %930 = torch.prim.ListConstruct %int0_1152, %int0_1153 : (!torch.int, !torch.int) -> !torch.list<int>
    %int1_1154 = torch.constant.int 1
    %931 = torch.aten.convolution %924, %925, %926, %927, %928, %929, %false_1151, %930, %int1_1154 : !torch.vtensor<[8,128,1024,1024],f16>, !torch.vtensor<[128,128,3,3],f16>, !torch.vtensor<[128],f16>, !torch.list<int>, !torch.list<int>, !torch.list<int>, !torch.bool, !torch.list<int>, !torch.int -> !torch.vtensor<[8,128,1024,1024],f16>
    %__auto.vae.decoder.up_blocks.3.resnets.0.conv_shortcut.weight = util.global.load @__auto.vae.decoder.up_blocks.3.resnets.0.conv_shortcut.weight : tensor<128x256x1x1xf16>
    %932 = torch_c.from_builtin_tensor %__auto.vae.decoder.up_blocks.3.resnets.0.conv_shortcut.weight : tensor<128x256x1x1xf16> -> !torch.vtensor<[128,256,1,1],f16>
    %__auto.vae.decoder.up_blocks.3.resnets.0.conv_shortcut.bias = util.global.load @__auto.vae.decoder.up_blocks.3.resnets.0.conv_shortcut.bias : tensor<128xf16>
    %933 = torch_c.from_builtin_tensor %__auto.vae.decoder.up_blocks.3.resnets.0.conv_shortcut.bias : tensor<128xf16> -> !torch.vtensor<[128],f16>
    %int1_1155 = torch.constant.int 1
    %int1_1156 = torch.constant.int 1
    %934 = torch.prim.ListConstruct %int1_1155, %int1_1156 : (!torch.int, !torch.int) -> !torch.list<int>
    %int0_1157 = torch.constant.int 0
    %int0_1158 = torch.constant.int 0
    %935 = torch.prim.ListConstruct %int0_1157, %int0_1158 : (!torch.int, !torch.int) -> !torch.list<int>
    %int1_1159 = torch.constant.int 1
    %int1_1160 = torch.constant.int 1
    %936 = torch.prim.ListConstruct %int1_1159, %int1_1160 : (!torch.int, !torch.int) -> !torch.list<int>
    %false_1161 = torch.constant.bool false
    %int0_1162 = torch.constant.int 0
    %int0_1163 = torch.constant.int 0
    %937 = torch.prim.ListConstruct %int0_1162, %int0_1163 : (!torch.int, !torch.int) -> !torch.list<int>
    %int1_1164 = torch.constant.int 1
    %938 = torch.aten.convolution %872, %932, %933, %934, %935, %936, %false_1161, %937, %int1_1164 : !torch.vtensor<[8,256,1024,1024],f16>, !torch.vtensor<[128,256,1,1],f16>, !torch.vtensor<[128],f16>, !torch.list<int>, !torch.list<int>, !torch.list<int>, !torch.bool, !torch.list<int>, !torch.int -> !torch.vtensor<[8,128,1024,1024],f16>
    %int1_1165 = torch.constant.int 1
    %939 = torch.aten.add.Tensor %938, %931, %int1_1165 : !torch.vtensor<[8,128,1024,1024],f16>, !torch.vtensor<[8,128,1024,1024],f16>, !torch.int -> !torch.vtensor<[8,128,1024,1024],f16>
    %float1.000000e00_1166 = torch.constant.float 1.000000e+00
    %940 = torch.aten.div.Scalar %939, %float1.000000e00_1166 : !torch.vtensor<[8,128,1024,1024],f16>, !torch.float -> !torch.vtensor<[8,128,1024,1024],f16>
    %int8_1167 = torch.constant.int 8
    %int32_1168 = torch.constant.int 32
    %int4_1169 = torch.constant.int 4
    %int1048576_1170 = torch.constant.int 1048576
    %941 = torch.prim.ListConstruct %int8_1167, %int32_1168, %int4_1169, %int1048576_1170 : (!torch.int, !torch.int, !torch.int, !torch.int) -> !torch.list<int>
    %942 = torch.aten.view %940, %941 : !torch.vtensor<[8,128,1024,1024],f16>, !torch.list<int> -> !torch.vtensor<[8,32,4,1048576],f16>
    %int6_1171 = torch.constant.int 6
    %943 = torch.prims.convert_element_type %942, %int6_1171 : !torch.vtensor<[8,32,4,1048576],f16>, !torch.int -> !torch.vtensor<[8,32,4,1048576],f32>
    %int2_1172 = torch.constant.int 2
    %int3_1173 = torch.constant.int 3
    %944 = torch.prim.ListConstruct %int2_1172, %int3_1173 : (!torch.int, !torch.int) -> !torch.list<int>
    %int0_1174 = torch.constant.int 0
    %true_1175 = torch.constant.bool true
    %result0_1176, %result1_1177 = torch.aten.var_mean.correction %943, %944, %int0_1174, %true_1175 : !torch.vtensor<[8,32,4,1048576],f32>, !torch.list<int>, !torch.int, !torch.bool -> !torch.vtensor<[8,32,1,1],f32>, !torch.vtensor<[8,32,1,1],f32>
    %float9.999990e-07_1178 = torch.constant.float 9.9999999999999995E-7
    %int1_1179 = torch.constant.int 1
    %945 = torch.aten.add.Scalar %result0_1176, %float9.999990e-07_1178, %int1_1179 : !torch.vtensor<[8,32,1,1],f32>, !torch.float, !torch.int -> !torch.vtensor<[8,32,1,1],f32>
    %946 = torch.aten.rsqrt %945 : !torch.vtensor<[8,32,1,1],f32> -> !torch.vtensor<[8,32,1,1],f32>
    %int1_1180 = torch.constant.int 1
    %947 = torch.aten.sub.Tensor %942, %result1_1177, %int1_1180 : !torch.vtensor<[8,32,4,1048576],f16>, !torch.vtensor<[8,32,1,1],f32>, !torch.int -> !torch.vtensor<[8,32,4,1048576],f32>
    %948 = torch.aten.mul.Tensor %947, %946 : !torch.vtensor<[8,32,4,1048576],f32>, !torch.vtensor<[8,32,1,1],f32> -> !torch.vtensor<[8,32,4,1048576],f32>
    %int8_1181 = torch.constant.int 8
    %int128_1182 = torch.constant.int 128
    %int1024_1183 = torch.constant.int 1024
    %int1024_1184 = torch.constant.int 1024
    %949 = torch.prim.ListConstruct %int8_1181, %int128_1182, %int1024_1183, %int1024_1184 : (!torch.int, !torch.int, !torch.int, !torch.int) -> !torch.list<int>
    %950 = torch.aten.view %948, %949 : !torch.vtensor<[8,32,4,1048576],f32>, !torch.list<int> -> !torch.vtensor<[8,128,1024,1024],f32>
    %__auto.vae.decoder.up_blocks.3.resnets.1.norm1.bias = util.global.load @__auto.vae.decoder.up_blocks.3.resnets.1.norm1.bias : tensor<128xf16>
    %951 = torch_c.from_builtin_tensor %__auto.vae.decoder.up_blocks.3.resnets.1.norm1.bias : tensor<128xf16> -> !torch.vtensor<[128],f16>
    %int0_1185 = torch.constant.int 0
    %952 = torch.aten.unsqueeze %951, %int0_1185 : !torch.vtensor<[128],f16>, !torch.int -> !torch.vtensor<[1,128],f16>
    %int2_1186 = torch.constant.int 2
    %953 = torch.aten.unsqueeze %952, %int2_1186 : !torch.vtensor<[1,128],f16>, !torch.int -> !torch.vtensor<[1,128,1],f16>
    %int3_1187 = torch.constant.int 3
    %954 = torch.aten.unsqueeze %953, %int3_1187 : !torch.vtensor<[1,128,1],f16>, !torch.int -> !torch.vtensor<[1,128,1,1],f16>
    %__auto.vae.decoder.up_blocks.3.resnets.1.norm1.weight = util.global.load @__auto.vae.decoder.up_blocks.3.resnets.1.norm1.weight : tensor<128xf16>
    %955 = torch_c.from_builtin_tensor %__auto.vae.decoder.up_blocks.3.resnets.1.norm1.weight : tensor<128xf16> -> !torch.vtensor<[128],f16>
    %int0_1188 = torch.constant.int 0
    %956 = torch.aten.unsqueeze %955, %int0_1188 : !torch.vtensor<[128],f16>, !torch.int -> !torch.vtensor<[1,128],f16>
    %int2_1189 = torch.constant.int 2
    %957 = torch.aten.unsqueeze %956, %int2_1189 : !torch.vtensor<[1,128],f16>, !torch.int -> !torch.vtensor<[1,128,1],f16>
    %int3_1190 = torch.constant.int 3
    %958 = torch.aten.unsqueeze %957, %int3_1190 : !torch.vtensor<[1,128,1],f16>, !torch.int -> !torch.vtensor<[1,128,1,1],f16>
    %959 = torch.aten.mul.Tensor %950, %958 : !torch.vtensor<[8,128,1024,1024],f32>, !torch.vtensor<[1,128,1,1],f16> -> !torch.vtensor<[8,128,1024,1024],f32>
    %int1_1191 = torch.constant.int 1
    %960 = torch.aten.add.Tensor %959, %954, %int1_1191 : !torch.vtensor<[8,128,1024,1024],f32>, !torch.vtensor<[1,128,1,1],f16>, !torch.int -> !torch.vtensor<[8,128,1024,1024],f32>
    %int5_1192 = torch.constant.int 5
    %961 = torch.prims.convert_element_type %960, %int5_1192 : !torch.vtensor<[8,128,1024,1024],f32>, !torch.int -> !torch.vtensor<[8,128,1024,1024],f16>
    %962 = torch.aten.silu %961 : !torch.vtensor<[8,128,1024,1024],f16> -> !torch.vtensor<[8,128,1024,1024],f16>
    %__auto.vae.decoder.up_blocks.3.resnets.1.conv1.weight = util.global.load @__auto.vae.decoder.up_blocks.3.resnets.1.conv1.weight : tensor<128x128x3x3xf16>
    %963 = torch_c.from_builtin_tensor %__auto.vae.decoder.up_blocks.3.resnets.1.conv1.weight : tensor<128x128x3x3xf16> -> !torch.vtensor<[128,128,3,3],f16>
    %__auto.vae.decoder.up_blocks.3.resnets.1.conv1.bias = util.global.load @__auto.vae.decoder.up_blocks.3.resnets.1.conv1.bias : tensor<128xf16>
    %964 = torch_c.from_builtin_tensor %__auto.vae.decoder.up_blocks.3.resnets.1.conv1.bias : tensor<128xf16> -> !torch.vtensor<[128],f16>
    %int1_1193 = torch.constant.int 1
    %int1_1194 = torch.constant.int 1
    %965 = torch.prim.ListConstruct %int1_1193, %int1_1194 : (!torch.int, !torch.int) -> !torch.list<int>
    %int1_1195 = torch.constant.int 1
    %int1_1196 = torch.constant.int 1
    %966 = torch.prim.ListConstruct %int1_1195, %int1_1196 : (!torch.int, !torch.int) -> !torch.list<int>
    %int1_1197 = torch.constant.int 1
    %int1_1198 = torch.constant.int 1
    %967 = torch.prim.ListConstruct %int1_1197, %int1_1198 : (!torch.int, !torch.int) -> !torch.list<int>
    %false_1199 = torch.constant.bool false
    %int0_1200 = torch.constant.int 0
    %int0_1201 = torch.constant.int 0
    %968 = torch.prim.ListConstruct %int0_1200, %int0_1201 : (!torch.int, !torch.int) -> !torch.list<int>
    %int1_1202 = torch.constant.int 1
    %969 = torch.aten.convolution %962, %963, %964, %965, %966, %967, %false_1199, %968, %int1_1202 : !torch.vtensor<[8,128,1024,1024],f16>, !torch.vtensor<[128,128,3,3],f16>, !torch.vtensor<[128],f16>, !torch.list<int>, !torch.list<int>, !torch.list<int>, !torch.bool, !torch.list<int>, !torch.int -> !torch.vtensor<[8,128,1024,1024],f16>
    %int8_1203 = torch.constant.int 8
    %int32_1204 = torch.constant.int 32
    %int4_1205 = torch.constant.int 4
    %int1048576_1206 = torch.constant.int 1048576
    %970 = torch.prim.ListConstruct %int8_1203, %int32_1204, %int4_1205, %int1048576_1206 : (!torch.int, !torch.int, !torch.int, !torch.int) -> !torch.list<int>
    %971 = torch.aten.view %969, %970 : !torch.vtensor<[8,128,1024,1024],f16>, !torch.list<int> -> !torch.vtensor<[8,32,4,1048576],f16>
    %int6_1207 = torch.constant.int 6
    %972 = torch.prims.convert_element_type %971, %int6_1207 : !torch.vtensor<[8,32,4,1048576],f16>, !torch.int -> !torch.vtensor<[8,32,4,1048576],f32>
    %int2_1208 = torch.constant.int 2
    %int3_1209 = torch.constant.int 3
    %973 = torch.prim.ListConstruct %int2_1208, %int3_1209 : (!torch.int, !torch.int) -> !torch.list<int>
    %int0_1210 = torch.constant.int 0
    %true_1211 = torch.constant.bool true
    %result0_1212, %result1_1213 = torch.aten.var_mean.correction %972, %973, %int0_1210, %true_1211 : !torch.vtensor<[8,32,4,1048576],f32>, !torch.list<int>, !torch.int, !torch.bool -> !torch.vtensor<[8,32,1,1],f32>, !torch.vtensor<[8,32,1,1],f32>
    %float9.999990e-07_1214 = torch.constant.float 9.9999999999999995E-7
    %int1_1215 = torch.constant.int 1
    %974 = torch.aten.add.Scalar %result0_1212, %float9.999990e-07_1214, %int1_1215 : !torch.vtensor<[8,32,1,1],f32>, !torch.float, !torch.int -> !torch.vtensor<[8,32,1,1],f32>
    %975 = torch.aten.rsqrt %974 : !torch.vtensor<[8,32,1,1],f32> -> !torch.vtensor<[8,32,1,1],f32>
    %int1_1216 = torch.constant.int 1
    %976 = torch.aten.sub.Tensor %971, %result1_1213, %int1_1216 : !torch.vtensor<[8,32,4,1048576],f16>, !torch.vtensor<[8,32,1,1],f32>, !torch.int -> !torch.vtensor<[8,32,4,1048576],f32>
    %977 = torch.aten.mul.Tensor %976, %975 : !torch.vtensor<[8,32,4,1048576],f32>, !torch.vtensor<[8,32,1,1],f32> -> !torch.vtensor<[8,32,4,1048576],f32>
    %int8_1217 = torch.constant.int 8
    %int128_1218 = torch.constant.int 128
    %int1024_1219 = torch.constant.int 1024
    %int1024_1220 = torch.constant.int 1024
    %978 = torch.prim.ListConstruct %int8_1217, %int128_1218, %int1024_1219, %int1024_1220 : (!torch.int, !torch.int, !torch.int, !torch.int) -> !torch.list<int>
    %979 = torch.aten.view %977, %978 : !torch.vtensor<[8,32,4,1048576],f32>, !torch.list<int> -> !torch.vtensor<[8,128,1024,1024],f32>
    %__auto.vae.decoder.up_blocks.3.resnets.1.norm2.bias = util.global.load @__auto.vae.decoder.up_blocks.3.resnets.1.norm2.bias : tensor<128xf16>
    %980 = torch_c.from_builtin_tensor %__auto.vae.decoder.up_blocks.3.resnets.1.norm2.bias : tensor<128xf16> -> !torch.vtensor<[128],f16>
    %int0_1221 = torch.constant.int 0
    %981 = torch.aten.unsqueeze %980, %int0_1221 : !torch.vtensor<[128],f16>, !torch.int -> !torch.vtensor<[1,128],f16>
    %int2_1222 = torch.constant.int 2
    %982 = torch.aten.unsqueeze %981, %int2_1222 : !torch.vtensor<[1,128],f16>, !torch.int -> !torch.vtensor<[1,128,1],f16>
    %int3_1223 = torch.constant.int 3
    %983 = torch.aten.unsqueeze %982, %int3_1223 : !torch.vtensor<[1,128,1],f16>, !torch.int -> !torch.vtensor<[1,128,1,1],f16>
    %__auto.vae.decoder.up_blocks.3.resnets.1.norm2.weight = util.global.load @__auto.vae.decoder.up_blocks.3.resnets.1.norm2.weight : tensor<128xf16>
    %984 = torch_c.from_builtin_tensor %__auto.vae.decoder.up_blocks.3.resnets.1.norm2.weight : tensor<128xf16> -> !torch.vtensor<[128],f16>
    %int0_1224 = torch.constant.int 0
    %985 = torch.aten.unsqueeze %984, %int0_1224 : !torch.vtensor<[128],f16>, !torch.int -> !torch.vtensor<[1,128],f16>
    %int2_1225 = torch.constant.int 2
    %986 = torch.aten.unsqueeze %985, %int2_1225 : !torch.vtensor<[1,128],f16>, !torch.int -> !torch.vtensor<[1,128,1],f16>
    %int3_1226 = torch.constant.int 3
    %987 = torch.aten.unsqueeze %986, %int3_1226 : !torch.vtensor<[1,128,1],f16>, !torch.int -> !torch.vtensor<[1,128,1,1],f16>
    %988 = torch.aten.mul.Tensor %979, %987 : !torch.vtensor<[8,128,1024,1024],f32>, !torch.vtensor<[1,128,1,1],f16> -> !torch.vtensor<[8,128,1024,1024],f32>
    %int1_1227 = torch.constant.int 1
    %989 = torch.aten.add.Tensor %988, %983, %int1_1227 : !torch.vtensor<[8,128,1024,1024],f32>, !torch.vtensor<[1,128,1,1],f16>, !torch.int -> !torch.vtensor<[8,128,1024,1024],f32>
    %int5_1228 = torch.constant.int 5
    %990 = torch.prims.convert_element_type %989, %int5_1228 : !torch.vtensor<[8,128,1024,1024],f32>, !torch.int -> !torch.vtensor<[8,128,1024,1024],f16>
    %991 = torch.aten.silu %990 : !torch.vtensor<[8,128,1024,1024],f16> -> !torch.vtensor<[8,128,1024,1024],f16>
    %none_1229 = torch.constant.none
    %992 = torch.aten.clone %991, %none_1229 : !torch.vtensor<[8,128,1024,1024],f16>, !torch.none -> !torch.vtensor<[8,128,1024,1024],f16>
    %__auto.vae.decoder.up_blocks.3.resnets.1.conv2.weight = util.global.load @__auto.vae.decoder.up_blocks.3.resnets.1.conv2.weight : tensor<128x128x3x3xf16>
    %993 = torch_c.from_builtin_tensor %__auto.vae.decoder.up_blocks.3.resnets.1.conv2.weight : tensor<128x128x3x3xf16> -> !torch.vtensor<[128,128,3,3],f16>
    %__auto.vae.decoder.up_blocks.3.resnets.1.conv2.bias = util.global.load @__auto.vae.decoder.up_blocks.3.resnets.1.conv2.bias : tensor<128xf16>
    %994 = torch_c.from_builtin_tensor %__auto.vae.decoder.up_blocks.3.resnets.1.conv2.bias : tensor<128xf16> -> !torch.vtensor<[128],f16>
    %int1_1230 = torch.constant.int 1
    %int1_1231 = torch.constant.int 1
    %995 = torch.prim.ListConstruct %int1_1230, %int1_1231 : (!torch.int, !torch.int) -> !torch.list<int>
    %int1_1232 = torch.constant.int 1
    %int1_1233 = torch.constant.int 1
    %996 = torch.prim.ListConstruct %int1_1232, %int1_1233 : (!torch.int, !torch.int) -> !torch.list<int>
    %int1_1234 = torch.constant.int 1
    %int1_1235 = torch.constant.int 1
    %997 = torch.prim.ListConstruct %int1_1234, %int1_1235 : (!torch.int, !torch.int) -> !torch.list<int>
    %false_1236 = torch.constant.bool false
    %int0_1237 = torch.constant.int 0
    %int0_1238 = torch.constant.int 0
    %998 = torch.prim.ListConstruct %int0_1237, %int0_1238 : (!torch.int, !torch.int) -> !torch.list<int>
    %int1_1239 = torch.constant.int 1
    %999 = torch.aten.convolution %992, %993, %994, %995, %996, %997, %false_1236, %998, %int1_1239 : !torch.vtensor<[8,128,1024,1024],f16>, !torch.vtensor<[128,128,3,3],f16>, !torch.vtensor<[128],f16>, !torch.list<int>, !torch.list<int>, !torch.list<int>, !torch.bool, !torch.list<int>, !torch.int -> !torch.vtensor<[8,128,1024,1024],f16>
    %int1_1240 = torch.constant.int 1
    %1000 = torch.aten.add.Tensor %940, %999, %int1_1240 : !torch.vtensor<[8,128,1024,1024],f16>, !torch.vtensor<[8,128,1024,1024],f16>, !torch.int -> !torch.vtensor<[8,128,1024,1024],f16>
    %float1.000000e00_1241 = torch.constant.float 1.000000e+00
    %1001 = torch.aten.div.Scalar %1000, %float1.000000e00_1241 : !torch.vtensor<[8,128,1024,1024],f16>, !torch.float -> !torch.vtensor<[8,128,1024,1024],f16>
    %int8_1242 = torch.constant.int 8
    %int32_1243 = torch.constant.int 32
    %int4_1244 = torch.constant.int 4
    %int1048576_1245 = torch.constant.int 1048576
    %1002 = torch.prim.ListConstruct %int8_1242, %int32_1243, %int4_1244, %int1048576_1245 : (!torch.int, !torch.int, !torch.int, !torch.int) -> !torch.list<int>
    %1003 = torch.aten.view %1001, %1002 : !torch.vtensor<[8,128,1024,1024],f16>, !torch.list<int> -> !torch.vtensor<[8,32,4,1048576],f16>
    %int6_1246 = torch.constant.int 6
    %1004 = torch.prims.convert_element_type %1003, %int6_1246 : !torch.vtensor<[8,32,4,1048576],f16>, !torch.int -> !torch.vtensor<[8,32,4,1048576],f32>
    %int2_1247 = torch.constant.int 2
    %int3_1248 = torch.constant.int 3
    %1005 = torch.prim.ListConstruct %int2_1247, %int3_1248 : (!torch.int, !torch.int) -> !torch.list<int>
    %int0_1249 = torch.constant.int 0
    %true_1250 = torch.constant.bool true
    %result0_1251, %result1_1252 = torch.aten.var_mean.correction %1004, %1005, %int0_1249, %true_1250 : !torch.vtensor<[8,32,4,1048576],f32>, !torch.list<int>, !torch.int, !torch.bool -> !torch.vtensor<[8,32,1,1],f32>, !torch.vtensor<[8,32,1,1],f32>
    %float9.999990e-07_1253 = torch.constant.float 9.9999999999999995E-7
    %int1_1254 = torch.constant.int 1
    %1006 = torch.aten.add.Scalar %result0_1251, %float9.999990e-07_1253, %int1_1254 : !torch.vtensor<[8,32,1,1],f32>, !torch.float, !torch.int -> !torch.vtensor<[8,32,1,1],f32>
    %1007 = torch.aten.rsqrt %1006 : !torch.vtensor<[8,32,1,1],f32> -> !torch.vtensor<[8,32,1,1],f32>
    %int1_1255 = torch.constant.int 1
    %1008 = torch.aten.sub.Tensor %1003, %result1_1252, %int1_1255 : !torch.vtensor<[8,32,4,1048576],f16>, !torch.vtensor<[8,32,1,1],f32>, !torch.int -> !torch.vtensor<[8,32,4,1048576],f32>
    %1009 = torch.aten.mul.Tensor %1008, %1007 : !torch.vtensor<[8,32,4,1048576],f32>, !torch.vtensor<[8,32,1,1],f32> -> !torch.vtensor<[8,32,4,1048576],f32>
    %int8_1256 = torch.constant.int 8
    %int128_1257 = torch.constant.int 128
    %int1024_1258 = torch.constant.int 1024
    %int1024_1259 = torch.constant.int 1024
    %1010 = torch.prim.ListConstruct %int8_1256, %int128_1257, %int1024_1258, %int1024_1259 : (!torch.int, !torch.int, !torch.int, !torch.int) -> !torch.list<int>
    %1011 = torch.aten.view %1009, %1010 : !torch.vtensor<[8,32,4,1048576],f32>, !torch.list<int> -> !torch.vtensor<[8,128,1024,1024],f32>
    %__auto.vae.decoder.up_blocks.3.resnets.2.norm1.bias = util.global.load @__auto.vae.decoder.up_blocks.3.resnets.2.norm1.bias : tensor<128xf16>
    %1012 = torch_c.from_builtin_tensor %__auto.vae.decoder.up_blocks.3.resnets.2.norm1.bias : tensor<128xf16> -> !torch.vtensor<[128],f16>
    %int0_1260 = torch.constant.int 0
    %1013 = torch.aten.unsqueeze %1012, %int0_1260 : !torch.vtensor<[128],f16>, !torch.int -> !torch.vtensor<[1,128],f16>
    %int2_1261 = torch.constant.int 2
    %1014 = torch.aten.unsqueeze %1013, %int2_1261 : !torch.vtensor<[1,128],f16>, !torch.int -> !torch.vtensor<[1,128,1],f16>
    %int3_1262 = torch.constant.int 3
    %1015 = torch.aten.unsqueeze %1014, %int3_1262 : !torch.vtensor<[1,128,1],f16>, !torch.int -> !torch.vtensor<[1,128,1,1],f16>
    %__auto.vae.decoder.up_blocks.3.resnets.2.norm1.weight = util.global.load @__auto.vae.decoder.up_blocks.3.resnets.2.norm1.weight : tensor<128xf16>
    %1016 = torch_c.from_builtin_tensor %__auto.vae.decoder.up_blocks.3.resnets.2.norm1.weight : tensor<128xf16> -> !torch.vtensor<[128],f16>
    %int0_1263 = torch.constant.int 0
    %1017 = torch.aten.unsqueeze %1016, %int0_1263 : !torch.vtensor<[128],f16>, !torch.int -> !torch.vtensor<[1,128],f16>
    %int2_1264 = torch.constant.int 2
    %1018 = torch.aten.unsqueeze %1017, %int2_1264 : !torch.vtensor<[1,128],f16>, !torch.int -> !torch.vtensor<[1,128,1],f16>
    %int3_1265 = torch.constant.int 3
    %1019 = torch.aten.unsqueeze %1018, %int3_1265 : !torch.vtensor<[1,128,1],f16>, !torch.int -> !torch.vtensor<[1,128,1,1],f16>
    %1020 = torch.aten.mul.Tensor %1011, %1019 : !torch.vtensor<[8,128,1024,1024],f32>, !torch.vtensor<[1,128,1,1],f16> -> !torch.vtensor<[8,128,1024,1024],f32>
    %int1_1266 = torch.constant.int 1
    %1021 = torch.aten.add.Tensor %1020, %1015, %int1_1266 : !torch.vtensor<[8,128,1024,1024],f32>, !torch.vtensor<[1,128,1,1],f16>, !torch.int -> !torch.vtensor<[8,128,1024,1024],f32>
    %int5_1267 = torch.constant.int 5
    %1022 = torch.prims.convert_element_type %1021, %int5_1267 : !torch.vtensor<[8,128,1024,1024],f32>, !torch.int -> !torch.vtensor<[8,128,1024,1024],f16>
    %1023 = torch.aten.silu %1022 : !torch.vtensor<[8,128,1024,1024],f16> -> !torch.vtensor<[8,128,1024,1024],f16>
    %__auto.vae.decoder.up_blocks.3.resnets.2.conv1.weight = util.global.load @__auto.vae.decoder.up_blocks.3.resnets.2.conv1.weight : tensor<128x128x3x3xf16>
    %1024 = torch_c.from_builtin_tensor %__auto.vae.decoder.up_blocks.3.resnets.2.conv1.weight : tensor<128x128x3x3xf16> -> !torch.vtensor<[128,128,3,3],f16>
    %__auto.vae.decoder.up_blocks.3.resnets.2.conv1.bias = util.global.load @__auto.vae.decoder.up_blocks.3.resnets.2.conv1.bias : tensor<128xf16>
    %1025 = torch_c.from_builtin_tensor %__auto.vae.decoder.up_blocks.3.resnets.2.conv1.bias : tensor<128xf16> -> !torch.vtensor<[128],f16>
    %int1_1268 = torch.constant.int 1
    %int1_1269 = torch.constant.int 1
    %1026 = torch.prim.ListConstruct %int1_1268, %int1_1269 : (!torch.int, !torch.int) -> !torch.list<int>
    %int1_1270 = torch.constant.int 1
    %int1_1271 = torch.constant.int 1
    %1027 = torch.prim.ListConstruct %int1_1270, %int1_1271 : (!torch.int, !torch.int) -> !torch.list<int>
    %int1_1272 = torch.constant.int 1
    %int1_1273 = torch.constant.int 1
    %1028 = torch.prim.ListConstruct %int1_1272, %int1_1273 : (!torch.int, !torch.int) -> !torch.list<int>
    %false_1274 = torch.constant.bool false
    %int0_1275 = torch.constant.int 0
    %int0_1276 = torch.constant.int 0
    %1029 = torch.prim.ListConstruct %int0_1275, %int0_1276 : (!torch.int, !torch.int) -> !torch.list<int>
    %int1_1277 = torch.constant.int 1
    %1030 = torch.aten.convolution %1023, %1024, %1025, %1026, %1027, %1028, %false_1274, %1029, %int1_1277 : !torch.vtensor<[8,128,1024,1024],f16>, !torch.vtensor<[128,128,3,3],f16>, !torch.vtensor<[128],f16>, !torch.list<int>, !torch.list<int>, !torch.list<int>, !torch.bool, !torch.list<int>, !torch.int -> !torch.vtensor<[8,128,1024,1024],f16>
    %int8_1278 = torch.constant.int 8
    %int32_1279 = torch.constant.int 32
    %int4_1280 = torch.constant.int 4
    %int1048576_1281 = torch.constant.int 1048576
    %1031 = torch.prim.ListConstruct %int8_1278, %int32_1279, %int4_1280, %int1048576_1281 : (!torch.int, !torch.int, !torch.int, !torch.int) -> !torch.list<int>
    %1032 = torch.aten.view %1030, %1031 : !torch.vtensor<[8,128,1024,1024],f16>, !torch.list<int> -> !torch.vtensor<[8,32,4,1048576],f16>
    %int6_1282 = torch.constant.int 6
    %1033 = torch.prims.convert_element_type %1032, %int6_1282 : !torch.vtensor<[8,32,4,1048576],f16>, !torch.int -> !torch.vtensor<[8,32,4,1048576],f32>
    %int2_1283 = torch.constant.int 2
    %int3_1284 = torch.constant.int 3
    %1034 = torch.prim.ListConstruct %int2_1283, %int3_1284 : (!torch.int, !torch.int) -> !torch.list<int>
    %int0_1285 = torch.constant.int 0
    %true_1286 = torch.constant.bool true
    %result0_1287, %result1_1288 = torch.aten.var_mean.correction %1033, %1034, %int0_1285, %true_1286 : !torch.vtensor<[8,32,4,1048576],f32>, !torch.list<int>, !torch.int, !torch.bool -> !torch.vtensor<[8,32,1,1],f32>, !torch.vtensor<[8,32,1,1],f32>
    %float9.999990e-07_1289 = torch.constant.float 9.9999999999999995E-7
    %int1_1290 = torch.constant.int 1
    %1035 = torch.aten.add.Scalar %result0_1287, %float9.999990e-07_1289, %int1_1290 : !torch.vtensor<[8,32,1,1],f32>, !torch.float, !torch.int -> !torch.vtensor<[8,32,1,1],f32>
    %1036 = torch.aten.rsqrt %1035 : !torch.vtensor<[8,32,1,1],f32> -> !torch.vtensor<[8,32,1,1],f32>
    %int1_1291 = torch.constant.int 1
    %1037 = torch.aten.sub.Tensor %1032, %result1_1288, %int1_1291 : !torch.vtensor<[8,32,4,1048576],f16>, !torch.vtensor<[8,32,1,1],f32>, !torch.int -> !torch.vtensor<[8,32,4,1048576],f32>
    %1038 = torch.aten.mul.Tensor %1037, %1036 : !torch.vtensor<[8,32,4,1048576],f32>, !torch.vtensor<[8,32,1,1],f32> -> !torch.vtensor<[8,32,4,1048576],f32>
    %int8_1292 = torch.constant.int 8
    %int128_1293 = torch.constant.int 128
    %int1024_1294 = torch.constant.int 1024
    %int1024_1295 = torch.constant.int 1024
    %1039 = torch.prim.ListConstruct %int8_1292, %int128_1293, %int1024_1294, %int1024_1295 : (!torch.int, !torch.int, !torch.int, !torch.int) -> !torch.list<int>
    %1040 = torch.aten.view %1038, %1039 : !torch.vtensor<[8,32,4,1048576],f32>, !torch.list<int> -> !torch.vtensor<[8,128,1024,1024],f32>
    %__auto.vae.decoder.up_blocks.3.resnets.2.norm2.bias = util.global.load @__auto.vae.decoder.up_blocks.3.resnets.2.norm2.bias : tensor<128xf16>
    %1041 = torch_c.from_builtin_tensor %__auto.vae.decoder.up_blocks.3.resnets.2.norm2.bias : tensor<128xf16> -> !torch.vtensor<[128],f16>
    %int0_1296 = torch.constant.int 0
    %1042 = torch.aten.unsqueeze %1041, %int0_1296 : !torch.vtensor<[128],f16>, !torch.int -> !torch.vtensor<[1,128],f16>
    %int2_1297 = torch.constant.int 2
    %1043 = torch.aten.unsqueeze %1042, %int2_1297 : !torch.vtensor<[1,128],f16>, !torch.int -> !torch.vtensor<[1,128,1],f16>
    %int3_1298 = torch.constant.int 3
    %1044 = torch.aten.unsqueeze %1043, %int3_1298 : !torch.vtensor<[1,128,1],f16>, !torch.int -> !torch.vtensor<[1,128,1,1],f16>
    %__auto.vae.decoder.up_blocks.3.resnets.2.norm2.weight = util.global.load @__auto.vae.decoder.up_blocks.3.resnets.2.norm2.weight : tensor<128xf16>
    %1045 = torch_c.from_builtin_tensor %__auto.vae.decoder.up_blocks.3.resnets.2.norm2.weight : tensor<128xf16> -> !torch.vtensor<[128],f16>
    %int0_1299 = torch.constant.int 0
    %1046 = torch.aten.unsqueeze %1045, %int0_1299 : !torch.vtensor<[128],f16>, !torch.int -> !torch.vtensor<[1,128],f16>
    %int2_1300 = torch.constant.int 2
    %1047 = torch.aten.unsqueeze %1046, %int2_1300 : !torch.vtensor<[1,128],f16>, !torch.int -> !torch.vtensor<[1,128,1],f16>
    %int3_1301 = torch.constant.int 3
    %1048 = torch.aten.unsqueeze %1047, %int3_1301 : !torch.vtensor<[1,128,1],f16>, !torch.int -> !torch.vtensor<[1,128,1,1],f16>
    %1049 = torch.aten.mul.Tensor %1040, %1048 : !torch.vtensor<[8,128,1024,1024],f32>, !torch.vtensor<[1,128,1,1],f16> -> !torch.vtensor<[8,128,1024,1024],f32>
    %int1_1302 = torch.constant.int 1
    %1050 = torch.aten.add.Tensor %1049, %1044, %int1_1302 : !torch.vtensor<[8,128,1024,1024],f32>, !torch.vtensor<[1,128,1,1],f16>, !torch.int -> !torch.vtensor<[8,128,1024,1024],f32>
    %int5_1303 = torch.constant.int 5
    %1051 = torch.prims.convert_element_type %1050, %int5_1303 : !torch.vtensor<[8,128,1024,1024],f32>, !torch.int -> !torch.vtensor<[8,128,1024,1024],f16>
    %1052 = torch.aten.silu %1051 : !torch.vtensor<[8,128,1024,1024],f16> -> !torch.vtensor<[8,128,1024,1024],f16>
    %none_1304 = torch.constant.none
    %1053 = torch.aten.clone %1052, %none_1304 : !torch.vtensor<[8,128,1024,1024],f16>, !torch.none -> !torch.vtensor<[8,128,1024,1024],f16>
    %__auto.vae.decoder.up_blocks.3.resnets.2.conv2.weight = util.global.load @__auto.vae.decoder.up_blocks.3.resnets.2.conv2.weight : tensor<128x128x3x3xf16>
    %1054 = torch_c.from_builtin_tensor %__auto.vae.decoder.up_blocks.3.resnets.2.conv2.weight : tensor<128x128x3x3xf16> -> !torch.vtensor<[128,128,3,3],f16>
    %__auto.vae.decoder.up_blocks.3.resnets.2.conv2.bias = util.global.load @__auto.vae.decoder.up_blocks.3.resnets.2.conv2.bias : tensor<128xf16>
    %1055 = torch_c.from_builtin_tensor %__auto.vae.decoder.up_blocks.3.resnets.2.conv2.bias : tensor<128xf16> -> !torch.vtensor<[128],f16>
    %int1_1305 = torch.constant.int 1
    %int1_1306 = torch.constant.int 1
    %1056 = torch.prim.ListConstruct %int1_1305, %int1_1306 : (!torch.int, !torch.int) -> !torch.list<int>
    %int1_1307 = torch.constant.int 1
    %int1_1308 = torch.constant.int 1
    %1057 = torch.prim.ListConstruct %int1_1307, %int1_1308 : (!torch.int, !torch.int) -> !torch.list<int>
    %int1_1309 = torch.constant.int 1
    %int1_1310 = torch.constant.int 1
    %1058 = torch.prim.ListConstruct %int1_1309, %int1_1310 : (!torch.int, !torch.int) -> !torch.list<int>
    %false_1311 = torch.constant.bool false
    %int0_1312 = torch.constant.int 0
    %int0_1313 = torch.constant.int 0
    %1059 = torch.prim.ListConstruct %int0_1312, %int0_1313 : (!torch.int, !torch.int) -> !torch.list<int>
    %int1_1314 = torch.constant.int 1
    %1060 = torch.aten.convolution %1053, %1054, %1055, %1056, %1057, %1058, %false_1311, %1059, %int1_1314 : !torch.vtensor<[8,128,1024,1024],f16>, !torch.vtensor<[128,128,3,3],f16>, !torch.vtensor<[128],f16>, !torch.list<int>, !torch.list<int>, !torch.list<int>, !torch.bool, !torch.list<int>, !torch.int -> !torch.vtensor<[8,128,1024,1024],f16>
    %int1_1315 = torch.constant.int 1
    %1061 = torch.aten.add.Tensor %1001, %1060, %int1_1315 : !torch.vtensor<[8,128,1024,1024],f16>, !torch.vtensor<[8,128,1024,1024],f16>, !torch.int -> !torch.vtensor<[8,128,1024,1024],f16>
    %float1.000000e00_1316 = torch.constant.float 1.000000e+00
    %1062 = torch.aten.div.Scalar %1061, %float1.000000e00_1316 : !torch.vtensor<[8,128,1024,1024],f16>, !torch.float -> !torch.vtensor<[8,128,1024,1024],f16>
    %int8_1317 = torch.constant.int 8
    %int32_1318 = torch.constant.int 32
    %int4_1319 = torch.constant.int 4
    %int1048576_1320 = torch.constant.int 1048576
    %1063 = torch.prim.ListConstruct %int8_1317, %int32_1318, %int4_1319, %int1048576_1320 : (!torch.int, !torch.int, !torch.int, !torch.int) -> !torch.list<int>
    %1064 = torch.aten.view %1062, %1063 : !torch.vtensor<[8,128,1024,1024],f16>, !torch.list<int> -> !torch.vtensor<[8,32,4,1048576],f16>
    %int6_1321 = torch.constant.int 6
    %1065 = torch.prims.convert_element_type %1064, %int6_1321 : !torch.vtensor<[8,32,4,1048576],f16>, !torch.int -> !torch.vtensor<[8,32,4,1048576],f32>
    %int2_1322 = torch.constant.int 2
    %int3_1323 = torch.constant.int 3
    %1066 = torch.prim.ListConstruct %int2_1322, %int3_1323 : (!torch.int, !torch.int) -> !torch.list<int>
    %int0_1324 = torch.constant.int 0
    %true_1325 = torch.constant.bool true
    %result0_1326, %result1_1327 = torch.aten.var_mean.correction %1065, %1066, %int0_1324, %true_1325 : !torch.vtensor<[8,32,4,1048576],f32>, !torch.list<int>, !torch.int, !torch.bool -> !torch.vtensor<[8,32,1,1],f32>, !torch.vtensor<[8,32,1,1],f32>
    %float9.999990e-07_1328 = torch.constant.float 9.9999999999999995E-7
    %int1_1329 = torch.constant.int 1
    %1067 = torch.aten.add.Scalar %result0_1326, %float9.999990e-07_1328, %int1_1329 : !torch.vtensor<[8,32,1,1],f32>, !torch.float, !torch.int -> !torch.vtensor<[8,32,1,1],f32>
    %1068 = torch.aten.rsqrt %1067 : !torch.vtensor<[8,32,1,1],f32> -> !torch.vtensor<[8,32,1,1],f32>
    %int1_1330 = torch.constant.int 1
    %1069 = torch.aten.sub.Tensor %1064, %result1_1327, %int1_1330 : !torch.vtensor<[8,32,4,1048576],f16>, !torch.vtensor<[8,32,1,1],f32>, !torch.int -> !torch.vtensor<[8,32,4,1048576],f32>
    %1070 = torch.aten.mul.Tensor %1069, %1068 : !torch.vtensor<[8,32,4,1048576],f32>, !torch.vtensor<[8,32,1,1],f32> -> !torch.vtensor<[8,32,4,1048576],f32>
    %int8_1331 = torch.constant.int 8
    %int128_1332 = torch.constant.int 128
    %int1024_1333 = torch.constant.int 1024
    %int1024_1334 = torch.constant.int 1024
    %1071 = torch.prim.ListConstruct %int8_1331, %int128_1332, %int1024_1333, %int1024_1334 : (!torch.int, !torch.int, !torch.int, !torch.int) -> !torch.list<int>
    %1072 = torch.aten.view %1070, %1071 : !torch.vtensor<[8,32,4,1048576],f32>, !torch.list<int> -> !torch.vtensor<[8,128,1024,1024],f32>
    %__auto.vae.decoder.conv_norm_out.bias = util.global.load @__auto.vae.decoder.conv_norm_out.bias : tensor<128xf16>
    %1073 = torch_c.from_builtin_tensor %__auto.vae.decoder.conv_norm_out.bias : tensor<128xf16> -> !torch.vtensor<[128],f16>
    %int0_1335 = torch.constant.int 0
    %1074 = torch.aten.unsqueeze %1073, %int0_1335 : !torch.vtensor<[128],f16>, !torch.int -> !torch.vtensor<[1,128],f16>
    %int2_1336 = torch.constant.int 2
    %1075 = torch.aten.unsqueeze %1074, %int2_1336 : !torch.vtensor<[1,128],f16>, !torch.int -> !torch.vtensor<[1,128,1],f16>
    %int3_1337 = torch.constant.int 3
    %1076 = torch.aten.unsqueeze %1075, %int3_1337 : !torch.vtensor<[1,128,1],f16>, !torch.int -> !torch.vtensor<[1,128,1,1],f16>
    %__auto.vae.decoder.conv_norm_out.weight = util.global.load @__auto.vae.decoder.conv_norm_out.weight : tensor<128xf16>
    %1077 = torch_c.from_builtin_tensor %__auto.vae.decoder.conv_norm_out.weight : tensor<128xf16> -> !torch.vtensor<[128],f16>
    %int0_1338 = torch.constant.int 0
    %1078 = torch.aten.unsqueeze %1077, %int0_1338 : !torch.vtensor<[128],f16>, !torch.int -> !torch.vtensor<[1,128],f16>
    %int2_1339 = torch.constant.int 2
    %1079 = torch.aten.unsqueeze %1078, %int2_1339 : !torch.vtensor<[1,128],f16>, !torch.int -> !torch.vtensor<[1,128,1],f16>
    %int3_1340 = torch.constant.int 3
    %1080 = torch.aten.unsqueeze %1079, %int3_1340 : !torch.vtensor<[1,128,1],f16>, !torch.int -> !torch.vtensor<[1,128,1,1],f16>
    %1081 = torch.aten.mul.Tensor %1072, %1080 : !torch.vtensor<[8,128,1024,1024],f32>, !torch.vtensor<[1,128,1,1],f16> -> !torch.vtensor<[8,128,1024,1024],f32>
    %int1_1341 = torch.constant.int 1
    %1082 = torch.aten.add.Tensor %1081, %1076, %int1_1341 : !torch.vtensor<[8,128,1024,1024],f32>, !torch.vtensor<[1,128,1,1],f16>, !torch.int -> !torch.vtensor<[8,128,1024,1024],f32>
    %int5_1342 = torch.constant.int 5
    %1083 = torch.prims.convert_element_type %1082, %int5_1342 : !torch.vtensor<[8,128,1024,1024],f32>, !torch.int -> !torch.vtensor<[8,128,1024,1024],f16>
    %1084 = torch.aten.silu %1083 : !torch.vtensor<[8,128,1024,1024],f16> -> !torch.vtensor<[8,128,1024,1024],f16>
    %__auto.vae.decoder.conv_out.weight = util.global.load @__auto.vae.decoder.conv_out.weight : tensor<3x128x3x3xf16>
    %1085 = torch_c.from_builtin_tensor %__auto.vae.decoder.conv_out.weight : tensor<3x128x3x3xf16> -> !torch.vtensor<[3,128,3,3],f16>
    %__auto.vae.decoder.conv_out.bias = util.global.load @__auto.vae.decoder.conv_out.bias : tensor<3xf16>
    %1086 = torch_c.from_builtin_tensor %__auto.vae.decoder.conv_out.bias : tensor<3xf16> -> !torch.vtensor<[3],f16>
    %int1_1343 = torch.constant.int 1
    %int1_1344 = torch.constant.int 1
    %1087 = torch.prim.ListConstruct %int1_1343, %int1_1344 : (!torch.int, !torch.int) -> !torch.list<int>
    %int1_1345 = torch.constant.int 1
    %int1_1346 = torch.constant.int 1
    %1088 = torch.prim.ListConstruct %int1_1345, %int1_1346 : (!torch.int, !torch.int) -> !torch.list<int>
    %int1_1347 = torch.constant.int 1
    %int1_1348 = torch.constant.int 1
    %1089 = torch.prim.ListConstruct %int1_1347, %int1_1348 : (!torch.int, !torch.int) -> !torch.list<int>
    %false_1349 = torch.constant.bool false
    %int0_1350 = torch.constant.int 0
    %int0_1351 = torch.constant.int 0
    %1090 = torch.prim.ListConstruct %int0_1350, %int0_1351 : (!torch.int, !torch.int) -> !torch.list<int>
    %int1_1352 = torch.constant.int 1
    %1091 = torch.aten.convolution %1084, %1085, %1086, %1087, %1088, %1089, %false_1349, %1090, %int1_1352 : !torch.vtensor<[8,128,1024,1024],f16>, !torch.vtensor<[3,128,3,3],f16>, !torch.vtensor<[3],f16>, !torch.list<int>, !torch.list<int>, !torch.list<int>, !torch.bool, !torch.list<int>, !torch.int -> !torch.vtensor<[8,3,1024,1024],f16>
    %int2_1353 = torch.constant.int 2
    %1092 = torch.aten.div.Scalar %1091, %int2_1353 : !torch.vtensor<[8,3,1024,1024],f16>, !torch.int -> !torch.vtensor<[8,3,1024,1024],f16>
    %float5.000000e-01_1354 = torch.constant.float 5.000000e-01
    %int1_1355 = torch.constant.int 1
    %1093 = torch.aten.add.Scalar %1092, %float5.000000e-01_1354, %int1_1355 : !torch.vtensor<[8,3,1024,1024],f16>, !torch.float, !torch.int -> !torch.vtensor<[8,3,1024,1024],f16>
    %int0_1356 = torch.constant.int 0
    %int1_1357 = torch.constant.int 1
    %1094 = torch.aten.clamp %1093, %int0_1356, %int1_1357 : !torch.vtensor<[8,3,1024,1024],f16>, !torch.int, !torch.int -> !torch.vtensor<[8,3,1024,1024],f16>
    return %1094 : !torch.vtensor<[8,3,1024,1024],f16>
  }
}
