module @compiled_clip {
  util.global private @__auto.text_encoder_model_1.text_model.embeddings.position_ids = #stream.parameter.named<"model"::"text_encoder_model_1.text_model.embeddings.position_ids"> : tensor<1x77xi64>
  util.global private @__auto.text_encoder_model_1.text_model.embeddings.token_embedding.weight = #stream.parameter.named<"model"::"text_encoder_model_1.text_model.embeddings.token_embedding.weight"> : tensor<49408x768xf16>
  util.global private @__auto.text_encoder_model_1.text_model.embeddings.position_embedding.weight = #stream.parameter.named<"model"::"text_encoder_model_1.text_model.embeddings.position_embedding.weight"> : tensor<77x768xf16>
  util.global private @__auto.text_encoder_model_1.text_model.encoder.layers.0.layer_norm1.weight = #stream.parameter.named<"model"::"text_encoder_model_1.text_model.encoder.layers.0.layer_norm1.weight"> : tensor<768xf16>
  util.global private @__auto.text_encoder_model_1.text_model.encoder.layers.0.layer_norm1.bias = #stream.parameter.named<"model"::"text_encoder_model_1.text_model.encoder.layers.0.layer_norm1.bias"> : tensor<768xf16>
  util.global private @__auto.text_encoder_model_1.text_model.encoder.layers.0.self_attn.q_proj.weight = #stream.parameter.named<"model"::"text_encoder_model_1.text_model.encoder.layers.0.self_attn.q_proj.weight"> : tensor<768x768xf16>
  util.global private @__auto.text_encoder_model_1.text_model.encoder.layers.0.self_attn.q_proj.bias = #stream.parameter.named<"model"::"text_encoder_model_1.text_model.encoder.layers.0.self_attn.q_proj.bias"> : tensor<768xf16>
  util.global private @__auto.text_encoder_model_1.text_model.encoder.layers.0.self_attn.k_proj.weight = #stream.parameter.named<"model"::"text_encoder_model_1.text_model.encoder.layers.0.self_attn.k_proj.weight"> : tensor<768x768xf16>
  util.global private @__auto.text_encoder_model_1.text_model.encoder.layers.0.self_attn.k_proj.bias = #stream.parameter.named<"model"::"text_encoder_model_1.text_model.encoder.layers.0.self_attn.k_proj.bias"> : tensor<768xf16>
  util.global private @__auto.text_encoder_model_1.text_model.encoder.layers.0.self_attn.v_proj.weight = #stream.parameter.named<"model"::"text_encoder_model_1.text_model.encoder.layers.0.self_attn.v_proj.weight"> : tensor<768x768xf16>
  util.global private @__auto.text_encoder_model_1.text_model.encoder.layers.0.self_attn.v_proj.bias = #stream.parameter.named<"model"::"text_encoder_model_1.text_model.encoder.layers.0.self_attn.v_proj.bias"> : tensor<768xf16>
  util.global private @__auto.text_encoder_model_1.text_model.encoder.layers.0.self_attn.out_proj.weight = #stream.parameter.named<"model"::"text_encoder_model_1.text_model.encoder.layers.0.self_attn.out_proj.weight"> : tensor<768x768xf16>
  util.global private @__auto.text_encoder_model_1.text_model.encoder.layers.0.self_attn.out_proj.bias = #stream.parameter.named<"model"::"text_encoder_model_1.text_model.encoder.layers.0.self_attn.out_proj.bias"> : tensor<768xf16>
  util.global private @__auto.text_encoder_model_1.text_model.encoder.layers.0.layer_norm2.weight = #stream.parameter.named<"model"::"text_encoder_model_1.text_model.encoder.layers.0.layer_norm2.weight"> : tensor<768xf16>
  util.global private @__auto.text_encoder_model_1.text_model.encoder.layers.0.layer_norm2.bias = #stream.parameter.named<"model"::"text_encoder_model_1.text_model.encoder.layers.0.layer_norm2.bias"> : tensor<768xf16>
  util.global private @__auto.text_encoder_model_1.text_model.encoder.layers.0.mlp.fc1.weight = #stream.parameter.named<"model"::"text_encoder_model_1.text_model.encoder.layers.0.mlp.fc1.weight"> : tensor<3072x768xf16>
  util.global private @__auto.text_encoder_model_1.text_model.encoder.layers.0.mlp.fc1.bias = #stream.parameter.named<"model"::"text_encoder_model_1.text_model.encoder.layers.0.mlp.fc1.bias"> : tensor<3072xf16>
  util.global private @__auto.text_encoder_model_1.text_model.encoder.layers.0.mlp.fc2.weight = #stream.parameter.named<"model"::"text_encoder_model_1.text_model.encoder.layers.0.mlp.fc2.weight"> : tensor<768x3072xf16>
  util.global private @__auto.text_encoder_model_1.text_model.encoder.layers.0.mlp.fc2.bias = #stream.parameter.named<"model"::"text_encoder_model_1.text_model.encoder.layers.0.mlp.fc2.bias"> : tensor<768xf16>
  util.global private @__auto.text_encoder_model_1.text_model.encoder.layers.1.layer_norm1.weight = #stream.parameter.named<"model"::"text_encoder_model_1.text_model.encoder.layers.1.layer_norm1.weight"> : tensor<768xf16>
  util.global private @__auto.text_encoder_model_1.text_model.encoder.layers.1.layer_norm1.bias = #stream.parameter.named<"model"::"text_encoder_model_1.text_model.encoder.layers.1.layer_norm1.bias"> : tensor<768xf16>
  util.global private @__auto.text_encoder_model_1.text_model.encoder.layers.1.self_attn.q_proj.weight = #stream.parameter.named<"model"::"text_encoder_model_1.text_model.encoder.layers.1.self_attn.q_proj.weight"> : tensor<768x768xf16>
  util.global private @__auto.text_encoder_model_1.text_model.encoder.layers.1.self_attn.q_proj.bias = #stream.parameter.named<"model"::"text_encoder_model_1.text_model.encoder.layers.1.self_attn.q_proj.bias"> : tensor<768xf16>
  util.global private @__auto.text_encoder_model_1.text_model.encoder.layers.1.self_attn.k_proj.weight = #stream.parameter.named<"model"::"text_encoder_model_1.text_model.encoder.layers.1.self_attn.k_proj.weight"> : tensor<768x768xf16>
  util.global private @__auto.text_encoder_model_1.text_model.encoder.layers.1.self_attn.k_proj.bias = #stream.parameter.named<"model"::"text_encoder_model_1.text_model.encoder.layers.1.self_attn.k_proj.bias"> : tensor<768xf16>
  util.global private @__auto.text_encoder_model_1.text_model.encoder.layers.1.self_attn.v_proj.weight = #stream.parameter.named<"model"::"text_encoder_model_1.text_model.encoder.layers.1.self_attn.v_proj.weight"> : tensor<768x768xf16>
  util.global private @__auto.text_encoder_model_1.text_model.encoder.layers.1.self_attn.v_proj.bias = #stream.parameter.named<"model"::"text_encoder_model_1.text_model.encoder.layers.1.self_attn.v_proj.bias"> : tensor<768xf16>
  util.global private @__auto.text_encoder_model_1.text_model.encoder.layers.1.self_attn.out_proj.weight = #stream.parameter.named<"model"::"text_encoder_model_1.text_model.encoder.layers.1.self_attn.out_proj.weight"> : tensor<768x768xf16>
  util.global private @__auto.text_encoder_model_1.text_model.encoder.layers.1.self_attn.out_proj.bias = #stream.parameter.named<"model"::"text_encoder_model_1.text_model.encoder.layers.1.self_attn.out_proj.bias"> : tensor<768xf16>
  util.global private @__auto.text_encoder_model_1.text_model.encoder.layers.1.layer_norm2.weight = #stream.parameter.named<"model"::"text_encoder_model_1.text_model.encoder.layers.1.layer_norm2.weight"> : tensor<768xf16>
  util.global private @__auto.text_encoder_model_1.text_model.encoder.layers.1.layer_norm2.bias = #stream.parameter.named<"model"::"text_encoder_model_1.text_model.encoder.layers.1.layer_norm2.bias"> : tensor<768xf16>
  util.global private @__auto.text_encoder_model_1.text_model.encoder.layers.1.mlp.fc1.weight = #stream.parameter.named<"model"::"text_encoder_model_1.text_model.encoder.layers.1.mlp.fc1.weight"> : tensor<3072x768xf16>
  util.global private @__auto.text_encoder_model_1.text_model.encoder.layers.1.mlp.fc1.bias = #stream.parameter.named<"model"::"text_encoder_model_1.text_model.encoder.layers.1.mlp.fc1.bias"> : tensor<3072xf16>
  util.global private @__auto.text_encoder_model_1.text_model.encoder.layers.1.mlp.fc2.weight = #stream.parameter.named<"model"::"text_encoder_model_1.text_model.encoder.layers.1.mlp.fc2.weight"> : tensor<768x3072xf16>
  util.global private @__auto.text_encoder_model_1.text_model.encoder.layers.1.mlp.fc2.bias = #stream.parameter.named<"model"::"text_encoder_model_1.text_model.encoder.layers.1.mlp.fc2.bias"> : tensor<768xf16>
  util.global private @__auto.text_encoder_model_1.text_model.encoder.layers.2.layer_norm1.weight = #stream.parameter.named<"model"::"text_encoder_model_1.text_model.encoder.layers.2.layer_norm1.weight"> : tensor<768xf16>
  util.global private @__auto.text_encoder_model_1.text_model.encoder.layers.2.layer_norm1.bias = #stream.parameter.named<"model"::"text_encoder_model_1.text_model.encoder.layers.2.layer_norm1.bias"> : tensor<768xf16>
  util.global private @__auto.text_encoder_model_1.text_model.encoder.layers.2.self_attn.q_proj.weight = #stream.parameter.named<"model"::"text_encoder_model_1.text_model.encoder.layers.2.self_attn.q_proj.weight"> : tensor<768x768xf16>
  util.global private @__auto.text_encoder_model_1.text_model.encoder.layers.2.self_attn.q_proj.bias = #stream.parameter.named<"model"::"text_encoder_model_1.text_model.encoder.layers.2.self_attn.q_proj.bias"> : tensor<768xf16>
  util.global private @__auto.text_encoder_model_1.text_model.encoder.layers.2.self_attn.k_proj.weight = #stream.parameter.named<"model"::"text_encoder_model_1.text_model.encoder.layers.2.self_attn.k_proj.weight"> : tensor<768x768xf16>
  util.global private @__auto.text_encoder_model_1.text_model.encoder.layers.2.self_attn.k_proj.bias = #stream.parameter.named<"model"::"text_encoder_model_1.text_model.encoder.layers.2.self_attn.k_proj.bias"> : tensor<768xf16>
  util.global private @__auto.text_encoder_model_1.text_model.encoder.layers.2.self_attn.v_proj.weight = #stream.parameter.named<"model"::"text_encoder_model_1.text_model.encoder.layers.2.self_attn.v_proj.weight"> : tensor<768x768xf16>
  util.global private @__auto.text_encoder_model_1.text_model.encoder.layers.2.self_attn.v_proj.bias = #stream.parameter.named<"model"::"text_encoder_model_1.text_model.encoder.layers.2.self_attn.v_proj.bias"> : tensor<768xf16>
  util.global private @__auto.text_encoder_model_1.text_model.encoder.layers.2.self_attn.out_proj.weight = #stream.parameter.named<"model"::"text_encoder_model_1.text_model.encoder.layers.2.self_attn.out_proj.weight"> : tensor<768x768xf16>
  util.global private @__auto.text_encoder_model_1.text_model.encoder.layers.2.self_attn.out_proj.bias = #stream.parameter.named<"model"::"text_encoder_model_1.text_model.encoder.layers.2.self_attn.out_proj.bias"> : tensor<768xf16>
  util.global private @__auto.text_encoder_model_1.text_model.encoder.layers.2.layer_norm2.weight = #stream.parameter.named<"model"::"text_encoder_model_1.text_model.encoder.layers.2.layer_norm2.weight"> : tensor<768xf16>
  util.global private @__auto.text_encoder_model_1.text_model.encoder.layers.2.layer_norm2.bias = #stream.parameter.named<"model"::"text_encoder_model_1.text_model.encoder.layers.2.layer_norm2.bias"> : tensor<768xf16>
  util.global private @__auto.text_encoder_model_1.text_model.encoder.layers.2.mlp.fc1.weight = #stream.parameter.named<"model"::"text_encoder_model_1.text_model.encoder.layers.2.mlp.fc1.weight"> : tensor<3072x768xf16>
  util.global private @__auto.text_encoder_model_1.text_model.encoder.layers.2.mlp.fc1.bias = #stream.parameter.named<"model"::"text_encoder_model_1.text_model.encoder.layers.2.mlp.fc1.bias"> : tensor<3072xf16>
  util.global private @__auto.text_encoder_model_1.text_model.encoder.layers.2.mlp.fc2.weight = #stream.parameter.named<"model"::"text_encoder_model_1.text_model.encoder.layers.2.mlp.fc2.weight"> : tensor<768x3072xf16>
  util.global private @__auto.text_encoder_model_1.text_model.encoder.layers.2.mlp.fc2.bias = #stream.parameter.named<"model"::"text_encoder_model_1.text_model.encoder.layers.2.mlp.fc2.bias"> : tensor<768xf16>
  util.global private @__auto.text_encoder_model_1.text_model.encoder.layers.3.layer_norm1.weight = #stream.parameter.named<"model"::"text_encoder_model_1.text_model.encoder.layers.3.layer_norm1.weight"> : tensor<768xf16>
  util.global private @__auto.text_encoder_model_1.text_model.encoder.layers.3.layer_norm1.bias = #stream.parameter.named<"model"::"text_encoder_model_1.text_model.encoder.layers.3.layer_norm1.bias"> : tensor<768xf16>
  util.global private @__auto.text_encoder_model_1.text_model.encoder.layers.3.self_attn.q_proj.weight = #stream.parameter.named<"model"::"text_encoder_model_1.text_model.encoder.layers.3.self_attn.q_proj.weight"> : tensor<768x768xf16>
  util.global private @__auto.text_encoder_model_1.text_model.encoder.layers.3.self_attn.q_proj.bias = #stream.parameter.named<"model"::"text_encoder_model_1.text_model.encoder.layers.3.self_attn.q_proj.bias"> : tensor<768xf16>
  util.global private @__auto.text_encoder_model_1.text_model.encoder.layers.3.self_attn.k_proj.weight = #stream.parameter.named<"model"::"text_encoder_model_1.text_model.encoder.layers.3.self_attn.k_proj.weight"> : tensor<768x768xf16>
  util.global private @__auto.text_encoder_model_1.text_model.encoder.layers.3.self_attn.k_proj.bias = #stream.parameter.named<"model"::"text_encoder_model_1.text_model.encoder.layers.3.self_attn.k_proj.bias"> : tensor<768xf16>
  util.global private @__auto.text_encoder_model_1.text_model.encoder.layers.3.self_attn.v_proj.weight = #stream.parameter.named<"model"::"text_encoder_model_1.text_model.encoder.layers.3.self_attn.v_proj.weight"> : tensor<768x768xf16>
  util.global private @__auto.text_encoder_model_1.text_model.encoder.layers.3.self_attn.v_proj.bias = #stream.parameter.named<"model"::"text_encoder_model_1.text_model.encoder.layers.3.self_attn.v_proj.bias"> : tensor<768xf16>
  util.global private @__auto.text_encoder_model_1.text_model.encoder.layers.3.self_attn.out_proj.weight = #stream.parameter.named<"model"::"text_encoder_model_1.text_model.encoder.layers.3.self_attn.out_proj.weight"> : tensor<768x768xf16>
  util.global private @__auto.text_encoder_model_1.text_model.encoder.layers.3.self_attn.out_proj.bias = #stream.parameter.named<"model"::"text_encoder_model_1.text_model.encoder.layers.3.self_attn.out_proj.bias"> : tensor<768xf16>
  util.global private @__auto.text_encoder_model_1.text_model.encoder.layers.3.layer_norm2.weight = #stream.parameter.named<"model"::"text_encoder_model_1.text_model.encoder.layers.3.layer_norm2.weight"> : tensor<768xf16>
  util.global private @__auto.text_encoder_model_1.text_model.encoder.layers.3.layer_norm2.bias = #stream.parameter.named<"model"::"text_encoder_model_1.text_model.encoder.layers.3.layer_norm2.bias"> : tensor<768xf16>
  util.global private @__auto.text_encoder_model_1.text_model.encoder.layers.3.mlp.fc1.weight = #stream.parameter.named<"model"::"text_encoder_model_1.text_model.encoder.layers.3.mlp.fc1.weight"> : tensor<3072x768xf16>
  util.global private @__auto.text_encoder_model_1.text_model.encoder.layers.3.mlp.fc1.bias = #stream.parameter.named<"model"::"text_encoder_model_1.text_model.encoder.layers.3.mlp.fc1.bias"> : tensor<3072xf16>
  util.global private @__auto.text_encoder_model_1.text_model.encoder.layers.3.mlp.fc2.weight = #stream.parameter.named<"model"::"text_encoder_model_1.text_model.encoder.layers.3.mlp.fc2.weight"> : tensor<768x3072xf16>
  util.global private @__auto.text_encoder_model_1.text_model.encoder.layers.3.mlp.fc2.bias = #stream.parameter.named<"model"::"text_encoder_model_1.text_model.encoder.layers.3.mlp.fc2.bias"> : tensor<768xf16>
  util.global private @__auto.text_encoder_model_1.text_model.encoder.layers.4.layer_norm1.weight = #stream.parameter.named<"model"::"text_encoder_model_1.text_model.encoder.layers.4.layer_norm1.weight"> : tensor<768xf16>
  util.global private @__auto.text_encoder_model_1.text_model.encoder.layers.4.layer_norm1.bias = #stream.parameter.named<"model"::"text_encoder_model_1.text_model.encoder.layers.4.layer_norm1.bias"> : tensor<768xf16>
  util.global private @__auto.text_encoder_model_1.text_model.encoder.layers.4.self_attn.q_proj.weight = #stream.parameter.named<"model"::"text_encoder_model_1.text_model.encoder.layers.4.self_attn.q_proj.weight"> : tensor<768x768xf16>
  util.global private @__auto.text_encoder_model_1.text_model.encoder.layers.4.self_attn.q_proj.bias = #stream.parameter.named<"model"::"text_encoder_model_1.text_model.encoder.layers.4.self_attn.q_proj.bias"> : tensor<768xf16>
  util.global private @__auto.text_encoder_model_1.text_model.encoder.layers.4.self_attn.k_proj.weight = #stream.parameter.named<"model"::"text_encoder_model_1.text_model.encoder.layers.4.self_attn.k_proj.weight"> : tensor<768x768xf16>
  util.global private @__auto.text_encoder_model_1.text_model.encoder.layers.4.self_attn.k_proj.bias = #stream.parameter.named<"model"::"text_encoder_model_1.text_model.encoder.layers.4.self_attn.k_proj.bias"> : tensor<768xf16>
  util.global private @__auto.text_encoder_model_1.text_model.encoder.layers.4.self_attn.v_proj.weight = #stream.parameter.named<"model"::"text_encoder_model_1.text_model.encoder.layers.4.self_attn.v_proj.weight"> : tensor<768x768xf16>
  util.global private @__auto.text_encoder_model_1.text_model.encoder.layers.4.self_attn.v_proj.bias = #stream.parameter.named<"model"::"text_encoder_model_1.text_model.encoder.layers.4.self_attn.v_proj.bias"> : tensor<768xf16>
  util.global private @__auto.text_encoder_model_1.text_model.encoder.layers.4.self_attn.out_proj.weight = #stream.parameter.named<"model"::"text_encoder_model_1.text_model.encoder.layers.4.self_attn.out_proj.weight"> : tensor<768x768xf16>
  util.global private @__auto.text_encoder_model_1.text_model.encoder.layers.4.self_attn.out_proj.bias = #stream.parameter.named<"model"::"text_encoder_model_1.text_model.encoder.layers.4.self_attn.out_proj.bias"> : tensor<768xf16>
  util.global private @__auto.text_encoder_model_1.text_model.encoder.layers.4.layer_norm2.weight = #stream.parameter.named<"model"::"text_encoder_model_1.text_model.encoder.layers.4.layer_norm2.weight"> : tensor<768xf16>
  util.global private @__auto.text_encoder_model_1.text_model.encoder.layers.4.layer_norm2.bias = #stream.parameter.named<"model"::"text_encoder_model_1.text_model.encoder.layers.4.layer_norm2.bias"> : tensor<768xf16>
  util.global private @__auto.text_encoder_model_1.text_model.encoder.layers.4.mlp.fc1.weight = #stream.parameter.named<"model"::"text_encoder_model_1.text_model.encoder.layers.4.mlp.fc1.weight"> : tensor<3072x768xf16>
  util.global private @__auto.text_encoder_model_1.text_model.encoder.layers.4.mlp.fc1.bias = #stream.parameter.named<"model"::"text_encoder_model_1.text_model.encoder.layers.4.mlp.fc1.bias"> : tensor<3072xf16>
  util.global private @__auto.text_encoder_model_1.text_model.encoder.layers.4.mlp.fc2.weight = #stream.parameter.named<"model"::"text_encoder_model_1.text_model.encoder.layers.4.mlp.fc2.weight"> : tensor<768x3072xf16>
  util.global private @__auto.text_encoder_model_1.text_model.encoder.layers.4.mlp.fc2.bias = #stream.parameter.named<"model"::"text_encoder_model_1.text_model.encoder.layers.4.mlp.fc2.bias"> : tensor<768xf16>
  util.global private @__auto.text_encoder_model_1.text_model.encoder.layers.5.layer_norm1.weight = #stream.parameter.named<"model"::"text_encoder_model_1.text_model.encoder.layers.5.layer_norm1.weight"> : tensor<768xf16>
  util.global private @__auto.text_encoder_model_1.text_model.encoder.layers.5.layer_norm1.bias = #stream.parameter.named<"model"::"text_encoder_model_1.text_model.encoder.layers.5.layer_norm1.bias"> : tensor<768xf16>
  util.global private @__auto.text_encoder_model_1.text_model.encoder.layers.5.self_attn.q_proj.weight = #stream.parameter.named<"model"::"text_encoder_model_1.text_model.encoder.layers.5.self_attn.q_proj.weight"> : tensor<768x768xf16>
  util.global private @__auto.text_encoder_model_1.text_model.encoder.layers.5.self_attn.q_proj.bias = #stream.parameter.named<"model"::"text_encoder_model_1.text_model.encoder.layers.5.self_attn.q_proj.bias"> : tensor<768xf16>
  util.global private @__auto.text_encoder_model_1.text_model.encoder.layers.5.self_attn.k_proj.weight = #stream.parameter.named<"model"::"text_encoder_model_1.text_model.encoder.layers.5.self_attn.k_proj.weight"> : tensor<768x768xf16>
  util.global private @__auto.text_encoder_model_1.text_model.encoder.layers.5.self_attn.k_proj.bias = #stream.parameter.named<"model"::"text_encoder_model_1.text_model.encoder.layers.5.self_attn.k_proj.bias"> : tensor<768xf16>
  util.global private @__auto.text_encoder_model_1.text_model.encoder.layers.5.self_attn.v_proj.weight = #stream.parameter.named<"model"::"text_encoder_model_1.text_model.encoder.layers.5.self_attn.v_proj.weight"> : tensor<768x768xf16>
  util.global private @__auto.text_encoder_model_1.text_model.encoder.layers.5.self_attn.v_proj.bias = #stream.parameter.named<"model"::"text_encoder_model_1.text_model.encoder.layers.5.self_attn.v_proj.bias"> : tensor<768xf16>
  util.global private @__auto.text_encoder_model_1.text_model.encoder.layers.5.self_attn.out_proj.weight = #stream.parameter.named<"model"::"text_encoder_model_1.text_model.encoder.layers.5.self_attn.out_proj.weight"> : tensor<768x768xf16>
  util.global private @__auto.text_encoder_model_1.text_model.encoder.layers.5.self_attn.out_proj.bias = #stream.parameter.named<"model"::"text_encoder_model_1.text_model.encoder.layers.5.self_attn.out_proj.bias"> : tensor<768xf16>
  util.global private @__auto.text_encoder_model_1.text_model.encoder.layers.5.layer_norm2.weight = #stream.parameter.named<"model"::"text_encoder_model_1.text_model.encoder.layers.5.layer_norm2.weight"> : tensor<768xf16>
  util.global private @__auto.text_encoder_model_1.text_model.encoder.layers.5.layer_norm2.bias = #stream.parameter.named<"model"::"text_encoder_model_1.text_model.encoder.layers.5.layer_norm2.bias"> : tensor<768xf16>
  util.global private @__auto.text_encoder_model_1.text_model.encoder.layers.5.mlp.fc1.weight = #stream.parameter.named<"model"::"text_encoder_model_1.text_model.encoder.layers.5.mlp.fc1.weight"> : tensor<3072x768xf16>
  util.global private @__auto.text_encoder_model_1.text_model.encoder.layers.5.mlp.fc1.bias = #stream.parameter.named<"model"::"text_encoder_model_1.text_model.encoder.layers.5.mlp.fc1.bias"> : tensor<3072xf16>
  util.global private @__auto.text_encoder_model_1.text_model.encoder.layers.5.mlp.fc2.weight = #stream.parameter.named<"model"::"text_encoder_model_1.text_model.encoder.layers.5.mlp.fc2.weight"> : tensor<768x3072xf16>
  util.global private @__auto.text_encoder_model_1.text_model.encoder.layers.5.mlp.fc2.bias = #stream.parameter.named<"model"::"text_encoder_model_1.text_model.encoder.layers.5.mlp.fc2.bias"> : tensor<768xf16>
  util.global private @__auto.text_encoder_model_1.text_model.encoder.layers.6.layer_norm1.weight = #stream.parameter.named<"model"::"text_encoder_model_1.text_model.encoder.layers.6.layer_norm1.weight"> : tensor<768xf16>
  util.global private @__auto.text_encoder_model_1.text_model.encoder.layers.6.layer_norm1.bias = #stream.parameter.named<"model"::"text_encoder_model_1.text_model.encoder.layers.6.layer_norm1.bias"> : tensor<768xf16>
  util.global private @__auto.text_encoder_model_1.text_model.encoder.layers.6.self_attn.q_proj.weight = #stream.parameter.named<"model"::"text_encoder_model_1.text_model.encoder.layers.6.self_attn.q_proj.weight"> : tensor<768x768xf16>
  util.global private @__auto.text_encoder_model_1.text_model.encoder.layers.6.self_attn.q_proj.bias = #stream.parameter.named<"model"::"text_encoder_model_1.text_model.encoder.layers.6.self_attn.q_proj.bias"> : tensor<768xf16>
  util.global private @__auto.text_encoder_model_1.text_model.encoder.layers.6.self_attn.k_proj.weight = #stream.parameter.named<"model"::"text_encoder_model_1.text_model.encoder.layers.6.self_attn.k_proj.weight"> : tensor<768x768xf16>
  util.global private @__auto.text_encoder_model_1.text_model.encoder.layers.6.self_attn.k_proj.bias = #stream.parameter.named<"model"::"text_encoder_model_1.text_model.encoder.layers.6.self_attn.k_proj.bias"> : tensor<768xf16>
  util.global private @__auto.text_encoder_model_1.text_model.encoder.layers.6.self_attn.v_proj.weight = #stream.parameter.named<"model"::"text_encoder_model_1.text_model.encoder.layers.6.self_attn.v_proj.weight"> : tensor<768x768xf16>
  util.global private @__auto.text_encoder_model_1.text_model.encoder.layers.6.self_attn.v_proj.bias = #stream.parameter.named<"model"::"text_encoder_model_1.text_model.encoder.layers.6.self_attn.v_proj.bias"> : tensor<768xf16>
  util.global private @__auto.text_encoder_model_1.text_model.encoder.layers.6.self_attn.out_proj.weight = #stream.parameter.named<"model"::"text_encoder_model_1.text_model.encoder.layers.6.self_attn.out_proj.weight"> : tensor<768x768xf16>
  util.global private @__auto.text_encoder_model_1.text_model.encoder.layers.6.self_attn.out_proj.bias = #stream.parameter.named<"model"::"text_encoder_model_1.text_model.encoder.layers.6.self_attn.out_proj.bias"> : tensor<768xf16>
  util.global private @__auto.text_encoder_model_1.text_model.encoder.layers.6.layer_norm2.weight = #stream.parameter.named<"model"::"text_encoder_model_1.text_model.encoder.layers.6.layer_norm2.weight"> : tensor<768xf16>
  util.global private @__auto.text_encoder_model_1.text_model.encoder.layers.6.layer_norm2.bias = #stream.parameter.named<"model"::"text_encoder_model_1.text_model.encoder.layers.6.layer_norm2.bias"> : tensor<768xf16>
  util.global private @__auto.text_encoder_model_1.text_model.encoder.layers.6.mlp.fc1.weight = #stream.parameter.named<"model"::"text_encoder_model_1.text_model.encoder.layers.6.mlp.fc1.weight"> : tensor<3072x768xf16>
  util.global private @__auto.text_encoder_model_1.text_model.encoder.layers.6.mlp.fc1.bias = #stream.parameter.named<"model"::"text_encoder_model_1.text_model.encoder.layers.6.mlp.fc1.bias"> : tensor<3072xf16>
  util.global private @__auto.text_encoder_model_1.text_model.encoder.layers.6.mlp.fc2.weight = #stream.parameter.named<"model"::"text_encoder_model_1.text_model.encoder.layers.6.mlp.fc2.weight"> : tensor<768x3072xf16>
  util.global private @__auto.text_encoder_model_1.text_model.encoder.layers.6.mlp.fc2.bias = #stream.parameter.named<"model"::"text_encoder_model_1.text_model.encoder.layers.6.mlp.fc2.bias"> : tensor<768xf16>
  util.global private @__auto.text_encoder_model_1.text_model.encoder.layers.7.layer_norm1.weight = #stream.parameter.named<"model"::"text_encoder_model_1.text_model.encoder.layers.7.layer_norm1.weight"> : tensor<768xf16>
  util.global private @__auto.text_encoder_model_1.text_model.encoder.layers.7.layer_norm1.bias = #stream.parameter.named<"model"::"text_encoder_model_1.text_model.encoder.layers.7.layer_norm1.bias"> : tensor<768xf16>
  util.global private @__auto.text_encoder_model_1.text_model.encoder.layers.7.self_attn.q_proj.weight = #stream.parameter.named<"model"::"text_encoder_model_1.text_model.encoder.layers.7.self_attn.q_proj.weight"> : tensor<768x768xf16>
  util.global private @__auto.text_encoder_model_1.text_model.encoder.layers.7.self_attn.q_proj.bias = #stream.parameter.named<"model"::"text_encoder_model_1.text_model.encoder.layers.7.self_attn.q_proj.bias"> : tensor<768xf16>
  util.global private @__auto.text_encoder_model_1.text_model.encoder.layers.7.self_attn.k_proj.weight = #stream.parameter.named<"model"::"text_encoder_model_1.text_model.encoder.layers.7.self_attn.k_proj.weight"> : tensor<768x768xf16>
  util.global private @__auto.text_encoder_model_1.text_model.encoder.layers.7.self_attn.k_proj.bias = #stream.parameter.named<"model"::"text_encoder_model_1.text_model.encoder.layers.7.self_attn.k_proj.bias"> : tensor<768xf16>
  util.global private @__auto.text_encoder_model_1.text_model.encoder.layers.7.self_attn.v_proj.weight = #stream.parameter.named<"model"::"text_encoder_model_1.text_model.encoder.layers.7.self_attn.v_proj.weight"> : tensor<768x768xf16>
  util.global private @__auto.text_encoder_model_1.text_model.encoder.layers.7.self_attn.v_proj.bias = #stream.parameter.named<"model"::"text_encoder_model_1.text_model.encoder.layers.7.self_attn.v_proj.bias"> : tensor<768xf16>
  util.global private @__auto.text_encoder_model_1.text_model.encoder.layers.7.self_attn.out_proj.weight = #stream.parameter.named<"model"::"text_encoder_model_1.text_model.encoder.layers.7.self_attn.out_proj.weight"> : tensor<768x768xf16>
  util.global private @__auto.text_encoder_model_1.text_model.encoder.layers.7.self_attn.out_proj.bias = #stream.parameter.named<"model"::"text_encoder_model_1.text_model.encoder.layers.7.self_attn.out_proj.bias"> : tensor<768xf16>
  util.global private @__auto.text_encoder_model_1.text_model.encoder.layers.7.layer_norm2.weight = #stream.parameter.named<"model"::"text_encoder_model_1.text_model.encoder.layers.7.layer_norm2.weight"> : tensor<768xf16>
  util.global private @__auto.text_encoder_model_1.text_model.encoder.layers.7.layer_norm2.bias = #stream.parameter.named<"model"::"text_encoder_model_1.text_model.encoder.layers.7.layer_norm2.bias"> : tensor<768xf16>
  util.global private @__auto.text_encoder_model_1.text_model.encoder.layers.7.mlp.fc1.weight = #stream.parameter.named<"model"::"text_encoder_model_1.text_model.encoder.layers.7.mlp.fc1.weight"> : tensor<3072x768xf16>
  util.global private @__auto.text_encoder_model_1.text_model.encoder.layers.7.mlp.fc1.bias = #stream.parameter.named<"model"::"text_encoder_model_1.text_model.encoder.layers.7.mlp.fc1.bias"> : tensor<3072xf16>
  util.global private @__auto.text_encoder_model_1.text_model.encoder.layers.7.mlp.fc2.weight = #stream.parameter.named<"model"::"text_encoder_model_1.text_model.encoder.layers.7.mlp.fc2.weight"> : tensor<768x3072xf16>
  util.global private @__auto.text_encoder_model_1.text_model.encoder.layers.7.mlp.fc2.bias = #stream.parameter.named<"model"::"text_encoder_model_1.text_model.encoder.layers.7.mlp.fc2.bias"> : tensor<768xf16>
  util.global private @__auto.text_encoder_model_1.text_model.encoder.layers.8.layer_norm1.weight = #stream.parameter.named<"model"::"text_encoder_model_1.text_model.encoder.layers.8.layer_norm1.weight"> : tensor<768xf16>
  util.global private @__auto.text_encoder_model_1.text_model.encoder.layers.8.layer_norm1.bias = #stream.parameter.named<"model"::"text_encoder_model_1.text_model.encoder.layers.8.layer_norm1.bias"> : tensor<768xf16>
  util.global private @__auto.text_encoder_model_1.text_model.encoder.layers.8.self_attn.q_proj.weight = #stream.parameter.named<"model"::"text_encoder_model_1.text_model.encoder.layers.8.self_attn.q_proj.weight"> : tensor<768x768xf16>
  util.global private @__auto.text_encoder_model_1.text_model.encoder.layers.8.self_attn.q_proj.bias = #stream.parameter.named<"model"::"text_encoder_model_1.text_model.encoder.layers.8.self_attn.q_proj.bias"> : tensor<768xf16>
  util.global private @__auto.text_encoder_model_1.text_model.encoder.layers.8.self_attn.k_proj.weight = #stream.parameter.named<"model"::"text_encoder_model_1.text_model.encoder.layers.8.self_attn.k_proj.weight"> : tensor<768x768xf16>
  util.global private @__auto.text_encoder_model_1.text_model.encoder.layers.8.self_attn.k_proj.bias = #stream.parameter.named<"model"::"text_encoder_model_1.text_model.encoder.layers.8.self_attn.k_proj.bias"> : tensor<768xf16>
  util.global private @__auto.text_encoder_model_1.text_model.encoder.layers.8.self_attn.v_proj.weight = #stream.parameter.named<"model"::"text_encoder_model_1.text_model.encoder.layers.8.self_attn.v_proj.weight"> : tensor<768x768xf16>
  util.global private @__auto.text_encoder_model_1.text_model.encoder.layers.8.self_attn.v_proj.bias = #stream.parameter.named<"model"::"text_encoder_model_1.text_model.encoder.layers.8.self_attn.v_proj.bias"> : tensor<768xf16>
  util.global private @__auto.text_encoder_model_1.text_model.encoder.layers.8.self_attn.out_proj.weight = #stream.parameter.named<"model"::"text_encoder_model_1.text_model.encoder.layers.8.self_attn.out_proj.weight"> : tensor<768x768xf16>
  util.global private @__auto.text_encoder_model_1.text_model.encoder.layers.8.self_attn.out_proj.bias = #stream.parameter.named<"model"::"text_encoder_model_1.text_model.encoder.layers.8.self_attn.out_proj.bias"> : tensor<768xf16>
  util.global private @__auto.text_encoder_model_1.text_model.encoder.layers.8.layer_norm2.weight = #stream.parameter.named<"model"::"text_encoder_model_1.text_model.encoder.layers.8.layer_norm2.weight"> : tensor<768xf16>
  util.global private @__auto.text_encoder_model_1.text_model.encoder.layers.8.layer_norm2.bias = #stream.parameter.named<"model"::"text_encoder_model_1.text_model.encoder.layers.8.layer_norm2.bias"> : tensor<768xf16>
  util.global private @__auto.text_encoder_model_1.text_model.encoder.layers.8.mlp.fc1.weight = #stream.parameter.named<"model"::"text_encoder_model_1.text_model.encoder.layers.8.mlp.fc1.weight"> : tensor<3072x768xf16>
  util.global private @__auto.text_encoder_model_1.text_model.encoder.layers.8.mlp.fc1.bias = #stream.parameter.named<"model"::"text_encoder_model_1.text_model.encoder.layers.8.mlp.fc1.bias"> : tensor<3072xf16>
  util.global private @__auto.text_encoder_model_1.text_model.encoder.layers.8.mlp.fc2.weight = #stream.parameter.named<"model"::"text_encoder_model_1.text_model.encoder.layers.8.mlp.fc2.weight"> : tensor<768x3072xf16>
  util.global private @__auto.text_encoder_model_1.text_model.encoder.layers.8.mlp.fc2.bias = #stream.parameter.named<"model"::"text_encoder_model_1.text_model.encoder.layers.8.mlp.fc2.bias"> : tensor<768xf16>
  util.global private @__auto.text_encoder_model_1.text_model.encoder.layers.9.layer_norm1.weight = #stream.parameter.named<"model"::"text_encoder_model_1.text_model.encoder.layers.9.layer_norm1.weight"> : tensor<768xf16>
  util.global private @__auto.text_encoder_model_1.text_model.encoder.layers.9.layer_norm1.bias = #stream.parameter.named<"model"::"text_encoder_model_1.text_model.encoder.layers.9.layer_norm1.bias"> : tensor<768xf16>
  util.global private @__auto.text_encoder_model_1.text_model.encoder.layers.9.self_attn.q_proj.weight = #stream.parameter.named<"model"::"text_encoder_model_1.text_model.encoder.layers.9.self_attn.q_proj.weight"> : tensor<768x768xf16>
  util.global private @__auto.text_encoder_model_1.text_model.encoder.layers.9.self_attn.q_proj.bias = #stream.parameter.named<"model"::"text_encoder_model_1.text_model.encoder.layers.9.self_attn.q_proj.bias"> : tensor<768xf16>
  util.global private @__auto.text_encoder_model_1.text_model.encoder.layers.9.self_attn.k_proj.weight = #stream.parameter.named<"model"::"text_encoder_model_1.text_model.encoder.layers.9.self_attn.k_proj.weight"> : tensor<768x768xf16>
  util.global private @__auto.text_encoder_model_1.text_model.encoder.layers.9.self_attn.k_proj.bias = #stream.parameter.named<"model"::"text_encoder_model_1.text_model.encoder.layers.9.self_attn.k_proj.bias"> : tensor<768xf16>
  util.global private @__auto.text_encoder_model_1.text_model.encoder.layers.9.self_attn.v_proj.weight = #stream.parameter.named<"model"::"text_encoder_model_1.text_model.encoder.layers.9.self_attn.v_proj.weight"> : tensor<768x768xf16>
  util.global private @__auto.text_encoder_model_1.text_model.encoder.layers.9.self_attn.v_proj.bias = #stream.parameter.named<"model"::"text_encoder_model_1.text_model.encoder.layers.9.self_attn.v_proj.bias"> : tensor<768xf16>
  util.global private @__auto.text_encoder_model_1.text_model.encoder.layers.9.self_attn.out_proj.weight = #stream.parameter.named<"model"::"text_encoder_model_1.text_model.encoder.layers.9.self_attn.out_proj.weight"> : tensor<768x768xf16>
  util.global private @__auto.text_encoder_model_1.text_model.encoder.layers.9.self_attn.out_proj.bias = #stream.parameter.named<"model"::"text_encoder_model_1.text_model.encoder.layers.9.self_attn.out_proj.bias"> : tensor<768xf16>
  util.global private @__auto.text_encoder_model_1.text_model.encoder.layers.9.layer_norm2.weight = #stream.parameter.named<"model"::"text_encoder_model_1.text_model.encoder.layers.9.layer_norm2.weight"> : tensor<768xf16>
  util.global private @__auto.text_encoder_model_1.text_model.encoder.layers.9.layer_norm2.bias = #stream.parameter.named<"model"::"text_encoder_model_1.text_model.encoder.layers.9.layer_norm2.bias"> : tensor<768xf16>
  util.global private @__auto.text_encoder_model_1.text_model.encoder.layers.9.mlp.fc1.weight = #stream.parameter.named<"model"::"text_encoder_model_1.text_model.encoder.layers.9.mlp.fc1.weight"> : tensor<3072x768xf16>
  util.global private @__auto.text_encoder_model_1.text_model.encoder.layers.9.mlp.fc1.bias = #stream.parameter.named<"model"::"text_encoder_model_1.text_model.encoder.layers.9.mlp.fc1.bias"> : tensor<3072xf16>
  util.global private @__auto.text_encoder_model_1.text_model.encoder.layers.9.mlp.fc2.weight = #stream.parameter.named<"model"::"text_encoder_model_1.text_model.encoder.layers.9.mlp.fc2.weight"> : tensor<768x3072xf16>
  util.global private @__auto.text_encoder_model_1.text_model.encoder.layers.9.mlp.fc2.bias = #stream.parameter.named<"model"::"text_encoder_model_1.text_model.encoder.layers.9.mlp.fc2.bias"> : tensor<768xf16>
  util.global private @__auto.text_encoder_model_1.text_model.encoder.layers.10.layer_norm1.weight = #stream.parameter.named<"model"::"text_encoder_model_1.text_model.encoder.layers.10.layer_norm1.weight"> : tensor<768xf16>
  util.global private @__auto.text_encoder_model_1.text_model.encoder.layers.10.layer_norm1.bias = #stream.parameter.named<"model"::"text_encoder_model_1.text_model.encoder.layers.10.layer_norm1.bias"> : tensor<768xf16>
  util.global private @__auto.text_encoder_model_1.text_model.encoder.layers.10.self_attn.q_proj.weight = #stream.parameter.named<"model"::"text_encoder_model_1.text_model.encoder.layers.10.self_attn.q_proj.weight"> : tensor<768x768xf16>
  util.global private @__auto.text_encoder_model_1.text_model.encoder.layers.10.self_attn.q_proj.bias = #stream.parameter.named<"model"::"text_encoder_model_1.text_model.encoder.layers.10.self_attn.q_proj.bias"> : tensor<768xf16>
  util.global private @__auto.text_encoder_model_1.text_model.encoder.layers.10.self_attn.k_proj.weight = #stream.parameter.named<"model"::"text_encoder_model_1.text_model.encoder.layers.10.self_attn.k_proj.weight"> : tensor<768x768xf16>
  util.global private @__auto.text_encoder_model_1.text_model.encoder.layers.10.self_attn.k_proj.bias = #stream.parameter.named<"model"::"text_encoder_model_1.text_model.encoder.layers.10.self_attn.k_proj.bias"> : tensor<768xf16>
  util.global private @__auto.text_encoder_model_1.text_model.encoder.layers.10.self_attn.v_proj.weight = #stream.parameter.named<"model"::"text_encoder_model_1.text_model.encoder.layers.10.self_attn.v_proj.weight"> : tensor<768x768xf16>
  util.global private @__auto.text_encoder_model_1.text_model.encoder.layers.10.self_attn.v_proj.bias = #stream.parameter.named<"model"::"text_encoder_model_1.text_model.encoder.layers.10.self_attn.v_proj.bias"> : tensor<768xf16>
  util.global private @__auto.text_encoder_model_1.text_model.encoder.layers.10.self_attn.out_proj.weight = #stream.parameter.named<"model"::"text_encoder_model_1.text_model.encoder.layers.10.self_attn.out_proj.weight"> : tensor<768x768xf16>
  util.global private @__auto.text_encoder_model_1.text_model.encoder.layers.10.self_attn.out_proj.bias = #stream.parameter.named<"model"::"text_encoder_model_1.text_model.encoder.layers.10.self_attn.out_proj.bias"> : tensor<768xf16>
  util.global private @__auto.text_encoder_model_1.text_model.encoder.layers.10.layer_norm2.weight = #stream.parameter.named<"model"::"text_encoder_model_1.text_model.encoder.layers.10.layer_norm2.weight"> : tensor<768xf16>
  util.global private @__auto.text_encoder_model_1.text_model.encoder.layers.10.layer_norm2.bias = #stream.parameter.named<"model"::"text_encoder_model_1.text_model.encoder.layers.10.layer_norm2.bias"> : tensor<768xf16>
  util.global private @__auto.text_encoder_model_1.text_model.encoder.layers.10.mlp.fc1.weight = #stream.parameter.named<"model"::"text_encoder_model_1.text_model.encoder.layers.10.mlp.fc1.weight"> : tensor<3072x768xf16>
  util.global private @__auto.text_encoder_model_1.text_model.encoder.layers.10.mlp.fc1.bias = #stream.parameter.named<"model"::"text_encoder_model_1.text_model.encoder.layers.10.mlp.fc1.bias"> : tensor<3072xf16>
  util.global private @__auto.text_encoder_model_1.text_model.encoder.layers.10.mlp.fc2.weight = #stream.parameter.named<"model"::"text_encoder_model_1.text_model.encoder.layers.10.mlp.fc2.weight"> : tensor<768x3072xf16>
  util.global private @__auto.text_encoder_model_1.text_model.encoder.layers.10.mlp.fc2.bias = #stream.parameter.named<"model"::"text_encoder_model_1.text_model.encoder.layers.10.mlp.fc2.bias"> : tensor<768xf16>
  util.global private @__auto.text_encoder_model_2.text_model.embeddings.position_ids = #stream.parameter.named<"model"::"text_encoder_model_2.text_model.embeddings.position_ids"> : tensor<1x77xi64>
  util.global private @__auto.text_encoder_model_2.text_model.embeddings.token_embedding.weight = #stream.parameter.named<"model"::"text_encoder_model_2.text_model.embeddings.token_embedding.weight"> : tensor<49408x1280xf16>
  util.global private @__auto.text_encoder_model_2.text_model.embeddings.position_embedding.weight = #stream.parameter.named<"model"::"text_encoder_model_2.text_model.embeddings.position_embedding.weight"> : tensor<77x1280xf16>
  util.global private @__auto.text_encoder_model_2.text_model.encoder.layers.0.layer_norm1.weight = #stream.parameter.named<"model"::"text_encoder_model_2.text_model.encoder.layers.0.layer_norm1.weight"> : tensor<1280xf16>
  util.global private @__auto.text_encoder_model_2.text_model.encoder.layers.0.layer_norm1.bias = #stream.parameter.named<"model"::"text_encoder_model_2.text_model.encoder.layers.0.layer_norm1.bias"> : tensor<1280xf16>
  util.global private @__auto.text_encoder_model_2.text_model.encoder.layers.0.self_attn.q_proj.weight = #stream.parameter.named<"model"::"text_encoder_model_2.text_model.encoder.layers.0.self_attn.q_proj.weight"> : tensor<1280x1280xf16>
  util.global private @__auto.text_encoder_model_2.text_model.encoder.layers.0.self_attn.q_proj.bias = #stream.parameter.named<"model"::"text_encoder_model_2.text_model.encoder.layers.0.self_attn.q_proj.bias"> : tensor<1280xf16>
  util.global private @__auto.text_encoder_model_2.text_model.encoder.layers.0.self_attn.k_proj.weight = #stream.parameter.named<"model"::"text_encoder_model_2.text_model.encoder.layers.0.self_attn.k_proj.weight"> : tensor<1280x1280xf16>
  util.global private @__auto.text_encoder_model_2.text_model.encoder.layers.0.self_attn.k_proj.bias = #stream.parameter.named<"model"::"text_encoder_model_2.text_model.encoder.layers.0.self_attn.k_proj.bias"> : tensor<1280xf16>
  util.global private @__auto.text_encoder_model_2.text_model.encoder.layers.0.self_attn.v_proj.weight = #stream.parameter.named<"model"::"text_encoder_model_2.text_model.encoder.layers.0.self_attn.v_proj.weight"> : tensor<1280x1280xf16>
  util.global private @__auto.text_encoder_model_2.text_model.encoder.layers.0.self_attn.v_proj.bias = #stream.parameter.named<"model"::"text_encoder_model_2.text_model.encoder.layers.0.self_attn.v_proj.bias"> : tensor<1280xf16>
  util.global private @__auto.text_encoder_model_2.text_model.encoder.layers.0.self_attn.out_proj.weight = #stream.parameter.named<"model"::"text_encoder_model_2.text_model.encoder.layers.0.self_attn.out_proj.weight"> : tensor<1280x1280xf16>
  util.global private @__auto.text_encoder_model_2.text_model.encoder.layers.0.self_attn.out_proj.bias = #stream.parameter.named<"model"::"text_encoder_model_2.text_model.encoder.layers.0.self_attn.out_proj.bias"> : tensor<1280xf16>
  util.global private @__auto.text_encoder_model_2.text_model.encoder.layers.0.layer_norm2.weight = #stream.parameter.named<"model"::"text_encoder_model_2.text_model.encoder.layers.0.layer_norm2.weight"> : tensor<1280xf16>
  util.global private @__auto.text_encoder_model_2.text_model.encoder.layers.0.layer_norm2.bias = #stream.parameter.named<"model"::"text_encoder_model_2.text_model.encoder.layers.0.layer_norm2.bias"> : tensor<1280xf16>
  util.global private @__auto.text_encoder_model_2.text_model.encoder.layers.0.mlp.fc1.weight = #stream.parameter.named<"model"::"text_encoder_model_2.text_model.encoder.layers.0.mlp.fc1.weight"> : tensor<5120x1280xf16>
  util.global private @__auto.text_encoder_model_2.text_model.encoder.layers.0.mlp.fc1.bias = #stream.parameter.named<"model"::"text_encoder_model_2.text_model.encoder.layers.0.mlp.fc1.bias"> : tensor<5120xf16>
  util.global private @__auto.text_encoder_model_2.text_model.encoder.layers.0.mlp.fc2.weight = #stream.parameter.named<"model"::"text_encoder_model_2.text_model.encoder.layers.0.mlp.fc2.weight"> : tensor<1280x5120xf16>
  util.global private @__auto.text_encoder_model_2.text_model.encoder.layers.0.mlp.fc2.bias = #stream.parameter.named<"model"::"text_encoder_model_2.text_model.encoder.layers.0.mlp.fc2.bias"> : tensor<1280xf16>
  util.global private @__auto.text_encoder_model_2.text_model.encoder.layers.1.layer_norm1.weight = #stream.parameter.named<"model"::"text_encoder_model_2.text_model.encoder.layers.1.layer_norm1.weight"> : tensor<1280xf16>
  util.global private @__auto.text_encoder_model_2.text_model.encoder.layers.1.layer_norm1.bias = #stream.parameter.named<"model"::"text_encoder_model_2.text_model.encoder.layers.1.layer_norm1.bias"> : tensor<1280xf16>
  util.global private @__auto.text_encoder_model_2.text_model.encoder.layers.1.self_attn.q_proj.weight = #stream.parameter.named<"model"::"text_encoder_model_2.text_model.encoder.layers.1.self_attn.q_proj.weight"> : tensor<1280x1280xf16>
  util.global private @__auto.text_encoder_model_2.text_model.encoder.layers.1.self_attn.q_proj.bias = #stream.parameter.named<"model"::"text_encoder_model_2.text_model.encoder.layers.1.self_attn.q_proj.bias"> : tensor<1280xf16>
  util.global private @__auto.text_encoder_model_2.text_model.encoder.layers.1.self_attn.k_proj.weight = #stream.parameter.named<"model"::"text_encoder_model_2.text_model.encoder.layers.1.self_attn.k_proj.weight"> : tensor<1280x1280xf16>
  util.global private @__auto.text_encoder_model_2.text_model.encoder.layers.1.self_attn.k_proj.bias = #stream.parameter.named<"model"::"text_encoder_model_2.text_model.encoder.layers.1.self_attn.k_proj.bias"> : tensor<1280xf16>
  util.global private @__auto.text_encoder_model_2.text_model.encoder.layers.1.self_attn.v_proj.weight = #stream.parameter.named<"model"::"text_encoder_model_2.text_model.encoder.layers.1.self_attn.v_proj.weight"> : tensor<1280x1280xf16>
  util.global private @__auto.text_encoder_model_2.text_model.encoder.layers.1.self_attn.v_proj.bias = #stream.parameter.named<"model"::"text_encoder_model_2.text_model.encoder.layers.1.self_attn.v_proj.bias"> : tensor<1280xf16>
  util.global private @__auto.text_encoder_model_2.text_model.encoder.layers.1.self_attn.out_proj.weight = #stream.parameter.named<"model"::"text_encoder_model_2.text_model.encoder.layers.1.self_attn.out_proj.weight"> : tensor<1280x1280xf16>
  util.global private @__auto.text_encoder_model_2.text_model.encoder.layers.1.self_attn.out_proj.bias = #stream.parameter.named<"model"::"text_encoder_model_2.text_model.encoder.layers.1.self_attn.out_proj.bias"> : tensor<1280xf16>
  util.global private @__auto.text_encoder_model_2.text_model.encoder.layers.1.layer_norm2.weight = #stream.parameter.named<"model"::"text_encoder_model_2.text_model.encoder.layers.1.layer_norm2.weight"> : tensor<1280xf16>
  util.global private @__auto.text_encoder_model_2.text_model.encoder.layers.1.layer_norm2.bias = #stream.parameter.named<"model"::"text_encoder_model_2.text_model.encoder.layers.1.layer_norm2.bias"> : tensor<1280xf16>
  util.global private @__auto.text_encoder_model_2.text_model.encoder.layers.1.mlp.fc1.weight = #stream.parameter.named<"model"::"text_encoder_model_2.text_model.encoder.layers.1.mlp.fc1.weight"> : tensor<5120x1280xf16>
  util.global private @__auto.text_encoder_model_2.text_model.encoder.layers.1.mlp.fc1.bias = #stream.parameter.named<"model"::"text_encoder_model_2.text_model.encoder.layers.1.mlp.fc1.bias"> : tensor<5120xf16>
  util.global private @__auto.text_encoder_model_2.text_model.encoder.layers.1.mlp.fc2.weight = #stream.parameter.named<"model"::"text_encoder_model_2.text_model.encoder.layers.1.mlp.fc2.weight"> : tensor<1280x5120xf16>
  util.global private @__auto.text_encoder_model_2.text_model.encoder.layers.1.mlp.fc2.bias = #stream.parameter.named<"model"::"text_encoder_model_2.text_model.encoder.layers.1.mlp.fc2.bias"> : tensor<1280xf16>
  util.global private @__auto.text_encoder_model_2.text_model.encoder.layers.2.layer_norm1.weight = #stream.parameter.named<"model"::"text_encoder_model_2.text_model.encoder.layers.2.layer_norm1.weight"> : tensor<1280xf16>
  util.global private @__auto.text_encoder_model_2.text_model.encoder.layers.2.layer_norm1.bias = #stream.parameter.named<"model"::"text_encoder_model_2.text_model.encoder.layers.2.layer_norm1.bias"> : tensor<1280xf16>
  util.global private @__auto.text_encoder_model_2.text_model.encoder.layers.2.self_attn.q_proj.weight = #stream.parameter.named<"model"::"text_encoder_model_2.text_model.encoder.layers.2.self_attn.q_proj.weight"> : tensor<1280x1280xf16>
  util.global private @__auto.text_encoder_model_2.text_model.encoder.layers.2.self_attn.q_proj.bias = #stream.parameter.named<"model"::"text_encoder_model_2.text_model.encoder.layers.2.self_attn.q_proj.bias"> : tensor<1280xf16>
  util.global private @__auto.text_encoder_model_2.text_model.encoder.layers.2.self_attn.k_proj.weight = #stream.parameter.named<"model"::"text_encoder_model_2.text_model.encoder.layers.2.self_attn.k_proj.weight"> : tensor<1280x1280xf16>
  util.global private @__auto.text_encoder_model_2.text_model.encoder.layers.2.self_attn.k_proj.bias = #stream.parameter.named<"model"::"text_encoder_model_2.text_model.encoder.layers.2.self_attn.k_proj.bias"> : tensor<1280xf16>
  util.global private @__auto.text_encoder_model_2.text_model.encoder.layers.2.self_attn.v_proj.weight = #stream.parameter.named<"model"::"text_encoder_model_2.text_model.encoder.layers.2.self_attn.v_proj.weight"> : tensor<1280x1280xf16>
  util.global private @__auto.text_encoder_model_2.text_model.encoder.layers.2.self_attn.v_proj.bias = #stream.parameter.named<"model"::"text_encoder_model_2.text_model.encoder.layers.2.self_attn.v_proj.bias"> : tensor<1280xf16>
  util.global private @__auto.text_encoder_model_2.text_model.encoder.layers.2.self_attn.out_proj.weight = #stream.parameter.named<"model"::"text_encoder_model_2.text_model.encoder.layers.2.self_attn.out_proj.weight"> : tensor<1280x1280xf16>
  util.global private @__auto.text_encoder_model_2.text_model.encoder.layers.2.self_attn.out_proj.bias = #stream.parameter.named<"model"::"text_encoder_model_2.text_model.encoder.layers.2.self_attn.out_proj.bias"> : tensor<1280xf16>
  util.global private @__auto.text_encoder_model_2.text_model.encoder.layers.2.layer_norm2.weight = #stream.parameter.named<"model"::"text_encoder_model_2.text_model.encoder.layers.2.layer_norm2.weight"> : tensor<1280xf16>
  util.global private @__auto.text_encoder_model_2.text_model.encoder.layers.2.layer_norm2.bias = #stream.parameter.named<"model"::"text_encoder_model_2.text_model.encoder.layers.2.layer_norm2.bias"> : tensor<1280xf16>
  util.global private @__auto.text_encoder_model_2.text_model.encoder.layers.2.mlp.fc1.weight = #stream.parameter.named<"model"::"text_encoder_model_2.text_model.encoder.layers.2.mlp.fc1.weight"> : tensor<5120x1280xf16>
  util.global private @__auto.text_encoder_model_2.text_model.encoder.layers.2.mlp.fc1.bias = #stream.parameter.named<"model"::"text_encoder_model_2.text_model.encoder.layers.2.mlp.fc1.bias"> : tensor<5120xf16>
  util.global private @__auto.text_encoder_model_2.text_model.encoder.layers.2.mlp.fc2.weight = #stream.parameter.named<"model"::"text_encoder_model_2.text_model.encoder.layers.2.mlp.fc2.weight"> : tensor<1280x5120xf16>
  util.global private @__auto.text_encoder_model_2.text_model.encoder.layers.2.mlp.fc2.bias = #stream.parameter.named<"model"::"text_encoder_model_2.text_model.encoder.layers.2.mlp.fc2.bias"> : tensor<1280xf16>
  util.global private @__auto.text_encoder_model_2.text_model.encoder.layers.3.layer_norm1.weight = #stream.parameter.named<"model"::"text_encoder_model_2.text_model.encoder.layers.3.layer_norm1.weight"> : tensor<1280xf16>
  util.global private @__auto.text_encoder_model_2.text_model.encoder.layers.3.layer_norm1.bias = #stream.parameter.named<"model"::"text_encoder_model_2.text_model.encoder.layers.3.layer_norm1.bias"> : tensor<1280xf16>
  util.global private @__auto.text_encoder_model_2.text_model.encoder.layers.3.self_attn.q_proj.weight = #stream.parameter.named<"model"::"text_encoder_model_2.text_model.encoder.layers.3.self_attn.q_proj.weight"> : tensor<1280x1280xf16>
  util.global private @__auto.text_encoder_model_2.text_model.encoder.layers.3.self_attn.q_proj.bias = #stream.parameter.named<"model"::"text_encoder_model_2.text_model.encoder.layers.3.self_attn.q_proj.bias"> : tensor<1280xf16>
  util.global private @__auto.text_encoder_model_2.text_model.encoder.layers.3.self_attn.k_proj.weight = #stream.parameter.named<"model"::"text_encoder_model_2.text_model.encoder.layers.3.self_attn.k_proj.weight"> : tensor<1280x1280xf16>
  util.global private @__auto.text_encoder_model_2.text_model.encoder.layers.3.self_attn.k_proj.bias = #stream.parameter.named<"model"::"text_encoder_model_2.text_model.encoder.layers.3.self_attn.k_proj.bias"> : tensor<1280xf16>
  util.global private @__auto.text_encoder_model_2.text_model.encoder.layers.3.self_attn.v_proj.weight = #stream.parameter.named<"model"::"text_encoder_model_2.text_model.encoder.layers.3.self_attn.v_proj.weight"> : tensor<1280x1280xf16>
  util.global private @__auto.text_encoder_model_2.text_model.encoder.layers.3.self_attn.v_proj.bias = #stream.parameter.named<"model"::"text_encoder_model_2.text_model.encoder.layers.3.self_attn.v_proj.bias"> : tensor<1280xf16>
  util.global private @__auto.text_encoder_model_2.text_model.encoder.layers.3.self_attn.out_proj.weight = #stream.parameter.named<"model"::"text_encoder_model_2.text_model.encoder.layers.3.self_attn.out_proj.weight"> : tensor<1280x1280xf16>
  util.global private @__auto.text_encoder_model_2.text_model.encoder.layers.3.self_attn.out_proj.bias = #stream.parameter.named<"model"::"text_encoder_model_2.text_model.encoder.layers.3.self_attn.out_proj.bias"> : tensor<1280xf16>
  util.global private @__auto.text_encoder_model_2.text_model.encoder.layers.3.layer_norm2.weight = #stream.parameter.named<"model"::"text_encoder_model_2.text_model.encoder.layers.3.layer_norm2.weight"> : tensor<1280xf16>
  util.global private @__auto.text_encoder_model_2.text_model.encoder.layers.3.layer_norm2.bias = #stream.parameter.named<"model"::"text_encoder_model_2.text_model.encoder.layers.3.layer_norm2.bias"> : tensor<1280xf16>
  util.global private @__auto.text_encoder_model_2.text_model.encoder.layers.3.mlp.fc1.weight = #stream.parameter.named<"model"::"text_encoder_model_2.text_model.encoder.layers.3.mlp.fc1.weight"> : tensor<5120x1280xf16>
  util.global private @__auto.text_encoder_model_2.text_model.encoder.layers.3.mlp.fc1.bias = #stream.parameter.named<"model"::"text_encoder_model_2.text_model.encoder.layers.3.mlp.fc1.bias"> : tensor<5120xf16>
  util.global private @__auto.text_encoder_model_2.text_model.encoder.layers.3.mlp.fc2.weight = #stream.parameter.named<"model"::"text_encoder_model_2.text_model.encoder.layers.3.mlp.fc2.weight"> : tensor<1280x5120xf16>
  util.global private @__auto.text_encoder_model_2.text_model.encoder.layers.3.mlp.fc2.bias = #stream.parameter.named<"model"::"text_encoder_model_2.text_model.encoder.layers.3.mlp.fc2.bias"> : tensor<1280xf16>
  util.global private @__auto.text_encoder_model_2.text_model.encoder.layers.4.layer_norm1.weight = #stream.parameter.named<"model"::"text_encoder_model_2.text_model.encoder.layers.4.layer_norm1.weight"> : tensor<1280xf16>
  util.global private @__auto.text_encoder_model_2.text_model.encoder.layers.4.layer_norm1.bias = #stream.parameter.named<"model"::"text_encoder_model_2.text_model.encoder.layers.4.layer_norm1.bias"> : tensor<1280xf16>
  util.global private @__auto.text_encoder_model_2.text_model.encoder.layers.4.self_attn.q_proj.weight = #stream.parameter.named<"model"::"text_encoder_model_2.text_model.encoder.layers.4.self_attn.q_proj.weight"> : tensor<1280x1280xf16>
  util.global private @__auto.text_encoder_model_2.text_model.encoder.layers.4.self_attn.q_proj.bias = #stream.parameter.named<"model"::"text_encoder_model_2.text_model.encoder.layers.4.self_attn.q_proj.bias"> : tensor<1280xf16>
  util.global private @__auto.text_encoder_model_2.text_model.encoder.layers.4.self_attn.k_proj.weight = #stream.parameter.named<"model"::"text_encoder_model_2.text_model.encoder.layers.4.self_attn.k_proj.weight"> : tensor<1280x1280xf16>
  util.global private @__auto.text_encoder_model_2.text_model.encoder.layers.4.self_attn.k_proj.bias = #stream.parameter.named<"model"::"text_encoder_model_2.text_model.encoder.layers.4.self_attn.k_proj.bias"> : tensor<1280xf16>
  util.global private @__auto.text_encoder_model_2.text_model.encoder.layers.4.self_attn.v_proj.weight = #stream.parameter.named<"model"::"text_encoder_model_2.text_model.encoder.layers.4.self_attn.v_proj.weight"> : tensor<1280x1280xf16>
  util.global private @__auto.text_encoder_model_2.text_model.encoder.layers.4.self_attn.v_proj.bias = #stream.parameter.named<"model"::"text_encoder_model_2.text_model.encoder.layers.4.self_attn.v_proj.bias"> : tensor<1280xf16>
  util.global private @__auto.text_encoder_model_2.text_model.encoder.layers.4.self_attn.out_proj.weight = #stream.parameter.named<"model"::"text_encoder_model_2.text_model.encoder.layers.4.self_attn.out_proj.weight"> : tensor<1280x1280xf16>
  util.global private @__auto.text_encoder_model_2.text_model.encoder.layers.4.self_attn.out_proj.bias = #stream.parameter.named<"model"::"text_encoder_model_2.text_model.encoder.layers.4.self_attn.out_proj.bias"> : tensor<1280xf16>
  util.global private @__auto.text_encoder_model_2.text_model.encoder.layers.4.layer_norm2.weight = #stream.parameter.named<"model"::"text_encoder_model_2.text_model.encoder.layers.4.layer_norm2.weight"> : tensor<1280xf16>
  util.global private @__auto.text_encoder_model_2.text_model.encoder.layers.4.layer_norm2.bias = #stream.parameter.named<"model"::"text_encoder_model_2.text_model.encoder.layers.4.layer_norm2.bias"> : tensor<1280xf16>
  util.global private @__auto.text_encoder_model_2.text_model.encoder.layers.4.mlp.fc1.weight = #stream.parameter.named<"model"::"text_encoder_model_2.text_model.encoder.layers.4.mlp.fc1.weight"> : tensor<5120x1280xf16>
  util.global private @__auto.text_encoder_model_2.text_model.encoder.layers.4.mlp.fc1.bias = #stream.parameter.named<"model"::"text_encoder_model_2.text_model.encoder.layers.4.mlp.fc1.bias"> : tensor<5120xf16>
  util.global private @__auto.text_encoder_model_2.text_model.encoder.layers.4.mlp.fc2.weight = #stream.parameter.named<"model"::"text_encoder_model_2.text_model.encoder.layers.4.mlp.fc2.weight"> : tensor<1280x5120xf16>
  util.global private @__auto.text_encoder_model_2.text_model.encoder.layers.4.mlp.fc2.bias = #stream.parameter.named<"model"::"text_encoder_model_2.text_model.encoder.layers.4.mlp.fc2.bias"> : tensor<1280xf16>
  util.global private @__auto.text_encoder_model_2.text_model.encoder.layers.5.layer_norm1.weight = #stream.parameter.named<"model"::"text_encoder_model_2.text_model.encoder.layers.5.layer_norm1.weight"> : tensor<1280xf16>
  util.global private @__auto.text_encoder_model_2.text_model.encoder.layers.5.layer_norm1.bias = #stream.parameter.named<"model"::"text_encoder_model_2.text_model.encoder.layers.5.layer_norm1.bias"> : tensor<1280xf16>
  util.global private @__auto.text_encoder_model_2.text_model.encoder.layers.5.self_attn.q_proj.weight = #stream.parameter.named<"model"::"text_encoder_model_2.text_model.encoder.layers.5.self_attn.q_proj.weight"> : tensor<1280x1280xf16>
  util.global private @__auto.text_encoder_model_2.text_model.encoder.layers.5.self_attn.q_proj.bias = #stream.parameter.named<"model"::"text_encoder_model_2.text_model.encoder.layers.5.self_attn.q_proj.bias"> : tensor<1280xf16>
  util.global private @__auto.text_encoder_model_2.text_model.encoder.layers.5.self_attn.k_proj.weight = #stream.parameter.named<"model"::"text_encoder_model_2.text_model.encoder.layers.5.self_attn.k_proj.weight"> : tensor<1280x1280xf16>
  util.global private @__auto.text_encoder_model_2.text_model.encoder.layers.5.self_attn.k_proj.bias = #stream.parameter.named<"model"::"text_encoder_model_2.text_model.encoder.layers.5.self_attn.k_proj.bias"> : tensor<1280xf16>
  util.global private @__auto.text_encoder_model_2.text_model.encoder.layers.5.self_attn.v_proj.weight = #stream.parameter.named<"model"::"text_encoder_model_2.text_model.encoder.layers.5.self_attn.v_proj.weight"> : tensor<1280x1280xf16>
  util.global private @__auto.text_encoder_model_2.text_model.encoder.layers.5.self_attn.v_proj.bias = #stream.parameter.named<"model"::"text_encoder_model_2.text_model.encoder.layers.5.self_attn.v_proj.bias"> : tensor<1280xf16>
  util.global private @__auto.text_encoder_model_2.text_model.encoder.layers.5.self_attn.out_proj.weight = #stream.parameter.named<"model"::"text_encoder_model_2.text_model.encoder.layers.5.self_attn.out_proj.weight"> : tensor<1280x1280xf16>
  util.global private @__auto.text_encoder_model_2.text_model.encoder.layers.5.self_attn.out_proj.bias = #stream.parameter.named<"model"::"text_encoder_model_2.text_model.encoder.layers.5.self_attn.out_proj.bias"> : tensor<1280xf16>
  util.global private @__auto.text_encoder_model_2.text_model.encoder.layers.5.layer_norm2.weight = #stream.parameter.named<"model"::"text_encoder_model_2.text_model.encoder.layers.5.layer_norm2.weight"> : tensor<1280xf16>
  util.global private @__auto.text_encoder_model_2.text_model.encoder.layers.5.layer_norm2.bias = #stream.parameter.named<"model"::"text_encoder_model_2.text_model.encoder.layers.5.layer_norm2.bias"> : tensor<1280xf16>
  util.global private @__auto.text_encoder_model_2.text_model.encoder.layers.5.mlp.fc1.weight = #stream.parameter.named<"model"::"text_encoder_model_2.text_model.encoder.layers.5.mlp.fc1.weight"> : tensor<5120x1280xf16>
  util.global private @__auto.text_encoder_model_2.text_model.encoder.layers.5.mlp.fc1.bias = #stream.parameter.named<"model"::"text_encoder_model_2.text_model.encoder.layers.5.mlp.fc1.bias"> : tensor<5120xf16>
  util.global private @__auto.text_encoder_model_2.text_model.encoder.layers.5.mlp.fc2.weight = #stream.parameter.named<"model"::"text_encoder_model_2.text_model.encoder.layers.5.mlp.fc2.weight"> : tensor<1280x5120xf16>
  util.global private @__auto.text_encoder_model_2.text_model.encoder.layers.5.mlp.fc2.bias = #stream.parameter.named<"model"::"text_encoder_model_2.text_model.encoder.layers.5.mlp.fc2.bias"> : tensor<1280xf16>
  util.global private @__auto.text_encoder_model_2.text_model.encoder.layers.6.layer_norm1.weight = #stream.parameter.named<"model"::"text_encoder_model_2.text_model.encoder.layers.6.layer_norm1.weight"> : tensor<1280xf16>
  util.global private @__auto.text_encoder_model_2.text_model.encoder.layers.6.layer_norm1.bias = #stream.parameter.named<"model"::"text_encoder_model_2.text_model.encoder.layers.6.layer_norm1.bias"> : tensor<1280xf16>
  util.global private @__auto.text_encoder_model_2.text_model.encoder.layers.6.self_attn.q_proj.weight = #stream.parameter.named<"model"::"text_encoder_model_2.text_model.encoder.layers.6.self_attn.q_proj.weight"> : tensor<1280x1280xf16>
  util.global private @__auto.text_encoder_model_2.text_model.encoder.layers.6.self_attn.q_proj.bias = #stream.parameter.named<"model"::"text_encoder_model_2.text_model.encoder.layers.6.self_attn.q_proj.bias"> : tensor<1280xf16>
  util.global private @__auto.text_encoder_model_2.text_model.encoder.layers.6.self_attn.k_proj.weight = #stream.parameter.named<"model"::"text_encoder_model_2.text_model.encoder.layers.6.self_attn.k_proj.weight"> : tensor<1280x1280xf16>
  util.global private @__auto.text_encoder_model_2.text_model.encoder.layers.6.self_attn.k_proj.bias = #stream.parameter.named<"model"::"text_encoder_model_2.text_model.encoder.layers.6.self_attn.k_proj.bias"> : tensor<1280xf16>
  util.global private @__auto.text_encoder_model_2.text_model.encoder.layers.6.self_attn.v_proj.weight = #stream.parameter.named<"model"::"text_encoder_model_2.text_model.encoder.layers.6.self_attn.v_proj.weight"> : tensor<1280x1280xf16>
  util.global private @__auto.text_encoder_model_2.text_model.encoder.layers.6.self_attn.v_proj.bias = #stream.parameter.named<"model"::"text_encoder_model_2.text_model.encoder.layers.6.self_attn.v_proj.bias"> : tensor<1280xf16>
  util.global private @__auto.text_encoder_model_2.text_model.encoder.layers.6.self_attn.out_proj.weight = #stream.parameter.named<"model"::"text_encoder_model_2.text_model.encoder.layers.6.self_attn.out_proj.weight"> : tensor<1280x1280xf16>
  util.global private @__auto.text_encoder_model_2.text_model.encoder.layers.6.self_attn.out_proj.bias = #stream.parameter.named<"model"::"text_encoder_model_2.text_model.encoder.layers.6.self_attn.out_proj.bias"> : tensor<1280xf16>
  util.global private @__auto.text_encoder_model_2.text_model.encoder.layers.6.layer_norm2.weight = #stream.parameter.named<"model"::"text_encoder_model_2.text_model.encoder.layers.6.layer_norm2.weight"> : tensor<1280xf16>
  util.global private @__auto.text_encoder_model_2.text_model.encoder.layers.6.layer_norm2.bias = #stream.parameter.named<"model"::"text_encoder_model_2.text_model.encoder.layers.6.layer_norm2.bias"> : tensor<1280xf16>
  util.global private @__auto.text_encoder_model_2.text_model.encoder.layers.6.mlp.fc1.weight = #stream.parameter.named<"model"::"text_encoder_model_2.text_model.encoder.layers.6.mlp.fc1.weight"> : tensor<5120x1280xf16>
  util.global private @__auto.text_encoder_model_2.text_model.encoder.layers.6.mlp.fc1.bias = #stream.parameter.named<"model"::"text_encoder_model_2.text_model.encoder.layers.6.mlp.fc1.bias"> : tensor<5120xf16>
  util.global private @__auto.text_encoder_model_2.text_model.encoder.layers.6.mlp.fc2.weight = #stream.parameter.named<"model"::"text_encoder_model_2.text_model.encoder.layers.6.mlp.fc2.weight"> : tensor<1280x5120xf16>
  util.global private @__auto.text_encoder_model_2.text_model.encoder.layers.6.mlp.fc2.bias = #stream.parameter.named<"model"::"text_encoder_model_2.text_model.encoder.layers.6.mlp.fc2.bias"> : tensor<1280xf16>
  util.global private @__auto.text_encoder_model_2.text_model.encoder.layers.7.layer_norm1.weight = #stream.parameter.named<"model"::"text_encoder_model_2.text_model.encoder.layers.7.layer_norm1.weight"> : tensor<1280xf16>
  util.global private @__auto.text_encoder_model_2.text_model.encoder.layers.7.layer_norm1.bias = #stream.parameter.named<"model"::"text_encoder_model_2.text_model.encoder.layers.7.layer_norm1.bias"> : tensor<1280xf16>
  util.global private @__auto.text_encoder_model_2.text_model.encoder.layers.7.self_attn.q_proj.weight = #stream.parameter.named<"model"::"text_encoder_model_2.text_model.encoder.layers.7.self_attn.q_proj.weight"> : tensor<1280x1280xf16>
  util.global private @__auto.text_encoder_model_2.text_model.encoder.layers.7.self_attn.q_proj.bias = #stream.parameter.named<"model"::"text_encoder_model_2.text_model.encoder.layers.7.self_attn.q_proj.bias"> : tensor<1280xf16>
  util.global private @__auto.text_encoder_model_2.text_model.encoder.layers.7.self_attn.k_proj.weight = #stream.parameter.named<"model"::"text_encoder_model_2.text_model.encoder.layers.7.self_attn.k_proj.weight"> : tensor<1280x1280xf16>
  util.global private @__auto.text_encoder_model_2.text_model.encoder.layers.7.self_attn.k_proj.bias = #stream.parameter.named<"model"::"text_encoder_model_2.text_model.encoder.layers.7.self_attn.k_proj.bias"> : tensor<1280xf16>
  util.global private @__auto.text_encoder_model_2.text_model.encoder.layers.7.self_attn.v_proj.weight = #stream.parameter.named<"model"::"text_encoder_model_2.text_model.encoder.layers.7.self_attn.v_proj.weight"> : tensor<1280x1280xf16>
  util.global private @__auto.text_encoder_model_2.text_model.encoder.layers.7.self_attn.v_proj.bias = #stream.parameter.named<"model"::"text_encoder_model_2.text_model.encoder.layers.7.self_attn.v_proj.bias"> : tensor<1280xf16>
  util.global private @__auto.text_encoder_model_2.text_model.encoder.layers.7.self_attn.out_proj.weight = #stream.parameter.named<"model"::"text_encoder_model_2.text_model.encoder.layers.7.self_attn.out_proj.weight"> : tensor<1280x1280xf16>
  util.global private @__auto.text_encoder_model_2.text_model.encoder.layers.7.self_attn.out_proj.bias = #stream.parameter.named<"model"::"text_encoder_model_2.text_model.encoder.layers.7.self_attn.out_proj.bias"> : tensor<1280xf16>
  util.global private @__auto.text_encoder_model_2.text_model.encoder.layers.7.layer_norm2.weight = #stream.parameter.named<"model"::"text_encoder_model_2.text_model.encoder.layers.7.layer_norm2.weight"> : tensor<1280xf16>
  util.global private @__auto.text_encoder_model_2.text_model.encoder.layers.7.layer_norm2.bias = #stream.parameter.named<"model"::"text_encoder_model_2.text_model.encoder.layers.7.layer_norm2.bias"> : tensor<1280xf16>
  util.global private @__auto.text_encoder_model_2.text_model.encoder.layers.7.mlp.fc1.weight = #stream.parameter.named<"model"::"text_encoder_model_2.text_model.encoder.layers.7.mlp.fc1.weight"> : tensor<5120x1280xf16>
  util.global private @__auto.text_encoder_model_2.text_model.encoder.layers.7.mlp.fc1.bias = #stream.parameter.named<"model"::"text_encoder_model_2.text_model.encoder.layers.7.mlp.fc1.bias"> : tensor<5120xf16>
  util.global private @__auto.text_encoder_model_2.text_model.encoder.layers.7.mlp.fc2.weight = #stream.parameter.named<"model"::"text_encoder_model_2.text_model.encoder.layers.7.mlp.fc2.weight"> : tensor<1280x5120xf16>
  util.global private @__auto.text_encoder_model_2.text_model.encoder.layers.7.mlp.fc2.bias = #stream.parameter.named<"model"::"text_encoder_model_2.text_model.encoder.layers.7.mlp.fc2.bias"> : tensor<1280xf16>
  util.global private @__auto.text_encoder_model_2.text_model.encoder.layers.8.layer_norm1.weight = #stream.parameter.named<"model"::"text_encoder_model_2.text_model.encoder.layers.8.layer_norm1.weight"> : tensor<1280xf16>
  util.global private @__auto.text_encoder_model_2.text_model.encoder.layers.8.layer_norm1.bias = #stream.parameter.named<"model"::"text_encoder_model_2.text_model.encoder.layers.8.layer_norm1.bias"> : tensor<1280xf16>
  util.global private @__auto.text_encoder_model_2.text_model.encoder.layers.8.self_attn.q_proj.weight = #stream.parameter.named<"model"::"text_encoder_model_2.text_model.encoder.layers.8.self_attn.q_proj.weight"> : tensor<1280x1280xf16>
  util.global private @__auto.text_encoder_model_2.text_model.encoder.layers.8.self_attn.q_proj.bias = #stream.parameter.named<"model"::"text_encoder_model_2.text_model.encoder.layers.8.self_attn.q_proj.bias"> : tensor<1280xf16>
  util.global private @__auto.text_encoder_model_2.text_model.encoder.layers.8.self_attn.k_proj.weight = #stream.parameter.named<"model"::"text_encoder_model_2.text_model.encoder.layers.8.self_attn.k_proj.weight"> : tensor<1280x1280xf16>
  util.global private @__auto.text_encoder_model_2.text_model.encoder.layers.8.self_attn.k_proj.bias = #stream.parameter.named<"model"::"text_encoder_model_2.text_model.encoder.layers.8.self_attn.k_proj.bias"> : tensor<1280xf16>
  util.global private @__auto.text_encoder_model_2.text_model.encoder.layers.8.self_attn.v_proj.weight = #stream.parameter.named<"model"::"text_encoder_model_2.text_model.encoder.layers.8.self_attn.v_proj.weight"> : tensor<1280x1280xf16>
  util.global private @__auto.text_encoder_model_2.text_model.encoder.layers.8.self_attn.v_proj.bias = #stream.parameter.named<"model"::"text_encoder_model_2.text_model.encoder.layers.8.self_attn.v_proj.bias"> : tensor<1280xf16>
  util.global private @__auto.text_encoder_model_2.text_model.encoder.layers.8.self_attn.out_proj.weight = #stream.parameter.named<"model"::"text_encoder_model_2.text_model.encoder.layers.8.self_attn.out_proj.weight"> : tensor<1280x1280xf16>
  util.global private @__auto.text_encoder_model_2.text_model.encoder.layers.8.self_attn.out_proj.bias = #stream.parameter.named<"model"::"text_encoder_model_2.text_model.encoder.layers.8.self_attn.out_proj.bias"> : tensor<1280xf16>
  util.global private @__auto.text_encoder_model_2.text_model.encoder.layers.8.layer_norm2.weight = #stream.parameter.named<"model"::"text_encoder_model_2.text_model.encoder.layers.8.layer_norm2.weight"> : tensor<1280xf16>
  util.global private @__auto.text_encoder_model_2.text_model.encoder.layers.8.layer_norm2.bias = #stream.parameter.named<"model"::"text_encoder_model_2.text_model.encoder.layers.8.layer_norm2.bias"> : tensor<1280xf16>
  util.global private @__auto.text_encoder_model_2.text_model.encoder.layers.8.mlp.fc1.weight = #stream.parameter.named<"model"::"text_encoder_model_2.text_model.encoder.layers.8.mlp.fc1.weight"> : tensor<5120x1280xf16>
  util.global private @__auto.text_encoder_model_2.text_model.encoder.layers.8.mlp.fc1.bias = #stream.parameter.named<"model"::"text_encoder_model_2.text_model.encoder.layers.8.mlp.fc1.bias"> : tensor<5120xf16>
  util.global private @__auto.text_encoder_model_2.text_model.encoder.layers.8.mlp.fc2.weight = #stream.parameter.named<"model"::"text_encoder_model_2.text_model.encoder.layers.8.mlp.fc2.weight"> : tensor<1280x5120xf16>
  util.global private @__auto.text_encoder_model_2.text_model.encoder.layers.8.mlp.fc2.bias = #stream.parameter.named<"model"::"text_encoder_model_2.text_model.encoder.layers.8.mlp.fc2.bias"> : tensor<1280xf16>
  util.global private @__auto.text_encoder_model_2.text_model.encoder.layers.9.layer_norm1.weight = #stream.parameter.named<"model"::"text_encoder_model_2.text_model.encoder.layers.9.layer_norm1.weight"> : tensor<1280xf16>
  util.global private @__auto.text_encoder_model_2.text_model.encoder.layers.9.layer_norm1.bias = #stream.parameter.named<"model"::"text_encoder_model_2.text_model.encoder.layers.9.layer_norm1.bias"> : tensor<1280xf16>
  util.global private @__auto.text_encoder_model_2.text_model.encoder.layers.9.self_attn.q_proj.weight = #stream.parameter.named<"model"::"text_encoder_model_2.text_model.encoder.layers.9.self_attn.q_proj.weight"> : tensor<1280x1280xf16>
  util.global private @__auto.text_encoder_model_2.text_model.encoder.layers.9.self_attn.q_proj.bias = #stream.parameter.named<"model"::"text_encoder_model_2.text_model.encoder.layers.9.self_attn.q_proj.bias"> : tensor<1280xf16>
  util.global private @__auto.text_encoder_model_2.text_model.encoder.layers.9.self_attn.k_proj.weight = #stream.parameter.named<"model"::"text_encoder_model_2.text_model.encoder.layers.9.self_attn.k_proj.weight"> : tensor<1280x1280xf16>
  util.global private @__auto.text_encoder_model_2.text_model.encoder.layers.9.self_attn.k_proj.bias = #stream.parameter.named<"model"::"text_encoder_model_2.text_model.encoder.layers.9.self_attn.k_proj.bias"> : tensor<1280xf16>
  util.global private @__auto.text_encoder_model_2.text_model.encoder.layers.9.self_attn.v_proj.weight = #stream.parameter.named<"model"::"text_encoder_model_2.text_model.encoder.layers.9.self_attn.v_proj.weight"> : tensor<1280x1280xf16>
  util.global private @__auto.text_encoder_model_2.text_model.encoder.layers.9.self_attn.v_proj.bias = #stream.parameter.named<"model"::"text_encoder_model_2.text_model.encoder.layers.9.self_attn.v_proj.bias"> : tensor<1280xf16>
  util.global private @__auto.text_encoder_model_2.text_model.encoder.layers.9.self_attn.out_proj.weight = #stream.parameter.named<"model"::"text_encoder_model_2.text_model.encoder.layers.9.self_attn.out_proj.weight"> : tensor<1280x1280xf16>
  util.global private @__auto.text_encoder_model_2.text_model.encoder.layers.9.self_attn.out_proj.bias = #stream.parameter.named<"model"::"text_encoder_model_2.text_model.encoder.layers.9.self_attn.out_proj.bias"> : tensor<1280xf16>
  util.global private @__auto.text_encoder_model_2.text_model.encoder.layers.9.layer_norm2.weight = #stream.parameter.named<"model"::"text_encoder_model_2.text_model.encoder.layers.9.layer_norm2.weight"> : tensor<1280xf16>
  util.global private @__auto.text_encoder_model_2.text_model.encoder.layers.9.layer_norm2.bias = #stream.parameter.named<"model"::"text_encoder_model_2.text_model.encoder.layers.9.layer_norm2.bias"> : tensor<1280xf16>
  util.global private @__auto.text_encoder_model_2.text_model.encoder.layers.9.mlp.fc1.weight = #stream.parameter.named<"model"::"text_encoder_model_2.text_model.encoder.layers.9.mlp.fc1.weight"> : tensor<5120x1280xf16>
  util.global private @__auto.text_encoder_model_2.text_model.encoder.layers.9.mlp.fc1.bias = #stream.parameter.named<"model"::"text_encoder_model_2.text_model.encoder.layers.9.mlp.fc1.bias"> : tensor<5120xf16>
  util.global private @__auto.text_encoder_model_2.text_model.encoder.layers.9.mlp.fc2.weight = #stream.parameter.named<"model"::"text_encoder_model_2.text_model.encoder.layers.9.mlp.fc2.weight"> : tensor<1280x5120xf16>
  util.global private @__auto.text_encoder_model_2.text_model.encoder.layers.9.mlp.fc2.bias = #stream.parameter.named<"model"::"text_encoder_model_2.text_model.encoder.layers.9.mlp.fc2.bias"> : tensor<1280xf16>
  util.global private @__auto.text_encoder_model_2.text_model.encoder.layers.10.layer_norm1.weight = #stream.parameter.named<"model"::"text_encoder_model_2.text_model.encoder.layers.10.layer_norm1.weight"> : tensor<1280xf16>
  util.global private @__auto.text_encoder_model_2.text_model.encoder.layers.10.layer_norm1.bias = #stream.parameter.named<"model"::"text_encoder_model_2.text_model.encoder.layers.10.layer_norm1.bias"> : tensor<1280xf16>
  util.global private @__auto.text_encoder_model_2.text_model.encoder.layers.10.self_attn.q_proj.weight = #stream.parameter.named<"model"::"text_encoder_model_2.text_model.encoder.layers.10.self_attn.q_proj.weight"> : tensor<1280x1280xf16>
  util.global private @__auto.text_encoder_model_2.text_model.encoder.layers.10.self_attn.q_proj.bias = #stream.parameter.named<"model"::"text_encoder_model_2.text_model.encoder.layers.10.self_attn.q_proj.bias"> : tensor<1280xf16>
  util.global private @__auto.text_encoder_model_2.text_model.encoder.layers.10.self_attn.k_proj.weight = #stream.parameter.named<"model"::"text_encoder_model_2.text_model.encoder.layers.10.self_attn.k_proj.weight"> : tensor<1280x1280xf16>
  util.global private @__auto.text_encoder_model_2.text_model.encoder.layers.10.self_attn.k_proj.bias = #stream.parameter.named<"model"::"text_encoder_model_2.text_model.encoder.layers.10.self_attn.k_proj.bias"> : tensor<1280xf16>
  util.global private @__auto.text_encoder_model_2.text_model.encoder.layers.10.self_attn.v_proj.weight = #stream.parameter.named<"model"::"text_encoder_model_2.text_model.encoder.layers.10.self_attn.v_proj.weight"> : tensor<1280x1280xf16>
  util.global private @__auto.text_encoder_model_2.text_model.encoder.layers.10.self_attn.v_proj.bias = #stream.parameter.named<"model"::"text_encoder_model_2.text_model.encoder.layers.10.self_attn.v_proj.bias"> : tensor<1280xf16>
  util.global private @__auto.text_encoder_model_2.text_model.encoder.layers.10.self_attn.out_proj.weight = #stream.parameter.named<"model"::"text_encoder_model_2.text_model.encoder.layers.10.self_attn.out_proj.weight"> : tensor<1280x1280xf16>
  util.global private @__auto.text_encoder_model_2.text_model.encoder.layers.10.self_attn.out_proj.bias = #stream.parameter.named<"model"::"text_encoder_model_2.text_model.encoder.layers.10.self_attn.out_proj.bias"> : tensor<1280xf16>
  util.global private @__auto.text_encoder_model_2.text_model.encoder.layers.10.layer_norm2.weight = #stream.parameter.named<"model"::"text_encoder_model_2.text_model.encoder.layers.10.layer_norm2.weight"> : tensor<1280xf16>
  util.global private @__auto.text_encoder_model_2.text_model.encoder.layers.10.layer_norm2.bias = #stream.parameter.named<"model"::"text_encoder_model_2.text_model.encoder.layers.10.layer_norm2.bias"> : tensor<1280xf16>
  util.global private @__auto.text_encoder_model_2.text_model.encoder.layers.10.mlp.fc1.weight = #stream.parameter.named<"model"::"text_encoder_model_2.text_model.encoder.layers.10.mlp.fc1.weight"> : tensor<5120x1280xf16>
  util.global private @__auto.text_encoder_model_2.text_model.encoder.layers.10.mlp.fc1.bias = #stream.parameter.named<"model"::"text_encoder_model_2.text_model.encoder.layers.10.mlp.fc1.bias"> : tensor<5120xf16>
  util.global private @__auto.text_encoder_model_2.text_model.encoder.layers.10.mlp.fc2.weight = #stream.parameter.named<"model"::"text_encoder_model_2.text_model.encoder.layers.10.mlp.fc2.weight"> : tensor<1280x5120xf16>
  util.global private @__auto.text_encoder_model_2.text_model.encoder.layers.10.mlp.fc2.bias = #stream.parameter.named<"model"::"text_encoder_model_2.text_model.encoder.layers.10.mlp.fc2.bias"> : tensor<1280xf16>
  util.global private @__auto.text_encoder_model_2.text_model.encoder.layers.11.layer_norm1.weight = #stream.parameter.named<"model"::"text_encoder_model_2.text_model.encoder.layers.11.layer_norm1.weight"> : tensor<1280xf16>
  util.global private @__auto.text_encoder_model_2.text_model.encoder.layers.11.layer_norm1.bias = #stream.parameter.named<"model"::"text_encoder_model_2.text_model.encoder.layers.11.layer_norm1.bias"> : tensor<1280xf16>
  util.global private @__auto.text_encoder_model_2.text_model.encoder.layers.11.self_attn.q_proj.weight = #stream.parameter.named<"model"::"text_encoder_model_2.text_model.encoder.layers.11.self_attn.q_proj.weight"> : tensor<1280x1280xf16>
  util.global private @__auto.text_encoder_model_2.text_model.encoder.layers.11.self_attn.q_proj.bias = #stream.parameter.named<"model"::"text_encoder_model_2.text_model.encoder.layers.11.self_attn.q_proj.bias"> : tensor<1280xf16>
  util.global private @__auto.text_encoder_model_2.text_model.encoder.layers.11.self_attn.k_proj.weight = #stream.parameter.named<"model"::"text_encoder_model_2.text_model.encoder.layers.11.self_attn.k_proj.weight"> : tensor<1280x1280xf16>
  util.global private @__auto.text_encoder_model_2.text_model.encoder.layers.11.self_attn.k_proj.bias = #stream.parameter.named<"model"::"text_encoder_model_2.text_model.encoder.layers.11.self_attn.k_proj.bias"> : tensor<1280xf16>
  util.global private @__auto.text_encoder_model_2.text_model.encoder.layers.11.self_attn.v_proj.weight = #stream.parameter.named<"model"::"text_encoder_model_2.text_model.encoder.layers.11.self_attn.v_proj.weight"> : tensor<1280x1280xf16>
  util.global private @__auto.text_encoder_model_2.text_model.encoder.layers.11.self_attn.v_proj.bias = #stream.parameter.named<"model"::"text_encoder_model_2.text_model.encoder.layers.11.self_attn.v_proj.bias"> : tensor<1280xf16>
  util.global private @__auto.text_encoder_model_2.text_model.encoder.layers.11.self_attn.out_proj.weight = #stream.parameter.named<"model"::"text_encoder_model_2.text_model.encoder.layers.11.self_attn.out_proj.weight"> : tensor<1280x1280xf16>
  util.global private @__auto.text_encoder_model_2.text_model.encoder.layers.11.self_attn.out_proj.bias = #stream.parameter.named<"model"::"text_encoder_model_2.text_model.encoder.layers.11.self_attn.out_proj.bias"> : tensor<1280xf16>
  util.global private @__auto.text_encoder_model_2.text_model.encoder.layers.11.layer_norm2.weight = #stream.parameter.named<"model"::"text_encoder_model_2.text_model.encoder.layers.11.layer_norm2.weight"> : tensor<1280xf16>
  util.global private @__auto.text_encoder_model_2.text_model.encoder.layers.11.layer_norm2.bias = #stream.parameter.named<"model"::"text_encoder_model_2.text_model.encoder.layers.11.layer_norm2.bias"> : tensor<1280xf16>
  util.global private @__auto.text_encoder_model_2.text_model.encoder.layers.11.mlp.fc1.weight = #stream.parameter.named<"model"::"text_encoder_model_2.text_model.encoder.layers.11.mlp.fc1.weight"> : tensor<5120x1280xf16>
  util.global private @__auto.text_encoder_model_2.text_model.encoder.layers.11.mlp.fc1.bias = #stream.parameter.named<"model"::"text_encoder_model_2.text_model.encoder.layers.11.mlp.fc1.bias"> : tensor<5120xf16>
  util.global private @__auto.text_encoder_model_2.text_model.encoder.layers.11.mlp.fc2.weight = #stream.parameter.named<"model"::"text_encoder_model_2.text_model.encoder.layers.11.mlp.fc2.weight"> : tensor<1280x5120xf16>
  util.global private @__auto.text_encoder_model_2.text_model.encoder.layers.11.mlp.fc2.bias = #stream.parameter.named<"model"::"text_encoder_model_2.text_model.encoder.layers.11.mlp.fc2.bias"> : tensor<1280xf16>
  util.global private @__auto.text_encoder_model_2.text_model.encoder.layers.12.layer_norm1.weight = #stream.parameter.named<"model"::"text_encoder_model_2.text_model.encoder.layers.12.layer_norm1.weight"> : tensor<1280xf16>
  util.global private @__auto.text_encoder_model_2.text_model.encoder.layers.12.layer_norm1.bias = #stream.parameter.named<"model"::"text_encoder_model_2.text_model.encoder.layers.12.layer_norm1.bias"> : tensor<1280xf16>
  util.global private @__auto.text_encoder_model_2.text_model.encoder.layers.12.self_attn.q_proj.weight = #stream.parameter.named<"model"::"text_encoder_model_2.text_model.encoder.layers.12.self_attn.q_proj.weight"> : tensor<1280x1280xf16>
  util.global private @__auto.text_encoder_model_2.text_model.encoder.layers.12.self_attn.q_proj.bias = #stream.parameter.named<"model"::"text_encoder_model_2.text_model.encoder.layers.12.self_attn.q_proj.bias"> : tensor<1280xf16>
  util.global private @__auto.text_encoder_model_2.text_model.encoder.layers.12.self_attn.k_proj.weight = #stream.parameter.named<"model"::"text_encoder_model_2.text_model.encoder.layers.12.self_attn.k_proj.weight"> : tensor<1280x1280xf16>
  util.global private @__auto.text_encoder_model_2.text_model.encoder.layers.12.self_attn.k_proj.bias = #stream.parameter.named<"model"::"text_encoder_model_2.text_model.encoder.layers.12.self_attn.k_proj.bias"> : tensor<1280xf16>
  util.global private @__auto.text_encoder_model_2.text_model.encoder.layers.12.self_attn.v_proj.weight = #stream.parameter.named<"model"::"text_encoder_model_2.text_model.encoder.layers.12.self_attn.v_proj.weight"> : tensor<1280x1280xf16>
  util.global private @__auto.text_encoder_model_2.text_model.encoder.layers.12.self_attn.v_proj.bias = #stream.parameter.named<"model"::"text_encoder_model_2.text_model.encoder.layers.12.self_attn.v_proj.bias"> : tensor<1280xf16>
  util.global private @__auto.text_encoder_model_2.text_model.encoder.layers.12.self_attn.out_proj.weight = #stream.parameter.named<"model"::"text_encoder_model_2.text_model.encoder.layers.12.self_attn.out_proj.weight"> : tensor<1280x1280xf16>
  util.global private @__auto.text_encoder_model_2.text_model.encoder.layers.12.self_attn.out_proj.bias = #stream.parameter.named<"model"::"text_encoder_model_2.text_model.encoder.layers.12.self_attn.out_proj.bias"> : tensor<1280xf16>
  util.global private @__auto.text_encoder_model_2.text_model.encoder.layers.12.layer_norm2.weight = #stream.parameter.named<"model"::"text_encoder_model_2.text_model.encoder.layers.12.layer_norm2.weight"> : tensor<1280xf16>
  util.global private @__auto.text_encoder_model_2.text_model.encoder.layers.12.layer_norm2.bias = #stream.parameter.named<"model"::"text_encoder_model_2.text_model.encoder.layers.12.layer_norm2.bias"> : tensor<1280xf16>
  util.global private @__auto.text_encoder_model_2.text_model.encoder.layers.12.mlp.fc1.weight = #stream.parameter.named<"model"::"text_encoder_model_2.text_model.encoder.layers.12.mlp.fc1.weight"> : tensor<5120x1280xf16>
  util.global private @__auto.text_encoder_model_2.text_model.encoder.layers.12.mlp.fc1.bias = #stream.parameter.named<"model"::"text_encoder_model_2.text_model.encoder.layers.12.mlp.fc1.bias"> : tensor<5120xf16>
  util.global private @__auto.text_encoder_model_2.text_model.encoder.layers.12.mlp.fc2.weight = #stream.parameter.named<"model"::"text_encoder_model_2.text_model.encoder.layers.12.mlp.fc2.weight"> : tensor<1280x5120xf16>
  util.global private @__auto.text_encoder_model_2.text_model.encoder.layers.12.mlp.fc2.bias = #stream.parameter.named<"model"::"text_encoder_model_2.text_model.encoder.layers.12.mlp.fc2.bias"> : tensor<1280xf16>
  util.global private @__auto.text_encoder_model_2.text_model.encoder.layers.13.layer_norm1.weight = #stream.parameter.named<"model"::"text_encoder_model_2.text_model.encoder.layers.13.layer_norm1.weight"> : tensor<1280xf16>
  util.global private @__auto.text_encoder_model_2.text_model.encoder.layers.13.layer_norm1.bias = #stream.parameter.named<"model"::"text_encoder_model_2.text_model.encoder.layers.13.layer_norm1.bias"> : tensor<1280xf16>
  util.global private @__auto.text_encoder_model_2.text_model.encoder.layers.13.self_attn.q_proj.weight = #stream.parameter.named<"model"::"text_encoder_model_2.text_model.encoder.layers.13.self_attn.q_proj.weight"> : tensor<1280x1280xf16>
  util.global private @__auto.text_encoder_model_2.text_model.encoder.layers.13.self_attn.q_proj.bias = #stream.parameter.named<"model"::"text_encoder_model_2.text_model.encoder.layers.13.self_attn.q_proj.bias"> : tensor<1280xf16>
  util.global private @__auto.text_encoder_model_2.text_model.encoder.layers.13.self_attn.k_proj.weight = #stream.parameter.named<"model"::"text_encoder_model_2.text_model.encoder.layers.13.self_attn.k_proj.weight"> : tensor<1280x1280xf16>
  util.global private @__auto.text_encoder_model_2.text_model.encoder.layers.13.self_attn.k_proj.bias = #stream.parameter.named<"model"::"text_encoder_model_2.text_model.encoder.layers.13.self_attn.k_proj.bias"> : tensor<1280xf16>
  util.global private @__auto.text_encoder_model_2.text_model.encoder.layers.13.self_attn.v_proj.weight = #stream.parameter.named<"model"::"text_encoder_model_2.text_model.encoder.layers.13.self_attn.v_proj.weight"> : tensor<1280x1280xf16>
  util.global private @__auto.text_encoder_model_2.text_model.encoder.layers.13.self_attn.v_proj.bias = #stream.parameter.named<"model"::"text_encoder_model_2.text_model.encoder.layers.13.self_attn.v_proj.bias"> : tensor<1280xf16>
  util.global private @__auto.text_encoder_model_2.text_model.encoder.layers.13.self_attn.out_proj.weight = #stream.parameter.named<"model"::"text_encoder_model_2.text_model.encoder.layers.13.self_attn.out_proj.weight"> : tensor<1280x1280xf16>
  util.global private @__auto.text_encoder_model_2.text_model.encoder.layers.13.self_attn.out_proj.bias = #stream.parameter.named<"model"::"text_encoder_model_2.text_model.encoder.layers.13.self_attn.out_proj.bias"> : tensor<1280xf16>
  util.global private @__auto.text_encoder_model_2.text_model.encoder.layers.13.layer_norm2.weight = #stream.parameter.named<"model"::"text_encoder_model_2.text_model.encoder.layers.13.layer_norm2.weight"> : tensor<1280xf16>
  util.global private @__auto.text_encoder_model_2.text_model.encoder.layers.13.layer_norm2.bias = #stream.parameter.named<"model"::"text_encoder_model_2.text_model.encoder.layers.13.layer_norm2.bias"> : tensor<1280xf16>
  util.global private @__auto.text_encoder_model_2.text_model.encoder.layers.13.mlp.fc1.weight = #stream.parameter.named<"model"::"text_encoder_model_2.text_model.encoder.layers.13.mlp.fc1.weight"> : tensor<5120x1280xf16>
  util.global private @__auto.text_encoder_model_2.text_model.encoder.layers.13.mlp.fc1.bias = #stream.parameter.named<"model"::"text_encoder_model_2.text_model.encoder.layers.13.mlp.fc1.bias"> : tensor<5120xf16>
  util.global private @__auto.text_encoder_model_2.text_model.encoder.layers.13.mlp.fc2.weight = #stream.parameter.named<"model"::"text_encoder_model_2.text_model.encoder.layers.13.mlp.fc2.weight"> : tensor<1280x5120xf16>
  util.global private @__auto.text_encoder_model_2.text_model.encoder.layers.13.mlp.fc2.bias = #stream.parameter.named<"model"::"text_encoder_model_2.text_model.encoder.layers.13.mlp.fc2.bias"> : tensor<1280xf16>
  util.global private @__auto.text_encoder_model_2.text_model.encoder.layers.14.layer_norm1.weight = #stream.parameter.named<"model"::"text_encoder_model_2.text_model.encoder.layers.14.layer_norm1.weight"> : tensor<1280xf16>
  util.global private @__auto.text_encoder_model_2.text_model.encoder.layers.14.layer_norm1.bias = #stream.parameter.named<"model"::"text_encoder_model_2.text_model.encoder.layers.14.layer_norm1.bias"> : tensor<1280xf16>
  util.global private @__auto.text_encoder_model_2.text_model.encoder.layers.14.self_attn.q_proj.weight = #stream.parameter.named<"model"::"text_encoder_model_2.text_model.encoder.layers.14.self_attn.q_proj.weight"> : tensor<1280x1280xf16>
  util.global private @__auto.text_encoder_model_2.text_model.encoder.layers.14.self_attn.q_proj.bias = #stream.parameter.named<"model"::"text_encoder_model_2.text_model.encoder.layers.14.self_attn.q_proj.bias"> : tensor<1280xf16>
  util.global private @__auto.text_encoder_model_2.text_model.encoder.layers.14.self_attn.k_proj.weight = #stream.parameter.named<"model"::"text_encoder_model_2.text_model.encoder.layers.14.self_attn.k_proj.weight"> : tensor<1280x1280xf16>
  util.global private @__auto.text_encoder_model_2.text_model.encoder.layers.14.self_attn.k_proj.bias = #stream.parameter.named<"model"::"text_encoder_model_2.text_model.encoder.layers.14.self_attn.k_proj.bias"> : tensor<1280xf16>
  util.global private @__auto.text_encoder_model_2.text_model.encoder.layers.14.self_attn.v_proj.weight = #stream.parameter.named<"model"::"text_encoder_model_2.text_model.encoder.layers.14.self_attn.v_proj.weight"> : tensor<1280x1280xf16>
  util.global private @__auto.text_encoder_model_2.text_model.encoder.layers.14.self_attn.v_proj.bias = #stream.parameter.named<"model"::"text_encoder_model_2.text_model.encoder.layers.14.self_attn.v_proj.bias"> : tensor<1280xf16>
  util.global private @__auto.text_encoder_model_2.text_model.encoder.layers.14.self_attn.out_proj.weight = #stream.parameter.named<"model"::"text_encoder_model_2.text_model.encoder.layers.14.self_attn.out_proj.weight"> : tensor<1280x1280xf16>
  util.global private @__auto.text_encoder_model_2.text_model.encoder.layers.14.self_attn.out_proj.bias = #stream.parameter.named<"model"::"text_encoder_model_2.text_model.encoder.layers.14.self_attn.out_proj.bias"> : tensor<1280xf16>
  util.global private @__auto.text_encoder_model_2.text_model.encoder.layers.14.layer_norm2.weight = #stream.parameter.named<"model"::"text_encoder_model_2.text_model.encoder.layers.14.layer_norm2.weight"> : tensor<1280xf16>
  util.global private @__auto.text_encoder_model_2.text_model.encoder.layers.14.layer_norm2.bias = #stream.parameter.named<"model"::"text_encoder_model_2.text_model.encoder.layers.14.layer_norm2.bias"> : tensor<1280xf16>
  util.global private @__auto.text_encoder_model_2.text_model.encoder.layers.14.mlp.fc1.weight = #stream.parameter.named<"model"::"text_encoder_model_2.text_model.encoder.layers.14.mlp.fc1.weight"> : tensor<5120x1280xf16>
  util.global private @__auto.text_encoder_model_2.text_model.encoder.layers.14.mlp.fc1.bias = #stream.parameter.named<"model"::"text_encoder_model_2.text_model.encoder.layers.14.mlp.fc1.bias"> : tensor<5120xf16>
  util.global private @__auto.text_encoder_model_2.text_model.encoder.layers.14.mlp.fc2.weight = #stream.parameter.named<"model"::"text_encoder_model_2.text_model.encoder.layers.14.mlp.fc2.weight"> : tensor<1280x5120xf16>
  util.global private @__auto.text_encoder_model_2.text_model.encoder.layers.14.mlp.fc2.bias = #stream.parameter.named<"model"::"text_encoder_model_2.text_model.encoder.layers.14.mlp.fc2.bias"> : tensor<1280xf16>
  util.global private @__auto.text_encoder_model_2.text_model.encoder.layers.15.layer_norm1.weight = #stream.parameter.named<"model"::"text_encoder_model_2.text_model.encoder.layers.15.layer_norm1.weight"> : tensor<1280xf16>
  util.global private @__auto.text_encoder_model_2.text_model.encoder.layers.15.layer_norm1.bias = #stream.parameter.named<"model"::"text_encoder_model_2.text_model.encoder.layers.15.layer_norm1.bias"> : tensor<1280xf16>
  util.global private @__auto.text_encoder_model_2.text_model.encoder.layers.15.self_attn.q_proj.weight = #stream.parameter.named<"model"::"text_encoder_model_2.text_model.encoder.layers.15.self_attn.q_proj.weight"> : tensor<1280x1280xf16>
  util.global private @__auto.text_encoder_model_2.text_model.encoder.layers.15.self_attn.q_proj.bias = #stream.parameter.named<"model"::"text_encoder_model_2.text_model.encoder.layers.15.self_attn.q_proj.bias"> : tensor<1280xf16>
  util.global private @__auto.text_encoder_model_2.text_model.encoder.layers.15.self_attn.k_proj.weight = #stream.parameter.named<"model"::"text_encoder_model_2.text_model.encoder.layers.15.self_attn.k_proj.weight"> : tensor<1280x1280xf16>
  util.global private @__auto.text_encoder_model_2.text_model.encoder.layers.15.self_attn.k_proj.bias = #stream.parameter.named<"model"::"text_encoder_model_2.text_model.encoder.layers.15.self_attn.k_proj.bias"> : tensor<1280xf16>
  util.global private @__auto.text_encoder_model_2.text_model.encoder.layers.15.self_attn.v_proj.weight = #stream.parameter.named<"model"::"text_encoder_model_2.text_model.encoder.layers.15.self_attn.v_proj.weight"> : tensor<1280x1280xf16>
  util.global private @__auto.text_encoder_model_2.text_model.encoder.layers.15.self_attn.v_proj.bias = #stream.parameter.named<"model"::"text_encoder_model_2.text_model.encoder.layers.15.self_attn.v_proj.bias"> : tensor<1280xf16>
  util.global private @__auto.text_encoder_model_2.text_model.encoder.layers.15.self_attn.out_proj.weight = #stream.parameter.named<"model"::"text_encoder_model_2.text_model.encoder.layers.15.self_attn.out_proj.weight"> : tensor<1280x1280xf16>
  util.global private @__auto.text_encoder_model_2.text_model.encoder.layers.15.self_attn.out_proj.bias = #stream.parameter.named<"model"::"text_encoder_model_2.text_model.encoder.layers.15.self_attn.out_proj.bias"> : tensor<1280xf16>
  util.global private @__auto.text_encoder_model_2.text_model.encoder.layers.15.layer_norm2.weight = #stream.parameter.named<"model"::"text_encoder_model_2.text_model.encoder.layers.15.layer_norm2.weight"> : tensor<1280xf16>
  util.global private @__auto.text_encoder_model_2.text_model.encoder.layers.15.layer_norm2.bias = #stream.parameter.named<"model"::"text_encoder_model_2.text_model.encoder.layers.15.layer_norm2.bias"> : tensor<1280xf16>
  util.global private @__auto.text_encoder_model_2.text_model.encoder.layers.15.mlp.fc1.weight = #stream.parameter.named<"model"::"text_encoder_model_2.text_model.encoder.layers.15.mlp.fc1.weight"> : tensor<5120x1280xf16>
  util.global private @__auto.text_encoder_model_2.text_model.encoder.layers.15.mlp.fc1.bias = #stream.parameter.named<"model"::"text_encoder_model_2.text_model.encoder.layers.15.mlp.fc1.bias"> : tensor<5120xf16>
  util.global private @__auto.text_encoder_model_2.text_model.encoder.layers.15.mlp.fc2.weight = #stream.parameter.named<"model"::"text_encoder_model_2.text_model.encoder.layers.15.mlp.fc2.weight"> : tensor<1280x5120xf16>
  util.global private @__auto.text_encoder_model_2.text_model.encoder.layers.15.mlp.fc2.bias = #stream.parameter.named<"model"::"text_encoder_model_2.text_model.encoder.layers.15.mlp.fc2.bias"> : tensor<1280xf16>
  util.global private @__auto.text_encoder_model_2.text_model.encoder.layers.16.layer_norm1.weight = #stream.parameter.named<"model"::"text_encoder_model_2.text_model.encoder.layers.16.layer_norm1.weight"> : tensor<1280xf16>
  util.global private @__auto.text_encoder_model_2.text_model.encoder.layers.16.layer_norm1.bias = #stream.parameter.named<"model"::"text_encoder_model_2.text_model.encoder.layers.16.layer_norm1.bias"> : tensor<1280xf16>
  util.global private @__auto.text_encoder_model_2.text_model.encoder.layers.16.self_attn.q_proj.weight = #stream.parameter.named<"model"::"text_encoder_model_2.text_model.encoder.layers.16.self_attn.q_proj.weight"> : tensor<1280x1280xf16>
  util.global private @__auto.text_encoder_model_2.text_model.encoder.layers.16.self_attn.q_proj.bias = #stream.parameter.named<"model"::"text_encoder_model_2.text_model.encoder.layers.16.self_attn.q_proj.bias"> : tensor<1280xf16>
  util.global private @__auto.text_encoder_model_2.text_model.encoder.layers.16.self_attn.k_proj.weight = #stream.parameter.named<"model"::"text_encoder_model_2.text_model.encoder.layers.16.self_attn.k_proj.weight"> : tensor<1280x1280xf16>
  util.global private @__auto.text_encoder_model_2.text_model.encoder.layers.16.self_attn.k_proj.bias = #stream.parameter.named<"model"::"text_encoder_model_2.text_model.encoder.layers.16.self_attn.k_proj.bias"> : tensor<1280xf16>
  util.global private @__auto.text_encoder_model_2.text_model.encoder.layers.16.self_attn.v_proj.weight = #stream.parameter.named<"model"::"text_encoder_model_2.text_model.encoder.layers.16.self_attn.v_proj.weight"> : tensor<1280x1280xf16>
  util.global private @__auto.text_encoder_model_2.text_model.encoder.layers.16.self_attn.v_proj.bias = #stream.parameter.named<"model"::"text_encoder_model_2.text_model.encoder.layers.16.self_attn.v_proj.bias"> : tensor<1280xf16>
  util.global private @__auto.text_encoder_model_2.text_model.encoder.layers.16.self_attn.out_proj.weight = #stream.parameter.named<"model"::"text_encoder_model_2.text_model.encoder.layers.16.self_attn.out_proj.weight"> : tensor<1280x1280xf16>
  util.global private @__auto.text_encoder_model_2.text_model.encoder.layers.16.self_attn.out_proj.bias = #stream.parameter.named<"model"::"text_encoder_model_2.text_model.encoder.layers.16.self_attn.out_proj.bias"> : tensor<1280xf16>
  util.global private @__auto.text_encoder_model_2.text_model.encoder.layers.16.layer_norm2.weight = #stream.parameter.named<"model"::"text_encoder_model_2.text_model.encoder.layers.16.layer_norm2.weight"> : tensor<1280xf16>
  util.global private @__auto.text_encoder_model_2.text_model.encoder.layers.16.layer_norm2.bias = #stream.parameter.named<"model"::"text_encoder_model_2.text_model.encoder.layers.16.layer_norm2.bias"> : tensor<1280xf16>
  util.global private @__auto.text_encoder_model_2.text_model.encoder.layers.16.mlp.fc1.weight = #stream.parameter.named<"model"::"text_encoder_model_2.text_model.encoder.layers.16.mlp.fc1.weight"> : tensor<5120x1280xf16>
  util.global private @__auto.text_encoder_model_2.text_model.encoder.layers.16.mlp.fc1.bias = #stream.parameter.named<"model"::"text_encoder_model_2.text_model.encoder.layers.16.mlp.fc1.bias"> : tensor<5120xf16>
  util.global private @__auto.text_encoder_model_2.text_model.encoder.layers.16.mlp.fc2.weight = #stream.parameter.named<"model"::"text_encoder_model_2.text_model.encoder.layers.16.mlp.fc2.weight"> : tensor<1280x5120xf16>
  util.global private @__auto.text_encoder_model_2.text_model.encoder.layers.16.mlp.fc2.bias = #stream.parameter.named<"model"::"text_encoder_model_2.text_model.encoder.layers.16.mlp.fc2.bias"> : tensor<1280xf16>
  util.global private @__auto.text_encoder_model_2.text_model.encoder.layers.17.layer_norm1.weight = #stream.parameter.named<"model"::"text_encoder_model_2.text_model.encoder.layers.17.layer_norm1.weight"> : tensor<1280xf16>
  util.global private @__auto.text_encoder_model_2.text_model.encoder.layers.17.layer_norm1.bias = #stream.parameter.named<"model"::"text_encoder_model_2.text_model.encoder.layers.17.layer_norm1.bias"> : tensor<1280xf16>
  util.global private @__auto.text_encoder_model_2.text_model.encoder.layers.17.self_attn.q_proj.weight = #stream.parameter.named<"model"::"text_encoder_model_2.text_model.encoder.layers.17.self_attn.q_proj.weight"> : tensor<1280x1280xf16>
  util.global private @__auto.text_encoder_model_2.text_model.encoder.layers.17.self_attn.q_proj.bias = #stream.parameter.named<"model"::"text_encoder_model_2.text_model.encoder.layers.17.self_attn.q_proj.bias"> : tensor<1280xf16>
  util.global private @__auto.text_encoder_model_2.text_model.encoder.layers.17.self_attn.k_proj.weight = #stream.parameter.named<"model"::"text_encoder_model_2.text_model.encoder.layers.17.self_attn.k_proj.weight"> : tensor<1280x1280xf16>
  util.global private @__auto.text_encoder_model_2.text_model.encoder.layers.17.self_attn.k_proj.bias = #stream.parameter.named<"model"::"text_encoder_model_2.text_model.encoder.layers.17.self_attn.k_proj.bias"> : tensor<1280xf16>
  util.global private @__auto.text_encoder_model_2.text_model.encoder.layers.17.self_attn.v_proj.weight = #stream.parameter.named<"model"::"text_encoder_model_2.text_model.encoder.layers.17.self_attn.v_proj.weight"> : tensor<1280x1280xf16>
  util.global private @__auto.text_encoder_model_2.text_model.encoder.layers.17.self_attn.v_proj.bias = #stream.parameter.named<"model"::"text_encoder_model_2.text_model.encoder.layers.17.self_attn.v_proj.bias"> : tensor<1280xf16>
  util.global private @__auto.text_encoder_model_2.text_model.encoder.layers.17.self_attn.out_proj.weight = #stream.parameter.named<"model"::"text_encoder_model_2.text_model.encoder.layers.17.self_attn.out_proj.weight"> : tensor<1280x1280xf16>
  util.global private @__auto.text_encoder_model_2.text_model.encoder.layers.17.self_attn.out_proj.bias = #stream.parameter.named<"model"::"text_encoder_model_2.text_model.encoder.layers.17.self_attn.out_proj.bias"> : tensor<1280xf16>
  util.global private @__auto.text_encoder_model_2.text_model.encoder.layers.17.layer_norm2.weight = #stream.parameter.named<"model"::"text_encoder_model_2.text_model.encoder.layers.17.layer_norm2.weight"> : tensor<1280xf16>
  util.global private @__auto.text_encoder_model_2.text_model.encoder.layers.17.layer_norm2.bias = #stream.parameter.named<"model"::"text_encoder_model_2.text_model.encoder.layers.17.layer_norm2.bias"> : tensor<1280xf16>
  util.global private @__auto.text_encoder_model_2.text_model.encoder.layers.17.mlp.fc1.weight = #stream.parameter.named<"model"::"text_encoder_model_2.text_model.encoder.layers.17.mlp.fc1.weight"> : tensor<5120x1280xf16>
  util.global private @__auto.text_encoder_model_2.text_model.encoder.layers.17.mlp.fc1.bias = #stream.parameter.named<"model"::"text_encoder_model_2.text_model.encoder.layers.17.mlp.fc1.bias"> : tensor<5120xf16>
  util.global private @__auto.text_encoder_model_2.text_model.encoder.layers.17.mlp.fc2.weight = #stream.parameter.named<"model"::"text_encoder_model_2.text_model.encoder.layers.17.mlp.fc2.weight"> : tensor<1280x5120xf16>
  util.global private @__auto.text_encoder_model_2.text_model.encoder.layers.17.mlp.fc2.bias = #stream.parameter.named<"model"::"text_encoder_model_2.text_model.encoder.layers.17.mlp.fc2.bias"> : tensor<1280xf16>
  util.global private @__auto.text_encoder_model_2.text_model.encoder.layers.18.layer_norm1.weight = #stream.parameter.named<"model"::"text_encoder_model_2.text_model.encoder.layers.18.layer_norm1.weight"> : tensor<1280xf16>
  util.global private @__auto.text_encoder_model_2.text_model.encoder.layers.18.layer_norm1.bias = #stream.parameter.named<"model"::"text_encoder_model_2.text_model.encoder.layers.18.layer_norm1.bias"> : tensor<1280xf16>
  util.global private @__auto.text_encoder_model_2.text_model.encoder.layers.18.self_attn.q_proj.weight = #stream.parameter.named<"model"::"text_encoder_model_2.text_model.encoder.layers.18.self_attn.q_proj.weight"> : tensor<1280x1280xf16>
  util.global private @__auto.text_encoder_model_2.text_model.encoder.layers.18.self_attn.q_proj.bias = #stream.parameter.named<"model"::"text_encoder_model_2.text_model.encoder.layers.18.self_attn.q_proj.bias"> : tensor<1280xf16>
  util.global private @__auto.text_encoder_model_2.text_model.encoder.layers.18.self_attn.k_proj.weight = #stream.parameter.named<"model"::"text_encoder_model_2.text_model.encoder.layers.18.self_attn.k_proj.weight"> : tensor<1280x1280xf16>
  util.global private @__auto.text_encoder_model_2.text_model.encoder.layers.18.self_attn.k_proj.bias = #stream.parameter.named<"model"::"text_encoder_model_2.text_model.encoder.layers.18.self_attn.k_proj.bias"> : tensor<1280xf16>
  util.global private @__auto.text_encoder_model_2.text_model.encoder.layers.18.self_attn.v_proj.weight = #stream.parameter.named<"model"::"text_encoder_model_2.text_model.encoder.layers.18.self_attn.v_proj.weight"> : tensor<1280x1280xf16>
  util.global private @__auto.text_encoder_model_2.text_model.encoder.layers.18.self_attn.v_proj.bias = #stream.parameter.named<"model"::"text_encoder_model_2.text_model.encoder.layers.18.self_attn.v_proj.bias"> : tensor<1280xf16>
  util.global private @__auto.text_encoder_model_2.text_model.encoder.layers.18.self_attn.out_proj.weight = #stream.parameter.named<"model"::"text_encoder_model_2.text_model.encoder.layers.18.self_attn.out_proj.weight"> : tensor<1280x1280xf16>
  util.global private @__auto.text_encoder_model_2.text_model.encoder.layers.18.self_attn.out_proj.bias = #stream.parameter.named<"model"::"text_encoder_model_2.text_model.encoder.layers.18.self_attn.out_proj.bias"> : tensor<1280xf16>
  util.global private @__auto.text_encoder_model_2.text_model.encoder.layers.18.layer_norm2.weight = #stream.parameter.named<"model"::"text_encoder_model_2.text_model.encoder.layers.18.layer_norm2.weight"> : tensor<1280xf16>
  util.global private @__auto.text_encoder_model_2.text_model.encoder.layers.18.layer_norm2.bias = #stream.parameter.named<"model"::"text_encoder_model_2.text_model.encoder.layers.18.layer_norm2.bias"> : tensor<1280xf16>
  util.global private @__auto.text_encoder_model_2.text_model.encoder.layers.18.mlp.fc1.weight = #stream.parameter.named<"model"::"text_encoder_model_2.text_model.encoder.layers.18.mlp.fc1.weight"> : tensor<5120x1280xf16>
  util.global private @__auto.text_encoder_model_2.text_model.encoder.layers.18.mlp.fc1.bias = #stream.parameter.named<"model"::"text_encoder_model_2.text_model.encoder.layers.18.mlp.fc1.bias"> : tensor<5120xf16>
  util.global private @__auto.text_encoder_model_2.text_model.encoder.layers.18.mlp.fc2.weight = #stream.parameter.named<"model"::"text_encoder_model_2.text_model.encoder.layers.18.mlp.fc2.weight"> : tensor<1280x5120xf16>
  util.global private @__auto.text_encoder_model_2.text_model.encoder.layers.18.mlp.fc2.bias = #stream.parameter.named<"model"::"text_encoder_model_2.text_model.encoder.layers.18.mlp.fc2.bias"> : tensor<1280xf16>
  util.global private @__auto.text_encoder_model_2.text_model.encoder.layers.19.layer_norm1.weight = #stream.parameter.named<"model"::"text_encoder_model_2.text_model.encoder.layers.19.layer_norm1.weight"> : tensor<1280xf16>
  util.global private @__auto.text_encoder_model_2.text_model.encoder.layers.19.layer_norm1.bias = #stream.parameter.named<"model"::"text_encoder_model_2.text_model.encoder.layers.19.layer_norm1.bias"> : tensor<1280xf16>
  util.global private @__auto.text_encoder_model_2.text_model.encoder.layers.19.self_attn.q_proj.weight = #stream.parameter.named<"model"::"text_encoder_model_2.text_model.encoder.layers.19.self_attn.q_proj.weight"> : tensor<1280x1280xf16>
  util.global private @__auto.text_encoder_model_2.text_model.encoder.layers.19.self_attn.q_proj.bias = #stream.parameter.named<"model"::"text_encoder_model_2.text_model.encoder.layers.19.self_attn.q_proj.bias"> : tensor<1280xf16>
  util.global private @__auto.text_encoder_model_2.text_model.encoder.layers.19.self_attn.k_proj.weight = #stream.parameter.named<"model"::"text_encoder_model_2.text_model.encoder.layers.19.self_attn.k_proj.weight"> : tensor<1280x1280xf16>
  util.global private @__auto.text_encoder_model_2.text_model.encoder.layers.19.self_attn.k_proj.bias = #stream.parameter.named<"model"::"text_encoder_model_2.text_model.encoder.layers.19.self_attn.k_proj.bias"> : tensor<1280xf16>
  util.global private @__auto.text_encoder_model_2.text_model.encoder.layers.19.self_attn.v_proj.weight = #stream.parameter.named<"model"::"text_encoder_model_2.text_model.encoder.layers.19.self_attn.v_proj.weight"> : tensor<1280x1280xf16>
  util.global private @__auto.text_encoder_model_2.text_model.encoder.layers.19.self_attn.v_proj.bias = #stream.parameter.named<"model"::"text_encoder_model_2.text_model.encoder.layers.19.self_attn.v_proj.bias"> : tensor<1280xf16>
  util.global private @__auto.text_encoder_model_2.text_model.encoder.layers.19.self_attn.out_proj.weight = #stream.parameter.named<"model"::"text_encoder_model_2.text_model.encoder.layers.19.self_attn.out_proj.weight"> : tensor<1280x1280xf16>
  util.global private @__auto.text_encoder_model_2.text_model.encoder.layers.19.self_attn.out_proj.bias = #stream.parameter.named<"model"::"text_encoder_model_2.text_model.encoder.layers.19.self_attn.out_proj.bias"> : tensor<1280xf16>
  util.global private @__auto.text_encoder_model_2.text_model.encoder.layers.19.layer_norm2.weight = #stream.parameter.named<"model"::"text_encoder_model_2.text_model.encoder.layers.19.layer_norm2.weight"> : tensor<1280xf16>
  util.global private @__auto.text_encoder_model_2.text_model.encoder.layers.19.layer_norm2.bias = #stream.parameter.named<"model"::"text_encoder_model_2.text_model.encoder.layers.19.layer_norm2.bias"> : tensor<1280xf16>
  util.global private @__auto.text_encoder_model_2.text_model.encoder.layers.19.mlp.fc1.weight = #stream.parameter.named<"model"::"text_encoder_model_2.text_model.encoder.layers.19.mlp.fc1.weight"> : tensor<5120x1280xf16>
  util.global private @__auto.text_encoder_model_2.text_model.encoder.layers.19.mlp.fc1.bias = #stream.parameter.named<"model"::"text_encoder_model_2.text_model.encoder.layers.19.mlp.fc1.bias"> : tensor<5120xf16>
  util.global private @__auto.text_encoder_model_2.text_model.encoder.layers.19.mlp.fc2.weight = #stream.parameter.named<"model"::"text_encoder_model_2.text_model.encoder.layers.19.mlp.fc2.weight"> : tensor<1280x5120xf16>
  util.global private @__auto.text_encoder_model_2.text_model.encoder.layers.19.mlp.fc2.bias = #stream.parameter.named<"model"::"text_encoder_model_2.text_model.encoder.layers.19.mlp.fc2.bias"> : tensor<1280xf16>
  util.global private @__auto.text_encoder_model_2.text_model.encoder.layers.20.layer_norm1.weight = #stream.parameter.named<"model"::"text_encoder_model_2.text_model.encoder.layers.20.layer_norm1.weight"> : tensor<1280xf16>
  util.global private @__auto.text_encoder_model_2.text_model.encoder.layers.20.layer_norm1.bias = #stream.parameter.named<"model"::"text_encoder_model_2.text_model.encoder.layers.20.layer_norm1.bias"> : tensor<1280xf16>
  util.global private @__auto.text_encoder_model_2.text_model.encoder.layers.20.self_attn.q_proj.weight = #stream.parameter.named<"model"::"text_encoder_model_2.text_model.encoder.layers.20.self_attn.q_proj.weight"> : tensor<1280x1280xf16>
  util.global private @__auto.text_encoder_model_2.text_model.encoder.layers.20.self_attn.q_proj.bias = #stream.parameter.named<"model"::"text_encoder_model_2.text_model.encoder.layers.20.self_attn.q_proj.bias"> : tensor<1280xf16>
  util.global private @__auto.text_encoder_model_2.text_model.encoder.layers.20.self_attn.k_proj.weight = #stream.parameter.named<"model"::"text_encoder_model_2.text_model.encoder.layers.20.self_attn.k_proj.weight"> : tensor<1280x1280xf16>
  util.global private @__auto.text_encoder_model_2.text_model.encoder.layers.20.self_attn.k_proj.bias = #stream.parameter.named<"model"::"text_encoder_model_2.text_model.encoder.layers.20.self_attn.k_proj.bias"> : tensor<1280xf16>
  util.global private @__auto.text_encoder_model_2.text_model.encoder.layers.20.self_attn.v_proj.weight = #stream.parameter.named<"model"::"text_encoder_model_2.text_model.encoder.layers.20.self_attn.v_proj.weight"> : tensor<1280x1280xf16>
  util.global private @__auto.text_encoder_model_2.text_model.encoder.layers.20.self_attn.v_proj.bias = #stream.parameter.named<"model"::"text_encoder_model_2.text_model.encoder.layers.20.self_attn.v_proj.bias"> : tensor<1280xf16>
  util.global private @__auto.text_encoder_model_2.text_model.encoder.layers.20.self_attn.out_proj.weight = #stream.parameter.named<"model"::"text_encoder_model_2.text_model.encoder.layers.20.self_attn.out_proj.weight"> : tensor<1280x1280xf16>
  util.global private @__auto.text_encoder_model_2.text_model.encoder.layers.20.self_attn.out_proj.bias = #stream.parameter.named<"model"::"text_encoder_model_2.text_model.encoder.layers.20.self_attn.out_proj.bias"> : tensor<1280xf16>
  util.global private @__auto.text_encoder_model_2.text_model.encoder.layers.20.layer_norm2.weight = #stream.parameter.named<"model"::"text_encoder_model_2.text_model.encoder.layers.20.layer_norm2.weight"> : tensor<1280xf16>
  util.global private @__auto.text_encoder_model_2.text_model.encoder.layers.20.layer_norm2.bias = #stream.parameter.named<"model"::"text_encoder_model_2.text_model.encoder.layers.20.layer_norm2.bias"> : tensor<1280xf16>
  util.global private @__auto.text_encoder_model_2.text_model.encoder.layers.20.mlp.fc1.weight = #stream.parameter.named<"model"::"text_encoder_model_2.text_model.encoder.layers.20.mlp.fc1.weight"> : tensor<5120x1280xf16>
  util.global private @__auto.text_encoder_model_2.text_model.encoder.layers.20.mlp.fc1.bias = #stream.parameter.named<"model"::"text_encoder_model_2.text_model.encoder.layers.20.mlp.fc1.bias"> : tensor<5120xf16>
  util.global private @__auto.text_encoder_model_2.text_model.encoder.layers.20.mlp.fc2.weight = #stream.parameter.named<"model"::"text_encoder_model_2.text_model.encoder.layers.20.mlp.fc2.weight"> : tensor<1280x5120xf16>
  util.global private @__auto.text_encoder_model_2.text_model.encoder.layers.20.mlp.fc2.bias = #stream.parameter.named<"model"::"text_encoder_model_2.text_model.encoder.layers.20.mlp.fc2.bias"> : tensor<1280xf16>
  util.global private @__auto.text_encoder_model_2.text_model.encoder.layers.21.layer_norm1.weight = #stream.parameter.named<"model"::"text_encoder_model_2.text_model.encoder.layers.21.layer_norm1.weight"> : tensor<1280xf16>
  util.global private @__auto.text_encoder_model_2.text_model.encoder.layers.21.layer_norm1.bias = #stream.parameter.named<"model"::"text_encoder_model_2.text_model.encoder.layers.21.layer_norm1.bias"> : tensor<1280xf16>
  util.global private @__auto.text_encoder_model_2.text_model.encoder.layers.21.self_attn.q_proj.weight = #stream.parameter.named<"model"::"text_encoder_model_2.text_model.encoder.layers.21.self_attn.q_proj.weight"> : tensor<1280x1280xf16>
  util.global private @__auto.text_encoder_model_2.text_model.encoder.layers.21.self_attn.q_proj.bias = #stream.parameter.named<"model"::"text_encoder_model_2.text_model.encoder.layers.21.self_attn.q_proj.bias"> : tensor<1280xf16>
  util.global private @__auto.text_encoder_model_2.text_model.encoder.layers.21.self_attn.k_proj.weight = #stream.parameter.named<"model"::"text_encoder_model_2.text_model.encoder.layers.21.self_attn.k_proj.weight"> : tensor<1280x1280xf16>
  util.global private @__auto.text_encoder_model_2.text_model.encoder.layers.21.self_attn.k_proj.bias = #stream.parameter.named<"model"::"text_encoder_model_2.text_model.encoder.layers.21.self_attn.k_proj.bias"> : tensor<1280xf16>
  util.global private @__auto.text_encoder_model_2.text_model.encoder.layers.21.self_attn.v_proj.weight = #stream.parameter.named<"model"::"text_encoder_model_2.text_model.encoder.layers.21.self_attn.v_proj.weight"> : tensor<1280x1280xf16>
  util.global private @__auto.text_encoder_model_2.text_model.encoder.layers.21.self_attn.v_proj.bias = #stream.parameter.named<"model"::"text_encoder_model_2.text_model.encoder.layers.21.self_attn.v_proj.bias"> : tensor<1280xf16>
  util.global private @__auto.text_encoder_model_2.text_model.encoder.layers.21.self_attn.out_proj.weight = #stream.parameter.named<"model"::"text_encoder_model_2.text_model.encoder.layers.21.self_attn.out_proj.weight"> : tensor<1280x1280xf16>
  util.global private @__auto.text_encoder_model_2.text_model.encoder.layers.21.self_attn.out_proj.bias = #stream.parameter.named<"model"::"text_encoder_model_2.text_model.encoder.layers.21.self_attn.out_proj.bias"> : tensor<1280xf16>
  util.global private @__auto.text_encoder_model_2.text_model.encoder.layers.21.layer_norm2.weight = #stream.parameter.named<"model"::"text_encoder_model_2.text_model.encoder.layers.21.layer_norm2.weight"> : tensor<1280xf16>
  util.global private @__auto.text_encoder_model_2.text_model.encoder.layers.21.layer_norm2.bias = #stream.parameter.named<"model"::"text_encoder_model_2.text_model.encoder.layers.21.layer_norm2.bias"> : tensor<1280xf16>
  util.global private @__auto.text_encoder_model_2.text_model.encoder.layers.21.mlp.fc1.weight = #stream.parameter.named<"model"::"text_encoder_model_2.text_model.encoder.layers.21.mlp.fc1.weight"> : tensor<5120x1280xf16>
  util.global private @__auto.text_encoder_model_2.text_model.encoder.layers.21.mlp.fc1.bias = #stream.parameter.named<"model"::"text_encoder_model_2.text_model.encoder.layers.21.mlp.fc1.bias"> : tensor<5120xf16>
  util.global private @__auto.text_encoder_model_2.text_model.encoder.layers.21.mlp.fc2.weight = #stream.parameter.named<"model"::"text_encoder_model_2.text_model.encoder.layers.21.mlp.fc2.weight"> : tensor<1280x5120xf16>
  util.global private @__auto.text_encoder_model_2.text_model.encoder.layers.21.mlp.fc2.bias = #stream.parameter.named<"model"::"text_encoder_model_2.text_model.encoder.layers.21.mlp.fc2.bias"> : tensor<1280xf16>
  util.global private @__auto.text_encoder_model_2.text_model.encoder.layers.22.layer_norm1.weight = #stream.parameter.named<"model"::"text_encoder_model_2.text_model.encoder.layers.22.layer_norm1.weight"> : tensor<1280xf16>
  util.global private @__auto.text_encoder_model_2.text_model.encoder.layers.22.layer_norm1.bias = #stream.parameter.named<"model"::"text_encoder_model_2.text_model.encoder.layers.22.layer_norm1.bias"> : tensor<1280xf16>
  util.global private @__auto.text_encoder_model_2.text_model.encoder.layers.22.self_attn.q_proj.weight = #stream.parameter.named<"model"::"text_encoder_model_2.text_model.encoder.layers.22.self_attn.q_proj.weight"> : tensor<1280x1280xf16>
  util.global private @__auto.text_encoder_model_2.text_model.encoder.layers.22.self_attn.q_proj.bias = #stream.parameter.named<"model"::"text_encoder_model_2.text_model.encoder.layers.22.self_attn.q_proj.bias"> : tensor<1280xf16>
  util.global private @__auto.text_encoder_model_2.text_model.encoder.layers.22.self_attn.k_proj.weight = #stream.parameter.named<"model"::"text_encoder_model_2.text_model.encoder.layers.22.self_attn.k_proj.weight"> : tensor<1280x1280xf16>
  util.global private @__auto.text_encoder_model_2.text_model.encoder.layers.22.self_attn.k_proj.bias = #stream.parameter.named<"model"::"text_encoder_model_2.text_model.encoder.layers.22.self_attn.k_proj.bias"> : tensor<1280xf16>
  util.global private @__auto.text_encoder_model_2.text_model.encoder.layers.22.self_attn.v_proj.weight = #stream.parameter.named<"model"::"text_encoder_model_2.text_model.encoder.layers.22.self_attn.v_proj.weight"> : tensor<1280x1280xf16>
  util.global private @__auto.text_encoder_model_2.text_model.encoder.layers.22.self_attn.v_proj.bias = #stream.parameter.named<"model"::"text_encoder_model_2.text_model.encoder.layers.22.self_attn.v_proj.bias"> : tensor<1280xf16>
  util.global private @__auto.text_encoder_model_2.text_model.encoder.layers.22.self_attn.out_proj.weight = #stream.parameter.named<"model"::"text_encoder_model_2.text_model.encoder.layers.22.self_attn.out_proj.weight"> : tensor<1280x1280xf16>
  util.global private @__auto.text_encoder_model_2.text_model.encoder.layers.22.self_attn.out_proj.bias = #stream.parameter.named<"model"::"text_encoder_model_2.text_model.encoder.layers.22.self_attn.out_proj.bias"> : tensor<1280xf16>
  util.global private @__auto.text_encoder_model_2.text_model.encoder.layers.22.layer_norm2.weight = #stream.parameter.named<"model"::"text_encoder_model_2.text_model.encoder.layers.22.layer_norm2.weight"> : tensor<1280xf16>
  util.global private @__auto.text_encoder_model_2.text_model.encoder.layers.22.layer_norm2.bias = #stream.parameter.named<"model"::"text_encoder_model_2.text_model.encoder.layers.22.layer_norm2.bias"> : tensor<1280xf16>
  util.global private @__auto.text_encoder_model_2.text_model.encoder.layers.22.mlp.fc1.weight = #stream.parameter.named<"model"::"text_encoder_model_2.text_model.encoder.layers.22.mlp.fc1.weight"> : tensor<5120x1280xf16>
  util.global private @__auto.text_encoder_model_2.text_model.encoder.layers.22.mlp.fc1.bias = #stream.parameter.named<"model"::"text_encoder_model_2.text_model.encoder.layers.22.mlp.fc1.bias"> : tensor<5120xf16>
  util.global private @__auto.text_encoder_model_2.text_model.encoder.layers.22.mlp.fc2.weight = #stream.parameter.named<"model"::"text_encoder_model_2.text_model.encoder.layers.22.mlp.fc2.weight"> : tensor<1280x5120xf16>
  util.global private @__auto.text_encoder_model_2.text_model.encoder.layers.22.mlp.fc2.bias = #stream.parameter.named<"model"::"text_encoder_model_2.text_model.encoder.layers.22.mlp.fc2.bias"> : tensor<1280xf16>
  util.global private @__auto.text_encoder_model_2.text_model.encoder.layers.23.layer_norm1.weight = #stream.parameter.named<"model"::"text_encoder_model_2.text_model.encoder.layers.23.layer_norm1.weight"> : tensor<1280xf16>
  util.global private @__auto.text_encoder_model_2.text_model.encoder.layers.23.layer_norm1.bias = #stream.parameter.named<"model"::"text_encoder_model_2.text_model.encoder.layers.23.layer_norm1.bias"> : tensor<1280xf16>
  util.global private @__auto.text_encoder_model_2.text_model.encoder.layers.23.self_attn.q_proj.weight = #stream.parameter.named<"model"::"text_encoder_model_2.text_model.encoder.layers.23.self_attn.q_proj.weight"> : tensor<1280x1280xf16>
  util.global private @__auto.text_encoder_model_2.text_model.encoder.layers.23.self_attn.q_proj.bias = #stream.parameter.named<"model"::"text_encoder_model_2.text_model.encoder.layers.23.self_attn.q_proj.bias"> : tensor<1280xf16>
  util.global private @__auto.text_encoder_model_2.text_model.encoder.layers.23.self_attn.k_proj.weight = #stream.parameter.named<"model"::"text_encoder_model_2.text_model.encoder.layers.23.self_attn.k_proj.weight"> : tensor<1280x1280xf16>
  util.global private @__auto.text_encoder_model_2.text_model.encoder.layers.23.self_attn.k_proj.bias = #stream.parameter.named<"model"::"text_encoder_model_2.text_model.encoder.layers.23.self_attn.k_proj.bias"> : tensor<1280xf16>
  util.global private @__auto.text_encoder_model_2.text_model.encoder.layers.23.self_attn.v_proj.weight = #stream.parameter.named<"model"::"text_encoder_model_2.text_model.encoder.layers.23.self_attn.v_proj.weight"> : tensor<1280x1280xf16>
  util.global private @__auto.text_encoder_model_2.text_model.encoder.layers.23.self_attn.v_proj.bias = #stream.parameter.named<"model"::"text_encoder_model_2.text_model.encoder.layers.23.self_attn.v_proj.bias"> : tensor<1280xf16>
  util.global private @__auto.text_encoder_model_2.text_model.encoder.layers.23.self_attn.out_proj.weight = #stream.parameter.named<"model"::"text_encoder_model_2.text_model.encoder.layers.23.self_attn.out_proj.weight"> : tensor<1280x1280xf16>
  util.global private @__auto.text_encoder_model_2.text_model.encoder.layers.23.self_attn.out_proj.bias = #stream.parameter.named<"model"::"text_encoder_model_2.text_model.encoder.layers.23.self_attn.out_proj.bias"> : tensor<1280xf16>
  util.global private @__auto.text_encoder_model_2.text_model.encoder.layers.23.layer_norm2.weight = #stream.parameter.named<"model"::"text_encoder_model_2.text_model.encoder.layers.23.layer_norm2.weight"> : tensor<1280xf16>
  util.global private @__auto.text_encoder_model_2.text_model.encoder.layers.23.layer_norm2.bias = #stream.parameter.named<"model"::"text_encoder_model_2.text_model.encoder.layers.23.layer_norm2.bias"> : tensor<1280xf16>
  util.global private @__auto.text_encoder_model_2.text_model.encoder.layers.23.mlp.fc1.weight = #stream.parameter.named<"model"::"text_encoder_model_2.text_model.encoder.layers.23.mlp.fc1.weight"> : tensor<5120x1280xf16>
  util.global private @__auto.text_encoder_model_2.text_model.encoder.layers.23.mlp.fc1.bias = #stream.parameter.named<"model"::"text_encoder_model_2.text_model.encoder.layers.23.mlp.fc1.bias"> : tensor<5120xf16>
  util.global private @__auto.text_encoder_model_2.text_model.encoder.layers.23.mlp.fc2.weight = #stream.parameter.named<"model"::"text_encoder_model_2.text_model.encoder.layers.23.mlp.fc2.weight"> : tensor<1280x5120xf16>
  util.global private @__auto.text_encoder_model_2.text_model.encoder.layers.23.mlp.fc2.bias = #stream.parameter.named<"model"::"text_encoder_model_2.text_model.encoder.layers.23.mlp.fc2.bias"> : tensor<1280xf16>
  util.global private @__auto.text_encoder_model_2.text_model.encoder.layers.24.layer_norm1.weight = #stream.parameter.named<"model"::"text_encoder_model_2.text_model.encoder.layers.24.layer_norm1.weight"> : tensor<1280xf16>
  util.global private @__auto.text_encoder_model_2.text_model.encoder.layers.24.layer_norm1.bias = #stream.parameter.named<"model"::"text_encoder_model_2.text_model.encoder.layers.24.layer_norm1.bias"> : tensor<1280xf16>
  util.global private @__auto.text_encoder_model_2.text_model.encoder.layers.24.self_attn.q_proj.weight = #stream.parameter.named<"model"::"text_encoder_model_2.text_model.encoder.layers.24.self_attn.q_proj.weight"> : tensor<1280x1280xf16>
  util.global private @__auto.text_encoder_model_2.text_model.encoder.layers.24.self_attn.q_proj.bias = #stream.parameter.named<"model"::"text_encoder_model_2.text_model.encoder.layers.24.self_attn.q_proj.bias"> : tensor<1280xf16>
  util.global private @__auto.text_encoder_model_2.text_model.encoder.layers.24.self_attn.k_proj.weight = #stream.parameter.named<"model"::"text_encoder_model_2.text_model.encoder.layers.24.self_attn.k_proj.weight"> : tensor<1280x1280xf16>
  util.global private @__auto.text_encoder_model_2.text_model.encoder.layers.24.self_attn.k_proj.bias = #stream.parameter.named<"model"::"text_encoder_model_2.text_model.encoder.layers.24.self_attn.k_proj.bias"> : tensor<1280xf16>
  util.global private @__auto.text_encoder_model_2.text_model.encoder.layers.24.self_attn.v_proj.weight = #stream.parameter.named<"model"::"text_encoder_model_2.text_model.encoder.layers.24.self_attn.v_proj.weight"> : tensor<1280x1280xf16>
  util.global private @__auto.text_encoder_model_2.text_model.encoder.layers.24.self_attn.v_proj.bias = #stream.parameter.named<"model"::"text_encoder_model_2.text_model.encoder.layers.24.self_attn.v_proj.bias"> : tensor<1280xf16>
  util.global private @__auto.text_encoder_model_2.text_model.encoder.layers.24.self_attn.out_proj.weight = #stream.parameter.named<"model"::"text_encoder_model_2.text_model.encoder.layers.24.self_attn.out_proj.weight"> : tensor<1280x1280xf16>
  util.global private @__auto.text_encoder_model_2.text_model.encoder.layers.24.self_attn.out_proj.bias = #stream.parameter.named<"model"::"text_encoder_model_2.text_model.encoder.layers.24.self_attn.out_proj.bias"> : tensor<1280xf16>
  util.global private @__auto.text_encoder_model_2.text_model.encoder.layers.24.layer_norm2.weight = #stream.parameter.named<"model"::"text_encoder_model_2.text_model.encoder.layers.24.layer_norm2.weight"> : tensor<1280xf16>
  util.global private @__auto.text_encoder_model_2.text_model.encoder.layers.24.layer_norm2.bias = #stream.parameter.named<"model"::"text_encoder_model_2.text_model.encoder.layers.24.layer_norm2.bias"> : tensor<1280xf16>
  util.global private @__auto.text_encoder_model_2.text_model.encoder.layers.24.mlp.fc1.weight = #stream.parameter.named<"model"::"text_encoder_model_2.text_model.encoder.layers.24.mlp.fc1.weight"> : tensor<5120x1280xf16>
  util.global private @__auto.text_encoder_model_2.text_model.encoder.layers.24.mlp.fc1.bias = #stream.parameter.named<"model"::"text_encoder_model_2.text_model.encoder.layers.24.mlp.fc1.bias"> : tensor<5120xf16>
  util.global private @__auto.text_encoder_model_2.text_model.encoder.layers.24.mlp.fc2.weight = #stream.parameter.named<"model"::"text_encoder_model_2.text_model.encoder.layers.24.mlp.fc2.weight"> : tensor<1280x5120xf16>
  util.global private @__auto.text_encoder_model_2.text_model.encoder.layers.24.mlp.fc2.bias = #stream.parameter.named<"model"::"text_encoder_model_2.text_model.encoder.layers.24.mlp.fc2.bias"> : tensor<1280xf16>
  util.global private @__auto.text_encoder_model_2.text_model.encoder.layers.25.layer_norm1.weight = #stream.parameter.named<"model"::"text_encoder_model_2.text_model.encoder.layers.25.layer_norm1.weight"> : tensor<1280xf16>
  util.global private @__auto.text_encoder_model_2.text_model.encoder.layers.25.layer_norm1.bias = #stream.parameter.named<"model"::"text_encoder_model_2.text_model.encoder.layers.25.layer_norm1.bias"> : tensor<1280xf16>
  util.global private @__auto.text_encoder_model_2.text_model.encoder.layers.25.self_attn.q_proj.weight = #stream.parameter.named<"model"::"text_encoder_model_2.text_model.encoder.layers.25.self_attn.q_proj.weight"> : tensor<1280x1280xf16>
  util.global private @__auto.text_encoder_model_2.text_model.encoder.layers.25.self_attn.q_proj.bias = #stream.parameter.named<"model"::"text_encoder_model_2.text_model.encoder.layers.25.self_attn.q_proj.bias"> : tensor<1280xf16>
  util.global private @__auto.text_encoder_model_2.text_model.encoder.layers.25.self_attn.k_proj.weight = #stream.parameter.named<"model"::"text_encoder_model_2.text_model.encoder.layers.25.self_attn.k_proj.weight"> : tensor<1280x1280xf16>
  util.global private @__auto.text_encoder_model_2.text_model.encoder.layers.25.self_attn.k_proj.bias = #stream.parameter.named<"model"::"text_encoder_model_2.text_model.encoder.layers.25.self_attn.k_proj.bias"> : tensor<1280xf16>
  util.global private @__auto.text_encoder_model_2.text_model.encoder.layers.25.self_attn.v_proj.weight = #stream.parameter.named<"model"::"text_encoder_model_2.text_model.encoder.layers.25.self_attn.v_proj.weight"> : tensor<1280x1280xf16>
  util.global private @__auto.text_encoder_model_2.text_model.encoder.layers.25.self_attn.v_proj.bias = #stream.parameter.named<"model"::"text_encoder_model_2.text_model.encoder.layers.25.self_attn.v_proj.bias"> : tensor<1280xf16>
  util.global private @__auto.text_encoder_model_2.text_model.encoder.layers.25.self_attn.out_proj.weight = #stream.parameter.named<"model"::"text_encoder_model_2.text_model.encoder.layers.25.self_attn.out_proj.weight"> : tensor<1280x1280xf16>
  util.global private @__auto.text_encoder_model_2.text_model.encoder.layers.25.self_attn.out_proj.bias = #stream.parameter.named<"model"::"text_encoder_model_2.text_model.encoder.layers.25.self_attn.out_proj.bias"> : tensor<1280xf16>
  util.global private @__auto.text_encoder_model_2.text_model.encoder.layers.25.layer_norm2.weight = #stream.parameter.named<"model"::"text_encoder_model_2.text_model.encoder.layers.25.layer_norm2.weight"> : tensor<1280xf16>
  util.global private @__auto.text_encoder_model_2.text_model.encoder.layers.25.layer_norm2.bias = #stream.parameter.named<"model"::"text_encoder_model_2.text_model.encoder.layers.25.layer_norm2.bias"> : tensor<1280xf16>
  util.global private @__auto.text_encoder_model_2.text_model.encoder.layers.25.mlp.fc1.weight = #stream.parameter.named<"model"::"text_encoder_model_2.text_model.encoder.layers.25.mlp.fc1.weight"> : tensor<5120x1280xf16>
  util.global private @__auto.text_encoder_model_2.text_model.encoder.layers.25.mlp.fc1.bias = #stream.parameter.named<"model"::"text_encoder_model_2.text_model.encoder.layers.25.mlp.fc1.bias"> : tensor<5120xf16>
  util.global private @__auto.text_encoder_model_2.text_model.encoder.layers.25.mlp.fc2.weight = #stream.parameter.named<"model"::"text_encoder_model_2.text_model.encoder.layers.25.mlp.fc2.weight"> : tensor<1280x5120xf16>
  util.global private @__auto.text_encoder_model_2.text_model.encoder.layers.25.mlp.fc2.bias = #stream.parameter.named<"model"::"text_encoder_model_2.text_model.encoder.layers.25.mlp.fc2.bias"> : tensor<1280xf16>
  util.global private @__auto.text_encoder_model_2.text_model.encoder.layers.26.layer_norm1.weight = #stream.parameter.named<"model"::"text_encoder_model_2.text_model.encoder.layers.26.layer_norm1.weight"> : tensor<1280xf16>
  util.global private @__auto.text_encoder_model_2.text_model.encoder.layers.26.layer_norm1.bias = #stream.parameter.named<"model"::"text_encoder_model_2.text_model.encoder.layers.26.layer_norm1.bias"> : tensor<1280xf16>
  util.global private @__auto.text_encoder_model_2.text_model.encoder.layers.26.self_attn.q_proj.weight = #stream.parameter.named<"model"::"text_encoder_model_2.text_model.encoder.layers.26.self_attn.q_proj.weight"> : tensor<1280x1280xf16>
  util.global private @__auto.text_encoder_model_2.text_model.encoder.layers.26.self_attn.q_proj.bias = #stream.parameter.named<"model"::"text_encoder_model_2.text_model.encoder.layers.26.self_attn.q_proj.bias"> : tensor<1280xf16>
  util.global private @__auto.text_encoder_model_2.text_model.encoder.layers.26.self_attn.k_proj.weight = #stream.parameter.named<"model"::"text_encoder_model_2.text_model.encoder.layers.26.self_attn.k_proj.weight"> : tensor<1280x1280xf16>
  util.global private @__auto.text_encoder_model_2.text_model.encoder.layers.26.self_attn.k_proj.bias = #stream.parameter.named<"model"::"text_encoder_model_2.text_model.encoder.layers.26.self_attn.k_proj.bias"> : tensor<1280xf16>
  util.global private @__auto.text_encoder_model_2.text_model.encoder.layers.26.self_attn.v_proj.weight = #stream.parameter.named<"model"::"text_encoder_model_2.text_model.encoder.layers.26.self_attn.v_proj.weight"> : tensor<1280x1280xf16>
  util.global private @__auto.text_encoder_model_2.text_model.encoder.layers.26.self_attn.v_proj.bias = #stream.parameter.named<"model"::"text_encoder_model_2.text_model.encoder.layers.26.self_attn.v_proj.bias"> : tensor<1280xf16>
  util.global private @__auto.text_encoder_model_2.text_model.encoder.layers.26.self_attn.out_proj.weight = #stream.parameter.named<"model"::"text_encoder_model_2.text_model.encoder.layers.26.self_attn.out_proj.weight"> : tensor<1280x1280xf16>
  util.global private @__auto.text_encoder_model_2.text_model.encoder.layers.26.self_attn.out_proj.bias = #stream.parameter.named<"model"::"text_encoder_model_2.text_model.encoder.layers.26.self_attn.out_proj.bias"> : tensor<1280xf16>
  util.global private @__auto.text_encoder_model_2.text_model.encoder.layers.26.layer_norm2.weight = #stream.parameter.named<"model"::"text_encoder_model_2.text_model.encoder.layers.26.layer_norm2.weight"> : tensor<1280xf16>
  util.global private @__auto.text_encoder_model_2.text_model.encoder.layers.26.layer_norm2.bias = #stream.parameter.named<"model"::"text_encoder_model_2.text_model.encoder.layers.26.layer_norm2.bias"> : tensor<1280xf16>
  util.global private @__auto.text_encoder_model_2.text_model.encoder.layers.26.mlp.fc1.weight = #stream.parameter.named<"model"::"text_encoder_model_2.text_model.encoder.layers.26.mlp.fc1.weight"> : tensor<5120x1280xf16>
  util.global private @__auto.text_encoder_model_2.text_model.encoder.layers.26.mlp.fc1.bias = #stream.parameter.named<"model"::"text_encoder_model_2.text_model.encoder.layers.26.mlp.fc1.bias"> : tensor<5120xf16>
  util.global private @__auto.text_encoder_model_2.text_model.encoder.layers.26.mlp.fc2.weight = #stream.parameter.named<"model"::"text_encoder_model_2.text_model.encoder.layers.26.mlp.fc2.weight"> : tensor<1280x5120xf16>
  util.global private @__auto.text_encoder_model_2.text_model.encoder.layers.26.mlp.fc2.bias = #stream.parameter.named<"model"::"text_encoder_model_2.text_model.encoder.layers.26.mlp.fc2.bias"> : tensor<1280xf16>
  util.global private @__auto.text_encoder_model_2.text_model.encoder.layers.27.layer_norm1.weight = #stream.parameter.named<"model"::"text_encoder_model_2.text_model.encoder.layers.27.layer_norm1.weight"> : tensor<1280xf16>
  util.global private @__auto.text_encoder_model_2.text_model.encoder.layers.27.layer_norm1.bias = #stream.parameter.named<"model"::"text_encoder_model_2.text_model.encoder.layers.27.layer_norm1.bias"> : tensor<1280xf16>
  util.global private @__auto.text_encoder_model_2.text_model.encoder.layers.27.self_attn.q_proj.weight = #stream.parameter.named<"model"::"text_encoder_model_2.text_model.encoder.layers.27.self_attn.q_proj.weight"> : tensor<1280x1280xf16>
  util.global private @__auto.text_encoder_model_2.text_model.encoder.layers.27.self_attn.q_proj.bias = #stream.parameter.named<"model"::"text_encoder_model_2.text_model.encoder.layers.27.self_attn.q_proj.bias"> : tensor<1280xf16>
  util.global private @__auto.text_encoder_model_2.text_model.encoder.layers.27.self_attn.k_proj.weight = #stream.parameter.named<"model"::"text_encoder_model_2.text_model.encoder.layers.27.self_attn.k_proj.weight"> : tensor<1280x1280xf16>
  util.global private @__auto.text_encoder_model_2.text_model.encoder.layers.27.self_attn.k_proj.bias = #stream.parameter.named<"model"::"text_encoder_model_2.text_model.encoder.layers.27.self_attn.k_proj.bias"> : tensor<1280xf16>
  util.global private @__auto.text_encoder_model_2.text_model.encoder.layers.27.self_attn.v_proj.weight = #stream.parameter.named<"model"::"text_encoder_model_2.text_model.encoder.layers.27.self_attn.v_proj.weight"> : tensor<1280x1280xf16>
  util.global private @__auto.text_encoder_model_2.text_model.encoder.layers.27.self_attn.v_proj.bias = #stream.parameter.named<"model"::"text_encoder_model_2.text_model.encoder.layers.27.self_attn.v_proj.bias"> : tensor<1280xf16>
  util.global private @__auto.text_encoder_model_2.text_model.encoder.layers.27.self_attn.out_proj.weight = #stream.parameter.named<"model"::"text_encoder_model_2.text_model.encoder.layers.27.self_attn.out_proj.weight"> : tensor<1280x1280xf16>
  util.global private @__auto.text_encoder_model_2.text_model.encoder.layers.27.self_attn.out_proj.bias = #stream.parameter.named<"model"::"text_encoder_model_2.text_model.encoder.layers.27.self_attn.out_proj.bias"> : tensor<1280xf16>
  util.global private @__auto.text_encoder_model_2.text_model.encoder.layers.27.layer_norm2.weight = #stream.parameter.named<"model"::"text_encoder_model_2.text_model.encoder.layers.27.layer_norm2.weight"> : tensor<1280xf16>
  util.global private @__auto.text_encoder_model_2.text_model.encoder.layers.27.layer_norm2.bias = #stream.parameter.named<"model"::"text_encoder_model_2.text_model.encoder.layers.27.layer_norm2.bias"> : tensor<1280xf16>
  util.global private @__auto.text_encoder_model_2.text_model.encoder.layers.27.mlp.fc1.weight = #stream.parameter.named<"model"::"text_encoder_model_2.text_model.encoder.layers.27.mlp.fc1.weight"> : tensor<5120x1280xf16>
  util.global private @__auto.text_encoder_model_2.text_model.encoder.layers.27.mlp.fc1.bias = #stream.parameter.named<"model"::"text_encoder_model_2.text_model.encoder.layers.27.mlp.fc1.bias"> : tensor<5120xf16>
  util.global private @__auto.text_encoder_model_2.text_model.encoder.layers.27.mlp.fc2.weight = #stream.parameter.named<"model"::"text_encoder_model_2.text_model.encoder.layers.27.mlp.fc2.weight"> : tensor<1280x5120xf16>
  util.global private @__auto.text_encoder_model_2.text_model.encoder.layers.27.mlp.fc2.bias = #stream.parameter.named<"model"::"text_encoder_model_2.text_model.encoder.layers.27.mlp.fc2.bias"> : tensor<1280xf16>
  util.global private @__auto.text_encoder_model_2.text_model.encoder.layers.28.layer_norm1.weight = #stream.parameter.named<"model"::"text_encoder_model_2.text_model.encoder.layers.28.layer_norm1.weight"> : tensor<1280xf16>
  util.global private @__auto.text_encoder_model_2.text_model.encoder.layers.28.layer_norm1.bias = #stream.parameter.named<"model"::"text_encoder_model_2.text_model.encoder.layers.28.layer_norm1.bias"> : tensor<1280xf16>
  util.global private @__auto.text_encoder_model_2.text_model.encoder.layers.28.self_attn.q_proj.weight = #stream.parameter.named<"model"::"text_encoder_model_2.text_model.encoder.layers.28.self_attn.q_proj.weight"> : tensor<1280x1280xf16>
  util.global private @__auto.text_encoder_model_2.text_model.encoder.layers.28.self_attn.q_proj.bias = #stream.parameter.named<"model"::"text_encoder_model_2.text_model.encoder.layers.28.self_attn.q_proj.bias"> : tensor<1280xf16>
  util.global private @__auto.text_encoder_model_2.text_model.encoder.layers.28.self_attn.k_proj.weight = #stream.parameter.named<"model"::"text_encoder_model_2.text_model.encoder.layers.28.self_attn.k_proj.weight"> : tensor<1280x1280xf16>
  util.global private @__auto.text_encoder_model_2.text_model.encoder.layers.28.self_attn.k_proj.bias = #stream.parameter.named<"model"::"text_encoder_model_2.text_model.encoder.layers.28.self_attn.k_proj.bias"> : tensor<1280xf16>
  util.global private @__auto.text_encoder_model_2.text_model.encoder.layers.28.self_attn.v_proj.weight = #stream.parameter.named<"model"::"text_encoder_model_2.text_model.encoder.layers.28.self_attn.v_proj.weight"> : tensor<1280x1280xf16>
  util.global private @__auto.text_encoder_model_2.text_model.encoder.layers.28.self_attn.v_proj.bias = #stream.parameter.named<"model"::"text_encoder_model_2.text_model.encoder.layers.28.self_attn.v_proj.bias"> : tensor<1280xf16>
  util.global private @__auto.text_encoder_model_2.text_model.encoder.layers.28.self_attn.out_proj.weight = #stream.parameter.named<"model"::"text_encoder_model_2.text_model.encoder.layers.28.self_attn.out_proj.weight"> : tensor<1280x1280xf16>
  util.global private @__auto.text_encoder_model_2.text_model.encoder.layers.28.self_attn.out_proj.bias = #stream.parameter.named<"model"::"text_encoder_model_2.text_model.encoder.layers.28.self_attn.out_proj.bias"> : tensor<1280xf16>
  util.global private @__auto.text_encoder_model_2.text_model.encoder.layers.28.layer_norm2.weight = #stream.parameter.named<"model"::"text_encoder_model_2.text_model.encoder.layers.28.layer_norm2.weight"> : tensor<1280xf16>
  util.global private @__auto.text_encoder_model_2.text_model.encoder.layers.28.layer_norm2.bias = #stream.parameter.named<"model"::"text_encoder_model_2.text_model.encoder.layers.28.layer_norm2.bias"> : tensor<1280xf16>
  util.global private @__auto.text_encoder_model_2.text_model.encoder.layers.28.mlp.fc1.weight = #stream.parameter.named<"model"::"text_encoder_model_2.text_model.encoder.layers.28.mlp.fc1.weight"> : tensor<5120x1280xf16>
  util.global private @__auto.text_encoder_model_2.text_model.encoder.layers.28.mlp.fc1.bias = #stream.parameter.named<"model"::"text_encoder_model_2.text_model.encoder.layers.28.mlp.fc1.bias"> : tensor<5120xf16>
  util.global private @__auto.text_encoder_model_2.text_model.encoder.layers.28.mlp.fc2.weight = #stream.parameter.named<"model"::"text_encoder_model_2.text_model.encoder.layers.28.mlp.fc2.weight"> : tensor<1280x5120xf16>
  util.global private @__auto.text_encoder_model_2.text_model.encoder.layers.28.mlp.fc2.bias = #stream.parameter.named<"model"::"text_encoder_model_2.text_model.encoder.layers.28.mlp.fc2.bias"> : tensor<1280xf16>
  util.global private @__auto.text_encoder_model_2.text_model.encoder.layers.29.layer_norm1.weight = #stream.parameter.named<"model"::"text_encoder_model_2.text_model.encoder.layers.29.layer_norm1.weight"> : tensor<1280xf16>
  util.global private @__auto.text_encoder_model_2.text_model.encoder.layers.29.layer_norm1.bias = #stream.parameter.named<"model"::"text_encoder_model_2.text_model.encoder.layers.29.layer_norm1.bias"> : tensor<1280xf16>
  util.global private @__auto.text_encoder_model_2.text_model.encoder.layers.29.self_attn.q_proj.weight = #stream.parameter.named<"model"::"text_encoder_model_2.text_model.encoder.layers.29.self_attn.q_proj.weight"> : tensor<1280x1280xf16>
  util.global private @__auto.text_encoder_model_2.text_model.encoder.layers.29.self_attn.q_proj.bias = #stream.parameter.named<"model"::"text_encoder_model_2.text_model.encoder.layers.29.self_attn.q_proj.bias"> : tensor<1280xf16>
  util.global private @__auto.text_encoder_model_2.text_model.encoder.layers.29.self_attn.k_proj.weight = #stream.parameter.named<"model"::"text_encoder_model_2.text_model.encoder.layers.29.self_attn.k_proj.weight"> : tensor<1280x1280xf16>
  util.global private @__auto.text_encoder_model_2.text_model.encoder.layers.29.self_attn.k_proj.bias = #stream.parameter.named<"model"::"text_encoder_model_2.text_model.encoder.layers.29.self_attn.k_proj.bias"> : tensor<1280xf16>
  util.global private @__auto.text_encoder_model_2.text_model.encoder.layers.29.self_attn.v_proj.weight = #stream.parameter.named<"model"::"text_encoder_model_2.text_model.encoder.layers.29.self_attn.v_proj.weight"> : tensor<1280x1280xf16>
  util.global private @__auto.text_encoder_model_2.text_model.encoder.layers.29.self_attn.v_proj.bias = #stream.parameter.named<"model"::"text_encoder_model_2.text_model.encoder.layers.29.self_attn.v_proj.bias"> : tensor<1280xf16>
  util.global private @__auto.text_encoder_model_2.text_model.encoder.layers.29.self_attn.out_proj.weight = #stream.parameter.named<"model"::"text_encoder_model_2.text_model.encoder.layers.29.self_attn.out_proj.weight"> : tensor<1280x1280xf16>
  util.global private @__auto.text_encoder_model_2.text_model.encoder.layers.29.self_attn.out_proj.bias = #stream.parameter.named<"model"::"text_encoder_model_2.text_model.encoder.layers.29.self_attn.out_proj.bias"> : tensor<1280xf16>
  util.global private @__auto.text_encoder_model_2.text_model.encoder.layers.29.layer_norm2.weight = #stream.parameter.named<"model"::"text_encoder_model_2.text_model.encoder.layers.29.layer_norm2.weight"> : tensor<1280xf16>
  util.global private @__auto.text_encoder_model_2.text_model.encoder.layers.29.layer_norm2.bias = #stream.parameter.named<"model"::"text_encoder_model_2.text_model.encoder.layers.29.layer_norm2.bias"> : tensor<1280xf16>
  util.global private @__auto.text_encoder_model_2.text_model.encoder.layers.29.mlp.fc1.weight = #stream.parameter.named<"model"::"text_encoder_model_2.text_model.encoder.layers.29.mlp.fc1.weight"> : tensor<5120x1280xf16>
  util.global private @__auto.text_encoder_model_2.text_model.encoder.layers.29.mlp.fc1.bias = #stream.parameter.named<"model"::"text_encoder_model_2.text_model.encoder.layers.29.mlp.fc1.bias"> : tensor<5120xf16>
…
    %int1280_13968 = torch.constant.int 1280
    %12164 = torch.prim.ListConstruct %int20_13966, %int64_13967, %int1280_13968 : (!torch.int, !torch.int, !torch.int) -> !torch.list<int>
    %12165 = torch.aten.view %12163, %12164 : !torch.vtensor<[1280,1280],f16>, !torch.list<int> -> !torch.vtensor<[20,64,1280],f16>
    %int20_13969 = torch.constant.int 20
    %int-1_13970 = torch.constant.int -1
    %int20_13971 = torch.constant.int 20
    %int64_13972 = torch.constant.int 64
    %12166 = torch.prim.ListConstruct %int20_13969, %int-1_13970, %int20_13971, %int64_13972 : (!torch.int, !torch.int, !torch.int, !torch.int) -> !torch.list<int>
    %12167 = torch.aten.view %12165, %12166 : !torch.vtensor<[20,64,1280],f16>, !torch.list<int> -> !torch.vtensor<[20,64,20,64],f16>
    %int1_13973 = torch.constant.int 1
    %int2_13974 = torch.constant.int 2
    %12168 = torch.aten.transpose.int %12167, %int1_13973, %int2_13974 : !torch.vtensor<[20,64,20,64],f16>, !torch.int, !torch.int -> !torch.vtensor<[20,20,64,64],f16>
    %int0_13975 = torch.constant.int 0
    %12169 = torch.aten.clone %12168, %int0_13975 : !torch.vtensor<[20,20,64,64],f16>, !torch.int -> !torch.vtensor<[20,20,64,64],f16>
    %int20_13976 = torch.constant.int 20
    %int64_13977 = torch.constant.int 64
    %int20_13978 = torch.constant.int 20
    %int64_13979 = torch.constant.int 64
    %12170 = torch.prim.ListConstruct %int20_13976, %int64_13977, %int20_13978, %int64_13979 : (!torch.int, !torch.int, !torch.int, !torch.int) -> !torch.list<int>
    %12171 = torch.aten.view %12135, %12170 : !torch.vtensor<[20,64,1280],f16>, !torch.list<int> -> !torch.vtensor<[20,64,20,64],f16>
    %int1_13980 = torch.constant.int 1
    %int2_13981 = torch.constant.int 2
    %12172 = torch.aten.transpose.int %12171, %int1_13980, %int2_13981 : !torch.vtensor<[20,64,20,64],f16>, !torch.int, !torch.int -> !torch.vtensor<[20,20,64,64],f16>
    %int0_13982 = torch.constant.int 0
    %12173 = torch.aten.clone %12172, %int0_13982 : !torch.vtensor<[20,20,64,64],f16>, !torch.int -> !torch.vtensor<[20,20,64,64],f16>
    %int400_13983 = torch.constant.int 400
    %int-1_13984 = torch.constant.int -1
    %int64_13985 = torch.constant.int 64
    %12174 = torch.prim.ListConstruct %int400_13983, %int-1_13984, %int64_13985 : (!torch.int, !torch.int, !torch.int) -> !torch.list<int>
    %12175 = torch.aten.view %12173, %12174 : !torch.vtensor<[20,20,64,64],f16>, !torch.list<int> -> !torch.vtensor<[400,64,64],f16>
    %int400_13986 = torch.constant.int 400
    %int-1_13987 = torch.constant.int -1
    %int64_13988 = torch.constant.int 64
    %12176 = torch.prim.ListConstruct %int400_13986, %int-1_13987, %int64_13988 : (!torch.int, !torch.int, !torch.int) -> !torch.list<int>
    %12177 = torch.aten.view %12152, %12176 : !torch.vtensor<[20,20,64,64],f16>, !torch.list<int> -> !torch.vtensor<[400,64,64],f16>
    %int400_13989 = torch.constant.int 400
    %int-1_13990 = torch.constant.int -1
    %int64_13991 = torch.constant.int 64
    %12178 = torch.prim.ListConstruct %int400_13989, %int-1_13990, %int64_13991 : (!torch.int, !torch.int, !torch.int) -> !torch.list<int>
    %12179 = torch.aten.view %12169, %12178 : !torch.vtensor<[20,20,64,64],f16>, !torch.list<int> -> !torch.vtensor<[400,64,64],f16>
    %int1_13992 = torch.constant.int 1
    %int2_13993 = torch.constant.int 2
    %12180 = torch.aten.transpose.int %12177, %int1_13992, %int2_13993 : !torch.vtensor<[400,64,64],f16>, !torch.int, !torch.int -> !torch.vtensor<[400,64,64],f16>
    %12181 = torch.aten.bmm %12175, %12180 : !torch.vtensor<[400,64,64],f16>, !torch.vtensor<[400,64,64],f16> -> !torch.vtensor<[400,64,64],f16>
    %int20_13994 = torch.constant.int 20
    %int20_13995 = torch.constant.int 20
    %int64_13996 = torch.constant.int 64
    %int64_13997 = torch.constant.int 64
    %12182 = torch.prim.ListConstruct %int20_13994, %int20_13995, %int64_13996, %int64_13997 : (!torch.int, !torch.int, !torch.int, !torch.int) -> !torch.list<int>
    %12183 = torch.aten.view %12181, %12182 : !torch.vtensor<[400,64,64],f16>, !torch.list<int> -> !torch.vtensor<[20,20,64,64],f16>
    %int1_13998 = torch.constant.int 1
    %12184 = torch.aten.add.Tensor %12183, %8092, %int1_13998 : !torch.vtensor<[20,20,64,64],f16>, !torch.vtensor<[20,1,64,64],f16>, !torch.int -> !torch.vtensor<[20,20,64,64],f16>
    %int400_13999 = torch.constant.int 400
    %int64_14000 = torch.constant.int 64
    %int64_14001 = torch.constant.int 64
    %12185 = torch.prim.ListConstruct %int400_13999, %int64_14000, %int64_14001 : (!torch.int, !torch.int, !torch.int) -> !torch.list<int>
    %12186 = torch.aten.view %12184, %12185 : !torch.vtensor<[20,20,64,64],f16>, !torch.list<int> -> !torch.vtensor<[400,64,64],f16>
    %int-1_14002 = torch.constant.int -1
    %false_14003 = torch.constant.bool false
    %12187 = torch.aten._softmax %12186, %int-1_14002, %false_14003 : !torch.vtensor<[400,64,64],f16>, !torch.int, !torch.bool -> !torch.vtensor<[400,64,64],f16>
    %none_14004 = torch.constant.none
    %12188 = torch.aten.clone %12187, %none_14004 : !torch.vtensor<[400,64,64],f16>, !torch.none -> !torch.vtensor<[400,64,64],f16>
    %12189 = torch.aten.bmm %12188, %12179 : !torch.vtensor<[400,64,64],f16>, !torch.vtensor<[400,64,64],f16> -> !torch.vtensor<[400,64,64],f16>
    %int20_14005 = torch.constant.int 20
    %int20_14006 = torch.constant.int 20
    %int64_14007 = torch.constant.int 64
    %int64_14008 = torch.constant.int 64
    %12190 = torch.prim.ListConstruct %int20_14005, %int20_14006, %int64_14007, %int64_14008 : (!torch.int, !torch.int, !torch.int, !torch.int) -> !torch.list<int>
    %12191 = torch.aten.view %12189, %12190 : !torch.vtensor<[400,64,64],f16>, !torch.list<int> -> !torch.vtensor<[20,20,64,64],f16>
    %int1_14009 = torch.constant.int 1
    %int2_14010 = torch.constant.int 2
    %12192 = torch.aten.transpose.int %12191, %int1_14009, %int2_14010 : !torch.vtensor<[20,20,64,64],f16>, !torch.int, !torch.int -> !torch.vtensor<[20,64,20,64],f16>
    %int0_14011 = torch.constant.int 0
    %12193 = torch.aten.clone %12192, %int0_14011 : !torch.vtensor<[20,64,20,64],f16>, !torch.int -> !torch.vtensor<[20,64,20,64],f16>
    %int20_14012 = torch.constant.int 20
    %int64_14013 = torch.constant.int 64
    %int1280_14014 = torch.constant.int 1280
    %12194 = torch.prim.ListConstruct %int20_14012, %int64_14013, %int1280_14014 : (!torch.int, !torch.int, !torch.int) -> !torch.list<int>
    %12195 = torch.aten._unsafe_view %12193, %12194 : !torch.vtensor<[20,64,20,64],f16>, !torch.list<int> -> !torch.vtensor<[20,64,1280],f16>
    %int1280_14015 = torch.constant.int 1280
    %int1280_14016 = torch.constant.int 1280
    %12196 = torch.prim.ListConstruct %int1280_14015, %int1280_14016 : (!torch.int, !torch.int) -> !torch.list<int>
    %12197 = torch.aten.view %12195, %12196 : !torch.vtensor<[20,64,1280],f16>, !torch.list<int> -> !torch.vtensor<[1280,1280],f16>
    %int0_14017 = torch.constant.int 0
    %int1_14018 = torch.constant.int 1
    %12198 = torch.aten.transpose.int %6321, %int0_14017, %int1_14018 : !torch.vtensor<[1280,1280],f16>, !torch.int, !torch.int -> !torch.vtensor<[1280,1280],f16>
    %int6_14019 = torch.constant.int 6
    %12199 = torch.prims.convert_element_type %6323, %int6_14019 : !torch.vtensor<[1280],f16>, !torch.int -> !torch.vtensor<[1280],f32>
    %int6_14020 = torch.constant.int 6
    %12200 = torch.prims.convert_element_type %12197, %int6_14020 : !torch.vtensor<[1280,1280],f16>, !torch.int -> !torch.vtensor<[1280,1280],f32>
    %int6_14021 = torch.constant.int 6
    %12201 = torch.prims.convert_element_type %12198, %int6_14021 : !torch.vtensor<[1280,1280],f16>, !torch.int -> !torch.vtensor<[1280,1280],f32>
    %12202 = torch.aten.mm %12200, %12201 : !torch.vtensor<[1280,1280],f32>, !torch.vtensor<[1280,1280],f32> -> !torch.vtensor<[1280,1280],f32>
    %int1_14022 = torch.constant.int 1
    %12203 = torch.aten.mul.Scalar %12202, %int1_14022 : !torch.vtensor<[1280,1280],f32>, !torch.int -> !torch.vtensor<[1280,1280],f32>
    %int1_14023 = torch.constant.int 1
    %12204 = torch.aten.mul.Scalar %12199, %int1_14023 : !torch.vtensor<[1280],f32>, !torch.int -> !torch.vtensor<[1280],f32>
    %int1_14024 = torch.constant.int 1
    %12205 = torch.aten.add.Tensor %12203, %12204, %int1_14024 : !torch.vtensor<[1280,1280],f32>, !torch.vtensor<[1280],f32>, !torch.int -> !torch.vtensor<[1280,1280],f32>
    %int5_14025 = torch.constant.int 5
    %12206 = torch.prims.convert_element_type %12205, %int5_14025 : !torch.vtensor<[1280,1280],f32>, !torch.int -> !torch.vtensor<[1280,1280],f16>
    %int20_14026 = torch.constant.int 20
    %int64_14027 = torch.constant.int 64
    %int1280_14028 = torch.constant.int 1280
    %12207 = torch.prim.ListConstruct %int20_14026, %int64_14027, %int1280_14028 : (!torch.int, !torch.int, !torch.int) -> !torch.list<int>
    %12208 = torch.aten.view %12206, %12207 : !torch.vtensor<[1280,1280],f16>, !torch.list<int> -> !torch.vtensor<[20,64,1280],f16>
    %int1_14029 = torch.constant.int 1
    %12209 = torch.aten.add.Tensor %12112, %12208, %int1_14029 : !torch.vtensor<[20,64,1280],f16>, !torch.vtensor<[20,64,1280],f16>, !torch.int -> !torch.vtensor<[20,64,1280],f16>
    %int6_14030 = torch.constant.int 6
    %12210 = torch.prims.convert_element_type %12209, %int6_14030 : !torch.vtensor<[20,64,1280],f16>, !torch.int -> !torch.vtensor<[20,64,1280],f32>
    %int2_14031 = torch.constant.int 2
    %12211 = torch.prim.ListConstruct %int2_14031 : (!torch.int) -> !torch.list<int>
    %int0_14032 = torch.constant.int 0
    %true_14033 = torch.constant.bool true
    %result0_14034, %result1_14035 = torch.aten.var_mean.correction %12210, %12211, %int0_14032, %true_14033 : !torch.vtensor<[20,64,1280],f32>, !torch.list<int>, !torch.int, !torch.bool -> !torch.vtensor<[20,64,1],f32>, !torch.vtensor<[20,64,1],f32>
    %float1.000000e-05_14036 = torch.constant.float 1.000000e-05
    %int1_14037 = torch.constant.int 1
    %12212 = torch.aten.add.Scalar %result0_14034, %float1.000000e-05_14036, %int1_14037 : !torch.vtensor<[20,64,1],f32>, !torch.float, !torch.int -> !torch.vtensor<[20,64,1],f32>
    %12213 = torch.aten.rsqrt %12212 : !torch.vtensor<[20,64,1],f32> -> !torch.vtensor<[20,64,1],f32>
    %int1_14038 = torch.constant.int 1
    %12214 = torch.aten.sub.Tensor %12209, %result1_14035, %int1_14038 : !torch.vtensor<[20,64,1280],f16>, !torch.vtensor<[20,64,1],f32>, !torch.int -> !torch.vtensor<[20,64,1280],f32>
    %12215 = torch.aten.mul.Tensor %12214, %12213 : !torch.vtensor<[20,64,1280],f32>, !torch.vtensor<[20,64,1],f32> -> !torch.vtensor<[20,64,1280],f32>
    %12216 = torch.aten.mul.Tensor %12215, %6341 : !torch.vtensor<[20,64,1280],f32>, !torch.vtensor<[1280],f16> -> !torch.vtensor<[20,64,1280],f32>
    %int1_14039 = torch.constant.int 1
    %12217 = torch.aten.add.Tensor %12216, %6343, %int1_14039 : !torch.vtensor<[20,64,1280],f32>, !torch.vtensor<[1280],f16>, !torch.int -> !torch.vtensor<[20,64,1280],f32>
    %int5_14040 = torch.constant.int 5
    %12218 = torch.prims.convert_element_type %12217, %int5_14040 : !torch.vtensor<[20,64,1280],f32>, !torch.int -> !torch.vtensor<[20,64,1280],f16>
    %int1280_14041 = torch.constant.int 1280
    %int1280_14042 = torch.constant.int 1280
    %12219 = torch.prim.ListConstruct %int1280_14041, %int1280_14042 : (!torch.int, !torch.int) -> !torch.list<int>
    %12220 = torch.aten.view %12218, %12219 : !torch.vtensor<[20,64,1280],f16>, !torch.list<int> -> !torch.vtensor<[1280,1280],f16>
    %int0_14043 = torch.constant.int 0
    %int1_14044 = torch.constant.int 1
    %12221 = torch.aten.transpose.int %6348, %int0_14043, %int1_14044 : !torch.vtensor<[5120,1280],f16>, !torch.int, !torch.int -> !torch.vtensor<[1280,5120],f16>
    %int6_14045 = torch.constant.int 6
    %12222 = torch.prims.convert_element_type %6350, %int6_14045 : !torch.vtensor<[5120],f16>, !torch.int -> !torch.vtensor<[5120],f32>
    %int6_14046 = torch.constant.int 6
    %12223 = torch.prims.convert_element_type %12220, %int6_14046 : !torch.vtensor<[1280,1280],f16>, !torch.int -> !torch.vtensor<[1280,1280],f32>
    %int6_14047 = torch.constant.int 6
    %12224 = torch.prims.convert_element_type %12221, %int6_14047 : !torch.vtensor<[1280,5120],f16>, !torch.int -> !torch.vtensor<[1280,5120],f32>
    %12225 = torch.aten.mm %12223, %12224 : !torch.vtensor<[1280,1280],f32>, !torch.vtensor<[1280,5120],f32> -> !torch.vtensor<[1280,5120],f32>
    %int1_14048 = torch.constant.int 1
    %12226 = torch.aten.mul.Scalar %12225, %int1_14048 : !torch.vtensor<[1280,5120],f32>, !torch.int -> !torch.vtensor<[1280,5120],f32>
    %int1_14049 = torch.constant.int 1
    %12227 = torch.aten.mul.Scalar %12222, %int1_14049 : !torch.vtensor<[5120],f32>, !torch.int -> !torch.vtensor<[5120],f32>
    %int1_14050 = torch.constant.int 1
    %12228 = torch.aten.add.Tensor %12226, %12227, %int1_14050 : !torch.vtensor<[1280,5120],f32>, !torch.vtensor<[5120],f32>, !torch.int -> !torch.vtensor<[1280,5120],f32>
    %int5_14051 = torch.constant.int 5
    %12229 = torch.prims.convert_element_type %12228, %int5_14051 : !torch.vtensor<[1280,5120],f32>, !torch.int -> !torch.vtensor<[1280,5120],f16>
    %int20_14052 = torch.constant.int 20
    %int64_14053 = torch.constant.int 64
    %int5120_14054 = torch.constant.int 5120
    %12230 = torch.prim.ListConstruct %int20_14052, %int64_14053, %int5120_14054 : (!torch.int, !torch.int, !torch.int) -> !torch.list<int>
    %12231 = torch.aten.view %12229, %12230 : !torch.vtensor<[1280,5120],f16>, !torch.list<int> -> !torch.vtensor<[20,64,5120],f16>
    %str_14055 = torch.constant.str "none"
    %12232 = torch.aten.gelu %12231, %str_14055 : !torch.vtensor<[20,64,5120],f16>, !torch.str -> !torch.vtensor<[20,64,5120],f16>
    %int1280_14056 = torch.constant.int 1280
    %int5120_14057 = torch.constant.int 5120
    %12233 = torch.prim.ListConstruct %int1280_14056, %int5120_14057 : (!torch.int, !torch.int) -> !torch.list<int>
    %12234 = torch.aten.view %12232, %12233 : !torch.vtensor<[20,64,5120],f16>, !torch.list<int> -> !torch.vtensor<[1280,5120],f16>
    %int0_14058 = torch.constant.int 0
    %int1_14059 = torch.constant.int 1
    %12235 = torch.aten.transpose.int %6364, %int0_14058, %int1_14059 : !torch.vtensor<[1280,5120],f16>, !torch.int, !torch.int -> !torch.vtensor<[5120,1280],f16>
    %int6_14060 = torch.constant.int 6
    %12236 = torch.prims.convert_element_type %6366, %int6_14060 : !torch.vtensor<[1280],f16>, !torch.int -> !torch.vtensor<[1280],f32>
    %int6_14061 = torch.constant.int 6
    %12237 = torch.prims.convert_element_type %12234, %int6_14061 : !torch.vtensor<[1280,5120],f16>, !torch.int -> !torch.vtensor<[1280,5120],f32>
    %int6_14062 = torch.constant.int 6
    %12238 = torch.prims.convert_element_type %12235, %int6_14062 : !torch.vtensor<[5120,1280],f16>, !torch.int -> !torch.vtensor<[5120,1280],f32>
    %12239 = torch.aten.mm %12237, %12238 : !torch.vtensor<[1280,5120],f32>, !torch.vtensor<[5120,1280],f32> -> !torch.vtensor<[1280,1280],f32>
    %int1_14063 = torch.constant.int 1
    %12240 = torch.aten.mul.Scalar %12239, %int1_14063 : !torch.vtensor<[1280,1280],f32>, !torch.int -> !torch.vtensor<[1280,1280],f32>
    %int1_14064 = torch.constant.int 1
    %12241 = torch.aten.mul.Scalar %12236, %int1_14064 : !torch.vtensor<[1280],f32>, !torch.int -> !torch.vtensor<[1280],f32>
    %int1_14065 = torch.constant.int 1
    %12242 = torch.aten.add.Tensor %12240, %12241, %int1_14065 : !torch.vtensor<[1280,1280],f32>, !torch.vtensor<[1280],f32>, !torch.int -> !torch.vtensor<[1280,1280],f32>
    %int5_14066 = torch.constant.int 5
    %12243 = torch.prims.convert_element_type %12242, %int5_14066 : !torch.vtensor<[1280,1280],f32>, !torch.int -> !torch.vtensor<[1280,1280],f16>
    %int20_14067 = torch.constant.int 20
    %int64_14068 = torch.constant.int 64
    %int1280_14069 = torch.constant.int 1280
    %12244 = torch.prim.ListConstruct %int20_14067, %int64_14068, %int1280_14069 : (!torch.int, !torch.int, !torch.int) -> !torch.list<int>
    %12245 = torch.aten.view %12243, %12244 : !torch.vtensor<[1280,1280],f16>, !torch.list<int> -> !torch.vtensor<[20,64,1280],f16>
    %int1_14070 = torch.constant.int 1
    %12246 = torch.aten.add.Tensor %12209, %12245, %int1_14070 : !torch.vtensor<[20,64,1280],f16>, !torch.vtensor<[20,64,1280],f16>, !torch.int -> !torch.vtensor<[20,64,1280],f16>
    %int6_14071 = torch.constant.int 6
    %12247 = torch.prims.convert_element_type %12246, %int6_14071 : !torch.vtensor<[20,64,1280],f16>, !torch.int -> !torch.vtensor<[20,64,1280],f32>
    %int2_14072 = torch.constant.int 2
    %12248 = torch.prim.ListConstruct %int2_14072 : (!torch.int) -> !torch.list<int>
    %int0_14073 = torch.constant.int 0
    %true_14074 = torch.constant.bool true
    %result0_14075, %result1_14076 = torch.aten.var_mean.correction %12247, %12248, %int0_14073, %true_14074 : !torch.vtensor<[20,64,1280],f32>, !torch.list<int>, !torch.int, !torch.bool -> !torch.vtensor<[20,64,1],f32>, !torch.vtensor<[20,64,1],f32>
    %float1.000000e-05_14077 = torch.constant.float 1.000000e-05
    %int1_14078 = torch.constant.int 1
    %12249 = torch.aten.add.Scalar %result0_14075, %float1.000000e-05_14077, %int1_14078 : !torch.vtensor<[20,64,1],f32>, !torch.float, !torch.int -> !torch.vtensor<[20,64,1],f32>
    %12250 = torch.aten.rsqrt %12249 : !torch.vtensor<[20,64,1],f32> -> !torch.vtensor<[20,64,1],f32>
    %int1_14079 = torch.constant.int 1
    %12251 = torch.aten.sub.Tensor %12246, %result1_14076, %int1_14079 : !torch.vtensor<[20,64,1280],f16>, !torch.vtensor<[20,64,1],f32>, !torch.int -> !torch.vtensor<[20,64,1280],f32>
    %12252 = torch.aten.mul.Tensor %12251, %12250 : !torch.vtensor<[20,64,1280],f32>, !torch.vtensor<[20,64,1],f32> -> !torch.vtensor<[20,64,1280],f32>
    %12253 = torch.aten.mul.Tensor %12252, %6384 : !torch.vtensor<[20,64,1280],f32>, !torch.vtensor<[1280],f16> -> !torch.vtensor<[20,64,1280],f32>
    %int1_14080 = torch.constant.int 1
    %12254 = torch.aten.add.Tensor %12253, %6386, %int1_14080 : !torch.vtensor<[20,64,1280],f32>, !torch.vtensor<[1280],f16>, !torch.int -> !torch.vtensor<[20,64,1280],f32>
    %int5_14081 = torch.constant.int 5
    %12255 = torch.prims.convert_element_type %12254, %int5_14081 : !torch.vtensor<[20,64,1280],f32>, !torch.int -> !torch.vtensor<[20,64,1280],f16>
    %int1280_14082 = torch.constant.int 1280
    %int1280_14083 = torch.constant.int 1280
    %12256 = torch.prim.ListConstruct %int1280_14082, %int1280_14083 : (!torch.int, !torch.int) -> !torch.list<int>
    %12257 = torch.aten.view %12255, %12256 : !torch.vtensor<[20,64,1280],f16>, !torch.list<int> -> !torch.vtensor<[1280,1280],f16>
    %int0_14084 = torch.constant.int 0
    %int1_14085 = torch.constant.int 1
    %12258 = torch.aten.transpose.int %6391, %int0_14084, %int1_14085 : !torch.vtensor<[1280,1280],f16>, !torch.int, !torch.int -> !torch.vtensor<[1280,1280],f16>
    %int6_14086 = torch.constant.int 6
    %12259 = torch.prims.convert_element_type %6393, %int6_14086 : !torch.vtensor<[1280],f16>, !torch.int -> !torch.vtensor<[1280],f32>
    %int6_14087 = torch.constant.int 6
    %12260 = torch.prims.convert_element_type %12257, %int6_14087 : !torch.vtensor<[1280,1280],f16>, !torch.int -> !torch.vtensor<[1280,1280],f32>
    %int6_14088 = torch.constant.int 6
    %12261 = torch.prims.convert_element_type %12258, %int6_14088 : !torch.vtensor<[1280,1280],f16>, !torch.int -> !torch.vtensor<[1280,1280],f32>
    %12262 = torch.aten.mm %12260, %12261 : !torch.vtensor<[1280,1280],f32>, !torch.vtensor<[1280,1280],f32> -> !torch.vtensor<[1280,1280],f32>
    %int1_14089 = torch.constant.int 1
    %12263 = torch.aten.mul.Scalar %12262, %int1_14089 : !torch.vtensor<[1280,1280],f32>, !torch.int -> !torch.vtensor<[1280,1280],f32>
    %int1_14090 = torch.constant.int 1
    %12264 = torch.aten.mul.Scalar %12259, %int1_14090 : !torch.vtensor<[1280],f32>, !torch.int -> !torch.vtensor<[1280],f32>
    %int1_14091 = torch.constant.int 1
    %12265 = torch.aten.add.Tensor %12263, %12264, %int1_14091 : !torch.vtensor<[1280,1280],f32>, !torch.vtensor<[1280],f32>, !torch.int -> !torch.vtensor<[1280,1280],f32>
    %int5_14092 = torch.constant.int 5
    %12266 = torch.prims.convert_element_type %12265, %int5_14092 : !torch.vtensor<[1280,1280],f32>, !torch.int -> !torch.vtensor<[1280,1280],f16>
    %int20_14093 = torch.constant.int 20
    %int64_14094 = torch.constant.int 64
    %int1280_14095 = torch.constant.int 1280
    %12267 = torch.prim.ListConstruct %int20_14093, %int64_14094, %int1280_14095 : (!torch.int, !torch.int, !torch.int) -> !torch.list<int>
    %12268 = torch.aten.view %12266, %12267 : !torch.vtensor<[1280,1280],f16>, !torch.list<int> -> !torch.vtensor<[20,64,1280],f16>
    %float1.250000e-01_14096 = torch.constant.float 1.250000e-01
    %12269 = torch.aten.mul.Scalar %12268, %float1.250000e-01_14096 : !torch.vtensor<[20,64,1280],f16>, !torch.float -> !torch.vtensor<[20,64,1280],f16>
    %int1280_14097 = torch.constant.int 1280
    %int1280_14098 = torch.constant.int 1280
    %12270 = torch.prim.ListConstruct %int1280_14097, %int1280_14098 : (!torch.int, !torch.int) -> !torch.list<int>
    %12271 = torch.aten.view %12255, %12270 : !torch.vtensor<[20,64,1280],f16>, !torch.list<int> -> !torch.vtensor<[1280,1280],f16>
    %int0_14099 = torch.constant.int 0
    %int1_14100 = torch.constant.int 1
    %12272 = torch.aten.transpose.int %6407, %int0_14099, %int1_14100 : !torch.vtensor<[1280,1280],f16>, !torch.int, !torch.int -> !torch.vtensor<[1280,1280],f16>
    %int6_14101 = torch.constant.int 6
    %12273 = torch.prims.convert_element_type %6409, %int6_14101 : !torch.vtensor<[1280],f16>, !torch.int -> !torch.vtensor<[1280],f32>
    %int6_14102 = torch.constant.int 6
    %12274 = torch.prims.convert_element_type %12271, %int6_14102 : !torch.vtensor<[1280,1280],f16>, !torch.int -> !torch.vtensor<[1280,1280],f32>
    %int6_14103 = torch.constant.int 6
    %12275 = torch.prims.convert_element_type %12272, %int6_14103 : !torch.vtensor<[1280,1280],f16>, !torch.int -> !torch.vtensor<[1280,1280],f32>
    %12276 = torch.aten.mm %12274, %12275 : !torch.vtensor<[1280,1280],f32>, !torch.vtensor<[1280,1280],f32> -> !torch.vtensor<[1280,1280],f32>
    %int1_14104 = torch.constant.int 1
    %12277 = torch.aten.mul.Scalar %12276, %int1_14104 : !torch.vtensor<[1280,1280],f32>, !torch.int -> !torch.vtensor<[1280,1280],f32>
    %int1_14105 = torch.constant.int 1
    %12278 = torch.aten.mul.Scalar %12273, %int1_14105 : !torch.vtensor<[1280],f32>, !torch.int -> !torch.vtensor<[1280],f32>
    %int1_14106 = torch.constant.int 1
    %12279 = torch.aten.add.Tensor %12277, %12278, %int1_14106 : !torch.vtensor<[1280,1280],f32>, !torch.vtensor<[1280],f32>, !torch.int -> !torch.vtensor<[1280,1280],f32>
    %int5_14107 = torch.constant.int 5
    %12280 = torch.prims.convert_element_type %12279, %int5_14107 : !torch.vtensor<[1280,1280],f32>, !torch.int -> !torch.vtensor<[1280,1280],f16>
    %int20_14108 = torch.constant.int 20
    %int64_14109 = torch.constant.int 64
    %int1280_14110 = torch.constant.int 1280
    %12281 = torch.prim.ListConstruct %int20_14108, %int64_14109, %int1280_14110 : (!torch.int, !torch.int, !torch.int) -> !torch.list<int>
    %12282 = torch.aten.view %12280, %12281 : !torch.vtensor<[1280,1280],f16>, !torch.list<int> -> !torch.vtensor<[20,64,1280],f16>
    %int20_14111 = torch.constant.int 20
    %int-1_14112 = torch.constant.int -1
    %int20_14113 = torch.constant.int 20
    %int64_14114 = torch.constant.int 64
    %12283 = torch.prim.ListConstruct %int20_14111, %int-1_14112, %int20_14113, %int64_14114 : (!torch.int, !torch.int, !torch.int, !torch.int) -> !torch.list<int>
    %12284 = torch.aten.view %12282, %12283 : !torch.vtensor<[20,64,1280],f16>, !torch.list<int> -> !torch.vtensor<[20,64,20,64],f16>
    %int1_14115 = torch.constant.int 1
    %int2_14116 = torch.constant.int 2
    %12285 = torch.aten.transpose.int %12284, %int1_14115, %int2_14116 : !torch.vtensor<[20,64,20,64],f16>, !torch.int, !torch.int -> !torch.vtensor<[20,20,64,64],f16>
    %int0_14117 = torch.constant.int 0
    %12286 = torch.aten.clone %12285, %int0_14117 : !torch.vtensor<[20,20,64,64],f16>, !torch.int -> !torch.vtensor<[20,20,64,64],f16>
    %int1280_14118 = torch.constant.int 1280
    %int1280_14119 = torch.constant.int 1280
    %12287 = torch.prim.ListConstruct %int1280_14118, %int1280_14119 : (!torch.int, !torch.int) -> !torch.list<int>
    %12288 = torch.aten.view %12255, %12287 : !torch.vtensor<[20,64,1280],f16>, !torch.list<int> -> !torch.vtensor<[1280,1280],f16>
    %int0_14120 = torch.constant.int 0
    %int1_14121 = torch.constant.int 1
    %12289 = torch.aten.transpose.int %6426, %int0_14120, %int1_14121 : !torch.vtensor<[1280,1280],f16>, !torch.int, !torch.int -> !torch.vtensor<[1280,1280],f16>
    %int6_14122 = torch.constant.int 6
    %12290 = torch.prims.convert_element_type %6428, %int6_14122 : !torch.vtensor<[1280],f16>, !torch.int -> !torch.vtensor<[1280],f32>
    %int6_14123 = torch.constant.int 6
    %12291 = torch.prims.convert_element_type %12288, %int6_14123 : !torch.vtensor<[1280,1280],f16>, !torch.int -> !torch.vtensor<[1280,1280],f32>
    %int6_14124 = torch.constant.int 6
    %12292 = torch.prims.convert_element_type %12289, %int6_14124 : !torch.vtensor<[1280,1280],f16>, !torch.int -> !torch.vtensor<[1280,1280],f32>
    %12293 = torch.aten.mm %12291, %12292 : !torch.vtensor<[1280,1280],f32>, !torch.vtensor<[1280,1280],f32> -> !torch.vtensor<[1280,1280],f32>
    %int1_14125 = torch.constant.int 1
    %12294 = torch.aten.mul.Scalar %12293, %int1_14125 : !torch.vtensor<[1280,1280],f32>, !torch.int -> !torch.vtensor<[1280,1280],f32>
    %int1_14126 = torch.constant.int 1
    %12295 = torch.aten.mul.Scalar %12290, %int1_14126 : !torch.vtensor<[1280],f32>, !torch.int -> !torch.vtensor<[1280],f32>
    %int1_14127 = torch.constant.int 1
    %12296 = torch.aten.add.Tensor %12294, %12295, %int1_14127 : !torch.vtensor<[1280,1280],f32>, !torch.vtensor<[1280],f32>, !torch.int -> !torch.vtensor<[1280,1280],f32>
    %int5_14128 = torch.constant.int 5
    %12297 = torch.prims.convert_element_type %12296, %int5_14128 : !torch.vtensor<[1280,1280],f32>, !torch.int -> !torch.vtensor<[1280,1280],f16>
    %int20_14129 = torch.constant.int 20
    %int64_14130 = torch.constant.int 64
    %int1280_14131 = torch.constant.int 1280
    %12298 = torch.prim.ListConstruct %int20_14129, %int64_14130, %int1280_14131 : (!torch.int, !torch.int, !torch.int) -> !torch.list<int>
    %12299 = torch.aten.view %12297, %12298 : !torch.vtensor<[1280,1280],f16>, !torch.list<int> -> !torch.vtensor<[20,64,1280],f16>
    %int20_14132 = torch.constant.int 20
    %int-1_14133 = torch.constant.int -1
    %int20_14134 = torch.constant.int 20
    %int64_14135 = torch.constant.int 64
    %12300 = torch.prim.ListConstruct %int20_14132, %int-1_14133, %int20_14134, %int64_14135 : (!torch.int, !torch.int, !torch.int, !torch.int) -> !torch.list<int>
    %12301 = torch.aten.view %12299, %12300 : !torch.vtensor<[20,64,1280],f16>, !torch.list<int> -> !torch.vtensor<[20,64,20,64],f16>
    %int1_14136 = torch.constant.int 1
    %int2_14137 = torch.constant.int 2
    %12302 = torch.aten.transpose.int %12301, %int1_14136, %int2_14137 : !torch.vtensor<[20,64,20,64],f16>, !torch.int, !torch.int -> !torch.vtensor<[20,20,64,64],f16>
    %int0_14138 = torch.constant.int 0
    %12303 = torch.aten.clone %12302, %int0_14138 : !torch.vtensor<[20,20,64,64],f16>, !torch.int -> !torch.vtensor<[20,20,64,64],f16>
    %int20_14139 = torch.constant.int 20
    %int64_14140 = torch.constant.int 64
    %int20_14141 = torch.constant.int 20
    %int64_14142 = torch.constant.int 64
    %12304 = torch.prim.ListConstruct %int20_14139, %int64_14140, %int20_14141, %int64_14142 : (!torch.int, !torch.int, !torch.int, !torch.int) -> !torch.list<int>
    %12305 = torch.aten.view %12269, %12304 : !torch.vtensor<[20,64,1280],f16>, !torch.list<int> -> !torch.vtensor<[20,64,20,64],f16>
    %int1_14143 = torch.constant.int 1
    %int2_14144 = torch.constant.int 2
    %12306 = torch.aten.transpose.int %12305, %int1_14143, %int2_14144 : !torch.vtensor<[20,64,20,64],f16>, !torch.int, !torch.int -> !torch.vtensor<[20,20,64,64],f16>
    %int0_14145 = torch.constant.int 0
    %12307 = torch.aten.clone %12306, %int0_14145 : !torch.vtensor<[20,20,64,64],f16>, !torch.int -> !torch.vtensor<[20,20,64,64],f16>
    %int400_14146 = torch.constant.int 400
    %int-1_14147 = torch.constant.int -1
    %int64_14148 = torch.constant.int 64
    %12308 = torch.prim.ListConstruct %int400_14146, %int-1_14147, %int64_14148 : (!torch.int, !torch.int, !torch.int) -> !torch.list<int>
    %12309 = torch.aten.view %12307, %12308 : !torch.vtensor<[20,20,64,64],f16>, !torch.list<int> -> !torch.vtensor<[400,64,64],f16>
    %int400_14149 = torch.constant.int 400
    %int-1_14150 = torch.constant.int -1
    %int64_14151 = torch.constant.int 64
    %12310 = torch.prim.ListConstruct %int400_14149, %int-1_14150, %int64_14151 : (!torch.int, !torch.int, !torch.int) -> !torch.list<int>
    %12311 = torch.aten.view %12286, %12310 : !torch.vtensor<[20,20,64,64],f16>, !torch.list<int> -> !torch.vtensor<[400,64,64],f16>
    %int400_14152 = torch.constant.int 400
    %int-1_14153 = torch.constant.int -1
    %int64_14154 = torch.constant.int 64
    %12312 = torch.prim.ListConstruct %int400_14152, %int-1_14153, %int64_14154 : (!torch.int, !torch.int, !torch.int) -> !torch.list<int>
    %12313 = torch.aten.view %12303, %12312 : !torch.vtensor<[20,20,64,64],f16>, !torch.list<int> -> !torch.vtensor<[400,64,64],f16>
    %int1_14155 = torch.constant.int 1
    %int2_14156 = torch.constant.int 2
    %12314 = torch.aten.transpose.int %12311, %int1_14155, %int2_14156 : !torch.vtensor<[400,64,64],f16>, !torch.int, !torch.int -> !torch.vtensor<[400,64,64],f16>
    %12315 = torch.aten.bmm %12309, %12314 : !torch.vtensor<[400,64,64],f16>, !torch.vtensor<[400,64,64],f16> -> !torch.vtensor<[400,64,64],f16>
    %int20_14157 = torch.constant.int 20
    %int20_14158 = torch.constant.int 20
    %int64_14159 = torch.constant.int 64
    %int64_14160 = torch.constant.int 64
    %12316 = torch.prim.ListConstruct %int20_14157, %int20_14158, %int64_14159, %int64_14160 : (!torch.int, !torch.int, !torch.int, !torch.int) -> !torch.list<int>
    %12317 = torch.aten.view %12315, %12316 : !torch.vtensor<[400,64,64],f16>, !torch.list<int> -> !torch.vtensor<[20,20,64,64],f16>
    %int1_14161 = torch.constant.int 1
    %12318 = torch.aten.add.Tensor %12317, %8092, %int1_14161 : !torch.vtensor<[20,20,64,64],f16>, !torch.vtensor<[20,1,64,64],f16>, !torch.int -> !torch.vtensor<[20,20,64,64],f16>
    %int400_14162 = torch.constant.int 400
    %int64_14163 = torch.constant.int 64
    %int64_14164 = torch.constant.int 64
    %12319 = torch.prim.ListConstruct %int400_14162, %int64_14163, %int64_14164 : (!torch.int, !torch.int, !torch.int) -> !torch.list<int>
    %12320 = torch.aten.view %12318, %12319 : !torch.vtensor<[20,20,64,64],f16>, !torch.list<int> -> !torch.vtensor<[400,64,64],f16>
    %int-1_14165 = torch.constant.int -1
    %false_14166 = torch.constant.bool false
    %12321 = torch.aten._softmax %12320, %int-1_14165, %false_14166 : !torch.vtensor<[400,64,64],f16>, !torch.int, !torch.bool -> !torch.vtensor<[400,64,64],f16>
    %none_14167 = torch.constant.none
    %12322 = torch.aten.clone %12321, %none_14167 : !torch.vtensor<[400,64,64],f16>, !torch.none -> !torch.vtensor<[400,64,64],f16>
    %12323 = torch.aten.bmm %12322, %12313 : !torch.vtensor<[400,64,64],f16>, !torch.vtensor<[400,64,64],f16> -> !torch.vtensor<[400,64,64],f16>
    %int20_14168 = torch.constant.int 20
    %int20_14169 = torch.constant.int 20
    %int64_14170 = torch.constant.int 64
    %int64_14171 = torch.constant.int 64
    %12324 = torch.prim.ListConstruct %int20_14168, %int20_14169, %int64_14170, %int64_14171 : (!torch.int, !torch.int, !torch.int, !torch.int) -> !torch.list<int>
    %12325 = torch.aten.view %12323, %12324 : !torch.vtensor<[400,64,64],f16>, !torch.list<int> -> !torch.vtensor<[20,20,64,64],f16>
    %int1_14172 = torch.constant.int 1
    %int2_14173 = torch.constant.int 2
    %12326 = torch.aten.transpose.int %12325, %int1_14172, %int2_14173 : !torch.vtensor<[20,20,64,64],f16>, !torch.int, !torch.int -> !torch.vtensor<[20,64,20,64],f16>
    %int0_14174 = torch.constant.int 0
    %12327 = torch.aten.clone %12326, %int0_14174 : !torch.vtensor<[20,64,20,64],f16>, !torch.int -> !torch.vtensor<[20,64,20,64],f16>
    %int20_14175 = torch.constant.int 20
    %int64_14176 = torch.constant.int 64
    %int1280_14177 = torch.constant.int 1280
    %12328 = torch.prim.ListConstruct %int20_14175, %int64_14176, %int1280_14177 : (!torch.int, !torch.int, !torch.int) -> !torch.list<int>
    %12329 = torch.aten._unsafe_view %12327, %12328 : !torch.vtensor<[20,64,20,64],f16>, !torch.list<int> -> !torch.vtensor<[20,64,1280],f16>
    %int1280_14178 = torch.constant.int 1280
    %int1280_14179 = torch.constant.int 1280
    %12330 = torch.prim.ListConstruct %int1280_14178, %int1280_14179 : (!torch.int, !torch.int) -> !torch.list<int>
    %12331 = torch.aten.view %12329, %12330 : !torch.vtensor<[20,64,1280],f16>, !torch.list<int> -> !torch.vtensor<[1280,1280],f16>
    %int0_14180 = torch.constant.int 0
    %int1_14181 = torch.constant.int 1
    %12332 = torch.aten.transpose.int %6471, %int0_14180, %int1_14181 : !torch.vtensor<[1280,1280],f16>, !torch.int, !torch.int -> !torch.vtensor<[1280,1280],f16>
    %int6_14182 = torch.constant.int 6
    %12333 = torch.prims.convert_element_type %6473, %int6_14182 : !torch.vtensor<[1280],f16>, !torch.int -> !torch.vtensor<[1280],f32>
    %int6_14183 = torch.constant.int 6
    %12334 = torch.prims.convert_element_type %12331, %int6_14183 : !torch.vtensor<[1280,1280],f16>, !torch.int -> !torch.vtensor<[1280,1280],f32>
    %int6_14184 = torch.constant.int 6
    %12335 = torch.prims.convert_element_type %12332, %int6_14184 : !torch.vtensor<[1280,1280],f16>, !torch.int -> !torch.vtensor<[1280,1280],f32>
    %12336 = torch.aten.mm %12334, %12335 : !torch.vtensor<[1280,1280],f32>, !torch.vtensor<[1280,1280],f32> -> !torch.vtensor<[1280,1280],f32>
    %int1_14185 = torch.constant.int 1
    %12337 = torch.aten.mul.Scalar %12336, %int1_14185 : !torch.vtensor<[1280,1280],f32>, !torch.int -> !torch.vtensor<[1280,1280],f32>
    %int1_14186 = torch.constant.int 1
    %12338 = torch.aten.mul.Scalar %12333, %int1_14186 : !torch.vtensor<[1280],f32>, !torch.int -> !torch.vtensor<[1280],f32>
    %int1_14187 = torch.constant.int 1
    %12339 = torch.aten.add.Tensor %12337, %12338, %int1_14187 : !torch.vtensor<[1280,1280],f32>, !torch.vtensor<[1280],f32>, !torch.int -> !torch.vtensor<[1280,1280],f32>
    %int5_14188 = torch.constant.int 5
    %12340 = torch.prims.convert_element_type %12339, %int5_14188 : !torch.vtensor<[1280,1280],f32>, !torch.int -> !torch.vtensor<[1280,1280],f16>
    %int20_14189 = torch.constant.int 20
    %int64_14190 = torch.constant.int 64
    %int1280_14191 = torch.constant.int 1280
    %12341 = torch.prim.ListConstruct %int20_14189, %int64_14190, %int1280_14191 : (!torch.int, !torch.int, !torch.int) -> !torch.list<int>
    %12342 = torch.aten.view %12340, %12341 : !torch.vtensor<[1280,1280],f16>, !torch.list<int> -> !torch.vtensor<[20,64,1280],f16>
    %int1_14192 = torch.constant.int 1
    %12343 = torch.aten.add.Tensor %12246, %12342, %int1_14192 : !torch.vtensor<[20,64,1280],f16>, !torch.vtensor<[20,64,1280],f16>, !torch.int -> !torch.vtensor<[20,64,1280],f16>
    %int6_14193 = torch.constant.int 6
    %12344 = torch.prims.convert_element_type %12343, %int6_14193 : !torch.vtensor<[20,64,1280],f16>, !torch.int -> !torch.vtensor<[20,64,1280],f32>
    %int2_14194 = torch.constant.int 2
    %12345 = torch.prim.ListConstruct %int2_14194 : (!torch.int) -> !torch.list<int>
    %int0_14195 = torch.constant.int 0
    %true_14196 = torch.constant.bool true
    %result0_14197, %result1_14198 = torch.aten.var_mean.correction %12344, %12345, %int0_14195, %true_14196 : !torch.vtensor<[20,64,1280],f32>, !torch.list<int>, !torch.int, !torch.bool -> !torch.vtensor<[20,64,1],f32>, !torch.vtensor<[20,64,1],f32>
    %float1.000000e-05_14199 = torch.constant.float 1.000000e-05
    %int1_14200 = torch.constant.int 1
    %12346 = torch.aten.add.Scalar %result0_14197, %float1.000000e-05_14199, %int1_14200 : !torch.vtensor<[20,64,1],f32>, !torch.float, !torch.int -> !torch.vtensor<[20,64,1],f32>
    %12347 = torch.aten.rsqrt %12346 : !torch.vtensor<[20,64,1],f32> -> !torch.vtensor<[20,64,1],f32>
    %int1_14201 = torch.constant.int 1
    %12348 = torch.aten.sub.Tensor %12343, %result1_14198, %int1_14201 : !torch.vtensor<[20,64,1280],f16>, !torch.vtensor<[20,64,1],f32>, !torch.int -> !torch.vtensor<[20,64,1280],f32>
    %12349 = torch.aten.mul.Tensor %12348, %12347 : !torch.vtensor<[20,64,1280],f32>, !torch.vtensor<[20,64,1],f32> -> !torch.vtensor<[20,64,1280],f32>
    %12350 = torch.aten.mul.Tensor %12349, %6491 : !torch.vtensor<[20,64,1280],f32>, !torch.vtensor<[1280],f16> -> !torch.vtensor<[20,64,1280],f32>
    %int1_14202 = torch.constant.int 1
    %12351 = torch.aten.add.Tensor %12350, %6493, %int1_14202 : !torch.vtensor<[20,64,1280],f32>, !torch.vtensor<[1280],f16>, !torch.int -> !torch.vtensor<[20,64,1280],f32>
    %int5_14203 = torch.constant.int 5
    %12352 = torch.prims.convert_element_type %12351, %int5_14203 : !torch.vtensor<[20,64,1280],f32>, !torch.int -> !torch.vtensor<[20,64,1280],f16>
    %int1280_14204 = torch.constant.int 1280
    %int1280_14205 = torch.constant.int 1280
    %12353 = torch.prim.ListConstruct %int1280_14204, %int1280_14205 : (!torch.int, !torch.int) -> !torch.list<int>
    %12354 = torch.aten.view %12352, %12353 : !torch.vtensor<[20,64,1280],f16>, !torch.list<int> -> !torch.vtensor<[1280,1280],f16>
    %int0_14206 = torch.constant.int 0
    %int1_14207 = torch.constant.int 1
    %12355 = torch.aten.transpose.int %6498, %int0_14206, %int1_14207 : !torch.vtensor<[5120,1280],f16>, !torch.int, !torch.int -> !torch.vtensor<[1280,5120],f16>
    %int6_14208 = torch.constant.int 6
    %12356 = torch.prims.convert_element_type %6500, %int6_14208 : !torch.vtensor<[5120],f16>, !torch.int -> !torch.vtensor<[5120],f32>
    %int6_14209 = torch.constant.int 6
    %12357 = torch.prims.convert_element_type %12354, %int6_14209 : !torch.vtensor<[1280,1280],f16>, !torch.int -> !torch.vtensor<[1280,1280],f32>
    %int6_14210 = torch.constant.int 6
    %12358 = torch.prims.convert_element_type %12355, %int6_14210 : !torch.vtensor<[1280,5120],f16>, !torch.int -> !torch.vtensor<[1280,5120],f32>
    %12359 = torch.aten.mm %12357, %12358 : !torch.vtensor<[1280,1280],f32>, !torch.vtensor<[1280,5120],f32> -> !torch.vtensor<[1280,5120],f32>
    %int1_14211 = torch.constant.int 1
    %12360 = torch.aten.mul.Scalar %12359, %int1_14211 : !torch.vtensor<[1280,5120],f32>, !torch.int -> !torch.vtensor<[1280,5120],f32>
    %int1_14212 = torch.constant.int 1
    %12361 = torch.aten.mul.Scalar %12356, %int1_14212 : !torch.vtensor<[5120],f32>, !torch.int -> !torch.vtensor<[5120],f32>
    %int1_14213 = torch.constant.int 1
    %12362 = torch.aten.add.Tensor %12360, %12361, %int1_14213 : !torch.vtensor<[1280,5120],f32>, !torch.vtensor<[5120],f32>, !torch.int -> !torch.vtensor<[1280,5120],f32>
    %int5_14214 = torch.constant.int 5
    %12363 = torch.prims.convert_element_type %12362, %int5_14214 : !torch.vtensor<[1280,5120],f32>, !torch.int -> !torch.vtensor<[1280,5120],f16>
    %int20_14215 = torch.constant.int 20
    %int64_14216 = torch.constant.int 64
    %int5120_14217 = torch.constant.int 5120
    %12364 = torch.prim.ListConstruct %int20_14215, %int64_14216, %int5120_14217 : (!torch.int, !torch.int, !torch.int) -> !torch.list<int>
    %12365 = torch.aten.view %12363, %12364 : !torch.vtensor<[1280,5120],f16>, !torch.list<int> -> !torch.vtensor<[20,64,5120],f16>
    %str_14218 = torch.constant.str "none"
    %12366 = torch.aten.gelu %12365, %str_14218 : !torch.vtensor<[20,64,5120],f16>, !torch.str -> !torch.vtensor<[20,64,5120],f16>
    %int1280_14219 = torch.constant.int 1280
    %int5120_14220 = torch.constant.int 5120
    %12367 = torch.prim.ListConstruct %int1280_14219, %int5120_14220 : (!torch.int, !torch.int) -> !torch.list<int>
    %12368 = torch.aten.view %12366, %12367 : !torch.vtensor<[20,64,5120],f16>, !torch.list<int> -> !torch.vtensor<[1280,5120],f16>
    %int0_14221 = torch.constant.int 0
    %int1_14222 = torch.constant.int 1
    %12369 = torch.aten.transpose.int %6514, %int0_14221, %int1_14222 : !torch.vtensor<[1280,5120],f16>, !torch.int, !torch.int -> !torch.vtensor<[5120,1280],f16>
    %int6_14223 = torch.constant.int 6
    %12370 = torch.prims.convert_element_type %6516, %int6_14223 : !torch.vtensor<[1280],f16>, !torch.int -> !torch.vtensor<[1280],f32>
    %int6_14224 = torch.constant.int 6
    %12371 = torch.prims.convert_element_type %12368, %int6_14224 : !torch.vtensor<[1280,5120],f16>, !torch.int -> !torch.vtensor<[1280,5120],f32>
    %int6_14225 = torch.constant.int 6
    %12372 = torch.prims.convert_element_type %12369, %int6_14225 : !torch.vtensor<[5120,1280],f16>, !torch.int -> !torch.vtensor<[5120,1280],f32>
    %12373 = torch.aten.mm %12371, %12372 : !torch.vtensor<[1280,5120],f32>, !torch.vtensor<[5120,1280],f32> -> !torch.vtensor<[1280,1280],f32>
    %int1_14226 = torch.constant.int 1
    %12374 = torch.aten.mul.Scalar %12373, %int1_14226 : !torch.vtensor<[1280,1280],f32>, !torch.int -> !torch.vtensor<[1280,1280],f32>
    %int1_14227 = torch.constant.int 1
    %12375 = torch.aten.mul.Scalar %12370, %int1_14227 : !torch.vtensor<[1280],f32>, !torch.int -> !torch.vtensor<[1280],f32>
    %int1_14228 = torch.constant.int 1
    %12376 = torch.aten.add.Tensor %12374, %12375, %int1_14228 : !torch.vtensor<[1280,1280],f32>, !torch.vtensor<[1280],f32>, !torch.int -> !torch.vtensor<[1280,1280],f32>
    %int5_14229 = torch.constant.int 5
    %12377 = torch.prims.convert_element_type %12376, %int5_14229 : !torch.vtensor<[1280,1280],f32>, !torch.int -> !torch.vtensor<[1280,1280],f16>
    %int20_14230 = torch.constant.int 20
    %int64_14231 = torch.constant.int 64
    %int1280_14232 = torch.constant.int 1280
    %12378 = torch.prim.ListConstruct %int20_14230, %int64_14231, %int1280_14232 : (!torch.int, !torch.int, !torch.int) -> !torch.list<int>
    %12379 = torch.aten.view %12377, %12378 : !torch.vtensor<[1280,1280],f16>, !torch.list<int> -> !torch.vtensor<[20,64,1280],f16>
    %int1_14233 = torch.constant.int 1
    %12380 = torch.aten.add.Tensor %12343, %12379, %int1_14233 : !torch.vtensor<[20,64,1280],f16>, !torch.vtensor<[20,64,1280],f16>, !torch.int -> !torch.vtensor<[20,64,1280],f16>
    %int6_14234 = torch.constant.int 6
    %12381 = torch.prims.convert_element_type %12380, %int6_14234 : !torch.vtensor<[20,64,1280],f16>, !torch.int -> !torch.vtensor<[20,64,1280],f32>
    %int2_14235 = torch.constant.int 2
    %12382 = torch.prim.ListConstruct %int2_14235 : (!torch.int) -> !torch.list<int>
    %int0_14236 = torch.constant.int 0
    %true_14237 = torch.constant.bool true
    %result0_14238, %result1_14239 = torch.aten.var_mean.correction %12381, %12382, %int0_14236, %true_14237 : !torch.vtensor<[20,64,1280],f32>, !torch.list<int>, !torch.int, !torch.bool -> !torch.vtensor<[20,64,1],f32>, !torch.vtensor<[20,64,1],f32>
    %float1.000000e-05_14240 = torch.constant.float 1.000000e-05
    %int1_14241 = torch.constant.int 1
    %12383 = torch.aten.add.Scalar %result0_14238, %float1.000000e-05_14240, %int1_14241 : !torch.vtensor<[20,64,1],f32>, !torch.float, !torch.int -> !torch.vtensor<[20,64,1],f32>
    %12384 = torch.aten.rsqrt %12383 : !torch.vtensor<[20,64,1],f32> -> !torch.vtensor<[20,64,1],f32>
    %int1_14242 = torch.constant.int 1
    %12385 = torch.aten.sub.Tensor %12380, %result1_14239, %int1_14242 : !torch.vtensor<[20,64,1280],f16>, !torch.vtensor<[20,64,1],f32>, !torch.int -> !torch.vtensor<[20,64,1280],f32>
    %12386 = torch.aten.mul.Tensor %12385, %12384 : !torch.vtensor<[20,64,1280],f32>, !torch.vtensor<[20,64,1],f32> -> !torch.vtensor<[20,64,1280],f32>
    %12387 = torch.aten.mul.Tensor %12386, %6534 : !torch.vtensor<[20,64,1280],f32>, !torch.vtensor<[1280],f16> -> !torch.vtensor<[20,64,1280],f32>
    %int1_14243 = torch.constant.int 1
    %12388 = torch.aten.add.Tensor %12387, %6536, %int1_14243 : !torch.vtensor<[20,64,1280],f32>, !torch.vtensor<[1280],f16>, !torch.int -> !torch.vtensor<[20,64,1280],f32>
    %int5_14244 = torch.constant.int 5
    %12389 = torch.prims.convert_element_type %12388, %int5_14244 : !torch.vtensor<[20,64,1280],f32>, !torch.int -> !torch.vtensor<[20,64,1280],f16>
    %int20_14245 = torch.constant.int 20
    %none_14246 = torch.constant.none
    %none_14247 = torch.constant.none
    %cpu_14248 = torch.constant.device "cpu"
    %false_14249 = torch.constant.bool false
    %12390 = torch.aten.arange %int20_14245, %none_14246, %none_14247, %cpu_14248, %false_14249 : !torch.int, !torch.none, !torch.none, !torch.Device, !torch.bool -> !torch.vtensor<[20],si64>
    %int3_14250 = torch.constant.int 3
    %12391 = torch.prims.convert_element_type %8069, %int3_14250 : !torch.vtensor<[20,64],si64>, !torch.int -> !torch.vtensor<[20,64],si32>
    %int-1_14251 = torch.constant.int -1
    %false_14252 = torch.constant.bool false
    %12392 = torch.aten.argmax %12391, %int-1_14251, %false_14252 : !torch.vtensor<[20,64],si32>, !torch.int, !torch.bool -> !torch.vtensor<[20],si64>
    %12393 = torch.prim.ListConstruct %12390, %12392 : (!torch.vtensor<[20],si64>, !torch.vtensor<[20],si64>) -> !torch.list<optional<vtensor>>
    %12394 = torch.aten.index.Tensor %12389, %12393 : !torch.vtensor<[20,64,1280],f16>, !torch.list<optional<vtensor>> -> !torch.vtensor<[20,1280],f16>
    %int0_14253 = torch.constant.int 0
    %int1_14254 = torch.constant.int 1
    %12395 = torch.aten.transpose.int %6544, %int0_14253, %int1_14254 : !torch.vtensor<[1280,1280],f16>, !torch.int, !torch.int -> !torch.vtensor<[1280,1280],f16>
    %12396 = torch.aten.mm %12394, %12395 : !torch.vtensor<[20,1280],f16>, !torch.vtensor<[1280,1280],f16> -> !torch.vtensor<[20,1280],f16>
    %12397 = torch.prim.ListConstruct %1699, %6377 : (!torch.vtensor<[20,64,768],f16>, !torch.vtensor<[20,64,1280],f16>) -> !torch.list<vtensor>
    %int-1_14255 = torch.constant.int -1
    %12398 = torch.aten.cat %12397, %int-1_14255 : !torch.list<vtensor>, !torch.int -> !torch.vtensor<[20,64,2048],f16>
    %12399 = torch.prim.ListConstruct %8067, %12246 : (!torch.vtensor<[20,64,768],f16>, !torch.vtensor<[20,64,1280],f16>) -> !torch.list<vtensor>
    %int-1_14256 = torch.constant.int -1
    %12400 = torch.aten.cat %12399, %int-1_14256 : !torch.list<vtensor>, !torch.int -> !torch.vtensor<[20,64,2048],f16>
    %int1_14257 = torch.constant.int 1
    %int1_14258 = torch.constant.int 1
    %int1_14259 = torch.constant.int 1
    %12401 = torch.prim.ListConstruct %int1_14257, %int1_14258, %int1_14259 : (!torch.int, !torch.int, !torch.int) -> !torch.list<int>
    %12402 = torch.aten.repeat %12398, %12401 : !torch.vtensor<[20,64,2048],f16>, !torch.list<int> -> !torch.vtensor<[20,64,2048],f16>
    %int20_14260 = torch.constant.int 20
    %int64_14261 = torch.constant.int 64
    %int-1_14262 = torch.constant.int -1
    %12403 = torch.prim.ListConstruct %int20_14260, %int64_14261, %int-1_14262 : (!torch.int, !torch.int, !torch.int) -> !torch.list<int>
    %12404 = torch.aten.view %12402, %12403 : !torch.vtensor<[20,64,2048],f16>, !torch.list<int> -> !torch.vtensor<[20,64,2048],f16>
    %int1_14263 = torch.constant.int 1
    %int1_14264 = torch.constant.int 1
    %12405 = torch.prim.ListConstruct %int1_14263, %int1_14264 : (!torch.int, !torch.int) -> !torch.list<int>
    %12406 = torch.aten.repeat %6546, %12405 : !torch.vtensor<[20,1280],f16>, !torch.list<int> -> !torch.vtensor<[20,1280],f16>
    %int20_14265 = torch.constant.int 20
    %int-1_14266 = torch.constant.int -1
    %12407 = torch.prim.ListConstruct %int20_14265, %int-1_14266 : (!torch.int, !torch.int) -> !torch.list<int>
    %12408 = torch.aten.view %12406, %12407 : !torch.vtensor<[20,1280],f16>, !torch.list<int> -> !torch.vtensor<[20,1280],f16>
    %int1_14267 = torch.constant.int 1
    %int1_14268 = torch.constant.int 1
    %int1_14269 = torch.constant.int 1
    %12409 = torch.prim.ListConstruct %int1_14267, %int1_14268, %int1_14269 : (!torch.int, !torch.int, !torch.int) -> !torch.list<int>
    %12410 = torch.aten.repeat %12400, %12409 : !torch.vtensor<[20,64,2048],f16>, !torch.list<int> -> !torch.vtensor<[20,64,2048],f16>
    %int20_14270 = torch.constant.int 20
    %int64_14271 = torch.constant.int 64
    %int-1_14272 = torch.constant.int -1
    %12411 = torch.prim.ListConstruct %int20_14270, %int64_14271, %int-1_14272 : (!torch.int, !torch.int, !torch.int) -> !torch.list<int>
    %12412 = torch.aten.view %12410, %12411 : !torch.vtensor<[20,64,2048],f16>, !torch.list<int> -> !torch.vtensor<[20,64,2048],f16>
    %12413 = torch.prim.ListConstruct %12412, %12404 : (!torch.vtensor<[20,64,2048],f16>, !torch.vtensor<[20,64,2048],f16>) -> !torch.list<vtensor>
    %int0_14273 = torch.constant.int 0
    %12414 = torch.aten.cat %12413, %int0_14273 : !torch.list<vtensor>, !torch.int -> !torch.vtensor<[40,64,2048],f16>
    %12415 = torch.prim.ListConstruct %12396, %12408 : (!torch.vtensor<[20,1280],f16>, !torch.vtensor<[20,1280],f16>) -> !torch.list<vtensor>
    %int0_14274 = torch.constant.int 0
    %12416 = torch.aten.cat %12415, %int0_14274 : !torch.list<vtensor>, !torch.int -> !torch.vtensor<[40,1280],f16>
    %int5_14275 = torch.constant.int 5
    %12417 = torch.prims.convert_element_type %12416, %int5_14275 : !torch.vtensor<[40,1280],f16>, !torch.int -> !torch.vtensor<[40,1280],f16>
    %int5_14276 = torch.constant.int 5
    %12418 = torch.prims.convert_element_type %12414, %int5_14276 : !torch.vtensor<[40,64,2048],f16>, !torch.int -> !torch.vtensor<[40,64,2048],f16>
    return %12418, %12417 : !torch.vtensor<[40,64,2048],f16>, !torch.vtensor<[40,1280],f16>
  }
}
