#translation = #iree_codegen.translation_info<None workgroup_size = [128, 2, 1] subgroup_size = 64, {llvm_func_attrs = {"amdgpu-waves-per-eu" = "2"}}>
module {
  flow.executable private @tk_gemm_fused_2048x10240x1280 {
    flow.executable.export public @tk_gemm_fused_2048x10240x1280 workgroups() -> (index, index, index) {
      %c16 = arith.constant 16 : index
      %c32 = arith.constant 32 : index
      %c1 = arith.constant 1 : index
      flow.return %c16, %c32, %c1 : index, index, index
    }
    builtin.module {
      func.func @tk_gemm_fused_2048x10240x1280(%arg0: !stream.binding, %arg1: !stream.binding, %arg2: !stream.binding, %arg3: !stream.binding) attributes {translation_info = #translation} {
        %c19 = arith.constant 19 : index
        %c18 = arith.constant 18 : index
        %c17 = arith.constant 17 : index
        %c35 = arith.constant 35 : index
        %c34 = arith.constant 34 : index
        %c33 = arith.constant 33 : index
        %c51 = arith.constant 51 : index
        %c50 = arith.constant 50 : index
        %c49 = arith.constant 49 : index
        %c3 = arith.constant 3 : index
        %c2 = arith.constant 2 : index
        %c512_i32 = arith.constant 512 : i32
        %c256_i32 = arith.constant 256 : i32
        %c8_i32 = arith.constant 8 : i32
        %c1_i32 = arith.constant 1 : i32
        %c32_i32 = arith.constant 32 : i32
        %c0_i32 = arith.constant 0 : i32
        %c40 = arith.constant 40 : index
        %c1 = arith.constant 1 : index
        %c80 = arith.constant 80 : index
        %c96 = arith.constant 96 : index
        %c112 = arith.constant 112 : index
        %c160 = arith.constant 160 : index
        %c144 = arith.constant 144 : index
        %c16 = arith.constant 16 : index
        %c48 = arith.constant 48 : index
        %c256 = arith.constant 256 : index
        %c192 = arith.constant 192 : index
        %c320 = arith.constant 320 : index
        %c8 = arith.constant 8 : index
        %c4 = arith.constant 4 : index
        %c128 = arith.constant 128 : index
        %c64 = arith.constant 64 : index
        %c32 = arith.constant 32 : index
        %c0 = arith.constant 0 : index
        %cst = arith.constant dense<0.000000e+00> : vector<4xf32>
        %workgroup_id_0 = stream.dispatch.workgroup.id[0] : index
        %workgroup_id_1 = stream.dispatch.workgroup.id[1] : index
        %thread_id_x = gpu.thread_id  x
        %thread_id_y = gpu.thread_id  y
        %thread_id_z = gpu.thread_id  z
        %alloc = memref.alloc() : memref<320x36xf16, #gpu.address_space<workgroup>>
        %alloc_0 = memref.alloc() : memref<128x36xf16, #gpu.address_space<workgroup>>
        %0 = stream.binding.subspan %arg0[%c0] : !stream.binding -> memref<2048x1280xf16, strided<[1280, 1], offset: ?>>
        %1 = arith.muli %thread_id_y, %c32 : index
        %2 = arith.muli %thread_id_z, %c64 : index
        %3 = arith.muli %workgroup_id_0, %c128 : index
        %4 = arith.divsi %thread_id_x, %c4 : index
        %5 = arith.addi %4, %3 : index
        %6 = arith.addi %5, %2 : index
        %7 = arith.addi %6, %1 : index
        %8 = arith.remsi %thread_id_x, %c4 : index
        %9 = arith.muli %8, %c8 : index
        %10 = vector.load %0[%7, %9] : memref<2048x1280xf16, strided<[1280, 1], offset: ?>>, vector<8xf16>
        %11 = arith.addi %7, %c64 : index
        %12 = vector.load %0[%11, %9] : memref<2048x1280xf16, strided<[1280, 1], offset: ?>>, vector<8xf16>
        %13 = arith.addi %4, %2 : index
        %14 = arith.addi %13, %1 : index
        vector.store %10, %alloc_0[%14, %9] : memref<128x36xf16, #gpu.address_space<workgroup>>, vector<8xf16>
        %15 = stream.binding.subspan %arg1[%c0] : !stream.binding -> memref<10240x1280xf16, strided<[1280, 1], offset: ?>>
        %16 = arith.muli %workgroup_id_1, %c320 : index
        %17 = arith.addi %4, %16 : index
        %18 = arith.addi %17, %2 : index
        %19 = arith.addi %18, %1 : index
        %20 = vector.load %15[%19, %9] : memref<10240x1280xf16, strided<[1280, 1], offset: ?>>, vector<8xf16>
        %21 = arith.addi %14, %c64 : index
        vector.store %12, %alloc_0[%21, %9] : memref<128x36xf16, #gpu.address_space<workgroup>>, vector<8xf16>
        %22 = arith.addi %19, %c64 : index
        %23 = vector.load %15[%22, %9] : memref<10240x1280xf16, strided<[1280, 1], offset: ?>>, vector<8xf16>
        vector.store %20, %alloc[%14, %9] : memref<320x36xf16, #gpu.address_space<workgroup>>, vector<8xf16>
        %24 = arith.addi %19, %c128 : index
        %25 = vector.load %15[%24, %9] : memref<10240x1280xf16, strided<[1280, 1], offset: ?>>, vector<8xf16>
        vector.store %23, %alloc[%21, %9] : memref<320x36xf16, #gpu.address_space<workgroup>>, vector<8xf16>
        %26 = arith.addi %19, %c192 : index
        %27 = vector.load %15[%26, %9] : memref<10240x1280xf16, strided<[1280, 1], offset: ?>>, vector<8xf16>
        %28 = arith.addi %14, %c128 : index
        vector.store %25, %alloc[%28, %9] : memref<320x36xf16, #gpu.address_space<workgroup>>, vector<8xf16>
        %29 = arith.addi %19, %c256 : index
        %30 = vector.load %15[%29, %9] : memref<10240x1280xf16, strided<[1280, 1], offset: ?>>, vector<8xf16>
        %31 = arith.addi %14, %c192 : index
        vector.store %27, %alloc[%31, %9] : memref<320x36xf16, #gpu.address_space<workgroup>>, vector<8xf16>
        %32 = arith.addi %14, %c256 : index
        vector.store %30, %alloc[%32, %9] : memref<320x36xf16, #gpu.address_space<workgroup>>, vector<8xf16>
        amdgpu.lds_barrier
        amdgpu.lds_barrier
        %33 = arith.divsi %thread_id_x, %c64 : index
        %34 = arith.muli %33, %c64 : index
        %35 = arith.remsi %thread_id_x, %c16 : index
        %36 = arith.addi %35, %34 : index
        %37 = arith.addi %36, %c48 : index
        %38 = arith.remsi %thread_id_x, %c64 : index
        %39 = arith.divsi %38, %c16 : index
        %40 = arith.muli %39, %c4 : index
        %41 = arith.addi %40, %c16 : index
        %42 = vector.load %alloc_0[%37, %41] : memref<128x36xf16, #gpu.address_space<workgroup>>, vector<4xf16>
        %43 = arith.muli %thread_id_y, %c160 : index
        %44 = arith.addi %35, %43 : index
        %45 = arith.addi %44, %c144 : index
        %46 = vector.load %alloc[%45, %41] : memref<320x36xf16, #gpu.address_space<workgroup>>, vector<4xf16>
        %47 = vector.load %alloc_0[%37, %40] : memref<128x36xf16, #gpu.address_space<workgroup>>, vector<4xf16>
        %48 = vector.load %alloc[%45, %40] : memref<320x36xf16, #gpu.address_space<workgroup>>, vector<4xf16>
        %49 = amdgpu.mfma %47 * %48 + %cst {blocks = 1 : i32, k = 16 : i32, m = 16 : i32, n = 16 : i32} blgp =  none : vector<4xf16>, vector<4xf16>, vector<4xf32>
        %50 = amdgpu.mfma %42 * %46 + %49 {blocks = 1 : i32, k = 16 : i32, m = 16 : i32, n = 16 : i32} blgp =  none : vector<4xf16>, vector<4xf16>, vector<4xf32>
        %51 = arith.addi %44, %c128 : index
        %52 = vector.load %alloc[%51, %41] : memref<320x36xf16, #gpu.address_space<workgroup>>, vector<4xf16>
        %53 = vector.load %alloc[%51, %40] : memref<320x36xf16, #gpu.address_space<workgroup>>, vector<4xf16>
        %54 = amdgpu.mfma %47 * %53 + %cst {blocks = 1 : i32, k = 16 : i32, m = 16 : i32, n = 16 : i32} blgp =  none : vector<4xf16>, vector<4xf16>, vector<4xf32>
        %55 = arith.addi %44, %c112 : index
        %56 = vector.load %alloc[%55, %41] : memref<320x36xf16, #gpu.address_space<workgroup>>, vector<4xf16>
        %57 = vector.load %alloc[%55, %40] : memref<320x36xf16, #gpu.address_space<workgroup>>, vector<4xf16>
        %58 = amdgpu.mfma %42 * %52 + %54 {blocks = 1 : i32, k = 16 : i32, m = 16 : i32, n = 16 : i32} blgp =  none : vector<4xf16>, vector<4xf16>, vector<4xf32>
        %59 = amdgpu.mfma %47 * %57 + %cst {blocks = 1 : i32, k = 16 : i32, m = 16 : i32, n = 16 : i32} blgp =  none : vector<4xf16>, vector<4xf16>, vector<4xf32>
        %60 = arith.addi %44, %c96 : index
        %61 = vector.load %alloc[%60, %41] : memref<320x36xf16, #gpu.address_space<workgroup>>, vector<4xf16>
        %62 = vector.load %alloc[%60, %40] : memref<320x36xf16, #gpu.address_space<workgroup>>, vector<4xf16>
        %63 = amdgpu.mfma %42 * %56 + %59 {blocks = 1 : i32, k = 16 : i32, m = 16 : i32, n = 16 : i32} blgp =  none : vector<4xf16>, vector<4xf16>, vector<4xf32>
        %64 = amdgpu.mfma %47 * %62 + %cst {blocks = 1 : i32, k = 16 : i32, m = 16 : i32, n = 16 : i32} blgp =  none : vector<4xf16>, vector<4xf16>, vector<4xf32>
        %65 = arith.addi %44, %c80 : index
        %66 = vector.load %alloc[%65, %41] : memref<320x36xf16, #gpu.address_space<workgroup>>, vector<4xf16>
        %67 = vector.load %alloc[%65, %40] : memref<320x36xf16, #gpu.address_space<workgroup>>, vector<4xf16>
        %68 = amdgpu.mfma %42 * %61 + %64 {blocks = 1 : i32, k = 16 : i32, m = 16 : i32, n = 16 : i32} blgp =  none : vector<4xf16>, vector<4xf16>, vector<4xf32>
        %69 = amdgpu.mfma %47 * %67 + %cst {blocks = 1 : i32, k = 16 : i32, m = 16 : i32, n = 16 : i32} blgp =  none : vector<4xf16>, vector<4xf16>, vector<4xf32>
        %70 = arith.addi %44, %c64 : index
        %71 = vector.load %alloc[%70, %41] : memref<320x36xf16, #gpu.address_space<workgroup>>, vector<4xf16>
        %72 = vector.load %alloc[%70, %40] : memref<320x36xf16, #gpu.address_space<workgroup>>, vector<4xf16>
        %73 = amdgpu.mfma %42 * %66 + %69 {blocks = 1 : i32, k = 16 : i32, m = 16 : i32, n = 16 : i32} blgp =  none : vector<4xf16>, vector<4xf16>, vector<4xf32>
        %74 = amdgpu.mfma %47 * %72 + %cst {blocks = 1 : i32, k = 16 : i32, m = 16 : i32, n = 16 : i32} blgp =  none : vector<4xf16>, vector<4xf16>, vector<4xf32>
        %75 = arith.addi %44, %c48 : index
        %76 = vector.load %alloc[%75, %41] : memref<320x36xf16, #gpu.address_space<workgroup>>, vector<4xf16>
        %77 = vector.load %alloc[%75, %40] : memref<320x36xf16, #gpu.address_space<workgroup>>, vector<4xf16>
        %78 = amdgpu.mfma %42 * %71 + %74 {blocks = 1 : i32, k = 16 : i32, m = 16 : i32, n = 16 : i32} blgp =  none : vector<4xf16>, vector<4xf16>, vector<4xf32>
        %79 = amdgpu.mfma %47 * %77 + %cst {blocks = 1 : i32, k = 16 : i32, m = 16 : i32, n = 16 : i32} blgp =  none : vector<4xf16>, vector<4xf16>, vector<4xf32>
        %80 = arith.addi %44, %c32 : index
        %81 = vector.load %alloc[%80, %41] : memref<320x36xf16, #gpu.address_space<workgroup>>, vector<4xf16>
        %82 = vector.load %alloc[%80, %40] : memref<320x36xf16, #gpu.address_space<workgroup>>, vector<4xf16>
        %83 = amdgpu.mfma %42 * %76 + %79 {blocks = 1 : i32, k = 16 : i32, m = 16 : i32, n = 16 : i32} blgp =  none : vector<4xf16>, vector<4xf16>, vector<4xf32>
        %84 = amdgpu.mfma %47 * %82 + %cst {blocks = 1 : i32, k = 16 : i32, m = 16 : i32, n = 16 : i32} blgp =  none : vector<4xf16>, vector<4xf16>, vector<4xf32>
        %85 = arith.addi %44, %c16 : index
        %86 = vector.load %alloc[%85, %41] : memref<320x36xf16, #gpu.address_space<workgroup>>, vector<4xf16>
        %87 = vector.load %alloc[%85, %40] : memref<320x36xf16, #gpu.address_space<workgroup>>, vector<4xf16>
        %88 = amdgpu.mfma %42 * %81 + %84 {blocks = 1 : i32, k = 16 : i32, m = 16 : i32, n = 16 : i32} blgp =  none : vector<4xf16>, vector<4xf16>, vector<4xf32>
        %89 = amdgpu.mfma %47 * %87 + %cst {blocks = 1 : i32, k = 16 : i32, m = 16 : i32, n = 16 : i32} blgp =  none : vector<4xf16>, vector<4xf16>, vector<4xf32>
        %90 = vector.load %alloc[%44, %41] : memref<320x36xf16, #gpu.address_space<workgroup>>, vector<4xf16>
        %91 = vector.load %alloc[%44, %40] : memref<320x36xf16, #gpu.address_space<workgroup>>, vector<4xf16>
        %92 = amdgpu.mfma %42 * %86 + %89 {blocks = 1 : i32, k = 16 : i32, m = 16 : i32, n = 16 : i32} blgp =  none : vector<4xf16>, vector<4xf16>, vector<4xf32>
        %93 = amdgpu.mfma %47 * %91 + %cst {blocks = 1 : i32, k = 16 : i32, m = 16 : i32, n = 16 : i32} blgp =  none : vector<4xf16>, vector<4xf16>, vector<4xf32>
        %94 = arith.addi %36, %c32 : index
        %95 = vector.load %alloc_0[%94, %41] : memref<128x36xf16, #gpu.address_space<workgroup>>, vector<4xf16>
        %96 = vector.load %alloc_0[%94, %40] : memref<128x36xf16, #gpu.address_space<workgroup>>, vector<4xf16>
        %97:63 = scf.for %arg4 = %c1 to %c40 step %c1 iter_args(%arg5 = %93, %arg6 = %91, %arg7 = %90, %arg8 = %87, %arg9 = %86, %arg10 = %82, %arg11 = %81, %arg12 = %77, %arg13 = %76, %arg14 = %72, %arg15 = %71, %arg16 = %67, %arg17 = %66, %arg18 = %62, %arg19 = %61, %arg20 = %57, %arg21 = %56, %arg22 = %53, %arg23 = %52, %arg24 = %48, %arg25 = %46, %arg26 = %96, %arg27 = %95, %arg28 = %42, %arg29 = %cst, %arg30 = %cst, %arg31 = %cst, %arg32 = %cst, %arg33 = %cst, %arg34 = %cst, %arg35 = %cst, %arg36 = %cst, %arg37 = %cst, %arg38 = %cst, %arg39 = %cst, %arg40 = %cst, %arg41 = %cst, %arg42 = %cst, %arg43 = %cst, %arg44 = %cst, %arg45 = %cst, %arg46 = %cst, %arg47 = %cst, %arg48 = %cst, %arg49 = %cst, %arg50 = %cst, %arg51 = %cst, %arg52 = %cst, %arg53 = %cst, %arg54 = %cst, %arg55 = %cst, %arg56 = %cst, %arg57 = %cst, %arg58 = %cst, %arg59 = %92, %arg60 = %88, %arg61 = %83, %arg62 = %78, %arg63 = %73, %arg64 = %68, %arg65 = %63, %arg66 = %58, %arg67 = %50) -> (vector<4xf32>, vector<4xf16>, vector<4xf16>, vector<4xf16>, vector<4xf16>, vector<4xf16>, vector<4xf16>, vector<4xf16>, vector<4xf16>, vector<4xf16>, vector<4xf16>, vector<4xf16>, vector<4xf16>, vector<4xf16>, vector<4xf16>, vector<4xf16>, vector<4xf16>, vector<4xf16>, vector<4xf16>, vector<4xf16>, vector<4xf16>, vector<4xf16>, vector<4xf16>, vector<4xf16>, vector<4xf32>, vector<4xf32>, vector<4xf32>, vector<4xf32>, vector<4xf32>, vector<4xf32>, vector<4xf32>, vector<4xf32>, vector<4xf32>, vector<4xf32>, vector<4xf32>, vector<4xf32>, vector<4xf32>, vector<4xf32>, vector<4xf32>, vector<4xf32>, vector<4xf32>, vector<4xf32>, vector<4xf32>, vector<4xf32>, vector<4xf32>, vector<4xf32>, vector<4xf32>, vector<4xf32>, vector<4xf32>, vector<4xf32>, vector<4xf32>, vector<4xf32>, vector<4xf32>, vector<4xf32>, vector<4xf32>, vector<4xf32>, vector<4xf32>, vector<4xf32>, vector<4xf32>, vector<4xf32>, vector<4xf32>, vector<4xf32>, vector<4xf32>) {
          %714 = arith.muli %arg4, %c32 : index
          %715 = arith.addi %714, %9 : index
          %716 = vector.load %0[%7, %715] : memref<2048x1280xf16, strided<[1280, 1], offset: ?>>, vector<8xf16>
          %717 = amdgpu.mfma %arg28 * %arg7 + %arg5 {blocks = 1 : i32, k = 16 : i32, m = 16 : i32, n = 16 : i32} blgp =  none : vector<4xf16>, vector<4xf16>, vector<4xf32>
          %718 = amdgpu.mfma %arg26 * %arg24 + %arg58 {blocks = 1 : i32, k = 16 : i32, m = 16 : i32, n = 16 : i32} blgp =  none : vector<4xf16>, vector<4xf16>, vector<4xf32>
          %719 = amdgpu.mfma %arg26 * %arg22 + %arg57 {blocks = 1 : i32, k = 16 : i32, m = 16 : i32, n = 16 : i32} blgp =  none : vector<4xf16>, vector<4xf16>, vector<4xf32>
          %720 = amdgpu.mfma %arg26 * %arg20 + %arg56 {blocks = 1 : i32, k = 16 : i32, m = 16 : i32, n = 16 : i32} blgp =  none : vector<4xf16>, vector<4xf16>, vector<4xf32>
          %721 = amdgpu.mfma %arg26 * %arg18 + %arg55 {blocks = 1 : i32, k = 16 : i32, m = 16 : i32, n = 16 : i32} blgp =  none : vector<4xf16>, vector<4xf16>, vector<4xf32>
          %722 = amdgpu.mfma %arg26 * %arg16 + %arg54 {blocks = 1 : i32, k = 16 : i32, m = 16 : i32, n = 16 : i32} blgp =  none : vector<4xf16>, vector<4xf16>, vector<4xf32>
          %723 = amdgpu.mfma %arg26 * %arg14 + %arg53 {blocks = 1 : i32, k = 16 : i32, m = 16 : i32, n = 16 : i32} blgp =  none : vector<4xf16>, vector<4xf16>, vector<4xf32>
          %724 = amdgpu.mfma %arg26 * %arg12 + %arg52 {blocks = 1 : i32, k = 16 : i32, m = 16 : i32, n = 16 : i32} blgp =  none : vector<4xf16>, vector<4xf16>, vector<4xf32>
          %725 = arith.addi %36, %c16 : index
          %726 = vector.load %alloc_0[%725, %41] : memref<128x36xf16, #gpu.address_space<workgroup>>, vector<4xf16>
          %727 = vector.load %alloc_0[%725, %40] : memref<128x36xf16, #gpu.address_space<workgroup>>, vector<4xf16>
          llvm.call_intrinsic "llvm.amdgcn.sched.group.barrier"(%c32_i32, %c1_i32, %c0_i32) : (i32, i32, i32) -> ()
          llvm.call_intrinsic "llvm.amdgcn.sched.group.barrier"(%c8_i32, %c1_i32, %c0_i32) : (i32, i32, i32) -> ()
          llvm.call_intrinsic "llvm.amdgcn.sched.group.barrier"(%c256_i32, %c1_i32, %c0_i32) : (i32, i32, i32) -> ()
          llvm.call_intrinsic "llvm.amdgcn.sched.group.barrier"(%c8_i32, %c1_i32, %c0_i32) : (i32, i32, i32) -> ()
          llvm.call_intrinsic "llvm.amdgcn.sched.group.barrier"(%c256_i32, %c1_i32, %c0_i32) : (i32, i32, i32) -> ()
          llvm.call_intrinsic "llvm.amdgcn.sched.group.barrier"(%c8_i32, %c1_i32, %c0_i32) : (i32, i32, i32) -> ()
          llvm.call_intrinsic "llvm.amdgcn.sched.group.barrier"(%c8_i32, %c1_i32, %c0_i32) : (i32, i32, i32) -> ()
          llvm.call_intrinsic "llvm.amdgcn.sched.group.barrier"(%c8_i32, %c1_i32, %c0_i32) : (i32, i32, i32) -> ()
          llvm.call_intrinsic "llvm.amdgcn.sched.group.barrier"(%c8_i32, %c1_i32, %c0_i32) : (i32, i32, i32) -> ()
          llvm.call_intrinsic "llvm.amdgcn.sched.group.barrier"(%c8_i32, %c1_i32, %c0_i32) : (i32, i32, i32) -> ()
          llvm.call_intrinsic "llvm.amdgcn.sched.group.barrier"(%c8_i32, %c1_i32, %c0_i32) : (i32, i32, i32) -> ()
          %728 = vector.load %0[%11, %715] : memref<2048x1280xf16, strided<[1280, 1], offset: ?>>, vector<8xf16>
          %729 = amdgpu.mfma %arg27 * %arg25 + %718 {blocks = 1 : i32, k = 16 : i32, m = 16 : i32, n = 16 : i32} blgp =  none : vector<4xf16>, vector<4xf16>, vector<4xf32>
          %730 = amdgpu.mfma %arg27 * %arg23 + %719 {blocks = 1 : i32, k = 16 : i32, m = 16 : i32, n = 16 : i32} blgp =  none : vector<4xf16>, vector<4xf16>, vector<4xf32>
          %731 = amdgpu.mfma %arg27 * %arg21 + %720 {blocks = 1 : i32, k = 16 : i32, m = 16 : i32, n = 16 : i32} blgp =  none : vector<4xf16>, vector<4xf16>, vector<4xf32>
          %732 = amdgpu.mfma %arg27 * %arg19 + %721 {blocks = 1 : i32, k = 16 : i32, m = 16 : i32, n = 16 : i32} blgp =  none : vector<4xf16>, vector<4xf16>, vector<4xf32>
          %733 = amdgpu.mfma %arg27 * %arg17 + %722 {blocks = 1 : i32, k = 16 : i32, m = 16 : i32, n = 16 : i32} blgp =  none : vector<4xf16>, vector<4xf16>, vector<4xf32>
          %734 = amdgpu.mfma %arg27 * %arg15 + %723 {blocks = 1 : i32, k = 16 : i32, m = 16 : i32, n = 16 : i32} blgp =  none : vector<4xf16>, vector<4xf16>, vector<4xf32>
          %735 = amdgpu.mfma %arg27 * %arg13 + %724 {blocks = 1 : i32, k = 16 : i32, m = 16 : i32, n = 16 : i32} blgp =  none : vector<4xf16>, vector<4xf16>, vector<4xf32>
          %736 = amdgpu.mfma %arg26 * %arg10 + %arg51 {blocks = 1 : i32, k = 16 : i32, m = 16 : i32, n = 16 : i32} blgp =  none : vector<4xf16>, vector<4xf16>, vector<4xf32>
          %737 = vector.load %alloc_0[%36, %41] : memref<128x36xf16, #gpu.address_space<workgroup>>, vector<4xf16>
          %738 = vector.load %alloc_0[%36, %40] : memref<128x36xf16, #gpu.address_space<workgroup>>, vector<4xf16>
          llvm.call_intrinsic "llvm.amdgcn.sched.group.barrier"(%c32_i32, %c1_i32, %c0_i32) : (i32, i32, i32) -> ()
          llvm.call_intrinsic "llvm.amdgcn.sched.group.barrier"(%c8_i32, %c1_i32, %c0_i32) : (i32, i32, i32) -> ()
          llvm.call_intrinsic "llvm.amdgcn.sched.group.barrier"(%c256_i32, %c1_i32, %c0_i32) : (i32, i32, i32) -> ()
          llvm.call_intrinsic "llvm.amdgcn.sched.group.barrier"(%c8_i32, %c1_i32, %c0_i32) : (i32, i32, i32) -> ()
          llvm.call_intrinsic "llvm.amdgcn.sched.group.barrier"(%c256_i32, %c1_i32, %c0_i32) : (i32, i32, i32) -> ()
          llvm.call_intrinsic "llvm.amdgcn.sched.group.barrier"(%c8_i32, %c1_i32, %c0_i32) : (i32, i32, i32) -> ()
          llvm.call_intrinsic "llvm.amdgcn.sched.group.barrier"(%c8_i32, %c1_i32, %c0_i32) : (i32, i32, i32) -> ()
          llvm.call_intrinsic "llvm.amdgcn.sched.group.barrier"(%c8_i32, %c1_i32, %c0_i32) : (i32, i32, i32) -> ()
          llvm.call_intrinsic "llvm.amdgcn.sched.group.barrier"(%c8_i32, %c1_i32, %c0_i32) : (i32, i32, i32) -> ()
          llvm.call_intrinsic "llvm.amdgcn.sched.group.barrier"(%c8_i32, %c1_i32, %c0_i32) : (i32, i32, i32) -> ()
          llvm.call_intrinsic "llvm.amdgcn.sched.group.barrier"(%c8_i32, %c1_i32, %c0_i32) : (i32, i32, i32) -> ()
          amdgpu.lds_barrier
          vector.store %716, %alloc_0[%14, %9] : memref<128x36xf16, #gpu.address_space<workgroup>>, vector<8xf16>
          %739 = vector.load %15[%19, %715] : memref<10240x1280xf16, strided<[1280, 1], offset: ?>>, vector<8xf16>
          %740 = amdgpu.mfma %arg27 * %arg11 + %736 {blocks = 1 : i32, k = 16 : i32, m = 16 : i32, n = 16 : i32} blgp =  none : vector<4xf16>, vector<4xf16>, vector<4xf32>
          %741 = amdgpu.mfma %arg26 * %arg8 + %arg50 {blocks = 1 : i32, k = 16 : i32, m = 16 : i32, n = 16 : i32} blgp =  none : vector<4xf16>, vector<4xf16>, vector<4xf32>
          %742 = amdgpu.mfma %arg26 * %arg6 + %arg49 {blocks = 1 : i32, k = 16 : i32, m = 16 : i32, n = 16 : i32} blgp =  none : vector<4xf16>, vector<4xf16>, vector<4xf32>
          %743 = amdgpu.mfma %727 * %arg24 + %arg48 {blocks = 1 : i32, k = 16 : i32, m = 16 : i32, n = 16 : i32} blgp =  none : vector<4xf16>, vector<4xf16>, vector<4xf32>
          %744 = amdgpu.mfma %727 * %arg22 + %arg47 {blocks = 1 : i32, k = 16 : i32, m = 16 : i32, n = 16 : i32} blgp =  none : vector<4xf16>, vector<4xf16>, vector<4xf32>
          %745 = amdgpu.mfma %727 * %arg20 + %arg46 {blocks = 1 : i32, k = 16 : i32, m = 16 : i32, n = 16 : i32} blgp =  none : vector<4xf16>, vector<4xf16>, vector<4xf32>
          %746 = amdgpu.mfma %727 * %arg18 + %arg45 {blocks = 1 : i32, k = 16 : i32, m = 16 : i32, n = 16 : i32} blgp =  none : vector<4xf16>, vector<4xf16>, vector<4xf32>
          %747 = amdgpu.mfma %727 * %arg16 + %arg44 {blocks = 1 : i32, k = 16 : i32, m = 16 : i32, n = 16 : i32} blgp =  none : vector<4xf16>, vector<4xf16>, vector<4xf32>
          llvm.call_intrinsic "llvm.amdgcn.sched.group.barrier"(%c512_i32, %c1_i32, %c0_i32) : (i32, i32, i32) -> ()
          llvm.call_intrinsic "llvm.amdgcn.sched.group.barrier"(%c32_i32, %c1_i32, %c0_i32) : (i32, i32, i32) -> ()
          llvm.call_intrinsic "llvm.amdgcn.sched.group.barrier"(%c8_i32, %c1_i32, %c0_i32) : (i32, i32, i32) -> ()
          llvm.call_intrinsic "llvm.amdgcn.sched.group.barrier"(%c8_i32, %c1_i32, %c0_i32) : (i32, i32, i32) -> ()
          llvm.call_intrinsic "llvm.amdgcn.sched.group.barrier"(%c8_i32, %c1_i32, %c0_i32) : (i32, i32, i32) -> ()
          llvm.call_intrinsic "llvm.amdgcn.sched.group.barrier"(%c8_i32, %c1_i32, %c0_i32) : (i32, i32, i32) -> ()
          llvm.call_intrinsic "llvm.amdgcn.sched.group.barrier"(%c8_i32, %c1_i32, %c0_i32) : (i32, i32, i32) -> ()
          llvm.call_intrinsic "llvm.amdgcn.sched.group.barrier"(%c8_i32, %c1_i32, %c0_i32) : (i32, i32, i32) -> ()
          llvm.call_intrinsic "llvm.amdgcn.sched.group.barrier"(%c8_i32, %c1_i32, %c0_i32) : (i32, i32, i32) -> ()
          llvm.call_intrinsic "llvm.amdgcn.sched.group.barrier"(%c8_i32, %c1_i32, %c0_i32) : (i32, i32, i32) -> ()
          vector.store %728, %alloc_0[%21, %9] : memref<128x36xf16, #gpu.address_space<workgroup>>, vector<8xf16>
          %748 = vector.load %15[%22, %715] : memref<10240x1280xf16, strided<[1280, 1], offset: ?>>, vector<8xf16>
          %749 = amdgpu.mfma %arg27 * %arg9 + %741 {blocks = 1 : i32, k = 16 : i32, m = 16 : i32, n = 16 : i32} blgp =  none : vector<4xf16>, vector<4xf16>, vector<4xf32>
          %750 = amdgpu.mfma %arg27 * %arg7 + %742 {blocks = 1 : i32, k = 16 : i32, m = 16 : i32, n = 16 : i32} blgp =  none : vector<4xf16>, vector<4xf16>, vector<4xf32>
          %751 = amdgpu.mfma %726 * %arg25 + %743 {blocks = 1 : i32, k = 16 : i32, m = 16 : i32, n = 16 : i32} blgp =  none : vector<4xf16>, vector<4xf16>, vector<4xf32>
          %752 = amdgpu.mfma %726 * %arg23 + %744 {blocks = 1 : i32, k = 16 : i32, m = 16 : i32, n = 16 : i32} blgp =  none : vector<4xf16>, vector<4xf16>, vector<4xf32>
          %753 = amdgpu.mfma %726 * %arg21 + %745 {blocks = 1 : i32, k = 16 : i32, m = 16 : i32, n = 16 : i32} blgp =  none : vector<4xf16>, vector<4xf16>, vector<4xf32>
          %754 = amdgpu.mfma %726 * %arg19 + %746 {blocks = 1 : i32, k = 16 : i32, m = 16 : i32, n = 16 : i32} blgp =  none : vector<4xf16>, vector<4xf16>, vector<4xf32>
          %755 = amdgpu.mfma %726 * %arg17 + %747 {blocks = 1 : i32, k = 16 : i32, m = 16 : i32, n = 16 : i32} blgp =  none : vector<4xf16>, vector<4xf16>, vector<4xf32>
          %756 = amdgpu.mfma %727 * %arg14 + %arg43 {blocks = 1 : i32, k = 16 : i32, m = 16 : i32, n = 16 : i32} blgp =  none : vector<4xf16>, vector<4xf16>, vector<4xf32>
          llvm.call_intrinsic "llvm.amdgcn.sched.group.barrier"(%c512_i32, %c1_i32, %c0_i32) : (i32, i32, i32) -> ()
          llvm.call_intrinsic "llvm.amdgcn.sched.group.barrier"(%c32_i32, %c1_i32, %c0_i32) : (i32, i32, i32) -> ()
          llvm.call_intrinsic "llvm.amdgcn.sched.group.barrier"(%c8_i32, %c1_i32, %c0_i32) : (i32, i32, i32) -> ()
          llvm.call_intrinsic "llvm.amdgcn.sched.group.barrier"(%c8_i32, %c1_i32, %c0_i32) : (i32, i32, i32) -> ()
          llvm.call_intrinsic "llvm.amdgcn.sched.group.barrier"(%c8_i32, %c1_i32, %c0_i32) : (i32, i32, i32) -> ()
          llvm.call_intrinsic "llvm.amdgcn.sched.group.barrier"(%c8_i32, %c1_i32, %c0_i32) : (i32, i32, i32) -> ()
          llvm.call_intrinsic "llvm.amdgcn.sched.group.barrier"(%c8_i32, %c1_i32, %c0_i32) : (i32, i32, i32) -> ()
          llvm.call_intrinsic "llvm.amdgcn.sched.group.barrier"(%c8_i32, %c1_i32, %c0_i32) : (i32, i32, i32) -> ()
          llvm.call_intrinsic "llvm.amdgcn.sched.group.barrier"(%c8_i32, %c1_i32, %c0_i32) : (i32, i32, i32) -> ()
          llvm.call_intrinsic "llvm.amdgcn.sched.group.barrier"(%c8_i32, %c1_i32, %c0_i32) : (i32, i32, i32) -> ()
          vector.store %739, %alloc[%14, %9] : memref<320x36xf16, #gpu.address_space<workgroup>>, vector<8xf16>
          %757 = vector.load %15[%24, %715] : memref<10240x1280xf16, strided<[1280, 1], offset: ?>>, vector<8xf16>
          %758 = amdgpu.mfma %726 * %arg15 + %756 {blocks = 1 : i32, k = 16 : i32, m = 16 : i32, n = 16 : i32} blgp =  none : vector<4xf16>, vector<4xf16>, vector<4xf32>
          %759 = amdgpu.mfma %727 * %arg12 + %arg42 {blocks = 1 : i32, k = 16 : i32, m = 16 : i32, n = 16 : i32} blgp =  none : vector<4xf16>, vector<4xf16>, vector<4xf32>
          %760 = amdgpu.mfma %727 * %arg10 + %arg41 {blocks = 1 : i32, k = 16 : i32, m = 16 : i32, n = 16 : i32} blgp =  none : vector<4xf16>, vector<4xf16>, vector<4xf32>
          %761 = amdgpu.mfma %727 * %arg8 + %arg40 {blocks = 1 : i32, k = 16 : i32, m = 16 : i32, n = 16 : i32} blgp =  none : vector<4xf16>, vector<4xf16>, vector<4xf32>
          %762 = amdgpu.mfma %727 * %arg6 + %arg39 {blocks = 1 : i32, k = 16 : i32, m = 16 : i32, n = 16 : i32} blgp =  none : vector<4xf16>, vector<4xf16>, vector<4xf32>
          %763 = amdgpu.mfma %738 * %arg24 + %arg38 {blocks = 1 : i32, k = 16 : i32, m = 16 : i32, n = 16 : i32} blgp =  none : vector<4xf16>, vector<4xf16>, vector<4xf32>
          %764 = amdgpu.mfma %738 * %arg22 + %arg37 {blocks = 1 : i32, k = 16 : i32, m = 16 : i32, n = 16 : i32} blgp =  none : vector<4xf16>, vector<4xf16>, vector<4xf32>
          %765 = amdgpu.mfma %738 * %arg20 + %arg36 {blocks = 1 : i32, k = 16 : i32, m = 16 : i32, n = 16 : i32} blgp =  none : vector<4xf16>, vector<4xf16>, vector<4xf32>
          llvm.call_intrinsic "llvm.amdgcn.sched.group.barrier"(%c512_i32, %c1_i32, %c0_i32) : (i32, i32, i32) -> ()
          llvm.call_intrinsic "llvm.amdgcn.sched.group.barrier"(%c32_i32, %c1_i32, %c0_i32) : (i32, i32, i32) -> ()
          llvm.call_intrinsic "llvm.amdgcn.sched.group.barrier"(%c8_i32, %c1_i32, %c0_i32) : (i32, i32, i32) -> ()
          llvm.call_intrinsic "llvm.amdgcn.sched.group.barrier"(%c8_i32, %c1_i32, %c0_i32) : (i32, i32, i32) -> ()
          llvm.call_intrinsic "llvm.amdgcn.sched.group.barrier"(%c8_i32, %c1_i32, %c0_i32) : (i32, i32, i32) -> ()
          llvm.call_intrinsic "llvm.amdgcn.sched.group.barrier"(%c8_i32, %c1_i32, %c0_i32) : (i32, i32, i32) -> ()
          llvm.call_intrinsic "llvm.amdgcn.sched.group.barrier"(%c8_i32, %c1_i32, %c0_i32) : (i32, i32, i32) -> ()
          llvm.call_intrinsic "llvm.amdgcn.sched.group.barrier"(%c8_i32, %c1_i32, %c0_i32) : (i32, i32, i32) -> ()
          llvm.call_intrinsic "llvm.amdgcn.sched.group.barrier"(%c8_i32, %c1_i32, %c0_i32) : (i32, i32, i32) -> ()
          llvm.call_intrinsic "llvm.amdgcn.sched.group.barrier"(%c8_i32, %c1_i32, %c0_i32) : (i32, i32, i32) -> ()
          vector.store %748, %alloc[%21, %9] : memref<320x36xf16, #gpu.address_space<workgroup>>, vector<8xf16>
          %766 = vector.load %15[%26, %715] : memref<10240x1280xf16, strided<[1280, 1], offset: ?>>, vector<8xf16>
          %767 = amdgpu.mfma %726 * %arg13 + %759 {blocks = 1 : i32, k = 16 : i32, m = 16 : i32, n = 16 : i32} blgp =  none : vector<4xf16>, vector<4xf16>, vector<4xf32>
          %768 = amdgpu.mfma %726 * %arg11 + %760 {blocks = 1 : i32, k = 16 : i32, m = 16 : i32, n = 16 : i32} blgp =  none : vector<4xf16>, vector<4xf16>, vector<4xf32>
          %769 = amdgpu.mfma %726 * %arg9 + %761 {blocks = 1 : i32, k = 16 : i32, m = 16 : i32, n = 16 : i32} blgp =  none : vector<4xf16>, vector<4xf16>, vector<4xf32>
          %770 = amdgpu.mfma %726 * %arg7 + %762 {blocks = 1 : i32, k = 16 : i32, m = 16 : i32, n = 16 : i32} blgp =  none : vector<4xf16>, vector<4xf16>, vector<4xf32>
          %771 = amdgpu.mfma %737 * %arg25 + %763 {blocks = 1 : i32, k = 16 : i32, m = 16 : i32, n = 16 : i32} blgp =  none : vector<4xf16>, vector<4xf16>, vector<4xf32>
          %772 = amdgpu.mfma %737 * %arg23 + %764 {blocks = 1 : i32, k = 16 : i32, m = 16 : i32, n = 16 : i32} blgp =  none : vector<4xf16>, vector<4xf16>, vector<4xf32>
          %773 = amdgpu.mfma %737 * %arg21 + %765 {blocks = 1 : i32, k = 16 : i32, m = 16 : i32, n = 16 : i32} blgp =  none : vector<4xf16>, vector<4xf16>, vector<4xf32>
          %774 = amdgpu.mfma %738 * %arg18 + %arg35 {blocks = 1 : i32, k = 16 : i32, m = 16 : i32, n = 16 : i32} blgp =  none : vector<4xf16>, vector<4xf16>, vector<4xf32>
          llvm.call_intrinsic "llvm.amdgcn.sched.group.barrier"(%c512_i32, %c1_i32, %c0_i32) : (i32, i32, i32) -> ()
          llvm.call_intrinsic "llvm.amdgcn.sched.group.barrier"(%c32_i32, %c1_i32, %c0_i32) : (i32, i32, i32) -> ()
          llvm.call_intrinsic "llvm.amdgcn.sched.group.barrier"(%c8_i32, %c1_i32, %c0_i32) : (i32, i32, i32) -> ()
          llvm.call_intrinsic "llvm.amdgcn.sched.group.barrier"(%c8_i32, %c1_i32, %c0_i32) : (i32, i32, i32) -> ()
          llvm.call_intrinsic "llvm.amdgcn.sched.group.barrier"(%c8_i32, %c1_i32, %c0_i32) : (i32, i32, i32) -> ()
          llvm.call_intrinsic "llvm.amdgcn.sched.group.barrier"(%c8_i32, %c1_i32, %c0_i32) : (i32, i32, i32) -> ()
          llvm.call_intrinsic "llvm.amdgcn.sched.group.barrier"(%c8_i32, %c1_i32, %c0_i32) : (i32, i32, i32) -> ()
          llvm.call_intrinsic "llvm.amdgcn.sched.group.barrier"(%c8_i32, %c1_i32, %c0_i32) : (i32, i32, i32) -> ()
          llvm.call_intrinsic "llvm.amdgcn.sched.group.barrier"(%c8_i32, %c1_i32, %c0_i32) : (i32, i32, i32) -> ()
          llvm.call_intrinsic "llvm.amdgcn.sched.group.barrier"(%c8_i32, %c1_i32, %c0_i32) : (i32, i32, i32) -> ()
          vector.store %757, %alloc[%28, %9] : memref<320x36xf16, #gpu.address_space<workgroup>>, vector<8xf16>
          %775 = vector.load %15[%29, %715] : memref<10240x1280xf16, strided<[1280, 1], offset: ?>>, vector<8xf16>
          %776 = amdgpu.mfma %737 * %arg19 + %774 {blocks = 1 : i32, k = 16 : i32, m = 16 : i32, n = 16 : i32} blgp =  none : vector<4xf16>, vector<4xf16>, vector<4xf32>
          %777 = amdgpu.mfma %738 * %arg16 + %arg34 {blocks = 1 : i32, k = 16 : i32, m = 16 : i32, n = 16 : i32} blgp =  none : vector<4xf16>, vector<4xf16>, vector<4xf32>
          %778 = amdgpu.mfma %738 * %arg14 + %arg33 {blocks = 1 : i32, k = 16 : i32, m = 16 : i32, n = 16 : i32} blgp =  none : vector<4xf16>, vector<4xf16>, vector<4xf32>
          %779 = amdgpu.mfma %738 * %arg12 + %arg32 {blocks = 1 : i32, k = 16 : i32, m = 16 : i32, n = 16 : i32} blgp =  none : vector<4xf16>, vector<4xf16>, vector<4xf32>
          %780 = amdgpu.mfma %738 * %arg10 + %arg31 {blocks = 1 : i32, k = 16 : i32, m = 16 : i32, n = 16 : i32} blgp =  none : vector<4xf16>, vector<4xf16>, vector<4xf32>
          %781 = amdgpu.mfma %738 * %arg8 + %arg30 {blocks = 1 : i32, k = 16 : i32, m = 16 : i32, n = 16 : i32} blgp =  none : vector<4xf16>, vector<4xf16>, vector<4xf32>
          %782 = amdgpu.mfma %738 * %arg6 + %arg29 {blocks = 1 : i32, k = 16 : i32, m = 16 : i32, n = 16 : i32} blgp =  none : vector<4xf16>, vector<4xf16>, vector<4xf32>
          llvm.call_intrinsic "llvm.amdgcn.sched.group.barrier"(%c512_i32, %c1_i32, %c0_i32) : (i32, i32, i32) -> ()
          llvm.call_intrinsic "llvm.amdgcn.sched.group.barrier"(%c32_i32, %c1_i32, %c0_i32) : (i32, i32, i32) -> ()
          llvm.call_intrinsic "llvm.amdgcn.sched.group.barrier"(%c8_i32, %c1_i32, %c0_i32) : (i32, i32, i32) -> ()
          llvm.call_intrinsic "llvm.amdgcn.sched.group.barrier"(%c8_i32, %c1_i32, %c0_i32) : (i32, i32, i32) -> ()
          llvm.call_intrinsic "llvm.amdgcn.sched.group.barrier"(%c8_i32, %c1_i32, %c0_i32) : (i32, i32, i32) -> ()
          llvm.call_intrinsic "llvm.amdgcn.sched.group.barrier"(%c8_i32, %c1_i32, %c0_i32) : (i32, i32, i32) -> ()
          llvm.call_intrinsic "llvm.amdgcn.sched.group.barrier"(%c8_i32, %c1_i32, %c0_i32) : (i32, i32, i32) -> ()
          llvm.call_intrinsic "llvm.amdgcn.sched.group.barrier"(%c8_i32, %c1_i32, %c0_i32) : (i32, i32, i32) -> ()
          llvm.call_intrinsic "llvm.amdgcn.sched.group.barrier"(%c8_i32, %c1_i32, %c0_i32) : (i32, i32, i32) -> ()
          vector.store %766, %alloc[%31, %9] : memref<320x36xf16, #gpu.address_space<workgroup>>, vector<8xf16>
          vector.store %775, %alloc[%32, %9] : memref<320x36xf16, #gpu.address_space<workgroup>>, vector<8xf16>
          amdgpu.lds_barrier
          %783 = amdgpu.mfma %737 * %arg17 + %777 {blocks = 1 : i32, k = 16 : i32, m = 16 : i32, n = 16 : i32} blgp =  none : vector<4xf16>, vector<4xf16>, vector<4xf32>
          %784 = amdgpu.mfma %737 * %arg15 + %778 {blocks = 1 : i32, k = 16 : i32, m = 16 : i32, n = 16 : i32} blgp =  none : vector<4xf16>, vector<4xf16>, vector<4xf32>
          %785 = amdgpu.mfma %737 * %arg13 + %779 {blocks = 1 : i32, k = 16 : i32, m = 16 : i32, n = 16 : i32} blgp =  none : vector<4xf16>, vector<4xf16>, vector<4xf32>
          llvm.call_intrinsic "llvm.amdgcn.sched.group.barrier"(%c512_i32, %c1_i32, %c0_i32) : (i32, i32, i32) -> ()
          llvm.call_intrinsic "llvm.amdgcn.sched.group.barrier"(%c8_i32, %c1_i32, %c0_i32) : (i32, i32, i32) -> ()
          llvm.call_intrinsic "llvm.amdgcn.sched.group.barrier"(%c512_i32, %c1_i32, %c0_i32) : (i32, i32, i32) -> ()
          llvm.call_intrinsic "llvm.amdgcn.sched.group.barrier"(%c8_i32, %c1_i32, %c0_i32) : (i32, i32, i32) -> ()
          llvm.call_intrinsic "llvm.amdgcn.sched.group.barrier"(%c8_i32, %c1_i32, %c0_i32) : (i32, i32, i32) -> ()
          amdgpu.lds_barrier
          %786 = vector.load %alloc_0[%37, %41] : memref<128x36xf16, #gpu.address_space<workgroup>>, vector<4xf16>
          %787 = vector.load %alloc[%45, %41] : memref<320x36xf16, #gpu.address_space<workgroup>>, vector<4xf16>
          %788 = amdgpu.mfma %737 * %arg11 + %780 {blocks = 1 : i32, k = 16 : i32, m = 16 : i32, n = 16 : i32} blgp =  none : vector<4xf16>, vector<4xf16>, vector<4xf32>
          %789 = amdgpu.mfma %737 * %arg9 + %781 {blocks = 1 : i32, k = 16 : i32, m = 16 : i32, n = 16 : i32} blgp =  none : vector<4xf16>, vector<4xf16>, vector<4xf32>
          %790 = amdgpu.mfma %737 * %arg7 + %782 {blocks = 1 : i32, k = 16 : i32, m = 16 : i32, n = 16 : i32} blgp =  none : vector<4xf16>, vector<4xf16>, vector<4xf32>
          llvm.call_intrinsic "llvm.amdgcn.sched.group.barrier"(%c256_i32, %c1_i32, %c0_i32) : (i32, i32, i32) -> ()
          llvm.call_intrinsic "llvm.amdgcn.sched.group.barrier"(%c8_i32, %c1_i32, %c0_i32) : (i32, i32, i32) -> ()
          llvm.call_intrinsic "llvm.amdgcn.sched.group.barrier"(%c256_i32, %c1_i32, %c0_i32) : (i32, i32, i32) -> ()
          llvm.call_intrinsic "llvm.amdgcn.sched.group.barrier"(%c8_i32, %c1_i32, %c0_i32) : (i32, i32, i32) -> ()
          llvm.call_intrinsic "llvm.amdgcn.sched.group.barrier"(%c8_i32, %c1_i32, %c0_i32) : (i32, i32, i32) -> ()
          %791 = vector.load %alloc_0[%37, %40] : memref<128x36xf16, #gpu.address_space<workgroup>>, vector<4xf16>
          %792 = vector.load %alloc[%45, %40] : memref<320x36xf16, #gpu.address_space<workgroup>>, vector<4xf16>
          %793 = amdgpu.mfma %791 * %792 + %arg67 {blocks = 1 : i32, k = 16 : i32, m = 16 : i32, n = 16 : i32} blgp =  none : vector<4xf16>, vector<4xf16>, vector<4xf32>
          %794 = amdgpu.mfma %786 * %787 + %793 {blocks = 1 : i32, k = 16 : i32, m = 16 : i32, n = 16 : i32} blgp =  none : vector<4xf16>, vector<4xf16>, vector<4xf32>
          %795 = vector.load %alloc[%51, %41] : memref<320x36xf16, #gpu.address_space<workgroup>>, vector<4xf16>
          %796 = vector.load %alloc[%51, %40] : memref<320x36xf16, #gpu.address_space<workgroup>>, vector<4xf16>
          %797 = amdgpu.mfma %791 * %796 + %arg66 {blocks = 1 : i32, k = 16 : i32, m = 16 : i32, n = 16 : i32} blgp =  none : vector<4xf16>, vector<4xf16>, vector<4xf32>
          %798 = vector.load %alloc[%55, %41] : memref<320x36xf16, #gpu.address_space<workgroup>>, vector<4xf16>
          %799 = vector.load %alloc[%55, %40] : memref<320x36xf16, #gpu.address_space<workgroup>>, vector<4xf16>
          llvm.call_intrinsic "llvm.amdgcn.sched.group.barrier"(%c256_i32, %c1_i32, %c0_i32) : (i32, i32, i32) -> ()
          llvm.call_intrinsic "llvm.amdgcn.sched.group.barrier"(%c8_i32, %c1_i32, %c0_i32) : (i32, i32, i32) -> ()
          llvm.call_intrinsic "llvm.amdgcn.sched.group.barrier"(%c256_i32, %c1_i32, %c0_i32) : (i32, i32, i32) -> ()
          llvm.call_intrinsic "llvm.amdgcn.sched.group.barrier"(%c8_i32, %c1_i32, %c0_i32) : (i32, i32, i32) -> ()
          llvm.call_intrinsic "llvm.amdgcn.sched.group.barrier"(%c256_i32, %c1_i32, %c0_i32) : (i32, i32, i32) -> ()
          llvm.call_intrinsic "llvm.amdgcn.sched.group.barrier"(%c8_i32, %c1_i32, %c0_i32) : (i32, i32, i32) -> ()
          llvm.call_intrinsic "llvm.amdgcn.sched.group.barrier"(%c256_i32, %c1_i32, %c0_i32) : (i32, i32, i32) -> ()
          llvm.call_intrinsic "llvm.amdgcn.sched.group.barrier"(%c256_i32, %c1_i32, %c0_i32) : (i32, i32, i32) -> ()
          llvm.call_intrinsic "llvm.amdgcn.sched.group.barrier"(%c256_i32, %c1_i32, %c0_i32) : (i32, i32, i32) -> ()
          %800 = amdgpu.mfma %786 * %795 + %797 {blocks = 1 : i32, k = 16 : i32, m = 16 : i32, n = 16 : i32} blgp =  none : vector<4xf16>, vector<4xf16>, vector<4xf32>
          %801 = amdgpu.mfma %791 * %799 + %arg65 {blocks = 1 : i32, k = 16 : i32, m = 16 : i32, n = 16 : i32} blgp =  none : vector<4xf16>, vector<4xf16>, vector<4xf32>
          %802 = vector.load %alloc[%60, %41] : memref<320x36xf16, #gpu.address_space<workgroup>>, vector<4xf16>
          %803 = vector.load %alloc[%60, %40] : memref<320x36xf16, #gpu.address_space<workgroup>>, vector<4xf16>
          llvm.call_intrinsic "llvm.amdgcn.sched.group.barrier"(%c8_i32, %c1_i32, %c0_i32) : (i32, i32, i32) -> ()
          llvm.call_intrinsic "llvm.amdgcn.sched.group.barrier"(%c256_i32, %c1_i32, %c0_i32) : (i32, i32, i32) -> ()
          llvm.call_intrinsic "llvm.amdgcn.sched.group.barrier"(%c8_i32, %c1_i32, %c0_i32) : (i32, i32, i32) -> ()
          llvm.call_intrinsic "llvm.amdgcn.sched.group.barrier"(%c256_i32, %c1_i32, %c0_i32) : (i32, i32, i32) -> ()
          %804 = amdgpu.mfma %786 * %798 + %801 {blocks = 1 : i32, k = 16 : i32, m = 16 : i32, n = 16 : i32} blgp =  none : vector<4xf16>, vector<4xf16>, vector<4xf32>
          %805 = amdgpu.mfma %791 * %803 + %arg64 {blocks = 1 : i32, k = 16 : i32, m = 16 : i32, n = 16 : i32} blgp =  none : vector<4xf16>, vector<4xf16>, vector<4xf32>
          %806 = vector.load %alloc[%65, %41] : memref<320x36xf16, #gpu.address_space<workgroup>>, vector<4xf16>
          %807 = vector.load %alloc[%65, %40] : memref<320x36xf16, #gpu.address_space<workgroup>>, vector<4xf16>
          llvm.call_intrinsic "llvm.amdgcn.sched.group.barrier"(%c8_i32, %c1_i32, %c0_i32) : (i32, i32, i32) -> ()
          llvm.call_intrinsic "llvm.amdgcn.sched.group.barrier"(%c256_i32, %c1_i32, %c0_i32) : (i32, i32, i32) -> ()
          llvm.call_intrinsic "llvm.amdgcn.sched.group.barrier"(%c8_i32, %c1_i32, %c0_i32) : (i32, i32, i32) -> ()
          llvm.call_intrinsic "llvm.amdgcn.sched.group.barrier"(%c256_i32, %c1_i32, %c0_i32) : (i32, i32, i32) -> ()
          %808 = amdgpu.mfma %786 * %802 + %805 {blocks = 1 : i32, k = 16 : i32, m = 16 : i32, n = 16 : i32} blgp =  none : vector<4xf16>, vector<4xf16>, vector<4xf32>
          %809 = amdgpu.mfma %791 * %807 + %arg63 {blocks = 1 : i32, k = 16 : i32, m = 16 : i32, n = 16 : i32} blgp =  none : vector<4xf16>, vector<4xf16>, vector<4xf32>
          %810 = vector.load %alloc[%70, %41] : memref<320x36xf16, #gpu.address_space<workgroup>>, vector<4xf16>
          %811 = vector.load %alloc[%70, %40] : memref<320x36xf16, #gpu.address_space<workgroup>>, vector<4xf16>
          llvm.call_intrinsic "llvm.amdgcn.sched.group.barrier"(%c8_i32, %c1_i32, %c0_i32) : (i32, i32, i32) -> ()
          llvm.call_intrinsic "llvm.amdgcn.sched.group.barrier"(%c256_i32, %c1_i32, %c0_i32) : (i32, i32, i32) -> ()
          llvm.call_intrinsic "llvm.amdgcn.sched.group.barrier"(%c8_i32, %c1_i32, %c0_i32) : (i32, i32, i32) -> ()
          llvm.call_intrinsic "llvm.amdgcn.sched.group.barrier"(%c256_i32, %c1_i32, %c0_i32) : (i32, i32, i32) -> ()
          %812 = amdgpu.mfma %786 * %806 + %809 {blocks = 1 : i32, k = 16 : i32, m = 16 : i32, n = 16 : i32} blgp =  none : vector<4xf16>, vector<4xf16>, vector<4xf32>
          %813 = amdgpu.mfma %791 * %811 + %arg62 {blocks = 1 : i32, k = 16 : i32, m = 16 : i32, n = 16 : i32} blgp =  none : vector<4xf16>, vector<4xf16>, vector<4xf32>
          %814 = vector.load %alloc[%75, %41] : memref<320x36xf16, #gpu.address_space<workgroup>>, vector<4xf16>
          %815 = vector.load %alloc[%75, %40] : memref<320x36xf16, #gpu.address_space<workgroup>>, vector<4xf16>
          llvm.call_intrinsic "llvm.amdgcn.sched.group.barrier"(%c8_i32, %c1_i32, %c0_i32) : (i32, i32, i32) -> ()
          llvm.call_intrinsic "llvm.amdgcn.sched.group.barrier"(%c256_i32, %c1_i32, %c0_i32) : (i32, i32, i32) -> ()
          llvm.call_intrinsic "llvm.amdgcn.sched.group.barrier"(%c8_i32, %c1_i32, %c0_i32) : (i32, i32, i32) -> ()
          llvm.call_intrinsic "llvm.amdgcn.sched.group.barrier"(%c256_i32, %c1_i32, %c0_i32) : (i32, i32, i32) -> ()
          %816 = amdgpu.mfma %786 * %810 + %813 {blocks = 1 : i32, k = 16 : i32, m = 16 : i32, n = 16 : i32} blgp =  none : vector<4xf16>, vector<4xf16>, vector<4xf32>
          %817 = amdgpu.mfma %791 * %815 + %arg61 {blocks = 1 : i32, k = 16 : i32, m = 16 : i32, n = 16 : i32} blgp =  none : vector<4xf16>, vector<4xf16>, vector<4xf32>
          %818 = vector.load %alloc[%80, %41] : memref<320x36xf16, #gpu.address_space<workgroup>>, vector<4xf16>
          %819 = vector.load %alloc[%80, %40] : memref<320x36xf16, #gpu.address_space<workgroup>>, vector<4xf16>
          llvm.call_intrinsic "llvm.amdgcn.sched.group.barrier"(%c8_i32, %c1_i32, %c0_i32) : (i32, i32, i32) -> ()
          llvm.call_intrinsic "llvm.amdgcn.sched.group.barrier"(%c256_i32, %c1_i32, %c0_i32) : (i32, i32, i32) -> ()
          llvm.call_intrinsic "llvm.amdgcn.sched.group.barrier"(%c8_i32, %c1_i32, %c0_i32) : (i32, i32, i32) -> ()
          llvm.call_intrinsic "llvm.amdgcn.sched.group.barrier"(%c256_i32, %c1_i32, %c0_i32) : (i32, i32, i32) -> ()
          %820 = amdgpu.mfma %786 * %814 + %817 {blocks = 1 : i32, k = 16 : i32, m = 16 : i32, n = 16 : i32} blgp =  none : vector<4xf16>, vector<4xf16>, vector<4xf32>
          %821 = amdgpu.mfma %791 * %819 + %arg60 {blocks = 1 : i32, k = 16 : i32, m = 16 : i32, n = 16 : i32} blgp =  none : vector<4xf16>, vector<4xf16>, vector<4xf32>
          %822 = vector.load %alloc[%85, %41] : memref<320x36xf16, #gpu.address_space<workgroup>>, vector<4xf16>
          %823 = vector.load %alloc[%85, %40] : memref<320x36xf16, #gpu.address_space<workgroup>>, vector<4xf16>
          llvm.call_intrinsic "llvm.amdgcn.sched.group.barrier"(%c8_i32, %c1_i32, %c0_i32) : (i32, i32, i32) -> ()
          llvm.call_intrinsic "llvm.amdgcn.sched.group.barrier"(%c256_i32, %c1_i32, %c0_i32) : (i32, i32, i32) -> ()
          llvm.call_intrinsic "llvm.amdgcn.sched.group.barrier"(%c8_i32, %c1_i32, %c0_i32) : (i32, i32, i32) -> ()
          llvm.call_intrinsic "llvm.amdgcn.sched.group.barrier"(%c256_i32, %c1_i32, %c0_i32) : (i32, i32, i32) -> ()
          %824 = amdgpu.mfma %786 * %818 + %821 {blocks = 1 : i32, k = 16 : i32, m = 16 : i32, n = 16 : i32} blgp =  none : vector<4xf16>, vector<4xf16>, vector<4xf32>
          %825 = amdgpu.mfma %791 * %823 + %arg59 {blocks = 1 : i32, k = 16 : i32, m = 16 : i32, n = 16 : i32} blgp =  none : vector<4xf16>, vector<4xf16>, vector<4xf32>
          %826 = vector.load %alloc[%44, %41] : memref<320x36xf16, #gpu.address_space<workgroup>>, vector<4xf16>
          %827 = vector.load %alloc[%44, %40] : memref<320x36xf16, #gpu.address_space<workgroup>>, vector<4xf16>
          llvm.call_intrinsic "llvm.amdgcn.sched.group.barrier"(%c8_i32, %c1_i32, %c0_i32) : (i32, i32, i32) -> ()
          llvm.call_intrinsic "llvm.amdgcn.sched.group.barrier"(%c256_i32, %c1_i32, %c0_i32) : (i32, i32, i32) -> ()
          llvm.call_intrinsic "llvm.amdgcn.sched.group.barrier"(%c8_i32, %c1_i32, %c0_i32) : (i32, i32, i32) -> ()
          llvm.call_intrinsic "llvm.amdgcn.sched.group.barrier"(%c256_i32, %c1_i32, %c0_i32) : (i32, i32, i32) -> ()
          %828 = amdgpu.mfma %786 * %822 + %825 {blocks = 1 : i32, k = 16 : i32, m = 16 : i32, n = 16 : i32} blgp =  none : vector<4xf16>, vector<4xf16>, vector<4xf32>
          %829 = amdgpu.mfma %791 * %827 + %717 {blocks = 1 : i32, k = 16 : i32, m = 16 : i32, n = 16 : i32} blgp =  none : vector<4xf16>, vector<4xf16>, vector<4xf32>
          %830 = vector.load %alloc_0[%94, %41] : memref<128x36xf16, #gpu.address_space<workgroup>>, vector<4xf16>
          %831 = vector.load %alloc_0[%94, %40] : memref<128x36xf16, #gpu.address_space<workgroup>>, vector<4xf16>
          llvm.call_intrinsic "llvm.amdgcn.sched.group.barrier"(%c8_i32, %c1_i32, %c0_i32) : (i32, i32, i32) -> ()
          llvm.call_intrinsic "llvm.amdgcn.sched.group.barrier"(%c256_i32, %c1_i32, %c0_i32) : (i32, i32, i32) -> ()
          llvm.call_intrinsic "llvm.amdgcn.sched.group.barrier"(%c8_i32, %c1_i32, %c0_i32) : (i32, i32, i32) -> ()
          llvm.call_intrinsic "llvm.amdgcn.sched.group.barrier"(%c256_i32, %c1_i32, %c0_i32) : (i32, i32, i32) -> ()
          scf.yield %829, %827, %826, %823, %822, %819, %818, %815, %814, %811, %810, %807, %806, %803, %802, %799, %798, %796, %795, %792, %787, %831, %830, %786, %790, %789, %788, %785, %784, %783, %776, %773, %772, %771, %770, %769, %768, %767, %758, %755, %754, %753, %752, %751, %750, %749, %740, %735, %734, %733, %732, %731, %730, %729, %828, %824, %820, %816, %812, %808, %804, %800, %794 : vector<4xf32>, vector<4xf16>, vector<4xf16>, vector<4xf16>, vector<4xf16>, vector<4xf16>, vector<4xf16>, vector<4xf16>, vector<4xf16>, vector<4xf16>, vector<4xf16>, vector<4xf16>, vector<4xf16>, vector<4xf16>, vector<4xf16>, vector<4xf16>, vector<4xf16>, vector<4xf16>, vector<4xf16>, vector<4xf16>, vector<4xf16>, vector<4xf16>, vector<4xf16>, vector<4xf16>, vector<4xf32>, vector<4xf32>, vector<4xf32>, vector<4xf32>, vector<4xf32>, vector<4xf32>, vector<4xf32>, vector<4xf32>, vector<4xf32>, vector<4xf32>, vector<4xf32>, vector<4xf32>, vector<4xf32>, vector<4xf32>, vector<4xf32>, vector<4xf32>, vector<4xf32>, vector<4xf32>, vector<4xf32>, vector<4xf32>, vector<4xf32>, vector<4xf32>, vector<4xf32>, vector<4xf32>, vector<4xf32>, vector<4xf32>, vector<4xf32>, vector<4xf32>, vector<4xf32>, vector<4xf32>, vector<4xf32>, vector<4xf32>, vector<4xf32>, vector<4xf32>, vector<4xf32>, vector<4xf32>, vector<4xf32>, vector<4xf32>, vector<4xf32>
        }
        %98 = stream.binding.subspan %arg3[%c0] : !stream.binding -> memref<2048x10240xf16, strided<[10240, 1], offset: ?>>
        %99 = stream.binding.subspan %arg2[%c0] : !stream.binding -> memref<10240xf32, strided<[1], offset: ?>>
        %100 = arith.addi %3, %34 : index
        %101 = arith.addi %100, %40 : index
        %102 = arith.addi %101, %c48 : index
        %103 = arith.addi %35, %16 : index
        %104 = arith.addi %103, %43 : index
        %105 = arith.addi %104, %c16 : index
        %106 = vector.extract_strided_slice %97#54 {offsets = [0], sizes = [1], strides = [1]} : vector<4xf32> to vector<1xf32>
        %107 = vector.load %99[%105] : memref<10240xf32, strided<[1], offset: ?>>, vector<1xf32>
        %108 = arith.addf %106, %107 : vector<1xf32>
        %109 = arith.truncf %108 : vector<1xf32> to vector<1xf16>
        vector.store %109, %98[%102, %105] : memref<2048x10240xf16, strided<[10240, 1], offset: ?>>, vector<1xf16>
        %110 = vector.extract_strided_slice %97#54 {offsets = [1], sizes = [1], strides = [1]} : vector<4xf32> to vector<1xf32>
        %111 = arith.addi %101, %c49 : index
        %112 = arith.addf %110, %107 : vector<1xf32>
        %113 = arith.truncf %112 : vector<1xf32> to vector<1xf16>
        vector.store %113, %98[%111, %105] : memref<2048x10240xf16, strided<[10240, 1], offset: ?>>, vector<1xf16>
        %114 = vector.extract_strided_slice %97#54 {offsets = [2], sizes = [1], strides = [1]} : vector<4xf32> to vector<1xf32>
        %115 = arith.addi %101, %c50 : index
        %116 = arith.addf %114, %107 : vector<1xf32>
        %117 = arith.truncf %116 : vector<1xf32> to vector<1xf16>
        vector.store %117, %98[%115, %105] : memref<2048x10240xf16, strided<[10240, 1], offset: ?>>, vector<1xf16>
        %118 = vector.extract_strided_slice %97#54 {offsets = [3], sizes = [1], strides = [1]} : vector<4xf32> to vector<1xf32>
        %119 = arith.addi %101, %c51 : index
        %120 = arith.addf %118, %107 : vector<1xf32>
        %121 = arith.truncf %120 : vector<1xf32> to vector<1xf16>
        vector.store %121, %98[%119, %105] : memref<2048x10240xf16, strided<[10240, 1], offset: ?>>, vector<1xf16>
        %122 = arith.addi %104, %c32 : index
        %123 = vector.extract_strided_slice %97#55 {offsets = [0], sizes = [1], strides = [1]} : vector<4xf32> to vector<1xf32>
        %124 = vector.load %99[%122] : memref<10240xf32, strided<[1], offset: ?>>, vector<1xf32>
        %125 = arith.addf %123, %124 : vector<1xf32>
        %126 = arith.truncf %125 : vector<1xf32> to vector<1xf16>
        vector.store %126, %98[%102, %122] : memref<2048x10240xf16, strided<[10240, 1], offset: ?>>, vector<1xf16>
        %127 = vector.extract_strided_slice %97#55 {offsets = [1], sizes = [1], strides = [1]} : vector<4xf32> to vector<1xf32>
        %128 = arith.addf %127, %124 : vector<1xf32>
        %129 = arith.truncf %128 : vector<1xf32> to vector<1xf16>
        vector.store %129, %98[%111, %122] : memref<2048x10240xf16, strided<[10240, 1], offset: ?>>, vector<1xf16>
        %130 = vector.extract_strided_slice %97#55 {offsets = [2], sizes = [1], strides = [1]} : vector<4xf32> to vector<1xf32>
        %131 = arith.addf %130, %124 : vector<1xf32>
        %132 = arith.truncf %131 : vector<1xf32> to vector<1xf16>
        vector.store %132, %98[%115, %122] : memref<2048x10240xf16, strided<[10240, 1], offset: ?>>, vector<1xf16>
        %133 = vector.extract_strided_slice %97#55 {offsets = [3], sizes = [1], strides = [1]} : vector<4xf32> to vector<1xf32>
        %134 = arith.addf %133, %124 : vector<1xf32>
        %135 = arith.truncf %134 : vector<1xf32> to vector<1xf16>
        vector.store %135, %98[%119, %122] : memref<2048x10240xf16, strided<[10240, 1], offset: ?>>, vector<1xf16>
        %136 = arith.addi %104, %c48 : index
        %137 = vector.extract_strided_slice %97#56 {offsets = [0], sizes = [1], strides = [1]} : vector<4xf32> to vector<1xf32>
        %138 = vector.load %99[%136] : memref<10240xf32, strided<[1], offset: ?>>, vector<1xf32>
        %139 = arith.addf %137, %138 : vector<1xf32>
        %140 = arith.truncf %139 : vector<1xf32> to vector<1xf16>
        vector.store %140, %98[%102, %136] : memref<2048x10240xf16, strided<[10240, 1], offset: ?>>, vector<1xf16>
        %141 = vector.extract_strided_slice %97#56 {offsets = [1], sizes = [1], strides = [1]} : vector<4xf32> to vector<1xf32>
        %142 = arith.addf %141, %138 : vector<1xf32>
        %143 = arith.truncf %142 : vector<1xf32> to vector<1xf16>
        vector.store %143, %98[%111, %136] : memref<2048x10240xf16, strided<[10240, 1], offset: ?>>, vector<1xf16>
        %144 = vector.extract_strided_slice %97#56 {offsets = [2], sizes = [1], strides = [1]} : vector<4xf32> to vector<1xf32>
        %145 = arith.addf %144, %138 : vector<1xf32>
        %146 = arith.truncf %145 : vector<1xf32> to vector<1xf16>
        vector.store %146, %98[%115, %136] : memref<2048x10240xf16, strided<[10240, 1], offset: ?>>, vector<1xf16>
        %147 = vector.extract_strided_slice %97#56 {offsets = [3], sizes = [1], strides = [1]} : vector<4xf32> to vector<1xf32>
        %148 = arith.addf %147, %138 : vector<1xf32>
        %149 = arith.truncf %148 : vector<1xf32> to vector<1xf16>
        vector.store %149, %98[%119, %136] : memref<2048x10240xf16, strided<[10240, 1], offset: ?>>, vector<1xf16>
        %150 = arith.addi %104, %c64 : index
        %151 = vector.extract_strided_slice %97#57 {offsets = [0], sizes = [1], strides = [1]} : vector<4xf32> to vector<1xf32>
        %152 = vector.load %99[%150] : memref<10240xf32, strided<[1], offset: ?>>, vector<1xf32>
        %153 = arith.addf %151, %152 : vector<1xf32>
        %154 = arith.truncf %153 : vector<1xf32> to vector<1xf16>
        vector.store %154, %98[%102, %150] : memref<2048x10240xf16, strided<[10240, 1], offset: ?>>, vector<1xf16>
        %155 = vector.extract_strided_slice %97#57 {offsets = [1], sizes = [1], strides = [1]} : vector<4xf32> to vector<1xf32>
        %156 = arith.addf %155, %152 : vector<1xf32>
        %157 = arith.truncf %156 : vector<1xf32> to vector<1xf16>
        vector.store %157, %98[%111, %150] : memref<2048x10240xf16, strided<[10240, 1], offset: ?>>, vector<1xf16>
        %158 = vector.extract_strided_slice %97#57 {offsets = [2], sizes = [1], strides = [1]} : vector<4xf32> to vector<1xf32>
        %159 = arith.addf %158, %152 : vector<1xf32>
        %160 = arith.truncf %159 : vector<1xf32> to vector<1xf16>
        vector.store %160, %98[%115, %150] : memref<2048x10240xf16, strided<[10240, 1], offset: ?>>, vector<1xf16>
        %161 = vector.extract_strided_slice %97#57 {offsets = [3], sizes = [1], strides = [1]} : vector<4xf32> to vector<1xf32>
        %162 = arith.addf %161, %152 : vector<1xf32>
        %163 = arith.truncf %162 : vector<1xf32> to vector<1xf16>
        vector.store %163, %98[%119, %150] : memref<2048x10240xf16, strided<[10240, 1], offset: ?>>, vector<1xf16>
        %164 = arith.addi %104, %c80 : index
        %165 = vector.extract_strided_slice %97#58 {offsets = [0], sizes = [1], strides = [1]} : vector<4xf32> to vector<1xf32>
        %166 = vector.load %99[%164] : memref<10240xf32, strided<[1], offset: ?>>, vector<1xf32>
        %167 = arith.addf %165, %166 : vector<1xf32>
        %168 = arith.truncf %167 : vector<1xf32> to vector<1xf16>
        vector.store %168, %98[%102, %164] : memref<2048x10240xf16, strided<[10240, 1], offset: ?>>, vector<1xf16>
        %169 = vector.extract_strided_slice %97#58 {offsets = [1], sizes = [1], strides = [1]} : vector<4xf32> to vector<1xf32>
        %170 = arith.addf %169, %166 : vector<1xf32>
        %171 = arith.truncf %170 : vector<1xf32> to vector<1xf16>
        vector.store %171, %98[%111, %164] : memref<2048x10240xf16, strided<[10240, 1], offset: ?>>, vector<1xf16>
        %172 = vector.extract_strided_slice %97#58 {offsets = [2], sizes = [1], strides = [1]} : vector<4xf32> to vector<1xf32>
        %173 = arith.addf %172, %166 : vector<1xf32>
        %174 = arith.truncf %173 : vector<1xf32> to vector<1xf16>
        vector.store %174, %98[%115, %164] : memref<2048x10240xf16, strided<[10240, 1], offset: ?>>, vector<1xf16>
        %175 = vector.extract_strided_slice %97#58 {offsets = [3], sizes = [1], strides = [1]} : vector<4xf32> to vector<1xf32>
        %176 = arith.addf %175, %166 : vector<1xf32>
        %177 = arith.truncf %176 : vector<1xf32> to vector<1xf16>
        vector.store %177, %98[%119, %164] : memref<2048x10240xf16, strided<[10240, 1], offset: ?>>, vector<1xf16>
        %178 = arith.addi %104, %c96 : index
        %179 = vector.extract_strided_slice %97#59 {offsets = [0], sizes = [1], strides = [1]} : vector<4xf32> to vector<1xf32>
        %180 = vector.load %99[%178] : memref<10240xf32, strided<[1], offset: ?>>, vector<1xf32>
        %181 = arith.addf %179, %180 : vector<1xf32>
        %182 = arith.truncf %181 : vector<1xf32> to vector<1xf16>
        vector.store %182, %98[%102, %178] : memref<2048x10240xf16, strided<[10240, 1], offset: ?>>, vector<1xf16>
        %183 = vector.extract_strided_slice %97#59 {offsets = [1], sizes = [1], strides = [1]} : vector<4xf32> to vector<1xf32>
        %184 = arith.addf %183, %180 : vector<1xf32>
        %185 = arith.truncf %184 : vector<1xf32> to vector<1xf16>
        vector.store %185, %98[%111, %178] : memref<2048x10240xf16, strided<[10240, 1], offset: ?>>, vector<1xf16>
        %186 = vector.extract_strided_slice %97#59 {offsets = [2], sizes = [1], strides = [1]} : vector<4xf32> to vector<1xf32>
        %187 = arith.addf %186, %180 : vector<1xf32>
        %188 = arith.truncf %187 : vector<1xf32> to vector<1xf16>
        vector.store %188, %98[%115, %178] : memref<2048x10240xf16, strided<[10240, 1], offset: ?>>, vector<1xf16>
        %189 = vector.extract_strided_slice %97#59 {offsets = [3], sizes = [1], strides = [1]} : vector<4xf32> to vector<1xf32>
        %190 = arith.addf %189, %180 : vector<1xf32>
        %191 = arith.truncf %190 : vector<1xf32> to vector<1xf16>
        vector.store %191, %98[%119, %178] : memref<2048x10240xf16, strided<[10240, 1], offset: ?>>, vector<1xf16>
        %192 = arith.addi %104, %c112 : index
        %193 = vector.extract_strided_slice %97#60 {offsets = [0], sizes = [1], strides = [1]} : vector<4xf32> to vector<1xf32>
        %194 = vector.load %99[%192] : memref<10240xf32, strided<[1], offset: ?>>, vector<1xf32>
        %195 = arith.addf %193, %194 : vector<1xf32>
        %196 = arith.truncf %195 : vector<1xf32> to vector<1xf16>
        vector.store %196, %98[%102, %192] : memref<2048x10240xf16, strided<[10240, 1], offset: ?>>, vector<1xf16>
        %197 = vector.extract_strided_slice %97#60 {offsets = [1], sizes = [1], strides = [1]} : vector<4xf32> to vector<1xf32>
        %198 = arith.addf %197, %194 : vector<1xf32>
        %199 = arith.truncf %198 : vector<1xf32> to vector<1xf16>
        vector.store %199, %98[%111, %192] : memref<2048x10240xf16, strided<[10240, 1], offset: ?>>, vector<1xf16>
        %200 = vector.extract_strided_slice %97#60 {offsets = [2], sizes = [1], strides = [1]} : vector<4xf32> to vector<1xf32>
        %201 = arith.addf %200, %194 : vector<1xf32>
        %202 = arith.truncf %201 : vector<1xf32> to vector<1xf16>
        vector.store %202, %98[%115, %192] : memref<2048x10240xf16, strided<[10240, 1], offset: ?>>, vector<1xf16>
        %203 = vector.extract_strided_slice %97#60 {offsets = [3], sizes = [1], strides = [1]} : vector<4xf32> to vector<1xf32>
        %204 = arith.addf %203, %194 : vector<1xf32>
        %205 = arith.truncf %204 : vector<1xf32> to vector<1xf16>
        vector.store %205, %98[%119, %192] : memref<2048x10240xf16, strided<[10240, 1], offset: ?>>, vector<1xf16>
        %206 = arith.addi %104, %c128 : index
        %207 = vector.extract_strided_slice %97#61 {offsets = [0], sizes = [1], strides = [1]} : vector<4xf32> to vector<1xf32>
        %208 = vector.load %99[%206] : memref<10240xf32, strided<[1], offset: ?>>, vector<1xf32>
        %209 = arith.addf %207, %208 : vector<1xf32>
        %210 = arith.truncf %209 : vector<1xf32> to vector<1xf16>
        vector.store %210, %98[%102, %206] : memref<2048x10240xf16, strided<[10240, 1], offset: ?>>, vector<1xf16>
        %211 = vector.extract_strided_slice %97#61 {offsets = [1], sizes = [1], strides = [1]} : vector<4xf32> to vector<1xf32>
        %212 = arith.addf %211, %208 : vector<1xf32>
        %213 = arith.truncf %212 : vector<1xf32> to vector<1xf16>
        vector.store %213, %98[%111, %206] : memref<2048x10240xf16, strided<[10240, 1], offset: ?>>, vector<1xf16>
        %214 = vector.extract_strided_slice %97#61 {offsets = [2], sizes = [1], strides = [1]} : vector<4xf32> to vector<1xf32>
        %215 = arith.addf %214, %208 : vector<1xf32>
        %216 = arith.truncf %215 : vector<1xf32> to vector<1xf16>
        vector.store %216, %98[%115, %206] : memref<2048x10240xf16, strided<[10240, 1], offset: ?>>, vector<1xf16>
        %217 = vector.extract_strided_slice %97#61 {offsets = [3], sizes = [1], strides = [1]} : vector<4xf32> to vector<1xf32>
        %218 = arith.addf %217, %208 : vector<1xf32>
        %219 = arith.truncf %218 : vector<1xf32> to vector<1xf16>
        vector.store %219, %98[%119, %206] : memref<2048x10240xf16, strided<[10240, 1], offset: ?>>, vector<1xf16>
        %220 = arith.addi %104, %c144 : index
        %221 = vector.extract_strided_slice %97#62 {offsets = [0], sizes = [1], strides = [1]} : vector<4xf32> to vector<1xf32>
        %222 = vector.load %99[%220] : memref<10240xf32, strided<[1], offset: ?>>, vector<1xf32>
        %223 = arith.addf %221, %222 : vector<1xf32>
        %224 = arith.truncf %223 : vector<1xf32> to vector<1xf16>
        vector.store %224, %98[%102, %220] : memref<2048x10240xf16, strided<[10240, 1], offset: ?>>, vector<1xf16>
        %225 = vector.extract_strided_slice %97#62 {offsets = [1], sizes = [1], strides = [1]} : vector<4xf32> to vector<1xf32>
        %226 = arith.addf %225, %222 : vector<1xf32>
        %227 = arith.truncf %226 : vector<1xf32> to vector<1xf16>
        vector.store %227, %98[%111, %220] : memref<2048x10240xf16, strided<[10240, 1], offset: ?>>, vector<1xf16>
        %228 = vector.extract_strided_slice %97#62 {offsets = [2], sizes = [1], strides = [1]} : vector<4xf32> to vector<1xf32>
        %229 = arith.addf %228, %222 : vector<1xf32>
        %230 = arith.truncf %229 : vector<1xf32> to vector<1xf16>
        vector.store %230, %98[%115, %220] : memref<2048x10240xf16, strided<[10240, 1], offset: ?>>, vector<1xf16>
        %231 = vector.extract_strided_slice %97#62 {offsets = [3], sizes = [1], strides = [1]} : vector<4xf32> to vector<1xf32>
        %232 = arith.addf %231, %222 : vector<1xf32>
        %233 = arith.truncf %232 : vector<1xf32> to vector<1xf16>
        vector.store %233, %98[%119, %220] : memref<2048x10240xf16, strided<[10240, 1], offset: ?>>, vector<1xf16>
        %234 = amdgpu.mfma %97#23 * %97#2 + %97#0 {blocks = 1 : i32, k = 16 : i32, m = 16 : i32, n = 16 : i32} blgp =  none : vector<4xf16>, vector<4xf16>, vector<4xf32>
        %235 = vector.extract_strided_slice %234 {offsets = [0], sizes = [1], strides = [1]} : vector<4xf32> to vector<1xf32>
        %236 = vector.load %99[%104] : memref<10240xf32, strided<[1], offset: ?>>, vector<1xf32>
        %237 = arith.addf %235, %236 : vector<1xf32>
        %238 = arith.truncf %237 : vector<1xf32> to vector<1xf16>
        vector.store %238, %98[%102, %104] : memref<2048x10240xf16, strided<[10240, 1], offset: ?>>, vector<1xf16>
        %239 = vector.extract_strided_slice %234 {offsets = [1], sizes = [1], strides = [1]} : vector<4xf32> to vector<1xf32>
        %240 = arith.addf %239, %236 : vector<1xf32>
        %241 = arith.truncf %240 : vector<1xf32> to vector<1xf16>
        vector.store %241, %98[%111, %104] : memref<2048x10240xf16, strided<[10240, 1], offset: ?>>, vector<1xf16>
        %242 = vector.extract_strided_slice %234 {offsets = [2], sizes = [1], strides = [1]} : vector<4xf32> to vector<1xf32>
        %243 = arith.addf %242, %236 : vector<1xf32>
        %244 = arith.truncf %243 : vector<1xf32> to vector<1xf16>
        vector.store %244, %98[%115, %104] : memref<2048x10240xf16, strided<[10240, 1], offset: ?>>, vector<1xf16>
        %245 = vector.extract_strided_slice %234 {offsets = [3], sizes = [1], strides = [1]} : vector<4xf32> to vector<1xf32>
        %246 = arith.addf %245, %236 : vector<1xf32>
        %247 = arith.truncf %246 : vector<1xf32> to vector<1xf16>
        vector.store %247, %98[%119, %104] : memref<2048x10240xf16, strided<[10240, 1], offset: ?>>, vector<1xf16>
        %248 = amdgpu.mfma %97#21 * %97#19 + %97#53 {blocks = 1 : i32, k = 16 : i32, m = 16 : i32, n = 16 : i32} blgp =  none : vector<4xf16>, vector<4xf16>, vector<4xf32>
        %249 = amdgpu.mfma %97#21 * %97#17 + %97#52 {blocks = 1 : i32, k = 16 : i32, m = 16 : i32, n = 16 : i32} blgp =  none : vector<4xf16>, vector<4xf16>, vector<4xf32>
        %250 = amdgpu.mfma %97#21 * %97#15 + %97#51 {blocks = 1 : i32, k = 16 : i32, m = 16 : i32, n = 16 : i32} blgp =  none : vector<4xf16>, vector<4xf16>, vector<4xf32>
        %251 = amdgpu.mfma %97#21 * %97#13 + %97#50 {blocks = 1 : i32, k = 16 : i32, m = 16 : i32, n = 16 : i32} blgp =  none : vector<4xf16>, vector<4xf16>, vector<4xf32>
        %252 = amdgpu.mfma %97#21 * %97#11 + %97#49 {blocks = 1 : i32, k = 16 : i32, m = 16 : i32, n = 16 : i32} blgp =  none : vector<4xf16>, vector<4xf16>, vector<4xf32>
        %253 = amdgpu.mfma %97#21 * %97#9 + %97#48 {blocks = 1 : i32, k = 16 : i32, m = 16 : i32, n = 16 : i32} blgp =  none : vector<4xf16>, vector<4xf16>, vector<4xf32>
        %254 = amdgpu.mfma %97#21 * %97#7 + %97#47 {blocks = 1 : i32, k = 16 : i32, m = 16 : i32, n = 16 : i32} blgp =  none : vector<4xf16>, vector<4xf16>, vector<4xf32>
        %255 = arith.addi %36, %c16 : index
        %256 = vector.load %alloc_0[%255, %41] : memref<128x36xf16, #gpu.address_space<workgroup>>, vector<4xf16>
        %257 = vector.load %alloc_0[%255, %40] : memref<128x36xf16, #gpu.address_space<workgroup>>, vector<4xf16>
        %258 = amdgpu.mfma %97#22 * %97#20 + %248 {blocks = 1 : i32, k = 16 : i32, m = 16 : i32, n = 16 : i32} blgp =  none : vector<4xf16>, vector<4xf16>, vector<4xf32>
        %259 = arith.addi %101, %c32 : index
        %260 = vector.extract_strided_slice %258 {offsets = [0], sizes = [1], strides = [1]} : vector<4xf32> to vector<1xf32>
        %261 = vector.load %99[%220] : memref<10240xf32, strided<[1], offset: ?>>, vector<1xf32>
        %262 = arith.addf %260, %261 : vector<1xf32>
        %263 = arith.truncf %262 : vector<1xf32> to vector<1xf16>
        vector.store %263, %98[%259, %220] : memref<2048x10240xf16, strided<[10240, 1], offset: ?>>, vector<1xf16>
        %264 = vector.extract_strided_slice %258 {offsets = [1], sizes = [1], strides = [1]} : vector<4xf32> to vector<1xf32>
        %265 = arith.addi %101, %c33 : index
        %266 = arith.addf %264, %261 : vector<1xf32>
        %267 = arith.truncf %266 : vector<1xf32> to vector<1xf16>
        vector.store %267, %98[%265, %220] : memref<2048x10240xf16, strided<[10240, 1], offset: ?>>, vector<1xf16>
        %268 = vector.extract_strided_slice %258 {offsets = [2], sizes = [1], strides = [1]} : vector<4xf32> to vector<1xf32>
        %269 = arith.addi %101, %c34 : index
        %270 = arith.addf %268, %261 : vector<1xf32>
        %271 = arith.truncf %270 : vector<1xf32> to vector<1xf16>
        vector.store %271, %98[%269, %220] : memref<2048x10240xf16, strided<[10240, 1], offset: ?>>, vector<1xf16>
        %272 = vector.extract_strided_slice %258 {offsets = [3], sizes = [1], strides = [1]} : vector<4xf32> to vector<1xf32>
        %273 = arith.addi %101, %c35 : index
        %274 = arith.addf %272, %261 : vector<1xf32>
        %275 = arith.truncf %274 : vector<1xf32> to vector<1xf16>
        vector.store %275, %98[%273, %220] : memref<2048x10240xf16, strided<[10240, 1], offset: ?>>, vector<1xf16>
        %276 = amdgpu.mfma %97#22 * %97#18 + %249 {blocks = 1 : i32, k = 16 : i32, m = 16 : i32, n = 16 : i32} blgp =  none : vector<4xf16>, vector<4xf16>, vector<4xf32>
        %277 = vector.extract_strided_slice %276 {offsets = [0], sizes = [1], strides = [1]} : vector<4xf32> to vector<1xf32>
        %278 = vector.load %99[%206] : memref<10240xf32, strided<[1], offset: ?>>, vector<1xf32>
        %279 = arith.addf %277, %278 : vector<1xf32>
        %280 = arith.truncf %279 : vector<1xf32> to vector<1xf16>
        vector.store %280, %98[%259, %206] : memref<2048x10240xf16, strided<[10240, 1], offset: ?>>, vector<1xf16>
        %281 = vector.extract_strided_slice %276 {offsets = [1], sizes = [1], strides = [1]} : vector<4xf32> to vector<1xf32>
        %282 = arith.addf %281, %278 : vector<1xf32>
        %283 = arith.truncf %282 : vector<1xf32> to vector<1xf16>
        vector.store %283, %98[%265, %206] : memref<2048x10240xf16, strided<[10240, 1], offset: ?>>, vector<1xf16>
        %284 = vector.extract_strided_slice %276 {offsets = [2], sizes = [1], strides = [1]} : vector<4xf32> to vector<1xf32>
        %285 = arith.addf %284, %278 : vector<1xf32>
        %286 = arith.truncf %285 : vector<1xf32> to vector<1xf16>
        vector.store %286, %98[%269, %206] : memref<2048x10240xf16, strided<[10240, 1], offset: ?>>, vector<1xf16>
        %287 = vector.extract_strided_slice %276 {offsets = [3], sizes = [1], strides = [1]} : vector<4xf32> to vector<1xf32>
        %288 = arith.addf %287, %278 : vector<1xf32>
        %289 = arith.truncf %288 : vector<1xf32> to vector<1xf16>
        vector.store %289, %98[%273, %206] : memref<2048x10240xf16, strided<[10240, 1], offset: ?>>, vector<1xf16>
        %290 = amdgpu.mfma %97#22 * %97#16 + %250 {blocks = 1 : i32, k = 16 : i32, m = 16 : i32, n = 16 : i32} blgp =  none : vector<4xf16>, vector<4xf16>, vector<4xf32>
        %291 = vector.extract_strided_slice %290 {offsets = [0], sizes = [1], strides = [1]} : vector<4xf32> to vector<1xf32>
        %292 = vector.load %99[%192] : memref<10240xf32, strided<[1], offset: ?>>, vector<1xf32>
        %293 = arith.addf %291, %292 : vector<1xf32>
        %294 = arith.truncf %293 : vector<1xf32> to vector<1xf16>
        vector.store %294, %98[%259, %192] : memref<2048x10240xf16, strided<[10240, 1], offset: ?>>, vector<1xf16>
        %295 = vector.extract_strided_slice %290 {offsets = [1], sizes = [1], strides = [1]} : vector<4xf32> to vector<1xf32>
        %296 = arith.addf %295, %292 : vector<1xf32>
        %297 = arith.truncf %296 : vector<1xf32> to vector<1xf16>
        vector.store %297, %98[%265, %192] : memref<2048x10240xf16, strided<[10240, 1], offset: ?>>, vector<1xf16>
        %298 = vector.extract_strided_slice %290 {offsets = [2], sizes = [1], strides = [1]} : vector<4xf32> to vector<1xf32>
        %299 = arith.addf %298, %292 : vector<1xf32>
        %300 = arith.truncf %299 : vector<1xf32> to vector<1xf16>
        vector.store %300, %98[%269, %192] : memref<2048x10240xf16, strided<[10240, 1], offset: ?>>, vector<1xf16>
        %301 = vector.extract_strided_slice %290 {offsets = [3], sizes = [1], strides = [1]} : vector<4xf32> to vector<1xf32>
        %302 = arith.addf %301, %292 : vector<1xf32>
        %303 = arith.truncf %302 : vector<1xf32> to vector<1xf16>
        vector.store %303, %98[%273, %192] : memref<2048x10240xf16, strided<[10240, 1], offset: ?>>, vector<1xf16>
        %304 = amdgpu.mfma %97#22 * %97#14 + %251 {blocks = 1 : i32, k = 16 : i32, m = 16 : i32, n = 16 : i32} blgp =  none : vector<4xf16>, vector<4xf16>, vector<4xf32>
        %305 = vector.extract_strided_slice %304 {offsets = [0], sizes = [1], strides = [1]} : vector<4xf32> to vector<1xf32>
        %306 = vector.load %99[%178] : memref<10240xf32, strided<[1], offset: ?>>, vector<1xf32>
        %307 = arith.addf %305, %306 : vector<1xf32>
        %308 = arith.truncf %307 : vector<1xf32> to vector<1xf16>
        vector.store %308, %98[%259, %178] : memref<2048x10240xf16, strided<[10240, 1], offset: ?>>, vector<1xf16>
        %309 = vector.extract_strided_slice %304 {offsets = [1], sizes = [1], strides = [1]} : vector<4xf32> to vector<1xf32>
        %310 = arith.addf %309, %306 : vector<1xf32>
        %311 = arith.truncf %310 : vector<1xf32> to vector<1xf16>
        vector.store %311, %98[%265, %178] : memref<2048x10240xf16, strided<[10240, 1], offset: ?>>, vector<1xf16>
        %312 = vector.extract_strided_slice %304 {offsets = [2], sizes = [1], strides = [1]} : vector<4xf32> to vector<1xf32>
        %313 = arith.addf %312, %306 : vector<1xf32>
        %314 = arith.truncf %313 : vector<1xf32> to vector<1xf16>
        vector.store %314, %98[%269, %178] : memref<2048x10240xf16, strided<[10240, 1], offset: ?>>, vector<1xf16>
        %315 = vector.extract_strided_slice %304 {offsets = [3], sizes = [1], strides = [1]} : vector<4xf32> to vector<1xf32>
        %316 = arith.addf %315, %306 : vector<1xf32>
        %317 = arith.truncf %316 : vector<1xf32> to vector<1xf16>
        vector.store %317, %98[%273, %178] : memref<2048x10240xf16, strided<[10240, 1], offset: ?>>, vector<1xf16>
        %318 = amdgpu.mfma %97#22 * %97#12 + %252 {blocks = 1 : i32, k = 16 : i32, m = 16 : i32, n = 16 : i32} blgp =  none : vector<4xf16>, vector<4xf16>, vector<4xf32>
        %319 = vector.extract_strided_slice %318 {offsets = [0], sizes = [1], strides = [1]} : vector<4xf32> to vector<1xf32>
        %320 = vector.load %99[%164] : memref<10240xf32, strided<[1], offset: ?>>, vector<1xf32>
        %321 = arith.addf %319, %320 : vector<1xf32>
        %322 = arith.truncf %321 : vector<1xf32> to vector<1xf16>
        vector.store %322, %98[%259, %164] : memref<2048x10240xf16, strided<[10240, 1], offset: ?>>, vector<1xf16>
        %323 = vector.extract_strided_slice %318 {offsets = [1], sizes = [1], strides = [1]} : vector<4xf32> to vector<1xf32>
        %324 = arith.addf %323, %320 : vector<1xf32>
        %325 = arith.truncf %324 : vector<1xf32> to vector<1xf16>
        vector.store %325, %98[%265, %164] : memref<2048x10240xf16, strided<[10240, 1], offset: ?>>, vector<1xf16>
        %326 = vector.extract_strided_slice %318 {offsets = [2], sizes = [1], strides = [1]} : vector<4xf32> to vector<1xf32>
        %327 = arith.addf %326, %320 : vector<1xf32>
        %328 = arith.truncf %327 : vector<1xf32> to vector<1xf16>
        vector.store %328, %98[%269, %164] : memref<2048x10240xf16, strided<[10240, 1], offset: ?>>, vector<1xf16>
        %329 = vector.extract_strided_slice %318 {offsets = [3], sizes = [1], strides = [1]} : vector<4xf32> to vector<1xf32>
        %330 = arith.addf %329, %320 : vector<1xf32>
        %331 = arith.truncf %330 : vector<1xf32> to vector<1xf16>
        vector.store %331, %98[%273, %164] : memref<2048x10240xf16, strided<[10240, 1], offset: ?>>, vector<1xf16>
        %332 = amdgpu.mfma %97#22 * %97#10 + %253 {blocks = 1 : i32, k = 16 : i32, m = 16 : i32, n = 16 : i32} blgp =  none : vector<4xf16>, vector<4xf16>, vector<4xf32>
        %333 = vector.extract_strided_slice %332 {offsets = [0], sizes = [1], strides = [1]} : vector<4xf32> to vector<1xf32>
        %334 = vector.load %99[%150] : memref<10240xf32, strided<[1], offset: ?>>, vector<1xf32>
        %335 = arith.addf %333, %334 : vector<1xf32>
        %336 = arith.truncf %335 : vector<1xf32> to vector<1xf16>
        vector.store %336, %98[%259, %150] : memref<2048x10240xf16, strided<[10240, 1], offset: ?>>, vector<1xf16>
        %337 = vector.extract_strided_slice %332 {offsets = [1], sizes = [1], strides = [1]} : vector<4xf32> to vector<1xf32>
        %338 = arith.addf %337, %334 : vector<1xf32>
        %339 = arith.truncf %338 : vector<1xf32> to vector<1xf16>
        vector.store %339, %98[%265, %150] : memref<2048x10240xf16, strided<[10240, 1], offset: ?>>, vector<1xf16>
        %340 = vector.extract_strided_slice %332 {offsets = [2], sizes = [1], strides = [1]} : vector<4xf32> to vector<1xf32>
        %341 = arith.addf %340, %334 : vector<1xf32>
        %342 = arith.truncf %341 : vector<1xf32> to vector<1xf16>
        vector.store %342, %98[%269, %150] : memref<2048x10240xf16, strided<[10240, 1], offset: ?>>, vector<1xf16>
        %343 = vector.extract_strided_slice %332 {offsets = [3], sizes = [1], strides = [1]} : vector<4xf32> to vector<1xf32>
        %344 = arith.addf %343, %334 : vector<1xf32>
        %345 = arith.truncf %344 : vector<1xf32> to vector<1xf16>
        vector.store %345, %98[%273, %150] : memref<2048x10240xf16, strided<[10240, 1], offset: ?>>, vector<1xf16>
        %346 = amdgpu.mfma %97#22 * %97#8 + %254 {blocks = 1 : i32, k = 16 : i32, m = 16 : i32, n = 16 : i32} blgp =  none : vector<4xf16>, vector<4xf16>, vector<4xf32>
        %347 = vector.extract_strided_slice %346 {offsets = [0], sizes = [1], strides = [1]} : vector<4xf32> to vector<1xf32>
        %348 = vector.load %99[%136] : memref<10240xf32, strided<[1], offset: ?>>, vector<1xf32>
        %349 = arith.addf %347, %348 : vector<1xf32>
        %350 = arith.truncf %349 : vector<1xf32> to vector<1xf16>
        vector.store %350, %98[%259, %136] : memref<2048x10240xf16, strided<[10240, 1], offset: ?>>, vector<1xf16>
        %351 = vector.extract_strided_slice %346 {offsets = [1], sizes = [1], strides = [1]} : vector<4xf32> to vector<1xf32>
        %352 = arith.addf %351, %348 : vector<1xf32>
        %353 = arith.truncf %352 : vector<1xf32> to vector<1xf16>
        vector.store %353, %98[%265, %136] : memref<2048x10240xf16, strided<[10240, 1], offset: ?>>, vector<1xf16>
        %354 = vector.extract_strided_slice %346 {offsets = [2], sizes = [1], strides = [1]} : vector<4xf32> to vector<1xf32>
        %355 = arith.addf %354, %348 : vector<1xf32>
        %356 = arith.truncf %355 : vector<1xf32> to vector<1xf16>
        vector.store %356, %98[%269, %136] : memref<2048x10240xf16, strided<[10240, 1], offset: ?>>, vector<1xf16>
        %357 = vector.extract_strided_slice %346 {offsets = [3], sizes = [1], strides = [1]} : vector<4xf32> to vector<1xf32>
        %358 = arith.addf %357, %348 : vector<1xf32>
        %359 = arith.truncf %358 : vector<1xf32> to vector<1xf16>
        vector.store %359, %98[%273, %136] : memref<2048x10240xf16, strided<[10240, 1], offset: ?>>, vector<1xf16>
        %360 = amdgpu.mfma %97#21 * %97#5 + %97#46 {blocks = 1 : i32, k = 16 : i32, m = 16 : i32, n = 16 : i32} blgp =  none : vector<4xf16>, vector<4xf16>, vector<4xf32>
        %361 = vector.load %alloc_0[%36, %41] : memref<128x36xf16, #gpu.address_space<workgroup>>, vector<4xf16>
        %362 = vector.load %alloc_0[%36, %40] : memref<128x36xf16, #gpu.address_space<workgroup>>, vector<4xf16>
        %363 = amdgpu.mfma %97#22 * %97#6 + %360 {blocks = 1 : i32, k = 16 : i32, m = 16 : i32, n = 16 : i32} blgp =  none : vector<4xf16>, vector<4xf16>, vector<4xf32>
        %364 = vector.extract_strided_slice %363 {offsets = [0], sizes = [1], strides = [1]} : vector<4xf32> to vector<1xf32>
        %365 = vector.load %99[%122] : memref<10240xf32, strided<[1], offset: ?>>, vector<1xf32>
        %366 = arith.addf %364, %365 : vector<1xf32>
        %367 = arith.truncf %366 : vector<1xf32> to vector<1xf16>
        vector.store %367, %98[%259, %122] : memref<2048x10240xf16, strided<[10240, 1], offset: ?>>, vector<1xf16>
        %368 = vector.extract_strided_slice %363 {offsets = [1], sizes = [1], strides = [1]} : vector<4xf32> to vector<1xf32>
        %369 = arith.addf %368, %365 : vector<1xf32>
        %370 = arith.truncf %369 : vector<1xf32> to vector<1xf16>
        vector.store %370, %98[%265, %122] : memref<2048x10240xf16, strided<[10240, 1], offset: ?>>, vector<1xf16>
        %371 = vector.extract_strided_slice %363 {offsets = [2], sizes = [1], strides = [1]} : vector<4xf32> to vector<1xf32>
        %372 = arith.addf %371, %365 : vector<1xf32>
        %373 = arith.truncf %372 : vector<1xf32> to vector<1xf16>
        vector.store %373, %98[%269, %122] : memref<2048x10240xf16, strided<[10240, 1], offset: ?>>, vector<1xf16>
        %374 = vector.extract_strided_slice %363 {offsets = [3], sizes = [1], strides = [1]} : vector<4xf32> to vector<1xf32>
        %375 = arith.addf %374, %365 : vector<1xf32>
        %376 = arith.truncf %375 : vector<1xf32> to vector<1xf16>
        vector.store %376, %98[%273, %122] : memref<2048x10240xf16, strided<[10240, 1], offset: ?>>, vector<1xf16>
        %377 = amdgpu.mfma %97#21 * %97#3 + %97#45 {blocks = 1 : i32, k = 16 : i32, m = 16 : i32, n = 16 : i32} blgp =  none : vector<4xf16>, vector<4xf16>, vector<4xf32>
        %378 = amdgpu.mfma %97#21 * %97#1 + %97#44 {blocks = 1 : i32, k = 16 : i32, m = 16 : i32, n = 16 : i32} blgp =  none : vector<4xf16>, vector<4xf16>, vector<4xf32>
        %379 = amdgpu.mfma %257 * %97#19 + %97#43 {blocks = 1 : i32, k = 16 : i32, m = 16 : i32, n = 16 : i32} blgp =  none : vector<4xf16>, vector<4xf16>, vector<4xf32>
        %380 = amdgpu.mfma %257 * %97#17 + %97#42 {blocks = 1 : i32, k = 16 : i32, m = 16 : i32, n = 16 : i32} blgp =  none : vector<4xf16>, vector<4xf16>, vector<4xf32>
        %381 = amdgpu.mfma %257 * %97#15 + %97#41 {blocks = 1 : i32, k = 16 : i32, m = 16 : i32, n = 16 : i32} blgp =  none : vector<4xf16>, vector<4xf16>, vector<4xf32>
        %382 = amdgpu.mfma %257 * %97#13 + %97#40 {blocks = 1 : i32, k = 16 : i32, m = 16 : i32, n = 16 : i32} blgp =  none : vector<4xf16>, vector<4xf16>, vector<4xf32>
        %383 = amdgpu.mfma %257 * %97#11 + %97#39 {blocks = 1 : i32, k = 16 : i32, m = 16 : i32, n = 16 : i32} blgp =  none : vector<4xf16>, vector<4xf16>, vector<4xf32>
        %384 = amdgpu.mfma %97#22 * %97#4 + %377 {blocks = 1 : i32, k = 16 : i32, m = 16 : i32, n = 16 : i32} blgp =  none : vector<4xf16>, vector<4xf16>, vector<4xf32>
        %385 = vector.extract_strided_slice %384 {offsets = [0], sizes = [1], strides = [1]} : vector<4xf32> to vector<1xf32>
        %386 = vector.load %99[%105] : memref<10240xf32, strided<[1], offset: ?>>, vector<1xf32>
        %387 = arith.addf %385, %386 : vector<1xf32>
        %388 = arith.truncf %387 : vector<1xf32> to vector<1xf16>
        vector.store %388, %98[%259, %105] : memref<2048x10240xf16, strided<[10240, 1], offset: ?>>, vector<1xf16>
        %389 = vector.extract_strided_slice %384 {offsets = [1], sizes = [1], strides = [1]} : vector<4xf32> to vector<1xf32>
        %390 = arith.addf %389, %386 : vector<1xf32>
        %391 = arith.truncf %390 : vector<1xf32> to vector<1xf16>
        vector.store %391, %98[%265, %105] : memref<2048x10240xf16, strided<[10240, 1], offset: ?>>, vector<1xf16>
        %392 = vector.extract_strided_slice %384 {offsets = [2], sizes = [1], strides = [1]} : vector<4xf32> to vector<1xf32>
        %393 = arith.addf %392, %386 : vector<1xf32>
        %394 = arith.truncf %393 : vector<1xf32> to vector<1xf16>
        vector.store %394, %98[%269, %105] : memref<2048x10240xf16, strided<[10240, 1], offset: ?>>, vector<1xf16>
        %395 = vector.extract_strided_slice %384 {offsets = [3], sizes = [1], strides = [1]} : vector<4xf32> to vector<1xf32>
        %396 = arith.addf %395, %386 : vector<1xf32>
        %397 = arith.truncf %396 : vector<1xf32> to vector<1xf16>
        vector.store %397, %98[%273, %105] : memref<2048x10240xf16, strided<[10240, 1], offset: ?>>, vector<1xf16>
        %398 = amdgpu.mfma %97#22 * %97#2 + %378 {blocks = 1 : i32, k = 16 : i32, m = 16 : i32, n = 16 : i32} blgp =  none : vector<4xf16>, vector<4xf16>, vector<4xf32>
        %399 = vector.extract_strided_slice %398 {offsets = [0], sizes = [1], strides = [1]} : vector<4xf32> to vector<1xf32>
        %400 = vector.load %99[%104] : memref<10240xf32, strided<[1], offset: ?>>, vector<1xf32>
        %401 = arith.addf %399, %400 : vector<1xf32>
        %402 = arith.truncf %401 : vector<1xf32> to vector<1xf16>
        vector.store %402, %98[%259, %104] : memref<2048x10240xf16, strided<[10240, 1], offset: ?>>, vector<1xf16>
        %403 = vector.extract_strided_slice %398 {offsets = [1], sizes = [1], strides = [1]} : vector<4xf32> to vector<1xf32>
        %404 = arith.addf %403, %400 : vector<1xf32>
        %405 = arith.truncf %404 : vector<1xf32> to vector<1xf16>
        vector.store %405, %98[%265, %104] : memref<2048x10240xf16, strided<[10240, 1], offset: ?>>, vector<1xf16>
        %406 = vector.extract_strided_slice %398 {offsets = [2], sizes = [1], strides = [1]} : vector<4xf32> to vector<1xf32>
        %407 = arith.addf %406, %400 : vector<1xf32>
        %408 = arith.truncf %407 : vector<1xf32> to vector<1xf16>
        vector.store %408, %98[%269, %104] : memref<2048x10240xf16, strided<[10240, 1], offset: ?>>, vector<1xf16>
        %409 = vector.extract_strided_slice %398 {offsets = [3], sizes = [1], strides = [1]} : vector<4xf32> to vector<1xf32>
        %410 = arith.addf %409, %400 : vector<1xf32>
        %411 = arith.truncf %410 : vector<1xf32> to vector<1xf16>
        vector.store %411, %98[%273, %104] : memref<2048x10240xf16, strided<[10240, 1], offset: ?>>, vector<1xf16>
        %412 = amdgpu.mfma %256 * %97#20 + %379 {blocks = 1 : i32, k = 16 : i32, m = 16 : i32, n = 16 : i32} blgp =  none : vector<4xf16>, vector<4xf16>, vector<4xf32>
        %413 = arith.addi %101, %c16 : index
        %414 = vector.extract_strided_slice %412 {offsets = [0], sizes = [1], strides = [1]} : vector<4xf32> to vector<1xf32>
        %415 = vector.load %99[%220] : memref<10240xf32, strided<[1], offset: ?>>, vector<1xf32>
        %416 = arith.addf %414, %415 : vector<1xf32>
        %417 = arith.truncf %416 : vector<1xf32> to vector<1xf16>
        vector.store %417, %98[%413, %220] : memref<2048x10240xf16, strided<[10240, 1], offset: ?>>, vector<1xf16>
        %418 = vector.extract_strided_slice %412 {offsets = [1], sizes = [1], strides = [1]} : vector<4xf32> to vector<1xf32>
        %419 = arith.addi %101, %c17 : index
        %420 = arith.addf %418, %415 : vector<1xf32>
        %421 = arith.truncf %420 : vector<1xf32> to vector<1xf16>
        vector.store %421, %98[%419, %220] : memref<2048x10240xf16, strided<[10240, 1], offset: ?>>, vector<1xf16>
        %422 = vector.extract_strided_slice %412 {offsets = [2], sizes = [1], strides = [1]} : vector<4xf32> to vector<1xf32>
        %423 = arith.addi %101, %c18 : index
        %424 = arith.addf %422, %415 : vector<1xf32>
        %425 = arith.truncf %424 : vector<1xf32> to vector<1xf16>
        vector.store %425, %98[%423, %220] : memref<2048x10240xf16, strided<[10240, 1], offset: ?>>, vector<1xf16>
        %426 = vector.extract_strided_slice %412 {offsets = [3], sizes = [1], strides = [1]} : vector<4xf32> to vector<1xf32>
        %427 = arith.addi %101, %c19 : index
        %428 = arith.addf %426, %415 : vector<1xf32>
        %429 = arith.truncf %428 : vector<1xf32> to vector<1xf16>
        vector.store %429, %98[%427, %220] : memref<2048x10240xf16, strided<[10240, 1], offset: ?>>, vector<1xf16>
        %430 = amdgpu.mfma %256 * %97#18 + %380 {blocks = 1 : i32, k = 16 : i32, m = 16 : i32, n = 16 : i32} blgp =  none : vector<4xf16>, vector<4xf16>, vector<4xf32>
        %431 = vector.extract_strided_slice %430 {offsets = [0], sizes = [1], strides = [1]} : vector<4xf32> to vector<1xf32>
        %432 = vector.load %99[%206] : memref<10240xf32, strided<[1], offset: ?>>, vector<1xf32>
        %433 = arith.addf %431, %432 : vector<1xf32>
        %434 = arith.truncf %433 : vector<1xf32> to vector<1xf16>
        vector.store %434, %98[%413, %206] : memref<2048x10240xf16, strided<[10240, 1], offset: ?>>, vector<1xf16>
        %435 = vector.extract_strided_slice %430 {offsets = [1], sizes = [1], strides = [1]} : vector<4xf32> to vector<1xf32>
        %436 = arith.addf %435, %432 : vector<1xf32>
        %437 = arith.truncf %436 : vector<1xf32> to vector<1xf16>
        vector.store %437, %98[%419, %206] : memref<2048x10240xf16, strided<[10240, 1], offset: ?>>, vector<1xf16>
        %438 = vector.extract_strided_slice %430 {offsets = [2], sizes = [1], strides = [1]} : vector<4xf32> to vector<1xf32>
        %439 = arith.addf %438, %432 : vector<1xf32>
        %440 = arith.truncf %439 : vector<1xf32> to vector<1xf16>
        vector.store %440, %98[%423, %206] : memref<2048x10240xf16, strided<[10240, 1], offset: ?>>, vector<1xf16>
        %441 = vector.extract_strided_slice %430 {offsets = [3], sizes = [1], strides = [1]} : vector<4xf32> to vector<1xf32>
        %442 = arith.addf %441, %432 : vector<1xf32>
        %443 = arith.truncf %442 : vector<1xf32> to vector<1xf16>
        vector.store %443, %98[%427, %206] : memref<2048x10240xf16, strided<[10240, 1], offset: ?>>, vector<1xf16>
        %444 = amdgpu.mfma %256 * %97#16 + %381 {blocks = 1 : i32, k = 16 : i32, m = 16 : i32, n = 16 : i32} blgp =  none : vector<4xf16>, vector<4xf16>, vector<4xf32>
        %445 = vector.extract_strided_slice %444 {offsets = [0], sizes = [1], strides = [1]} : vector<4xf32> to vector<1xf32>
        %446 = vector.load %99[%192] : memref<10240xf32, strided<[1], offset: ?>>, vector<1xf32>
        %447 = arith.addf %445, %446 : vector<1xf32>
        %448 = arith.truncf %447 : vector<1xf32> to vector<1xf16>
        vector.store %448, %98[%413, %192] : memref<2048x10240xf16, strided<[10240, 1], offset: ?>>, vector<1xf16>
        %449 = vector.extract_strided_slice %444 {offsets = [1], sizes = [1], strides = [1]} : vector<4xf32> to vector<1xf32>
        %450 = arith.addf %449, %446 : vector<1xf32>
        %451 = arith.truncf %450 : vector<1xf32> to vector<1xf16>
        vector.store %451, %98[%419, %192] : memref<2048x10240xf16, strided<[10240, 1], offset: ?>>, vector<1xf16>
        %452 = vector.extract_strided_slice %444 {offsets = [2], sizes = [1], strides = [1]} : vector<4xf32> to vector<1xf32>
        %453 = arith.addf %452, %446 : vector<1xf32>
        %454 = arith.truncf %453 : vector<1xf32> to vector<1xf16>
        vector.store %454, %98[%423, %192] : memref<2048x10240xf16, strided<[10240, 1], offset: ?>>, vector<1xf16>
        %455 = vector.extract_strided_slice %444 {offsets = [3], sizes = [1], strides = [1]} : vector<4xf32> to vector<1xf32>
        %456 = arith.addf %455, %446 : vector<1xf32>
        %457 = arith.truncf %456 : vector<1xf32> to vector<1xf16>
        vector.store %457, %98[%427, %192] : memref<2048x10240xf16, strided<[10240, 1], offset: ?>>, vector<1xf16>
        %458 = amdgpu.mfma %256 * %97#14 + %382 {blocks = 1 : i32, k = 16 : i32, m = 16 : i32, n = 16 : i32} blgp =  none : vector<4xf16>, vector<4xf16>, vector<4xf32>
        %459 = vector.extract_strided_slice %458 {offsets = [0], sizes = [1], strides = [1]} : vector<4xf32> to vector<1xf32>
        %460 = vector.load %99[%178] : memref<10240xf32, strided<[1], offset: ?>>, vector<1xf32>
        %461 = arith.addf %459, %460 : vector<1xf32>
        %462 = arith.truncf %461 : vector<1xf32> to vector<1xf16>
        vector.store %462, %98[%413, %178] : memref<2048x10240xf16, strided<[10240, 1], offset: ?>>, vector<1xf16>
        %463 = vector.extract_strided_slice %458 {offsets = [1], sizes = [1], strides = [1]} : vector<4xf32> to vector<1xf32>
        %464 = arith.addf %463, %460 : vector<1xf32>
        %465 = arith.truncf %464 : vector<1xf32> to vector<1xf16>
        vector.store %465, %98[%419, %178] : memref<2048x10240xf16, strided<[10240, 1], offset: ?>>, vector<1xf16>
        %466 = vector.extract_strided_slice %458 {offsets = [2], sizes = [1], strides = [1]} : vector<4xf32> to vector<1xf32>
        %467 = arith.addf %466, %460 : vector<1xf32>
        %468 = arith.truncf %467 : vector<1xf32> to vector<1xf16>
        vector.store %468, %98[%423, %178] : memref<2048x10240xf16, strided<[10240, 1], offset: ?>>, vector<1xf16>
        %469 = vector.extract_strided_slice %458 {offsets = [3], sizes = [1], strides = [1]} : vector<4xf32> to vector<1xf32>
        %470 = arith.addf %469, %460 : vector<1xf32>
        %471 = arith.truncf %470 : vector<1xf32> to vector<1xf16>
        vector.store %471, %98[%427, %178] : memref<2048x10240xf16, strided<[10240, 1], offset: ?>>, vector<1xf16>
        %472 = amdgpu.mfma %256 * %97#12 + %383 {blocks = 1 : i32, k = 16 : i32, m = 16 : i32, n = 16 : i32} blgp =  none : vector<4xf16>, vector<4xf16>, vector<4xf32>
        %473 = vector.extract_strided_slice %472 {offsets = [0], sizes = [1], strides = [1]} : vector<4xf32> to vector<1xf32>
        %474 = vector.load %99[%164] : memref<10240xf32, strided<[1], offset: ?>>, vector<1xf32>
        %475 = arith.addf %473, %474 : vector<1xf32>
        %476 = arith.truncf %475 : vector<1xf32> to vector<1xf16>
        vector.store %476, %98[%413, %164] : memref<2048x10240xf16, strided<[10240, 1], offset: ?>>, vector<1xf16>
        %477 = vector.extract_strided_slice %472 {offsets = [1], sizes = [1], strides = [1]} : vector<4xf32> to vector<1xf32>
        %478 = arith.addf %477, %474 : vector<1xf32>
        %479 = arith.truncf %478 : vector<1xf32> to vector<1xf16>
        vector.store %479, %98[%419, %164] : memref<2048x10240xf16, strided<[10240, 1], offset: ?>>, vector<1xf16>
        %480 = vector.extract_strided_slice %472 {offsets = [2], sizes = [1], strides = [1]} : vector<4xf32> to vector<1xf32>
        %481 = arith.addf %480, %474 : vector<1xf32>
        %482 = arith.truncf %481 : vector<1xf32> to vector<1xf16>
        vector.store %482, %98[%423, %164] : memref<2048x10240xf16, strided<[10240, 1], offset: ?>>, vector<1xf16>
        %483 = vector.extract_strided_slice %472 {offsets = [3], sizes = [1], strides = [1]} : vector<4xf32> to vector<1xf32>
        %484 = arith.addf %483, %474 : vector<1xf32>
        %485 = arith.truncf %484 : vector<1xf32> to vector<1xf16>
        vector.store %485, %98[%427, %164] : memref<2048x10240xf16, strided<[10240, 1], offset: ?>>, vector<1xf16>
        %486 = amdgpu.mfma %257 * %97#9 + %97#38 {blocks = 1 : i32, k = 16 : i32, m = 16 : i32, n = 16 : i32} blgp =  none : vector<4xf16>, vector<4xf16>, vector<4xf32>
        %487 = amdgpu.mfma %256 * %97#10 + %486 {blocks = 1 : i32, k = 16 : i32, m = 16 : i32, n = 16 : i32} blgp =  none : vector<4xf16>, vector<4xf16>, vector<4xf32>
        %488 = vector.extract_strided_slice %487 {offsets = [0], sizes = [1], strides = [1]} : vector<4xf32> to vector<1xf32>
        %489 = vector.load %99[%150] : memref<10240xf32, strided<[1], offset: ?>>, vector<1xf32>
        %490 = arith.addf %488, %489 : vector<1xf32>
        %491 = arith.truncf %490 : vector<1xf32> to vector<1xf16>
        vector.store %491, %98[%413, %150] : memref<2048x10240xf16, strided<[10240, 1], offset: ?>>, vector<1xf16>
        %492 = vector.extract_strided_slice %487 {offsets = [1], sizes = [1], strides = [1]} : vector<4xf32> to vector<1xf32>
        %493 = arith.addf %492, %489 : vector<1xf32>
        %494 = arith.truncf %493 : vector<1xf32> to vector<1xf16>
        vector.store %494, %98[%419, %150] : memref<2048x10240xf16, strided<[10240, 1], offset: ?>>, vector<1xf16>
        %495 = vector.extract_strided_slice %487 {offsets = [2], sizes = [1], strides = [1]} : vector<4xf32> to vector<1xf32>
        %496 = arith.addf %495, %489 : vector<1xf32>
        %497 = arith.truncf %496 : vector<1xf32> to vector<1xf16>
        vector.store %497, %98[%423, %150] : memref<2048x10240xf16, strided<[10240, 1], offset: ?>>, vector<1xf16>
        %498 = vector.extract_strided_slice %487 {offsets = [3], sizes = [1], strides = [1]} : vector<4xf32> to vector<1xf32>
        %499 = arith.addf %498, %489 : vector<1xf32>
        %500 = arith.truncf %499 : vector<1xf32> to vector<1xf16>
        vector.store %500, %98[%427, %150] : memref<2048x10240xf16, strided<[10240, 1], offset: ?>>, vector<1xf16>
        %501 = amdgpu.mfma %257 * %97#7 + %97#37 {blocks = 1 : i32, k = 16 : i32, m = 16 : i32, n = 16 : i32} blgp =  none : vector<4xf16>, vector<4xf16>, vector<4xf32>
        %502 = amdgpu.mfma %257 * %97#5 + %97#36 {blocks = 1 : i32, k = 16 : i32, m = 16 : i32, n = 16 : i32} blgp =  none : vector<4xf16>, vector<4xf16>, vector<4xf32>
        %503 = amdgpu.mfma %257 * %97#3 + %97#35 {blocks = 1 : i32, k = 16 : i32, m = 16 : i32, n = 16 : i32} blgp =  none : vector<4xf16>, vector<4xf16>, vector<4xf32>
        %504 = amdgpu.mfma %257 * %97#1 + %97#34 {blocks = 1 : i32, k = 16 : i32, m = 16 : i32, n = 16 : i32} blgp =  none : vector<4xf16>, vector<4xf16>, vector<4xf32>
        %505 = amdgpu.mfma %362 * %97#19 + %97#33 {blocks = 1 : i32, k = 16 : i32, m = 16 : i32, n = 16 : i32} blgp =  none : vector<4xf16>, vector<4xf16>, vector<4xf32>
        %506 = amdgpu.mfma %362 * %97#17 + %97#32 {blocks = 1 : i32, k = 16 : i32, m = 16 : i32, n = 16 : i32} blgp =  none : vector<4xf16>, vector<4xf16>, vector<4xf32>
        %507 = amdgpu.mfma %362 * %97#15 + %97#31 {blocks = 1 : i32, k = 16 : i32, m = 16 : i32, n = 16 : i32} blgp =  none : vector<4xf16>, vector<4xf16>, vector<4xf32>
        %508 = amdgpu.mfma %256 * %97#8 + %501 {blocks = 1 : i32, k = 16 : i32, m = 16 : i32, n = 16 : i32} blgp =  none : vector<4xf16>, vector<4xf16>, vector<4xf32>
        %509 = vector.extract_strided_slice %508 {offsets = [0], sizes = [1], strides = [1]} : vector<4xf32> to vector<1xf32>
        %510 = vector.load %99[%136] : memref<10240xf32, strided<[1], offset: ?>>, vector<1xf32>
        %511 = arith.addf %509, %510 : vector<1xf32>
        %512 = arith.truncf %511 : vector<1xf32> to vector<1xf16>
        vector.store %512, %98[%413, %136] : memref<2048x10240xf16, strided<[10240, 1], offset: ?>>, vector<1xf16>
        %513 = vector.extract_strided_slice %508 {offsets = [1], sizes = [1], strides = [1]} : vector<4xf32> to vector<1xf32>
        %514 = arith.addf %513, %510 : vector<1xf32>
        %515 = arith.truncf %514 : vector<1xf32> to vector<1xf16>
        vector.store %515, %98[%419, %136] : memref<2048x10240xf16, strided<[10240, 1], offset: ?>>, vector<1xf16>
        %516 = vector.extract_strided_slice %508 {offsets = [2], sizes = [1], strides = [1]} : vector<4xf32> to vector<1xf32>
        %517 = arith.addf %516, %510 : vector<1xf32>
        %518 = arith.truncf %517 : vector<1xf32> to vector<1xf16>
        vector.store %518, %98[%423, %136] : memref<2048x10240xf16, strided<[10240, 1], offset: ?>>, vector<1xf16>
        %519 = vector.extract_strided_slice %508 {offsets = [3], sizes = [1], strides = [1]} : vector<4xf32> to vector<1xf32>
        %520 = arith.addf %519, %510 : vector<1xf32>
        %521 = arith.truncf %520 : vector<1xf32> to vector<1xf16>
        vector.store %521, %98[%427, %136] : memref<2048x10240xf16, strided<[10240, 1], offset: ?>>, vector<1xf16>
        %522 = amdgpu.mfma %256 * %97#6 + %502 {blocks = 1 : i32, k = 16 : i32, m = 16 : i32, n = 16 : i32} blgp =  none : vector<4xf16>, vector<4xf16>, vector<4xf32>
        %523 = vector.extract_strided_slice %522 {offsets = [0], sizes = [1], strides = [1]} : vector<4xf32> to vector<1xf32>
        %524 = vector.load %99[%122] : memref<10240xf32, strided<[1], offset: ?>>, vector<1xf32>
        %525 = arith.addf %523, %524 : vector<1xf32>
        %526 = arith.truncf %525 : vector<1xf32> to vector<1xf16>
        vector.store %526, %98[%413, %122] : memref<2048x10240xf16, strided<[10240, 1], offset: ?>>, vector<1xf16>
        %527 = vector.extract_strided_slice %522 {offsets = [1], sizes = [1], strides = [1]} : vector<4xf32> to vector<1xf32>
        %528 = arith.addf %527, %524 : vector<1xf32>
        %529 = arith.truncf %528 : vector<1xf32> to vector<1xf16>
        vector.store %529, %98[%419, %122] : memref<2048x10240xf16, strided<[10240, 1], offset: ?>>, vector<1xf16>
        %530 = vector.extract_strided_slice %522 {offsets = [2], sizes = [1], strides = [1]} : vector<4xf32> to vector<1xf32>
        %531 = arith.addf %530, %524 : vector<1xf32>
        %532 = arith.truncf %531 : vector<1xf32> to vector<1xf16>
        vector.store %532, %98[%423, %122] : memref<2048x10240xf16, strided<[10240, 1], offset: ?>>, vector<1xf16>
        %533 = vector.extract_strided_slice %522 {offsets = [3], sizes = [1], strides = [1]} : vector<4xf32> to vector<1xf32>
        %534 = arith.addf %533, %524 : vector<1xf32>
        %535 = arith.truncf %534 : vector<1xf32> to vector<1xf16>
        vector.store %535, %98[%427, %122] : memref<2048x10240xf16, strided<[10240, 1], offset: ?>>, vector<1xf16>
        %536 = amdgpu.mfma %256 * %97#4 + %503 {blocks = 1 : i32, k = 16 : i32, m = 16 : i32, n = 16 : i32} blgp =  none : vector<4xf16>, vector<4xf16>, vector<4xf32>
        %537 = vector.extract_strided_slice %536 {offsets = [0], sizes = [1], strides = [1]} : vector<4xf32> to vector<1xf32>
        %538 = vector.load %99[%105] : memref<10240xf32, strided<[1], offset: ?>>, vector<1xf32>
        %539 = arith.addf %537, %538 : vector<1xf32>
        %540 = arith.truncf %539 : vector<1xf32> to vector<1xf16>
        vector.store %540, %98[%413, %105] : memref<2048x10240xf16, strided<[10240, 1], offset: ?>>, vector<1xf16>
        %541 = vector.extract_strided_slice %536 {offsets = [1], sizes = [1], strides = [1]} : vector<4xf32> to vector<1xf32>
        %542 = arith.addf %541, %538 : vector<1xf32>
        %543 = arith.truncf %542 : vector<1xf32> to vector<1xf16>
        vector.store %543, %98[%419, %105] : memref<2048x10240xf16, strided<[10240, 1], offset: ?>>, vector<1xf16>
        %544 = vector.extract_strided_slice %536 {offsets = [2], sizes = [1], strides = [1]} : vector<4xf32> to vector<1xf32>
        %545 = arith.addf %544, %538 : vector<1xf32>
        %546 = arith.truncf %545 : vector<1xf32> to vector<1xf16>
        vector.store %546, %98[%423, %105] : memref<2048x10240xf16, strided<[10240, 1], offset: ?>>, vector<1xf16>
        %547 = vector.extract_strided_slice %536 {offsets = [3], sizes = [1], strides = [1]} : vector<4xf32> to vector<1xf32>
        %548 = arith.addf %547, %538 : vector<1xf32>
        %549 = arith.truncf %548 : vector<1xf32> to vector<1xf16>
        vector.store %549, %98[%427, %105] : memref<2048x10240xf16, strided<[10240, 1], offset: ?>>, vector<1xf16>
        %550 = amdgpu.mfma %256 * %97#2 + %504 {blocks = 1 : i32, k = 16 : i32, m = 16 : i32, n = 16 : i32} blgp =  none : vector<4xf16>, vector<4xf16>, vector<4xf32>
        %551 = vector.extract_strided_slice %550 {offsets = [0], sizes = [1], strides = [1]} : vector<4xf32> to vector<1xf32>
        %552 = vector.load %99[%104] : memref<10240xf32, strided<[1], offset: ?>>, vector<1xf32>
        %553 = arith.addf %551, %552 : vector<1xf32>
        %554 = arith.truncf %553 : vector<1xf32> to vector<1xf16>
        vector.store %554, %98[%413, %104] : memref<2048x10240xf16, strided<[10240, 1], offset: ?>>, vector<1xf16>
        %555 = vector.extract_strided_slice %550 {offsets = [1], sizes = [1], strides = [1]} : vector<4xf32> to vector<1xf32>
        %556 = arith.addf %555, %552 : vector<1xf32>
        %557 = arith.truncf %556 : vector<1xf32> to vector<1xf16>
        vector.store %557, %98[%419, %104] : memref<2048x10240xf16, strided<[10240, 1], offset: ?>>, vector<1xf16>
        %558 = vector.extract_strided_slice %550 {offsets = [2], sizes = [1], strides = [1]} : vector<4xf32> to vector<1xf32>
        %559 = arith.addf %558, %552 : vector<1xf32>
        %560 = arith.truncf %559 : vector<1xf32> to vector<1xf16>
        vector.store %560, %98[%423, %104] : memref<2048x10240xf16, strided<[10240, 1], offset: ?>>, vector<1xf16>
        %561 = vector.extract_strided_slice %550 {offsets = [3], sizes = [1], strides = [1]} : vector<4xf32> to vector<1xf32>
        %562 = arith.addf %561, %552 : vector<1xf32>
        %563 = arith.truncf %562 : vector<1xf32> to vector<1xf16>
        vector.store %563, %98[%427, %104] : memref<2048x10240xf16, strided<[10240, 1], offset: ?>>, vector<1xf16>
        %564 = amdgpu.mfma %361 * %97#20 + %505 {blocks = 1 : i32, k = 16 : i32, m = 16 : i32, n = 16 : i32} blgp =  none : vector<4xf16>, vector<4xf16>, vector<4xf32>
        %565 = vector.extract_strided_slice %564 {offsets = [0], sizes = [1], strides = [1]} : vector<4xf32> to vector<1xf32>
        %566 = vector.load %99[%220] : memref<10240xf32, strided<[1], offset: ?>>, vector<1xf32>
        %567 = arith.addf %565, %566 : vector<1xf32>
        %568 = arith.truncf %567 : vector<1xf32> to vector<1xf16>
        vector.store %568, %98[%101, %220] : memref<2048x10240xf16, strided<[10240, 1], offset: ?>>, vector<1xf16>
        %569 = vector.extract_strided_slice %564 {offsets = [1], sizes = [1], strides = [1]} : vector<4xf32> to vector<1xf32>
        %570 = arith.addi %101, %c1 : index
        %571 = arith.addf %569, %566 : vector<1xf32>
        %572 = arith.truncf %571 : vector<1xf32> to vector<1xf16>
        vector.store %572, %98[%570, %220] : memref<2048x10240xf16, strided<[10240, 1], offset: ?>>, vector<1xf16>
        %573 = vector.extract_strided_slice %564 {offsets = [2], sizes = [1], strides = [1]} : vector<4xf32> to vector<1xf32>
        %574 = arith.addi %101, %c2 : index
        %575 = arith.addf %573, %566 : vector<1xf32>
        %576 = arith.truncf %575 : vector<1xf32> to vector<1xf16>
        vector.store %576, %98[%574, %220] : memref<2048x10240xf16, strided<[10240, 1], offset: ?>>, vector<1xf16>
        %577 = vector.extract_strided_slice %564 {offsets = [3], sizes = [1], strides = [1]} : vector<4xf32> to vector<1xf32>
        %578 = arith.addi %101, %c3 : index
        %579 = arith.addf %577, %566 : vector<1xf32>
        %580 = arith.truncf %579 : vector<1xf32> to vector<1xf16>
        vector.store %580, %98[%578, %220] : memref<2048x10240xf16, strided<[10240, 1], offset: ?>>, vector<1xf16>
        %581 = amdgpu.mfma %361 * %97#18 + %506 {blocks = 1 : i32, k = 16 : i32, m = 16 : i32, n = 16 : i32} blgp =  none : vector<4xf16>, vector<4xf16>, vector<4xf32>
        %582 = vector.extract_strided_slice %581 {offsets = [0], sizes = [1], strides = [1]} : vector<4xf32> to vector<1xf32>
        %583 = vector.load %99[%206] : memref<10240xf32, strided<[1], offset: ?>>, vector<1xf32>
        %584 = arith.addf %582, %583 : vector<1xf32>
        %585 = arith.truncf %584 : vector<1xf32> to vector<1xf16>
        vector.store %585, %98[%101, %206] : memref<2048x10240xf16, strided<[10240, 1], offset: ?>>, vector<1xf16>
        %586 = vector.extract_strided_slice %581 {offsets = [1], sizes = [1], strides = [1]} : vector<4xf32> to vector<1xf32>
        %587 = arith.addf %586, %583 : vector<1xf32>
        %588 = arith.truncf %587 : vector<1xf32> to vector<1xf16>
        vector.store %588, %98[%570, %206] : memref<2048x10240xf16, strided<[10240, 1], offset: ?>>, vector<1xf16>
        %589 = vector.extract_strided_slice %581 {offsets = [2], sizes = [1], strides = [1]} : vector<4xf32> to vector<1xf32>
        %590 = arith.addf %589, %583 : vector<1xf32>
        %591 = arith.truncf %590 : vector<1xf32> to vector<1xf16>
        vector.store %591, %98[%574, %206] : memref<2048x10240xf16, strided<[10240, 1], offset: ?>>, vector<1xf16>
        %592 = vector.extract_strided_slice %581 {offsets = [3], sizes = [1], strides = [1]} : vector<4xf32> to vector<1xf32>
        %593 = arith.addf %592, %583 : vector<1xf32>
        %594 = arith.truncf %593 : vector<1xf32> to vector<1xf16>
        vector.store %594, %98[%578, %206] : memref<2048x10240xf16, strided<[10240, 1], offset: ?>>, vector<1xf16>
        %595 = amdgpu.mfma %361 * %97#16 + %507 {blocks = 1 : i32, k = 16 : i32, m = 16 : i32, n = 16 : i32} blgp =  none : vector<4xf16>, vector<4xf16>, vector<4xf32>
        %596 = vector.extract_strided_slice %595 {offsets = [0], sizes = [1], strides = [1]} : vector<4xf32> to vector<1xf32>
        %597 = vector.load %99[%192] : memref<10240xf32, strided<[1], offset: ?>>, vector<1xf32>
        %598 = arith.addf %596, %597 : vector<1xf32>
        %599 = arith.truncf %598 : vector<1xf32> to vector<1xf16>
        vector.store %599, %98[%101, %192] : memref<2048x10240xf16, strided<[10240, 1], offset: ?>>, vector<1xf16>
        %600 = vector.extract_strided_slice %595 {offsets = [1], sizes = [1], strides = [1]} : vector<4xf32> to vector<1xf32>
        %601 = arith.addf %600, %597 : vector<1xf32>
        %602 = arith.truncf %601 : vector<1xf32> to vector<1xf16>
        vector.store %602, %98[%570, %192] : memref<2048x10240xf16, strided<[10240, 1], offset: ?>>, vector<1xf16>
        %603 = vector.extract_strided_slice %595 {offsets = [2], sizes = [1], strides = [1]} : vector<4xf32> to vector<1xf32>
        %604 = arith.addf %603, %597 : vector<1xf32>
        %605 = arith.truncf %604 : vector<1xf32> to vector<1xf16>
        vector.store %605, %98[%574, %192] : memref<2048x10240xf16, strided<[10240, 1], offset: ?>>, vector<1xf16>
        %606 = vector.extract_strided_slice %595 {offsets = [3], sizes = [1], strides = [1]} : vector<4xf32> to vector<1xf32>
        %607 = arith.addf %606, %597 : vector<1xf32>
        %608 = arith.truncf %607 : vector<1xf32> to vector<1xf16>
        vector.store %608, %98[%578, %192] : memref<2048x10240xf16, strided<[10240, 1], offset: ?>>, vector<1xf16>
        %609 = amdgpu.mfma %362 * %97#13 + %97#30 {blocks = 1 : i32, k = 16 : i32, m = 16 : i32, n = 16 : i32} blgp =  none : vector<4xf16>, vector<4xf16>, vector<4xf32>
        %610 = amdgpu.mfma %361 * %97#14 + %609 {blocks = 1 : i32, k = 16 : i32, m = 16 : i32, n = 16 : i32} blgp =  none : vector<4xf16>, vector<4xf16>, vector<4xf32>
        %611 = vector.extract_strided_slice %610 {offsets = [0], sizes = [1], strides = [1]} : vector<4xf32> to vector<1xf32>
        %612 = vector.load %99[%178] : memref<10240xf32, strided<[1], offset: ?>>, vector<1xf32>
        %613 = arith.addf %611, %612 : vector<1xf32>
        %614 = arith.truncf %613 : vector<1xf32> to vector<1xf16>
        vector.store %614, %98[%101, %178] : memref<2048x10240xf16, strided<[10240, 1], offset: ?>>, vector<1xf16>
        %615 = vector.extract_strided_slice %610 {offsets = [1], sizes = [1], strides = [1]} : vector<4xf32> to vector<1xf32>
        %616 = arith.addf %615, %612 : vector<1xf32>
        %617 = arith.truncf %616 : vector<1xf32> to vector<1xf16>
        vector.store %617, %98[%570, %178] : memref<2048x10240xf16, strided<[10240, 1], offset: ?>>, vector<1xf16>
        %618 = vector.extract_strided_slice %610 {offsets = [2], sizes = [1], strides = [1]} : vector<4xf32> to vector<1xf32>
        %619 = arith.addf %618, %612 : vector<1xf32>
        %620 = arith.truncf %619 : vector<1xf32> to vector<1xf16>
        vector.store %620, %98[%574, %178] : memref<2048x10240xf16, strided<[10240, 1], offset: ?>>, vector<1xf16>
        %621 = vector.extract_strided_slice %610 {offsets = [3], sizes = [1], strides = [1]} : vector<4xf32> to vector<1xf32>
        %622 = arith.addf %621, %612 : vector<1xf32>
        %623 = arith.truncf %622 : vector<1xf32> to vector<1xf16>
        vector.store %623, %98[%578, %178] : memref<2048x10240xf16, strided<[10240, 1], offset: ?>>, vector<1xf16>
        %624 = amdgpu.mfma %362 * %97#11 + %97#29 {blocks = 1 : i32, k = 16 : i32, m = 16 : i32, n = 16 : i32} blgp =  none : vector<4xf16>, vector<4xf16>, vector<4xf32>
        %625 = amdgpu.mfma %362 * %97#9 + %97#28 {blocks = 1 : i32, k = 16 : i32, m = 16 : i32, n = 16 : i32} blgp =  none : vector<4xf16>, vector<4xf16>, vector<4xf32>
        %626 = amdgpu.mfma %362 * %97#7 + %97#27 {blocks = 1 : i32, k = 16 : i32, m = 16 : i32, n = 16 : i32} blgp =  none : vector<4xf16>, vector<4xf16>, vector<4xf32>
        %627 = amdgpu.mfma %362 * %97#5 + %97#26 {blocks = 1 : i32, k = 16 : i32, m = 16 : i32, n = 16 : i32} blgp =  none : vector<4xf16>, vector<4xf16>, vector<4xf32>
        %628 = amdgpu.mfma %362 * %97#3 + %97#25 {blocks = 1 : i32, k = 16 : i32, m = 16 : i32, n = 16 : i32} blgp =  none : vector<4xf16>, vector<4xf16>, vector<4xf32>
        %629 = amdgpu.mfma %362 * %97#1 + %97#24 {blocks = 1 : i32, k = 16 : i32, m = 16 : i32, n = 16 : i32} blgp =  none : vector<4xf16>, vector<4xf16>, vector<4xf32>
        %630 = amdgpu.mfma %361 * %97#12 + %624 {blocks = 1 : i32, k = 16 : i32, m = 16 : i32, n = 16 : i32} blgp =  none : vector<4xf16>, vector<4xf16>, vector<4xf32>
        %631 = vector.extract_strided_slice %630 {offsets = [0], sizes = [1], strides = [1]} : vector<4xf32> to vector<1xf32>
        %632 = vector.load %99[%164] : memref<10240xf32, strided<[1], offset: ?>>, vector<1xf32>
        %633 = arith.addf %631, %632 : vector<1xf32>
        %634 = arith.truncf %633 : vector<1xf32> to vector<1xf16>
        vector.store %634, %98[%101, %164] : memref<2048x10240xf16, strided<[10240, 1], offset: ?>>, vector<1xf16>
        %635 = vector.extract_strided_slice %630 {offsets = [1], sizes = [1], strides = [1]} : vector<4xf32> to vector<1xf32>
        %636 = arith.addf %635, %632 : vector<1xf32>
        %637 = arith.truncf %636 : vector<1xf32> to vector<1xf16>
        vector.store %637, %98[%570, %164] : memref<2048x10240xf16, strided<[10240, 1], offset: ?>>, vector<1xf16>
        %638 = vector.extract_strided_slice %630 {offsets = [2], sizes = [1], strides = [1]} : vector<4xf32> to vector<1xf32>
        %639 = arith.addf %638, %632 : vector<1xf32>
        %640 = arith.truncf %639 : vector<1xf32> to vector<1xf16>
        vector.store %640, %98[%574, %164] : memref<2048x10240xf16, strided<[10240, 1], offset: ?>>, vector<1xf16>
        %641 = vector.extract_strided_slice %630 {offsets = [3], sizes = [1], strides = [1]} : vector<4xf32> to vector<1xf32>
        %642 = arith.addf %641, %632 : vector<1xf32>
        %643 = arith.truncf %642 : vector<1xf32> to vector<1xf16>
        vector.store %643, %98[%578, %164] : memref<2048x10240xf16, strided<[10240, 1], offset: ?>>, vector<1xf16>
        %644 = amdgpu.mfma %361 * %97#10 + %625 {blocks = 1 : i32, k = 16 : i32, m = 16 : i32, n = 16 : i32} blgp =  none : vector<4xf16>, vector<4xf16>, vector<4xf32>
        %645 = vector.extract_strided_slice %644 {offsets = [0], sizes = [1], strides = [1]} : vector<4xf32> to vector<1xf32>
        %646 = vector.load %99[%150] : memref<10240xf32, strided<[1], offset: ?>>, vector<1xf32>
        %647 = arith.addf %645, %646 : vector<1xf32>
        %648 = arith.truncf %647 : vector<1xf32> to vector<1xf16>
        vector.store %648, %98[%101, %150] : memref<2048x10240xf16, strided<[10240, 1], offset: ?>>, vector<1xf16>
        %649 = vector.extract_strided_slice %644 {offsets = [1], sizes = [1], strides = [1]} : vector<4xf32> to vector<1xf32>
        %650 = arith.addf %649, %646 : vector<1xf32>
        %651 = arith.truncf %650 : vector<1xf32> to vector<1xf16>
        vector.store %651, %98[%570, %150] : memref<2048x10240xf16, strided<[10240, 1], offset: ?>>, vector<1xf16>
        %652 = vector.extract_strided_slice %644 {offsets = [2], sizes = [1], strides = [1]} : vector<4xf32> to vector<1xf32>
        %653 = arith.addf %652, %646 : vector<1xf32>
        %654 = arith.truncf %653 : vector<1xf32> to vector<1xf16>
        vector.store %654, %98[%574, %150] : memref<2048x10240xf16, strided<[10240, 1], offset: ?>>, vector<1xf16>
        %655 = vector.extract_strided_slice %644 {offsets = [3], sizes = [1], strides = [1]} : vector<4xf32> to vector<1xf32>
        %656 = arith.addf %655, %646 : vector<1xf32>
        %657 = arith.truncf %656 : vector<1xf32> to vector<1xf16>
        vector.store %657, %98[%578, %150] : memref<2048x10240xf16, strided<[10240, 1], offset: ?>>, vector<1xf16>
        %658 = amdgpu.mfma %361 * %97#8 + %626 {blocks = 1 : i32, k = 16 : i32, m = 16 : i32, n = 16 : i32} blgp =  none : vector<4xf16>, vector<4xf16>, vector<4xf32>
        %659 = vector.extract_strided_slice %658 {offsets = [0], sizes = [1], strides = [1]} : vector<4xf32> to vector<1xf32>
        %660 = vector.load %99[%136] : memref<10240xf32, strided<[1], offset: ?>>, vector<1xf32>
        %661 = arith.addf %659, %660 : vector<1xf32>
        %662 = arith.truncf %661 : vector<1xf32> to vector<1xf16>
        vector.store %662, %98[%101, %136] : memref<2048x10240xf16, strided<[10240, 1], offset: ?>>, vector<1xf16>
        %663 = vector.extract_strided_slice %658 {offsets = [1], sizes = [1], strides = [1]} : vector<4xf32> to vector<1xf32>
        %664 = arith.addf %663, %660 : vector<1xf32>
        %665 = arith.truncf %664 : vector<1xf32> to vector<1xf16>
        vector.store %665, %98[%570, %136] : memref<2048x10240xf16, strided<[10240, 1], offset: ?>>, vector<1xf16>
        %666 = vector.extract_strided_slice %658 {offsets = [2], sizes = [1], strides = [1]} : vector<4xf32> to vector<1xf32>
        %667 = arith.addf %666, %660 : vector<1xf32>
        %668 = arith.truncf %667 : vector<1xf32> to vector<1xf16>
        vector.store %668, %98[%574, %136] : memref<2048x10240xf16, strided<[10240, 1], offset: ?>>, vector<1xf16>
        %669 = vector.extract_strided_slice %658 {offsets = [3], sizes = [1], strides = [1]} : vector<4xf32> to vector<1xf32>
        %670 = arith.addf %669, %660 : vector<1xf32>
        %671 = arith.truncf %670 : vector<1xf32> to vector<1xf16>
        vector.store %671, %98[%578, %136] : memref<2048x10240xf16, strided<[10240, 1], offset: ?>>, vector<1xf16>
        %672 = amdgpu.mfma %361 * %97#6 + %627 {blocks = 1 : i32, k = 16 : i32, m = 16 : i32, n = 16 : i32} blgp =  none : vector<4xf16>, vector<4xf16>, vector<4xf32>
        %673 = vector.extract_strided_slice %672 {offsets = [0], sizes = [1], strides = [1]} : vector<4xf32> to vector<1xf32>
        %674 = vector.load %99[%122] : memref<10240xf32, strided<[1], offset: ?>>, vector<1xf32>
        %675 = arith.addf %673, %674 : vector<1xf32>
        %676 = arith.truncf %675 : vector<1xf32> to vector<1xf16>
        vector.store %676, %98[%101, %122] : memref<2048x10240xf16, strided<[10240, 1], offset: ?>>, vector<1xf16>
        %677 = vector.extract_strided_slice %672 {offsets = [1], sizes = [1], strides = [1]} : vector<4xf32> to vector<1xf32>
        %678 = arith.addf %677, %674 : vector<1xf32>
        %679 = arith.truncf %678 : vector<1xf32> to vector<1xf16>
        vector.store %679, %98[%570, %122] : memref<2048x10240xf16, strided<[10240, 1], offset: ?>>, vector<1xf16>
        %680 = vector.extract_strided_slice %672 {offsets = [2], sizes = [1], strides = [1]} : vector<4xf32> to vector<1xf32>
        %681 = arith.addf %680, %674 : vector<1xf32>
        %682 = arith.truncf %681 : vector<1xf32> to vector<1xf16>
        vector.store %682, %98[%574, %122] : memref<2048x10240xf16, strided<[10240, 1], offset: ?>>, vector<1xf16>
        %683 = vector.extract_strided_slice %672 {offsets = [3], sizes = [1], strides = [1]} : vector<4xf32> to vector<1xf32>
        %684 = arith.addf %683, %674 : vector<1xf32>
        %685 = arith.truncf %684 : vector<1xf32> to vector<1xf16>
        vector.store %685, %98[%578, %122] : memref<2048x10240xf16, strided<[10240, 1], offset: ?>>, vector<1xf16>
        %686 = amdgpu.mfma %361 * %97#4 + %628 {blocks = 1 : i32, k = 16 : i32, m = 16 : i32, n = 16 : i32} blgp =  none : vector<4xf16>, vector<4xf16>, vector<4xf32>
        %687 = vector.extract_strided_slice %686 {offsets = [0], sizes = [1], strides = [1]} : vector<4xf32> to vector<1xf32>
        %688 = vector.load %99[%105] : memref<10240xf32, strided<[1], offset: ?>>, vector<1xf32>
        %689 = arith.addf %687, %688 : vector<1xf32>
        %690 = arith.truncf %689 : vector<1xf32> to vector<1xf16>
        vector.store %690, %98[%101, %105] : memref<2048x10240xf16, strided<[10240, 1], offset: ?>>, vector<1xf16>
        %691 = vector.extract_strided_slice %686 {offsets = [1], sizes = [1], strides = [1]} : vector<4xf32> to vector<1xf32>
        %692 = arith.addf %691, %688 : vector<1xf32>
        %693 = arith.truncf %692 : vector<1xf32> to vector<1xf16>
        vector.store %693, %98[%570, %105] : memref<2048x10240xf16, strided<[10240, 1], offset: ?>>, vector<1xf16>
        %694 = vector.extract_strided_slice %686 {offsets = [2], sizes = [1], strides = [1]} : vector<4xf32> to vector<1xf32>
        %695 = arith.addf %694, %688 : vector<1xf32>
        %696 = arith.truncf %695 : vector<1xf32> to vector<1xf16>
        vector.store %696, %98[%574, %105] : memref<2048x10240xf16, strided<[10240, 1], offset: ?>>, vector<1xf16>
        %697 = vector.extract_strided_slice %686 {offsets = [3], sizes = [1], strides = [1]} : vector<4xf32> to vector<1xf32>
        %698 = arith.addf %697, %688 : vector<1xf32>
        %699 = arith.truncf %698 : vector<1xf32> to vector<1xf16>
        vector.store %699, %98[%578, %105] : memref<2048x10240xf16, strided<[10240, 1], offset: ?>>, vector<1xf16>
        %700 = amdgpu.mfma %361 * %97#2 + %629 {blocks = 1 : i32, k = 16 : i32, m = 16 : i32, n = 16 : i32} blgp =  none : vector<4xf16>, vector<4xf16>, vector<4xf32>
        %701 = vector.extract_strided_slice %700 {offsets = [0], sizes = [1], strides = [1]} : vector<4xf32> to vector<1xf32>
        %702 = vector.load %99[%104] : memref<10240xf32, strided<[1], offset: ?>>, vector<1xf32>
        %703 = arith.addf %701, %702 : vector<1xf32>
        %704 = arith.truncf %703 : vector<1xf32> to vector<1xf16>
        vector.store %704, %98[%101, %104] : memref<2048x10240xf16, strided<[10240, 1], offset: ?>>, vector<1xf16>
        %705 = vector.extract_strided_slice %700 {offsets = [1], sizes = [1], strides = [1]} : vector<4xf32> to vector<1xf32>
        %706 = arith.addf %705, %702 : vector<1xf32>
        %707 = arith.truncf %706 : vector<1xf32> to vector<1xf16>
        vector.store %707, %98[%570, %104] : memref<2048x10240xf16, strided<[10240, 1], offset: ?>>, vector<1xf16>
        %708 = vector.extract_strided_slice %700 {offsets = [2], sizes = [1], strides = [1]} : vector<4xf32> to vector<1xf32>
        %709 = arith.addf %708, %702 : vector<1xf32>
        %710 = arith.truncf %709 : vector<1xf32> to vector<1xf16>
        vector.store %710, %98[%574, %104] : memref<2048x10240xf16, strided<[10240, 1], offset: ?>>, vector<1xf16>
        %711 = vector.extract_strided_slice %700 {offsets = [3], sizes = [1], strides = [1]} : vector<4xf32> to vector<1xf32>
        %712 = arith.addf %711, %702 : vector<1xf32>
        %713 = arith.truncf %712 : vector<1xf32> to vector<1xf16>
        vector.store %713, %98[%578, %104] : memref<2048x10240xf16, strided<[10240, 1], offset: ?>>, vector<1xf16>
        return
      }
    }
  }
}

