#executable_target_rocm_hsaco_fb = #hal.executable.target<"rocm", "rocm-hsaco-fb", {target_arch = "gfx942"}>
#pipeline_layout = #hal.pipeline.layout<push_constants = 1, sets = [<0, bindings = [<0, storage_buffer>, <1, storage_buffer>, <2, storage_buffer, ReadOnly>, <3, storage_buffer, ReadOnly>]>]>
module @compiled_unet {
  util.global private @_params.unet.conv_in.weight {noinline} = #stream.parameter.named<"model"::"unet.conv_in.weight"> : tensor<320x4x3x3xf16>
  util.global private @_params.unet.conv_in.bias {noinline} = #stream.parameter.named<"model"::"unet.conv_in.bias"> : tensor<320xf16>
  util.global private @_params.unet.time_embedding.linear_1.weight {noinline} = #stream.parameter.named<"model"::"unet.time_embedding.linear_1.weight"> : tensor<1280x320xf16>
  util.global private @_params.unet.time_embedding.linear_1.bias {noinline} = #stream.parameter.named<"model"::"unet.time_embedding.linear_1.bias"> : tensor<1280xf16>
  util.global private @_params.unet.time_embedding.linear_2.weight {noinline} = #stream.parameter.named<"model"::"unet.time_embedding.linear_2.weight"> : tensor<1280x1280xf16>
  util.global private @_params.unet.time_embedding.linear_2.bias {noinline} = #stream.parameter.named<"model"::"unet.time_embedding.linear_2.bias"> : tensor<1280xf16>
  util.global private @_params.unet.add_embedding.linear_1.weight {noinline} = #stream.parameter.named<"model"::"unet.add_embedding.linear_1.weight"> : tensor<1280x2816xf16>
  util.global private @_params.unet.add_embedding.linear_1.bias {noinline} = #stream.parameter.named<"model"::"unet.add_embedding.linear_1.bias"> : tensor<1280xf16>
  util.global private @_params.unet.add_embedding.linear_2.weight {noinline} = #stream.parameter.named<"model"::"unet.add_embedding.linear_2.weight"> : tensor<1280x1280xf16>
  util.global private @_params.unet.add_embedding.linear_2.bias {noinline} = #stream.parameter.named<"model"::"unet.add_embedding.linear_2.bias"> : tensor<1280xf16>
  util.global private @_params.unet.down_blocks.0.resnets.0.norm1.weight {noinline} = #stream.parameter.named<"model"::"unet.down_blocks.0.resnets.0.norm1.weight"> : tensor<320xf16>
  util.global private @_params.unet.down_blocks.0.resnets.0.norm1.bias {noinline} = #stream.parameter.named<"model"::"unet.down_blocks.0.resnets.0.norm1.bias"> : tensor<320xf16>
  util.global private @_params.unet.down_blocks.0.resnets.0.conv1.weight {noinline} = #stream.parameter.named<"model"::"unet.down_blocks.0.resnets.0.conv1.weight"> : tensor<320x320x3x3xf16>
  util.global private @_params.unet.down_blocks.0.resnets.0.conv1.bias {noinline} = #stream.parameter.named<"model"::"unet.down_blocks.0.resnets.0.conv1.bias"> : tensor<320xf16>
  util.global private @_params.unet.down_blocks.0.resnets.0.time_emb_proj.weight {noinline} = #stream.parameter.named<"model"::"unet.down_blocks.0.resnets.0.time_emb_proj.weight"> : tensor<320x1280xf16>
  util.global private @_params.unet.down_blocks.0.resnets.0.time_emb_proj.bias {noinline} = #stream.parameter.named<"model"::"unet.down_blocks.0.resnets.0.time_emb_proj.bias"> : tensor<320xf16>
  util.global private @_params.unet.down_blocks.0.resnets.0.norm2.weight {noinline} = #stream.parameter.named<"model"::"unet.down_blocks.0.resnets.0.norm2.weight"> : tensor<320xf16>
  util.global private @_params.unet.down_blocks.0.resnets.0.norm2.bias {noinline} = #stream.parameter.named<"model"::"unet.down_blocks.0.resnets.0.norm2.bias"> : tensor<320xf16>
  util.global private @_params.unet.down_blocks.0.resnets.0.conv2.weight {noinline} = #stream.parameter.named<"model"::"unet.down_blocks.0.resnets.0.conv2.weight"> : tensor<320x320x3x3xf16>
  util.global private @_params.unet.down_blocks.0.resnets.0.conv2.bias {noinline} = #stream.parameter.named<"model"::"unet.down_blocks.0.resnets.0.conv2.bias"> : tensor<320xf16>
  util.global private @_params.unet.down_blocks.0.resnets.1.norm1.weight {noinline} = #stream.parameter.named<"model"::"unet.down_blocks.0.resnets.1.norm1.weight"> : tensor<320xf16>
  util.global private @_params.unet.down_blocks.0.resnets.1.norm1.bias {noinline} = #stream.parameter.named<"model"::"unet.down_blocks.0.resnets.1.norm1.bias"> : tensor<320xf16>
  util.global private @_params.unet.down_blocks.0.resnets.1.conv1.weight {noinline} = #stream.parameter.named<"model"::"unet.down_blocks.0.resnets.1.conv1.weight"> : tensor<320x320x3x3xf16>
  util.global private @_params.unet.down_blocks.0.resnets.1.conv1.bias {noinline} = #stream.parameter.named<"model"::"unet.down_blocks.0.resnets.1.conv1.bias"> : tensor<320xf16>
  util.global private @_params.unet.down_blocks.0.resnets.1.time_emb_proj.weight {noinline} = #stream.parameter.named<"model"::"unet.down_blocks.0.resnets.1.time_emb_proj.weight"> : tensor<320x1280xf16>
  util.global private @_params.unet.down_blocks.0.resnets.1.time_emb_proj.bias {noinline} = #stream.parameter.named<"model"::"unet.down_blocks.0.resnets.1.time_emb_proj.bias"> : tensor<320xf16>
  util.global private @_params.unet.down_blocks.0.resnets.1.norm2.weight {noinline} = #stream.parameter.named<"model"::"unet.down_blocks.0.resnets.1.norm2.weight"> : tensor<320xf16>
  util.global private @_params.unet.down_blocks.0.resnets.1.norm2.bias {noinline} = #stream.parameter.named<"model"::"unet.down_blocks.0.resnets.1.norm2.bias"> : tensor<320xf16>
  util.global private @_params.unet.down_blocks.0.resnets.1.conv2.weight {noinline} = #stream.parameter.named<"model"::"unet.down_blocks.0.resnets.1.conv2.weight"> : tensor<320x320x3x3xf16>
  util.global private @_params.unet.down_blocks.0.resnets.1.conv2.bias {noinline} = #stream.parameter.named<"model"::"unet.down_blocks.0.resnets.1.conv2.bias"> : tensor<320xf16>
  util.global private @_params.unet.down_blocks.0.downsamplers.0.conv.weight {noinline} = #stream.parameter.named<"model"::"unet.down_blocks.0.downsamplers.0.conv.weight"> : tensor<320x320x3x3xf16>
  util.global private @_params.unet.down_blocks.0.downsamplers.0.conv.bias {noinline} = #stream.parameter.named<"model"::"unet.down_blocks.0.downsamplers.0.conv.bias"> : tensor<320xf16>
  util.global private @_params.unet.down_blocks.1.attentions.0.norm.weight {noinline} = #stream.parameter.named<"model"::"unet.down_blocks.1.attentions.0.norm.weight"> : tensor<640xf16>
  util.global private @_params.unet.down_blocks.1.attentions.0.norm.bias {noinline} = #stream.parameter.named<"model"::"unet.down_blocks.1.attentions.0.norm.bias"> : tensor<640xf16>
  util.global private @_params.unet.down_blocks.1.attentions.0.proj_in.weight {noinline} = #stream.parameter.named<"model"::"unet.down_blocks.1.attentions.0.proj_in.weight"> : tensor<640x640xf16>
  util.global private @_params.unet.down_blocks.1.attentions.0.proj_in.bias {noinline} = #stream.parameter.named<"model"::"unet.down_blocks.1.attentions.0.proj_in.bias"> : tensor<640xf16>
  util.global private @_params.unet.down_blocks.1.attentions.0.transformer_blocks.0.norm1.weight {noinline} = #stream.parameter.named<"model"::"unet.down_blocks.1.attentions.0.transformer_blocks.0.norm1.weight"> : tensor<640xf16>
  util.global private @_params.unet.down_blocks.1.attentions.0.transformer_blocks.0.norm1.bias {noinline} = #stream.parameter.named<"model"::"unet.down_blocks.1.attentions.0.transformer_blocks.0.norm1.bias"> : tensor<640xf16>
  util.global private @_params.unet.down_blocks.1.attentions.0.transformer_blocks.0.attn1.to_q.weight {noinline} = #stream.parameter.named<"model"::"unet.down_blocks.1.attentions.0.transformer_blocks.0.attn1.to_q.weight"> : tensor<640x640xf16>
  util.global private @_params.unet.down_blocks.1.attentions.0.transformer_blocks.0.attn1.to_k.weight {noinline} = #stream.parameter.named<"model"::"unet.down_blocks.1.attentions.0.transformer_blocks.0.attn1.to_k.weight"> : tensor<640x640xf16>
  util.global private @_params.unet.down_blocks.1.attentions.0.transformer_blocks.0.attn1.to_v.weight {noinline} = #stream.parameter.named<"model"::"unet.down_blocks.1.attentions.0.transformer_blocks.0.attn1.to_v.weight"> : tensor<640x640xf16>
  util.global private @_params.unet.down_blocks.1.attentions.0.transformer_blocks.0.attn1.to_out.0.weight {noinline} = #stream.parameter.named<"model"::"unet.down_blocks.1.attentions.0.transformer_blocks.0.attn1.to_out.0.weight"> : tensor<640x640xf16>
  util.global private @_params.unet.down_blocks.1.attentions.0.transformer_blocks.0.attn1.to_out.0.bias {noinline} = #stream.parameter.named<"model"::"unet.down_blocks.1.attentions.0.transformer_blocks.0.attn1.to_out.0.bias"> : tensor<640xf16>
  util.global private @_params.unet.down_blocks.1.attentions.0.transformer_blocks.0.norm2.weight {noinline} = #stream.parameter.named<"model"::"unet.down_blocks.1.attentions.0.transformer_blocks.0.norm2.weight"> : tensor<640xf16>
  util.global private @_params.unet.down_blocks.1.attentions.0.transformer_blocks.0.norm2.bias {noinline} = #stream.parameter.named<"model"::"unet.down_blocks.1.attentions.0.transformer_blocks.0.norm2.bias"> : tensor<640xf16>
  util.global private @_params.unet.down_blocks.1.attentions.0.transformer_blocks.0.attn2.to_q.weight {noinline} = #stream.parameter.named<"model"::"unet.down_blocks.1.attentions.0.transformer_blocks.0.attn2.to_q.weight"> : tensor<640x640xf16>
  util.global private @_params.unet.down_blocks.1.attentions.0.transformer_blocks.0.attn2.to_k.weight {noinline} = #stream.parameter.named<"model"::"unet.down_blocks.1.attentions.0.transformer_blocks.0.attn2.to_k.weight"> : tensor<640x2048xf16>
  util.global private @_params.unet.down_blocks.1.attentions.0.transformer_blocks.0.attn2.to_v.weight {noinline} = #stream.parameter.named<"model"::"unet.down_blocks.1.attentions.0.transformer_blocks.0.attn2.to_v.weight"> : tensor<640x2048xf16>
  util.global private @_params.unet.down_blocks.1.attentions.0.transformer_blocks.0.attn2.to_out.0.weight {noinline} = #stream.parameter.named<"model"::"unet.down_blocks.1.attentions.0.transformer_blocks.0.attn2.to_out.0.weight"> : tensor<640x640xf16>
  util.global private @_params.unet.down_blocks.1.attentions.0.transformer_blocks.0.attn2.to_out.0.bias {noinline} = #stream.parameter.named<"model"::"unet.down_blocks.1.attentions.0.transformer_blocks.0.attn2.to_out.0.bias"> : tensor<640xf16>
  util.global private @_params.unet.down_blocks.1.attentions.0.transformer_blocks.0.norm3.weight {noinline} = #stream.parameter.named<"model"::"unet.down_blocks.1.attentions.0.transformer_blocks.0.norm3.weight"> : tensor<640xf16>
  util.global private @_params.unet.down_blocks.1.attentions.0.transformer_blocks.0.norm3.bias {noinline} = #stream.parameter.named<"model"::"unet.down_blocks.1.attentions.0.transformer_blocks.0.norm3.bias"> : tensor<640xf16>
  util.global private @_params.unet.down_blocks.1.attentions.0.transformer_blocks.0.ff.net.0.proj.weight {noinline} = #stream.parameter.named<"model"::"unet.down_blocks.1.attentions.0.transformer_blocks.0.ff.net.0.proj.weight"> : tensor<5120x640xf16>
  util.global private @_params.unet.down_blocks.1.attentions.0.transformer_blocks.0.ff.net.0.proj.bias {noinline} = #stream.parameter.named<"model"::"unet.down_blocks.1.attentions.0.transformer_blocks.0.ff.net.0.proj.bias"> : tensor<5120xf16>
  util.global private @_params.unet.down_blocks.1.attentions.0.transformer_blocks.0.ff.net.2.weight {noinline} = #stream.parameter.named<"model"::"unet.down_blocks.1.attentions.0.transformer_blocks.0.ff.net.2.weight"> : tensor<640x2560xf16>
  util.global private @_params.unet.down_blocks.1.attentions.0.transformer_blocks.0.ff.net.2.bias {noinline} = #stream.parameter.named<"model"::"unet.down_blocks.1.attentions.0.transformer_blocks.0.ff.net.2.bias"> : tensor<640xf16>
  util.global private @_params.unet.down_blocks.1.attentions.0.transformer_blocks.1.norm1.weight {noinline} = #stream.parameter.named<"model"::"unet.down_blocks.1.attentions.0.transformer_blocks.1.norm1.weight"> : tensor<640xf16>
  util.global private @_params.unet.down_blocks.1.attentions.0.transformer_blocks.1.norm1.bias {noinline} = #stream.parameter.named<"model"::"unet.down_blocks.1.attentions.0.transformer_blocks.1.norm1.bias"> : tensor<640xf16>
  util.global private @_params.unet.down_blocks.1.attentions.0.transformer_blocks.1.attn1.to_q.weight {noinline} = #stream.parameter.named<"model"::"unet.down_blocks.1.attentions.0.transformer_blocks.1.attn1.to_q.weight"> : tensor<640x640xf16>
  util.global private @_params.unet.down_blocks.1.attentions.0.transformer_blocks.1.attn1.to_k.weight {noinline} = #stream.parameter.named<"model"::"unet.down_blocks.1.attentions.0.transformer_blocks.1.attn1.to_k.weight"> : tensor<640x640xf16>
  util.global private @_params.unet.down_blocks.1.attentions.0.transformer_blocks.1.attn1.to_v.weight {noinline} = #stream.parameter.named<"model"::"unet.down_blocks.1.attentions.0.transformer_blocks.1.attn1.to_v.weight"> : tensor<640x640xf16>
  util.global private @_params.unet.down_blocks.1.attentions.0.transformer_blocks.1.attn1.to_out.0.weight {noinline} = #stream.parameter.named<"model"::"unet.down_blocks.1.attentions.0.transformer_blocks.1.attn1.to_out.0.weight"> : tensor<640x640xf16>
  util.global private @_params.unet.down_blocks.1.attentions.0.transformer_blocks.1.attn1.to_out.0.bias {noinline} = #stream.parameter.named<"model"::"unet.down_blocks.1.attentions.0.transformer_blocks.1.attn1.to_out.0.bias"> : tensor<640xf16>
  util.global private @_params.unet.down_blocks.1.attentions.0.transformer_blocks.1.norm2.weight {noinline} = #stream.parameter.named<"model"::"unet.down_blocks.1.attentions.0.transformer_blocks.1.norm2.weight"> : tensor<640xf16>
  util.global private @_params.unet.down_blocks.1.attentions.0.transformer_blocks.1.norm2.bias {noinline} = #stream.parameter.named<"model"::"unet.down_blocks.1.attentions.0.transformer_blocks.1.norm2.bias"> : tensor<640xf16>
  util.global private @_params.unet.down_blocks.1.attentions.0.transformer_blocks.1.attn2.to_q.weight {noinline} = #stream.parameter.named<"model"::"unet.down_blocks.1.attentions.0.transformer_blocks.1.attn2.to_q.weight"> : tensor<640x640xf16>
  util.global private @_params.unet.down_blocks.1.attentions.0.transformer_blocks.1.attn2.to_k.weight {noinline} = #stream.parameter.named<"model"::"unet.down_blocks.1.attentions.0.transformer_blocks.1.attn2.to_k.weight"> : tensor<640x2048xf16>
  util.global private @_params.unet.down_blocks.1.attentions.0.transformer_blocks.1.attn2.to_v.weight {noinline} = #stream.parameter.named<"model"::"unet.down_blocks.1.attentions.0.transformer_blocks.1.attn2.to_v.weight"> : tensor<640x2048xf16>
  util.global private @_params.unet.down_blocks.1.attentions.0.transformer_blocks.1.attn2.to_out.0.weight {noinline} = #stream.parameter.named<"model"::"unet.down_blocks.1.attentions.0.transformer_blocks.1.attn2.to_out.0.weight"> : tensor<640x640xf16>
  util.global private @_params.unet.down_blocks.1.attentions.0.transformer_blocks.1.attn2.to_out.0.bias {noinline} = #stream.parameter.named<"model"::"unet.down_blocks.1.attentions.0.transformer_blocks.1.attn2.to_out.0.bias"> : tensor<640xf16>
  util.global private @_params.unet.down_blocks.1.attentions.0.transformer_blocks.1.norm3.weight {noinline} = #stream.parameter.named<"model"::"unet.down_blocks.1.attentions.0.transformer_blocks.1.norm3.weight"> : tensor<640xf16>
  util.global private @_params.unet.down_blocks.1.attentions.0.transformer_blocks.1.norm3.bias {noinline} = #stream.parameter.named<"model"::"unet.down_blocks.1.attentions.0.transformer_blocks.1.norm3.bias"> : tensor<640xf16>
  util.global private @_params.unet.down_blocks.1.attentions.0.transformer_blocks.1.ff.net.0.proj.weight {noinline} = #stream.parameter.named<"model"::"unet.down_blocks.1.attentions.0.transformer_blocks.1.ff.net.0.proj.weight"> : tensor<5120x640xf16>
  util.global private @_params.unet.down_blocks.1.attentions.0.transformer_blocks.1.ff.net.0.proj.bias {noinline} = #stream.parameter.named<"model"::"unet.down_blocks.1.attentions.0.transformer_blocks.1.ff.net.0.proj.bias"> : tensor<5120xf16>
  util.global private @_params.unet.down_blocks.1.attentions.0.transformer_blocks.1.ff.net.2.weight {noinline} = #stream.parameter.named<"model"::"unet.down_blocks.1.attentions.0.transformer_blocks.1.ff.net.2.weight"> : tensor<640x2560xf16>
  util.global private @_params.unet.down_blocks.1.attentions.0.transformer_blocks.1.ff.net.2.bias {noinline} = #stream.parameter.named<"model"::"unet.down_blocks.1.attentions.0.transformer_blocks.1.ff.net.2.bias"> : tensor<640xf16>
  util.global private @_params.unet.down_blocks.1.attentions.0.proj_out.weight {noinline} = #stream.parameter.named<"model"::"unet.down_blocks.1.attentions.0.proj_out.weight"> : tensor<640x640xf16>
  util.global private @_params.unet.down_blocks.1.attentions.0.proj_out.bias {noinline} = #stream.parameter.named<"model"::"unet.down_blocks.1.attentions.0.proj_out.bias"> : tensor<640xf16>
  util.global private @_params.unet.down_blocks.1.attentions.1.norm.weight {noinline} = #stream.parameter.named<"model"::"unet.down_blocks.1.attentions.1.norm.weight"> : tensor<640xf16>
  util.global private @_params.unet.down_blocks.1.attentions.1.norm.bias {noinline} = #stream.parameter.named<"model"::"unet.down_blocks.1.attentions.1.norm.bias"> : tensor<640xf16>
  util.global private @_params.unet.down_blocks.1.attentions.1.proj_in.weight {noinline} = #stream.parameter.named<"model"::"unet.down_blocks.1.attentions.1.proj_in.weight"> : tensor<640x640xf16>
  util.global private @_params.unet.down_blocks.1.attentions.1.proj_in.bias {noinline} = #stream.parameter.named<"model"::"unet.down_blocks.1.attentions.1.proj_in.bias"> : tensor<640xf16>
  util.global private @_params.unet.down_blocks.1.attentions.1.transformer_blocks.0.norm1.weight {noinline} = #stream.parameter.named<"model"::"unet.down_blocks.1.attentions.1.transformer_blocks.0.norm1.weight"> : tensor<640xf16>
  util.global private @_params.unet.down_blocks.1.attentions.1.transformer_blocks.0.norm1.bias {noinline} = #stream.parameter.named<"model"::"unet.down_blocks.1.attentions.1.transformer_blocks.0.norm1.bias"> : tensor<640xf16>
  util.global private @_params.unet.down_blocks.1.attentions.1.transformer_blocks.0.attn1.to_q.weight {noinline} = #stream.parameter.named<"model"::"unet.down_blocks.1.attentions.1.transformer_blocks.0.attn1.to_q.weight"> : tensor<640x640xf16>
  util.global private @_params.unet.down_blocks.1.attentions.1.transformer_blocks.0.attn1.to_k.weight {noinline} = #stream.parameter.named<"model"::"unet.down_blocks.1.attentions.1.transformer_blocks.0.attn1.to_k.weight"> : tensor<640x640xf16>
  util.global private @_params.unet.down_blocks.1.attentions.1.transformer_blocks.0.attn1.to_v.weight {noinline} = #stream.parameter.named<"model"::"unet.down_blocks.1.attentions.1.transformer_blocks.0.attn1.to_v.weight"> : tensor<640x640xf16>
  util.global private @_params.unet.down_blocks.1.attentions.1.transformer_blocks.0.attn1.to_out.0.weight {noinline} = #stream.parameter.named<"model"::"unet.down_blocks.1.attentions.1.transformer_blocks.0.attn1.to_out.0.weight"> : tensor<640x640xf16>
  util.global private @_params.unet.down_blocks.1.attentions.1.transformer_blocks.0.attn1.to_out.0.bias {noinline} = #stream.parameter.named<"model"::"unet.down_blocks.1.attentions.1.transformer_blocks.0.attn1.to_out.0.bias"> : tensor<640xf16>
  util.global private @_params.unet.down_blocks.1.attentions.1.transformer_blocks.0.norm2.weight {noinline} = #stream.parameter.named<"model"::"unet.down_blocks.1.attentions.1.transformer_blocks.0.norm2.weight"> : tensor<640xf16>
  util.global private @_params.unet.down_blocks.1.attentions.1.transformer_blocks.0.norm2.bias {noinline} = #stream.parameter.named<"model"::"unet.down_blocks.1.attentions.1.transformer_blocks.0.norm2.bias"> : tensor<640xf16>
  util.global private @_params.unet.down_blocks.1.attentions.1.transformer_blocks.0.attn2.to_q.weight {noinline} = #stream.parameter.named<"model"::"unet.down_blocks.1.attentions.1.transformer_blocks.0.attn2.to_q.weight"> : tensor<640x640xf16>
  util.global private @_params.unet.down_blocks.1.attentions.1.transformer_blocks.0.attn2.to_k.weight {noinline} = #stream.parameter.named<"model"::"unet.down_blocks.1.attentions.1.transformer_blocks.0.attn2.to_k.weight"> : tensor<640x2048xf16>
  util.global private @_params.unet.down_blocks.1.attentions.1.transformer_blocks.0.attn2.to_v.weight {noinline} = #stream.parameter.named<"model"::"unet.down_blocks.1.attentions.1.transformer_blocks.0.attn2.to_v.weight"> : tensor<640x2048xf16>
  util.global private @_params.unet.down_blocks.1.attentions.1.transformer_blocks.0.attn2.to_out.0.weight {noinline} = #stream.parameter.named<"model"::"unet.down_blocks.1.attentions.1.transformer_blocks.0.attn2.to_out.0.weight"> : tensor<640x640xf16>
  util.global private @_params.unet.down_blocks.1.attentions.1.transformer_blocks.0.attn2.to_out.0.bias {noinline} = #stream.parameter.named<"model"::"unet.down_blocks.1.attentions.1.transformer_blocks.0.attn2.to_out.0.bias"> : tensor<640xf16>
  util.global private @_params.unet.down_blocks.1.attentions.1.transformer_blocks.0.norm3.weight {noinline} = #stream.parameter.named<"model"::"unet.down_blocks.1.attentions.1.transformer_blocks.0.norm3.weight"> : tensor<640xf16>
  util.global private @_params.unet.down_blocks.1.attentions.1.transformer_blocks.0.norm3.bias {noinline} = #stream.parameter.named<"model"::"unet.down_blocks.1.attentions.1.transformer_blocks.0.norm3.bias"> : tensor<640xf16>
  util.global private @_params.unet.down_blocks.1.attentions.1.transformer_blocks.0.ff.net.0.proj.weight {noinline} = #stream.parameter.named<"model"::"unet.down_blocks.1.attentions.1.transformer_blocks.0.ff.net.0.proj.weight"> : tensor<5120x640xf16>
  util.global private @_params.unet.down_blocks.1.attentions.1.transformer_blocks.0.ff.net.0.proj.bias {noinline} = #stream.parameter.named<"model"::"unet.down_blocks.1.attentions.1.transformer_blocks.0.ff.net.0.proj.bias"> : tensor<5120xf16>
  util.global private @_params.unet.down_blocks.1.attentions.1.transformer_blocks.0.ff.net.2.weight {noinline} = #stream.parameter.named<"model"::"unet.down_blocks.1.attentions.1.transformer_blocks.0.ff.net.2.weight"> : tensor<640x2560xf16>
  util.global private @_params.unet.down_blocks.1.attentions.1.transformer_blocks.0.ff.net.2.bias {noinline} = #stream.parameter.named<"model"::"unet.down_blocks.1.attentions.1.transformer_blocks.0.ff.net.2.bias"> : tensor<640xf16>
  util.global private @_params.unet.down_blocks.1.attentions.1.transformer_blocks.1.norm1.weight {noinline} = #stream.parameter.named<"model"::"unet.down_blocks.1.attentions.1.transformer_blocks.1.norm1.weight"> : tensor<640xf16>
  util.global private @_params.unet.down_blocks.1.attentions.1.transformer_blocks.1.norm1.bias {noinline} = #stream.parameter.named<"model"::"unet.down_blocks.1.attentions.1.transformer_blocks.1.norm1.bias"> : tensor<640xf16>
  util.global private @_params.unet.down_blocks.1.attentions.1.transformer_blocks.1.attn1.to_q.weight {noinline} = #stream.parameter.named<"model"::"unet.down_blocks.1.attentions.1.transformer_blocks.1.attn1.to_q.weight"> : tensor<640x640xf16>
  util.global private @_params.unet.down_blocks.1.attentions.1.transformer_blocks.1.attn1.to_k.weight {noinline} = #stream.parameter.named<"model"::"unet.down_blocks.1.attentions.1.transformer_blocks.1.attn1.to_k.weight"> : tensor<640x640xf16>
  util.global private @_params.unet.down_blocks.1.attentions.1.transformer_blocks.1.attn1.to_v.weight {noinline} = #stream.parameter.named<"model"::"unet.down_blocks.1.attentions.1.transformer_blocks.1.attn1.to_v.weight"> : tensor<640x640xf16>
  util.global private @_params.unet.down_blocks.1.attentions.1.transformer_blocks.1.attn1.to_out.0.weight {noinline} = #stream.parameter.named<"model"::"unet.down_blocks.1.attentions.1.transformer_blocks.1.attn1.to_out.0.weight"> : tensor<640x640xf16>
  util.global private @_params.unet.down_blocks.1.attentions.1.transformer_blocks.1.attn1.to_out.0.bias {noinline} = #stream.parameter.named<"model"::"unet.down_blocks.1.attentions.1.transformer_blocks.1.attn1.to_out.0.bias"> : tensor<640xf16>
  util.global private @_params.unet.down_blocks.1.attentions.1.transformer_blocks.1.norm2.weight {noinline} = #stream.parameter.named<"model"::"unet.down_blocks.1.attentions.1.transformer_blocks.1.norm2.weight"> : tensor<640xf16>
  util.global private @_params.unet.down_blocks.1.attentions.1.transformer_blocks.1.norm2.bias {noinline} = #stream.parameter.named<"model"::"unet.down_blocks.1.attentions.1.transformer_blocks.1.norm2.bias"> : tensor<640xf16>
  util.global private @_params.unet.down_blocks.1.attentions.1.transformer_blocks.1.attn2.to_q.weight {noinline} = #stream.parameter.named<"model"::"unet.down_blocks.1.attentions.1.transformer_blocks.1.attn2.to_q.weight"> : tensor<640x640xf16>
  util.global private @_params.unet.down_blocks.1.attentions.1.transformer_blocks.1.attn2.to_k.weight {noinline} = #stream.parameter.named<"model"::"unet.down_blocks.1.attentions.1.transformer_blocks.1.attn2.to_k.weight"> : tensor<640x2048xf16>
  util.global private @_params.unet.down_blocks.1.attentions.1.transformer_blocks.1.attn2.to_v.weight {noinline} = #stream.parameter.named<"model"::"unet.down_blocks.1.attentions.1.transformer_blocks.1.attn2.to_v.weight"> : tensor<640x2048xf16>
  util.global private @_params.unet.down_blocks.1.attentions.1.transformer_blocks.1.attn2.to_out.0.weight {noinline} = #stream.parameter.named<"model"::"unet.down_blocks.1.attentions.1.transformer_blocks.1.attn2.to_out.0.weight"> : tensor<640x640xf16>
  util.global private @_params.unet.down_blocks.1.attentions.1.transformer_blocks.1.attn2.to_out.0.bias {noinline} = #stream.parameter.named<"model"::"unet.down_blocks.1.attentions.1.transformer_blocks.1.attn2.to_out.0.bias"> : tensor<640xf16>
  util.global private @_params.unet.down_blocks.1.attentions.1.transformer_blocks.1.norm3.weight {noinline} = #stream.parameter.named<"model"::"unet.down_blocks.1.attentions.1.transformer_blocks.1.norm3.weight"> : tensor<640xf16>
  util.global private @_params.unet.down_blocks.1.attentions.1.transformer_blocks.1.norm3.bias {noinline} = #stream.parameter.named<"model"::"unet.down_blocks.1.attentions.1.transformer_blocks.1.norm3.bias"> : tensor<640xf16>
  util.global private @_params.unet.down_blocks.1.attentions.1.transformer_blocks.1.ff.net.0.proj.weight {noinline} = #stream.parameter.named<"model"::"unet.down_blocks.1.attentions.1.transformer_blocks.1.ff.net.0.proj.weight"> : tensor<5120x640xf16>
  util.global private @_params.unet.down_blocks.1.attentions.1.transformer_blocks.1.ff.net.0.proj.bias {noinline} = #stream.parameter.named<"model"::"unet.down_blocks.1.attentions.1.transformer_blocks.1.ff.net.0.proj.bias"> : tensor<5120xf16>
  util.global private @_params.unet.down_blocks.1.attentions.1.transformer_blocks.1.ff.net.2.weight {noinline} = #stream.parameter.named<"model"::"unet.down_blocks.1.attentions.1.transformer_blocks.1.ff.net.2.weight"> : tensor<640x2560xf16>
  util.global private @_params.unet.down_blocks.1.attentions.1.transformer_blocks.1.ff.net.2.bias {noinline} = #stream.parameter.named<"model"::"unet.down_blocks.1.attentions.1.transformer_blocks.1.ff.net.2.bias"> : tensor<640xf16>
  util.global private @_params.unet.down_blocks.1.attentions.1.proj_out.weight {noinline} = #stream.parameter.named<"model"::"unet.down_blocks.1.attentions.1.proj_out.weight"> : tensor<640x640xf16>
  util.global private @_params.unet.down_blocks.1.attentions.1.proj_out.bias {noinline} = #stream.parameter.named<"model"::"unet.down_blocks.1.attentions.1.proj_out.bias"> : tensor<640xf16>
  util.global private @_params.unet.down_blocks.1.resnets.0.norm1.weight {noinline} = #stream.parameter.named<"model"::"unet.down_blocks.1.resnets.0.norm1.weight"> : tensor<320xf16>
  util.global private @_params.unet.down_blocks.1.resnets.0.norm1.bias {noinline} = #stream.parameter.named<"model"::"unet.down_blocks.1.resnets.0.norm1.bias"> : tensor<320xf16>
  util.global private @_params.unet.down_blocks.1.resnets.0.conv1.weight {noinline} = #stream.parameter.named<"model"::"unet.down_blocks.1.resnets.0.conv1.weight"> : tensor<640x320x3x3xf16>
  util.global private @_params.unet.down_blocks.1.resnets.0.conv1.bias {noinline} = #stream.parameter.named<"model"::"unet.down_blocks.1.resnets.0.conv1.bias"> : tensor<640xf16>
  util.global private @_params.unet.down_blocks.1.resnets.0.time_emb_proj.weight {noinline} = #stream.parameter.named<"model"::"unet.down_blocks.1.resnets.0.time_emb_proj.weight"> : tensor<640x1280xf16>
  util.global private @_params.unet.down_blocks.1.resnets.0.time_emb_proj.bias {noinline} = #stream.parameter.named<"model"::"unet.down_blocks.1.resnets.0.time_emb_proj.bias"> : tensor<640xf16>
  util.global private @_params.unet.down_blocks.1.resnets.0.norm2.weight {noinline} = #stream.parameter.named<"model"::"unet.down_blocks.1.resnets.0.norm2.weight"> : tensor<640xf16>
  util.global private @_params.unet.down_blocks.1.resnets.0.norm2.bias {noinline} = #stream.parameter.named<"model"::"unet.down_blocks.1.resnets.0.norm2.bias"> : tensor<640xf16>
  util.global private @_params.unet.down_blocks.1.resnets.0.conv2.weight {noinline} = #stream.parameter.named<"model"::"unet.down_blocks.1.resnets.0.conv2.weight"> : tensor<640x640x3x3xf16>
  util.global private @_params.unet.down_blocks.1.resnets.0.conv2.bias {noinline} = #stream.parameter.named<"model"::"unet.down_blocks.1.resnets.0.conv2.bias"> : tensor<640xf16>
  util.global private @_params.unet.down_blocks.1.resnets.0.conv_shortcut.weight {noinline} = #stream.parameter.named<"model"::"unet.down_blocks.1.resnets.0.conv_shortcut.weight"> : tensor<640x320x1x1xf16>
  util.global private @_params.unet.down_blocks.1.resnets.0.conv_shortcut.bias {noinline} = #stream.parameter.named<"model"::"unet.down_blocks.1.resnets.0.conv_shortcut.bias"> : tensor<640xf16>
  util.global private @_params.unet.down_blocks.1.resnets.1.norm1.weight {noinline} = #stream.parameter.named<"model"::"unet.down_blocks.1.resnets.1.norm1.weight"> : tensor<640xf16>
  util.global private @_params.unet.down_blocks.1.resnets.1.norm1.bias {noinline} = #stream.parameter.named<"model"::"unet.down_blocks.1.resnets.1.norm1.bias"> : tensor<640xf16>
  util.global private @_params.unet.down_blocks.1.resnets.1.conv1.weight {noinline} = #stream.parameter.named<"model"::"unet.down_blocks.1.resnets.1.conv1.weight"> : tensor<640x640x3x3xf16>
  util.global private @_params.unet.down_blocks.1.resnets.1.conv1.bias {noinline} = #stream.parameter.named<"model"::"unet.down_blocks.1.resnets.1.conv1.bias"> : tensor<640xf16>
  util.global private @_params.unet.down_blocks.1.resnets.1.time_emb_proj.weight {noinline} = #stream.parameter.named<"model"::"unet.down_blocks.1.resnets.1.time_emb_proj.weight"> : tensor<640x1280xf16>
  util.global private @_params.unet.down_blocks.1.resnets.1.time_emb_proj.bias {noinline} = #stream.parameter.named<"model"::"unet.down_blocks.1.resnets.1.time_emb_proj.bias"> : tensor<640xf16>
  util.global private @_params.unet.down_blocks.1.resnets.1.norm2.weight {noinline} = #stream.parameter.named<"model"::"unet.down_blocks.1.resnets.1.norm2.weight"> : tensor<640xf16>
  util.global private @_params.unet.down_blocks.1.resnets.1.norm2.bias {noinline} = #stream.parameter.named<"model"::"unet.down_blocks.1.resnets.1.norm2.bias"> : tensor<640xf16>
  util.global private @_params.unet.down_blocks.1.resnets.1.conv2.weight {noinline} = #stream.parameter.named<"model"::"unet.down_blocks.1.resnets.1.conv2.weight"> : tensor<640x640x3x3xf16>
  util.global private @_params.unet.down_blocks.1.resnets.1.conv2.bias {noinline} = #stream.parameter.named<"model"::"unet.down_blocks.1.resnets.1.conv2.bias"> : tensor<640xf16>
  util.global private @_params.unet.down_blocks.1.downsamplers.0.conv.weight {noinline} = #stream.parameter.named<"model"::"unet.down_blocks.1.downsamplers.0.conv.weight"> : tensor<640x640x3x3xf16>
  util.global private @_params.unet.down_blocks.1.downsamplers.0.conv.bias {noinline} = #stream.parameter.named<"model"::"unet.down_blocks.1.downsamplers.0.conv.bias"> : tensor<640xf16>
  util.global private @_params.unet.down_blocks.2.attentions.0.norm.weight {noinline} = #stream.parameter.named<"model"::"unet.down_blocks.2.attentions.0.norm.weight"> : tensor<1280xf16>
  util.global private @_params.unet.down_blocks.2.attentions.0.norm.bias {noinline} = #stream.parameter.named<"model"::"unet.down_blocks.2.attentions.0.norm.bias"> : tensor<1280xf16>
  util.global private @_params.unet.down_blocks.2.attentions.0.proj_in.weight {noinline} = #stream.parameter.named<"model"::"unet.down_blocks.2.attentions.0.proj_in.weight"> : tensor<1280x1280xf16>
  util.global private @_params.unet.down_blocks.2.attentions.0.proj_in.bias {noinline} = #stream.parameter.named<"model"::"unet.down_blocks.2.attentions.0.proj_in.bias"> : tensor<1280xf16>
  util.global private @_params.unet.down_blocks.2.attentions.0.transformer_blocks.0.norm1.weight {noinline} = #stream.parameter.named<"model"::"unet.down_blocks.2.attentions.0.transformer_blocks.0.norm1.weight"> : tensor<1280xf16>
  util.global private @_params.unet.down_blocks.2.attentions.0.transformer_blocks.0.norm1.bias {noinline} = #stream.parameter.named<"model"::"unet.down_blocks.2.attentions.0.transformer_blocks.0.norm1.bias"> : tensor<1280xf16>
  util.global private @_params.unet.down_blocks.2.attentions.0.transformer_blocks.0.attn1.to_q.weight {noinline} = #stream.parameter.named<"model"::"unet.down_blocks.2.attentions.0.transformer_blocks.0.attn1.to_q.weight"> : tensor<1280x1280xf16>
  util.global private @_params.unet.down_blocks.2.attentions.0.transformer_blocks.0.attn1.to_k.weight {noinline} = #stream.parameter.named<"model"::"unet.down_blocks.2.attentions.0.transformer_blocks.0.attn1.to_k.weight"> : tensor<1280x1280xf16>
  util.global private @_params.unet.down_blocks.2.attentions.0.transformer_blocks.0.attn1.to_v.weight {noinline} = #stream.parameter.named<"model"::"unet.down_blocks.2.attentions.0.transformer_blocks.0.attn1.to_v.weight"> : tensor<1280x1280xf16>
  util.global private @_params.unet.down_blocks.2.attentions.0.transformer_blocks.0.attn1.to_out.0.weight {noinline} = #stream.parameter.named<"model"::"unet.down_blocks.2.attentions.0.transformer_blocks.0.attn1.to_out.0.weight"> : tensor<1280x1280xf16>
  util.global private @_params.unet.down_blocks.2.attentions.0.transformer_blocks.0.attn1.to_out.0.bias {noinline} = #stream.parameter.named<"model"::"unet.down_blocks.2.attentions.0.transformer_blocks.0.attn1.to_out.0.bias"> : tensor<1280xf16>
  util.global private @_params.unet.down_blocks.2.attentions.0.transformer_blocks.0.norm2.weight {noinline} = #stream.parameter.named<"model"::"unet.down_blocks.2.attentions.0.transformer_blocks.0.norm2.weight"> : tensor<1280xf16>
  util.global private @_params.unet.down_blocks.2.attentions.0.transformer_blocks.0.norm2.bias {noinline} = #stream.parameter.named<"model"::"unet.down_blocks.2.attentions.0.transformer_blocks.0.norm2.bias"> : tensor<1280xf16>
  util.global private @_params.unet.down_blocks.2.attentions.0.transformer_blocks.0.attn2.to_q.weight {noinline} = #stream.parameter.named<"model"::"unet.down_blocks.2.attentions.0.transformer_blocks.0.attn2.to_q.weight"> : tensor<1280x1280xf16>
  util.global private @_params.unet.down_blocks.2.attentions.0.transformer_blocks.0.attn2.to_k.weight {noinline} = #stream.parameter.named<"model"::"unet.down_blocks.2.attentions.0.transformer_blocks.0.attn2.to_k.weight"> : tensor<1280x2048xf16>
  util.global private @_params.unet.down_blocks.2.attentions.0.transformer_blocks.0.attn2.to_v.weight {noinline} = #stream.parameter.named<"model"::"unet.down_blocks.2.attentions.0.transformer_blocks.0.attn2.to_v.weight"> : tensor<1280x2048xf16>
  util.global private @_params.unet.down_blocks.2.attentions.0.transformer_blocks.0.attn2.to_out.0.weight {noinline} = #stream.parameter.named<"model"::"unet.down_blocks.2.attentions.0.transformer_blocks.0.attn2.to_out.0.weight"> : tensor<1280x1280xf16>
  util.global private @_params.unet.down_blocks.2.attentions.0.transformer_blocks.0.attn2.to_out.0.bias {noinline} = #stream.parameter.named<"model"::"unet.down_blocks.2.attentions.0.transformer_blocks.0.attn2.to_out.0.bias"> : tensor<1280xf16>
  util.global private @_params.unet.down_blocks.2.attentions.0.transformer_blocks.0.norm3.weight {noinline} = #stream.parameter.named<"model"::"unet.down_blocks.2.attentions.0.transformer_blocks.0.norm3.weight"> : tensor<1280xf16>
  util.global private @_params.unet.down_blocks.2.attentions.0.transformer_blocks.0.norm3.bias {noinline} = #stream.parameter.named<"model"::"unet.down_blocks.2.attentions.0.transformer_blocks.0.norm3.bias"> : tensor<1280xf16>
  util.global private @_params.unet.down_blocks.2.attentions.0.transformer_blocks.0.ff.net.0.proj.weight {noinline} = #stream.parameter.named<"model"::"unet.down_blocks.2.attentions.0.transformer_blocks.0.ff.net.0.proj.weight"> : tensor<10240x1280xf16>
  util.global private @_params.unet.down_blocks.2.attentions.0.transformer_blocks.0.ff.net.0.proj.bias {noinline} = #stream.parameter.named<"model"::"unet.down_blocks.2.attentions.0.transformer_blocks.0.ff.net.0.proj.bias"> : tensor<10240xf16>
  util.global private @_params.unet.down_blocks.2.attentions.0.transformer_blocks.0.ff.net.2.weight {noinline} = #stream.parameter.named<"model"::"unet.down_blocks.2.attentions.0.transformer_blocks.0.ff.net.2.weight"> : tensor<1280x5120xf16>
  util.global private @_params.unet.down_blocks.2.attentions.0.transformer_blocks.0.ff.net.2.bias {noinline} = #stream.parameter.named<"model"::"unet.down_blocks.2.attentions.0.transformer_blocks.0.ff.net.2.bias"> : tensor<1280xf16>
  util.global private @_params.unet.down_blocks.2.attentions.0.transformer_blocks.1.norm1.weight {noinline} = #stream.parameter.named<"model"::"unet.down_blocks.2.attentions.0.transformer_blocks.1.norm1.weight"> : tensor<1280xf16>
  util.global private @_params.unet.down_blocks.2.attentions.0.transformer_blocks.1.norm1.bias {noinline} = #stream.parameter.named<"model"::"unet.down_blocks.2.attentions.0.transformer_blocks.1.norm1.bias"> : tensor<1280xf16>
  util.global private @_params.unet.down_blocks.2.attentions.0.transformer_blocks.1.attn1.to_q.weight {noinline} = #stream.parameter.named<"model"::"unet.down_blocks.2.attentions.0.transformer_blocks.1.attn1.to_q.weight"> : tensor<1280x1280xf16>
  util.global private @_params.unet.down_blocks.2.attentions.0.transformer_blocks.1.attn1.to_k.weight {noinline} = #stream.parameter.named<"model"::"unet.down_blocks.2.attentions.0.transformer_blocks.1.attn1.to_k.weight"> : tensor<1280x1280xf16>
  util.global private @_params.unet.down_blocks.2.attentions.0.transformer_blocks.1.attn1.to_v.weight {noinline} = #stream.parameter.named<"model"::"unet.down_blocks.2.attentions.0.transformer_blocks.1.attn1.to_v.weight"> : tensor<1280x1280xf16>
  util.global private @_params.unet.down_blocks.2.attentions.0.transformer_blocks.1.attn1.to_out.0.weight {noinline} = #stream.parameter.named<"model"::"unet.down_blocks.2.attentions.0.transformer_blocks.1.attn1.to_out.0.weight"> : tensor<1280x1280xf16>
  util.global private @_params.unet.down_blocks.2.attentions.0.transformer_blocks.1.attn1.to_out.0.bias {noinline} = #stream.parameter.named<"model"::"unet.down_blocks.2.attentions.0.transformer_blocks.1.attn1.to_out.0.bias"> : tensor<1280xf16>
  util.global private @_params.unet.down_blocks.2.attentions.0.transformer_blocks.1.norm2.weight {noinline} = #stream.parameter.named<"model"::"unet.down_blocks.2.attentions.0.transformer_blocks.1.norm2.weight"> : tensor<1280xf16>
  util.global private @_params.unet.down_blocks.2.attentions.0.transformer_blocks.1.norm2.bias {noinline} = #stream.parameter.named<"model"::"unet.down_blocks.2.attentions.0.transformer_blocks.1.norm2.bias"> : tensor<1280xf16>
  util.global private @_params.unet.down_blocks.2.attentions.0.transformer_blocks.1.attn2.to_q.weight {noinline} = #stream.parameter.named<"model"::"unet.down_blocks.2.attentions.0.transformer_blocks.1.attn2.to_q.weight"> : tensor<1280x1280xf16>
  util.global private @_params.unet.down_blocks.2.attentions.0.transformer_blocks.1.attn2.to_k.weight {noinline} = #stream.parameter.named<"model"::"unet.down_blocks.2.attentions.0.transformer_blocks.1.attn2.to_k.weight"> : tensor<1280x2048xf16>
  util.global private @_params.unet.down_blocks.2.attentions.0.transformer_blocks.1.attn2.to_v.weight {noinline} = #stream.parameter.named<"model"::"unet.down_blocks.2.attentions.0.transformer_blocks.1.attn2.to_v.weight"> : tensor<1280x2048xf16>
  util.global private @_params.unet.down_blocks.2.attentions.0.transformer_blocks.1.attn2.to_out.0.weight {noinline} = #stream.parameter.named<"model"::"unet.down_blocks.2.attentions.0.transformer_blocks.1.attn2.to_out.0.weight"> : tensor<1280x1280xf16>
  util.global private @_params.unet.down_blocks.2.attentions.0.transformer_blocks.1.attn2.to_out.0.bias {noinline} = #stream.parameter.named<"model"::"unet.down_blocks.2.attentions.0.transformer_blocks.1.attn2.to_out.0.bias"> : tensor<1280xf16>
  util.global private @_params.unet.down_blocks.2.attentions.0.transformer_blocks.1.norm3.weight {noinline} = #stream.parameter.named<"model"::"unet.down_blocks.2.attentions.0.transformer_blocks.1.norm3.weight"> : tensor<1280xf16>
  util.global private @_params.unet.down_blocks.2.attentions.0.transformer_blocks.1.norm3.bias {noinline} = #stream.parameter.named<"model"::"unet.down_blocks.2.attentions.0.transformer_blocks.1.norm3.bias"> : tensor<1280xf16>
  util.global private @_params.unet.down_blocks.2.attentions.0.transformer_blocks.1.ff.net.0.proj.weight {noinline} = #stream.parameter.named<"model"::"unet.down_blocks.2.attentions.0.transformer_blocks.1.ff.net.0.proj.weight"> : tensor<10240x1280xf16>
  util.global private @_params.unet.down_blocks.2.attentions.0.transformer_blocks.1.ff.net.0.proj.bias {noinline} = #stream.parameter.named<"model"::"unet.down_blocks.2.attentions.0.transformer_blocks.1.ff.net.0.proj.bias"> : tensor<10240xf16>
  util.global private @_params.unet.down_blocks.2.attentions.0.transformer_blocks.1.ff.net.2.weight {noinline} = #stream.parameter.named<"model"::"unet.down_blocks.2.attentions.0.transformer_blocks.1.ff.net.2.weight"> : tensor<1280x5120xf16>
  util.global private @_params.unet.down_blocks.2.attentions.0.transformer_blocks.1.ff.net.2.bias {noinline} = #stream.parameter.named<"model"::"unet.down_blocks.2.attentions.0.transformer_blocks.1.ff.net.2.bias"> : tensor<1280xf16>
  util.global private @_params.unet.down_blocks.2.attentions.0.transformer_blocks.2.norm1.weight {noinline} = #stream.parameter.named<"model"::"unet.down_blocks.2.attentions.0.transformer_blocks.2.norm1.weight"> : tensor<1280xf16>
  util.global private @_params.unet.down_blocks.2.attentions.0.transformer_blocks.2.norm1.bias {noinline} = #stream.parameter.named<"model"::"unet.down_blocks.2.attentions.0.transformer_blocks.2.norm1.bias"> : tensor<1280xf16>
  util.global private @_params.unet.down_blocks.2.attentions.0.transformer_blocks.2.attn1.to_q.weight {noinline} = #stream.parameter.named<"model"::"unet.down_blocks.2.attentions.0.transformer_blocks.2.attn1.to_q.weight"> : tensor<1280x1280xf16>
  util.global private @_params.unet.down_blocks.2.attentions.0.transformer_blocks.2.attn1.to_k.weight {noinline} = #stream.parameter.named<"model"::"unet.down_blocks.2.attentions.0.transformer_blocks.2.attn1.to_k.weight"> : tensor<1280x1280xf16>
  util.global private @_params.unet.down_blocks.2.attentions.0.transformer_blocks.2.attn1.to_v.weight {noinline} = #stream.parameter.named<"model"::"unet.down_blocks.2.attentions.0.transformer_blocks.2.attn1.to_v.weight"> : tensor<1280x1280xf16>
  util.global private @_params.unet.down_blocks.2.attentions.0.transformer_blocks.2.attn1.to_out.0.weight {noinline} = #stream.parameter.named<"model"::"unet.down_blocks.2.attentions.0.transformer_blocks.2.attn1.to_out.0.weight"> : tensor<1280x1280xf16>
  util.global private @_params.unet.down_blocks.2.attentions.0.transformer_blocks.2.attn1.to_out.0.bias {noinline} = #stream.parameter.named<"model"::"unet.down_blocks.2.attentions.0.transformer_blocks.2.attn1.to_out.0.bias"> : tensor<1280xf16>
  util.global private @_params.unet.down_blocks.2.attentions.0.transformer_blocks.2.norm2.weight {noinline} = #stream.parameter.named<"model"::"unet.down_blocks.2.attentions.0.transformer_blocks.2.norm2.weight"> : tensor<1280xf16>
  util.global private @_params.unet.down_blocks.2.attentions.0.transformer_blocks.2.norm2.bias {noinline} = #stream.parameter.named<"model"::"unet.down_blocks.2.attentions.0.transformer_blocks.2.norm2.bias"> : tensor<1280xf16>
  util.global private @_params.unet.down_blocks.2.attentions.0.transformer_blocks.2.attn2.to_q.weight {noinline} = #stream.parameter.named<"model"::"unet.down_blocks.2.attentions.0.transformer_blocks.2.attn2.to_q.weight"> : tensor<1280x1280xf16>
  util.global private @_params.unet.down_blocks.2.attentions.0.transformer_blocks.2.attn2.to_k.weight {noinline} = #stream.parameter.named<"model"::"unet.down_blocks.2.attentions.0.transformer_blocks.2.attn2.to_k.weight"> : tensor<1280x2048xf16>
  util.global private @_params.unet.down_blocks.2.attentions.0.transformer_blocks.2.attn2.to_v.weight {noinline} = #stream.parameter.named<"model"::"unet.down_blocks.2.attentions.0.transformer_blocks.2.attn2.to_v.weight"> : tensor<1280x2048xf16>
  util.global private @_params.unet.down_blocks.2.attentions.0.transformer_blocks.2.attn2.to_out.0.weight {noinline} = #stream.parameter.named<"model"::"unet.down_blocks.2.attentions.0.transformer_blocks.2.attn2.to_out.0.weight"> : tensor<1280x1280xf16>
  util.global private @_params.unet.down_blocks.2.attentions.0.transformer_blocks.2.attn2.to_out.0.bias {noinline} = #stream.parameter.named<"model"::"unet.down_blocks.2.attentions.0.transformer_blocks.2.attn2.to_out.0.bias"> : tensor<1280xf16>
  util.global private @_params.unet.down_blocks.2.attentions.0.transformer_blocks.2.norm3.weight {noinline} = #stream.parameter.named<"model"::"unet.down_blocks.2.attentions.0.transformer_blocks.2.norm3.weight"> : tensor<1280xf16>
  util.global private @_params.unet.down_blocks.2.attentions.0.transformer_blocks.2.norm3.bias {noinline} = #stream.parameter.named<"model"::"unet.down_blocks.2.attentions.0.transformer_blocks.2.norm3.bias"> : tensor<1280xf16>
  util.global private @_params.unet.down_blocks.2.attentions.0.transformer_blocks.2.ff.net.0.proj.weight {noinline} = #stream.parameter.named<"model"::"unet.down_blocks.2.attentions.0.transformer_blocks.2.ff.net.0.proj.weight"> : tensor<10240x1280xf16>
  util.global private @_params.unet.down_blocks.2.attentions.0.transformer_blocks.2.ff.net.0.proj.bias {noinline} = #stream.parameter.named<"model"::"unet.down_blocks.2.attentions.0.transformer_blocks.2.ff.net.0.proj.bias"> : tensor<10240xf16>
  util.global private @_params.unet.down_blocks.2.attentions.0.transformer_blocks.2.ff.net.2.weight {noinline} = #stream.parameter.named<"model"::"unet.down_blocks.2.attentions.0.transformer_blocks.2.ff.net.2.weight"> : tensor<1280x5120xf16>
  util.global private @_params.unet.down_blocks.2.attentions.0.transformer_blocks.2.ff.net.2.bias {noinline} = #stream.parameter.named<"model"::"unet.down_blocks.2.attentions.0.transformer_blocks.2.ff.net.2.bias"> : tensor<1280xf16>
  util.global private @_params.unet.down_blocks.2.attentions.0.transformer_blocks.3.norm1.weight {noinline} = #stream.parameter.named<"model"::"unet.down_blocks.2.attentions.0.transformer_blocks.3.norm1.weight"> : tensor<1280xf16>
  util.global private @_params.unet.down_blocks.2.attentions.0.transformer_blocks.3.norm1.bias {noinline} = #stream.parameter.named<"model"::"unet.down_blocks.2.attentions.0.transformer_blocks.3.norm1.bias"> : tensor<1280xf16>
  util.global private @_params.unet.down_blocks.2.attentions.0.transformer_blocks.3.attn1.to_q.weight {noinline} = #stream.parameter.named<"model"::"unet.down_blocks.2.attentions.0.transformer_blocks.3.attn1.to_q.weight"> : tensor<1280x1280xf16>
  util.global private @_params.unet.down_blocks.2.attentions.0.transformer_blocks.3.attn1.to_k.weight {noinline} = #stream.parameter.named<"model"::"unet.down_blocks.2.attentions.0.transformer_blocks.3.attn1.to_k.weight"> : tensor<1280x1280xf16>
  util.global private @_params.unet.down_blocks.2.attentions.0.transformer_blocks.3.attn1.to_v.weight {noinline} = #stream.parameter.named<"model"::"unet.down_blocks.2.attentions.0.transformer_blocks.3.attn1.to_v.weight"> : tensor<1280x1280xf16>
  util.global private @_params.unet.down_blocks.2.attentions.0.transformer_blocks.3.attn1.to_out.0.weight {noinline} = #stream.parameter.named<"model"::"unet.down_blocks.2.attentions.0.transformer_blocks.3.attn1.to_out.0.weight"> : tensor<1280x1280xf16>
  util.global private @_params.unet.down_blocks.2.attentions.0.transformer_blocks.3.attn1.to_out.0.bias {noinline} = #stream.parameter.named<"model"::"unet.down_blocks.2.attentions.0.transformer_blocks.3.attn1.to_out.0.bias"> : tensor<1280xf16>
  util.global private @_params.unet.down_blocks.2.attentions.0.transformer_blocks.3.norm2.weight {noinline} = #stream.parameter.named<"model"::"unet.down_blocks.2.attentions.0.transformer_blocks.3.norm2.weight"> : tensor<1280xf16>
  util.global private @_params.unet.down_blocks.2.attentions.0.transformer_blocks.3.norm2.bias {noinline} = #stream.parameter.named<"model"::"unet.down_blocks.2.attentions.0.transformer_blocks.3.norm2.bias"> : tensor<1280xf16>
  util.global private @_params.unet.down_blocks.2.attentions.0.transformer_blocks.3.attn2.to_q.weight {noinline} = #stream.parameter.named<"model"::"unet.down_blocks.2.attentions.0.transformer_blocks.3.attn2.to_q.weight"> : tensor<1280x1280xf16>
  util.global private @_params.unet.down_blocks.2.attentions.0.transformer_blocks.3.attn2.to_k.weight {noinline} = #stream.parameter.named<"model"::"unet.down_blocks.2.attentions.0.transformer_blocks.3.attn2.to_k.weight"> : tensor<1280x2048xf16>
  util.global private @_params.unet.down_blocks.2.attentions.0.transformer_blocks.3.attn2.to_v.weight {noinline} = #stream.parameter.named<"model"::"unet.down_blocks.2.attentions.0.transformer_blocks.3.attn2.to_v.weight"> : tensor<1280x2048xf16>
  util.global private @_params.unet.down_blocks.2.attentions.0.transformer_blocks.3.attn2.to_out.0.weight {noinline} = #stream.parameter.named<"model"::"unet.down_blocks.2.attentions.0.transformer_blocks.3.attn2.to_out.0.weight"> : tensor<1280x1280xf16>
  util.global private @_params.unet.down_blocks.2.attentions.0.transformer_blocks.3.attn2.to_out.0.bias {noinline} = #stream.parameter.named<"model"::"unet.down_blocks.2.attentions.0.transformer_blocks.3.attn2.to_out.0.bias"> : tensor<1280xf16>
  util.global private @_params.unet.down_blocks.2.attentions.0.transformer_blocks.3.norm3.weight {noinline} = #stream.parameter.named<"model"::"unet.down_blocks.2.attentions.0.transformer_blocks.3.norm3.weight"> : tensor<1280xf16>
  util.global private @_params.unet.down_blocks.2.attentions.0.transformer_blocks.3.norm3.bias {noinline} = #stream.parameter.named<"model"::"unet.down_blocks.2.attentions.0.transformer_blocks.3.norm3.bias"> : tensor<1280xf16>
  util.global private @_params.unet.down_blocks.2.attentions.0.transformer_blocks.3.ff.net.0.proj.weight {noinline} = #stream.parameter.named<"model"::"unet.down_blocks.2.attentions.0.transformer_blocks.3.ff.net.0.proj.weight"> : tensor<10240x1280xf16>
  util.global private @_params.unet.down_blocks.2.attentions.0.transformer_blocks.3.ff.net.0.proj.bias {noinline} = #stream.parameter.named<"model"::"unet.down_blocks.2.attentions.0.transformer_blocks.3.ff.net.0.proj.bias"> : tensor<10240xf16>
  util.global private @_params.unet.down_blocks.2.attentions.0.transformer_blocks.3.ff.net.2.weight {noinline} = #stream.parameter.named<"model"::"unet.down_blocks.2.attentions.0.transformer_blocks.3.ff.net.2.weight"> : tensor<1280x5120xf16>
  util.global private @_params.unet.down_blocks.2.attentions.0.transformer_blocks.3.ff.net.2.bias {noinline} = #stream.parameter.named<"model"::"unet.down_blocks.2.attentions.0.transformer_blocks.3.ff.net.2.bias"> : tensor<1280xf16>
  util.global private @_params.unet.down_blocks.2.attentions.0.transformer_blocks.4.norm1.weight {noinline} = #stream.parameter.named<"model"::"unet.down_blocks.2.attentions.0.transformer_blocks.4.norm1.weight"> : tensor<1280xf16>
  util.global private @_params.unet.down_blocks.2.attentions.0.transformer_blocks.4.norm1.bias {noinline} = #stream.parameter.named<"model"::"unet.down_blocks.2.attentions.0.transformer_blocks.4.norm1.bias"> : tensor<1280xf16>
  util.global private @_params.unet.down_blocks.2.attentions.0.transformer_blocks.4.attn1.to_q.weight {noinline} = #stream.parameter.named<"model"::"unet.down_blocks.2.attentions.0.transformer_blocks.4.attn1.to_q.weight"> : tensor<1280x1280xf16>
  util.global private @_params.unet.down_blocks.2.attentions.0.transformer_blocks.4.attn1.to_k.weight {noinline} = #stream.parameter.named<"model"::"unet.down_blocks.2.attentions.0.transformer_blocks.4.attn1.to_k.weight"> : tensor<1280x1280xf16>
  util.global private @_params.unet.down_blocks.2.attentions.0.transformer_blocks.4.attn1.to_v.weight {noinline} = #stream.parameter.named<"model"::"unet.down_blocks.2.attentions.0.transformer_blocks.4.attn1.to_v.weight"> : tensor<1280x1280xf16>
  util.global private @_params.unet.down_blocks.2.attentions.0.transformer_blocks.4.attn1.to_out.0.weight {noinline} = #stream.parameter.named<"model"::"unet.down_blocks.2.attentions.0.transformer_blocks.4.attn1.to_out.0.weight"> : tensor<1280x1280xf16>
  util.global private @_params.unet.down_blocks.2.attentions.0.transformer_blocks.4.attn1.to_out.0.bias {noinline} = #stream.parameter.named<"model"::"unet.down_blocks.2.attentions.0.transformer_blocks.4.attn1.to_out.0.bias"> : tensor<1280xf16>
  util.global private @_params.unet.down_blocks.2.attentions.0.transformer_blocks.4.norm2.weight {noinline} = #stream.parameter.named<"model"::"unet.down_blocks.2.attentions.0.transformer_blocks.4.norm2.weight"> : tensor<1280xf16>
  util.global private @_params.unet.down_blocks.2.attentions.0.transformer_blocks.4.norm2.bias {noinline} = #stream.parameter.named<"model"::"unet.down_blocks.2.attentions.0.transformer_blocks.4.norm2.bias"> : tensor<1280xf16>
  util.global private @_params.unet.down_blocks.2.attentions.0.transformer_blocks.4.attn2.to_q.weight {noinline} = #stream.parameter.named<"model"::"unet.down_blocks.2.attentions.0.transformer_blocks.4.attn2.to_q.weight"> : tensor<1280x1280xf16>
  util.global private @_params.unet.down_blocks.2.attentions.0.transformer_blocks.4.attn2.to_k.weight {noinline} = #stream.parameter.named<"model"::"unet.down_blocks.2.attentions.0.transformer_blocks.4.attn2.to_k.weight"> : tensor<1280x2048xf16>
  util.global private @_params.unet.down_blocks.2.attentions.0.transformer_blocks.4.attn2.to_v.weight {noinline} = #stream.parameter.named<"model"::"unet.down_blocks.2.attentions.0.transformer_blocks.4.attn2.to_v.weight"> : tensor<1280x2048xf16>
  util.global private @_params.unet.down_blocks.2.attentions.0.transformer_blocks.4.attn2.to_out.0.weight {noinline} = #stream.parameter.named<"model"::"unet.down_blocks.2.attentions.0.transformer_blocks.4.attn2.to_out.0.weight"> : tensor<1280x1280xf16>
  util.global private @_params.unet.down_blocks.2.attentions.0.transformer_blocks.4.attn2.to_out.0.bias {noinline} = #stream.parameter.named<"model"::"unet.down_blocks.2.attentions.0.transformer_blocks.4.attn2.to_out.0.bias"> : tensor<1280xf16>
  util.global private @_params.unet.down_blocks.2.attentions.0.transformer_blocks.4.norm3.weight {noinline} = #stream.parameter.named<"model"::"unet.down_blocks.2.attentions.0.transformer_blocks.4.norm3.weight"> : tensor<1280xf16>
  util.global private @_params.unet.down_blocks.2.attentions.0.transformer_blocks.4.norm3.bias {noinline} = #stream.parameter.named<"model"::"unet.down_blocks.2.attentions.0.transformer_blocks.4.norm3.bias"> : tensor<1280xf16>
  util.global private @_params.unet.down_blocks.2.attentions.0.transformer_blocks.4.ff.net.0.proj.weight {noinline} = #stream.parameter.named<"model"::"unet.down_blocks.2.attentions.0.transformer_blocks.4.ff.net.0.proj.weight"> : tensor<10240x1280xf16>
  util.global private @_params.unet.down_blocks.2.attentions.0.transformer_blocks.4.ff.net.0.proj.bias {noinline} = #stream.parameter.named<"model"::"unet.down_blocks.2.attentions.0.transformer_blocks.4.ff.net.0.proj.bias"> : tensor<10240xf16>
  util.global private @_params.unet.down_blocks.2.attentions.0.transformer_blocks.4.ff.net.2.weight {noinline} = #stream.parameter.named<"model"::"unet.down_blocks.2.attentions.0.transformer_blocks.4.ff.net.2.weight"> : tensor<1280x5120xf16>
  util.global private @_params.unet.down_blocks.2.attentions.0.transformer_blocks.4.ff.net.2.bias {noinline} = #stream.parameter.named<"model"::"unet.down_blocks.2.attentions.0.transformer_blocks.4.ff.net.2.bias"> : tensor<1280xf16>
  util.global private @_params.unet.down_blocks.2.attentions.0.transformer_blocks.5.norm1.weight {noinline} = #stream.parameter.named<"model"::"unet.down_blocks.2.attentions.0.transformer_blocks.5.norm1.weight"> : tensor<1280xf16>
  util.global private @_params.unet.down_blocks.2.attentions.0.transformer_blocks.5.norm1.bias {noinline} = #stream.parameter.named<"model"::"unet.down_blocks.2.attentions.0.transformer_blocks.5.norm1.bias"> : tensor<1280xf16>
  util.global private @_params.unet.down_blocks.2.attentions.0.transformer_blocks.5.attn1.to_q.weight {noinline} = #stream.parameter.named<"model"::"unet.down_blocks.2.attentions.0.transformer_blocks.5.attn1.to_q.weight"> : tensor<1280x1280xf16>
  util.global private @_params.unet.down_blocks.2.attentions.0.transformer_blocks.5.attn1.to_k.weight {noinline} = #stream.parameter.named<"model"::"unet.down_blocks.2.attentions.0.transformer_blocks.5.attn1.to_k.weight"> : tensor<1280x1280xf16>
  util.global private @_params.unet.down_blocks.2.attentions.0.transformer_blocks.5.attn1.to_v.weight {noinline} = #stream.parameter.named<"model"::"unet.down_blocks.2.attentions.0.transformer_blocks.5.attn1.to_v.weight"> : tensor<1280x1280xf16>
  util.global private @_params.unet.down_blocks.2.attentions.0.transformer_blocks.5.attn1.to_out.0.weight {noinline} = #stream.parameter.named<"model"::"unet.down_blocks.2.attentions.0.transformer_blocks.5.attn1.to_out.0.weight"> : tensor<1280x1280xf16>
  util.global private @_params.unet.down_blocks.2.attentions.0.transformer_blocks.5.attn1.to_out.0.bias {noinline} = #stream.parameter.named<"model"::"unet.down_blocks.2.attentions.0.transformer_blocks.5.attn1.to_out.0.bias"> : tensor<1280xf16>
  util.global private @_params.unet.down_blocks.2.attentions.0.transformer_blocks.5.norm2.weight {noinline} = #stream.parameter.named<"model"::"unet.down_blocks.2.attentions.0.transformer_blocks.5.norm2.weight"> : tensor<1280xf16>
  util.global private @_params.unet.down_blocks.2.attentions.0.transformer_blocks.5.norm2.bias {noinline} = #stream.parameter.named<"model"::"unet.down_blocks.2.attentions.0.transformer_blocks.5.norm2.bias"> : tensor<1280xf16>
  util.global private @_params.unet.down_blocks.2.attentions.0.transformer_blocks.5.attn2.to_q.weight {noinline} = #stream.parameter.named<"model"::"unet.down_blocks.2.attentions.0.transformer_blocks.5.attn2.to_q.weight"> : tensor<1280x1280xf16>
  util.global private @_params.unet.down_blocks.2.attentions.0.transformer_blocks.5.attn2.to_k.weight {noinline} = #stream.parameter.named<"model"::"unet.down_blocks.2.attentions.0.transformer_blocks.5.attn2.to_k.weight"> : tensor<1280x2048xf16>
  util.global private @_params.unet.down_blocks.2.attentions.0.transformer_blocks.5.attn2.to_v.weight {noinline} = #stream.parameter.named<"model"::"unet.down_blocks.2.attentions.0.transformer_blocks.5.attn2.to_v.weight"> : tensor<1280x2048xf16>
  util.global private @_params.unet.down_blocks.2.attentions.0.transformer_blocks.5.attn2.to_out.0.weight {noinline} = #stream.parameter.named<"model"::"unet.down_blocks.2.attentions.0.transformer_blocks.5.attn2.to_out.0.weight"> : tensor<1280x1280xf16>
  util.global private @_params.unet.down_blocks.2.attentions.0.transformer_blocks.5.attn2.to_out.0.bias {noinline} = #stream.parameter.named<"model"::"unet.down_blocks.2.attentions.0.transformer_blocks.5.attn2.to_out.0.bias"> : tensor<1280xf16>
  util.global private @_params.unet.down_blocks.2.attentions.0.transformer_blocks.5.norm3.weight {noinline} = #stream.parameter.named<"model"::"unet.down_blocks.2.attentions.0.transformer_blocks.5.norm3.weight"> : tensor<1280xf16>
  util.global private @_params.unet.down_blocks.2.attentions.0.transformer_blocks.5.norm3.bias {noinline} = #stream.parameter.named<"model"::"unet.down_blocks.2.attentions.0.transformer_blocks.5.norm3.bias"> : tensor<1280xf16>
  util.global private @_params.unet.down_blocks.2.attentions.0.transformer_blocks.5.ff.net.0.proj.weight {noinline} = #stream.parameter.named<"model"::"unet.down_blocks.2.attentions.0.transformer_blocks.5.ff.net.0.proj.weight"> : tensor<10240x1280xf16>
  util.global private @_params.unet.down_blocks.2.attentions.0.transformer_blocks.5.ff.net.0.proj.bias {noinline} = #stream.parameter.named<"model"::"unet.down_blocks.2.attentions.0.transformer_blocks.5.ff.net.0.proj.bias"> : tensor<10240xf16>
  util.global private @_params.unet.down_blocks.2.attentions.0.transformer_blocks.5.ff.net.2.weight {noinline} = #stream.parameter.named<"model"::"unet.down_blocks.2.attentions.0.transformer_blocks.5.ff.net.2.weight"> : tensor<1280x5120xf16>
  util.global private @_params.unet.down_blocks.2.attentions.0.transformer_blocks.5.ff.net.2.bias {noinline} = #stream.parameter.named<"model"::"unet.down_blocks.2.attentions.0.transformer_blocks.5.ff.net.2.bias"> : tensor<1280xf16>
  util.global private @_params.unet.down_blocks.2.attentions.0.transformer_blocks.6.norm1.weight {noinline} = #stream.parameter.named<"model"::"unet.down_blocks.2.attentions.0.transformer_blocks.6.norm1.weight"> : tensor<1280xf16>
  util.global private @_params.unet.down_blocks.2.attentions.0.transformer_blocks.6.norm1.bias {noinline} = #stream.parameter.named<"model"::"unet.down_blocks.2.attentions.0.transformer_blocks.6.norm1.bias"> : tensor<1280xf16>
  util.global private @_params.unet.down_blocks.2.attentions.0.transformer_blocks.6.attn1.to_q.weight {noinline} = #stream.parameter.named<"model"::"unet.down_blocks.2.attentions.0.transformer_blocks.6.attn1.to_q.weight"> : tensor<1280x1280xf16>
  util.global private @_params.unet.down_blocks.2.attentions.0.transformer_blocks.6.attn1.to_k.weight {noinline} = #stream.parameter.named<"model"::"unet.down_blocks.2.attentions.0.transformer_blocks.6.attn1.to_k.weight"> : tensor<1280x1280xf16>
  util.global private @_params.unet.down_blocks.2.attentions.0.transformer_blocks.6.attn1.to_v.weight {noinline} = #stream.parameter.named<"model"::"unet.down_blocks.2.attentions.0.transformer_blocks.6.attn1.to_v.weight"> : tensor<1280x1280xf16>
  util.global private @_params.unet.down_blocks.2.attentions.0.transformer_blocks.6.attn1.to_out.0.weight {noinline} = #stream.parameter.named<"model"::"unet.down_blocks.2.attentions.0.transformer_blocks.6.attn1.to_out.0.weight"> : tensor<1280x1280xf16>
  util.global private @_params.unet.down_blocks.2.attentions.0.transformer_blocks.6.attn1.to_out.0.bias {noinline} = #stream.parameter.named<"model"::"unet.down_blocks.2.attentions.0.transformer_blocks.6.attn1.to_out.0.bias"> : tensor<1280xf16>
  util.global private @_params.unet.down_blocks.2.attentions.0.transformer_blocks.6.norm2.weight {noinline} = #stream.parameter.named<"model"::"unet.down_blocks.2.attentions.0.transformer_blocks.6.norm2.weight"> : tensor<1280xf16>
  util.global private @_params.unet.down_blocks.2.attentions.0.transformer_blocks.6.norm2.bias {noinline} = #stream.parameter.named<"model"::"unet.down_blocks.2.attentions.0.transformer_blocks.6.norm2.bias"> : tensor<1280xf16>
  util.global private @_params.unet.down_blocks.2.attentions.0.transformer_blocks.6.attn2.to_q.weight {noinline} = #stream.parameter.named<"model"::"unet.down_blocks.2.attentions.0.transformer_blocks.6.attn2.to_q.weight"> : tensor<1280x1280xf16>
  util.global private @_params.unet.down_blocks.2.attentions.0.transformer_blocks.6.attn2.to_k.weight {noinline} = #stream.parameter.named<"model"::"unet.down_blocks.2.attentions.0.transformer_blocks.6.attn2.to_k.weight"> : tensor<1280x2048xf16>
  util.global private @_params.unet.down_blocks.2.attentions.0.transformer_blocks.6.attn2.to_v.weight {noinline} = #stream.parameter.named<"model"::"unet.down_blocks.2.attentions.0.transformer_blocks.6.attn2.to_v.weight"> : tensor<1280x2048xf16>
  util.global private @_params.unet.down_blocks.2.attentions.0.transformer_blocks.6.attn2.to_out.0.weight {noinline} = #stream.parameter.named<"model"::"unet.down_blocks.2.attentions.0.transformer_blocks.6.attn2.to_out.0.weight"> : tensor<1280x1280xf16>
  util.global private @_params.unet.down_blocks.2.attentions.0.transformer_blocks.6.attn2.to_out.0.bias {noinline} = #stream.parameter.named<"model"::"unet.down_blocks.2.attentions.0.transformer_blocks.6.attn2.to_out.0.bias"> : tensor<1280xf16>
  util.global private @_params.unet.down_blocks.2.attentions.0.transformer_blocks.6.norm3.weight {noinline} = #stream.parameter.named<"model"::"unet.down_blocks.2.attentions.0.transformer_blocks.6.norm3.weight"> : tensor<1280xf16>
  util.global private @_params.unet.down_blocks.2.attentions.0.transformer_blocks.6.norm3.bias {noinline} = #stream.parameter.named<"model"::"unet.down_blocks.2.attentions.0.transformer_blocks.6.norm3.bias"> : tensor<1280xf16>
  util.global private @_params.unet.down_blocks.2.attentions.0.transformer_blocks.6.ff.net.0.proj.weight {noinline} = #stream.parameter.named<"model"::"unet.down_blocks.2.attentions.0.transformer_blocks.6.ff.net.0.proj.weight"> : tensor<10240x1280xf16>
  util.global private @_params.unet.down_blocks.2.attentions.0.transformer_blocks.6.ff.net.0.proj.bias {noinline} = #stream.parameter.named<"model"::"unet.down_blocks.2.attentions.0.transformer_blocks.6.ff.net.0.proj.bias"> : tensor<10240xf16>
  util.global private @_params.unet.down_blocks.2.attentions.0.transformer_blocks.6.ff.net.2.weight {noinline} = #stream.parameter.named<"model"::"unet.down_blocks.2.attentions.0.transformer_blocks.6.ff.net.2.weight"> : tensor<1280x5120xf16>
  util.global private @_params.unet.down_blocks.2.attentions.0.transformer_blocks.6.ff.net.2.bias {noinline} = #stream.parameter.named<"model"::"unet.down_blocks.2.attentions.0.transformer_blocks.6.ff.net.2.bias"> : tensor<1280xf16>
  util.global private @_params.unet.down_blocks.2.attentions.0.transformer_blocks.7.norm1.weight {noinline} = #stream.parameter.named<"model"::"unet.down_blocks.2.attentions.0.transformer_blocks.7.norm1.weight"> : tensor<1280xf16>
  util.global private @_params.unet.down_blocks.2.attentions.0.transformer_blocks.7.norm1.bias {noinline} = #stream.parameter.named<"model"::"unet.down_blocks.2.attentions.0.transformer_blocks.7.norm1.bias"> : tensor<1280xf16>
  util.global private @_params.unet.down_blocks.2.attentions.0.transformer_blocks.7.attn1.to_q.weight {noinline} = #stream.parameter.named<"model"::"unet.down_blocks.2.attentions.0.transformer_blocks.7.attn1.to_q.weight"> : tensor<1280x1280xf16>
  util.global private @_params.unet.down_blocks.2.attentions.0.transformer_blocks.7.attn1.to_k.weight {noinline} = #stream.parameter.named<"model"::"unet.down_blocks.2.attentions.0.transformer_blocks.7.attn1.to_k.weight"> : tensor<1280x1280xf16>
  util.global private @_params.unet.down_blocks.2.attentions.0.transformer_blocks.7.attn1.to_v.weight {noinline} = #stream.parameter.named<"model"::"unet.down_blocks.2.attentions.0.transformer_blocks.7.attn1.to_v.weight"> : tensor<1280x1280xf16>
  util.global private @_params.unet.down_blocks.2.attentions.0.transformer_blocks.7.attn1.to_out.0.weight {noinline} = #stream.parameter.named<"model"::"unet.down_blocks.2.attentions.0.transformer_blocks.7.attn1.to_out.0.weight"> : tensor<1280x1280xf16>
  util.global private @_params.unet.down_blocks.2.attentions.0.transformer_blocks.7.attn1.to_out.0.bias {noinline} = #stream.parameter.named<"model"::"unet.down_blocks.2.attentions.0.transformer_blocks.7.attn1.to_out.0.bias"> : tensor<1280xf16>
  util.global private @_params.unet.down_blocks.2.attentions.0.transformer_blocks.7.norm2.weight {noinline} = #stream.parameter.named<"model"::"unet.down_blocks.2.attentions.0.transformer_blocks.7.norm2.weight"> : tensor<1280xf16>
  util.global private @_params.unet.down_blocks.2.attentions.0.transformer_blocks.7.norm2.bias {noinline} = #stream.parameter.named<"model"::"unet.down_blocks.2.attentions.0.transformer_blocks.7.norm2.bias"> : tensor<1280xf16>
  util.global private @_params.unet.down_blocks.2.attentions.0.transformer_blocks.7.attn2.to_q.weight {noinline} = #stream.parameter.named<"model"::"unet.down_blocks.2.attentions.0.transformer_blocks.7.attn2.to_q.weight"> : tensor<1280x1280xf16>
  util.global private @_params.unet.down_blocks.2.attentions.0.transformer_blocks.7.attn2.to_k.weight {noinline} = #stream.parameter.named<"model"::"unet.down_blocks.2.attentions.0.transformer_blocks.7.attn2.to_k.weight"> : tensor<1280x2048xf16>
  util.global private @_params.unet.down_blocks.2.attentions.0.transformer_blocks.7.attn2.to_v.weight {noinline} = #stream.parameter.named<"model"::"unet.down_blocks.2.attentions.0.transformer_blocks.7.attn2.to_v.weight"> : tensor<1280x2048xf16>
  util.global private @_params.unet.down_blocks.2.attentions.0.transformer_blocks.7.attn2.to_out.0.weight {noinline} = #stream.parameter.named<"model"::"unet.down_blocks.2.attentions.0.transformer_blocks.7.attn2.to_out.0.weight"> : tensor<1280x1280xf16>
  util.global private @_params.unet.down_blocks.2.attentions.0.transformer_blocks.7.attn2.to_out.0.bias {noinline} = #stream.parameter.named<"model"::"unet.down_blocks.2.attentions.0.transformer_blocks.7.attn2.to_out.0.bias"> : tensor<1280xf16>
  util.global private @_params.unet.down_blocks.2.attentions.0.transformer_blocks.7.norm3.weight {noinline} = #stream.parameter.named<"model"::"unet.down_blocks.2.attentions.0.transformer_blocks.7.norm3.weight"> : tensor<1280xf16>
  util.global private @_params.unet.down_blocks.2.attentions.0.transformer_blocks.7.norm3.bias {noinline} = #stream.parameter.named<"model"::"unet.down_blocks.2.attentions.0.transformer_blocks.7.norm3.bias"> : tensor<1280xf16>
  util.global private @_params.unet.down_blocks.2.attentions.0.transformer_blocks.7.ff.net.0.proj.weight {noinline} = #stream.parameter.named<"model"::"unet.down_blocks.2.attentions.0.transformer_blocks.7.ff.net.0.proj.weight"> : tensor<10240x1280xf16>
  util.global private @_params.unet.down_blocks.2.attentions.0.transformer_blocks.7.ff.net.0.proj.bias {noinline} = #stream.parameter.named<"model"::"unet.down_blocks.2.attentions.0.transformer_blocks.7.ff.net.0.proj.bias"> : tensor<10240xf16>
  util.global private @_params.unet.down_blocks.2.attentions.0.transformer_blocks.7.ff.net.2.weight {noinline} = #stream.parameter.named<"model"::"unet.down_blocks.2.attentions.0.transformer_blocks.7.ff.net.2.weight"> : tensor<1280x5120xf16>
  util.global private @_params.unet.down_blocks.2.attentions.0.transformer_blocks.7.ff.net.2.bias {noinline} = #stream.parameter.named<"model"::"unet.down_blocks.2.attentions.0.transformer_blocks.7.ff.net.2.bias"> : tensor<1280xf16>
  util.global private @_params.unet.down_blocks.2.attentions.0.transformer_blocks.8.norm1.weight {noinline} = #stream.parameter.named<"model"::"unet.down_blocks.2.attentions.0.transformer_blocks.8.norm1.weight"> : tensor<1280xf16>
  util.global private @_params.unet.down_blocks.2.attentions.0.transformer_blocks.8.norm1.bias {noinline} = #stream.parameter.named<"model"::"unet.down_blocks.2.attentions.0.transformer_blocks.8.norm1.bias"> : tensor<1280xf16>
  util.global private @_params.unet.down_blocks.2.attentions.0.transformer_blocks.8.attn1.to_q.weight {noinline} = #stream.parameter.named<"model"::"unet.down_blocks.2.attentions.0.transformer_blocks.8.attn1.to_q.weight"> : tensor<1280x1280xf16>
  util.global private @_params.unet.down_blocks.2.attentions.0.transformer_blocks.8.attn1.to_k.weight {noinline} = #stream.parameter.named<"model"::"unet.down_blocks.2.attentions.0.transformer_blocks.8.attn1.to_k.weight"> : tensor<1280x1280xf16>
  util.global private @_params.unet.down_blocks.2.attentions.0.transformer_blocks.8.attn1.to_v.weight {noinline} = #stream.parameter.named<"model"::"unet.down_blocks.2.attentions.0.transformer_blocks.8.attn1.to_v.weight"> : tensor<1280x1280xf16>
  util.global private @_params.unet.down_blocks.2.attentions.0.transformer_blocks.8.attn1.to_out.0.weight {noinline} = #stream.parameter.named<"model"::"unet.down_blocks.2.attentions.0.transformer_blocks.8.attn1.to_out.0.weight"> : tensor<1280x1280xf16>
  util.global private @_params.unet.down_blocks.2.attentions.0.transformer_blocks.8.attn1.to_out.0.bias {noinline} = #stream.parameter.named<"model"::"unet.down_blocks.2.attentions.0.transformer_blocks.8.attn1.to_out.0.bias"> : tensor<1280xf16>
  util.global private @_params.unet.down_blocks.2.attentions.0.transformer_blocks.8.norm2.weight {noinline} = #stream.parameter.named<"model"::"unet.down_blocks.2.attentions.0.transformer_blocks.8.norm2.weight"> : tensor<1280xf16>
  util.global private @_params.unet.down_blocks.2.attentions.0.transformer_blocks.8.norm2.bias {noinline} = #stream.parameter.named<"model"::"unet.down_blocks.2.attentions.0.transformer_blocks.8.norm2.bias"> : tensor<1280xf16>
  util.global private @_params.unet.down_blocks.2.attentions.0.transformer_blocks.8.attn2.to_q.weight {noinline} = #stream.parameter.named<"model"::"unet.down_blocks.2.attentions.0.transformer_blocks.8.attn2.to_q.weight"> : tensor<1280x1280xf16>
  util.global private @_params.unet.down_blocks.2.attentions.0.transformer_blocks.8.attn2.to_k.weight {noinline} = #stream.parameter.named<"model"::"unet.down_blocks.2.attentions.0.transformer_blocks.8.attn2.to_k.weight"> : tensor<1280x2048xf16>
  util.global private @_params.unet.down_blocks.2.attentions.0.transformer_blocks.8.attn2.to_v.weight {noinline} = #stream.parameter.named<"model"::"unet.down_blocks.2.attentions.0.transformer_blocks.8.attn2.to_v.weight"> : tensor<1280x2048xf16>
  util.global private @_params.unet.down_blocks.2.attentions.0.transformer_blocks.8.attn2.to_out.0.weight {noinline} = #stream.parameter.named<"model"::"unet.down_blocks.2.attentions.0.transformer_blocks.8.attn2.to_out.0.weight"> : tensor<1280x1280xf16>
  util.global private @_params.unet.down_blocks.2.attentions.0.transformer_blocks.8.attn2.to_out.0.bias {noinline} = #stream.parameter.named<"model"::"unet.down_blocks.2.attentions.0.transformer_blocks.8.attn2.to_out.0.bias"> : tensor<1280xf16>
  util.global private @_params.unet.down_blocks.2.attentions.0.transformer_blocks.8.norm3.weight {noinline} = #stream.parameter.named<"model"::"unet.down_blocks.2.attentions.0.transformer_blocks.8.norm3.weight"> : tensor<1280xf16>
  util.global private @_params.unet.down_blocks.2.attentions.0.transformer_blocks.8.norm3.bias {noinline} = #stream.parameter.named<"model"::"unet.down_blocks.2.attentions.0.transformer_blocks.8.norm3.bias"> : tensor<1280xf16>
  util.global private @_params.unet.down_blocks.2.attentions.0.transformer_blocks.8.ff.net.0.proj.weight {noinline} = #stream.parameter.named<"model"::"unet.down_blocks.2.attentions.0.transformer_blocks.8.ff.net.0.proj.weight"> : tensor<10240x1280xf16>
  util.global private @_params.unet.down_blocks.2.attentions.0.transformer_blocks.8.ff.net.0.proj.bias {noinline} = #stream.parameter.named<"model"::"unet.down_blocks.2.attentions.0.transformer_blocks.8.ff.net.0.proj.bias"> : tensor<10240xf16>
  util.global private @_params.unet.down_blocks.2.attentions.0.transformer_blocks.8.ff.net.2.weight {noinline} = #stream.parameter.named<"model"::"unet.down_blocks.2.attentions.0.transformer_blocks.8.ff.net.2.weight"> : tensor<1280x5120xf16>
  util.global private @_params.unet.down_blocks.2.attentions.0.transformer_blocks.8.ff.net.2.bias {noinline} = #stream.parameter.named<"model"::"unet.down_blocks.2.attentions.0.transformer_blocks.8.ff.net.2.bias"> : tensor<1280xf16>
  util.global private @_params.unet.down_blocks.2.attentions.0.transformer_blocks.9.norm1.weight {noinline} = #stream.parameter.named<"model"::"unet.down_blocks.2.attentions.0.transformer_blocks.9.norm1.weight"> : tensor<1280xf16>
  util.global private @_params.unet.down_blocks.2.attentions.0.transformer_blocks.9.norm1.bias {noinline} = #stream.parameter.named<"model"::"unet.down_blocks.2.attentions.0.transformer_blocks.9.norm1.bias"> : tensor<1280xf16>
  util.global private @_params.unet.down_blocks.2.attentions.0.transformer_blocks.9.attn1.to_q.weight {noinline} = #stream.parameter.named<"model"::"unet.down_blocks.2.attentions.0.transformer_blocks.9.attn1.to_q.weight"> : tensor<1280x1280xf16>
  util.global private @_params.unet.down_blocks.2.attentions.0.transformer_blocks.9.attn1.to_k.weight {noinline} = #stream.parameter.named<"model"::"unet.down_blocks.2.attentions.0.transformer_blocks.9.attn1.to_k.weight"> : tensor<1280x1280xf16>
  util.global private @_params.unet.down_blocks.2.attentions.0.transformer_blocks.9.attn1.to_v.weight {noinline} = #stream.parameter.named<"model"::"unet.down_blocks.2.attentions.0.transformer_blocks.9.attn1.to_v.weight"> : tensor<1280x1280xf16>
  util.global private @_params.unet.down_blocks.2.attentions.0.transformer_blocks.9.attn1.to_out.0.weight {noinline} = #stream.parameter.named<"model"::"unet.down_blocks.2.attentions.0.transformer_blocks.9.attn1.to_out.0.weight"> : tensor<1280x1280xf16>
  util.global private @_params.unet.down_blocks.2.attentions.0.transformer_blocks.9.attn1.to_out.0.bias {noinline} = #stream.parameter.named<"model"::"unet.down_blocks.2.attentions.0.transformer_blocks.9.attn1.to_out.0.bias"> : tensor<1280xf16>
  util.global private @_params.unet.down_blocks.2.attentions.0.transformer_blocks.9.norm2.weight {noinline} = #stream.parameter.named<"model"::"unet.down_blocks.2.attentions.0.transformer_blocks.9.norm2.weight"> : tensor<1280xf16>
  util.global private @_params.unet.down_blocks.2.attentions.0.transformer_blocks.9.norm2.bias {noinline} = #stream.parameter.named<"model"::"unet.down_blocks.2.attentions.0.transformer_blocks.9.norm2.bias"> : tensor<1280xf16>
  util.global private @_params.unet.down_blocks.2.attentions.0.transformer_blocks.9.attn2.to_q.weight {noinline} = #stream.parameter.named<"model"::"unet.down_blocks.2.attentions.0.transformer_blocks.9.attn2.to_q.weight"> : tensor<1280x1280xf16>
  util.global private @_params.unet.down_blocks.2.attentions.0.transformer_blocks.9.attn2.to_k.weight {noinline} = #stream.parameter.named<"model"::"unet.down_blocks.2.attentions.0.transformer_blocks.9.attn2.to_k.weight"> : tensor<1280x2048xf16>
  util.global private @_params.unet.down_blocks.2.attentions.0.transformer_blocks.9.attn2.to_v.weight {noinline} = #stream.parameter.named<"model"::"unet.down_blocks.2.attentions.0.transformer_blocks.9.attn2.to_v.weight"> : tensor<1280x2048xf16>
  util.global private @_params.unet.down_blocks.2.attentions.0.transformer_blocks.9.attn2.to_out.0.weight {noinline} = #stream.parameter.named<"model"::"unet.down_blocks.2.attentions.0.transformer_blocks.9.attn2.to_out.0.weight"> : tensor<1280x1280xf16>
  util.global private @_params.unet.down_blocks.2.attentions.0.transformer_blocks.9.attn2.to_out.0.bias {noinline} = #stream.parameter.named<"model"::"unet.down_blocks.2.attentions.0.transformer_blocks.9.attn2.to_out.0.bias"> : tensor<1280xf16>
  util.global private @_params.unet.down_blocks.2.attentions.0.transformer_blocks.9.norm3.weight {noinline} = #stream.parameter.named<"model"::"unet.down_blocks.2.attentions.0.transformer_blocks.9.norm3.weight"> : tensor<1280xf16>
  util.global private @_params.unet.down_blocks.2.attentions.0.transformer_blocks.9.norm3.bias {noinline} = #stream.parameter.named<"model"::"unet.down_blocks.2.attentions.0.transformer_blocks.9.norm3.bias"> : tensor<1280xf16>
  util.global private @_params.unet.down_blocks.2.attentions.0.transformer_blocks.9.ff.net.0.proj.weight {noinline} = #stream.parameter.named<"model"::"unet.down_blocks.2.attentions.0.transformer_blocks.9.ff.net.0.proj.weight"> : tensor<10240x1280xf16>
  util.global private @_params.unet.down_blocks.2.attentions.0.transformer_blocks.9.ff.net.0.proj.bias {noinline} = #stream.parameter.named<"model"::"unet.down_blocks.2.attentions.0.transformer_blocks.9.ff.net.0.proj.bias"> : tensor<10240xf16>
  util.global private @_params.unet.down_blocks.2.attentions.0.transformer_blocks.9.ff.net.2.weight {noinline} = #stream.parameter.named<"model"::"unet.down_blocks.2.attentions.0.transformer_blocks.9.ff.net.2.weight"> : tensor<1280x5120xf16>
  util.global private @_params.unet.down_blocks.2.attentions.0.transformer_blocks.9.ff.net.2.bias {noinline} = #stream.parameter.named<"model"::"unet.down_blocks.2.attentions.0.transformer_blocks.9.ff.net.2.bias"> : tensor<1280xf16>
  util.global private @_params.unet.down_blocks.2.attentions.0.proj_out.weight {noinline} = #stream.parameter.named<"model"::"unet.down_blocks.2.attentions.0.proj_out.weight"> : tensor<1280x1280xf16>
  util.global private @_params.unet.down_blocks.2.attentions.0.proj_out.bias {noinline} = #stream.parameter.named<"model"::"unet.down_blocks.2.attentions.0.proj_out.bias"> : tensor<1280xf16>
  util.global private @_params.unet.down_blocks.2.attentions.1.norm.weight {noinline} = #stream.parameter.named<"model"::"unet.down_blocks.2.attentions.1.norm.weight"> : tensor<1280xf16>
  util.global private @_params.unet.down_blocks.2.attentions.1.norm.bias {noinline} = #stream.parameter.named<"model"::"unet.down_blocks.2.attentions.1.norm.bias"> : tensor<1280xf16>
  util.global private @_params.unet.down_blocks.2.attentions.1.proj_in.weight {noinline} = #stream.parameter.named<"model"::"unet.down_blocks.2.attentions.1.proj_in.weight"> : tensor<1280x1280xf16>
  util.global private @_params.unet.down_blocks.2.attentions.1.proj_in.bias {noinline} = #stream.parameter.named<"model"::"unet.down_blocks.2.attentions.1.proj_in.bias"> : tensor<1280xf16>
  util.global private @_params.unet.down_blocks.2.attentions.1.transformer_blocks.0.norm1.weight {noinline} = #stream.parameter.named<"model"::"unet.down_blocks.2.attentions.1.transformer_blocks.0.norm1.weight"> : tensor<1280xf16>
  util.global private @_params.unet.down_blocks.2.attentions.1.transformer_blocks.0.norm1.bias {noinline} = #stream.parameter.named<"model"::"unet.down_blocks.2.attentions.1.transformer_blocks.0.norm1.bias"> : tensor<1280xf16>
  util.global private @_params.unet.down_blocks.2.attentions.1.transformer_blocks.0.attn1.to_q.weight {noinline} = #stream.parameter.named<"model"::"unet.down_blocks.2.attentions.1.transformer_blocks.0.attn1.to_q.weight"> : tensor<1280x1280xf16>
  util.global private @_params.unet.down_blocks.2.attentions.1.transformer_blocks.0.attn1.to_k.weight {noinline} = #stream.parameter.named<"model"::"unet.down_blocks.2.attentions.1.transformer_blocks.0.attn1.to_k.weight"> : tensor<1280x1280xf16>
  util.global private @_params.unet.down_blocks.2.attentions.1.transformer_blocks.0.attn1.to_v.weight {noinline} = #stream.parameter.named<"model"::"unet.down_blocks.2.attentions.1.transformer_blocks.0.attn1.to_v.weight"> : tensor<1280x1280xf16>
  util.global private @_params.unet.down_blocks.2.attentions.1.transformer_blocks.0.attn1.to_out.0.weight {noinline} = #stream.parameter.named<"model"::"unet.down_blocks.2.attentions.1.transformer_blocks.0.attn1.to_out.0.weight"> : tensor<1280x1280xf16>
  util.global private @_params.unet.down_blocks.2.attentions.1.transformer_blocks.0.attn1.to_out.0.bias {noinline} = #stream.parameter.named<"model"::"unet.down_blocks.2.attentions.1.transformer_blocks.0.attn1.to_out.0.bias"> : tensor<1280xf16>
  util.global private @_params.unet.down_blocks.2.attentions.1.transformer_blocks.0.norm2.weight {noinline} = #stream.parameter.named<"model"::"unet.down_blocks.2.attentions.1.transformer_blocks.0.norm2.weight"> : tensor<1280xf16>
  util.global private @_params.unet.down_blocks.2.attentions.1.transformer_blocks.0.norm2.bias {noinline} = #stream.parameter.named<"model"::"unet.down_blocks.2.attentions.1.transformer_blocks.0.norm2.bias"> : tensor<1280xf16>
  util.global private @_params.unet.down_blocks.2.attentions.1.transformer_blocks.0.attn2.to_q.weight {noinline} = #stream.parameter.named<"model"::"unet.down_blocks.2.attentions.1.transformer_blocks.0.attn2.to_q.weight"> : tensor<1280x1280xf16>
  util.global private @_params.unet.down_blocks.2.attentions.1.transformer_blocks.0.attn2.to_k.weight {noinline} = #stream.parameter.named<"model"::"unet.down_blocks.2.attentions.1.transformer_blocks.0.attn2.to_k.weight"> : tensor<1280x2048xf16>
  util.global private @_params.unet.down_blocks.2.attentions.1.transformer_blocks.0.attn2.to_v.weight {noinline} = #stream.parameter.named<"model"::"unet.down_blocks.2.attentions.1.transformer_blocks.0.attn2.to_v.weight"> : tensor<1280x2048xf16>
  util.global private @_params.unet.down_blocks.2.attentions.1.transformer_blocks.0.attn2.to_out.0.weight {noinline} = #stream.parameter.named<"model"::"unet.down_blocks.2.attentions.1.transformer_blocks.0.attn2.to_out.0.weight"> : tensor<1280x1280xf16>
  util.global private @_params.unet.down_blocks.2.attentions.1.transformer_blocks.0.attn2.to_out.0.bias {noinline} = #stream.parameter.named<"model"::"unet.down_blocks.2.attentions.1.transformer_blocks.0.attn2.to_out.0.bias"> : tensor<1280xf16>
  util.global private @_params.unet.down_blocks.2.attentions.1.transformer_blocks.0.norm3.weight {noinline} = #stream.parameter.named<"model"::"unet.down_blocks.2.attentions.1.transformer_blocks.0.norm3.weight"> : tensor<1280xf16>
  util.global private @_params.unet.down_blocks.2.attentions.1.transformer_blocks.0.norm3.bias {noinline} = #stream.parameter.named<"model"::"unet.down_blocks.2.attentions.1.transformer_blocks.0.norm3.bias"> : tensor<1280xf16>
  util.global private @_params.unet.down_blocks.2.attentions.1.transformer_blocks.0.ff.net.0.proj.weight {noinline} = #stream.parameter.named<"model"::"unet.down_blocks.2.attentions.1.transformer_blocks.0.ff.net.0.proj.weight"> : tensor<10240x1280xf16>
  util.global private @_params.unet.down_blocks.2.attentions.1.transformer_blocks.0.ff.net.0.proj.bias {noinline} = #stream.parameter.named<"model"::"unet.down_blocks.2.attentions.1.transformer_blocks.0.ff.net.0.proj.bias"> : tensor<10240xf16>
  util.global private @_params.unet.down_blocks.2.attentions.1.transformer_blocks.0.ff.net.2.weight {noinline} = #stream.parameter.named<"model"::"unet.down_blocks.2.attentions.1.transformer_blocks.0.ff.net.2.weight"> : tensor<1280x5120xf16>
  util.global private @_params.unet.down_blocks.2.attentions.1.transformer_blocks.0.ff.net.2.bias {noinline} = #stream.parameter.named<"model"::"unet.down_blocks.2.attentions.1.transformer_blocks.0.ff.net.2.bias"> : tensor<1280xf16>
  util.global private @_params.unet.down_blocks.2.attentions.1.transformer_blocks.1.norm1.weight {noinline} = #stream.parameter.named<"model"::"unet.down_blocks.2.attentions.1.transformer_blocks.1.norm1.weight"> : tensor<1280xf16>
  util.global private @_params.unet.down_blocks.2.attentions.1.transformer_blocks.1.norm1.bias {noinline} = #stream.parameter.named<"model"::"unet.down_blocks.2.attentions.1.transformer_blocks.1.norm1.bias"> : tensor<1280xf16>
  util.global private @_params.unet.down_blocks.2.attentions.1.transformer_blocks.1.attn1.to_q.weight {noinline} = #stream.parameter.named<"model"::"unet.down_blocks.2.attentions.1.transformer_blocks.1.attn1.to_q.weight"> : tensor<1280x1280xf16>
  util.global private @_params.unet.down_blocks.2.attentions.1.transformer_blocks.1.attn1.to_k.weight {noinline} = #stream.parameter.named<"model"::"unet.down_blocks.2.attentions.1.transformer_blocks.1.attn1.to_k.weight"> : tensor<1280x1280xf16>
  util.global private @_params.unet.down_blocks.2.attentions.1.transformer_blocks.1.attn1.to_v.weight {noinline} = #stream.parameter.named<"model"::"unet.down_blocks.2.attentions.1.transformer_blocks.1.attn1.to_v.weight"> : tensor<1280x1280xf16>
  util.global private @_params.unet.down_blocks.2.attentions.1.transformer_blocks.1.attn1.to_out.0.weight {noinline} = #stream.parameter.named<"model"::"unet.down_blocks.2.attentions.1.transformer_blocks.1.attn1.to_out.0.weight"> : tensor<1280x1280xf16>
  util.global private @_params.unet.down_blocks.2.attentions.1.transformer_blocks.1.attn1.to_out.0.bias {noinline} = #stream.parameter.named<"model"::"unet.down_blocks.2.attentions.1.transformer_blocks.1.attn1.to_out.0.bias"> : tensor<1280xf16>
  util.global private @_params.unet.down_blocks.2.attentions.1.transformer_blocks.1.norm2.weight {noinline} = #stream.parameter.named<"model"::"unet.down_blocks.2.attentions.1.transformer_blocks.1.norm2.weight"> : tensor<1280xf16>
  util.global private @_params.unet.down_blocks.2.attentions.1.transformer_blocks.1.norm2.bias {noinline} = #stream.parameter.named<"model"::"unet.down_blocks.2.attentions.1.transformer_blocks.1.norm2.bias"> : tensor<1280xf16>
  util.global private @_params.unet.down_blocks.2.attentions.1.transformer_blocks.1.attn2.to_q.weight {noinline} = #stream.parameter.named<"model"::"unet.down_blocks.2.attentions.1.transformer_blocks.1.attn2.to_q.weight"> : tensor<1280x1280xf16>
  util.global private @_params.unet.down_blocks.2.attentions.1.transformer_blocks.1.attn2.to_k.weight {noinline} = #stream.parameter.named<"model"::"unet.down_blocks.2.attentions.1.transformer_blocks.1.attn2.to_k.weight"> : tensor<1280x2048xf16>
  util.global private @_params.unet.down_blocks.2.attentions.1.transformer_blocks.1.attn2.to_v.weight {noinline} = #stream.parameter.named<"model"::"unet.down_blocks.2.attentions.1.transformer_blocks.1.attn2.to_v.weight"> : tensor<1280x2048xf16>
  util.global private @_params.unet.down_blocks.2.attentions.1.transformer_blocks.1.attn2.to_out.0.weight {noinline} = #stream.parameter.named<"model"::"unet.down_blocks.2.attentions.1.transformer_blocks.1.attn2.to_out.0.weight"> : tensor<1280x1280xf16>
  util.global private @_params.unet.down_blocks.2.attentions.1.transformer_blocks.1.attn2.to_out.0.bias {noinline} = #stream.parameter.named<"model"::"unet.down_blocks.2.attentions.1.transformer_blocks.1.attn2.to_out.0.bias"> : tensor<1280xf16>
  util.global private @_params.unet.down_blocks.2.attentions.1.transformer_blocks.1.norm3.weight {noinline} = #stream.parameter.named<"model"::"unet.down_blocks.2.attentions.1.transformer_blocks.1.norm3.weight"> : tensor<1280xf16>
  util.global private @_params.unet.down_blocks.2.attentions.1.transformer_blocks.1.norm3.bias {noinline} = #stream.parameter.named<"model"::"unet.down_blocks.2.attentions.1.transformer_blocks.1.norm3.bias"> : tensor<1280xf16>
  util.global private @_params.unet.down_blocks.2.attentions.1.transformer_blocks.1.ff.net.0.proj.weight {noinline} = #stream.parameter.named<"model"::"unet.down_blocks.2.attentions.1.transformer_blocks.1.ff.net.0.proj.weight"> : tensor<10240x1280xf16>
  util.global private @_params.unet.down_blocks.2.attentions.1.transformer_blocks.1.ff.net.0.proj.bias {noinline} = #stream.parameter.named<"model"::"unet.down_blocks.2.attentions.1.transformer_blocks.1.ff.net.0.proj.bias"> : tensor<10240xf16>
  util.global private @_params.unet.down_blocks.2.attentions.1.transformer_blocks.1.ff.net.2.weight {noinline} = #stream.parameter.named<"model"::"unet.down_blocks.2.attentions.1.transformer_blocks.1.ff.net.2.weight"> : tensor<1280x5120xf16>
  util.global private @_params.unet.down_blocks.2.attentions.1.transformer_blocks.1.ff.net.2.bias {noinline} = #stream.parameter.named<"model"::"unet.down_blocks.2.attentions.1.transformer_blocks.1.ff.net.2.bias"> : tensor<1280xf16>
  util.global private @_params.unet.down_blocks.2.attentions.1.transformer_blocks.2.norm1.weight {noinline} = #stream.parameter.named<"model"::"unet.down_blocks.2.attentions.1.transformer_blocks.2.norm1.weight"> : tensor<1280xf16>
  util.global private @_params.unet.down_blocks.2.attentions.1.transformer_blocks.2.norm1.bias {noinline} = #stream.parameter.named<"model"::"unet.down_blocks.2.attentions.1.transformer_blocks.2.norm1.bias"> : tensor<1280xf16>
  util.global private @_params.unet.down_blocks.2.attentions.1.transformer_blocks.2.attn1.to_q.weight {noinline} = #stream.parameter.named<"model"::"unet.down_blocks.2.attentions.1.transformer_blocks.2.attn1.to_q.weight"> : tensor<1280x1280xf16>
  util.global private @_params.unet.down_blocks.2.attentions.1.transformer_blocks.2.attn1.to_k.weight {noinline} = #stream.parameter.named<"model"::"unet.down_blocks.2.attentions.1.transformer_blocks.2.attn1.to_k.weight"> : tensor<1280x1280xf16>
  util.global private @_params.unet.down_blocks.2.attentions.1.transformer_blocks.2.attn1.to_v.weight {noinline} = #stream.parameter.named<"model"::"unet.down_blocks.2.attentions.1.transformer_blocks.2.attn1.to_v.weight"> : tensor<1280x1280xf16>
  util.global private @_params.unet.down_blocks.2.attentions.1.transformer_blocks.2.attn1.to_out.0.weight {noinline} = #stream.parameter.named<"model"::"unet.down_blocks.2.attentions.1.transformer_blocks.2.attn1.to_out.0.weight"> : tensor<1280x1280xf16>
  util.global private @_params.unet.down_blocks.2.attentions.1.transformer_blocks.2.attn1.to_out.0.bias {noinline} = #stream.parameter.named<"model"::"unet.down_blocks.2.attentions.1.transformer_blocks.2.attn1.to_out.0.bias"> : tensor<1280xf16>
  util.global private @_params.unet.down_blocks.2.attentions.1.transformer_blocks.2.norm2.weight {noinline} = #stream.parameter.named<"model"::"unet.down_blocks.2.attentions.1.transformer_blocks.2.norm2.weight"> : tensor<1280xf16>
  util.global private @_params.unet.down_blocks.2.attentions.1.transformer_blocks.2.norm2.bias {noinline} = #stream.parameter.named<"model"::"unet.down_blocks.2.attentions.1.transformer_blocks.2.norm2.bias"> : tensor<1280xf16>
  util.global private @_params.unet.down_blocks.2.attentions.1.transformer_blocks.2.attn2.to_q.weight {noinline} = #stream.parameter.named<"model"::"unet.down_blocks.2.attentions.1.transformer_blocks.2.attn2.to_q.weight"> : tensor<1280x1280xf16>
  util.global private @_params.unet.down_blocks.2.attentions.1.transformer_blocks.2.attn2.to_k.weight {noinline} = #stream.parameter.named<"model"::"unet.down_blocks.2.attentions.1.transformer_blocks.2.attn2.to_k.weight"> : tensor<1280x2048xf16>
  util.global private @_params.unet.down_blocks.2.attentions.1.transformer_blocks.2.attn2.to_v.weight {noinline} = #stream.parameter.named<"model"::"unet.down_blocks.2.attentions.1.transformer_blocks.2.attn2.to_v.weight"> : tensor<1280x2048xf16>
  util.global private @_params.unet.down_blocks.2.attentions.1.transformer_blocks.2.attn2.to_out.0.weight {noinline} = #stream.parameter.named<"model"::"unet.down_blocks.2.attentions.1.transformer_blocks.2.attn2.to_out.0.weight"> : tensor<1280x1280xf16>
  util.global private @_params.unet.down_blocks.2.attentions.1.transformer_blocks.2.attn2.to_out.0.bias {noinline} = #stream.parameter.named<"model"::"unet.down_blocks.2.attentions.1.transformer_blocks.2.attn2.to_out.0.bias"> : tensor<1280xf16>
  util.global private @_params.unet.down_blocks.2.attentions.1.transformer_blocks.2.norm3.weight {noinline} = #stream.parameter.named<"model"::"unet.down_blocks.2.attentions.1.transformer_blocks.2.norm3.weight"> : tensor<1280xf16>
  util.global private @_params.unet.down_blocks.2.attentions.1.transformer_blocks.2.norm3.bias {noinline} = #stream.parameter.named<"model"::"unet.down_blocks.2.attentions.1.transformer_blocks.2.norm3.bias"> : tensor<1280xf16>
  util.global private @_params.unet.down_blocks.2.attentions.1.transformer_blocks.2.ff.net.0.proj.weight {noinline} = #stream.parameter.named<"model"::"unet.down_blocks.2.attentions.1.transformer_blocks.2.ff.net.0.proj.weight"> : tensor<10240x1280xf16>
  util.global private @_params.unet.down_blocks.2.attentions.1.transformer_blocks.2.ff.net.0.proj.bias {noinline} = #stream.parameter.named<"model"::"unet.down_blocks.2.attentions.1.transformer_blocks.2.ff.net.0.proj.bias"> : tensor<10240xf16>
  util.global private @_params.unet.down_blocks.2.attentions.1.transformer_blocks.2.ff.net.2.weight {noinline} = #stream.parameter.named<"model"::"unet.down_blocks.2.attentions.1.transformer_blocks.2.ff.net.2.weight"> : tensor<1280x5120xf16>
  util.global private @_params.unet.down_blocks.2.attentions.1.transformer_blocks.2.ff.net.2.bias {noinline} = #stream.parameter.named<"model"::"unet.down_blocks.2.attentions.1.transformer_blocks.2.ff.net.2.bias"> : tensor<1280xf16>
  util.global private @_params.unet.down_blocks.2.attentions.1.transformer_blocks.3.norm1.weight {noinline} = #stream.parameter.named<"model"::"unet.down_blocks.2.attentions.1.transformer_blocks.3.norm1.weight"> : tensor<1280xf16>
  util.global private @_params.unet.down_blocks.2.attentions.1.transformer_blocks.3.norm1.bias {noinline} = #stream.parameter.named<"model"::"unet.down_blocks.2.attentions.1.transformer_blocks.3.norm1.bias"> : tensor<1280xf16>
  util.global private @_params.unet.down_blocks.2.attentions.1.transformer_blocks.3.attn1.to_q.weight {noinline} = #stream.parameter.named<"model"::"unet.down_blocks.2.attentions.1.transformer_blocks.3.attn1.to_q.weight"> : tensor<1280x1280xf16>
  util.global private @_params.unet.down_blocks.2.attentions.1.transformer_blocks.3.attn1.to_k.weight {noinline} = #stream.parameter.named<"model"::"unet.down_blocks.2.attentions.1.transformer_blocks.3.attn1.to_k.weight"> : tensor<1280x1280xf16>
  util.global private @_params.unet.down_blocks.2.attentions.1.transformer_blocks.3.attn1.to_v.weight {noinline} = #stream.parameter.named<"model"::"unet.down_blocks.2.attentions.1.transformer_blocks.3.attn1.to_v.weight"> : tensor<1280x1280xf16>
  util.global private @_params.unet.down_blocks.2.attentions.1.transformer_blocks.3.attn1.to_out.0.weight {noinline} = #stream.parameter.named<"model"::"unet.down_blocks.2.attentions.1.transformer_blocks.3.attn1.to_out.0.weight"> : tensor<1280x1280xf16>
  util.global private @_params.unet.down_blocks.2.attentions.1.transformer_blocks.3.attn1.to_out.0.bias {noinline} = #stream.parameter.named<"model"::"unet.down_blocks.2.attentions.1.transformer_blocks.3.attn1.to_out.0.bias"> : tensor<1280xf16>
  util.global private @_params.unet.down_blocks.2.attentions.1.transformer_blocks.3.norm2.weight {noinline} = #stream.parameter.named<"model"::"unet.down_blocks.2.attentions.1.transformer_blocks.3.norm2.weight"> : tensor<1280xf16>
  util.global private @_params.unet.down_blocks.2.attentions.1.transformer_blocks.3.norm2.bias {noinline} = #stream.parameter.named<"model"::"unet.down_blocks.2.attentions.1.transformer_blocks.3.norm2.bias"> : tensor<1280xf16>
  util.global private @_params.unet.down_blocks.2.attentions.1.transformer_blocks.3.attn2.to_q.weight {noinline} = #stream.parameter.named<"model"::"unet.down_blocks.2.attentions.1.transformer_blocks.3.attn2.to_q.weight"> : tensor<1280x1280xf16>
  util.global private @_params.unet.down_blocks.2.attentions.1.transformer_blocks.3.attn2.to_k.weight {noinline} = #stream.parameter.named<"model"::"unet.down_blocks.2.attentions.1.transformer_blocks.3.attn2.to_k.weight"> : tensor<1280x2048xf16>
  util.global private @_params.unet.down_blocks.2.attentions.1.transformer_blocks.3.attn2.to_v.weight {noinline} = #stream.parameter.named<"model"::"unet.down_blocks.2.attentions.1.transformer_blocks.3.attn2.to_v.weight"> : tensor<1280x2048xf16>
  util.global private @_params.unet.down_blocks.2.attentions.1.transformer_blocks.3.attn2.to_out.0.weight {noinline} = #stream.parameter.named<"model"::"unet.down_blocks.2.attentions.1.transformer_blocks.3.attn2.to_out.0.weight"> : tensor<1280x1280xf16>
  util.global private @_params.unet.down_blocks.2.attentions.1.transformer_blocks.3.attn2.to_out.0.bias {noinline} = #stream.parameter.named<"model"::"unet.down_blocks.2.attentions.1.transformer_blocks.3.attn2.to_out.0.bias"> : tensor<1280xf16>
  util.global private @_params.unet.down_blocks.2.attentions.1.transformer_blocks.3.norm3.weight {noinline} = #stream.parameter.named<"model"::"unet.down_blocks.2.attentions.1.transformer_blocks.3.norm3.weight"> : tensor<1280xf16>
  util.global private @_params.unet.down_blocks.2.attentions.1.transformer_blocks.3.norm3.bias {noinline} = #stream.parameter.named<"model"::"unet.down_blocks.2.attentions.1.transformer_blocks.3.norm3.bias"> : tensor<1280xf16>
  util.global private @_params.unet.down_blocks.2.attentions.1.transformer_blocks.3.ff.net.0.proj.weight {noinline} = #stream.parameter.named<"model"::"unet.down_blocks.2.attentions.1.transformer_blocks.3.ff.net.0.proj.weight"> : tensor<10240x1280xf16>
  util.global private @_params.unet.down_blocks.2.attentions.1.transformer_blocks.3.ff.net.0.proj.bias {noinline} = #stream.parameter.named<"model"::"unet.down_blocks.2.attentions.1.transformer_blocks.3.ff.net.0.proj.bias"> : tensor<10240xf16>
  util.global private @_params.unet.down_blocks.2.attentions.1.transformer_blocks.3.ff.net.2.weight {noinline} = #stream.parameter.named<"model"::"unet.down_blocks.2.attentions.1.transformer_blocks.3.ff.net.2.weight"> : tensor<1280x5120xf16>
  util.global private @_params.unet.down_blocks.2.attentions.1.transformer_blocks.3.ff.net.2.bias {noinline} = #stream.parameter.named<"model"::"unet.down_blocks.2.attentions.1.transformer_blocks.3.ff.net.2.bias"> : tensor<1280xf16>
  util.global private @_params.unet.down_blocks.2.attentions.1.transformer_blocks.4.norm1.weight {noinline} = #stream.parameter.named<"model"::"unet.down_blocks.2.attentions.1.transformer_blocks.4.norm1.weight"> : tensor<1280xf16>
  util.global private @_params.unet.down_blocks.2.attentions.1.transformer_blocks.4.norm1.bias {noinline} = #stream.parameter.named<"model"::"unet.down_blocks.2.attentions.1.transformer_blocks.4.norm1.bias"> : tensor<1280xf16>
  util.global private @_params.unet.down_blocks.2.attentions.1.transformer_blocks.4.attn1.to_q.weight {noinline} = #stream.parameter.named<"model"::"unet.down_blocks.2.attentions.1.transformer_blocks.4.attn1.to_q.weight"> : tensor<1280x1280xf16>
  util.global private @_params.unet.down_blocks.2.attentions.1.transformer_blocks.4.attn1.to_k.weight {noinline} = #stream.parameter.named<"model"::"unet.down_blocks.2.attentions.1.transformer_blocks.4.attn1.to_k.weight"> : tensor<1280x1280xf16>
  util.global private @_params.unet.down_blocks.2.attentions.1.transformer_blocks.4.attn1.to_v.weight {noinline} = #stream.parameter.named<"model"::"unet.down_blocks.2.attentions.1.transformer_blocks.4.attn1.to_v.weight"> : tensor<1280x1280xf16>
  util.global private @_params.unet.down_blocks.2.attentions.1.transformer_blocks.4.attn1.to_out.0.weight {noinline} = #stream.parameter.named<"model"::"unet.down_blocks.2.attentions.1.transformer_blocks.4.attn1.to_out.0.weight"> : tensor<1280x1280xf16>
  util.global private @_params.unet.down_blocks.2.attentions.1.transformer_blocks.4.attn1.to_out.0.bias {noinline} = #stream.parameter.named<"model"::"unet.down_blocks.2.attentions.1.transformer_blocks.4.attn1.to_out.0.bias"> : tensor<1280xf16>
  util.global private @_params.unet.down_blocks.2.attentions.1.transformer_blocks.4.norm2.weight {noinline} = #stream.parameter.named<"model"::"unet.down_blocks.2.attentions.1.transformer_blocks.4.norm2.weight"> : tensor<1280xf16>
  util.global private @_params.unet.down_blocks.2.attentions.1.transformer_blocks.4.norm2.bias {noinline} = #stream.parameter.named<"model"::"unet.down_blocks.2.attentions.1.transformer_blocks.4.norm2.bias"> : tensor<1280xf16>
  util.global private @_params.unet.down_blocks.2.attentions.1.transformer_blocks.4.attn2.to_q.weight {noinline} = #stream.parameter.named<"model"::"unet.down_blocks.2.attentions.1.transformer_blocks.4.attn2.to_q.weight"> : tensor<1280x1280xf16>
  util.global private @_params.unet.down_blocks.2.attentions.1.transformer_blocks.4.attn2.to_k.weight {noinline} = #stream.parameter.named<"model"::"unet.down_blocks.2.attentions.1.transformer_blocks.4.attn2.to_k.weight"> : tensor<1280x2048xf16>
  util.global private @_params.unet.down_blocks.2.attentions.1.transformer_blocks.4.attn2.to_v.weight {noinline} = #stream.parameter.named<"model"::"unet.down_blocks.2.attentions.1.transformer_blocks.4.attn2.to_v.weight"> : tensor<1280x2048xf16>
  util.global private @_params.unet.down_blocks.2.attentions.1.transformer_blocks.4.attn2.to_out.0.weight {noinline} = #stream.parameter.named<"model"::"unet.down_blocks.2.attentions.1.transformer_blocks.4.attn2.to_out.0.weight"> : tensor<1280x1280xf16>
  util.global private @_params.unet.down_blocks.2.attentions.1.transformer_blocks.4.attn2.to_out.0.bias {noinline} = #stream.parameter.named<"model"::"unet.down_blocks.2.attentions.1.transformer_blocks.4.attn2.to_out.0.bias"> : tensor<1280xf16>
  util.global private @_params.unet.down_blocks.2.attentions.1.transformer_blocks.4.norm3.weight {noinline} = #stream.parameter.named<"model"::"unet.down_blocks.2.attentions.1.transformer_blocks.4.norm3.weight"> : tensor<1280xf16>
  util.global private @_params.unet.down_blocks.2.attentions.1.transformer_blocks.4.norm3.bias {noinline} = #stream.parameter.named<"model"::"unet.down_blocks.2.attentions.1.transformer_blocks.4.norm3.bias"> : tensor<1280xf16>
  util.global private @_params.unet.down_blocks.2.attentions.1.transformer_blocks.4.ff.net.0.proj.weight {noinline} = #stream.parameter.named<"model"::"unet.down_blocks.2.attentions.1.transformer_blocks.4.ff.net.0.proj.weight"> : tensor<10240x1280xf16>
  util.global private @_params.unet.down_blocks.2.attentions.1.transformer_blocks.4.ff.net.0.proj.bias {noinline} = #stream.parameter.named<"model"::"unet.down_blocks.2.attentions.1.transformer_blocks.4.ff.net.0.proj.bias"> : tensor<10240xf16>
  util.global private @_params.unet.down_blocks.2.attentions.1.transformer_blocks.4.ff.net.2.weight {noinline} = #stream.parameter.named<"model"::"unet.down_blocks.2.attentions.1.transformer_blocks.4.ff.net.2.weight"> : tensor<1280x5120xf16>
  util.global private @_params.unet.down_blocks.2.attentions.1.transformer_blocks.4.ff.net.2.bias {noinline} = #stream.parameter.named<"model"::"unet.down_blocks.2.attentions.1.transformer_blocks.4.ff.net.2.bias"> : tensor<1280xf16>
  util.global private @_params.unet.down_blocks.2.attentions.1.transformer_blocks.5.norm1.weight {noinline} = #stream.parameter.named<"model"::"unet.down_blocks.2.attentions.1.transformer_blocks.5.norm1.weight"> : tensor<1280xf16>
  util.global private @_params.unet.down_blocks.2.attentions.1.transformer_blocks.5.norm1.bias {noinline} = #stream.parameter.named<"model"::"unet.down_blocks.2.attentions.1.transformer_blocks.5.norm1.bias"> : tensor<1280xf16>
  util.global private @_params.unet.down_blocks.2.attentions.1.transformer_blocks.5.attn1.to_q.weight {noinline} = #stream.parameter.named<"model"::"unet.down_blocks.2.attentions.1.transformer_blocks.5.attn1.to_q.weight"> : tensor<1280x1280xf16>
  util.global private @_params.unet.down_blocks.2.attentions.1.transformer_blocks.5.attn1.to_k.weight {noinline} = #stream.parameter.named<"model"::"unet.down_blocks.2.attentions.1.transformer_blocks.5.attn1.to_k.weight"> : tensor<1280x1280xf16>
  util.global private @_params.unet.down_blocks.2.attentions.1.transformer_blocks.5.attn1.to_v.weight {noinline} = #stream.parameter.named<"model"::"unet.down_blocks.2.attentions.1.transformer_blocks.5.attn1.to_v.weight"> : tensor<1280x1280xf16>
  util.global private @_params.unet.down_blocks.2.attentions.1.transformer_blocks.5.attn1.to_out.0.weight {noinline} = #stream.parameter.named<"model"::"unet.down_blocks.2.attentions.1.transformer_blocks.5.attn1.to_out.0.weight"> : tensor<1280x1280xf16>
  util.global private @_params.unet.down_blocks.2.attentions.1.transformer_blocks.5.attn1.to_out.0.bias {noinline} = #stream.parameter.named<"model"::"unet.down_blocks.2.attentions.1.transformer_blocks.5.attn1.to_out.0.bias"> : tensor<1280xf16>
  util.global private @_params.unet.down_blocks.2.attentions.1.transformer_blocks.5.norm2.weight {noinline} = #stream.parameter.named<"model"::"unet.down_blocks.2.attentions.1.transformer_blocks.5.norm2.weight"> : tensor<1280xf16>
  util.global private @_params.unet.down_blocks.2.attentions.1.transformer_blocks.5.norm2.bias {noinline} = #stream.parameter.named<"model"::"unet.down_blocks.2.attentions.1.transformer_blocks.5.norm2.bias"> : tensor<1280xf16>
  util.global private @_params.unet.down_blocks.2.attentions.1.transformer_blocks.5.attn2.to_q.weight {noinline} = #stream.parameter.named<"model"::"unet.down_blocks.2.attentions.1.transformer_blocks.5.attn2.to_q.weight"> : tensor<1280x1280xf16>
  util.global private @_params.unet.down_blocks.2.attentions.1.transformer_blocks.5.attn2.to_k.weight {noinline} = #stream.parameter.named<"model"::"unet.down_blocks.2.attentions.1.transformer_blocks.5.attn2.to_k.weight"> : tensor<1280x2048xf16>
  util.global private @_params.unet.down_blocks.2.attentions.1.transformer_blocks.5.attn2.to_v.weight {noinline} = #stream.parameter.named<"model"::"unet.down_blocks.2.attentions.1.transformer_blocks.5.attn2.to_v.weight"> : tensor<1280x2048xf16>
  util.global private @_params.unet.down_blocks.2.attentions.1.transformer_blocks.5.attn2.to_out.0.weight {noinline} = #stream.parameter.named<"model"::"unet.down_blocks.2.attentions.1.transformer_blocks.5.attn2.to_out.0.weight"> : tensor<1280x1280xf16>
  util.global private @_params.unet.down_blocks.2.attentions.1.transformer_blocks.5.attn2.to_out.0.bias {noinline} = #stream.parameter.named<"model"::"unet.down_blocks.2.attentions.1.transformer_blocks.5.attn2.to_out.0.bias"> : tensor<1280xf16>
  util.global private @_params.unet.down_blocks.2.attentions.1.transformer_blocks.5.norm3.weight {noinline} = #stream.parameter.named<"model"::"unet.down_blocks.2.attentions.1.transformer_blocks.5.norm3.weight"> : tensor<1280xf16>
  util.global private @_params.unet.down_blocks.2.attentions.1.transformer_blocks.5.norm3.bias {noinline} = #stream.parameter.named<"model"::"unet.down_blocks.2.attentions.1.transformer_blocks.5.norm3.bias"> : tensor<1280xf16>
  util.global private @_params.unet.down_blocks.2.attentions.1.transformer_blocks.5.ff.net.0.proj.weight {noinline} = #stream.parameter.named<"model"::"unet.down_blocks.2.attentions.1.transformer_blocks.5.ff.net.0.proj.weight"> : tensor<10240x1280xf16>
  util.global private @_params.unet.down_blocks.2.attentions.1.transformer_blocks.5.ff.net.0.proj.bias {noinline} = #stream.parameter.named<"model"::"unet.down_blocks.2.attentions.1.transformer_blocks.5.ff.net.0.proj.bias"> : tensor<10240xf16>
  util.global private @_params.unet.down_blocks.2.attentions.1.transformer_blocks.5.ff.net.2.weight {noinline} = #stream.parameter.named<"model"::"unet.down_blocks.2.attentions.1.transformer_blocks.5.ff.net.2.weight"> : tensor<1280x5120xf16>
  util.global private @_params.unet.down_blocks.2.attentions.1.transformer_blocks.5.ff.net.2.bias {noinline} = #stream.parameter.named<"model"::"unet.down_blocks.2.attentions.1.transformer_blocks.5.ff.net.2.bias"> : tensor<1280xf16>
  util.global private @_params.unet.down_blocks.2.attentions.1.transformer_blocks.6.norm1.weight {noinline} = #stream.parameter.named<"model"::"unet.down_blocks.2.attentions.1.transformer_blocks.6.norm1.weight"> : tensor<1280xf16>
  util.global private @_params.unet.down_blocks.2.attentions.1.transformer_blocks.6.norm1.bias {noinline} = #stream.parameter.named<"model"::"unet.down_blocks.2.attentions.1.transformer_blocks.6.norm1.bias"> : tensor<1280xf16>
  util.global private @_params.unet.down_blocks.2.attentions.1.transformer_blocks.6.attn1.to_q.weight {noinline} = #stream.parameter.named<"model"::"unet.down_blocks.2.attentions.1.transformer_blocks.6.attn1.to_q.weight"> : tensor<1280x1280xf16>
  util.global private @_params.unet.down_blocks.2.attentions.1.transformer_blocks.6.attn1.to_k.weight {noinline} = #stream.parameter.named<"model"::"unet.down_blocks.2.attentions.1.transformer_blocks.6.attn1.to_k.weight"> : tensor<1280x1280xf16>
  util.global private @_params.unet.down_blocks.2.attentions.1.transformer_blocks.6.attn1.to_v.weight {noinline} = #stream.parameter.named<"model"::"unet.down_blocks.2.attentions.1.transformer_blocks.6.attn1.to_v.weight"> : tensor<1280x1280xf16>
  util.global private @_params.unet.down_blocks.2.attentions.1.transformer_blocks.6.attn1.to_out.0.weight {noinline} = #stream.parameter.named<"model"::"unet.down_blocks.2.attentions.1.transformer_blocks.6.attn1.to_out.0.weight"> : tensor<1280x1280xf16>
  util.global private @_params.unet.down_blocks.2.attentions.1.transformer_blocks.6.attn1.to_out.0.bias {noinline} = #stream.parameter.named<"model"::"unet.down_blocks.2.attentions.1.transformer_blocks.6.attn1.to_out.0.bias"> : tensor<1280xf16>
  util.global private @_params.unet.down_blocks.2.attentions.1.transformer_blocks.6.norm2.weight {noinline} = #stream.parameter.named<"model"::"unet.down_blocks.2.attentions.1.transformer_blocks.6.norm2.weight"> : tensor<1280xf16>
  util.global private @_params.unet.down_blocks.2.attentions.1.transformer_blocks.6.norm2.bias {noinline} = #stream.parameter.named<"model"::"unet.down_blocks.2.attentions.1.transformer_blocks.6.norm2.bias"> : tensor<1280xf16>
  util.global private @_params.unet.down_blocks.2.attentions.1.transformer_blocks.6.attn2.to_q.weight {noinline} = #stream.parameter.named<"model"::"unet.down_blocks.2.attentions.1.transformer_blocks.6.attn2.to_q.weight"> : tensor<1280x1280xf16>
  util.global private @_params.unet.down_blocks.2.attentions.1.transformer_blocks.6.attn2.to_k.weight {noinline} = #stream.parameter.named<"model"::"unet.down_blocks.2.attentions.1.transformer_blocks.6.attn2.to_k.weight"> : tensor<1280x2048xf16>
  util.global private @_params.unet.down_blocks.2.attentions.1.transformer_blocks.6.attn2.to_v.weight {noinline} = #stream.parameter.named<"model"::"unet.down_blocks.2.attentions.1.transformer_blocks.6.attn2.to_v.weight"> : tensor<1280x2048xf16>
  util.global private @_params.unet.down_blocks.2.attentions.1.transformer_blocks.6.attn2.to_out.0.weight {noinline} = #stream.parameter.named<"model"::"unet.down_blocks.2.attentions.1.transformer_blocks.6.attn2.to_out.0.weight"> : tensor<1280x1280xf16>
  util.global private @_params.unet.down_blocks.2.attentions.1.transformer_blocks.6.attn2.to_out.0.bias {noinline} = #stream.parameter.named<"model"::"unet.down_blocks.2.attentions.1.transformer_blocks.6.attn2.to_out.0.bias"> : tensor<1280xf16>
  util.global private @_params.unet.down_blocks.2.attentions.1.transformer_blocks.6.norm3.weight {noinline} = #stream.parameter.named<"model"::"unet.down_blocks.2.attentions.1.transformer_blocks.6.norm3.weight"> : tensor<1280xf16>
  util.global private @_params.unet.down_blocks.2.attentions.1.transformer_blocks.6.norm3.bias {noinline} = #stream.parameter.named<"model"::"unet.down_blocks.2.attentions.1.transformer_blocks.6.norm3.bias"> : tensor<1280xf16>
  util.global private @_params.unet.down_blocks.2.attentions.1.transformer_blocks.6.ff.net.0.proj.weight {noinline} = #stream.parameter.named<"model"::"unet.down_blocks.2.attentions.1.transformer_blocks.6.ff.net.0.proj.weight"> : tensor<10240x1280xf16>
  util.global private @_params.unet.down_blocks.2.attentions.1.transformer_blocks.6.ff.net.0.proj.bias {noinline} = #stream.parameter.named<"model"::"unet.down_blocks.2.attentions.1.transformer_blocks.6.ff.net.0.proj.bias"> : tensor<10240xf16>
  util.global private @_params.unet.down_blocks.2.attentions.1.transformer_blocks.6.ff.net.2.weight {noinline} = #stream.parameter.named<"model"::"unet.down_blocks.2.attentions.1.transformer_blocks.6.ff.net.2.weight"> : tensor<1280x5120xf16>
  util.global private @_params.unet.down_blocks.2.attentions.1.transformer_blocks.6.ff.net.2.bias {noinline} = #stream.parameter.named<"model"::"unet.down_blocks.2.attentions.1.transformer_blocks.6.ff.net.2.bias"> : tensor<1280xf16>
  util.global private @_params.unet.down_blocks.2.attentions.1.transformer_blocks.7.norm1.weight {noinline} = #stream.parameter.named<"model"::"unet.down_blocks.2.attentions.1.transformer_blocks.7.norm1.weight"> : tensor<1280xf16>
  util.global private @_params.unet.down_blocks.2.attentions.1.transformer_blocks.7.norm1.bias {noinline} = #stream.parameter.named<"model"::"unet.down_blocks.2.attentions.1.transformer_blocks.7.norm1.bias"> : tensor<1280xf16>
  util.global private @_params.unet.down_blocks.2.attentions.1.transformer_blocks.7.attn1.to_q.weight {noinline} = #stream.parameter.named<"model"::"unet.down_blocks.2.attentions.1.transformer_blocks.7.attn1.to_q.weight"> : tensor<1280x1280xf16>
  util.global private @_params.unet.down_blocks.2.attentions.1.transformer_blocks.7.attn1.to_k.weight {noinline} = #stream.parameter.named<"model"::"unet.down_blocks.2.attentions.1.transformer_blocks.7.attn1.to_k.weight"> : tensor<1280x1280xf16>
  util.global private @_params.unet.down_blocks.2.attentions.1.transformer_blocks.7.attn1.to_v.weight {noinline} = #stream.parameter.named<"model"::"unet.down_blocks.2.attentions.1.transformer_blocks.7.attn1.to_v.weight"> : tensor<1280x1280xf16>
  util.global private @_params.unet.down_blocks.2.attentions.1.transformer_blocks.7.attn1.to_out.0.weight {noinline} = #stream.parameter.named<"model"::"unet.down_blocks.2.attentions.1.transformer_blocks.7.attn1.to_out.0.weight"> : tensor<1280x1280xf16>
  util.global private @_params.unet.down_blocks.2.attentions.1.transformer_blocks.7.attn1.to_out.0.bias {noinline} = #stream.parameter.named<"model"::"unet.down_blocks.2.attentions.1.transformer_blocks.7.attn1.to_out.0.bias"> : tensor<1280xf16>
  util.global private @_params.unet.down_blocks.2.attentions.1.transformer_blocks.7.norm2.weight {noinline} = #stream.parameter.named<"model"::"unet.down_blocks.2.attentions.1.transformer_blocks.7.norm2.weight"> : tensor<1280xf16>
  util.global private @_params.unet.down_blocks.2.attentions.1.transformer_blocks.7.norm2.bias {noinline} = #stream.parameter.named<"model"::"unet.down_blocks.2.attentions.1.transformer_blocks.7.norm2.bias"> : tensor<1280xf16>
  util.global private @_params.unet.down_blocks.2.attentions.1.transformer_blocks.7.attn2.to_q.weight {noinline} = #stream.parameter.named<"model"::"unet.down_blocks.2.attentions.1.transformer_blocks.7.attn2.to_q.weight"> : tensor<1280x1280xf16>
  util.global private @_params.unet.down_blocks.2.attentions.1.transformer_blocks.7.attn2.to_k.weight {noinline} = #stream.parameter.named<"model"::"unet.down_blocks.2.attentions.1.transformer_blocks.7.attn2.to_k.weight"> : tensor<1280x2048xf16>
  util.global private @_params.unet.down_blocks.2.attentions.1.transformer_blocks.7.attn2.to_v.weight {noinline} = #stream.parameter.named<"model"::"unet.down_blocks.2.attentions.1.transformer_blocks.7.attn2.to_v.weight"> : tensor<1280x2048xf16>
  util.global private @_params.unet.down_blocks.2.attentions.1.transformer_blocks.7.attn2.to_out.0.weight {noinline} = #stream.parameter.named<"model"::"unet.down_blocks.2.attentions.1.transformer_blocks.7.attn2.to_out.0.weight"> : tensor<1280x1280xf16>
  util.global private @_params.unet.down_blocks.2.attentions.1.transformer_blocks.7.attn2.to_out.0.bias {noinline} = #stream.parameter.named<"model"::"unet.down_blocks.2.attentions.1.transformer_blocks.7.attn2.to_out.0.bias"> : tensor<1280xf16>
  util.global private @_params.unet.down_blocks.2.attentions.1.transformer_blocks.7.norm3.weight {noinline} = #stream.parameter.named<"model"::"unet.down_blocks.2.attentions.1.transformer_blocks.7.norm3.weight"> : tensor<1280xf16>
  util.global private @_params.unet.down_blocks.2.attentions.1.transformer_blocks.7.norm3.bias {noinline} = #stream.parameter.named<"model"::"unet.down_blocks.2.attentions.1.transformer_blocks.7.norm3.bias"> : tensor<1280xf16>
  util.global private @_params.unet.down_blocks.2.attentions.1.transformer_blocks.7.ff.net.0.proj.weight {noinline} = #stream.parameter.named<"model"::"unet.down_blocks.2.attentions.1.transformer_blocks.7.ff.net.0.proj.weight"> : tensor<10240x1280xf16>
  util.global private @_params.unet.down_blocks.2.attentions.1.transformer_blocks.7.ff.net.0.proj.bias {noinline} = #stream.parameter.named<"model"::"unet.down_blocks.2.attentions.1.transformer_blocks.7.ff.net.0.proj.bias"> : tensor<10240xf16>
  util.global private @_params.unet.down_blocks.2.attentions.1.transformer_blocks.7.ff.net.2.weight {noinline} = #stream.parameter.named<"model"::"unet.down_blocks.2.attentions.1.transformer_blocks.7.ff.net.2.weight"> : tensor<1280x5120xf16>
  util.global private @_params.unet.down_blocks.2.attentions.1.transformer_blocks.7.ff.net.2.bias {noinline} = #stream.parameter.named<"model"::"unet.down_blocks.2.attentions.1.transformer_blocks.7.ff.net.2.bias"> : tensor<1280xf16>
  util.global private @_params.unet.down_blocks.2.attentions.1.transformer_blocks.8.norm1.weight {noinline} = #stream.parameter.named<"model"::"unet.down_blocks.2.attentions.1.transformer_blocks.8.norm1.weight"> : tensor<1280xf16>
  util.global private @_params.unet.down_blocks.2.attentions.1.transformer_blocks.8.norm1.bias {noinline} = #stream.parameter.named<"model"::"unet.down_blocks.2.attentions.1.transformer_blocks.8.norm1.bias"> : tensor<1280xf16>
  util.global private @_params.unet.down_blocks.2.attentions.1.transformer_blocks.8.attn1.to_q.weight {noinline} = #stream.parameter.named<"model"::"unet.down_blocks.2.attentions.1.transformer_blocks.8.attn1.to_q.weight"> : tensor<1280x1280xf16>
  util.global private @_params.unet.down_blocks.2.attentions.1.transformer_blocks.8.attn1.to_k.weight {noinline} = #stream.parameter.named<"model"::"unet.down_blocks.2.attentions.1.transformer_blocks.8.attn1.to_k.weight"> : tensor<1280x1280xf16>
  util.global private @_params.unet.down_blocks.2.attentions.1.transformer_blocks.8.attn1.to_v.weight {noinline} = #stream.parameter.named<"model"::"unet.down_blocks.2.attentions.1.transformer_blocks.8.attn1.to_v.weight"> : tensor<1280x1280xf16>
  util.global private @_params.unet.down_blocks.2.attentions.1.transformer_blocks.8.attn1.to_out.0.weight {noinline} = #stream.parameter.named<"model"::"unet.down_blocks.2.attentions.1.transformer_blocks.8.attn1.to_out.0.weight"> : tensor<1280x1280xf16>
  util.global private @_params.unet.down_blocks.2.attentions.1.transformer_blocks.8.attn1.to_out.0.bias {noinline} = #stream.parameter.named<"model"::"unet.down_blocks.2.attentions.1.transformer_blocks.8.attn1.to_out.0.bias"> : tensor<1280xf16>
  util.global private @_params.unet.down_blocks.2.attentions.1.transformer_blocks.8.norm2.weight {noinline} = #stream.parameter.named<"model"::"unet.down_blocks.2.attentions.1.transformer_blocks.8.norm2.weight"> : tensor<1280xf16>
  util.global private @_params.unet.down_blocks.2.attentions.1.transformer_blocks.8.norm2.bias {noinline} = #stream.parameter.named<"model"::"unet.down_blocks.2.attentions.1.transformer_blocks.8.norm2.bias"> : tensor<1280xf16>
  util.global private @_params.unet.down_blocks.2.attentions.1.transformer_blocks.8.attn2.to_q.weight {noinline} = #stream.parameter.named<"model"::"unet.down_blocks.2.attentions.1.transformer_blocks.8.attn2.to_q.weight"> : tensor<1280x1280xf16>
  util.global private @_params.unet.down_blocks.2.attentions.1.transformer_blocks.8.attn2.to_k.weight {noinline} = #stream.parameter.named<"model"::"unet.down_blocks.2.attentions.1.transformer_blocks.8.attn2.to_k.weight"> : tensor<1280x2048xf16>
  util.global private @_params.unet.down_blocks.2.attentions.1.transformer_blocks.8.attn2.to_v.weight {noinline} = #stream.parameter.named<"model"::"unet.down_blocks.2.attentions.1.transformer_blocks.8.attn2.to_v.weight"> : tensor<1280x2048xf16>
  util.global private @_params.unet.down_blocks.2.attentions.1.transformer_blocks.8.attn2.to_out.0.weight {noinline} = #stream.parameter.named<"model"::"unet.down_blocks.2.attentions.1.transformer_blocks.8.attn2.to_out.0.weight"> : tensor<1280x1280xf16>
  util.global private @_params.unet.down_blocks.2.attentions.1.transformer_blocks.8.attn2.to_out.0.bias {noinline} = #stream.parameter.named<"model"::"unet.down_blocks.2.attentions.1.transformer_blocks.8.attn2.to_out.0.bias"> : tensor<1280xf16>
  util.global private @_params.unet.down_blocks.2.attentions.1.transformer_blocks.8.norm3.weight {noinline} = #stream.parameter.named<"model"::"unet.down_blocks.2.attentions.1.transformer_blocks.8.norm3.weight"> : tensor<1280xf16>
  util.global private @_params.unet.down_blocks.2.attentions.1.transformer_blocks.8.norm3.bias {noinline} = #stream.parameter.named<"model"::"unet.down_blocks.2.attentions.1.transformer_blocks.8.norm3.bias"> : tensor<1280xf16>
  util.global private @_params.unet.down_blocks.2.attentions.1.transformer_blocks.8.ff.net.0.proj.weight {noinline} = #stream.parameter.named<"model"::"unet.down_blocks.2.attentions.1.transformer_blocks.8.ff.net.0.proj.weight"> : tensor<10240x1280xf16>
  util.global private @_params.unet.down_blocks.2.attentions.1.transformer_blocks.8.ff.net.0.proj.bias {noinline} = #stream.parameter.named<"model"::"unet.down_blocks.2.attentions.1.transformer_blocks.8.ff.net.0.proj.bias"> : tensor<10240xf16>
  util.global private @_params.unet.down_blocks.2.attentions.1.transformer_blocks.8.ff.net.2.weight {noinline} = #stream.parameter.named<"model"::"unet.down_blocks.2.attentions.1.transformer_blocks.8.ff.net.2.weight"> : tensor<1280x5120xf16>
  util.global private @_params.unet.down_blocks.2.attentions.1.transformer_blocks.8.ff.net.2.bias {noinline} = #stream.parameter.named<"model"::"unet.down_blocks.2.attentions.1.transformer_blocks.8.ff.net.2.bias"> : tensor<1280xf16>
  util.global private @_params.unet.down_blocks.2.attentions.1.transformer_blocks.9.norm1.weight {noinline} = #stream.parameter.named<"model"::"unet.down_blocks.2.attentions.1.transformer_blocks.9.norm1.weight"> : tensor<1280xf16>
  util.global private @_params.unet.down_blocks.2.attentions.1.transformer_blocks.9.norm1.bias {noinline} = #stream.parameter.named<"model"::"unet.down_blocks.2.attentions.1.transformer_blocks.9.norm1.bias"> : tensor<1280xf16>
  util.global private @_params.unet.down_blocks.2.attentions.1.transformer_blocks.9.attn1.to_q.weight {noinline} = #stream.parameter.named<"model"::"unet.down_blocks.2.attentions.1.transformer_blocks.9.attn1.to_q.weight"> : tensor<1280x1280xf16>
  util.global private @_params.unet.down_blocks.2.attentions.1.transformer_blocks.9.attn1.to_k.weight {noinline} = #stream.parameter.named<"model"::"unet.down_blocks.2.attentions.1.transformer_blocks.9.attn1.to_k.weight"> : tensor<1280x1280xf16>
  util.global private @_params.unet.down_blocks.2.attentions.1.transformer_blocks.9.attn1.to_v.weight {noinline} = #stream.parameter.named<"model"::"unet.down_blocks.2.attentions.1.transformer_blocks.9.attn1.to_v.weight"> : tensor<1280x1280xf16>
  util.global private @_params.unet.down_blocks.2.attentions.1.transformer_blocks.9.attn1.to_out.0.weight {noinline} = #stream.parameter.named<"model"::"unet.down_blocks.2.attentions.1.transformer_blocks.9.attn1.to_out.0.weight"> : tensor<1280x1280xf16>
  util.global private @_params.unet.down_blocks.2.attentions.1.transformer_blocks.9.attn1.to_out.0.bias {noinline} = #stream.parameter.named<"model"::"unet.down_blocks.2.attentions.1.transformer_blocks.9.attn1.to_out.0.bias"> : tensor<1280xf16>
  util.global private @_params.unet.down_blocks.2.attentions.1.transformer_blocks.9.norm2.weight {noinline} = #stream.parameter.named<"model"::"unet.down_blocks.2.attentions.1.transformer_blocks.9.norm2.weight"> : tensor<1280xf16>
  util.global private @_params.unet.down_blocks.2.attentions.1.transformer_blocks.9.norm2.bias {noinline} = #stream.parameter.named<"model"::"unet.down_blocks.2.attentions.1.transformer_blocks.9.norm2.bias"> : tensor<1280xf16>
  util.global private @_params.unet.down_blocks.2.attentions.1.transformer_blocks.9.attn2.to_q.weight {noinline} = #stream.parameter.named<"model"::"unet.down_blocks.2.attentions.1.transformer_blocks.9.attn2.to_q.weight"> : tensor<1280x1280xf16>
  util.global private @_params.unet.down_blocks.2.attentions.1.transformer_blocks.9.attn2.to_k.weight {noinline} = #stream.parameter.named<"model"::"unet.down_blocks.2.attentions.1.transformer_blocks.9.attn2.to_k.weight"> : tensor<1280x2048xf16>
  util.global private @_params.unet.down_blocks.2.attentions.1.transformer_blocks.9.attn2.to_v.weight {noinline} = #stream.parameter.named<"model"::"unet.down_blocks.2.attentions.1.transformer_blocks.9.attn2.to_v.weight"> : tensor<1280x2048xf16>
  util.global private @_params.unet.down_blocks.2.attentions.1.transformer_blocks.9.attn2.to_out.0.weight {noinline} = #stream.parameter.named<"model"::"unet.down_blocks.2.attentions.1.transformer_blocks.9.attn2.to_out.0.weight"> : tensor<1280x1280xf16>
  util.global private @_params.unet.down_blocks.2.attentions.1.transformer_blocks.9.attn2.to_out.0.bias {noinline} = #stream.parameter.named<"model"::"unet.down_blocks.2.attentions.1.transformer_blocks.9.attn2.to_out.0.bias"> : tensor<1280xf16>
  util.global private @_params.unet.down_blocks.2.attentions.1.transformer_blocks.9.norm3.weight {noinline} = #stream.parameter.named<"model"::"unet.down_blocks.2.attentions.1.transformer_blocks.9.norm3.weight"> : tensor<1280xf16>
  util.global private @_params.unet.down_blocks.2.attentions.1.transformer_blocks.9.norm3.bias {noinline} = #stream.parameter.named<"model"::"unet.down_blocks.2.attentions.1.transformer_blocks.9.norm3.bias"> : tensor<1280xf16>
  util.global private @_params.unet.down_blocks.2.attentions.1.transformer_blocks.9.ff.net.0.proj.weight {noinline} = #stream.parameter.named<"model"::"unet.down_blocks.2.attentions.1.transformer_blocks.9.ff.net.0.proj.weight"> : tensor<10240x1280xf16>
  util.global private @_params.unet.down_blocks.2.attentions.1.transformer_blocks.9.ff.net.0.proj.bias {noinline} = #stream.parameter.named<"model"::"unet.down_blocks.2.attentions.1.transformer_blocks.9.ff.net.0.proj.bias"> : tensor<10240xf16>
  util.global private @_params.unet.down_blocks.2.attentions.1.transformer_blocks.9.ff.net.2.weight {noinline} = #stream.parameter.named<"model"::"unet.down_blocks.2.attentions.1.transformer_blocks.9.ff.net.2.weight"> : tensor<1280x5120xf16>
  util.global private @_params.unet.down_blocks.2.attentions.1.transformer_blocks.9.ff.net.2.bias {noinline} = #stream.parameter.named<"model"::"unet.down_blocks.2.attentions.1.transformer_blocks.9.ff.net.2.bias"> : tensor<1280xf16>
  util.global private @_params.unet.down_blocks.2.attentions.1.proj_out.weight {noinline} = #stream.parameter.named<"model"::"unet.down_blocks.2.attentions.1.proj_out.weight"> : tensor<1280x1280xf16>
  util.global private @_params.unet.down_blocks.2.attentions.1.proj_out.bias {noinline} = #stream.parameter.named<"model"::"unet.down_blocks.2.attentions.1.proj_out.bias"> : tensor<1280xf16>
  util.global private @_params.unet.down_blocks.2.resnets.0.norm1.weight {noinline} = #stream.parameter.named<"model"::"unet.down_blocks.2.resnets.0.norm1.weight"> : tensor<640xf16>
  util.global private @_params.unet.down_blocks.2.resnets.0.norm1.bias {noinline} = #stream.parameter.named<"model"::"unet.down_blocks.2.resnets.0.norm1.bias"> : tensor<640xf16>
  util.global private @_params.unet.down_blocks.2.resnets.0.conv1.weight {noinline} = #stream.parameter.named<"model"::"unet.down_blocks.2.resnets.0.conv1.weight"> : tensor<1280x640x3x3xf16>
  util.global private @_params.unet.down_blocks.2.resnets.0.conv1.bias {noinline} = #stream.parameter.named<"model"::"unet.down_blocks.2.resnets.0.conv1.bias"> : tensor<1280xf16>
  util.global private @_params.unet.down_blocks.2.resnets.0.time_emb_proj.weight {noinline} = #stream.parameter.named<"model"::"unet.down_blocks.2.resnets.0.time_emb_proj.weight"> : tensor<1280x1280xf16>
  util.global private @_params.unet.down_blocks.2.resnets.0.time_emb_proj.bias {noinline} = #stream.parameter.named<"model"::"unet.down_blocks.2.resnets.0.time_emb_proj.bias"> : tensor<1280xf16>
  util.global private @_params.unet.down_blocks.2.resnets.0.norm2.weight {noinline} = #stream.parameter.named<"model"::"unet.down_blocks.2.resnets.0.norm2.weight"> : tensor<1280xf16>
  util.global private @_params.unet.down_blocks.2.resnets.0.norm2.bias {noinline} = #stream.parameter.named<"model"::"unet.down_blocks.2.resnets.0.norm2.bias"> : tensor<1280xf16>
  util.global private @_params.unet.down_blocks.2.resnets.0.conv2.weight {noinline} = #stream.parameter.named<"model"::"unet.down_blocks.2.resnets.0.conv2.weight"> : tensor<1280x1280x3x3xf16>
  util.global private @_params.unet.down_blocks.2.resnets.0.conv2.bias {noinline} = #stream.parameter.named<"model"::"unet.down_blocks.2.resnets.0.conv2.bias"> : tensor<1280xf16>
  util.global private @_params.unet.down_blocks.2.resnets.0.conv_shortcut.weight {noinline} = #stream.parameter.named<"model"::"unet.down_blocks.2.resnets.0.conv_shortcut.weight"> : tensor<1280x640x1x1xf16>
  util.global private @_params.unet.down_blocks.2.resnets.0.conv_shortcut.bias {noinline} = #stream.parameter.named<"model"::"unet.down_blocks.2.resnets.0.conv_shortcut.bias"> : tensor<1280xf16>
  util.global private @_params.unet.down_blocks.2.resnets.1.norm1.weight {noinline} = #stream.parameter.named<"model"::"unet.down_blocks.2.resnets.1.norm1.weight"> : tensor<1280xf16>
  util.global private @_params.unet.down_blocks.2.resnets.1.norm1.bias {noinline} = #stream.parameter.named<"model"::"unet.down_blocks.2.resnets.1.norm1.bias"> : tensor<1280xf16>
  util.global private @_params.unet.down_blocks.2.resnets.1.conv1.weight {noinline} = #stream.parameter.named<"model"::"unet.down_blocks.2.resnets.1.conv1.weight"> : tensor<1280x1280x3x3xf16>
  util.global private @_params.unet.down_blocks.2.resnets.1.conv1.bias {noinline} = #stream.parameter.named<"model"::"unet.down_blocks.2.resnets.1.conv1.bias"> : tensor<1280xf16>
  util.global private @_params.unet.down_blocks.2.resnets.1.time_emb_proj.weight {noinline} = #stream.parameter.named<"model"::"unet.down_blocks.2.resnets.1.time_emb_proj.weight"> : tensor<1280x1280xf16>
  util.global private @_params.unet.down_blocks.2.resnets.1.time_emb_proj.bias {noinline} = #stream.parameter.named<"model"::"unet.down_blocks.2.resnets.1.time_emb_proj.bias"> : tensor<1280xf16>
  util.global private @_params.unet.down_blocks.2.resnets.1.norm2.weight {noinline} = #stream.parameter.named<"model"::"unet.down_blocks.2.resnets.1.norm2.weight"> : tensor<1280xf16>
  util.global private @_params.unet.down_blocks.2.resnets.1.norm2.bias {noinline} = #stream.parameter.named<"model"::"unet.down_blocks.2.resnets.1.norm2.bias"> : tensor<1280xf16>
  util.global private @_params.unet.down_blocks.2.resnets.1.conv2.weight {noinline} = #stream.parameter.named<"model"::"unet.down_blocks.2.resnets.1.conv2.weight"> : tensor<1280x1280x3x3xf16>
  util.global private @_params.unet.down_blocks.2.resnets.1.conv2.bias {noinline} = #stream.parameter.named<"model"::"unet.down_blocks.2.resnets.1.conv2.bias"> : tensor<1280xf16>
  util.global private @_params.unet.up_blocks.0.attentions.0.norm.weight {noinline} = #stream.parameter.named<"model"::"unet.up_blocks.0.attentions.0.norm.weight"> : tensor<1280xf16>
  util.global private @_params.unet.up_blocks.0.attentions.0.norm.bias {noinline} = #stream.parameter.named<"model"::"unet.up_blocks.0.attentions.0.norm.bias"> : tensor<1280xf16>
  util.global private @_params.unet.up_blocks.0.attentions.0.proj_in.weight {noinline} = #stream.parameter.named<"model"::"unet.up_blocks.0.attentions.0.proj_in.weight"> : tensor<1280x1280xf16>
  util.global private @_params.unet.up_blocks.0.attentions.0.proj_in.bias {noinline} = #stream.parameter.named<"model"::"unet.up_blocks.0.attentions.0.proj_in.bias"> : tensor<1280xf16>
  util.global private @_params.unet.up_blocks.0.attentions.0.transformer_blocks.0.norm1.weight {noinline} = #stream.parameter.named<"model"::"unet.up_blocks.0.attentions.0.transformer_blocks.0.norm1.weight"> : tensor<1280xf16>
  util.global private @_params.unet.up_blocks.0.attentions.0.transformer_blocks.0.norm1.bias {noinline} = #stream.parameter.named<"model"::"unet.up_blocks.0.attentions.0.transformer_blocks.0.norm1.bias"> : tensor<1280xf16>
  util.global private @_params.unet.up_blocks.0.attentions.0.transformer_blocks.0.attn1.to_q.weight {noinline} = #stream.parameter.named<"model"::"unet.up_blocks.0.attentions.0.transformer_blocks.0.attn1.to_q.weight"> : tensor<1280x1280xf16>
  util.global private @_params.unet.up_blocks.0.attentions.0.transformer_blocks.0.attn1.to_k.weight {noinline} = #stream.parameter.named<"model"::"unet.up_blocks.0.attentions.0.transformer_blocks.0.attn1.to_k.weight"> : tensor<1280x1280xf16>
  util.global private @_params.unet.up_blocks.0.attentions.0.transformer_blocks.0.attn1.to_v.weight {noinline} = #stream.parameter.named<"model"::"unet.up_blocks.0.attentions.0.transformer_blocks.0.attn1.to_v.weight"> : tensor<1280x1280xf16>
  util.global private @_params.unet.up_blocks.0.attentions.0.transformer_blocks.0.attn1.to_out.0.weight {noinline} = #stream.parameter.named<"model"::"unet.up_blocks.0.attentions.0.transformer_blocks.0.attn1.to_out.0.weight"> : tensor<1280x1280xf16>
  util.global private @_params.unet.up_blocks.0.attentions.0.transformer_blocks.0.attn1.to_out.0.bias {noinline} = #stream.parameter.named<"model"::"unet.up_blocks.0.attentions.0.transformer_blocks.0.attn1.to_out.0.bias"> : tensor<1280xf16>
  util.global private @_params.unet.up_blocks.0.attentions.0.transformer_blocks.0.norm2.weight {noinline} = #stream.parameter.named<"model"::"unet.up_blocks.0.attentions.0.transformer_blocks.0.norm2.weight"> : tensor<1280xf16>
  util.global private @_params.unet.up_blocks.0.attentions.0.transformer_blocks.0.norm2.bias {noinline} = #stream.parameter.named<"model"::"unet.up_blocks.0.attentions.0.transformer_blocks.0.norm2.bias"> : tensor<1280xf16>
  util.global private @_params.unet.up_blocks.0.attentions.0.transformer_blocks.0.attn2.to_q.weight {noinline} = #stream.parameter.named<"model"::"unet.up_blocks.0.attentions.0.transformer_blocks.0.attn2.to_q.weight"> : tensor<1280x1280xf16>
  util.global private @_params.unet.up_blocks.0.attentions.0.transformer_blocks.0.attn2.to_k.weight {noinline} = #stream.parameter.named<"model"::"unet.up_blocks.0.attentions.0.transformer_blocks.0.attn2.to_k.weight"> : tensor<1280x2048xf16>
  util.global private @_params.unet.up_blocks.0.attentions.0.transformer_blocks.0.attn2.to_v.weight {noinline} = #stream.parameter.named<"model"::"unet.up_blocks.0.attentions.0.transformer_blocks.0.attn2.to_v.weight"> : tensor<1280x2048xf16>
  util.global private @_params.unet.up_blocks.0.attentions.0.transformer_blocks.0.attn2.to_out.0.weight {noinline} = #stream.parameter.named<"model"::"unet.up_blocks.0.attentions.0.transformer_blocks.0.attn2.to_out.0.weight"> : tensor<1280x1280xf16>
  util.global private @_params.unet.up_blocks.0.attentions.0.transformer_blocks.0.attn2.to_out.0.bias {noinline} = #stream.parameter.named<"model"::"unet.up_blocks.0.attentions.0.transformer_blocks.0.attn2.to_out.0.bias"> : tensor<1280xf16>
  util.global private @_params.unet.up_blocks.0.attentions.0.transformer_blocks.0.norm3.weight {noinline} = #stream.parameter.named<"model"::"unet.up_blocks.0.attentions.0.transformer_blocks.0.norm3.weight"> : tensor<1280xf16>
  util.global private @_params.unet.up_blocks.0.attentions.0.transformer_blocks.0.norm3.bias {noinline} = #stream.parameter.named<"model"::"unet.up_blocks.0.attentions.0.transformer_blocks.0.norm3.bias"> : tensor<1280xf16>
  util.global private @_params.unet.up_blocks.0.attentions.0.transformer_blocks.0.ff.net.0.proj.weight {noinline} = #stream.parameter.named<"model"::"unet.up_blocks.0.attentions.0.transformer_blocks.0.ff.net.0.proj.weight"> : tensor<10240x1280xf16>
  util.global private @_params.unet.up_blocks.0.attentions.0.transformer_blocks.0.ff.net.0.proj.bias {noinline} = #stream.parameter.named<"model"::"unet.up_blocks.0.attentions.0.transformer_blocks.0.ff.net.0.proj.bias"> : tensor<10240xf16>
  util.global private @_params.unet.up_blocks.0.attentions.0.transformer_blocks.0.ff.net.2.weight {noinline} = #stream.parameter.named<"model"::"unet.up_blocks.0.attentions.0.transformer_blocks.0.ff.net.2.weight"> : tensor<1280x5120xf16>
  util.global private @_params.unet.up_blocks.0.attentions.0.transformer_blocks.0.ff.net.2.bias {noinline} = #stream.parameter.named<"model"::"unet.up_blocks.0.attentions.0.transformer_blocks.0.ff.net.2.bias"> : tensor<1280xf16>
  util.global private @_params.unet.up_blocks.0.attentions.0.transformer_blocks.1.norm1.weight {noinline} = #stream.parameter.named<"model"::"unet.up_blocks.0.attentions.0.transformer_blocks.1.norm1.weight"> : tensor<1280xf16>
  util.global private @_params.unet.up_blocks.0.attentions.0.transformer_blocks.1.norm1.bias {noinline} = #stream.parameter.named<"model"::"unet.up_blocks.0.attentions.0.transformer_blocks.1.norm1.bias"> : tensor<1280xf16>
  util.global private @_params.unet.up_blocks.0.attentions.0.transformer_blocks.1.attn1.to_q.weight {noinline} = #stream.parameter.named<"model"::"unet.up_blocks.0.attentions.0.transformer_blocks.1.attn1.to_q.weight"> : tensor<1280x1280xf16>
  util.global private @_params.unet.up_blocks.0.attentions.0.transformer_blocks.1.attn1.to_k.weight {noinline} = #stream.parameter.named<"model"::"unet.up_blocks.0.attentions.0.transformer_blocks.1.attn1.to_k.weight"> : tensor<1280x1280xf16>
  util.global private @_params.unet.up_blocks.0.attentions.0.transformer_blocks.1.attn1.to_v.weight {noinline} = #stream.parameter.named<"model"::"unet.up_blocks.0.attentions.0.transformer_blocks.1.attn1.to_v.weight"> : tensor<1280x1280xf16>
  util.global private @_params.unet.up_blocks.0.attentions.0.transformer_blocks.1.attn1.to_out.0.weight {noinline} = #stream.parameter.named<"model"::"unet.up_blocks.0.attentions.0.transformer_blocks.1.attn1.to_out.0.weight"> : tensor<1280x1280xf16>
  util.global private @_params.unet.up_blocks.0.attentions.0.transformer_blocks.1.attn1.to_out.0.bias {noinline} = #stream.parameter.named<"model"::"unet.up_blocks.0.attentions.0.transformer_blocks.1.attn1.to_out.0.bias"> : tensor<1280xf16>
  util.global private @_params.unet.up_blocks.0.attentions.0.transformer_blocks.1.norm2.weight {noinline} = #stream.parameter.named<"model"::"unet.up_blocks.0.attentions.0.transformer_blocks.1.norm2.weight"> : tensor<1280xf16>
  util.global private @_params.unet.up_blocks.0.attentions.0.transformer_blocks.1.norm2.bias {noinline} = #stream.parameter.named<"model"::"unet.up_blocks.0.attentions.0.transformer_blocks.1.norm2.bias"> : tensor<1280xf16>
  util.global private @_params.unet.up_blocks.0.attentions.0.transformer_blocks.1.attn2.to_q.weight {noinline} = #stream.parameter.named<"model"::"unet.up_blocks.0.attentions.0.transformer_blocks.1.attn2.to_q.weight"> : tensor<1280x1280xf16>
  util.global private @_params.unet.up_blocks.0.attentions.0.transformer_blocks.1.attn2.to_k.weight {noinline} = #stream.parameter.named<"model"::"unet.up_blocks.0.attentions.0.transformer_blocks.1.attn2.to_k.weight"> : tensor<1280x2048xf16>
  util.global private @_params.unet.up_blocks.0.attentions.0.transformer_blocks.1.attn2.to_v.weight {noinline} = #stream.parameter.named<"model"::"unet.up_blocks.0.attentions.0.transformer_blocks.1.attn2.to_v.weight"> : tensor<1280x2048xf16>
  util.global private @_params.unet.up_blocks.0.attentions.0.transformer_blocks.1.attn2.to_out.0.weight {noinline} = #stream.parameter.named<"model"::"unet.up_blocks.0.attentions.0.transformer_blocks.1.attn2.to_out.0.weight"> : tensor<1280x1280xf16>
  util.global private @_params.unet.up_blocks.0.attentions.0.transformer_blocks.1.attn2.to_out.0.bias {noinline} = #stream.parameter.named<"model"::"unet.up_blocks.0.attentions.0.transformer_blocks.1.attn2.to_out.0.bias"> : tensor<1280xf16>
  util.global private @_params.unet.up_blocks.0.attentions.0.transformer_blocks.1.norm3.weight {noinline} = #stream.parameter.named<"model"::"unet.up_blocks.0.attentions.0.transformer_blocks.1.norm3.weight"> : tensor<1280xf16>
  util.global private @_params.unet.up_blocks.0.attentions.0.transformer_blocks.1.norm3.bias {noinline} = #stream.parameter.named<"model"::"unet.up_blocks.0.attentions.0.transformer_blocks.1.norm3.bias"> : tensor<1280xf16>
  util.global private @_params.unet.up_blocks.0.attentions.0.transformer_blocks.1.ff.net.0.proj.weight {noinline} = #stream.parameter.named<"model"::"unet.up_blocks.0.attentions.0.transformer_blocks.1.ff.net.0.proj.weight"> : tensor<10240x1280xf16>
  util.global private @_params.unet.up_blocks.0.attentions.0.transformer_blocks.1.ff.net.0.proj.bias {noinline} = #stream.parameter.named<"model"::"unet.up_blocks.0.attentions.0.transformer_blocks.1.ff.net.0.proj.bias"> : tensor<10240xf16>
  util.global private @_params.unet.up_blocks.0.attentions.0.transformer_blocks.1.ff.net.2.weight {noinline} = #stream.parameter.named<"model"::"unet.up_blocks.0.attentions.0.transformer_blocks.1.ff.net.2.weight"> : tensor<1280x5120xf16>
  util.global private @_params.unet.up_blocks.0.attentions.0.transformer_blocks.1.ff.net.2.bias {noinline} = #stream.parameter.named<"model"::"unet.up_blocks.0.attentions.0.transformer_blocks.1.ff.net.2.bias"> : tensor<1280xf16>
  util.global private @_params.unet.up_blocks.0.attentions.0.transformer_blocks.2.norm1.weight {noinline} = #stream.parameter.named<"model"::"unet.up_blocks.0.attentions.0.transformer_blocks.2.norm1.weight"> : tensor<1280xf16>
  util.global private @_params.unet.up_blocks.0.attentions.0.transformer_blocks.2.norm1.bias {noinline} = #stream.parameter.named<"model"::"unet.up_blocks.0.attentions.0.transformer_blocks.2.norm1.bias"> : tensor<1280xf16>
  util.global private @_params.unet.up_blocks.0.attentions.0.transformer_blocks.2.attn1.to_q.weight {noinline} = #stream.parameter.named<"model"::"unet.up_blocks.0.attentions.0.transformer_blocks.2.attn1.to_q.weight"> : tensor<1280x1280xf16>
  util.global private @_params.unet.up_blocks.0.attentions.0.transformer_blocks.2.attn1.to_k.weight {noinline} = #stream.parameter.named<"model"::"unet.up_blocks.0.attentions.0.transformer_blocks.2.attn1.to_k.weight"> : tensor<1280x1280xf16>
  util.global private @_params.unet.up_blocks.0.attentions.0.transformer_blocks.2.attn1.to_v.weight {noinline} = #stream.parameter.named<"model"::"unet.up_blocks.0.attentions.0.transformer_blocks.2.attn1.to_v.weight"> : tensor<1280x1280xf16>
  util.global private @_params.unet.up_blocks.0.attentions.0.transformer_blocks.2.attn1.to_out.0.weight {noinline} = #stream.parameter.named<"model"::"unet.up_blocks.0.attentions.0.transformer_blocks.2.attn1.to_out.0.weight"> : tensor<1280x1280xf16>
  util.global private @_params.unet.up_blocks.0.attentions.0.transformer_blocks.2.attn1.to_out.0.bias {noinline} = #stream.parameter.named<"model"::"unet.up_blocks.0.attentions.0.transformer_blocks.2.attn1.to_out.0.bias"> : tensor<1280xf16>
  util.global private @_params.unet.up_blocks.0.attentions.0.transformer_blocks.2.norm2.weight {noinline} = #stream.parameter.named<"model"::"unet.up_blocks.0.attentions.0.transformer_blocks.2.norm2.weight"> : tensor<1280xf16>
  util.global private @_params.unet.up_blocks.0.attentions.0.transformer_blocks.2.norm2.bias {noinline} = #stream.parameter.named<"model"::"unet.up_blocks.0.attentions.0.transformer_blocks.2.norm2.bias"> : tensor<1280xf16>
  util.global private @_params.unet.up_blocks.0.attentions.0.transformer_blocks.2.attn2.to_q.weight {noinline} = #stream.parameter.named<"model"::"unet.up_blocks.0.attentions.0.transformer_blocks.2.attn2.to_q.weight"> : tensor<1280x1280xf16>
  util.global private @_params.unet.up_blocks.0.attentions.0.transformer_blocks.2.attn2.to_k.weight {noinline} = #stream.parameter.named<"model"::"unet.up_blocks.0.attentions.0.transformer_blocks.2.attn2.to_k.weight"> : tensor<1280x2048xf16>
  util.global private @_params.unet.up_blocks.0.attentions.0.transformer_blocks.2.attn2.to_v.weight {noinline} = #stream.parameter.named<"model"::"unet.up_blocks.0.attentions.0.transformer_blocks.2.attn2.to_v.weight"> : tensor<1280x2048xf16>
  util.global private @_params.unet.up_blocks.0.attentions.0.transformer_blocks.2.attn2.to_out.0.weight {noinline} = #stream.parameter.named<"model"::"unet.up_blocks.0.attentions.0.transformer_blocks.2.attn2.to_out.0.weight"> : tensor<1280x1280xf16>
  util.global private @_params.unet.up_blocks.0.attentions.0.transformer_blocks.2.attn2.to_out.0.bias {noinline} = #stream.parameter.named<"model"::"unet.up_blocks.0.attentions.0.transformer_blocks.2.attn2.to_out.0.bias"> : tensor<1280xf16>
  util.global private @_params.unet.up_blocks.0.attentions.0.transformer_blocks.2.norm3.weight {noinline} = #stream.parameter.named<"model"::"unet.up_blocks.0.attentions.0.transformer_blocks.2.norm3.weight"> : tensor<1280xf16>
  util.global private @_params.unet.up_blocks.0.attentions.0.transformer_blocks.2.norm3.bias {noinline} = #stream.parameter.named<"model"::"unet.up_blocks.0.attentions.0.transformer_blocks.2.norm3.bias"> : tensor<1280xf16>
  util.global private @_params.unet.up_blocks.0.attentions.0.transformer_blocks.2.ff.net.0.proj.weight {noinline} = #stream.parameter.named<"model"::"unet.up_blocks.0.attentions.0.transformer_blocks.2.ff.net.0.proj.weight"> : tensor<10240x1280xf16>
  util.global private @_params.unet.up_blocks.0.attentions.0.transformer_blocks.2.ff.net.0.proj.bias {noinline} = #stream.parameter.named<"model"::"unet.up_blocks.0.attentions.0.transformer_blocks.2.ff.net.0.proj.bias"> : tensor<10240xf16>
  util.global private @_params.unet.up_blocks.0.attentions.0.transformer_blocks.2.ff.net.2.weight {noinline} = #stream.parameter.named<"model"::"unet.up_blocks.0.attentions.0.transformer_blocks.2.ff.net.2.weight"> : tensor<1280x5120xf16>
  util.global private @_params.unet.up_blocks.0.attentions.0.transformer_blocks.2.ff.net.2.bias {noinline} = #stream.parameter.named<"model"::"unet.up_blocks.0.attentions.0.transformer_blocks.2.ff.net.2.bias"> : tensor<1280xf16>
…
    %17199 = torch.aten.add.Tensor %17184, %17198, %int1 : !torch.vtensor<[2,320,128,128],f16>, !torch.vtensor<[2,320,1,1],f16>, !torch.int -> !torch.vtensor<[2,320,128,128],f16>
    %17200 = torch.prim.ListConstruct %int2, %int32, %int10, %int16384 : (!torch.int, !torch.int, !torch.int, !torch.int) -> !torch.list<int>
    %17201 = torch.aten.view %17199, %17200 : !torch.vtensor<[2,320,128,128],f16>, !torch.list<int> -> !torch.vtensor<[2,32,10,16384],f16>
    %17202 = torch.prims.convert_element_type %17201, %int6 : !torch.vtensor<[2,32,10,16384],f16>, !torch.int -> !torch.vtensor<[2,32,10,16384],f32>
    %17203 = torch.prim.ListConstruct %int2, %int3 : (!torch.int, !torch.int) -> !torch.list<int>
    %result0_503, %result1_504 = torch.aten.var_mean.correction %17202, %17203, %int0, %true : !torch.vtensor<[2,32,10,16384],f32>, !torch.list<int>, !torch.int, !torch.bool -> !torch.vtensor<[2,32,1,1],f32>, !torch.vtensor<[2,32,1,1],f32>
    %17204 = torch.aten.add.Scalar %result0_503, %float1.000000e-05, %int1 : !torch.vtensor<[2,32,1,1],f32>, !torch.float, !torch.int -> !torch.vtensor<[2,32,1,1],f32>
    %17205 = torch.aten.rsqrt %17204 : !torch.vtensor<[2,32,1,1],f32> -> !torch.vtensor<[2,32,1,1],f32>
    %17206 = torch.aten.sub.Tensor %17201, %result1_504, %int1 : !torch.vtensor<[2,32,10,16384],f16>, !torch.vtensor<[2,32,1,1],f32>, !torch.int -> !torch.vtensor<[2,32,10,16384],f32>
    %17207 = torch.aten.mul.Tensor %17206, %17205 : !torch.vtensor<[2,32,10,16384],f32>, !torch.vtensor<[2,32,1,1],f32> -> !torch.vtensor<[2,32,10,16384],f32>
    %17208 = torch.prim.ListConstruct %int2, %int320, %int128, %int128 : (!torch.int, !torch.int, !torch.int, !torch.int) -> !torch.list<int>
    %17209 = torch.aten.view %17207, %17208 : !torch.vtensor<[2,32,10,16384],f32>, !torch.list<int> -> !torch.vtensor<[2,320,128,128],f32>
    %_params.unet.up_blocks.2.resnets.0.norm2.bias = util.global.load @_params.unet.up_blocks.2.resnets.0.norm2.bias : tensor<320xf16>
    %17210 = torch_c.from_builtin_tensor %_params.unet.up_blocks.2.resnets.0.norm2.bias : tensor<320xf16> -> !torch.vtensor<[320],f16>
    %17211 = torch.aten.unsqueeze %17210, %int0 : !torch.vtensor<[320],f16>, !torch.int -> !torch.vtensor<[1,320],f16>
    %17212 = torch.aten.unsqueeze %17211, %int2 : !torch.vtensor<[1,320],f16>, !torch.int -> !torch.vtensor<[1,320,1],f16>
    %17213 = torch.aten.unsqueeze %17212, %int3 : !torch.vtensor<[1,320,1],f16>, !torch.int -> !torch.vtensor<[1,320,1,1],f16>
    %_params.unet.up_blocks.2.resnets.0.norm2.weight = util.global.load @_params.unet.up_blocks.2.resnets.0.norm2.weight : tensor<320xf16>
    %17214 = torch_c.from_builtin_tensor %_params.unet.up_blocks.2.resnets.0.norm2.weight : tensor<320xf16> -> !torch.vtensor<[320],f16>
    %17215 = torch.aten.unsqueeze %17214, %int0 : !torch.vtensor<[320],f16>, !torch.int -> !torch.vtensor<[1,320],f16>
    %17216 = torch.aten.unsqueeze %17215, %int2 : !torch.vtensor<[1,320],f16>, !torch.int -> !torch.vtensor<[1,320,1],f16>
    %17217 = torch.aten.unsqueeze %17216, %int3 : !torch.vtensor<[1,320,1],f16>, !torch.int -> !torch.vtensor<[1,320,1,1],f16>
    %17218 = torch.aten.mul.Tensor %17209, %17217 : !torch.vtensor<[2,320,128,128],f32>, !torch.vtensor<[1,320,1,1],f16> -> !torch.vtensor<[2,320,128,128],f32>
    %17219 = torch.aten.add.Tensor %17218, %17213, %int1 : !torch.vtensor<[2,320,128,128],f32>, !torch.vtensor<[1,320,1,1],f16>, !torch.int -> !torch.vtensor<[2,320,128,128],f32>
    %17220 = torch.prims.convert_element_type %17219, %int5 : !torch.vtensor<[2,320,128,128],f32>, !torch.int -> !torch.vtensor<[2,320,128,128],f16>
    %17221 = torch.prims.convert_element_type %result1_504, %int5 : !torch.vtensor<[2,32,1,1],f32>, !torch.int -> !torch.vtensor<[2,32,1,1],f16>
    %17222 = torch.prims.convert_element_type %17205, %int5 : !torch.vtensor<[2,32,1,1],f32>, !torch.int -> !torch.vtensor<[2,32,1,1],f16>
    %17223 = torch.prim.ListConstruct %int3 : (!torch.int) -> !torch.list<int>
    %17224 = torch.prims.squeeze %17221, %17223 : !torch.vtensor<[2,32,1,1],f16>, !torch.list<int> -> !torch.vtensor<[2,32,1],f16>
    %17225 = torch.prim.ListConstruct %int2 : (!torch.int) -> !torch.list<int>
    %17226 = torch.prims.squeeze %17224, %17225 : !torch.vtensor<[2,32,1],f16>, !torch.list<int> -> !torch.vtensor<[2,32],f16>
    %17227 = torch.prim.ListConstruct %int3 : (!torch.int) -> !torch.list<int>
    %17228 = torch.prims.squeeze %17222, %17227 : !torch.vtensor<[2,32,1,1],f16>, !torch.list<int> -> !torch.vtensor<[2,32,1],f16>
    %17229 = torch.prim.ListConstruct %int2 : (!torch.int) -> !torch.list<int>
    %17230 = torch.prims.squeeze %17228, %17229 : !torch.vtensor<[2,32,1],f16>, !torch.list<int> -> !torch.vtensor<[2,32],f16>
    %17231 = torch.aten.silu %17220 : !torch.vtensor<[2,320,128,128],f16> -> !torch.vtensor<[2,320,128,128],f16>
    %_params.unet.up_blocks.2.resnets.0.conv2.weight = util.global.load @_params.unet.up_blocks.2.resnets.0.conv2.weight : tensor<320x320x3x3xf16>
    %17232 = torch_c.from_builtin_tensor %_params.unet.up_blocks.2.resnets.0.conv2.weight : tensor<320x320x3x3xf16> -> !torch.vtensor<[320,320,3,3],f16>
    %_params.unet.up_blocks.2.resnets.0.conv2.bias = util.global.load @_params.unet.up_blocks.2.resnets.0.conv2.bias : tensor<320xf16>
    %17233 = torch_c.from_builtin_tensor %_params.unet.up_blocks.2.resnets.0.conv2.bias : tensor<320xf16> -> !torch.vtensor<[320],f16>
    %17234 = torch.prim.ListConstruct %int1, %int1 : (!torch.int, !torch.int) -> !torch.list<int>
    %17235 = torch.prim.ListConstruct %int1, %int1 : (!torch.int, !torch.int) -> !torch.list<int>
    %17236 = torch.prim.ListConstruct %int1, %int1 : (!torch.int, !torch.int) -> !torch.list<int>
    %17237 = torch.prim.ListConstruct %int0, %int0 : (!torch.int, !torch.int) -> !torch.list<int>
    %17238 = torch.aten.convolution %17231, %17232, %17233, %17234, %17235, %17236, %false, %17237, %int1 : !torch.vtensor<[2,320,128,128],f16>, !torch.vtensor<[320,320,3,3],f16>, !torch.vtensor<[320],f16>, !torch.list<int>, !torch.list<int>, !torch.list<int>, !torch.bool, !torch.list<int>, !torch.int -> !torch.vtensor<[2,320,128,128],f16>
    %_params.unet.up_blocks.2.resnets.0.conv_shortcut.weight = util.global.load @_params.unet.up_blocks.2.resnets.0.conv_shortcut.weight : tensor<320x960x1x1xf16>
    %17239 = torch_c.from_builtin_tensor %_params.unet.up_blocks.2.resnets.0.conv_shortcut.weight : tensor<320x960x1x1xf16> -> !torch.vtensor<[320,960,1,1],f16>
    %_params.unet.up_blocks.2.resnets.0.conv_shortcut.bias = util.global.load @_params.unet.up_blocks.2.resnets.0.conv_shortcut.bias : tensor<320xf16>
    %17240 = torch_c.from_builtin_tensor %_params.unet.up_blocks.2.resnets.0.conv_shortcut.bias : tensor<320xf16> -> !torch.vtensor<[320],f16>
    %17241 = torch.prim.ListConstruct %int1, %int1 : (!torch.int, !torch.int) -> !torch.list<int>
    %17242 = torch.prim.ListConstruct %int0, %int0 : (!torch.int, !torch.int) -> !torch.list<int>
    %17243 = torch.prim.ListConstruct %int1, %int1 : (!torch.int, !torch.int) -> !torch.list<int>
    %17244 = torch.prim.ListConstruct %int0, %int0 : (!torch.int, !torch.int) -> !torch.list<int>
    %17245 = torch.aten.convolution %17145, %17239, %17240, %17241, %17242, %17243, %false, %17244, %int1 : !torch.vtensor<[2,960,128,128],f16>, !torch.vtensor<[320,960,1,1],f16>, !torch.vtensor<[320],f16>, !torch.list<int>, !torch.list<int>, !torch.list<int>, !torch.bool, !torch.list<int>, !torch.int -> !torch.vtensor<[2,320,128,128],f16>
    %17246 = torch.aten.add.Tensor %17245, %17238, %int1 : !torch.vtensor<[2,320,128,128],f16>, !torch.vtensor<[2,320,128,128],f16>, !torch.int -> !torch.vtensor<[2,320,128,128],f16>
    %17247 = torch.aten.div.Scalar %17246, %float1.000000e00 : !torch.vtensor<[2,320,128,128],f16>, !torch.float -> !torch.vtensor<[2,320,128,128],f16>
    %17248 = torch.prim.ListConstruct %17247, %200 : (!torch.vtensor<[2,320,128,128],f16>, !torch.vtensor<[2,320,128,128],f16>) -> !torch.list<vtensor>
    %17249 = torch.aten.cat %17248, %int1 : !torch.list<vtensor>, !torch.int -> !torch.vtensor<[2,640,128,128],f16>
    %17250 = torch.prim.ListConstruct %int2, %int32, %int20, %int16384 : (!torch.int, !torch.int, !torch.int, !torch.int) -> !torch.list<int>
    %17251 = torch.aten.view %17249, %17250 : !torch.vtensor<[2,640,128,128],f16>, !torch.list<int> -> !torch.vtensor<[2,32,20,16384],f16>
    %17252 = torch.prims.convert_element_type %17251, %int6 : !torch.vtensor<[2,32,20,16384],f16>, !torch.int -> !torch.vtensor<[2,32,20,16384],f32>
    %17253 = torch.prim.ListConstruct %int2, %int3 : (!torch.int, !torch.int) -> !torch.list<int>
    %result0_505, %result1_506 = torch.aten.var_mean.correction %17252, %17253, %int0, %true : !torch.vtensor<[2,32,20,16384],f32>, !torch.list<int>, !torch.int, !torch.bool -> !torch.vtensor<[2,32,1,1],f32>, !torch.vtensor<[2,32,1,1],f32>
    %17254 = torch.aten.add.Scalar %result0_505, %float1.000000e-05, %int1 : !torch.vtensor<[2,32,1,1],f32>, !torch.float, !torch.int -> !torch.vtensor<[2,32,1,1],f32>
    %17255 = torch.aten.rsqrt %17254 : !torch.vtensor<[2,32,1,1],f32> -> !torch.vtensor<[2,32,1,1],f32>
    %17256 = torch.aten.sub.Tensor %17251, %result1_506, %int1 : !torch.vtensor<[2,32,20,16384],f16>, !torch.vtensor<[2,32,1,1],f32>, !torch.int -> !torch.vtensor<[2,32,20,16384],f32>
    %17257 = torch.aten.mul.Tensor %17256, %17255 : !torch.vtensor<[2,32,20,16384],f32>, !torch.vtensor<[2,32,1,1],f32> -> !torch.vtensor<[2,32,20,16384],f32>
    %17258 = torch.prim.ListConstruct %int2, %int640, %int128, %int128 : (!torch.int, !torch.int, !torch.int, !torch.int) -> !torch.list<int>
    %17259 = torch.aten.view %17257, %17258 : !torch.vtensor<[2,32,20,16384],f32>, !torch.list<int> -> !torch.vtensor<[2,640,128,128],f32>
    %_params.unet.up_blocks.2.resnets.1.norm1.bias = util.global.load @_params.unet.up_blocks.2.resnets.1.norm1.bias : tensor<640xf16>
    %17260 = torch_c.from_builtin_tensor %_params.unet.up_blocks.2.resnets.1.norm1.bias : tensor<640xf16> -> !torch.vtensor<[640],f16>
    %17261 = torch.aten.unsqueeze %17260, %int0 : !torch.vtensor<[640],f16>, !torch.int -> !torch.vtensor<[1,640],f16>
    %17262 = torch.aten.unsqueeze %17261, %int2 : !torch.vtensor<[1,640],f16>, !torch.int -> !torch.vtensor<[1,640,1],f16>
    %17263 = torch.aten.unsqueeze %17262, %int3 : !torch.vtensor<[1,640,1],f16>, !torch.int -> !torch.vtensor<[1,640,1,1],f16>
    %_params.unet.up_blocks.2.resnets.1.norm1.weight = util.global.load @_params.unet.up_blocks.2.resnets.1.norm1.weight : tensor<640xf16>
    %17264 = torch_c.from_builtin_tensor %_params.unet.up_blocks.2.resnets.1.norm1.weight : tensor<640xf16> -> !torch.vtensor<[640],f16>
    %17265 = torch.aten.unsqueeze %17264, %int0 : !torch.vtensor<[640],f16>, !torch.int -> !torch.vtensor<[1,640],f16>
    %17266 = torch.aten.unsqueeze %17265, %int2 : !torch.vtensor<[1,640],f16>, !torch.int -> !torch.vtensor<[1,640,1],f16>
    %17267 = torch.aten.unsqueeze %17266, %int3 : !torch.vtensor<[1,640,1],f16>, !torch.int -> !torch.vtensor<[1,640,1,1],f16>
    %17268 = torch.aten.mul.Tensor %17259, %17267 : !torch.vtensor<[2,640,128,128],f32>, !torch.vtensor<[1,640,1,1],f16> -> !torch.vtensor<[2,640,128,128],f32>
    %17269 = torch.aten.add.Tensor %17268, %17263, %int1 : !torch.vtensor<[2,640,128,128],f32>, !torch.vtensor<[1,640,1,1],f16>, !torch.int -> !torch.vtensor<[2,640,128,128],f32>
    %17270 = torch.prims.convert_element_type %17269, %int5 : !torch.vtensor<[2,640,128,128],f32>, !torch.int -> !torch.vtensor<[2,640,128,128],f16>
    %17271 = torch.prims.convert_element_type %result1_506, %int5 : !torch.vtensor<[2,32,1,1],f32>, !torch.int -> !torch.vtensor<[2,32,1,1],f16>
    %17272 = torch.prims.convert_element_type %17255, %int5 : !torch.vtensor<[2,32,1,1],f32>, !torch.int -> !torch.vtensor<[2,32,1,1],f16>
    %17273 = torch.prim.ListConstruct %int3 : (!torch.int) -> !torch.list<int>
    %17274 = torch.prims.squeeze %17271, %17273 : !torch.vtensor<[2,32,1,1],f16>, !torch.list<int> -> !torch.vtensor<[2,32,1],f16>
    %17275 = torch.prim.ListConstruct %int2 : (!torch.int) -> !torch.list<int>
    %17276 = torch.prims.squeeze %17274, %17275 : !torch.vtensor<[2,32,1],f16>, !torch.list<int> -> !torch.vtensor<[2,32],f16>
    %17277 = torch.prim.ListConstruct %int3 : (!torch.int) -> !torch.list<int>
    %17278 = torch.prims.squeeze %17272, %17277 : !torch.vtensor<[2,32,1,1],f16>, !torch.list<int> -> !torch.vtensor<[2,32,1],f16>
    %17279 = torch.prim.ListConstruct %int2 : (!torch.int) -> !torch.list<int>
    %17280 = torch.prims.squeeze %17278, %17279 : !torch.vtensor<[2,32,1],f16>, !torch.list<int> -> !torch.vtensor<[2,32],f16>
    %17281 = torch.aten.silu %17270 : !torch.vtensor<[2,640,128,128],f16> -> !torch.vtensor<[2,640,128,128],f16>
    %_params.unet.up_blocks.2.resnets.1.conv1.weight = util.global.load @_params.unet.up_blocks.2.resnets.1.conv1.weight : tensor<320x640x3x3xf16>
    %17282 = torch_c.from_builtin_tensor %_params.unet.up_blocks.2.resnets.1.conv1.weight : tensor<320x640x3x3xf16> -> !torch.vtensor<[320,640,3,3],f16>
    %_params.unet.up_blocks.2.resnets.1.conv1.bias = util.global.load @_params.unet.up_blocks.2.resnets.1.conv1.bias : tensor<320xf16>
    %17283 = torch_c.from_builtin_tensor %_params.unet.up_blocks.2.resnets.1.conv1.bias : tensor<320xf16> -> !torch.vtensor<[320],f16>
    %17284 = torch.prim.ListConstruct %int1, %int1 : (!torch.int, !torch.int) -> !torch.list<int>
    %17285 = torch.prim.ListConstruct %int1, %int1 : (!torch.int, !torch.int) -> !torch.list<int>
    %17286 = torch.prim.ListConstruct %int1, %int1 : (!torch.int, !torch.int) -> !torch.list<int>
    %17287 = torch.prim.ListConstruct %int0, %int0 : (!torch.int, !torch.int) -> !torch.list<int>
    %17288 = torch.aten.convolution %17281, %17282, %17283, %17284, %17285, %17286, %false, %17287, %int1 : !torch.vtensor<[2,640,128,128],f16>, !torch.vtensor<[320,640,3,3],f16>, !torch.vtensor<[320],f16>, !torch.list<int>, !torch.list<int>, !torch.list<int>, !torch.bool, !torch.list<int>, !torch.int -> !torch.vtensor<[2,320,128,128],f16>
    %17289 = torch.aten.silu %98 : !torch.vtensor<[2,1280],f16> -> !torch.vtensor<[2,1280],f16>
    %_params.unet.up_blocks.2.resnets.1.time_emb_proj.weight = util.global.load @_params.unet.up_blocks.2.resnets.1.time_emb_proj.weight : tensor<320x1280xf16>
    %17290 = torch_c.from_builtin_tensor %_params.unet.up_blocks.2.resnets.1.time_emb_proj.weight : tensor<320x1280xf16> -> !torch.vtensor<[320,1280],f16>
    %17291 = torch.aten.transpose.int %17290, %int0, %int1 : !torch.vtensor<[320,1280],f16>, !torch.int, !torch.int -> !torch.vtensor<[1280,320],f16>
    %_params.unet.up_blocks.2.resnets.1.time_emb_proj.bias = util.global.load @_params.unet.up_blocks.2.resnets.1.time_emb_proj.bias : tensor<320xf16>
    %17292 = torch_c.from_builtin_tensor %_params.unet.up_blocks.2.resnets.1.time_emb_proj.bias : tensor<320xf16> -> !torch.vtensor<[320],f16>
    %17293 = torch.prims.convert_element_type %17292, %int6 : !torch.vtensor<[320],f16>, !torch.int -> !torch.vtensor<[320],f32>
    %17294 = torch.prims.convert_element_type %17289, %int6 : !torch.vtensor<[2,1280],f16>, !torch.int -> !torch.vtensor<[2,1280],f32>
    %17295 = torch.prims.convert_element_type %17291, %int6 : !torch.vtensor<[1280,320],f16>, !torch.int -> !torch.vtensor<[1280,320],f32>
    %17296 = torch.aten.mm %17294, %17295 : !torch.vtensor<[2,1280],f32>, !torch.vtensor<[1280,320],f32> -> !torch.vtensor<[2,320],f32>
    %17297 = torch.aten.mul.Scalar %17296, %int1 : !torch.vtensor<[2,320],f32>, !torch.int -> !torch.vtensor<[2,320],f32>
    %17298 = torch.aten.mul.Scalar %17293, %int1 : !torch.vtensor<[320],f32>, !torch.int -> !torch.vtensor<[320],f32>
    %17299 = torch.aten.add.Tensor %17297, %17298, %int1 : !torch.vtensor<[2,320],f32>, !torch.vtensor<[320],f32>, !torch.int -> !torch.vtensor<[2,320],f32>
    %17300 = torch.prims.convert_element_type %17299, %int5 : !torch.vtensor<[2,320],f32>, !torch.int -> !torch.vtensor<[2,320],f16>
    %17301 = torch.aten.unsqueeze %17300, %int2 : !torch.vtensor<[2,320],f16>, !torch.int -> !torch.vtensor<[2,320,1],f16>
    %17302 = torch.aten.unsqueeze %17301, %int3 : !torch.vtensor<[2,320,1],f16>, !torch.int -> !torch.vtensor<[2,320,1,1],f16>
    %17303 = torch.aten.add.Tensor %17288, %17302, %int1 : !torch.vtensor<[2,320,128,128],f16>, !torch.vtensor<[2,320,1,1],f16>, !torch.int -> !torch.vtensor<[2,320,128,128],f16>
    %17304 = torch.prim.ListConstruct %int2, %int32, %int10, %int16384 : (!torch.int, !torch.int, !torch.int, !torch.int) -> !torch.list<int>
    %17305 = torch.aten.view %17303, %17304 : !torch.vtensor<[2,320,128,128],f16>, !torch.list<int> -> !torch.vtensor<[2,32,10,16384],f16>
    %17306 = torch.prims.convert_element_type %17305, %int6 : !torch.vtensor<[2,32,10,16384],f16>, !torch.int -> !torch.vtensor<[2,32,10,16384],f32>
    %17307 = torch.prim.ListConstruct %int2, %int3 : (!torch.int, !torch.int) -> !torch.list<int>
    %result0_507, %result1_508 = torch.aten.var_mean.correction %17306, %17307, %int0, %true : !torch.vtensor<[2,32,10,16384],f32>, !torch.list<int>, !torch.int, !torch.bool -> !torch.vtensor<[2,32,1,1],f32>, !torch.vtensor<[2,32,1,1],f32>
    %17308 = torch.aten.add.Scalar %result0_507, %float1.000000e-05, %int1 : !torch.vtensor<[2,32,1,1],f32>, !torch.float, !torch.int -> !torch.vtensor<[2,32,1,1],f32>
    %17309 = torch.aten.rsqrt %17308 : !torch.vtensor<[2,32,1,1],f32> -> !torch.vtensor<[2,32,1,1],f32>
    %17310 = torch.aten.sub.Tensor %17305, %result1_508, %int1 : !torch.vtensor<[2,32,10,16384],f16>, !torch.vtensor<[2,32,1,1],f32>, !torch.int -> !torch.vtensor<[2,32,10,16384],f32>
    %17311 = torch.aten.mul.Tensor %17310, %17309 : !torch.vtensor<[2,32,10,16384],f32>, !torch.vtensor<[2,32,1,1],f32> -> !torch.vtensor<[2,32,10,16384],f32>
    %17312 = torch.prim.ListConstruct %int2, %int320, %int128, %int128 : (!torch.int, !torch.int, !torch.int, !torch.int) -> !torch.list<int>
    %17313 = torch.aten.view %17311, %17312 : !torch.vtensor<[2,32,10,16384],f32>, !torch.list<int> -> !torch.vtensor<[2,320,128,128],f32>
    %_params.unet.up_blocks.2.resnets.1.norm2.bias = util.global.load @_params.unet.up_blocks.2.resnets.1.norm2.bias : tensor<320xf16>
    %17314 = torch_c.from_builtin_tensor %_params.unet.up_blocks.2.resnets.1.norm2.bias : tensor<320xf16> -> !torch.vtensor<[320],f16>
    %17315 = torch.aten.unsqueeze %17314, %int0 : !torch.vtensor<[320],f16>, !torch.int -> !torch.vtensor<[1,320],f16>
    %17316 = torch.aten.unsqueeze %17315, %int2 : !torch.vtensor<[1,320],f16>, !torch.int -> !torch.vtensor<[1,320,1],f16>
    %17317 = torch.aten.unsqueeze %17316, %int3 : !torch.vtensor<[1,320,1],f16>, !torch.int -> !torch.vtensor<[1,320,1,1],f16>
    %_params.unet.up_blocks.2.resnets.1.norm2.weight = util.global.load @_params.unet.up_blocks.2.resnets.1.norm2.weight : tensor<320xf16>
    %17318 = torch_c.from_builtin_tensor %_params.unet.up_blocks.2.resnets.1.norm2.weight : tensor<320xf16> -> !torch.vtensor<[320],f16>
    %17319 = torch.aten.unsqueeze %17318, %int0 : !torch.vtensor<[320],f16>, !torch.int -> !torch.vtensor<[1,320],f16>
    %17320 = torch.aten.unsqueeze %17319, %int2 : !torch.vtensor<[1,320],f16>, !torch.int -> !torch.vtensor<[1,320,1],f16>
    %17321 = torch.aten.unsqueeze %17320, %int3 : !torch.vtensor<[1,320,1],f16>, !torch.int -> !torch.vtensor<[1,320,1,1],f16>
    %17322 = torch.aten.mul.Tensor %17313, %17321 : !torch.vtensor<[2,320,128,128],f32>, !torch.vtensor<[1,320,1,1],f16> -> !torch.vtensor<[2,320,128,128],f32>
    %17323 = torch.aten.add.Tensor %17322, %17317, %int1 : !torch.vtensor<[2,320,128,128],f32>, !torch.vtensor<[1,320,1,1],f16>, !torch.int -> !torch.vtensor<[2,320,128,128],f32>
    %17324 = torch.prims.convert_element_type %17323, %int5 : !torch.vtensor<[2,320,128,128],f32>, !torch.int -> !torch.vtensor<[2,320,128,128],f16>
    %17325 = torch.prims.convert_element_type %result1_508, %int5 : !torch.vtensor<[2,32,1,1],f32>, !torch.int -> !torch.vtensor<[2,32,1,1],f16>
    %17326 = torch.prims.convert_element_type %17309, %int5 : !torch.vtensor<[2,32,1,1],f32>, !torch.int -> !torch.vtensor<[2,32,1,1],f16>
    %17327 = torch.prim.ListConstruct %int3 : (!torch.int) -> !torch.list<int>
    %17328 = torch.prims.squeeze %17325, %17327 : !torch.vtensor<[2,32,1,1],f16>, !torch.list<int> -> !torch.vtensor<[2,32,1],f16>
    %17329 = torch.prim.ListConstruct %int2 : (!torch.int) -> !torch.list<int>
    %17330 = torch.prims.squeeze %17328, %17329 : !torch.vtensor<[2,32,1],f16>, !torch.list<int> -> !torch.vtensor<[2,32],f16>
    %17331 = torch.prim.ListConstruct %int3 : (!torch.int) -> !torch.list<int>
    %17332 = torch.prims.squeeze %17326, %17331 : !torch.vtensor<[2,32,1,1],f16>, !torch.list<int> -> !torch.vtensor<[2,32,1],f16>
    %17333 = torch.prim.ListConstruct %int2 : (!torch.int) -> !torch.list<int>
    %17334 = torch.prims.squeeze %17332, %17333 : !torch.vtensor<[2,32,1],f16>, !torch.list<int> -> !torch.vtensor<[2,32],f16>
    %17335 = torch.aten.silu %17324 : !torch.vtensor<[2,320,128,128],f16> -> !torch.vtensor<[2,320,128,128],f16>
    %_params.unet.up_blocks.2.resnets.1.conv2.weight = util.global.load @_params.unet.up_blocks.2.resnets.1.conv2.weight : tensor<320x320x3x3xf16>
    %17336 = torch_c.from_builtin_tensor %_params.unet.up_blocks.2.resnets.1.conv2.weight : tensor<320x320x3x3xf16> -> !torch.vtensor<[320,320,3,3],f16>
    %_params.unet.up_blocks.2.resnets.1.conv2.bias = util.global.load @_params.unet.up_blocks.2.resnets.1.conv2.bias : tensor<320xf16>
    %17337 = torch_c.from_builtin_tensor %_params.unet.up_blocks.2.resnets.1.conv2.bias : tensor<320xf16> -> !torch.vtensor<[320],f16>
    %17338 = torch.prim.ListConstruct %int1, %int1 : (!torch.int, !torch.int) -> !torch.list<int>
    %17339 = torch.prim.ListConstruct %int1, %int1 : (!torch.int, !torch.int) -> !torch.list<int>
    %17340 = torch.prim.ListConstruct %int1, %int1 : (!torch.int, !torch.int) -> !torch.list<int>
    %17341 = torch.prim.ListConstruct %int0, %int0 : (!torch.int, !torch.int) -> !torch.list<int>
    %17342 = torch.aten.convolution %17335, %17336, %17337, %17338, %17339, %17340, %false, %17341, %int1 : !torch.vtensor<[2,320,128,128],f16>, !torch.vtensor<[320,320,3,3],f16>, !torch.vtensor<[320],f16>, !torch.list<int>, !torch.list<int>, !torch.list<int>, !torch.bool, !torch.list<int>, !torch.int -> !torch.vtensor<[2,320,128,128],f16>
    %_params.unet.up_blocks.2.resnets.1.conv_shortcut.weight = util.global.load @_params.unet.up_blocks.2.resnets.1.conv_shortcut.weight : tensor<320x640x1x1xf16>
    %17343 = torch_c.from_builtin_tensor %_params.unet.up_blocks.2.resnets.1.conv_shortcut.weight : tensor<320x640x1x1xf16> -> !torch.vtensor<[320,640,1,1],f16>
    %_params.unet.up_blocks.2.resnets.1.conv_shortcut.bias = util.global.load @_params.unet.up_blocks.2.resnets.1.conv_shortcut.bias : tensor<320xf16>
    %17344 = torch_c.from_builtin_tensor %_params.unet.up_blocks.2.resnets.1.conv_shortcut.bias : tensor<320xf16> -> !torch.vtensor<[320],f16>
    %17345 = torch.prim.ListConstruct %int1, %int1 : (!torch.int, !torch.int) -> !torch.list<int>
    %17346 = torch.prim.ListConstruct %int0, %int0 : (!torch.int, !torch.int) -> !torch.list<int>
    %17347 = torch.prim.ListConstruct %int1, %int1 : (!torch.int, !torch.int) -> !torch.list<int>
    %17348 = torch.prim.ListConstruct %int0, %int0 : (!torch.int, !torch.int) -> !torch.list<int>
    %17349 = torch.aten.convolution %17249, %17343, %17344, %17345, %17346, %17347, %false, %17348, %int1 : !torch.vtensor<[2,640,128,128],f16>, !torch.vtensor<[320,640,1,1],f16>, !torch.vtensor<[320],f16>, !torch.list<int>, !torch.list<int>, !torch.list<int>, !torch.bool, !torch.list<int>, !torch.int -> !torch.vtensor<[2,320,128,128],f16>
    %17350 = torch.aten.add.Tensor %17349, %17342, %int1 : !torch.vtensor<[2,320,128,128],f16>, !torch.vtensor<[2,320,128,128],f16>, !torch.int -> !torch.vtensor<[2,320,128,128],f16>
    %17351 = torch.aten.div.Scalar %17350, %float1.000000e00 : !torch.vtensor<[2,320,128,128],f16>, !torch.float -> !torch.vtensor<[2,320,128,128],f16>
    %17352 = torch.prim.ListConstruct %17351, %105 : (!torch.vtensor<[2,320,128,128],f16>, !torch.vtensor<[2,320,128,128],f16>) -> !torch.list<vtensor>
    %17353 = torch.aten.cat %17352, %int1 : !torch.list<vtensor>, !torch.int -> !torch.vtensor<[2,640,128,128],f16>
    %17354 = torch.prim.ListConstruct %int2, %int32, %int20, %int16384 : (!torch.int, !torch.int, !torch.int, !torch.int) -> !torch.list<int>
    %17355 = torch.aten.view %17353, %17354 : !torch.vtensor<[2,640,128,128],f16>, !torch.list<int> -> !torch.vtensor<[2,32,20,16384],f16>
    %17356 = torch.prims.convert_element_type %17355, %int6 : !torch.vtensor<[2,32,20,16384],f16>, !torch.int -> !torch.vtensor<[2,32,20,16384],f32>
    %17357 = torch.prim.ListConstruct %int2, %int3 : (!torch.int, !torch.int) -> !torch.list<int>
    %result0_509, %result1_510 = torch.aten.var_mean.correction %17356, %17357, %int0, %true : !torch.vtensor<[2,32,20,16384],f32>, !torch.list<int>, !torch.int, !torch.bool -> !torch.vtensor<[2,32,1,1],f32>, !torch.vtensor<[2,32,1,1],f32>
    %17358 = torch.aten.add.Scalar %result0_509, %float1.000000e-05, %int1 : !torch.vtensor<[2,32,1,1],f32>, !torch.float, !torch.int -> !torch.vtensor<[2,32,1,1],f32>
    %17359 = torch.aten.rsqrt %17358 : !torch.vtensor<[2,32,1,1],f32> -> !torch.vtensor<[2,32,1,1],f32>
    %17360 = torch.aten.sub.Tensor %17355, %result1_510, %int1 : !torch.vtensor<[2,32,20,16384],f16>, !torch.vtensor<[2,32,1,1],f32>, !torch.int -> !torch.vtensor<[2,32,20,16384],f32>
    %17361 = torch.aten.mul.Tensor %17360, %17359 : !torch.vtensor<[2,32,20,16384],f32>, !torch.vtensor<[2,32,1,1],f32> -> !torch.vtensor<[2,32,20,16384],f32>
    %17362 = torch.prim.ListConstruct %int2, %int640, %int128, %int128 : (!torch.int, !torch.int, !torch.int, !torch.int) -> !torch.list<int>
    %17363 = torch.aten.view %17361, %17362 : !torch.vtensor<[2,32,20,16384],f32>, !torch.list<int> -> !torch.vtensor<[2,640,128,128],f32>
    %_params.unet.up_blocks.2.resnets.2.norm1.bias = util.global.load @_params.unet.up_blocks.2.resnets.2.norm1.bias : tensor<640xf16>
    %17364 = torch_c.from_builtin_tensor %_params.unet.up_blocks.2.resnets.2.norm1.bias : tensor<640xf16> -> !torch.vtensor<[640],f16>
    %17365 = torch.aten.unsqueeze %17364, %int0 : !torch.vtensor<[640],f16>, !torch.int -> !torch.vtensor<[1,640],f16>
    %17366 = torch.aten.unsqueeze %17365, %int2 : !torch.vtensor<[1,640],f16>, !torch.int -> !torch.vtensor<[1,640,1],f16>
    %17367 = torch.aten.unsqueeze %17366, %int3 : !torch.vtensor<[1,640,1],f16>, !torch.int -> !torch.vtensor<[1,640,1,1],f16>
    %_params.unet.up_blocks.2.resnets.2.norm1.weight = util.global.load @_params.unet.up_blocks.2.resnets.2.norm1.weight : tensor<640xf16>
    %17368 = torch_c.from_builtin_tensor %_params.unet.up_blocks.2.resnets.2.norm1.weight : tensor<640xf16> -> !torch.vtensor<[640],f16>
    %17369 = torch.aten.unsqueeze %17368, %int0 : !torch.vtensor<[640],f16>, !torch.int -> !torch.vtensor<[1,640],f16>
    %17370 = torch.aten.unsqueeze %17369, %int2 : !torch.vtensor<[1,640],f16>, !torch.int -> !torch.vtensor<[1,640,1],f16>
    %17371 = torch.aten.unsqueeze %17370, %int3 : !torch.vtensor<[1,640,1],f16>, !torch.int -> !torch.vtensor<[1,640,1,1],f16>
    %17372 = torch.aten.mul.Tensor %17363, %17371 : !torch.vtensor<[2,640,128,128],f32>, !torch.vtensor<[1,640,1,1],f16> -> !torch.vtensor<[2,640,128,128],f32>
    %17373 = torch.aten.add.Tensor %17372, %17367, %int1 : !torch.vtensor<[2,640,128,128],f32>, !torch.vtensor<[1,640,1,1],f16>, !torch.int -> !torch.vtensor<[2,640,128,128],f32>
    %17374 = torch.prims.convert_element_type %17373, %int5 : !torch.vtensor<[2,640,128,128],f32>, !torch.int -> !torch.vtensor<[2,640,128,128],f16>
    %17375 = torch.prims.convert_element_type %result1_510, %int5 : !torch.vtensor<[2,32,1,1],f32>, !torch.int -> !torch.vtensor<[2,32,1,1],f16>
    %17376 = torch.prims.convert_element_type %17359, %int5 : !torch.vtensor<[2,32,1,1],f32>, !torch.int -> !torch.vtensor<[2,32,1,1],f16>
    %17377 = torch.prim.ListConstruct %int3 : (!torch.int) -> !torch.list<int>
    %17378 = torch.prims.squeeze %17375, %17377 : !torch.vtensor<[2,32,1,1],f16>, !torch.list<int> -> !torch.vtensor<[2,32,1],f16>
    %17379 = torch.prim.ListConstruct %int2 : (!torch.int) -> !torch.list<int>
    %17380 = torch.prims.squeeze %17378, %17379 : !torch.vtensor<[2,32,1],f16>, !torch.list<int> -> !torch.vtensor<[2,32],f16>
    %17381 = torch.prim.ListConstruct %int3 : (!torch.int) -> !torch.list<int>
    %17382 = torch.prims.squeeze %17376, %17381 : !torch.vtensor<[2,32,1,1],f16>, !torch.list<int> -> !torch.vtensor<[2,32,1],f16>
    %17383 = torch.prim.ListConstruct %int2 : (!torch.int) -> !torch.list<int>
    %17384 = torch.prims.squeeze %17382, %17383 : !torch.vtensor<[2,32,1],f16>, !torch.list<int> -> !torch.vtensor<[2,32],f16>
    %17385 = torch.aten.silu %17374 : !torch.vtensor<[2,640,128,128],f16> -> !torch.vtensor<[2,640,128,128],f16>
    %_params.unet.up_blocks.2.resnets.2.conv1.weight = util.global.load @_params.unet.up_blocks.2.resnets.2.conv1.weight : tensor<320x640x3x3xf16>
    %17386 = torch_c.from_builtin_tensor %_params.unet.up_blocks.2.resnets.2.conv1.weight : tensor<320x640x3x3xf16> -> !torch.vtensor<[320,640,3,3],f16>
    %_params.unet.up_blocks.2.resnets.2.conv1.bias = util.global.load @_params.unet.up_blocks.2.resnets.2.conv1.bias : tensor<320xf16>
    %17387 = torch_c.from_builtin_tensor %_params.unet.up_blocks.2.resnets.2.conv1.bias : tensor<320xf16> -> !torch.vtensor<[320],f16>
    %17388 = torch.prim.ListConstruct %int1, %int1 : (!torch.int, !torch.int) -> !torch.list<int>
    %17389 = torch.prim.ListConstruct %int1, %int1 : (!torch.int, !torch.int) -> !torch.list<int>
    %17390 = torch.prim.ListConstruct %int1, %int1 : (!torch.int, !torch.int) -> !torch.list<int>
    %17391 = torch.prim.ListConstruct %int0, %int0 : (!torch.int, !torch.int) -> !torch.list<int>
    %17392 = torch.aten.convolution %17385, %17386, %17387, %17388, %17389, %17390, %false, %17391, %int1 : !torch.vtensor<[2,640,128,128],f16>, !torch.vtensor<[320,640,3,3],f16>, !torch.vtensor<[320],f16>, !torch.list<int>, !torch.list<int>, !torch.list<int>, !torch.bool, !torch.list<int>, !torch.int -> !torch.vtensor<[2,320,128,128],f16>
    %17393 = torch.aten.silu %98 : !torch.vtensor<[2,1280],f16> -> !torch.vtensor<[2,1280],f16>
    %_params.unet.up_blocks.2.resnets.2.time_emb_proj.weight = util.global.load @_params.unet.up_blocks.2.resnets.2.time_emb_proj.weight : tensor<320x1280xf16>
    %17394 = torch_c.from_builtin_tensor %_params.unet.up_blocks.2.resnets.2.time_emb_proj.weight : tensor<320x1280xf16> -> !torch.vtensor<[320,1280],f16>
    %17395 = torch.aten.transpose.int %17394, %int0, %int1 : !torch.vtensor<[320,1280],f16>, !torch.int, !torch.int -> !torch.vtensor<[1280,320],f16>
    %_params.unet.up_blocks.2.resnets.2.time_emb_proj.bias = util.global.load @_params.unet.up_blocks.2.resnets.2.time_emb_proj.bias : tensor<320xf16>
    %17396 = torch_c.from_builtin_tensor %_params.unet.up_blocks.2.resnets.2.time_emb_proj.bias : tensor<320xf16> -> !torch.vtensor<[320],f16>
    %17397 = torch.prims.convert_element_type %17396, %int6 : !torch.vtensor<[320],f16>, !torch.int -> !torch.vtensor<[320],f32>
    %17398 = torch.prims.convert_element_type %17393, %int6 : !torch.vtensor<[2,1280],f16>, !torch.int -> !torch.vtensor<[2,1280],f32>
    %17399 = torch.prims.convert_element_type %17395, %int6 : !torch.vtensor<[1280,320],f16>, !torch.int -> !torch.vtensor<[1280,320],f32>
    %17400 = torch.aten.mm %17398, %17399 : !torch.vtensor<[2,1280],f32>, !torch.vtensor<[1280,320],f32> -> !torch.vtensor<[2,320],f32>
    %17401 = torch.aten.mul.Scalar %17400, %int1 : !torch.vtensor<[2,320],f32>, !torch.int -> !torch.vtensor<[2,320],f32>
    %17402 = torch.aten.mul.Scalar %17397, %int1 : !torch.vtensor<[320],f32>, !torch.int -> !torch.vtensor<[320],f32>
    %17403 = torch.aten.add.Tensor %17401, %17402, %int1 : !torch.vtensor<[2,320],f32>, !torch.vtensor<[320],f32>, !torch.int -> !torch.vtensor<[2,320],f32>
    %17404 = torch.prims.convert_element_type %17403, %int5 : !torch.vtensor<[2,320],f32>, !torch.int -> !torch.vtensor<[2,320],f16>
    %17405 = torch.aten.unsqueeze %17404, %int2 : !torch.vtensor<[2,320],f16>, !torch.int -> !torch.vtensor<[2,320,1],f16>
    %17406 = torch.aten.unsqueeze %17405, %int3 : !torch.vtensor<[2,320,1],f16>, !torch.int -> !torch.vtensor<[2,320,1,1],f16>
    %17407 = torch.aten.add.Tensor %17392, %17406, %int1 : !torch.vtensor<[2,320,128,128],f16>, !torch.vtensor<[2,320,1,1],f16>, !torch.int -> !torch.vtensor<[2,320,128,128],f16>
    %17408 = torch.prim.ListConstruct %int2, %int32, %int10, %int16384 : (!torch.int, !torch.int, !torch.int, !torch.int) -> !torch.list<int>
    %17409 = torch.aten.view %17407, %17408 : !torch.vtensor<[2,320,128,128],f16>, !torch.list<int> -> !torch.vtensor<[2,32,10,16384],f16>
    %17410 = torch.prims.convert_element_type %17409, %int6 : !torch.vtensor<[2,32,10,16384],f16>, !torch.int -> !torch.vtensor<[2,32,10,16384],f32>
    %17411 = torch.prim.ListConstruct %int2, %int3 : (!torch.int, !torch.int) -> !torch.list<int>
    %result0_511, %result1_512 = torch.aten.var_mean.correction %17410, %17411, %int0, %true : !torch.vtensor<[2,32,10,16384],f32>, !torch.list<int>, !torch.int, !torch.bool -> !torch.vtensor<[2,32,1,1],f32>, !torch.vtensor<[2,32,1,1],f32>
    %17412 = torch.aten.add.Scalar %result0_511, %float1.000000e-05, %int1 : !torch.vtensor<[2,32,1,1],f32>, !torch.float, !torch.int -> !torch.vtensor<[2,32,1,1],f32>
    %17413 = torch.aten.rsqrt %17412 : !torch.vtensor<[2,32,1,1],f32> -> !torch.vtensor<[2,32,1,1],f32>
    %17414 = torch.aten.sub.Tensor %17409, %result1_512, %int1 : !torch.vtensor<[2,32,10,16384],f16>, !torch.vtensor<[2,32,1,1],f32>, !torch.int -> !torch.vtensor<[2,32,10,16384],f32>
    %17415 = torch.aten.mul.Tensor %17414, %17413 : !torch.vtensor<[2,32,10,16384],f32>, !torch.vtensor<[2,32,1,1],f32> -> !torch.vtensor<[2,32,10,16384],f32>
    %17416 = torch.prim.ListConstruct %int2, %int320, %int128, %int128 : (!torch.int, !torch.int, !torch.int, !torch.int) -> !torch.list<int>
    %17417 = torch.aten.view %17415, %17416 : !torch.vtensor<[2,32,10,16384],f32>, !torch.list<int> -> !torch.vtensor<[2,320,128,128],f32>
    %_params.unet.up_blocks.2.resnets.2.norm2.bias = util.global.load @_params.unet.up_blocks.2.resnets.2.norm2.bias : tensor<320xf16>
    %17418 = torch_c.from_builtin_tensor %_params.unet.up_blocks.2.resnets.2.norm2.bias : tensor<320xf16> -> !torch.vtensor<[320],f16>
    %17419 = torch.aten.unsqueeze %17418, %int0 : !torch.vtensor<[320],f16>, !torch.int -> !torch.vtensor<[1,320],f16>
    %17420 = torch.aten.unsqueeze %17419, %int2 : !torch.vtensor<[1,320],f16>, !torch.int -> !torch.vtensor<[1,320,1],f16>
    %17421 = torch.aten.unsqueeze %17420, %int3 : !torch.vtensor<[1,320,1],f16>, !torch.int -> !torch.vtensor<[1,320,1,1],f16>
    %_params.unet.up_blocks.2.resnets.2.norm2.weight = util.global.load @_params.unet.up_blocks.2.resnets.2.norm2.weight : tensor<320xf16>
    %17422 = torch_c.from_builtin_tensor %_params.unet.up_blocks.2.resnets.2.norm2.weight : tensor<320xf16> -> !torch.vtensor<[320],f16>
    %17423 = torch.aten.unsqueeze %17422, %int0 : !torch.vtensor<[320],f16>, !torch.int -> !torch.vtensor<[1,320],f16>
    %17424 = torch.aten.unsqueeze %17423, %int2 : !torch.vtensor<[1,320],f16>, !torch.int -> !torch.vtensor<[1,320,1],f16>
    %17425 = torch.aten.unsqueeze %17424, %int3 : !torch.vtensor<[1,320,1],f16>, !torch.int -> !torch.vtensor<[1,320,1,1],f16>
    %17426 = torch.aten.mul.Tensor %17417, %17425 : !torch.vtensor<[2,320,128,128],f32>, !torch.vtensor<[1,320,1,1],f16> -> !torch.vtensor<[2,320,128,128],f32>
    %17427 = torch.aten.add.Tensor %17426, %17421, %int1 : !torch.vtensor<[2,320,128,128],f32>, !torch.vtensor<[1,320,1,1],f16>, !torch.int -> !torch.vtensor<[2,320,128,128],f32>
    %17428 = torch.prims.convert_element_type %17427, %int5 : !torch.vtensor<[2,320,128,128],f32>, !torch.int -> !torch.vtensor<[2,320,128,128],f16>
    %17429 = torch.prims.convert_element_type %result1_512, %int5 : !torch.vtensor<[2,32,1,1],f32>, !torch.int -> !torch.vtensor<[2,32,1,1],f16>
    %17430 = torch.prims.convert_element_type %17413, %int5 : !torch.vtensor<[2,32,1,1],f32>, !torch.int -> !torch.vtensor<[2,32,1,1],f16>
    %17431 = torch.prim.ListConstruct %int3 : (!torch.int) -> !torch.list<int>
    %17432 = torch.prims.squeeze %17429, %17431 : !torch.vtensor<[2,32,1,1],f16>, !torch.list<int> -> !torch.vtensor<[2,32,1],f16>
    %17433 = torch.prim.ListConstruct %int2 : (!torch.int) -> !torch.list<int>
    %17434 = torch.prims.squeeze %17432, %17433 : !torch.vtensor<[2,32,1],f16>, !torch.list<int> -> !torch.vtensor<[2,32],f16>
    %17435 = torch.prim.ListConstruct %int3 : (!torch.int) -> !torch.list<int>
    %17436 = torch.prims.squeeze %17430, %17435 : !torch.vtensor<[2,32,1,1],f16>, !torch.list<int> -> !torch.vtensor<[2,32,1],f16>
    %17437 = torch.prim.ListConstruct %int2 : (!torch.int) -> !torch.list<int>
    %17438 = torch.prims.squeeze %17436, %17437 : !torch.vtensor<[2,32,1],f16>, !torch.list<int> -> !torch.vtensor<[2,32],f16>
    %17439 = torch.aten.silu %17428 : !torch.vtensor<[2,320,128,128],f16> -> !torch.vtensor<[2,320,128,128],f16>
    %_params.unet.up_blocks.2.resnets.2.conv2.weight = util.global.load @_params.unet.up_blocks.2.resnets.2.conv2.weight : tensor<320x320x3x3xf16>
    %17440 = torch_c.from_builtin_tensor %_params.unet.up_blocks.2.resnets.2.conv2.weight : tensor<320x320x3x3xf16> -> !torch.vtensor<[320,320,3,3],f16>
    %_params.unet.up_blocks.2.resnets.2.conv2.bias = util.global.load @_params.unet.up_blocks.2.resnets.2.conv2.bias : tensor<320xf16>
    %17441 = torch_c.from_builtin_tensor %_params.unet.up_blocks.2.resnets.2.conv2.bias : tensor<320xf16> -> !torch.vtensor<[320],f16>
    %17442 = torch.prim.ListConstruct %int1, %int1 : (!torch.int, !torch.int) -> !torch.list<int>
    %17443 = torch.prim.ListConstruct %int1, %int1 : (!torch.int, !torch.int) -> !torch.list<int>
    %17444 = torch.prim.ListConstruct %int1, %int1 : (!torch.int, !torch.int) -> !torch.list<int>
    %17445 = torch.prim.ListConstruct %int0, %int0 : (!torch.int, !torch.int) -> !torch.list<int>
    %17446 = torch.aten.convolution %17439, %17440, %17441, %17442, %17443, %17444, %false, %17445, %int1 : !torch.vtensor<[2,320,128,128],f16>, !torch.vtensor<[320,320,3,3],f16>, !torch.vtensor<[320],f16>, !torch.list<int>, !torch.list<int>, !torch.list<int>, !torch.bool, !torch.list<int>, !torch.int -> !torch.vtensor<[2,320,128,128],f16>
    %_params.unet.up_blocks.2.resnets.2.conv_shortcut.weight = util.global.load @_params.unet.up_blocks.2.resnets.2.conv_shortcut.weight : tensor<320x640x1x1xf16>
    %17447 = torch_c.from_builtin_tensor %_params.unet.up_blocks.2.resnets.2.conv_shortcut.weight : tensor<320x640x1x1xf16> -> !torch.vtensor<[320,640,1,1],f16>
    %_params.unet.up_blocks.2.resnets.2.conv_shortcut.bias = util.global.load @_params.unet.up_blocks.2.resnets.2.conv_shortcut.bias : tensor<320xf16>
    %17448 = torch_c.from_builtin_tensor %_params.unet.up_blocks.2.resnets.2.conv_shortcut.bias : tensor<320xf16> -> !torch.vtensor<[320],f16>
    %17449 = torch.prim.ListConstruct %int1, %int1 : (!torch.int, !torch.int) -> !torch.list<int>
    %17450 = torch.prim.ListConstruct %int0, %int0 : (!torch.int, !torch.int) -> !torch.list<int>
    %17451 = torch.prim.ListConstruct %int1, %int1 : (!torch.int, !torch.int) -> !torch.list<int>
    %17452 = torch.prim.ListConstruct %int0, %int0 : (!torch.int, !torch.int) -> !torch.list<int>
    %17453 = torch.aten.convolution %17353, %17447, %17448, %17449, %17450, %17451, %false, %17452, %int1 : !torch.vtensor<[2,640,128,128],f16>, !torch.vtensor<[320,640,1,1],f16>, !torch.vtensor<[320],f16>, !torch.list<int>, !torch.list<int>, !torch.list<int>, !torch.bool, !torch.list<int>, !torch.int -> !torch.vtensor<[2,320,128,128],f16>
    %17454 = torch.aten.add.Tensor %17453, %17446, %int1 : !torch.vtensor<[2,320,128,128],f16>, !torch.vtensor<[2,320,128,128],f16>, !torch.int -> !torch.vtensor<[2,320,128,128],f16>
    %17455 = torch.aten.div.Scalar %17454, %float1.000000e00 : !torch.vtensor<[2,320,128,128],f16>, !torch.float -> !torch.vtensor<[2,320,128,128],f16>
    %17456 = torch.prim.ListConstruct %int2, %int32, %int10, %int16384 : (!torch.int, !torch.int, !torch.int, !torch.int) -> !torch.list<int>
    %17457 = torch.aten.view %17455, %17456 : !torch.vtensor<[2,320,128,128],f16>, !torch.list<int> -> !torch.vtensor<[2,32,10,16384],f16>
    %17458 = torch.prims.convert_element_type %17457, %int6 : !torch.vtensor<[2,32,10,16384],f16>, !torch.int -> !torch.vtensor<[2,32,10,16384],f32>
    %17459 = torch.prim.ListConstruct %int2, %int3 : (!torch.int, !torch.int) -> !torch.list<int>
    %result0_513, %result1_514 = torch.aten.var_mean.correction %17458, %17459, %int0, %true : !torch.vtensor<[2,32,10,16384],f32>, !torch.list<int>, !torch.int, !torch.bool -> !torch.vtensor<[2,32,1,1],f32>, !torch.vtensor<[2,32,1,1],f32>
    %17460 = torch.aten.add.Scalar %result0_513, %float1.000000e-05, %int1 : !torch.vtensor<[2,32,1,1],f32>, !torch.float, !torch.int -> !torch.vtensor<[2,32,1,1],f32>
    %17461 = torch.aten.rsqrt %17460 : !torch.vtensor<[2,32,1,1],f32> -> !torch.vtensor<[2,32,1,1],f32>
    %17462 = torch.aten.sub.Tensor %17457, %result1_514, %int1 : !torch.vtensor<[2,32,10,16384],f16>, !torch.vtensor<[2,32,1,1],f32>, !torch.int -> !torch.vtensor<[2,32,10,16384],f32>
    %17463 = torch.aten.mul.Tensor %17462, %17461 : !torch.vtensor<[2,32,10,16384],f32>, !torch.vtensor<[2,32,1,1],f32> -> !torch.vtensor<[2,32,10,16384],f32>
    %17464 = torch.prim.ListConstruct %int2, %int320, %int128, %int128 : (!torch.int, !torch.int, !torch.int, !torch.int) -> !torch.list<int>
    %17465 = torch.aten.view %17463, %17464 : !torch.vtensor<[2,32,10,16384],f32>, !torch.list<int> -> !torch.vtensor<[2,320,128,128],f32>
    %_params.unet.conv_norm_out.bias = util.global.load @_params.unet.conv_norm_out.bias : tensor<320xf16>
    %17466 = torch_c.from_builtin_tensor %_params.unet.conv_norm_out.bias : tensor<320xf16> -> !torch.vtensor<[320],f16>
    %17467 = torch.aten.unsqueeze %17466, %int0 : !torch.vtensor<[320],f16>, !torch.int -> !torch.vtensor<[1,320],f16>
    %17468 = torch.aten.unsqueeze %17467, %int2 : !torch.vtensor<[1,320],f16>, !torch.int -> !torch.vtensor<[1,320,1],f16>
    %17469 = torch.aten.unsqueeze %17468, %int3 : !torch.vtensor<[1,320,1],f16>, !torch.int -> !torch.vtensor<[1,320,1,1],f16>
    %_params.unet.conv_norm_out.weight = util.global.load @_params.unet.conv_norm_out.weight : tensor<320xf16>
    %17470 = torch_c.from_builtin_tensor %_params.unet.conv_norm_out.weight : tensor<320xf16> -> !torch.vtensor<[320],f16>
    %17471 = torch.aten.unsqueeze %17470, %int0 : !torch.vtensor<[320],f16>, !torch.int -> !torch.vtensor<[1,320],f16>
    %17472 = torch.aten.unsqueeze %17471, %int2 : !torch.vtensor<[1,320],f16>, !torch.int -> !torch.vtensor<[1,320,1],f16>
    %17473 = torch.aten.unsqueeze %17472, %int3 : !torch.vtensor<[1,320,1],f16>, !torch.int -> !torch.vtensor<[1,320,1,1],f16>
    %17474 = torch.aten.mul.Tensor %17465, %17473 : !torch.vtensor<[2,320,128,128],f32>, !torch.vtensor<[1,320,1,1],f16> -> !torch.vtensor<[2,320,128,128],f32>
    %17475 = torch.aten.add.Tensor %17474, %17469, %int1 : !torch.vtensor<[2,320,128,128],f32>, !torch.vtensor<[1,320,1,1],f16>, !torch.int -> !torch.vtensor<[2,320,128,128],f32>
    %17476 = torch.prims.convert_element_type %17475, %int5 : !torch.vtensor<[2,320,128,128],f32>, !torch.int -> !torch.vtensor<[2,320,128,128],f16>
    %17477 = torch.prims.convert_element_type %result1_514, %int5 : !torch.vtensor<[2,32,1,1],f32>, !torch.int -> !torch.vtensor<[2,32,1,1],f16>
    %17478 = torch.prims.convert_element_type %17461, %int5 : !torch.vtensor<[2,32,1,1],f32>, !torch.int -> !torch.vtensor<[2,32,1,1],f16>
    %17479 = torch.prim.ListConstruct %int3 : (!torch.int) -> !torch.list<int>
    %17480 = torch.prims.squeeze %17477, %17479 : !torch.vtensor<[2,32,1,1],f16>, !torch.list<int> -> !torch.vtensor<[2,32,1],f16>
    %17481 = torch.prim.ListConstruct %int2 : (!torch.int) -> !torch.list<int>
    %17482 = torch.prims.squeeze %17480, %17481 : !torch.vtensor<[2,32,1],f16>, !torch.list<int> -> !torch.vtensor<[2,32],f16>
    %17483 = torch.prim.ListConstruct %int3 : (!torch.int) -> !torch.list<int>
    %17484 = torch.prims.squeeze %17478, %17483 : !torch.vtensor<[2,32,1,1],f16>, !torch.list<int> -> !torch.vtensor<[2,32,1],f16>
    %17485 = torch.prim.ListConstruct %int2 : (!torch.int) -> !torch.list<int>
    %17486 = torch.prims.squeeze %17484, %17485 : !torch.vtensor<[2,32,1],f16>, !torch.list<int> -> !torch.vtensor<[2,32],f16>
    %17487 = torch.aten.silu %17476 : !torch.vtensor<[2,320,128,128],f16> -> !torch.vtensor<[2,320,128,128],f16>
    %_params.unet.conv_out.weight = util.global.load @_params.unet.conv_out.weight : tensor<4x320x3x3xf16>
    %17488 = torch_c.from_builtin_tensor %_params.unet.conv_out.weight : tensor<4x320x3x3xf16> -> !torch.vtensor<[4,320,3,3],f16>
    %_params.unet.conv_out.bias = util.global.load @_params.unet.conv_out.bias : tensor<4xf16>
    %17489 = torch_c.from_builtin_tensor %_params.unet.conv_out.bias : tensor<4xf16> -> !torch.vtensor<[4],f16>
    %17490 = torch.prim.ListConstruct %int1, %int1 : (!torch.int, !torch.int) -> !torch.list<int>
    %17491 = torch.prim.ListConstruct %int1, %int1 : (!torch.int, !torch.int) -> !torch.list<int>
    %17492 = torch.prim.ListConstruct %int1, %int1 : (!torch.int, !torch.int) -> !torch.list<int>
    %17493 = torch.prim.ListConstruct %int0, %int0 : (!torch.int, !torch.int) -> !torch.list<int>
    %17494 = torch.aten.convolution %17487, %17488, %17489, %17490, %17491, %17492, %false, %17493, %int1 : !torch.vtensor<[2,320,128,128],f16>, !torch.vtensor<[4,320,3,3],f16>, !torch.vtensor<[4],f16>, !torch.list<int>, !torch.list<int>, !torch.list<int>, !torch.bool, !torch.list<int>, !torch.int -> !torch.vtensor<[2,4,128,128],f16>
    %17495 = torch.aten.slice.Tensor %17494, %int0, %int0, %int1, %int1 : !torch.vtensor<[2,4,128,128],f16>, !torch.int, !torch.int, !torch.int, !torch.int -> !torch.vtensor<[1,4,128,128],f16>
    %17496 = torch.aten.slice.Tensor %17494, %int0, %int1, %int2, %int1 : !torch.vtensor<[2,4,128,128],f16>, !torch.int, !torch.int, !torch.int, !torch.int -> !torch.vtensor<[1,4,128,128],f16>
    %17497 = torch.aten.sub.Tensor %17496, %17495, %int1 : !torch.vtensor<[1,4,128,128],f16>, !torch.vtensor<[1,4,128,128],f16>, !torch.int -> !torch.vtensor<[1,4,128,128],f16>
    %17498 = torch.aten.mul.Tensor %5, %17497 : !torch.vtensor<[1],f16>, !torch.vtensor<[1,4,128,128],f16> -> !torch.vtensor<[1,4,128,128],f16>
    %17499 = torch.aten.add.Tensor %17495, %17498, %int1 : !torch.vtensor<[1,4,128,128],f16>, !torch.vtensor<[1,4,128,128],f16>, !torch.int -> !torch.vtensor<[1,4,128,128],f16>
    %17500 = torch_c.to_builtin_tensor %17499 : !torch.vtensor<[1,4,128,128],f16> -> tensor<1x4x128x128xf16>
    return %17500 : tensor<1x4x128x128xf16>
  }
  hal.executable.source private @hip_matmul_exe_128x2048_1280x2048 attributes {objects = #hal.executable.objects<{#executable_target_rocm_hsaco_fb = [#hal.executable.object<{path = "../tensile/output_128x1280x2048/Cijk_Alik_Bljk_HSS_BH_Bias_AS_SAV_UserArgs_MT32xWtnU2SRJ074qkQ6v4wfrhiWlW1wonyPBt_w30NplSC4=.co"}>]}>} {
    hal.executable.export public @Cijk_Alik_Bljk_HSS_BH_Bias_AS_SAV_UserArgs_MT32x32x128_MI16x16x1_SN_LDSB0_AFC1_AFEM1_AFEM1_ASEM1_CLR1_EPS0_GRVWA8_GRVWB8_IU1_K1_LBSPPA256_LBSPPB256_LBSPPM0_LPA16_LPB16_LPM0_LRVW8_LWPMn1_MIAV0_MIWT1_1_MO40_NTn1_NTA0_NTB0_NTD0_NEPBS0_NLCA1_NLCB1_ONLL1_PGR2_PLR1_PKA1_SIA3_SS1_SPO0_SRVW0_SSO0_SVW1_TLDS1_USFGROn1_VWA1_VWB1_WSGRA0_WSGRB0_WG32_8_1 ordinal(0) layout(#pipeline_layout) attributes {hal.interface.bindings = [#hal.interface.binding<0, 0>, #hal.interface.binding<0, 1>, #hal.interface.binding<0, 2>, #hal.interface.binding<0, 3>], rocm.parameter_mapping = "c4:0:0,c4:4:4,c4:8:8,c4:12:12,c4:16:16,c4:20:20,b8:0:0:24,b8:0:1:32,b8:0:2:40,b8:0:3:48,c4:24:56,c4:28:60,c4:32:64,c4:36:68,c4:40:72,c4:44:76,c4:48:80,c4:52:84,c4:56:88,c4:60:92,c4:64:96,c4:68:100,c4:72:104,c4:76:108,c4:80:112,c4:84:116,c4:88:120,c4:92:124,c4:96:128", workgroup_size = [256 : index, 1 : index, 1 : index]} {
    ^bb0(%arg0: !hal.device, %arg1: index):
      %c4 = arith.constant 4 : index
      %c40 = arith.constant 40 : index
      %c1 = arith.constant 1 : index
      hal.return %c4, %c40, %c1 : index, index, index
    }
  }
  hal.executable.source private @hip_matmul_exe_2048x1280_1280x1280 attributes {objects = #hal.executable.objects<{#executable_target_rocm_hsaco_fb = [#hal.executable.object<{path = "../tensile/output_2048x1280x1280/Cijk_Alik_Bljk_HSS_BH_Bias_AS_SAV_UserArgs_MT128LGssD3D5uUpJpwMOz9bV1KUetBSFPuVbIJbtPQNALVk=.co"}>]}>} {
    hal.executable.export public @Cijk_Alik_Bljk_HSS_BH_Bias_AS_SAV_UserArgs_MT128x80x64_MI16x16x1_SN_LDSB1_AFC1_AFEM1_AFEM1_ASEM1_CLR1_EPS0_GRVWA8_GRVWB4_IU1_K1_LBSPPA256_LBSPPB128_LBSPPM0_LPA16_LPB16_LPM0_LRVW8_LWPMn1_MIAV0_MIWT2_5_MO40_NTn1_NTA0_NTB0_NTD0_NEPBS16_NLCA1_NLCB1_ONLL1_PGR2_PLR1_PKA1_SIA3_SS1_SPO0_SRVW0_SSO0_SVW2_TLDS1_USFGROn1_VWA2_VWB1_WSGRA0_WSGRB0_WG64_4_1 ordinal(0) layout(#pipeline_layout) attributes {hal.interface.bindings = [#hal.interface.binding<0, 0>, #hal.interface.binding<0, 1>, #hal.interface.binding<0, 2>, #hal.interface.binding<0, 3>], rocm.parameter_mapping = "c4:0:0,c4:4:4,c4:8:8,c4:12:12,c4:16:16,c4:20:20,b8:0:0:24,b8:0:1:32,b8:0:2:40,b8:0:3:48,c4:24:56,c4:28:60,c4:32:64,c4:36:68,c4:40:72,c4:44:76,c4:48:80,c4:52:84,c4:56:88,c4:60:92,c4:64:96,c4:68:100,c4:72:104,c4:76:108,c4:80:112,c4:84:116,c4:88:120,c4:92:124,c4:96:128", workgroup_size = [256 : index, 1 : index, 1 : index]} {
    ^bb0(%arg0: !hal.device, %arg1: index):
      %c16 = arith.constant 16 : index
      %c1 = arith.constant 1 : index
      hal.return %c16, %c16, %c1 : index, index, index
    }
  }
}
