module @compiled_scheduled_unet {
  util.global private @_params.unet.conv_in.weight {noinline} = #stream.parameter.named<"model"::"unet.conv_in.weight"> : tensor<320x4x3x3xf16>
  util.global private @_params.unet.conv_in.bias {noinline} = #stream.parameter.named<"model"::"unet.conv_in.bias"> : tensor<320xf16>
  util.global private @_params.unet.time_embedding.linear_1.weight {noinline} = #stream.parameter.named<"model"::"unet.time_embedding.linear_1.weight"> : tensor<1280x320xf16>
  util.global private @_params.unet.time_embedding.linear_1.bias {noinline} = #stream.parameter.named<"model"::"unet.time_embedding.linear_1.bias"> : tensor<1280xf16>
  util.global private @_params.unet.time_embedding.linear_2.weight {noinline} = #stream.parameter.named<"model"::"unet.time_embedding.linear_2.weight"> : tensor<1280x1280xf16>
  util.global private @_params.unet.time_embedding.linear_2.bias {noinline} = #stream.parameter.named<"model"::"unet.time_embedding.linear_2.bias"> : tensor<1280xf16>
  util.global private @_params.unet.add_embedding.linear_1.weight {noinline} = #stream.parameter.named<"model"::"unet.add_embedding.linear_1.weight"> : tensor<1280x2816xf16>
  util.global private @_params.unet.add_embedding.linear_1.bias {noinline} = #stream.parameter.named<"model"::"unet.add_embedding.linear_1.bias"> : tensor<1280xf16>
  util.global private @_params.unet.add_embedding.linear_2.weight {noinline} = #stream.parameter.named<"model"::"unet.add_embedding.linear_2.weight"> : tensor<1280x1280xf16>
  util.global private @_params.unet.add_embedding.linear_2.bias {noinline} = #stream.parameter.named<"model"::"unet.add_embedding.linear_2.bias"> : tensor<1280xf16>
  util.global private @_params.unet.down_blocks.0.resnets.0.norm1.weight {noinline} = #stream.parameter.named<"model"::"unet.down_blocks.0.resnets.0.norm1.weight"> : tensor<320xf16>
  util.global private @_params.unet.down_blocks.0.resnets.0.norm1.bias {noinline} = #stream.parameter.named<"model"::"unet.down_blocks.0.resnets.0.norm1.bias"> : tensor<320xf16>
  util.global private @_params.unet.down_blocks.0.resnets.0.conv1.weight {noinline} = #stream.parameter.named<"model"::"unet.down_blocks.0.resnets.0.conv1.weight"> : tensor<320x320x3x3xf16>
  util.global private @_params.unet.down_blocks.0.resnets.0.conv1.bias {noinline} = #stream.parameter.named<"model"::"unet.down_blocks.0.resnets.0.conv1.bias"> : tensor<320xf16>
  util.global private @_params.unet.down_blocks.0.resnets.0.time_emb_proj.weight {noinline} = #stream.parameter.named<"model"::"unet.down_blocks.0.resnets.0.time_emb_proj.weight"> : tensor<320x1280xf16>
  util.global private @_params.unet.down_blocks.0.resnets.0.time_emb_proj.bias {noinline} = #stream.parameter.named<"model"::"unet.down_blocks.0.resnets.0.time_emb_proj.bias"> : tensor<320xf16>
  util.global private @_params.unet.down_blocks.0.resnets.0.norm2.weight {noinline} = #stream.parameter.named<"model"::"unet.down_blocks.0.resnets.0.norm2.weight"> : tensor<320xf16>
  util.global private @_params.unet.down_blocks.0.resnets.0.norm2.bias {noinline} = #stream.parameter.named<"model"::"unet.down_blocks.0.resnets.0.norm2.bias"> : tensor<320xf16>
  util.global private @_params.unet.down_blocks.0.resnets.0.conv2.weight {noinline} = #stream.parameter.named<"model"::"unet.down_blocks.0.resnets.0.conv2.weight"> : tensor<320x320x3x3xf16>
  util.global private @_params.unet.down_blocks.0.resnets.0.conv2.bias {noinline} = #stream.parameter.named<"model"::"unet.down_blocks.0.resnets.0.conv2.bias"> : tensor<320xf16>
  util.global private @_params.unet.down_blocks.0.resnets.1.norm1.weight {noinline} = #stream.parameter.named<"model"::"unet.down_blocks.0.resnets.1.norm1.weight"> : tensor<320xf16>
  util.global private @_params.unet.down_blocks.0.resnets.1.norm1.bias {noinline} = #stream.parameter.named<"model"::"unet.down_blocks.0.resnets.1.norm1.bias"> : tensor<320xf16>
  util.global private @_params.unet.down_blocks.0.resnets.1.conv1.weight {noinline} = #stream.parameter.named<"model"::"unet.down_blocks.0.resnets.1.conv1.weight"> : tensor<320x320x3x3xf16>
  util.global private @_params.unet.down_blocks.0.resnets.1.conv1.bias {noinline} = #stream.parameter.named<"model"::"unet.down_blocks.0.resnets.1.conv1.bias"> : tensor<320xf16>
  util.global private @_params.unet.down_blocks.0.resnets.1.time_emb_proj.weight {noinline} = #stream.parameter.named<"model"::"unet.down_blocks.0.resnets.1.time_emb_proj.weight"> : tensor<320x1280xf16>
  util.global private @_params.unet.down_blocks.0.resnets.1.time_emb_proj.bias {noinline} = #stream.parameter.named<"model"::"unet.down_blocks.0.resnets.1.time_emb_proj.bias"> : tensor<320xf16>
  util.global private @_params.unet.down_blocks.0.resnets.1.norm2.weight {noinline} = #stream.parameter.named<"model"::"unet.down_blocks.0.resnets.1.norm2.weight"> : tensor<320xf16>
  util.global private @_params.unet.down_blocks.0.resnets.1.norm2.bias {noinline} = #stream.parameter.named<"model"::"unet.down_blocks.0.resnets.1.norm2.bias"> : tensor<320xf16>
  util.global private @_params.unet.down_blocks.0.resnets.1.conv2.weight {noinline} = #stream.parameter.named<"model"::"unet.down_blocks.0.resnets.1.conv2.weight"> : tensor<320x320x3x3xf16>
  util.global private @_params.unet.down_blocks.0.resnets.1.conv2.bias {noinline} = #stream.parameter.named<"model"::"unet.down_blocks.0.resnets.1.conv2.bias"> : tensor<320xf16>
  util.global private @_params.unet.down_blocks.0.downsamplers.0.conv.weight {noinline} = #stream.parameter.named<"model"::"unet.down_blocks.0.downsamplers.0.conv.weight"> : tensor<320x320x3x3xf16>
  util.global private @_params.unet.down_blocks.0.downsamplers.0.conv.bias {noinline} = #stream.parameter.named<"model"::"unet.down_blocks.0.downsamplers.0.conv.bias"> : tensor<320xf16>
  util.global private @_params.unet.down_blocks.1.attentions.0.norm.weight {noinline} = #stream.parameter.named<"model"::"unet.down_blocks.1.attentions.0.norm.weight"> : tensor<640xf16>
  util.global private @_params.unet.down_blocks.1.attentions.0.norm.bias {noinline} = #stream.parameter.named<"model"::"unet.down_blocks.1.attentions.0.norm.bias"> : tensor<640xf16>
  util.global private @_params.unet.down_blocks.1.attentions.0.proj_in.weight {noinline} = #stream.parameter.named<"model"::"unet.down_blocks.1.attentions.0.proj_in.weight"> : tensor<640x640xf16>
  util.global private @_params.unet.down_blocks.1.attentions.0.proj_in.bias {noinline} = #stream.parameter.named<"model"::"unet.down_blocks.1.attentions.0.proj_in.bias"> : tensor<640xf16>
  util.global private @_params.unet.down_blocks.1.attentions.0.transformer_blocks.0.norm1.weight {noinline} = #stream.parameter.named<"model"::"unet.down_blocks.1.attentions.0.transformer_blocks.0.norm1.weight"> : tensor<640xf16>
  util.global private @_params.unet.down_blocks.1.attentions.0.transformer_blocks.0.norm1.bias {noinline} = #stream.parameter.named<"model"::"unet.down_blocks.1.attentions.0.transformer_blocks.0.norm1.bias"> : tensor<640xf16>
  util.global private @_params.unet.down_blocks.1.attentions.0.transformer_blocks.0.attn1.to_q.weight {noinline} = #stream.parameter.named<"model"::"unet.down_blocks.1.attentions.0.transformer_blocks.0.attn1.to_q.weight"> : tensor<640x640xf16>
  util.global private @_params.unet.down_blocks.1.attentions.0.transformer_blocks.0.attn1.to_k.weight {noinline} = #stream.parameter.named<"model"::"unet.down_blocks.1.attentions.0.transformer_blocks.0.attn1.to_k.weight"> : tensor<640x640xf16>
  util.global private @_params.unet.down_blocks.1.attentions.0.transformer_blocks.0.attn1.to_v.weight {noinline} = #stream.parameter.named<"model"::"unet.down_blocks.1.attentions.0.transformer_blocks.0.attn1.to_v.weight"> : tensor<640x640xf16>
  util.global private @_params.unet.down_blocks.1.attentions.0.transformer_blocks.0.attn1.to_out.0.weight {noinline} = #stream.parameter.named<"model"::"unet.down_blocks.1.attentions.0.transformer_blocks.0.attn1.to_out.0.weight"> : tensor<640x640xf16>
  util.global private @_params.unet.down_blocks.1.attentions.0.transformer_blocks.0.attn1.to_out.0.bias {noinline} = #stream.parameter.named<"model"::"unet.down_blocks.1.attentions.0.transformer_blocks.0.attn1.to_out.0.bias"> : tensor<640xf16>
  util.global private @_params.unet.down_blocks.1.attentions.0.transformer_blocks.0.norm2.weight {noinline} = #stream.parameter.named<"model"::"unet.down_blocks.1.attentions.0.transformer_blocks.0.norm2.weight"> : tensor<640xf16>
  util.global private @_params.unet.down_blocks.1.attentions.0.transformer_blocks.0.norm2.bias {noinline} = #stream.parameter.named<"model"::"unet.down_blocks.1.attentions.0.transformer_blocks.0.norm2.bias"> : tensor<640xf16>
  util.global private @_params.unet.down_blocks.1.attentions.0.transformer_blocks.0.attn2.to_q.weight {noinline} = #stream.parameter.named<"model"::"unet.down_blocks.1.attentions.0.transformer_blocks.0.attn2.to_q.weight"> : tensor<640x640xf16>
  util.global private @_params.unet.down_blocks.1.attentions.0.transformer_blocks.0.attn2.to_k.weight {noinline} = #stream.parameter.named<"model"::"unet.down_blocks.1.attentions.0.transformer_blocks.0.attn2.to_k.weight"> : tensor<640x2048xf16>
  util.global private @_params.unet.down_blocks.1.attentions.0.transformer_blocks.0.attn2.to_v.weight {noinline} = #stream.parameter.named<"model"::"unet.down_blocks.1.attentions.0.transformer_blocks.0.attn2.to_v.weight"> : tensor<640x2048xf16>
  util.global private @_params.unet.down_blocks.1.attentions.0.transformer_blocks.0.attn2.to_out.0.weight {noinline} = #stream.parameter.named<"model"::"unet.down_blocks.1.attentions.0.transformer_blocks.0.attn2.to_out.0.weight"> : tensor<640x640xf16>
  util.global private @_params.unet.down_blocks.1.attentions.0.transformer_blocks.0.attn2.to_out.0.bias {noinline} = #stream.parameter.named<"model"::"unet.down_blocks.1.attentions.0.transformer_blocks.0.attn2.to_out.0.bias"> : tensor<640xf16>
  util.global private @_params.unet.down_blocks.1.attentions.0.transformer_blocks.0.norm3.weight {noinline} = #stream.parameter.named<"model"::"unet.down_blocks.1.attentions.0.transformer_blocks.0.norm3.weight"> : tensor<640xf16>
  util.global private @_params.unet.down_blocks.1.attentions.0.transformer_blocks.0.norm3.bias {noinline} = #stream.parameter.named<"model"::"unet.down_blocks.1.attentions.0.transformer_blocks.0.norm3.bias"> : tensor<640xf16>
  util.global private @_params.unet.down_blocks.1.attentions.0.transformer_blocks.0.ff.net.0.proj.weight {noinline} = #stream.parameter.named<"model"::"unet.down_blocks.1.attentions.0.transformer_blocks.0.ff.net.0.proj.weight"> : tensor<5120x640xf16>
  util.global private @_params.unet.down_blocks.1.attentions.0.transformer_blocks.0.ff.net.0.proj.bias {noinline} = #stream.parameter.named<"model"::"unet.down_blocks.1.attentions.0.transformer_blocks.0.ff.net.0.proj.bias"> : tensor<5120xf16>
  util.global private @_params.unet.down_blocks.1.attentions.0.transformer_blocks.0.ff.net.2.weight {noinline} = #stream.parameter.named<"model"::"unet.down_blocks.1.attentions.0.transformer_blocks.0.ff.net.2.weight"> : tensor<640x2560xf16>
  util.global private @_params.unet.down_blocks.1.attentions.0.transformer_blocks.0.ff.net.2.bias {noinline} = #stream.parameter.named<"model"::"unet.down_blocks.1.attentions.0.transformer_blocks.0.ff.net.2.bias"> : tensor<640xf16>
  util.global private @_params.unet.down_blocks.1.attentions.0.transformer_blocks.1.norm1.weight {noinline} = #stream.parameter.named<"model"::"unet.down_blocks.1.attentions.0.transformer_blocks.1.norm1.weight"> : tensor<640xf16>
  util.global private @_params.unet.down_blocks.1.attentions.0.transformer_blocks.1.norm1.bias {noinline} = #stream.parameter.named<"model"::"unet.down_blocks.1.attentions.0.transformer_blocks.1.norm1.bias"> : tensor<640xf16>
  util.global private @_params.unet.down_blocks.1.attentions.0.transformer_blocks.1.attn1.to_q.weight {noinline} = #stream.parameter.named<"model"::"unet.down_blocks.1.attentions.0.transformer_blocks.1.attn1.to_q.weight"> : tensor<640x640xf16>
  util.global private @_params.unet.down_blocks.1.attentions.0.transformer_blocks.1.attn1.to_k.weight {noinline} = #stream.parameter.named<"model"::"unet.down_blocks.1.attentions.0.transformer_blocks.1.attn1.to_k.weight"> : tensor<640x640xf16>
  util.global private @_params.unet.down_blocks.1.attentions.0.transformer_blocks.1.attn1.to_v.weight {noinline} = #stream.parameter.named<"model"::"unet.down_blocks.1.attentions.0.transformer_blocks.1.attn1.to_v.weight"> : tensor<640x640xf16>
  util.global private @_params.unet.down_blocks.1.attentions.0.transformer_blocks.1.attn1.to_out.0.weight {noinline} = #stream.parameter.named<"model"::"unet.down_blocks.1.attentions.0.transformer_blocks.1.attn1.to_out.0.weight"> : tensor<640x640xf16>
  util.global private @_params.unet.down_blocks.1.attentions.0.transformer_blocks.1.attn1.to_out.0.bias {noinline} = #stream.parameter.named<"model"::"unet.down_blocks.1.attentions.0.transformer_blocks.1.attn1.to_out.0.bias"> : tensor<640xf16>
  util.global private @_params.unet.down_blocks.1.attentions.0.transformer_blocks.1.norm2.weight {noinline} = #stream.parameter.named<"model"::"unet.down_blocks.1.attentions.0.transformer_blocks.1.norm2.weight"> : tensor<640xf16>
  util.global private @_params.unet.down_blocks.1.attentions.0.transformer_blocks.1.norm2.bias {noinline} = #stream.parameter.named<"model"::"unet.down_blocks.1.attentions.0.transformer_blocks.1.norm2.bias"> : tensor<640xf16>
  util.global private @_params.unet.down_blocks.1.attentions.0.transformer_blocks.1.attn2.to_q.weight {noinline} = #stream.parameter.named<"model"::"unet.down_blocks.1.attentions.0.transformer_blocks.1.attn2.to_q.weight"> : tensor<640x640xf16>
  util.global private @_params.unet.down_blocks.1.attentions.0.transformer_blocks.1.attn2.to_k.weight {noinline} = #stream.parameter.named<"model"::"unet.down_blocks.1.attentions.0.transformer_blocks.1.attn2.to_k.weight"> : tensor<640x2048xf16>
  util.global private @_params.unet.down_blocks.1.attentions.0.transformer_blocks.1.attn2.to_v.weight {noinline} = #stream.parameter.named<"model"::"unet.down_blocks.1.attentions.0.transformer_blocks.1.attn2.to_v.weight"> : tensor<640x2048xf16>
  util.global private @_params.unet.down_blocks.1.attentions.0.transformer_blocks.1.attn2.to_out.0.weight {noinline} = #stream.parameter.named<"model"::"unet.down_blocks.1.attentions.0.transformer_blocks.1.attn2.to_out.0.weight"> : tensor<640x640xf16>
  util.global private @_params.unet.down_blocks.1.attentions.0.transformer_blocks.1.attn2.to_out.0.bias {noinline} = #stream.parameter.named<"model"::"unet.down_blocks.1.attentions.0.transformer_blocks.1.attn2.to_out.0.bias"> : tensor<640xf16>
  util.global private @_params.unet.down_blocks.1.attentions.0.transformer_blocks.1.norm3.weight {noinline} = #stream.parameter.named<"model"::"unet.down_blocks.1.attentions.0.transformer_blocks.1.norm3.weight"> : tensor<640xf16>
  util.global private @_params.unet.down_blocks.1.attentions.0.transformer_blocks.1.norm3.bias {noinline} = #stream.parameter.named<"model"::"unet.down_blocks.1.attentions.0.transformer_blocks.1.norm3.bias"> : tensor<640xf16>
  util.global private @_params.unet.down_blocks.1.attentions.0.transformer_blocks.1.ff.net.0.proj.weight {noinline} = #stream.parameter.named<"model"::"unet.down_blocks.1.attentions.0.transformer_blocks.1.ff.net.0.proj.weight"> : tensor<5120x640xf16>
  util.global private @_params.unet.down_blocks.1.attentions.0.transformer_blocks.1.ff.net.0.proj.bias {noinline} = #stream.parameter.named<"model"::"unet.down_blocks.1.attentions.0.transformer_blocks.1.ff.net.0.proj.bias"> : tensor<5120xf16>
  util.global private @_params.unet.down_blocks.1.attentions.0.transformer_blocks.1.ff.net.2.weight {noinline} = #stream.parameter.named<"model"::"unet.down_blocks.1.attentions.0.transformer_blocks.1.ff.net.2.weight"> : tensor<640x2560xf16>
  util.global private @_params.unet.down_blocks.1.attentions.0.transformer_blocks.1.ff.net.2.bias {noinline} = #stream.parameter.named<"model"::"unet.down_blocks.1.attentions.0.transformer_blocks.1.ff.net.2.bias"> : tensor<640xf16>
  util.global private @_params.unet.down_blocks.1.attentions.0.proj_out.weight {noinline} = #stream.parameter.named<"model"::"unet.down_blocks.1.attentions.0.proj_out.weight"> : tensor<640x640xf16>
  util.global private @_params.unet.down_blocks.1.attentions.0.proj_out.bias {noinline} = #stream.parameter.named<"model"::"unet.down_blocks.1.attentions.0.proj_out.bias"> : tensor<640xf16>
  util.global private @_params.unet.down_blocks.1.attentions.1.norm.weight {noinline} = #stream.parameter.named<"model"::"unet.down_blocks.1.attentions.1.norm.weight"> : tensor<640xf16>
  util.global private @_params.unet.down_blocks.1.attentions.1.norm.bias {noinline} = #stream.parameter.named<"model"::"unet.down_blocks.1.attentions.1.norm.bias"> : tensor<640xf16>
  util.global private @_params.unet.down_blocks.1.attentions.1.proj_in.weight {noinline} = #stream.parameter.named<"model"::"unet.down_blocks.1.attentions.1.proj_in.weight"> : tensor<640x640xf16>
  util.global private @_params.unet.down_blocks.1.attentions.1.proj_in.bias {noinline} = #stream.parameter.named<"model"::"unet.down_blocks.1.attentions.1.proj_in.bias"> : tensor<640xf16>
  util.global private @_params.unet.down_blocks.1.attentions.1.transformer_blocks.0.norm1.weight {noinline} = #stream.parameter.named<"model"::"unet.down_blocks.1.attentions.1.transformer_blocks.0.norm1.weight"> : tensor<640xf16>
  util.global private @_params.unet.down_blocks.1.attentions.1.transformer_blocks.0.norm1.bias {noinline} = #stream.parameter.named<"model"::"unet.down_blocks.1.attentions.1.transformer_blocks.0.norm1.bias"> : tensor<640xf16>
  util.global private @_params.unet.down_blocks.1.attentions.1.transformer_blocks.0.attn1.to_q.weight {noinline} = #stream.parameter.named<"model"::"unet.down_blocks.1.attentions.1.transformer_blocks.0.attn1.to_q.weight"> : tensor<640x640xf16>
  util.global private @_params.unet.down_blocks.1.attentions.1.transformer_blocks.0.attn1.to_k.weight {noinline} = #stream.parameter.named<"model"::"unet.down_blocks.1.attentions.1.transformer_blocks.0.attn1.to_k.weight"> : tensor<640x640xf16>
  util.global private @_params.unet.down_blocks.1.attentions.1.transformer_blocks.0.attn1.to_v.weight {noinline} = #stream.parameter.named<"model"::"unet.down_blocks.1.attentions.1.transformer_blocks.0.attn1.to_v.weight"> : tensor<640x640xf16>
  util.global private @_params.unet.down_blocks.1.attentions.1.transformer_blocks.0.attn1.to_out.0.weight {noinline} = #stream.parameter.named<"model"::"unet.down_blocks.1.attentions.1.transformer_blocks.0.attn1.to_out.0.weight"> : tensor<640x640xf16>
  util.global private @_params.unet.down_blocks.1.attentions.1.transformer_blocks.0.attn1.to_out.0.bias {noinline} = #stream.parameter.named<"model"::"unet.down_blocks.1.attentions.1.transformer_blocks.0.attn1.to_out.0.bias"> : tensor<640xf16>
  util.global private @_params.unet.down_blocks.1.attentions.1.transformer_blocks.0.norm2.weight {noinline} = #stream.parameter.named<"model"::"unet.down_blocks.1.attentions.1.transformer_blocks.0.norm2.weight"> : tensor<640xf16>
  util.global private @_params.unet.down_blocks.1.attentions.1.transformer_blocks.0.norm2.bias {noinline} = #stream.parameter.named<"model"::"unet.down_blocks.1.attentions.1.transformer_blocks.0.norm2.bias"> : tensor<640xf16>
  util.global private @_params.unet.down_blocks.1.attentions.1.transformer_blocks.0.attn2.to_q.weight {noinline} = #stream.parameter.named<"model"::"unet.down_blocks.1.attentions.1.transformer_blocks.0.attn2.to_q.weight"> : tensor<640x640xf16>
  util.global private @_params.unet.down_blocks.1.attentions.1.transformer_blocks.0.attn2.to_k.weight {noinline} = #stream.parameter.named<"model"::"unet.down_blocks.1.attentions.1.transformer_blocks.0.attn2.to_k.weight"> : tensor<640x2048xf16>
  util.global private @_params.unet.down_blocks.1.attentions.1.transformer_blocks.0.attn2.to_v.weight {noinline} = #stream.parameter.named<"model"::"unet.down_blocks.1.attentions.1.transformer_blocks.0.attn2.to_v.weight"> : tensor<640x2048xf16>
  util.global private @_params.unet.down_blocks.1.attentions.1.transformer_blocks.0.attn2.to_out.0.weight {noinline} = #stream.parameter.named<"model"::"unet.down_blocks.1.attentions.1.transformer_blocks.0.attn2.to_out.0.weight"> : tensor<640x640xf16>
  util.global private @_params.unet.down_blocks.1.attentions.1.transformer_blocks.0.attn2.to_out.0.bias {noinline} = #stream.parameter.named<"model"::"unet.down_blocks.1.attentions.1.transformer_blocks.0.attn2.to_out.0.bias"> : tensor<640xf16>
  util.global private @_params.unet.down_blocks.1.attentions.1.transformer_blocks.0.norm3.weight {noinline} = #stream.parameter.named<"model"::"unet.down_blocks.1.attentions.1.transformer_blocks.0.norm3.weight"> : tensor<640xf16>
  util.global private @_params.unet.down_blocks.1.attentions.1.transformer_blocks.0.norm3.bias {noinline} = #stream.parameter.named<"model"::"unet.down_blocks.1.attentions.1.transformer_blocks.0.norm3.bias"> : tensor<640xf16>
  util.global private @_params.unet.down_blocks.1.attentions.1.transformer_blocks.0.ff.net.0.proj.weight {noinline} = #stream.parameter.named<"model"::"unet.down_blocks.1.attentions.1.transformer_blocks.0.ff.net.0.proj.weight"> : tensor<5120x640xf16>
  util.global private @_params.unet.down_blocks.1.attentions.1.transformer_blocks.0.ff.net.0.proj.bias {noinline} = #stream.parameter.named<"model"::"unet.down_blocks.1.attentions.1.transformer_blocks.0.ff.net.0.proj.bias"> : tensor<5120xf16>
  util.global private @_params.unet.down_blocks.1.attentions.1.transformer_blocks.0.ff.net.2.weight {noinline} = #stream.parameter.named<"model"::"unet.down_blocks.1.attentions.1.transformer_blocks.0.ff.net.2.weight"> : tensor<640x2560xf16>
  util.global private @_params.unet.down_blocks.1.attentions.1.transformer_blocks.0.ff.net.2.bias {noinline} = #stream.parameter.named<"model"::"unet.down_blocks.1.attentions.1.transformer_blocks.0.ff.net.2.bias"> : tensor<640xf16>
  util.global private @_params.unet.down_blocks.1.attentions.1.transformer_blocks.1.norm1.weight {noinline} = #stream.parameter.named<"model"::"unet.down_blocks.1.attentions.1.transformer_blocks.1.norm1.weight"> : tensor<640xf16>
  util.global private @_params.unet.down_blocks.1.attentions.1.transformer_blocks.1.norm1.bias {noinline} = #stream.parameter.named<"model"::"unet.down_blocks.1.attentions.1.transformer_blocks.1.norm1.bias"> : tensor<640xf16>
  util.global private @_params.unet.down_blocks.1.attentions.1.transformer_blocks.1.attn1.to_q.weight {noinline} = #stream.parameter.named<"model"::"unet.down_blocks.1.attentions.1.transformer_blocks.1.attn1.to_q.weight"> : tensor<640x640xf16>
  util.global private @_params.unet.down_blocks.1.attentions.1.transformer_blocks.1.attn1.to_k.weight {noinline} = #stream.parameter.named<"model"::"unet.down_blocks.1.attentions.1.transformer_blocks.1.attn1.to_k.weight"> : tensor<640x640xf16>
  util.global private @_params.unet.down_blocks.1.attentions.1.transformer_blocks.1.attn1.to_v.weight {noinline} = #stream.parameter.named<"model"::"unet.down_blocks.1.attentions.1.transformer_blocks.1.attn1.to_v.weight"> : tensor<640x640xf16>
  util.global private @_params.unet.down_blocks.1.attentions.1.transformer_blocks.1.attn1.to_out.0.weight {noinline} = #stream.parameter.named<"model"::"unet.down_blocks.1.attentions.1.transformer_blocks.1.attn1.to_out.0.weight"> : tensor<640x640xf16>
  util.global private @_params.unet.down_blocks.1.attentions.1.transformer_blocks.1.attn1.to_out.0.bias {noinline} = #stream.parameter.named<"model"::"unet.down_blocks.1.attentions.1.transformer_blocks.1.attn1.to_out.0.bias"> : tensor<640xf16>
  util.global private @_params.unet.down_blocks.1.attentions.1.transformer_blocks.1.norm2.weight {noinline} = #stream.parameter.named<"model"::"unet.down_blocks.1.attentions.1.transformer_blocks.1.norm2.weight"> : tensor<640xf16>
  util.global private @_params.unet.down_blocks.1.attentions.1.transformer_blocks.1.norm2.bias {noinline} = #stream.parameter.named<"model"::"unet.down_blocks.1.attentions.1.transformer_blocks.1.norm2.bias"> : tensor<640xf16>
  util.global private @_params.unet.down_blocks.1.attentions.1.transformer_blocks.1.attn2.to_q.weight {noinline} = #stream.parameter.named<"model"::"unet.down_blocks.1.attentions.1.transformer_blocks.1.attn2.to_q.weight"> : tensor<640x640xf16>
  util.global private @_params.unet.down_blocks.1.attentions.1.transformer_blocks.1.attn2.to_k.weight {noinline} = #stream.parameter.named<"model"::"unet.down_blocks.1.attentions.1.transformer_blocks.1.attn2.to_k.weight"> : tensor<640x2048xf16>
  util.global private @_params.unet.down_blocks.1.attentions.1.transformer_blocks.1.attn2.to_v.weight {noinline} = #stream.parameter.named<"model"::"unet.down_blocks.1.attentions.1.transformer_blocks.1.attn2.to_v.weight"> : tensor<640x2048xf16>
  util.global private @_params.unet.down_blocks.1.attentions.1.transformer_blocks.1.attn2.to_out.0.weight {noinline} = #stream.parameter.named<"model"::"unet.down_blocks.1.attentions.1.transformer_blocks.1.attn2.to_out.0.weight"> : tensor<640x640xf16>
  util.global private @_params.unet.down_blocks.1.attentions.1.transformer_blocks.1.attn2.to_out.0.bias {noinline} = #stream.parameter.named<"model"::"unet.down_blocks.1.attentions.1.transformer_blocks.1.attn2.to_out.0.bias"> : tensor<640xf16>
  util.global private @_params.unet.down_blocks.1.attentions.1.transformer_blocks.1.norm3.weight {noinline} = #stream.parameter.named<"model"::"unet.down_blocks.1.attentions.1.transformer_blocks.1.norm3.weight"> : tensor<640xf16>
  util.global private @_params.unet.down_blocks.1.attentions.1.transformer_blocks.1.norm3.bias {noinline} = #stream.parameter.named<"model"::"unet.down_blocks.1.attentions.1.transformer_blocks.1.norm3.bias"> : tensor<640xf16>
  util.global private @_params.unet.down_blocks.1.attentions.1.transformer_blocks.1.ff.net.0.proj.weight {noinline} = #stream.parameter.named<"model"::"unet.down_blocks.1.attentions.1.transformer_blocks.1.ff.net.0.proj.weight"> : tensor<5120x640xf16>
  util.global private @_params.unet.down_blocks.1.attentions.1.transformer_blocks.1.ff.net.0.proj.bias {noinline} = #stream.parameter.named<"model"::"unet.down_blocks.1.attentions.1.transformer_blocks.1.ff.net.0.proj.bias"> : tensor<5120xf16>
  util.global private @_params.unet.down_blocks.1.attentions.1.transformer_blocks.1.ff.net.2.weight {noinline} = #stream.parameter.named<"model"::"unet.down_blocks.1.attentions.1.transformer_blocks.1.ff.net.2.weight"> : tensor<640x2560xf16>
  util.global private @_params.unet.down_blocks.1.attentions.1.transformer_blocks.1.ff.net.2.bias {noinline} = #stream.parameter.named<"model"::"unet.down_blocks.1.attentions.1.transformer_blocks.1.ff.net.2.bias"> : tensor<640xf16>
  util.global private @_params.unet.down_blocks.1.attentions.1.proj_out.weight {noinline} = #stream.parameter.named<"model"::"unet.down_blocks.1.attentions.1.proj_out.weight"> : tensor<640x640xf16>
  util.global private @_params.unet.down_blocks.1.attentions.1.proj_out.bias {noinline} = #stream.parameter.named<"model"::"unet.down_blocks.1.attentions.1.proj_out.bias"> : tensor<640xf16>
  util.global private @_params.unet.down_blocks.1.resnets.0.norm1.weight {noinline} = #stream.parameter.named<"model"::"unet.down_blocks.1.resnets.0.norm1.weight"> : tensor<320xf16>
  util.global private @_params.unet.down_blocks.1.resnets.0.norm1.bias {noinline} = #stream.parameter.named<"model"::"unet.down_blocks.1.resnets.0.norm1.bias"> : tensor<320xf16>
  util.global private @_params.unet.down_blocks.1.resnets.0.conv1.weight {noinline} = #stream.parameter.named<"model"::"unet.down_blocks.1.resnets.0.conv1.weight"> : tensor<640x320x3x3xf16>
  util.global private @_params.unet.down_blocks.1.resnets.0.conv1.bias {noinline} = #stream.parameter.named<"model"::"unet.down_blocks.1.resnets.0.conv1.bias"> : tensor<640xf16>
  util.global private @_params.unet.down_blocks.1.resnets.0.time_emb_proj.weight {noinline} = #stream.parameter.named<"model"::"unet.down_blocks.1.resnets.0.time_emb_proj.weight"> : tensor<640x1280xf16>
  util.global private @_params.unet.down_blocks.1.resnets.0.time_emb_proj.bias {noinline} = #stream.parameter.named<"model"::"unet.down_blocks.1.resnets.0.time_emb_proj.bias"> : tensor<640xf16>
  util.global private @_params.unet.down_blocks.1.resnets.0.norm2.weight {noinline} = #stream.parameter.named<"model"::"unet.down_blocks.1.resnets.0.norm2.weight"> : tensor<640xf16>
  util.global private @_params.unet.down_blocks.1.resnets.0.norm2.bias {noinline} = #stream.parameter.named<"model"::"unet.down_blocks.1.resnets.0.norm2.bias"> : tensor<640xf16>
  util.global private @_params.unet.down_blocks.1.resnets.0.conv2.weight {noinline} = #stream.parameter.named<"model"::"unet.down_blocks.1.resnets.0.conv2.weight"> : tensor<640x640x3x3xf16>
  util.global private @_params.unet.down_blocks.1.resnets.0.conv2.bias {noinline} = #stream.parameter.named<"model"::"unet.down_blocks.1.resnets.0.conv2.bias"> : tensor<640xf16>
  util.global private @_params.unet.down_blocks.1.resnets.0.conv_shortcut.weight {noinline} = #stream.parameter.named<"model"::"unet.down_blocks.1.resnets.0.conv_shortcut.weight"> : tensor<640x320x1x1xf16>
  util.global private @_params.unet.down_blocks.1.resnets.0.conv_shortcut.bias {noinline} = #stream.parameter.named<"model"::"unet.down_blocks.1.resnets.0.conv_shortcut.bias"> : tensor<640xf16>
  util.global private @_params.unet.down_blocks.1.resnets.1.norm1.weight {noinline} = #stream.parameter.named<"model"::"unet.down_blocks.1.resnets.1.norm1.weight"> : tensor<640xf16>
  util.global private @_params.unet.down_blocks.1.resnets.1.norm1.bias {noinline} = #stream.parameter.named<"model"::"unet.down_blocks.1.resnets.1.norm1.bias"> : tensor<640xf16>
  util.global private @_params.unet.down_blocks.1.resnets.1.conv1.weight {noinline} = #stream.parameter.named<"model"::"unet.down_blocks.1.resnets.1.conv1.weight"> : tensor<640x640x3x3xf16>
  util.global private @_params.unet.down_blocks.1.resnets.1.conv1.bias {noinline} = #stream.parameter.named<"model"::"unet.down_blocks.1.resnets.1.conv1.bias"> : tensor<640xf16>
  util.global private @_params.unet.down_blocks.1.resnets.1.time_emb_proj.weight {noinline} = #stream.parameter.named<"model"::"unet.down_blocks.1.resnets.1.time_emb_proj.weight"> : tensor<640x1280xf16>
  util.global private @_params.unet.down_blocks.1.resnets.1.time_emb_proj.bias {noinline} = #stream.parameter.named<"model"::"unet.down_blocks.1.resnets.1.time_emb_proj.bias"> : tensor<640xf16>
  util.global private @_params.unet.down_blocks.1.resnets.1.norm2.weight {noinline} = #stream.parameter.named<"model"::"unet.down_blocks.1.resnets.1.norm2.weight"> : tensor<640xf16>
  util.global private @_params.unet.down_blocks.1.resnets.1.norm2.bias {noinline} = #stream.parameter.named<"model"::"unet.down_blocks.1.resnets.1.norm2.bias"> : tensor<640xf16>
  util.global private @_params.unet.down_blocks.1.resnets.1.conv2.weight {noinline} = #stream.parameter.named<"model"::"unet.down_blocks.1.resnets.1.conv2.weight"> : tensor<640x640x3x3xf16>
  util.global private @_params.unet.down_blocks.1.resnets.1.conv2.bias {noinline} = #stream.parameter.named<"model"::"unet.down_blocks.1.resnets.1.conv2.bias"> : tensor<640xf16>
  util.global private @_params.unet.down_blocks.1.downsamplers.0.conv.weight {noinline} = #stream.parameter.named<"model"::"unet.down_blocks.1.downsamplers.0.conv.weight"> : tensor<640x640x3x3xf16>
  util.global private @_params.unet.down_blocks.1.downsamplers.0.conv.bias {noinline} = #stream.parameter.named<"model"::"unet.down_blocks.1.downsamplers.0.conv.bias"> : tensor<640xf16>
  util.global private @_params.unet.down_blocks.2.attentions.0.norm.weight {noinline} = #stream.parameter.named<"model"::"unet.down_blocks.2.attentions.0.norm.weight"> : tensor<1280xf16>
  util.global private @_params.unet.down_blocks.2.attentions.0.norm.bias {noinline} = #stream.parameter.named<"model"::"unet.down_blocks.2.attentions.0.norm.bias"> : tensor<1280xf16>
  util.global private @_params.unet.down_blocks.2.attentions.0.proj_in.weight {noinline} = #stream.parameter.named<"model"::"unet.down_blocks.2.attentions.0.proj_in.weight"> : tensor<1280x1280xf16>
  util.global private @_params.unet.down_blocks.2.attentions.0.proj_in.bias {noinline} = #stream.parameter.named<"model"::"unet.down_blocks.2.attentions.0.proj_in.bias"> : tensor<1280xf16>
  util.global private @_params.unet.down_blocks.2.attentions.0.transformer_blocks.0.norm1.weight {noinline} = #stream.parameter.named<"model"::"unet.down_blocks.2.attentions.0.transformer_blocks.0.norm1.weight"> : tensor<1280xf16>
  util.global private @_params.unet.down_blocks.2.attentions.0.transformer_blocks.0.norm1.bias {noinline} = #stream.parameter.named<"model"::"unet.down_blocks.2.attentions.0.transformer_blocks.0.norm1.bias"> : tensor<1280xf16>
  util.global private @_params.unet.down_blocks.2.attentions.0.transformer_blocks.0.attn1.to_q.weight {noinline} = #stream.parameter.named<"model"::"unet.down_blocks.2.attentions.0.transformer_blocks.0.attn1.to_q.weight"> : tensor<1280x1280xf16>
  util.global private @_params.unet.down_blocks.2.attentions.0.transformer_blocks.0.attn1.to_k.weight {noinline} = #stream.parameter.named<"model"::"unet.down_blocks.2.attentions.0.transformer_blocks.0.attn1.to_k.weight"> : tensor<1280x1280xf16>
  util.global private @_params.unet.down_blocks.2.attentions.0.transformer_blocks.0.attn1.to_v.weight {noinline} = #stream.parameter.named<"model"::"unet.down_blocks.2.attentions.0.transformer_blocks.0.attn1.to_v.weight"> : tensor<1280x1280xf16>
  util.global private @_params.unet.down_blocks.2.attentions.0.transformer_blocks.0.attn1.to_out.0.weight {noinline} = #stream.parameter.named<"model"::"unet.down_blocks.2.attentions.0.transformer_blocks.0.attn1.to_out.0.weight"> : tensor<1280x1280xf16>
  util.global private @_params.unet.down_blocks.2.attentions.0.transformer_blocks.0.attn1.to_out.0.bias {noinline} = #stream.parameter.named<"model"::"unet.down_blocks.2.attentions.0.transformer_blocks.0.attn1.to_out.0.bias"> : tensor<1280xf16>
  util.global private @_params.unet.down_blocks.2.attentions.0.transformer_blocks.0.norm2.weight {noinline} = #stream.parameter.named<"model"::"unet.down_blocks.2.attentions.0.transformer_blocks.0.norm2.weight"> : tensor<1280xf16>
  util.global private @_params.unet.down_blocks.2.attentions.0.transformer_blocks.0.norm2.bias {noinline} = #stream.parameter.named<"model"::"unet.down_blocks.2.attentions.0.transformer_blocks.0.norm2.bias"> : tensor<1280xf16>
  util.global private @_params.unet.down_blocks.2.attentions.0.transformer_blocks.0.attn2.to_q.weight {noinline} = #stream.parameter.named<"model"::"unet.down_blocks.2.attentions.0.transformer_blocks.0.attn2.to_q.weight"> : tensor<1280x1280xf16>
  util.global private @_params.unet.down_blocks.2.attentions.0.transformer_blocks.0.attn2.to_k.weight {noinline} = #stream.parameter.named<"model"::"unet.down_blocks.2.attentions.0.transformer_blocks.0.attn2.to_k.weight"> : tensor<1280x2048xf16>
  util.global private @_params.unet.down_blocks.2.attentions.0.transformer_blocks.0.attn2.to_v.weight {noinline} = #stream.parameter.named<"model"::"unet.down_blocks.2.attentions.0.transformer_blocks.0.attn2.to_v.weight"> : tensor<1280x2048xf16>
  util.global private @_params.unet.down_blocks.2.attentions.0.transformer_blocks.0.attn2.to_out.0.weight {noinline} = #stream.parameter.named<"model"::"unet.down_blocks.2.attentions.0.transformer_blocks.0.attn2.to_out.0.weight"> : tensor<1280x1280xf16>
  util.global private @_params.unet.down_blocks.2.attentions.0.transformer_blocks.0.attn2.to_out.0.bias {noinline} = #stream.parameter.named<"model"::"unet.down_blocks.2.attentions.0.transformer_blocks.0.attn2.to_out.0.bias"> : tensor<1280xf16>
  util.global private @_params.unet.down_blocks.2.attentions.0.transformer_blocks.0.norm3.weight {noinline} = #stream.parameter.named<"model"::"unet.down_blocks.2.attentions.0.transformer_blocks.0.norm3.weight"> : tensor<1280xf16>
  util.global private @_params.unet.down_blocks.2.attentions.0.transformer_blocks.0.norm3.bias {noinline} = #stream.parameter.named<"model"::"unet.down_blocks.2.attentions.0.transformer_blocks.0.norm3.bias"> : tensor<1280xf16>
  util.global private @_params.unet.down_blocks.2.attentions.0.transformer_blocks.0.ff.net.0.proj.weight {noinline} = #stream.parameter.named<"model"::"unet.down_blocks.2.attentions.0.transformer_blocks.0.ff.net.0.proj.weight"> : tensor<10240x1280xf16>
  util.global private @_params.unet.down_blocks.2.attentions.0.transformer_blocks.0.ff.net.0.proj.bias {noinline} = #stream.parameter.named<"model"::"unet.down_blocks.2.attentions.0.transformer_blocks.0.ff.net.0.proj.bias"> : tensor<10240xf16>
  util.global private @_params.unet.down_blocks.2.attentions.0.transformer_blocks.0.ff.net.2.weight {noinline} = #stream.parameter.named<"model"::"unet.down_blocks.2.attentions.0.transformer_blocks.0.ff.net.2.weight"> : tensor<1280x5120xf16>
  util.global private @_params.unet.down_blocks.2.attentions.0.transformer_blocks.0.ff.net.2.bias {noinline} = #stream.parameter.named<"model"::"unet.down_blocks.2.attentions.0.transformer_blocks.0.ff.net.2.bias"> : tensor<1280xf16>
  util.global private @_params.unet.down_blocks.2.attentions.0.transformer_blocks.1.norm1.weight {noinline} = #stream.parameter.named<"model"::"unet.down_blocks.2.attentions.0.transformer_blocks.1.norm1.weight"> : tensor<1280xf16>
  util.global private @_params.unet.down_blocks.2.attentions.0.transformer_blocks.1.norm1.bias {noinline} = #stream.parameter.named<"model"::"unet.down_blocks.2.attentions.0.transformer_blocks.1.norm1.bias"> : tensor<1280xf16>
  util.global private @_params.unet.down_blocks.2.attentions.0.transformer_blocks.1.attn1.to_q.weight {noinline} = #stream.parameter.named<"model"::"unet.down_blocks.2.attentions.0.transformer_blocks.1.attn1.to_q.weight"> : tensor<1280x1280xf16>
  util.global private @_params.unet.down_blocks.2.attentions.0.transformer_blocks.1.attn1.to_k.weight {noinline} = #stream.parameter.named<"model"::"unet.down_blocks.2.attentions.0.transformer_blocks.1.attn1.to_k.weight"> : tensor<1280x1280xf16>
  util.global private @_params.unet.down_blocks.2.attentions.0.transformer_blocks.1.attn1.to_v.weight {noinline} = #stream.parameter.named<"model"::"unet.down_blocks.2.attentions.0.transformer_blocks.1.attn1.to_v.weight"> : tensor<1280x1280xf16>
  util.global private @_params.unet.down_blocks.2.attentions.0.transformer_blocks.1.attn1.to_out.0.weight {noinline} = #stream.parameter.named<"model"::"unet.down_blocks.2.attentions.0.transformer_blocks.1.attn1.to_out.0.weight"> : tensor<1280x1280xf16>
  util.global private @_params.unet.down_blocks.2.attentions.0.transformer_blocks.1.attn1.to_out.0.bias {noinline} = #stream.parameter.named<"model"::"unet.down_blocks.2.attentions.0.transformer_blocks.1.attn1.to_out.0.bias"> : tensor<1280xf16>
  util.global private @_params.unet.down_blocks.2.attentions.0.transformer_blocks.1.norm2.weight {noinline} = #stream.parameter.named<"model"::"unet.down_blocks.2.attentions.0.transformer_blocks.1.norm2.weight"> : tensor<1280xf16>
  util.global private @_params.unet.down_blocks.2.attentions.0.transformer_blocks.1.norm2.bias {noinline} = #stream.parameter.named<"model"::"unet.down_blocks.2.attentions.0.transformer_blocks.1.norm2.bias"> : tensor<1280xf16>
  util.global private @_params.unet.down_blocks.2.attentions.0.transformer_blocks.1.attn2.to_q.weight {noinline} = #stream.parameter.named<"model"::"unet.down_blocks.2.attentions.0.transformer_blocks.1.attn2.to_q.weight"> : tensor<1280x1280xf16>
  util.global private @_params.unet.down_blocks.2.attentions.0.transformer_blocks.1.attn2.to_k.weight {noinline} = #stream.parameter.named<"model"::"unet.down_blocks.2.attentions.0.transformer_blocks.1.attn2.to_k.weight"> : tensor<1280x2048xf16>
  util.global private @_params.unet.down_blocks.2.attentions.0.transformer_blocks.1.attn2.to_v.weight {noinline} = #stream.parameter.named<"model"::"unet.down_blocks.2.attentions.0.transformer_blocks.1.attn2.to_v.weight"> : tensor<1280x2048xf16>
  util.global private @_params.unet.down_blocks.2.attentions.0.transformer_blocks.1.attn2.to_out.0.weight {noinline} = #stream.parameter.named<"model"::"unet.down_blocks.2.attentions.0.transformer_blocks.1.attn2.to_out.0.weight"> : tensor<1280x1280xf16>
  util.global private @_params.unet.down_blocks.2.attentions.0.transformer_blocks.1.attn2.to_out.0.bias {noinline} = #stream.parameter.named<"model"::"unet.down_blocks.2.attentions.0.transformer_blocks.1.attn2.to_out.0.bias"> : tensor<1280xf16>
  util.global private @_params.unet.down_blocks.2.attentions.0.transformer_blocks.1.norm3.weight {noinline} = #stream.parameter.named<"model"::"unet.down_blocks.2.attentions.0.transformer_blocks.1.norm3.weight"> : tensor<1280xf16>
  util.global private @_params.unet.down_blocks.2.attentions.0.transformer_blocks.1.norm3.bias {noinline} = #stream.parameter.named<"model"::"unet.down_blocks.2.attentions.0.transformer_blocks.1.norm3.bias"> : tensor<1280xf16>
  util.global private @_params.unet.down_blocks.2.attentions.0.transformer_blocks.1.ff.net.0.proj.weight {noinline} = #stream.parameter.named<"model"::"unet.down_blocks.2.attentions.0.transformer_blocks.1.ff.net.0.proj.weight"> : tensor<10240x1280xf16>
  util.global private @_params.unet.down_blocks.2.attentions.0.transformer_blocks.1.ff.net.0.proj.bias {noinline} = #stream.parameter.named<"model"::"unet.down_blocks.2.attentions.0.transformer_blocks.1.ff.net.0.proj.bias"> : tensor<10240xf16>
  util.global private @_params.unet.down_blocks.2.attentions.0.transformer_blocks.1.ff.net.2.weight {noinline} = #stream.parameter.named<"model"::"unet.down_blocks.2.attentions.0.transformer_blocks.1.ff.net.2.weight"> : tensor<1280x5120xf16>
  util.global private @_params.unet.down_blocks.2.attentions.0.transformer_blocks.1.ff.net.2.bias {noinline} = #stream.parameter.named<"model"::"unet.down_blocks.2.attentions.0.transformer_blocks.1.ff.net.2.bias"> : tensor<1280xf16>
  util.global private @_params.unet.down_blocks.2.attentions.0.transformer_blocks.2.norm1.weight {noinline} = #stream.parameter.named<"model"::"unet.down_blocks.2.attentions.0.transformer_blocks.2.norm1.weight"> : tensor<1280xf16>
  util.global private @_params.unet.down_blocks.2.attentions.0.transformer_blocks.2.norm1.bias {noinline} = #stream.parameter.named<"model"::"unet.down_blocks.2.attentions.0.transformer_blocks.2.norm1.bias"> : tensor<1280xf16>
  util.global private @_params.unet.down_blocks.2.attentions.0.transformer_blocks.2.attn1.to_q.weight {noinline} = #stream.parameter.named<"model"::"unet.down_blocks.2.attentions.0.transformer_blocks.2.attn1.to_q.weight"> : tensor<1280x1280xf16>
  util.global private @_params.unet.down_blocks.2.attentions.0.transformer_blocks.2.attn1.to_k.weight {noinline} = #stream.parameter.named<"model"::"unet.down_blocks.2.attentions.0.transformer_blocks.2.attn1.to_k.weight"> : tensor<1280x1280xf16>
  util.global private @_params.unet.down_blocks.2.attentions.0.transformer_blocks.2.attn1.to_v.weight {noinline} = #stream.parameter.named<"model"::"unet.down_blocks.2.attentions.0.transformer_blocks.2.attn1.to_v.weight"> : tensor<1280x1280xf16>
  util.global private @_params.unet.down_blocks.2.attentions.0.transformer_blocks.2.attn1.to_out.0.weight {noinline} = #stream.parameter.named<"model"::"unet.down_blocks.2.attentions.0.transformer_blocks.2.attn1.to_out.0.weight"> : tensor<1280x1280xf16>
  util.global private @_params.unet.down_blocks.2.attentions.0.transformer_blocks.2.attn1.to_out.0.bias {noinline} = #stream.parameter.named<"model"::"unet.down_blocks.2.attentions.0.transformer_blocks.2.attn1.to_out.0.bias"> : tensor<1280xf16>
  util.global private @_params.unet.down_blocks.2.attentions.0.transformer_blocks.2.norm2.weight {noinline} = #stream.parameter.named<"model"::"unet.down_blocks.2.attentions.0.transformer_blocks.2.norm2.weight"> : tensor<1280xf16>
  util.global private @_params.unet.down_blocks.2.attentions.0.transformer_blocks.2.norm2.bias {noinline} = #stream.parameter.named<"model"::"unet.down_blocks.2.attentions.0.transformer_blocks.2.norm2.bias"> : tensor<1280xf16>
  util.global private @_params.unet.down_blocks.2.attentions.0.transformer_blocks.2.attn2.to_q.weight {noinline} = #stream.parameter.named<"model"::"unet.down_blocks.2.attentions.0.transformer_blocks.2.attn2.to_q.weight"> : tensor<1280x1280xf16>
  util.global private @_params.unet.down_blocks.2.attentions.0.transformer_blocks.2.attn2.to_k.weight {noinline} = #stream.parameter.named<"model"::"unet.down_blocks.2.attentions.0.transformer_blocks.2.attn2.to_k.weight"> : tensor<1280x2048xf16>
  util.global private @_params.unet.down_blocks.2.attentions.0.transformer_blocks.2.attn2.to_v.weight {noinline} = #stream.parameter.named<"model"::"unet.down_blocks.2.attentions.0.transformer_blocks.2.attn2.to_v.weight"> : tensor<1280x2048xf16>
  util.global private @_params.unet.down_blocks.2.attentions.0.transformer_blocks.2.attn2.to_out.0.weight {noinline} = #stream.parameter.named<"model"::"unet.down_blocks.2.attentions.0.transformer_blocks.2.attn2.to_out.0.weight"> : tensor<1280x1280xf16>
  util.global private @_params.unet.down_blocks.2.attentions.0.transformer_blocks.2.attn2.to_out.0.bias {noinline} = #stream.parameter.named<"model"::"unet.down_blocks.2.attentions.0.transformer_blocks.2.attn2.to_out.0.bias"> : tensor<1280xf16>
  util.global private @_params.unet.down_blocks.2.attentions.0.transformer_blocks.2.norm3.weight {noinline} = #stream.parameter.named<"model"::"unet.down_blocks.2.attentions.0.transformer_blocks.2.norm3.weight"> : tensor<1280xf16>
  util.global private @_params.unet.down_blocks.2.attentions.0.transformer_blocks.2.norm3.bias {noinline} = #stream.parameter.named<"model"::"unet.down_blocks.2.attentions.0.transformer_blocks.2.norm3.bias"> : tensor<1280xf16>
  util.global private @_params.unet.down_blocks.2.attentions.0.transformer_blocks.2.ff.net.0.proj.weight {noinline} = #stream.parameter.named<"model"::"unet.down_blocks.2.attentions.0.transformer_blocks.2.ff.net.0.proj.weight"> : tensor<10240x1280xf16>
  util.global private @_params.unet.down_blocks.2.attentions.0.transformer_blocks.2.ff.net.0.proj.bias {noinline} = #stream.parameter.named<"model"::"unet.down_blocks.2.attentions.0.transformer_blocks.2.ff.net.0.proj.bias"> : tensor<10240xf16>
  util.global private @_params.unet.down_blocks.2.attentions.0.transformer_blocks.2.ff.net.2.weight {noinline} = #stream.parameter.named<"model"::"unet.down_blocks.2.attentions.0.transformer_blocks.2.ff.net.2.weight"> : tensor<1280x5120xf16>
  util.global private @_params.unet.down_blocks.2.attentions.0.transformer_blocks.2.ff.net.2.bias {noinline} = #stream.parameter.named<"model"::"unet.down_blocks.2.attentions.0.transformer_blocks.2.ff.net.2.bias"> : tensor<1280xf16>
  util.global private @_params.unet.down_blocks.2.attentions.0.transformer_blocks.3.norm1.weight {noinline} = #stream.parameter.named<"model"::"unet.down_blocks.2.attentions.0.transformer_blocks.3.norm1.weight"> : tensor<1280xf16>
  util.global private @_params.unet.down_blocks.2.attentions.0.transformer_blocks.3.norm1.bias {noinline} = #stream.parameter.named<"model"::"unet.down_blocks.2.attentions.0.transformer_blocks.3.norm1.bias"> : tensor<1280xf16>
  util.global private @_params.unet.down_blocks.2.attentions.0.transformer_blocks.3.attn1.to_q.weight {noinline} = #stream.parameter.named<"model"::"unet.down_blocks.2.attentions.0.transformer_blocks.3.attn1.to_q.weight"> : tensor<1280x1280xf16>
  util.global private @_params.unet.down_blocks.2.attentions.0.transformer_blocks.3.attn1.to_k.weight {noinline} = #stream.parameter.named<"model"::"unet.down_blocks.2.attentions.0.transformer_blocks.3.attn1.to_k.weight"> : tensor<1280x1280xf16>
  util.global private @_params.unet.down_blocks.2.attentions.0.transformer_blocks.3.attn1.to_v.weight {noinline} = #stream.parameter.named<"model"::"unet.down_blocks.2.attentions.0.transformer_blocks.3.attn1.to_v.weight"> : tensor<1280x1280xf16>
  util.global private @_params.unet.down_blocks.2.attentions.0.transformer_blocks.3.attn1.to_out.0.weight {noinline} = #stream.parameter.named<"model"::"unet.down_blocks.2.attentions.0.transformer_blocks.3.attn1.to_out.0.weight"> : tensor<1280x1280xf16>
  util.global private @_params.unet.down_blocks.2.attentions.0.transformer_blocks.3.attn1.to_out.0.bias {noinline} = #stream.parameter.named<"model"::"unet.down_blocks.2.attentions.0.transformer_blocks.3.attn1.to_out.0.bias"> : tensor<1280xf16>
  util.global private @_params.unet.down_blocks.2.attentions.0.transformer_blocks.3.norm2.weight {noinline} = #stream.parameter.named<"model"::"unet.down_blocks.2.attentions.0.transformer_blocks.3.norm2.weight"> : tensor<1280xf16>
  util.global private @_params.unet.down_blocks.2.attentions.0.transformer_blocks.3.norm2.bias {noinline} = #stream.parameter.named<"model"::"unet.down_blocks.2.attentions.0.transformer_blocks.3.norm2.bias"> : tensor<1280xf16>
  util.global private @_params.unet.down_blocks.2.attentions.0.transformer_blocks.3.attn2.to_q.weight {noinline} = #stream.parameter.named<"model"::"unet.down_blocks.2.attentions.0.transformer_blocks.3.attn2.to_q.weight"> : tensor<1280x1280xf16>
  util.global private @_params.unet.down_blocks.2.attentions.0.transformer_blocks.3.attn2.to_k.weight {noinline} = #stream.parameter.named<"model"::"unet.down_blocks.2.attentions.0.transformer_blocks.3.attn2.to_k.weight"> : tensor<1280x2048xf16>
  util.global private @_params.unet.down_blocks.2.attentions.0.transformer_blocks.3.attn2.to_v.weight {noinline} = #stream.parameter.named<"model"::"unet.down_blocks.2.attentions.0.transformer_blocks.3.attn2.to_v.weight"> : tensor<1280x2048xf16>
  util.global private @_params.unet.down_blocks.2.attentions.0.transformer_blocks.3.attn2.to_out.0.weight {noinline} = #stream.parameter.named<"model"::"unet.down_blocks.2.attentions.0.transformer_blocks.3.attn2.to_out.0.weight"> : tensor<1280x1280xf16>
  util.global private @_params.unet.down_blocks.2.attentions.0.transformer_blocks.3.attn2.to_out.0.bias {noinline} = #stream.parameter.named<"model"::"unet.down_blocks.2.attentions.0.transformer_blocks.3.attn2.to_out.0.bias"> : tensor<1280xf16>
  util.global private @_params.unet.down_blocks.2.attentions.0.transformer_blocks.3.norm3.weight {noinline} = #stream.parameter.named<"model"::"unet.down_blocks.2.attentions.0.transformer_blocks.3.norm3.weight"> : tensor<1280xf16>
  util.global private @_params.unet.down_blocks.2.attentions.0.transformer_blocks.3.norm3.bias {noinline} = #stream.parameter.named<"model"::"unet.down_blocks.2.attentions.0.transformer_blocks.3.norm3.bias"> : tensor<1280xf16>
  util.global private @_params.unet.down_blocks.2.attentions.0.transformer_blocks.3.ff.net.0.proj.weight {noinline} = #stream.parameter.named<"model"::"unet.down_blocks.2.attentions.0.transformer_blocks.3.ff.net.0.proj.weight"> : tensor<10240x1280xf16>
  util.global private @_params.unet.down_blocks.2.attentions.0.transformer_blocks.3.ff.net.0.proj.bias {noinline} = #stream.parameter.named<"model"::"unet.down_blocks.2.attentions.0.transformer_blocks.3.ff.net.0.proj.bias"> : tensor<10240xf16>
  util.global private @_params.unet.down_blocks.2.attentions.0.transformer_blocks.3.ff.net.2.weight {noinline} = #stream.parameter.named<"model"::"unet.down_blocks.2.attentions.0.transformer_blocks.3.ff.net.2.weight"> : tensor<1280x5120xf16>
  util.global private @_params.unet.down_blocks.2.attentions.0.transformer_blocks.3.ff.net.2.bias {noinline} = #stream.parameter.named<"model"::"unet.down_blocks.2.attentions.0.transformer_blocks.3.ff.net.2.bias"> : tensor<1280xf16>
  util.global private @_params.unet.down_blocks.2.attentions.0.transformer_blocks.4.norm1.weight {noinline} = #stream.parameter.named<"model"::"unet.down_blocks.2.attentions.0.transformer_blocks.4.norm1.weight"> : tensor<1280xf16>
  util.global private @_params.unet.down_blocks.2.attentions.0.transformer_blocks.4.norm1.bias {noinline} = #stream.parameter.named<"model"::"unet.down_blocks.2.attentions.0.transformer_blocks.4.norm1.bias"> : tensor<1280xf16>
  util.global private @_params.unet.down_blocks.2.attentions.0.transformer_blocks.4.attn1.to_q.weight {noinline} = #stream.parameter.named<"model"::"unet.down_blocks.2.attentions.0.transformer_blocks.4.attn1.to_q.weight"> : tensor<1280x1280xf16>
  util.global private @_params.unet.down_blocks.2.attentions.0.transformer_blocks.4.attn1.to_k.weight {noinline} = #stream.parameter.named<"model"::"unet.down_blocks.2.attentions.0.transformer_blocks.4.attn1.to_k.weight"> : tensor<1280x1280xf16>
  util.global private @_params.unet.down_blocks.2.attentions.0.transformer_blocks.4.attn1.to_v.weight {noinline} = #stream.parameter.named<"model"::"unet.down_blocks.2.attentions.0.transformer_blocks.4.attn1.to_v.weight"> : tensor<1280x1280xf16>
  util.global private @_params.unet.down_blocks.2.attentions.0.transformer_blocks.4.attn1.to_out.0.weight {noinline} = #stream.parameter.named<"model"::"unet.down_blocks.2.attentions.0.transformer_blocks.4.attn1.to_out.0.weight"> : tensor<1280x1280xf16>
  util.global private @_params.unet.down_blocks.2.attentions.0.transformer_blocks.4.attn1.to_out.0.bias {noinline} = #stream.parameter.named<"model"::"unet.down_blocks.2.attentions.0.transformer_blocks.4.attn1.to_out.0.bias"> : tensor<1280xf16>
  util.global private @_params.unet.down_blocks.2.attentions.0.transformer_blocks.4.norm2.weight {noinline} = #stream.parameter.named<"model"::"unet.down_blocks.2.attentions.0.transformer_blocks.4.norm2.weight"> : tensor<1280xf16>
  util.global private @_params.unet.down_blocks.2.attentions.0.transformer_blocks.4.norm2.bias {noinline} = #stream.parameter.named<"model"::"unet.down_blocks.2.attentions.0.transformer_blocks.4.norm2.bias"> : tensor<1280xf16>
  util.global private @_params.unet.down_blocks.2.attentions.0.transformer_blocks.4.attn2.to_q.weight {noinline} = #stream.parameter.named<"model"::"unet.down_blocks.2.attentions.0.transformer_blocks.4.attn2.to_q.weight"> : tensor<1280x1280xf16>
  util.global private @_params.unet.down_blocks.2.attentions.0.transformer_blocks.4.attn2.to_k.weight {noinline} = #stream.parameter.named<"model"::"unet.down_blocks.2.attentions.0.transformer_blocks.4.attn2.to_k.weight"> : tensor<1280x2048xf16>
  util.global private @_params.unet.down_blocks.2.attentions.0.transformer_blocks.4.attn2.to_v.weight {noinline} = #stream.parameter.named<"model"::"unet.down_blocks.2.attentions.0.transformer_blocks.4.attn2.to_v.weight"> : tensor<1280x2048xf16>
  util.global private @_params.unet.down_blocks.2.attentions.0.transformer_blocks.4.attn2.to_out.0.weight {noinline} = #stream.parameter.named<"model"::"unet.down_blocks.2.attentions.0.transformer_blocks.4.attn2.to_out.0.weight"> : tensor<1280x1280xf16>
  util.global private @_params.unet.down_blocks.2.attentions.0.transformer_blocks.4.attn2.to_out.0.bias {noinline} = #stream.parameter.named<"model"::"unet.down_blocks.2.attentions.0.transformer_blocks.4.attn2.to_out.0.bias"> : tensor<1280xf16>
  util.global private @_params.unet.down_blocks.2.attentions.0.transformer_blocks.4.norm3.weight {noinline} = #stream.parameter.named<"model"::"unet.down_blocks.2.attentions.0.transformer_blocks.4.norm3.weight"> : tensor<1280xf16>
  util.global private @_params.unet.down_blocks.2.attentions.0.transformer_blocks.4.norm3.bias {noinline} = #stream.parameter.named<"model"::"unet.down_blocks.2.attentions.0.transformer_blocks.4.norm3.bias"> : tensor<1280xf16>
  util.global private @_params.unet.down_blocks.2.attentions.0.transformer_blocks.4.ff.net.0.proj.weight {noinline} = #stream.parameter.named<"model"::"unet.down_blocks.2.attentions.0.transformer_blocks.4.ff.net.0.proj.weight"> : tensor<10240x1280xf16>
  util.global private @_params.unet.down_blocks.2.attentions.0.transformer_blocks.4.ff.net.0.proj.bias {noinline} = #stream.parameter.named<"model"::"unet.down_blocks.2.attentions.0.transformer_blocks.4.ff.net.0.proj.bias"> : tensor<10240xf16>
  util.global private @_params.unet.down_blocks.2.attentions.0.transformer_blocks.4.ff.net.2.weight {noinline} = #stream.parameter.named<"model"::"unet.down_blocks.2.attentions.0.transformer_blocks.4.ff.net.2.weight"> : tensor<1280x5120xf16>
  util.global private @_params.unet.down_blocks.2.attentions.0.transformer_blocks.4.ff.net.2.bias {noinline} = #stream.parameter.named<"model"::"unet.down_blocks.2.attentions.0.transformer_blocks.4.ff.net.2.bias"> : tensor<1280xf16>
  util.global private @_params.unet.down_blocks.2.attentions.0.transformer_blocks.5.norm1.weight {noinline} = #stream.parameter.named<"model"::"unet.down_blocks.2.attentions.0.transformer_blocks.5.norm1.weight"> : tensor<1280xf16>
  util.global private @_params.unet.down_blocks.2.attentions.0.transformer_blocks.5.norm1.bias {noinline} = #stream.parameter.named<"model"::"unet.down_blocks.2.attentions.0.transformer_blocks.5.norm1.bias"> : tensor<1280xf16>
  util.global private @_params.unet.down_blocks.2.attentions.0.transformer_blocks.5.attn1.to_q.weight {noinline} = #stream.parameter.named<"model"::"unet.down_blocks.2.attentions.0.transformer_blocks.5.attn1.to_q.weight"> : tensor<1280x1280xf16>
  util.global private @_params.unet.down_blocks.2.attentions.0.transformer_blocks.5.attn1.to_k.weight {noinline} = #stream.parameter.named<"model"::"unet.down_blocks.2.attentions.0.transformer_blocks.5.attn1.to_k.weight"> : tensor<1280x1280xf16>
  util.global private @_params.unet.down_blocks.2.attentions.0.transformer_blocks.5.attn1.to_v.weight {noinline} = #stream.parameter.named<"model"::"unet.down_blocks.2.attentions.0.transformer_blocks.5.attn1.to_v.weight"> : tensor<1280x1280xf16>
  util.global private @_params.unet.down_blocks.2.attentions.0.transformer_blocks.5.attn1.to_out.0.weight {noinline} = #stream.parameter.named<"model"::"unet.down_blocks.2.attentions.0.transformer_blocks.5.attn1.to_out.0.weight"> : tensor<1280x1280xf16>
  util.global private @_params.unet.down_blocks.2.attentions.0.transformer_blocks.5.attn1.to_out.0.bias {noinline} = #stream.parameter.named<"model"::"unet.down_blocks.2.attentions.0.transformer_blocks.5.attn1.to_out.0.bias"> : tensor<1280xf16>
  util.global private @_params.unet.down_blocks.2.attentions.0.transformer_blocks.5.norm2.weight {noinline} = #stream.parameter.named<"model"::"unet.down_blocks.2.attentions.0.transformer_blocks.5.norm2.weight"> : tensor<1280xf16>
  util.global private @_params.unet.down_blocks.2.attentions.0.transformer_blocks.5.norm2.bias {noinline} = #stream.parameter.named<"model"::"unet.down_blocks.2.attentions.0.transformer_blocks.5.norm2.bias"> : tensor<1280xf16>
  util.global private @_params.unet.down_blocks.2.attentions.0.transformer_blocks.5.attn2.to_q.weight {noinline} = #stream.parameter.named<"model"::"unet.down_blocks.2.attentions.0.transformer_blocks.5.attn2.to_q.weight"> : tensor<1280x1280xf16>
  util.global private @_params.unet.down_blocks.2.attentions.0.transformer_blocks.5.attn2.to_k.weight {noinline} = #stream.parameter.named<"model"::"unet.down_blocks.2.attentions.0.transformer_blocks.5.attn2.to_k.weight"> : tensor<1280x2048xf16>
  util.global private @_params.unet.down_blocks.2.attentions.0.transformer_blocks.5.attn2.to_v.weight {noinline} = #stream.parameter.named<"model"::"unet.down_blocks.2.attentions.0.transformer_blocks.5.attn2.to_v.weight"> : tensor<1280x2048xf16>
  util.global private @_params.unet.down_blocks.2.attentions.0.transformer_blocks.5.attn2.to_out.0.weight {noinline} = #stream.parameter.named<"model"::"unet.down_blocks.2.attentions.0.transformer_blocks.5.attn2.to_out.0.weight"> : tensor<1280x1280xf16>
  util.global private @_params.unet.down_blocks.2.attentions.0.transformer_blocks.5.attn2.to_out.0.bias {noinline} = #stream.parameter.named<"model"::"unet.down_blocks.2.attentions.0.transformer_blocks.5.attn2.to_out.0.bias"> : tensor<1280xf16>
  util.global private @_params.unet.down_blocks.2.attentions.0.transformer_blocks.5.norm3.weight {noinline} = #stream.parameter.named<"model"::"unet.down_blocks.2.attentions.0.transformer_blocks.5.norm3.weight"> : tensor<1280xf16>
  util.global private @_params.unet.down_blocks.2.attentions.0.transformer_blocks.5.norm3.bias {noinline} = #stream.parameter.named<"model"::"unet.down_blocks.2.attentions.0.transformer_blocks.5.norm3.bias"> : tensor<1280xf16>
  util.global private @_params.unet.down_blocks.2.attentions.0.transformer_blocks.5.ff.net.0.proj.weight {noinline} = #stream.parameter.named<"model"::"unet.down_blocks.2.attentions.0.transformer_blocks.5.ff.net.0.proj.weight"> : tensor<10240x1280xf16>
  util.global private @_params.unet.down_blocks.2.attentions.0.transformer_blocks.5.ff.net.0.proj.bias {noinline} = #stream.parameter.named<"model"::"unet.down_blocks.2.attentions.0.transformer_blocks.5.ff.net.0.proj.bias"> : tensor<10240xf16>
  util.global private @_params.unet.down_blocks.2.attentions.0.transformer_blocks.5.ff.net.2.weight {noinline} = #stream.parameter.named<"model"::"unet.down_blocks.2.attentions.0.transformer_blocks.5.ff.net.2.weight"> : tensor<1280x5120xf16>
  util.global private @_params.unet.down_blocks.2.attentions.0.transformer_blocks.5.ff.net.2.bias {noinline} = #stream.parameter.named<"model"::"unet.down_blocks.2.attentions.0.transformer_blocks.5.ff.net.2.bias"> : tensor<1280xf16>
  util.global private @_params.unet.down_blocks.2.attentions.0.transformer_blocks.6.norm1.weight {noinline} = #stream.parameter.named<"model"::"unet.down_blocks.2.attentions.0.transformer_blocks.6.norm1.weight"> : tensor<1280xf16>
  util.global private @_params.unet.down_blocks.2.attentions.0.transformer_blocks.6.norm1.bias {noinline} = #stream.parameter.named<"model"::"unet.down_blocks.2.attentions.0.transformer_blocks.6.norm1.bias"> : tensor<1280xf16>
  util.global private @_params.unet.down_blocks.2.attentions.0.transformer_blocks.6.attn1.to_q.weight {noinline} = #stream.parameter.named<"model"::"unet.down_blocks.2.attentions.0.transformer_blocks.6.attn1.to_q.weight"> : tensor<1280x1280xf16>
  util.global private @_params.unet.down_blocks.2.attentions.0.transformer_blocks.6.attn1.to_k.weight {noinline} = #stream.parameter.named<"model"::"unet.down_blocks.2.attentions.0.transformer_blocks.6.attn1.to_k.weight"> : tensor<1280x1280xf16>
  util.global private @_params.unet.down_blocks.2.attentions.0.transformer_blocks.6.attn1.to_v.weight {noinline} = #stream.parameter.named<"model"::"unet.down_blocks.2.attentions.0.transformer_blocks.6.attn1.to_v.weight"> : tensor<1280x1280xf16>
  util.global private @_params.unet.down_blocks.2.attentions.0.transformer_blocks.6.attn1.to_out.0.weight {noinline} = #stream.parameter.named<"model"::"unet.down_blocks.2.attentions.0.transformer_blocks.6.attn1.to_out.0.weight"> : tensor<1280x1280xf16>
  util.global private @_params.unet.down_blocks.2.attentions.0.transformer_blocks.6.attn1.to_out.0.bias {noinline} = #stream.parameter.named<"model"::"unet.down_blocks.2.attentions.0.transformer_blocks.6.attn1.to_out.0.bias"> : tensor<1280xf16>
  util.global private @_params.unet.down_blocks.2.attentions.0.transformer_blocks.6.norm2.weight {noinline} = #stream.parameter.named<"model"::"unet.down_blocks.2.attentions.0.transformer_blocks.6.norm2.weight"> : tensor<1280xf16>
  util.global private @_params.unet.down_blocks.2.attentions.0.transformer_blocks.6.norm2.bias {noinline} = #stream.parameter.named<"model"::"unet.down_blocks.2.attentions.0.transformer_blocks.6.norm2.bias"> : tensor<1280xf16>
  util.global private @_params.unet.down_blocks.2.attentions.0.transformer_blocks.6.attn2.to_q.weight {noinline} = #stream.parameter.named<"model"::"unet.down_blocks.2.attentions.0.transformer_blocks.6.attn2.to_q.weight"> : tensor<1280x1280xf16>
  util.global private @_params.unet.down_blocks.2.attentions.0.transformer_blocks.6.attn2.to_k.weight {noinline} = #stream.parameter.named<"model"::"unet.down_blocks.2.attentions.0.transformer_blocks.6.attn2.to_k.weight"> : tensor<1280x2048xf16>
  util.global private @_params.unet.down_blocks.2.attentions.0.transformer_blocks.6.attn2.to_v.weight {noinline} = #stream.parameter.named<"model"::"unet.down_blocks.2.attentions.0.transformer_blocks.6.attn2.to_v.weight"> : tensor<1280x2048xf16>
  util.global private @_params.unet.down_blocks.2.attentions.0.transformer_blocks.6.attn2.to_out.0.weight {noinline} = #stream.parameter.named<"model"::"unet.down_blocks.2.attentions.0.transformer_blocks.6.attn2.to_out.0.weight"> : tensor<1280x1280xf16>
  util.global private @_params.unet.down_blocks.2.attentions.0.transformer_blocks.6.attn2.to_out.0.bias {noinline} = #stream.parameter.named<"model"::"unet.down_blocks.2.attentions.0.transformer_blocks.6.attn2.to_out.0.bias"> : tensor<1280xf16>
  util.global private @_params.unet.down_blocks.2.attentions.0.transformer_blocks.6.norm3.weight {noinline} = #stream.parameter.named<"model"::"unet.down_blocks.2.attentions.0.transformer_blocks.6.norm3.weight"> : tensor<1280xf16>
  util.global private @_params.unet.down_blocks.2.attentions.0.transformer_blocks.6.norm3.bias {noinline} = #stream.parameter.named<"model"::"unet.down_blocks.2.attentions.0.transformer_blocks.6.norm3.bias"> : tensor<1280xf16>
  util.global private @_params.unet.down_blocks.2.attentions.0.transformer_blocks.6.ff.net.0.proj.weight {noinline} = #stream.parameter.named<"model"::"unet.down_blocks.2.attentions.0.transformer_blocks.6.ff.net.0.proj.weight"> : tensor<10240x1280xf16>
  util.global private @_params.unet.down_blocks.2.attentions.0.transformer_blocks.6.ff.net.0.proj.bias {noinline} = #stream.parameter.named<"model"::"unet.down_blocks.2.attentions.0.transformer_blocks.6.ff.net.0.proj.bias"> : tensor<10240xf16>
  util.global private @_params.unet.down_blocks.2.attentions.0.transformer_blocks.6.ff.net.2.weight {noinline} = #stream.parameter.named<"model"::"unet.down_blocks.2.attentions.0.transformer_blocks.6.ff.net.2.weight"> : tensor<1280x5120xf16>
  util.global private @_params.unet.down_blocks.2.attentions.0.transformer_blocks.6.ff.net.2.bias {noinline} = #stream.parameter.named<"model"::"unet.down_blocks.2.attentions.0.transformer_blocks.6.ff.net.2.bias"> : tensor<1280xf16>
  util.global private @_params.unet.down_blocks.2.attentions.0.transformer_blocks.7.norm1.weight {noinline} = #stream.parameter.named<"model"::"unet.down_blocks.2.attentions.0.transformer_blocks.7.norm1.weight"> : tensor<1280xf16>
  util.global private @_params.unet.down_blocks.2.attentions.0.transformer_blocks.7.norm1.bias {noinline} = #stream.parameter.named<"model"::"unet.down_blocks.2.attentions.0.transformer_blocks.7.norm1.bias"> : tensor<1280xf16>
  util.global private @_params.unet.down_blocks.2.attentions.0.transformer_blocks.7.attn1.to_q.weight {noinline} = #stream.parameter.named<"model"::"unet.down_blocks.2.attentions.0.transformer_blocks.7.attn1.to_q.weight"> : tensor<1280x1280xf16>
  util.global private @_params.unet.down_blocks.2.attentions.0.transformer_blocks.7.attn1.to_k.weight {noinline} = #stream.parameter.named<"model"::"unet.down_blocks.2.attentions.0.transformer_blocks.7.attn1.to_k.weight"> : tensor<1280x1280xf16>
  util.global private @_params.unet.down_blocks.2.attentions.0.transformer_blocks.7.attn1.to_v.weight {noinline} = #stream.parameter.named<"model"::"unet.down_blocks.2.attentions.0.transformer_blocks.7.attn1.to_v.weight"> : tensor<1280x1280xf16>
  util.global private @_params.unet.down_blocks.2.attentions.0.transformer_blocks.7.attn1.to_out.0.weight {noinline} = #stream.parameter.named<"model"::"unet.down_blocks.2.attentions.0.transformer_blocks.7.attn1.to_out.0.weight"> : tensor<1280x1280xf16>
  util.global private @_params.unet.down_blocks.2.attentions.0.transformer_blocks.7.attn1.to_out.0.bias {noinline} = #stream.parameter.named<"model"::"unet.down_blocks.2.attentions.0.transformer_blocks.7.attn1.to_out.0.bias"> : tensor<1280xf16>
  util.global private @_params.unet.down_blocks.2.attentions.0.transformer_blocks.7.norm2.weight {noinline} = #stream.parameter.named<"model"::"unet.down_blocks.2.attentions.0.transformer_blocks.7.norm2.weight"> : tensor<1280xf16>
  util.global private @_params.unet.down_blocks.2.attentions.0.transformer_blocks.7.norm2.bias {noinline} = #stream.parameter.named<"model"::"unet.down_blocks.2.attentions.0.transformer_blocks.7.norm2.bias"> : tensor<1280xf16>
  util.global private @_params.unet.down_blocks.2.attentions.0.transformer_blocks.7.attn2.to_q.weight {noinline} = #stream.parameter.named<"model"::"unet.down_blocks.2.attentions.0.transformer_blocks.7.attn2.to_q.weight"> : tensor<1280x1280xf16>
  util.global private @_params.unet.down_blocks.2.attentions.0.transformer_blocks.7.attn2.to_k.weight {noinline} = #stream.parameter.named<"model"::"unet.down_blocks.2.attentions.0.transformer_blocks.7.attn2.to_k.weight"> : tensor<1280x2048xf16>
  util.global private @_params.unet.down_blocks.2.attentions.0.transformer_blocks.7.attn2.to_v.weight {noinline} = #stream.parameter.named<"model"::"unet.down_blocks.2.attentions.0.transformer_blocks.7.attn2.to_v.weight"> : tensor<1280x2048xf16>
  util.global private @_params.unet.down_blocks.2.attentions.0.transformer_blocks.7.attn2.to_out.0.weight {noinline} = #stream.parameter.named<"model"::"unet.down_blocks.2.attentions.0.transformer_blocks.7.attn2.to_out.0.weight"> : tensor<1280x1280xf16>
  util.global private @_params.unet.down_blocks.2.attentions.0.transformer_blocks.7.attn2.to_out.0.bias {noinline} = #stream.parameter.named<"model"::"unet.down_blocks.2.attentions.0.transformer_blocks.7.attn2.to_out.0.bias"> : tensor<1280xf16>
  util.global private @_params.unet.down_blocks.2.attentions.0.transformer_blocks.7.norm3.weight {noinline} = #stream.parameter.named<"model"::"unet.down_blocks.2.attentions.0.transformer_blocks.7.norm3.weight"> : tensor<1280xf16>
  util.global private @_params.unet.down_blocks.2.attentions.0.transformer_blocks.7.norm3.bias {noinline} = #stream.parameter.named<"model"::"unet.down_blocks.2.attentions.0.transformer_blocks.7.norm3.bias"> : tensor<1280xf16>
  util.global private @_params.unet.down_blocks.2.attentions.0.transformer_blocks.7.ff.net.0.proj.weight {noinline} = #stream.parameter.named<"model"::"unet.down_blocks.2.attentions.0.transformer_blocks.7.ff.net.0.proj.weight"> : tensor<10240x1280xf16>
  util.global private @_params.unet.down_blocks.2.attentions.0.transformer_blocks.7.ff.net.0.proj.bias {noinline} = #stream.parameter.named<"model"::"unet.down_blocks.2.attentions.0.transformer_blocks.7.ff.net.0.proj.bias"> : tensor<10240xf16>
  util.global private @_params.unet.down_blocks.2.attentions.0.transformer_blocks.7.ff.net.2.weight {noinline} = #stream.parameter.named<"model"::"unet.down_blocks.2.attentions.0.transformer_blocks.7.ff.net.2.weight"> : tensor<1280x5120xf16>
  util.global private @_params.unet.down_blocks.2.attentions.0.transformer_blocks.7.ff.net.2.bias {noinline} = #stream.parameter.named<"model"::"unet.down_blocks.2.attentions.0.transformer_blocks.7.ff.net.2.bias"> : tensor<1280xf16>
  util.global private @_params.unet.down_blocks.2.attentions.0.transformer_blocks.8.norm1.weight {noinline} = #stream.parameter.named<"model"::"unet.down_blocks.2.attentions.0.transformer_blocks.8.norm1.weight"> : tensor<1280xf16>
  util.global private @_params.unet.down_blocks.2.attentions.0.transformer_blocks.8.norm1.bias {noinline} = #stream.parameter.named<"model"::"unet.down_blocks.2.attentions.0.transformer_blocks.8.norm1.bias"> : tensor<1280xf16>
  util.global private @_params.unet.down_blocks.2.attentions.0.transformer_blocks.8.attn1.to_q.weight {noinline} = #stream.parameter.named<"model"::"unet.down_blocks.2.attentions.0.transformer_blocks.8.attn1.to_q.weight"> : tensor<1280x1280xf16>
  util.global private @_params.unet.down_blocks.2.attentions.0.transformer_blocks.8.attn1.to_k.weight {noinline} = #stream.parameter.named<"model"::"unet.down_blocks.2.attentions.0.transformer_blocks.8.attn1.to_k.weight"> : tensor<1280x1280xf16>
  util.global private @_params.unet.down_blocks.2.attentions.0.transformer_blocks.8.attn1.to_v.weight {noinline} = #stream.parameter.named<"model"::"unet.down_blocks.2.attentions.0.transformer_blocks.8.attn1.to_v.weight"> : tensor<1280x1280xf16>
  util.global private @_params.unet.down_blocks.2.attentions.0.transformer_blocks.8.attn1.to_out.0.weight {noinline} = #stream.parameter.named<"model"::"unet.down_blocks.2.attentions.0.transformer_blocks.8.attn1.to_out.0.weight"> : tensor<1280x1280xf16>
  util.global private @_params.unet.down_blocks.2.attentions.0.transformer_blocks.8.attn1.to_out.0.bias {noinline} = #stream.parameter.named<"model"::"unet.down_blocks.2.attentions.0.transformer_blocks.8.attn1.to_out.0.bias"> : tensor<1280xf16>
  util.global private @_params.unet.down_blocks.2.attentions.0.transformer_blocks.8.norm2.weight {noinline} = #stream.parameter.named<"model"::"unet.down_blocks.2.attentions.0.transformer_blocks.8.norm2.weight"> : tensor<1280xf16>
  util.global private @_params.unet.down_blocks.2.attentions.0.transformer_blocks.8.norm2.bias {noinline} = #stream.parameter.named<"model"::"unet.down_blocks.2.attentions.0.transformer_blocks.8.norm2.bias"> : tensor<1280xf16>
  util.global private @_params.unet.down_blocks.2.attentions.0.transformer_blocks.8.attn2.to_q.weight {noinline} = #stream.parameter.named<"model"::"unet.down_blocks.2.attentions.0.transformer_blocks.8.attn2.to_q.weight"> : tensor<1280x1280xf16>
  util.global private @_params.unet.down_blocks.2.attentions.0.transformer_blocks.8.attn2.to_k.weight {noinline} = #stream.parameter.named<"model"::"unet.down_blocks.2.attentions.0.transformer_blocks.8.attn2.to_k.weight"> : tensor<1280x2048xf16>
  util.global private @_params.unet.down_blocks.2.attentions.0.transformer_blocks.8.attn2.to_v.weight {noinline} = #stream.parameter.named<"model"::"unet.down_blocks.2.attentions.0.transformer_blocks.8.attn2.to_v.weight"> : tensor<1280x2048xf16>
  util.global private @_params.unet.down_blocks.2.attentions.0.transformer_blocks.8.attn2.to_out.0.weight {noinline} = #stream.parameter.named<"model"::"unet.down_blocks.2.attentions.0.transformer_blocks.8.attn2.to_out.0.weight"> : tensor<1280x1280xf16>
  util.global private @_params.unet.down_blocks.2.attentions.0.transformer_blocks.8.attn2.to_out.0.bias {noinline} = #stream.parameter.named<"model"::"unet.down_blocks.2.attentions.0.transformer_blocks.8.attn2.to_out.0.bias"> : tensor<1280xf16>
  util.global private @_params.unet.down_blocks.2.attentions.0.transformer_blocks.8.norm3.weight {noinline} = #stream.parameter.named<"model"::"unet.down_blocks.2.attentions.0.transformer_blocks.8.norm3.weight"> : tensor<1280xf16>
  util.global private @_params.unet.down_blocks.2.attentions.0.transformer_blocks.8.norm3.bias {noinline} = #stream.parameter.named<"model"::"unet.down_blocks.2.attentions.0.transformer_blocks.8.norm3.bias"> : tensor<1280xf16>
  util.global private @_params.unet.down_blocks.2.attentions.0.transformer_blocks.8.ff.net.0.proj.weight {noinline} = #stream.parameter.named<"model"::"unet.down_blocks.2.attentions.0.transformer_blocks.8.ff.net.0.proj.weight"> : tensor<10240x1280xf16>
  util.global private @_params.unet.down_blocks.2.attentions.0.transformer_blocks.8.ff.net.0.proj.bias {noinline} = #stream.parameter.named<"model"::"unet.down_blocks.2.attentions.0.transformer_blocks.8.ff.net.0.proj.bias"> : tensor<10240xf16>
  util.global private @_params.unet.down_blocks.2.attentions.0.transformer_blocks.8.ff.net.2.weight {noinline} = #stream.parameter.named<"model"::"unet.down_blocks.2.attentions.0.transformer_blocks.8.ff.net.2.weight"> : tensor<1280x5120xf16>
  util.global private @_params.unet.down_blocks.2.attentions.0.transformer_blocks.8.ff.net.2.bias {noinline} = #stream.parameter.named<"model"::"unet.down_blocks.2.attentions.0.transformer_blocks.8.ff.net.2.bias"> : tensor<1280xf16>
  util.global private @_params.unet.down_blocks.2.attentions.0.transformer_blocks.9.norm1.weight {noinline} = #stream.parameter.named<"model"::"unet.down_blocks.2.attentions.0.transformer_blocks.9.norm1.weight"> : tensor<1280xf16>
  util.global private @_params.unet.down_blocks.2.attentions.0.transformer_blocks.9.norm1.bias {noinline} = #stream.parameter.named<"model"::"unet.down_blocks.2.attentions.0.transformer_blocks.9.norm1.bias"> : tensor<1280xf16>
  util.global private @_params.unet.down_blocks.2.attentions.0.transformer_blocks.9.attn1.to_q.weight {noinline} = #stream.parameter.named<"model"::"unet.down_blocks.2.attentions.0.transformer_blocks.9.attn1.to_q.weight"> : tensor<1280x1280xf16>
  util.global private @_params.unet.down_blocks.2.attentions.0.transformer_blocks.9.attn1.to_k.weight {noinline} = #stream.parameter.named<"model"::"unet.down_blocks.2.attentions.0.transformer_blocks.9.attn1.to_k.weight"> : tensor<1280x1280xf16>
  util.global private @_params.unet.down_blocks.2.attentions.0.transformer_blocks.9.attn1.to_v.weight {noinline} = #stream.parameter.named<"model"::"unet.down_blocks.2.attentions.0.transformer_blocks.9.attn1.to_v.weight"> : tensor<1280x1280xf16>
  util.global private @_params.unet.down_blocks.2.attentions.0.transformer_blocks.9.attn1.to_out.0.weight {noinline} = #stream.parameter.named<"model"::"unet.down_blocks.2.attentions.0.transformer_blocks.9.attn1.to_out.0.weight"> : tensor<1280x1280xf16>
  util.global private @_params.unet.down_blocks.2.attentions.0.transformer_blocks.9.attn1.to_out.0.bias {noinline} = #stream.parameter.named<"model"::"unet.down_blocks.2.attentions.0.transformer_blocks.9.attn1.to_out.0.bias"> : tensor<1280xf16>
  util.global private @_params.unet.down_blocks.2.attentions.0.transformer_blocks.9.norm2.weight {noinline} = #stream.parameter.named<"model"::"unet.down_blocks.2.attentions.0.transformer_blocks.9.norm2.weight"> : tensor<1280xf16>
  util.global private @_params.unet.down_blocks.2.attentions.0.transformer_blocks.9.norm2.bias {noinline} = #stream.parameter.named<"model"::"unet.down_blocks.2.attentions.0.transformer_blocks.9.norm2.bias"> : tensor<1280xf16>
  util.global private @_params.unet.down_blocks.2.attentions.0.transformer_blocks.9.attn2.to_q.weight {noinline} = #stream.parameter.named<"model"::"unet.down_blocks.2.attentions.0.transformer_blocks.9.attn2.to_q.weight"> : tensor<1280x1280xf16>
  util.global private @_params.unet.down_blocks.2.attentions.0.transformer_blocks.9.attn2.to_k.weight {noinline} = #stream.parameter.named<"model"::"unet.down_blocks.2.attentions.0.transformer_blocks.9.attn2.to_k.weight"> : tensor<1280x2048xf16>
  util.global private @_params.unet.down_blocks.2.attentions.0.transformer_blocks.9.attn2.to_v.weight {noinline} = #stream.parameter.named<"model"::"unet.down_blocks.2.attentions.0.transformer_blocks.9.attn2.to_v.weight"> : tensor<1280x2048xf16>
  util.global private @_params.unet.down_blocks.2.attentions.0.transformer_blocks.9.attn2.to_out.0.weight {noinline} = #stream.parameter.named<"model"::"unet.down_blocks.2.attentions.0.transformer_blocks.9.attn2.to_out.0.weight"> : tensor<1280x1280xf16>
  util.global private @_params.unet.down_blocks.2.attentions.0.transformer_blocks.9.attn2.to_out.0.bias {noinline} = #stream.parameter.named<"model"::"unet.down_blocks.2.attentions.0.transformer_blocks.9.attn2.to_out.0.bias"> : tensor<1280xf16>
  util.global private @_params.unet.down_blocks.2.attentions.0.transformer_blocks.9.norm3.weight {noinline} = #stream.parameter.named<"model"::"unet.down_blocks.2.attentions.0.transformer_blocks.9.norm3.weight"> : tensor<1280xf16>
  util.global private @_params.unet.down_blocks.2.attentions.0.transformer_blocks.9.norm3.bias {noinline} = #stream.parameter.named<"model"::"unet.down_blocks.2.attentions.0.transformer_blocks.9.norm3.bias"> : tensor<1280xf16>
  util.global private @_params.unet.down_blocks.2.attentions.0.transformer_blocks.9.ff.net.0.proj.weight {noinline} = #stream.parameter.named<"model"::"unet.down_blocks.2.attentions.0.transformer_blocks.9.ff.net.0.proj.weight"> : tensor<10240x1280xf16>
  util.global private @_params.unet.down_blocks.2.attentions.0.transformer_blocks.9.ff.net.0.proj.bias {noinline} = #stream.parameter.named<"model"::"unet.down_blocks.2.attentions.0.transformer_blocks.9.ff.net.0.proj.bias"> : tensor<10240xf16>
  util.global private @_params.unet.down_blocks.2.attentions.0.transformer_blocks.9.ff.net.2.weight {noinline} = #stream.parameter.named<"model"::"unet.down_blocks.2.attentions.0.transformer_blocks.9.ff.net.2.weight"> : tensor<1280x5120xf16>
  util.global private @_params.unet.down_blocks.2.attentions.0.transformer_blocks.9.ff.net.2.bias {noinline} = #stream.parameter.named<"model"::"unet.down_blocks.2.attentions.0.transformer_blocks.9.ff.net.2.bias"> : tensor<1280xf16>
  util.global private @_params.unet.down_blocks.2.attentions.0.proj_out.weight {noinline} = #stream.parameter.named<"model"::"unet.down_blocks.2.attentions.0.proj_out.weight"> : tensor<1280x1280xf16>
  util.global private @_params.unet.down_blocks.2.attentions.0.proj_out.bias {noinline} = #stream.parameter.named<"model"::"unet.down_blocks.2.attentions.0.proj_out.bias"> : tensor<1280xf16>
  util.global private @_params.unet.down_blocks.2.attentions.1.norm.weight {noinline} = #stream.parameter.named<"model"::"unet.down_blocks.2.attentions.1.norm.weight"> : tensor<1280xf16>
  util.global private @_params.unet.down_blocks.2.attentions.1.norm.bias {noinline} = #stream.parameter.named<"model"::"unet.down_blocks.2.attentions.1.norm.bias"> : tensor<1280xf16>
  util.global private @_params.unet.down_blocks.2.attentions.1.proj_in.weight {noinline} = #stream.parameter.named<"model"::"unet.down_blocks.2.attentions.1.proj_in.weight"> : tensor<1280x1280xf16>
  util.global private @_params.unet.down_blocks.2.attentions.1.proj_in.bias {noinline} = #stream.parameter.named<"model"::"unet.down_blocks.2.attentions.1.proj_in.bias"> : tensor<1280xf16>
  util.global private @_params.unet.down_blocks.2.attentions.1.transformer_blocks.0.norm1.weight {noinline} = #stream.parameter.named<"model"::"unet.down_blocks.2.attentions.1.transformer_blocks.0.norm1.weight"> : tensor<1280xf16>
  util.global private @_params.unet.down_blocks.2.attentions.1.transformer_blocks.0.norm1.bias {noinline} = #stream.parameter.named<"model"::"unet.down_blocks.2.attentions.1.transformer_blocks.0.norm1.bias"> : tensor<1280xf16>
  util.global private @_params.unet.down_blocks.2.attentions.1.transformer_blocks.0.attn1.to_q.weight {noinline} = #stream.parameter.named<"model"::"unet.down_blocks.2.attentions.1.transformer_blocks.0.attn1.to_q.weight"> : tensor<1280x1280xf16>
  util.global private @_params.unet.down_blocks.2.attentions.1.transformer_blocks.0.attn1.to_k.weight {noinline} = #stream.parameter.named<"model"::"unet.down_blocks.2.attentions.1.transformer_blocks.0.attn1.to_k.weight"> : tensor<1280x1280xf16>
  util.global private @_params.unet.down_blocks.2.attentions.1.transformer_blocks.0.attn1.to_v.weight {noinline} = #stream.parameter.named<"model"::"unet.down_blocks.2.attentions.1.transformer_blocks.0.attn1.to_v.weight"> : tensor<1280x1280xf16>
  util.global private @_params.unet.down_blocks.2.attentions.1.transformer_blocks.0.attn1.to_out.0.weight {noinline} = #stream.parameter.named<"model"::"unet.down_blocks.2.attentions.1.transformer_blocks.0.attn1.to_out.0.weight"> : tensor<1280x1280xf16>
  util.global private @_params.unet.down_blocks.2.attentions.1.transformer_blocks.0.attn1.to_out.0.bias {noinline} = #stream.parameter.named<"model"::"unet.down_blocks.2.attentions.1.transformer_blocks.0.attn1.to_out.0.bias"> : tensor<1280xf16>
  util.global private @_params.unet.down_blocks.2.attentions.1.transformer_blocks.0.norm2.weight {noinline} = #stream.parameter.named<"model"::"unet.down_blocks.2.attentions.1.transformer_blocks.0.norm2.weight"> : tensor<1280xf16>
  util.global private @_params.unet.down_blocks.2.attentions.1.transformer_blocks.0.norm2.bias {noinline} = #stream.parameter.named<"model"::"unet.down_blocks.2.attentions.1.transformer_blocks.0.norm2.bias"> : tensor<1280xf16>
  util.global private @_params.unet.down_blocks.2.attentions.1.transformer_blocks.0.attn2.to_q.weight {noinline} = #stream.parameter.named<"model"::"unet.down_blocks.2.attentions.1.transformer_blocks.0.attn2.to_q.weight"> : tensor<1280x1280xf16>
  util.global private @_params.unet.down_blocks.2.attentions.1.transformer_blocks.0.attn2.to_k.weight {noinline} = #stream.parameter.named<"model"::"unet.down_blocks.2.attentions.1.transformer_blocks.0.attn2.to_k.weight"> : tensor<1280x2048xf16>
  util.global private @_params.unet.down_blocks.2.attentions.1.transformer_blocks.0.attn2.to_v.weight {noinline} = #stream.parameter.named<"model"::"unet.down_blocks.2.attentions.1.transformer_blocks.0.attn2.to_v.weight"> : tensor<1280x2048xf16>
  util.global private @_params.unet.down_blocks.2.attentions.1.transformer_blocks.0.attn2.to_out.0.weight {noinline} = #stream.parameter.named<"model"::"unet.down_blocks.2.attentions.1.transformer_blocks.0.attn2.to_out.0.weight"> : tensor<1280x1280xf16>
  util.global private @_params.unet.down_blocks.2.attentions.1.transformer_blocks.0.attn2.to_out.0.bias {noinline} = #stream.parameter.named<"model"::"unet.down_blocks.2.attentions.1.transformer_blocks.0.attn2.to_out.0.bias"> : tensor<1280xf16>
  util.global private @_params.unet.down_blocks.2.attentions.1.transformer_blocks.0.norm3.weight {noinline} = #stream.parameter.named<"model"::"unet.down_blocks.2.attentions.1.transformer_blocks.0.norm3.weight"> : tensor<1280xf16>
  util.global private @_params.unet.down_blocks.2.attentions.1.transformer_blocks.0.norm3.bias {noinline} = #stream.parameter.named<"model"::"unet.down_blocks.2.attentions.1.transformer_blocks.0.norm3.bias"> : tensor<1280xf16>
  util.global private @_params.unet.down_blocks.2.attentions.1.transformer_blocks.0.ff.net.0.proj.weight {noinline} = #stream.parameter.named<"model"::"unet.down_blocks.2.attentions.1.transformer_blocks.0.ff.net.0.proj.weight"> : tensor<10240x1280xf16>
  util.global private @_params.unet.down_blocks.2.attentions.1.transformer_blocks.0.ff.net.0.proj.bias {noinline} = #stream.parameter.named<"model"::"unet.down_blocks.2.attentions.1.transformer_blocks.0.ff.net.0.proj.bias"> : tensor<10240xf16>
  util.global private @_params.unet.down_blocks.2.attentions.1.transformer_blocks.0.ff.net.2.weight {noinline} = #stream.parameter.named<"model"::"unet.down_blocks.2.attentions.1.transformer_blocks.0.ff.net.2.weight"> : tensor<1280x5120xf16>
  util.global private @_params.unet.down_blocks.2.attentions.1.transformer_blocks.0.ff.net.2.bias {noinline} = #stream.parameter.named<"model"::"unet.down_blocks.2.attentions.1.transformer_blocks.0.ff.net.2.bias"> : tensor<1280xf16>
  util.global private @_params.unet.down_blocks.2.attentions.1.transformer_blocks.1.norm1.weight {noinline} = #stream.parameter.named<"model"::"unet.down_blocks.2.attentions.1.transformer_blocks.1.norm1.weight"> : tensor<1280xf16>
  util.global private @_params.unet.down_blocks.2.attentions.1.transformer_blocks.1.norm1.bias {noinline} = #stream.parameter.named<"model"::"unet.down_blocks.2.attentions.1.transformer_blocks.1.norm1.bias"> : tensor<1280xf16>
  util.global private @_params.unet.down_blocks.2.attentions.1.transformer_blocks.1.attn1.to_q.weight {noinline} = #stream.parameter.named<"model"::"unet.down_blocks.2.attentions.1.transformer_blocks.1.attn1.to_q.weight"> : tensor<1280x1280xf16>
  util.global private @_params.unet.down_blocks.2.attentions.1.transformer_blocks.1.attn1.to_k.weight {noinline} = #stream.parameter.named<"model"::"unet.down_blocks.2.attentions.1.transformer_blocks.1.attn1.to_k.weight"> : tensor<1280x1280xf16>
  util.global private @_params.unet.down_blocks.2.attentions.1.transformer_blocks.1.attn1.to_v.weight {noinline} = #stream.parameter.named<"model"::"unet.down_blocks.2.attentions.1.transformer_blocks.1.attn1.to_v.weight"> : tensor<1280x1280xf16>
  util.global private @_params.unet.down_blocks.2.attentions.1.transformer_blocks.1.attn1.to_out.0.weight {noinline} = #stream.parameter.named<"model"::"unet.down_blocks.2.attentions.1.transformer_blocks.1.attn1.to_out.0.weight"> : tensor<1280x1280xf16>
  util.global private @_params.unet.down_blocks.2.attentions.1.transformer_blocks.1.attn1.to_out.0.bias {noinline} = #stream.parameter.named<"model"::"unet.down_blocks.2.attentions.1.transformer_blocks.1.attn1.to_out.0.bias"> : tensor<1280xf16>
  util.global private @_params.unet.down_blocks.2.attentions.1.transformer_blocks.1.norm2.weight {noinline} = #stream.parameter.named<"model"::"unet.down_blocks.2.attentions.1.transformer_blocks.1.norm2.weight"> : tensor<1280xf16>
  util.global private @_params.unet.down_blocks.2.attentions.1.transformer_blocks.1.norm2.bias {noinline} = #stream.parameter.named<"model"::"unet.down_blocks.2.attentions.1.transformer_blocks.1.norm2.bias"> : tensor<1280xf16>
  util.global private @_params.unet.down_blocks.2.attentions.1.transformer_blocks.1.attn2.to_q.weight {noinline} = #stream.parameter.named<"model"::"unet.down_blocks.2.attentions.1.transformer_blocks.1.attn2.to_q.weight"> : tensor<1280x1280xf16>
  util.global private @_params.unet.down_blocks.2.attentions.1.transformer_blocks.1.attn2.to_k.weight {noinline} = #stream.parameter.named<"model"::"unet.down_blocks.2.attentions.1.transformer_blocks.1.attn2.to_k.weight"> : tensor<1280x2048xf16>
  util.global private @_params.unet.down_blocks.2.attentions.1.transformer_blocks.1.attn2.to_v.weight {noinline} = #stream.parameter.named<"model"::"unet.down_blocks.2.attentions.1.transformer_blocks.1.attn2.to_v.weight"> : tensor<1280x2048xf16>
  util.global private @_params.unet.down_blocks.2.attentions.1.transformer_blocks.1.attn2.to_out.0.weight {noinline} = #stream.parameter.named<"model"::"unet.down_blocks.2.attentions.1.transformer_blocks.1.attn2.to_out.0.weight"> : tensor<1280x1280xf16>
  util.global private @_params.unet.down_blocks.2.attentions.1.transformer_blocks.1.attn2.to_out.0.bias {noinline} = #stream.parameter.named<"model"::"unet.down_blocks.2.attentions.1.transformer_blocks.1.attn2.to_out.0.bias"> : tensor<1280xf16>
  util.global private @_params.unet.down_blocks.2.attentions.1.transformer_blocks.1.norm3.weight {noinline} = #stream.parameter.named<"model"::"unet.down_blocks.2.attentions.1.transformer_blocks.1.norm3.weight"> : tensor<1280xf16>
  util.global private @_params.unet.down_blocks.2.attentions.1.transformer_blocks.1.norm3.bias {noinline} = #stream.parameter.named<"model"::"unet.down_blocks.2.attentions.1.transformer_blocks.1.norm3.bias"> : tensor<1280xf16>
  util.global private @_params.unet.down_blocks.2.attentions.1.transformer_blocks.1.ff.net.0.proj.weight {noinline} = #stream.parameter.named<"model"::"unet.down_blocks.2.attentions.1.transformer_blocks.1.ff.net.0.proj.weight"> : tensor<10240x1280xf16>
  util.global private @_params.unet.down_blocks.2.attentions.1.transformer_blocks.1.ff.net.0.proj.bias {noinline} = #stream.parameter.named<"model"::"unet.down_blocks.2.attentions.1.transformer_blocks.1.ff.net.0.proj.bias"> : tensor<10240xf16>
  util.global private @_params.unet.down_blocks.2.attentions.1.transformer_blocks.1.ff.net.2.weight {noinline} = #stream.parameter.named<"model"::"unet.down_blocks.2.attentions.1.transformer_blocks.1.ff.net.2.weight"> : tensor<1280x5120xf16>
  util.global private @_params.unet.down_blocks.2.attentions.1.transformer_blocks.1.ff.net.2.bias {noinline} = #stream.parameter.named<"model"::"unet.down_blocks.2.attentions.1.transformer_blocks.1.ff.net.2.bias"> : tensor<1280xf16>
  util.global private @_params.unet.down_blocks.2.attentions.1.transformer_blocks.2.norm1.weight {noinline} = #stream.parameter.named<"model"::"unet.down_blocks.2.attentions.1.transformer_blocks.2.norm1.weight"> : tensor<1280xf16>
  util.global private @_params.unet.down_blocks.2.attentions.1.transformer_blocks.2.norm1.bias {noinline} = #stream.parameter.named<"model"::"unet.down_blocks.2.attentions.1.transformer_blocks.2.norm1.bias"> : tensor<1280xf16>
  util.global private @_params.unet.down_blocks.2.attentions.1.transformer_blocks.2.attn1.to_q.weight {noinline} = #stream.parameter.named<"model"::"unet.down_blocks.2.attentions.1.transformer_blocks.2.attn1.to_q.weight"> : tensor<1280x1280xf16>
  util.global private @_params.unet.down_blocks.2.attentions.1.transformer_blocks.2.attn1.to_k.weight {noinline} = #stream.parameter.named<"model"::"unet.down_blocks.2.attentions.1.transformer_blocks.2.attn1.to_k.weight"> : tensor<1280x1280xf16>
  util.global private @_params.unet.down_blocks.2.attentions.1.transformer_blocks.2.attn1.to_v.weight {noinline} = #stream.parameter.named<"model"::"unet.down_blocks.2.attentions.1.transformer_blocks.2.attn1.to_v.weight"> : tensor<1280x1280xf16>
  util.global private @_params.unet.down_blocks.2.attentions.1.transformer_blocks.2.attn1.to_out.0.weight {noinline} = #stream.parameter.named<"model"::"unet.down_blocks.2.attentions.1.transformer_blocks.2.attn1.to_out.0.weight"> : tensor<1280x1280xf16>
  util.global private @_params.unet.down_blocks.2.attentions.1.transformer_blocks.2.attn1.to_out.0.bias {noinline} = #stream.parameter.named<"model"::"unet.down_blocks.2.attentions.1.transformer_blocks.2.attn1.to_out.0.bias"> : tensor<1280xf16>
  util.global private @_params.unet.down_blocks.2.attentions.1.transformer_blocks.2.norm2.weight {noinline} = #stream.parameter.named<"model"::"unet.down_blocks.2.attentions.1.transformer_blocks.2.norm2.weight"> : tensor<1280xf16>
  util.global private @_params.unet.down_blocks.2.attentions.1.transformer_blocks.2.norm2.bias {noinline} = #stream.parameter.named<"model"::"unet.down_blocks.2.attentions.1.transformer_blocks.2.norm2.bias"> : tensor<1280xf16>
  util.global private @_params.unet.down_blocks.2.attentions.1.transformer_blocks.2.attn2.to_q.weight {noinline} = #stream.parameter.named<"model"::"unet.down_blocks.2.attentions.1.transformer_blocks.2.attn2.to_q.weight"> : tensor<1280x1280xf16>
  util.global private @_params.unet.down_blocks.2.attentions.1.transformer_blocks.2.attn2.to_k.weight {noinline} = #stream.parameter.named<"model"::"unet.down_blocks.2.attentions.1.transformer_blocks.2.attn2.to_k.weight"> : tensor<1280x2048xf16>
  util.global private @_params.unet.down_blocks.2.attentions.1.transformer_blocks.2.attn2.to_v.weight {noinline} = #stream.parameter.named<"model"::"unet.down_blocks.2.attentions.1.transformer_blocks.2.attn2.to_v.weight"> : tensor<1280x2048xf16>
  util.global private @_params.unet.down_blocks.2.attentions.1.transformer_blocks.2.attn2.to_out.0.weight {noinline} = #stream.parameter.named<"model"::"unet.down_blocks.2.attentions.1.transformer_blocks.2.attn2.to_out.0.weight"> : tensor<1280x1280xf16>
  util.global private @_params.unet.down_blocks.2.attentions.1.transformer_blocks.2.attn2.to_out.0.bias {noinline} = #stream.parameter.named<"model"::"unet.down_blocks.2.attentions.1.transformer_blocks.2.attn2.to_out.0.bias"> : tensor<1280xf16>
  util.global private @_params.unet.down_blocks.2.attentions.1.transformer_blocks.2.norm3.weight {noinline} = #stream.parameter.named<"model"::"unet.down_blocks.2.attentions.1.transformer_blocks.2.norm3.weight"> : tensor<1280xf16>
  util.global private @_params.unet.down_blocks.2.attentions.1.transformer_blocks.2.norm3.bias {noinline} = #stream.parameter.named<"model"::"unet.down_blocks.2.attentions.1.transformer_blocks.2.norm3.bias"> : tensor<1280xf16>
  util.global private @_params.unet.down_blocks.2.attentions.1.transformer_blocks.2.ff.net.0.proj.weight {noinline} = #stream.parameter.named<"model"::"unet.down_blocks.2.attentions.1.transformer_blocks.2.ff.net.0.proj.weight"> : tensor<10240x1280xf16>
  util.global private @_params.unet.down_blocks.2.attentions.1.transformer_blocks.2.ff.net.0.proj.bias {noinline} = #stream.parameter.named<"model"::"unet.down_blocks.2.attentions.1.transformer_blocks.2.ff.net.0.proj.bias"> : tensor<10240xf16>
  util.global private @_params.unet.down_blocks.2.attentions.1.transformer_blocks.2.ff.net.2.weight {noinline} = #stream.parameter.named<"model"::"unet.down_blocks.2.attentions.1.transformer_blocks.2.ff.net.2.weight"> : tensor<1280x5120xf16>
  util.global private @_params.unet.down_blocks.2.attentions.1.transformer_blocks.2.ff.net.2.bias {noinline} = #stream.parameter.named<"model"::"unet.down_blocks.2.attentions.1.transformer_blocks.2.ff.net.2.bias"> : tensor<1280xf16>
  util.global private @_params.unet.down_blocks.2.attentions.1.transformer_blocks.3.norm1.weight {noinline} = #stream.parameter.named<"model"::"unet.down_blocks.2.attentions.1.transformer_blocks.3.norm1.weight"> : tensor<1280xf16>
  util.global private @_params.unet.down_blocks.2.attentions.1.transformer_blocks.3.norm1.bias {noinline} = #stream.parameter.named<"model"::"unet.down_blocks.2.attentions.1.transformer_blocks.3.norm1.bias"> : tensor<1280xf16>
  util.global private @_params.unet.down_blocks.2.attentions.1.transformer_blocks.3.attn1.to_q.weight {noinline} = #stream.parameter.named<"model"::"unet.down_blocks.2.attentions.1.transformer_blocks.3.attn1.to_q.weight"> : tensor<1280x1280xf16>
  util.global private @_params.unet.down_blocks.2.attentions.1.transformer_blocks.3.attn1.to_k.weight {noinline} = #stream.parameter.named<"model"::"unet.down_blocks.2.attentions.1.transformer_blocks.3.attn1.to_k.weight"> : tensor<1280x1280xf16>
  util.global private @_params.unet.down_blocks.2.attentions.1.transformer_blocks.3.attn1.to_v.weight {noinline} = #stream.parameter.named<"model"::"unet.down_blocks.2.attentions.1.transformer_blocks.3.attn1.to_v.weight"> : tensor<1280x1280xf16>
  util.global private @_params.unet.down_blocks.2.attentions.1.transformer_blocks.3.attn1.to_out.0.weight {noinline} = #stream.parameter.named<"model"::"unet.down_blocks.2.attentions.1.transformer_blocks.3.attn1.to_out.0.weight"> : tensor<1280x1280xf16>
  util.global private @_params.unet.down_blocks.2.attentions.1.transformer_blocks.3.attn1.to_out.0.bias {noinline} = #stream.parameter.named<"model"::"unet.down_blocks.2.attentions.1.transformer_blocks.3.attn1.to_out.0.bias"> : tensor<1280xf16>
  util.global private @_params.unet.down_blocks.2.attentions.1.transformer_blocks.3.norm2.weight {noinline} = #stream.parameter.named<"model"::"unet.down_blocks.2.attentions.1.transformer_blocks.3.norm2.weight"> : tensor<1280xf16>
  util.global private @_params.unet.down_blocks.2.attentions.1.transformer_blocks.3.norm2.bias {noinline} = #stream.parameter.named<"model"::"unet.down_blocks.2.attentions.1.transformer_blocks.3.norm2.bias"> : tensor<1280xf16>
  util.global private @_params.unet.down_blocks.2.attentions.1.transformer_blocks.3.attn2.to_q.weight {noinline} = #stream.parameter.named<"model"::"unet.down_blocks.2.attentions.1.transformer_blocks.3.attn2.to_q.weight"> : tensor<1280x1280xf16>
  util.global private @_params.unet.down_blocks.2.attentions.1.transformer_blocks.3.attn2.to_k.weight {noinline} = #stream.parameter.named<"model"::"unet.down_blocks.2.attentions.1.transformer_blocks.3.attn2.to_k.weight"> : tensor<1280x2048xf16>
  util.global private @_params.unet.down_blocks.2.attentions.1.transformer_blocks.3.attn2.to_v.weight {noinline} = #stream.parameter.named<"model"::"unet.down_blocks.2.attentions.1.transformer_blocks.3.attn2.to_v.weight"> : tensor<1280x2048xf16>
  util.global private @_params.unet.down_blocks.2.attentions.1.transformer_blocks.3.attn2.to_out.0.weight {noinline} = #stream.parameter.named<"model"::"unet.down_blocks.2.attentions.1.transformer_blocks.3.attn2.to_out.0.weight"> : tensor<1280x1280xf16>
  util.global private @_params.unet.down_blocks.2.attentions.1.transformer_blocks.3.attn2.to_out.0.bias {noinline} = #stream.parameter.named<"model"::"unet.down_blocks.2.attentions.1.transformer_blocks.3.attn2.to_out.0.bias"> : tensor<1280xf16>
  util.global private @_params.unet.down_blocks.2.attentions.1.transformer_blocks.3.norm3.weight {noinline} = #stream.parameter.named<"model"::"unet.down_blocks.2.attentions.1.transformer_blocks.3.norm3.weight"> : tensor<1280xf16>
  util.global private @_params.unet.down_blocks.2.attentions.1.transformer_blocks.3.norm3.bias {noinline} = #stream.parameter.named<"model"::"unet.down_blocks.2.attentions.1.transformer_blocks.3.norm3.bias"> : tensor<1280xf16>
  util.global private @_params.unet.down_blocks.2.attentions.1.transformer_blocks.3.ff.net.0.proj.weight {noinline} = #stream.parameter.named<"model"::"unet.down_blocks.2.attentions.1.transformer_blocks.3.ff.net.0.proj.weight"> : tensor<10240x1280xf16>
  util.global private @_params.unet.down_blocks.2.attentions.1.transformer_blocks.3.ff.net.0.proj.bias {noinline} = #stream.parameter.named<"model"::"unet.down_blocks.2.attentions.1.transformer_blocks.3.ff.net.0.proj.bias"> : tensor<10240xf16>
  util.global private @_params.unet.down_blocks.2.attentions.1.transformer_blocks.3.ff.net.2.weight {noinline} = #stream.parameter.named<"model"::"unet.down_blocks.2.attentions.1.transformer_blocks.3.ff.net.2.weight"> : tensor<1280x5120xf16>
  util.global private @_params.unet.down_blocks.2.attentions.1.transformer_blocks.3.ff.net.2.bias {noinline} = #stream.parameter.named<"model"::"unet.down_blocks.2.attentions.1.transformer_blocks.3.ff.net.2.bias"> : tensor<1280xf16>
  util.global private @_params.unet.down_blocks.2.attentions.1.transformer_blocks.4.norm1.weight {noinline} = #stream.parameter.named<"model"::"unet.down_blocks.2.attentions.1.transformer_blocks.4.norm1.weight"> : tensor<1280xf16>
  util.global private @_params.unet.down_blocks.2.attentions.1.transformer_blocks.4.norm1.bias {noinline} = #stream.parameter.named<"model"::"unet.down_blocks.2.attentions.1.transformer_blocks.4.norm1.bias"> : tensor<1280xf16>
  util.global private @_params.unet.down_blocks.2.attentions.1.transformer_blocks.4.attn1.to_q.weight {noinline} = #stream.parameter.named<"model"::"unet.down_blocks.2.attentions.1.transformer_blocks.4.attn1.to_q.weight"> : tensor<1280x1280xf16>
  util.global private @_params.unet.down_blocks.2.attentions.1.transformer_blocks.4.attn1.to_k.weight {noinline} = #stream.parameter.named<"model"::"unet.down_blocks.2.attentions.1.transformer_blocks.4.attn1.to_k.weight"> : tensor<1280x1280xf16>
  util.global private @_params.unet.down_blocks.2.attentions.1.transformer_blocks.4.attn1.to_v.weight {noinline} = #stream.parameter.named<"model"::"unet.down_blocks.2.attentions.1.transformer_blocks.4.attn1.to_v.weight"> : tensor<1280x1280xf16>
  util.global private @_params.unet.down_blocks.2.attentions.1.transformer_blocks.4.attn1.to_out.0.weight {noinline} = #stream.parameter.named<"model"::"unet.down_blocks.2.attentions.1.transformer_blocks.4.attn1.to_out.0.weight"> : tensor<1280x1280xf16>
  util.global private @_params.unet.down_blocks.2.attentions.1.transformer_blocks.4.attn1.to_out.0.bias {noinline} = #stream.parameter.named<"model"::"unet.down_blocks.2.attentions.1.transformer_blocks.4.attn1.to_out.0.bias"> : tensor<1280xf16>
  util.global private @_params.unet.down_blocks.2.attentions.1.transformer_blocks.4.norm2.weight {noinline} = #stream.parameter.named<"model"::"unet.down_blocks.2.attentions.1.transformer_blocks.4.norm2.weight"> : tensor<1280xf16>
  util.global private @_params.unet.down_blocks.2.attentions.1.transformer_blocks.4.norm2.bias {noinline} = #stream.parameter.named<"model"::"unet.down_blocks.2.attentions.1.transformer_blocks.4.norm2.bias"> : tensor<1280xf16>
  util.global private @_params.unet.down_blocks.2.attentions.1.transformer_blocks.4.attn2.to_q.weight {noinline} = #stream.parameter.named<"model"::"unet.down_blocks.2.attentions.1.transformer_blocks.4.attn2.to_q.weight"> : tensor<1280x1280xf16>
  util.global private @_params.unet.down_blocks.2.attentions.1.transformer_blocks.4.attn2.to_k.weight {noinline} = #stream.parameter.named<"model"::"unet.down_blocks.2.attentions.1.transformer_blocks.4.attn2.to_k.weight"> : tensor<1280x2048xf16>
  util.global private @_params.unet.down_blocks.2.attentions.1.transformer_blocks.4.attn2.to_v.weight {noinline} = #stream.parameter.named<"model"::"unet.down_blocks.2.attentions.1.transformer_blocks.4.attn2.to_v.weight"> : tensor<1280x2048xf16>
  util.global private @_params.unet.down_blocks.2.attentions.1.transformer_blocks.4.attn2.to_out.0.weight {noinline} = #stream.parameter.named<"model"::"unet.down_blocks.2.attentions.1.transformer_blocks.4.attn2.to_out.0.weight"> : tensor<1280x1280xf16>
  util.global private @_params.unet.down_blocks.2.attentions.1.transformer_blocks.4.attn2.to_out.0.bias {noinline} = #stream.parameter.named<"model"::"unet.down_blocks.2.attentions.1.transformer_blocks.4.attn2.to_out.0.bias"> : tensor<1280xf16>
  util.global private @_params.unet.down_blocks.2.attentions.1.transformer_blocks.4.norm3.weight {noinline} = #stream.parameter.named<"model"::"unet.down_blocks.2.attentions.1.transformer_blocks.4.norm3.weight"> : tensor<1280xf16>
  util.global private @_params.unet.down_blocks.2.attentions.1.transformer_blocks.4.norm3.bias {noinline} = #stream.parameter.named<"model"::"unet.down_blocks.2.attentions.1.transformer_blocks.4.norm3.bias"> : tensor<1280xf16>
  util.global private @_params.unet.down_blocks.2.attentions.1.transformer_blocks.4.ff.net.0.proj.weight {noinline} = #stream.parameter.named<"model"::"unet.down_blocks.2.attentions.1.transformer_blocks.4.ff.net.0.proj.weight"> : tensor<10240x1280xf16>
  util.global private @_params.unet.down_blocks.2.attentions.1.transformer_blocks.4.ff.net.0.proj.bias {noinline} = #stream.parameter.named<"model"::"unet.down_blocks.2.attentions.1.transformer_blocks.4.ff.net.0.proj.bias"> : tensor<10240xf16>
  util.global private @_params.unet.down_blocks.2.attentions.1.transformer_blocks.4.ff.net.2.weight {noinline} = #stream.parameter.named<"model"::"unet.down_blocks.2.attentions.1.transformer_blocks.4.ff.net.2.weight"> : tensor<1280x5120xf16>
  util.global private @_params.unet.down_blocks.2.attentions.1.transformer_blocks.4.ff.net.2.bias {noinline} = #stream.parameter.named<"model"::"unet.down_blocks.2.attentions.1.transformer_blocks.4.ff.net.2.bias"> : tensor<1280xf16>
  util.global private @_params.unet.down_blocks.2.attentions.1.transformer_blocks.5.norm1.weight {noinline} = #stream.parameter.named<"model"::"unet.down_blocks.2.attentions.1.transformer_blocks.5.norm1.weight"> : tensor<1280xf16>
  util.global private @_params.unet.down_blocks.2.attentions.1.transformer_blocks.5.norm1.bias {noinline} = #stream.parameter.named<"model"::"unet.down_blocks.2.attentions.1.transformer_blocks.5.norm1.bias"> : tensor<1280xf16>
  util.global private @_params.unet.down_blocks.2.attentions.1.transformer_blocks.5.attn1.to_q.weight {noinline} = #stream.parameter.named<"model"::"unet.down_blocks.2.attentions.1.transformer_blocks.5.attn1.to_q.weight"> : tensor<1280x1280xf16>
  util.global private @_params.unet.down_blocks.2.attentions.1.transformer_blocks.5.attn1.to_k.weight {noinline} = #stream.parameter.named<"model"::"unet.down_blocks.2.attentions.1.transformer_blocks.5.attn1.to_k.weight"> : tensor<1280x1280xf16>
  util.global private @_params.unet.down_blocks.2.attentions.1.transformer_blocks.5.attn1.to_v.weight {noinline} = #stream.parameter.named<"model"::"unet.down_blocks.2.attentions.1.transformer_blocks.5.attn1.to_v.weight"> : tensor<1280x1280xf16>
  util.global private @_params.unet.down_blocks.2.attentions.1.transformer_blocks.5.attn1.to_out.0.weight {noinline} = #stream.parameter.named<"model"::"unet.down_blocks.2.attentions.1.transformer_blocks.5.attn1.to_out.0.weight"> : tensor<1280x1280xf16>
  util.global private @_params.unet.down_blocks.2.attentions.1.transformer_blocks.5.attn1.to_out.0.bias {noinline} = #stream.parameter.named<"model"::"unet.down_blocks.2.attentions.1.transformer_blocks.5.attn1.to_out.0.bias"> : tensor<1280xf16>
  util.global private @_params.unet.down_blocks.2.attentions.1.transformer_blocks.5.norm2.weight {noinline} = #stream.parameter.named<"model"::"unet.down_blocks.2.attentions.1.transformer_blocks.5.norm2.weight"> : tensor<1280xf16>
  util.global private @_params.unet.down_blocks.2.attentions.1.transformer_blocks.5.norm2.bias {noinline} = #stream.parameter.named<"model"::"unet.down_blocks.2.attentions.1.transformer_blocks.5.norm2.bias"> : tensor<1280xf16>
  util.global private @_params.unet.down_blocks.2.attentions.1.transformer_blocks.5.attn2.to_q.weight {noinline} = #stream.parameter.named<"model"::"unet.down_blocks.2.attentions.1.transformer_blocks.5.attn2.to_q.weight"> : tensor<1280x1280xf16>
  util.global private @_params.unet.down_blocks.2.attentions.1.transformer_blocks.5.attn2.to_k.weight {noinline} = #stream.parameter.named<"model"::"unet.down_blocks.2.attentions.1.transformer_blocks.5.attn2.to_k.weight"> : tensor<1280x2048xf16>
  util.global private @_params.unet.down_blocks.2.attentions.1.transformer_blocks.5.attn2.to_v.weight {noinline} = #stream.parameter.named<"model"::"unet.down_blocks.2.attentions.1.transformer_blocks.5.attn2.to_v.weight"> : tensor<1280x2048xf16>
  util.global private @_params.unet.down_blocks.2.attentions.1.transformer_blocks.5.attn2.to_out.0.weight {noinline} = #stream.parameter.named<"model"::"unet.down_blocks.2.attentions.1.transformer_blocks.5.attn2.to_out.0.weight"> : tensor<1280x1280xf16>
  util.global private @_params.unet.down_blocks.2.attentions.1.transformer_blocks.5.attn2.to_out.0.bias {noinline} = #stream.parameter.named<"model"::"unet.down_blocks.2.attentions.1.transformer_blocks.5.attn2.to_out.0.bias"> : tensor<1280xf16>
  util.global private @_params.unet.down_blocks.2.attentions.1.transformer_blocks.5.norm3.weight {noinline} = #stream.parameter.named<"model"::"unet.down_blocks.2.attentions.1.transformer_blocks.5.norm3.weight"> : tensor<1280xf16>
  util.global private @_params.unet.down_blocks.2.attentions.1.transformer_blocks.5.norm3.bias {noinline} = #stream.parameter.named<"model"::"unet.down_blocks.2.attentions.1.transformer_blocks.5.norm3.bias"> : tensor<1280xf16>
  util.global private @_params.unet.down_blocks.2.attentions.1.transformer_blocks.5.ff.net.0.proj.weight {noinline} = #stream.parameter.named<"model"::"unet.down_blocks.2.attentions.1.transformer_blocks.5.ff.net.0.proj.weight"> : tensor<10240x1280xf16>
  util.global private @_params.unet.down_blocks.2.attentions.1.transformer_blocks.5.ff.net.0.proj.bias {noinline} = #stream.parameter.named<"model"::"unet.down_blocks.2.attentions.1.transformer_blocks.5.ff.net.0.proj.bias"> : tensor<10240xf16>
  util.global private @_params.unet.down_blocks.2.attentions.1.transformer_blocks.5.ff.net.2.weight {noinline} = #stream.parameter.named<"model"::"unet.down_blocks.2.attentions.1.transformer_blocks.5.ff.net.2.weight"> : tensor<1280x5120xf16>
  util.global private @_params.unet.down_blocks.2.attentions.1.transformer_blocks.5.ff.net.2.bias {noinline} = #stream.parameter.named<"model"::"unet.down_blocks.2.attentions.1.transformer_blocks.5.ff.net.2.bias"> : tensor<1280xf16>
  util.global private @_params.unet.down_blocks.2.attentions.1.transformer_blocks.6.norm1.weight {noinline} = #stream.parameter.named<"model"::"unet.down_blocks.2.attentions.1.transformer_blocks.6.norm1.weight"> : tensor<1280xf16>
  util.global private @_params.unet.down_blocks.2.attentions.1.transformer_blocks.6.norm1.bias {noinline} = #stream.parameter.named<"model"::"unet.down_blocks.2.attentions.1.transformer_blocks.6.norm1.bias"> : tensor<1280xf16>
  util.global private @_params.unet.down_blocks.2.attentions.1.transformer_blocks.6.attn1.to_q.weight {noinline} = #stream.parameter.named<"model"::"unet.down_blocks.2.attentions.1.transformer_blocks.6.attn1.to_q.weight"> : tensor<1280x1280xf16>
  util.global private @_params.unet.down_blocks.2.attentions.1.transformer_blocks.6.attn1.to_k.weight {noinline} = #stream.parameter.named<"model"::"unet.down_blocks.2.attentions.1.transformer_blocks.6.attn1.to_k.weight"> : tensor<1280x1280xf16>
  util.global private @_params.unet.down_blocks.2.attentions.1.transformer_blocks.6.attn1.to_v.weight {noinline} = #stream.parameter.named<"model"::"unet.down_blocks.2.attentions.1.transformer_blocks.6.attn1.to_v.weight"> : tensor<1280x1280xf16>
  util.global private @_params.unet.down_blocks.2.attentions.1.transformer_blocks.6.attn1.to_out.0.weight {noinline} = #stream.parameter.named<"model"::"unet.down_blocks.2.attentions.1.transformer_blocks.6.attn1.to_out.0.weight"> : tensor<1280x1280xf16>
  util.global private @_params.unet.down_blocks.2.attentions.1.transformer_blocks.6.attn1.to_out.0.bias {noinline} = #stream.parameter.named<"model"::"unet.down_blocks.2.attentions.1.transformer_blocks.6.attn1.to_out.0.bias"> : tensor<1280xf16>
  util.global private @_params.unet.down_blocks.2.attentions.1.transformer_blocks.6.norm2.weight {noinline} = #stream.parameter.named<"model"::"unet.down_blocks.2.attentions.1.transformer_blocks.6.norm2.weight"> : tensor<1280xf16>
  util.global private @_params.unet.down_blocks.2.attentions.1.transformer_blocks.6.norm2.bias {noinline} = #stream.parameter.named<"model"::"unet.down_blocks.2.attentions.1.transformer_blocks.6.norm2.bias"> : tensor<1280xf16>
  util.global private @_params.unet.down_blocks.2.attentions.1.transformer_blocks.6.attn2.to_q.weight {noinline} = #stream.parameter.named<"model"::"unet.down_blocks.2.attentions.1.transformer_blocks.6.attn2.to_q.weight"> : tensor<1280x1280xf16>
  util.global private @_params.unet.down_blocks.2.attentions.1.transformer_blocks.6.attn2.to_k.weight {noinline} = #stream.parameter.named<"model"::"unet.down_blocks.2.attentions.1.transformer_blocks.6.attn2.to_k.weight"> : tensor<1280x2048xf16>
  util.global private @_params.unet.down_blocks.2.attentions.1.transformer_blocks.6.attn2.to_v.weight {noinline} = #stream.parameter.named<"model"::"unet.down_blocks.2.attentions.1.transformer_blocks.6.attn2.to_v.weight"> : tensor<1280x2048xf16>
  util.global private @_params.unet.down_blocks.2.attentions.1.transformer_blocks.6.attn2.to_out.0.weight {noinline} = #stream.parameter.named<"model"::"unet.down_blocks.2.attentions.1.transformer_blocks.6.attn2.to_out.0.weight"> : tensor<1280x1280xf16>
  util.global private @_params.unet.down_blocks.2.attentions.1.transformer_blocks.6.attn2.to_out.0.bias {noinline} = #stream.parameter.named<"model"::"unet.down_blocks.2.attentions.1.transformer_blocks.6.attn2.to_out.0.bias"> : tensor<1280xf16>
  util.global private @_params.unet.down_blocks.2.attentions.1.transformer_blocks.6.norm3.weight {noinline} = #stream.parameter.named<"model"::"unet.down_blocks.2.attentions.1.transformer_blocks.6.norm3.weight"> : tensor<1280xf16>
  util.global private @_params.unet.down_blocks.2.attentions.1.transformer_blocks.6.norm3.bias {noinline} = #stream.parameter.named<"model"::"unet.down_blocks.2.attentions.1.transformer_blocks.6.norm3.bias"> : tensor<1280xf16>
  util.global private @_params.unet.down_blocks.2.attentions.1.transformer_blocks.6.ff.net.0.proj.weight {noinline} = #stream.parameter.named<"model"::"unet.down_blocks.2.attentions.1.transformer_blocks.6.ff.net.0.proj.weight"> : tensor<10240x1280xf16>
  util.global private @_params.unet.down_blocks.2.attentions.1.transformer_blocks.6.ff.net.0.proj.bias {noinline} = #stream.parameter.named<"model"::"unet.down_blocks.2.attentions.1.transformer_blocks.6.ff.net.0.proj.bias"> : tensor<10240xf16>
  util.global private @_params.unet.down_blocks.2.attentions.1.transformer_blocks.6.ff.net.2.weight {noinline} = #stream.parameter.named<"model"::"unet.down_blocks.2.attentions.1.transformer_blocks.6.ff.net.2.weight"> : tensor<1280x5120xf16>
  util.global private @_params.unet.down_blocks.2.attentions.1.transformer_blocks.6.ff.net.2.bias {noinline} = #stream.parameter.named<"model"::"unet.down_blocks.2.attentions.1.transformer_blocks.6.ff.net.2.bias"> : tensor<1280xf16>
  util.global private @_params.unet.down_blocks.2.attentions.1.transformer_blocks.7.norm1.weight {noinline} = #stream.parameter.named<"model"::"unet.down_blocks.2.attentions.1.transformer_blocks.7.norm1.weight"> : tensor<1280xf16>
  util.global private @_params.unet.down_blocks.2.attentions.1.transformer_blocks.7.norm1.bias {noinline} = #stream.parameter.named<"model"::"unet.down_blocks.2.attentions.1.transformer_blocks.7.norm1.bias"> : tensor<1280xf16>
  util.global private @_params.unet.down_blocks.2.attentions.1.transformer_blocks.7.attn1.to_q.weight {noinline} = #stream.parameter.named<"model"::"unet.down_blocks.2.attentions.1.transformer_blocks.7.attn1.to_q.weight"> : tensor<1280x1280xf16>
  util.global private @_params.unet.down_blocks.2.attentions.1.transformer_blocks.7.attn1.to_k.weight {noinline} = #stream.parameter.named<"model"::"unet.down_blocks.2.attentions.1.transformer_blocks.7.attn1.to_k.weight"> : tensor<1280x1280xf16>
  util.global private @_params.unet.down_blocks.2.attentions.1.transformer_blocks.7.attn1.to_v.weight {noinline} = #stream.parameter.named<"model"::"unet.down_blocks.2.attentions.1.transformer_blocks.7.attn1.to_v.weight"> : tensor<1280x1280xf16>
  util.global private @_params.unet.down_blocks.2.attentions.1.transformer_blocks.7.attn1.to_out.0.weight {noinline} = #stream.parameter.named<"model"::"unet.down_blocks.2.attentions.1.transformer_blocks.7.attn1.to_out.0.weight"> : tensor<1280x1280xf16>
  util.global private @_params.unet.down_blocks.2.attentions.1.transformer_blocks.7.attn1.to_out.0.bias {noinline} = #stream.parameter.named<"model"::"unet.down_blocks.2.attentions.1.transformer_blocks.7.attn1.to_out.0.bias"> : tensor<1280xf16>
  util.global private @_params.unet.down_blocks.2.attentions.1.transformer_blocks.7.norm2.weight {noinline} = #stream.parameter.named<"model"::"unet.down_blocks.2.attentions.1.transformer_blocks.7.norm2.weight"> : tensor<1280xf16>
  util.global private @_params.unet.down_blocks.2.attentions.1.transformer_blocks.7.norm2.bias {noinline} = #stream.parameter.named<"model"::"unet.down_blocks.2.attentions.1.transformer_blocks.7.norm2.bias"> : tensor<1280xf16>
  util.global private @_params.unet.down_blocks.2.attentions.1.transformer_blocks.7.attn2.to_q.weight {noinline} = #stream.parameter.named<"model"::"unet.down_blocks.2.attentions.1.transformer_blocks.7.attn2.to_q.weight"> : tensor<1280x1280xf16>
  util.global private @_params.unet.down_blocks.2.attentions.1.transformer_blocks.7.attn2.to_k.weight {noinline} = #stream.parameter.named<"model"::"unet.down_blocks.2.attentions.1.transformer_blocks.7.attn2.to_k.weight"> : tensor<1280x2048xf16>
  util.global private @_params.unet.down_blocks.2.attentions.1.transformer_blocks.7.attn2.to_v.weight {noinline} = #stream.parameter.named<"model"::"unet.down_blocks.2.attentions.1.transformer_blocks.7.attn2.to_v.weight"> : tensor<1280x2048xf16>
  util.global private @_params.unet.down_blocks.2.attentions.1.transformer_blocks.7.attn2.to_out.0.weight {noinline} = #stream.parameter.named<"model"::"unet.down_blocks.2.attentions.1.transformer_blocks.7.attn2.to_out.0.weight"> : tensor<1280x1280xf16>
  util.global private @_params.unet.down_blocks.2.attentions.1.transformer_blocks.7.attn2.to_out.0.bias {noinline} = #stream.parameter.named<"model"::"unet.down_blocks.2.attentions.1.transformer_blocks.7.attn2.to_out.0.bias"> : tensor<1280xf16>
  util.global private @_params.unet.down_blocks.2.attentions.1.transformer_blocks.7.norm3.weight {noinline} = #stream.parameter.named<"model"::"unet.down_blocks.2.attentions.1.transformer_blocks.7.norm3.weight"> : tensor<1280xf16>
  util.global private @_params.unet.down_blocks.2.attentions.1.transformer_blocks.7.norm3.bias {noinline} = #stream.parameter.named<"model"::"unet.down_blocks.2.attentions.1.transformer_blocks.7.norm3.bias"> : tensor<1280xf16>
  util.global private @_params.unet.down_blocks.2.attentions.1.transformer_blocks.7.ff.net.0.proj.weight {noinline} = #stream.parameter.named<"model"::"unet.down_blocks.2.attentions.1.transformer_blocks.7.ff.net.0.proj.weight"> : tensor<10240x1280xf16>
  util.global private @_params.unet.down_blocks.2.attentions.1.transformer_blocks.7.ff.net.0.proj.bias {noinline} = #stream.parameter.named<"model"::"unet.down_blocks.2.attentions.1.transformer_blocks.7.ff.net.0.proj.bias"> : tensor<10240xf16>
  util.global private @_params.unet.down_blocks.2.attentions.1.transformer_blocks.7.ff.net.2.weight {noinline} = #stream.parameter.named<"model"::"unet.down_blocks.2.attentions.1.transformer_blocks.7.ff.net.2.weight"> : tensor<1280x5120xf16>
  util.global private @_params.unet.down_blocks.2.attentions.1.transformer_blocks.7.ff.net.2.bias {noinline} = #stream.parameter.named<"model"::"unet.down_blocks.2.attentions.1.transformer_blocks.7.ff.net.2.bias"> : tensor<1280xf16>
  util.global private @_params.unet.down_blocks.2.attentions.1.transformer_blocks.8.norm1.weight {noinline} = #stream.parameter.named<"model"::"unet.down_blocks.2.attentions.1.transformer_blocks.8.norm1.weight"> : tensor<1280xf16>
  util.global private @_params.unet.down_blocks.2.attentions.1.transformer_blocks.8.norm1.bias {noinline} = #stream.parameter.named<"model"::"unet.down_blocks.2.attentions.1.transformer_blocks.8.norm1.bias"> : tensor<1280xf16>
  util.global private @_params.unet.down_blocks.2.attentions.1.transformer_blocks.8.attn1.to_q.weight {noinline} = #stream.parameter.named<"model"::"unet.down_blocks.2.attentions.1.transformer_blocks.8.attn1.to_q.weight"> : tensor<1280x1280xf16>
  util.global private @_params.unet.down_blocks.2.attentions.1.transformer_blocks.8.attn1.to_k.weight {noinline} = #stream.parameter.named<"model"::"unet.down_blocks.2.attentions.1.transformer_blocks.8.attn1.to_k.weight"> : tensor<1280x1280xf16>
  util.global private @_params.unet.down_blocks.2.attentions.1.transformer_blocks.8.attn1.to_v.weight {noinline} = #stream.parameter.named<"model"::"unet.down_blocks.2.attentions.1.transformer_blocks.8.attn1.to_v.weight"> : tensor<1280x1280xf16>
  util.global private @_params.unet.down_blocks.2.attentions.1.transformer_blocks.8.attn1.to_out.0.weight {noinline} = #stream.parameter.named<"model"::"unet.down_blocks.2.attentions.1.transformer_blocks.8.attn1.to_out.0.weight"> : tensor<1280x1280xf16>
  util.global private @_params.unet.down_blocks.2.attentions.1.transformer_blocks.8.attn1.to_out.0.bias {noinline} = #stream.parameter.named<"model"::"unet.down_blocks.2.attentions.1.transformer_blocks.8.attn1.to_out.0.bias"> : tensor<1280xf16>
  util.global private @_params.unet.down_blocks.2.attentions.1.transformer_blocks.8.norm2.weight {noinline} = #stream.parameter.named<"model"::"unet.down_blocks.2.attentions.1.transformer_blocks.8.norm2.weight"> : tensor<1280xf16>
  util.global private @_params.unet.down_blocks.2.attentions.1.transformer_blocks.8.norm2.bias {noinline} = #stream.parameter.named<"model"::"unet.down_blocks.2.attentions.1.transformer_blocks.8.norm2.bias"> : tensor<1280xf16>
  util.global private @_params.unet.down_blocks.2.attentions.1.transformer_blocks.8.attn2.to_q.weight {noinline} = #stream.parameter.named<"model"::"unet.down_blocks.2.attentions.1.transformer_blocks.8.attn2.to_q.weight"> : tensor<1280x1280xf16>
  util.global private @_params.unet.down_blocks.2.attentions.1.transformer_blocks.8.attn2.to_k.weight {noinline} = #stream.parameter.named<"model"::"unet.down_blocks.2.attentions.1.transformer_blocks.8.attn2.to_k.weight"> : tensor<1280x2048xf16>
  util.global private @_params.unet.down_blocks.2.attentions.1.transformer_blocks.8.attn2.to_v.weight {noinline} = #stream.parameter.named<"model"::"unet.down_blocks.2.attentions.1.transformer_blocks.8.attn2.to_v.weight"> : tensor<1280x2048xf16>
  util.global private @_params.unet.down_blocks.2.attentions.1.transformer_blocks.8.attn2.to_out.0.weight {noinline} = #stream.parameter.named<"model"::"unet.down_blocks.2.attentions.1.transformer_blocks.8.attn2.to_out.0.weight"> : tensor<1280x1280xf16>
  util.global private @_params.unet.down_blocks.2.attentions.1.transformer_blocks.8.attn2.to_out.0.bias {noinline} = #stream.parameter.named<"model"::"unet.down_blocks.2.attentions.1.transformer_blocks.8.attn2.to_out.0.bias"> : tensor<1280xf16>
  util.global private @_params.unet.down_blocks.2.attentions.1.transformer_blocks.8.norm3.weight {noinline} = #stream.parameter.named<"model"::"unet.down_blocks.2.attentions.1.transformer_blocks.8.norm3.weight"> : tensor<1280xf16>
  util.global private @_params.unet.down_blocks.2.attentions.1.transformer_blocks.8.norm3.bias {noinline} = #stream.parameter.named<"model"::"unet.down_blocks.2.attentions.1.transformer_blocks.8.norm3.bias"> : tensor<1280xf16>
  util.global private @_params.unet.down_blocks.2.attentions.1.transformer_blocks.8.ff.net.0.proj.weight {noinline} = #stream.parameter.named<"model"::"unet.down_blocks.2.attentions.1.transformer_blocks.8.ff.net.0.proj.weight"> : tensor<10240x1280xf16>
  util.global private @_params.unet.down_blocks.2.attentions.1.transformer_blocks.8.ff.net.0.proj.bias {noinline} = #stream.parameter.named<"model"::"unet.down_blocks.2.attentions.1.transformer_blocks.8.ff.net.0.proj.bias"> : tensor<10240xf16>
  util.global private @_params.unet.down_blocks.2.attentions.1.transformer_blocks.8.ff.net.2.weight {noinline} = #stream.parameter.named<"model"::"unet.down_blocks.2.attentions.1.transformer_blocks.8.ff.net.2.weight"> : tensor<1280x5120xf16>
  util.global private @_params.unet.down_blocks.2.attentions.1.transformer_blocks.8.ff.net.2.bias {noinline} = #stream.parameter.named<"model"::"unet.down_blocks.2.attentions.1.transformer_blocks.8.ff.net.2.bias"> : tensor<1280xf16>
  util.global private @_params.unet.down_blocks.2.attentions.1.transformer_blocks.9.norm1.weight {noinline} = #stream.parameter.named<"model"::"unet.down_blocks.2.attentions.1.transformer_blocks.9.norm1.weight"> : tensor<1280xf16>
  util.global private @_params.unet.down_blocks.2.attentions.1.transformer_blocks.9.norm1.bias {noinline} = #stream.parameter.named<"model"::"unet.down_blocks.2.attentions.1.transformer_blocks.9.norm1.bias"> : tensor<1280xf16>
  util.global private @_params.unet.down_blocks.2.attentions.1.transformer_blocks.9.attn1.to_q.weight {noinline} = #stream.parameter.named<"model"::"unet.down_blocks.2.attentions.1.transformer_blocks.9.attn1.to_q.weight"> : tensor<1280x1280xf16>
  util.global private @_params.unet.down_blocks.2.attentions.1.transformer_blocks.9.attn1.to_k.weight {noinline} = #stream.parameter.named<"model"::"unet.down_blocks.2.attentions.1.transformer_blocks.9.attn1.to_k.weight"> : tensor<1280x1280xf16>
  util.global private @_params.unet.down_blocks.2.attentions.1.transformer_blocks.9.attn1.to_v.weight {noinline} = #stream.parameter.named<"model"::"unet.down_blocks.2.attentions.1.transformer_blocks.9.attn1.to_v.weight"> : tensor<1280x1280xf16>
  util.global private @_params.unet.down_blocks.2.attentions.1.transformer_blocks.9.attn1.to_out.0.weight {noinline} = #stream.parameter.named<"model"::"unet.down_blocks.2.attentions.1.transformer_blocks.9.attn1.to_out.0.weight"> : tensor<1280x1280xf16>
  util.global private @_params.unet.down_blocks.2.attentions.1.transformer_blocks.9.attn1.to_out.0.bias {noinline} = #stream.parameter.named<"model"::"unet.down_blocks.2.attentions.1.transformer_blocks.9.attn1.to_out.0.bias"> : tensor<1280xf16>
  util.global private @_params.unet.down_blocks.2.attentions.1.transformer_blocks.9.norm2.weight {noinline} = #stream.parameter.named<"model"::"unet.down_blocks.2.attentions.1.transformer_blocks.9.norm2.weight"> : tensor<1280xf16>
  util.global private @_params.unet.down_blocks.2.attentions.1.transformer_blocks.9.norm2.bias {noinline} = #stream.parameter.named<"model"::"unet.down_blocks.2.attentions.1.transformer_blocks.9.norm2.bias"> : tensor<1280xf16>
  util.global private @_params.unet.down_blocks.2.attentions.1.transformer_blocks.9.attn2.to_q.weight {noinline} = #stream.parameter.named<"model"::"unet.down_blocks.2.attentions.1.transformer_blocks.9.attn2.to_q.weight"> : tensor<1280x1280xf16>
  util.global private @_params.unet.down_blocks.2.attentions.1.transformer_blocks.9.attn2.to_k.weight {noinline} = #stream.parameter.named<"model"::"unet.down_blocks.2.attentions.1.transformer_blocks.9.attn2.to_k.weight"> : tensor<1280x2048xf16>
  util.global private @_params.unet.down_blocks.2.attentions.1.transformer_blocks.9.attn2.to_v.weight {noinline} = #stream.parameter.named<"model"::"unet.down_blocks.2.attentions.1.transformer_blocks.9.attn2.to_v.weight"> : tensor<1280x2048xf16>
  util.global private @_params.unet.down_blocks.2.attentions.1.transformer_blocks.9.attn2.to_out.0.weight {noinline} = #stream.parameter.named<"model"::"unet.down_blocks.2.attentions.1.transformer_blocks.9.attn2.to_out.0.weight"> : tensor<1280x1280xf16>
  util.global private @_params.unet.down_blocks.2.attentions.1.transformer_blocks.9.attn2.to_out.0.bias {noinline} = #stream.parameter.named<"model"::"unet.down_blocks.2.attentions.1.transformer_blocks.9.attn2.to_out.0.bias"> : tensor<1280xf16>
  util.global private @_params.unet.down_blocks.2.attentions.1.transformer_blocks.9.norm3.weight {noinline} = #stream.parameter.named<"model"::"unet.down_blocks.2.attentions.1.transformer_blocks.9.norm3.weight"> : tensor<1280xf16>
  util.global private @_params.unet.down_blocks.2.attentions.1.transformer_blocks.9.norm3.bias {noinline} = #stream.parameter.named<"model"::"unet.down_blocks.2.attentions.1.transformer_blocks.9.norm3.bias"> : tensor<1280xf16>
  util.global private @_params.unet.down_blocks.2.attentions.1.transformer_blocks.9.ff.net.0.proj.weight {noinline} = #stream.parameter.named<"model"::"unet.down_blocks.2.attentions.1.transformer_blocks.9.ff.net.0.proj.weight"> : tensor<10240x1280xf16>
  util.global private @_params.unet.down_blocks.2.attentions.1.transformer_blocks.9.ff.net.0.proj.bias {noinline} = #stream.parameter.named<"model"::"unet.down_blocks.2.attentions.1.transformer_blocks.9.ff.net.0.proj.bias"> : tensor<10240xf16>
  util.global private @_params.unet.down_blocks.2.attentions.1.transformer_blocks.9.ff.net.2.weight {noinline} = #stream.parameter.named<"model"::"unet.down_blocks.2.attentions.1.transformer_blocks.9.ff.net.2.weight"> : tensor<1280x5120xf16>
  util.global private @_params.unet.down_blocks.2.attentions.1.transformer_blocks.9.ff.net.2.bias {noinline} = #stream.parameter.named<"model"::"unet.down_blocks.2.attentions.1.transformer_blocks.9.ff.net.2.bias"> : tensor<1280xf16>
  util.global private @_params.unet.down_blocks.2.attentions.1.proj_out.weight {noinline} = #stream.parameter.named<"model"::"unet.down_blocks.2.attentions.1.proj_out.weight"> : tensor<1280x1280xf16>
  util.global private @_params.unet.down_blocks.2.attentions.1.proj_out.bias {noinline} = #stream.parameter.named<"model"::"unet.down_blocks.2.attentions.1.proj_out.bias"> : tensor<1280xf16>
  util.global private @_params.unet.down_blocks.2.resnets.0.norm1.weight {noinline} = #stream.parameter.named<"model"::"unet.down_blocks.2.resnets.0.norm1.weight"> : tensor<640xf16>
  util.global private @_params.unet.down_blocks.2.resnets.0.norm1.bias {noinline} = #stream.parameter.named<"model"::"unet.down_blocks.2.resnets.0.norm1.bias"> : tensor<640xf16>
  util.global private @_params.unet.down_blocks.2.resnets.0.conv1.weight {noinline} = #stream.parameter.named<"model"::"unet.down_blocks.2.resnets.0.conv1.weight"> : tensor<1280x640x3x3xf16>
  util.global private @_params.unet.down_blocks.2.resnets.0.conv1.bias {noinline} = #stream.parameter.named<"model"::"unet.down_blocks.2.resnets.0.conv1.bias"> : tensor<1280xf16>
  util.global private @_params.unet.down_blocks.2.resnets.0.time_emb_proj.weight {noinline} = #stream.parameter.named<"model"::"unet.down_blocks.2.resnets.0.time_emb_proj.weight"> : tensor<1280x1280xf16>
  util.global private @_params.unet.down_blocks.2.resnets.0.time_emb_proj.bias {noinline} = #stream.parameter.named<"model"::"unet.down_blocks.2.resnets.0.time_emb_proj.bias"> : tensor<1280xf16>
  util.global private @_params.unet.down_blocks.2.resnets.0.norm2.weight {noinline} = #stream.parameter.named<"model"::"unet.down_blocks.2.resnets.0.norm2.weight"> : tensor<1280xf16>
  util.global private @_params.unet.down_blocks.2.resnets.0.norm2.bias {noinline} = #stream.parameter.named<"model"::"unet.down_blocks.2.resnets.0.norm2.bias"> : tensor<1280xf16>
  util.global private @_params.unet.down_blocks.2.resnets.0.conv2.weight {noinline} = #stream.parameter.named<"model"::"unet.down_blocks.2.resnets.0.conv2.weight"> : tensor<1280x1280x3x3xf16>
  util.global private @_params.unet.down_blocks.2.resnets.0.conv2.bias {noinline} = #stream.parameter.named<"model"::"unet.down_blocks.2.resnets.0.conv2.bias"> : tensor<1280xf16>
  util.global private @_params.unet.down_blocks.2.resnets.0.conv_shortcut.weight {noinline} = #stream.parameter.named<"model"::"unet.down_blocks.2.resnets.0.conv_shortcut.weight"> : tensor<1280x640x1x1xf16>
  util.global private @_params.unet.down_blocks.2.resnets.0.conv_shortcut.bias {noinline} = #stream.parameter.named<"model"::"unet.down_blocks.2.resnets.0.conv_shortcut.bias"> : tensor<1280xf16>
  util.global private @_params.unet.down_blocks.2.resnets.1.norm1.weight {noinline} = #stream.parameter.named<"model"::"unet.down_blocks.2.resnets.1.norm1.weight"> : tensor<1280xf16>
  util.global private @_params.unet.down_blocks.2.resnets.1.norm1.bias {noinline} = #stream.parameter.named<"model"::"unet.down_blocks.2.resnets.1.norm1.bias"> : tensor<1280xf16>
  util.global private @_params.unet.down_blocks.2.resnets.1.conv1.weight {noinline} = #stream.parameter.named<"model"::"unet.down_blocks.2.resnets.1.conv1.weight"> : tensor<1280x1280x3x3xf16>
  util.global private @_params.unet.down_blocks.2.resnets.1.conv1.bias {noinline} = #stream.parameter.named<"model"::"unet.down_blocks.2.resnets.1.conv1.bias"> : tensor<1280xf16>
  util.global private @_params.unet.down_blocks.2.resnets.1.time_emb_proj.weight {noinline} = #stream.parameter.named<"model"::"unet.down_blocks.2.resnets.1.time_emb_proj.weight"> : tensor<1280x1280xf16>
  util.global private @_params.unet.down_blocks.2.resnets.1.time_emb_proj.bias {noinline} = #stream.parameter.named<"model"::"unet.down_blocks.2.resnets.1.time_emb_proj.bias"> : tensor<1280xf16>
  util.global private @_params.unet.down_blocks.2.resnets.1.norm2.weight {noinline} = #stream.parameter.named<"model"::"unet.down_blocks.2.resnets.1.norm2.weight"> : tensor<1280xf16>
  util.global private @_params.unet.down_blocks.2.resnets.1.norm2.bias {noinline} = #stream.parameter.named<"model"::"unet.down_blocks.2.resnets.1.norm2.bias"> : tensor<1280xf16>
  util.global private @_params.unet.down_blocks.2.resnets.1.conv2.weight {noinline} = #stream.parameter.named<"model"::"unet.down_blocks.2.resnets.1.conv2.weight"> : tensor<1280x1280x3x3xf16>
  util.global private @_params.unet.down_blocks.2.resnets.1.conv2.bias {noinline} = #stream.parameter.named<"model"::"unet.down_blocks.2.resnets.1.conv2.bias"> : tensor<1280xf16>
  util.global private @_params.unet.up_blocks.0.attentions.0.norm.weight {noinline} = #stream.parameter.named<"model"::"unet.up_blocks.0.attentions.0.norm.weight"> : tensor<1280xf16>
  util.global private @_params.unet.up_blocks.0.attentions.0.norm.bias {noinline} = #stream.parameter.named<"model"::"unet.up_blocks.0.attentions.0.norm.bias"> : tensor<1280xf16>
  util.global private @_params.unet.up_blocks.0.attentions.0.proj_in.weight {noinline} = #stream.parameter.named<"model"::"unet.up_blocks.0.attentions.0.proj_in.weight"> : tensor<1280x1280xf16>
  util.global private @_params.unet.up_blocks.0.attentions.0.proj_in.bias {noinline} = #stream.parameter.named<"model"::"unet.up_blocks.0.attentions.0.proj_in.bias"> : tensor<1280xf16>
  util.global private @_params.unet.up_blocks.0.attentions.0.transformer_blocks.0.norm1.weight {noinline} = #stream.parameter.named<"model"::"unet.up_blocks.0.attentions.0.transformer_blocks.0.norm1.weight"> : tensor<1280xf16>
  util.global private @_params.unet.up_blocks.0.attentions.0.transformer_blocks.0.norm1.bias {noinline} = #stream.parameter.named<"model"::"unet.up_blocks.0.attentions.0.transformer_blocks.0.norm1.bias"> : tensor<1280xf16>
  util.global private @_params.unet.up_blocks.0.attentions.0.transformer_blocks.0.attn1.to_q.weight {noinline} = #stream.parameter.named<"model"::"unet.up_blocks.0.attentions.0.transformer_blocks.0.attn1.to_q.weight"> : tensor<1280x1280xf16>
  util.global private @_params.unet.up_blocks.0.attentions.0.transformer_blocks.0.attn1.to_k.weight {noinline} = #stream.parameter.named<"model"::"unet.up_blocks.0.attentions.0.transformer_blocks.0.attn1.to_k.weight"> : tensor<1280x1280xf16>
  util.global private @_params.unet.up_blocks.0.attentions.0.transformer_blocks.0.attn1.to_v.weight {noinline} = #stream.parameter.named<"model"::"unet.up_blocks.0.attentions.0.transformer_blocks.0.attn1.to_v.weight"> : tensor<1280x1280xf16>
  util.global private @_params.unet.up_blocks.0.attentions.0.transformer_blocks.0.attn1.to_out.0.weight {noinline} = #stream.parameter.named<"model"::"unet.up_blocks.0.attentions.0.transformer_blocks.0.attn1.to_out.0.weight"> : tensor<1280x1280xf16>
  util.global private @_params.unet.up_blocks.0.attentions.0.transformer_blocks.0.attn1.to_out.0.bias {noinline} = #stream.parameter.named<"model"::"unet.up_blocks.0.attentions.0.transformer_blocks.0.attn1.to_out.0.bias"> : tensor<1280xf16>
  util.global private @_params.unet.up_blocks.0.attentions.0.transformer_blocks.0.norm2.weight {noinline} = #stream.parameter.named<"model"::"unet.up_blocks.0.attentions.0.transformer_blocks.0.norm2.weight"> : tensor<1280xf16>
  util.global private @_params.unet.up_blocks.0.attentions.0.transformer_blocks.0.norm2.bias {noinline} = #stream.parameter.named<"model"::"unet.up_blocks.0.attentions.0.transformer_blocks.0.norm2.bias"> : tensor<1280xf16>
  util.global private @_params.unet.up_blocks.0.attentions.0.transformer_blocks.0.attn2.to_q.weight {noinline} = #stream.parameter.named<"model"::"unet.up_blocks.0.attentions.0.transformer_blocks.0.attn2.to_q.weight"> : tensor<1280x1280xf16>
  util.global private @_params.unet.up_blocks.0.attentions.0.transformer_blocks.0.attn2.to_k.weight {noinline} = #stream.parameter.named<"model"::"unet.up_blocks.0.attentions.0.transformer_blocks.0.attn2.to_k.weight"> : tensor<1280x2048xf16>
  util.global private @_params.unet.up_blocks.0.attentions.0.transformer_blocks.0.attn2.to_v.weight {noinline} = #stream.parameter.named<"model"::"unet.up_blocks.0.attentions.0.transformer_blocks.0.attn2.to_v.weight"> : tensor<1280x2048xf16>
  util.global private @_params.unet.up_blocks.0.attentions.0.transformer_blocks.0.attn2.to_out.0.weight {noinline} = #stream.parameter.named<"model"::"unet.up_blocks.0.attentions.0.transformer_blocks.0.attn2.to_out.0.weight"> : tensor<1280x1280xf16>
  util.global private @_params.unet.up_blocks.0.attentions.0.transformer_blocks.0.attn2.to_out.0.bias {noinline} = #stream.parameter.named<"model"::"unet.up_blocks.0.attentions.0.transformer_blocks.0.attn2.to_out.0.bias"> : tensor<1280xf16>
  util.global private @_params.unet.up_blocks.0.attentions.0.transformer_blocks.0.norm3.weight {noinline} = #stream.parameter.named<"model"::"unet.up_blocks.0.attentions.0.transformer_blocks.0.norm3.weight"> : tensor<1280xf16>
  util.global private @_params.unet.up_blocks.0.attentions.0.transformer_blocks.0.norm3.bias {noinline} = #stream.parameter.named<"model"::"unet.up_blocks.0.attentions.0.transformer_blocks.0.norm3.bias"> : tensor<1280xf16>
  util.global private @_params.unet.up_blocks.0.attentions.0.transformer_blocks.0.ff.net.0.proj.weight {noinline} = #stream.parameter.named<"model"::"unet.up_blocks.0.attentions.0.transformer_blocks.0.ff.net.0.proj.weight"> : tensor<10240x1280xf16>
  util.global private @_params.unet.up_blocks.0.attentions.0.transformer_blocks.0.ff.net.0.proj.bias {noinline} = #stream.parameter.named<"model"::"unet.up_blocks.0.attentions.0.transformer_blocks.0.ff.net.0.proj.bias"> : tensor<10240xf16>
  util.global private @_params.unet.up_blocks.0.attentions.0.transformer_blocks.0.ff.net.2.weight {noinline} = #stream.parameter.named<"model"::"unet.up_blocks.0.attentions.0.transformer_blocks.0.ff.net.2.weight"> : tensor<1280x5120xf16>
  util.global private @_params.unet.up_blocks.0.attentions.0.transformer_blocks.0.ff.net.2.bias {noinline} = #stream.parameter.named<"model"::"unet.up_blocks.0.attentions.0.transformer_blocks.0.ff.net.2.bias"> : tensor<1280xf16>
  util.global private @_params.unet.up_blocks.0.attentions.0.transformer_blocks.1.norm1.weight {noinline} = #stream.parameter.named<"model"::"unet.up_blocks.0.attentions.0.transformer_blocks.1.norm1.weight"> : tensor<1280xf16>
  util.global private @_params.unet.up_blocks.0.attentions.0.transformer_blocks.1.norm1.bias {noinline} = #stream.parameter.named<"model"::"unet.up_blocks.0.attentions.0.transformer_blocks.1.norm1.bias"> : tensor<1280xf16>
  util.global private @_params.unet.up_blocks.0.attentions.0.transformer_blocks.1.attn1.to_q.weight {noinline} = #stream.parameter.named<"model"::"unet.up_blocks.0.attentions.0.transformer_blocks.1.attn1.to_q.weight"> : tensor<1280x1280xf16>
  util.global private @_params.unet.up_blocks.0.attentions.0.transformer_blocks.1.attn1.to_k.weight {noinline} = #stream.parameter.named<"model"::"unet.up_blocks.0.attentions.0.transformer_blocks.1.attn1.to_k.weight"> : tensor<1280x1280xf16>
  util.global private @_params.unet.up_blocks.0.attentions.0.transformer_blocks.1.attn1.to_v.weight {noinline} = #stream.parameter.named<"model"::"unet.up_blocks.0.attentions.0.transformer_blocks.1.attn1.to_v.weight"> : tensor<1280x1280xf16>
  util.global private @_params.unet.up_blocks.0.attentions.0.transformer_blocks.1.attn1.to_out.0.weight {noinline} = #stream.parameter.named<"model"::"unet.up_blocks.0.attentions.0.transformer_blocks.1.attn1.to_out.0.weight"> : tensor<1280x1280xf16>
  util.global private @_params.unet.up_blocks.0.attentions.0.transformer_blocks.1.attn1.to_out.0.bias {noinline} = #stream.parameter.named<"model"::"unet.up_blocks.0.attentions.0.transformer_blocks.1.attn1.to_out.0.bias"> : tensor<1280xf16>
  util.global private @_params.unet.up_blocks.0.attentions.0.transformer_blocks.1.norm2.weight {noinline} = #stream.parameter.named<"model"::"unet.up_blocks.0.attentions.0.transformer_blocks.1.norm2.weight"> : tensor<1280xf16>
  util.global private @_params.unet.up_blocks.0.attentions.0.transformer_blocks.1.norm2.bias {noinline} = #stream.parameter.named<"model"::"unet.up_blocks.0.attentions.0.transformer_blocks.1.norm2.bias"> : tensor<1280xf16>
  util.global private @_params.unet.up_blocks.0.attentions.0.transformer_blocks.1.attn2.to_q.weight {noinline} = #stream.parameter.named<"model"::"unet.up_blocks.0.attentions.0.transformer_blocks.1.attn2.to_q.weight"> : tensor<1280x1280xf16>
  util.global private @_params.unet.up_blocks.0.attentions.0.transformer_blocks.1.attn2.to_k.weight {noinline} = #stream.parameter.named<"model"::"unet.up_blocks.0.attentions.0.transformer_blocks.1.attn2.to_k.weight"> : tensor<1280x2048xf16>
  util.global private @_params.unet.up_blocks.0.attentions.0.transformer_blocks.1.attn2.to_v.weight {noinline} = #stream.parameter.named<"model"::"unet.up_blocks.0.attentions.0.transformer_blocks.1.attn2.to_v.weight"> : tensor<1280x2048xf16>
  util.global private @_params.unet.up_blocks.0.attentions.0.transformer_blocks.1.attn2.to_out.0.weight {noinline} = #stream.parameter.named<"model"::"unet.up_blocks.0.attentions.0.transformer_blocks.1.attn2.to_out.0.weight"> : tensor<1280x1280xf16>
  util.global private @_params.unet.up_blocks.0.attentions.0.transformer_blocks.1.attn2.to_out.0.bias {noinline} = #stream.parameter.named<"model"::"unet.up_blocks.0.attentions.0.transformer_blocks.1.attn2.to_out.0.bias"> : tensor<1280xf16>
  util.global private @_params.unet.up_blocks.0.attentions.0.transformer_blocks.1.norm3.weight {noinline} = #stream.parameter.named<"model"::"unet.up_blocks.0.attentions.0.transformer_blocks.1.norm3.weight"> : tensor<1280xf16>
  util.global private @_params.unet.up_blocks.0.attentions.0.transformer_blocks.1.norm3.bias {noinline} = #stream.parameter.named<"model"::"unet.up_blocks.0.attentions.0.transformer_blocks.1.norm3.bias"> : tensor<1280xf16>
  util.global private @_params.unet.up_blocks.0.attentions.0.transformer_blocks.1.ff.net.0.proj.weight {noinline} = #stream.parameter.named<"model"::"unet.up_blocks.0.attentions.0.transformer_blocks.1.ff.net.0.proj.weight"> : tensor<10240x1280xf16>
  util.global private @_params.unet.up_blocks.0.attentions.0.transformer_blocks.1.ff.net.0.proj.bias {noinline} = #stream.parameter.named<"model"::"unet.up_blocks.0.attentions.0.transformer_blocks.1.ff.net.0.proj.bias"> : tensor<10240xf16>
  util.global private @_params.unet.up_blocks.0.attentions.0.transformer_blocks.1.ff.net.2.weight {noinline} = #stream.parameter.named<"model"::"unet.up_blocks.0.attentions.0.transformer_blocks.1.ff.net.2.weight"> : tensor<1280x5120xf16>
  util.global private @_params.unet.up_blocks.0.attentions.0.transformer_blocks.1.ff.net.2.bias {noinline} = #stream.parameter.named<"model"::"unet.up_blocks.0.attentions.0.transformer_blocks.1.ff.net.2.bias"> : tensor<1280xf16>
  util.global private @_params.unet.up_blocks.0.attentions.0.transformer_blocks.2.norm1.weight {noinline} = #stream.parameter.named<"model"::"unet.up_blocks.0.attentions.0.transformer_blocks.2.norm1.weight"> : tensor<1280xf16>
  util.global private @_params.unet.up_blocks.0.attentions.0.transformer_blocks.2.norm1.bias {noinline} = #stream.parameter.named<"model"::"unet.up_blocks.0.attentions.0.transformer_blocks.2.norm1.bias"> : tensor<1280xf16>
  util.global private @_params.unet.up_blocks.0.attentions.0.transformer_blocks.2.attn1.to_q.weight {noinline} = #stream.parameter.named<"model"::"unet.up_blocks.0.attentions.0.transformer_blocks.2.attn1.to_q.weight"> : tensor<1280x1280xf16>
  util.global private @_params.unet.up_blocks.0.attentions.0.transformer_blocks.2.attn1.to_k.weight {noinline} = #stream.parameter.named<"model"::"unet.up_blocks.0.attentions.0.transformer_blocks.2.attn1.to_k.weight"> : tensor<1280x1280xf16>
  util.global private @_params.unet.up_blocks.0.attentions.0.transformer_blocks.2.attn1.to_v.weight {noinline} = #stream.parameter.named<"model"::"unet.up_blocks.0.attentions.0.transformer_blocks.2.attn1.to_v.weight"> : tensor<1280x1280xf16>
  util.global private @_params.unet.up_blocks.0.attentions.0.transformer_blocks.2.attn1.to_out.0.weight {noinline} = #stream.parameter.named<"model"::"unet.up_blocks.0.attentions.0.transformer_blocks.2.attn1.to_out.0.weight"> : tensor<1280x1280xf16>
  util.global private @_params.unet.up_blocks.0.attentions.0.transformer_blocks.2.attn1.to_out.0.bias {noinline} = #stream.parameter.named<"model"::"unet.up_blocks.0.attentions.0.transformer_blocks.2.attn1.to_out.0.bias"> : tensor<1280xf16>
  util.global private @_params.unet.up_blocks.0.attentions.0.transformer_blocks.2.norm2.weight {noinline} = #stream.parameter.named<"model"::"unet.up_blocks.0.attentions.0.transformer_blocks.2.norm2.weight"> : tensor<1280xf16>
  util.global private @_params.unet.up_blocks.0.attentions.0.transformer_blocks.2.norm2.bias {noinline} = #stream.parameter.named<"model"::"unet.up_blocks.0.attentions.0.transformer_blocks.2.norm2.bias"> : tensor<1280xf16>
  util.global private @_params.unet.up_blocks.0.attentions.0.transformer_blocks.2.attn2.to_q.weight {noinline} = #stream.parameter.named<"model"::"unet.up_blocks.0.attentions.0.transformer_blocks.2.attn2.to_q.weight"> : tensor<1280x1280xf16>
  util.global private @_params.unet.up_blocks.0.attentions.0.transformer_blocks.2.attn2.to_k.weight {noinline} = #stream.parameter.named<"model"::"unet.up_blocks.0.attentions.0.transformer_blocks.2.attn2.to_k.weight"> : tensor<1280x2048xf16>
  util.global private @_params.unet.up_blocks.0.attentions.0.transformer_blocks.2.attn2.to_v.weight {noinline} = #stream.parameter.named<"model"::"unet.up_blocks.0.attentions.0.transformer_blocks.2.attn2.to_v.weight"> : tensor<1280x2048xf16>
  util.global private @_params.unet.up_blocks.0.attentions.0.transformer_blocks.2.attn2.to_out.0.weight {noinline} = #stream.parameter.named<"model"::"unet.up_blocks.0.attentions.0.transformer_blocks.2.attn2.to_out.0.weight"> : tensor<1280x1280xf16>
  util.global private @_params.unet.up_blocks.0.attentions.0.transformer_blocks.2.attn2.to_out.0.bias {noinline} = #stream.parameter.named<"model"::"unet.up_blocks.0.attentions.0.transformer_blocks.2.attn2.to_out.0.bias"> : tensor<1280xf16>
  util.global private @_params.unet.up_blocks.0.attentions.0.transformer_blocks.2.norm3.weight {noinline} = #stream.parameter.named<"model"::"unet.up_blocks.0.attentions.0.transformer_blocks.2.norm3.weight"> : tensor<1280xf16>
  util.global private @_params.unet.up_blocks.0.attentions.0.transformer_blocks.2.norm3.bias {noinline} = #stream.parameter.named<"model"::"unet.up_blocks.0.attentions.0.transformer_blocks.2.norm3.bias"> : tensor<1280xf16>
  util.global private @_params.unet.up_blocks.0.attentions.0.transformer_blocks.2.ff.net.0.proj.weight {noinline} = #stream.parameter.named<"model"::"unet.up_blocks.0.attentions.0.transformer_blocks.2.ff.net.0.proj.weight"> : tensor<10240x1280xf16>
  util.global private @_params.unet.up_blocks.0.attentions.0.transformer_blocks.2.ff.net.0.proj.bias {noinline} = #stream.parameter.named<"model"::"unet.up_blocks.0.attentions.0.transformer_blocks.2.ff.net.0.proj.bias"> : tensor<10240xf16>
  util.global private @_params.unet.up_blocks.0.attentions.0.transformer_blocks.2.ff.net.2.weight {noinline} = #stream.parameter.named<"model"::"unet.up_blocks.0.attentions.0.transformer_blocks.2.ff.net.2.weight"> : tensor<1280x5120xf16>
  util.global private @_params.unet.up_blocks.0.attentions.0.transformer_blocks.2.ff.net.2.bias {noinline} = #stream.parameter.named<"model"::"unet.up_blocks.0.attentions.0.transformer_blocks.2.ff.net.2.bias"> : tensor<1280xf16>
  util.global private @_params.unet.up_blocks.0.attentions.0.transformer_blocks.3.norm1.weight {noinline} = #stream.parameter.named<"model"::"unet.up_blocks.0.attentions.0.transformer_blocks.3.norm1.weight"> : tensor<1280xf16>
  util.global private @_params.unet.up_blocks.0.attentions.0.transformer_blocks.3.norm1.bias {noinline} = #stream.parameter.named<"model"::"unet.up_blocks.0.attentions.0.transformer_blocks.3.norm1.bias"> : tensor<1280xf16>
…
    %_params.unet.up_blocks.2.resnets.1.time_emb_proj.bias = util.global.load @_params.unet.up_blocks.2.resnets.1.time_emb_proj.bias : tensor<320xf16>
    %15236 = torch_c.from_builtin_tensor %_params.unet.up_blocks.2.resnets.1.time_emb_proj.bias : tensor<320xf16> -> !torch.vtensor<[320],f16>
    %int6_17271 = torch.constant.int 6
    %15237 = torch.prims.convert_element_type %15236, %int6_17271 : !torch.vtensor<[320],f16>, !torch.int -> !torch.vtensor<[320],f32>
    %int6_17272 = torch.constant.int 6
    %15238 = torch.prims.convert_element_type %15233, %int6_17272 : !torch.vtensor<[2,1280],f16>, !torch.int -> !torch.vtensor<[2,1280],f32>
    %int6_17273 = torch.constant.int 6
    %15239 = torch.prims.convert_element_type %15235, %int6_17273 : !torch.vtensor<[1280,320],f16>, !torch.int -> !torch.vtensor<[1280,320],f32>
    %15240 = torch.aten.mm %15238, %15239 : !torch.vtensor<[2,1280],f32>, !torch.vtensor<[1280,320],f32> -> !torch.vtensor<[2,320],f32>
    %int1_17274 = torch.constant.int 1
    %15241 = torch.aten.mul.Scalar %15240, %int1_17274 : !torch.vtensor<[2,320],f32>, !torch.int -> !torch.vtensor<[2,320],f32>
    %int1_17275 = torch.constant.int 1
    %15242 = torch.aten.mul.Scalar %15237, %int1_17275 : !torch.vtensor<[320],f32>, !torch.int -> !torch.vtensor<[320],f32>
    %int1_17276 = torch.constant.int 1
    %15243 = torch.aten.add.Tensor %15241, %15242, %int1_17276 : !torch.vtensor<[2,320],f32>, !torch.vtensor<[320],f32>, !torch.int -> !torch.vtensor<[2,320],f32>
    %int5_17277 = torch.constant.int 5
    %15244 = torch.prims.convert_element_type %15243, %int5_17277 : !torch.vtensor<[2,320],f32>, !torch.int -> !torch.vtensor<[2,320],f16>
    %int0_17278 = torch.constant.int 0
    %int0_17279 = torch.constant.int 0
    %int9223372036854775807_17280 = torch.constant.int 9223372036854775807
    %int1_17281 = torch.constant.int 1
    %15245 = torch.aten.slice.Tensor %15244, %int0_17278, %int0_17279, %int9223372036854775807_17280, %int1_17281 : !torch.vtensor<[2,320],f16>, !torch.int, !torch.int, !torch.int, !torch.int -> !torch.vtensor<[2,320],f16>
    %int1_17282 = torch.constant.int 1
    %int0_17283 = torch.constant.int 0
    %int9223372036854775807_17284 = torch.constant.int 9223372036854775807
    %int1_17285 = torch.constant.int 1
    %15246 = torch.aten.slice.Tensor %15245, %int1_17282, %int0_17283, %int9223372036854775807_17284, %int1_17285 : !torch.vtensor<[2,320],f16>, !torch.int, !torch.int, !torch.int, !torch.int -> !torch.vtensor<[2,320],f16>
    %int2_17286 = torch.constant.int 2
    %15247 = torch.aten.unsqueeze %15246, %int2_17286 : !torch.vtensor<[2,320],f16>, !torch.int -> !torch.vtensor<[2,320,1],f16>
    %int3_17287 = torch.constant.int 3
    %15248 = torch.aten.unsqueeze %15247, %int3_17287 : !torch.vtensor<[2,320,1],f16>, !torch.int -> !torch.vtensor<[2,320,1,1],f16>
    %int1_17288 = torch.constant.int 1
    %15249 = torch.aten.add.Tensor %15232, %15248, %int1_17288 : !torch.vtensor<[2,320,128,128],f16>, !torch.vtensor<[2,320,1,1],f16>, !torch.int -> !torch.vtensor<[2,320,128,128],f16>
    %int2_17289 = torch.constant.int 2
    %int32_17290 = torch.constant.int 32
    %int10_17291 = torch.constant.int 10
    %int16384_17292 = torch.constant.int 16384
    %15250 = torch.prim.ListConstruct %int2_17289, %int32_17290, %int10_17291, %int16384_17292 : (!torch.int, !torch.int, !torch.int, !torch.int) -> !torch.list<int>
    %15251 = torch.aten.view %15249, %15250 : !torch.vtensor<[2,320,128,128],f16>, !torch.list<int> -> !torch.vtensor<[2,32,10,16384],f16>
    %int6_17293 = torch.constant.int 6
    %15252 = torch.prims.convert_element_type %15251, %int6_17293 : !torch.vtensor<[2,32,10,16384],f16>, !torch.int -> !torch.vtensor<[2,32,10,16384],f32>
    %int2_17294 = torch.constant.int 2
    %int3_17295 = torch.constant.int 3
    %15253 = torch.prim.ListConstruct %int2_17294, %int3_17295 : (!torch.int, !torch.int) -> !torch.list<int>
    %int0_17296 = torch.constant.int 0
    %true_17297 = torch.constant.bool true
    %result0_17298, %result1_17299 = torch.aten.var_mean.correction %15252, %15253, %int0_17296, %true_17297 : !torch.vtensor<[2,32,10,16384],f32>, !torch.list<int>, !torch.int, !torch.bool -> !torch.vtensor<[2,32,1,1],f32>, !torch.vtensor<[2,32,1,1],f32>
    %float1.000000e-05_17300 = torch.constant.float 1.000000e-05
    %int1_17301 = torch.constant.int 1
    %15254 = torch.aten.add.Scalar %result0_17298, %float1.000000e-05_17300, %int1_17301 : !torch.vtensor<[2,32,1,1],f32>, !torch.float, !torch.int -> !torch.vtensor<[2,32,1,1],f32>
    %15255 = torch.aten.rsqrt %15254 : !torch.vtensor<[2,32,1,1],f32> -> !torch.vtensor<[2,32,1,1],f32>
    %int1_17302 = torch.constant.int 1
    %15256 = torch.aten.sub.Tensor %15251, %result1_17299, %int1_17302 : !torch.vtensor<[2,32,10,16384],f16>, !torch.vtensor<[2,32,1,1],f32>, !torch.int -> !torch.vtensor<[2,32,10,16384],f32>
    %15257 = torch.aten.mul.Tensor %15256, %15255 : !torch.vtensor<[2,32,10,16384],f32>, !torch.vtensor<[2,32,1,1],f32> -> !torch.vtensor<[2,32,10,16384],f32>
    %int2_17303 = torch.constant.int 2
    %int320_17304 = torch.constant.int 320
    %int128_17305 = torch.constant.int 128
    %int128_17306 = torch.constant.int 128
    %15258 = torch.prim.ListConstruct %int2_17303, %int320_17304, %int128_17305, %int128_17306 : (!torch.int, !torch.int, !torch.int, !torch.int) -> !torch.list<int>
    %15259 = torch.aten.view %15257, %15258 : !torch.vtensor<[2,32,10,16384],f32>, !torch.list<int> -> !torch.vtensor<[2,320,128,128],f32>
    %_params.unet.up_blocks.2.resnets.1.norm2.bias = util.global.load @_params.unet.up_blocks.2.resnets.1.norm2.bias : tensor<320xf16>
    %15260 = torch_c.from_builtin_tensor %_params.unet.up_blocks.2.resnets.1.norm2.bias : tensor<320xf16> -> !torch.vtensor<[320],f16>
    %int0_17307 = torch.constant.int 0
    %15261 = torch.aten.unsqueeze %15260, %int0_17307 : !torch.vtensor<[320],f16>, !torch.int -> !torch.vtensor<[1,320],f16>
    %int2_17308 = torch.constant.int 2
    %15262 = torch.aten.unsqueeze %15261, %int2_17308 : !torch.vtensor<[1,320],f16>, !torch.int -> !torch.vtensor<[1,320,1],f16>
    %int3_17309 = torch.constant.int 3
    %15263 = torch.aten.unsqueeze %15262, %int3_17309 : !torch.vtensor<[1,320,1],f16>, !torch.int -> !torch.vtensor<[1,320,1,1],f16>
    %_params.unet.up_blocks.2.resnets.1.norm2.weight = util.global.load @_params.unet.up_blocks.2.resnets.1.norm2.weight : tensor<320xf16>
    %15264 = torch_c.from_builtin_tensor %_params.unet.up_blocks.2.resnets.1.norm2.weight : tensor<320xf16> -> !torch.vtensor<[320],f16>
    %int0_17310 = torch.constant.int 0
    %15265 = torch.aten.unsqueeze %15264, %int0_17310 : !torch.vtensor<[320],f16>, !torch.int -> !torch.vtensor<[1,320],f16>
    %int2_17311 = torch.constant.int 2
    %15266 = torch.aten.unsqueeze %15265, %int2_17311 : !torch.vtensor<[1,320],f16>, !torch.int -> !torch.vtensor<[1,320,1],f16>
    %int3_17312 = torch.constant.int 3
    %15267 = torch.aten.unsqueeze %15266, %int3_17312 : !torch.vtensor<[1,320,1],f16>, !torch.int -> !torch.vtensor<[1,320,1,1],f16>
    %15268 = torch.aten.mul.Tensor %15259, %15267 : !torch.vtensor<[2,320,128,128],f32>, !torch.vtensor<[1,320,1,1],f16> -> !torch.vtensor<[2,320,128,128],f32>
    %int1_17313 = torch.constant.int 1
    %15269 = torch.aten.add.Tensor %15268, %15263, %int1_17313 : !torch.vtensor<[2,320,128,128],f32>, !torch.vtensor<[1,320,1,1],f16>, !torch.int -> !torch.vtensor<[2,320,128,128],f32>
    %int5_17314 = torch.constant.int 5
    %15270 = torch.prims.convert_element_type %15269, %int5_17314 : !torch.vtensor<[2,320,128,128],f32>, !torch.int -> !torch.vtensor<[2,320,128,128],f16>
    %int5_17315 = torch.constant.int 5
    %15271 = torch.prims.convert_element_type %result1_17299, %int5_17315 : !torch.vtensor<[2,32,1,1],f32>, !torch.int -> !torch.vtensor<[2,32,1,1],f16>
    %int5_17316 = torch.constant.int 5
    %15272 = torch.prims.convert_element_type %15255, %int5_17316 : !torch.vtensor<[2,32,1,1],f32>, !torch.int -> !torch.vtensor<[2,32,1,1],f16>
    %int3_17317 = torch.constant.int 3
    %15273 = torch.prim.ListConstruct %int3_17317 : (!torch.int) -> !torch.list<int>
    %15274 = torch.prims.squeeze %15271, %15273 : !torch.vtensor<[2,32,1,1],f16>, !torch.list<int> -> !torch.vtensor<[2,32,1],f16>
    %int2_17318 = torch.constant.int 2
    %15275 = torch.prim.ListConstruct %int2_17318 : (!torch.int) -> !torch.list<int>
    %15276 = torch.prims.squeeze %15274, %15275 : !torch.vtensor<[2,32,1],f16>, !torch.list<int> -> !torch.vtensor<[2,32],f16>
    %int3_17319 = torch.constant.int 3
    %15277 = torch.prim.ListConstruct %int3_17319 : (!torch.int) -> !torch.list<int>
    %15278 = torch.prims.squeeze %15272, %15277 : !torch.vtensor<[2,32,1,1],f16>, !torch.list<int> -> !torch.vtensor<[2,32,1],f16>
    %int2_17320 = torch.constant.int 2
    %15279 = torch.prim.ListConstruct %int2_17320 : (!torch.int) -> !torch.list<int>
    %15280 = torch.prims.squeeze %15278, %15279 : !torch.vtensor<[2,32,1],f16>, !torch.list<int> -> !torch.vtensor<[2,32],f16>
    %15281 = torch.aten.detach %15276 : !torch.vtensor<[2,32],f16> -> !torch.vtensor<[2,32],f16>
    %15282 = torch.aten.detach %15280 : !torch.vtensor<[2,32],f16> -> !torch.vtensor<[2,32],f16>
    %15283 = torch.aten.silu %15270 : !torch.vtensor<[2,320,128,128],f16> -> !torch.vtensor<[2,320,128,128],f16>
    %none_17321 = torch.constant.none
    %15284 = torch.aten.clone %15283, %none_17321 : !torch.vtensor<[2,320,128,128],f16>, !torch.none -> !torch.vtensor<[2,320,128,128],f16>
    %_params.unet.up_blocks.2.resnets.1.conv2.weight = util.global.load @_params.unet.up_blocks.2.resnets.1.conv2.weight : tensor<320x320x3x3xf16>
    %15285 = torch_c.from_builtin_tensor %_params.unet.up_blocks.2.resnets.1.conv2.weight : tensor<320x320x3x3xf16> -> !torch.vtensor<[320,320,3,3],f16>
    %_params.unet.up_blocks.2.resnets.1.conv2.bias = util.global.load @_params.unet.up_blocks.2.resnets.1.conv2.bias : tensor<320xf16>
    %15286 = torch_c.from_builtin_tensor %_params.unet.up_blocks.2.resnets.1.conv2.bias : tensor<320xf16> -> !torch.vtensor<[320],f16>
    %int1_17322 = torch.constant.int 1
    %int1_17323 = torch.constant.int 1
    %15287 = torch.prim.ListConstruct %int1_17322, %int1_17323 : (!torch.int, !torch.int) -> !torch.list<int>
    %int1_17324 = torch.constant.int 1
    %int1_17325 = torch.constant.int 1
    %15288 = torch.prim.ListConstruct %int1_17324, %int1_17325 : (!torch.int, !torch.int) -> !torch.list<int>
    %int1_17326 = torch.constant.int 1
    %int1_17327 = torch.constant.int 1
    %15289 = torch.prim.ListConstruct %int1_17326, %int1_17327 : (!torch.int, !torch.int) -> !torch.list<int>
    %false_17328 = torch.constant.bool false
    %int0_17329 = torch.constant.int 0
    %int0_17330 = torch.constant.int 0
    %15290 = torch.prim.ListConstruct %int0_17329, %int0_17330 : (!torch.int, !torch.int) -> !torch.list<int>
    %int1_17331 = torch.constant.int 1
    %15291 = torch.aten.convolution %15284, %15285, %15286, %15287, %15288, %15289, %false_17328, %15290, %int1_17331 : !torch.vtensor<[2,320,128,128],f16>, !torch.vtensor<[320,320,3,3],f16>, !torch.vtensor<[320],f16>, !torch.list<int>, !torch.list<int>, !torch.list<int>, !torch.bool, !torch.list<int>, !torch.int -> !torch.vtensor<[2,320,128,128],f16>
    %_params.unet.up_blocks.2.resnets.1.conv_shortcut.weight = util.global.load @_params.unet.up_blocks.2.resnets.1.conv_shortcut.weight : tensor<320x640x1x1xf16>
    %15292 = torch_c.from_builtin_tensor %_params.unet.up_blocks.2.resnets.1.conv_shortcut.weight : tensor<320x640x1x1xf16> -> !torch.vtensor<[320,640,1,1],f16>
    %_params.unet.up_blocks.2.resnets.1.conv_shortcut.bias = util.global.load @_params.unet.up_blocks.2.resnets.1.conv_shortcut.bias : tensor<320xf16>
    %15293 = torch_c.from_builtin_tensor %_params.unet.up_blocks.2.resnets.1.conv_shortcut.bias : tensor<320xf16> -> !torch.vtensor<[320],f16>
    %int1_17332 = torch.constant.int 1
    %int1_17333 = torch.constant.int 1
    %15294 = torch.prim.ListConstruct %int1_17332, %int1_17333 : (!torch.int, !torch.int) -> !torch.list<int>
    %int0_17334 = torch.constant.int 0
    %int0_17335 = torch.constant.int 0
    %15295 = torch.prim.ListConstruct %int0_17334, %int0_17335 : (!torch.int, !torch.int) -> !torch.list<int>
    %int1_17336 = torch.constant.int 1
    %int1_17337 = torch.constant.int 1
    %15296 = torch.prim.ListConstruct %int1_17336, %int1_17337 : (!torch.int, !torch.int) -> !torch.list<int>
    %false_17338 = torch.constant.bool false
    %int0_17339 = torch.constant.int 0
    %int0_17340 = torch.constant.int 0
    %15297 = torch.prim.ListConstruct %int0_17339, %int0_17340 : (!torch.int, !torch.int) -> !torch.list<int>
    %int1_17341 = torch.constant.int 1
    %15298 = torch.aten.convolution %15191, %15292, %15293, %15294, %15295, %15296, %false_17338, %15297, %int1_17341 : !torch.vtensor<[2,640,128,128],f16>, !torch.vtensor<[320,640,1,1],f16>, !torch.vtensor<[320],f16>, !torch.list<int>, !torch.list<int>, !torch.list<int>, !torch.bool, !torch.list<int>, !torch.int -> !torch.vtensor<[2,320,128,128],f16>
    %int1_17342 = torch.constant.int 1
    %15299 = torch.aten.add.Tensor %15298, %15291, %int1_17342 : !torch.vtensor<[2,320,128,128],f16>, !torch.vtensor<[2,320,128,128],f16>, !torch.int -> !torch.vtensor<[2,320,128,128],f16>
    %float1.000000e00_17343 = torch.constant.float 1.000000e+00
    %15300 = torch.aten.div.Scalar %15299, %float1.000000e00_17343 : !torch.vtensor<[2,320,128,128],f16>, !torch.float -> !torch.vtensor<[2,320,128,128],f16>
    %15301 = torch.prim.ListConstruct %15300, %110 : (!torch.vtensor<[2,320,128,128],f16>, !torch.vtensor<[2,320,128,128],f16>) -> !torch.list<vtensor>
    %int1_17344 = torch.constant.int 1
    %15302 = torch.aten.cat %15301, %int1_17344 : !torch.list<vtensor>, !torch.int -> !torch.vtensor<[2,640,128,128],f16>
    %int2_17345 = torch.constant.int 2
    %int32_17346 = torch.constant.int 32
    %int20_17347 = torch.constant.int 20
    %int16384_17348 = torch.constant.int 16384
    %15303 = torch.prim.ListConstruct %int2_17345, %int32_17346, %int20_17347, %int16384_17348 : (!torch.int, !torch.int, !torch.int, !torch.int) -> !torch.list<int>
    %15304 = torch.aten.view %15302, %15303 : !torch.vtensor<[2,640,128,128],f16>, !torch.list<int> -> !torch.vtensor<[2,32,20,16384],f16>
    %int6_17349 = torch.constant.int 6
    %15305 = torch.prims.convert_element_type %15304, %int6_17349 : !torch.vtensor<[2,32,20,16384],f16>, !torch.int -> !torch.vtensor<[2,32,20,16384],f32>
    %int2_17350 = torch.constant.int 2
    %int3_17351 = torch.constant.int 3
    %15306 = torch.prim.ListConstruct %int2_17350, %int3_17351 : (!torch.int, !torch.int) -> !torch.list<int>
    %int0_17352 = torch.constant.int 0
    %true_17353 = torch.constant.bool true
    %result0_17354, %result1_17355 = torch.aten.var_mean.correction %15305, %15306, %int0_17352, %true_17353 : !torch.vtensor<[2,32,20,16384],f32>, !torch.list<int>, !torch.int, !torch.bool -> !torch.vtensor<[2,32,1,1],f32>, !torch.vtensor<[2,32,1,1],f32>
    %float1.000000e-05_17356 = torch.constant.float 1.000000e-05
    %int1_17357 = torch.constant.int 1
    %15307 = torch.aten.add.Scalar %result0_17354, %float1.000000e-05_17356, %int1_17357 : !torch.vtensor<[2,32,1,1],f32>, !torch.float, !torch.int -> !torch.vtensor<[2,32,1,1],f32>
    %15308 = torch.aten.rsqrt %15307 : !torch.vtensor<[2,32,1,1],f32> -> !torch.vtensor<[2,32,1,1],f32>
    %int1_17358 = torch.constant.int 1
    %15309 = torch.aten.sub.Tensor %15304, %result1_17355, %int1_17358 : !torch.vtensor<[2,32,20,16384],f16>, !torch.vtensor<[2,32,1,1],f32>, !torch.int -> !torch.vtensor<[2,32,20,16384],f32>
    %15310 = torch.aten.mul.Tensor %15309, %15308 : !torch.vtensor<[2,32,20,16384],f32>, !torch.vtensor<[2,32,1,1],f32> -> !torch.vtensor<[2,32,20,16384],f32>
    %int2_17359 = torch.constant.int 2
    %int640_17360 = torch.constant.int 640
    %int128_17361 = torch.constant.int 128
    %int128_17362 = torch.constant.int 128
    %15311 = torch.prim.ListConstruct %int2_17359, %int640_17360, %int128_17361, %int128_17362 : (!torch.int, !torch.int, !torch.int, !torch.int) -> !torch.list<int>
    %15312 = torch.aten.view %15310, %15311 : !torch.vtensor<[2,32,20,16384],f32>, !torch.list<int> -> !torch.vtensor<[2,640,128,128],f32>
    %_params.unet.up_blocks.2.resnets.2.norm1.bias = util.global.load @_params.unet.up_blocks.2.resnets.2.norm1.bias : tensor<640xf16>
    %15313 = torch_c.from_builtin_tensor %_params.unet.up_blocks.2.resnets.2.norm1.bias : tensor<640xf16> -> !torch.vtensor<[640],f16>
    %int0_17363 = torch.constant.int 0
    %15314 = torch.aten.unsqueeze %15313, %int0_17363 : !torch.vtensor<[640],f16>, !torch.int -> !torch.vtensor<[1,640],f16>
    %int2_17364 = torch.constant.int 2
    %15315 = torch.aten.unsqueeze %15314, %int2_17364 : !torch.vtensor<[1,640],f16>, !torch.int -> !torch.vtensor<[1,640,1],f16>
    %int3_17365 = torch.constant.int 3
    %15316 = torch.aten.unsqueeze %15315, %int3_17365 : !torch.vtensor<[1,640,1],f16>, !torch.int -> !torch.vtensor<[1,640,1,1],f16>
    %_params.unet.up_blocks.2.resnets.2.norm1.weight = util.global.load @_params.unet.up_blocks.2.resnets.2.norm1.weight : tensor<640xf16>
    %15317 = torch_c.from_builtin_tensor %_params.unet.up_blocks.2.resnets.2.norm1.weight : tensor<640xf16> -> !torch.vtensor<[640],f16>
    %int0_17366 = torch.constant.int 0
    %15318 = torch.aten.unsqueeze %15317, %int0_17366 : !torch.vtensor<[640],f16>, !torch.int -> !torch.vtensor<[1,640],f16>
    %int2_17367 = torch.constant.int 2
    %15319 = torch.aten.unsqueeze %15318, %int2_17367 : !torch.vtensor<[1,640],f16>, !torch.int -> !torch.vtensor<[1,640,1],f16>
    %int3_17368 = torch.constant.int 3
    %15320 = torch.aten.unsqueeze %15319, %int3_17368 : !torch.vtensor<[1,640,1],f16>, !torch.int -> !torch.vtensor<[1,640,1,1],f16>
    %15321 = torch.aten.mul.Tensor %15312, %15320 : !torch.vtensor<[2,640,128,128],f32>, !torch.vtensor<[1,640,1,1],f16> -> !torch.vtensor<[2,640,128,128],f32>
    %int1_17369 = torch.constant.int 1
    %15322 = torch.aten.add.Tensor %15321, %15316, %int1_17369 : !torch.vtensor<[2,640,128,128],f32>, !torch.vtensor<[1,640,1,1],f16>, !torch.int -> !torch.vtensor<[2,640,128,128],f32>
    %int5_17370 = torch.constant.int 5
    %15323 = torch.prims.convert_element_type %15322, %int5_17370 : !torch.vtensor<[2,640,128,128],f32>, !torch.int -> !torch.vtensor<[2,640,128,128],f16>
    %int5_17371 = torch.constant.int 5
    %15324 = torch.prims.convert_element_type %result1_17355, %int5_17371 : !torch.vtensor<[2,32,1,1],f32>, !torch.int -> !torch.vtensor<[2,32,1,1],f16>
    %int5_17372 = torch.constant.int 5
    %15325 = torch.prims.convert_element_type %15308, %int5_17372 : !torch.vtensor<[2,32,1,1],f32>, !torch.int -> !torch.vtensor<[2,32,1,1],f16>
    %int3_17373 = torch.constant.int 3
    %15326 = torch.prim.ListConstruct %int3_17373 : (!torch.int) -> !torch.list<int>
    %15327 = torch.prims.squeeze %15324, %15326 : !torch.vtensor<[2,32,1,1],f16>, !torch.list<int> -> !torch.vtensor<[2,32,1],f16>
    %int2_17374 = torch.constant.int 2
    %15328 = torch.prim.ListConstruct %int2_17374 : (!torch.int) -> !torch.list<int>
    %15329 = torch.prims.squeeze %15327, %15328 : !torch.vtensor<[2,32,1],f16>, !torch.list<int> -> !torch.vtensor<[2,32],f16>
    %int3_17375 = torch.constant.int 3
    %15330 = torch.prim.ListConstruct %int3_17375 : (!torch.int) -> !torch.list<int>
    %15331 = torch.prims.squeeze %15325, %15330 : !torch.vtensor<[2,32,1,1],f16>, !torch.list<int> -> !torch.vtensor<[2,32,1],f16>
    %int2_17376 = torch.constant.int 2
    %15332 = torch.prim.ListConstruct %int2_17376 : (!torch.int) -> !torch.list<int>
    %15333 = torch.prims.squeeze %15331, %15332 : !torch.vtensor<[2,32,1],f16>, !torch.list<int> -> !torch.vtensor<[2,32],f16>
    %15334 = torch.aten.detach %15329 : !torch.vtensor<[2,32],f16> -> !torch.vtensor<[2,32],f16>
    %15335 = torch.aten.detach %15333 : !torch.vtensor<[2,32],f16> -> !torch.vtensor<[2,32],f16>
    %15336 = torch.aten.silu %15323 : !torch.vtensor<[2,640,128,128],f16> -> !torch.vtensor<[2,640,128,128],f16>
    %_params.unet.up_blocks.2.resnets.2.conv1.weight = util.global.load @_params.unet.up_blocks.2.resnets.2.conv1.weight : tensor<320x640x3x3xf16>
    %15337 = torch_c.from_builtin_tensor %_params.unet.up_blocks.2.resnets.2.conv1.weight : tensor<320x640x3x3xf16> -> !torch.vtensor<[320,640,3,3],f16>
    %_params.unet.up_blocks.2.resnets.2.conv1.bias = util.global.load @_params.unet.up_blocks.2.resnets.2.conv1.bias : tensor<320xf16>
    %15338 = torch_c.from_builtin_tensor %_params.unet.up_blocks.2.resnets.2.conv1.bias : tensor<320xf16> -> !torch.vtensor<[320],f16>
    %int1_17377 = torch.constant.int 1
    %int1_17378 = torch.constant.int 1
    %15339 = torch.prim.ListConstruct %int1_17377, %int1_17378 : (!torch.int, !torch.int) -> !torch.list<int>
    %int1_17379 = torch.constant.int 1
    %int1_17380 = torch.constant.int 1
    %15340 = torch.prim.ListConstruct %int1_17379, %int1_17380 : (!torch.int, !torch.int) -> !torch.list<int>
    %int1_17381 = torch.constant.int 1
    %int1_17382 = torch.constant.int 1
    %15341 = torch.prim.ListConstruct %int1_17381, %int1_17382 : (!torch.int, !torch.int) -> !torch.list<int>
    %false_17383 = torch.constant.bool false
    %int0_17384 = torch.constant.int 0
    %int0_17385 = torch.constant.int 0
    %15342 = torch.prim.ListConstruct %int0_17384, %int0_17385 : (!torch.int, !torch.int) -> !torch.list<int>
    %int1_17386 = torch.constant.int 1
    %15343 = torch.aten.convolution %15336, %15337, %15338, %15339, %15340, %15341, %false_17383, %15342, %int1_17386 : !torch.vtensor<[2,640,128,128],f16>, !torch.vtensor<[320,640,3,3],f16>, !torch.vtensor<[320],f16>, !torch.list<int>, !torch.list<int>, !torch.list<int>, !torch.bool, !torch.list<int>, !torch.int -> !torch.vtensor<[2,320,128,128],f16>
    %15344 = torch.aten.silu %103 : !torch.vtensor<[2,1280],f16> -> !torch.vtensor<[2,1280],f16>
    %_params.unet.up_blocks.2.resnets.2.time_emb_proj.weight = util.global.load @_params.unet.up_blocks.2.resnets.2.time_emb_proj.weight : tensor<320x1280xf16>
    %15345 = torch_c.from_builtin_tensor %_params.unet.up_blocks.2.resnets.2.time_emb_proj.weight : tensor<320x1280xf16> -> !torch.vtensor<[320,1280],f16>
    %int0_17387 = torch.constant.int 0
    %int1_17388 = torch.constant.int 1
    %15346 = torch.aten.transpose.int %15345, %int0_17387, %int1_17388 : !torch.vtensor<[320,1280],f16>, !torch.int, !torch.int -> !torch.vtensor<[1280,320],f16>
    %_params.unet.up_blocks.2.resnets.2.time_emb_proj.bias = util.global.load @_params.unet.up_blocks.2.resnets.2.time_emb_proj.bias : tensor<320xf16>
    %15347 = torch_c.from_builtin_tensor %_params.unet.up_blocks.2.resnets.2.time_emb_proj.bias : tensor<320xf16> -> !torch.vtensor<[320],f16>
    %int6_17389 = torch.constant.int 6
    %15348 = torch.prims.convert_element_type %15347, %int6_17389 : !torch.vtensor<[320],f16>, !torch.int -> !torch.vtensor<[320],f32>
    %int6_17390 = torch.constant.int 6
    %15349 = torch.prims.convert_element_type %15344, %int6_17390 : !torch.vtensor<[2,1280],f16>, !torch.int -> !torch.vtensor<[2,1280],f32>
    %int6_17391 = torch.constant.int 6
    %15350 = torch.prims.convert_element_type %15346, %int6_17391 : !torch.vtensor<[1280,320],f16>, !torch.int -> !torch.vtensor<[1280,320],f32>
    %15351 = torch.aten.mm %15349, %15350 : !torch.vtensor<[2,1280],f32>, !torch.vtensor<[1280,320],f32> -> !torch.vtensor<[2,320],f32>
    %int1_17392 = torch.constant.int 1
    %15352 = torch.aten.mul.Scalar %15351, %int1_17392 : !torch.vtensor<[2,320],f32>, !torch.int -> !torch.vtensor<[2,320],f32>
    %int1_17393 = torch.constant.int 1
    %15353 = torch.aten.mul.Scalar %15348, %int1_17393 : !torch.vtensor<[320],f32>, !torch.int -> !torch.vtensor<[320],f32>
    %int1_17394 = torch.constant.int 1
    %15354 = torch.aten.add.Tensor %15352, %15353, %int1_17394 : !torch.vtensor<[2,320],f32>, !torch.vtensor<[320],f32>, !torch.int -> !torch.vtensor<[2,320],f32>
    %int5_17395 = torch.constant.int 5
    %15355 = torch.prims.convert_element_type %15354, %int5_17395 : !torch.vtensor<[2,320],f32>, !torch.int -> !torch.vtensor<[2,320],f16>
    %int0_17396 = torch.constant.int 0
    %int0_17397 = torch.constant.int 0
    %int9223372036854775807_17398 = torch.constant.int 9223372036854775807
    %int1_17399 = torch.constant.int 1
    %15356 = torch.aten.slice.Tensor %15355, %int0_17396, %int0_17397, %int9223372036854775807_17398, %int1_17399 : !torch.vtensor<[2,320],f16>, !torch.int, !torch.int, !torch.int, !torch.int -> !torch.vtensor<[2,320],f16>
    %int1_17400 = torch.constant.int 1
    %int0_17401 = torch.constant.int 0
    %int9223372036854775807_17402 = torch.constant.int 9223372036854775807
    %int1_17403 = torch.constant.int 1
    %15357 = torch.aten.slice.Tensor %15356, %int1_17400, %int0_17401, %int9223372036854775807_17402, %int1_17403 : !torch.vtensor<[2,320],f16>, !torch.int, !torch.int, !torch.int, !torch.int -> !torch.vtensor<[2,320],f16>
    %int2_17404 = torch.constant.int 2
    %15358 = torch.aten.unsqueeze %15357, %int2_17404 : !torch.vtensor<[2,320],f16>, !torch.int -> !torch.vtensor<[2,320,1],f16>
    %int3_17405 = torch.constant.int 3
    %15359 = torch.aten.unsqueeze %15358, %int3_17405 : !torch.vtensor<[2,320,1],f16>, !torch.int -> !torch.vtensor<[2,320,1,1],f16>
    %int1_17406 = torch.constant.int 1
    %15360 = torch.aten.add.Tensor %15343, %15359, %int1_17406 : !torch.vtensor<[2,320,128,128],f16>, !torch.vtensor<[2,320,1,1],f16>, !torch.int -> !torch.vtensor<[2,320,128,128],f16>
    %int2_17407 = torch.constant.int 2
    %int32_17408 = torch.constant.int 32
    %int10_17409 = torch.constant.int 10
    %int16384_17410 = torch.constant.int 16384
    %15361 = torch.prim.ListConstruct %int2_17407, %int32_17408, %int10_17409, %int16384_17410 : (!torch.int, !torch.int, !torch.int, !torch.int) -> !torch.list<int>
    %15362 = torch.aten.view %15360, %15361 : !torch.vtensor<[2,320,128,128],f16>, !torch.list<int> -> !torch.vtensor<[2,32,10,16384],f16>
    %int6_17411 = torch.constant.int 6
    %15363 = torch.prims.convert_element_type %15362, %int6_17411 : !torch.vtensor<[2,32,10,16384],f16>, !torch.int -> !torch.vtensor<[2,32,10,16384],f32>
    %int2_17412 = torch.constant.int 2
    %int3_17413 = torch.constant.int 3
    %15364 = torch.prim.ListConstruct %int2_17412, %int3_17413 : (!torch.int, !torch.int) -> !torch.list<int>
    %int0_17414 = torch.constant.int 0
    %true_17415 = torch.constant.bool true
    %result0_17416, %result1_17417 = torch.aten.var_mean.correction %15363, %15364, %int0_17414, %true_17415 : !torch.vtensor<[2,32,10,16384],f32>, !torch.list<int>, !torch.int, !torch.bool -> !torch.vtensor<[2,32,1,1],f32>, !torch.vtensor<[2,32,1,1],f32>
    %float1.000000e-05_17418 = torch.constant.float 1.000000e-05
    %int1_17419 = torch.constant.int 1
    %15365 = torch.aten.add.Scalar %result0_17416, %float1.000000e-05_17418, %int1_17419 : !torch.vtensor<[2,32,1,1],f32>, !torch.float, !torch.int -> !torch.vtensor<[2,32,1,1],f32>
    %15366 = torch.aten.rsqrt %15365 : !torch.vtensor<[2,32,1,1],f32> -> !torch.vtensor<[2,32,1,1],f32>
    %int1_17420 = torch.constant.int 1
    %15367 = torch.aten.sub.Tensor %15362, %result1_17417, %int1_17420 : !torch.vtensor<[2,32,10,16384],f16>, !torch.vtensor<[2,32,1,1],f32>, !torch.int -> !torch.vtensor<[2,32,10,16384],f32>
    %15368 = torch.aten.mul.Tensor %15367, %15366 : !torch.vtensor<[2,32,10,16384],f32>, !torch.vtensor<[2,32,1,1],f32> -> !torch.vtensor<[2,32,10,16384],f32>
    %int2_17421 = torch.constant.int 2
    %int320_17422 = torch.constant.int 320
    %int128_17423 = torch.constant.int 128
    %int128_17424 = torch.constant.int 128
    %15369 = torch.prim.ListConstruct %int2_17421, %int320_17422, %int128_17423, %int128_17424 : (!torch.int, !torch.int, !torch.int, !torch.int) -> !torch.list<int>
    %15370 = torch.aten.view %15368, %15369 : !torch.vtensor<[2,32,10,16384],f32>, !torch.list<int> -> !torch.vtensor<[2,320,128,128],f32>
    %_params.unet.up_blocks.2.resnets.2.norm2.bias = util.global.load @_params.unet.up_blocks.2.resnets.2.norm2.bias : tensor<320xf16>
    %15371 = torch_c.from_builtin_tensor %_params.unet.up_blocks.2.resnets.2.norm2.bias : tensor<320xf16> -> !torch.vtensor<[320],f16>
    %int0_17425 = torch.constant.int 0
    %15372 = torch.aten.unsqueeze %15371, %int0_17425 : !torch.vtensor<[320],f16>, !torch.int -> !torch.vtensor<[1,320],f16>
    %int2_17426 = torch.constant.int 2
    %15373 = torch.aten.unsqueeze %15372, %int2_17426 : !torch.vtensor<[1,320],f16>, !torch.int -> !torch.vtensor<[1,320,1],f16>
    %int3_17427 = torch.constant.int 3
    %15374 = torch.aten.unsqueeze %15373, %int3_17427 : !torch.vtensor<[1,320,1],f16>, !torch.int -> !torch.vtensor<[1,320,1,1],f16>
    %_params.unet.up_blocks.2.resnets.2.norm2.weight = util.global.load @_params.unet.up_blocks.2.resnets.2.norm2.weight : tensor<320xf16>
    %15375 = torch_c.from_builtin_tensor %_params.unet.up_blocks.2.resnets.2.norm2.weight : tensor<320xf16> -> !torch.vtensor<[320],f16>
    %int0_17428 = torch.constant.int 0
    %15376 = torch.aten.unsqueeze %15375, %int0_17428 : !torch.vtensor<[320],f16>, !torch.int -> !torch.vtensor<[1,320],f16>
    %int2_17429 = torch.constant.int 2
    %15377 = torch.aten.unsqueeze %15376, %int2_17429 : !torch.vtensor<[1,320],f16>, !torch.int -> !torch.vtensor<[1,320,1],f16>
    %int3_17430 = torch.constant.int 3
    %15378 = torch.aten.unsqueeze %15377, %int3_17430 : !torch.vtensor<[1,320,1],f16>, !torch.int -> !torch.vtensor<[1,320,1,1],f16>
    %15379 = torch.aten.mul.Tensor %15370, %15378 : !torch.vtensor<[2,320,128,128],f32>, !torch.vtensor<[1,320,1,1],f16> -> !torch.vtensor<[2,320,128,128],f32>
    %int1_17431 = torch.constant.int 1
    %15380 = torch.aten.add.Tensor %15379, %15374, %int1_17431 : !torch.vtensor<[2,320,128,128],f32>, !torch.vtensor<[1,320,1,1],f16>, !torch.int -> !torch.vtensor<[2,320,128,128],f32>
    %int5_17432 = torch.constant.int 5
    %15381 = torch.prims.convert_element_type %15380, %int5_17432 : !torch.vtensor<[2,320,128,128],f32>, !torch.int -> !torch.vtensor<[2,320,128,128],f16>
    %int5_17433 = torch.constant.int 5
    %15382 = torch.prims.convert_element_type %result1_17417, %int5_17433 : !torch.vtensor<[2,32,1,1],f32>, !torch.int -> !torch.vtensor<[2,32,1,1],f16>
    %int5_17434 = torch.constant.int 5
    %15383 = torch.prims.convert_element_type %15366, %int5_17434 : !torch.vtensor<[2,32,1,1],f32>, !torch.int -> !torch.vtensor<[2,32,1,1],f16>
    %int3_17435 = torch.constant.int 3
    %15384 = torch.prim.ListConstruct %int3_17435 : (!torch.int) -> !torch.list<int>
    %15385 = torch.prims.squeeze %15382, %15384 : !torch.vtensor<[2,32,1,1],f16>, !torch.list<int> -> !torch.vtensor<[2,32,1],f16>
    %int2_17436 = torch.constant.int 2
    %15386 = torch.prim.ListConstruct %int2_17436 : (!torch.int) -> !torch.list<int>
    %15387 = torch.prims.squeeze %15385, %15386 : !torch.vtensor<[2,32,1],f16>, !torch.list<int> -> !torch.vtensor<[2,32],f16>
    %int3_17437 = torch.constant.int 3
    %15388 = torch.prim.ListConstruct %int3_17437 : (!torch.int) -> !torch.list<int>
    %15389 = torch.prims.squeeze %15383, %15388 : !torch.vtensor<[2,32,1,1],f16>, !torch.list<int> -> !torch.vtensor<[2,32,1],f16>
    %int2_17438 = torch.constant.int 2
    %15390 = torch.prim.ListConstruct %int2_17438 : (!torch.int) -> !torch.list<int>
    %15391 = torch.prims.squeeze %15389, %15390 : !torch.vtensor<[2,32,1],f16>, !torch.list<int> -> !torch.vtensor<[2,32],f16>
    %15392 = torch.aten.detach %15387 : !torch.vtensor<[2,32],f16> -> !torch.vtensor<[2,32],f16>
    %15393 = torch.aten.detach %15391 : !torch.vtensor<[2,32],f16> -> !torch.vtensor<[2,32],f16>
    %15394 = torch.aten.silu %15381 : !torch.vtensor<[2,320,128,128],f16> -> !torch.vtensor<[2,320,128,128],f16>
    %none_17439 = torch.constant.none
    %15395 = torch.aten.clone %15394, %none_17439 : !torch.vtensor<[2,320,128,128],f16>, !torch.none -> !torch.vtensor<[2,320,128,128],f16>
    %_params.unet.up_blocks.2.resnets.2.conv2.weight = util.global.load @_params.unet.up_blocks.2.resnets.2.conv2.weight : tensor<320x320x3x3xf16>
    %15396 = torch_c.from_builtin_tensor %_params.unet.up_blocks.2.resnets.2.conv2.weight : tensor<320x320x3x3xf16> -> !torch.vtensor<[320,320,3,3],f16>
    %_params.unet.up_blocks.2.resnets.2.conv2.bias = util.global.load @_params.unet.up_blocks.2.resnets.2.conv2.bias : tensor<320xf16>
    %15397 = torch_c.from_builtin_tensor %_params.unet.up_blocks.2.resnets.2.conv2.bias : tensor<320xf16> -> !torch.vtensor<[320],f16>
    %int1_17440 = torch.constant.int 1
    %int1_17441 = torch.constant.int 1
    %15398 = torch.prim.ListConstruct %int1_17440, %int1_17441 : (!torch.int, !torch.int) -> !torch.list<int>
    %int1_17442 = torch.constant.int 1
    %int1_17443 = torch.constant.int 1
    %15399 = torch.prim.ListConstruct %int1_17442, %int1_17443 : (!torch.int, !torch.int) -> !torch.list<int>
    %int1_17444 = torch.constant.int 1
    %int1_17445 = torch.constant.int 1
    %15400 = torch.prim.ListConstruct %int1_17444, %int1_17445 : (!torch.int, !torch.int) -> !torch.list<int>
    %false_17446 = torch.constant.bool false
    %int0_17447 = torch.constant.int 0
    %int0_17448 = torch.constant.int 0
    %15401 = torch.prim.ListConstruct %int0_17447, %int0_17448 : (!torch.int, !torch.int) -> !torch.list<int>
    %int1_17449 = torch.constant.int 1
    %15402 = torch.aten.convolution %15395, %15396, %15397, %15398, %15399, %15400, %false_17446, %15401, %int1_17449 : !torch.vtensor<[2,320,128,128],f16>, !torch.vtensor<[320,320,3,3],f16>, !torch.vtensor<[320],f16>, !torch.list<int>, !torch.list<int>, !torch.list<int>, !torch.bool, !torch.list<int>, !torch.int -> !torch.vtensor<[2,320,128,128],f16>
    %_params.unet.up_blocks.2.resnets.2.conv_shortcut.weight = util.global.load @_params.unet.up_blocks.2.resnets.2.conv_shortcut.weight : tensor<320x640x1x1xf16>
    %15403 = torch_c.from_builtin_tensor %_params.unet.up_blocks.2.resnets.2.conv_shortcut.weight : tensor<320x640x1x1xf16> -> !torch.vtensor<[320,640,1,1],f16>
    %_params.unet.up_blocks.2.resnets.2.conv_shortcut.bias = util.global.load @_params.unet.up_blocks.2.resnets.2.conv_shortcut.bias : tensor<320xf16>
    %15404 = torch_c.from_builtin_tensor %_params.unet.up_blocks.2.resnets.2.conv_shortcut.bias : tensor<320xf16> -> !torch.vtensor<[320],f16>
    %int1_17450 = torch.constant.int 1
    %int1_17451 = torch.constant.int 1
    %15405 = torch.prim.ListConstruct %int1_17450, %int1_17451 : (!torch.int, !torch.int) -> !torch.list<int>
    %int0_17452 = torch.constant.int 0
    %int0_17453 = torch.constant.int 0
    %15406 = torch.prim.ListConstruct %int0_17452, %int0_17453 : (!torch.int, !torch.int) -> !torch.list<int>
    %int1_17454 = torch.constant.int 1
    %int1_17455 = torch.constant.int 1
    %15407 = torch.prim.ListConstruct %int1_17454, %int1_17455 : (!torch.int, !torch.int) -> !torch.list<int>
    %false_17456 = torch.constant.bool false
    %int0_17457 = torch.constant.int 0
    %int0_17458 = torch.constant.int 0
    %15408 = torch.prim.ListConstruct %int0_17457, %int0_17458 : (!torch.int, !torch.int) -> !torch.list<int>
    %int1_17459 = torch.constant.int 1
    %15409 = torch.aten.convolution %15302, %15403, %15404, %15405, %15406, %15407, %false_17456, %15408, %int1_17459 : !torch.vtensor<[2,640,128,128],f16>, !torch.vtensor<[320,640,1,1],f16>, !torch.vtensor<[320],f16>, !torch.list<int>, !torch.list<int>, !torch.list<int>, !torch.bool, !torch.list<int>, !torch.int -> !torch.vtensor<[2,320,128,128],f16>
    %int1_17460 = torch.constant.int 1
    %15410 = torch.aten.add.Tensor %15409, %15402, %int1_17460 : !torch.vtensor<[2,320,128,128],f16>, !torch.vtensor<[2,320,128,128],f16>, !torch.int -> !torch.vtensor<[2,320,128,128],f16>
    %float1.000000e00_17461 = torch.constant.float 1.000000e+00
    %15411 = torch.aten.div.Scalar %15410, %float1.000000e00_17461 : !torch.vtensor<[2,320,128,128],f16>, !torch.float -> !torch.vtensor<[2,320,128,128],f16>
    %int2_17462 = torch.constant.int 2
    %int32_17463 = torch.constant.int 32
    %int10_17464 = torch.constant.int 10
    %int16384_17465 = torch.constant.int 16384
    %15412 = torch.prim.ListConstruct %int2_17462, %int32_17463, %int10_17464, %int16384_17465 : (!torch.int, !torch.int, !torch.int, !torch.int) -> !torch.list<int>
    %15413 = torch.aten.view %15411, %15412 : !torch.vtensor<[2,320,128,128],f16>, !torch.list<int> -> !torch.vtensor<[2,32,10,16384],f16>
    %int6_17466 = torch.constant.int 6
    %15414 = torch.prims.convert_element_type %15413, %int6_17466 : !torch.vtensor<[2,32,10,16384],f16>, !torch.int -> !torch.vtensor<[2,32,10,16384],f32>
    %int2_17467 = torch.constant.int 2
    %int3_17468 = torch.constant.int 3
    %15415 = torch.prim.ListConstruct %int2_17467, %int3_17468 : (!torch.int, !torch.int) -> !torch.list<int>
    %int0_17469 = torch.constant.int 0
    %true_17470 = torch.constant.bool true
    %result0_17471, %result1_17472 = torch.aten.var_mean.correction %15414, %15415, %int0_17469, %true_17470 : !torch.vtensor<[2,32,10,16384],f32>, !torch.list<int>, !torch.int, !torch.bool -> !torch.vtensor<[2,32,1,1],f32>, !torch.vtensor<[2,32,1,1],f32>
    %float1.000000e-05_17473 = torch.constant.float 1.000000e-05
    %int1_17474 = torch.constant.int 1
    %15416 = torch.aten.add.Scalar %result0_17471, %float1.000000e-05_17473, %int1_17474 : !torch.vtensor<[2,32,1,1],f32>, !torch.float, !torch.int -> !torch.vtensor<[2,32,1,1],f32>
    %15417 = torch.aten.rsqrt %15416 : !torch.vtensor<[2,32,1,1],f32> -> !torch.vtensor<[2,32,1,1],f32>
    %int1_17475 = torch.constant.int 1
    %15418 = torch.aten.sub.Tensor %15413, %result1_17472, %int1_17475 : !torch.vtensor<[2,32,10,16384],f16>, !torch.vtensor<[2,32,1,1],f32>, !torch.int -> !torch.vtensor<[2,32,10,16384],f32>
    %15419 = torch.aten.mul.Tensor %15418, %15417 : !torch.vtensor<[2,32,10,16384],f32>, !torch.vtensor<[2,32,1,1],f32> -> !torch.vtensor<[2,32,10,16384],f32>
    %int2_17476 = torch.constant.int 2
    %int320_17477 = torch.constant.int 320
    %int128_17478 = torch.constant.int 128
    %int128_17479 = torch.constant.int 128
    %15420 = torch.prim.ListConstruct %int2_17476, %int320_17477, %int128_17478, %int128_17479 : (!torch.int, !torch.int, !torch.int, !torch.int) -> !torch.list<int>
    %15421 = torch.aten.view %15419, %15420 : !torch.vtensor<[2,32,10,16384],f32>, !torch.list<int> -> !torch.vtensor<[2,320,128,128],f32>
    %_params.unet.conv_norm_out.bias = util.global.load @_params.unet.conv_norm_out.bias : tensor<320xf16>
    %15422 = torch_c.from_builtin_tensor %_params.unet.conv_norm_out.bias : tensor<320xf16> -> !torch.vtensor<[320],f16>
    %int0_17480 = torch.constant.int 0
    %15423 = torch.aten.unsqueeze %15422, %int0_17480 : !torch.vtensor<[320],f16>, !torch.int -> !torch.vtensor<[1,320],f16>
    %int2_17481 = torch.constant.int 2
    %15424 = torch.aten.unsqueeze %15423, %int2_17481 : !torch.vtensor<[1,320],f16>, !torch.int -> !torch.vtensor<[1,320,1],f16>
    %int3_17482 = torch.constant.int 3
    %15425 = torch.aten.unsqueeze %15424, %int3_17482 : !torch.vtensor<[1,320,1],f16>, !torch.int -> !torch.vtensor<[1,320,1,1],f16>
    %_params.unet.conv_norm_out.weight = util.global.load @_params.unet.conv_norm_out.weight : tensor<320xf16>
    %15426 = torch_c.from_builtin_tensor %_params.unet.conv_norm_out.weight : tensor<320xf16> -> !torch.vtensor<[320],f16>
    %int0_17483 = torch.constant.int 0
    %15427 = torch.aten.unsqueeze %15426, %int0_17483 : !torch.vtensor<[320],f16>, !torch.int -> !torch.vtensor<[1,320],f16>
    %int2_17484 = torch.constant.int 2
    %15428 = torch.aten.unsqueeze %15427, %int2_17484 : !torch.vtensor<[1,320],f16>, !torch.int -> !torch.vtensor<[1,320,1],f16>
    %int3_17485 = torch.constant.int 3
    %15429 = torch.aten.unsqueeze %15428, %int3_17485 : !torch.vtensor<[1,320,1],f16>, !torch.int -> !torch.vtensor<[1,320,1,1],f16>
    %15430 = torch.aten.mul.Tensor %15421, %15429 : !torch.vtensor<[2,320,128,128],f32>, !torch.vtensor<[1,320,1,1],f16> -> !torch.vtensor<[2,320,128,128],f32>
    %int1_17486 = torch.constant.int 1
    %15431 = torch.aten.add.Tensor %15430, %15425, %int1_17486 : !torch.vtensor<[2,320,128,128],f32>, !torch.vtensor<[1,320,1,1],f16>, !torch.int -> !torch.vtensor<[2,320,128,128],f32>
    %int5_17487 = torch.constant.int 5
    %15432 = torch.prims.convert_element_type %15431, %int5_17487 : !torch.vtensor<[2,320,128,128],f32>, !torch.int -> !torch.vtensor<[2,320,128,128],f16>
    %int5_17488 = torch.constant.int 5
    %15433 = torch.prims.convert_element_type %result1_17472, %int5_17488 : !torch.vtensor<[2,32,1,1],f32>, !torch.int -> !torch.vtensor<[2,32,1,1],f16>
    %int5_17489 = torch.constant.int 5
    %15434 = torch.prims.convert_element_type %15417, %int5_17489 : !torch.vtensor<[2,32,1,1],f32>, !torch.int -> !torch.vtensor<[2,32,1,1],f16>
    %int3_17490 = torch.constant.int 3
    %15435 = torch.prim.ListConstruct %int3_17490 : (!torch.int) -> !torch.list<int>
    %15436 = torch.prims.squeeze %15433, %15435 : !torch.vtensor<[2,32,1,1],f16>, !torch.list<int> -> !torch.vtensor<[2,32,1],f16>
    %int2_17491 = torch.constant.int 2
    %15437 = torch.prim.ListConstruct %int2_17491 : (!torch.int) -> !torch.list<int>
    %15438 = torch.prims.squeeze %15436, %15437 : !torch.vtensor<[2,32,1],f16>, !torch.list<int> -> !torch.vtensor<[2,32],f16>
    %int3_17492 = torch.constant.int 3
    %15439 = torch.prim.ListConstruct %int3_17492 : (!torch.int) -> !torch.list<int>
    %15440 = torch.prims.squeeze %15434, %15439 : !torch.vtensor<[2,32,1,1],f16>, !torch.list<int> -> !torch.vtensor<[2,32,1],f16>
    %int2_17493 = torch.constant.int 2
    %15441 = torch.prim.ListConstruct %int2_17493 : (!torch.int) -> !torch.list<int>
    %15442 = torch.prims.squeeze %15440, %15441 : !torch.vtensor<[2,32,1],f16>, !torch.list<int> -> !torch.vtensor<[2,32],f16>
    %15443 = torch.aten.detach %15438 : !torch.vtensor<[2,32],f16> -> !torch.vtensor<[2,32],f16>
    %15444 = torch.aten.detach %15442 : !torch.vtensor<[2,32],f16> -> !torch.vtensor<[2,32],f16>
    %15445 = torch.aten.silu %15432 : !torch.vtensor<[2,320,128,128],f16> -> !torch.vtensor<[2,320,128,128],f16>
    %_params.unet.conv_out.weight = util.global.load @_params.unet.conv_out.weight : tensor<4x320x3x3xf16>
    %15446 = torch_c.from_builtin_tensor %_params.unet.conv_out.weight : tensor<4x320x3x3xf16> -> !torch.vtensor<[4,320,3,3],f16>
    %_params.unet.conv_out.bias = util.global.load @_params.unet.conv_out.bias : tensor<4xf16>
    %15447 = torch_c.from_builtin_tensor %_params.unet.conv_out.bias : tensor<4xf16> -> !torch.vtensor<[4],f16>
    %int1_17494 = torch.constant.int 1
    %int1_17495 = torch.constant.int 1
    %15448 = torch.prim.ListConstruct %int1_17494, %int1_17495 : (!torch.int, !torch.int) -> !torch.list<int>
    %int1_17496 = torch.constant.int 1
    %int1_17497 = torch.constant.int 1
    %15449 = torch.prim.ListConstruct %int1_17496, %int1_17497 : (!torch.int, !torch.int) -> !torch.list<int>
    %int1_17498 = torch.constant.int 1
    %int1_17499 = torch.constant.int 1
    %15450 = torch.prim.ListConstruct %int1_17498, %int1_17499 : (!torch.int, !torch.int) -> !torch.list<int>
    %false_17500 = torch.constant.bool false
    %int0_17501 = torch.constant.int 0
    %int0_17502 = torch.constant.int 0
    %15451 = torch.prim.ListConstruct %int0_17501, %int0_17502 : (!torch.int, !torch.int) -> !torch.list<int>
    %int1_17503 = torch.constant.int 1
    %15452 = torch.aten.convolution %15445, %15446, %15447, %15448, %15449, %15450, %false_17500, %15451, %int1_17503 : !torch.vtensor<[2,320,128,128],f16>, !torch.vtensor<[4,320,3,3],f16>, !torch.vtensor<[4],f16>, !torch.list<int>, !torch.list<int>, !torch.list<int>, !torch.bool, !torch.list<int>, !torch.int -> !torch.vtensor<[2,4,128,128],f16>
    %int0_17504 = torch.constant.int 0
    %int0_17505 = torch.constant.int 0
    %int1_17506 = torch.constant.int 1
    %int1_17507 = torch.constant.int 1
    %15453 = torch.aten.slice.Tensor %15452, %int0_17504, %int0_17505, %int1_17506, %int1_17507 : !torch.vtensor<[2,4,128,128],f16>, !torch.int, !torch.int, !torch.int, !torch.int -> !torch.vtensor<[1,4,128,128],f16>
    %int0_17508 = torch.constant.int 0
    %int1_17509 = torch.constant.int 1
    %int2_17510 = torch.constant.int 2
    %int1_17511 = torch.constant.int 1
    %15454 = torch.aten.slice.Tensor %15452, %int0_17508, %int1_17509, %int2_17510, %int1_17511 : !torch.vtensor<[2,4,128,128],f16>, !torch.int, !torch.int, !torch.int, !torch.int -> !torch.vtensor<[1,4,128,128],f16>
    %int1_17512 = torch.constant.int 1
    %15455 = torch.aten.sub.Tensor %15454, %15453, %int1_17512 : !torch.vtensor<[1,4,128,128],f16>, !torch.vtensor<[1,4,128,128],f16>, !torch.int -> !torch.vtensor<[1,4,128,128],f16>
    %15456 = torch.aten.mul.Tensor %arg4, %15455 : !torch.vtensor<[1],f16>, !torch.vtensor<[1,4,128,128],f16> -> !torch.vtensor<[1,4,128,128],f16>
    %int1_17513 = torch.constant.int 1
    %15457 = torch.aten.add.Tensor %15453, %15456, %int1_17513 : !torch.vtensor<[1,4,128,128],f16>, !torch.vtensor<[1,4,128,128],f16>, !torch.int -> !torch.vtensor<[1,4,128,128],f16>
    %int34 = torch.constant.int 34
    %int1_17514 = torch.constant.int 1
    %15458 = torch.aten.sub.Scalar %2, %int34, %int1_17514 : !torch.vtensor<[1],si64>, !torch.int, !torch.int -> !torch.vtensor<[1],si64>
    %15459 = torch.vtensor.literal(dense_resource<torch_tensor_1000_torch.float32> : tensor<1000xf32>) : !torch.vtensor<[1000],f32>
    %int0_17515 = torch.constant.int 0
    %15460 = torch.aten.index_select %15459, %int0_17515, %2 : !torch.vtensor<[1000],f32>, !torch.int, !torch.vtensor<[1],si64> -> !torch.vtensor<[1],f32>
    %int0_17516 = torch.constant.int 0
    %15461 = torch.aten.ge.Scalar %15458, %int0_17516 : !torch.vtensor<[1],si64>, !torch.int -> !torch.vtensor<[1],i1>
    %int1000 = torch.constant.int 1000
    %int1_17517 = torch.constant.int 1
    %15462 = torch.aten.add.Scalar %15458, %int1000, %int1_17517 : !torch.vtensor<[1],si64>, !torch.int, !torch.int -> !torch.vtensor<[1],si64>
    %15463 = torch.aten.where.self %15461, %15458, %15462 : !torch.vtensor<[1],i1>, !torch.vtensor<[1],si64>, !torch.vtensor<[1],si64> -> !torch.vtensor<[1],si64>
    %int0_17518 = torch.constant.int 0
    %15464 = torch.aten.ge.Scalar %15458, %int0_17518 : !torch.vtensor<[1],si64>, !torch.int -> !torch.vtensor<[1],i1>
    %15465 = torch.vtensor.literal(dense_resource<torch_tensor_1000_torch.float32> : tensor<1000xf32>) : !torch.vtensor<[1000],f32>
    %int0_17519 = torch.constant.int 0
    %15466 = torch.aten.index_select %15465, %int0_17519, %15463 : !torch.vtensor<[1000],f32>, !torch.int, !torch.vtensor<[1],si64> -> !torch.vtensor<[1],f32>
    %15467 = torch.vtensor.literal(dense<0.999149978> : tensor<f32>) : !torch.vtensor<[],f32>
    %15468 = torch.aten.where.self %15464, %15466, %15467 : !torch.vtensor<[1],i1>, !torch.vtensor<[1],f32>, !torch.vtensor<[],f32> -> !torch.vtensor<[1],f32>
    %int1_17520 = torch.constant.int 1
    %int1_17521 = torch.constant.int 1
    %15469 = torch.aten.rsub.Scalar %15460, %int1_17520, %int1_17521 : !torch.vtensor<[1],f32>, !torch.int, !torch.int -> !torch.vtensor<[1],f32>
    %int1_17522 = torch.constant.int 1
    %int1_17523 = torch.constant.int 1
    %15470 = torch.aten.rsub.Scalar %15468, %int1_17522, %int1_17523 : !torch.vtensor<[1],f32>, !torch.int, !torch.int -> !torch.vtensor<[1],f32>
    %15471 = torch.aten.div.Tensor %15468, %15460 : !torch.vtensor<[1],f32>, !torch.vtensor<[1],f32> -> !torch.vtensor<[1],f32>
    %float5.000000e-01_17524 = torch.constant.float 5.000000e-01
    %15472 = torch.aten.pow.Tensor_Scalar %15471, %float5.000000e-01_17524 : !torch.vtensor<[1],f32>, !torch.float -> !torch.vtensor<[1],f32>
    %float5.000000e-01_17525 = torch.constant.float 5.000000e-01
    %15473 = torch.aten.pow.Tensor_Scalar %15470, %float5.000000e-01_17525 : !torch.vtensor<[1],f32>, !torch.float -> !torch.vtensor<[1],f32>
    %15474 = torch.aten.mul.Tensor %15460, %15473 : !torch.vtensor<[1],f32>, !torch.vtensor<[1],f32> -> !torch.vtensor<[1],f32>
    %15475 = torch.aten.mul.Tensor %15460, %15469 : !torch.vtensor<[1],f32>, !torch.vtensor<[1],f32> -> !torch.vtensor<[1],f32>
    %15476 = torch.aten.mul.Tensor %15475, %15468 : !torch.vtensor<[1],f32>, !torch.vtensor<[1],f32> -> !torch.vtensor<[1],f32>
    %float5.000000e-01_17526 = torch.constant.float 5.000000e-01
    %15477 = torch.aten.pow.Tensor_Scalar %15476, %float5.000000e-01_17526 : !torch.vtensor<[1],f32>, !torch.float -> !torch.vtensor<[1],f32>
    %int1_17527 = torch.constant.int 1
    %15478 = torch.aten.add.Tensor %15474, %15477, %int1_17527 : !torch.vtensor<[1],f32>, !torch.vtensor<[1],f32>, !torch.int -> !torch.vtensor<[1],f32>
    %15479 = torch.aten.mul.Tensor %15472, %arg0 : !torch.vtensor<[1],f32>, !torch.vtensor<[1,4,128,128],f16> -> !torch.vtensor<[1,4,128,128],f32>
    %int1_17528 = torch.constant.int 1
    %15480 = torch.aten.sub.Tensor %15468, %15460, %int1_17528 : !torch.vtensor<[1],f32>, !torch.vtensor<[1],f32>, !torch.int -> !torch.vtensor<[1],f32>
    %15481 = torch.aten.mul.Tensor %15480, %15457 : !torch.vtensor<[1],f32>, !torch.vtensor<[1,4,128,128],f16> -> !torch.vtensor<[1,4,128,128],f32>
    %15482 = torch.aten.div.Tensor %15481, %15478 : !torch.vtensor<[1,4,128,128],f32>, !torch.vtensor<[1],f32> -> !torch.vtensor<[1,4,128,128],f32>
    %int1_17529 = torch.constant.int 1
    %15483 = torch.aten.sub.Tensor %15479, %15482, %int1_17529 : !torch.vtensor<[1,4,128,128],f32>, !torch.vtensor<[1,4,128,128],f32>, !torch.int -> !torch.vtensor<[1,4,128,128],f32>
    %int5_17530 = torch.constant.int 5
    %15484 = torch.prims.convert_element_type %15483, %int5_17530 : !torch.vtensor<[1,4,128,128],f32>, !torch.int -> !torch.vtensor<[1,4,128,128],f16>
    return %15484 : !torch.vtensor<[1,4,128,128],f16>
  }
}

{-#
  dialect_resources: {
    builtin: {
      torch_tensor_1_6_torch.int64: "…",
      torch_tensor_30_torch.int64: "…",
      torch_tensor_1000_torch.float32: "…"
    }
  }
#-}
