module @compiled_clip {
  util.global private @_params.text_encoder_model_1.text_model.embeddings.token_embedding.weight {noinline} = #stream.parameter.named<"model"::"text_encoder_model_1.text_model.embeddings.token_embedding.weight"> : tensor<49408x768xf16>
  util.global private @_params.text_encoder_model_1.text_model.embeddings.position_embedding.weight {noinline} = #stream.parameter.named<"model"::"text_encoder_model_1.text_model.embeddings.position_embedding.weight"> : tensor<77x768xf16>
  util.global private @_params.text_encoder_model_1.text_model.encoder.layers.0.self_attn.k_proj.weight {noinline} = #stream.parameter.named<"model"::"text_encoder_model_1.text_model.encoder.layers.0.self_attn.k_proj.weight"> : tensor<768x768xf16>
  util.global private @_params.text_encoder_model_1.text_model.encoder.layers.0.self_attn.k_proj.bias {noinline} = #stream.parameter.named<"model"::"text_encoder_model_1.text_model.encoder.layers.0.self_attn.k_proj.bias"> : tensor<768xf16>
  util.global private @_params.text_encoder_model_1.text_model.encoder.layers.0.self_attn.v_proj.weight {noinline} = #stream.parameter.named<"model"::"text_encoder_model_1.text_model.encoder.layers.0.self_attn.v_proj.weight"> : tensor<768x768xf16>
  util.global private @_params.text_encoder_model_1.text_model.encoder.layers.0.self_attn.v_proj.bias {noinline} = #stream.parameter.named<"model"::"text_encoder_model_1.text_model.encoder.layers.0.self_attn.v_proj.bias"> : tensor<768xf16>
  util.global private @_params.text_encoder_model_1.text_model.encoder.layers.0.self_attn.q_proj.weight {noinline} = #stream.parameter.named<"model"::"text_encoder_model_1.text_model.encoder.layers.0.self_attn.q_proj.weight"> : tensor<768x768xf16>
  util.global private @_params.text_encoder_model_1.text_model.encoder.layers.0.self_attn.q_proj.bias {noinline} = #stream.parameter.named<"model"::"text_encoder_model_1.text_model.encoder.layers.0.self_attn.q_proj.bias"> : tensor<768xf16>
  util.global private @_params.text_encoder_model_1.text_model.encoder.layers.0.self_attn.out_proj.weight {noinline} = #stream.parameter.named<"model"::"text_encoder_model_1.text_model.encoder.layers.0.self_attn.out_proj.weight"> : tensor<768x768xf16>
  util.global private @_params.text_encoder_model_1.text_model.encoder.layers.0.self_attn.out_proj.bias {noinline} = #stream.parameter.named<"model"::"text_encoder_model_1.text_model.encoder.layers.0.self_attn.out_proj.bias"> : tensor<768xf16>
  util.global private @_params.text_encoder_model_1.text_model.encoder.layers.0.layer_norm1.weight {noinline} = #stream.parameter.named<"model"::"text_encoder_model_1.text_model.encoder.layers.0.layer_norm1.weight"> : tensor<768xf16>
  util.global private @_params.text_encoder_model_1.text_model.encoder.layers.0.layer_norm1.bias {noinline} = #stream.parameter.named<"model"::"text_encoder_model_1.text_model.encoder.layers.0.layer_norm1.bias"> : tensor<768xf16>
  util.global private @_params.text_encoder_model_1.text_model.encoder.layers.0.mlp.fc1.weight {noinline} = #stream.parameter.named<"model"::"text_encoder_model_1.text_model.encoder.layers.0.mlp.fc1.weight"> : tensor<3072x768xf16>
  util.global private @_params.text_encoder_model_1.text_model.encoder.layers.0.mlp.fc1.bias {noinline} = #stream.parameter.named<"model"::"text_encoder_model_1.text_model.encoder.layers.0.mlp.fc1.bias"> : tensor<3072xf16>
  util.global private @_params.text_encoder_model_1.text_model.encoder.layers.0.mlp.fc2.weight {noinline} = #stream.parameter.named<"model"::"text_encoder_model_1.text_model.encoder.layers.0.mlp.fc2.weight"> : tensor<768x3072xf16>
  util.global private @_params.text_encoder_model_1.text_model.encoder.layers.0.mlp.fc2.bias {noinline} = #stream.parameter.named<"model"::"text_encoder_model_1.text_model.encoder.layers.0.mlp.fc2.bias"> : tensor<768xf16>
  util.global private @_params.text_encoder_model_1.text_model.encoder.layers.0.layer_norm2.weight {noinline} = #stream.parameter.named<"model"::"text_encoder_model_1.text_model.encoder.layers.0.layer_norm2.weight"> : tensor<768xf16>
  util.global private @_params.text_encoder_model_1.text_model.encoder.layers.0.layer_norm2.bias {noinline} = #stream.parameter.named<"model"::"text_encoder_model_1.text_model.encoder.layers.0.layer_norm2.bias"> : tensor<768xf16>
  util.global private @_params.text_encoder_model_1.text_model.encoder.layers.1.self_attn.k_proj.weight {noinline} = #stream.parameter.named<"model"::"text_encoder_model_1.text_model.encoder.layers.1.self_attn.k_proj.weight"> : tensor<768x768xf16>
  util.global private @_params.text_encoder_model_1.text_model.encoder.layers.1.self_attn.k_proj.bias {noinline} = #stream.parameter.named<"model"::"text_encoder_model_1.text_model.encoder.layers.1.self_attn.k_proj.bias"> : tensor<768xf16>
  util.global private @_params.text_encoder_model_1.text_model.encoder.layers.1.self_attn.v_proj.weight {noinline} = #stream.parameter.named<"model"::"text_encoder_model_1.text_model.encoder.layers.1.self_attn.v_proj.weight"> : tensor<768x768xf16>
  util.global private @_params.text_encoder_model_1.text_model.encoder.layers.1.self_attn.v_proj.bias {noinline} = #stream.parameter.named<"model"::"text_encoder_model_1.text_model.encoder.layers.1.self_attn.v_proj.bias"> : tensor<768xf16>
  util.global private @_params.text_encoder_model_1.text_model.encoder.layers.1.self_attn.q_proj.weight {noinline} = #stream.parameter.named<"model"::"text_encoder_model_1.text_model.encoder.layers.1.self_attn.q_proj.weight"> : tensor<768x768xf16>
  util.global private @_params.text_encoder_model_1.text_model.encoder.layers.1.self_attn.q_proj.bias {noinline} = #stream.parameter.named<"model"::"text_encoder_model_1.text_model.encoder.layers.1.self_attn.q_proj.bias"> : tensor<768xf16>
  util.global private @_params.text_encoder_model_1.text_model.encoder.layers.1.self_attn.out_proj.weight {noinline} = #stream.parameter.named<"model"::"text_encoder_model_1.text_model.encoder.layers.1.self_attn.out_proj.weight"> : tensor<768x768xf16>
  util.global private @_params.text_encoder_model_1.text_model.encoder.layers.1.self_attn.out_proj.bias {noinline} = #stream.parameter.named<"model"::"text_encoder_model_1.text_model.encoder.layers.1.self_attn.out_proj.bias"> : tensor<768xf16>
  util.global private @_params.text_encoder_model_1.text_model.encoder.layers.1.layer_norm1.weight {noinline} = #stream.parameter.named<"model"::"text_encoder_model_1.text_model.encoder.layers.1.layer_norm1.weight"> : tensor<768xf16>
  util.global private @_params.text_encoder_model_1.text_model.encoder.layers.1.layer_norm1.bias {noinline} = #stream.parameter.named<"model"::"text_encoder_model_1.text_model.encoder.layers.1.layer_norm1.bias"> : tensor<768xf16>
  util.global private @_params.text_encoder_model_1.text_model.encoder.layers.1.mlp.fc1.weight {noinline} = #stream.parameter.named<"model"::"text_encoder_model_1.text_model.encoder.layers.1.mlp.fc1.weight"> : tensor<3072x768xf16>
  util.global private @_params.text_encoder_model_1.text_model.encoder.layers.1.mlp.fc1.bias {noinline} = #stream.parameter.named<"model"::"text_encoder_model_1.text_model.encoder.layers.1.mlp.fc1.bias"> : tensor<3072xf16>
  util.global private @_params.text_encoder_model_1.text_model.encoder.layers.1.mlp.fc2.weight {noinline} = #stream.parameter.named<"model"::"text_encoder_model_1.text_model.encoder.layers.1.mlp.fc2.weight"> : tensor<768x3072xf16>
  util.global private @_params.text_encoder_model_1.text_model.encoder.layers.1.mlp.fc2.bias {noinline} = #stream.parameter.named<"model"::"text_encoder_model_1.text_model.encoder.layers.1.mlp.fc2.bias"> : tensor<768xf16>
  util.global private @_params.text_encoder_model_1.text_model.encoder.layers.1.layer_norm2.weight {noinline} = #stream.parameter.named<"model"::"text_encoder_model_1.text_model.encoder.layers.1.layer_norm2.weight"> : tensor<768xf16>
  util.global private @_params.text_encoder_model_1.text_model.encoder.layers.1.layer_norm2.bias {noinline} = #stream.parameter.named<"model"::"text_encoder_model_1.text_model.encoder.layers.1.layer_norm2.bias"> : tensor<768xf16>
  util.global private @_params.text_encoder_model_1.text_model.encoder.layers.2.self_attn.k_proj.weight {noinline} = #stream.parameter.named<"model"::"text_encoder_model_1.text_model.encoder.layers.2.self_attn.k_proj.weight"> : tensor<768x768xf16>
  util.global private @_params.text_encoder_model_1.text_model.encoder.layers.2.self_attn.k_proj.bias {noinline} = #stream.parameter.named<"model"::"text_encoder_model_1.text_model.encoder.layers.2.self_attn.k_proj.bias"> : tensor<768xf16>
  util.global private @_params.text_encoder_model_1.text_model.encoder.layers.2.self_attn.v_proj.weight {noinline} = #stream.parameter.named<"model"::"text_encoder_model_1.text_model.encoder.layers.2.self_attn.v_proj.weight"> : tensor<768x768xf16>
  util.global private @_params.text_encoder_model_1.text_model.encoder.layers.2.self_attn.v_proj.bias {noinline} = #stream.parameter.named<"model"::"text_encoder_model_1.text_model.encoder.layers.2.self_attn.v_proj.bias"> : tensor<768xf16>
  util.global private @_params.text_encoder_model_1.text_model.encoder.layers.2.self_attn.q_proj.weight {noinline} = #stream.parameter.named<"model"::"text_encoder_model_1.text_model.encoder.layers.2.self_attn.q_proj.weight"> : tensor<768x768xf16>
  util.global private @_params.text_encoder_model_1.text_model.encoder.layers.2.self_attn.q_proj.bias {noinline} = #stream.parameter.named<"model"::"text_encoder_model_1.text_model.encoder.layers.2.self_attn.q_proj.bias"> : tensor<768xf16>
  util.global private @_params.text_encoder_model_1.text_model.encoder.layers.2.self_attn.out_proj.weight {noinline} = #stream.parameter.named<"model"::"text_encoder_model_1.text_model.encoder.layers.2.self_attn.out_proj.weight"> : tensor<768x768xf16>
  util.global private @_params.text_encoder_model_1.text_model.encoder.layers.2.self_attn.out_proj.bias {noinline} = #stream.parameter.named<"model"::"text_encoder_model_1.text_model.encoder.layers.2.self_attn.out_proj.bias"> : tensor<768xf16>
  util.global private @_params.text_encoder_model_1.text_model.encoder.layers.2.layer_norm1.weight {noinline} = #stream.parameter.named<"model"::"text_encoder_model_1.text_model.encoder.layers.2.layer_norm1.weight"> : tensor<768xf16>
  util.global private @_params.text_encoder_model_1.text_model.encoder.layers.2.layer_norm1.bias {noinline} = #stream.parameter.named<"model"::"text_encoder_model_1.text_model.encoder.layers.2.layer_norm1.bias"> : tensor<768xf16>
  util.global private @_params.text_encoder_model_1.text_model.encoder.layers.2.mlp.fc1.weight {noinline} = #stream.parameter.named<"model"::"text_encoder_model_1.text_model.encoder.layers.2.mlp.fc1.weight"> : tensor<3072x768xf16>
  util.global private @_params.text_encoder_model_1.text_model.encoder.layers.2.mlp.fc1.bias {noinline} = #stream.parameter.named<"model"::"text_encoder_model_1.text_model.encoder.layers.2.mlp.fc1.bias"> : tensor<3072xf16>
  util.global private @_params.text_encoder_model_1.text_model.encoder.layers.2.mlp.fc2.weight {noinline} = #stream.parameter.named<"model"::"text_encoder_model_1.text_model.encoder.layers.2.mlp.fc2.weight"> : tensor<768x3072xf16>
  util.global private @_params.text_encoder_model_1.text_model.encoder.layers.2.mlp.fc2.bias {noinline} = #stream.parameter.named<"model"::"text_encoder_model_1.text_model.encoder.layers.2.mlp.fc2.bias"> : tensor<768xf16>
  util.global private @_params.text_encoder_model_1.text_model.encoder.layers.2.layer_norm2.weight {noinline} = #stream.parameter.named<"model"::"text_encoder_model_1.text_model.encoder.layers.2.layer_norm2.weight"> : tensor<768xf16>
  util.global private @_params.text_encoder_model_1.text_model.encoder.layers.2.layer_norm2.bias {noinline} = #stream.parameter.named<"model"::"text_encoder_model_1.text_model.encoder.layers.2.layer_norm2.bias"> : tensor<768xf16>
  util.global private @_params.text_encoder_model_1.text_model.encoder.layers.3.self_attn.k_proj.weight {noinline} = #stream.parameter.named<"model"::"text_encoder_model_1.text_model.encoder.layers.3.self_attn.k_proj.weight"> : tensor<768x768xf16>
  util.global private @_params.text_encoder_model_1.text_model.encoder.layers.3.self_attn.k_proj.bias {noinline} = #stream.parameter.named<"model"::"text_encoder_model_1.text_model.encoder.layers.3.self_attn.k_proj.bias"> : tensor<768xf16>
  util.global private @_params.text_encoder_model_1.text_model.encoder.layers.3.self_attn.v_proj.weight {noinline} = #stream.parameter.named<"model"::"text_encoder_model_1.text_model.encoder.layers.3.self_attn.v_proj.weight"> : tensor<768x768xf16>
  util.global private @_params.text_encoder_model_1.text_model.encoder.layers.3.self_attn.v_proj.bias {noinline} = #stream.parameter.named<"model"::"text_encoder_model_1.text_model.encoder.layers.3.self_attn.v_proj.bias"> : tensor<768xf16>
  util.global private @_params.text_encoder_model_1.text_model.encoder.layers.3.self_attn.q_proj.weight {noinline} = #stream.parameter.named<"model"::"text_encoder_model_1.text_model.encoder.layers.3.self_attn.q_proj.weight"> : tensor<768x768xf16>
  util.global private @_params.text_encoder_model_1.text_model.encoder.layers.3.self_attn.q_proj.bias {noinline} = #stream.parameter.named<"model"::"text_encoder_model_1.text_model.encoder.layers.3.self_attn.q_proj.bias"> : tensor<768xf16>
  util.global private @_params.text_encoder_model_1.text_model.encoder.layers.3.self_attn.out_proj.weight {noinline} = #stream.parameter.named<"model"::"text_encoder_model_1.text_model.encoder.layers.3.self_attn.out_proj.weight"> : tensor<768x768xf16>
  util.global private @_params.text_encoder_model_1.text_model.encoder.layers.3.self_attn.out_proj.bias {noinline} = #stream.parameter.named<"model"::"text_encoder_model_1.text_model.encoder.layers.3.self_attn.out_proj.bias"> : tensor<768xf16>
  util.global private @_params.text_encoder_model_1.text_model.encoder.layers.3.layer_norm1.weight {noinline} = #stream.parameter.named<"model"::"text_encoder_model_1.text_model.encoder.layers.3.layer_norm1.weight"> : tensor<768xf16>
  util.global private @_params.text_encoder_model_1.text_model.encoder.layers.3.layer_norm1.bias {noinline} = #stream.parameter.named<"model"::"text_encoder_model_1.text_model.encoder.layers.3.layer_norm1.bias"> : tensor<768xf16>
  util.global private @_params.text_encoder_model_1.text_model.encoder.layers.3.mlp.fc1.weight {noinline} = #stream.parameter.named<"model"::"text_encoder_model_1.text_model.encoder.layers.3.mlp.fc1.weight"> : tensor<3072x768xf16>
  util.global private @_params.text_encoder_model_1.text_model.encoder.layers.3.mlp.fc1.bias {noinline} = #stream.parameter.named<"model"::"text_encoder_model_1.text_model.encoder.layers.3.mlp.fc1.bias"> : tensor<3072xf16>
  util.global private @_params.text_encoder_model_1.text_model.encoder.layers.3.mlp.fc2.weight {noinline} = #stream.parameter.named<"model"::"text_encoder_model_1.text_model.encoder.layers.3.mlp.fc2.weight"> : tensor<768x3072xf16>
  util.global private @_params.text_encoder_model_1.text_model.encoder.layers.3.mlp.fc2.bias {noinline} = #stream.parameter.named<"model"::"text_encoder_model_1.text_model.encoder.layers.3.mlp.fc2.bias"> : tensor<768xf16>
  util.global private @_params.text_encoder_model_1.text_model.encoder.layers.3.layer_norm2.weight {noinline} = #stream.parameter.named<"model"::"text_encoder_model_1.text_model.encoder.layers.3.layer_norm2.weight"> : tensor<768xf16>
  util.global private @_params.text_encoder_model_1.text_model.encoder.layers.3.layer_norm2.bias {noinline} = #stream.parameter.named<"model"::"text_encoder_model_1.text_model.encoder.layers.3.layer_norm2.bias"> : tensor<768xf16>
  util.global private @_params.text_encoder_model_1.text_model.encoder.layers.4.self_attn.k_proj.weight {noinline} = #stream.parameter.named<"model"::"text_encoder_model_1.text_model.encoder.layers.4.self_attn.k_proj.weight"> : tensor<768x768xf16>
  util.global private @_params.text_encoder_model_1.text_model.encoder.layers.4.self_attn.k_proj.bias {noinline} = #stream.parameter.named<"model"::"text_encoder_model_1.text_model.encoder.layers.4.self_attn.k_proj.bias"> : tensor<768xf16>
  util.global private @_params.text_encoder_model_1.text_model.encoder.layers.4.self_attn.v_proj.weight {noinline} = #stream.parameter.named<"model"::"text_encoder_model_1.text_model.encoder.layers.4.self_attn.v_proj.weight"> : tensor<768x768xf16>
  util.global private @_params.text_encoder_model_1.text_model.encoder.layers.4.self_attn.v_proj.bias {noinline} = #stream.parameter.named<"model"::"text_encoder_model_1.text_model.encoder.layers.4.self_attn.v_proj.bias"> : tensor<768xf16>
  util.global private @_params.text_encoder_model_1.text_model.encoder.layers.4.self_attn.q_proj.weight {noinline} = #stream.parameter.named<"model"::"text_encoder_model_1.text_model.encoder.layers.4.self_attn.q_proj.weight"> : tensor<768x768xf16>
  util.global private @_params.text_encoder_model_1.text_model.encoder.layers.4.self_attn.q_proj.bias {noinline} = #stream.parameter.named<"model"::"text_encoder_model_1.text_model.encoder.layers.4.self_attn.q_proj.bias"> : tensor<768xf16>
  util.global private @_params.text_encoder_model_1.text_model.encoder.layers.4.self_attn.out_proj.weight {noinline} = #stream.parameter.named<"model"::"text_encoder_model_1.text_model.encoder.layers.4.self_attn.out_proj.weight"> : tensor<768x768xf16>
  util.global private @_params.text_encoder_model_1.text_model.encoder.layers.4.self_attn.out_proj.bias {noinline} = #stream.parameter.named<"model"::"text_encoder_model_1.text_model.encoder.layers.4.self_attn.out_proj.bias"> : tensor<768xf16>
  util.global private @_params.text_encoder_model_1.text_model.encoder.layers.4.layer_norm1.weight {noinline} = #stream.parameter.named<"model"::"text_encoder_model_1.text_model.encoder.layers.4.layer_norm1.weight"> : tensor<768xf16>
  util.global private @_params.text_encoder_model_1.text_model.encoder.layers.4.layer_norm1.bias {noinline} = #stream.parameter.named<"model"::"text_encoder_model_1.text_model.encoder.layers.4.layer_norm1.bias"> : tensor<768xf16>
  util.global private @_params.text_encoder_model_1.text_model.encoder.layers.4.mlp.fc1.weight {noinline} = #stream.parameter.named<"model"::"text_encoder_model_1.text_model.encoder.layers.4.mlp.fc1.weight"> : tensor<3072x768xf16>
  util.global private @_params.text_encoder_model_1.text_model.encoder.layers.4.mlp.fc1.bias {noinline} = #stream.parameter.named<"model"::"text_encoder_model_1.text_model.encoder.layers.4.mlp.fc1.bias"> : tensor<3072xf16>
  util.global private @_params.text_encoder_model_1.text_model.encoder.layers.4.mlp.fc2.weight {noinline} = #stream.parameter.named<"model"::"text_encoder_model_1.text_model.encoder.layers.4.mlp.fc2.weight"> : tensor<768x3072xf16>
  util.global private @_params.text_encoder_model_1.text_model.encoder.layers.4.mlp.fc2.bias {noinline} = #stream.parameter.named<"model"::"text_encoder_model_1.text_model.encoder.layers.4.mlp.fc2.bias"> : tensor<768xf16>
  util.global private @_params.text_encoder_model_1.text_model.encoder.layers.4.layer_norm2.weight {noinline} = #stream.parameter.named<"model"::"text_encoder_model_1.text_model.encoder.layers.4.layer_norm2.weight"> : tensor<768xf16>
  util.global private @_params.text_encoder_model_1.text_model.encoder.layers.4.layer_norm2.bias {noinline} = #stream.parameter.named<"model"::"text_encoder_model_1.text_model.encoder.layers.4.layer_norm2.bias"> : tensor<768xf16>
  util.global private @_params.text_encoder_model_1.text_model.encoder.layers.5.self_attn.k_proj.weight {noinline} = #stream.parameter.named<"model"::"text_encoder_model_1.text_model.encoder.layers.5.self_attn.k_proj.weight"> : tensor<768x768xf16>
  util.global private @_params.text_encoder_model_1.text_model.encoder.layers.5.self_attn.k_proj.bias {noinline} = #stream.parameter.named<"model"::"text_encoder_model_1.text_model.encoder.layers.5.self_attn.k_proj.bias"> : tensor<768xf16>
  util.global private @_params.text_encoder_model_1.text_model.encoder.layers.5.self_attn.v_proj.weight {noinline} = #stream.parameter.named<"model"::"text_encoder_model_1.text_model.encoder.layers.5.self_attn.v_proj.weight"> : tensor<768x768xf16>
  util.global private @_params.text_encoder_model_1.text_model.encoder.layers.5.self_attn.v_proj.bias {noinline} = #stream.parameter.named<"model"::"text_encoder_model_1.text_model.encoder.layers.5.self_attn.v_proj.bias"> : tensor<768xf16>
  util.global private @_params.text_encoder_model_1.text_model.encoder.layers.5.self_attn.q_proj.weight {noinline} = #stream.parameter.named<"model"::"text_encoder_model_1.text_model.encoder.layers.5.self_attn.q_proj.weight"> : tensor<768x768xf16>
  util.global private @_params.text_encoder_model_1.text_model.encoder.layers.5.self_attn.q_proj.bias {noinline} = #stream.parameter.named<"model"::"text_encoder_model_1.text_model.encoder.layers.5.self_attn.q_proj.bias"> : tensor<768xf16>
  util.global private @_params.text_encoder_model_1.text_model.encoder.layers.5.self_attn.out_proj.weight {noinline} = #stream.parameter.named<"model"::"text_encoder_model_1.text_model.encoder.layers.5.self_attn.out_proj.weight"> : tensor<768x768xf16>
  util.global private @_params.text_encoder_model_1.text_model.encoder.layers.5.self_attn.out_proj.bias {noinline} = #stream.parameter.named<"model"::"text_encoder_model_1.text_model.encoder.layers.5.self_attn.out_proj.bias"> : tensor<768xf16>
  util.global private @_params.text_encoder_model_1.text_model.encoder.layers.5.layer_norm1.weight {noinline} = #stream.parameter.named<"model"::"text_encoder_model_1.text_model.encoder.layers.5.layer_norm1.weight"> : tensor<768xf16>
  util.global private @_params.text_encoder_model_1.text_model.encoder.layers.5.layer_norm1.bias {noinline} = #stream.parameter.named<"model"::"text_encoder_model_1.text_model.encoder.layers.5.layer_norm1.bias"> : tensor<768xf16>
  util.global private @_params.text_encoder_model_1.text_model.encoder.layers.5.mlp.fc1.weight {noinline} = #stream.parameter.named<"model"::"text_encoder_model_1.text_model.encoder.layers.5.mlp.fc1.weight"> : tensor<3072x768xf16>
  util.global private @_params.text_encoder_model_1.text_model.encoder.layers.5.mlp.fc1.bias {noinline} = #stream.parameter.named<"model"::"text_encoder_model_1.text_model.encoder.layers.5.mlp.fc1.bias"> : tensor<3072xf16>
  util.global private @_params.text_encoder_model_1.text_model.encoder.layers.5.mlp.fc2.weight {noinline} = #stream.parameter.named<"model"::"text_encoder_model_1.text_model.encoder.layers.5.mlp.fc2.weight"> : tensor<768x3072xf16>
  util.global private @_params.text_encoder_model_1.text_model.encoder.layers.5.mlp.fc2.bias {noinline} = #stream.parameter.named<"model"::"text_encoder_model_1.text_model.encoder.layers.5.mlp.fc2.bias"> : tensor<768xf16>
  util.global private @_params.text_encoder_model_1.text_model.encoder.layers.5.layer_norm2.weight {noinline} = #stream.parameter.named<"model"::"text_encoder_model_1.text_model.encoder.layers.5.layer_norm2.weight"> : tensor<768xf16>
  util.global private @_params.text_encoder_model_1.text_model.encoder.layers.5.layer_norm2.bias {noinline} = #stream.parameter.named<"model"::"text_encoder_model_1.text_model.encoder.layers.5.layer_norm2.bias"> : tensor<768xf16>
  util.global private @_params.text_encoder_model_1.text_model.encoder.layers.6.self_attn.k_proj.weight {noinline} = #stream.parameter.named<"model"::"text_encoder_model_1.text_model.encoder.layers.6.self_attn.k_proj.weight"> : tensor<768x768xf16>
  util.global private @_params.text_encoder_model_1.text_model.encoder.layers.6.self_attn.k_proj.bias {noinline} = #stream.parameter.named<"model"::"text_encoder_model_1.text_model.encoder.layers.6.self_attn.k_proj.bias"> : tensor<768xf16>
  util.global private @_params.text_encoder_model_1.text_model.encoder.layers.6.self_attn.v_proj.weight {noinline} = #stream.parameter.named<"model"::"text_encoder_model_1.text_model.encoder.layers.6.self_attn.v_proj.weight"> : tensor<768x768xf16>
  util.global private @_params.text_encoder_model_1.text_model.encoder.layers.6.self_attn.v_proj.bias {noinline} = #stream.parameter.named<"model"::"text_encoder_model_1.text_model.encoder.layers.6.self_attn.v_proj.bias"> : tensor<768xf16>
  util.global private @_params.text_encoder_model_1.text_model.encoder.layers.6.self_attn.q_proj.weight {noinline} = #stream.parameter.named<"model"::"text_encoder_model_1.text_model.encoder.layers.6.self_attn.q_proj.weight"> : tensor<768x768xf16>
  util.global private @_params.text_encoder_model_1.text_model.encoder.layers.6.self_attn.q_proj.bias {noinline} = #stream.parameter.named<"model"::"text_encoder_model_1.text_model.encoder.layers.6.self_attn.q_proj.bias"> : tensor<768xf16>
  util.global private @_params.text_encoder_model_1.text_model.encoder.layers.6.self_attn.out_proj.weight {noinline} = #stream.parameter.named<"model"::"text_encoder_model_1.text_model.encoder.layers.6.self_attn.out_proj.weight"> : tensor<768x768xf16>
  util.global private @_params.text_encoder_model_1.text_model.encoder.layers.6.self_attn.out_proj.bias {noinline} = #stream.parameter.named<"model"::"text_encoder_model_1.text_model.encoder.layers.6.self_attn.out_proj.bias"> : tensor<768xf16>
  util.global private @_params.text_encoder_model_1.text_model.encoder.layers.6.layer_norm1.weight {noinline} = #stream.parameter.named<"model"::"text_encoder_model_1.text_model.encoder.layers.6.layer_norm1.weight"> : tensor<768xf16>
  util.global private @_params.text_encoder_model_1.text_model.encoder.layers.6.layer_norm1.bias {noinline} = #stream.parameter.named<"model"::"text_encoder_model_1.text_model.encoder.layers.6.layer_norm1.bias"> : tensor<768xf16>
  util.global private @_params.text_encoder_model_1.text_model.encoder.layers.6.mlp.fc1.weight {noinline} = #stream.parameter.named<"model"::"text_encoder_model_1.text_model.encoder.layers.6.mlp.fc1.weight"> : tensor<3072x768xf16>
  util.global private @_params.text_encoder_model_1.text_model.encoder.layers.6.mlp.fc1.bias {noinline} = #stream.parameter.named<"model"::"text_encoder_model_1.text_model.encoder.layers.6.mlp.fc1.bias"> : tensor<3072xf16>
  util.global private @_params.text_encoder_model_1.text_model.encoder.layers.6.mlp.fc2.weight {noinline} = #stream.parameter.named<"model"::"text_encoder_model_1.text_model.encoder.layers.6.mlp.fc2.weight"> : tensor<768x3072xf16>
  util.global private @_params.text_encoder_model_1.text_model.encoder.layers.6.mlp.fc2.bias {noinline} = #stream.parameter.named<"model"::"text_encoder_model_1.text_model.encoder.layers.6.mlp.fc2.bias"> : tensor<768xf16>
  util.global private @_params.text_encoder_model_1.text_model.encoder.layers.6.layer_norm2.weight {noinline} = #stream.parameter.named<"model"::"text_encoder_model_1.text_model.encoder.layers.6.layer_norm2.weight"> : tensor<768xf16>
  util.global private @_params.text_encoder_model_1.text_model.encoder.layers.6.layer_norm2.bias {noinline} = #stream.parameter.named<"model"::"text_encoder_model_1.text_model.encoder.layers.6.layer_norm2.bias"> : tensor<768xf16>
  util.global private @_params.text_encoder_model_1.text_model.encoder.layers.7.self_attn.k_proj.weight {noinline} = #stream.parameter.named<"model"::"text_encoder_model_1.text_model.encoder.layers.7.self_attn.k_proj.weight"> : tensor<768x768xf16>
  util.global private @_params.text_encoder_model_1.text_model.encoder.layers.7.self_attn.k_proj.bias {noinline} = #stream.parameter.named<"model"::"text_encoder_model_1.text_model.encoder.layers.7.self_attn.k_proj.bias"> : tensor<768xf16>
  util.global private @_params.text_encoder_model_1.text_model.encoder.layers.7.self_attn.v_proj.weight {noinline} = #stream.parameter.named<"model"::"text_encoder_model_1.text_model.encoder.layers.7.self_attn.v_proj.weight"> : tensor<768x768xf16>
  util.global private @_params.text_encoder_model_1.text_model.encoder.layers.7.self_attn.v_proj.bias {noinline} = #stream.parameter.named<"model"::"text_encoder_model_1.text_model.encoder.layers.7.self_attn.v_proj.bias"> : tensor<768xf16>
  util.global private @_params.text_encoder_model_1.text_model.encoder.layers.7.self_attn.q_proj.weight {noinline} = #stream.parameter.named<"model"::"text_encoder_model_1.text_model.encoder.layers.7.self_attn.q_proj.weight"> : tensor<768x768xf16>
  util.global private @_params.text_encoder_model_1.text_model.encoder.layers.7.self_attn.q_proj.bias {noinline} = #stream.parameter.named<"model"::"text_encoder_model_1.text_model.encoder.layers.7.self_attn.q_proj.bias"> : tensor<768xf16>
  util.global private @_params.text_encoder_model_1.text_model.encoder.layers.7.self_attn.out_proj.weight {noinline} = #stream.parameter.named<"model"::"text_encoder_model_1.text_model.encoder.layers.7.self_attn.out_proj.weight"> : tensor<768x768xf16>
  util.global private @_params.text_encoder_model_1.text_model.encoder.layers.7.self_attn.out_proj.bias {noinline} = #stream.parameter.named<"model"::"text_encoder_model_1.text_model.encoder.layers.7.self_attn.out_proj.bias"> : tensor<768xf16>
  util.global private @_params.text_encoder_model_1.text_model.encoder.layers.7.layer_norm1.weight {noinline} = #stream.parameter.named<"model"::"text_encoder_model_1.text_model.encoder.layers.7.layer_norm1.weight"> : tensor<768xf16>
  util.global private @_params.text_encoder_model_1.text_model.encoder.layers.7.layer_norm1.bias {noinline} = #stream.parameter.named<"model"::"text_encoder_model_1.text_model.encoder.layers.7.layer_norm1.bias"> : tensor<768xf16>
  util.global private @_params.text_encoder_model_1.text_model.encoder.layers.7.mlp.fc1.weight {noinline} = #stream.parameter.named<"model"::"text_encoder_model_1.text_model.encoder.layers.7.mlp.fc1.weight"> : tensor<3072x768xf16>
  util.global private @_params.text_encoder_model_1.text_model.encoder.layers.7.mlp.fc1.bias {noinline} = #stream.parameter.named<"model"::"text_encoder_model_1.text_model.encoder.layers.7.mlp.fc1.bias"> : tensor<3072xf16>
  util.global private @_params.text_encoder_model_1.text_model.encoder.layers.7.mlp.fc2.weight {noinline} = #stream.parameter.named<"model"::"text_encoder_model_1.text_model.encoder.layers.7.mlp.fc2.weight"> : tensor<768x3072xf16>
  util.global private @_params.text_encoder_model_1.text_model.encoder.layers.7.mlp.fc2.bias {noinline} = #stream.parameter.named<"model"::"text_encoder_model_1.text_model.encoder.layers.7.mlp.fc2.bias"> : tensor<768xf16>
  util.global private @_params.text_encoder_model_1.text_model.encoder.layers.7.layer_norm2.weight {noinline} = #stream.parameter.named<"model"::"text_encoder_model_1.text_model.encoder.layers.7.layer_norm2.weight"> : tensor<768xf16>
  util.global private @_params.text_encoder_model_1.text_model.encoder.layers.7.layer_norm2.bias {noinline} = #stream.parameter.named<"model"::"text_encoder_model_1.text_model.encoder.layers.7.layer_norm2.bias"> : tensor<768xf16>
  util.global private @_params.text_encoder_model_1.text_model.encoder.layers.8.self_attn.k_proj.weight {noinline} = #stream.parameter.named<"model"::"text_encoder_model_1.text_model.encoder.layers.8.self_attn.k_proj.weight"> : tensor<768x768xf16>
  util.global private @_params.text_encoder_model_1.text_model.encoder.layers.8.self_attn.k_proj.bias {noinline} = #stream.parameter.named<"model"::"text_encoder_model_1.text_model.encoder.layers.8.self_attn.k_proj.bias"> : tensor<768xf16>
  util.global private @_params.text_encoder_model_1.text_model.encoder.layers.8.self_attn.v_proj.weight {noinline} = #stream.parameter.named<"model"::"text_encoder_model_1.text_model.encoder.layers.8.self_attn.v_proj.weight"> : tensor<768x768xf16>
  util.global private @_params.text_encoder_model_1.text_model.encoder.layers.8.self_attn.v_proj.bias {noinline} = #stream.parameter.named<"model"::"text_encoder_model_1.text_model.encoder.layers.8.self_attn.v_proj.bias"> : tensor<768xf16>
  util.global private @_params.text_encoder_model_1.text_model.encoder.layers.8.self_attn.q_proj.weight {noinline} = #stream.parameter.named<"model"::"text_encoder_model_1.text_model.encoder.layers.8.self_attn.q_proj.weight"> : tensor<768x768xf16>
  util.global private @_params.text_encoder_model_1.text_model.encoder.layers.8.self_attn.q_proj.bias {noinline} = #stream.parameter.named<"model"::"text_encoder_model_1.text_model.encoder.layers.8.self_attn.q_proj.bias"> : tensor<768xf16>
  util.global private @_params.text_encoder_model_1.text_model.encoder.layers.8.self_attn.out_proj.weight {noinline} = #stream.parameter.named<"model"::"text_encoder_model_1.text_model.encoder.layers.8.self_attn.out_proj.weight"> : tensor<768x768xf16>
  util.global private @_params.text_encoder_model_1.text_model.encoder.layers.8.self_attn.out_proj.bias {noinline} = #stream.parameter.named<"model"::"text_encoder_model_1.text_model.encoder.layers.8.self_attn.out_proj.bias"> : tensor<768xf16>
  util.global private @_params.text_encoder_model_1.text_model.encoder.layers.8.layer_norm1.weight {noinline} = #stream.parameter.named<"model"::"text_encoder_model_1.text_model.encoder.layers.8.layer_norm1.weight"> : tensor<768xf16>
  util.global private @_params.text_encoder_model_1.text_model.encoder.layers.8.layer_norm1.bias {noinline} = #stream.parameter.named<"model"::"text_encoder_model_1.text_model.encoder.layers.8.layer_norm1.bias"> : tensor<768xf16>
  util.global private @_params.text_encoder_model_1.text_model.encoder.layers.8.mlp.fc1.weight {noinline} = #stream.parameter.named<"model"::"text_encoder_model_1.text_model.encoder.layers.8.mlp.fc1.weight"> : tensor<3072x768xf16>
  util.global private @_params.text_encoder_model_1.text_model.encoder.layers.8.mlp.fc1.bias {noinline} = #stream.parameter.named<"model"::"text_encoder_model_1.text_model.encoder.layers.8.mlp.fc1.bias"> : tensor<3072xf16>
  util.global private @_params.text_encoder_model_1.text_model.encoder.layers.8.mlp.fc2.weight {noinline} = #stream.parameter.named<"model"::"text_encoder_model_1.text_model.encoder.layers.8.mlp.fc2.weight"> : tensor<768x3072xf16>
  util.global private @_params.text_encoder_model_1.text_model.encoder.layers.8.mlp.fc2.bias {noinline} = #stream.parameter.named<"model"::"text_encoder_model_1.text_model.encoder.layers.8.mlp.fc2.bias"> : tensor<768xf16>
  util.global private @_params.text_encoder_model_1.text_model.encoder.layers.8.layer_norm2.weight {noinline} = #stream.parameter.named<"model"::"text_encoder_model_1.text_model.encoder.layers.8.layer_norm2.weight"> : tensor<768xf16>
  util.global private @_params.text_encoder_model_1.text_model.encoder.layers.8.layer_norm2.bias {noinline} = #stream.parameter.named<"model"::"text_encoder_model_1.text_model.encoder.layers.8.layer_norm2.bias"> : tensor<768xf16>
  util.global private @_params.text_encoder_model_1.text_model.encoder.layers.9.self_attn.k_proj.weight {noinline} = #stream.parameter.named<"model"::"text_encoder_model_1.text_model.encoder.layers.9.self_attn.k_proj.weight"> : tensor<768x768xf16>
  util.global private @_params.text_encoder_model_1.text_model.encoder.layers.9.self_attn.k_proj.bias {noinline} = #stream.parameter.named<"model"::"text_encoder_model_1.text_model.encoder.layers.9.self_attn.k_proj.bias"> : tensor<768xf16>
  util.global private @_params.text_encoder_model_1.text_model.encoder.layers.9.self_attn.v_proj.weight {noinline} = #stream.parameter.named<"model"::"text_encoder_model_1.text_model.encoder.layers.9.self_attn.v_proj.weight"> : tensor<768x768xf16>
  util.global private @_params.text_encoder_model_1.text_model.encoder.layers.9.self_attn.v_proj.bias {noinline} = #stream.parameter.named<"model"::"text_encoder_model_1.text_model.encoder.layers.9.self_attn.v_proj.bias"> : tensor<768xf16>
  util.global private @_params.text_encoder_model_1.text_model.encoder.layers.9.self_attn.q_proj.weight {noinline} = #stream.parameter.named<"model"::"text_encoder_model_1.text_model.encoder.layers.9.self_attn.q_proj.weight"> : tensor<768x768xf16>
  util.global private @_params.text_encoder_model_1.text_model.encoder.layers.9.self_attn.q_proj.bias {noinline} = #stream.parameter.named<"model"::"text_encoder_model_1.text_model.encoder.layers.9.self_attn.q_proj.bias"> : tensor<768xf16>
  util.global private @_params.text_encoder_model_1.text_model.encoder.layers.9.self_attn.out_proj.weight {noinline} = #stream.parameter.named<"model"::"text_encoder_model_1.text_model.encoder.layers.9.self_attn.out_proj.weight"> : tensor<768x768xf16>
  util.global private @_params.text_encoder_model_1.text_model.encoder.layers.9.self_attn.out_proj.bias {noinline} = #stream.parameter.named<"model"::"text_encoder_model_1.text_model.encoder.layers.9.self_attn.out_proj.bias"> : tensor<768xf16>
  util.global private @_params.text_encoder_model_1.text_model.encoder.layers.9.layer_norm1.weight {noinline} = #stream.parameter.named<"model"::"text_encoder_model_1.text_model.encoder.layers.9.layer_norm1.weight"> : tensor<768xf16>
  util.global private @_params.text_encoder_model_1.text_model.encoder.layers.9.layer_norm1.bias {noinline} = #stream.parameter.named<"model"::"text_encoder_model_1.text_model.encoder.layers.9.layer_norm1.bias"> : tensor<768xf16>
  util.global private @_params.text_encoder_model_1.text_model.encoder.layers.9.mlp.fc1.weight {noinline} = #stream.parameter.named<"model"::"text_encoder_model_1.text_model.encoder.layers.9.mlp.fc1.weight"> : tensor<3072x768xf16>
  util.global private @_params.text_encoder_model_1.text_model.encoder.layers.9.mlp.fc1.bias {noinline} = #stream.parameter.named<"model"::"text_encoder_model_1.text_model.encoder.layers.9.mlp.fc1.bias"> : tensor<3072xf16>
  util.global private @_params.text_encoder_model_1.text_model.encoder.layers.9.mlp.fc2.weight {noinline} = #stream.parameter.named<"model"::"text_encoder_model_1.text_model.encoder.layers.9.mlp.fc2.weight"> : tensor<768x3072xf16>
  util.global private @_params.text_encoder_model_1.text_model.encoder.layers.9.mlp.fc2.bias {noinline} = #stream.parameter.named<"model"::"text_encoder_model_1.text_model.encoder.layers.9.mlp.fc2.bias"> : tensor<768xf16>
  util.global private @_params.text_encoder_model_1.text_model.encoder.layers.9.layer_norm2.weight {noinline} = #stream.parameter.named<"model"::"text_encoder_model_1.text_model.encoder.layers.9.layer_norm2.weight"> : tensor<768xf16>
  util.global private @_params.text_encoder_model_1.text_model.encoder.layers.9.layer_norm2.bias {noinline} = #stream.parameter.named<"model"::"text_encoder_model_1.text_model.encoder.layers.9.layer_norm2.bias"> : tensor<768xf16>
  util.global private @_params.text_encoder_model_1.text_model.encoder.layers.10.self_attn.k_proj.weight {noinline} = #stream.parameter.named<"model"::"text_encoder_model_1.text_model.encoder.layers.10.self_attn.k_proj.weight"> : tensor<768x768xf16>
  util.global private @_params.text_encoder_model_1.text_model.encoder.layers.10.self_attn.k_proj.bias {noinline} = #stream.parameter.named<"model"::"text_encoder_model_1.text_model.encoder.layers.10.self_attn.k_proj.bias"> : tensor<768xf16>
  util.global private @_params.text_encoder_model_1.text_model.encoder.layers.10.self_attn.v_proj.weight {noinline} = #stream.parameter.named<"model"::"text_encoder_model_1.text_model.encoder.layers.10.self_attn.v_proj.weight"> : tensor<768x768xf16>
  util.global private @_params.text_encoder_model_1.text_model.encoder.layers.10.self_attn.v_proj.bias {noinline} = #stream.parameter.named<"model"::"text_encoder_model_1.text_model.encoder.layers.10.self_attn.v_proj.bias"> : tensor<768xf16>
  util.global private @_params.text_encoder_model_1.text_model.encoder.layers.10.self_attn.q_proj.weight {noinline} = #stream.parameter.named<"model"::"text_encoder_model_1.text_model.encoder.layers.10.self_attn.q_proj.weight"> : tensor<768x768xf16>
  util.global private @_params.text_encoder_model_1.text_model.encoder.layers.10.self_attn.q_proj.bias {noinline} = #stream.parameter.named<"model"::"text_encoder_model_1.text_model.encoder.layers.10.self_attn.q_proj.bias"> : tensor<768xf16>
  util.global private @_params.text_encoder_model_1.text_model.encoder.layers.10.self_attn.out_proj.weight {noinline} = #stream.parameter.named<"model"::"text_encoder_model_1.text_model.encoder.layers.10.self_attn.out_proj.weight"> : tensor<768x768xf16>
  util.global private @_params.text_encoder_model_1.text_model.encoder.layers.10.self_attn.out_proj.bias {noinline} = #stream.parameter.named<"model"::"text_encoder_model_1.text_model.encoder.layers.10.self_attn.out_proj.bias"> : tensor<768xf16>
  util.global private @_params.text_encoder_model_1.text_model.encoder.layers.10.layer_norm1.weight {noinline} = #stream.parameter.named<"model"::"text_encoder_model_1.text_model.encoder.layers.10.layer_norm1.weight"> : tensor<768xf16>
  util.global private @_params.text_encoder_model_1.text_model.encoder.layers.10.layer_norm1.bias {noinline} = #stream.parameter.named<"model"::"text_encoder_model_1.text_model.encoder.layers.10.layer_norm1.bias"> : tensor<768xf16>
  util.global private @_params.text_encoder_model_1.text_model.encoder.layers.10.mlp.fc1.weight {noinline} = #stream.parameter.named<"model"::"text_encoder_model_1.text_model.encoder.layers.10.mlp.fc1.weight"> : tensor<3072x768xf16>
  util.global private @_params.text_encoder_model_1.text_model.encoder.layers.10.mlp.fc1.bias {noinline} = #stream.parameter.named<"model"::"text_encoder_model_1.text_model.encoder.layers.10.mlp.fc1.bias"> : tensor<3072xf16>
  util.global private @_params.text_encoder_model_1.text_model.encoder.layers.10.mlp.fc2.weight {noinline} = #stream.parameter.named<"model"::"text_encoder_model_1.text_model.encoder.layers.10.mlp.fc2.weight"> : tensor<768x3072xf16>
  util.global private @_params.text_encoder_model_1.text_model.encoder.layers.10.mlp.fc2.bias {noinline} = #stream.parameter.named<"model"::"text_encoder_model_1.text_model.encoder.layers.10.mlp.fc2.bias"> : tensor<768xf16>
  util.global private @_params.text_encoder_model_1.text_model.encoder.layers.10.layer_norm2.weight {noinline} = #stream.parameter.named<"model"::"text_encoder_model_1.text_model.encoder.layers.10.layer_norm2.weight"> : tensor<768xf16>
  util.global private @_params.text_encoder_model_1.text_model.encoder.layers.10.layer_norm2.bias {noinline} = #stream.parameter.named<"model"::"text_encoder_model_1.text_model.encoder.layers.10.layer_norm2.bias"> : tensor<768xf16>
  util.global private @_params.text_encoder_model_1.text_model.encoder.layers.11.self_attn.k_proj.weight {noinline} = #stream.parameter.named<"model"::"text_encoder_model_1.text_model.encoder.layers.11.self_attn.k_proj.weight"> : tensor<768x768xf16>
  util.global private @_params.text_encoder_model_1.text_model.encoder.layers.11.self_attn.k_proj.bias {noinline} = #stream.parameter.named<"model"::"text_encoder_model_1.text_model.encoder.layers.11.self_attn.k_proj.bias"> : tensor<768xf16>
  util.global private @_params.text_encoder_model_1.text_model.encoder.layers.11.self_attn.v_proj.weight {noinline} = #stream.parameter.named<"model"::"text_encoder_model_1.text_model.encoder.layers.11.self_attn.v_proj.weight"> : tensor<768x768xf16>
  util.global private @_params.text_encoder_model_1.text_model.encoder.layers.11.self_attn.v_proj.bias {noinline} = #stream.parameter.named<"model"::"text_encoder_model_1.text_model.encoder.layers.11.self_attn.v_proj.bias"> : tensor<768xf16>
  util.global private @_params.text_encoder_model_1.text_model.encoder.layers.11.self_attn.q_proj.weight {noinline} = #stream.parameter.named<"model"::"text_encoder_model_1.text_model.encoder.layers.11.self_attn.q_proj.weight"> : tensor<768x768xf16>
  util.global private @_params.text_encoder_model_1.text_model.encoder.layers.11.self_attn.q_proj.bias {noinline} = #stream.parameter.named<"model"::"text_encoder_model_1.text_model.encoder.layers.11.self_attn.q_proj.bias"> : tensor<768xf16>
  util.global private @_params.text_encoder_model_1.text_model.encoder.layers.11.self_attn.out_proj.weight {noinline} = #stream.parameter.named<"model"::"text_encoder_model_1.text_model.encoder.layers.11.self_attn.out_proj.weight"> : tensor<768x768xf16>
  util.global private @_params.text_encoder_model_1.text_model.encoder.layers.11.self_attn.out_proj.bias {noinline} = #stream.parameter.named<"model"::"text_encoder_model_1.text_model.encoder.layers.11.self_attn.out_proj.bias"> : tensor<768xf16>
  util.global private @_params.text_encoder_model_1.text_model.encoder.layers.11.layer_norm1.weight {noinline} = #stream.parameter.named<"model"::"text_encoder_model_1.text_model.encoder.layers.11.layer_norm1.weight"> : tensor<768xf16>
  util.global private @_params.text_encoder_model_1.text_model.encoder.layers.11.layer_norm1.bias {noinline} = #stream.parameter.named<"model"::"text_encoder_model_1.text_model.encoder.layers.11.layer_norm1.bias"> : tensor<768xf16>
  util.global private @_params.text_encoder_model_1.text_model.encoder.layers.11.mlp.fc1.weight {noinline} = #stream.parameter.named<"model"::"text_encoder_model_1.text_model.encoder.layers.11.mlp.fc1.weight"> : tensor<3072x768xf16>
  util.global private @_params.text_encoder_model_1.text_model.encoder.layers.11.mlp.fc1.bias {noinline} = #stream.parameter.named<"model"::"text_encoder_model_1.text_model.encoder.layers.11.mlp.fc1.bias"> : tensor<3072xf16>
  util.global private @_params.text_encoder_model_1.text_model.encoder.layers.11.mlp.fc2.weight {noinline} = #stream.parameter.named<"model"::"text_encoder_model_1.text_model.encoder.layers.11.mlp.fc2.weight"> : tensor<768x3072xf16>
  util.global private @_params.text_encoder_model_1.text_model.encoder.layers.11.mlp.fc2.bias {noinline} = #stream.parameter.named<"model"::"text_encoder_model_1.text_model.encoder.layers.11.mlp.fc2.bias"> : tensor<768xf16>
  util.global private @_params.text_encoder_model_1.text_model.encoder.layers.11.layer_norm2.weight {noinline} = #stream.parameter.named<"model"::"text_encoder_model_1.text_model.encoder.layers.11.layer_norm2.weight"> : tensor<768xf16>
  util.global private @_params.text_encoder_model_1.text_model.encoder.layers.11.layer_norm2.bias {noinline} = #stream.parameter.named<"model"::"text_encoder_model_1.text_model.encoder.layers.11.layer_norm2.bias"> : tensor<768xf16>
  util.global private @_params.text_encoder_model_1.text_model.final_layer_norm.weight {noinline} = #stream.parameter.named<"model"::"text_encoder_model_1.text_model.final_layer_norm.weight"> : tensor<768xf16>
  util.global private @_params.text_encoder_model_1.text_model.final_layer_norm.bias {noinline} = #stream.parameter.named<"model"::"text_encoder_model_1.text_model.final_layer_norm.bias"> : tensor<768xf16>
  util.global private @_params.text_encoder_model_2.text_model.embeddings.token_embedding.weight {noinline} = #stream.parameter.named<"model"::"text_encoder_model_2.text_model.embeddings.token_embedding.weight"> : tensor<49408x1280xf16>
  util.global private @_params.text_encoder_model_2.text_model.embeddings.position_embedding.weight {noinline} = #stream.parameter.named<"model"::"text_encoder_model_2.text_model.embeddings.position_embedding.weight"> : tensor<77x1280xf16>
  util.global private @_params.text_encoder_model_2.text_model.encoder.layers.0.self_attn.k_proj.weight {noinline} = #stream.parameter.named<"model"::"text_encoder_model_2.text_model.encoder.layers.0.self_attn.k_proj.weight"> : tensor<1280x1280xf16>
  util.global private @_params.text_encoder_model_2.text_model.encoder.layers.0.self_attn.k_proj.bias {noinline} = #stream.parameter.named<"model"::"text_encoder_model_2.text_model.encoder.layers.0.self_attn.k_proj.bias"> : tensor<1280xf16>
  util.global private @_params.text_encoder_model_2.text_model.encoder.layers.0.self_attn.v_proj.weight {noinline} = #stream.parameter.named<"model"::"text_encoder_model_2.text_model.encoder.layers.0.self_attn.v_proj.weight"> : tensor<1280x1280xf16>
  util.global private @_params.text_encoder_model_2.text_model.encoder.layers.0.self_attn.v_proj.bias {noinline} = #stream.parameter.named<"model"::"text_encoder_model_2.text_model.encoder.layers.0.self_attn.v_proj.bias"> : tensor<1280xf16>
  util.global private @_params.text_encoder_model_2.text_model.encoder.layers.0.self_attn.q_proj.weight {noinline} = #stream.parameter.named<"model"::"text_encoder_model_2.text_model.encoder.layers.0.self_attn.q_proj.weight"> : tensor<1280x1280xf16>
  util.global private @_params.text_encoder_model_2.text_model.encoder.layers.0.self_attn.q_proj.bias {noinline} = #stream.parameter.named<"model"::"text_encoder_model_2.text_model.encoder.layers.0.self_attn.q_proj.bias"> : tensor<1280xf16>
  util.global private @_params.text_encoder_model_2.text_model.encoder.layers.0.self_attn.out_proj.weight {noinline} = #stream.parameter.named<"model"::"text_encoder_model_2.text_model.encoder.layers.0.self_attn.out_proj.weight"> : tensor<1280x1280xf16>
  util.global private @_params.text_encoder_model_2.text_model.encoder.layers.0.self_attn.out_proj.bias {noinline} = #stream.parameter.named<"model"::"text_encoder_model_2.text_model.encoder.layers.0.self_attn.out_proj.bias"> : tensor<1280xf16>
  util.global private @_params.text_encoder_model_2.text_model.encoder.layers.0.layer_norm1.weight {noinline} = #stream.parameter.named<"model"::"text_encoder_model_2.text_model.encoder.layers.0.layer_norm1.weight"> : tensor<1280xf16>
  util.global private @_params.text_encoder_model_2.text_model.encoder.layers.0.layer_norm1.bias {noinline} = #stream.parameter.named<"model"::"text_encoder_model_2.text_model.encoder.layers.0.layer_norm1.bias"> : tensor<1280xf16>
  util.global private @_params.text_encoder_model_2.text_model.encoder.layers.0.mlp.fc1.weight {noinline} = #stream.parameter.named<"model"::"text_encoder_model_2.text_model.encoder.layers.0.mlp.fc1.weight"> : tensor<5120x1280xf16>
  util.global private @_params.text_encoder_model_2.text_model.encoder.layers.0.mlp.fc1.bias {noinline} = #stream.parameter.named<"model"::"text_encoder_model_2.text_model.encoder.layers.0.mlp.fc1.bias"> : tensor<5120xf16>
  util.global private @_params.text_encoder_model_2.text_model.encoder.layers.0.mlp.fc2.weight {noinline} = #stream.parameter.named<"model"::"text_encoder_model_2.text_model.encoder.layers.0.mlp.fc2.weight"> : tensor<1280x5120xf16>
  util.global private @_params.text_encoder_model_2.text_model.encoder.layers.0.mlp.fc2.bias {noinline} = #stream.parameter.named<"model"::"text_encoder_model_2.text_model.encoder.layers.0.mlp.fc2.bias"> : tensor<1280xf16>
  util.global private @_params.text_encoder_model_2.text_model.encoder.layers.0.layer_norm2.weight {noinline} = #stream.parameter.named<"model"::"text_encoder_model_2.text_model.encoder.layers.0.layer_norm2.weight"> : tensor<1280xf16>
  util.global private @_params.text_encoder_model_2.text_model.encoder.layers.0.layer_norm2.bias {noinline} = #stream.parameter.named<"model"::"text_encoder_model_2.text_model.encoder.layers.0.layer_norm2.bias"> : tensor<1280xf16>
  util.global private @_params.text_encoder_model_2.text_model.encoder.layers.1.self_attn.k_proj.weight {noinline} = #stream.parameter.named<"model"::"text_encoder_model_2.text_model.encoder.layers.1.self_attn.k_proj.weight"> : tensor<1280x1280xf16>
  util.global private @_params.text_encoder_model_2.text_model.encoder.layers.1.self_attn.k_proj.bias {noinline} = #stream.parameter.named<"model"::"text_encoder_model_2.text_model.encoder.layers.1.self_attn.k_proj.bias"> : tensor<1280xf16>
  util.global private @_params.text_encoder_model_2.text_model.encoder.layers.1.self_attn.v_proj.weight {noinline} = #stream.parameter.named<"model"::"text_encoder_model_2.text_model.encoder.layers.1.self_attn.v_proj.weight"> : tensor<1280x1280xf16>
  util.global private @_params.text_encoder_model_2.text_model.encoder.layers.1.self_attn.v_proj.bias {noinline} = #stream.parameter.named<"model"::"text_encoder_model_2.text_model.encoder.layers.1.self_attn.v_proj.bias"> : tensor<1280xf16>
  util.global private @_params.text_encoder_model_2.text_model.encoder.layers.1.self_attn.q_proj.weight {noinline} = #stream.parameter.named<"model"::"text_encoder_model_2.text_model.encoder.layers.1.self_attn.q_proj.weight"> : tensor<1280x1280xf16>
  util.global private @_params.text_encoder_model_2.text_model.encoder.layers.1.self_attn.q_proj.bias {noinline} = #stream.parameter.named<"model"::"text_encoder_model_2.text_model.encoder.layers.1.self_attn.q_proj.bias"> : tensor<1280xf16>
  util.global private @_params.text_encoder_model_2.text_model.encoder.layers.1.self_attn.out_proj.weight {noinline} = #stream.parameter.named<"model"::"text_encoder_model_2.text_model.encoder.layers.1.self_attn.out_proj.weight"> : tensor<1280x1280xf16>
  util.global private @_params.text_encoder_model_2.text_model.encoder.layers.1.self_attn.out_proj.bias {noinline} = #stream.parameter.named<"model"::"text_encoder_model_2.text_model.encoder.layers.1.self_attn.out_proj.bias"> : tensor<1280xf16>
  util.global private @_params.text_encoder_model_2.text_model.encoder.layers.1.layer_norm1.weight {noinline} = #stream.parameter.named<"model"::"text_encoder_model_2.text_model.encoder.layers.1.layer_norm1.weight"> : tensor<1280xf16>
  util.global private @_params.text_encoder_model_2.text_model.encoder.layers.1.layer_norm1.bias {noinline} = #stream.parameter.named<"model"::"text_encoder_model_2.text_model.encoder.layers.1.layer_norm1.bias"> : tensor<1280xf16>
  util.global private @_params.text_encoder_model_2.text_model.encoder.layers.1.mlp.fc1.weight {noinline} = #stream.parameter.named<"model"::"text_encoder_model_2.text_model.encoder.layers.1.mlp.fc1.weight"> : tensor<5120x1280xf16>
  util.global private @_params.text_encoder_model_2.text_model.encoder.layers.1.mlp.fc1.bias {noinline} = #stream.parameter.named<"model"::"text_encoder_model_2.text_model.encoder.layers.1.mlp.fc1.bias"> : tensor<5120xf16>
  util.global private @_params.text_encoder_model_2.text_model.encoder.layers.1.mlp.fc2.weight {noinline} = #stream.parameter.named<"model"::"text_encoder_model_2.text_model.encoder.layers.1.mlp.fc2.weight"> : tensor<1280x5120xf16>
  util.global private @_params.text_encoder_model_2.text_model.encoder.layers.1.mlp.fc2.bias {noinline} = #stream.parameter.named<"model"::"text_encoder_model_2.text_model.encoder.layers.1.mlp.fc2.bias"> : tensor<1280xf16>
  util.global private @_params.text_encoder_model_2.text_model.encoder.layers.1.layer_norm2.weight {noinline} = #stream.parameter.named<"model"::"text_encoder_model_2.text_model.encoder.layers.1.layer_norm2.weight"> : tensor<1280xf16>
  util.global private @_params.text_encoder_model_2.text_model.encoder.layers.1.layer_norm2.bias {noinline} = #stream.parameter.named<"model"::"text_encoder_model_2.text_model.encoder.layers.1.layer_norm2.bias"> : tensor<1280xf16>
  util.global private @_params.text_encoder_model_2.text_model.encoder.layers.2.self_attn.k_proj.weight {noinline} = #stream.parameter.named<"model"::"text_encoder_model_2.text_model.encoder.layers.2.self_attn.k_proj.weight"> : tensor<1280x1280xf16>
  util.global private @_params.text_encoder_model_2.text_model.encoder.layers.2.self_attn.k_proj.bias {noinline} = #stream.parameter.named<"model"::"text_encoder_model_2.text_model.encoder.layers.2.self_attn.k_proj.bias"> : tensor<1280xf16>
  util.global private @_params.text_encoder_model_2.text_model.encoder.layers.2.self_attn.v_proj.weight {noinline} = #stream.parameter.named<"model"::"text_encoder_model_2.text_model.encoder.layers.2.self_attn.v_proj.weight"> : tensor<1280x1280xf16>
  util.global private @_params.text_encoder_model_2.text_model.encoder.layers.2.self_attn.v_proj.bias {noinline} = #stream.parameter.named<"model"::"text_encoder_model_2.text_model.encoder.layers.2.self_attn.v_proj.bias"> : tensor<1280xf16>
  util.global private @_params.text_encoder_model_2.text_model.encoder.layers.2.self_attn.q_proj.weight {noinline} = #stream.parameter.named<"model"::"text_encoder_model_2.text_model.encoder.layers.2.self_attn.q_proj.weight"> : tensor<1280x1280xf16>
  util.global private @_params.text_encoder_model_2.text_model.encoder.layers.2.self_attn.q_proj.bias {noinline} = #stream.parameter.named<"model"::"text_encoder_model_2.text_model.encoder.layers.2.self_attn.q_proj.bias"> : tensor<1280xf16>
  util.global private @_params.text_encoder_model_2.text_model.encoder.layers.2.self_attn.out_proj.weight {noinline} = #stream.parameter.named<"model"::"text_encoder_model_2.text_model.encoder.layers.2.self_attn.out_proj.weight"> : tensor<1280x1280xf16>
  util.global private @_params.text_encoder_model_2.text_model.encoder.layers.2.self_attn.out_proj.bias {noinline} = #stream.parameter.named<"model"::"text_encoder_model_2.text_model.encoder.layers.2.self_attn.out_proj.bias"> : tensor<1280xf16>
  util.global private @_params.text_encoder_model_2.text_model.encoder.layers.2.layer_norm1.weight {noinline} = #stream.parameter.named<"model"::"text_encoder_model_2.text_model.encoder.layers.2.layer_norm1.weight"> : tensor<1280xf16>
  util.global private @_params.text_encoder_model_2.text_model.encoder.layers.2.layer_norm1.bias {noinline} = #stream.parameter.named<"model"::"text_encoder_model_2.text_model.encoder.layers.2.layer_norm1.bias"> : tensor<1280xf16>
  util.global private @_params.text_encoder_model_2.text_model.encoder.layers.2.mlp.fc1.weight {noinline} = #stream.parameter.named<"model"::"text_encoder_model_2.text_model.encoder.layers.2.mlp.fc1.weight"> : tensor<5120x1280xf16>
  util.global private @_params.text_encoder_model_2.text_model.encoder.layers.2.mlp.fc1.bias {noinline} = #stream.parameter.named<"model"::"text_encoder_model_2.text_model.encoder.layers.2.mlp.fc1.bias"> : tensor<5120xf16>
  util.global private @_params.text_encoder_model_2.text_model.encoder.layers.2.mlp.fc2.weight {noinline} = #stream.parameter.named<"model"::"text_encoder_model_2.text_model.encoder.layers.2.mlp.fc2.weight"> : tensor<1280x5120xf16>
  util.global private @_params.text_encoder_model_2.text_model.encoder.layers.2.mlp.fc2.bias {noinline} = #stream.parameter.named<"model"::"text_encoder_model_2.text_model.encoder.layers.2.mlp.fc2.bias"> : tensor<1280xf16>
  util.global private @_params.text_encoder_model_2.text_model.encoder.layers.2.layer_norm2.weight {noinline} = #stream.parameter.named<"model"::"text_encoder_model_2.text_model.encoder.layers.2.layer_norm2.weight"> : tensor<1280xf16>
  util.global private @_params.text_encoder_model_2.text_model.encoder.layers.2.layer_norm2.bias {noinline} = #stream.parameter.named<"model"::"text_encoder_model_2.text_model.encoder.layers.2.layer_norm2.bias"> : tensor<1280xf16>
  util.global private @_params.text_encoder_model_2.text_model.encoder.layers.3.self_attn.k_proj.weight {noinline} = #stream.parameter.named<"model"::"text_encoder_model_2.text_model.encoder.layers.3.self_attn.k_proj.weight"> : tensor<1280x1280xf16>
  util.global private @_params.text_encoder_model_2.text_model.encoder.layers.3.self_attn.k_proj.bias {noinline} = #stream.parameter.named<"model"::"text_encoder_model_2.text_model.encoder.layers.3.self_attn.k_proj.bias"> : tensor<1280xf16>
  util.global private @_params.text_encoder_model_2.text_model.encoder.layers.3.self_attn.v_proj.weight {noinline} = #stream.parameter.named<"model"::"text_encoder_model_2.text_model.encoder.layers.3.self_attn.v_proj.weight"> : tensor<1280x1280xf16>
  util.global private @_params.text_encoder_model_2.text_model.encoder.layers.3.self_attn.v_proj.bias {noinline} = #stream.parameter.named<"model"::"text_encoder_model_2.text_model.encoder.layers.3.self_attn.v_proj.bias"> : tensor<1280xf16>
  util.global private @_params.text_encoder_model_2.text_model.encoder.layers.3.self_attn.q_proj.weight {noinline} = #stream.parameter.named<"model"::"text_encoder_model_2.text_model.encoder.layers.3.self_attn.q_proj.weight"> : tensor<1280x1280xf16>
  util.global private @_params.text_encoder_model_2.text_model.encoder.layers.3.self_attn.q_proj.bias {noinline} = #stream.parameter.named<"model"::"text_encoder_model_2.text_model.encoder.layers.3.self_attn.q_proj.bias"> : tensor<1280xf16>
  util.global private @_params.text_encoder_model_2.text_model.encoder.layers.3.self_attn.out_proj.weight {noinline} = #stream.parameter.named<"model"::"text_encoder_model_2.text_model.encoder.layers.3.self_attn.out_proj.weight"> : tensor<1280x1280xf16>
  util.global private @_params.text_encoder_model_2.text_model.encoder.layers.3.self_attn.out_proj.bias {noinline} = #stream.parameter.named<"model"::"text_encoder_model_2.text_model.encoder.layers.3.self_attn.out_proj.bias"> : tensor<1280xf16>
  util.global private @_params.text_encoder_model_2.text_model.encoder.layers.3.layer_norm1.weight {noinline} = #stream.parameter.named<"model"::"text_encoder_model_2.text_model.encoder.layers.3.layer_norm1.weight"> : tensor<1280xf16>
  util.global private @_params.text_encoder_model_2.text_model.encoder.layers.3.layer_norm1.bias {noinline} = #stream.parameter.named<"model"::"text_encoder_model_2.text_model.encoder.layers.3.layer_norm1.bias"> : tensor<1280xf16>
  util.global private @_params.text_encoder_model_2.text_model.encoder.layers.3.mlp.fc1.weight {noinline} = #stream.parameter.named<"model"::"text_encoder_model_2.text_model.encoder.layers.3.mlp.fc1.weight"> : tensor<5120x1280xf16>
  util.global private @_params.text_encoder_model_2.text_model.encoder.layers.3.mlp.fc1.bias {noinline} = #stream.parameter.named<"model"::"text_encoder_model_2.text_model.encoder.layers.3.mlp.fc1.bias"> : tensor<5120xf16>
  util.global private @_params.text_encoder_model_2.text_model.encoder.layers.3.mlp.fc2.weight {noinline} = #stream.parameter.named<"model"::"text_encoder_model_2.text_model.encoder.layers.3.mlp.fc2.weight"> : tensor<1280x5120xf16>
  util.global private @_params.text_encoder_model_2.text_model.encoder.layers.3.mlp.fc2.bias {noinline} = #stream.parameter.named<"model"::"text_encoder_model_2.text_model.encoder.layers.3.mlp.fc2.bias"> : tensor<1280xf16>
  util.global private @_params.text_encoder_model_2.text_model.encoder.layers.3.layer_norm2.weight {noinline} = #stream.parameter.named<"model"::"text_encoder_model_2.text_model.encoder.layers.3.layer_norm2.weight"> : tensor<1280xf16>
  util.global private @_params.text_encoder_model_2.text_model.encoder.layers.3.layer_norm2.bias {noinline} = #stream.parameter.named<"model"::"text_encoder_model_2.text_model.encoder.layers.3.layer_norm2.bias"> : tensor<1280xf16>
  util.global private @_params.text_encoder_model_2.text_model.encoder.layers.4.self_attn.k_proj.weight {noinline} = #stream.parameter.named<"model"::"text_encoder_model_2.text_model.encoder.layers.4.self_attn.k_proj.weight"> : tensor<1280x1280xf16>
  util.global private @_params.text_encoder_model_2.text_model.encoder.layers.4.self_attn.k_proj.bias {noinline} = #stream.parameter.named<"model"::"text_encoder_model_2.text_model.encoder.layers.4.self_attn.k_proj.bias"> : tensor<1280xf16>
  util.global private @_params.text_encoder_model_2.text_model.encoder.layers.4.self_attn.v_proj.weight {noinline} = #stream.parameter.named<"model"::"text_encoder_model_2.text_model.encoder.layers.4.self_attn.v_proj.weight"> : tensor<1280x1280xf16>
  util.global private @_params.text_encoder_model_2.text_model.encoder.layers.4.self_attn.v_proj.bias {noinline} = #stream.parameter.named<"model"::"text_encoder_model_2.text_model.encoder.layers.4.self_attn.v_proj.bias"> : tensor<1280xf16>
  util.global private @_params.text_encoder_model_2.text_model.encoder.layers.4.self_attn.q_proj.weight {noinline} = #stream.parameter.named<"model"::"text_encoder_model_2.text_model.encoder.layers.4.self_attn.q_proj.weight"> : tensor<1280x1280xf16>
  util.global private @_params.text_encoder_model_2.text_model.encoder.layers.4.self_attn.q_proj.bias {noinline} = #stream.parameter.named<"model"::"text_encoder_model_2.text_model.encoder.layers.4.self_attn.q_proj.bias"> : tensor<1280xf16>
  util.global private @_params.text_encoder_model_2.text_model.encoder.layers.4.self_attn.out_proj.weight {noinline} = #stream.parameter.named<"model"::"text_encoder_model_2.text_model.encoder.layers.4.self_attn.out_proj.weight"> : tensor<1280x1280xf16>
  util.global private @_params.text_encoder_model_2.text_model.encoder.layers.4.self_attn.out_proj.bias {noinline} = #stream.parameter.named<"model"::"text_encoder_model_2.text_model.encoder.layers.4.self_attn.out_proj.bias"> : tensor<1280xf16>
  util.global private @_params.text_encoder_model_2.text_model.encoder.layers.4.layer_norm1.weight {noinline} = #stream.parameter.named<"model"::"text_encoder_model_2.text_model.encoder.layers.4.layer_norm1.weight"> : tensor<1280xf16>
  util.global private @_params.text_encoder_model_2.text_model.encoder.layers.4.layer_norm1.bias {noinline} = #stream.parameter.named<"model"::"text_encoder_model_2.text_model.encoder.layers.4.layer_norm1.bias"> : tensor<1280xf16>
  util.global private @_params.text_encoder_model_2.text_model.encoder.layers.4.mlp.fc1.weight {noinline} = #stream.parameter.named<"model"::"text_encoder_model_2.text_model.encoder.layers.4.mlp.fc1.weight"> : tensor<5120x1280xf16>
  util.global private @_params.text_encoder_model_2.text_model.encoder.layers.4.mlp.fc1.bias {noinline} = #stream.parameter.named<"model"::"text_encoder_model_2.text_model.encoder.layers.4.mlp.fc1.bias"> : tensor<5120xf16>
  util.global private @_params.text_encoder_model_2.text_model.encoder.layers.4.mlp.fc2.weight {noinline} = #stream.parameter.named<"model"::"text_encoder_model_2.text_model.encoder.layers.4.mlp.fc2.weight"> : tensor<1280x5120xf16>
  util.global private @_params.text_encoder_model_2.text_model.encoder.layers.4.mlp.fc2.bias {noinline} = #stream.parameter.named<"model"::"text_encoder_model_2.text_model.encoder.layers.4.mlp.fc2.bias"> : tensor<1280xf16>
  util.global private @_params.text_encoder_model_2.text_model.encoder.layers.4.layer_norm2.weight {noinline} = #stream.parameter.named<"model"::"text_encoder_model_2.text_model.encoder.layers.4.layer_norm2.weight"> : tensor<1280xf16>
  util.global private @_params.text_encoder_model_2.text_model.encoder.layers.4.layer_norm2.bias {noinline} = #stream.parameter.named<"model"::"text_encoder_model_2.text_model.encoder.layers.4.layer_norm2.bias"> : tensor<1280xf16>
  util.global private @_params.text_encoder_model_2.text_model.encoder.layers.5.self_attn.k_proj.weight {noinline} = #stream.parameter.named<"model"::"text_encoder_model_2.text_model.encoder.layers.5.self_attn.k_proj.weight"> : tensor<1280x1280xf16>
  util.global private @_params.text_encoder_model_2.text_model.encoder.layers.5.self_attn.k_proj.bias {noinline} = #stream.parameter.named<"model"::"text_encoder_model_2.text_model.encoder.layers.5.self_attn.k_proj.bias"> : tensor<1280xf16>
  util.global private @_params.text_encoder_model_2.text_model.encoder.layers.5.self_attn.v_proj.weight {noinline} = #stream.parameter.named<"model"::"text_encoder_model_2.text_model.encoder.layers.5.self_attn.v_proj.weight"> : tensor<1280x1280xf16>
  util.global private @_params.text_encoder_model_2.text_model.encoder.layers.5.self_attn.v_proj.bias {noinline} = #stream.parameter.named<"model"::"text_encoder_model_2.text_model.encoder.layers.5.self_attn.v_proj.bias"> : tensor<1280xf16>
  util.global private @_params.text_encoder_model_2.text_model.encoder.layers.5.self_attn.q_proj.weight {noinline} = #stream.parameter.named<"model"::"text_encoder_model_2.text_model.encoder.layers.5.self_attn.q_proj.weight"> : tensor<1280x1280xf16>
  util.global private @_params.text_encoder_model_2.text_model.encoder.layers.5.self_attn.q_proj.bias {noinline} = #stream.parameter.named<"model"::"text_encoder_model_2.text_model.encoder.layers.5.self_attn.q_proj.bias"> : tensor<1280xf16>
  util.global private @_params.text_encoder_model_2.text_model.encoder.layers.5.self_attn.out_proj.weight {noinline} = #stream.parameter.named<"model"::"text_encoder_model_2.text_model.encoder.layers.5.self_attn.out_proj.weight"> : tensor<1280x1280xf16>
  util.global private @_params.text_encoder_model_2.text_model.encoder.layers.5.self_attn.out_proj.bias {noinline} = #stream.parameter.named<"model"::"text_encoder_model_2.text_model.encoder.layers.5.self_attn.out_proj.bias"> : tensor<1280xf16>
  util.global private @_params.text_encoder_model_2.text_model.encoder.layers.5.layer_norm1.weight {noinline} = #stream.parameter.named<"model"::"text_encoder_model_2.text_model.encoder.layers.5.layer_norm1.weight"> : tensor<1280xf16>
  util.global private @_params.text_encoder_model_2.text_model.encoder.layers.5.layer_norm1.bias {noinline} = #stream.parameter.named<"model"::"text_encoder_model_2.text_model.encoder.layers.5.layer_norm1.bias"> : tensor<1280xf16>
  util.global private @_params.text_encoder_model_2.text_model.encoder.layers.5.mlp.fc1.weight {noinline} = #stream.parameter.named<"model"::"text_encoder_model_2.text_model.encoder.layers.5.mlp.fc1.weight"> : tensor<5120x1280xf16>
  util.global private @_params.text_encoder_model_2.text_model.encoder.layers.5.mlp.fc1.bias {noinline} = #stream.parameter.named<"model"::"text_encoder_model_2.text_model.encoder.layers.5.mlp.fc1.bias"> : tensor<5120xf16>
  util.global private @_params.text_encoder_model_2.text_model.encoder.layers.5.mlp.fc2.weight {noinline} = #stream.parameter.named<"model"::"text_encoder_model_2.text_model.encoder.layers.5.mlp.fc2.weight"> : tensor<1280x5120xf16>
  util.global private @_params.text_encoder_model_2.text_model.encoder.layers.5.mlp.fc2.bias {noinline} = #stream.parameter.named<"model"::"text_encoder_model_2.text_model.encoder.layers.5.mlp.fc2.bias"> : tensor<1280xf16>
  util.global private @_params.text_encoder_model_2.text_model.encoder.layers.5.layer_norm2.weight {noinline} = #stream.parameter.named<"model"::"text_encoder_model_2.text_model.encoder.layers.5.layer_norm2.weight"> : tensor<1280xf16>
  util.global private @_params.text_encoder_model_2.text_model.encoder.layers.5.layer_norm2.bias {noinline} = #stream.parameter.named<"model"::"text_encoder_model_2.text_model.encoder.layers.5.layer_norm2.bias"> : tensor<1280xf16>
  util.global private @_params.text_encoder_model_2.text_model.encoder.layers.6.self_attn.k_proj.weight {noinline} = #stream.parameter.named<"model"::"text_encoder_model_2.text_model.encoder.layers.6.self_attn.k_proj.weight"> : tensor<1280x1280xf16>
  util.global private @_params.text_encoder_model_2.text_model.encoder.layers.6.self_attn.k_proj.bias {noinline} = #stream.parameter.named<"model"::"text_encoder_model_2.text_model.encoder.layers.6.self_attn.k_proj.bias"> : tensor<1280xf16>
  util.global private @_params.text_encoder_model_2.text_model.encoder.layers.6.self_attn.v_proj.weight {noinline} = #stream.parameter.named<"model"::"text_encoder_model_2.text_model.encoder.layers.6.self_attn.v_proj.weight"> : tensor<1280x1280xf16>
  util.global private @_params.text_encoder_model_2.text_model.encoder.layers.6.self_attn.v_proj.bias {noinline} = #stream.parameter.named<"model"::"text_encoder_model_2.text_model.encoder.layers.6.self_attn.v_proj.bias"> : tensor<1280xf16>
  util.global private @_params.text_encoder_model_2.text_model.encoder.layers.6.self_attn.q_proj.weight {noinline} = #stream.parameter.named<"model"::"text_encoder_model_2.text_model.encoder.layers.6.self_attn.q_proj.weight"> : tensor<1280x1280xf16>
  util.global private @_params.text_encoder_model_2.text_model.encoder.layers.6.self_attn.q_proj.bias {noinline} = #stream.parameter.named<"model"::"text_encoder_model_2.text_model.encoder.layers.6.self_attn.q_proj.bias"> : tensor<1280xf16>
  util.global private @_params.text_encoder_model_2.text_model.encoder.layers.6.self_attn.out_proj.weight {noinline} = #stream.parameter.named<"model"::"text_encoder_model_2.text_model.encoder.layers.6.self_attn.out_proj.weight"> : tensor<1280x1280xf16>
  util.global private @_params.text_encoder_model_2.text_model.encoder.layers.6.self_attn.out_proj.bias {noinline} = #stream.parameter.named<"model"::"text_encoder_model_2.text_model.encoder.layers.6.self_attn.out_proj.bias"> : tensor<1280xf16>
  util.global private @_params.text_encoder_model_2.text_model.encoder.layers.6.layer_norm1.weight {noinline} = #stream.parameter.named<"model"::"text_encoder_model_2.text_model.encoder.layers.6.layer_norm1.weight"> : tensor<1280xf16>
  util.global private @_params.text_encoder_model_2.text_model.encoder.layers.6.layer_norm1.bias {noinline} = #stream.parameter.named<"model"::"text_encoder_model_2.text_model.encoder.layers.6.layer_norm1.bias"> : tensor<1280xf16>
  util.global private @_params.text_encoder_model_2.text_model.encoder.layers.6.mlp.fc1.weight {noinline} = #stream.parameter.named<"model"::"text_encoder_model_2.text_model.encoder.layers.6.mlp.fc1.weight"> : tensor<5120x1280xf16>
  util.global private @_params.text_encoder_model_2.text_model.encoder.layers.6.mlp.fc1.bias {noinline} = #stream.parameter.named<"model"::"text_encoder_model_2.text_model.encoder.layers.6.mlp.fc1.bias"> : tensor<5120xf16>
  util.global private @_params.text_encoder_model_2.text_model.encoder.layers.6.mlp.fc2.weight {noinline} = #stream.parameter.named<"model"::"text_encoder_model_2.text_model.encoder.layers.6.mlp.fc2.weight"> : tensor<1280x5120xf16>
  util.global private @_params.text_encoder_model_2.text_model.encoder.layers.6.mlp.fc2.bias {noinline} = #stream.parameter.named<"model"::"text_encoder_model_2.text_model.encoder.layers.6.mlp.fc2.bias"> : tensor<1280xf16>
  util.global private @_params.text_encoder_model_2.text_model.encoder.layers.6.layer_norm2.weight {noinline} = #stream.parameter.named<"model"::"text_encoder_model_2.text_model.encoder.layers.6.layer_norm2.weight"> : tensor<1280xf16>
  util.global private @_params.text_encoder_model_2.text_model.encoder.layers.6.layer_norm2.bias {noinline} = #stream.parameter.named<"model"::"text_encoder_model_2.text_model.encoder.layers.6.layer_norm2.bias"> : tensor<1280xf16>
  util.global private @_params.text_encoder_model_2.text_model.encoder.layers.7.self_attn.k_proj.weight {noinline} = #stream.parameter.named<"model"::"text_encoder_model_2.text_model.encoder.layers.7.self_attn.k_proj.weight"> : tensor<1280x1280xf16>
  util.global private @_params.text_encoder_model_2.text_model.encoder.layers.7.self_attn.k_proj.bias {noinline} = #stream.parameter.named<"model"::"text_encoder_model_2.text_model.encoder.layers.7.self_attn.k_proj.bias"> : tensor<1280xf16>
  util.global private @_params.text_encoder_model_2.text_model.encoder.layers.7.self_attn.v_proj.weight {noinline} = #stream.parameter.named<"model"::"text_encoder_model_2.text_model.encoder.layers.7.self_attn.v_proj.weight"> : tensor<1280x1280xf16>
  util.global private @_params.text_encoder_model_2.text_model.encoder.layers.7.self_attn.v_proj.bias {noinline} = #stream.parameter.named<"model"::"text_encoder_model_2.text_model.encoder.layers.7.self_attn.v_proj.bias"> : tensor<1280xf16>
  util.global private @_params.text_encoder_model_2.text_model.encoder.layers.7.self_attn.q_proj.weight {noinline} = #stream.parameter.named<"model"::"text_encoder_model_2.text_model.encoder.layers.7.self_attn.q_proj.weight"> : tensor<1280x1280xf16>
  util.global private @_params.text_encoder_model_2.text_model.encoder.layers.7.self_attn.q_proj.bias {noinline} = #stream.parameter.named<"model"::"text_encoder_model_2.text_model.encoder.layers.7.self_attn.q_proj.bias"> : tensor<1280xf16>
  util.global private @_params.text_encoder_model_2.text_model.encoder.layers.7.self_attn.out_proj.weight {noinline} = #stream.parameter.named<"model"::"text_encoder_model_2.text_model.encoder.layers.7.self_attn.out_proj.weight"> : tensor<1280x1280xf16>
  util.global private @_params.text_encoder_model_2.text_model.encoder.layers.7.self_attn.out_proj.bias {noinline} = #stream.parameter.named<"model"::"text_encoder_model_2.text_model.encoder.layers.7.self_attn.out_proj.bias"> : tensor<1280xf16>
  util.global private @_params.text_encoder_model_2.text_model.encoder.layers.7.layer_norm1.weight {noinline} = #stream.parameter.named<"model"::"text_encoder_model_2.text_model.encoder.layers.7.layer_norm1.weight"> : tensor<1280xf16>
  util.global private @_params.text_encoder_model_2.text_model.encoder.layers.7.layer_norm1.bias {noinline} = #stream.parameter.named<"model"::"text_encoder_model_2.text_model.encoder.layers.7.layer_norm1.bias"> : tensor<1280xf16>
  util.global private @_params.text_encoder_model_2.text_model.encoder.layers.7.mlp.fc1.weight {noinline} = #stream.parameter.named<"model"::"text_encoder_model_2.text_model.encoder.layers.7.mlp.fc1.weight"> : tensor<5120x1280xf16>
  util.global private @_params.text_encoder_model_2.text_model.encoder.layers.7.mlp.fc1.bias {noinline} = #stream.parameter.named<"model"::"text_encoder_model_2.text_model.encoder.layers.7.mlp.fc1.bias"> : tensor<5120xf16>
  util.global private @_params.text_encoder_model_2.text_model.encoder.layers.7.mlp.fc2.weight {noinline} = #stream.parameter.named<"model"::"text_encoder_model_2.text_model.encoder.layers.7.mlp.fc2.weight"> : tensor<1280x5120xf16>
  util.global private @_params.text_encoder_model_2.text_model.encoder.layers.7.mlp.fc2.bias {noinline} = #stream.parameter.named<"model"::"text_encoder_model_2.text_model.encoder.layers.7.mlp.fc2.bias"> : tensor<1280xf16>
  util.global private @_params.text_encoder_model_2.text_model.encoder.layers.7.layer_norm2.weight {noinline} = #stream.parameter.named<"model"::"text_encoder_model_2.text_model.encoder.layers.7.layer_norm2.weight"> : tensor<1280xf16>
  util.global private @_params.text_encoder_model_2.text_model.encoder.layers.7.layer_norm2.bias {noinline} = #stream.parameter.named<"model"::"text_encoder_model_2.text_model.encoder.layers.7.layer_norm2.bias"> : tensor<1280xf16>
  util.global private @_params.text_encoder_model_2.text_model.encoder.layers.8.self_attn.k_proj.weight {noinline} = #stream.parameter.named<"model"::"text_encoder_model_2.text_model.encoder.layers.8.self_attn.k_proj.weight"> : tensor<1280x1280xf16>
  util.global private @_params.text_encoder_model_2.text_model.encoder.layers.8.self_attn.k_proj.bias {noinline} = #stream.parameter.named<"model"::"text_encoder_model_2.text_model.encoder.layers.8.self_attn.k_proj.bias"> : tensor<1280xf16>
  util.global private @_params.text_encoder_model_2.text_model.encoder.layers.8.self_attn.v_proj.weight {noinline} = #stream.parameter.named<"model"::"text_encoder_model_2.text_model.encoder.layers.8.self_attn.v_proj.weight"> : tensor<1280x1280xf16>
  util.global private @_params.text_encoder_model_2.text_model.encoder.layers.8.self_attn.v_proj.bias {noinline} = #stream.parameter.named<"model"::"text_encoder_model_2.text_model.encoder.layers.8.self_attn.v_proj.bias"> : tensor<1280xf16>
  util.global private @_params.text_encoder_model_2.text_model.encoder.layers.8.self_attn.q_proj.weight {noinline} = #stream.parameter.named<"model"::"text_encoder_model_2.text_model.encoder.layers.8.self_attn.q_proj.weight"> : tensor<1280x1280xf16>
  util.global private @_params.text_encoder_model_2.text_model.encoder.layers.8.self_attn.q_proj.bias {noinline} = #stream.parameter.named<"model"::"text_encoder_model_2.text_model.encoder.layers.8.self_attn.q_proj.bias"> : tensor<1280xf16>
  util.global private @_params.text_encoder_model_2.text_model.encoder.layers.8.self_attn.out_proj.weight {noinline} = #stream.parameter.named<"model"::"text_encoder_model_2.text_model.encoder.layers.8.self_attn.out_proj.weight"> : tensor<1280x1280xf16>
  util.global private @_params.text_encoder_model_2.text_model.encoder.layers.8.self_attn.out_proj.bias {noinline} = #stream.parameter.named<"model"::"text_encoder_model_2.text_model.encoder.layers.8.self_attn.out_proj.bias"> : tensor<1280xf16>
  util.global private @_params.text_encoder_model_2.text_model.encoder.layers.8.layer_norm1.weight {noinline} = #stream.parameter.named<"model"::"text_encoder_model_2.text_model.encoder.layers.8.layer_norm1.weight"> : tensor<1280xf16>
  util.global private @_params.text_encoder_model_2.text_model.encoder.layers.8.layer_norm1.bias {noinline} = #stream.parameter.named<"model"::"text_encoder_model_2.text_model.encoder.layers.8.layer_norm1.bias"> : tensor<1280xf16>
  util.global private @_params.text_encoder_model_2.text_model.encoder.layers.8.mlp.fc1.weight {noinline} = #stream.parameter.named<"model"::"text_encoder_model_2.text_model.encoder.layers.8.mlp.fc1.weight"> : tensor<5120x1280xf16>
  util.global private @_params.text_encoder_model_2.text_model.encoder.layers.8.mlp.fc1.bias {noinline} = #stream.parameter.named<"model"::"text_encoder_model_2.text_model.encoder.layers.8.mlp.fc1.bias"> : tensor<5120xf16>
  util.global private @_params.text_encoder_model_2.text_model.encoder.layers.8.mlp.fc2.weight {noinline} = #stream.parameter.named<"model"::"text_encoder_model_2.text_model.encoder.layers.8.mlp.fc2.weight"> : tensor<1280x5120xf16>
  util.global private @_params.text_encoder_model_2.text_model.encoder.layers.8.mlp.fc2.bias {noinline} = #stream.parameter.named<"model"::"text_encoder_model_2.text_model.encoder.layers.8.mlp.fc2.bias"> : tensor<1280xf16>
  util.global private @_params.text_encoder_model_2.text_model.encoder.layers.8.layer_norm2.weight {noinline} = #stream.parameter.named<"model"::"text_encoder_model_2.text_model.encoder.layers.8.layer_norm2.weight"> : tensor<1280xf16>
  util.global private @_params.text_encoder_model_2.text_model.encoder.layers.8.layer_norm2.bias {noinline} = #stream.parameter.named<"model"::"text_encoder_model_2.text_model.encoder.layers.8.layer_norm2.bias"> : tensor<1280xf16>
  util.global private @_params.text_encoder_model_2.text_model.encoder.layers.9.self_attn.k_proj.weight {noinline} = #stream.parameter.named<"model"::"text_encoder_model_2.text_model.encoder.layers.9.self_attn.k_proj.weight"> : tensor<1280x1280xf16>
  util.global private @_params.text_encoder_model_2.text_model.encoder.layers.9.self_attn.k_proj.bias {noinline} = #stream.parameter.named<"model"::"text_encoder_model_2.text_model.encoder.layers.9.self_attn.k_proj.bias"> : tensor<1280xf16>
  util.global private @_params.text_encoder_model_2.text_model.encoder.layers.9.self_attn.v_proj.weight {noinline} = #stream.parameter.named<"model"::"text_encoder_model_2.text_model.encoder.layers.9.self_attn.v_proj.weight"> : tensor<1280x1280xf16>
  util.global private @_params.text_encoder_model_2.text_model.encoder.layers.9.self_attn.v_proj.bias {noinline} = #stream.parameter.named<"model"::"text_encoder_model_2.text_model.encoder.layers.9.self_attn.v_proj.bias"> : tensor<1280xf16>
  util.global private @_params.text_encoder_model_2.text_model.encoder.layers.9.self_attn.q_proj.weight {noinline} = #stream.parameter.named<"model"::"text_encoder_model_2.text_model.encoder.layers.9.self_attn.q_proj.weight"> : tensor<1280x1280xf16>
  util.global private @_params.text_encoder_model_2.text_model.encoder.layers.9.self_attn.q_proj.bias {noinline} = #stream.parameter.named<"model"::"text_encoder_model_2.text_model.encoder.layers.9.self_attn.q_proj.bias"> : tensor<1280xf16>
  util.global private @_params.text_encoder_model_2.text_model.encoder.layers.9.self_attn.out_proj.weight {noinline} = #stream.parameter.named<"model"::"text_encoder_model_2.text_model.encoder.layers.9.self_attn.out_proj.weight"> : tensor<1280x1280xf16>
  util.global private @_params.text_encoder_model_2.text_model.encoder.layers.9.self_attn.out_proj.bias {noinline} = #stream.parameter.named<"model"::"text_encoder_model_2.text_model.encoder.layers.9.self_attn.out_proj.bias"> : tensor<1280xf16>
  util.global private @_params.text_encoder_model_2.text_model.encoder.layers.9.layer_norm1.weight {noinline} = #stream.parameter.named<"model"::"text_encoder_model_2.text_model.encoder.layers.9.layer_norm1.weight"> : tensor<1280xf16>
  util.global private @_params.text_encoder_model_2.text_model.encoder.layers.9.layer_norm1.bias {noinline} = #stream.parameter.named<"model"::"text_encoder_model_2.text_model.encoder.layers.9.layer_norm1.bias"> : tensor<1280xf16>
  util.global private @_params.text_encoder_model_2.text_model.encoder.layers.9.mlp.fc1.weight {noinline} = #stream.parameter.named<"model"::"text_encoder_model_2.text_model.encoder.layers.9.mlp.fc1.weight"> : tensor<5120x1280xf16>
  util.global private @_params.text_encoder_model_2.text_model.encoder.layers.9.mlp.fc1.bias {noinline} = #stream.parameter.named<"model"::"text_encoder_model_2.text_model.encoder.layers.9.mlp.fc1.bias"> : tensor<5120xf16>
  util.global private @_params.text_encoder_model_2.text_model.encoder.layers.9.mlp.fc2.weight {noinline} = #stream.parameter.named<"model"::"text_encoder_model_2.text_model.encoder.layers.9.mlp.fc2.weight"> : tensor<1280x5120xf16>
  util.global private @_params.text_encoder_model_2.text_model.encoder.layers.9.mlp.fc2.bias {noinline} = #stream.parameter.named<"model"::"text_encoder_model_2.text_model.encoder.layers.9.mlp.fc2.bias"> : tensor<1280xf16>
  util.global private @_params.text_encoder_model_2.text_model.encoder.layers.9.layer_norm2.weight {noinline} = #stream.parameter.named<"model"::"text_encoder_model_2.text_model.encoder.layers.9.layer_norm2.weight"> : tensor<1280xf16>
  util.global private @_params.text_encoder_model_2.text_model.encoder.layers.9.layer_norm2.bias {noinline} = #stream.parameter.named<"model"::"text_encoder_model_2.text_model.encoder.layers.9.layer_norm2.bias"> : tensor<1280xf16>
  util.global private @_params.text_encoder_model_2.text_model.encoder.layers.10.self_attn.k_proj.weight {noinline} = #stream.parameter.named<"model"::"text_encoder_model_2.text_model.encoder.layers.10.self_attn.k_proj.weight"> : tensor<1280x1280xf16>
  util.global private @_params.text_encoder_model_2.text_model.encoder.layers.10.self_attn.k_proj.bias {noinline} = #stream.parameter.named<"model"::"text_encoder_model_2.text_model.encoder.layers.10.self_attn.k_proj.bias"> : tensor<1280xf16>
  util.global private @_params.text_encoder_model_2.text_model.encoder.layers.10.self_attn.v_proj.weight {noinline} = #stream.parameter.named<"model"::"text_encoder_model_2.text_model.encoder.layers.10.self_attn.v_proj.weight"> : tensor<1280x1280xf16>
  util.global private @_params.text_encoder_model_2.text_model.encoder.layers.10.self_attn.v_proj.bias {noinline} = #stream.parameter.named<"model"::"text_encoder_model_2.text_model.encoder.layers.10.self_attn.v_proj.bias"> : tensor<1280xf16>
  util.global private @_params.text_encoder_model_2.text_model.encoder.layers.10.self_attn.q_proj.weight {noinline} = #stream.parameter.named<"model"::"text_encoder_model_2.text_model.encoder.layers.10.self_attn.q_proj.weight"> : tensor<1280x1280xf16>
  util.global private @_params.text_encoder_model_2.text_model.encoder.layers.10.self_attn.q_proj.bias {noinline} = #stream.parameter.named<"model"::"text_encoder_model_2.text_model.encoder.layers.10.self_attn.q_proj.bias"> : tensor<1280xf16>
  util.global private @_params.text_encoder_model_2.text_model.encoder.layers.10.self_attn.out_proj.weight {noinline} = #stream.parameter.named<"model"::"text_encoder_model_2.text_model.encoder.layers.10.self_attn.out_proj.weight"> : tensor<1280x1280xf16>
  util.global private @_params.text_encoder_model_2.text_model.encoder.layers.10.self_attn.out_proj.bias {noinline} = #stream.parameter.named<"model"::"text_encoder_model_2.text_model.encoder.layers.10.self_attn.out_proj.bias"> : tensor<1280xf16>
  util.global private @_params.text_encoder_model_2.text_model.encoder.layers.10.layer_norm1.weight {noinline} = #stream.parameter.named<"model"::"text_encoder_model_2.text_model.encoder.layers.10.layer_norm1.weight"> : tensor<1280xf16>
  util.global private @_params.text_encoder_model_2.text_model.encoder.layers.10.layer_norm1.bias {noinline} = #stream.parameter.named<"model"::"text_encoder_model_2.text_model.encoder.layers.10.layer_norm1.bias"> : tensor<1280xf16>
  util.global private @_params.text_encoder_model_2.text_model.encoder.layers.10.mlp.fc1.weight {noinline} = #stream.parameter.named<"model"::"text_encoder_model_2.text_model.encoder.layers.10.mlp.fc1.weight"> : tensor<5120x1280xf16>
  util.global private @_params.text_encoder_model_2.text_model.encoder.layers.10.mlp.fc1.bias {noinline} = #stream.parameter.named<"model"::"text_encoder_model_2.text_model.encoder.layers.10.mlp.fc1.bias"> : tensor<5120xf16>
  util.global private @_params.text_encoder_model_2.text_model.encoder.layers.10.mlp.fc2.weight {noinline} = #stream.parameter.named<"model"::"text_encoder_model_2.text_model.encoder.layers.10.mlp.fc2.weight"> : tensor<1280x5120xf16>
  util.global private @_params.text_encoder_model_2.text_model.encoder.layers.10.mlp.fc2.bias {noinline} = #stream.parameter.named<"model"::"text_encoder_model_2.text_model.encoder.layers.10.mlp.fc2.bias"> : tensor<1280xf16>
  util.global private @_params.text_encoder_model_2.text_model.encoder.layers.10.layer_norm2.weight {noinline} = #stream.parameter.named<"model"::"text_encoder_model_2.text_model.encoder.layers.10.layer_norm2.weight"> : tensor<1280xf16>
  util.global private @_params.text_encoder_model_2.text_model.encoder.layers.10.layer_norm2.bias {noinline} = #stream.parameter.named<"model"::"text_encoder_model_2.text_model.encoder.layers.10.layer_norm2.bias"> : tensor<1280xf16>
  util.global private @_params.text_encoder_model_2.text_model.encoder.layers.11.self_attn.k_proj.weight {noinline} = #stream.parameter.named<"model"::"text_encoder_model_2.text_model.encoder.layers.11.self_attn.k_proj.weight"> : tensor<1280x1280xf16>
  util.global private @_params.text_encoder_model_2.text_model.encoder.layers.11.self_attn.k_proj.bias {noinline} = #stream.parameter.named<"model"::"text_encoder_model_2.text_model.encoder.layers.11.self_attn.k_proj.bias"> : tensor<1280xf16>
  util.global private @_params.text_encoder_model_2.text_model.encoder.layers.11.self_attn.v_proj.weight {noinline} = #stream.parameter.named<"model"::"text_encoder_model_2.text_model.encoder.layers.11.self_attn.v_proj.weight"> : tensor<1280x1280xf16>
  util.global private @_params.text_encoder_model_2.text_model.encoder.layers.11.self_attn.v_proj.bias {noinline} = #stream.parameter.named<"model"::"text_encoder_model_2.text_model.encoder.layers.11.self_attn.v_proj.bias"> : tensor<1280xf16>
  util.global private @_params.text_encoder_model_2.text_model.encoder.layers.11.self_attn.q_proj.weight {noinline} = #stream.parameter.named<"model"::"text_encoder_model_2.text_model.encoder.layers.11.self_attn.q_proj.weight"> : tensor<1280x1280xf16>
  util.global private @_params.text_encoder_model_2.text_model.encoder.layers.11.self_attn.q_proj.bias {noinline} = #stream.parameter.named<"model"::"text_encoder_model_2.text_model.encoder.layers.11.self_attn.q_proj.bias"> : tensor<1280xf16>
  util.global private @_params.text_encoder_model_2.text_model.encoder.layers.11.self_attn.out_proj.weight {noinline} = #stream.parameter.named<"model"::"text_encoder_model_2.text_model.encoder.layers.11.self_attn.out_proj.weight"> : tensor<1280x1280xf16>
  util.global private @_params.text_encoder_model_2.text_model.encoder.layers.11.self_attn.out_proj.bias {noinline} = #stream.parameter.named<"model"::"text_encoder_model_2.text_model.encoder.layers.11.self_attn.out_proj.bias"> : tensor<1280xf16>
  util.global private @_params.text_encoder_model_2.text_model.encoder.layers.11.layer_norm1.weight {noinline} = #stream.parameter.named<"model"::"text_encoder_model_2.text_model.encoder.layers.11.layer_norm1.weight"> : tensor<1280xf16>
  util.global private @_params.text_encoder_model_2.text_model.encoder.layers.11.layer_norm1.bias {noinline} = #stream.parameter.named<"model"::"text_encoder_model_2.text_model.encoder.layers.11.layer_norm1.bias"> : tensor<1280xf16>
  util.global private @_params.text_encoder_model_2.text_model.encoder.layers.11.mlp.fc1.weight {noinline} = #stream.parameter.named<"model"::"text_encoder_model_2.text_model.encoder.layers.11.mlp.fc1.weight"> : tensor<5120x1280xf16>
  util.global private @_params.text_encoder_model_2.text_model.encoder.layers.11.mlp.fc1.bias {noinline} = #stream.parameter.named<"model"::"text_encoder_model_2.text_model.encoder.layers.11.mlp.fc1.bias"> : tensor<5120xf16>
  util.global private @_params.text_encoder_model_2.text_model.encoder.layers.11.mlp.fc2.weight {noinline} = #stream.parameter.named<"model"::"text_encoder_model_2.text_model.encoder.layers.11.mlp.fc2.weight"> : tensor<1280x5120xf16>
  util.global private @_params.text_encoder_model_2.text_model.encoder.layers.11.mlp.fc2.bias {noinline} = #stream.parameter.named<"model"::"text_encoder_model_2.text_model.encoder.layers.11.mlp.fc2.bias"> : tensor<1280xf16>
  util.global private @_params.text_encoder_model_2.text_model.encoder.layers.11.layer_norm2.weight {noinline} = #stream.parameter.named<"model"::"text_encoder_model_2.text_model.encoder.layers.11.layer_norm2.weight"> : tensor<1280xf16>
  util.global private @_params.text_encoder_model_2.text_model.encoder.layers.11.layer_norm2.bias {noinline} = #stream.parameter.named<"model"::"text_encoder_model_2.text_model.encoder.layers.11.layer_norm2.bias"> : tensor<1280xf16>
  util.global private @_params.text_encoder_model_2.text_model.encoder.layers.12.self_attn.k_proj.weight {noinline} = #stream.parameter.named<"model"::"text_encoder_model_2.text_model.encoder.layers.12.self_attn.k_proj.weight"> : tensor<1280x1280xf16>
  util.global private @_params.text_encoder_model_2.text_model.encoder.layers.12.self_attn.k_proj.bias {noinline} = #stream.parameter.named<"model"::"text_encoder_model_2.text_model.encoder.layers.12.self_attn.k_proj.bias"> : tensor<1280xf16>
  util.global private @_params.text_encoder_model_2.text_model.encoder.layers.12.self_attn.v_proj.weight {noinline} = #stream.parameter.named<"model"::"text_encoder_model_2.text_model.encoder.layers.12.self_attn.v_proj.weight"> : tensor<1280x1280xf16>
  util.global private @_params.text_encoder_model_2.text_model.encoder.layers.12.self_attn.v_proj.bias {noinline} = #stream.parameter.named<"model"::"text_encoder_model_2.text_model.encoder.layers.12.self_attn.v_proj.bias"> : tensor<1280xf16>
  util.global private @_params.text_encoder_model_2.text_model.encoder.layers.12.self_attn.q_proj.weight {noinline} = #stream.parameter.named<"model"::"text_encoder_model_2.text_model.encoder.layers.12.self_attn.q_proj.weight"> : tensor<1280x1280xf16>
  util.global private @_params.text_encoder_model_2.text_model.encoder.layers.12.self_attn.q_proj.bias {noinline} = #stream.parameter.named<"model"::"text_encoder_model_2.text_model.encoder.layers.12.self_attn.q_proj.bias"> : tensor<1280xf16>
  util.global private @_params.text_encoder_model_2.text_model.encoder.layers.12.self_attn.out_proj.weight {noinline} = #stream.parameter.named<"model"::"text_encoder_model_2.text_model.encoder.layers.12.self_attn.out_proj.weight"> : tensor<1280x1280xf16>
  util.global private @_params.text_encoder_model_2.text_model.encoder.layers.12.self_attn.out_proj.bias {noinline} = #stream.parameter.named<"model"::"text_encoder_model_2.text_model.encoder.layers.12.self_attn.out_proj.bias"> : tensor<1280xf16>
  util.global private @_params.text_encoder_model_2.text_model.encoder.layers.12.layer_norm1.weight {noinline} = #stream.parameter.named<"model"::"text_encoder_model_2.text_model.encoder.layers.12.layer_norm1.weight"> : tensor<1280xf16>
  util.global private @_params.text_encoder_model_2.text_model.encoder.layers.12.layer_norm1.bias {noinline} = #stream.parameter.named<"model"::"text_encoder_model_2.text_model.encoder.layers.12.layer_norm1.bias"> : tensor<1280xf16>
  util.global private @_params.text_encoder_model_2.text_model.encoder.layers.12.mlp.fc1.weight {noinline} = #stream.parameter.named<"model"::"text_encoder_model_2.text_model.encoder.layers.12.mlp.fc1.weight"> : tensor<5120x1280xf16>
  util.global private @_params.text_encoder_model_2.text_model.encoder.layers.12.mlp.fc1.bias {noinline} = #stream.parameter.named<"model"::"text_encoder_model_2.text_model.encoder.layers.12.mlp.fc1.bias"> : tensor<5120xf16>
  util.global private @_params.text_encoder_model_2.text_model.encoder.layers.12.mlp.fc2.weight {noinline} = #stream.parameter.named<"model"::"text_encoder_model_2.text_model.encoder.layers.12.mlp.fc2.weight"> : tensor<1280x5120xf16>
  util.global private @_params.text_encoder_model_2.text_model.encoder.layers.12.mlp.fc2.bias {noinline} = #stream.parameter.named<"model"::"text_encoder_model_2.text_model.encoder.layers.12.mlp.fc2.bias"> : tensor<1280xf16>
  util.global private @_params.text_encoder_model_2.text_model.encoder.layers.12.layer_norm2.weight {noinline} = #stream.parameter.named<"model"::"text_encoder_model_2.text_model.encoder.layers.12.layer_norm2.weight"> : tensor<1280xf16>
  util.global private @_params.text_encoder_model_2.text_model.encoder.layers.12.layer_norm2.bias {noinline} = #stream.parameter.named<"model"::"text_encoder_model_2.text_model.encoder.layers.12.layer_norm2.bias"> : tensor<1280xf16>
  util.global private @_params.text_encoder_model_2.text_model.encoder.layers.13.self_attn.k_proj.weight {noinline} = #stream.parameter.named<"model"::"text_encoder_model_2.text_model.encoder.layers.13.self_attn.k_proj.weight"> : tensor<1280x1280xf16>
  util.global private @_params.text_encoder_model_2.text_model.encoder.layers.13.self_attn.k_proj.bias {noinline} = #stream.parameter.named<"model"::"text_encoder_model_2.text_model.encoder.layers.13.self_attn.k_proj.bias"> : tensor<1280xf16>
  util.global private @_params.text_encoder_model_2.text_model.encoder.layers.13.self_attn.v_proj.weight {noinline} = #stream.parameter.named<"model"::"text_encoder_model_2.text_model.encoder.layers.13.self_attn.v_proj.weight"> : tensor<1280x1280xf16>
  util.global private @_params.text_encoder_model_2.text_model.encoder.layers.13.self_attn.v_proj.bias {noinline} = #stream.parameter.named<"model"::"text_encoder_model_2.text_model.encoder.layers.13.self_attn.v_proj.bias"> : tensor<1280xf16>
  util.global private @_params.text_encoder_model_2.text_model.encoder.layers.13.self_attn.q_proj.weight {noinline} = #stream.parameter.named<"model"::"text_encoder_model_2.text_model.encoder.layers.13.self_attn.q_proj.weight"> : tensor<1280x1280xf16>
  util.global private @_params.text_encoder_model_2.text_model.encoder.layers.13.self_attn.q_proj.bias {noinline} = #stream.parameter.named<"model"::"text_encoder_model_2.text_model.encoder.layers.13.self_attn.q_proj.bias"> : tensor<1280xf16>
  util.global private @_params.text_encoder_model_2.text_model.encoder.layers.13.self_attn.out_proj.weight {noinline} = #stream.parameter.named<"model"::"text_encoder_model_2.text_model.encoder.layers.13.self_attn.out_proj.weight"> : tensor<1280x1280xf16>
  util.global private @_params.text_encoder_model_2.text_model.encoder.layers.13.self_attn.out_proj.bias {noinline} = #stream.parameter.named<"model"::"text_encoder_model_2.text_model.encoder.layers.13.self_attn.out_proj.bias"> : tensor<1280xf16>
  util.global private @_params.text_encoder_model_2.text_model.encoder.layers.13.layer_norm1.weight {noinline} = #stream.parameter.named<"model"::"text_encoder_model_2.text_model.encoder.layers.13.layer_norm1.weight"> : tensor<1280xf16>
  util.global private @_params.text_encoder_model_2.text_model.encoder.layers.13.layer_norm1.bias {noinline} = #stream.parameter.named<"model"::"text_encoder_model_2.text_model.encoder.layers.13.layer_norm1.bias"> : tensor<1280xf16>
  util.global private @_params.text_encoder_model_2.text_model.encoder.layers.13.mlp.fc1.weight {noinline} = #stream.parameter.named<"model"::"text_encoder_model_2.text_model.encoder.layers.13.mlp.fc1.weight"> : tensor<5120x1280xf16>
  util.global private @_params.text_encoder_model_2.text_model.encoder.layers.13.mlp.fc1.bias {noinline} = #stream.parameter.named<"model"::"text_encoder_model_2.text_model.encoder.layers.13.mlp.fc1.bias"> : tensor<5120xf16>
  util.global private @_params.text_encoder_model_2.text_model.encoder.layers.13.mlp.fc2.weight {noinline} = #stream.parameter.named<"model"::"text_encoder_model_2.text_model.encoder.layers.13.mlp.fc2.weight"> : tensor<1280x5120xf16>
  util.global private @_params.text_encoder_model_2.text_model.encoder.layers.13.mlp.fc2.bias {noinline} = #stream.parameter.named<"model"::"text_encoder_model_2.text_model.encoder.layers.13.mlp.fc2.bias"> : tensor<1280xf16>
  util.global private @_params.text_encoder_model_2.text_model.encoder.layers.13.layer_norm2.weight {noinline} = #stream.parameter.named<"model"::"text_encoder_model_2.text_model.encoder.layers.13.layer_norm2.weight"> : tensor<1280xf16>
  util.global private @_params.text_encoder_model_2.text_model.encoder.layers.13.layer_norm2.bias {noinline} = #stream.parameter.named<"model"::"text_encoder_model_2.text_model.encoder.layers.13.layer_norm2.bias"> : tensor<1280xf16>
  util.global private @_params.text_encoder_model_2.text_model.encoder.layers.14.self_attn.k_proj.weight {noinline} = #stream.parameter.named<"model"::"text_encoder_model_2.text_model.encoder.layers.14.self_attn.k_proj.weight"> : tensor<1280x1280xf16>
  util.global private @_params.text_encoder_model_2.text_model.encoder.layers.14.self_attn.k_proj.bias {noinline} = #stream.parameter.named<"model"::"text_encoder_model_2.text_model.encoder.layers.14.self_attn.k_proj.bias"> : tensor<1280xf16>
  util.global private @_params.text_encoder_model_2.text_model.encoder.layers.14.self_attn.v_proj.weight {noinline} = #stream.parameter.named<"model"::"text_encoder_model_2.text_model.encoder.layers.14.self_attn.v_proj.weight"> : tensor<1280x1280xf16>
  util.global private @_params.text_encoder_model_2.text_model.encoder.layers.14.self_attn.v_proj.bias {noinline} = #stream.parameter.named<"model"::"text_encoder_model_2.text_model.encoder.layers.14.self_attn.v_proj.bias"> : tensor<1280xf16>
  util.global private @_params.text_encoder_model_2.text_model.encoder.layers.14.self_attn.q_proj.weight {noinline} = #stream.parameter.named<"model"::"text_encoder_model_2.text_model.encoder.layers.14.self_attn.q_proj.weight"> : tensor<1280x1280xf16>
  util.global private @_params.text_encoder_model_2.text_model.encoder.layers.14.self_attn.q_proj.bias {noinline} = #stream.parameter.named<"model"::"text_encoder_model_2.text_model.encoder.layers.14.self_attn.q_proj.bias"> : tensor<1280xf16>
  util.global private @_params.text_encoder_model_2.text_model.encoder.layers.14.self_attn.out_proj.weight {noinline} = #stream.parameter.named<"model"::"text_encoder_model_2.text_model.encoder.layers.14.self_attn.out_proj.weight"> : tensor<1280x1280xf16>
  util.global private @_params.text_encoder_model_2.text_model.encoder.layers.14.self_attn.out_proj.bias {noinline} = #stream.parameter.named<"model"::"text_encoder_model_2.text_model.encoder.layers.14.self_attn.out_proj.bias"> : tensor<1280xf16>
  util.global private @_params.text_encoder_model_2.text_model.encoder.layers.14.layer_norm1.weight {noinline} = #stream.parameter.named<"model"::"text_encoder_model_2.text_model.encoder.layers.14.layer_norm1.weight"> : tensor<1280xf16>
  util.global private @_params.text_encoder_model_2.text_model.encoder.layers.14.layer_norm1.bias {noinline} = #stream.parameter.named<"model"::"text_encoder_model_2.text_model.encoder.layers.14.layer_norm1.bias"> : tensor<1280xf16>
  util.global private @_params.text_encoder_model_2.text_model.encoder.layers.14.mlp.fc1.weight {noinline} = #stream.parameter.named<"model"::"text_encoder_model_2.text_model.encoder.layers.14.mlp.fc1.weight"> : tensor<5120x1280xf16>
  util.global private @_params.text_encoder_model_2.text_model.encoder.layers.14.mlp.fc1.bias {noinline} = #stream.parameter.named<"model"::"text_encoder_model_2.text_model.encoder.layers.14.mlp.fc1.bias"> : tensor<5120xf16>
  util.global private @_params.text_encoder_model_2.text_model.encoder.layers.14.mlp.fc2.weight {noinline} = #stream.parameter.named<"model"::"text_encoder_model_2.text_model.encoder.layers.14.mlp.fc2.weight"> : tensor<1280x5120xf16>
  util.global private @_params.text_encoder_model_2.text_model.encoder.layers.14.mlp.fc2.bias {noinline} = #stream.parameter.named<"model"::"text_encoder_model_2.text_model.encoder.layers.14.mlp.fc2.bias"> : tensor<1280xf16>
  util.global private @_params.text_encoder_model_2.text_model.encoder.layers.14.layer_norm2.weight {noinline} = #stream.parameter.named<"model"::"text_encoder_model_2.text_model.encoder.layers.14.layer_norm2.weight"> : tensor<1280xf16>
  util.global private @_params.text_encoder_model_2.text_model.encoder.layers.14.layer_norm2.bias {noinline} = #stream.parameter.named<"model"::"text_encoder_model_2.text_model.encoder.layers.14.layer_norm2.bias"> : tensor<1280xf16>
  util.global private @_params.text_encoder_model_2.text_model.encoder.layers.15.self_attn.k_proj.weight {noinline} = #stream.parameter.named<"model"::"text_encoder_model_2.text_model.encoder.layers.15.self_attn.k_proj.weight"> : tensor<1280x1280xf16>
  util.global private @_params.text_encoder_model_2.text_model.encoder.layers.15.self_attn.k_proj.bias {noinline} = #stream.parameter.named<"model"::"text_encoder_model_2.text_model.encoder.layers.15.self_attn.k_proj.bias"> : tensor<1280xf16>
  util.global private @_params.text_encoder_model_2.text_model.encoder.layers.15.self_attn.v_proj.weight {noinline} = #stream.parameter.named<"model"::"text_encoder_model_2.text_model.encoder.layers.15.self_attn.v_proj.weight"> : tensor<1280x1280xf16>
  util.global private @_params.text_encoder_model_2.text_model.encoder.layers.15.self_attn.v_proj.bias {noinline} = #stream.parameter.named<"model"::"text_encoder_model_2.text_model.encoder.layers.15.self_attn.v_proj.bias"> : tensor<1280xf16>
  util.global private @_params.text_encoder_model_2.text_model.encoder.layers.15.self_attn.q_proj.weight {noinline} = #stream.parameter.named<"model"::"text_encoder_model_2.text_model.encoder.layers.15.self_attn.q_proj.weight"> : tensor<1280x1280xf16>
  util.global private @_params.text_encoder_model_2.text_model.encoder.layers.15.self_attn.q_proj.bias {noinline} = #stream.parameter.named<"model"::"text_encoder_model_2.text_model.encoder.layers.15.self_attn.q_proj.bias"> : tensor<1280xf16>
  util.global private @_params.text_encoder_model_2.text_model.encoder.layers.15.self_attn.out_proj.weight {noinline} = #stream.parameter.named<"model"::"text_encoder_model_2.text_model.encoder.layers.15.self_attn.out_proj.weight"> : tensor<1280x1280xf16>
  util.global private @_params.text_encoder_model_2.text_model.encoder.layers.15.self_attn.out_proj.bias {noinline} = #stream.parameter.named<"model"::"text_encoder_model_2.text_model.encoder.layers.15.self_attn.out_proj.bias"> : tensor<1280xf16>
  util.global private @_params.text_encoder_model_2.text_model.encoder.layers.15.layer_norm1.weight {noinline} = #stream.parameter.named<"model"::"text_encoder_model_2.text_model.encoder.layers.15.layer_norm1.weight"> : tensor<1280xf16>
  util.global private @_params.text_encoder_model_2.text_model.encoder.layers.15.layer_norm1.bias {noinline} = #stream.parameter.named<"model"::"text_encoder_model_2.text_model.encoder.layers.15.layer_norm1.bias"> : tensor<1280xf16>
  util.global private @_params.text_encoder_model_2.text_model.encoder.layers.15.mlp.fc1.weight {noinline} = #stream.parameter.named<"model"::"text_encoder_model_2.text_model.encoder.layers.15.mlp.fc1.weight"> : tensor<5120x1280xf16>
  util.global private @_params.text_encoder_model_2.text_model.encoder.layers.15.mlp.fc1.bias {noinline} = #stream.parameter.named<"model"::"text_encoder_model_2.text_model.encoder.layers.15.mlp.fc1.bias"> : tensor<5120xf16>
  util.global private @_params.text_encoder_model_2.text_model.encoder.layers.15.mlp.fc2.weight {noinline} = #stream.parameter.named<"model"::"text_encoder_model_2.text_model.encoder.layers.15.mlp.fc2.weight"> : tensor<1280x5120xf16>
  util.global private @_params.text_encoder_model_2.text_model.encoder.layers.15.mlp.fc2.bias {noinline} = #stream.parameter.named<"model"::"text_encoder_model_2.text_model.encoder.layers.15.mlp.fc2.bias"> : tensor<1280xf16>
  util.global private @_params.text_encoder_model_2.text_model.encoder.layers.15.layer_norm2.weight {noinline} = #stream.parameter.named<"model"::"text_encoder_model_2.text_model.encoder.layers.15.layer_norm2.weight"> : tensor<1280xf16>
  util.global private @_params.text_encoder_model_2.text_model.encoder.layers.15.layer_norm2.bias {noinline} = #stream.parameter.named<"model"::"text_encoder_model_2.text_model.encoder.layers.15.layer_norm2.bias"> : tensor<1280xf16>
  util.global private @_params.text_encoder_model_2.text_model.encoder.layers.16.self_attn.k_proj.weight {noinline} = #stream.parameter.named<"model"::"text_encoder_model_2.text_model.encoder.layers.16.self_attn.k_proj.weight"> : tensor<1280x1280xf16>
  util.global private @_params.text_encoder_model_2.text_model.encoder.layers.16.self_attn.k_proj.bias {noinline} = #stream.parameter.named<"model"::"text_encoder_model_2.text_model.encoder.layers.16.self_attn.k_proj.bias"> : tensor<1280xf16>
  util.global private @_params.text_encoder_model_2.text_model.encoder.layers.16.self_attn.v_proj.weight {noinline} = #stream.parameter.named<"model"::"text_encoder_model_2.text_model.encoder.layers.16.self_attn.v_proj.weight"> : tensor<1280x1280xf16>
  util.global private @_params.text_encoder_model_2.text_model.encoder.layers.16.self_attn.v_proj.bias {noinline} = #stream.parameter.named<"model"::"text_encoder_model_2.text_model.encoder.layers.16.self_attn.v_proj.bias"> : tensor<1280xf16>
  util.global private @_params.text_encoder_model_2.text_model.encoder.layers.16.self_attn.q_proj.weight {noinline} = #stream.parameter.named<"model"::"text_encoder_model_2.text_model.encoder.layers.16.self_attn.q_proj.weight"> : tensor<1280x1280xf16>
  util.global private @_params.text_encoder_model_2.text_model.encoder.layers.16.self_attn.q_proj.bias {noinline} = #stream.parameter.named<"model"::"text_encoder_model_2.text_model.encoder.layers.16.self_attn.q_proj.bias"> : tensor<1280xf16>
  util.global private @_params.text_encoder_model_2.text_model.encoder.layers.16.self_attn.out_proj.weight {noinline} = #stream.parameter.named<"model"::"text_encoder_model_2.text_model.encoder.layers.16.self_attn.out_proj.weight"> : tensor<1280x1280xf16>
  util.global private @_params.text_encoder_model_2.text_model.encoder.layers.16.self_attn.out_proj.bias {noinline} = #stream.parameter.named<"model"::"text_encoder_model_2.text_model.encoder.layers.16.self_attn.out_proj.bias"> : tensor<1280xf16>
  util.global private @_params.text_encoder_model_2.text_model.encoder.layers.16.layer_norm1.weight {noinline} = #stream.parameter.named<"model"::"text_encoder_model_2.text_model.encoder.layers.16.layer_norm1.weight"> : tensor<1280xf16>
  util.global private @_params.text_encoder_model_2.text_model.encoder.layers.16.layer_norm1.bias {noinline} = #stream.parameter.named<"model"::"text_encoder_model_2.text_model.encoder.layers.16.layer_norm1.bias"> : tensor<1280xf16>
  util.global private @_params.text_encoder_model_2.text_model.encoder.layers.16.mlp.fc1.weight {noinline} = #stream.parameter.named<"model"::"text_encoder_model_2.text_model.encoder.layers.16.mlp.fc1.weight"> : tensor<5120x1280xf16>
  util.global private @_params.text_encoder_model_2.text_model.encoder.layers.16.mlp.fc1.bias {noinline} = #stream.parameter.named<"model"::"text_encoder_model_2.text_model.encoder.layers.16.mlp.fc1.bias"> : tensor<5120xf16>
  util.global private @_params.text_encoder_model_2.text_model.encoder.layers.16.mlp.fc2.weight {noinline} = #stream.parameter.named<"model"::"text_encoder_model_2.text_model.encoder.layers.16.mlp.fc2.weight"> : tensor<1280x5120xf16>
  util.global private @_params.text_encoder_model_2.text_model.encoder.layers.16.mlp.fc2.bias {noinline} = #stream.parameter.named<"model"::"text_encoder_model_2.text_model.encoder.layers.16.mlp.fc2.bias"> : tensor<1280xf16>
  util.global private @_params.text_encoder_model_2.text_model.encoder.layers.16.layer_norm2.weight {noinline} = #stream.parameter.named<"model"::"text_encoder_model_2.text_model.encoder.layers.16.layer_norm2.weight"> : tensor<1280xf16>
  util.global private @_params.text_encoder_model_2.text_model.encoder.layers.16.layer_norm2.bias {noinline} = #stream.parameter.named<"model"::"text_encoder_model_2.text_model.encoder.layers.16.layer_norm2.bias"> : tensor<1280xf16>
  util.global private @_params.text_encoder_model_2.text_model.encoder.layers.17.self_attn.k_proj.weight {noinline} = #stream.parameter.named<"model"::"text_encoder_model_2.text_model.encoder.layers.17.self_attn.k_proj.weight"> : tensor<1280x1280xf16>
  util.global private @_params.text_encoder_model_2.text_model.encoder.layers.17.self_attn.k_proj.bias {noinline} = #stream.parameter.named<"model"::"text_encoder_model_2.text_model.encoder.layers.17.self_attn.k_proj.bias"> : tensor<1280xf16>
  util.global private @_params.text_encoder_model_2.text_model.encoder.layers.17.self_attn.v_proj.weight {noinline} = #stream.parameter.named<"model"::"text_encoder_model_2.text_model.encoder.layers.17.self_attn.v_proj.weight"> : tensor<1280x1280xf16>
  util.global private @_params.text_encoder_model_2.text_model.encoder.layers.17.self_attn.v_proj.bias {noinline} = #stream.parameter.named<"model"::"text_encoder_model_2.text_model.encoder.layers.17.self_attn.v_proj.bias"> : tensor<1280xf16>
  util.global private @_params.text_encoder_model_2.text_model.encoder.layers.17.self_attn.q_proj.weight {noinline} = #stream.parameter.named<"model"::"text_encoder_model_2.text_model.encoder.layers.17.self_attn.q_proj.weight"> : tensor<1280x1280xf16>
  util.global private @_params.text_encoder_model_2.text_model.encoder.layers.17.self_attn.q_proj.bias {noinline} = #stream.parameter.named<"model"::"text_encoder_model_2.text_model.encoder.layers.17.self_attn.q_proj.bias"> : tensor<1280xf16>
  util.global private @_params.text_encoder_model_2.text_model.encoder.layers.17.self_attn.out_proj.weight {noinline} = #stream.parameter.named<"model"::"text_encoder_model_2.text_model.encoder.layers.17.self_attn.out_proj.weight"> : tensor<1280x1280xf16>
  util.global private @_params.text_encoder_model_2.text_model.encoder.layers.17.self_attn.out_proj.bias {noinline} = #stream.parameter.named<"model"::"text_encoder_model_2.text_model.encoder.layers.17.self_attn.out_proj.bias"> : tensor<1280xf16>
  util.global private @_params.text_encoder_model_2.text_model.encoder.layers.17.layer_norm1.weight {noinline} = #stream.parameter.named<"model"::"text_encoder_model_2.text_model.encoder.layers.17.layer_norm1.weight"> : tensor<1280xf16>
  util.global private @_params.text_encoder_model_2.text_model.encoder.layers.17.layer_norm1.bias {noinline} = #stream.parameter.named<"model"::"text_encoder_model_2.text_model.encoder.layers.17.layer_norm1.bias"> : tensor<1280xf16>
  util.global private @_params.text_encoder_model_2.text_model.encoder.layers.17.mlp.fc1.weight {noinline} = #stream.parameter.named<"model"::"text_encoder_model_2.text_model.encoder.layers.17.mlp.fc1.weight"> : tensor<5120x1280xf16>
  util.global private @_params.text_encoder_model_2.text_model.encoder.layers.17.mlp.fc1.bias {noinline} = #stream.parameter.named<"model"::"text_encoder_model_2.text_model.encoder.layers.17.mlp.fc1.bias"> : tensor<5120xf16>
  util.global private @_params.text_encoder_model_2.text_model.encoder.layers.17.mlp.fc2.weight {noinline} = #stream.parameter.named<"model"::"text_encoder_model_2.text_model.encoder.layers.17.mlp.fc2.weight"> : tensor<1280x5120xf16>
  util.global private @_params.text_encoder_model_2.text_model.encoder.layers.17.mlp.fc2.bias {noinline} = #stream.parameter.named<"model"::"text_encoder_model_2.text_model.encoder.layers.17.mlp.fc2.bias"> : tensor<1280xf16>
  util.global private @_params.text_encoder_model_2.text_model.encoder.layers.17.layer_norm2.weight {noinline} = #stream.parameter.named<"model"::"text_encoder_model_2.text_model.encoder.layers.17.layer_norm2.weight"> : tensor<1280xf16>
  util.global private @_params.text_encoder_model_2.text_model.encoder.layers.17.layer_norm2.bias {noinline} = #stream.parameter.named<"model"::"text_encoder_model_2.text_model.encoder.layers.17.layer_norm2.bias"> : tensor<1280xf16>
  util.global private @_params.text_encoder_model_2.text_model.encoder.layers.18.self_attn.k_proj.weight {noinline} = #stream.parameter.named<"model"::"text_encoder_model_2.text_model.encoder.layers.18.self_attn.k_proj.weight"> : tensor<1280x1280xf16>
  util.global private @_params.text_encoder_model_2.text_model.encoder.layers.18.self_attn.k_proj.bias {noinline} = #stream.parameter.named<"model"::"text_encoder_model_2.text_model.encoder.layers.18.self_attn.k_proj.bias"> : tensor<1280xf16>
  util.global private @_params.text_encoder_model_2.text_model.encoder.layers.18.self_attn.v_proj.weight {noinline} = #stream.parameter.named<"model"::"text_encoder_model_2.text_model.encoder.layers.18.self_attn.v_proj.weight"> : tensor<1280x1280xf16>
  util.global private @_params.text_encoder_model_2.text_model.encoder.layers.18.self_attn.v_proj.bias {noinline} = #stream.parameter.named<"model"::"text_encoder_model_2.text_model.encoder.layers.18.self_attn.v_proj.bias"> : tensor<1280xf16>
  util.global private @_params.text_encoder_model_2.text_model.encoder.layers.18.self_attn.q_proj.weight {noinline} = #stream.parameter.named<"model"::"text_encoder_model_2.text_model.encoder.layers.18.self_attn.q_proj.weight"> : tensor<1280x1280xf16>
  util.global private @_params.text_encoder_model_2.text_model.encoder.layers.18.self_attn.q_proj.bias {noinline} = #stream.parameter.named<"model"::"text_encoder_model_2.text_model.encoder.layers.18.self_attn.q_proj.bias"> : tensor<1280xf16>
  util.global private @_params.text_encoder_model_2.text_model.encoder.layers.18.self_attn.out_proj.weight {noinline} = #stream.parameter.named<"model"::"text_encoder_model_2.text_model.encoder.layers.18.self_attn.out_proj.weight"> : tensor<1280x1280xf16>
  util.global private @_params.text_encoder_model_2.text_model.encoder.layers.18.self_attn.out_proj.bias {noinline} = #stream.parameter.named<"model"::"text_encoder_model_2.text_model.encoder.layers.18.self_attn.out_proj.bias"> : tensor<1280xf16>
  util.global private @_params.text_encoder_model_2.text_model.encoder.layers.18.layer_norm1.weight {noinline} = #stream.parameter.named<"model"::"text_encoder_model_2.text_model.encoder.layers.18.layer_norm1.weight"> : tensor<1280xf16>
  util.global private @_params.text_encoder_model_2.text_model.encoder.layers.18.layer_norm1.bias {noinline} = #stream.parameter.named<"model"::"text_encoder_model_2.text_model.encoder.layers.18.layer_norm1.bias"> : tensor<1280xf16>
  util.global private @_params.text_encoder_model_2.text_model.encoder.layers.18.mlp.fc1.weight {noinline} = #stream.parameter.named<"model"::"text_encoder_model_2.text_model.encoder.layers.18.mlp.fc1.weight"> : tensor<5120x1280xf16>
  util.global private @_params.text_encoder_model_2.text_model.encoder.layers.18.mlp.fc1.bias {noinline} = #stream.parameter.named<"model"::"text_encoder_model_2.text_model.encoder.layers.18.mlp.fc1.bias"> : tensor<5120xf16>
  util.global private @_params.text_encoder_model_2.text_model.encoder.layers.18.mlp.fc2.weight {noinline} = #stream.parameter.named<"model"::"text_encoder_model_2.text_model.encoder.layers.18.mlp.fc2.weight"> : tensor<1280x5120xf16>
  util.global private @_params.text_encoder_model_2.text_model.encoder.layers.18.mlp.fc2.bias {noinline} = #stream.parameter.named<"model"::"text_encoder_model_2.text_model.encoder.layers.18.mlp.fc2.bias"> : tensor<1280xf16>
  util.global private @_params.text_encoder_model_2.text_model.encoder.layers.18.layer_norm2.weight {noinline} = #stream.parameter.named<"model"::"text_encoder_model_2.text_model.encoder.layers.18.layer_norm2.weight"> : tensor<1280xf16>
  util.global private @_params.text_encoder_model_2.text_model.encoder.layers.18.layer_norm2.bias {noinline} = #stream.parameter.named<"model"::"text_encoder_model_2.text_model.encoder.layers.18.layer_norm2.bias"> : tensor<1280xf16>
  util.global private @_params.text_encoder_model_2.text_model.encoder.layers.19.self_attn.k_proj.weight {noinline} = #stream.parameter.named<"model"::"text_encoder_model_2.text_model.encoder.layers.19.self_attn.k_proj.weight"> : tensor<1280x1280xf16>
  util.global private @_params.text_encoder_model_2.text_model.encoder.layers.19.self_attn.k_proj.bias {noinline} = #stream.parameter.named<"model"::"text_encoder_model_2.text_model.encoder.layers.19.self_attn.k_proj.bias"> : tensor<1280xf16>
  util.global private @_params.text_encoder_model_2.text_model.encoder.layers.19.self_attn.v_proj.weight {noinline} = #stream.parameter.named<"model"::"text_encoder_model_2.text_model.encoder.layers.19.self_attn.v_proj.weight"> : tensor<1280x1280xf16>
  util.global private @_params.text_encoder_model_2.text_model.encoder.layers.19.self_attn.v_proj.bias {noinline} = #stream.parameter.named<"model"::"text_encoder_model_2.text_model.encoder.layers.19.self_attn.v_proj.bias"> : tensor<1280xf16>
  util.global private @_params.text_encoder_model_2.text_model.encoder.layers.19.self_attn.q_proj.weight {noinline} = #stream.parameter.named<"model"::"text_encoder_model_2.text_model.encoder.layers.19.self_attn.q_proj.weight"> : tensor<1280x1280xf16>
  util.global private @_params.text_encoder_model_2.text_model.encoder.layers.19.self_attn.q_proj.bias {noinline} = #stream.parameter.named<"model"::"text_encoder_model_2.text_model.encoder.layers.19.self_attn.q_proj.bias"> : tensor<1280xf16>
  util.global private @_params.text_encoder_model_2.text_model.encoder.layers.19.self_attn.out_proj.weight {noinline} = #stream.parameter.named<"model"::"text_encoder_model_2.text_model.encoder.layers.19.self_attn.out_proj.weight"> : tensor<1280x1280xf16>
  util.global private @_params.text_encoder_model_2.text_model.encoder.layers.19.self_attn.out_proj.bias {noinline} = #stream.parameter.named<"model"::"text_encoder_model_2.text_model.encoder.layers.19.self_attn.out_proj.bias"> : tensor<1280xf16>
  util.global private @_params.text_encoder_model_2.text_model.encoder.layers.19.layer_norm1.weight {noinline} = #stream.parameter.named<"model"::"text_encoder_model_2.text_model.encoder.layers.19.layer_norm1.weight"> : tensor<1280xf16>
  util.global private @_params.text_encoder_model_2.text_model.encoder.layers.19.layer_norm1.bias {noinline} = #stream.parameter.named<"model"::"text_encoder_model_2.text_model.encoder.layers.19.layer_norm1.bias"> : tensor<1280xf16>
  util.global private @_params.text_encoder_model_2.text_model.encoder.layers.19.mlp.fc1.weight {noinline} = #stream.parameter.named<"model"::"text_encoder_model_2.text_model.encoder.layers.19.mlp.fc1.weight"> : tensor<5120x1280xf16>
  util.global private @_params.text_encoder_model_2.text_model.encoder.layers.19.mlp.fc1.bias {noinline} = #stream.parameter.named<"model"::"text_encoder_model_2.text_model.encoder.layers.19.mlp.fc1.bias"> : tensor<5120xf16>
  util.global private @_params.text_encoder_model_2.text_model.encoder.layers.19.mlp.fc2.weight {noinline} = #stream.parameter.named<"model"::"text_encoder_model_2.text_model.encoder.layers.19.mlp.fc2.weight"> : tensor<1280x5120xf16>
  util.global private @_params.text_encoder_model_2.text_model.encoder.layers.19.mlp.fc2.bias {noinline} = #stream.parameter.named<"model"::"text_encoder_model_2.text_model.encoder.layers.19.mlp.fc2.bias"> : tensor<1280xf16>
  util.global private @_params.text_encoder_model_2.text_model.encoder.layers.19.layer_norm2.weight {noinline} = #stream.parameter.named<"model"::"text_encoder_model_2.text_model.encoder.layers.19.layer_norm2.weight"> : tensor<1280xf16>
  util.global private @_params.text_encoder_model_2.text_model.encoder.layers.19.layer_norm2.bias {noinline} = #stream.parameter.named<"model"::"text_encoder_model_2.text_model.encoder.layers.19.layer_norm2.bias"> : tensor<1280xf16>
  util.global private @_params.text_encoder_model_2.text_model.encoder.layers.20.self_attn.k_proj.weight {noinline} = #stream.parameter.named<"model"::"text_encoder_model_2.text_model.encoder.layers.20.self_attn.k_proj.weight"> : tensor<1280x1280xf16>
  util.global private @_params.text_encoder_model_2.text_model.encoder.layers.20.self_attn.k_proj.bias {noinline} = #stream.parameter.named<"model"::"text_encoder_model_2.text_model.encoder.layers.20.self_attn.k_proj.bias"> : tensor<1280xf16>
  util.global private @_params.text_encoder_model_2.text_model.encoder.layers.20.self_attn.v_proj.weight {noinline} = #stream.parameter.named<"model"::"text_encoder_model_2.text_model.encoder.layers.20.self_attn.v_proj.weight"> : tensor<1280x1280xf16>
  util.global private @_params.text_encoder_model_2.text_model.encoder.layers.20.self_attn.v_proj.bias {noinline} = #stream.parameter.named<"model"::"text_encoder_model_2.text_model.encoder.layers.20.self_attn.v_proj.bias"> : tensor<1280xf16>
  util.global private @_params.text_encoder_model_2.text_model.encoder.layers.20.self_attn.q_proj.weight {noinline} = #stream.parameter.named<"model"::"text_encoder_model_2.text_model.encoder.layers.20.self_attn.q_proj.weight"> : tensor<1280x1280xf16>
  util.global private @_params.text_encoder_model_2.text_model.encoder.layers.20.self_attn.q_proj.bias {noinline} = #stream.parameter.named<"model"::"text_encoder_model_2.text_model.encoder.layers.20.self_attn.q_proj.bias"> : tensor<1280xf16>
  util.global private @_params.text_encoder_model_2.text_model.encoder.layers.20.self_attn.out_proj.weight {noinline} = #stream.parameter.named<"model"::"text_encoder_model_2.text_model.encoder.layers.20.self_attn.out_proj.weight"> : tensor<1280x1280xf16>
  util.global private @_params.text_encoder_model_2.text_model.encoder.layers.20.self_attn.out_proj.bias {noinline} = #stream.parameter.named<"model"::"text_encoder_model_2.text_model.encoder.layers.20.self_attn.out_proj.bias"> : tensor<1280xf16>
  util.global private @_params.text_encoder_model_2.text_model.encoder.layers.20.layer_norm1.weight {noinline} = #stream.parameter.named<"model"::"text_encoder_model_2.text_model.encoder.layers.20.layer_norm1.weight"> : tensor<1280xf16>
  util.global private @_params.text_encoder_model_2.text_model.encoder.layers.20.layer_norm1.bias {noinline} = #stream.parameter.named<"model"::"text_encoder_model_2.text_model.encoder.layers.20.layer_norm1.bias"> : tensor<1280xf16>
  util.global private @_params.text_encoder_model_2.text_model.encoder.layers.20.mlp.fc1.weight {noinline} = #stream.parameter.named<"model"::"text_encoder_model_2.text_model.encoder.layers.20.mlp.fc1.weight"> : tensor<5120x1280xf16>
  util.global private @_params.text_encoder_model_2.text_model.encoder.layers.20.mlp.fc1.bias {noinline} = #stream.parameter.named<"model"::"text_encoder_model_2.text_model.encoder.layers.20.mlp.fc1.bias"> : tensor<5120xf16>
  util.global private @_params.text_encoder_model_2.text_model.encoder.layers.20.mlp.fc2.weight {noinline} = #stream.parameter.named<"model"::"text_encoder_model_2.text_model.encoder.layers.20.mlp.fc2.weight"> : tensor<1280x5120xf16>
  util.global private @_params.text_encoder_model_2.text_model.encoder.layers.20.mlp.fc2.bias {noinline} = #stream.parameter.named<"model"::"text_encoder_model_2.text_model.encoder.layers.20.mlp.fc2.bias"> : tensor<1280xf16>
  util.global private @_params.text_encoder_model_2.text_model.encoder.layers.20.layer_norm2.weight {noinline} = #stream.parameter.named<"model"::"text_encoder_model_2.text_model.encoder.layers.20.layer_norm2.weight"> : tensor<1280xf16>
  util.global private @_params.text_encoder_model_2.text_model.encoder.layers.20.layer_norm2.bias {noinline} = #stream.parameter.named<"model"::"text_encoder_model_2.text_model.encoder.layers.20.layer_norm2.bias"> : tensor<1280xf16>
  util.global private @_params.text_encoder_model_2.text_model.encoder.layers.21.self_attn.k_proj.weight {noinline} = #stream.parameter.named<"model"::"text_encoder_model_2.text_model.encoder.layers.21.self_attn.k_proj.weight"> : tensor<1280x1280xf16>
  util.global private @_params.text_encoder_model_2.text_model.encoder.layers.21.self_attn.k_proj.bias {noinline} = #stream.parameter.named<"model"::"text_encoder_model_2.text_model.encoder.layers.21.self_attn.k_proj.bias"> : tensor<1280xf16>
  util.global private @_params.text_encoder_model_2.text_model.encoder.layers.21.self_attn.v_proj.weight {noinline} = #stream.parameter.named<"model"::"text_encoder_model_2.text_model.encoder.layers.21.self_attn.v_proj.weight"> : tensor<1280x1280xf16>
  util.global private @_params.text_encoder_model_2.text_model.encoder.layers.21.self_attn.v_proj.bias {noinline} = #stream.parameter.named<"model"::"text_encoder_model_2.text_model.encoder.layers.21.self_attn.v_proj.bias"> : tensor<1280xf16>
  util.global private @_params.text_encoder_model_2.text_model.encoder.layers.21.self_attn.q_proj.weight {noinline} = #stream.parameter.named<"model"::"text_encoder_model_2.text_model.encoder.layers.21.self_attn.q_proj.weight"> : tensor<1280x1280xf16>
  util.global private @_params.text_encoder_model_2.text_model.encoder.layers.21.self_attn.q_proj.bias {noinline} = #stream.parameter.named<"model"::"text_encoder_model_2.text_model.encoder.layers.21.self_attn.q_proj.bias"> : tensor<1280xf16>
  util.global private @_params.text_encoder_model_2.text_model.encoder.layers.21.self_attn.out_proj.weight {noinline} = #stream.parameter.named<"model"::"text_encoder_model_2.text_model.encoder.layers.21.self_attn.out_proj.weight"> : tensor<1280x1280xf16>
  util.global private @_params.text_encoder_model_2.text_model.encoder.layers.21.self_attn.out_proj.bias {noinline} = #stream.parameter.named<"model"::"text_encoder_model_2.text_model.encoder.layers.21.self_attn.out_proj.bias"> : tensor<1280xf16>
  util.global private @_params.text_encoder_model_2.text_model.encoder.layers.21.layer_norm1.weight {noinline} = #stream.parameter.named<"model"::"text_encoder_model_2.text_model.encoder.layers.21.layer_norm1.weight"> : tensor<1280xf16>
  util.global private @_params.text_encoder_model_2.text_model.encoder.layers.21.layer_norm1.bias {noinline} = #stream.parameter.named<"model"::"text_encoder_model_2.text_model.encoder.layers.21.layer_norm1.bias"> : tensor<1280xf16>
  util.global private @_params.text_encoder_model_2.text_model.encoder.layers.21.mlp.fc1.weight {noinline} = #stream.parameter.named<"model"::"text_encoder_model_2.text_model.encoder.layers.21.mlp.fc1.weight"> : tensor<5120x1280xf16>
  util.global private @_params.text_encoder_model_2.text_model.encoder.layers.21.mlp.fc1.bias {noinline} = #stream.parameter.named<"model"::"text_encoder_model_2.text_model.encoder.layers.21.mlp.fc1.bias"> : tensor<5120xf16>
  util.global private @_params.text_encoder_model_2.text_model.encoder.layers.21.mlp.fc2.weight {noinline} = #stream.parameter.named<"model"::"text_encoder_model_2.text_model.encoder.layers.21.mlp.fc2.weight"> : tensor<1280x5120xf16>
  util.global private @_params.text_encoder_model_2.text_model.encoder.layers.21.mlp.fc2.bias {noinline} = #stream.parameter.named<"model"::"text_encoder_model_2.text_model.encoder.layers.21.mlp.fc2.bias"> : tensor<1280xf16>
  util.global private @_params.text_encoder_model_2.text_model.encoder.layers.21.layer_norm2.weight {noinline} = #stream.parameter.named<"model"::"text_encoder_model_2.text_model.encoder.layers.21.layer_norm2.weight"> : tensor<1280xf16>
  util.global private @_params.text_encoder_model_2.text_model.encoder.layers.21.layer_norm2.bias {noinline} = #stream.parameter.named<"model"::"text_encoder_model_2.text_model.encoder.layers.21.layer_norm2.bias"> : tensor<1280xf16>
  util.global private @_params.text_encoder_model_2.text_model.encoder.layers.22.self_attn.k_proj.weight {noinline} = #stream.parameter.named<"model"::"text_encoder_model_2.text_model.encoder.layers.22.self_attn.k_proj.weight"> : tensor<1280x1280xf16>
  util.global private @_params.text_encoder_model_2.text_model.encoder.layers.22.self_attn.k_proj.bias {noinline} = #stream.parameter.named<"model"::"text_encoder_model_2.text_model.encoder.layers.22.self_attn.k_proj.bias"> : tensor<1280xf16>
  util.global private @_params.text_encoder_model_2.text_model.encoder.layers.22.self_attn.v_proj.weight {noinline} = #stream.parameter.named<"model"::"text_encoder_model_2.text_model.encoder.layers.22.self_attn.v_proj.weight"> : tensor<1280x1280xf16>
  util.global private @_params.text_encoder_model_2.text_model.encoder.layers.22.self_attn.v_proj.bias {noinline} = #stream.parameter.named<"model"::"text_encoder_model_2.text_model.encoder.layers.22.self_attn.v_proj.bias"> : tensor<1280xf16>
  util.global private @_params.text_encoder_model_2.text_model.encoder.layers.22.self_attn.q_proj.weight {noinline} = #stream.parameter.named<"model"::"text_encoder_model_2.text_model.encoder.layers.22.self_attn.q_proj.weight"> : tensor<1280x1280xf16>
  util.global private @_params.text_encoder_model_2.text_model.encoder.layers.22.self_attn.q_proj.bias {noinline} = #stream.parameter.named<"model"::"text_encoder_model_2.text_model.encoder.layers.22.self_attn.q_proj.bias"> : tensor<1280xf16>
  util.global private @_params.text_encoder_model_2.text_model.encoder.layers.22.self_attn.out_proj.weight {noinline} = #stream.parameter.named<"model"::"text_encoder_model_2.text_model.encoder.layers.22.self_attn.out_proj.weight"> : tensor<1280x1280xf16>
  util.global private @_params.text_encoder_model_2.text_model.encoder.layers.22.self_attn.out_proj.bias {noinline} = #stream.parameter.named<"model"::"text_encoder_model_2.text_model.encoder.layers.22.self_attn.out_proj.bias"> : tensor<1280xf16>
  util.global private @_params.text_encoder_model_2.text_model.encoder.layers.22.layer_norm1.weight {noinline} = #stream.parameter.named<"model"::"text_encoder_model_2.text_model.encoder.layers.22.layer_norm1.weight"> : tensor<1280xf16>
  util.global private @_params.text_encoder_model_2.text_model.encoder.layers.22.layer_norm1.bias {noinline} = #stream.parameter.named<"model"::"text_encoder_model_2.text_model.encoder.layers.22.layer_norm1.bias"> : tensor<1280xf16>
  util.global private @_params.text_encoder_model_2.text_model.encoder.layers.22.mlp.fc1.weight {noinline} = #stream.parameter.named<"model"::"text_encoder_model_2.text_model.encoder.layers.22.mlp.fc1.weight"> : tensor<5120x1280xf16>
  util.global private @_params.text_encoder_model_2.text_model.encoder.layers.22.mlp.fc1.bias {noinline} = #stream.parameter.named<"model"::"text_encoder_model_2.text_model.encoder.layers.22.mlp.fc1.bias"> : tensor<5120xf16>
  util.global private @_params.text_encoder_model_2.text_model.encoder.layers.22.mlp.fc2.weight {noinline} = #stream.parameter.named<"model"::"text_encoder_model_2.text_model.encoder.layers.22.mlp.fc2.weight"> : tensor<1280x5120xf16>
  util.global private @_params.text_encoder_model_2.text_model.encoder.layers.22.mlp.fc2.bias {noinline} = #stream.parameter.named<"model"::"text_encoder_model_2.text_model.encoder.layers.22.mlp.fc2.bias"> : tensor<1280xf16>
  util.global private @_params.text_encoder_model_2.text_model.encoder.layers.22.layer_norm2.weight {noinline} = #stream.parameter.named<"model"::"text_encoder_model_2.text_model.encoder.layers.22.layer_norm2.weight"> : tensor<1280xf16>
  util.global private @_params.text_encoder_model_2.text_model.encoder.layers.22.layer_norm2.bias {noinline} = #stream.parameter.named<"model"::"text_encoder_model_2.text_model.encoder.layers.22.layer_norm2.bias"> : tensor<1280xf16>
  util.global private @_params.text_encoder_model_2.text_model.encoder.layers.23.self_attn.k_proj.weight {noinline} = #stream.parameter.named<"model"::"text_encoder_model_2.text_model.encoder.layers.23.self_attn.k_proj.weight"> : tensor<1280x1280xf16>
  util.global private @_params.text_encoder_model_2.text_model.encoder.layers.23.self_attn.k_proj.bias {noinline} = #stream.parameter.named<"model"::"text_encoder_model_2.text_model.encoder.layers.23.self_attn.k_proj.bias"> : tensor<1280xf16>
  util.global private @_params.text_encoder_model_2.text_model.encoder.layers.23.self_attn.v_proj.weight {noinline} = #stream.parameter.named<"model"::"text_encoder_model_2.text_model.encoder.layers.23.self_attn.v_proj.weight"> : tensor<1280x1280xf16>
  util.global private @_params.text_encoder_model_2.text_model.encoder.layers.23.self_attn.v_proj.bias {noinline} = #stream.parameter.named<"model"::"text_encoder_model_2.text_model.encoder.layers.23.self_attn.v_proj.bias"> : tensor<1280xf16>
  util.global private @_params.text_encoder_model_2.text_model.encoder.layers.23.self_attn.q_proj.weight {noinline} = #stream.parameter.named<"model"::"text_encoder_model_2.text_model.encoder.layers.23.self_attn.q_proj.weight"> : tensor<1280x1280xf16>
  util.global private @_params.text_encoder_model_2.text_model.encoder.layers.23.self_attn.q_proj.bias {noinline} = #stream.parameter.named<"model"::"text_encoder_model_2.text_model.encoder.layers.23.self_attn.q_proj.bias"> : tensor<1280xf16>
  util.global private @_params.text_encoder_model_2.text_model.encoder.layers.23.self_attn.out_proj.weight {noinline} = #stream.parameter.named<"model"::"text_encoder_model_2.text_model.encoder.layers.23.self_attn.out_proj.weight"> : tensor<1280x1280xf16>
  util.global private @_params.text_encoder_model_2.text_model.encoder.layers.23.self_attn.out_proj.bias {noinline} = #stream.parameter.named<"model"::"text_encoder_model_2.text_model.encoder.layers.23.self_attn.out_proj.bias"> : tensor<1280xf16>
  util.global private @_params.text_encoder_model_2.text_model.encoder.layers.23.layer_norm1.weight {noinline} = #stream.parameter.named<"model"::"text_encoder_model_2.text_model.encoder.layers.23.layer_norm1.weight"> : tensor<1280xf16>
  util.global private @_params.text_encoder_model_2.text_model.encoder.layers.23.layer_norm1.bias {noinline} = #stream.parameter.named<"model"::"text_encoder_model_2.text_model.encoder.layers.23.layer_norm1.bias"> : tensor<1280xf16>
  util.global private @_params.text_encoder_model_2.text_model.encoder.layers.23.mlp.fc1.weight {noinline} = #stream.parameter.named<"model"::"text_encoder_model_2.text_model.encoder.layers.23.mlp.fc1.weight"> : tensor<5120x1280xf16>
  util.global private @_params.text_encoder_model_2.text_model.encoder.layers.23.mlp.fc1.bias {noinline} = #stream.parameter.named<"model"::"text_encoder_model_2.text_model.encoder.layers.23.mlp.fc1.bias"> : tensor<5120xf16>
  util.global private @_params.text_encoder_model_2.text_model.encoder.layers.23.mlp.fc2.weight {noinline} = #stream.parameter.named<"model"::"text_encoder_model_2.text_model.encoder.layers.23.mlp.fc2.weight"> : tensor<1280x5120xf16>
  util.global private @_params.text_encoder_model_2.text_model.encoder.layers.23.mlp.fc2.bias {noinline} = #stream.parameter.named<"model"::"text_encoder_model_2.text_model.encoder.layers.23.mlp.fc2.bias"> : tensor<1280xf16>
  util.global private @_params.text_encoder_model_2.text_model.encoder.layers.23.layer_norm2.weight {noinline} = #stream.parameter.named<"model"::"text_encoder_model_2.text_model.encoder.layers.23.layer_norm2.weight"> : tensor<1280xf16>
  util.global private @_params.text_encoder_model_2.text_model.encoder.layers.23.layer_norm2.bias {noinline} = #stream.parameter.named<"model"::"text_encoder_model_2.text_model.encoder.layers.23.layer_norm2.bias"> : tensor<1280xf16>
  util.global private @_params.text_encoder_model_2.text_model.encoder.layers.24.self_attn.k_proj.weight {noinline} = #stream.parameter.named<"model"::"text_encoder_model_2.text_model.encoder.layers.24.self_attn.k_proj.weight"> : tensor<1280x1280xf16>
  util.global private @_params.text_encoder_model_2.text_model.encoder.layers.24.self_attn.k_proj.bias {noinline} = #stream.parameter.named<"model"::"text_encoder_model_2.text_model.encoder.layers.24.self_attn.k_proj.bias"> : tensor<1280xf16>
  util.global private @_params.text_encoder_model_2.text_model.encoder.layers.24.self_attn.v_proj.weight {noinline} = #stream.parameter.named<"model"::"text_encoder_model_2.text_model.encoder.layers.24.self_attn.v_proj.weight"> : tensor<1280x1280xf16>
  util.global private @_params.text_encoder_model_2.text_model.encoder.layers.24.self_attn.v_proj.bias {noinline} = #stream.parameter.named<"model"::"text_encoder_model_2.text_model.encoder.layers.24.self_attn.v_proj.bias"> : tensor<1280xf16>
  util.global private @_params.text_encoder_model_2.text_model.encoder.layers.24.self_attn.q_proj.weight {noinline} = #stream.parameter.named<"model"::"text_encoder_model_2.text_model.encoder.layers.24.self_attn.q_proj.weight"> : tensor<1280x1280xf16>
  util.global private @_params.text_encoder_model_2.text_model.encoder.layers.24.self_attn.q_proj.bias {noinline} = #stream.parameter.named<"model"::"text_encoder_model_2.text_model.encoder.layers.24.self_attn.q_proj.bias"> : tensor<1280xf16>
  util.global private @_params.text_encoder_model_2.text_model.encoder.layers.24.self_attn.out_proj.weight {noinline} = #stream.parameter.named<"model"::"text_encoder_model_2.text_model.encoder.layers.24.self_attn.out_proj.weight"> : tensor<1280x1280xf16>
  util.global private @_params.text_encoder_model_2.text_model.encoder.layers.24.self_attn.out_proj.bias {noinline} = #stream.parameter.named<"model"::"text_encoder_model_2.text_model.encoder.layers.24.self_attn.out_proj.bias"> : tensor<1280xf16>
  util.global private @_params.text_encoder_model_2.text_model.encoder.layers.24.layer_norm1.weight {noinline} = #stream.parameter.named<"model"::"text_encoder_model_2.text_model.encoder.layers.24.layer_norm1.weight"> : tensor<1280xf16>
  util.global private @_params.text_encoder_model_2.text_model.encoder.layers.24.layer_norm1.bias {noinline} = #stream.parameter.named<"model"::"text_encoder_model_2.text_model.encoder.layers.24.layer_norm1.bias"> : tensor<1280xf16>
  util.global private @_params.text_encoder_model_2.text_model.encoder.layers.24.mlp.fc1.weight {noinline} = #stream.parameter.named<"model"::"text_encoder_model_2.text_model.encoder.layers.24.mlp.fc1.weight"> : tensor<5120x1280xf16>
  util.global private @_params.text_encoder_model_2.text_model.encoder.layers.24.mlp.fc1.bias {noinline} = #stream.parameter.named<"model"::"text_encoder_model_2.text_model.encoder.layers.24.mlp.fc1.bias"> : tensor<5120xf16>
  util.global private @_params.text_encoder_model_2.text_model.encoder.layers.24.mlp.fc2.weight {noinline} = #stream.parameter.named<"model"::"text_encoder_model_2.text_model.encoder.layers.24.mlp.fc2.weight"> : tensor<1280x5120xf16>
  util.global private @_params.text_encoder_model_2.text_model.encoder.layers.24.mlp.fc2.bias {noinline} = #stream.parameter.named<"model"::"text_encoder_model_2.text_model.encoder.layers.24.mlp.fc2.bias"> : tensor<1280xf16>
  util.global private @_params.text_encoder_model_2.text_model.encoder.layers.24.layer_norm2.weight {noinline} = #stream.parameter.named<"model"::"text_encoder_model_2.text_model.encoder.layers.24.layer_norm2.weight"> : tensor<1280xf16>
  util.global private @_params.text_encoder_model_2.text_model.encoder.layers.24.layer_norm2.bias {noinline} = #stream.parameter.named<"model"::"text_encoder_model_2.text_model.encoder.layers.24.layer_norm2.bias"> : tensor<1280xf16>
  util.global private @_params.text_encoder_model_2.text_model.encoder.layers.25.self_attn.k_proj.weight {noinline} = #stream.parameter.named<"model"::"text_encoder_model_2.text_model.encoder.layers.25.self_attn.k_proj.weight"> : tensor<1280x1280xf16>
  util.global private @_params.text_encoder_model_2.text_model.encoder.layers.25.self_attn.k_proj.bias {noinline} = #stream.parameter.named<"model"::"text_encoder_model_2.text_model.encoder.layers.25.self_attn.k_proj.bias"> : tensor<1280xf16>
  util.global private @_params.text_encoder_model_2.text_model.encoder.layers.25.self_attn.v_proj.weight {noinline} = #stream.parameter.named<"model"::"text_encoder_model_2.text_model.encoder.layers.25.self_attn.v_proj.weight"> : tensor<1280x1280xf16>
  util.global private @_params.text_encoder_model_2.text_model.encoder.layers.25.self_attn.v_proj.bias {noinline} = #stream.parameter.named<"model"::"text_encoder_model_2.text_model.encoder.layers.25.self_attn.v_proj.bias"> : tensor<1280xf16>
  util.global private @_params.text_encoder_model_2.text_model.encoder.layers.25.self_attn.q_proj.weight {noinline} = #stream.parameter.named<"model"::"text_encoder_model_2.text_model.encoder.layers.25.self_attn.q_proj.weight"> : tensor<1280x1280xf16>
  util.global private @_params.text_encoder_model_2.text_model.encoder.layers.25.self_attn.q_proj.bias {noinline} = #stream.parameter.named<"model"::"text_encoder_model_2.text_model.encoder.layers.25.self_attn.q_proj.bias"> : tensor<1280xf16>
  util.global private @_params.text_encoder_model_2.text_model.encoder.layers.25.self_attn.out_proj.weight {noinline} = #stream.parameter.named<"model"::"text_encoder_model_2.text_model.encoder.layers.25.self_attn.out_proj.weight"> : tensor<1280x1280xf16>
  util.global private @_params.text_encoder_model_2.text_model.encoder.layers.25.self_attn.out_proj.bias {noinline} = #stream.parameter.named<"model"::"text_encoder_model_2.text_model.encoder.layers.25.self_attn.out_proj.bias"> : tensor<1280xf16>
  util.global private @_params.text_encoder_model_2.text_model.encoder.layers.25.layer_norm1.weight {noinline} = #stream.parameter.named<"model"::"text_encoder_model_2.text_model.encoder.layers.25.layer_norm1.weight"> : tensor<1280xf16>
  util.global private @_params.text_encoder_model_2.text_model.encoder.layers.25.layer_norm1.bias {noinline} = #stream.parameter.named<"model"::"text_encoder_model_2.text_model.encoder.layers.25.layer_norm1.bias"> : tensor<1280xf16>
  util.global private @_params.text_encoder_model_2.text_model.encoder.layers.25.mlp.fc1.weight {noinline} = #stream.parameter.named<"model"::"text_encoder_model_2.text_model.encoder.layers.25.mlp.fc1.weight"> : tensor<5120x1280xf16>
  util.global private @_params.text_encoder_model_2.text_model.encoder.layers.25.mlp.fc1.bias {noinline} = #stream.parameter.named<"model"::"text_encoder_model_2.text_model.encoder.layers.25.mlp.fc1.bias"> : tensor<5120xf16>
  util.global private @_params.text_encoder_model_2.text_model.encoder.layers.25.mlp.fc2.weight {noinline} = #stream.parameter.named<"model"::"text_encoder_model_2.text_model.encoder.layers.25.mlp.fc2.weight"> : tensor<1280x5120xf16>
  util.global private @_params.text_encoder_model_2.text_model.encoder.layers.25.mlp.fc2.bias {noinline} = #stream.parameter.named<"model"::"text_encoder_model_2.text_model.encoder.layers.25.mlp.fc2.bias"> : tensor<1280xf16>
  util.global private @_params.text_encoder_model_2.text_model.encoder.layers.25.layer_norm2.weight {noinline} = #stream.parameter.named<"model"::"text_encoder_model_2.text_model.encoder.layers.25.layer_norm2.weight"> : tensor<1280xf16>
  util.global private @_params.text_encoder_model_2.text_model.encoder.layers.25.layer_norm2.bias {noinline} = #stream.parameter.named<"model"::"text_encoder_model_2.text_model.encoder.layers.25.layer_norm2.bias"> : tensor<1280xf16>
  util.global private @_params.text_encoder_model_2.text_model.encoder.layers.26.self_attn.k_proj.weight {noinline} = #stream.parameter.named<"model"::"text_encoder_model_2.text_model.encoder.layers.26.self_attn.k_proj.weight"> : tensor<1280x1280xf16>
  util.global private @_params.text_encoder_model_2.text_model.encoder.layers.26.self_attn.k_proj.bias {noinline} = #stream.parameter.named<"model"::"text_encoder_model_2.text_model.encoder.layers.26.self_attn.k_proj.bias"> : tensor<1280xf16>
  util.global private @_params.text_encoder_model_2.text_model.encoder.layers.26.self_attn.v_proj.weight {noinline} = #stream.parameter.named<"model"::"text_encoder_model_2.text_model.encoder.layers.26.self_attn.v_proj.weight"> : tensor<1280x1280xf16>
  util.global private @_params.text_encoder_model_2.text_model.encoder.layers.26.self_attn.v_proj.bias {noinline} = #stream.parameter.named<"model"::"text_encoder_model_2.text_model.encoder.layers.26.self_attn.v_proj.bias"> : tensor<1280xf16>
  util.global private @_params.text_encoder_model_2.text_model.encoder.layers.26.self_attn.q_proj.weight {noinline} = #stream.parameter.named<"model"::"text_encoder_model_2.text_model.encoder.layers.26.self_attn.q_proj.weight"> : tensor<1280x1280xf16>
  util.global private @_params.text_encoder_model_2.text_model.encoder.layers.26.self_attn.q_proj.bias {noinline} = #stream.parameter.named<"model"::"text_encoder_model_2.text_model.encoder.layers.26.self_attn.q_proj.bias"> : tensor<1280xf16>
  util.global private @_params.text_encoder_model_2.text_model.encoder.layers.26.self_attn.out_proj.weight {noinline} = #stream.parameter.named<"model"::"text_encoder_model_2.text_model.encoder.layers.26.self_attn.out_proj.weight"> : tensor<1280x1280xf16>
  util.global private @_params.text_encoder_model_2.text_model.encoder.layers.26.self_attn.out_proj.bias {noinline} = #stream.parameter.named<"model"::"text_encoder_model_2.text_model.encoder.layers.26.self_attn.out_proj.bias"> : tensor<1280xf16>
  util.global private @_params.text_encoder_model_2.text_model.encoder.layers.26.layer_norm1.weight {noinline} = #stream.parameter.named<"model"::"text_encoder_model_2.text_model.encoder.layers.26.layer_norm1.weight"> : tensor<1280xf16>
  util.global private @_params.text_encoder_model_2.text_model.encoder.layers.26.layer_norm1.bias {noinline} = #stream.parameter.named<"model"::"text_encoder_model_2.text_model.encoder.layers.26.layer_norm1.bias"> : tensor<1280xf16>
  util.global private @_params.text_encoder_model_2.text_model.encoder.layers.26.mlp.fc1.weight {noinline} = #stream.parameter.named<"model"::"text_encoder_model_2.text_model.encoder.layers.26.mlp.fc1.weight"> : tensor<5120x1280xf16>
  util.global private @_params.text_encoder_model_2.text_model.encoder.layers.26.mlp.fc1.bias {noinline} = #stream.parameter.named<"model"::"text_encoder_model_2.text_model.encoder.layers.26.mlp.fc1.bias"> : tensor<5120xf16>
  util.global private @_params.text_encoder_model_2.text_model.encoder.layers.26.mlp.fc2.weight {noinline} = #stream.parameter.named<"model"::"text_encoder_model_2.text_model.encoder.layers.26.mlp.fc2.weight"> : tensor<1280x5120xf16>
…
    %13687 = torch_c.from_builtin_tensor %_params.text_encoder_model_2.text_model.encoder.layers.30.layer_norm2.weight_15445 : tensor<1280xf16> -> !torch.vtensor<[1280],f16>
    %13688 = torch.aten.mul.Tensor %13686, %13687 : !torch.vtensor<[1,64,1280],f32>, !torch.vtensor<[1280],f16> -> !torch.vtensor<[1,64,1280],f32>
    %_params.text_encoder_model_2.text_model.encoder.layers.30.layer_norm2.bias_15446 = util.global.load @_params.text_encoder_model_2.text_model.encoder.layers.30.layer_norm2.bias : tensor<1280xf16>
    %13689 = torch_c.from_builtin_tensor %_params.text_encoder_model_2.text_model.encoder.layers.30.layer_norm2.bias_15446 : tensor<1280xf16> -> !torch.vtensor<[1280],f16>
    %int1_15447 = torch.constant.int 1
    %13690 = torch.aten.add.Tensor %13688, %13689, %int1_15447 : !torch.vtensor<[1,64,1280],f32>, !torch.vtensor<[1280],f16>, !torch.int -> !torch.vtensor<[1,64,1280],f32>
    %int5_15448 = torch.constant.int 5
    %13691 = torch.prims.convert_element_type %13690, %int5_15448 : !torch.vtensor<[1,64,1280],f32>, !torch.int -> !torch.vtensor<[1,64,1280],f16>
    %int5_15449 = torch.constant.int 5
    %13692 = torch.prims.convert_element_type %result1_15441, %int5_15449 : !torch.vtensor<[1,64,1],f32>, !torch.int -> !torch.vtensor<[1,64,1],f16>
    %int5_15450 = torch.constant.int 5
    %13693 = torch.prims.convert_element_type %13684, %int5_15450 : !torch.vtensor<[1,64,1],f32>, !torch.int -> !torch.vtensor<[1,64,1],f16>
    %int64_15451 = torch.constant.int 64
    %int1280_15452 = torch.constant.int 1280
    %13694 = torch.prim.ListConstruct %int64_15451, %int1280_15452 : (!torch.int, !torch.int) -> !torch.list<int>
    %13695 = torch.aten.view %13691, %13694 : !torch.vtensor<[1,64,1280],f16>, !torch.list<int> -> !torch.vtensor<[64,1280],f16>
    %_params.text_encoder_model_2.text_model.encoder.layers.30.mlp.fc1.weight_15453 = util.global.load @_params.text_encoder_model_2.text_model.encoder.layers.30.mlp.fc1.weight : tensor<5120x1280xf16>
    %13696 = torch_c.from_builtin_tensor %_params.text_encoder_model_2.text_model.encoder.layers.30.mlp.fc1.weight_15453 : tensor<5120x1280xf16> -> !torch.vtensor<[5120,1280],f16>
    %int0_15454 = torch.constant.int 0
    %int1_15455 = torch.constant.int 1
    %13697 = torch.aten.transpose.int %13696, %int0_15454, %int1_15455 : !torch.vtensor<[5120,1280],f16>, !torch.int, !torch.int -> !torch.vtensor<[1280,5120],f16>
    %_params.text_encoder_model_2.text_model.encoder.layers.30.mlp.fc1.bias_15456 = util.global.load @_params.text_encoder_model_2.text_model.encoder.layers.30.mlp.fc1.bias : tensor<5120xf16>
    %13698 = torch_c.from_builtin_tensor %_params.text_encoder_model_2.text_model.encoder.layers.30.mlp.fc1.bias_15456 : tensor<5120xf16> -> !torch.vtensor<[5120],f16>
    %int6_15457 = torch.constant.int 6
    %13699 = torch.prims.convert_element_type %13698, %int6_15457 : !torch.vtensor<[5120],f16>, !torch.int -> !torch.vtensor<[5120],f32>
    %int6_15458 = torch.constant.int 6
    %13700 = torch.prims.convert_element_type %13695, %int6_15458 : !torch.vtensor<[64,1280],f16>, !torch.int -> !torch.vtensor<[64,1280],f32>
    %int6_15459 = torch.constant.int 6
    %13701 = torch.prims.convert_element_type %13697, %int6_15459 : !torch.vtensor<[1280,5120],f16>, !torch.int -> !torch.vtensor<[1280,5120],f32>
    %13702 = torch.aten.mm %13700, %13701 : !torch.vtensor<[64,1280],f32>, !torch.vtensor<[1280,5120],f32> -> !torch.vtensor<[64,5120],f32>
    %int1_15460 = torch.constant.int 1
    %13703 = torch.aten.mul.Scalar %13702, %int1_15460 : !torch.vtensor<[64,5120],f32>, !torch.int -> !torch.vtensor<[64,5120],f32>
    %int1_15461 = torch.constant.int 1
    %13704 = torch.aten.mul.Scalar %13699, %int1_15461 : !torch.vtensor<[5120],f32>, !torch.int -> !torch.vtensor<[5120],f32>
    %int1_15462 = torch.constant.int 1
    %13705 = torch.aten.add.Tensor %13703, %13704, %int1_15462 : !torch.vtensor<[64,5120],f32>, !torch.vtensor<[5120],f32>, !torch.int -> !torch.vtensor<[64,5120],f32>
    %int5_15463 = torch.constant.int 5
    %13706 = torch.prims.convert_element_type %13705, %int5_15463 : !torch.vtensor<[64,5120],f32>, !torch.int -> !torch.vtensor<[64,5120],f16>
    %int1_15464 = torch.constant.int 1
    %int64_15465 = torch.constant.int 64
    %int5120_15466 = torch.constant.int 5120
    %13707 = torch.prim.ListConstruct %int1_15464, %int64_15465, %int5120_15466 : (!torch.int, !torch.int, !torch.int) -> !torch.list<int>
    %13708 = torch.aten.view %13706, %13707 : !torch.vtensor<[64,5120],f16>, !torch.list<int> -> !torch.vtensor<[1,64,5120],f16>
    %str_15467 = torch.constant.str "none"
    %13709 = torch.aten.gelu %13708, %str_15467 : !torch.vtensor<[1,64,5120],f16>, !torch.str -> !torch.vtensor<[1,64,5120],f16>
    %int64_15468 = torch.constant.int 64
    %int5120_15469 = torch.constant.int 5120
    %13710 = torch.prim.ListConstruct %int64_15468, %int5120_15469 : (!torch.int, !torch.int) -> !torch.list<int>
    %13711 = torch.aten.view %13709, %13710 : !torch.vtensor<[1,64,5120],f16>, !torch.list<int> -> !torch.vtensor<[64,5120],f16>
    %_params.text_encoder_model_2.text_model.encoder.layers.30.mlp.fc2.weight_15470 = util.global.load @_params.text_encoder_model_2.text_model.encoder.layers.30.mlp.fc2.weight : tensor<1280x5120xf16>
    %13712 = torch_c.from_builtin_tensor %_params.text_encoder_model_2.text_model.encoder.layers.30.mlp.fc2.weight_15470 : tensor<1280x5120xf16> -> !torch.vtensor<[1280,5120],f16>
    %int0_15471 = torch.constant.int 0
    %int1_15472 = torch.constant.int 1
    %13713 = torch.aten.transpose.int %13712, %int0_15471, %int1_15472 : !torch.vtensor<[1280,5120],f16>, !torch.int, !torch.int -> !torch.vtensor<[5120,1280],f16>
    %_params.text_encoder_model_2.text_model.encoder.layers.30.mlp.fc2.bias_15473 = util.global.load @_params.text_encoder_model_2.text_model.encoder.layers.30.mlp.fc2.bias : tensor<1280xf16>
    %13714 = torch_c.from_builtin_tensor %_params.text_encoder_model_2.text_model.encoder.layers.30.mlp.fc2.bias_15473 : tensor<1280xf16> -> !torch.vtensor<[1280],f16>
    %int6_15474 = torch.constant.int 6
    %13715 = torch.prims.convert_element_type %13714, %int6_15474 : !torch.vtensor<[1280],f16>, !torch.int -> !torch.vtensor<[1280],f32>
    %int6_15475 = torch.constant.int 6
    %13716 = torch.prims.convert_element_type %13711, %int6_15475 : !torch.vtensor<[64,5120],f16>, !torch.int -> !torch.vtensor<[64,5120],f32>
    %int6_15476 = torch.constant.int 6
    %13717 = torch.prims.convert_element_type %13713, %int6_15476 : !torch.vtensor<[5120,1280],f16>, !torch.int -> !torch.vtensor<[5120,1280],f32>
    %13718 = torch.aten.mm %13716, %13717 : !torch.vtensor<[64,5120],f32>, !torch.vtensor<[5120,1280],f32> -> !torch.vtensor<[64,1280],f32>
    %int1_15477 = torch.constant.int 1
    %13719 = torch.aten.mul.Scalar %13718, %int1_15477 : !torch.vtensor<[64,1280],f32>, !torch.int -> !torch.vtensor<[64,1280],f32>
    %int1_15478 = torch.constant.int 1
    %13720 = torch.aten.mul.Scalar %13715, %int1_15478 : !torch.vtensor<[1280],f32>, !torch.int -> !torch.vtensor<[1280],f32>
    %int1_15479 = torch.constant.int 1
    %13721 = torch.aten.add.Tensor %13719, %13720, %int1_15479 : !torch.vtensor<[64,1280],f32>, !torch.vtensor<[1280],f32>, !torch.int -> !torch.vtensor<[64,1280],f32>
    %int5_15480 = torch.constant.int 5
    %13722 = torch.prims.convert_element_type %13721, %int5_15480 : !torch.vtensor<[64,1280],f32>, !torch.int -> !torch.vtensor<[64,1280],f16>
    %int1_15481 = torch.constant.int 1
    %int64_15482 = torch.constant.int 64
    %int1280_15483 = torch.constant.int 1280
    %13723 = torch.prim.ListConstruct %int1_15481, %int64_15482, %int1280_15483 : (!torch.int, !torch.int, !torch.int) -> !torch.list<int>
    %13724 = torch.aten.view %13722, %13723 : !torch.vtensor<[64,1280],f16>, !torch.list<int> -> !torch.vtensor<[1,64,1280],f16>
    %int1_15484 = torch.constant.int 1
    %13725 = torch.aten.add.Tensor %13680, %13724, %int1_15484 : !torch.vtensor<[1,64,1280],f16>, !torch.vtensor<[1,64,1280],f16>, !torch.int -> !torch.vtensor<[1,64,1280],f16>
    %int6_15485 = torch.constant.int 6
    %13726 = torch.prims.convert_element_type %13725, %int6_15485 : !torch.vtensor<[1,64,1280],f16>, !torch.int -> !torch.vtensor<[1,64,1280],f32>
    %int2_15486 = torch.constant.int 2
    %13727 = torch.prim.ListConstruct %int2_15486 : (!torch.int) -> !torch.list<int>
    %int0_15487 = torch.constant.int 0
    %true_15488 = torch.constant.bool true
    %result0_15489, %result1_15490 = torch.aten.var_mean.correction %13726, %13727, %int0_15487, %true_15488 : !torch.vtensor<[1,64,1280],f32>, !torch.list<int>, !torch.int, !torch.bool -> !torch.vtensor<[1,64,1],f32>, !torch.vtensor<[1,64,1],f32>
    %float1.000000e-05_15491 = torch.constant.float 1.000000e-05
    %int1_15492 = torch.constant.int 1
    %13728 = torch.aten.add.Scalar %result0_15489, %float1.000000e-05_15491, %int1_15492 : !torch.vtensor<[1,64,1],f32>, !torch.float, !torch.int -> !torch.vtensor<[1,64,1],f32>
    %13729 = torch.aten.rsqrt %13728 : !torch.vtensor<[1,64,1],f32> -> !torch.vtensor<[1,64,1],f32>
    %int1_15493 = torch.constant.int 1
    %13730 = torch.aten.sub.Tensor %13725, %result1_15490, %int1_15493 : !torch.vtensor<[1,64,1280],f16>, !torch.vtensor<[1,64,1],f32>, !torch.int -> !torch.vtensor<[1,64,1280],f32>
    %13731 = torch.aten.mul.Tensor %13730, %13729 : !torch.vtensor<[1,64,1280],f32>, !torch.vtensor<[1,64,1],f32> -> !torch.vtensor<[1,64,1280],f32>
    %_params.text_encoder_model_2.text_model.encoder.layers.31.layer_norm1.weight_15494 = util.global.load @_params.text_encoder_model_2.text_model.encoder.layers.31.layer_norm1.weight : tensor<1280xf16>
    %13732 = torch_c.from_builtin_tensor %_params.text_encoder_model_2.text_model.encoder.layers.31.layer_norm1.weight_15494 : tensor<1280xf16> -> !torch.vtensor<[1280],f16>
    %13733 = torch.aten.mul.Tensor %13731, %13732 : !torch.vtensor<[1,64,1280],f32>, !torch.vtensor<[1280],f16> -> !torch.vtensor<[1,64,1280],f32>
    %_params.text_encoder_model_2.text_model.encoder.layers.31.layer_norm1.bias_15495 = util.global.load @_params.text_encoder_model_2.text_model.encoder.layers.31.layer_norm1.bias : tensor<1280xf16>
    %13734 = torch_c.from_builtin_tensor %_params.text_encoder_model_2.text_model.encoder.layers.31.layer_norm1.bias_15495 : tensor<1280xf16> -> !torch.vtensor<[1280],f16>
    %int1_15496 = torch.constant.int 1
    %13735 = torch.aten.add.Tensor %13733, %13734, %int1_15496 : !torch.vtensor<[1,64,1280],f32>, !torch.vtensor<[1280],f16>, !torch.int -> !torch.vtensor<[1,64,1280],f32>
    %int5_15497 = torch.constant.int 5
    %13736 = torch.prims.convert_element_type %13735, %int5_15497 : !torch.vtensor<[1,64,1280],f32>, !torch.int -> !torch.vtensor<[1,64,1280],f16>
    %int5_15498 = torch.constant.int 5
    %13737 = torch.prims.convert_element_type %result1_15490, %int5_15498 : !torch.vtensor<[1,64,1],f32>, !torch.int -> !torch.vtensor<[1,64,1],f16>
    %int5_15499 = torch.constant.int 5
    %13738 = torch.prims.convert_element_type %13729, %int5_15499 : !torch.vtensor<[1,64,1],f32>, !torch.int -> !torch.vtensor<[1,64,1],f16>
    %int64_15500 = torch.constant.int 64
    %int1280_15501 = torch.constant.int 1280
    %13739 = torch.prim.ListConstruct %int64_15500, %int1280_15501 : (!torch.int, !torch.int) -> !torch.list<int>
    %13740 = torch.aten.view %13736, %13739 : !torch.vtensor<[1,64,1280],f16>, !torch.list<int> -> !torch.vtensor<[64,1280],f16>
    %_params.text_encoder_model_2.text_model.encoder.layers.31.self_attn.q_proj.weight_15502 = util.global.load @_params.text_encoder_model_2.text_model.encoder.layers.31.self_attn.q_proj.weight : tensor<1280x1280xf16>
    %13741 = torch_c.from_builtin_tensor %_params.text_encoder_model_2.text_model.encoder.layers.31.self_attn.q_proj.weight_15502 : tensor<1280x1280xf16> -> !torch.vtensor<[1280,1280],f16>
    %int0_15503 = torch.constant.int 0
    %int1_15504 = torch.constant.int 1
    %13742 = torch.aten.transpose.int %13741, %int0_15503, %int1_15504 : !torch.vtensor<[1280,1280],f16>, !torch.int, !torch.int -> !torch.vtensor<[1280,1280],f16>
    %_params.text_encoder_model_2.text_model.encoder.layers.31.self_attn.q_proj.bias_15505 = util.global.load @_params.text_encoder_model_2.text_model.encoder.layers.31.self_attn.q_proj.bias : tensor<1280xf16>
    %13743 = torch_c.from_builtin_tensor %_params.text_encoder_model_2.text_model.encoder.layers.31.self_attn.q_proj.bias_15505 : tensor<1280xf16> -> !torch.vtensor<[1280],f16>
    %int6_15506 = torch.constant.int 6
    %13744 = torch.prims.convert_element_type %13743, %int6_15506 : !torch.vtensor<[1280],f16>, !torch.int -> !torch.vtensor<[1280],f32>
    %int6_15507 = torch.constant.int 6
    %13745 = torch.prims.convert_element_type %13740, %int6_15507 : !torch.vtensor<[64,1280],f16>, !torch.int -> !torch.vtensor<[64,1280],f32>
    %int6_15508 = torch.constant.int 6
    %13746 = torch.prims.convert_element_type %13742, %int6_15508 : !torch.vtensor<[1280,1280],f16>, !torch.int -> !torch.vtensor<[1280,1280],f32>
    %13747 = torch.aten.mm %13745, %13746 : !torch.vtensor<[64,1280],f32>, !torch.vtensor<[1280,1280],f32> -> !torch.vtensor<[64,1280],f32>
    %int1_15509 = torch.constant.int 1
    %13748 = torch.aten.mul.Scalar %13747, %int1_15509 : !torch.vtensor<[64,1280],f32>, !torch.int -> !torch.vtensor<[64,1280],f32>
    %int1_15510 = torch.constant.int 1
    %13749 = torch.aten.mul.Scalar %13744, %int1_15510 : !torch.vtensor<[1280],f32>, !torch.int -> !torch.vtensor<[1280],f32>
    %int1_15511 = torch.constant.int 1
    %13750 = torch.aten.add.Tensor %13748, %13749, %int1_15511 : !torch.vtensor<[64,1280],f32>, !torch.vtensor<[1280],f32>, !torch.int -> !torch.vtensor<[64,1280],f32>
    %int5_15512 = torch.constant.int 5
    %13751 = torch.prims.convert_element_type %13750, %int5_15512 : !torch.vtensor<[64,1280],f32>, !torch.int -> !torch.vtensor<[64,1280],f16>
    %int1_15513 = torch.constant.int 1
    %int64_15514 = torch.constant.int 64
    %int1280_15515 = torch.constant.int 1280
    %13752 = torch.prim.ListConstruct %int1_15513, %int64_15514, %int1280_15515 : (!torch.int, !torch.int, !torch.int) -> !torch.list<int>
    %13753 = torch.aten.view %13751, %13752 : !torch.vtensor<[64,1280],f16>, !torch.list<int> -> !torch.vtensor<[1,64,1280],f16>
    %float1.250000e-01_15516 = torch.constant.float 1.250000e-01
    %13754 = torch.aten.mul.Scalar %13753, %float1.250000e-01_15516 : !torch.vtensor<[1,64,1280],f16>, !torch.float -> !torch.vtensor<[1,64,1280],f16>
    %int64_15517 = torch.constant.int 64
    %int1280_15518 = torch.constant.int 1280
    %13755 = torch.prim.ListConstruct %int64_15517, %int1280_15518 : (!torch.int, !torch.int) -> !torch.list<int>
    %13756 = torch.aten.view %13736, %13755 : !torch.vtensor<[1,64,1280],f16>, !torch.list<int> -> !torch.vtensor<[64,1280],f16>
    %_params.text_encoder_model_2.text_model.encoder.layers.31.self_attn.k_proj.weight_15519 = util.global.load @_params.text_encoder_model_2.text_model.encoder.layers.31.self_attn.k_proj.weight : tensor<1280x1280xf16>
    %13757 = torch_c.from_builtin_tensor %_params.text_encoder_model_2.text_model.encoder.layers.31.self_attn.k_proj.weight_15519 : tensor<1280x1280xf16> -> !torch.vtensor<[1280,1280],f16>
    %int0_15520 = torch.constant.int 0
    %int1_15521 = torch.constant.int 1
    %13758 = torch.aten.transpose.int %13757, %int0_15520, %int1_15521 : !torch.vtensor<[1280,1280],f16>, !torch.int, !torch.int -> !torch.vtensor<[1280,1280],f16>
    %_params.text_encoder_model_2.text_model.encoder.layers.31.self_attn.k_proj.bias_15522 = util.global.load @_params.text_encoder_model_2.text_model.encoder.layers.31.self_attn.k_proj.bias : tensor<1280xf16>
    %13759 = torch_c.from_builtin_tensor %_params.text_encoder_model_2.text_model.encoder.layers.31.self_attn.k_proj.bias_15522 : tensor<1280xf16> -> !torch.vtensor<[1280],f16>
    %int6_15523 = torch.constant.int 6
    %13760 = torch.prims.convert_element_type %13759, %int6_15523 : !torch.vtensor<[1280],f16>, !torch.int -> !torch.vtensor<[1280],f32>
    %int6_15524 = torch.constant.int 6
    %13761 = torch.prims.convert_element_type %13756, %int6_15524 : !torch.vtensor<[64,1280],f16>, !torch.int -> !torch.vtensor<[64,1280],f32>
    %int6_15525 = torch.constant.int 6
    %13762 = torch.prims.convert_element_type %13758, %int6_15525 : !torch.vtensor<[1280,1280],f16>, !torch.int -> !torch.vtensor<[1280,1280],f32>
    %13763 = torch.aten.mm %13761, %13762 : !torch.vtensor<[64,1280],f32>, !torch.vtensor<[1280,1280],f32> -> !torch.vtensor<[64,1280],f32>
    %int1_15526 = torch.constant.int 1
    %13764 = torch.aten.mul.Scalar %13763, %int1_15526 : !torch.vtensor<[64,1280],f32>, !torch.int -> !torch.vtensor<[64,1280],f32>
    %int1_15527 = torch.constant.int 1
    %13765 = torch.aten.mul.Scalar %13760, %int1_15527 : !torch.vtensor<[1280],f32>, !torch.int -> !torch.vtensor<[1280],f32>
    %int1_15528 = torch.constant.int 1
    %13766 = torch.aten.add.Tensor %13764, %13765, %int1_15528 : !torch.vtensor<[64,1280],f32>, !torch.vtensor<[1280],f32>, !torch.int -> !torch.vtensor<[64,1280],f32>
    %int5_15529 = torch.constant.int 5
    %13767 = torch.prims.convert_element_type %13766, %int5_15529 : !torch.vtensor<[64,1280],f32>, !torch.int -> !torch.vtensor<[64,1280],f16>
    %int1_15530 = torch.constant.int 1
    %int64_15531 = torch.constant.int 64
    %int1280_15532 = torch.constant.int 1280
    %13768 = torch.prim.ListConstruct %int1_15530, %int64_15531, %int1280_15532 : (!torch.int, !torch.int, !torch.int) -> !torch.list<int>
    %13769 = torch.aten.view %13767, %13768 : !torch.vtensor<[64,1280],f16>, !torch.list<int> -> !torch.vtensor<[1,64,1280],f16>
    %int1_15533 = torch.constant.int 1
    %int-1_15534 = torch.constant.int -1
    %int20_15535 = torch.constant.int 20
    %int64_15536 = torch.constant.int 64
    %13770 = torch.prim.ListConstruct %int1_15533, %int-1_15534, %int20_15535, %int64_15536 : (!torch.int, !torch.int, !torch.int, !torch.int) -> !torch.list<int>
    %13771 = torch.aten.view %13769, %13770 : !torch.vtensor<[1,64,1280],f16>, !torch.list<int> -> !torch.vtensor<[1,64,20,64],f16>
    %int1_15537 = torch.constant.int 1
    %int2_15538 = torch.constant.int 2
    %13772 = torch.aten.transpose.int %13771, %int1_15537, %int2_15538 : !torch.vtensor<[1,64,20,64],f16>, !torch.int, !torch.int -> !torch.vtensor<[1,20,64,64],f16>
    %int0_15539 = torch.constant.int 0
    %13773 = torch.aten.clone %13772, %int0_15539 : !torch.vtensor<[1,20,64,64],f16>, !torch.int -> !torch.vtensor<[1,20,64,64],f16>
    %int64_15540 = torch.constant.int 64
    %int1280_15541 = torch.constant.int 1280
    %13774 = torch.prim.ListConstruct %int64_15540, %int1280_15541 : (!torch.int, !torch.int) -> !torch.list<int>
    %13775 = torch.aten.view %13736, %13774 : !torch.vtensor<[1,64,1280],f16>, !torch.list<int> -> !torch.vtensor<[64,1280],f16>
    %_params.text_encoder_model_2.text_model.encoder.layers.31.self_attn.v_proj.weight_15542 = util.global.load @_params.text_encoder_model_2.text_model.encoder.layers.31.self_attn.v_proj.weight : tensor<1280x1280xf16>
    %13776 = torch_c.from_builtin_tensor %_params.text_encoder_model_2.text_model.encoder.layers.31.self_attn.v_proj.weight_15542 : tensor<1280x1280xf16> -> !torch.vtensor<[1280,1280],f16>
    %int0_15543 = torch.constant.int 0
    %int1_15544 = torch.constant.int 1
    %13777 = torch.aten.transpose.int %13776, %int0_15543, %int1_15544 : !torch.vtensor<[1280,1280],f16>, !torch.int, !torch.int -> !torch.vtensor<[1280,1280],f16>
    %_params.text_encoder_model_2.text_model.encoder.layers.31.self_attn.v_proj.bias_15545 = util.global.load @_params.text_encoder_model_2.text_model.encoder.layers.31.self_attn.v_proj.bias : tensor<1280xf16>
    %13778 = torch_c.from_builtin_tensor %_params.text_encoder_model_2.text_model.encoder.layers.31.self_attn.v_proj.bias_15545 : tensor<1280xf16> -> !torch.vtensor<[1280],f16>
    %int6_15546 = torch.constant.int 6
    %13779 = torch.prims.convert_element_type %13778, %int6_15546 : !torch.vtensor<[1280],f16>, !torch.int -> !torch.vtensor<[1280],f32>
    %int6_15547 = torch.constant.int 6
    %13780 = torch.prims.convert_element_type %13775, %int6_15547 : !torch.vtensor<[64,1280],f16>, !torch.int -> !torch.vtensor<[64,1280],f32>
    %int6_15548 = torch.constant.int 6
    %13781 = torch.prims.convert_element_type %13777, %int6_15548 : !torch.vtensor<[1280,1280],f16>, !torch.int -> !torch.vtensor<[1280,1280],f32>
    %13782 = torch.aten.mm %13780, %13781 : !torch.vtensor<[64,1280],f32>, !torch.vtensor<[1280,1280],f32> -> !torch.vtensor<[64,1280],f32>
    %int1_15549 = torch.constant.int 1
    %13783 = torch.aten.mul.Scalar %13782, %int1_15549 : !torch.vtensor<[64,1280],f32>, !torch.int -> !torch.vtensor<[64,1280],f32>
    %int1_15550 = torch.constant.int 1
    %13784 = torch.aten.mul.Scalar %13779, %int1_15550 : !torch.vtensor<[1280],f32>, !torch.int -> !torch.vtensor<[1280],f32>
    %int1_15551 = torch.constant.int 1
    %13785 = torch.aten.add.Tensor %13783, %13784, %int1_15551 : !torch.vtensor<[64,1280],f32>, !torch.vtensor<[1280],f32>, !torch.int -> !torch.vtensor<[64,1280],f32>
    %int5_15552 = torch.constant.int 5
    %13786 = torch.prims.convert_element_type %13785, %int5_15552 : !torch.vtensor<[64,1280],f32>, !torch.int -> !torch.vtensor<[64,1280],f16>
    %int1_15553 = torch.constant.int 1
    %int64_15554 = torch.constant.int 64
    %int1280_15555 = torch.constant.int 1280
    %13787 = torch.prim.ListConstruct %int1_15553, %int64_15554, %int1280_15555 : (!torch.int, !torch.int, !torch.int) -> !torch.list<int>
    %13788 = torch.aten.view %13786, %13787 : !torch.vtensor<[64,1280],f16>, !torch.list<int> -> !torch.vtensor<[1,64,1280],f16>
    %int1_15556 = torch.constant.int 1
    %int-1_15557 = torch.constant.int -1
    %int20_15558 = torch.constant.int 20
    %int64_15559 = torch.constant.int 64
    %13789 = torch.prim.ListConstruct %int1_15556, %int-1_15557, %int20_15558, %int64_15559 : (!torch.int, !torch.int, !torch.int, !torch.int) -> !torch.list<int>
    %13790 = torch.aten.view %13788, %13789 : !torch.vtensor<[1,64,1280],f16>, !torch.list<int> -> !torch.vtensor<[1,64,20,64],f16>
    %int1_15560 = torch.constant.int 1
    %int2_15561 = torch.constant.int 2
    %13791 = torch.aten.transpose.int %13790, %int1_15560, %int2_15561 : !torch.vtensor<[1,64,20,64],f16>, !torch.int, !torch.int -> !torch.vtensor<[1,20,64,64],f16>
    %int0_15562 = torch.constant.int 0
    %13792 = torch.aten.clone %13791, %int0_15562 : !torch.vtensor<[1,20,64,64],f16>, !torch.int -> !torch.vtensor<[1,20,64,64],f16>
    %int1_15563 = torch.constant.int 1
    %int64_15564 = torch.constant.int 64
    %int20_15565 = torch.constant.int 20
    %int64_15566 = torch.constant.int 64
    %13793 = torch.prim.ListConstruct %int1_15563, %int64_15564, %int20_15565, %int64_15566 : (!torch.int, !torch.int, !torch.int, !torch.int) -> !torch.list<int>
    %13794 = torch.aten.view %13754, %13793 : !torch.vtensor<[1,64,1280],f16>, !torch.list<int> -> !torch.vtensor<[1,64,20,64],f16>
    %int1_15567 = torch.constant.int 1
    %int2_15568 = torch.constant.int 2
    %13795 = torch.aten.transpose.int %13794, %int1_15567, %int2_15568 : !torch.vtensor<[1,64,20,64],f16>, !torch.int, !torch.int -> !torch.vtensor<[1,20,64,64],f16>
    %int0_15569 = torch.constant.int 0
    %13796 = torch.aten.clone %13795, %int0_15569 : !torch.vtensor<[1,20,64,64],f16>, !torch.int -> !torch.vtensor<[1,20,64,64],f16>
    %int20_15570 = torch.constant.int 20
    %int-1_15571 = torch.constant.int -1
    %int64_15572 = torch.constant.int 64
    %13797 = torch.prim.ListConstruct %int20_15570, %int-1_15571, %int64_15572 : (!torch.int, !torch.int, !torch.int) -> !torch.list<int>
    %13798 = torch.aten.view %13796, %13797 : !torch.vtensor<[1,20,64,64],f16>, !torch.list<int> -> !torch.vtensor<[20,64,64],f16>
    %int20_15573 = torch.constant.int 20
    %int-1_15574 = torch.constant.int -1
    %int64_15575 = torch.constant.int 64
    %13799 = torch.prim.ListConstruct %int20_15573, %int-1_15574, %int64_15575 : (!torch.int, !torch.int, !torch.int) -> !torch.list<int>
    %13800 = torch.aten.view %13773, %13799 : !torch.vtensor<[1,20,64,64],f16>, !torch.list<int> -> !torch.vtensor<[20,64,64],f16>
    %int20_15576 = torch.constant.int 20
    %int-1_15577 = torch.constant.int -1
    %int64_15578 = torch.constant.int 64
    %13801 = torch.prim.ListConstruct %int20_15576, %int-1_15577, %int64_15578 : (!torch.int, !torch.int, !torch.int) -> !torch.list<int>
    %13802 = torch.aten.view %13792, %13801 : !torch.vtensor<[1,20,64,64],f16>, !torch.list<int> -> !torch.vtensor<[20,64,64],f16>
    %int1_15579 = torch.constant.int 1
    %int2_15580 = torch.constant.int 2
    %13803 = torch.aten.transpose.int %13800, %int1_15579, %int2_15580 : !torch.vtensor<[20,64,64],f16>, !torch.int, !torch.int -> !torch.vtensor<[20,64,64],f16>
    %13804 = torch.aten.bmm %13798, %13803 : !torch.vtensor<[20,64,64],f16>, !torch.vtensor<[20,64,64],f16> -> !torch.vtensor<[20,64,64],f16>
    %int1_15581 = torch.constant.int 1
    %int20_15582 = torch.constant.int 20
    %int64_15583 = torch.constant.int 64
    %int64_15584 = torch.constant.int 64
    %13805 = torch.prim.ListConstruct %int1_15581, %int20_15582, %int64_15583, %int64_15584 : (!torch.int, !torch.int, !torch.int, !torch.int) -> !torch.list<int>
    %13806 = torch.aten.view %13804, %13805 : !torch.vtensor<[20,64,64],f16>, !torch.list<int> -> !torch.vtensor<[1,20,64,64],f16>
    %int1_15585 = torch.constant.int 1
    %13807 = torch.aten.add.Tensor %13806, %8920, %int1_15585 : !torch.vtensor<[1,20,64,64],f16>, !torch.vtensor<[1,1,64,64],f16>, !torch.int -> !torch.vtensor<[1,20,64,64],f16>
    %int20_15586 = torch.constant.int 20
    %int64_15587 = torch.constant.int 64
    %int64_15588 = torch.constant.int 64
    %13808 = torch.prim.ListConstruct %int20_15586, %int64_15587, %int64_15588 : (!torch.int, !torch.int, !torch.int) -> !torch.list<int>
    %13809 = torch.aten.view %13807, %13808 : !torch.vtensor<[1,20,64,64],f16>, !torch.list<int> -> !torch.vtensor<[20,64,64],f16>
    %int-1_15589 = torch.constant.int -1
    %false_15590 = torch.constant.bool false
    %13810 = torch.aten._softmax %13809, %int-1_15589, %false_15590 : !torch.vtensor<[20,64,64],f16>, !torch.int, !torch.bool -> !torch.vtensor<[20,64,64],f16>
    %13811 = torch.aten.detach %13810 : !torch.vtensor<[20,64,64],f16> -> !torch.vtensor<[20,64,64],f16>
    %none_15591 = torch.constant.none
    %13812 = torch.aten.clone %13810, %none_15591 : !torch.vtensor<[20,64,64],f16>, !torch.none -> !torch.vtensor<[20,64,64],f16>
    %13813 = torch.aten.bmm %13812, %13802 : !torch.vtensor<[20,64,64],f16>, !torch.vtensor<[20,64,64],f16> -> !torch.vtensor<[20,64,64],f16>
    %int1_15592 = torch.constant.int 1
    %int20_15593 = torch.constant.int 20
    %int64_15594 = torch.constant.int 64
    %int64_15595 = torch.constant.int 64
    %13814 = torch.prim.ListConstruct %int1_15592, %int20_15593, %int64_15594, %int64_15595 : (!torch.int, !torch.int, !torch.int, !torch.int) -> !torch.list<int>
    %13815 = torch.aten.view %13813, %13814 : !torch.vtensor<[20,64,64],f16>, !torch.list<int> -> !torch.vtensor<[1,20,64,64],f16>
    %int1_15596 = torch.constant.int 1
    %int2_15597 = torch.constant.int 2
    %13816 = torch.aten.transpose.int %13815, %int1_15596, %int2_15597 : !torch.vtensor<[1,20,64,64],f16>, !torch.int, !torch.int -> !torch.vtensor<[1,64,20,64],f16>
    %int0_15598 = torch.constant.int 0
    %13817 = torch.aten.clone %13816, %int0_15598 : !torch.vtensor<[1,64,20,64],f16>, !torch.int -> !torch.vtensor<[1,64,20,64],f16>
    %int1_15599 = torch.constant.int 1
    %int64_15600 = torch.constant.int 64
    %int1280_15601 = torch.constant.int 1280
    %13818 = torch.prim.ListConstruct %int1_15599, %int64_15600, %int1280_15601 : (!torch.int, !torch.int, !torch.int) -> !torch.list<int>
    %13819 = torch.aten._unsafe_view %13817, %13818 : !torch.vtensor<[1,64,20,64],f16>, !torch.list<int> -> !torch.vtensor<[1,64,1280],f16>
    %int64_15602 = torch.constant.int 64
    %int1280_15603 = torch.constant.int 1280
    %13820 = torch.prim.ListConstruct %int64_15602, %int1280_15603 : (!torch.int, !torch.int) -> !torch.list<int>
    %13821 = torch.aten.view %13819, %13820 : !torch.vtensor<[1,64,1280],f16>, !torch.list<int> -> !torch.vtensor<[64,1280],f16>
    %_params.text_encoder_model_2.text_model.encoder.layers.31.self_attn.out_proj.weight_15604 = util.global.load @_params.text_encoder_model_2.text_model.encoder.layers.31.self_attn.out_proj.weight : tensor<1280x1280xf16>
    %13822 = torch_c.from_builtin_tensor %_params.text_encoder_model_2.text_model.encoder.layers.31.self_attn.out_proj.weight_15604 : tensor<1280x1280xf16> -> !torch.vtensor<[1280,1280],f16>
    %int0_15605 = torch.constant.int 0
    %int1_15606 = torch.constant.int 1
    %13823 = torch.aten.transpose.int %13822, %int0_15605, %int1_15606 : !torch.vtensor<[1280,1280],f16>, !torch.int, !torch.int -> !torch.vtensor<[1280,1280],f16>
    %_params.text_encoder_model_2.text_model.encoder.layers.31.self_attn.out_proj.bias_15607 = util.global.load @_params.text_encoder_model_2.text_model.encoder.layers.31.self_attn.out_proj.bias : tensor<1280xf16>
    %13824 = torch_c.from_builtin_tensor %_params.text_encoder_model_2.text_model.encoder.layers.31.self_attn.out_proj.bias_15607 : tensor<1280xf16> -> !torch.vtensor<[1280],f16>
    %int6_15608 = torch.constant.int 6
    %13825 = torch.prims.convert_element_type %13824, %int6_15608 : !torch.vtensor<[1280],f16>, !torch.int -> !torch.vtensor<[1280],f32>
    %int6_15609 = torch.constant.int 6
    %13826 = torch.prims.convert_element_type %13821, %int6_15609 : !torch.vtensor<[64,1280],f16>, !torch.int -> !torch.vtensor<[64,1280],f32>
    %int6_15610 = torch.constant.int 6
    %13827 = torch.prims.convert_element_type %13823, %int6_15610 : !torch.vtensor<[1280,1280],f16>, !torch.int -> !torch.vtensor<[1280,1280],f32>
    %13828 = torch.aten.mm %13826, %13827 : !torch.vtensor<[64,1280],f32>, !torch.vtensor<[1280,1280],f32> -> !torch.vtensor<[64,1280],f32>
    %int1_15611 = torch.constant.int 1
    %13829 = torch.aten.mul.Scalar %13828, %int1_15611 : !torch.vtensor<[64,1280],f32>, !torch.int -> !torch.vtensor<[64,1280],f32>
    %int1_15612 = torch.constant.int 1
    %13830 = torch.aten.mul.Scalar %13825, %int1_15612 : !torch.vtensor<[1280],f32>, !torch.int -> !torch.vtensor<[1280],f32>
    %int1_15613 = torch.constant.int 1
    %13831 = torch.aten.add.Tensor %13829, %13830, %int1_15613 : !torch.vtensor<[64,1280],f32>, !torch.vtensor<[1280],f32>, !torch.int -> !torch.vtensor<[64,1280],f32>
    %int5_15614 = torch.constant.int 5
    %13832 = torch.prims.convert_element_type %13831, %int5_15614 : !torch.vtensor<[64,1280],f32>, !torch.int -> !torch.vtensor<[64,1280],f16>
    %int1_15615 = torch.constant.int 1
    %int64_15616 = torch.constant.int 64
    %int1280_15617 = torch.constant.int 1280
    %13833 = torch.prim.ListConstruct %int1_15615, %int64_15616, %int1280_15617 : (!torch.int, !torch.int, !torch.int) -> !torch.list<int>
    %13834 = torch.aten.view %13832, %13833 : !torch.vtensor<[64,1280],f16>, !torch.list<int> -> !torch.vtensor<[1,64,1280],f16>
    %int1_15618 = torch.constant.int 1
    %13835 = torch.aten.add.Tensor %13725, %13834, %int1_15618 : !torch.vtensor<[1,64,1280],f16>, !torch.vtensor<[1,64,1280],f16>, !torch.int -> !torch.vtensor<[1,64,1280],f16>
    %int6_15619 = torch.constant.int 6
    %13836 = torch.prims.convert_element_type %13835, %int6_15619 : !torch.vtensor<[1,64,1280],f16>, !torch.int -> !torch.vtensor<[1,64,1280],f32>
    %int2_15620 = torch.constant.int 2
    %13837 = torch.prim.ListConstruct %int2_15620 : (!torch.int) -> !torch.list<int>
    %int0_15621 = torch.constant.int 0
    %true_15622 = torch.constant.bool true
    %result0_15623, %result1_15624 = torch.aten.var_mean.correction %13836, %13837, %int0_15621, %true_15622 : !torch.vtensor<[1,64,1280],f32>, !torch.list<int>, !torch.int, !torch.bool -> !torch.vtensor<[1,64,1],f32>, !torch.vtensor<[1,64,1],f32>
    %float1.000000e-05_15625 = torch.constant.float 1.000000e-05
    %int1_15626 = torch.constant.int 1
    %13838 = torch.aten.add.Scalar %result0_15623, %float1.000000e-05_15625, %int1_15626 : !torch.vtensor<[1,64,1],f32>, !torch.float, !torch.int -> !torch.vtensor<[1,64,1],f32>
    %13839 = torch.aten.rsqrt %13838 : !torch.vtensor<[1,64,1],f32> -> !torch.vtensor<[1,64,1],f32>
    %int1_15627 = torch.constant.int 1
    %13840 = torch.aten.sub.Tensor %13835, %result1_15624, %int1_15627 : !torch.vtensor<[1,64,1280],f16>, !torch.vtensor<[1,64,1],f32>, !torch.int -> !torch.vtensor<[1,64,1280],f32>
    %13841 = torch.aten.mul.Tensor %13840, %13839 : !torch.vtensor<[1,64,1280],f32>, !torch.vtensor<[1,64,1],f32> -> !torch.vtensor<[1,64,1280],f32>
    %_params.text_encoder_model_2.text_model.encoder.layers.31.layer_norm2.weight_15628 = util.global.load @_params.text_encoder_model_2.text_model.encoder.layers.31.layer_norm2.weight : tensor<1280xf16>
    %13842 = torch_c.from_builtin_tensor %_params.text_encoder_model_2.text_model.encoder.layers.31.layer_norm2.weight_15628 : tensor<1280xf16> -> !torch.vtensor<[1280],f16>
    %13843 = torch.aten.mul.Tensor %13841, %13842 : !torch.vtensor<[1,64,1280],f32>, !torch.vtensor<[1280],f16> -> !torch.vtensor<[1,64,1280],f32>
    %_params.text_encoder_model_2.text_model.encoder.layers.31.layer_norm2.bias_15629 = util.global.load @_params.text_encoder_model_2.text_model.encoder.layers.31.layer_norm2.bias : tensor<1280xf16>
    %13844 = torch_c.from_builtin_tensor %_params.text_encoder_model_2.text_model.encoder.layers.31.layer_norm2.bias_15629 : tensor<1280xf16> -> !torch.vtensor<[1280],f16>
    %int1_15630 = torch.constant.int 1
    %13845 = torch.aten.add.Tensor %13843, %13844, %int1_15630 : !torch.vtensor<[1,64,1280],f32>, !torch.vtensor<[1280],f16>, !torch.int -> !torch.vtensor<[1,64,1280],f32>
    %int5_15631 = torch.constant.int 5
    %13846 = torch.prims.convert_element_type %13845, %int5_15631 : !torch.vtensor<[1,64,1280],f32>, !torch.int -> !torch.vtensor<[1,64,1280],f16>
    %int5_15632 = torch.constant.int 5
    %13847 = torch.prims.convert_element_type %result1_15624, %int5_15632 : !torch.vtensor<[1,64,1],f32>, !torch.int -> !torch.vtensor<[1,64,1],f16>
    %int5_15633 = torch.constant.int 5
    %13848 = torch.prims.convert_element_type %13839, %int5_15633 : !torch.vtensor<[1,64,1],f32>, !torch.int -> !torch.vtensor<[1,64,1],f16>
    %int64_15634 = torch.constant.int 64
    %int1280_15635 = torch.constant.int 1280
    %13849 = torch.prim.ListConstruct %int64_15634, %int1280_15635 : (!torch.int, !torch.int) -> !torch.list<int>
    %13850 = torch.aten.view %13846, %13849 : !torch.vtensor<[1,64,1280],f16>, !torch.list<int> -> !torch.vtensor<[64,1280],f16>
    %_params.text_encoder_model_2.text_model.encoder.layers.31.mlp.fc1.weight_15636 = util.global.load @_params.text_encoder_model_2.text_model.encoder.layers.31.mlp.fc1.weight : tensor<5120x1280xf16>
    %13851 = torch_c.from_builtin_tensor %_params.text_encoder_model_2.text_model.encoder.layers.31.mlp.fc1.weight_15636 : tensor<5120x1280xf16> -> !torch.vtensor<[5120,1280],f16>
    %int0_15637 = torch.constant.int 0
    %int1_15638 = torch.constant.int 1
    %13852 = torch.aten.transpose.int %13851, %int0_15637, %int1_15638 : !torch.vtensor<[5120,1280],f16>, !torch.int, !torch.int -> !torch.vtensor<[1280,5120],f16>
    %_params.text_encoder_model_2.text_model.encoder.layers.31.mlp.fc1.bias_15639 = util.global.load @_params.text_encoder_model_2.text_model.encoder.layers.31.mlp.fc1.bias : tensor<5120xf16>
    %13853 = torch_c.from_builtin_tensor %_params.text_encoder_model_2.text_model.encoder.layers.31.mlp.fc1.bias_15639 : tensor<5120xf16> -> !torch.vtensor<[5120],f16>
    %int6_15640 = torch.constant.int 6
    %13854 = torch.prims.convert_element_type %13853, %int6_15640 : !torch.vtensor<[5120],f16>, !torch.int -> !torch.vtensor<[5120],f32>
    %int6_15641 = torch.constant.int 6
    %13855 = torch.prims.convert_element_type %13850, %int6_15641 : !torch.vtensor<[64,1280],f16>, !torch.int -> !torch.vtensor<[64,1280],f32>
    %int6_15642 = torch.constant.int 6
    %13856 = torch.prims.convert_element_type %13852, %int6_15642 : !torch.vtensor<[1280,5120],f16>, !torch.int -> !torch.vtensor<[1280,5120],f32>
    %13857 = torch.aten.mm %13855, %13856 : !torch.vtensor<[64,1280],f32>, !torch.vtensor<[1280,5120],f32> -> !torch.vtensor<[64,5120],f32>
    %int1_15643 = torch.constant.int 1
    %13858 = torch.aten.mul.Scalar %13857, %int1_15643 : !torch.vtensor<[64,5120],f32>, !torch.int -> !torch.vtensor<[64,5120],f32>
    %int1_15644 = torch.constant.int 1
    %13859 = torch.aten.mul.Scalar %13854, %int1_15644 : !torch.vtensor<[5120],f32>, !torch.int -> !torch.vtensor<[5120],f32>
    %int1_15645 = torch.constant.int 1
    %13860 = torch.aten.add.Tensor %13858, %13859, %int1_15645 : !torch.vtensor<[64,5120],f32>, !torch.vtensor<[5120],f32>, !torch.int -> !torch.vtensor<[64,5120],f32>
    %int5_15646 = torch.constant.int 5
    %13861 = torch.prims.convert_element_type %13860, %int5_15646 : !torch.vtensor<[64,5120],f32>, !torch.int -> !torch.vtensor<[64,5120],f16>
    %int1_15647 = torch.constant.int 1
    %int64_15648 = torch.constant.int 64
    %int5120_15649 = torch.constant.int 5120
    %13862 = torch.prim.ListConstruct %int1_15647, %int64_15648, %int5120_15649 : (!torch.int, !torch.int, !torch.int) -> !torch.list<int>
    %13863 = torch.aten.view %13861, %13862 : !torch.vtensor<[64,5120],f16>, !torch.list<int> -> !torch.vtensor<[1,64,5120],f16>
    %str_15650 = torch.constant.str "none"
    %13864 = torch.aten.gelu %13863, %str_15650 : !torch.vtensor<[1,64,5120],f16>, !torch.str -> !torch.vtensor<[1,64,5120],f16>
    %int64_15651 = torch.constant.int 64
    %int5120_15652 = torch.constant.int 5120
    %13865 = torch.prim.ListConstruct %int64_15651, %int5120_15652 : (!torch.int, !torch.int) -> !torch.list<int>
    %13866 = torch.aten.view %13864, %13865 : !torch.vtensor<[1,64,5120],f16>, !torch.list<int> -> !torch.vtensor<[64,5120],f16>
    %_params.text_encoder_model_2.text_model.encoder.layers.31.mlp.fc2.weight_15653 = util.global.load @_params.text_encoder_model_2.text_model.encoder.layers.31.mlp.fc2.weight : tensor<1280x5120xf16>
    %13867 = torch_c.from_builtin_tensor %_params.text_encoder_model_2.text_model.encoder.layers.31.mlp.fc2.weight_15653 : tensor<1280x5120xf16> -> !torch.vtensor<[1280,5120],f16>
    %int0_15654 = torch.constant.int 0
    %int1_15655 = torch.constant.int 1
    %13868 = torch.aten.transpose.int %13867, %int0_15654, %int1_15655 : !torch.vtensor<[1280,5120],f16>, !torch.int, !torch.int -> !torch.vtensor<[5120,1280],f16>
    %_params.text_encoder_model_2.text_model.encoder.layers.31.mlp.fc2.bias_15656 = util.global.load @_params.text_encoder_model_2.text_model.encoder.layers.31.mlp.fc2.bias : tensor<1280xf16>
    %13869 = torch_c.from_builtin_tensor %_params.text_encoder_model_2.text_model.encoder.layers.31.mlp.fc2.bias_15656 : tensor<1280xf16> -> !torch.vtensor<[1280],f16>
    %int6_15657 = torch.constant.int 6
    %13870 = torch.prims.convert_element_type %13869, %int6_15657 : !torch.vtensor<[1280],f16>, !torch.int -> !torch.vtensor<[1280],f32>
    %int6_15658 = torch.constant.int 6
    %13871 = torch.prims.convert_element_type %13866, %int6_15658 : !torch.vtensor<[64,5120],f16>, !torch.int -> !torch.vtensor<[64,5120],f32>
    %int6_15659 = torch.constant.int 6
    %13872 = torch.prims.convert_element_type %13868, %int6_15659 : !torch.vtensor<[5120,1280],f16>, !torch.int -> !torch.vtensor<[5120,1280],f32>
    %13873 = torch.aten.mm %13871, %13872 : !torch.vtensor<[64,5120],f32>, !torch.vtensor<[5120,1280],f32> -> !torch.vtensor<[64,1280],f32>
    %int1_15660 = torch.constant.int 1
    %13874 = torch.aten.mul.Scalar %13873, %int1_15660 : !torch.vtensor<[64,1280],f32>, !torch.int -> !torch.vtensor<[64,1280],f32>
    %int1_15661 = torch.constant.int 1
    %13875 = torch.aten.mul.Scalar %13870, %int1_15661 : !torch.vtensor<[1280],f32>, !torch.int -> !torch.vtensor<[1280],f32>
    %int1_15662 = torch.constant.int 1
    %13876 = torch.aten.add.Tensor %13874, %13875, %int1_15662 : !torch.vtensor<[64,1280],f32>, !torch.vtensor<[1280],f32>, !torch.int -> !torch.vtensor<[64,1280],f32>
    %int5_15663 = torch.constant.int 5
    %13877 = torch.prims.convert_element_type %13876, %int5_15663 : !torch.vtensor<[64,1280],f32>, !torch.int -> !torch.vtensor<[64,1280],f16>
    %int1_15664 = torch.constant.int 1
    %int64_15665 = torch.constant.int 64
    %int1280_15666 = torch.constant.int 1280
    %13878 = torch.prim.ListConstruct %int1_15664, %int64_15665, %int1280_15666 : (!torch.int, !torch.int, !torch.int) -> !torch.list<int>
    %13879 = torch.aten.view %13877, %13878 : !torch.vtensor<[64,1280],f16>, !torch.list<int> -> !torch.vtensor<[1,64,1280],f16>
    %int1_15667 = torch.constant.int 1
    %13880 = torch.aten.add.Tensor %13835, %13879, %int1_15667 : !torch.vtensor<[1,64,1280],f16>, !torch.vtensor<[1,64,1280],f16>, !torch.int -> !torch.vtensor<[1,64,1280],f16>
    %int6_15668 = torch.constant.int 6
    %13881 = torch.prims.convert_element_type %13880, %int6_15668 : !torch.vtensor<[1,64,1280],f16>, !torch.int -> !torch.vtensor<[1,64,1280],f32>
    %int2_15669 = torch.constant.int 2
    %13882 = torch.prim.ListConstruct %int2_15669 : (!torch.int) -> !torch.list<int>
    %int0_15670 = torch.constant.int 0
    %true_15671 = torch.constant.bool true
    %result0_15672, %result1_15673 = torch.aten.var_mean.correction %13881, %13882, %int0_15670, %true_15671 : !torch.vtensor<[1,64,1280],f32>, !torch.list<int>, !torch.int, !torch.bool -> !torch.vtensor<[1,64,1],f32>, !torch.vtensor<[1,64,1],f32>
    %float1.000000e-05_15674 = torch.constant.float 1.000000e-05
    %int1_15675 = torch.constant.int 1
    %13883 = torch.aten.add.Scalar %result0_15672, %float1.000000e-05_15674, %int1_15675 : !torch.vtensor<[1,64,1],f32>, !torch.float, !torch.int -> !torch.vtensor<[1,64,1],f32>
    %13884 = torch.aten.rsqrt %13883 : !torch.vtensor<[1,64,1],f32> -> !torch.vtensor<[1,64,1],f32>
    %int1_15676 = torch.constant.int 1
    %13885 = torch.aten.sub.Tensor %13880, %result1_15673, %int1_15676 : !torch.vtensor<[1,64,1280],f16>, !torch.vtensor<[1,64,1],f32>, !torch.int -> !torch.vtensor<[1,64,1280],f32>
    %13886 = torch.aten.mul.Tensor %13885, %13884 : !torch.vtensor<[1,64,1280],f32>, !torch.vtensor<[1,64,1],f32> -> !torch.vtensor<[1,64,1280],f32>
    %_params.text_encoder_model_2.text_model.final_layer_norm.weight_15677 = util.global.load @_params.text_encoder_model_2.text_model.final_layer_norm.weight : tensor<1280xf16>
    %13887 = torch_c.from_builtin_tensor %_params.text_encoder_model_2.text_model.final_layer_norm.weight_15677 : tensor<1280xf16> -> !torch.vtensor<[1280],f16>
    %13888 = torch.aten.mul.Tensor %13886, %13887 : !torch.vtensor<[1,64,1280],f32>, !torch.vtensor<[1280],f16> -> !torch.vtensor<[1,64,1280],f32>
    %_params.text_encoder_model_2.text_model.final_layer_norm.bias_15678 = util.global.load @_params.text_encoder_model_2.text_model.final_layer_norm.bias : tensor<1280xf16>
    %13889 = torch_c.from_builtin_tensor %_params.text_encoder_model_2.text_model.final_layer_norm.bias_15678 : tensor<1280xf16> -> !torch.vtensor<[1280],f16>
    %int1_15679 = torch.constant.int 1
    %13890 = torch.aten.add.Tensor %13888, %13889, %int1_15679 : !torch.vtensor<[1,64,1280],f32>, !torch.vtensor<[1280],f16>, !torch.int -> !torch.vtensor<[1,64,1280],f32>
    %int5_15680 = torch.constant.int 5
    %13891 = torch.prims.convert_element_type %13890, %int5_15680 : !torch.vtensor<[1,64,1280],f32>, !torch.int -> !torch.vtensor<[1,64,1280],f16>
    %int5_15681 = torch.constant.int 5
    %13892 = torch.prims.convert_element_type %result1_15673, %int5_15681 : !torch.vtensor<[1,64,1],f32>, !torch.int -> !torch.vtensor<[1,64,1],f16>
    %int5_15682 = torch.constant.int 5
    %13893 = torch.prims.convert_element_type %13884, %int5_15682 : !torch.vtensor<[1,64,1],f32>, !torch.int -> !torch.vtensor<[1,64,1],f16>
    %int1_15683 = torch.constant.int 1
    %none_15684 = torch.constant.none
    %none_15685 = torch.constant.none
    %cpu_15686 = torch.constant.device "cpu"
    %false_15687 = torch.constant.bool false
    %13894 = torch.aten.arange %int1_15683, %none_15684, %none_15685, %cpu_15686, %false_15687 : !torch.int, !torch.none, !torch.none, !torch.Device, !torch.bool -> !torch.vtensor<[1],si64>
    %int3_15688 = torch.constant.int 3
    %13895 = torch.prims.convert_element_type %8894, %int3_15688 : !torch.vtensor<[1,64],si64>, !torch.int -> !torch.vtensor<[1,64],si32>
    %int-1_15689 = torch.constant.int -1
    %false_15690 = torch.constant.bool false
    %13896 = torch.aten.argmax %13895, %int-1_15689, %false_15690 : !torch.vtensor<[1,64],si32>, !torch.int, !torch.bool -> !torch.vtensor<[1],si64>
    %13897 = torch.prim.ListConstruct %13894, %13896 : (!torch.vtensor<[1],si64>, !torch.vtensor<[1],si64>) -> !torch.list<optional<vtensor>>
    %13898 = torch.aten.index.Tensor %13891, %13897 : !torch.vtensor<[1,64,1280],f16>, !torch.list<optional<vtensor>> -> !torch.vtensor<[1,1280],f16>
    %_params.text_encoder_model_2.text_projection.weight_15691 = util.global.load @_params.text_encoder_model_2.text_projection.weight : tensor<1280x1280xf16>
    %13899 = torch_c.from_builtin_tensor %_params.text_encoder_model_2.text_projection.weight_15691 : tensor<1280x1280xf16> -> !torch.vtensor<[1280,1280],f16>
    %int0_15692 = torch.constant.int 0
    %int1_15693 = torch.constant.int 1
    %13900 = torch.aten.transpose.int %13899, %int0_15692, %int1_15693 : !torch.vtensor<[1280,1280],f16>, !torch.int, !torch.int -> !torch.vtensor<[1280,1280],f16>
    %13901 = torch.aten.mm %13898, %13900 : !torch.vtensor<[1,1280],f16>, !torch.vtensor<[1280,1280],f16> -> !torch.vtensor<[1,1280],f16>
    %13902 = torch.prim.ListConstruct %1765, %6774 : (!torch.vtensor<[1,64,768],f16>, !torch.vtensor<[1,64,1280],f16>) -> !torch.list<vtensor>
    %int-1_15694 = torch.constant.int -1
    %13903 = torch.aten.cat %13902, %int-1_15694 : !torch.list<vtensor>, !torch.int -> !torch.vtensor<[1,64,2048],f16>
    %13904 = torch.prim.ListConstruct %8716, %13725 : (!torch.vtensor<[1,64,768],f16>, !torch.vtensor<[1,64,1280],f16>) -> !torch.list<vtensor>
    %int-1_15695 = torch.constant.int -1
    %13905 = torch.aten.cat %13904, %int-1_15695 : !torch.list<vtensor>, !torch.int -> !torch.vtensor<[1,64,2048],f16>
    %int1_15696 = torch.constant.int 1
    %int1_15697 = torch.constant.int 1
    %int1_15698 = torch.constant.int 1
    %13906 = torch.prim.ListConstruct %int1_15696, %int1_15697, %int1_15698 : (!torch.int, !torch.int, !torch.int) -> !torch.list<int>
    %13907 = torch.aten.repeat %13903, %13906 : !torch.vtensor<[1,64,2048],f16>, !torch.list<int> -> !torch.vtensor<[1,64,2048],f16>
    %int1_15699 = torch.constant.int 1
    %int64_15700 = torch.constant.int 64
    %int-1_15701 = torch.constant.int -1
    %13908 = torch.prim.ListConstruct %int1_15699, %int64_15700, %int-1_15701 : (!torch.int, !torch.int, !torch.int) -> !torch.list<int>
    %13909 = torch.aten.view %13907, %13908 : !torch.vtensor<[1,64,2048],f16>, !torch.list<int> -> !torch.vtensor<[1,64,2048],f16>
    %int1_15702 = torch.constant.int 1
    %int1_15703 = torch.constant.int 1
    %13910 = torch.prim.ListConstruct %int1_15702, %int1_15703 : (!torch.int, !torch.int) -> !torch.list<int>
    %13911 = torch.aten.repeat %6950, %13910 : !torch.vtensor<[1,1280],f16>, !torch.list<int> -> !torch.vtensor<[1,1280],f16>
    %int1_15704 = torch.constant.int 1
    %int-1_15705 = torch.constant.int -1
    %13912 = torch.prim.ListConstruct %int1_15704, %int-1_15705 : (!torch.int, !torch.int) -> !torch.list<int>
    %13913 = torch.aten.view %13911, %13912 : !torch.vtensor<[1,1280],f16>, !torch.list<int> -> !torch.vtensor<[1,1280],f16>
    %int1_15706 = torch.constant.int 1
    %int1_15707 = torch.constant.int 1
    %13914 = torch.prim.ListConstruct %int1_15706, %int1_15707 : (!torch.int, !torch.int) -> !torch.list<int>
    %13915 = torch.aten.repeat %13901, %13914 : !torch.vtensor<[1,1280],f16>, !torch.list<int> -> !torch.vtensor<[1,1280],f16>
    %int1_15708 = torch.constant.int 1
    %int-1_15709 = torch.constant.int -1
    %13916 = torch.prim.ListConstruct %int1_15708, %int-1_15709 : (!torch.int, !torch.int) -> !torch.list<int>
    %13917 = torch.aten.view %13915, %13916 : !torch.vtensor<[1,1280],f16>, !torch.list<int> -> !torch.vtensor<[1,1280],f16>
    %int1_15710 = torch.constant.int 1
    %int1_15711 = torch.constant.int 1
    %int1_15712 = torch.constant.int 1
    %13918 = torch.prim.ListConstruct %int1_15710, %int1_15711, %int1_15712 : (!torch.int, !torch.int, !torch.int) -> !torch.list<int>
    %13919 = torch.aten.repeat %13905, %13918 : !torch.vtensor<[1,64,2048],f16>, !torch.list<int> -> !torch.vtensor<[1,64,2048],f16>
    %int1_15713 = torch.constant.int 1
    %int64_15714 = torch.constant.int 64
    %int-1_15715 = torch.constant.int -1
    %13920 = torch.prim.ListConstruct %int1_15713, %int64_15714, %int-1_15715 : (!torch.int, !torch.int, !torch.int) -> !torch.list<int>
    %13921 = torch.aten.view %13919, %13920 : !torch.vtensor<[1,64,2048],f16>, !torch.list<int> -> !torch.vtensor<[1,64,2048],f16>
    %13922 = torch.prim.ListConstruct %13921, %13909 : (!torch.vtensor<[1,64,2048],f16>, !torch.vtensor<[1,64,2048],f16>) -> !torch.list<vtensor>
    %int0_15716 = torch.constant.int 0
    %13923 = torch.aten.cat %13922, %int0_15716 : !torch.list<vtensor>, !torch.int -> !torch.vtensor<[2,64,2048],f16>
    %13924 = torch.prim.ListConstruct %13917, %13913 : (!torch.vtensor<[1,1280],f16>, !torch.vtensor<[1,1280],f16>) -> !torch.list<vtensor>
    %int0_15717 = torch.constant.int 0
    %13925 = torch.aten.cat %13924, %int0_15717 : !torch.list<vtensor>, !torch.int -> !torch.vtensor<[2,1280],f16>
    return %13923, %13925 : !torch.vtensor<[2,64,2048],f16>, !torch.vtensor<[2,1280],f16>
  }
}

{-#
  dialect_resources: {
    builtin: {
      torch_tensor_1_77_torch.int64: "…",
      torch_tensor_1_77_torch.int64_1: "…"
    }
  }
#-}
