module @compiled_vae {
  util.global private @__auto.vae.post_quant_conv.weight = #stream.parameter.named<"model"::"vae.post_quant_conv.weight"> : tensor<4x4x1x1xf16>
  util.global private @__auto.vae.post_quant_conv.bias = #stream.parameter.named<"model"::"vae.post_quant_conv.bias"> : tensor<4xf16>
  util.global private @__auto.vae.decoder.conv_in.weight = #stream.parameter.named<"model"::"vae.decoder.conv_in.weight"> : tensor<512x4x3x3xf16>
  util.global private @__auto.vae.decoder.conv_in.bias = #stream.parameter.named<"model"::"vae.decoder.conv_in.bias"> : tensor<512xf16>
  util.global private @__auto.vae.decoder.mid_block.resnets.0.norm1.bias = #stream.parameter.named<"model"::"vae.decoder.mid_block.resnets.0.norm1.bias"> : tensor<512xf16>
  util.global private @__auto.vae.decoder.mid_block.resnets.0.norm1.weight = #stream.parameter.named<"model"::"vae.decoder.mid_block.resnets.0.norm1.weight"> : tensor<512xf16>
  util.global private @__auto.vae.decoder.mid_block.resnets.0.conv1.weight = #stream.parameter.named<"model"::"vae.decoder.mid_block.resnets.0.conv1.weight"> : tensor<512x512x3x3xf16>
  util.global private @__auto.vae.decoder.mid_block.resnets.0.conv1.bias = #stream.parameter.named<"model"::"vae.decoder.mid_block.resnets.0.conv1.bias"> : tensor<512xf16>
  util.global private @__auto.vae.decoder.mid_block.resnets.0.norm2.bias = #stream.parameter.named<"model"::"vae.decoder.mid_block.resnets.0.norm2.bias"> : tensor<512xf16>
  util.global private @__auto.vae.decoder.mid_block.resnets.0.norm2.weight = #stream.parameter.named<"model"::"vae.decoder.mid_block.resnets.0.norm2.weight"> : tensor<512xf16>
  util.global private @__auto.vae.decoder.mid_block.resnets.0.conv2.weight = #stream.parameter.named<"model"::"vae.decoder.mid_block.resnets.0.conv2.weight"> : tensor<512x512x3x3xf16>
  util.global private @__auto.vae.decoder.mid_block.resnets.0.conv2.bias = #stream.parameter.named<"model"::"vae.decoder.mid_block.resnets.0.conv2.bias"> : tensor<512xf16>
  util.global private @__auto.vae.decoder.mid_block.attentions.0.group_norm.bias = #stream.parameter.named<"model"::"vae.decoder.mid_block.attentions.0.group_norm.bias"> : tensor<512xf16>
  util.global private @__auto.vae.decoder.mid_block.attentions.0.group_norm.weight = #stream.parameter.named<"model"::"vae.decoder.mid_block.attentions.0.group_norm.weight"> : tensor<512xf16>
  util.global private @__auto.vae.decoder.mid_block.attentions.0.to_q.weight = #stream.parameter.named<"model"::"vae.decoder.mid_block.attentions.0.to_q.weight"> : tensor<512x512xf16>
  util.global private @__auto.vae.decoder.mid_block.attentions.0.to_q.bias = #stream.parameter.named<"model"::"vae.decoder.mid_block.attentions.0.to_q.bias"> : tensor<512xf16>
  util.global private @__auto.vae.decoder.mid_block.attentions.0.to_k.weight = #stream.parameter.named<"model"::"vae.decoder.mid_block.attentions.0.to_k.weight"> : tensor<512x512xf16>
  util.global private @__auto.vae.decoder.mid_block.attentions.0.to_k.bias = #stream.parameter.named<"model"::"vae.decoder.mid_block.attentions.0.to_k.bias"> : tensor<512xf16>
  util.global private @__auto.vae.decoder.mid_block.attentions.0.to_v.weight = #stream.parameter.named<"model"::"vae.decoder.mid_block.attentions.0.to_v.weight"> : tensor<512x512xf16>
  util.global private @__auto.vae.decoder.mid_block.attentions.0.to_v.bias = #stream.parameter.named<"model"::"vae.decoder.mid_block.attentions.0.to_v.bias"> : tensor<512xf16>
  util.global private @__auto.vae.decoder.mid_block.attentions.0.to_out.0.weight = #stream.parameter.named<"model"::"vae.decoder.mid_block.attentions.0.to_out.0.weight"> : tensor<512x512xf16>
  util.global private @__auto.vae.decoder.mid_block.attentions.0.to_out.0.bias = #stream.parameter.named<"model"::"vae.decoder.mid_block.attentions.0.to_out.0.bias"> : tensor<512xf16>
  util.global private @__auto.vae.decoder.mid_block.resnets.1.norm1.bias = #stream.parameter.named<"model"::"vae.decoder.mid_block.resnets.1.norm1.bias"> : tensor<512xf16>
  util.global private @__auto.vae.decoder.mid_block.resnets.1.norm1.weight = #stream.parameter.named<"model"::"vae.decoder.mid_block.resnets.1.norm1.weight"> : tensor<512xf16>
  util.global private @__auto.vae.decoder.mid_block.resnets.1.conv1.weight = #stream.parameter.named<"model"::"vae.decoder.mid_block.resnets.1.conv1.weight"> : tensor<512x512x3x3xf16>
  util.global private @__auto.vae.decoder.mid_block.resnets.1.conv1.bias = #stream.parameter.named<"model"::"vae.decoder.mid_block.resnets.1.conv1.bias"> : tensor<512xf16>
  util.global private @__auto.vae.decoder.mid_block.resnets.1.norm2.bias = #stream.parameter.named<"model"::"vae.decoder.mid_block.resnets.1.norm2.bias"> : tensor<512xf16>
  util.global private @__auto.vae.decoder.mid_block.resnets.1.norm2.weight = #stream.parameter.named<"model"::"vae.decoder.mid_block.resnets.1.norm2.weight"> : tensor<512xf16>
  util.global private @__auto.vae.decoder.mid_block.resnets.1.conv2.weight = #stream.parameter.named<"model"::"vae.decoder.mid_block.resnets.1.conv2.weight"> : tensor<512x512x3x3xf16>
  util.global private @__auto.vae.decoder.mid_block.resnets.1.conv2.bias = #stream.parameter.named<"model"::"vae.decoder.mid_block.resnets.1.conv2.bias"> : tensor<512xf16>
  util.global private @__auto.vae.decoder.up_blocks.0.resnets.0.norm1.bias = #stream.parameter.named<"model"::"vae.decoder.up_blocks.0.resnets.0.norm1.bias"> : tensor<512xf16>
  util.global private @__auto.vae.decoder.up_blocks.0.resnets.0.norm1.weight = #stream.parameter.named<"model"::"vae.decoder.up_blocks.0.resnets.0.norm1.weight"> : tensor<512xf16>
  util.global private @__auto.vae.decoder.up_blocks.0.resnets.0.conv1.weight = #stream.parameter.named<"model"::"vae.decoder.up_blocks.0.resnets.0.conv1.weight"> : tensor<512x512x3x3xf16>
  util.global private @__auto.vae.decoder.up_blocks.0.resnets.0.conv1.bias = #stream.parameter.named<"model"::"vae.decoder.up_blocks.0.resnets.0.conv1.bias"> : tensor<512xf16>
  util.global private @__auto.vae.decoder.up_blocks.0.resnets.0.norm2.bias = #stream.parameter.named<"model"::"vae.decoder.up_blocks.0.resnets.0.norm2.bias"> : tensor<512xf16>
  util.global private @__auto.vae.decoder.up_blocks.0.resnets.0.norm2.weight = #stream.parameter.named<"model"::"vae.decoder.up_blocks.0.resnets.0.norm2.weight"> : tensor<512xf16>
  util.global private @__auto.vae.decoder.up_blocks.0.resnets.0.conv2.weight = #stream.parameter.named<"model"::"vae.decoder.up_blocks.0.resnets.0.conv2.weight"> : tensor<512x512x3x3xf16>
  util.global private @__auto.vae.decoder.up_blocks.0.resnets.0.conv2.bias = #stream.parameter.named<"model"::"vae.decoder.up_blocks.0.resnets.0.conv2.bias"> : tensor<512xf16>
  util.global private @__auto.vae.decoder.up_blocks.0.resnets.1.norm1.bias = #stream.parameter.named<"model"::"vae.decoder.up_blocks.0.resnets.1.norm1.bias"> : tensor<512xf16>
  util.global private @__auto.vae.decoder.up_blocks.0.resnets.1.norm1.weight = #stream.parameter.named<"model"::"vae.decoder.up_blocks.0.resnets.1.norm1.weight"> : tensor<512xf16>
  util.global private @__auto.vae.decoder.up_blocks.0.resnets.1.conv1.weight = #stream.parameter.named<"model"::"vae.decoder.up_blocks.0.resnets.1.conv1.weight"> : tensor<512x512x3x3xf16>
  util.global private @__auto.vae.decoder.up_blocks.0.resnets.1.conv1.bias = #stream.parameter.named<"model"::"vae.decoder.up_blocks.0.resnets.1.conv1.bias"> : tensor<512xf16>
  util.global private @__auto.vae.decoder.up_blocks.0.resnets.1.norm2.bias = #stream.parameter.named<"model"::"vae.decoder.up_blocks.0.resnets.1.norm2.bias"> : tensor<512xf16>
  util.global private @__auto.vae.decoder.up_blocks.0.resnets.1.norm2.weight = #stream.parameter.named<"model"::"vae.decoder.up_blocks.0.resnets.1.norm2.weight"> : tensor<512xf16>
  util.global private @__auto.vae.decoder.up_blocks.0.resnets.1.conv2.weight = #stream.parameter.named<"model"::"vae.decoder.up_blocks.0.resnets.1.conv2.weight"> : tensor<512x512x3x3xf16>
  util.global private @__auto.vae.decoder.up_blocks.0.resnets.1.conv2.bias = #stream.parameter.named<"model"::"vae.decoder.up_blocks.0.resnets.1.conv2.bias"> : tensor<512xf16>
  util.global private @__auto.vae.decoder.up_blocks.0.resnets.2.norm1.bias = #stream.parameter.named<"model"::"vae.decoder.up_blocks.0.resnets.2.norm1.bias"> : tensor<512xf16>
  util.global private @__auto.vae.decoder.up_blocks.0.resnets.2.norm1.weight = #stream.parameter.named<"model"::"vae.decoder.up_blocks.0.resnets.2.norm1.weight"> : tensor<512xf16>
  util.global private @__auto.vae.decoder.up_blocks.0.resnets.2.conv1.weight = #stream.parameter.named<"model"::"vae.decoder.up_blocks.0.resnets.2.conv1.weight"> : tensor<512x512x3x3xf16>
  util.global private @__auto.vae.decoder.up_blocks.0.resnets.2.conv1.bias = #stream.parameter.named<"model"::"vae.decoder.up_blocks.0.resnets.2.conv1.bias"> : tensor<512xf16>
  util.global private @__auto.vae.decoder.up_blocks.0.resnets.2.norm2.bias = #stream.parameter.named<"model"::"vae.decoder.up_blocks.0.resnets.2.norm2.bias"> : tensor<512xf16>
  util.global private @__auto.vae.decoder.up_blocks.0.resnets.2.norm2.weight = #stream.parameter.named<"model"::"vae.decoder.up_blocks.0.resnets.2.norm2.weight"> : tensor<512xf16>
  util.global private @__auto.vae.decoder.up_blocks.0.resnets.2.conv2.weight = #stream.parameter.named<"model"::"vae.decoder.up_blocks.0.resnets.2.conv2.weight"> : tensor<512x512x3x3xf16>
  util.global private @__auto.vae.decoder.up_blocks.0.resnets.2.conv2.bias = #stream.parameter.named<"model"::"vae.decoder.up_blocks.0.resnets.2.conv2.bias"> : tensor<512xf16>
  util.global private @__auto.vae.decoder.up_blocks.0.upsamplers.0.conv.weight = #stream.parameter.named<"model"::"vae.decoder.up_blocks.0.upsamplers.0.conv.weight"> : tensor<512x512x3x3xf16>
  util.global private @__auto.vae.decoder.up_blocks.0.upsamplers.0.conv.bias = #stream.parameter.named<"model"::"vae.decoder.up_blocks.0.upsamplers.0.conv.bias"> : tensor<512xf16>
  util.global private @__auto.vae.decoder.up_blocks.1.resnets.0.norm1.bias = #stream.parameter.named<"model"::"vae.decoder.up_blocks.1.resnets.0.norm1.bias"> : tensor<512xf16>
  util.global private @__auto.vae.decoder.up_blocks.1.resnets.0.norm1.weight = #stream.parameter.named<"model"::"vae.decoder.up_blocks.1.resnets.0.norm1.weight"> : tensor<512xf16>
  util.global private @__auto.vae.decoder.up_blocks.1.resnets.0.conv1.weight = #stream.parameter.named<"model"::"vae.decoder.up_blocks.1.resnets.0.conv1.weight"> : tensor<512x512x3x3xf16>
  util.global private @__auto.vae.decoder.up_blocks.1.resnets.0.conv1.bias = #stream.parameter.named<"model"::"vae.decoder.up_blocks.1.resnets.0.conv1.bias"> : tensor<512xf16>
  util.global private @__auto.vae.decoder.up_blocks.1.resnets.0.norm2.bias = #stream.parameter.named<"model"::"vae.decoder.up_blocks.1.resnets.0.norm2.bias"> : tensor<512xf16>
  util.global private @__auto.vae.decoder.up_blocks.1.resnets.0.norm2.weight = #stream.parameter.named<"model"::"vae.decoder.up_blocks.1.resnets.0.norm2.weight"> : tensor<512xf16>
  util.global private @__auto.vae.decoder.up_blocks.1.resnets.0.conv2.weight = #stream.parameter.named<"model"::"vae.decoder.up_blocks.1.resnets.0.conv2.weight"> : tensor<512x512x3x3xf16>
  util.global private @__auto.vae.decoder.up_blocks.1.resnets.0.conv2.bias = #stream.parameter.named<"model"::"vae.decoder.up_blocks.1.resnets.0.conv2.bias"> : tensor<512xf16>
  util.global private @__auto.vae.decoder.up_blocks.1.resnets.1.norm1.bias = #stream.parameter.named<"model"::"vae.decoder.up_blocks.1.resnets.1.norm1.bias"> : tensor<512xf16>
  util.global private @__auto.vae.decoder.up_blocks.1.resnets.1.norm1.weight = #stream.parameter.named<"model"::"vae.decoder.up_blocks.1.resnets.1.norm1.weight"> : tensor<512xf16>
  util.global private @__auto.vae.decoder.up_blocks.1.resnets.1.conv1.weight = #stream.parameter.named<"model"::"vae.decoder.up_blocks.1.resnets.1.conv1.weight"> : tensor<512x512x3x3xf16>
  util.global private @__auto.vae.decoder.up_blocks.1.resnets.1.conv1.bias = #stream.parameter.named<"model"::"vae.decoder.up_blocks.1.resnets.1.conv1.bias"> : tensor<512xf16>
  util.global private @__auto.vae.decoder.up_blocks.1.resnets.1.norm2.bias = #stream.parameter.named<"model"::"vae.decoder.up_blocks.1.resnets.1.norm2.bias"> : tensor<512xf16>
  util.global private @__auto.vae.decoder.up_blocks.1.resnets.1.norm2.weight = #stream.parameter.named<"model"::"vae.decoder.up_blocks.1.resnets.1.norm2.weight"> : tensor<512xf16>
  util.global private @__auto.vae.decoder.up_blocks.1.resnets.1.conv2.weight = #stream.parameter.named<"model"::"vae.decoder.up_blocks.1.resnets.1.conv2.weight"> : tensor<512x512x3x3xf16>
  util.global private @__auto.vae.decoder.up_blocks.1.resnets.1.conv2.bias = #stream.parameter.named<"model"::"vae.decoder.up_blocks.1.resnets.1.conv2.bias"> : tensor<512xf16>
  util.global private @__auto.vae.decoder.up_blocks.1.resnets.2.norm1.bias = #stream.parameter.named<"model"::"vae.decoder.up_blocks.1.resnets.2.norm1.bias"> : tensor<512xf16>
  util.global private @__auto.vae.decoder.up_blocks.1.resnets.2.norm1.weight = #stream.parameter.named<"model"::"vae.decoder.up_blocks.1.resnets.2.norm1.weight"> : tensor<512xf16>
  util.global private @__auto.vae.decoder.up_blocks.1.resnets.2.conv1.weight = #stream.parameter.named<"model"::"vae.decoder.up_blocks.1.resnets.2.conv1.weight"> : tensor<512x512x3x3xf16>
  util.global private @__auto.vae.decoder.up_blocks.1.resnets.2.conv1.bias = #stream.parameter.named<"model"::"vae.decoder.up_blocks.1.resnets.2.conv1.bias"> : tensor<512xf16>
  util.global private @__auto.vae.decoder.up_blocks.1.resnets.2.norm2.bias = #stream.parameter.named<"model"::"vae.decoder.up_blocks.1.resnets.2.norm2.bias"> : tensor<512xf16>
  util.global private @__auto.vae.decoder.up_blocks.1.resnets.2.norm2.weight = #stream.parameter.named<"model"::"vae.decoder.up_blocks.1.resnets.2.norm2.weight"> : tensor<512xf16>
  util.global private @__auto.vae.decoder.up_blocks.1.resnets.2.conv2.weight = #stream.parameter.named<"model"::"vae.decoder.up_blocks.1.resnets.2.conv2.weight"> : tensor<512x512x3x3xf16>
  util.global private @__auto.vae.decoder.up_blocks.1.resnets.2.conv2.bias = #stream.parameter.named<"model"::"vae.decoder.up_blocks.1.resnets.2.conv2.bias"> : tensor<512xf16>
  util.global private @__auto.vae.decoder.up_blocks.1.upsamplers.0.conv.weight = #stream.parameter.named<"model"::"vae.decoder.up_blocks.1.upsamplers.0.conv.weight"> : tensor<512x512x3x3xf16>
  util.global private @__auto.vae.decoder.up_blocks.1.upsamplers.0.conv.bias = #stream.parameter.named<"model"::"vae.decoder.up_blocks.1.upsamplers.0.conv.bias"> : tensor<512xf16>
  util.global private @__auto.vae.decoder.up_blocks.2.resnets.0.norm1.bias = #stream.parameter.named<"model"::"vae.decoder.up_blocks.2.resnets.0.norm1.bias"> : tensor<512xf16>
  util.global private @__auto.vae.decoder.up_blocks.2.resnets.0.norm1.weight = #stream.parameter.named<"model"::"vae.decoder.up_blocks.2.resnets.0.norm1.weight"> : tensor<512xf16>
  util.global private @__auto.vae.decoder.up_blocks.2.resnets.0.conv1.weight = #stream.parameter.named<"model"::"vae.decoder.up_blocks.2.resnets.0.conv1.weight"> : tensor<256x512x3x3xf16>
  util.global private @__auto.vae.decoder.up_blocks.2.resnets.0.conv1.bias = #stream.parameter.named<"model"::"vae.decoder.up_blocks.2.resnets.0.conv1.bias"> : tensor<256xf16>
  util.global private @__auto.vae.decoder.up_blocks.2.resnets.0.norm2.bias = #stream.parameter.named<"model"::"vae.decoder.up_blocks.2.resnets.0.norm2.bias"> : tensor<256xf16>
  util.global private @__auto.vae.decoder.up_blocks.2.resnets.0.norm2.weight = #stream.parameter.named<"model"::"vae.decoder.up_blocks.2.resnets.0.norm2.weight"> : tensor<256xf16>
  util.global private @__auto.vae.decoder.up_blocks.2.resnets.0.conv2.weight = #stream.parameter.named<"model"::"vae.decoder.up_blocks.2.resnets.0.conv2.weight"> : tensor<256x256x3x3xf16>
  util.global private @__auto.vae.decoder.up_blocks.2.resnets.0.conv2.bias = #stream.parameter.named<"model"::"vae.decoder.up_blocks.2.resnets.0.conv2.bias"> : tensor<256xf16>
  util.global private @__auto.vae.decoder.up_blocks.2.resnets.0.conv_shortcut.weight = #stream.parameter.named<"model"::"vae.decoder.up_blocks.2.resnets.0.conv_shortcut.weight"> : tensor<256x512x1x1xf16>
  util.global private @__auto.vae.decoder.up_blocks.2.resnets.0.conv_shortcut.bias = #stream.parameter.named<"model"::"vae.decoder.up_blocks.2.resnets.0.conv_shortcut.bias"> : tensor<256xf16>
  util.global private @__auto.vae.decoder.up_blocks.2.resnets.1.norm1.bias = #stream.parameter.named<"model"::"vae.decoder.up_blocks.2.resnets.1.norm1.bias"> : tensor<256xf16>
  util.global private @__auto.vae.decoder.up_blocks.2.resnets.1.norm1.weight = #stream.parameter.named<"model"::"vae.decoder.up_blocks.2.resnets.1.norm1.weight"> : tensor<256xf16>
  util.global private @__auto.vae.decoder.up_blocks.2.resnets.1.conv1.weight = #stream.parameter.named<"model"::"vae.decoder.up_blocks.2.resnets.1.conv1.weight"> : tensor<256x256x3x3xf16>
  util.global private @__auto.vae.decoder.up_blocks.2.resnets.1.conv1.bias = #stream.parameter.named<"model"::"vae.decoder.up_blocks.2.resnets.1.conv1.bias"> : tensor<256xf16>
  util.global private @__auto.vae.decoder.up_blocks.2.resnets.1.norm2.bias = #stream.parameter.named<"model"::"vae.decoder.up_blocks.2.resnets.1.norm2.bias"> : tensor<256xf16>
  util.global private @__auto.vae.decoder.up_blocks.2.resnets.1.norm2.weight = #stream.parameter.named<"model"::"vae.decoder.up_blocks.2.resnets.1.norm2.weight"> : tensor<256xf16>
  util.global private @__auto.vae.decoder.up_blocks.2.resnets.1.conv2.weight = #stream.parameter.named<"model"::"vae.decoder.up_blocks.2.resnets.1.conv2.weight"> : tensor<256x256x3x3xf16>
  util.global private @__auto.vae.decoder.up_blocks.2.resnets.1.conv2.bias = #stream.parameter.named<"model"::"vae.decoder.up_blocks.2.resnets.1.conv2.bias"> : tensor<256xf16>
  util.global private @__auto.vae.decoder.up_blocks.2.resnets.2.norm1.bias = #stream.parameter.named<"model"::"vae.decoder.up_blocks.2.resnets.2.norm1.bias"> : tensor<256xf16>
  util.global private @__auto.vae.decoder.up_blocks.2.resnets.2.norm1.weight = #stream.parameter.named<"model"::"vae.decoder.up_blocks.2.resnets.2.norm1.weight"> : tensor<256xf16>
  util.global private @__auto.vae.decoder.up_blocks.2.resnets.2.conv1.weight = #stream.parameter.named<"model"::"vae.decoder.up_blocks.2.resnets.2.conv1.weight"> : tensor<256x256x3x3xf16>
  util.global private @__auto.vae.decoder.up_blocks.2.resnets.2.conv1.bias = #stream.parameter.named<"model"::"vae.decoder.up_blocks.2.resnets.2.conv1.bias"> : tensor<256xf16>
  util.global private @__auto.vae.decoder.up_blocks.2.resnets.2.norm2.bias = #stream.parameter.named<"model"::"vae.decoder.up_blocks.2.resnets.2.norm2.bias"> : tensor<256xf16>
  util.global private @__auto.vae.decoder.up_blocks.2.resnets.2.norm2.weight = #stream.parameter.named<"model"::"vae.decoder.up_blocks.2.resnets.2.norm2.weight"> : tensor<256xf16>
  util.global private @__auto.vae.decoder.up_blocks.2.resnets.2.conv2.weight = #stream.parameter.named<"model"::"vae.decoder.up_blocks.2.resnets.2.conv2.weight"> : tensor<256x256x3x3xf16>
  util.global private @__auto.vae.decoder.up_blocks.2.resnets.2.conv2.bias = #stream.parameter.named<"model"::"vae.decoder.up_blocks.2.resnets.2.conv2.bias"> : tensor<256xf16>
  util.global private @__auto.vae.decoder.up_blocks.2.upsamplers.0.conv.weight = #stream.parameter.named<"model"::"vae.decoder.up_blocks.2.upsamplers.0.conv.weight"> : tensor<256x256x3x3xf16>
  util.global private @__auto.vae.decoder.up_blocks.2.upsamplers.0.conv.bias = #stream.parameter.named<"model"::"vae.decoder.up_blocks.2.upsamplers.0.conv.bias"> : tensor<256xf16>
  util.global private @__auto.vae.decoder.up_blocks.3.resnets.0.norm1.bias = #stream.parameter.named<"model"::"vae.decoder.up_blocks.3.resnets.0.norm1.bias"> : tensor<256xf16>
  util.global private @__auto.vae.decoder.up_blocks.3.resnets.0.norm1.weight = #stream.parameter.named<"model"::"vae.decoder.up_blocks.3.resnets.0.norm1.weight"> : tensor<256xf16>
  util.global private @__auto.vae.decoder.up_blocks.3.resnets.0.conv1.weight = #stream.parameter.named<"model"::"vae.decoder.up_blocks.3.resnets.0.conv1.weight"> : tensor<128x256x3x3xf16>
  util.global private @__auto.vae.decoder.up_blocks.3.resnets.0.conv1.bias = #stream.parameter.named<"model"::"vae.decoder.up_blocks.3.resnets.0.conv1.bias"> : tensor<128xf16>
  util.global private @__auto.vae.decoder.up_blocks.3.resnets.0.norm2.bias = #stream.parameter.named<"model"::"vae.decoder.up_blocks.3.resnets.0.norm2.bias"> : tensor<128xf16>
  util.global private @__auto.vae.decoder.up_blocks.3.resnets.0.norm2.weight = #stream.parameter.named<"model"::"vae.decoder.up_blocks.3.resnets.0.norm2.weight"> : tensor<128xf16>
  util.global private @__auto.vae.decoder.up_blocks.3.resnets.0.conv2.weight = #stream.parameter.named<"model"::"vae.decoder.up_blocks.3.resnets.0.conv2.weight"> : tensor<128x128x3x3xf16>
  util.global private @__auto.vae.decoder.up_blocks.3.resnets.0.conv2.bias = #stream.parameter.named<"model"::"vae.decoder.up_blocks.3.resnets.0.conv2.bias"> : tensor<128xf16>
  util.global private @__auto.vae.decoder.up_blocks.3.resnets.0.conv_shortcut.weight = #stream.parameter.named<"model"::"vae.decoder.up_blocks.3.resnets.0.conv_shortcut.weight"> : tensor<128x256x1x1xf16>
  util.global private @__auto.vae.decoder.up_blocks.3.resnets.0.conv_shortcut.bias = #stream.parameter.named<"model"::"vae.decoder.up_blocks.3.resnets.0.conv_shortcut.bias"> : tensor<128xf16>
  util.global private @__auto.vae.decoder.up_blocks.3.resnets.1.norm1.bias = #stream.parameter.named<"model"::"vae.decoder.up_blocks.3.resnets.1.norm1.bias"> : tensor<128xf16>
  util.global private @__auto.vae.decoder.up_blocks.3.resnets.1.norm1.weight = #stream.parameter.named<"model"::"vae.decoder.up_blocks.3.resnets.1.norm1.weight"> : tensor<128xf16>
  util.global private @__auto.vae.decoder.up_blocks.3.resnets.1.conv1.weight = #stream.parameter.named<"model"::"vae.decoder.up_blocks.3.resnets.1.conv1.weight"> : tensor<128x128x3x3xf16>
  util.global private @__auto.vae.decoder.up_blocks.3.resnets.1.conv1.bias = #stream.parameter.named<"model"::"vae.decoder.up_blocks.3.resnets.1.conv1.bias"> : tensor<128xf16>
  util.global private @__auto.vae.decoder.up_blocks.3.resnets.1.norm2.bias = #stream.parameter.named<"model"::"vae.decoder.up_blocks.3.resnets.1.norm2.bias"> : tensor<128xf16>
  util.global private @__auto.vae.decoder.up_blocks.3.resnets.1.norm2.weight = #stream.parameter.named<"model"::"vae.decoder.up_blocks.3.resnets.1.norm2.weight"> : tensor<128xf16>
  util.global private @__auto.vae.decoder.up_blocks.3.resnets.1.conv2.weight = #stream.parameter.named<"model"::"vae.decoder.up_blocks.3.resnets.1.conv2.weight"> : tensor<128x128x3x3xf16>
  util.global private @__auto.vae.decoder.up_blocks.3.resnets.1.conv2.bias = #stream.parameter.named<"model"::"vae.decoder.up_blocks.3.resnets.1.conv2.bias"> : tensor<128xf16>
  util.global private @__auto.vae.decoder.up_blocks.3.resnets.2.norm1.bias = #stream.parameter.named<"model"::"vae.decoder.up_blocks.3.resnets.2.norm1.bias"> : tensor<128xf16>
  util.global private @__auto.vae.decoder.up_blocks.3.resnets.2.norm1.weight = #stream.parameter.named<"model"::"vae.decoder.up_blocks.3.resnets.2.norm1.weight"> : tensor<128xf16>
  util.global private @__auto.vae.decoder.up_blocks.3.resnets.2.conv1.weight = #stream.parameter.named<"model"::"vae.decoder.up_blocks.3.resnets.2.conv1.weight"> : tensor<128x128x3x3xf16>
  util.global private @__auto.vae.decoder.up_blocks.3.resnets.2.conv1.bias = #stream.parameter.named<"model"::"vae.decoder.up_blocks.3.resnets.2.conv1.bias"> : tensor<128xf16>
  util.global private @__auto.vae.decoder.up_blocks.3.resnets.2.norm2.bias = #stream.parameter.named<"model"::"vae.decoder.up_blocks.3.resnets.2.norm2.bias"> : tensor<128xf16>
  util.global private @__auto.vae.decoder.up_blocks.3.resnets.2.norm2.weight = #stream.parameter.named<"model"::"vae.decoder.up_blocks.3.resnets.2.norm2.weight"> : tensor<128xf16>
  util.global private @__auto.vae.decoder.up_blocks.3.resnets.2.conv2.weight = #stream.parameter.named<"model"::"vae.decoder.up_blocks.3.resnets.2.conv2.weight"> : tensor<128x128x3x3xf16>
  util.global private @__auto.vae.decoder.up_blocks.3.resnets.2.conv2.bias = #stream.parameter.named<"model"::"vae.decoder.up_blocks.3.resnets.2.conv2.bias"> : tensor<128xf16>
  util.global private @__auto.vae.decoder.conv_norm_out.bias = #stream.parameter.named<"model"::"vae.decoder.conv_norm_out.bias"> : tensor<128xf16>
  util.global private @__auto.vae.decoder.conv_norm_out.weight = #stream.parameter.named<"model"::"vae.decoder.conv_norm_out.weight"> : tensor<128xf16>
  util.global private @__auto.vae.decoder.conv_out.weight = #stream.parameter.named<"model"::"vae.decoder.conv_out.weight"> : tensor<3x128x3x3xf16>
  util.global private @__auto.vae.decoder.conv_out.bias = #stream.parameter.named<"model"::"vae.decoder.conv_out.bias"> : tensor<3xf16>
  util.global private @__auto.vae.encoder.conv_in.weight = #stream.parameter.named<"model"::"vae.encoder.conv_in.weight"> : tensor<128x3x3x3xf16>
  util.global private @__auto.vae.encoder.conv_in.bias = #stream.parameter.named<"model"::"vae.encoder.conv_in.bias"> : tensor<128xf16>
  util.global private @__auto.vae.encoder.down_blocks.0.resnets.0.norm1.bias = #stream.parameter.named<"model"::"vae.encoder.down_blocks.0.resnets.0.norm1.bias"> : tensor<128xf16>
  util.global private @__auto.vae.encoder.down_blocks.0.resnets.0.norm1.weight = #stream.parameter.named<"model"::"vae.encoder.down_blocks.0.resnets.0.norm1.weight"> : tensor<128xf16>
  util.global private @__auto.vae.encoder.down_blocks.0.resnets.0.conv1.weight = #stream.parameter.named<"model"::"vae.encoder.down_blocks.0.resnets.0.conv1.weight"> : tensor<128x128x3x3xf16>
  util.global private @__auto.vae.encoder.down_blocks.0.resnets.0.conv1.bias = #stream.parameter.named<"model"::"vae.encoder.down_blocks.0.resnets.0.conv1.bias"> : tensor<128xf16>
  util.global private @__auto.vae.encoder.down_blocks.0.resnets.0.norm2.bias = #stream.parameter.named<"model"::"vae.encoder.down_blocks.0.resnets.0.norm2.bias"> : tensor<128xf16>
  util.global private @__auto.vae.encoder.down_blocks.0.resnets.0.norm2.weight = #stream.parameter.named<"model"::"vae.encoder.down_blocks.0.resnets.0.norm2.weight"> : tensor<128xf16>
  util.global private @__auto.vae.encoder.down_blocks.0.resnets.0.conv2.weight = #stream.parameter.named<"model"::"vae.encoder.down_blocks.0.resnets.0.conv2.weight"> : tensor<128x128x3x3xf16>
  util.global private @__auto.vae.encoder.down_blocks.0.resnets.0.conv2.bias = #stream.parameter.named<"model"::"vae.encoder.down_blocks.0.resnets.0.conv2.bias"> : tensor<128xf16>
  util.global private @__auto.vae.encoder.down_blocks.0.resnets.1.norm1.bias = #stream.parameter.named<"model"::"vae.encoder.down_blocks.0.resnets.1.norm1.bias"> : tensor<128xf16>
  util.global private @__auto.vae.encoder.down_blocks.0.resnets.1.norm1.weight = #stream.parameter.named<"model"::"vae.encoder.down_blocks.0.resnets.1.norm1.weight"> : tensor<128xf16>
  util.global private @__auto.vae.encoder.down_blocks.0.resnets.1.conv1.weight = #stream.parameter.named<"model"::"vae.encoder.down_blocks.0.resnets.1.conv1.weight"> : tensor<128x128x3x3xf16>
  util.global private @__auto.vae.encoder.down_blocks.0.resnets.1.conv1.bias = #stream.parameter.named<"model"::"vae.encoder.down_blocks.0.resnets.1.conv1.bias"> : tensor<128xf16>
  util.global private @__auto.vae.encoder.down_blocks.0.resnets.1.norm2.bias = #stream.parameter.named<"model"::"vae.encoder.down_blocks.0.resnets.1.norm2.bias"> : tensor<128xf16>
  util.global private @__auto.vae.encoder.down_blocks.0.resnets.1.norm2.weight = #stream.parameter.named<"model"::"vae.encoder.down_blocks.0.resnets.1.norm2.weight"> : tensor<128xf16>
  util.global private @__auto.vae.encoder.down_blocks.0.resnets.1.conv2.weight = #stream.parameter.named<"model"::"vae.encoder.down_blocks.0.resnets.1.conv2.weight"> : tensor<128x128x3x3xf16>
  util.global private @__auto.vae.encoder.down_blocks.0.resnets.1.conv2.bias = #stream.parameter.named<"model"::"vae.encoder.down_blocks.0.resnets.1.conv2.bias"> : tensor<128xf16>
  util.global private @__auto.vae.encoder.down_blocks.0.downsamplers.0.conv.weight = #stream.parameter.named<"model"::"vae.encoder.down_blocks.0.downsamplers.0.conv.weight"> : tensor<128x128x3x3xf16>
  util.global private @__auto.vae.encoder.down_blocks.0.downsamplers.0.conv.bias = #stream.parameter.named<"model"::"vae.encoder.down_blocks.0.downsamplers.0.conv.bias"> : tensor<128xf16>
  util.global private @__auto.vae.encoder.down_blocks.1.resnets.0.norm1.bias = #stream.parameter.named<"model"::"vae.encoder.down_blocks.1.resnets.0.norm1.bias"> : tensor<128xf16>
  util.global private @__auto.vae.encoder.down_blocks.1.resnets.0.norm1.weight = #stream.parameter.named<"model"::"vae.encoder.down_blocks.1.resnets.0.norm1.weight"> : tensor<128xf16>
  util.global private @__auto.vae.encoder.down_blocks.1.resnets.0.conv1.weight = #stream.parameter.named<"model"::"vae.encoder.down_blocks.1.resnets.0.conv1.weight"> : tensor<256x128x3x3xf16>
  util.global private @__auto.vae.encoder.down_blocks.1.resnets.0.conv1.bias = #stream.parameter.named<"model"::"vae.encoder.down_blocks.1.resnets.0.conv1.bias"> : tensor<256xf16>
  util.global private @__auto.vae.encoder.down_blocks.1.resnets.0.norm2.bias = #stream.parameter.named<"model"::"vae.encoder.down_blocks.1.resnets.0.norm2.bias"> : tensor<256xf16>
  util.global private @__auto.vae.encoder.down_blocks.1.resnets.0.norm2.weight = #stream.parameter.named<"model"::"vae.encoder.down_blocks.1.resnets.0.norm2.weight"> : tensor<256xf16>
  util.global private @__auto.vae.encoder.down_blocks.1.resnets.0.conv2.weight = #stream.parameter.named<"model"::"vae.encoder.down_blocks.1.resnets.0.conv2.weight"> : tensor<256x256x3x3xf16>
  util.global private @__auto.vae.encoder.down_blocks.1.resnets.0.conv2.bias = #stream.parameter.named<"model"::"vae.encoder.down_blocks.1.resnets.0.conv2.bias"> : tensor<256xf16>
  util.global private @__auto.vae.encoder.down_blocks.1.resnets.0.conv_shortcut.weight = #stream.parameter.named<"model"::"vae.encoder.down_blocks.1.resnets.0.conv_shortcut.weight"> : tensor<256x128x1x1xf16>
  util.global private @__auto.vae.encoder.down_blocks.1.resnets.0.conv_shortcut.bias = #stream.parameter.named<"model"::"vae.encoder.down_blocks.1.resnets.0.conv_shortcut.bias"> : tensor<256xf16>
  util.global private @__auto.vae.encoder.down_blocks.1.resnets.1.norm1.bias = #stream.parameter.named<"model"::"vae.encoder.down_blocks.1.resnets.1.norm1.bias"> : tensor<256xf16>
  util.global private @__auto.vae.encoder.down_blocks.1.resnets.1.norm1.weight = #stream.parameter.named<"model"::"vae.encoder.down_blocks.1.resnets.1.norm1.weight"> : tensor<256xf16>
  util.global private @__auto.vae.encoder.down_blocks.1.resnets.1.conv1.weight = #stream.parameter.named<"model"::"vae.encoder.down_blocks.1.resnets.1.conv1.weight"> : tensor<256x256x3x3xf16>
  util.global private @__auto.vae.encoder.down_blocks.1.resnets.1.conv1.bias = #stream.parameter.named<"model"::"vae.encoder.down_blocks.1.resnets.1.conv1.bias"> : tensor<256xf16>
  util.global private @__auto.vae.encoder.down_blocks.1.resnets.1.norm2.bias = #stream.parameter.named<"model"::"vae.encoder.down_blocks.1.resnets.1.norm2.bias"> : tensor<256xf16>
  util.global private @__auto.vae.encoder.down_blocks.1.resnets.1.norm2.weight = #stream.parameter.named<"model"::"vae.encoder.down_blocks.1.resnets.1.norm2.weight"> : tensor<256xf16>
  util.global private @__auto.vae.encoder.down_blocks.1.resnets.1.conv2.weight = #stream.parameter.named<"model"::"vae.encoder.down_blocks.1.resnets.1.conv2.weight"> : tensor<256x256x3x3xf16>
  util.global private @__auto.vae.encoder.down_blocks.1.resnets.1.conv2.bias = #stream.parameter.named<"model"::"vae.encoder.down_blocks.1.resnets.1.conv2.bias"> : tensor<256xf16>
  util.global private @__auto.vae.encoder.down_blocks.1.downsamplers.0.conv.weight = #stream.parameter.named<"model"::"vae.encoder.down_blocks.1.downsamplers.0.conv.weight"> : tensor<256x256x3x3xf16>
  util.global private @__auto.vae.encoder.down_blocks.1.downsamplers.0.conv.bias = #stream.parameter.named<"model"::"vae.encoder.down_blocks.1.downsamplers.0.conv.bias"> : tensor<256xf16>
  util.global private @__auto.vae.encoder.down_blocks.2.resnets.0.norm1.bias = #stream.parameter.named<"model"::"vae.encoder.down_blocks.2.resnets.0.norm1.bias"> : tensor<256xf16>
  util.global private @__auto.vae.encoder.down_blocks.2.resnets.0.norm1.weight = #stream.parameter.named<"model"::"vae.encoder.down_blocks.2.resnets.0.norm1.weight"> : tensor<256xf16>
  util.global private @__auto.vae.encoder.down_blocks.2.resnets.0.conv1.weight = #stream.parameter.named<"model"::"vae.encoder.down_blocks.2.resnets.0.conv1.weight"> : tensor<512x256x3x3xf16>
  util.global private @__auto.vae.encoder.down_blocks.2.resnets.0.conv1.bias = #stream.parameter.named<"model"::"vae.encoder.down_blocks.2.resnets.0.conv1.bias"> : tensor<512xf16>
  util.global private @__auto.vae.encoder.down_blocks.2.resnets.0.norm2.bias = #stream.parameter.named<"model"::"vae.encoder.down_blocks.2.resnets.0.norm2.bias"> : tensor<512xf16>
  util.global private @__auto.vae.encoder.down_blocks.2.resnets.0.norm2.weight = #stream.parameter.named<"model"::"vae.encoder.down_blocks.2.resnets.0.norm2.weight"> : tensor<512xf16>
  util.global private @__auto.vae.encoder.down_blocks.2.resnets.0.conv2.weight = #stream.parameter.named<"model"::"vae.encoder.down_blocks.2.resnets.0.conv2.weight"> : tensor<512x512x3x3xf16>
  util.global private @__auto.vae.encoder.down_blocks.2.resnets.0.conv2.bias = #stream.parameter.named<"model"::"vae.encoder.down_blocks.2.resnets.0.conv2.bias"> : tensor<512xf16>
  util.global private @__auto.vae.encoder.down_blocks.2.resnets.0.conv_shortcut.weight = #stream.parameter.named<"model"::"vae.encoder.down_blocks.2.resnets.0.conv_shortcut.weight"> : tensor<512x256x1x1xf16>
  util.global private @__auto.vae.encoder.down_blocks.2.resnets.0.conv_shortcut.bias = #stream.parameter.named<"model"::"vae.encoder.down_blocks.2.resnets.0.conv_shortcut.bias"> : tensor<512xf16>
  util.global private @__auto.vae.encoder.down_blocks.2.resnets.1.norm1.bias = #stream.parameter.named<"model"::"vae.encoder.down_blocks.2.resnets.1.norm1.bias"> : tensor<512xf16>
  util.global private @__auto.vae.encoder.down_blocks.2.resnets.1.norm1.weight = #stream.parameter.named<"model"::"vae.encoder.down_blocks.2.resnets.1.norm1.weight"> : tensor<512xf16>
  util.global private @__auto.vae.encoder.down_blocks.2.resnets.1.conv1.weight = #stream.parameter.named<"model"::"vae.encoder.down_blocks.2.resnets.1.conv1.weight"> : tensor<512x512x3x3xf16>
  util.global private @__auto.vae.encoder.down_blocks.2.resnets.1.conv1.bias = #stream.parameter.named<"model"::"vae.encoder.down_blocks.2.resnets.1.conv1.bias"> : tensor<512xf16>
  util.global private @__auto.vae.encoder.down_blocks.2.resnets.1.norm2.bias = #stream.parameter.named<"model"::"vae.encoder.down_blocks.2.resnets.1.norm2.bias"> : tensor<512xf16>
  util.global private @__auto.vae.encoder.down_blocks.2.resnets.1.norm2.weight = #stream.parameter.named<"model"::"vae.encoder.down_blocks.2.resnets.1.norm2.weight"> : tensor<512xf16>
  util.global private @__auto.vae.encoder.down_blocks.2.resnets.1.conv2.weight = #stream.parameter.named<"model"::"vae.encoder.down_blocks.2.resnets.1.conv2.weight"> : tensor<512x512x3x3xf16>
  util.global private @__auto.vae.encoder.down_blocks.2.resnets.1.conv2.bias = #stream.parameter.named<"model"::"vae.encoder.down_blocks.2.resnets.1.conv2.bias"> : tensor<512xf16>
  util.global private @__auto.vae.encoder.down_blocks.2.downsamplers.0.conv.weight = #stream.parameter.named<"model"::"vae.encoder.down_blocks.2.downsamplers.0.conv.weight"> : tensor<512x512x3x3xf16>
  util.global private @__auto.vae.encoder.down_blocks.2.downsamplers.0.conv.bias = #stream.parameter.named<"model"::"vae.encoder.down_blocks.2.downsamplers.0.conv.bias"> : tensor<512xf16>
  util.global private @__auto.vae.encoder.down_blocks.3.resnets.0.norm1.bias = #stream.parameter.named<"model"::"vae.encoder.down_blocks.3.resnets.0.norm1.bias"> : tensor<512xf16>
  util.global private @__auto.vae.encoder.down_blocks.3.resnets.0.norm1.weight = #stream.parameter.named<"model"::"vae.encoder.down_blocks.3.resnets.0.norm1.weight"> : tensor<512xf16>
  util.global private @__auto.vae.encoder.down_blocks.3.resnets.0.conv1.weight = #stream.parameter.named<"model"::"vae.encoder.down_blocks.3.resnets.0.conv1.weight"> : tensor<512x512x3x3xf16>
  util.global private @__auto.vae.encoder.down_blocks.3.resnets.0.conv1.bias = #stream.parameter.named<"model"::"vae.encoder.down_blocks.3.resnets.0.conv1.bias"> : tensor<512xf16>
  util.global private @__auto.vae.encoder.down_blocks.3.resnets.0.norm2.bias = #stream.parameter.named<"model"::"vae.encoder.down_blocks.3.resnets.0.norm2.bias"> : tensor<512xf16>
  util.global private @__auto.vae.encoder.down_blocks.3.resnets.0.norm2.weight = #stream.parameter.named<"model"::"vae.encoder.down_blocks.3.resnets.0.norm2.weight"> : tensor<512xf16>
  util.global private @__auto.vae.encoder.down_blocks.3.resnets.0.conv2.weight = #stream.parameter.named<"model"::"vae.encoder.down_blocks.3.resnets.0.conv2.weight"> : tensor<512x512x3x3xf16>
  util.global private @__auto.vae.encoder.down_blocks.3.resnets.0.conv2.bias = #stream.parameter.named<"model"::"vae.encoder.down_blocks.3.resnets.0.conv2.bias"> : tensor<512xf16>
  util.global private @__auto.vae.encoder.down_blocks.3.resnets.1.norm1.bias = #stream.parameter.named<"model"::"vae.encoder.down_blocks.3.resnets.1.norm1.bias"> : tensor<512xf16>
  util.global private @__auto.vae.encoder.down_blocks.3.resnets.1.norm1.weight = #stream.parameter.named<"model"::"vae.encoder.down_blocks.3.resnets.1.norm1.weight"> : tensor<512xf16>
  util.global private @__auto.vae.encoder.down_blocks.3.resnets.1.conv1.weight = #stream.parameter.named<"model"::"vae.encoder.down_blocks.3.resnets.1.conv1.weight"> : tensor<512x512x3x3xf16>
  util.global private @__auto.vae.encoder.down_blocks.3.resnets.1.conv1.bias = #stream.parameter.named<"model"::"vae.encoder.down_blocks.3.resnets.1.conv1.bias"> : tensor<512xf16>
  util.global private @__auto.vae.encoder.down_blocks.3.resnets.1.norm2.bias = #stream.parameter.named<"model"::"vae.encoder.down_blocks.3.resnets.1.norm2.bias"> : tensor<512xf16>
  util.global private @__auto.vae.encoder.down_blocks.3.resnets.1.norm2.weight = #stream.parameter.named<"model"::"vae.encoder.down_blocks.3.resnets.1.norm2.weight"> : tensor<512xf16>
  util.global private @__auto.vae.encoder.down_blocks.3.resnets.1.conv2.weight = #stream.parameter.named<"model"::"vae.encoder.down_blocks.3.resnets.1.conv2.weight"> : tensor<512x512x3x3xf16>
  util.global private @__auto.vae.encoder.down_blocks.3.resnets.1.conv2.bias = #stream.parameter.named<"model"::"vae.encoder.down_blocks.3.resnets.1.conv2.bias"> : tensor<512xf16>
  util.global private @__auto.vae.encoder.mid_block.resnets.0.norm1.bias = #stream.parameter.named<"model"::"vae.encoder.mid_block.resnets.0.norm1.bias"> : tensor<512xf16>
  util.global private @__auto.vae.encoder.mid_block.resnets.0.norm1.weight = #stream.parameter.named<"model"::"vae.encoder.mid_block.resnets.0.norm1.weight"> : tensor<512xf16>
  util.global private @__auto.vae.encoder.mid_block.resnets.0.conv1.weight = #stream.parameter.named<"model"::"vae.encoder.mid_block.resnets.0.conv1.weight"> : tensor<512x512x3x3xf16>
  util.global private @__auto.vae.encoder.mid_block.resnets.0.conv1.bias = #stream.parameter.named<"model"::"vae.encoder.mid_block.resnets.0.conv1.bias"> : tensor<512xf16>
  util.global private @__auto.vae.encoder.mid_block.resnets.0.norm2.bias = #stream.parameter.named<"model"::"vae.encoder.mid_block.resnets.0.norm2.bias"> : tensor<512xf16>
  util.global private @__auto.vae.encoder.mid_block.resnets.0.norm2.weight = #stream.parameter.named<"model"::"vae.encoder.mid_block.resnets.0.norm2.weight"> : tensor<512xf16>
  util.global private @__auto.vae.encoder.mid_block.resnets.0.conv2.weight = #stream.parameter.named<"model"::"vae.encoder.mid_block.resnets.0.conv2.weight"> : tensor<512x512x3x3xf16>
  util.global private @__auto.vae.encoder.mid_block.resnets.0.conv2.bias = #stream.parameter.named<"model"::"vae.encoder.mid_block.resnets.0.conv2.bias"> : tensor<512xf16>
  util.global private @__auto.vae.encoder.mid_block.attentions.0.group_norm.bias = #stream.parameter.named<"model"::"vae.encoder.mid_block.attentions.0.group_norm.bias"> : tensor<512xf16>
  util.global private @__auto.vae.encoder.mid_block.attentions.0.group_norm.weight = #stream.parameter.named<"model"::"vae.encoder.mid_block.attentions.0.group_norm.weight"> : tensor<512xf16>
  util.global private @__auto.vae.encoder.mid_block.attentions.0.to_q.weight = #stream.parameter.named<"model"::"vae.encoder.mid_block.attentions.0.to_q.weight"> : tensor<512x512xf16>
  util.global private @__auto.vae.encoder.mid_block.attentions.0.to_q.bias = #stream.parameter.named<"model"::"vae.encoder.mid_block.attentions.0.to_q.bias"> : tensor<512xf16>
  util.global private @__auto.vae.encoder.mid_block.attentions.0.to_k.weight = #stream.parameter.named<"model"::"vae.encoder.mid_block.attentions.0.to_k.weight"> : tensor<512x512xf16>
  util.global private @__auto.vae.encoder.mid_block.attentions.0.to_k.bias = #stream.parameter.named<"model"::"vae.encoder.mid_block.attentions.0.to_k.bias"> : tensor<512xf16>
  util.global private @__auto.vae.encoder.mid_block.attentions.0.to_v.weight = #stream.parameter.named<"model"::"vae.encoder.mid_block.attentions.0.to_v.weight"> : tensor<512x512xf16>
  util.global private @__auto.vae.encoder.mid_block.attentions.0.to_v.bias = #stream.parameter.named<"model"::"vae.encoder.mid_block.attentions.0.to_v.bias"> : tensor<512xf16>
  util.global private @__auto.vae.encoder.mid_block.attentions.0.to_out.0.weight = #stream.parameter.named<"model"::"vae.encoder.mid_block.attentions.0.to_out.0.weight"> : tensor<512x512xf16>
  util.global private @__auto.vae.encoder.mid_block.attentions.0.to_out.0.bias = #stream.parameter.named<"model"::"vae.encoder.mid_block.attentions.0.to_out.0.bias"> : tensor<512xf16>
  util.global private @__auto.vae.encoder.mid_block.resnets.1.norm1.bias = #stream.parameter.named<"model"::"vae.encoder.mid_block.resnets.1.norm1.bias"> : tensor<512xf16>
  util.global private @__auto.vae.encoder.mid_block.resnets.1.norm1.weight = #stream.parameter.named<"model"::"vae.encoder.mid_block.resnets.1.norm1.weight"> : tensor<512xf16>
  util.global private @__auto.vae.encoder.mid_block.resnets.1.conv1.weight = #stream.parameter.named<"model"::"vae.encoder.mid_block.resnets.1.conv1.weight"> : tensor<512x512x3x3xf16>
  util.global private @__auto.vae.encoder.mid_block.resnets.1.conv1.bias = #stream.parameter.named<"model"::"vae.encoder.mid_block.resnets.1.conv1.bias"> : tensor<512xf16>
  util.global private @__auto.vae.encoder.mid_block.resnets.1.norm2.bias = #stream.parameter.named<"model"::"vae.encoder.mid_block.resnets.1.norm2.bias"> : tensor<512xf16>
  util.global private @__auto.vae.encoder.mid_block.resnets.1.norm2.weight = #stream.parameter.named<"model"::"vae.encoder.mid_block.resnets.1.norm2.weight"> : tensor<512xf16>
  util.global private @__auto.vae.encoder.mid_block.resnets.1.conv2.weight = #stream.parameter.named<"model"::"vae.encoder.mid_block.resnets.1.conv2.weight"> : tensor<512x512x3x3xf16>
  util.global private @__auto.vae.encoder.mid_block.resnets.1.conv2.bias = #stream.parameter.named<"model"::"vae.encoder.mid_block.resnets.1.conv2.bias"> : tensor<512xf16>
  util.global private @__auto.vae.encoder.conv_norm_out.bias = #stream.parameter.named<"model"::"vae.encoder.conv_norm_out.bias"> : tensor<512xf16>
  util.global private @__auto.vae.encoder.conv_norm_out.weight = #stream.parameter.named<"model"::"vae.encoder.conv_norm_out.weight"> : tensor<512xf16>
  util.global private @__auto.vae.encoder.conv_out.weight = #stream.parameter.named<"model"::"vae.encoder.conv_out.weight"> : tensor<8x512x3x3xf16>
  util.global private @__auto.vae.encoder.conv_out.bias = #stream.parameter.named<"model"::"vae.encoder.conv_out.bias"> : tensor<8xf16>
  util.global private @__auto.vae.quant_conv.weight = #stream.parameter.named<"model"::"vae.quant_conv.weight"> : tensor<8x8x1x1xf16>
  util.global private @__auto.vae.quant_conv.bias = #stream.parameter.named<"model"::"vae.quant_conv.bias"> : tensor<8xf16>
  func.func @decode(%arg0: !torch.vtensor<[8,4,128,128],f16>) -> !torch.vtensor<[8,3,1024,1024],f16> attributes {iree.reflection = {input_dtypes = "['float16']", input_shapes = "[(8, 4, 128, 128)]", model_name = "vae_decode", output_dtypes = "['float32']", output_shapes = "[(3, 1024, 1024, 3, 1024, 1024, 3, 1024, 1024, 3, 1024, 1024, 3, 1024, 1024, 3, 1024, 1024, 3, 1024, 1024, 3, 1024, 1024)]"}, torch.assume_strict_symbolic_shapes} {
    %float7.677540e00 = torch.constant.float 7.6775431861804221
    %0 = torch.aten.mul.Scalar %arg0, %float7.677540e00 : !torch.vtensor<[8,4,128,128],f16>, !torch.float -> !torch.vtensor<[8,4,128,128],f16>
    %__auto.vae.post_quant_conv.weight = util.global.load @__auto.vae.post_quant_conv.weight : tensor<4x4x1x1xf16>
    %1 = torch_c.from_builtin_tensor %__auto.vae.post_quant_conv.weight : tensor<4x4x1x1xf16> -> !torch.vtensor<[4,4,1,1],f16>
    %__auto.vae.post_quant_conv.bias = util.global.load @__auto.vae.post_quant_conv.bias : tensor<4xf16>
    %2 = torch_c.from_builtin_tensor %__auto.vae.post_quant_conv.bias : tensor<4xf16> -> !torch.vtensor<[4],f16>
    %int1 = torch.constant.int 1
    %int1_0 = torch.constant.int 1
    %3 = torch.prim.ListConstruct %int1, %int1_0 : (!torch.int, !torch.int) -> !torch.list<int>
    %int0 = torch.constant.int 0
    %int0_1 = torch.constant.int 0
    %4 = torch.prim.ListConstruct %int0, %int0_1 : (!torch.int, !torch.int) -> !torch.list<int>
    %int1_2 = torch.constant.int 1
    %int1_3 = torch.constant.int 1
    %5 = torch.prim.ListConstruct %int1_2, %int1_3 : (!torch.int, !torch.int) -> !torch.list<int>
    %false = torch.constant.bool false
    %int0_4 = torch.constant.int 0
    %int0_5 = torch.constant.int 0
    %6 = torch.prim.ListConstruct %int0_4, %int0_5 : (!torch.int, !torch.int) -> !torch.list<int>
    %int1_6 = torch.constant.int 1
    %7 = torch.aten.convolution %0, %1, %2, %3, %4, %5, %false, %6, %int1_6 : !torch.vtensor<[8,4,128,128],f16>, !torch.vtensor<[4,4,1,1],f16>, !torch.vtensor<[4],f16>, !torch.list<int>, !torch.list<int>, !torch.list<int>, !torch.bool, !torch.list<int>, !torch.int -> !torch.vtensor<[8,4,128,128],f16>
    %__auto.vae.decoder.conv_in.weight = util.global.load @__auto.vae.decoder.conv_in.weight : tensor<512x4x3x3xf16>
    %8 = torch_c.from_builtin_tensor %__auto.vae.decoder.conv_in.weight : tensor<512x4x3x3xf16> -> !torch.vtensor<[512,4,3,3],f16>
    %__auto.vae.decoder.conv_in.bias = util.global.load @__auto.vae.decoder.conv_in.bias : tensor<512xf16>
    %9 = torch_c.from_builtin_tensor %__auto.vae.decoder.conv_in.bias : tensor<512xf16> -> !torch.vtensor<[512],f16>
    %int1_7 = torch.constant.int 1
    %int1_8 = torch.constant.int 1
    %10 = torch.prim.ListConstruct %int1_7, %int1_8 : (!torch.int, !torch.int) -> !torch.list<int>
    %int1_9 = torch.constant.int 1
    %int1_10 = torch.constant.int 1
    %11 = torch.prim.ListConstruct %int1_9, %int1_10 : (!torch.int, !torch.int) -> !torch.list<int>
    %int1_11 = torch.constant.int 1
    %int1_12 = torch.constant.int 1
    %12 = torch.prim.ListConstruct %int1_11, %int1_12 : (!torch.int, !torch.int) -> !torch.list<int>
    %false_13 = torch.constant.bool false
    %int0_14 = torch.constant.int 0
    %int0_15 = torch.constant.int 0
    %13 = torch.prim.ListConstruct %int0_14, %int0_15 : (!torch.int, !torch.int) -> !torch.list<int>
    %int1_16 = torch.constant.int 1
    %14 = torch.aten.convolution %7, %8, %9, %10, %11, %12, %false_13, %13, %int1_16 : !torch.vtensor<[8,4,128,128],f16>, !torch.vtensor<[512,4,3,3],f16>, !torch.vtensor<[512],f16>, !torch.list<int>, !torch.list<int>, !torch.list<int>, !torch.bool, !torch.list<int>, !torch.int -> !torch.vtensor<[8,512,128,128],f16>
    %int8 = torch.constant.int 8
    %int32 = torch.constant.int 32
    %int16 = torch.constant.int 16
    %int16384 = torch.constant.int 16384
    %15 = torch.prim.ListConstruct %int8, %int32, %int16, %int16384 : (!torch.int, !torch.int, !torch.int, !torch.int) -> !torch.list<int>
    %16 = torch.aten.view %14, %15 : !torch.vtensor<[8,512,128,128],f16>, !torch.list<int> -> !torch.vtensor<[8,32,16,16384],f16>
    %int6 = torch.constant.int 6
    %17 = torch.prims.convert_element_type %16, %int6 : !torch.vtensor<[8,32,16,16384],f16>, !torch.int -> !torch.vtensor<[8,32,16,16384],f32>
    %int2 = torch.constant.int 2
    %int3 = torch.constant.int 3
    %18 = torch.prim.ListConstruct %int2, %int3 : (!torch.int, !torch.int) -> !torch.list<int>
    %int0_17 = torch.constant.int 0
    %true = torch.constant.bool true
    %result0, %result1 = torch.aten.var_mean.correction %17, %18, %int0_17, %true : !torch.vtensor<[8,32,16,16384],f32>, !torch.list<int>, !torch.int, !torch.bool -> !torch.vtensor<[8,32,1,1],f32>, !torch.vtensor<[8,32,1,1],f32>
    %float9.999990e-07 = torch.constant.float 9.9999999999999995E-7
    %int1_18 = torch.constant.int 1
    %19 = torch.aten.add.Scalar %result0, %float9.999990e-07, %int1_18 : !torch.vtensor<[8,32,1,1],f32>, !torch.float, !torch.int -> !torch.vtensor<[8,32,1,1],f32>
    %20 = torch.aten.rsqrt %19 : !torch.vtensor<[8,32,1,1],f32> -> !torch.vtensor<[8,32,1,1],f32>
    %int1_19 = torch.constant.int 1
    %21 = torch.aten.sub.Tensor %16, %result1, %int1_19 : !torch.vtensor<[8,32,16,16384],f16>, !torch.vtensor<[8,32,1,1],f32>, !torch.int -> !torch.vtensor<[8,32,16,16384],f32>
    %22 = torch.aten.mul.Tensor %21, %20 : !torch.vtensor<[8,32,16,16384],f32>, !torch.vtensor<[8,32,1,1],f32> -> !torch.vtensor<[8,32,16,16384],f32>
    %int8_20 = torch.constant.int 8
    %int512 = torch.constant.int 512
    %int128 = torch.constant.int 128
    %int128_21 = torch.constant.int 128
    %23 = torch.prim.ListConstruct %int8_20, %int512, %int128, %int128_21 : (!torch.int, !torch.int, !torch.int, !torch.int) -> !torch.list<int>
    %24 = torch.aten.view %22, %23 : !torch.vtensor<[8,32,16,16384],f32>, !torch.list<int> -> !torch.vtensor<[8,512,128,128],f32>
    %__auto.vae.decoder.mid_block.resnets.0.norm1.bias = util.global.load @__auto.vae.decoder.mid_block.resnets.0.norm1.bias : tensor<512xf16>
    %25 = torch_c.from_builtin_tensor %__auto.vae.decoder.mid_block.resnets.0.norm1.bias : tensor<512xf16> -> !torch.vtensor<[512],f16>
    %int0_22 = torch.constant.int 0
    %26 = torch.aten.unsqueeze %25, %int0_22 : !torch.vtensor<[512],f16>, !torch.int -> !torch.vtensor<[1,512],f16>
    %int2_23 = torch.constant.int 2
    %27 = torch.aten.unsqueeze %26, %int2_23 : !torch.vtensor<[1,512],f16>, !torch.int -> !torch.vtensor<[1,512,1],f16>
    %int3_24 = torch.constant.int 3
    %28 = torch.aten.unsqueeze %27, %int3_24 : !torch.vtensor<[1,512,1],f16>, !torch.int -> !torch.vtensor<[1,512,1,1],f16>
    %__auto.vae.decoder.mid_block.resnets.0.norm1.weight = util.global.load @__auto.vae.decoder.mid_block.resnets.0.norm1.weight : tensor<512xf16>
    %29 = torch_c.from_builtin_tensor %__auto.vae.decoder.mid_block.resnets.0.norm1.weight : tensor<512xf16> -> !torch.vtensor<[512],f16>
    %int0_25 = torch.constant.int 0
    %30 = torch.aten.unsqueeze %29, %int0_25 : !torch.vtensor<[512],f16>, !torch.int -> !torch.vtensor<[1,512],f16>
    %int2_26 = torch.constant.int 2
    %31 = torch.aten.unsqueeze %30, %int2_26 : !torch.vtensor<[1,512],f16>, !torch.int -> !torch.vtensor<[1,512,1],f16>
    %int3_27 = torch.constant.int 3
    %32 = torch.aten.unsqueeze %31, %int3_27 : !torch.vtensor<[1,512,1],f16>, !torch.int -> !torch.vtensor<[1,512,1,1],f16>
    %33 = torch.aten.mul.Tensor %24, %32 : !torch.vtensor<[8,512,128,128],f32>, !torch.vtensor<[1,512,1,1],f16> -> !torch.vtensor<[8,512,128,128],f32>
    %int1_28 = torch.constant.int 1
    %34 = torch.aten.add.Tensor %33, %28, %int1_28 : !torch.vtensor<[8,512,128,128],f32>, !torch.vtensor<[1,512,1,1],f16>, !torch.int -> !torch.vtensor<[8,512,128,128],f32>
    %int5 = torch.constant.int 5
    %35 = torch.prims.convert_element_type %34, %int5 : !torch.vtensor<[8,512,128,128],f32>, !torch.int -> !torch.vtensor<[8,512,128,128],f16>
    %36 = torch.aten.silu %35 : !torch.vtensor<[8,512,128,128],f16> -> !torch.vtensor<[8,512,128,128],f16>
    %__auto.vae.decoder.mid_block.resnets.0.conv1.weight = util.global.load @__auto.vae.decoder.mid_block.resnets.0.conv1.weight : tensor<512x512x3x3xf16>
    %37 = torch_c.from_builtin_tensor %__auto.vae.decoder.mid_block.resnets.0.conv1.weight : tensor<512x512x3x3xf16> -> !torch.vtensor<[512,512,3,3],f16>
    %__auto.vae.decoder.mid_block.resnets.0.conv1.bias = util.global.load @__auto.vae.decoder.mid_block.resnets.0.conv1.bias : tensor<512xf16>
    %38 = torch_c.from_builtin_tensor %__auto.vae.decoder.mid_block.resnets.0.conv1.bias : tensor<512xf16> -> !torch.vtensor<[512],f16>
    %int1_29 = torch.constant.int 1
    %int1_30 = torch.constant.int 1
    %39 = torch.prim.ListConstruct %int1_29, %int1_30 : (!torch.int, !torch.int) -> !torch.list<int>
    %int1_31 = torch.constant.int 1
    %int1_32 = torch.constant.int 1
    %40 = torch.prim.ListConstruct %int1_31, %int1_32 : (!torch.int, !torch.int) -> !torch.list<int>
    %int1_33 = torch.constant.int 1
    %int1_34 = torch.constant.int 1
    %41 = torch.prim.ListConstruct %int1_33, %int1_34 : (!torch.int, !torch.int) -> !torch.list<int>
    %false_35 = torch.constant.bool false
    %int0_36 = torch.constant.int 0
    %int0_37 = torch.constant.int 0
    %42 = torch.prim.ListConstruct %int0_36, %int0_37 : (!torch.int, !torch.int) -> !torch.list<int>
    %int1_38 = torch.constant.int 1
    %43 = torch.aten.convolution %36, %37, %38, %39, %40, %41, %false_35, %42, %int1_38 : !torch.vtensor<[8,512,128,128],f16>, !torch.vtensor<[512,512,3,3],f16>, !torch.vtensor<[512],f16>, !torch.list<int>, !torch.list<int>, !torch.list<int>, !torch.bool, !torch.list<int>, !torch.int -> !torch.vtensor<[8,512,128,128],f16>
    %int8_39 = torch.constant.int 8
    %int32_40 = torch.constant.int 32
    %int16_41 = torch.constant.int 16
    %int16384_42 = torch.constant.int 16384
    %44 = torch.prim.ListConstruct %int8_39, %int32_40, %int16_41, %int16384_42 : (!torch.int, !torch.int, !torch.int, !torch.int) -> !torch.list<int>
    %45 = torch.aten.view %43, %44 : !torch.vtensor<[8,512,128,128],f16>, !torch.list<int> -> !torch.vtensor<[8,32,16,16384],f16>
    %int6_43 = torch.constant.int 6
    %46 = torch.prims.convert_element_type %45, %int6_43 : !torch.vtensor<[8,32,16,16384],f16>, !torch.int -> !torch.vtensor<[8,32,16,16384],f32>
    %int2_44 = torch.constant.int 2
    %int3_45 = torch.constant.int 3
    %47 = torch.prim.ListConstruct %int2_44, %int3_45 : (!torch.int, !torch.int) -> !torch.list<int>
    %int0_46 = torch.constant.int 0
    %true_47 = torch.constant.bool true
    %result0_48, %result1_49 = torch.aten.var_mean.correction %46, %47, %int0_46, %true_47 : !torch.vtensor<[8,32,16,16384],f32>, !torch.list<int>, !torch.int, !torch.bool -> !torch.vtensor<[8,32,1,1],f32>, !torch.vtensor<[8,32,1,1],f32>
    %float9.999990e-07_50 = torch.constant.float 9.9999999999999995E-7
    %int1_51 = torch.constant.int 1
    %48 = torch.aten.add.Scalar %result0_48, %float9.999990e-07_50, %int1_51 : !torch.vtensor<[8,32,1,1],f32>, !torch.float, !torch.int -> !torch.vtensor<[8,32,1,1],f32>
    %49 = torch.aten.rsqrt %48 : !torch.vtensor<[8,32,1,1],f32> -> !torch.vtensor<[8,32,1,1],f32>
    %int1_52 = torch.constant.int 1
    %50 = torch.aten.sub.Tensor %45, %result1_49, %int1_52 : !torch.vtensor<[8,32,16,16384],f16>, !torch.vtensor<[8,32,1,1],f32>, !torch.int -> !torch.vtensor<[8,32,16,16384],f32>
    %51 = torch.aten.mul.Tensor %50, %49 : !torch.vtensor<[8,32,16,16384],f32>, !torch.vtensor<[8,32,1,1],f32> -> !torch.vtensor<[8,32,16,16384],f32>
    %int8_53 = torch.constant.int 8
    %int512_54 = torch.constant.int 512
    %int128_55 = torch.constant.int 128
    %int128_56 = torch.constant.int 128
    %52 = torch.prim.ListConstruct %int8_53, %int512_54, %int128_55, %int128_56 : (!torch.int, !torch.int, !torch.int, !torch.int) -> !torch.list<int>
    %53 = torch.aten.view %51, %52 : !torch.vtensor<[8,32,16,16384],f32>, !torch.list<int> -> !torch.vtensor<[8,512,128,128],f32>
    %__auto.vae.decoder.mid_block.resnets.0.norm2.bias = util.global.load @__auto.vae.decoder.mid_block.resnets.0.norm2.bias : tensor<512xf16>
    %54 = torch_c.from_builtin_tensor %__auto.vae.decoder.mid_block.resnets.0.norm2.bias : tensor<512xf16> -> !torch.vtensor<[512],f16>
    %int0_57 = torch.constant.int 0
    %55 = torch.aten.unsqueeze %54, %int0_57 : !torch.vtensor<[512],f16>, !torch.int -> !torch.vtensor<[1,512],f16>
    %int2_58 = torch.constant.int 2
    %56 = torch.aten.unsqueeze %55, %int2_58 : !torch.vtensor<[1,512],f16>, !torch.int -> !torch.vtensor<[1,512,1],f16>
    %int3_59 = torch.constant.int 3
    %57 = torch.aten.unsqueeze %56, %int3_59 : !torch.vtensor<[1,512,1],f16>, !torch.int -> !torch.vtensor<[1,512,1,1],f16>
    %__auto.vae.decoder.mid_block.resnets.0.norm2.weight = util.global.load @__auto.vae.decoder.mid_block.resnets.0.norm2.weight : tensor<512xf16>
    %58 = torch_c.from_builtin_tensor %__auto.vae.decoder.mid_block.resnets.0.norm2.weight : tensor<512xf16> -> !torch.vtensor<[512],f16>
    %int0_60 = torch.constant.int 0
    %59 = torch.aten.unsqueeze %58, %int0_60 : !torch.vtensor<[512],f16>, !torch.int -> !torch.vtensor<[1,512],f16>
    %int2_61 = torch.constant.int 2
    %60 = torch.aten.unsqueeze %59, %int2_61 : !torch.vtensor<[1,512],f16>, !torch.int -> !torch.vtensor<[1,512,1],f16>
    %int3_62 = torch.constant.int 3
    %61 = torch.aten.unsqueeze %60, %int3_62 : !torch.vtensor<[1,512,1],f16>, !torch.int -> !torch.vtensor<[1,512,1,1],f16>
    %62 = torch.aten.mul.Tensor %53, %61 : !torch.vtensor<[8,512,128,128],f32>, !torch.vtensor<[1,512,1,1],f16> -> !torch.vtensor<[8,512,128,128],f32>
    %int1_63 = torch.constant.int 1
    %63 = torch.aten.add.Tensor %62, %57, %int1_63 : !torch.vtensor<[8,512,128,128],f32>, !torch.vtensor<[1,512,1,1],f16>, !torch.int -> !torch.vtensor<[8,512,128,128],f32>
    %int5_64 = torch.constant.int 5
    %64 = torch.prims.convert_element_type %63, %int5_64 : !torch.vtensor<[8,512,128,128],f32>, !torch.int -> !torch.vtensor<[8,512,128,128],f16>
    %65 = torch.aten.silu %64 : !torch.vtensor<[8,512,128,128],f16> -> !torch.vtensor<[8,512,128,128],f16>
    %none = torch.constant.none
    %66 = torch.aten.clone %65, %none : !torch.vtensor<[8,512,128,128],f16>, !torch.none -> !torch.vtensor<[8,512,128,128],f16>
    %__auto.vae.decoder.mid_block.resnets.0.conv2.weight = util.global.load @__auto.vae.decoder.mid_block.resnets.0.conv2.weight : tensor<512x512x3x3xf16>
    %67 = torch_c.from_builtin_tensor %__auto.vae.decoder.mid_block.resnets.0.conv2.weight : tensor<512x512x3x3xf16> -> !torch.vtensor<[512,512,3,3],f16>
    %__auto.vae.decoder.mid_block.resnets.0.conv2.bias = util.global.load @__auto.vae.decoder.mid_block.resnets.0.conv2.bias : tensor<512xf16>
    %68 = torch_c.from_builtin_tensor %__auto.vae.decoder.mid_block.resnets.0.conv2.bias : tensor<512xf16> -> !torch.vtensor<[512],f16>
    %int1_65 = torch.constant.int 1
    %int1_66 = torch.constant.int 1
    %69 = torch.prim.ListConstruct %int1_65, %int1_66 : (!torch.int, !torch.int) -> !torch.list<int>
    %int1_67 = torch.constant.int 1
    %int1_68 = torch.constant.int 1
    %70 = torch.prim.ListConstruct %int1_67, %int1_68 : (!torch.int, !torch.int) -> !torch.list<int>
    %int1_69 = torch.constant.int 1
    %int1_70 = torch.constant.int 1
    %71 = torch.prim.ListConstruct %int1_69, %int1_70 : (!torch.int, !torch.int) -> !torch.list<int>
    %false_71 = torch.constant.bool false
    %int0_72 = torch.constant.int 0
    %int0_73 = torch.constant.int 0
    %72 = torch.prim.ListConstruct %int0_72, %int0_73 : (!torch.int, !torch.int) -> !torch.list<int>
    %int1_74 = torch.constant.int 1
    %73 = torch.aten.convolution %66, %67, %68, %69, %70, %71, %false_71, %72, %int1_74 : !torch.vtensor<[8,512,128,128],f16>, !torch.vtensor<[512,512,3,3],f16>, !torch.vtensor<[512],f16>, !torch.list<int>, !torch.list<int>, !torch.list<int>, !torch.bool, !torch.list<int>, !torch.int -> !torch.vtensor<[8,512,128,128],f16>
    %int1_75 = torch.constant.int 1
    %74 = torch.aten.add.Tensor %14, %73, %int1_75 : !torch.vtensor<[8,512,128,128],f16>, !torch.vtensor<[8,512,128,128],f16>, !torch.int -> !torch.vtensor<[8,512,128,128],f16>
    %int1_76 = torch.constant.int 1
    %75 = torch.aten.div.Scalar %74, %int1_76 : !torch.vtensor<[8,512,128,128],f16>, !torch.int -> !torch.vtensor<[8,512,128,128],f16>
    %int8_77 = torch.constant.int 8
    %int512_78 = torch.constant.int 512
    %int16384_79 = torch.constant.int 16384
    %76 = torch.prim.ListConstruct %int8_77, %int512_78, %int16384_79 : (!torch.int, !torch.int, !torch.int) -> !torch.list<int>
    %77 = torch.aten.view %75, %76 : !torch.vtensor<[8,512,128,128],f16>, !torch.list<int> -> !torch.vtensor<[8,512,16384],f16>
    %int1_80 = torch.constant.int 1
    %int2_81 = torch.constant.int 2
    %78 = torch.aten.transpose.int %77, %int1_80, %int2_81 : !torch.vtensor<[8,512,16384],f16>, !torch.int, !torch.int -> !torch.vtensor<[8,16384,512],f16>
    %int1_82 = torch.constant.int 1
    %int2_83 = torch.constant.int 2
    %79 = torch.aten.transpose.int %78, %int1_82, %int2_83 : !torch.vtensor<[8,16384,512],f16>, !torch.int, !torch.int -> !torch.vtensor<[8,512,16384],f16>
    %int8_84 = torch.constant.int 8
    %int32_85 = torch.constant.int 32
    %int16_86 = torch.constant.int 16
    %int16384_87 = torch.constant.int 16384
    %80 = torch.prim.ListConstruct %int8_84, %int32_85, %int16_86, %int16384_87 : (!torch.int, !torch.int, !torch.int, !torch.int) -> !torch.list<int>
    %81 = torch.aten.view %79, %80 : !torch.vtensor<[8,512,16384],f16>, !torch.list<int> -> !torch.vtensor<[8,32,16,16384],f16>
    %int6_88 = torch.constant.int 6
    %82 = torch.prims.convert_element_type %81, %int6_88 : !torch.vtensor<[8,32,16,16384],f16>, !torch.int -> !torch.vtensor<[8,32,16,16384],f32>
    %int2_89 = torch.constant.int 2
    %int3_90 = torch.constant.int 3
    %83 = torch.prim.ListConstruct %int2_89, %int3_90 : (!torch.int, !torch.int) -> !torch.list<int>
    %int0_91 = torch.constant.int 0
    %true_92 = torch.constant.bool true
    %result0_93, %result1_94 = torch.aten.var_mean.correction %82, %83, %int0_91, %true_92 : !torch.vtensor<[8,32,16,16384],f32>, !torch.list<int>, !torch.int, !torch.bool -> !torch.vtensor<[8,32,1,1],f32>, !torch.vtensor<[8,32,1,1],f32>
    %float9.999990e-07_95 = torch.constant.float 9.9999999999999995E-7
    %int1_96 = torch.constant.int 1
    %84 = torch.aten.add.Scalar %result0_93, %float9.999990e-07_95, %int1_96 : !torch.vtensor<[8,32,1,1],f32>, !torch.float, !torch.int -> !torch.vtensor<[8,32,1,1],f32>
    %85 = torch.aten.rsqrt %84 : !torch.vtensor<[8,32,1,1],f32> -> !torch.vtensor<[8,32,1,1],f32>
    %int1_97 = torch.constant.int 1
    %86 = torch.aten.sub.Tensor %81, %result1_94, %int1_97 : !torch.vtensor<[8,32,16,16384],f16>, !torch.vtensor<[8,32,1,1],f32>, !torch.int -> !torch.vtensor<[8,32,16,16384],f32>
    %87 = torch.aten.mul.Tensor %86, %85 : !torch.vtensor<[8,32,16,16384],f32>, !torch.vtensor<[8,32,1,1],f32> -> !torch.vtensor<[8,32,16,16384],f32>
    %int8_98 = torch.constant.int 8
    %int512_99 = torch.constant.int 512
    %int16384_100 = torch.constant.int 16384
    %88 = torch.prim.ListConstruct %int8_98, %int512_99, %int16384_100 : (!torch.int, !torch.int, !torch.int) -> !torch.list<int>
    %89 = torch.aten.view %87, %88 : !torch.vtensor<[8,32,16,16384],f32>, !torch.list<int> -> !torch.vtensor<[8,512,16384],f32>
    %__auto.vae.decoder.mid_block.attentions.0.group_norm.bias = util.global.load @__auto.vae.decoder.mid_block.attentions.0.group_norm.bias : tensor<512xf16>
    %90 = torch_c.from_builtin_tensor %__auto.vae.decoder.mid_block.attentions.0.group_norm.bias : tensor<512xf16> -> !torch.vtensor<[512],f16>
    %int0_101 = torch.constant.int 0
    %91 = torch.aten.unsqueeze %90, %int0_101 : !torch.vtensor<[512],f16>, !torch.int -> !torch.vtensor<[1,512],f16>
    %int2_102 = torch.constant.int 2
    %92 = torch.aten.unsqueeze %91, %int2_102 : !torch.vtensor<[1,512],f16>, !torch.int -> !torch.vtensor<[1,512,1],f16>
    %__auto.vae.decoder.mid_block.attentions.0.group_norm.weight = util.global.load @__auto.vae.decoder.mid_block.attentions.0.group_norm.weight : tensor<512xf16>
    %93 = torch_c.from_builtin_tensor %__auto.vae.decoder.mid_block.attentions.0.group_norm.weight : tensor<512xf16> -> !torch.vtensor<[512],f16>
    %int0_103 = torch.constant.int 0
    %94 = torch.aten.unsqueeze %93, %int0_103 : !torch.vtensor<[512],f16>, !torch.int -> !torch.vtensor<[1,512],f16>
    %int2_104 = torch.constant.int 2
    %95 = torch.aten.unsqueeze %94, %int2_104 : !torch.vtensor<[1,512],f16>, !torch.int -> !torch.vtensor<[1,512,1],f16>
    %96 = torch.aten.mul.Tensor %89, %95 : !torch.vtensor<[8,512,16384],f32>, !torch.vtensor<[1,512,1],f16> -> !torch.vtensor<[8,512,16384],f32>
    %int1_105 = torch.constant.int 1
    %97 = torch.aten.add.Tensor %96, %92, %int1_105 : !torch.vtensor<[8,512,16384],f32>, !torch.vtensor<[1,512,1],f16>, !torch.int -> !torch.vtensor<[8,512,16384],f32>
    %int5_106 = torch.constant.int 5
    %98 = torch.prims.convert_element_type %97, %int5_106 : !torch.vtensor<[8,512,16384],f32>, !torch.int -> !torch.vtensor<[8,512,16384],f16>
    %int1_107 = torch.constant.int 1
    %int2_108 = torch.constant.int 2
    %99 = torch.aten.transpose.int %98, %int1_107, %int2_108 : !torch.vtensor<[8,512,16384],f16>, !torch.int, !torch.int -> !torch.vtensor<[8,16384,512],f16>
    %__auto.vae.decoder.mid_block.attentions.0.to_q.weight = util.global.load @__auto.vae.decoder.mid_block.attentions.0.to_q.weight : tensor<512x512xf16>
    %100 = torch_c.from_builtin_tensor %__auto.vae.decoder.mid_block.attentions.0.to_q.weight : tensor<512x512xf16> -> !torch.vtensor<[512,512],f16>
    %int0_109 = torch.constant.int 0
    %int1_110 = torch.constant.int 1
    %101 = torch.aten.transpose.int %100, %int0_109, %int1_110 : !torch.vtensor<[512,512],f16>, !torch.int, !torch.int -> !torch.vtensor<[512,512],f16>
    %int0_111 = torch.constant.int 0
    %102 = torch.aten.clone %99, %int0_111 : !torch.vtensor<[8,16384,512],f16>, !torch.int -> !torch.vtensor<[8,16384,512],f16>
    %int131072 = torch.constant.int 131072
    %int512_112 = torch.constant.int 512
    %103 = torch.prim.ListConstruct %int131072, %int512_112 : (!torch.int, !torch.int) -> !torch.list<int>
    %104 = torch.aten._unsafe_view %102, %103 : !torch.vtensor<[8,16384,512],f16>, !torch.list<int> -> !torch.vtensor<[131072,512],f16>
    %105 = torch.aten.mm %104, %101 : !torch.vtensor<[131072,512],f16>, !torch.vtensor<[512,512],f16> -> !torch.vtensor<[131072,512],f16>
    %int8_113 = torch.constant.int 8
    %int16384_114 = torch.constant.int 16384
    %int512_115 = torch.constant.int 512
    %106 = torch.prim.ListConstruct %int8_113, %int16384_114, %int512_115 : (!torch.int, !torch.int, !torch.int) -> !torch.list<int>
    %107 = torch.aten.view %105, %106 : !torch.vtensor<[131072,512],f16>, !torch.list<int> -> !torch.vtensor<[8,16384,512],f16>
    %__auto.vae.decoder.mid_block.attentions.0.to_q.bias = util.global.load @__auto.vae.decoder.mid_block.attentions.0.to_q.bias : tensor<512xf16>
    %108 = torch_c.from_builtin_tensor %__auto.vae.decoder.mid_block.attentions.0.to_q.bias : tensor<512xf16> -> !torch.vtensor<[512],f16>
    %int1_116 = torch.constant.int 1
    %109 = torch.aten.add.Tensor %107, %108, %int1_116 : !torch.vtensor<[8,16384,512],f16>, !torch.vtensor<[512],f16>, !torch.int -> !torch.vtensor<[8,16384,512],f16>
    %__auto.vae.decoder.mid_block.attentions.0.to_k.weight = util.global.load @__auto.vae.decoder.mid_block.attentions.0.to_k.weight : tensor<512x512xf16>
    %110 = torch_c.from_builtin_tensor %__auto.vae.decoder.mid_block.attentions.0.to_k.weight : tensor<512x512xf16> -> !torch.vtensor<[512,512],f16>
    %int0_117 = torch.constant.int 0
    %int1_118 = torch.constant.int 1
    %111 = torch.aten.transpose.int %110, %int0_117, %int1_118 : !torch.vtensor<[512,512],f16>, !torch.int, !torch.int -> !torch.vtensor<[512,512],f16>
    %int0_119 = torch.constant.int 0
    %112 = torch.aten.clone %99, %int0_119 : !torch.vtensor<[8,16384,512],f16>, !torch.int -> !torch.vtensor<[8,16384,512],f16>
    %int131072_120 = torch.constant.int 131072
    %int512_121 = torch.constant.int 512
    %113 = torch.prim.ListConstruct %int131072_120, %int512_121 : (!torch.int, !torch.int) -> !torch.list<int>
    %114 = torch.aten._unsafe_view %112, %113 : !torch.vtensor<[8,16384,512],f16>, !torch.list<int> -> !torch.vtensor<[131072,512],f16>
    %115 = torch.aten.mm %114, %111 : !torch.vtensor<[131072,512],f16>, !torch.vtensor<[512,512],f16> -> !torch.vtensor<[131072,512],f16>
    %int8_122 = torch.constant.int 8
    %int16384_123 = torch.constant.int 16384
    %int512_124 = torch.constant.int 512
    %116 = torch.prim.ListConstruct %int8_122, %int16384_123, %int512_124 : (!torch.int, !torch.int, !torch.int) -> !torch.list<int>
    %117 = torch.aten.view %115, %116 : !torch.vtensor<[131072,512],f16>, !torch.list<int> -> !torch.vtensor<[8,16384,512],f16>
    %__auto.vae.decoder.mid_block.attentions.0.to_k.bias = util.global.load @__auto.vae.decoder.mid_block.attentions.0.to_k.bias : tensor<512xf16>
    %118 = torch_c.from_builtin_tensor %__auto.vae.decoder.mid_block.attentions.0.to_k.bias : tensor<512xf16> -> !torch.vtensor<[512],f16>
    %int1_125 = torch.constant.int 1
    %119 = torch.aten.add.Tensor %117, %118, %int1_125 : !torch.vtensor<[8,16384,512],f16>, !torch.vtensor<[512],f16>, !torch.int -> !torch.vtensor<[8,16384,512],f16>
    %__auto.vae.decoder.mid_block.attentions.0.to_v.weight = util.global.load @__auto.vae.decoder.mid_block.attentions.0.to_v.weight : tensor<512x512xf16>
    %120 = torch_c.from_builtin_tensor %__auto.vae.decoder.mid_block.attentions.0.to_v.weight : tensor<512x512xf16> -> !torch.vtensor<[512,512],f16>
    %int0_126 = torch.constant.int 0
    %int1_127 = torch.constant.int 1
    %121 = torch.aten.transpose.int %120, %int0_126, %int1_127 : !torch.vtensor<[512,512],f16>, !torch.int, !torch.int -> !torch.vtensor<[512,512],f16>
    %int0_128 = torch.constant.int 0
    %122 = torch.aten.clone %99, %int0_128 : !torch.vtensor<[8,16384,512],f16>, !torch.int -> !torch.vtensor<[8,16384,512],f16>
    %int131072_129 = torch.constant.int 131072
    %int512_130 = torch.constant.int 512
    %123 = torch.prim.ListConstruct %int131072_129, %int512_130 : (!torch.int, !torch.int) -> !torch.list<int>
    %124 = torch.aten._unsafe_view %122, %123 : !torch.vtensor<[8,16384,512],f16>, !torch.list<int> -> !torch.vtensor<[131072,512],f16>
    %125 = torch.aten.mm %124, %121 : !torch.vtensor<[131072,512],f16>, !torch.vtensor<[512,512],f16> -> !torch.vtensor<[131072,512],f16>
    %int8_131 = torch.constant.int 8
    %int16384_132 = torch.constant.int 16384
    %int512_133 = torch.constant.int 512
    %126 = torch.prim.ListConstruct %int8_131, %int16384_132, %int512_133 : (!torch.int, !torch.int, !torch.int) -> !torch.list<int>
    %127 = torch.aten.view %125, %126 : !torch.vtensor<[131072,512],f16>, !torch.list<int> -> !torch.vtensor<[8,16384,512],f16>
    %__auto.vae.decoder.mid_block.attentions.0.to_v.bias = util.global.load @__auto.vae.decoder.mid_block.attentions.0.to_v.bias : tensor<512xf16>
    %128 = torch_c.from_builtin_tensor %__auto.vae.decoder.mid_block.attentions.0.to_v.bias : tensor<512xf16> -> !torch.vtensor<[512],f16>
    %int1_134 = torch.constant.int 1
    %129 = torch.aten.add.Tensor %127, %128, %int1_134 : !torch.vtensor<[8,16384,512],f16>, !torch.vtensor<[512],f16>, !torch.int -> !torch.vtensor<[8,16384,512],f16>
    %int8_135 = torch.constant.int 8
    %int-1 = torch.constant.int -1
    %int1_136 = torch.constant.int 1
    %int512_137 = torch.constant.int 512
    %130 = torch.prim.ListConstruct %int8_135, %int-1, %int1_136, %int512_137 : (!torch.int, !torch.int, !torch.int, !torch.int) -> !torch.list<int>
    %131 = torch.aten.view %109, %130 : !torch.vtensor<[8,16384,512],f16>, !torch.list<int> -> !torch.vtensor<[8,16384,1,512],f16>
    %int1_138 = torch.constant.int 1
    %int2_139 = torch.constant.int 2
    %132 = torch.aten.transpose.int %131, %int1_138, %int2_139 : !torch.vtensor<[8,16384,1,512],f16>, !torch.int, !torch.int -> !torch.vtensor<[8,1,16384,512],f16>
    %int8_140 = torch.constant.int 8
    %int-1_141 = torch.constant.int -1
    %int1_142 = torch.constant.int 1
    %int512_143 = torch.constant.int 512
    %133 = torch.prim.ListConstruct %int8_140, %int-1_141, %int1_142, %int512_143 : (!torch.int, !torch.int, !torch.int, !torch.int) -> !torch.list<int>
    %134 = torch.aten.view %119, %133 : !torch.vtensor<[8,16384,512],f16>, !torch.list<int> -> !torch.vtensor<[8,16384,1,512],f16>
    %int1_144 = torch.constant.int 1
    %int2_145 = torch.constant.int 2
    %135 = torch.aten.transpose.int %134, %int1_144, %int2_145 : !torch.vtensor<[8,16384,1,512],f16>, !torch.int, !torch.int -> !torch.vtensor<[8,1,16384,512],f16>
    %int8_146 = torch.constant.int 8
    %int-1_147 = torch.constant.int -1
    %int1_148 = torch.constant.int 1
    %int512_149 = torch.constant.int 512
    %136 = torch.prim.ListConstruct %int8_146, %int-1_147, %int1_148, %int512_149 : (!torch.int, !torch.int, !torch.int, !torch.int) -> !torch.list<int>
    %137 = torch.aten.view %129, %136 : !torch.vtensor<[8,16384,512],f16>, !torch.list<int> -> !torch.vtensor<[8,16384,1,512],f16>
    %int1_150 = torch.constant.int 1
    %int2_151 = torch.constant.int 2
    %138 = torch.aten.transpose.int %137, %int1_150, %int2_151 : !torch.vtensor<[8,16384,1,512],f16>, !torch.int, !torch.int -> !torch.vtensor<[8,1,16384,512],f16>
    %float2.102240e-01 = torch.constant.float 0.21022410381342863
    %139 = torch.aten.mul.Scalar %132, %float2.102240e-01 : !torch.vtensor<[8,1,16384,512],f16>, !torch.float -> !torch.vtensor<[8,1,16384,512],f16>
    %int-2 = torch.constant.int -2
    %int-1_152 = torch.constant.int -1
    %140 = torch.aten.transpose.int %135, %int-2, %int-1_152 : !torch.vtensor<[8,1,16384,512],f16>, !torch.int, !torch.int -> !torch.vtensor<[8,1,512,16384],f16>
    %float2.102240e-01_153 = torch.constant.float 0.21022410381342863
    %141 = torch.aten.mul.Scalar %140, %float2.102240e-01_153 : !torch.vtensor<[8,1,512,16384],f16>, !torch.float -> !torch.vtensor<[8,1,512,16384],f16>
    %int8_154 = torch.constant.int 8
    %int1_155 = torch.constant.int 1
    %int16384_156 = torch.constant.int 16384
    %int512_157 = torch.constant.int 512
    %142 = torch.prim.ListConstruct %int8_154, %int1_155, %int16384_156, %int512_157 : (!torch.int, !torch.int, !torch.int, !torch.int) -> !torch.list<int>
    %false_158 = torch.constant.bool false
    %143 = torch.aten.expand %139, %142, %false_158 : !torch.vtensor<[8,1,16384,512],f16>, !torch.list<int>, !torch.bool -> !torch.vtensor<[8,1,16384,512],f16>
    %int8_159 = torch.constant.int 8
    %int16384_160 = torch.constant.int 16384
    %int512_161 = torch.constant.int 512
    %144 = torch.prim.ListConstruct %int8_159, %int16384_160, %int512_161 : (!torch.int, !torch.int, !torch.int) -> !torch.list<int>
    %145 = torch.aten.view %143, %144 : !torch.vtensor<[8,1,16384,512],f16>, !torch.list<int> -> !torch.vtensor<[8,16384,512],f16>
    %int8_162 = torch.constant.int 8
    %int1_163 = torch.constant.int 1
    %int512_164 = torch.constant.int 512
    %int16384_165 = torch.constant.int 16384
    %146 = torch.prim.ListConstruct %int8_162, %int1_163, %int512_164, %int16384_165 : (!torch.int, !torch.int, !torch.int, !torch.int) -> !torch.list<int>
    %false_166 = torch.constant.bool false
    %147 = torch.aten.expand %141, %146, %false_166 : !torch.vtensor<[8,1,512,16384],f16>, !torch.list<int>, !torch.bool -> !torch.vtensor<[8,1,512,16384],f16>
    %int8_167 = torch.constant.int 8
    %int512_168 = torch.constant.int 512
    %int16384_169 = torch.constant.int 16384
    %148 = torch.prim.ListConstruct %int8_167, %int512_168, %int16384_169 : (!torch.int, !torch.int, !torch.int) -> !torch.list<int>
    %149 = torch.aten.view %147, %148 : !torch.vtensor<[8,1,512,16384],f16>, !torch.list<int> -> !torch.vtensor<[8,512,16384],f16>
    %150 = torch.aten.bmm %145, %149 : !torch.vtensor<[8,16384,512],f16>, !torch.vtensor<[8,512,16384],f16> -> !torch.vtensor<[8,16384,16384],f16>
    %int8_170 = torch.constant.int 8
    %int1_171 = torch.constant.int 1
    %int16384_172 = torch.constant.int 16384
    %int16384_173 = torch.constant.int 16384
    %151 = torch.prim.ListConstruct %int8_170, %int1_171, %int16384_172, %int16384_173 : (!torch.int, !torch.int, !torch.int, !torch.int) -> !torch.list<int>
    %152 = torch.aten.view %150, %151 : !torch.vtensor<[8,16384,16384],f16>, !torch.list<int> -> !torch.vtensor<[8,1,16384,16384],f16>
    %int-1_174 = torch.constant.int -1
    %false_175 = torch.constant.bool false
    %153 = torch.aten._softmax %152, %int-1_174, %false_175 : !torch.vtensor<[8,1,16384,16384],f16>, !torch.int, !torch.bool -> !torch.vtensor<[8,1,16384,16384],f16>
    %int8_176 = torch.constant.int 8
    %int1_177 = torch.constant.int 1
    %int16384_178 = torch.constant.int 16384
    %int16384_179 = torch.constant.int 16384
    %154 = torch.prim.ListConstruct %int8_176, %int1_177, %int16384_178, %int16384_179 : (!torch.int, !torch.int, !torch.int, !torch.int) -> !torch.list<int>
    %false_180 = torch.constant.bool false
    %155 = torch.aten.expand %153, %154, %false_180 : !torch.vtensor<[8,1,16384,16384],f16>, !torch.list<int>, !torch.bool -> !torch.vtensor<[8,1,16384,16384],f16>
    %int8_181 = torch.constant.int 8
    %int16384_182 = torch.constant.int 16384
    %int16384_183 = torch.constant.int 16384
    %156 = torch.prim.ListConstruct %int8_181, %int16384_182, %int16384_183 : (!torch.int, !torch.int, !torch.int) -> !torch.list<int>
    %157 = torch.aten.view %155, %156 : !torch.vtensor<[8,1,16384,16384],f16>, !torch.list<int> -> !torch.vtensor<[8,16384,16384],f16>
    %int8_184 = torch.constant.int 8
    %int1_185 = torch.constant.int 1
    %int16384_186 = torch.constant.int 16384
    %int512_187 = torch.constant.int 512
    %158 = torch.prim.ListConstruct %int8_184, %int1_185, %int16384_186, %int512_187 : (!torch.int, !torch.int, !torch.int, !torch.int) -> !torch.list<int>
    %false_188 = torch.constant.bool false
    %159 = torch.aten.expand %138, %158, %false_188 : !torch.vtensor<[8,1,16384,512],f16>, !torch.list<int>, !torch.bool -> !torch.vtensor<[8,1,16384,512],f16>
    %int8_189 = torch.constant.int 8
    %int16384_190 = torch.constant.int 16384
    %int512_191 = torch.constant.int 512
    %160 = torch.prim.ListConstruct %int8_189, %int16384_190, %int512_191 : (!torch.int, !torch.int, !torch.int) -> !torch.list<int>
    %161 = torch.aten.view %159, %160 : !torch.vtensor<[8,1,16384,512],f16>, !torch.list<int> -> !torch.vtensor<[8,16384,512],f16>
    %162 = torch.aten.bmm %157, %161 : !torch.vtensor<[8,16384,16384],f16>, !torch.vtensor<[8,16384,512],f16> -> !torch.vtensor<[8,16384,512],f16>
    %int8_192 = torch.constant.int 8
    %int1_193 = torch.constant.int 1
    %int16384_194 = torch.constant.int 16384
    %int512_195 = torch.constant.int 512
    %163 = torch.prim.ListConstruct %int8_192, %int1_193, %int16384_194, %int512_195 : (!torch.int, !torch.int, !torch.int, !torch.int) -> !torch.list<int>
    %164 = torch.aten.view %162, %163 : !torch.vtensor<[8,16384,512],f16>, !torch.list<int> -> !torch.vtensor<[8,1,16384,512],f16>
    %int1_196 = torch.constant.int 1
    %int2_197 = torch.constant.int 2
    %165 = torch.aten.transpose.int %164, %int1_196, %int2_197 : !torch.vtensor<[8,1,16384,512],f16>, !torch.int, !torch.int -> !torch.vtensor<[8,16384,1,512],f16>
    %int1_198 = torch.constant.int 1
    %int2_199 = torch.constant.int 2
    %166 = torch.aten.transpose.int %165, %int1_198, %int2_199 : !torch.vtensor<[8,16384,1,512],f16>, !torch.int, !torch.int -> !torch.vtensor<[8,1,16384,512],f16>
    %int1_200 = torch.constant.int 1
    %int2_201 = torch.constant.int 2
    %167 = torch.aten.transpose.int %166, %int1_200, %int2_201 : !torch.vtensor<[8,1,16384,512],f16>, !torch.int, !torch.int -> !torch.vtensor<[8,16384,1,512],f16>
    %int8_202 = torch.constant.int 8
    %int-1_203 = torch.constant.int -1
    %int512_204 = torch.constant.int 512
    %168 = torch.prim.ListConstruct %int8_202, %int-1_203, %int512_204 : (!torch.int, !torch.int, !torch.int) -> !torch.list<int>
    %169 = torch.aten.view %167, %168 : !torch.vtensor<[8,16384,1,512],f16>, !torch.list<int> -> !torch.vtensor<[8,16384,512],f16>
    %int5_205 = torch.constant.int 5
    %170 = torch.prims.convert_element_type %169, %int5_205 : !torch.vtensor<[8,16384,512],f16>, !torch.int -> !torch.vtensor<[8,16384,512],f16>
    %int131072_206 = torch.constant.int 131072
    %int512_207 = torch.constant.int 512
    %171 = torch.prim.ListConstruct %int131072_206, %int512_207 : (!torch.int, !torch.int) -> !torch.list<int>
    %172 = torch.aten.view %170, %171 : !torch.vtensor<[8,16384,512],f16>, !torch.list<int> -> !torch.vtensor<[131072,512],f16>
    %__auto.vae.decoder.mid_block.attentions.0.to_out.0.weight = util.global.load @__auto.vae.decoder.mid_block.attentions.0.to_out.0.weight : tensor<512x512xf16>
    %173 = torch_c.from_builtin_tensor %__auto.vae.decoder.mid_block.attentions.0.to_out.0.weight : tensor<512x512xf16> -> !torch.vtensor<[512,512],f16>
    %int0_208 = torch.constant.int 0
    %int1_209 = torch.constant.int 1
    %174 = torch.aten.transpose.int %173, %int0_208, %int1_209 : !torch.vtensor<[512,512],f16>, !torch.int, !torch.int -> !torch.vtensor<[512,512],f16>
    %__auto.vae.decoder.mid_block.attentions.0.to_out.0.bias = util.global.load @__auto.vae.decoder.mid_block.attentions.0.to_out.0.bias : tensor<512xf16>
    %175 = torch_c.from_builtin_tensor %__auto.vae.decoder.mid_block.attentions.0.to_out.0.bias : tensor<512xf16> -> !torch.vtensor<[512],f16>
    %int6_210 = torch.constant.int 6
    %176 = torch.prims.convert_element_type %175, %int6_210 : !torch.vtensor<[512],f16>, !torch.int -> !torch.vtensor<[512],f32>
    %int6_211 = torch.constant.int 6
    %177 = torch.prims.convert_element_type %172, %int6_211 : !torch.vtensor<[131072,512],f16>, !torch.int -> !torch.vtensor<[131072,512],f32>
    %int6_212 = torch.constant.int 6
    %178 = torch.prims.convert_element_type %174, %int6_212 : !torch.vtensor<[512,512],f16>, !torch.int -> !torch.vtensor<[512,512],f32>
    %179 = torch.aten.mm %177, %178 : !torch.vtensor<[131072,512],f32>, !torch.vtensor<[512,512],f32> -> !torch.vtensor<[131072,512],f32>
    %int1_213 = torch.constant.int 1
    %180 = torch.aten.mul.Scalar %179, %int1_213 : !torch.vtensor<[131072,512],f32>, !torch.int -> !torch.vtensor<[131072,512],f32>
    %int1_214 = torch.constant.int 1
    %181 = torch.aten.mul.Scalar %176, %int1_214 : !torch.vtensor<[512],f32>, !torch.int -> !torch.vtensor<[512],f32>
    %int1_215 = torch.constant.int 1
    %182 = torch.aten.add.Tensor %180, %181, %int1_215 : !torch.vtensor<[131072,512],f32>, !torch.vtensor<[512],f32>, !torch.int -> !torch.vtensor<[131072,512],f32>
    %int5_216 = torch.constant.int 5
    %183 = torch.prims.convert_element_type %182, %int5_216 : !torch.vtensor<[131072,512],f32>, !torch.int -> !torch.vtensor<[131072,512],f16>
    %int8_217 = torch.constant.int 8
    %int16384_218 = torch.constant.int 16384
    %int512_219 = torch.constant.int 512
    %184 = torch.prim.ListConstruct %int8_217, %int16384_218, %int512_219 : (!torch.int, !torch.int, !torch.int) -> !torch.list<int>
    %185 = torch.aten.view %183, %184 : !torch.vtensor<[131072,512],f16>, !torch.list<int> -> !torch.vtensor<[8,16384,512],f16>
    %none_220 = torch.constant.none
    %186 = torch.aten.clone %185, %none_220 : !torch.vtensor<[8,16384,512],f16>, !torch.none -> !torch.vtensor<[8,16384,512],f16>
    %int-1_221 = torch.constant.int -1
    %int-2_222 = torch.constant.int -2
    %187 = torch.aten.transpose.int %186, %int-1_221, %int-2_222 : !torch.vtensor<[8,16384,512],f16>, !torch.int, !torch.int -> !torch.vtensor<[8,512,16384],f16>
    %int8_223 = torch.constant.int 8
    %int512_224 = torch.constant.int 512
    %int128_225 = torch.constant.int 128
    %int128_226 = torch.constant.int 128
    %188 = torch.prim.ListConstruct %int8_223, %int512_224, %int128_225, %int128_226 : (!torch.int, !torch.int, !torch.int, !torch.int) -> !torch.list<int>
    %189 = torch.aten.view %187, %188 : !torch.vtensor<[8,512,16384],f16>, !torch.list<int> -> !torch.vtensor<[8,512,128,128],f16>
    %int1_227 = torch.constant.int 1
    %190 = torch.aten.add.Tensor %189, %75, %int1_227 : !torch.vtensor<[8,512,128,128],f16>, !torch.vtensor<[8,512,128,128],f16>, !torch.int -> !torch.vtensor<[8,512,128,128],f16>
    %int1_228 = torch.constant.int 1
    %191 = torch.aten.div.Scalar %190, %int1_228 : !torch.vtensor<[8,512,128,128],f16>, !torch.int -> !torch.vtensor<[8,512,128,128],f16>
    %int8_229 = torch.constant.int 8
    %int32_230 = torch.constant.int 32
    %int16_231 = torch.constant.int 16
    %int16384_232 = torch.constant.int 16384
    %192 = torch.prim.ListConstruct %int8_229, %int32_230, %int16_231, %int16384_232 : (!torch.int, !torch.int, !torch.int, !torch.int) -> !torch.list<int>
    %193 = torch.aten.view %191, %192 : !torch.vtensor<[8,512,128,128],f16>, !torch.list<int> -> !torch.vtensor<[8,32,16,16384],f16>
    %int6_233 = torch.constant.int 6
    %194 = torch.prims.convert_element_type %193, %int6_233 : !torch.vtensor<[8,32,16,16384],f16>, !torch.int -> !torch.vtensor<[8,32,16,16384],f32>
    %int2_234 = torch.constant.int 2
    %int3_235 = torch.constant.int 3
    %195 = torch.prim.ListConstruct %int2_234, %int3_235 : (!torch.int, !torch.int) -> !torch.list<int>
    %int0_236 = torch.constant.int 0
    %true_237 = torch.constant.bool true
    %result0_238, %result1_239 = torch.aten.var_mean.correction %194, %195, %int0_236, %true_237 : !torch.vtensor<[8,32,16,16384],f32>, !torch.list<int>, !torch.int, !torch.bool -> !torch.vtensor<[8,32,1,1],f32>, !torch.vtensor<[8,32,1,1],f32>
    %float9.999990e-07_240 = torch.constant.float 9.9999999999999995E-7
    %int1_241 = torch.constant.int 1
    %196 = torch.aten.add.Scalar %result0_238, %float9.999990e-07_240, %int1_241 : !torch.vtensor<[8,32,1,1],f32>, !torch.float, !torch.int -> !torch.vtensor<[8,32,1,1],f32>
    %197 = torch.aten.rsqrt %196 : !torch.vtensor<[8,32,1,1],f32> -> !torch.vtensor<[8,32,1,1],f32>
    %int1_242 = torch.constant.int 1
    %198 = torch.aten.sub.Tensor %193, %result1_239, %int1_242 : !torch.vtensor<[8,32,16,16384],f16>, !torch.vtensor<[8,32,1,1],f32>, !torch.int -> !torch.vtensor<[8,32,16,16384],f32>
    %199 = torch.aten.mul.Tensor %198, %197 : !torch.vtensor<[8,32,16,16384],f32>, !torch.vtensor<[8,32,1,1],f32> -> !torch.vtensor<[8,32,16,16384],f32>
    %int8_243 = torch.constant.int 8
    %int512_244 = torch.constant.int 512
    %int128_245 = torch.constant.int 128
    %int128_246 = torch.constant.int 128
    %200 = torch.prim.ListConstruct %int8_243, %int512_244, %int128_245, %int128_246 : (!torch.int, !torch.int, !torch.int, !torch.int) -> !torch.list<int>
    %201 = torch.aten.view %199, %200 : !torch.vtensor<[8,32,16,16384],f32>, !torch.list<int> -> !torch.vtensor<[8,512,128,128],f32>
    %__auto.vae.decoder.mid_block.resnets.1.norm1.bias = util.global.load @__auto.vae.decoder.mid_block.resnets.1.norm1.bias : tensor<512xf16>
    %202 = torch_c.from_builtin_tensor %__auto.vae.decoder.mid_block.resnets.1.norm1.bias : tensor<512xf16> -> !torch.vtensor<[512],f16>
    %int0_247 = torch.constant.int 0
    %203 = torch.aten.unsqueeze %202, %int0_247 : !torch.vtensor<[512],f16>, !torch.int -> !torch.vtensor<[1,512],f16>
    %int2_248 = torch.constant.int 2
    %204 = torch.aten.unsqueeze %203, %int2_248 : !torch.vtensor<[1,512],f16>, !torch.int -> !torch.vtensor<[1,512,1],f16>
    %int3_249 = torch.constant.int 3
    %205 = torch.aten.unsqueeze %204, %int3_249 : !torch.vtensor<[1,512,1],f16>, !torch.int -> !torch.vtensor<[1,512,1,1],f16>
    %__auto.vae.decoder.mid_block.resnets.1.norm1.weight = util.global.load @__auto.vae.decoder.mid_block.resnets.1.norm1.weight : tensor<512xf16>
    %206 = torch_c.from_builtin_tensor %__auto.vae.decoder.mid_block.resnets.1.norm1.weight : tensor<512xf16> -> !torch.vtensor<[512],f16>
    %int0_250 = torch.constant.int 0
    %207 = torch.aten.unsqueeze %206, %int0_250 : !torch.vtensor<[512],f16>, !torch.int -> !torch.vtensor<[1,512],f16>
    %int2_251 = torch.constant.int 2
    %208 = torch.aten.unsqueeze %207, %int2_251 : !torch.vtensor<[1,512],f16>, !torch.int -> !torch.vtensor<[1,512,1],f16>
    %int3_252 = torch.constant.int 3
    %209 = torch.aten.unsqueeze %208, %int3_252 : !torch.vtensor<[1,512,1],f16>, !torch.int -> !torch.vtensor<[1,512,1,1],f16>
    %210 = torch.aten.mul.Tensor %201, %209 : !torch.vtensor<[8,512,128,128],f32>, !torch.vtensor<[1,512,1,1],f16> -> !torch.vtensor<[8,512,128,128],f32>
    %int1_253 = torch.constant.int 1
    %211 = torch.aten.add.Tensor %210, %205, %int1_253 : !torch.vtensor<[8,512,128,128],f32>, !torch.vtensor<[1,512,1,1],f16>, !torch.int -> !torch.vtensor<[8,512,128,128],f32>
    %int5_254 = torch.constant.int 5
    %212 = torch.prims.convert_element_type %211, %int5_254 : !torch.vtensor<[8,512,128,128],f32>, !torch.int -> !torch.vtensor<[8,512,128,128],f16>
    %213 = torch.aten.silu %212 : !torch.vtensor<[8,512,128,128],f16> -> !torch.vtensor<[8,512,128,128],f16>
    %__auto.vae.decoder.mid_block.resnets.1.conv1.weight = util.global.load @__auto.vae.decoder.mid_block.resnets.1.conv1.weight : tensor<512x512x3x3xf16>
    %214 = torch_c.from_builtin_tensor %__auto.vae.decoder.mid_block.resnets.1.conv1.weight : tensor<512x512x3x3xf16> -> !torch.vtensor<[512,512,3,3],f16>
    %__auto.vae.decoder.mid_block.resnets.1.conv1.bias = util.global.load @__auto.vae.decoder.mid_block.resnets.1.conv1.bias : tensor<512xf16>
    %215 = torch_c.from_builtin_tensor %__auto.vae.decoder.mid_block.resnets.1.conv1.bias : tensor<512xf16> -> !torch.vtensor<[512],f16>
    %int1_255 = torch.constant.int 1
    %int1_256 = torch.constant.int 1
    %216 = torch.prim.ListConstruct %int1_255, %int1_256 : (!torch.int, !torch.int) -> !torch.list<int>
    %int1_257 = torch.constant.int 1
    %int1_258 = torch.constant.int 1
    %217 = torch.prim.ListConstruct %int1_257, %int1_258 : (!torch.int, !torch.int) -> !torch.list<int>
    %int1_259 = torch.constant.int 1
    %int1_260 = torch.constant.int 1
    %218 = torch.prim.ListConstruct %int1_259, %int1_260 : (!torch.int, !torch.int) -> !torch.list<int>
    %false_261 = torch.constant.bool false
    %int0_262 = torch.constant.int 0
    %int0_263 = torch.constant.int 0
    %219 = torch.prim.ListConstruct %int0_262, %int0_263 : (!torch.int, !torch.int) -> !torch.list<int>
    %int1_264 = torch.constant.int 1
    %220 = torch.aten.convolution %213, %214, %215, %216, %217, %218, %false_261, %219, %int1_264 : !torch.vtensor<[8,512,128,128],f16>, !torch.vtensor<[512,512,3,3],f16>, !torch.vtensor<[512],f16>, !torch.list<int>, !torch.list<int>, !torch.list<int>, !torch.bool, !torch.list<int>, !torch.int -> !torch.vtensor<[8,512,128,128],f16>
    %int8_265 = torch.constant.int 8
    %int32_266 = torch.constant.int 32
    %int16_267 = torch.constant.int 16
    %int16384_268 = torch.constant.int 16384
    %221 = torch.prim.ListConstruct %int8_265, %int32_266, %int16_267, %int16384_268 : (!torch.int, !torch.int, !torch.int, !torch.int) -> !torch.list<int>
    %222 = torch.aten.view %220, %221 : !torch.vtensor<[8,512,128,128],f16>, !torch.list<int> -> !torch.vtensor<[8,32,16,16384],f16>
    %int6_269 = torch.constant.int 6
    %223 = torch.prims.convert_element_type %222, %int6_269 : !torch.vtensor<[8,32,16,16384],f16>, !torch.int -> !torch.vtensor<[8,32,16,16384],f32>
    %int2_270 = torch.constant.int 2
    %int3_271 = torch.constant.int 3
    %224 = torch.prim.ListConstruct %int2_270, %int3_271 : (!torch.int, !torch.int) -> !torch.list<int>
    %int0_272 = torch.constant.int 0
    %true_273 = torch.constant.bool true
    %result0_274, %result1_275 = torch.aten.var_mean.correction %223, %224, %int0_272, %true_273 : !torch.vtensor<[8,32,16,16384],f32>, !torch.list<int>, !torch.int, !torch.bool -> !torch.vtensor<[8,32,1,1],f32>, !torch.vtensor<[8,32,1,1],f32>
    %float9.999990e-07_276 = torch.constant.float 9.9999999999999995E-7
    %int1_277 = torch.constant.int 1
    %225 = torch.aten.add.Scalar %result0_274, %float9.999990e-07_276, %int1_277 : !torch.vtensor<[8,32,1,1],f32>, !torch.float, !torch.int -> !torch.vtensor<[8,32,1,1],f32>
    %226 = torch.aten.rsqrt %225 : !torch.vtensor<[8,32,1,1],f32> -> !torch.vtensor<[8,32,1,1],f32>
    %int1_278 = torch.constant.int 1
    %227 = torch.aten.sub.Tensor %222, %result1_275, %int1_278 : !torch.vtensor<[8,32,16,16384],f16>, !torch.vtensor<[8,32,1,1],f32>, !torch.int -> !torch.vtensor<[8,32,16,16384],f32>
    %228 = torch.aten.mul.Tensor %227, %226 : !torch.vtensor<[8,32,16,16384],f32>, !torch.vtensor<[8,32,1,1],f32> -> !torch.vtensor<[8,32,16,16384],f32>
    %int8_279 = torch.constant.int 8
    %int512_280 = torch.constant.int 512
    %int128_281 = torch.constant.int 128
    %int128_282 = torch.constant.int 128
    %229 = torch.prim.ListConstruct %int8_279, %int512_280, %int128_281, %int128_282 : (!torch.int, !torch.int, !torch.int, !torch.int) -> !torch.list<int>
    %230 = torch.aten.view %228, %229 : !torch.vtensor<[8,32,16,16384],f32>, !torch.list<int> -> !torch.vtensor<[8,512,128,128],f32>
    %__auto.vae.decoder.mid_block.resnets.1.norm2.bias = util.global.load @__auto.vae.decoder.mid_block.resnets.1.norm2.bias : tensor<512xf16>
    %231 = torch_c.from_builtin_tensor %__auto.vae.decoder.mid_block.resnets.1.norm2.bias : tensor<512xf16> -> !torch.vtensor<[512],f16>
    %int0_283 = torch.constant.int 0
    %232 = torch.aten.unsqueeze %231, %int0_283 : !torch.vtensor<[512],f16>, !torch.int -> !torch.vtensor<[1,512],f16>
    %int2_284 = torch.constant.int 2
    %233 = torch.aten.unsqueeze %232, %int2_284 : !torch.vtensor<[1,512],f16>, !torch.int -> !torch.vtensor<[1,512,1],f16>
    %int3_285 = torch.constant.int 3
    %234 = torch.aten.unsqueeze %233, %int3_285 : !torch.vtensor<[1,512,1],f16>, !torch.int -> !torch.vtensor<[1,512,1,1],f16>
    %__auto.vae.decoder.mid_block.resnets.1.norm2.weight = util.global.load @__auto.vae.decoder.mid_block.resnets.1.norm2.weight : tensor<512xf16>
    %235 = torch_c.from_builtin_tensor %__auto.vae.decoder.mid_block.resnets.1.norm2.weight : tensor<512xf16> -> !torch.vtensor<[512],f16>
    %int0_286 = torch.constant.int 0
    %236 = torch.aten.unsqueeze %235, %int0_286 : !torch.vtensor<[512],f16>, !torch.int -> !torch.vtensor<[1,512],f16>
    %int2_287 = torch.constant.int 2
    %237 = torch.aten.unsqueeze %236, %int2_287 : !torch.vtensor<[1,512],f16>, !torch.int -> !torch.vtensor<[1,512,1],f16>
    %int3_288 = torch.constant.int 3
    %238 = torch.aten.unsqueeze %237, %int3_288 : !torch.vtensor<[1,512,1],f16>, !torch.int -> !torch.vtensor<[1,512,1,1],f16>
    %239 = torch.aten.mul.Tensor %230, %238 : !torch.vtensor<[8,512,128,128],f32>, !torch.vtensor<[1,512,1,1],f16> -> !torch.vtensor<[8,512,128,128],f32>
    %int1_289 = torch.constant.int 1
    %240 = torch.aten.add.Tensor %239, %234, %int1_289 : !torch.vtensor<[8,512,128,128],f32>, !torch.vtensor<[1,512,1,1],f16>, !torch.int -> !torch.vtensor<[8,512,128,128],f32>
    %int5_290 = torch.constant.int 5
    %241 = torch.prims.convert_element_type %240, %int5_290 : !torch.vtensor<[8,512,128,128],f32>, !torch.int -> !torch.vtensor<[8,512,128,128],f16>
    %242 = torch.aten.silu %241 : !torch.vtensor<[8,512,128,128],f16> -> !torch.vtensor<[8,512,128,128],f16>
    %none_291 = torch.constant.none
    %243 = torch.aten.clone %242, %none_291 : !torch.vtensor<[8,512,128,128],f16>, !torch.none -> !torch.vtensor<[8,512,128,128],f16>
    %__auto.vae.decoder.mid_block.resnets.1.conv2.weight = util.global.load @__auto.vae.decoder.mid_block.resnets.1.conv2.weight : tensor<512x512x3x3xf16>
    %244 = torch_c.from_builtin_tensor %__auto.vae.decoder.mid_block.resnets.1.conv2.weight : tensor<512x512x3x3xf16> -> !torch.vtensor<[512,512,3,3],f16>
    %__auto.vae.decoder.mid_block.resnets.1.conv2.bias = util.global.load @__auto.vae.decoder.mid_block.resnets.1.conv2.bias : tensor<512xf16>
    %245 = torch_c.from_builtin_tensor %__auto.vae.decoder.mid_block.resnets.1.conv2.bias : tensor<512xf16> -> !torch.vtensor<[512],f16>
    %int1_292 = torch.constant.int 1
    %int1_293 = torch.constant.int 1
    %246 = torch.prim.ListConstruct %int1_292, %int1_293 : (!torch.int, !torch.int) -> !torch.list<int>
    %int1_294 = torch.constant.int 1
    %int1_295 = torch.constant.int 1
    %247 = torch.prim.ListConstruct %int1_294, %int1_295 : (!torch.int, !torch.int) -> !torch.list<int>
    %int1_296 = torch.constant.int 1
    %int1_297 = torch.constant.int 1
    %248 = torch.prim.ListConstruct %int1_296, %int1_297 : (!torch.int, !torch.int) -> !torch.list<int>
    %false_298 = torch.constant.bool false
    %int0_299 = torch.constant.int 0
    %int0_300 = torch.constant.int 0
    %249 = torch.prim.ListConstruct %int0_299, %int0_300 : (!torch.int, !torch.int) -> !torch.list<int>
    %int1_301 = torch.constant.int 1
    %250 = torch.aten.convolution %243, %244, %245, %246, %247, %248, %false_298, %249, %int1_301 : !torch.vtensor<[8,512,128,128],f16>, !torch.vtensor<[512,512,3,3],f16>, !torch.vtensor<[512],f16>, !torch.list<int>, !torch.list<int>, !torch.list<int>, !torch.bool, !torch.list<int>, !torch.int -> !torch.vtensor<[8,512,128,128],f16>
    %int1_302 = torch.constant.int 1
    %251 = torch.aten.add.Tensor %191, %250, %int1_302 : !torch.vtensor<[8,512,128,128],f16>, !torch.vtensor<[8,512,128,128],f16>, !torch.int -> !torch.vtensor<[8,512,128,128],f16>
    %int1_303 = torch.constant.int 1
    %252 = torch.aten.div.Scalar %251, %int1_303 : !torch.vtensor<[8,512,128,128],f16>, !torch.int -> !torch.vtensor<[8,512,128,128],f16>
    %int5_304 = torch.constant.int 5
    %253 = torch.prims.convert_element_type %252, %int5_304 : !torch.vtensor<[8,512,128,128],f16>, !torch.int -> !torch.vtensor<[8,512,128,128],f16>
    %int8_305 = torch.constant.int 8
    %int32_306 = torch.constant.int 32
    %int16_307 = torch.constant.int 16
    %int16384_308 = torch.constant.int 16384
    %254 = torch.prim.ListConstruct %int8_305, %int32_306, %int16_307, %int16384_308 : (!torch.int, !torch.int, !torch.int, !torch.int) -> !torch.list<int>
    %255 = torch.aten.view %253, %254 : !torch.vtensor<[8,512,128,128],f16>, !torch.list<int> -> !torch.vtensor<[8,32,16,16384],f16>
    %int6_309 = torch.constant.int 6
    %256 = torch.prims.convert_element_type %255, %int6_309 : !torch.vtensor<[8,32,16,16384],f16>, !torch.int -> !torch.vtensor<[8,32,16,16384],f32>
    %int2_310 = torch.constant.int 2
    %int3_311 = torch.constant.int 3
    %257 = torch.prim.ListConstruct %int2_310, %int3_311 : (!torch.int, !torch.int) -> !torch.list<int>
    %int0_312 = torch.constant.int 0
    %true_313 = torch.constant.bool true
    %result0_314, %result1_315 = torch.aten.var_mean.correction %256, %257, %int0_312, %true_313 : !torch.vtensor<[8,32,16,16384],f32>, !torch.list<int>, !torch.int, !torch.bool -> !torch.vtensor<[8,32,1,1],f32>, !torch.vtensor<[8,32,1,1],f32>
    %float9.999990e-07_316 = torch.constant.float 9.9999999999999995E-7
    %int1_317 = torch.constant.int 1
    %258 = torch.aten.add.Scalar %result0_314, %float9.999990e-07_316, %int1_317 : !torch.vtensor<[8,32,1,1],f32>, !torch.float, !torch.int -> !torch.vtensor<[8,32,1,1],f32>
    %259 = torch.aten.rsqrt %258 : !torch.vtensor<[8,32,1,1],f32> -> !torch.vtensor<[8,32,1,1],f32>
    %int1_318 = torch.constant.int 1
    %260 = torch.aten.sub.Tensor %255, %result1_315, %int1_318 : !torch.vtensor<[8,32,16,16384],f16>, !torch.vtensor<[8,32,1,1],f32>, !torch.int -> !torch.vtensor<[8,32,16,16384],f32>
    %261 = torch.aten.mul.Tensor %260, %259 : !torch.vtensor<[8,32,16,16384],f32>, !torch.vtensor<[8,32,1,1],f32> -> !torch.vtensor<[8,32,16,16384],f32>
    %int8_319 = torch.constant.int 8
    %int512_320 = torch.constant.int 512
    %int128_321 = torch.constant.int 128
    %int128_322 = torch.constant.int 128
    %262 = torch.prim.ListConstruct %int8_319, %int512_320, %int128_321, %int128_322 : (!torch.int, !torch.int, !torch.int, !torch.int) -> !torch.list<int>
    %263 = torch.aten.view %261, %262 : !torch.vtensor<[8,32,16,16384],f32>, !torch.list<int> -> !torch.vtensor<[8,512,128,128],f32>
    %__auto.vae.decoder.up_blocks.0.resnets.0.norm1.bias = util.global.load @__auto.vae.decoder.up_blocks.0.resnets.0.norm1.bias : tensor<512xf16>
    %264 = torch_c.from_builtin_tensor %__auto.vae.decoder.up_blocks.0.resnets.0.norm1.bias : tensor<512xf16> -> !torch.vtensor<[512],f16>
    %int0_323 = torch.constant.int 0
    %265 = torch.aten.unsqueeze %264, %int0_323 : !torch.vtensor<[512],f16>, !torch.int -> !torch.vtensor<[1,512],f16>
    %int2_324 = torch.constant.int 2
    %266 = torch.aten.unsqueeze %265, %int2_324 : !torch.vtensor<[1,512],f16>, !torch.int -> !torch.vtensor<[1,512,1],f16>
    %int3_325 = torch.constant.int 3
    %267 = torch.aten.unsqueeze %266, %int3_325 : !torch.vtensor<[1,512,1],f16>, !torch.int -> !torch.vtensor<[1,512,1,1],f16>
    %__auto.vae.decoder.up_blocks.0.resnets.0.norm1.weight = util.global.load @__auto.vae.decoder.up_blocks.0.resnets.0.norm1.weight : tensor<512xf16>
    %268 = torch_c.from_builtin_tensor %__auto.vae.decoder.up_blocks.0.resnets.0.norm1.weight : tensor<512xf16> -> !torch.vtensor<[512],f16>
    %int0_326 = torch.constant.int 0
    %269 = torch.aten.unsqueeze %268, %int0_326 : !torch.vtensor<[512],f16>, !torch.int -> !torch.vtensor<[1,512],f16>
    %int2_327 = torch.constant.int 2
    %270 = torch.aten.unsqueeze %269, %int2_327 : !torch.vtensor<[1,512],f16>, !torch.int -> !torch.vtensor<[1,512,1],f16>
    %int3_328 = torch.constant.int 3
    %271 = torch.aten.unsqueeze %270, %int3_328 : !torch.vtensor<[1,512,1],f16>, !torch.int -> !torch.vtensor<[1,512,1,1],f16>
    %272 = torch.aten.mul.Tensor %263, %271 : !torch.vtensor<[8,512,128,128],f32>, !torch.vtensor<[1,512,1,1],f16> -> !torch.vtensor<[8,512,128,128],f32>
    %int1_329 = torch.constant.int 1
    %273 = torch.aten.add.Tensor %272, %267, %int1_329 : !torch.vtensor<[8,512,128,128],f32>, !torch.vtensor<[1,512,1,1],f16>, !torch.int -> !torch.vtensor<[8,512,128,128],f32>
    %int5_330 = torch.constant.int 5
    %274 = torch.prims.convert_element_type %273, %int5_330 : !torch.vtensor<[8,512,128,128],f32>, !torch.int -> !torch.vtensor<[8,512,128,128],f16>
    %275 = torch.aten.silu %274 : !torch.vtensor<[8,512,128,128],f16> -> !torch.vtensor<[8,512,128,128],f16>
    %__auto.vae.decoder.up_blocks.0.resnets.0.conv1.weight = util.global.load @__auto.vae.decoder.up_blocks.0.resnets.0.conv1.weight : tensor<512x512x3x3xf16>
    %276 = torch_c.from_builtin_tensor %__auto.vae.decoder.up_blocks.0.resnets.0.conv1.weight : tensor<512x512x3x3xf16> -> !torch.vtensor<[512,512,3,3],f16>
    %__auto.vae.decoder.up_blocks.0.resnets.0.conv1.bias = util.global.load @__auto.vae.decoder.up_blocks.0.resnets.0.conv1.bias : tensor<512xf16>
    %277 = torch_c.from_builtin_tensor %__auto.vae.decoder.up_blocks.0.resnets.0.conv1.bias : tensor<512xf16> -> !torch.vtensor<[512],f16>
    %int1_331 = torch.constant.int 1
    %int1_332 = torch.constant.int 1
    %278 = torch.prim.ListConstruct %int1_331, %int1_332 : (!torch.int, !torch.int) -> !torch.list<int>
    %int1_333 = torch.constant.int 1
    %int1_334 = torch.constant.int 1
    %279 = torch.prim.ListConstruct %int1_333, %int1_334 : (!torch.int, !torch.int) -> !torch.list<int>
    %int1_335 = torch.constant.int 1
    %int1_336 = torch.constant.int 1
    %280 = torch.prim.ListConstruct %int1_335, %int1_336 : (!torch.int, !torch.int) -> !torch.list<int>
    %false_337 = torch.constant.bool false
    %int0_338 = torch.constant.int 0
    %int0_339 = torch.constant.int 0
    %281 = torch.prim.ListConstruct %int0_338, %int0_339 : (!torch.int, !torch.int) -> !torch.list<int>
    %int1_340 = torch.constant.int 1
    %282 = torch.aten.convolution %275, %276, %277, %278, %279, %280, %false_337, %281, %int1_340 : !torch.vtensor<[8,512,128,128],f16>, !torch.vtensor<[512,512,3,3],f16>, !torch.vtensor<[512],f16>, !torch.list<int>, !torch.list<int>, !torch.list<int>, !torch.bool, !torch.list<int>, !torch.int -> !torch.vtensor<[8,512,128,128],f16>
    %int8_341 = torch.constant.int 8
    %int32_342 = torch.constant.int 32
    %int16_343 = torch.constant.int 16
    %int16384_344 = torch.constant.int 16384
    %283 = torch.prim.ListConstruct %int8_341, %int32_342, %int16_343, %int16384_344 : (!torch.int, !torch.int, !torch.int, !torch.int) -> !torch.list<int>
    %284 = torch.aten.view %282, %283 : !torch.vtensor<[8,512,128,128],f16>, !torch.list<int> -> !torch.vtensor<[8,32,16,16384],f16>
    %int6_345 = torch.constant.int 6
    %285 = torch.prims.convert_element_type %284, %int6_345 : !torch.vtensor<[8,32,16,16384],f16>, !torch.int -> !torch.vtensor<[8,32,16,16384],f32>
    %int2_346 = torch.constant.int 2
    %int3_347 = torch.constant.int 3
    %286 = torch.prim.ListConstruct %int2_346, %int3_347 : (!torch.int, !torch.int) -> !torch.list<int>
    %int0_348 = torch.constant.int 0
    %true_349 = torch.constant.bool true
    %result0_350, %result1_351 = torch.aten.var_mean.correction %285, %286, %int0_348, %true_349 : !torch.vtensor<[8,32,16,16384],f32>, !torch.list<int>, !torch.int, !torch.bool -> !torch.vtensor<[8,32,1,1],f32>, !torch.vtensor<[8,32,1,1],f32>
    %float9.999990e-07_352 = torch.constant.float 9.9999999999999995E-7
    %int1_353 = torch.constant.int 1
    %287 = torch.aten.add.Scalar %result0_350, %float9.999990e-07_352, %int1_353 : !torch.vtensor<[8,32,1,1],f32>, !torch.float, !torch.int -> !torch.vtensor<[8,32,1,1],f32>
    %288 = torch.aten.rsqrt %287 : !torch.vtensor<[8,32,1,1],f32> -> !torch.vtensor<[8,32,1,1],f32>
    %int1_354 = torch.constant.int 1
    %289 = torch.aten.sub.Tensor %284, %result1_351, %int1_354 : !torch.vtensor<[8,32,16,16384],f16>, !torch.vtensor<[8,32,1,1],f32>, !torch.int -> !torch.vtensor<[8,32,16,16384],f32>
    %290 = torch.aten.mul.Tensor %289, %288 : !torch.vtensor<[8,32,16,16384],f32>, !torch.vtensor<[8,32,1,1],f32> -> !torch.vtensor<[8,32,16,16384],f32>
    %int8_355 = torch.constant.int 8
    %int512_356 = torch.constant.int 512
    %int128_357 = torch.constant.int 128
    %int128_358 = torch.constant.int 128
    %291 = torch.prim.ListConstruct %int8_355, %int512_356, %int128_357, %int128_358 : (!torch.int, !torch.int, !torch.int, !torch.int) -> !torch.list<int>
    %292 = torch.aten.view %290, %291 : !torch.vtensor<[8,32,16,16384],f32>, !torch.list<int> -> !torch.vtensor<[8,512,128,128],f32>
    %__auto.vae.decoder.up_blocks.0.resnets.0.norm2.bias = util.global.load @__auto.vae.decoder.up_blocks.0.resnets.0.norm2.bias : tensor<512xf16>
    %293 = torch_c.from_builtin_tensor %__auto.vae.decoder.up_blocks.0.resnets.0.norm2.bias : tensor<512xf16> -> !torch.vtensor<[512],f16>
    %int0_359 = torch.constant.int 0
    %294 = torch.aten.unsqueeze %293, %int0_359 : !torch.vtensor<[512],f16>, !torch.int -> !torch.vtensor<[1,512],f16>
    %int2_360 = torch.constant.int 2
    %295 = torch.aten.unsqueeze %294, %int2_360 : !torch.vtensor<[1,512],f16>, !torch.int -> !torch.vtensor<[1,512,1],f16>
    %int3_361 = torch.constant.int 3
    %296 = torch.aten.unsqueeze %295, %int3_361 : !torch.vtensor<[1,512,1],f16>, !torch.int -> !torch.vtensor<[1,512,1,1],f16>
    %__auto.vae.decoder.up_blocks.0.resnets.0.norm2.weight = util.global.load @__auto.vae.decoder.up_blocks.0.resnets.0.norm2.weight : tensor<512xf16>
    %297 = torch_c.from_builtin_tensor %__auto.vae.decoder.up_blocks.0.resnets.0.norm2.weight : tensor<512xf16> -> !torch.vtensor<[512],f16>
    %int0_362 = torch.constant.int 0
    %298 = torch.aten.unsqueeze %297, %int0_362 : !torch.vtensor<[512],f16>, !torch.int -> !torch.vtensor<[1,512],f16>
    %int2_363 = torch.constant.int 2
    %299 = torch.aten.unsqueeze %298, %int2_363 : !torch.vtensor<[1,512],f16>, !torch.int -> !torch.vtensor<[1,512,1],f16>
    %int3_364 = torch.constant.int 3
    %300 = torch.aten.unsqueeze %299, %int3_364 : !torch.vtensor<[1,512,1],f16>, !torch.int -> !torch.vtensor<[1,512,1,1],f16>
    %301 = torch.aten.mul.Tensor %292, %300 : !torch.vtensor<[8,512,128,128],f32>, !torch.vtensor<[1,512,1,1],f16> -> !torch.vtensor<[8,512,128,128],f32>
    %int1_365 = torch.constant.int 1
    %302 = torch.aten.add.Tensor %301, %296, %int1_365 : !torch.vtensor<[8,512,128,128],f32>, !torch.vtensor<[1,512,1,1],f16>, !torch.int -> !torch.vtensor<[8,512,128,128],f32>
    %int5_366 = torch.constant.int 5
    %303 = torch.prims.convert_element_type %302, %int5_366 : !torch.vtensor<[8,512,128,128],f32>, !torch.int -> !torch.vtensor<[8,512,128,128],f16>
    %304 = torch.aten.silu %303 : !torch.vtensor<[8,512,128,128],f16> -> !torch.vtensor<[8,512,128,128],f16>
    %none_367 = torch.constant.none
    %305 = torch.aten.clone %304, %none_367 : !torch.vtensor<[8,512,128,128],f16>, !torch.none -> !torch.vtensor<[8,512,128,128],f16>
    %__auto.vae.decoder.up_blocks.0.resnets.0.conv2.weight = util.global.load @__auto.vae.decoder.up_blocks.0.resnets.0.conv2.weight : tensor<512x512x3x3xf16>
    %306 = torch_c.from_builtin_tensor %__auto.vae.decoder.up_blocks.0.resnets.0.conv2.weight : tensor<512x512x3x3xf16> -> !torch.vtensor<[512,512,3,3],f16>
    %__auto.vae.decoder.up_blocks.0.resnets.0.conv2.bias = util.global.load @__auto.vae.decoder.up_blocks.0.resnets.0.conv2.bias : tensor<512xf16>
    %307 = torch_c.from_builtin_tensor %__auto.vae.decoder.up_blocks.0.resnets.0.conv2.bias : tensor<512xf16> -> !torch.vtensor<[512],f16>
    %int1_368 = torch.constant.int 1
    %int1_369 = torch.constant.int 1
    %308 = torch.prim.ListConstruct %int1_368, %int1_369 : (!torch.int, !torch.int) -> !torch.list<int>
    %int1_370 = torch.constant.int 1
    %int1_371 = torch.constant.int 1
    %309 = torch.prim.ListConstruct %int1_370, %int1_371 : (!torch.int, !torch.int) -> !torch.list<int>
    %int1_372 = torch.constant.int 1
    %int1_373 = torch.constant.int 1
    %310 = torch.prim.ListConstruct %int1_372, %int1_373 : (!torch.int, !torch.int) -> !torch.list<int>
    %false_374 = torch.constant.bool false
    %int0_375 = torch.constant.int 0
    %int0_376 = torch.constant.int 0
    %311 = torch.prim.ListConstruct %int0_375, %int0_376 : (!torch.int, !torch.int) -> !torch.list<int>
    %int1_377 = torch.constant.int 1
    %312 = torch.aten.convolution %305, %306, %307, %308, %309, %310, %false_374, %311, %int1_377 : !torch.vtensor<[8,512,128,128],f16>, !torch.vtensor<[512,512,3,3],f16>, !torch.vtensor<[512],f16>, !torch.list<int>, !torch.list<int>, !torch.list<int>, !torch.bool, !torch.list<int>, !torch.int -> !torch.vtensor<[8,512,128,128],f16>
    %int1_378 = torch.constant.int 1
    %313 = torch.aten.add.Tensor %253, %312, %int1_378 : !torch.vtensor<[8,512,128,128],f16>, !torch.vtensor<[8,512,128,128],f16>, !torch.int -> !torch.vtensor<[8,512,128,128],f16>
    %float1.000000e00 = torch.constant.float 1.000000e+00
    %314 = torch.aten.div.Scalar %313, %float1.000000e00 : !torch.vtensor<[8,512,128,128],f16>, !torch.float -> !torch.vtensor<[8,512,128,128],f16>
    %int8_379 = torch.constant.int 8
    %int32_380 = torch.constant.int 32
    %int16_381 = torch.constant.int 16
    %int16384_382 = torch.constant.int 16384
    %315 = torch.prim.ListConstruct %int8_379, %int32_380, %int16_381, %int16384_382 : (!torch.int, !torch.int, !torch.int, !torch.int) -> !torch.list<int>
    %316 = torch.aten.view %314, %315 : !torch.vtensor<[8,512,128,128],f16>, !torch.list<int> -> !torch.vtensor<[8,32,16,16384],f16>
    %int6_383 = torch.constant.int 6
    %317 = torch.prims.convert_element_type %316, %int6_383 : !torch.vtensor<[8,32,16,16384],f16>, !torch.int -> !torch.vtensor<[8,32,16,16384],f32>
    %int2_384 = torch.constant.int 2
    %int3_385 = torch.constant.int 3
    %318 = torch.prim.ListConstruct %int2_384, %int3_385 : (!torch.int, !torch.int) -> !torch.list<int>
    %int0_386 = torch.constant.int 0
    %true_387 = torch.constant.bool true
    %result0_388, %result1_389 = torch.aten.var_mean.correction %317, %318, %int0_386, %true_387 : !torch.vtensor<[8,32,16,16384],f32>, !torch.list<int>, !torch.int, !torch.bool -> !torch.vtensor<[8,32,1,1],f32>, !torch.vtensor<[8,32,1,1],f32>
    %float9.999990e-07_390 = torch.constant.float 9.9999999999999995E-7
    %int1_391 = torch.constant.int 1
    %319 = torch.aten.add.Scalar %result0_388, %float9.999990e-07_390, %int1_391 : !torch.vtensor<[8,32,1,1],f32>, !torch.float, !torch.int -> !torch.vtensor<[8,32,1,1],f32>
    %320 = torch.aten.rsqrt %319 : !torch.vtensor<[8,32,1,1],f32> -> !torch.vtensor<[8,32,1,1],f32>
    %int1_392 = torch.constant.int 1
    %321 = torch.aten.sub.Tensor %316, %result1_389, %int1_392 : !torch.vtensor<[8,32,16,16384],f16>, !torch.vtensor<[8,32,1,1],f32>, !torch.int -> !torch.vtensor<[8,32,16,16384],f32>
    %322 = torch.aten.mul.Tensor %321, %320 : !torch.vtensor<[8,32,16,16384],f32>, !torch.vtensor<[8,32,1,1],f32> -> !torch.vtensor<[8,32,16,16384],f32>
    %int8_393 = torch.constant.int 8
    %int512_394 = torch.constant.int 512
    %int128_395 = torch.constant.int 128
    %int128_396 = torch.constant.int 128
    %323 = torch.prim.ListConstruct %int8_393, %int512_394, %int128_395, %int128_396 : (!torch.int, !torch.int, !torch.int, !torch.int) -> !torch.list<int>
    %324 = torch.aten.view %322, %323 : !torch.vtensor<[8,32,16,16384],f32>, !torch.list<int> -> !torch.vtensor<[8,512,128,128],f32>
    %__auto.vae.decoder.up_blocks.0.resnets.1.norm1.bias = util.global.load @__auto.vae.decoder.up_blocks.0.resnets.1.norm1.bias : tensor<512xf16>
    %325 = torch_c.from_builtin_tensor %__auto.vae.decoder.up_blocks.0.resnets.1.norm1.bias : tensor<512xf16> -> !torch.vtensor<[512],f16>
    %int0_397 = torch.constant.int 0
    %326 = torch.aten.unsqueeze %325, %int0_397 : !torch.vtensor<[512],f16>, !torch.int -> !torch.vtensor<[1,512],f16>
    %int2_398 = torch.constant.int 2
    %327 = torch.aten.unsqueeze %326, %int2_398 : !torch.vtensor<[1,512],f16>, !torch.int -> !torch.vtensor<[1,512,1],f16>
    %int3_399 = torch.constant.int 3
    %328 = torch.aten.unsqueeze %327, %int3_399 : !torch.vtensor<[1,512,1],f16>, !torch.int -> !torch.vtensor<[1,512,1,1],f16>
    %__auto.vae.decoder.up_blocks.0.resnets.1.norm1.weight = util.global.load @__auto.vae.decoder.up_blocks.0.resnets.1.norm1.weight : tensor<512xf16>
    %329 = torch_c.from_builtin_tensor %__auto.vae.decoder.up_blocks.0.resnets.1.norm1.weight : tensor<512xf16> -> !torch.vtensor<[512],f16>
    %int0_400 = torch.constant.int 0
    %330 = torch.aten.unsqueeze %329, %int0_400 : !torch.vtensor<[512],f16>, !torch.int -> !torch.vtensor<[1,512],f16>
    %int2_401 = torch.constant.int 2
    %331 = torch.aten.unsqueeze %330, %int2_401 : !torch.vtensor<[1,512],f16>, !torch.int -> !torch.vtensor<[1,512,1],f16>
    %int3_402 = torch.constant.int 3
    %332 = torch.aten.unsqueeze %331, %int3_402 : !torch.vtensor<[1,512,1],f16>, !torch.int -> !torch.vtensor<[1,512,1,1],f16>
    %333 = torch.aten.mul.Tensor %324, %332 : !torch.vtensor<[8,512,128,128],f32>, !torch.vtensor<[1,512,1,1],f16> -> !torch.vtensor<[8,512,128,128],f32>
    %int1_403 = torch.constant.int 1
    %334 = torch.aten.add.Tensor %333, %328, %int1_403 : !torch.vtensor<[8,512,128,128],f32>, !torch.vtensor<[1,512,1,1],f16>, !torch.int -> !torch.vtensor<[8,512,128,128],f32>
    %int5_404 = torch.constant.int 5
    %335 = torch.prims.convert_element_type %334, %int5_404 : !torch.vtensor<[8,512,128,128],f32>, !torch.int -> !torch.vtensor<[8,512,128,128],f16>
    %336 = torch.aten.silu %335 : !torch.vtensor<[8,512,128,128],f16> -> !torch.vtensor<[8,512,128,128],f16>
    %__auto.vae.decoder.up_blocks.0.resnets.1.conv1.weight = util.global.load @__auto.vae.decoder.up_blocks.0.resnets.1.conv1.weight : tensor<512x512x3x3xf16>
    %337 = torch_c.from_builtin_tensor %__auto.vae.decoder.up_blocks.0.resnets.1.conv1.weight : tensor<512x512x3x3xf16> -> !torch.vtensor<[512,512,3,3],f16>
    %__auto.vae.decoder.up_blocks.0.resnets.1.conv1.bias = util.global.load @__auto.vae.decoder.up_blocks.0.resnets.1.conv1.bias : tensor<512xf16>
    %338 = torch_c.from_builtin_tensor %__auto.vae.decoder.up_blocks.0.resnets.1.conv1.bias : tensor<512xf16> -> !torch.vtensor<[512],f16>
    %int1_405 = torch.constant.int 1
    %int1_406 = torch.constant.int 1
    %339 = torch.prim.ListConstruct %int1_405, %int1_406 : (!torch.int, !torch.int) -> !torch.list<int>
    %int1_407 = torch.constant.int 1
    %int1_408 = torch.constant.int 1
    %340 = torch.prim.ListConstruct %int1_407, %int1_408 : (!torch.int, !torch.int) -> !torch.list<int>
    %int1_409 = torch.constant.int 1
    %int1_410 = torch.constant.int 1
    %341 = torch.prim.ListConstruct %int1_409, %int1_410 : (!torch.int, !torch.int) -> !torch.list<int>
    %false_411 = torch.constant.bool false
    %int0_412 = torch.constant.int 0
    %int0_413 = torch.constant.int 0
    %342 = torch.prim.ListConstruct %int0_412, %int0_413 : (!torch.int, !torch.int) -> !torch.list<int>
    %int1_414 = torch.constant.int 1
    %343 = torch.aten.convolution %336, %337, %338, %339, %340, %341, %false_411, %342, %int1_414 : !torch.vtensor<[8,512,128,128],f16>, !torch.vtensor<[512,512,3,3],f16>, !torch.vtensor<[512],f16>, !torch.list<int>, !torch.list<int>, !torch.list<int>, !torch.bool, !torch.list<int>, !torch.int -> !torch.vtensor<[8,512,128,128],f16>
    %int8_415 = torch.constant.int 8
    %int32_416 = torch.constant.int 32
    %int16_417 = torch.constant.int 16
    %int16384_418 = torch.constant.int 16384
    %344 = torch.prim.ListConstruct %int8_415, %int32_416, %int16_417, %int16384_418 : (!torch.int, !torch.int, !torch.int, !torch.int) -> !torch.list<int>
    %345 = torch.aten.view %343, %344 : !torch.vtensor<[8,512,128,128],f16>, !torch.list<int> -> !torch.vtensor<[8,32,16,16384],f16>
    %int6_419 = torch.constant.int 6
    %346 = torch.prims.convert_element_type %345, %int6_419 : !torch.vtensor<[8,32,16,16384],f16>, !torch.int -> !torch.vtensor<[8,32,16,16384],f32>
    %int2_420 = torch.constant.int 2
    %int3_421 = torch.constant.int 3
    %347 = torch.prim.ListConstruct %int2_420, %int3_421 : (!torch.int, !torch.int) -> !torch.list<int>
    %int0_422 = torch.constant.int 0
    %true_423 = torch.constant.bool true
    %result0_424, %result1_425 = torch.aten.var_mean.correction %346, %347, %int0_422, %true_423 : !torch.vtensor<[8,32,16,16384],f32>, !torch.list<int>, !torch.int, !torch.bool -> !torch.vtensor<[8,32,1,1],f32>, !torch.vtensor<[8,32,1,1],f32>
    %float9.999990e-07_426 = torch.constant.float 9.9999999999999995E-7
    %int1_427 = torch.constant.int 1
    %348 = torch.aten.add.Scalar %result0_424, %float9.999990e-07_426, %int1_427 : !torch.vtensor<[8,32,1,1],f32>, !torch.float, !torch.int -> !torch.vtensor<[8,32,1,1],f32>
    %349 = torch.aten.rsqrt %348 : !torch.vtensor<[8,32,1,1],f32> -> !torch.vtensor<[8,32,1,1],f32>
    %int1_428 = torch.constant.int 1
    %350 = torch.aten.sub.Tensor %345, %result1_425, %int1_428 : !torch.vtensor<[8,32,16,16384],f16>, !torch.vtensor<[8,32,1,1],f32>, !torch.int -> !torch.vtensor<[8,32,16,16384],f32>
    %351 = torch.aten.mul.Tensor %350, %349 : !torch.vtensor<[8,32,16,16384],f32>, !torch.vtensor<[8,32,1,1],f32> -> !torch.vtensor<[8,32,16,16384],f32>
    %int8_429 = torch.constant.int 8
    %int512_430 = torch.constant.int 512
    %int128_431 = torch.constant.int 128
    %int128_432 = torch.constant.int 128
    %352 = torch.prim.ListConstruct %int8_429, %int512_430, %int128_431, %int128_432 : (!torch.int, !torch.int, !torch.int, !torch.int) -> !torch.list<int>
    %353 = torch.aten.view %351, %352 : !torch.vtensor<[8,32,16,16384],f32>, !torch.list<int> -> !torch.vtensor<[8,512,128,128],f32>
    %__auto.vae.decoder.up_blocks.0.resnets.1.norm2.bias = util.global.load @__auto.vae.decoder.up_blocks.0.resnets.1.norm2.bias : tensor<512xf16>
    %354 = torch_c.from_builtin_tensor %__auto.vae.decoder.up_blocks.0.resnets.1.norm2.bias : tensor<512xf16> -> !torch.vtensor<[512],f16>
    %int0_433 = torch.constant.int 0
    %355 = torch.aten.unsqueeze %354, %int0_433 : !torch.vtensor<[512],f16>, !torch.int -> !torch.vtensor<[1,512],f16>
    %int2_434 = torch.constant.int 2
    %356 = torch.aten.unsqueeze %355, %int2_434 : !torch.vtensor<[1,512],f16>, !torch.int -> !torch.vtensor<[1,512,1],f16>
    %int3_435 = torch.constant.int 3
    %357 = torch.aten.unsqueeze %356, %int3_435 : !torch.vtensor<[1,512,1],f16>, !torch.int -> !torch.vtensor<[1,512,1,1],f16>
    %__auto.vae.decoder.up_blocks.0.resnets.1.norm2.weight = util.global.load @__auto.vae.decoder.up_blocks.0.resnets.1.norm2.weight : tensor<512xf16>
    %358 = torch_c.from_builtin_tensor %__auto.vae.decoder.up_blocks.0.resnets.1.norm2.weight : tensor<512xf16> -> !torch.vtensor<[512],f16>
    %int0_436 = torch.constant.int 0
    %359 = torch.aten.unsqueeze %358, %int0_436 : !torch.vtensor<[512],f16>, !torch.int -> !torch.vtensor<[1,512],f16>
    %int2_437 = torch.constant.int 2
    %360 = torch.aten.unsqueeze %359, %int2_437 : !torch.vtensor<[1,512],f16>, !torch.int -> !torch.vtensor<[1,512,1],f16>
    %int3_438 = torch.constant.int 3
    %361 = torch.aten.unsqueeze %360, %int3_438 : !torch.vtensor<[1,512,1],f16>, !torch.int -> !torch.vtensor<[1,512,1,1],f16>
    %362 = torch.aten.mul.Tensor %353, %361 : !torch.vtensor<[8,512,128,128],f32>, !torch.vtensor<[1,512,1,1],f16> -> !torch.vtensor<[8,512,128,128],f32>
    %int1_439 = torch.constant.int 1
    %363 = torch.aten.add.Tensor %362, %357, %int1_439 : !torch.vtensor<[8,512,128,128],f32>, !torch.vtensor<[1,512,1,1],f16>, !torch.int -> !torch.vtensor<[8,512,128,128],f32>
    %int5_440 = torch.constant.int 5
    %364 = torch.prims.convert_element_type %363, %int5_440 : !torch.vtensor<[8,512,128,128],f32>, !torch.int -> !torch.vtensor<[8,512,128,128],f16>
    %365 = torch.aten.silu %364 : !torch.vtensor<[8,512,128,128],f16> -> !torch.vtensor<[8,512,128,128],f16>
    %none_441 = torch.constant.none
    %366 = torch.aten.clone %365, %none_441 : !torch.vtensor<[8,512,128,128],f16>, !torch.none -> !torch.vtensor<[8,512,128,128],f16>
    %__auto.vae.decoder.up_blocks.0.resnets.1.conv2.weight = util.global.load @__auto.vae.decoder.up_blocks.0.resnets.1.conv2.weight : tensor<512x512x3x3xf16>
    %367 = torch_c.from_builtin_tensor %__auto.vae.decoder.up_blocks.0.resnets.1.conv2.weight : tensor<512x512x3x3xf16> -> !torch.vtensor<[512,512,3,3],f16>
    %__auto.vae.decoder.up_blocks.0.resnets.1.conv2.bias = util.global.load @__auto.vae.decoder.up_blocks.0.resnets.1.conv2.bias : tensor<512xf16>
    %368 = torch_c.from_builtin_tensor %__auto.vae.decoder.up_blocks.0.resnets.1.conv2.bias : tensor<512xf16> -> !torch.vtensor<[512],f16>
    %int1_442 = torch.constant.int 1
    %int1_443 = torch.constant.int 1
    %369 = torch.prim.ListConstruct %int1_442, %int1_443 : (!torch.int, !torch.int) -> !torch.list<int>
    %int1_444 = torch.constant.int 1
    %int1_445 = torch.constant.int 1
    %370 = torch.prim.ListConstruct %int1_444, %int1_445 : (!torch.int, !torch.int) -> !torch.list<int>
    %int1_446 = torch.constant.int 1
    %int1_447 = torch.constant.int 1
    %371 = torch.prim.ListConstruct %int1_446, %int1_447 : (!torch.int, !torch.int) -> !torch.list<int>
    %false_448 = torch.constant.bool false
    %int0_449 = torch.constant.int 0
    %int0_450 = torch.constant.int 0
    %372 = torch.prim.ListConstruct %int0_449, %int0_450 : (!torch.int, !torch.int) -> !torch.list<int>
    %int1_451 = torch.constant.int 1
    %373 = torch.aten.convolution %366, %367, %368, %369, %370, %371, %false_448, %372, %int1_451 : !torch.vtensor<[8,512,128,128],f16>, !torch.vtensor<[512,512,3,3],f16>, !torch.vtensor<[512],f16>, !torch.list<int>, !torch.list<int>, !torch.list<int>, !torch.bool, !torch.list<int>, !torch.int -> !torch.vtensor<[8,512,128,128],f16>
    %int1_452 = torch.constant.int 1
    %374 = torch.aten.add.Tensor %314, %373, %int1_452 : !torch.vtensor<[8,512,128,128],f16>, !torch.vtensor<[8,512,128,128],f16>, !torch.int -> !torch.vtensor<[8,512,128,128],f16>
    %float1.000000e00_453 = torch.constant.float 1.000000e+00
    %375 = torch.aten.div.Scalar %374, %float1.000000e00_453 : !torch.vtensor<[8,512,128,128],f16>, !torch.float -> !torch.vtensor<[8,512,128,128],f16>
    %int8_454 = torch.constant.int 8
    %int32_455 = torch.constant.int 32
    %int16_456 = torch.constant.int 16
    %int16384_457 = torch.constant.int 16384
    %376 = torch.prim.ListConstruct %int8_454, %int32_455, %int16_456, %int16384_457 : (!torch.int, !torch.int, !torch.int, !torch.int) -> !torch.list<int>
    %377 = torch.aten.view %375, %376 : !torch.vtensor<[8,512,128,128],f16>, !torch.list<int> -> !torch.vtensor<[8,32,16,16384],f16>
    %int6_458 = torch.constant.int 6
    %378 = torch.prims.convert_element_type %377, %int6_458 : !torch.vtensor<[8,32,16,16384],f16>, !torch.int -> !torch.vtensor<[8,32,16,16384],f32>
    %int2_459 = torch.constant.int 2
    %int3_460 = torch.constant.int 3
    %379 = torch.prim.ListConstruct %int2_459, %int3_460 : (!torch.int, !torch.int) -> !torch.list<int>
    %int0_461 = torch.constant.int 0
    %true_462 = torch.constant.bool true
    %result0_463, %result1_464 = torch.aten.var_mean.correction %378, %379, %int0_461, %true_462 : !torch.vtensor<[8,32,16,16384],f32>, !torch.list<int>, !torch.int, !torch.bool -> !torch.vtensor<[8,32,1,1],f32>, !torch.vtensor<[8,32,1,1],f32>
    %float9.999990e-07_465 = torch.constant.float 9.9999999999999995E-7
    %int1_466 = torch.constant.int 1
    %380 = torch.aten.add.Scalar %result0_463, %float9.999990e-07_465, %int1_466 : !torch.vtensor<[8,32,1,1],f32>, !torch.float, !torch.int -> !torch.vtensor<[8,32,1,1],f32>
    %381 = torch.aten.rsqrt %380 : !torch.vtensor<[8,32,1,1],f32> -> !torch.vtensor<[8,32,1,1],f32>
    %int1_467 = torch.constant.int 1
    %382 = torch.aten.sub.Tensor %377, %result1_464, %int1_467 : !torch.vtensor<[8,32,16,16384],f16>, !torch.vtensor<[8,32,1,1],f32>, !torch.int -> !torch.vtensor<[8,32,16,16384],f32>
    %383 = torch.aten.mul.Tensor %382, %381 : !torch.vtensor<[8,32,16,16384],f32>, !torch.vtensor<[8,32,1,1],f32> -> !torch.vtensor<[8,32,16,16384],f32>
    %int8_468 = torch.constant.int 8
    %int512_469 = torch.constant.int 512
    %int128_470 = torch.constant.int 128
    %int128_471 = torch.constant.int 128
    %384 = torch.prim.ListConstruct %int8_468, %int512_469, %int128_470, %int128_471 : (!torch.int, !torch.int, !torch.int, !torch.int) -> !torch.list<int>
    %385 = torch.aten.view %383, %384 : !torch.vtensor<[8,32,16,16384],f32>, !torch.list<int> -> !torch.vtensor<[8,512,128,128],f32>
    %__auto.vae.decoder.up_blocks.0.resnets.2.norm1.bias = util.global.load @__auto.vae.decoder.up_blocks.0.resnets.2.norm1.bias : tensor<512xf16>
    %386 = torch_c.from_builtin_tensor %__auto.vae.decoder.up_blocks.0.resnets.2.norm1.bias : tensor<512xf16> -> !torch.vtensor<[512],f16>
    %int0_472 = torch.constant.int 0
    %387 = torch.aten.unsqueeze %386, %int0_472 : !torch.vtensor<[512],f16>, !torch.int -> !torch.vtensor<[1,512],f16>
    %int2_473 = torch.constant.int 2
    %388 = torch.aten.unsqueeze %387, %int2_473 : !torch.vtensor<[1,512],f16>, !torch.int -> !torch.vtensor<[1,512,1],f16>
    %int3_474 = torch.constant.int 3
    %389 = torch.aten.unsqueeze %388, %int3_474 : !torch.vtensor<[1,512,1],f16>, !torch.int -> !torch.vtensor<[1,512,1,1],f16>
    %__auto.vae.decoder.up_blocks.0.resnets.2.norm1.weight = util.global.load @__auto.vae.decoder.up_blocks.0.resnets.2.norm1.weight : tensor<512xf16>
    %390 = torch_c.from_builtin_tensor %__auto.vae.decoder.up_blocks.0.resnets.2.norm1.weight : tensor<512xf16> -> !torch.vtensor<[512],f16>
    %int0_475 = torch.constant.int 0
    %391 = torch.aten.unsqueeze %390, %int0_475 : !torch.vtensor<[512],f16>, !torch.int -> !torch.vtensor<[1,512],f16>
    %int2_476 = torch.constant.int 2
    %392 = torch.aten.unsqueeze %391, %int2_476 : !torch.vtensor<[1,512],f16>, !torch.int -> !torch.vtensor<[1,512,1],f16>
    %int3_477 = torch.constant.int 3
    %393 = torch.aten.unsqueeze %392, %int3_477 : !torch.vtensor<[1,512,1],f16>, !torch.int -> !torch.vtensor<[1,512,1,1],f16>
    %394 = torch.aten.mul.Tensor %385, %393 : !torch.vtensor<[8,512,128,128],f32>, !torch.vtensor<[1,512,1,1],f16> -> !torch.vtensor<[8,512,128,128],f32>
    %int1_478 = torch.constant.int 1
    %395 = torch.aten.add.Tensor %394, %389, %int1_478 : !torch.vtensor<[8,512,128,128],f32>, !torch.vtensor<[1,512,1,1],f16>, !torch.int -> !torch.vtensor<[8,512,128,128],f32>
    %int5_479 = torch.constant.int 5
    %396 = torch.prims.convert_element_type %395, %int5_479 : !torch.vtensor<[8,512,128,128],f32>, !torch.int -> !torch.vtensor<[8,512,128,128],f16>
    %397 = torch.aten.silu %396 : !torch.vtensor<[8,512,128,128],f16> -> !torch.vtensor<[8,512,128,128],f16>
    %__auto.vae.decoder.up_blocks.0.resnets.2.conv1.weight = util.global.load @__auto.vae.decoder.up_blocks.0.resnets.2.conv1.weight : tensor<512x512x3x3xf16>
    %398 = torch_c.from_builtin_tensor %__auto.vae.decoder.up_blocks.0.resnets.2.conv1.weight : tensor<512x512x3x3xf16> -> !torch.vtensor<[512,512,3,3],f16>
    %__auto.vae.decoder.up_blocks.0.resnets.2.conv1.bias = util.global.load @__auto.vae.decoder.up_blocks.0.resnets.2.conv1.bias : tensor<512xf16>
    %399 = torch_c.from_builtin_tensor %__auto.vae.decoder.up_blocks.0.resnets.2.conv1.bias : tensor<512xf16> -> !torch.vtensor<[512],f16>
    %int1_480 = torch.constant.int 1
    %int1_481 = torch.constant.int 1
    %400 = torch.prim.ListConstruct %int1_480, %int1_481 : (!torch.int, !torch.int) -> !torch.list<int>
    %int1_482 = torch.constant.int 1
    %int1_483 = torch.constant.int 1
    %401 = torch.prim.ListConstruct %int1_482, %int1_483 : (!torch.int, !torch.int) -> !torch.list<int>
    %int1_484 = torch.constant.int 1
    %int1_485 = torch.constant.int 1
    %402 = torch.prim.ListConstruct %int1_484, %int1_485 : (!torch.int, !torch.int) -> !torch.list<int>
    %false_486 = torch.constant.bool false
    %int0_487 = torch.constant.int 0
    %int0_488 = torch.constant.int 0
    %403 = torch.prim.ListConstruct %int0_487, %int0_488 : (!torch.int, !torch.int) -> !torch.list<int>
    %int1_489 = torch.constant.int 1
    %404 = torch.aten.convolution %397, %398, %399, %400, %401, %402, %false_486, %403, %int1_489 : !torch.vtensor<[8,512,128,128],f16>, !torch.vtensor<[512,512,3,3],f16>, !torch.vtensor<[512],f16>, !torch.list<int>, !torch.list<int>, !torch.list<int>, !torch.bool, !torch.list<int>, !torch.int -> !torch.vtensor<[8,512,128,128],f16>
    %int8_490 = torch.constant.int 8
    %int32_491 = torch.constant.int 32
    %int16_492 = torch.constant.int 16
    %int16384_493 = torch.constant.int 16384
    %405 = torch.prim.ListConstruct %int8_490, %int32_491, %int16_492, %int16384_493 : (!torch.int, !torch.int, !torch.int, !torch.int) -> !torch.list<int>
    %406 = torch.aten.view %404, %405 : !torch.vtensor<[8,512,128,128],f16>, !torch.list<int> -> !torch.vtensor<[8,32,16,16384],f16>
    %int6_494 = torch.constant.int 6
    %407 = torch.prims.convert_element_type %406, %int6_494 : !torch.vtensor<[8,32,16,16384],f16>, !torch.int -> !torch.vtensor<[8,32,16,16384],f32>
    %int2_495 = torch.constant.int 2
    %int3_496 = torch.constant.int 3
    %408 = torch.prim.ListConstruct %int2_495, %int3_496 : (!torch.int, !torch.int) -> !torch.list<int>
    %int0_497 = torch.constant.int 0
    %true_498 = torch.constant.bool true
    %result0_499, %result1_500 = torch.aten.var_mean.correction %407, %408, %int0_497, %true_498 : !torch.vtensor<[8,32,16,16384],f32>, !torch.list<int>, !torch.int, !torch.bool -> !torch.vtensor<[8,32,1,1],f32>, !torch.vtensor<[8,32,1,1],f32>
    %float9.999990e-07_501 = torch.constant.float 9.9999999999999995E-7
    %int1_502 = torch.constant.int 1
    %409 = torch.aten.add.Scalar %result0_499, %float9.999990e-07_501, %int1_502 : !torch.vtensor<[8,32,1,1],f32>, !torch.float, !torch.int -> !torch.vtensor<[8,32,1,1],f32>
    %410 = torch.aten.rsqrt %409 : !torch.vtensor<[8,32,1,1],f32> -> !torch.vtensor<[8,32,1,1],f32>
    %int1_503 = torch.constant.int 1
    %411 = torch.aten.sub.Tensor %406, %result1_500, %int1_503 : !torch.vtensor<[8,32,16,16384],f16>, !torch.vtensor<[8,32,1,1],f32>, !torch.int -> !torch.vtensor<[8,32,16,16384],f32>
    %412 = torch.aten.mul.Tensor %411, %410 : !torch.vtensor<[8,32,16,16384],f32>, !torch.vtensor<[8,32,1,1],f32> -> !torch.vtensor<[8,32,16,16384],f32>
    %int8_504 = torch.constant.int 8
    %int512_505 = torch.constant.int 512
    %int128_506 = torch.constant.int 128
    %int128_507 = torch.constant.int 128
    %413 = torch.prim.ListConstruct %int8_504, %int512_505, %int128_506, %int128_507 : (!torch.int, !torch.int, !torch.int, !torch.int) -> !torch.list<int>
    %414 = torch.aten.view %412, %413 : !torch.vtensor<[8,32,16,16384],f32>, !torch.list<int> -> !torch.vtensor<[8,512,128,128],f32>
    %__auto.vae.decoder.up_blocks.0.resnets.2.norm2.bias = util.global.load @__auto.vae.decoder.up_blocks.0.resnets.2.norm2.bias : tensor<512xf16>
    %415 = torch_c.from_builtin_tensor %__auto.vae.decoder.up_blocks.0.resnets.2.norm2.bias : tensor<512xf16> -> !torch.vtensor<[512],f16>
    %int0_508 = torch.constant.int 0
    %416 = torch.aten.unsqueeze %415, %int0_508 : !torch.vtensor<[512],f16>, !torch.int -> !torch.vtensor<[1,512],f16>
    %int2_509 = torch.constant.int 2
    %417 = torch.aten.unsqueeze %416, %int2_509 : !torch.vtensor<[1,512],f16>, !torch.int -> !torch.vtensor<[1,512,1],f16>
    %int3_510 = torch.constant.int 3
    %418 = torch.aten.unsqueeze %417, %int3_510 : !torch.vtensor<[1,512,1],f16>, !torch.int -> !torch.vtensor<[1,512,1,1],f16>
    %__auto.vae.decoder.up_blocks.0.resnets.2.norm2.weight = util.global.load @__auto.vae.decoder.up_blocks.0.resnets.2.norm2.weight : tensor<512xf16>
    %419 = torch_c.from_builtin_tensor %__auto.vae.decoder.up_blocks.0.resnets.2.norm2.weight : tensor<512xf16> -> !torch.vtensor<[512],f16>
    %int0_511 = torch.constant.int 0
    %420 = torch.aten.unsqueeze %419, %int0_511 : !torch.vtensor<[512],f16>, !torch.int -> !torch.vtensor<[1,512],f16>
    %int2_512 = torch.constant.int 2
    %421 = torch.aten.unsqueeze %420, %int2_512 : !torch.vtensor<[1,512],f16>, !torch.int -> !torch.vtensor<[1,512,1],f16>
    %int3_513 = torch.constant.int 3
    %422 = torch.aten.unsqueeze %421, %int3_513 : !torch.vtensor<[1,512,1],f16>, !torch.int -> !torch.vtensor<[1,512,1,1],f16>
    %423 = torch.aten.mul.Tensor %414, %422 : !torch.vtensor<[8,512,128,128],f32>, !torch.vtensor<[1,512,1,1],f16> -> !torch.vtensor<[8,512,128,128],f32>
    %int1_514 = torch.constant.int 1
    %424 = torch.aten.add.Tensor %423, %418, %int1_514 : !torch.vtensor<[8,512,128,128],f32>, !torch.vtensor<[1,512,1,1],f16>, !torch.int -> !torch.vtensor<[8,512,128,128],f32>
    %int5_515 = torch.constant.int 5
    %425 = torch.prims.convert_element_type %424, %int5_515 : !torch.vtensor<[8,512,128,128],f32>, !torch.int -> !torch.vtensor<[8,512,128,128],f16>
    %426 = torch.aten.silu %425 : !torch.vtensor<[8,512,128,128],f16> -> !torch.vtensor<[8,512,128,128],f16>
    %none_516 = torch.constant.none
    %427 = torch.aten.clone %426, %none_516 : !torch.vtensor<[8,512,128,128],f16>, !torch.none -> !torch.vtensor<[8,512,128,128],f16>
    %__auto.vae.decoder.up_blocks.0.resnets.2.conv2.weight = util.global.load @__auto.vae.decoder.up_blocks.0.resnets.2.conv2.weight : tensor<512x512x3x3xf16>
    %428 = torch_c.from_builtin_tensor %__auto.vae.decoder.up_blocks.0.resnets.2.conv2.weight : tensor<512x512x3x3xf16> -> !torch.vtensor<[512,512,3,3],f16>
    %__auto.vae.decoder.up_blocks.0.resnets.2.conv2.bias = util.global.load @__auto.vae.decoder.up_blocks.0.resnets.2.conv2.bias : tensor<512xf16>
    %429 = torch_c.from_builtin_tensor %__auto.vae.decoder.up_blocks.0.resnets.2.conv2.bias : tensor<512xf16> -> !torch.vtensor<[512],f16>
    %int1_517 = torch.constant.int 1
    %int1_518 = torch.constant.int 1
    %430 = torch.prim.ListConstruct %int1_517, %int1_518 : (!torch.int, !torch.int) -> !torch.list<int>
    %int1_519 = torch.constant.int 1
    %int1_520 = torch.constant.int 1
    %431 = torch.prim.ListConstruct %int1_519, %int1_520 : (!torch.int, !torch.int) -> !torch.list<int>
    %int1_521 = torch.constant.int 1
    %int1_522 = torch.constant.int 1
    %432 = torch.prim.ListConstruct %int1_521, %int1_522 : (!torch.int, !torch.int) -> !torch.list<int>
    %false_523 = torch.constant.bool false
    %int0_524 = torch.constant.int 0
    %int0_525 = torch.constant.int 0
    %433 = torch.prim.ListConstruct %int0_524, %int0_525 : (!torch.int, !torch.int) -> !torch.list<int>
    %int1_526 = torch.constant.int 1
    %434 = torch.aten.convolution %427, %428, %429, %430, %431, %432, %false_523, %433, %int1_526 : !torch.vtensor<[8,512,128,128],f16>, !torch.vtensor<[512,512,3,3],f16>, !torch.vtensor<[512],f16>, !torch.list<int>, !torch.list<int>, !torch.list<int>, !torch.bool, !torch.list<int>, !torch.int -> !torch.vtensor<[8,512,128,128],f16>
    %int1_527 = torch.constant.int 1
    %435 = torch.aten.add.Tensor %375, %434, %int1_527 : !torch.vtensor<[8,512,128,128],f16>, !torch.vtensor<[8,512,128,128],f16>, !torch.int -> !torch.vtensor<[8,512,128,128],f16>
    %float1.000000e00_528 = torch.constant.float 1.000000e+00
    %436 = torch.aten.div.Scalar %435, %float1.000000e00_528 : !torch.vtensor<[8,512,128,128],f16>, !torch.float -> !torch.vtensor<[8,512,128,128],f16>
    %int6_529 = torch.constant.int 6
    %437 = torch.prims.convert_element_type %436, %int6_529 : !torch.vtensor<[8,512,128,128],f16>, !torch.int -> !torch.vtensor<[8,512,128,128],f32>
    %int256 = torch.constant.int 256
    %int6_530 = torch.constant.int 6
    %none_531 = torch.constant.none
    %cpu = torch.constant.device "cpu"
    %false_532 = torch.constant.bool false
    %438 = torch.aten.arange %int256, %int6_530, %none_531, %cpu, %false_532 : !torch.int, !torch.int, !torch.none, !torch.Device, !torch.bool -> !torch.vtensor<[256],f32>
    %float0.000000e00 = torch.constant.float 0.000000e+00
    %int1_533 = torch.constant.int 1
    %439 = torch.aten.add.Scalar %438, %float0.000000e00, %int1_533 : !torch.vtensor<[256],f32>, !torch.float, !torch.int -> !torch.vtensor<[256],f32>
    %float5.000000e-01 = torch.constant.float 5.000000e-01
    %440 = torch.aten.mul.Scalar %439, %float5.000000e-01 : !torch.vtensor<[256],f32>, !torch.float -> !torch.vtensor<[256],f32>
    %int4 = torch.constant.int 4
    %441 = torch.prims.convert_element_type %440, %int4 : !torch.vtensor<[256],f32>, !torch.int -> !torch.vtensor<[256],si64>
    %int-1_534 = torch.constant.int -1
    %442 = torch.aten.unsqueeze %441, %int-1_534 : !torch.vtensor<[256],si64>, !torch.int -> !torch.vtensor<[256,1],si64>
    %int256_535 = torch.constant.int 256
    %int6_536 = torch.constant.int 6
    %none_537 = torch.constant.none
    %cpu_538 = torch.constant.device "cpu"
    %false_539 = torch.constant.bool false
    %443 = torch.aten.arange %int256_535, %int6_536, %none_537, %cpu_538, %false_539 : !torch.int, !torch.int, !torch.none, !torch.Device, !torch.bool -> !torch.vtensor<[256],f32>
    %float0.000000e00_540 = torch.constant.float 0.000000e+00
    %int1_541 = torch.constant.int 1
    %444 = torch.aten.add.Scalar %443, %float0.000000e00_540, %int1_541 : !torch.vtensor<[256],f32>, !torch.float, !torch.int -> !torch.vtensor<[256],f32>
    %float5.000000e-01_542 = torch.constant.float 5.000000e-01
    %445 = torch.aten.mul.Scalar %444, %float5.000000e-01_542 : !torch.vtensor<[256],f32>, !torch.float -> !torch.vtensor<[256],f32>
    %int4_543 = torch.constant.int 4
    %446 = torch.prims.convert_element_type %445, %int4_543 : !torch.vtensor<[256],f32>, !torch.int -> !torch.vtensor<[256],si64>
    %none_544 = torch.constant.none
    %none_545 = torch.constant.none
    %447 = torch.prim.ListConstruct %none_544, %none_545, %442, %446 : (!torch.none, !torch.none, !torch.vtensor<[256,1],si64>, !torch.vtensor<[256],si64>) -> !torch.list<optional<vtensor>>
    %448 = torch.aten.index.Tensor %437, %447 : !torch.vtensor<[8,512,128,128],f32>, !torch.list<optional<vtensor>> -> !torch.vtensor<[8,512,256,256],f32>
    %int2_546 = torch.constant.int 2
    %449 = torch.aten.clone %448, %int2_546 : !torch.vtensor<[8,512,256,256],f32>, !torch.int -> !torch.vtensor<[8,512,256,256],f32>
    %int5_547 = torch.constant.int 5
    %450 = torch.prims.convert_element_type %449, %int5_547 : !torch.vtensor<[8,512,256,256],f32>, !torch.int -> !torch.vtensor<[8,512,256,256],f16>
    %__auto.vae.decoder.up_blocks.0.upsamplers.0.conv.weight = util.global.load @__auto.vae.decoder.up_blocks.0.upsamplers.0.conv.weight : tensor<512x512x3x3xf16>
    %451 = torch_c.from_builtin_tensor %__auto.vae.decoder.up_blocks.0.upsamplers.0.conv.weight : tensor<512x512x3x3xf16> -> !torch.vtensor<[512,512,3,3],f16>
    %__auto.vae.decoder.up_blocks.0.upsamplers.0.conv.bias = util.global.load @__auto.vae.decoder.up_blocks.0.upsamplers.0.conv.bias : tensor<512xf16>
    %452 = torch_c.from_builtin_tensor %__auto.vae.decoder.up_blocks.0.upsamplers.0.conv.bias : tensor<512xf16> -> !torch.vtensor<[512],f16>
    %int1_548 = torch.constant.int 1
    %int1_549 = torch.constant.int 1
    %453 = torch.prim.ListConstruct %int1_548, %int1_549 : (!torch.int, !torch.int) -> !torch.list<int>
    %int1_550 = torch.constant.int 1
    %int1_551 = torch.constant.int 1
    %454 = torch.prim.ListConstruct %int1_550, %int1_551 : (!torch.int, !torch.int) -> !torch.list<int>
    %int1_552 = torch.constant.int 1
    %int1_553 = torch.constant.int 1
    %455 = torch.prim.ListConstruct %int1_552, %int1_553 : (!torch.int, !torch.int) -> !torch.list<int>
    %false_554 = torch.constant.bool false
    %int0_555 = torch.constant.int 0
    %int0_556 = torch.constant.int 0
    %456 = torch.prim.ListConstruct %int0_555, %int0_556 : (!torch.int, !torch.int) -> !torch.list<int>
    %int1_557 = torch.constant.int 1
    %457 = torch.aten.convolution %450, %451, %452, %453, %454, %455, %false_554, %456, %int1_557 : !torch.vtensor<[8,512,256,256],f16>, !torch.vtensor<[512,512,3,3],f16>, !torch.vtensor<[512],f16>, !torch.list<int>, !torch.list<int>, !torch.list<int>, !torch.bool, !torch.list<int>, !torch.int -> !torch.vtensor<[8,512,256,256],f16>
    %int8_558 = torch.constant.int 8
    %int32_559 = torch.constant.int 32
    %int16_560 = torch.constant.int 16
    %int65536 = torch.constant.int 65536
    %458 = torch.prim.ListConstruct %int8_558, %int32_559, %int16_560, %int65536 : (!torch.int, !torch.int, !torch.int, !torch.int) -> !torch.list<int>
    %459 = torch.aten.view %457, %458 : !torch.vtensor<[8,512,256,256],f16>, !torch.list<int> -> !torch.vtensor<[8,32,16,65536],f16>
    %int6_561 = torch.constant.int 6
    %460 = torch.prims.convert_element_type %459, %int6_561 : !torch.vtensor<[8,32,16,65536],f16>, !torch.int -> !torch.vtensor<[8,32,16,65536],f32>
    %int2_562 = torch.constant.int 2
    %int3_563 = torch.constant.int 3
    %461 = torch.prim.ListConstruct %int2_562, %int3_563 : (!torch.int, !torch.int) -> !torch.list<int>
    %int0_564 = torch.constant.int 0
    %true_565 = torch.constant.bool true
    %result0_566, %result1_567 = torch.aten.var_mean.correction %460, %461, %int0_564, %true_565 : !torch.vtensor<[8,32,16,65536],f32>, !torch.list<int>, !torch.int, !torch.bool -> !torch.vtensor<[8,32,1,1],f32>, !torch.vtensor<[8,32,1,1],f32>
    %float9.999990e-07_568 = torch.constant.float 9.9999999999999995E-7
    %int1_569 = torch.constant.int 1
    %462 = torch.aten.add.Scalar %result0_566, %float9.999990e-07_568, %int1_569 : !torch.vtensor<[8,32,1,1],f32>, !torch.float, !torch.int -> !torch.vtensor<[8,32,1,1],f32>
    %463 = torch.aten.rsqrt %462 : !torch.vtensor<[8,32,1,1],f32> -> !torch.vtensor<[8,32,1,1],f32>
    %int1_570 = torch.constant.int 1
    %464 = torch.aten.sub.Tensor %459, %result1_567, %int1_570 : !torch.vtensor<[8,32,16,65536],f16>, !torch.vtensor<[8,32,1,1],f32>, !torch.int -> !torch.vtensor<[8,32,16,65536],f32>
    %465 = torch.aten.mul.Tensor %464, %463 : !torch.vtensor<[8,32,16,65536],f32>, !torch.vtensor<[8,32,1,1],f32> -> !torch.vtensor<[8,32,16,65536],f32>
    %int8_571 = torch.constant.int 8
    %int512_572 = torch.constant.int 512
    %int256_573 = torch.constant.int 256
    %int256_574 = torch.constant.int 256
    %466 = torch.prim.ListConstruct %int8_571, %int512_572, %int256_573, %int256_574 : (!torch.int, !torch.int, !torch.int, !torch.int) -> !torch.list<int>
    %467 = torch.aten.view %465, %466 : !torch.vtensor<[8,32,16,65536],f32>, !torch.list<int> -> !torch.vtensor<[8,512,256,256],f32>
    %__auto.vae.decoder.up_blocks.1.resnets.0.norm1.bias = util.global.load @__auto.vae.decoder.up_blocks.1.resnets.0.norm1.bias : tensor<512xf16>
    %468 = torch_c.from_builtin_tensor %__auto.vae.decoder.up_blocks.1.resnets.0.norm1.bias : tensor<512xf16> -> !torch.vtensor<[512],f16>
    %int0_575 = torch.constant.int 0
    %469 = torch.aten.unsqueeze %468, %int0_575 : !torch.vtensor<[512],f16>, !torch.int -> !torch.vtensor<[1,512],f16>
    %int2_576 = torch.constant.int 2
    %470 = torch.aten.unsqueeze %469, %int2_576 : !torch.vtensor<[1,512],f16>, !torch.int -> !torch.vtensor<[1,512,1],f16>
    %int3_577 = torch.constant.int 3
    %471 = torch.aten.unsqueeze %470, %int3_577 : !torch.vtensor<[1,512,1],f16>, !torch.int -> !torch.vtensor<[1,512,1,1],f16>
    %__auto.vae.decoder.up_blocks.1.resnets.0.norm1.weight = util.global.load @__auto.vae.decoder.up_blocks.1.resnets.0.norm1.weight : tensor<512xf16>
    %472 = torch_c.from_builtin_tensor %__auto.vae.decoder.up_blocks.1.resnets.0.norm1.weight : tensor<512xf16> -> !torch.vtensor<[512],f16>
    %int0_578 = torch.constant.int 0
    %473 = torch.aten.unsqueeze %472, %int0_578 : !torch.vtensor<[512],f16>, !torch.int -> !torch.vtensor<[1,512],f16>
    %int2_579 = torch.constant.int 2
    %474 = torch.aten.unsqueeze %473, %int2_579 : !torch.vtensor<[1,512],f16>, !torch.int -> !torch.vtensor<[1,512,1],f16>
    %int3_580 = torch.constant.int 3
    %475 = torch.aten.unsqueeze %474, %int3_580 : !torch.vtensor<[1,512,1],f16>, !torch.int -> !torch.vtensor<[1,512,1,1],f16>
    %476 = torch.aten.mul.Tensor %467, %475 : !torch.vtensor<[8,512,256,256],f32>, !torch.vtensor<[1,512,1,1],f16> -> !torch.vtensor<[8,512,256,256],f32>
    %int1_581 = torch.constant.int 1
    %477 = torch.aten.add.Tensor %476, %471, %int1_581 : !torch.vtensor<[8,512,256,256],f32>, !torch.vtensor<[1,512,1,1],f16>, !torch.int -> !torch.vtensor<[8,512,256,256],f32>
    %int5_582 = torch.constant.int 5
    %478 = torch.prims.convert_element_type %477, %int5_582 : !torch.vtensor<[8,512,256,256],f32>, !torch.int -> !torch.vtensor<[8,512,256,256],f16>
    %479 = torch.aten.silu %478 : !torch.vtensor<[8,512,256,256],f16> -> !torch.vtensor<[8,512,256,256],f16>
    %__auto.vae.decoder.up_blocks.1.resnets.0.conv1.weight = util.global.load @__auto.vae.decoder.up_blocks.1.resnets.0.conv1.weight : tensor<512x512x3x3xf16>
    %480 = torch_c.from_builtin_tensor %__auto.vae.decoder.up_blocks.1.resnets.0.conv1.weight : tensor<512x512x3x3xf16> -> !torch.vtensor<[512,512,3,3],f16>
    %__auto.vae.decoder.up_blocks.1.resnets.0.conv1.bias = util.global.load @__auto.vae.decoder.up_blocks.1.resnets.0.conv1.bias : tensor<512xf16>
    %481 = torch_c.from_builtin_tensor %__auto.vae.decoder.up_blocks.1.resnets.0.conv1.bias : tensor<512xf16> -> !torch.vtensor<[512],f16>
    %int1_583 = torch.constant.int 1
    %int1_584 = torch.constant.int 1
    %482 = torch.prim.ListConstruct %int1_583, %int1_584 : (!torch.int, !torch.int) -> !torch.list<int>
    %int1_585 = torch.constant.int 1
    %int1_586 = torch.constant.int 1
    %483 = torch.prim.ListConstruct %int1_585, %int1_586 : (!torch.int, !torch.int) -> !torch.list<int>
    %int1_587 = torch.constant.int 1
    %int1_588 = torch.constant.int 1
    %484 = torch.prim.ListConstruct %int1_587, %int1_588 : (!torch.int, !torch.int) -> !torch.list<int>
    %false_589 = torch.constant.bool false
    %int0_590 = torch.constant.int 0
    %int0_591 = torch.constant.int 0
    %485 = torch.prim.ListConstruct %int0_590, %int0_591 : (!torch.int, !torch.int) -> !torch.list<int>
    %int1_592 = torch.constant.int 1
    %486 = torch.aten.convolution %479, %480, %481, %482, %483, %484, %false_589, %485, %int1_592 : !torch.vtensor<[8,512,256,256],f16>, !torch.vtensor<[512,512,3,3],f16>, !torch.vtensor<[512],f16>, !torch.list<int>, !torch.list<int>, !torch.list<int>, !torch.bool, !torch.list<int>, !torch.int -> !torch.vtensor<[8,512,256,256],f16>
    %int8_593 = torch.constant.int 8
    %int32_594 = torch.constant.int 32
    %int16_595 = torch.constant.int 16
    %int65536_596 = torch.constant.int 65536
    %487 = torch.prim.ListConstruct %int8_593, %int32_594, %int16_595, %int65536_596 : (!torch.int, !torch.int, !torch.int, !torch.int) -> !torch.list<int>
    %488 = torch.aten.view %486, %487 : !torch.vtensor<[8,512,256,256],f16>, !torch.list<int> -> !torch.vtensor<[8,32,16,65536],f16>
    %int6_597 = torch.constant.int 6
    %489 = torch.prims.convert_element_type %488, %int6_597 : !torch.vtensor<[8,32,16,65536],f16>, !torch.int -> !torch.vtensor<[8,32,16,65536],f32>
    %int2_598 = torch.constant.int 2
    %int3_599 = torch.constant.int 3
    %490 = torch.prim.ListConstruct %int2_598, %int3_599 : (!torch.int, !torch.int) -> !torch.list<int>
    %int0_600 = torch.constant.int 0
    %true_601 = torch.constant.bool true
…
    %__auto.vae.encoder.mid_block.resnets.0.conv2.weight = util.global.load @__auto.vae.encoder.mid_block.resnets.0.conv2.weight : tensor<512x512x3x3xf16>
    %588 = torch_c.from_builtin_tensor %__auto.vae.encoder.mid_block.resnets.0.conv2.weight : tensor<512x512x3x3xf16> -> !torch.vtensor<[512,512,3,3],f16>
    %__auto.vae.encoder.mid_block.resnets.0.conv2.bias = util.global.load @__auto.vae.encoder.mid_block.resnets.0.conv2.bias : tensor<512xf16>
    %589 = torch_c.from_builtin_tensor %__auto.vae.encoder.mid_block.resnets.0.conv2.bias : tensor<512xf16> -> !torch.vtensor<[512],f16>
    %int1_712 = torch.constant.int 1
    %int1_713 = torch.constant.int 1
    %590 = torch.prim.ListConstruct %int1_712, %int1_713 : (!torch.int, !torch.int) -> !torch.list<int>
    %int1_714 = torch.constant.int 1
    %int1_715 = torch.constant.int 1
    %591 = torch.prim.ListConstruct %int1_714, %int1_715 : (!torch.int, !torch.int) -> !torch.list<int>
    %int1_716 = torch.constant.int 1
    %int1_717 = torch.constant.int 1
    %592 = torch.prim.ListConstruct %int1_716, %int1_717 : (!torch.int, !torch.int) -> !torch.list<int>
    %false_718 = torch.constant.bool false
    %int0_719 = torch.constant.int 0
    %int0_720 = torch.constant.int 0
    %593 = torch.prim.ListConstruct %int0_719, %int0_720 : (!torch.int, !torch.int) -> !torch.list<int>
    %int1_721 = torch.constant.int 1
    %594 = torch.aten.convolution %587, %588, %589, %590, %591, %592, %false_718, %593, %int1_721 : !torch.vtensor<[8,512,128,128],f16>, !torch.vtensor<[512,512,3,3],f16>, !torch.vtensor<[512],f16>, !torch.list<int>, !torch.list<int>, !torch.list<int>, !torch.bool, !torch.list<int>, !torch.int -> !torch.vtensor<[8,512,128,128],f16>
    %int1_722 = torch.constant.int 1
    %595 = torch.aten.add.Tensor %535, %594, %int1_722 : !torch.vtensor<[8,512,128,128],f16>, !torch.vtensor<[8,512,128,128],f16>, !torch.int -> !torch.vtensor<[8,512,128,128],f16>
    %int1_723 = torch.constant.int 1
    %596 = torch.aten.div.Scalar %595, %int1_723 : !torch.vtensor<[8,512,128,128],f16>, !torch.int -> !torch.vtensor<[8,512,128,128],f16>
    %int8_724 = torch.constant.int 8
    %int512_725 = torch.constant.int 512
    %int16384_726 = torch.constant.int 16384
    %597 = torch.prim.ListConstruct %int8_724, %int512_725, %int16384_726 : (!torch.int, !torch.int, !torch.int) -> !torch.list<int>
    %598 = torch.aten.view %596, %597 : !torch.vtensor<[8,512,128,128],f16>, !torch.list<int> -> !torch.vtensor<[8,512,16384],f16>
    %int1_727 = torch.constant.int 1
    %int2_728 = torch.constant.int 2
    %599 = torch.aten.transpose.int %598, %int1_727, %int2_728 : !torch.vtensor<[8,512,16384],f16>, !torch.int, !torch.int -> !torch.vtensor<[8,16384,512],f16>
    %int1_729 = torch.constant.int 1
    %int2_730 = torch.constant.int 2
    %600 = torch.aten.transpose.int %599, %int1_729, %int2_730 : !torch.vtensor<[8,16384,512],f16>, !torch.int, !torch.int -> !torch.vtensor<[8,512,16384],f16>
    %int8_731 = torch.constant.int 8
    %int32_732 = torch.constant.int 32
    %int16_733 = torch.constant.int 16
    %int16384_734 = torch.constant.int 16384
    %601 = torch.prim.ListConstruct %int8_731, %int32_732, %int16_733, %int16384_734 : (!torch.int, !torch.int, !torch.int, !torch.int) -> !torch.list<int>
    %602 = torch.aten.view %600, %601 : !torch.vtensor<[8,512,16384],f16>, !torch.list<int> -> !torch.vtensor<[8,32,16,16384],f16>
    %int6_735 = torch.constant.int 6
    %603 = torch.prims.convert_element_type %602, %int6_735 : !torch.vtensor<[8,32,16,16384],f16>, !torch.int -> !torch.vtensor<[8,32,16,16384],f32>
    %int2_736 = torch.constant.int 2
    %int3_737 = torch.constant.int 3
    %604 = torch.prim.ListConstruct %int2_736, %int3_737 : (!torch.int, !torch.int) -> !torch.list<int>
    %int0_738 = torch.constant.int 0
    %true_739 = torch.constant.bool true
    %result0_740, %result1_741 = torch.aten.var_mean.correction %603, %604, %int0_738, %true_739 : !torch.vtensor<[8,32,16,16384],f32>, !torch.list<int>, !torch.int, !torch.bool -> !torch.vtensor<[8,32,1,1],f32>, !torch.vtensor<[8,32,1,1],f32>
    %float9.999990e-07_742 = torch.constant.float 9.9999999999999995E-7
    %int1_743 = torch.constant.int 1
    %605 = torch.aten.add.Scalar %result0_740, %float9.999990e-07_742, %int1_743 : !torch.vtensor<[8,32,1,1],f32>, !torch.float, !torch.int -> !torch.vtensor<[8,32,1,1],f32>
    %606 = torch.aten.rsqrt %605 : !torch.vtensor<[8,32,1,1],f32> -> !torch.vtensor<[8,32,1,1],f32>
    %int1_744 = torch.constant.int 1
    %607 = torch.aten.sub.Tensor %602, %result1_741, %int1_744 : !torch.vtensor<[8,32,16,16384],f16>, !torch.vtensor<[8,32,1,1],f32>, !torch.int -> !torch.vtensor<[8,32,16,16384],f32>
    %608 = torch.aten.mul.Tensor %607, %606 : !torch.vtensor<[8,32,16,16384],f32>, !torch.vtensor<[8,32,1,1],f32> -> !torch.vtensor<[8,32,16,16384],f32>
    %int8_745 = torch.constant.int 8
    %int512_746 = torch.constant.int 512
    %int16384_747 = torch.constant.int 16384
    %609 = torch.prim.ListConstruct %int8_745, %int512_746, %int16384_747 : (!torch.int, !torch.int, !torch.int) -> !torch.list<int>
    %610 = torch.aten.view %608, %609 : !torch.vtensor<[8,32,16,16384],f32>, !torch.list<int> -> !torch.vtensor<[8,512,16384],f32>
    %__auto.vae.encoder.mid_block.attentions.0.group_norm.bias = util.global.load @__auto.vae.encoder.mid_block.attentions.0.group_norm.bias : tensor<512xf16>
    %611 = torch_c.from_builtin_tensor %__auto.vae.encoder.mid_block.attentions.0.group_norm.bias : tensor<512xf16> -> !torch.vtensor<[512],f16>
    %int0_748 = torch.constant.int 0
    %612 = torch.aten.unsqueeze %611, %int0_748 : !torch.vtensor<[512],f16>, !torch.int -> !torch.vtensor<[1,512],f16>
    %int2_749 = torch.constant.int 2
    %613 = torch.aten.unsqueeze %612, %int2_749 : !torch.vtensor<[1,512],f16>, !torch.int -> !torch.vtensor<[1,512,1],f16>
    %__auto.vae.encoder.mid_block.attentions.0.group_norm.weight = util.global.load @__auto.vae.encoder.mid_block.attentions.0.group_norm.weight : tensor<512xf16>
    %614 = torch_c.from_builtin_tensor %__auto.vae.encoder.mid_block.attentions.0.group_norm.weight : tensor<512xf16> -> !torch.vtensor<[512],f16>
    %int0_750 = torch.constant.int 0
    %615 = torch.aten.unsqueeze %614, %int0_750 : !torch.vtensor<[512],f16>, !torch.int -> !torch.vtensor<[1,512],f16>
    %int2_751 = torch.constant.int 2
    %616 = torch.aten.unsqueeze %615, %int2_751 : !torch.vtensor<[1,512],f16>, !torch.int -> !torch.vtensor<[1,512,1],f16>
    %617 = torch.aten.mul.Tensor %610, %616 : !torch.vtensor<[8,512,16384],f32>, !torch.vtensor<[1,512,1],f16> -> !torch.vtensor<[8,512,16384],f32>
    %int1_752 = torch.constant.int 1
    %618 = torch.aten.add.Tensor %617, %613, %int1_752 : !torch.vtensor<[8,512,16384],f32>, !torch.vtensor<[1,512,1],f16>, !torch.int -> !torch.vtensor<[8,512,16384],f32>
    %int5_753 = torch.constant.int 5
    %619 = torch.prims.convert_element_type %618, %int5_753 : !torch.vtensor<[8,512,16384],f32>, !torch.int -> !torch.vtensor<[8,512,16384],f16>
    %int1_754 = torch.constant.int 1
    %int2_755 = torch.constant.int 2
    %620 = torch.aten.transpose.int %619, %int1_754, %int2_755 : !torch.vtensor<[8,512,16384],f16>, !torch.int, !torch.int -> !torch.vtensor<[8,16384,512],f16>
    %__auto.vae.encoder.mid_block.attentions.0.to_q.weight = util.global.load @__auto.vae.encoder.mid_block.attentions.0.to_q.weight : tensor<512x512xf16>
    %621 = torch_c.from_builtin_tensor %__auto.vae.encoder.mid_block.attentions.0.to_q.weight : tensor<512x512xf16> -> !torch.vtensor<[512,512],f16>
    %int0_756 = torch.constant.int 0
    %int1_757 = torch.constant.int 1
    %622 = torch.aten.transpose.int %621, %int0_756, %int1_757 : !torch.vtensor<[512,512],f16>, !torch.int, !torch.int -> !torch.vtensor<[512,512],f16>
    %int0_758 = torch.constant.int 0
    %623 = torch.aten.clone %620, %int0_758 : !torch.vtensor<[8,16384,512],f16>, !torch.int -> !torch.vtensor<[8,16384,512],f16>
    %int131072 = torch.constant.int 131072
    %int512_759 = torch.constant.int 512
    %624 = torch.prim.ListConstruct %int131072, %int512_759 : (!torch.int, !torch.int) -> !torch.list<int>
    %625 = torch.aten._unsafe_view %623, %624 : !torch.vtensor<[8,16384,512],f16>, !torch.list<int> -> !torch.vtensor<[131072,512],f16>
    %626 = torch.aten.mm %625, %622 : !torch.vtensor<[131072,512],f16>, !torch.vtensor<[512,512],f16> -> !torch.vtensor<[131072,512],f16>
    %int8_760 = torch.constant.int 8
    %int16384_761 = torch.constant.int 16384
    %int512_762 = torch.constant.int 512
    %627 = torch.prim.ListConstruct %int8_760, %int16384_761, %int512_762 : (!torch.int, !torch.int, !torch.int) -> !torch.list<int>
    %628 = torch.aten.view %626, %627 : !torch.vtensor<[131072,512],f16>, !torch.list<int> -> !torch.vtensor<[8,16384,512],f16>
    %__auto.vae.encoder.mid_block.attentions.0.to_q.bias = util.global.load @__auto.vae.encoder.mid_block.attentions.0.to_q.bias : tensor<512xf16>
    %629 = torch_c.from_builtin_tensor %__auto.vae.encoder.mid_block.attentions.0.to_q.bias : tensor<512xf16> -> !torch.vtensor<[512],f16>
    %int1_763 = torch.constant.int 1
    %630 = torch.aten.add.Tensor %628, %629, %int1_763 : !torch.vtensor<[8,16384,512],f16>, !torch.vtensor<[512],f16>, !torch.int -> !torch.vtensor<[8,16384,512],f16>
    %__auto.vae.encoder.mid_block.attentions.0.to_k.weight = util.global.load @__auto.vae.encoder.mid_block.attentions.0.to_k.weight : tensor<512x512xf16>
    %631 = torch_c.from_builtin_tensor %__auto.vae.encoder.mid_block.attentions.0.to_k.weight : tensor<512x512xf16> -> !torch.vtensor<[512,512],f16>
    %int0_764 = torch.constant.int 0
    %int1_765 = torch.constant.int 1
    %632 = torch.aten.transpose.int %631, %int0_764, %int1_765 : !torch.vtensor<[512,512],f16>, !torch.int, !torch.int -> !torch.vtensor<[512,512],f16>
    %int0_766 = torch.constant.int 0
    %633 = torch.aten.clone %620, %int0_766 : !torch.vtensor<[8,16384,512],f16>, !torch.int -> !torch.vtensor<[8,16384,512],f16>
    %int131072_767 = torch.constant.int 131072
    %int512_768 = torch.constant.int 512
    %634 = torch.prim.ListConstruct %int131072_767, %int512_768 : (!torch.int, !torch.int) -> !torch.list<int>
    %635 = torch.aten._unsafe_view %633, %634 : !torch.vtensor<[8,16384,512],f16>, !torch.list<int> -> !torch.vtensor<[131072,512],f16>
    %636 = torch.aten.mm %635, %632 : !torch.vtensor<[131072,512],f16>, !torch.vtensor<[512,512],f16> -> !torch.vtensor<[131072,512],f16>
    %int8_769 = torch.constant.int 8
    %int16384_770 = torch.constant.int 16384
    %int512_771 = torch.constant.int 512
    %637 = torch.prim.ListConstruct %int8_769, %int16384_770, %int512_771 : (!torch.int, !torch.int, !torch.int) -> !torch.list<int>
    %638 = torch.aten.view %636, %637 : !torch.vtensor<[131072,512],f16>, !torch.list<int> -> !torch.vtensor<[8,16384,512],f16>
    %__auto.vae.encoder.mid_block.attentions.0.to_k.bias = util.global.load @__auto.vae.encoder.mid_block.attentions.0.to_k.bias : tensor<512xf16>
    %639 = torch_c.from_builtin_tensor %__auto.vae.encoder.mid_block.attentions.0.to_k.bias : tensor<512xf16> -> !torch.vtensor<[512],f16>
    %int1_772 = torch.constant.int 1
    %640 = torch.aten.add.Tensor %638, %639, %int1_772 : !torch.vtensor<[8,16384,512],f16>, !torch.vtensor<[512],f16>, !torch.int -> !torch.vtensor<[8,16384,512],f16>
    %__auto.vae.encoder.mid_block.attentions.0.to_v.weight = util.global.load @__auto.vae.encoder.mid_block.attentions.0.to_v.weight : tensor<512x512xf16>
    %641 = torch_c.from_builtin_tensor %__auto.vae.encoder.mid_block.attentions.0.to_v.weight : tensor<512x512xf16> -> !torch.vtensor<[512,512],f16>
    %int0_773 = torch.constant.int 0
    %int1_774 = torch.constant.int 1
    %642 = torch.aten.transpose.int %641, %int0_773, %int1_774 : !torch.vtensor<[512,512],f16>, !torch.int, !torch.int -> !torch.vtensor<[512,512],f16>
    %int0_775 = torch.constant.int 0
    %643 = torch.aten.clone %620, %int0_775 : !torch.vtensor<[8,16384,512],f16>, !torch.int -> !torch.vtensor<[8,16384,512],f16>
    %int131072_776 = torch.constant.int 131072
    %int512_777 = torch.constant.int 512
    %644 = torch.prim.ListConstruct %int131072_776, %int512_777 : (!torch.int, !torch.int) -> !torch.list<int>
    %645 = torch.aten._unsafe_view %643, %644 : !torch.vtensor<[8,16384,512],f16>, !torch.list<int> -> !torch.vtensor<[131072,512],f16>
    %646 = torch.aten.mm %645, %642 : !torch.vtensor<[131072,512],f16>, !torch.vtensor<[512,512],f16> -> !torch.vtensor<[131072,512],f16>
    %int8_778 = torch.constant.int 8
    %int16384_779 = torch.constant.int 16384
    %int512_780 = torch.constant.int 512
    %647 = torch.prim.ListConstruct %int8_778, %int16384_779, %int512_780 : (!torch.int, !torch.int, !torch.int) -> !torch.list<int>
    %648 = torch.aten.view %646, %647 : !torch.vtensor<[131072,512],f16>, !torch.list<int> -> !torch.vtensor<[8,16384,512],f16>
    %__auto.vae.encoder.mid_block.attentions.0.to_v.bias = util.global.load @__auto.vae.encoder.mid_block.attentions.0.to_v.bias : tensor<512xf16>
    %649 = torch_c.from_builtin_tensor %__auto.vae.encoder.mid_block.attentions.0.to_v.bias : tensor<512xf16> -> !torch.vtensor<[512],f16>
    %int1_781 = torch.constant.int 1
    %650 = torch.aten.add.Tensor %648, %649, %int1_781 : !torch.vtensor<[8,16384,512],f16>, !torch.vtensor<[512],f16>, !torch.int -> !torch.vtensor<[8,16384,512],f16>
    %int8_782 = torch.constant.int 8
    %int-1 = torch.constant.int -1
    %int1_783 = torch.constant.int 1
    %int512_784 = torch.constant.int 512
    %651 = torch.prim.ListConstruct %int8_782, %int-1, %int1_783, %int512_784 : (!torch.int, !torch.int, !torch.int, !torch.int) -> !torch.list<int>
    %652 = torch.aten.view %630, %651 : !torch.vtensor<[8,16384,512],f16>, !torch.list<int> -> !torch.vtensor<[8,16384,1,512],f16>
    %int1_785 = torch.constant.int 1
    %int2_786 = torch.constant.int 2
    %653 = torch.aten.transpose.int %652, %int1_785, %int2_786 : !torch.vtensor<[8,16384,1,512],f16>, !torch.int, !torch.int -> !torch.vtensor<[8,1,16384,512],f16>
    %int8_787 = torch.constant.int 8
    %int-1_788 = torch.constant.int -1
    %int1_789 = torch.constant.int 1
    %int512_790 = torch.constant.int 512
    %654 = torch.prim.ListConstruct %int8_787, %int-1_788, %int1_789, %int512_790 : (!torch.int, !torch.int, !torch.int, !torch.int) -> !torch.list<int>
    %655 = torch.aten.view %640, %654 : !torch.vtensor<[8,16384,512],f16>, !torch.list<int> -> !torch.vtensor<[8,16384,1,512],f16>
    %int1_791 = torch.constant.int 1
    %int2_792 = torch.constant.int 2
    %656 = torch.aten.transpose.int %655, %int1_791, %int2_792 : !torch.vtensor<[8,16384,1,512],f16>, !torch.int, !torch.int -> !torch.vtensor<[8,1,16384,512],f16>
    %int8_793 = torch.constant.int 8
    %int-1_794 = torch.constant.int -1
    %int1_795 = torch.constant.int 1
    %int512_796 = torch.constant.int 512
    %657 = torch.prim.ListConstruct %int8_793, %int-1_794, %int1_795, %int512_796 : (!torch.int, !torch.int, !torch.int, !torch.int) -> !torch.list<int>
    %658 = torch.aten.view %650, %657 : !torch.vtensor<[8,16384,512],f16>, !torch.list<int> -> !torch.vtensor<[8,16384,1,512],f16>
    %int1_797 = torch.constant.int 1
    %int2_798 = torch.constant.int 2
    %659 = torch.aten.transpose.int %658, %int1_797, %int2_798 : !torch.vtensor<[8,16384,1,512],f16>, !torch.int, !torch.int -> !torch.vtensor<[8,1,16384,512],f16>
    %float2.102240e-01 = torch.constant.float 0.21022410381342863
    %660 = torch.aten.mul.Scalar %653, %float2.102240e-01 : !torch.vtensor<[8,1,16384,512],f16>, !torch.float -> !torch.vtensor<[8,1,16384,512],f16>
    %int-2 = torch.constant.int -2
    %int-1_799 = torch.constant.int -1
    %661 = torch.aten.transpose.int %656, %int-2, %int-1_799 : !torch.vtensor<[8,1,16384,512],f16>, !torch.int, !torch.int -> !torch.vtensor<[8,1,512,16384],f16>
    %float2.102240e-01_800 = torch.constant.float 0.21022410381342863
    %662 = torch.aten.mul.Scalar %661, %float2.102240e-01_800 : !torch.vtensor<[8,1,512,16384],f16>, !torch.float -> !torch.vtensor<[8,1,512,16384],f16>
    %int8_801 = torch.constant.int 8
    %int1_802 = torch.constant.int 1
    %int16384_803 = torch.constant.int 16384
    %int512_804 = torch.constant.int 512
    %663 = torch.prim.ListConstruct %int8_801, %int1_802, %int16384_803, %int512_804 : (!torch.int, !torch.int, !torch.int, !torch.int) -> !torch.list<int>
    %false_805 = torch.constant.bool false
    %664 = torch.aten.expand %660, %663, %false_805 : !torch.vtensor<[8,1,16384,512],f16>, !torch.list<int>, !torch.bool -> !torch.vtensor<[8,1,16384,512],f16>
    %int8_806 = torch.constant.int 8
    %int16384_807 = torch.constant.int 16384
    %int512_808 = torch.constant.int 512
    %665 = torch.prim.ListConstruct %int8_806, %int16384_807, %int512_808 : (!torch.int, !torch.int, !torch.int) -> !torch.list<int>
    %666 = torch.aten.view %664, %665 : !torch.vtensor<[8,1,16384,512],f16>, !torch.list<int> -> !torch.vtensor<[8,16384,512],f16>
    %int8_809 = torch.constant.int 8
    %int1_810 = torch.constant.int 1
    %int512_811 = torch.constant.int 512
    %int16384_812 = torch.constant.int 16384
    %667 = torch.prim.ListConstruct %int8_809, %int1_810, %int512_811, %int16384_812 : (!torch.int, !torch.int, !torch.int, !torch.int) -> !torch.list<int>
    %false_813 = torch.constant.bool false
    %668 = torch.aten.expand %662, %667, %false_813 : !torch.vtensor<[8,1,512,16384],f16>, !torch.list<int>, !torch.bool -> !torch.vtensor<[8,1,512,16384],f16>
    %int8_814 = torch.constant.int 8
    %int512_815 = torch.constant.int 512
    %int16384_816 = torch.constant.int 16384
    %669 = torch.prim.ListConstruct %int8_814, %int512_815, %int16384_816 : (!torch.int, !torch.int, !torch.int) -> !torch.list<int>
    %670 = torch.aten.view %668, %669 : !torch.vtensor<[8,1,512,16384],f16>, !torch.list<int> -> !torch.vtensor<[8,512,16384],f16>
    %671 = torch.aten.bmm %666, %670 : !torch.vtensor<[8,16384,512],f16>, !torch.vtensor<[8,512,16384],f16> -> !torch.vtensor<[8,16384,16384],f16>
    %int8_817 = torch.constant.int 8
    %int1_818 = torch.constant.int 1
    %int16384_819 = torch.constant.int 16384
    %int16384_820 = torch.constant.int 16384
    %672 = torch.prim.ListConstruct %int8_817, %int1_818, %int16384_819, %int16384_820 : (!torch.int, !torch.int, !torch.int, !torch.int) -> !torch.list<int>
    %673 = torch.aten.view %671, %672 : !torch.vtensor<[8,16384,16384],f16>, !torch.list<int> -> !torch.vtensor<[8,1,16384,16384],f16>
    %int-1_821 = torch.constant.int -1
    %false_822 = torch.constant.bool false
    %674 = torch.aten._softmax %673, %int-1_821, %false_822 : !torch.vtensor<[8,1,16384,16384],f16>, !torch.int, !torch.bool -> !torch.vtensor<[8,1,16384,16384],f16>
    %int8_823 = torch.constant.int 8
    %int1_824 = torch.constant.int 1
    %int16384_825 = torch.constant.int 16384
    %int16384_826 = torch.constant.int 16384
    %675 = torch.prim.ListConstruct %int8_823, %int1_824, %int16384_825, %int16384_826 : (!torch.int, !torch.int, !torch.int, !torch.int) -> !torch.list<int>
    %false_827 = torch.constant.bool false
    %676 = torch.aten.expand %674, %675, %false_827 : !torch.vtensor<[8,1,16384,16384],f16>, !torch.list<int>, !torch.bool -> !torch.vtensor<[8,1,16384,16384],f16>
    %int8_828 = torch.constant.int 8
    %int16384_829 = torch.constant.int 16384
    %int16384_830 = torch.constant.int 16384
    %677 = torch.prim.ListConstruct %int8_828, %int16384_829, %int16384_830 : (!torch.int, !torch.int, !torch.int) -> !torch.list<int>
    %678 = torch.aten.view %676, %677 : !torch.vtensor<[8,1,16384,16384],f16>, !torch.list<int> -> !torch.vtensor<[8,16384,16384],f16>
    %int8_831 = torch.constant.int 8
    %int1_832 = torch.constant.int 1
    %int16384_833 = torch.constant.int 16384
    %int512_834 = torch.constant.int 512
    %679 = torch.prim.ListConstruct %int8_831, %int1_832, %int16384_833, %int512_834 : (!torch.int, !torch.int, !torch.int, !torch.int) -> !torch.list<int>
    %false_835 = torch.constant.bool false
    %680 = torch.aten.expand %659, %679, %false_835 : !torch.vtensor<[8,1,16384,512],f16>, !torch.list<int>, !torch.bool -> !torch.vtensor<[8,1,16384,512],f16>
    %int8_836 = torch.constant.int 8
    %int16384_837 = torch.constant.int 16384
    %int512_838 = torch.constant.int 512
    %681 = torch.prim.ListConstruct %int8_836, %int16384_837, %int512_838 : (!torch.int, !torch.int, !torch.int) -> !torch.list<int>
    %682 = torch.aten.view %680, %681 : !torch.vtensor<[8,1,16384,512],f16>, !torch.list<int> -> !torch.vtensor<[8,16384,512],f16>
    %683 = torch.aten.bmm %678, %682 : !torch.vtensor<[8,16384,16384],f16>, !torch.vtensor<[8,16384,512],f16> -> !torch.vtensor<[8,16384,512],f16>
    %int8_839 = torch.constant.int 8
    %int1_840 = torch.constant.int 1
    %int16384_841 = torch.constant.int 16384
    %int512_842 = torch.constant.int 512
    %684 = torch.prim.ListConstruct %int8_839, %int1_840, %int16384_841, %int512_842 : (!torch.int, !torch.int, !torch.int, !torch.int) -> !torch.list<int>
    %685 = torch.aten.view %683, %684 : !torch.vtensor<[8,16384,512],f16>, !torch.list<int> -> !torch.vtensor<[8,1,16384,512],f16>
    %int1_843 = torch.constant.int 1
    %int2_844 = torch.constant.int 2
    %686 = torch.aten.transpose.int %685, %int1_843, %int2_844 : !torch.vtensor<[8,1,16384,512],f16>, !torch.int, !torch.int -> !torch.vtensor<[8,16384,1,512],f16>
    %int1_845 = torch.constant.int 1
    %int2_846 = torch.constant.int 2
    %687 = torch.aten.transpose.int %686, %int1_845, %int2_846 : !torch.vtensor<[8,16384,1,512],f16>, !torch.int, !torch.int -> !torch.vtensor<[8,1,16384,512],f16>
    %int1_847 = torch.constant.int 1
    %int2_848 = torch.constant.int 2
    %688 = torch.aten.transpose.int %687, %int1_847, %int2_848 : !torch.vtensor<[8,1,16384,512],f16>, !torch.int, !torch.int -> !torch.vtensor<[8,16384,1,512],f16>
    %int8_849 = torch.constant.int 8
    %int-1_850 = torch.constant.int -1
    %int512_851 = torch.constant.int 512
    %689 = torch.prim.ListConstruct %int8_849, %int-1_850, %int512_851 : (!torch.int, !torch.int, !torch.int) -> !torch.list<int>
    %690 = torch.aten.view %688, %689 : !torch.vtensor<[8,16384,1,512],f16>, !torch.list<int> -> !torch.vtensor<[8,16384,512],f16>
    %int5_852 = torch.constant.int 5
    %691 = torch.prims.convert_element_type %690, %int5_852 : !torch.vtensor<[8,16384,512],f16>, !torch.int -> !torch.vtensor<[8,16384,512],f16>
    %int131072_853 = torch.constant.int 131072
    %int512_854 = torch.constant.int 512
    %692 = torch.prim.ListConstruct %int131072_853, %int512_854 : (!torch.int, !torch.int) -> !torch.list<int>
    %693 = torch.aten.view %691, %692 : !torch.vtensor<[8,16384,512],f16>, !torch.list<int> -> !torch.vtensor<[131072,512],f16>
    %__auto.vae.encoder.mid_block.attentions.0.to_out.0.weight = util.global.load @__auto.vae.encoder.mid_block.attentions.0.to_out.0.weight : tensor<512x512xf16>
    %694 = torch_c.from_builtin_tensor %__auto.vae.encoder.mid_block.attentions.0.to_out.0.weight : tensor<512x512xf16> -> !torch.vtensor<[512,512],f16>
    %int0_855 = torch.constant.int 0
    %int1_856 = torch.constant.int 1
    %695 = torch.aten.transpose.int %694, %int0_855, %int1_856 : !torch.vtensor<[512,512],f16>, !torch.int, !torch.int -> !torch.vtensor<[512,512],f16>
    %__auto.vae.encoder.mid_block.attentions.0.to_out.0.bias = util.global.load @__auto.vae.encoder.mid_block.attentions.0.to_out.0.bias : tensor<512xf16>
    %696 = torch_c.from_builtin_tensor %__auto.vae.encoder.mid_block.attentions.0.to_out.0.bias : tensor<512xf16> -> !torch.vtensor<[512],f16>
    %int6_857 = torch.constant.int 6
    %697 = torch.prims.convert_element_type %696, %int6_857 : !torch.vtensor<[512],f16>, !torch.int -> !torch.vtensor<[512],f32>
    %int6_858 = torch.constant.int 6
    %698 = torch.prims.convert_element_type %693, %int6_858 : !torch.vtensor<[131072,512],f16>, !torch.int -> !torch.vtensor<[131072,512],f32>
    %int6_859 = torch.constant.int 6
    %699 = torch.prims.convert_element_type %695, %int6_859 : !torch.vtensor<[512,512],f16>, !torch.int -> !torch.vtensor<[512,512],f32>
    %700 = torch.aten.mm %698, %699 : !torch.vtensor<[131072,512],f32>, !torch.vtensor<[512,512],f32> -> !torch.vtensor<[131072,512],f32>
    %int1_860 = torch.constant.int 1
    %701 = torch.aten.mul.Scalar %700, %int1_860 : !torch.vtensor<[131072,512],f32>, !torch.int -> !torch.vtensor<[131072,512],f32>
    %int1_861 = torch.constant.int 1
    %702 = torch.aten.mul.Scalar %697, %int1_861 : !torch.vtensor<[512],f32>, !torch.int -> !torch.vtensor<[512],f32>
    %int1_862 = torch.constant.int 1
    %703 = torch.aten.add.Tensor %701, %702, %int1_862 : !torch.vtensor<[131072,512],f32>, !torch.vtensor<[512],f32>, !torch.int -> !torch.vtensor<[131072,512],f32>
    %int5_863 = torch.constant.int 5
    %704 = torch.prims.convert_element_type %703, %int5_863 : !torch.vtensor<[131072,512],f32>, !torch.int -> !torch.vtensor<[131072,512],f16>
    %int8_864 = torch.constant.int 8
    %int16384_865 = torch.constant.int 16384
    %int512_866 = torch.constant.int 512
    %705 = torch.prim.ListConstruct %int8_864, %int16384_865, %int512_866 : (!torch.int, !torch.int, !torch.int) -> !torch.list<int>
    %706 = torch.aten.view %704, %705 : !torch.vtensor<[131072,512],f16>, !torch.list<int> -> !torch.vtensor<[8,16384,512],f16>
    %none_867 = torch.constant.none
    %707 = torch.aten.clone %706, %none_867 : !torch.vtensor<[8,16384,512],f16>, !torch.none -> !torch.vtensor<[8,16384,512],f16>
    %int-1_868 = torch.constant.int -1
    %int-2_869 = torch.constant.int -2
    %708 = torch.aten.transpose.int %707, %int-1_868, %int-2_869 : !torch.vtensor<[8,16384,512],f16>, !torch.int, !torch.int -> !torch.vtensor<[8,512,16384],f16>
    %int8_870 = torch.constant.int 8
    %int512_871 = torch.constant.int 512
    %int128_872 = torch.constant.int 128
    %int128_873 = torch.constant.int 128
    %709 = torch.prim.ListConstruct %int8_870, %int512_871, %int128_872, %int128_873 : (!torch.int, !torch.int, !torch.int, !torch.int) -> !torch.list<int>
    %710 = torch.aten.view %708, %709 : !torch.vtensor<[8,512,16384],f16>, !torch.list<int> -> !torch.vtensor<[8,512,128,128],f16>
    %int1_874 = torch.constant.int 1
    %711 = torch.aten.add.Tensor %710, %596, %int1_874 : !torch.vtensor<[8,512,128,128],f16>, !torch.vtensor<[8,512,128,128],f16>, !torch.int -> !torch.vtensor<[8,512,128,128],f16>
    %int1_875 = torch.constant.int 1
    %712 = torch.aten.div.Scalar %711, %int1_875 : !torch.vtensor<[8,512,128,128],f16>, !torch.int -> !torch.vtensor<[8,512,128,128],f16>
    %int8_876 = torch.constant.int 8
    %int32_877 = torch.constant.int 32
    %int16_878 = torch.constant.int 16
    %int16384_879 = torch.constant.int 16384
    %713 = torch.prim.ListConstruct %int8_876, %int32_877, %int16_878, %int16384_879 : (!torch.int, !torch.int, !torch.int, !torch.int) -> !torch.list<int>
    %714 = torch.aten.view %712, %713 : !torch.vtensor<[8,512,128,128],f16>, !torch.list<int> -> !torch.vtensor<[8,32,16,16384],f16>
    %int6_880 = torch.constant.int 6
    %715 = torch.prims.convert_element_type %714, %int6_880 : !torch.vtensor<[8,32,16,16384],f16>, !torch.int -> !torch.vtensor<[8,32,16,16384],f32>
    %int2_881 = torch.constant.int 2
    %int3_882 = torch.constant.int 3
    %716 = torch.prim.ListConstruct %int2_881, %int3_882 : (!torch.int, !torch.int) -> !torch.list<int>
    %int0_883 = torch.constant.int 0
    %true_884 = torch.constant.bool true
    %result0_885, %result1_886 = torch.aten.var_mean.correction %715, %716, %int0_883, %true_884 : !torch.vtensor<[8,32,16,16384],f32>, !torch.list<int>, !torch.int, !torch.bool -> !torch.vtensor<[8,32,1,1],f32>, !torch.vtensor<[8,32,1,1],f32>
    %float9.999990e-07_887 = torch.constant.float 9.9999999999999995E-7
    %int1_888 = torch.constant.int 1
    %717 = torch.aten.add.Scalar %result0_885, %float9.999990e-07_887, %int1_888 : !torch.vtensor<[8,32,1,1],f32>, !torch.float, !torch.int -> !torch.vtensor<[8,32,1,1],f32>
    %718 = torch.aten.rsqrt %717 : !torch.vtensor<[8,32,1,1],f32> -> !torch.vtensor<[8,32,1,1],f32>
    %int1_889 = torch.constant.int 1
    %719 = torch.aten.sub.Tensor %714, %result1_886, %int1_889 : !torch.vtensor<[8,32,16,16384],f16>, !torch.vtensor<[8,32,1,1],f32>, !torch.int -> !torch.vtensor<[8,32,16,16384],f32>
    %720 = torch.aten.mul.Tensor %719, %718 : !torch.vtensor<[8,32,16,16384],f32>, !torch.vtensor<[8,32,1,1],f32> -> !torch.vtensor<[8,32,16,16384],f32>
    %int8_890 = torch.constant.int 8
    %int512_891 = torch.constant.int 512
    %int128_892 = torch.constant.int 128
    %int128_893 = torch.constant.int 128
    %721 = torch.prim.ListConstruct %int8_890, %int512_891, %int128_892, %int128_893 : (!torch.int, !torch.int, !torch.int, !torch.int) -> !torch.list<int>
    %722 = torch.aten.view %720, %721 : !torch.vtensor<[8,32,16,16384],f32>, !torch.list<int> -> !torch.vtensor<[8,512,128,128],f32>
    %__auto.vae.encoder.mid_block.resnets.1.norm1.bias = util.global.load @__auto.vae.encoder.mid_block.resnets.1.norm1.bias : tensor<512xf16>
    %723 = torch_c.from_builtin_tensor %__auto.vae.encoder.mid_block.resnets.1.norm1.bias : tensor<512xf16> -> !torch.vtensor<[512],f16>
    %int0_894 = torch.constant.int 0
    %724 = torch.aten.unsqueeze %723, %int0_894 : !torch.vtensor<[512],f16>, !torch.int -> !torch.vtensor<[1,512],f16>
    %int2_895 = torch.constant.int 2
    %725 = torch.aten.unsqueeze %724, %int2_895 : !torch.vtensor<[1,512],f16>, !torch.int -> !torch.vtensor<[1,512,1],f16>
    %int3_896 = torch.constant.int 3
    %726 = torch.aten.unsqueeze %725, %int3_896 : !torch.vtensor<[1,512,1],f16>, !torch.int -> !torch.vtensor<[1,512,1,1],f16>
    %__auto.vae.encoder.mid_block.resnets.1.norm1.weight = util.global.load @__auto.vae.encoder.mid_block.resnets.1.norm1.weight : tensor<512xf16>
    %727 = torch_c.from_builtin_tensor %__auto.vae.encoder.mid_block.resnets.1.norm1.weight : tensor<512xf16> -> !torch.vtensor<[512],f16>
    %int0_897 = torch.constant.int 0
    %728 = torch.aten.unsqueeze %727, %int0_897 : !torch.vtensor<[512],f16>, !torch.int -> !torch.vtensor<[1,512],f16>
    %int2_898 = torch.constant.int 2
    %729 = torch.aten.unsqueeze %728, %int2_898 : !torch.vtensor<[1,512],f16>, !torch.int -> !torch.vtensor<[1,512,1],f16>
    %int3_899 = torch.constant.int 3
    %730 = torch.aten.unsqueeze %729, %int3_899 : !torch.vtensor<[1,512,1],f16>, !torch.int -> !torch.vtensor<[1,512,1,1],f16>
    %731 = torch.aten.mul.Tensor %722, %730 : !torch.vtensor<[8,512,128,128],f32>, !torch.vtensor<[1,512,1,1],f16> -> !torch.vtensor<[8,512,128,128],f32>
    %int1_900 = torch.constant.int 1
    %732 = torch.aten.add.Tensor %731, %726, %int1_900 : !torch.vtensor<[8,512,128,128],f32>, !torch.vtensor<[1,512,1,1],f16>, !torch.int -> !torch.vtensor<[8,512,128,128],f32>
    %int5_901 = torch.constant.int 5
    %733 = torch.prims.convert_element_type %732, %int5_901 : !torch.vtensor<[8,512,128,128],f32>, !torch.int -> !torch.vtensor<[8,512,128,128],f16>
    %734 = torch.aten.silu %733 : !torch.vtensor<[8,512,128,128],f16> -> !torch.vtensor<[8,512,128,128],f16>
    %__auto.vae.encoder.mid_block.resnets.1.conv1.weight = util.global.load @__auto.vae.encoder.mid_block.resnets.1.conv1.weight : tensor<512x512x3x3xf16>
    %735 = torch_c.from_builtin_tensor %__auto.vae.encoder.mid_block.resnets.1.conv1.weight : tensor<512x512x3x3xf16> -> !torch.vtensor<[512,512,3,3],f16>
    %__auto.vae.encoder.mid_block.resnets.1.conv1.bias = util.global.load @__auto.vae.encoder.mid_block.resnets.1.conv1.bias : tensor<512xf16>
    %736 = torch_c.from_builtin_tensor %__auto.vae.encoder.mid_block.resnets.1.conv1.bias : tensor<512xf16> -> !torch.vtensor<[512],f16>
    %int1_902 = torch.constant.int 1
    %int1_903 = torch.constant.int 1
    %737 = torch.prim.ListConstruct %int1_902, %int1_903 : (!torch.int, !torch.int) -> !torch.list<int>
    %int1_904 = torch.constant.int 1
    %int1_905 = torch.constant.int 1
    %738 = torch.prim.ListConstruct %int1_904, %int1_905 : (!torch.int, !torch.int) -> !torch.list<int>
    %int1_906 = torch.constant.int 1
    %int1_907 = torch.constant.int 1
    %739 = torch.prim.ListConstruct %int1_906, %int1_907 : (!torch.int, !torch.int) -> !torch.list<int>
    %false_908 = torch.constant.bool false
    %int0_909 = torch.constant.int 0
    %int0_910 = torch.constant.int 0
    %740 = torch.prim.ListConstruct %int0_909, %int0_910 : (!torch.int, !torch.int) -> !torch.list<int>
    %int1_911 = torch.constant.int 1
    %741 = torch.aten.convolution %734, %735, %736, %737, %738, %739, %false_908, %740, %int1_911 : !torch.vtensor<[8,512,128,128],f16>, !torch.vtensor<[512,512,3,3],f16>, !torch.vtensor<[512],f16>, !torch.list<int>, !torch.list<int>, !torch.list<int>, !torch.bool, !torch.list<int>, !torch.int -> !torch.vtensor<[8,512,128,128],f16>
    %int8_912 = torch.constant.int 8
    %int32_913 = torch.constant.int 32
    %int16_914 = torch.constant.int 16
    %int16384_915 = torch.constant.int 16384
    %742 = torch.prim.ListConstruct %int8_912, %int32_913, %int16_914, %int16384_915 : (!torch.int, !torch.int, !torch.int, !torch.int) -> !torch.list<int>
    %743 = torch.aten.view %741, %742 : !torch.vtensor<[8,512,128,128],f16>, !torch.list<int> -> !torch.vtensor<[8,32,16,16384],f16>
    %int6_916 = torch.constant.int 6
    %744 = torch.prims.convert_element_type %743, %int6_916 : !torch.vtensor<[8,32,16,16384],f16>, !torch.int -> !torch.vtensor<[8,32,16,16384],f32>
    %int2_917 = torch.constant.int 2
    %int3_918 = torch.constant.int 3
    %745 = torch.prim.ListConstruct %int2_917, %int3_918 : (!torch.int, !torch.int) -> !torch.list<int>
    %int0_919 = torch.constant.int 0
    %true_920 = torch.constant.bool true
    %result0_921, %result1_922 = torch.aten.var_mean.correction %744, %745, %int0_919, %true_920 : !torch.vtensor<[8,32,16,16384],f32>, !torch.list<int>, !torch.int, !torch.bool -> !torch.vtensor<[8,32,1,1],f32>, !torch.vtensor<[8,32,1,1],f32>
    %float9.999990e-07_923 = torch.constant.float 9.9999999999999995E-7
    %int1_924 = torch.constant.int 1
    %746 = torch.aten.add.Scalar %result0_921, %float9.999990e-07_923, %int1_924 : !torch.vtensor<[8,32,1,1],f32>, !torch.float, !torch.int -> !torch.vtensor<[8,32,1,1],f32>
    %747 = torch.aten.rsqrt %746 : !torch.vtensor<[8,32,1,1],f32> -> !torch.vtensor<[8,32,1,1],f32>
    %int1_925 = torch.constant.int 1
    %748 = torch.aten.sub.Tensor %743, %result1_922, %int1_925 : !torch.vtensor<[8,32,16,16384],f16>, !torch.vtensor<[8,32,1,1],f32>, !torch.int -> !torch.vtensor<[8,32,16,16384],f32>
    %749 = torch.aten.mul.Tensor %748, %747 : !torch.vtensor<[8,32,16,16384],f32>, !torch.vtensor<[8,32,1,1],f32> -> !torch.vtensor<[8,32,16,16384],f32>
    %int8_926 = torch.constant.int 8
    %int512_927 = torch.constant.int 512
    %int128_928 = torch.constant.int 128
    %int128_929 = torch.constant.int 128
    %750 = torch.prim.ListConstruct %int8_926, %int512_927, %int128_928, %int128_929 : (!torch.int, !torch.int, !torch.int, !torch.int) -> !torch.list<int>
    %751 = torch.aten.view %749, %750 : !torch.vtensor<[8,32,16,16384],f32>, !torch.list<int> -> !torch.vtensor<[8,512,128,128],f32>
    %__auto.vae.encoder.mid_block.resnets.1.norm2.bias = util.global.load @__auto.vae.encoder.mid_block.resnets.1.norm2.bias : tensor<512xf16>
    %752 = torch_c.from_builtin_tensor %__auto.vae.encoder.mid_block.resnets.1.norm2.bias : tensor<512xf16> -> !torch.vtensor<[512],f16>
    %int0_930 = torch.constant.int 0
    %753 = torch.aten.unsqueeze %752, %int0_930 : !torch.vtensor<[512],f16>, !torch.int -> !torch.vtensor<[1,512],f16>
    %int2_931 = torch.constant.int 2
    %754 = torch.aten.unsqueeze %753, %int2_931 : !torch.vtensor<[1,512],f16>, !torch.int -> !torch.vtensor<[1,512,1],f16>
    %int3_932 = torch.constant.int 3
    %755 = torch.aten.unsqueeze %754, %int3_932 : !torch.vtensor<[1,512,1],f16>, !torch.int -> !torch.vtensor<[1,512,1,1],f16>
    %__auto.vae.encoder.mid_block.resnets.1.norm2.weight = util.global.load @__auto.vae.encoder.mid_block.resnets.1.norm2.weight : tensor<512xf16>
    %756 = torch_c.from_builtin_tensor %__auto.vae.encoder.mid_block.resnets.1.norm2.weight : tensor<512xf16> -> !torch.vtensor<[512],f16>
    %int0_933 = torch.constant.int 0
    %757 = torch.aten.unsqueeze %756, %int0_933 : !torch.vtensor<[512],f16>, !torch.int -> !torch.vtensor<[1,512],f16>
    %int2_934 = torch.constant.int 2
    %758 = torch.aten.unsqueeze %757, %int2_934 : !torch.vtensor<[1,512],f16>, !torch.int -> !torch.vtensor<[1,512,1],f16>
    %int3_935 = torch.constant.int 3
    %759 = torch.aten.unsqueeze %758, %int3_935 : !torch.vtensor<[1,512,1],f16>, !torch.int -> !torch.vtensor<[1,512,1,1],f16>
    %760 = torch.aten.mul.Tensor %751, %759 : !torch.vtensor<[8,512,128,128],f32>, !torch.vtensor<[1,512,1,1],f16> -> !torch.vtensor<[8,512,128,128],f32>
    %int1_936 = torch.constant.int 1
    %761 = torch.aten.add.Tensor %760, %755, %int1_936 : !torch.vtensor<[8,512,128,128],f32>, !torch.vtensor<[1,512,1,1],f16>, !torch.int -> !torch.vtensor<[8,512,128,128],f32>
    %int5_937 = torch.constant.int 5
    %762 = torch.prims.convert_element_type %761, %int5_937 : !torch.vtensor<[8,512,128,128],f32>, !torch.int -> !torch.vtensor<[8,512,128,128],f16>
    %763 = torch.aten.silu %762 : !torch.vtensor<[8,512,128,128],f16> -> !torch.vtensor<[8,512,128,128],f16>
    %none_938 = torch.constant.none
    %764 = torch.aten.clone %763, %none_938 : !torch.vtensor<[8,512,128,128],f16>, !torch.none -> !torch.vtensor<[8,512,128,128],f16>
    %__auto.vae.encoder.mid_block.resnets.1.conv2.weight = util.global.load @__auto.vae.encoder.mid_block.resnets.1.conv2.weight : tensor<512x512x3x3xf16>
    %765 = torch_c.from_builtin_tensor %__auto.vae.encoder.mid_block.resnets.1.conv2.weight : tensor<512x512x3x3xf16> -> !torch.vtensor<[512,512,3,3],f16>
    %__auto.vae.encoder.mid_block.resnets.1.conv2.bias = util.global.load @__auto.vae.encoder.mid_block.resnets.1.conv2.bias : tensor<512xf16>
    %766 = torch_c.from_builtin_tensor %__auto.vae.encoder.mid_block.resnets.1.conv2.bias : tensor<512xf16> -> !torch.vtensor<[512],f16>
    %int1_939 = torch.constant.int 1
    %int1_940 = torch.constant.int 1
    %767 = torch.prim.ListConstruct %int1_939, %int1_940 : (!torch.int, !torch.int) -> !torch.list<int>
    %int1_941 = torch.constant.int 1
    %int1_942 = torch.constant.int 1
    %768 = torch.prim.ListConstruct %int1_941, %int1_942 : (!torch.int, !torch.int) -> !torch.list<int>
    %int1_943 = torch.constant.int 1
    %int1_944 = torch.constant.int 1
    %769 = torch.prim.ListConstruct %int1_943, %int1_944 : (!torch.int, !torch.int) -> !torch.list<int>
    %false_945 = torch.constant.bool false
    %int0_946 = torch.constant.int 0
    %int0_947 = torch.constant.int 0
    %770 = torch.prim.ListConstruct %int0_946, %int0_947 : (!torch.int, !torch.int) -> !torch.list<int>
    %int1_948 = torch.constant.int 1
    %771 = torch.aten.convolution %764, %765, %766, %767, %768, %769, %false_945, %770, %int1_948 : !torch.vtensor<[8,512,128,128],f16>, !torch.vtensor<[512,512,3,3],f16>, !torch.vtensor<[512],f16>, !torch.list<int>, !torch.list<int>, !torch.list<int>, !torch.bool, !torch.list<int>, !torch.int -> !torch.vtensor<[8,512,128,128],f16>
    %int1_949 = torch.constant.int 1
    %772 = torch.aten.add.Tensor %712, %771, %int1_949 : !torch.vtensor<[8,512,128,128],f16>, !torch.vtensor<[8,512,128,128],f16>, !torch.int -> !torch.vtensor<[8,512,128,128],f16>
    %int1_950 = torch.constant.int 1
    %773 = torch.aten.div.Scalar %772, %int1_950 : !torch.vtensor<[8,512,128,128],f16>, !torch.int -> !torch.vtensor<[8,512,128,128],f16>
    %int8_951 = torch.constant.int 8
    %int32_952 = torch.constant.int 32
    %int16_953 = torch.constant.int 16
    %int16384_954 = torch.constant.int 16384
    %774 = torch.prim.ListConstruct %int8_951, %int32_952, %int16_953, %int16384_954 : (!torch.int, !torch.int, !torch.int, !torch.int) -> !torch.list<int>
    %775 = torch.aten.view %773, %774 : !torch.vtensor<[8,512,128,128],f16>, !torch.list<int> -> !torch.vtensor<[8,32,16,16384],f16>
    %int6_955 = torch.constant.int 6
    %776 = torch.prims.convert_element_type %775, %int6_955 : !torch.vtensor<[8,32,16,16384],f16>, !torch.int -> !torch.vtensor<[8,32,16,16384],f32>
    %int2_956 = torch.constant.int 2
    %int3_957 = torch.constant.int 3
    %777 = torch.prim.ListConstruct %int2_956, %int3_957 : (!torch.int, !torch.int) -> !torch.list<int>
    %int0_958 = torch.constant.int 0
    %true_959 = torch.constant.bool true
    %result0_960, %result1_961 = torch.aten.var_mean.correction %776, %777, %int0_958, %true_959 : !torch.vtensor<[8,32,16,16384],f32>, !torch.list<int>, !torch.int, !torch.bool -> !torch.vtensor<[8,32,1,1],f32>, !torch.vtensor<[8,32,1,1],f32>
    %float9.999990e-07_962 = torch.constant.float 9.9999999999999995E-7
    %int1_963 = torch.constant.int 1
    %778 = torch.aten.add.Scalar %result0_960, %float9.999990e-07_962, %int1_963 : !torch.vtensor<[8,32,1,1],f32>, !torch.float, !torch.int -> !torch.vtensor<[8,32,1,1],f32>
    %779 = torch.aten.rsqrt %778 : !torch.vtensor<[8,32,1,1],f32> -> !torch.vtensor<[8,32,1,1],f32>
    %int1_964 = torch.constant.int 1
    %780 = torch.aten.sub.Tensor %775, %result1_961, %int1_964 : !torch.vtensor<[8,32,16,16384],f16>, !torch.vtensor<[8,32,1,1],f32>, !torch.int -> !torch.vtensor<[8,32,16,16384],f32>
    %781 = torch.aten.mul.Tensor %780, %779 : !torch.vtensor<[8,32,16,16384],f32>, !torch.vtensor<[8,32,1,1],f32> -> !torch.vtensor<[8,32,16,16384],f32>
    %int8_965 = torch.constant.int 8
    %int512_966 = torch.constant.int 512
    %int128_967 = torch.constant.int 128
    %int128_968 = torch.constant.int 128
    %782 = torch.prim.ListConstruct %int8_965, %int512_966, %int128_967, %int128_968 : (!torch.int, !torch.int, !torch.int, !torch.int) -> !torch.list<int>
    %783 = torch.aten.view %781, %782 : !torch.vtensor<[8,32,16,16384],f32>, !torch.list<int> -> !torch.vtensor<[8,512,128,128],f32>
    %__auto.vae.encoder.conv_norm_out.bias = util.global.load @__auto.vae.encoder.conv_norm_out.bias : tensor<512xf16>
    %784 = torch_c.from_builtin_tensor %__auto.vae.encoder.conv_norm_out.bias : tensor<512xf16> -> !torch.vtensor<[512],f16>
    %int0_969 = torch.constant.int 0
    %785 = torch.aten.unsqueeze %784, %int0_969 : !torch.vtensor<[512],f16>, !torch.int -> !torch.vtensor<[1,512],f16>
    %int2_970 = torch.constant.int 2
    %786 = torch.aten.unsqueeze %785, %int2_970 : !torch.vtensor<[1,512],f16>, !torch.int -> !torch.vtensor<[1,512,1],f16>
    %int3_971 = torch.constant.int 3
    %787 = torch.aten.unsqueeze %786, %int3_971 : !torch.vtensor<[1,512,1],f16>, !torch.int -> !torch.vtensor<[1,512,1,1],f16>
    %__auto.vae.encoder.conv_norm_out.weight = util.global.load @__auto.vae.encoder.conv_norm_out.weight : tensor<512xf16>
    %788 = torch_c.from_builtin_tensor %__auto.vae.encoder.conv_norm_out.weight : tensor<512xf16> -> !torch.vtensor<[512],f16>
    %int0_972 = torch.constant.int 0
    %789 = torch.aten.unsqueeze %788, %int0_972 : !torch.vtensor<[512],f16>, !torch.int -> !torch.vtensor<[1,512],f16>
    %int2_973 = torch.constant.int 2
    %790 = torch.aten.unsqueeze %789, %int2_973 : !torch.vtensor<[1,512],f16>, !torch.int -> !torch.vtensor<[1,512,1],f16>
    %int3_974 = torch.constant.int 3
    %791 = torch.aten.unsqueeze %790, %int3_974 : !torch.vtensor<[1,512,1],f16>, !torch.int -> !torch.vtensor<[1,512,1,1],f16>
    %792 = torch.aten.mul.Tensor %783, %791 : !torch.vtensor<[8,512,128,128],f32>, !torch.vtensor<[1,512,1,1],f16> -> !torch.vtensor<[8,512,128,128],f32>
    %int1_975 = torch.constant.int 1
    %793 = torch.aten.add.Tensor %792, %787, %int1_975 : !torch.vtensor<[8,512,128,128],f32>, !torch.vtensor<[1,512,1,1],f16>, !torch.int -> !torch.vtensor<[8,512,128,128],f32>
    %int5_976 = torch.constant.int 5
    %794 = torch.prims.convert_element_type %793, %int5_976 : !torch.vtensor<[8,512,128,128],f32>, !torch.int -> !torch.vtensor<[8,512,128,128],f16>
    %795 = torch.aten.silu %794 : !torch.vtensor<[8,512,128,128],f16> -> !torch.vtensor<[8,512,128,128],f16>
    %__auto.vae.encoder.conv_out.weight = util.global.load @__auto.vae.encoder.conv_out.weight : tensor<8x512x3x3xf16>
    %796 = torch_c.from_builtin_tensor %__auto.vae.encoder.conv_out.weight : tensor<8x512x3x3xf16> -> !torch.vtensor<[8,512,3,3],f16>
    %__auto.vae.encoder.conv_out.bias = util.global.load @__auto.vae.encoder.conv_out.bias : tensor<8xf16>
    %797 = torch_c.from_builtin_tensor %__auto.vae.encoder.conv_out.bias : tensor<8xf16> -> !torch.vtensor<[8],f16>
    %int1_977 = torch.constant.int 1
    %int1_978 = torch.constant.int 1
    %798 = torch.prim.ListConstruct %int1_977, %int1_978 : (!torch.int, !torch.int) -> !torch.list<int>
    %int1_979 = torch.constant.int 1
    %int1_980 = torch.constant.int 1
    %799 = torch.prim.ListConstruct %int1_979, %int1_980 : (!torch.int, !torch.int) -> !torch.list<int>
    %int1_981 = torch.constant.int 1
    %int1_982 = torch.constant.int 1
    %800 = torch.prim.ListConstruct %int1_981, %int1_982 : (!torch.int, !torch.int) -> !torch.list<int>
    %false_983 = torch.constant.bool false
    %int0_984 = torch.constant.int 0
    %int0_985 = torch.constant.int 0
    %801 = torch.prim.ListConstruct %int0_984, %int0_985 : (!torch.int, !torch.int) -> !torch.list<int>
    %int1_986 = torch.constant.int 1
    %802 = torch.aten.convolution %795, %796, %797, %798, %799, %800, %false_983, %801, %int1_986 : !torch.vtensor<[8,512,128,128],f16>, !torch.vtensor<[8,512,3,3],f16>, !torch.vtensor<[8],f16>, !torch.list<int>, !torch.list<int>, !torch.list<int>, !torch.bool, !torch.list<int>, !torch.int -> !torch.vtensor<[8,8,128,128],f16>
    %__auto.vae.quant_conv.weight = util.global.load @__auto.vae.quant_conv.weight : tensor<8x8x1x1xf16>
    %803 = torch_c.from_builtin_tensor %__auto.vae.quant_conv.weight : tensor<8x8x1x1xf16> -> !torch.vtensor<[8,8,1,1],f16>
    %__auto.vae.quant_conv.bias = util.global.load @__auto.vae.quant_conv.bias : tensor<8xf16>
    %804 = torch_c.from_builtin_tensor %__auto.vae.quant_conv.bias : tensor<8xf16> -> !torch.vtensor<[8],f16>
    %int1_987 = torch.constant.int 1
    %int1_988 = torch.constant.int 1
    %805 = torch.prim.ListConstruct %int1_987, %int1_988 : (!torch.int, !torch.int) -> !torch.list<int>
    %int0_989 = torch.constant.int 0
    %int0_990 = torch.constant.int 0
    %806 = torch.prim.ListConstruct %int0_989, %int0_990 : (!torch.int, !torch.int) -> !torch.list<int>
    %int1_991 = torch.constant.int 1
    %int1_992 = torch.constant.int 1
    %807 = torch.prim.ListConstruct %int1_991, %int1_992 : (!torch.int, !torch.int) -> !torch.list<int>
    %false_993 = torch.constant.bool false
    %int0_994 = torch.constant.int 0
    %int0_995 = torch.constant.int 0
    %808 = torch.prim.ListConstruct %int0_994, %int0_995 : (!torch.int, !torch.int) -> !torch.list<int>
    %int1_996 = torch.constant.int 1
    %809 = torch.aten.convolution %802, %803, %804, %805, %806, %807, %false_993, %808, %int1_996 : !torch.vtensor<[8,8,128,128],f16>, !torch.vtensor<[8,8,1,1],f16>, !torch.vtensor<[8],f16>, !torch.list<int>, !torch.list<int>, !torch.list<int>, !torch.bool, !torch.list<int>, !torch.int -> !torch.vtensor<[8,8,128,128],f16>
    %int1_997 = torch.constant.int 1
    %int0_998 = torch.constant.int 0
    %int4_999 = torch.constant.int 4
    %int1_1000 = torch.constant.int 1
    %810 = torch.aten.slice.Tensor %809, %int1_997, %int0_998, %int4_999, %int1_1000 : !torch.vtensor<[8,8,128,128],f16>, !torch.int, !torch.int, !torch.int, !torch.int -> !torch.vtensor<[8,4,128,128],f16>
    %int1_1001 = torch.constant.int 1
    %int4_1002 = torch.constant.int 4
    %int8_1003 = torch.constant.int 8
    %int1_1004 = torch.constant.int 1
    %811 = torch.aten.slice.Tensor %809, %int1_1001, %int4_1002, %int8_1003, %int1_1004 : !torch.vtensor<[8,8,128,128],f16>, !torch.int, !torch.int, !torch.int, !torch.int -> !torch.vtensor<[8,4,128,128],f16>
    %float-3.000000e01 = torch.constant.float -3.000000e+01
    %float2.000000e01 = torch.constant.float 2.000000e+01
    %812 = torch.aten.clamp %811, %float-3.000000e01, %float2.000000e01 : !torch.vtensor<[8,4,128,128],f16>, !torch.float, !torch.float -> !torch.vtensor<[8,4,128,128],f16>
    %float5.000000e-01 = torch.constant.float 5.000000e-01
    %813 = torch.aten.mul.Scalar %812, %float5.000000e-01 : !torch.vtensor<[8,4,128,128],f16>, !torch.float -> !torch.vtensor<[8,4,128,128],f16>
    %814 = torch.aten.exp %813 : !torch.vtensor<[8,4,128,128],f16> -> !torch.vtensor<[8,4,128,128],f16>
    %int8_1005 = torch.constant.int 8
    %int4_1006 = torch.constant.int 4
    %int128_1007 = torch.constant.int 128
    %int128_1008 = torch.constant.int 128
    %815 = torch.prim.ListConstruct %int8_1005, %int4_1006, %int128_1007, %int128_1008 : (!torch.int, !torch.int, !torch.int, !torch.int) -> !torch.list<int>
    %none_1009 = torch.constant.none
    %int5_1010 = torch.constant.int 5
    %int0_1011 = torch.constant.int 0
    %cpu = torch.constant.device "cpu"
    %false_1012 = torch.constant.bool false
    %816 = torch.aten.randn.generator %815, %none_1009, %int5_1010, %int0_1011, %cpu, %false_1012 : !torch.list<int>, !torch.none, !torch.int, !torch.int, !torch.Device, !torch.bool -> !torch.vtensor<[8,4,128,128],f16>
    %int5_1013 = torch.constant.int 5
    %817 = torch.prims.convert_element_type %816, %int5_1013 : !torch.vtensor<[8,4,128,128],f16>, !torch.int -> !torch.vtensor<[8,4,128,128],f16>
    %818 = torch.aten.mul.Tensor %814, %817 : !torch.vtensor<[8,4,128,128],f16>, !torch.vtensor<[8,4,128,128],f16> -> !torch.vtensor<[8,4,128,128],f16>
    %int1_1014 = torch.constant.int 1
    %819 = torch.aten.add.Tensor %810, %818, %int1_1014 : !torch.vtensor<[8,4,128,128],f16>, !torch.vtensor<[8,4,128,128],f16>, !torch.int -> !torch.vtensor<[8,4,128,128],f16>
    %float1.302500e-01 = torch.constant.float 1.302500e-01
    %820 = torch.aten.mul.Scalar %819, %float1.302500e-01 : !torch.vtensor<[8,4,128,128],f16>, !torch.float -> !torch.vtensor<[8,4,128,128],f16>
    return %820 : !torch.vtensor<[8,4,128,128],f16>
  }
}
