module @compiled_vae {
  util.global private @_params.vae.encoder.conv_in.weight {noinline} = #stream.parameter.named<"model"::"vae.encoder.conv_in.weight"> : tensor<128x3x3x3xf16>
  util.global private @_params.vae.encoder.conv_in.bias {noinline} = #stream.parameter.named<"model"::"vae.encoder.conv_in.bias"> : tensor<128xf16>
  util.global private @_params.vae.encoder.down_blocks.0.resnets.0.norm1.weight {noinline} = #stream.parameter.named<"model"::"vae.encoder.down_blocks.0.resnets.0.norm1.weight"> : tensor<128xf16>
  util.global private @_params.vae.encoder.down_blocks.0.resnets.0.norm1.bias {noinline} = #stream.parameter.named<"model"::"vae.encoder.down_blocks.0.resnets.0.norm1.bias"> : tensor<128xf16>
  util.global private @_params.vae.encoder.down_blocks.0.resnets.0.conv1.weight {noinline} = #stream.parameter.named<"model"::"vae.encoder.down_blocks.0.resnets.0.conv1.weight"> : tensor<128x128x3x3xf16>
  util.global private @_params.vae.encoder.down_blocks.0.resnets.0.conv1.bias {noinline} = #stream.parameter.named<"model"::"vae.encoder.down_blocks.0.resnets.0.conv1.bias"> : tensor<128xf16>
  util.global private @_params.vae.encoder.down_blocks.0.resnets.0.norm2.weight {noinline} = #stream.parameter.named<"model"::"vae.encoder.down_blocks.0.resnets.0.norm2.weight"> : tensor<128xf16>
  util.global private @_params.vae.encoder.down_blocks.0.resnets.0.norm2.bias {noinline} = #stream.parameter.named<"model"::"vae.encoder.down_blocks.0.resnets.0.norm2.bias"> : tensor<128xf16>
  util.global private @_params.vae.encoder.down_blocks.0.resnets.0.conv2.weight {noinline} = #stream.parameter.named<"model"::"vae.encoder.down_blocks.0.resnets.0.conv2.weight"> : tensor<128x128x3x3xf16>
  util.global private @_params.vae.encoder.down_blocks.0.resnets.0.conv2.bias {noinline} = #stream.parameter.named<"model"::"vae.encoder.down_blocks.0.resnets.0.conv2.bias"> : tensor<128xf16>
  util.global private @_params.vae.encoder.down_blocks.0.resnets.1.norm1.weight {noinline} = #stream.parameter.named<"model"::"vae.encoder.down_blocks.0.resnets.1.norm1.weight"> : tensor<128xf16>
  util.global private @_params.vae.encoder.down_blocks.0.resnets.1.norm1.bias {noinline} = #stream.parameter.named<"model"::"vae.encoder.down_blocks.0.resnets.1.norm1.bias"> : tensor<128xf16>
  util.global private @_params.vae.encoder.down_blocks.0.resnets.1.conv1.weight {noinline} = #stream.parameter.named<"model"::"vae.encoder.down_blocks.0.resnets.1.conv1.weight"> : tensor<128x128x3x3xf16>
  util.global private @_params.vae.encoder.down_blocks.0.resnets.1.conv1.bias {noinline} = #stream.parameter.named<"model"::"vae.encoder.down_blocks.0.resnets.1.conv1.bias"> : tensor<128xf16>
  util.global private @_params.vae.encoder.down_blocks.0.resnets.1.norm2.weight {noinline} = #stream.parameter.named<"model"::"vae.encoder.down_blocks.0.resnets.1.norm2.weight"> : tensor<128xf16>
  util.global private @_params.vae.encoder.down_blocks.0.resnets.1.norm2.bias {noinline} = #stream.parameter.named<"model"::"vae.encoder.down_blocks.0.resnets.1.norm2.bias"> : tensor<128xf16>
  util.global private @_params.vae.encoder.down_blocks.0.resnets.1.conv2.weight {noinline} = #stream.parameter.named<"model"::"vae.encoder.down_blocks.0.resnets.1.conv2.weight"> : tensor<128x128x3x3xf16>
  util.global private @_params.vae.encoder.down_blocks.0.resnets.1.conv2.bias {noinline} = #stream.parameter.named<"model"::"vae.encoder.down_blocks.0.resnets.1.conv2.bias"> : tensor<128xf16>
  util.global private @_params.vae.encoder.down_blocks.0.downsamplers.0.conv.weight {noinline} = #stream.parameter.named<"model"::"vae.encoder.down_blocks.0.downsamplers.0.conv.weight"> : tensor<128x128x3x3xf16>
  util.global private @_params.vae.encoder.down_blocks.0.downsamplers.0.conv.bias {noinline} = #stream.parameter.named<"model"::"vae.encoder.down_blocks.0.downsamplers.0.conv.bias"> : tensor<128xf16>
  util.global private @_params.vae.encoder.down_blocks.1.resnets.0.norm1.weight {noinline} = #stream.parameter.named<"model"::"vae.encoder.down_blocks.1.resnets.0.norm1.weight"> : tensor<128xf16>
  util.global private @_params.vae.encoder.down_blocks.1.resnets.0.norm1.bias {noinline} = #stream.parameter.named<"model"::"vae.encoder.down_blocks.1.resnets.0.norm1.bias"> : tensor<128xf16>
  util.global private @_params.vae.encoder.down_blocks.1.resnets.0.conv1.weight {noinline} = #stream.parameter.named<"model"::"vae.encoder.down_blocks.1.resnets.0.conv1.weight"> : tensor<256x128x3x3xf16>
  util.global private @_params.vae.encoder.down_blocks.1.resnets.0.conv1.bias {noinline} = #stream.parameter.named<"model"::"vae.encoder.down_blocks.1.resnets.0.conv1.bias"> : tensor<256xf16>
  util.global private @_params.vae.encoder.down_blocks.1.resnets.0.norm2.weight {noinline} = #stream.parameter.named<"model"::"vae.encoder.down_blocks.1.resnets.0.norm2.weight"> : tensor<256xf16>
  util.global private @_params.vae.encoder.down_blocks.1.resnets.0.norm2.bias {noinline} = #stream.parameter.named<"model"::"vae.encoder.down_blocks.1.resnets.0.norm2.bias"> : tensor<256xf16>
  util.global private @_params.vae.encoder.down_blocks.1.resnets.0.conv2.weight {noinline} = #stream.parameter.named<"model"::"vae.encoder.down_blocks.1.resnets.0.conv2.weight"> : tensor<256x256x3x3xf16>
  util.global private @_params.vae.encoder.down_blocks.1.resnets.0.conv2.bias {noinline} = #stream.parameter.named<"model"::"vae.encoder.down_blocks.1.resnets.0.conv2.bias"> : tensor<256xf16>
  util.global private @_params.vae.encoder.down_blocks.1.resnets.0.conv_shortcut.weight {noinline} = #stream.parameter.named<"model"::"vae.encoder.down_blocks.1.resnets.0.conv_shortcut.weight"> : tensor<256x128x1x1xf16>
  util.global private @_params.vae.encoder.down_blocks.1.resnets.0.conv_shortcut.bias {noinline} = #stream.parameter.named<"model"::"vae.encoder.down_blocks.1.resnets.0.conv_shortcut.bias"> : tensor<256xf16>
  util.global private @_params.vae.encoder.down_blocks.1.resnets.1.norm1.weight {noinline} = #stream.parameter.named<"model"::"vae.encoder.down_blocks.1.resnets.1.norm1.weight"> : tensor<256xf16>
  util.global private @_params.vae.encoder.down_blocks.1.resnets.1.norm1.bias {noinline} = #stream.parameter.named<"model"::"vae.encoder.down_blocks.1.resnets.1.norm1.bias"> : tensor<256xf16>
  util.global private @_params.vae.encoder.down_blocks.1.resnets.1.conv1.weight {noinline} = #stream.parameter.named<"model"::"vae.encoder.down_blocks.1.resnets.1.conv1.weight"> : tensor<256x256x3x3xf16>
  util.global private @_params.vae.encoder.down_blocks.1.resnets.1.conv1.bias {noinline} = #stream.parameter.named<"model"::"vae.encoder.down_blocks.1.resnets.1.conv1.bias"> : tensor<256xf16>
  util.global private @_params.vae.encoder.down_blocks.1.resnets.1.norm2.weight {noinline} = #stream.parameter.named<"model"::"vae.encoder.down_blocks.1.resnets.1.norm2.weight"> : tensor<256xf16>
  util.global private @_params.vae.encoder.down_blocks.1.resnets.1.norm2.bias {noinline} = #stream.parameter.named<"model"::"vae.encoder.down_blocks.1.resnets.1.norm2.bias"> : tensor<256xf16>
  util.global private @_params.vae.encoder.down_blocks.1.resnets.1.conv2.weight {noinline} = #stream.parameter.named<"model"::"vae.encoder.down_blocks.1.resnets.1.conv2.weight"> : tensor<256x256x3x3xf16>
  util.global private @_params.vae.encoder.down_blocks.1.resnets.1.conv2.bias {noinline} = #stream.parameter.named<"model"::"vae.encoder.down_blocks.1.resnets.1.conv2.bias"> : tensor<256xf16>
  util.global private @_params.vae.encoder.down_blocks.1.downsamplers.0.conv.weight {noinline} = #stream.parameter.named<"model"::"vae.encoder.down_blocks.1.downsamplers.0.conv.weight"> : tensor<256x256x3x3xf16>
  util.global private @_params.vae.encoder.down_blocks.1.downsamplers.0.conv.bias {noinline} = #stream.parameter.named<"model"::"vae.encoder.down_blocks.1.downsamplers.0.conv.bias"> : tensor<256xf16>
  util.global private @_params.vae.encoder.down_blocks.2.resnets.0.norm1.weight {noinline} = #stream.parameter.named<"model"::"vae.encoder.down_blocks.2.resnets.0.norm1.weight"> : tensor<256xf16>
  util.global private @_params.vae.encoder.down_blocks.2.resnets.0.norm1.bias {noinline} = #stream.parameter.named<"model"::"vae.encoder.down_blocks.2.resnets.0.norm1.bias"> : tensor<256xf16>
  util.global private @_params.vae.encoder.down_blocks.2.resnets.0.conv1.weight {noinline} = #stream.parameter.named<"model"::"vae.encoder.down_blocks.2.resnets.0.conv1.weight"> : tensor<512x256x3x3xf16>
  util.global private @_params.vae.encoder.down_blocks.2.resnets.0.conv1.bias {noinline} = #stream.parameter.named<"model"::"vae.encoder.down_blocks.2.resnets.0.conv1.bias"> : tensor<512xf16>
  util.global private @_params.vae.encoder.down_blocks.2.resnets.0.norm2.weight {noinline} = #stream.parameter.named<"model"::"vae.encoder.down_blocks.2.resnets.0.norm2.weight"> : tensor<512xf16>
  util.global private @_params.vae.encoder.down_blocks.2.resnets.0.norm2.bias {noinline} = #stream.parameter.named<"model"::"vae.encoder.down_blocks.2.resnets.0.norm2.bias"> : tensor<512xf16>
  util.global private @_params.vae.encoder.down_blocks.2.resnets.0.conv2.weight {noinline} = #stream.parameter.named<"model"::"vae.encoder.down_blocks.2.resnets.0.conv2.weight"> : tensor<512x512x3x3xf16>
  util.global private @_params.vae.encoder.down_blocks.2.resnets.0.conv2.bias {noinline} = #stream.parameter.named<"model"::"vae.encoder.down_blocks.2.resnets.0.conv2.bias"> : tensor<512xf16>
  util.global private @_params.vae.encoder.down_blocks.2.resnets.0.conv_shortcut.weight {noinline} = #stream.parameter.named<"model"::"vae.encoder.down_blocks.2.resnets.0.conv_shortcut.weight"> : tensor<512x256x1x1xf16>
  util.global private @_params.vae.encoder.down_blocks.2.resnets.0.conv_shortcut.bias {noinline} = #stream.parameter.named<"model"::"vae.encoder.down_blocks.2.resnets.0.conv_shortcut.bias"> : tensor<512xf16>
  util.global private @_params.vae.encoder.down_blocks.2.resnets.1.norm1.weight {noinline} = #stream.parameter.named<"model"::"vae.encoder.down_blocks.2.resnets.1.norm1.weight"> : tensor<512xf16>
  util.global private @_params.vae.encoder.down_blocks.2.resnets.1.norm1.bias {noinline} = #stream.parameter.named<"model"::"vae.encoder.down_blocks.2.resnets.1.norm1.bias"> : tensor<512xf16>
  util.global private @_params.vae.encoder.down_blocks.2.resnets.1.conv1.weight {noinline} = #stream.parameter.named<"model"::"vae.encoder.down_blocks.2.resnets.1.conv1.weight"> : tensor<512x512x3x3xf16>
  util.global private @_params.vae.encoder.down_blocks.2.resnets.1.conv1.bias {noinline} = #stream.parameter.named<"model"::"vae.encoder.down_blocks.2.resnets.1.conv1.bias"> : tensor<512xf16>
  util.global private @_params.vae.encoder.down_blocks.2.resnets.1.norm2.weight {noinline} = #stream.parameter.named<"model"::"vae.encoder.down_blocks.2.resnets.1.norm2.weight"> : tensor<512xf16>
  util.global private @_params.vae.encoder.down_blocks.2.resnets.1.norm2.bias {noinline} = #stream.parameter.named<"model"::"vae.encoder.down_blocks.2.resnets.1.norm2.bias"> : tensor<512xf16>
  util.global private @_params.vae.encoder.down_blocks.2.resnets.1.conv2.weight {noinline} = #stream.parameter.named<"model"::"vae.encoder.down_blocks.2.resnets.1.conv2.weight"> : tensor<512x512x3x3xf16>
  util.global private @_params.vae.encoder.down_blocks.2.resnets.1.conv2.bias {noinline} = #stream.parameter.named<"model"::"vae.encoder.down_blocks.2.resnets.1.conv2.bias"> : tensor<512xf16>
  util.global private @_params.vae.encoder.down_blocks.2.downsamplers.0.conv.weight {noinline} = #stream.parameter.named<"model"::"vae.encoder.down_blocks.2.downsamplers.0.conv.weight"> : tensor<512x512x3x3xf16>
  util.global private @_params.vae.encoder.down_blocks.2.downsamplers.0.conv.bias {noinline} = #stream.parameter.named<"model"::"vae.encoder.down_blocks.2.downsamplers.0.conv.bias"> : tensor<512xf16>
  util.global private @_params.vae.encoder.down_blocks.3.resnets.0.norm1.weight {noinline} = #stream.parameter.named<"model"::"vae.encoder.down_blocks.3.resnets.0.norm1.weight"> : tensor<512xf16>
  util.global private @_params.vae.encoder.down_blocks.3.resnets.0.norm1.bias {noinline} = #stream.parameter.named<"model"::"vae.encoder.down_blocks.3.resnets.0.norm1.bias"> : tensor<512xf16>
  util.global private @_params.vae.encoder.down_blocks.3.resnets.0.conv1.weight {noinline} = #stream.parameter.named<"model"::"vae.encoder.down_blocks.3.resnets.0.conv1.weight"> : tensor<512x512x3x3xf16>
  util.global private @_params.vae.encoder.down_blocks.3.resnets.0.conv1.bias {noinline} = #stream.parameter.named<"model"::"vae.encoder.down_blocks.3.resnets.0.conv1.bias"> : tensor<512xf16>
  util.global private @_params.vae.encoder.down_blocks.3.resnets.0.norm2.weight {noinline} = #stream.parameter.named<"model"::"vae.encoder.down_blocks.3.resnets.0.norm2.weight"> : tensor<512xf16>
  util.global private @_params.vae.encoder.down_blocks.3.resnets.0.norm2.bias {noinline} = #stream.parameter.named<"model"::"vae.encoder.down_blocks.3.resnets.0.norm2.bias"> : tensor<512xf16>
  util.global private @_params.vae.encoder.down_blocks.3.resnets.0.conv2.weight {noinline} = #stream.parameter.named<"model"::"vae.encoder.down_blocks.3.resnets.0.conv2.weight"> : tensor<512x512x3x3xf16>
  util.global private @_params.vae.encoder.down_blocks.3.resnets.0.conv2.bias {noinline} = #stream.parameter.named<"model"::"vae.encoder.down_blocks.3.resnets.0.conv2.bias"> : tensor<512xf16>
  util.global private @_params.vae.encoder.down_blocks.3.resnets.1.norm1.weight {noinline} = #stream.parameter.named<"model"::"vae.encoder.down_blocks.3.resnets.1.norm1.weight"> : tensor<512xf16>
  util.global private @_params.vae.encoder.down_blocks.3.resnets.1.norm1.bias {noinline} = #stream.parameter.named<"model"::"vae.encoder.down_blocks.3.resnets.1.norm1.bias"> : tensor<512xf16>
  util.global private @_params.vae.encoder.down_blocks.3.resnets.1.conv1.weight {noinline} = #stream.parameter.named<"model"::"vae.encoder.down_blocks.3.resnets.1.conv1.weight"> : tensor<512x512x3x3xf16>
  util.global private @_params.vae.encoder.down_blocks.3.resnets.1.conv1.bias {noinline} = #stream.parameter.named<"model"::"vae.encoder.down_blocks.3.resnets.1.conv1.bias"> : tensor<512xf16>
  util.global private @_params.vae.encoder.down_blocks.3.resnets.1.norm2.weight {noinline} = #stream.parameter.named<"model"::"vae.encoder.down_blocks.3.resnets.1.norm2.weight"> : tensor<512xf16>
  util.global private @_params.vae.encoder.down_blocks.3.resnets.1.norm2.bias {noinline} = #stream.parameter.named<"model"::"vae.encoder.down_blocks.3.resnets.1.norm2.bias"> : tensor<512xf16>
  util.global private @_params.vae.encoder.down_blocks.3.resnets.1.conv2.weight {noinline} = #stream.parameter.named<"model"::"vae.encoder.down_blocks.3.resnets.1.conv2.weight"> : tensor<512x512x3x3xf16>
  util.global private @_params.vae.encoder.down_blocks.3.resnets.1.conv2.bias {noinline} = #stream.parameter.named<"model"::"vae.encoder.down_blocks.3.resnets.1.conv2.bias"> : tensor<512xf16>
  util.global private @_params.vae.encoder.mid_block.attentions.0.group_norm.weight {noinline} = #stream.parameter.named<"model"::"vae.encoder.mid_block.attentions.0.group_norm.weight"> : tensor<512xf16>
  util.global private @_params.vae.encoder.mid_block.attentions.0.group_norm.bias {noinline} = #stream.parameter.named<"model"::"vae.encoder.mid_block.attentions.0.group_norm.bias"> : tensor<512xf16>
  util.global private @_params.vae.encoder.mid_block.attentions.0.to_q.weight {noinline} = #stream.parameter.named<"model"::"vae.encoder.mid_block.attentions.0.to_q.weight"> : tensor<512x512xf16>
  util.global private @_params.vae.encoder.mid_block.attentions.0.to_q.bias {noinline} = #stream.parameter.named<"model"::"vae.encoder.mid_block.attentions.0.to_q.bias"> : tensor<512xf16>
  util.global private @_params.vae.encoder.mid_block.attentions.0.to_k.weight {noinline} = #stream.parameter.named<"model"::"vae.encoder.mid_block.attentions.0.to_k.weight"> : tensor<512x512xf16>
  util.global private @_params.vae.encoder.mid_block.attentions.0.to_k.bias {noinline} = #stream.parameter.named<"model"::"vae.encoder.mid_block.attentions.0.to_k.bias"> : tensor<512xf16>
  util.global private @_params.vae.encoder.mid_block.attentions.0.to_v.weight {noinline} = #stream.parameter.named<"model"::"vae.encoder.mid_block.attentions.0.to_v.weight"> : tensor<512x512xf16>
  util.global private @_params.vae.encoder.mid_block.attentions.0.to_v.bias {noinline} = #stream.parameter.named<"model"::"vae.encoder.mid_block.attentions.0.to_v.bias"> : tensor<512xf16>
  util.global private @_params.vae.encoder.mid_block.attentions.0.to_out.0.weight {noinline} = #stream.parameter.named<"model"::"vae.encoder.mid_block.attentions.0.to_out.0.weight"> : tensor<512x512xf16>
  util.global private @_params.vae.encoder.mid_block.attentions.0.to_out.0.bias {noinline} = #stream.parameter.named<"model"::"vae.encoder.mid_block.attentions.0.to_out.0.bias"> : tensor<512xf16>
  util.global private @_params.vae.encoder.mid_block.resnets.0.norm1.weight {noinline} = #stream.parameter.named<"model"::"vae.encoder.mid_block.resnets.0.norm1.weight"> : tensor<512xf16>
  util.global private @_params.vae.encoder.mid_block.resnets.0.norm1.bias {noinline} = #stream.parameter.named<"model"::"vae.encoder.mid_block.resnets.0.norm1.bias"> : tensor<512xf16>
  util.global private @_params.vae.encoder.mid_block.resnets.0.conv1.weight {noinline} = #stream.parameter.named<"model"::"vae.encoder.mid_block.resnets.0.conv1.weight"> : tensor<512x512x3x3xf16>
  util.global private @_params.vae.encoder.mid_block.resnets.0.conv1.bias {noinline} = #stream.parameter.named<"model"::"vae.encoder.mid_block.resnets.0.conv1.bias"> : tensor<512xf16>
  util.global private @_params.vae.encoder.mid_block.resnets.0.norm2.weight {noinline} = #stream.parameter.named<"model"::"vae.encoder.mid_block.resnets.0.norm2.weight"> : tensor<512xf16>
  util.global private @_params.vae.encoder.mid_block.resnets.0.norm2.bias {noinline} = #stream.parameter.named<"model"::"vae.encoder.mid_block.resnets.0.norm2.bias"> : tensor<512xf16>
  util.global private @_params.vae.encoder.mid_block.resnets.0.conv2.weight {noinline} = #stream.parameter.named<"model"::"vae.encoder.mid_block.resnets.0.conv2.weight"> : tensor<512x512x3x3xf16>
  util.global private @_params.vae.encoder.mid_block.resnets.0.conv2.bias {noinline} = #stream.parameter.named<"model"::"vae.encoder.mid_block.resnets.0.conv2.bias"> : tensor<512xf16>
  util.global private @_params.vae.encoder.mid_block.resnets.1.norm1.weight {noinline} = #stream.parameter.named<"model"::"vae.encoder.mid_block.resnets.1.norm1.weight"> : tensor<512xf16>
  util.global private @_params.vae.encoder.mid_block.resnets.1.norm1.bias {noinline} = #stream.parameter.named<"model"::"vae.encoder.mid_block.resnets.1.norm1.bias"> : tensor<512xf16>
  util.global private @_params.vae.encoder.mid_block.resnets.1.conv1.weight {noinline} = #stream.parameter.named<"model"::"vae.encoder.mid_block.resnets.1.conv1.weight"> : tensor<512x512x3x3xf16>
  util.global private @_params.vae.encoder.mid_block.resnets.1.conv1.bias {noinline} = #stream.parameter.named<"model"::"vae.encoder.mid_block.resnets.1.conv1.bias"> : tensor<512xf16>
  util.global private @_params.vae.encoder.mid_block.resnets.1.norm2.weight {noinline} = #stream.parameter.named<"model"::"vae.encoder.mid_block.resnets.1.norm2.weight"> : tensor<512xf16>
  util.global private @_params.vae.encoder.mid_block.resnets.1.norm2.bias {noinline} = #stream.parameter.named<"model"::"vae.encoder.mid_block.resnets.1.norm2.bias"> : tensor<512xf16>
  util.global private @_params.vae.encoder.mid_block.resnets.1.conv2.weight {noinline} = #stream.parameter.named<"model"::"vae.encoder.mid_block.resnets.1.conv2.weight"> : tensor<512x512x3x3xf16>
  util.global private @_params.vae.encoder.mid_block.resnets.1.conv2.bias {noinline} = #stream.parameter.named<"model"::"vae.encoder.mid_block.resnets.1.conv2.bias"> : tensor<512xf16>
  util.global private @_params.vae.encoder.conv_norm_out.weight {noinline} = #stream.parameter.named<"model"::"vae.encoder.conv_norm_out.weight"> : tensor<512xf16>
  util.global private @_params.vae.encoder.conv_norm_out.bias {noinline} = #stream.parameter.named<"model"::"vae.encoder.conv_norm_out.bias"> : tensor<512xf16>
  util.global private @_params.vae.encoder.conv_out.weight {noinline} = #stream.parameter.named<"model"::"vae.encoder.conv_out.weight"> : tensor<8x512x3x3xf16>
  util.global private @_params.vae.encoder.conv_out.bias {noinline} = #stream.parameter.named<"model"::"vae.encoder.conv_out.bias"> : tensor<8xf16>
  util.global private @_params.vae.decoder.conv_in.weight {noinline} = #stream.parameter.named<"model"::"vae.decoder.conv_in.weight"> : tensor<512x4x3x3xf16>
  util.global private @_params.vae.decoder.conv_in.bias {noinline} = #stream.parameter.named<"model"::"vae.decoder.conv_in.bias"> : tensor<512xf16>
  util.global private @_params.vae.decoder.up_blocks.0.resnets.0.norm1.weight {noinline} = #stream.parameter.named<"model"::"vae.decoder.up_blocks.0.resnets.0.norm1.weight"> : tensor<512xf16>
  util.global private @_params.vae.decoder.up_blocks.0.resnets.0.norm1.bias {noinline} = #stream.parameter.named<"model"::"vae.decoder.up_blocks.0.resnets.0.norm1.bias"> : tensor<512xf16>
  util.global private @_params.vae.decoder.up_blocks.0.resnets.0.conv1.weight {noinline} = #stream.parameter.named<"model"::"vae.decoder.up_blocks.0.resnets.0.conv1.weight"> : tensor<512x512x3x3xf16>
  util.global private @_params.vae.decoder.up_blocks.0.resnets.0.conv1.bias {noinline} = #stream.parameter.named<"model"::"vae.decoder.up_blocks.0.resnets.0.conv1.bias"> : tensor<512xf16>
  util.global private @_params.vae.decoder.up_blocks.0.resnets.0.norm2.weight {noinline} = #stream.parameter.named<"model"::"vae.decoder.up_blocks.0.resnets.0.norm2.weight"> : tensor<512xf16>
  util.global private @_params.vae.decoder.up_blocks.0.resnets.0.norm2.bias {noinline} = #stream.parameter.named<"model"::"vae.decoder.up_blocks.0.resnets.0.norm2.bias"> : tensor<512xf16>
  util.global private @_params.vae.decoder.up_blocks.0.resnets.0.conv2.weight {noinline} = #stream.parameter.named<"model"::"vae.decoder.up_blocks.0.resnets.0.conv2.weight"> : tensor<512x512x3x3xf16>
  util.global private @_params.vae.decoder.up_blocks.0.resnets.0.conv2.bias {noinline} = #stream.parameter.named<"model"::"vae.decoder.up_blocks.0.resnets.0.conv2.bias"> : tensor<512xf16>
  util.global private @_params.vae.decoder.up_blocks.0.resnets.1.norm1.weight {noinline} = #stream.parameter.named<"model"::"vae.decoder.up_blocks.0.resnets.1.norm1.weight"> : tensor<512xf16>
  util.global private @_params.vae.decoder.up_blocks.0.resnets.1.norm1.bias {noinline} = #stream.parameter.named<"model"::"vae.decoder.up_blocks.0.resnets.1.norm1.bias"> : tensor<512xf16>
  util.global private @_params.vae.decoder.up_blocks.0.resnets.1.conv1.weight {noinline} = #stream.parameter.named<"model"::"vae.decoder.up_blocks.0.resnets.1.conv1.weight"> : tensor<512x512x3x3xf16>
  util.global private @_params.vae.decoder.up_blocks.0.resnets.1.conv1.bias {noinline} = #stream.parameter.named<"model"::"vae.decoder.up_blocks.0.resnets.1.conv1.bias"> : tensor<512xf16>
  util.global private @_params.vae.decoder.up_blocks.0.resnets.1.norm2.weight {noinline} = #stream.parameter.named<"model"::"vae.decoder.up_blocks.0.resnets.1.norm2.weight"> : tensor<512xf16>
  util.global private @_params.vae.decoder.up_blocks.0.resnets.1.norm2.bias {noinline} = #stream.parameter.named<"model"::"vae.decoder.up_blocks.0.resnets.1.norm2.bias"> : tensor<512xf16>
  util.global private @_params.vae.decoder.up_blocks.0.resnets.1.conv2.weight {noinline} = #stream.parameter.named<"model"::"vae.decoder.up_blocks.0.resnets.1.conv2.weight"> : tensor<512x512x3x3xf16>
  util.global private @_params.vae.decoder.up_blocks.0.resnets.1.conv2.bias {noinline} = #stream.parameter.named<"model"::"vae.decoder.up_blocks.0.resnets.1.conv2.bias"> : tensor<512xf16>
  util.global private @_params.vae.decoder.up_blocks.0.resnets.2.norm1.weight {noinline} = #stream.parameter.named<"model"::"vae.decoder.up_blocks.0.resnets.2.norm1.weight"> : tensor<512xf16>
  util.global private @_params.vae.decoder.up_blocks.0.resnets.2.norm1.bias {noinline} = #stream.parameter.named<"model"::"vae.decoder.up_blocks.0.resnets.2.norm1.bias"> : tensor<512xf16>
  util.global private @_params.vae.decoder.up_blocks.0.resnets.2.conv1.weight {noinline} = #stream.parameter.named<"model"::"vae.decoder.up_blocks.0.resnets.2.conv1.weight"> : tensor<512x512x3x3xf16>
  util.global private @_params.vae.decoder.up_blocks.0.resnets.2.conv1.bias {noinline} = #stream.parameter.named<"model"::"vae.decoder.up_blocks.0.resnets.2.conv1.bias"> : tensor<512xf16>
  util.global private @_params.vae.decoder.up_blocks.0.resnets.2.norm2.weight {noinline} = #stream.parameter.named<"model"::"vae.decoder.up_blocks.0.resnets.2.norm2.weight"> : tensor<512xf16>
  util.global private @_params.vae.decoder.up_blocks.0.resnets.2.norm2.bias {noinline} = #stream.parameter.named<"model"::"vae.decoder.up_blocks.0.resnets.2.norm2.bias"> : tensor<512xf16>
  util.global private @_params.vae.decoder.up_blocks.0.resnets.2.conv2.weight {noinline} = #stream.parameter.named<"model"::"vae.decoder.up_blocks.0.resnets.2.conv2.weight"> : tensor<512x512x3x3xf16>
  util.global private @_params.vae.decoder.up_blocks.0.resnets.2.conv2.bias {noinline} = #stream.parameter.named<"model"::"vae.decoder.up_blocks.0.resnets.2.conv2.bias"> : tensor<512xf16>
  util.global private @_params.vae.decoder.up_blocks.0.upsamplers.0.conv.weight {noinline} = #stream.parameter.named<"model"::"vae.decoder.up_blocks.0.upsamplers.0.conv.weight"> : tensor<512x512x3x3xf16>
  util.global private @_params.vae.decoder.up_blocks.0.upsamplers.0.conv.bias {noinline} = #stream.parameter.named<"model"::"vae.decoder.up_blocks.0.upsamplers.0.conv.bias"> : tensor<512xf16>
  util.global private @_params.vae.decoder.up_blocks.1.resnets.0.norm1.weight {noinline} = #stream.parameter.named<"model"::"vae.decoder.up_blocks.1.resnets.0.norm1.weight"> : tensor<512xf16>
  util.global private @_params.vae.decoder.up_blocks.1.resnets.0.norm1.bias {noinline} = #stream.parameter.named<"model"::"vae.decoder.up_blocks.1.resnets.0.norm1.bias"> : tensor<512xf16>
  util.global private @_params.vae.decoder.up_blocks.1.resnets.0.conv1.weight {noinline} = #stream.parameter.named<"model"::"vae.decoder.up_blocks.1.resnets.0.conv1.weight"> : tensor<512x512x3x3xf16>
  util.global private @_params.vae.decoder.up_blocks.1.resnets.0.conv1.bias {noinline} = #stream.parameter.named<"model"::"vae.decoder.up_blocks.1.resnets.0.conv1.bias"> : tensor<512xf16>
  util.global private @_params.vae.decoder.up_blocks.1.resnets.0.norm2.weight {noinline} = #stream.parameter.named<"model"::"vae.decoder.up_blocks.1.resnets.0.norm2.weight"> : tensor<512xf16>
  util.global private @_params.vae.decoder.up_blocks.1.resnets.0.norm2.bias {noinline} = #stream.parameter.named<"model"::"vae.decoder.up_blocks.1.resnets.0.norm2.bias"> : tensor<512xf16>
  util.global private @_params.vae.decoder.up_blocks.1.resnets.0.conv2.weight {noinline} = #stream.parameter.named<"model"::"vae.decoder.up_blocks.1.resnets.0.conv2.weight"> : tensor<512x512x3x3xf16>
  util.global private @_params.vae.decoder.up_blocks.1.resnets.0.conv2.bias {noinline} = #stream.parameter.named<"model"::"vae.decoder.up_blocks.1.resnets.0.conv2.bias"> : tensor<512xf16>
  util.global private @_params.vae.decoder.up_blocks.1.resnets.1.norm1.weight {noinline} = #stream.parameter.named<"model"::"vae.decoder.up_blocks.1.resnets.1.norm1.weight"> : tensor<512xf16>
  util.global private @_params.vae.decoder.up_blocks.1.resnets.1.norm1.bias {noinline} = #stream.parameter.named<"model"::"vae.decoder.up_blocks.1.resnets.1.norm1.bias"> : tensor<512xf16>
  util.global private @_params.vae.decoder.up_blocks.1.resnets.1.conv1.weight {noinline} = #stream.parameter.named<"model"::"vae.decoder.up_blocks.1.resnets.1.conv1.weight"> : tensor<512x512x3x3xf16>
  util.global private @_params.vae.decoder.up_blocks.1.resnets.1.conv1.bias {noinline} = #stream.parameter.named<"model"::"vae.decoder.up_blocks.1.resnets.1.conv1.bias"> : tensor<512xf16>
  util.global private @_params.vae.decoder.up_blocks.1.resnets.1.norm2.weight {noinline} = #stream.parameter.named<"model"::"vae.decoder.up_blocks.1.resnets.1.norm2.weight"> : tensor<512xf16>
  util.global private @_params.vae.decoder.up_blocks.1.resnets.1.norm2.bias {noinline} = #stream.parameter.named<"model"::"vae.decoder.up_blocks.1.resnets.1.norm2.bias"> : tensor<512xf16>
  util.global private @_params.vae.decoder.up_blocks.1.resnets.1.conv2.weight {noinline} = #stream.parameter.named<"model"::"vae.decoder.up_blocks.1.resnets.1.conv2.weight"> : tensor<512x512x3x3xf16>
  util.global private @_params.vae.decoder.up_blocks.1.resnets.1.conv2.bias {noinline} = #stream.parameter.named<"model"::"vae.decoder.up_blocks.1.resnets.1.conv2.bias"> : tensor<512xf16>
  util.global private @_params.vae.decoder.up_blocks.1.resnets.2.norm1.weight {noinline} = #stream.parameter.named<"model"::"vae.decoder.up_blocks.1.resnets.2.norm1.weight"> : tensor<512xf16>
  util.global private @_params.vae.decoder.up_blocks.1.resnets.2.norm1.bias {noinline} = #stream.parameter.named<"model"::"vae.decoder.up_blocks.1.resnets.2.norm1.bias"> : tensor<512xf16>
  util.global private @_params.vae.decoder.up_blocks.1.resnets.2.conv1.weight {noinline} = #stream.parameter.named<"model"::"vae.decoder.up_blocks.1.resnets.2.conv1.weight"> : tensor<512x512x3x3xf16>
  util.global private @_params.vae.decoder.up_blocks.1.resnets.2.conv1.bias {noinline} = #stream.parameter.named<"model"::"vae.decoder.up_blocks.1.resnets.2.conv1.bias"> : tensor<512xf16>
  util.global private @_params.vae.decoder.up_blocks.1.resnets.2.norm2.weight {noinline} = #stream.parameter.named<"model"::"vae.decoder.up_blocks.1.resnets.2.norm2.weight"> : tensor<512xf16>
  util.global private @_params.vae.decoder.up_blocks.1.resnets.2.norm2.bias {noinline} = #stream.parameter.named<"model"::"vae.decoder.up_blocks.1.resnets.2.norm2.bias"> : tensor<512xf16>
  util.global private @_params.vae.decoder.up_blocks.1.resnets.2.conv2.weight {noinline} = #stream.parameter.named<"model"::"vae.decoder.up_blocks.1.resnets.2.conv2.weight"> : tensor<512x512x3x3xf16>
  util.global private @_params.vae.decoder.up_blocks.1.resnets.2.conv2.bias {noinline} = #stream.parameter.named<"model"::"vae.decoder.up_blocks.1.resnets.2.conv2.bias"> : tensor<512xf16>
  util.global private @_params.vae.decoder.up_blocks.1.upsamplers.0.conv.weight {noinline} = #stream.parameter.named<"model"::"vae.decoder.up_blocks.1.upsamplers.0.conv.weight"> : tensor<512x512x3x3xf16>
  util.global private @_params.vae.decoder.up_blocks.1.upsamplers.0.conv.bias {noinline} = #stream.parameter.named<"model"::"vae.decoder.up_blocks.1.upsamplers.0.conv.bias"> : tensor<512xf16>
  util.global private @_params.vae.decoder.up_blocks.2.resnets.0.norm1.weight {noinline} = #stream.parameter.named<"model"::"vae.decoder.up_blocks.2.resnets.0.norm1.weight"> : tensor<512xf16>
  util.global private @_params.vae.decoder.up_blocks.2.resnets.0.norm1.bias {noinline} = #stream.parameter.named<"model"::"vae.decoder.up_blocks.2.resnets.0.norm1.bias"> : tensor<512xf16>
  util.global private @_params.vae.decoder.up_blocks.2.resnets.0.conv1.weight {noinline} = #stream.parameter.named<"model"::"vae.decoder.up_blocks.2.resnets.0.conv1.weight"> : tensor<256x512x3x3xf16>
  util.global private @_params.vae.decoder.up_blocks.2.resnets.0.conv1.bias {noinline} = #stream.parameter.named<"model"::"vae.decoder.up_blocks.2.resnets.0.conv1.bias"> : tensor<256xf16>
  util.global private @_params.vae.decoder.up_blocks.2.resnets.0.norm2.weight {noinline} = #stream.parameter.named<"model"::"vae.decoder.up_blocks.2.resnets.0.norm2.weight"> : tensor<256xf16>
  util.global private @_params.vae.decoder.up_blocks.2.resnets.0.norm2.bias {noinline} = #stream.parameter.named<"model"::"vae.decoder.up_blocks.2.resnets.0.norm2.bias"> : tensor<256xf16>
  util.global private @_params.vae.decoder.up_blocks.2.resnets.0.conv2.weight {noinline} = #stream.parameter.named<"model"::"vae.decoder.up_blocks.2.resnets.0.conv2.weight"> : tensor<256x256x3x3xf16>
  util.global private @_params.vae.decoder.up_blocks.2.resnets.0.conv2.bias {noinline} = #stream.parameter.named<"model"::"vae.decoder.up_blocks.2.resnets.0.conv2.bias"> : tensor<256xf16>
  util.global private @_params.vae.decoder.up_blocks.2.resnets.0.conv_shortcut.weight {noinline} = #stream.parameter.named<"model"::"vae.decoder.up_blocks.2.resnets.0.conv_shortcut.weight"> : tensor<256x512x1x1xf16>
  util.global private @_params.vae.decoder.up_blocks.2.resnets.0.conv_shortcut.bias {noinline} = #stream.parameter.named<"model"::"vae.decoder.up_blocks.2.resnets.0.conv_shortcut.bias"> : tensor<256xf16>
  util.global private @_params.vae.decoder.up_blocks.2.resnets.1.norm1.weight {noinline} = #stream.parameter.named<"model"::"vae.decoder.up_blocks.2.resnets.1.norm1.weight"> : tensor<256xf16>
  util.global private @_params.vae.decoder.up_blocks.2.resnets.1.norm1.bias {noinline} = #stream.parameter.named<"model"::"vae.decoder.up_blocks.2.resnets.1.norm1.bias"> : tensor<256xf16>
  util.global private @_params.vae.decoder.up_blocks.2.resnets.1.conv1.weight {noinline} = #stream.parameter.named<"model"::"vae.decoder.up_blocks.2.resnets.1.conv1.weight"> : tensor<256x256x3x3xf16>
  util.global private @_params.vae.decoder.up_blocks.2.resnets.1.conv1.bias {noinline} = #stream.parameter.named<"model"::"vae.decoder.up_blocks.2.resnets.1.conv1.bias"> : tensor<256xf16>
  util.global private @_params.vae.decoder.up_blocks.2.resnets.1.norm2.weight {noinline} = #stream.parameter.named<"model"::"vae.decoder.up_blocks.2.resnets.1.norm2.weight"> : tensor<256xf16>
  util.global private @_params.vae.decoder.up_blocks.2.resnets.1.norm2.bias {noinline} = #stream.parameter.named<"model"::"vae.decoder.up_blocks.2.resnets.1.norm2.bias"> : tensor<256xf16>
  util.global private @_params.vae.decoder.up_blocks.2.resnets.1.conv2.weight {noinline} = #stream.parameter.named<"model"::"vae.decoder.up_blocks.2.resnets.1.conv2.weight"> : tensor<256x256x3x3xf16>
  util.global private @_params.vae.decoder.up_blocks.2.resnets.1.conv2.bias {noinline} = #stream.parameter.named<"model"::"vae.decoder.up_blocks.2.resnets.1.conv2.bias"> : tensor<256xf16>
  util.global private @_params.vae.decoder.up_blocks.2.resnets.2.norm1.weight {noinline} = #stream.parameter.named<"model"::"vae.decoder.up_blocks.2.resnets.2.norm1.weight"> : tensor<256xf16>
  util.global private @_params.vae.decoder.up_blocks.2.resnets.2.norm1.bias {noinline} = #stream.parameter.named<"model"::"vae.decoder.up_blocks.2.resnets.2.norm1.bias"> : tensor<256xf16>
  util.global private @_params.vae.decoder.up_blocks.2.resnets.2.conv1.weight {noinline} = #stream.parameter.named<"model"::"vae.decoder.up_blocks.2.resnets.2.conv1.weight"> : tensor<256x256x3x3xf16>
  util.global private @_params.vae.decoder.up_blocks.2.resnets.2.conv1.bias {noinline} = #stream.parameter.named<"model"::"vae.decoder.up_blocks.2.resnets.2.conv1.bias"> : tensor<256xf16>
  util.global private @_params.vae.decoder.up_blocks.2.resnets.2.norm2.weight {noinline} = #stream.parameter.named<"model"::"vae.decoder.up_blocks.2.resnets.2.norm2.weight"> : tensor<256xf16>
  util.global private @_params.vae.decoder.up_blocks.2.resnets.2.norm2.bias {noinline} = #stream.parameter.named<"model"::"vae.decoder.up_blocks.2.resnets.2.norm2.bias"> : tensor<256xf16>
  util.global private @_params.vae.decoder.up_blocks.2.resnets.2.conv2.weight {noinline} = #stream.parameter.named<"model"::"vae.decoder.up_blocks.2.resnets.2.conv2.weight"> : tensor<256x256x3x3xf16>
  util.global private @_params.vae.decoder.up_blocks.2.resnets.2.conv2.bias {noinline} = #stream.parameter.named<"model"::"vae.decoder.up_blocks.2.resnets.2.conv2.bias"> : tensor<256xf16>
  util.global private @_params.vae.decoder.up_blocks.2.upsamplers.0.conv.weight {noinline} = #stream.parameter.named<"model"::"vae.decoder.up_blocks.2.upsamplers.0.conv.weight"> : tensor<256x256x3x3xf16>
  util.global private @_params.vae.decoder.up_blocks.2.upsamplers.0.conv.bias {noinline} = #stream.parameter.named<"model"::"vae.decoder.up_blocks.2.upsamplers.0.conv.bias"> : tensor<256xf16>
  util.global private @_params.vae.decoder.up_blocks.3.resnets.0.norm1.weight {noinline} = #stream.parameter.named<"model"::"vae.decoder.up_blocks.3.resnets.0.norm1.weight"> : tensor<256xf16>
  util.global private @_params.vae.decoder.up_blocks.3.resnets.0.norm1.bias {noinline} = #stream.parameter.named<"model"::"vae.decoder.up_blocks.3.resnets.0.norm1.bias"> : tensor<256xf16>
  util.global private @_params.vae.decoder.up_blocks.3.resnets.0.conv1.weight {noinline} = #stream.parameter.named<"model"::"vae.decoder.up_blocks.3.resnets.0.conv1.weight"> : tensor<128x256x3x3xf16>
  util.global private @_params.vae.decoder.up_blocks.3.resnets.0.conv1.bias {noinline} = #stream.parameter.named<"model"::"vae.decoder.up_blocks.3.resnets.0.conv1.bias"> : tensor<128xf16>
  util.global private @_params.vae.decoder.up_blocks.3.resnets.0.norm2.weight {noinline} = #stream.parameter.named<"model"::"vae.decoder.up_blocks.3.resnets.0.norm2.weight"> : tensor<128xf16>
  util.global private @_params.vae.decoder.up_blocks.3.resnets.0.norm2.bias {noinline} = #stream.parameter.named<"model"::"vae.decoder.up_blocks.3.resnets.0.norm2.bias"> : tensor<128xf16>
  util.global private @_params.vae.decoder.up_blocks.3.resnets.0.conv2.weight {noinline} = #stream.parameter.named<"model"::"vae.decoder.up_blocks.3.resnets.0.conv2.weight"> : tensor<128x128x3x3xf16>
  util.global private @_params.vae.decoder.up_blocks.3.resnets.0.conv2.bias {noinline} = #stream.parameter.named<"model"::"vae.decoder.up_blocks.3.resnets.0.conv2.bias"> : tensor<128xf16>
  util.global private @_params.vae.decoder.up_blocks.3.resnets.0.conv_shortcut.weight {noinline} = #stream.parameter.named<"model"::"vae.decoder.up_blocks.3.resnets.0.conv_shortcut.weight"> : tensor<128x256x1x1xf16>
  util.global private @_params.vae.decoder.up_blocks.3.resnets.0.conv_shortcut.bias {noinline} = #stream.parameter.named<"model"::"vae.decoder.up_blocks.3.resnets.0.conv_shortcut.bias"> : tensor<128xf16>
  util.global private @_params.vae.decoder.up_blocks.3.resnets.1.norm1.weight {noinline} = #stream.parameter.named<"model"::"vae.decoder.up_blocks.3.resnets.1.norm1.weight"> : tensor<128xf16>
  util.global private @_params.vae.decoder.up_blocks.3.resnets.1.norm1.bias {noinline} = #stream.parameter.named<"model"::"vae.decoder.up_blocks.3.resnets.1.norm1.bias"> : tensor<128xf16>
  util.global private @_params.vae.decoder.up_blocks.3.resnets.1.conv1.weight {noinline} = #stream.parameter.named<"model"::"vae.decoder.up_blocks.3.resnets.1.conv1.weight"> : tensor<128x128x3x3xf16>
  util.global private @_params.vae.decoder.up_blocks.3.resnets.1.conv1.bias {noinline} = #stream.parameter.named<"model"::"vae.decoder.up_blocks.3.resnets.1.conv1.bias"> : tensor<128xf16>
  util.global private @_params.vae.decoder.up_blocks.3.resnets.1.norm2.weight {noinline} = #stream.parameter.named<"model"::"vae.decoder.up_blocks.3.resnets.1.norm2.weight"> : tensor<128xf16>
  util.global private @_params.vae.decoder.up_blocks.3.resnets.1.norm2.bias {noinline} = #stream.parameter.named<"model"::"vae.decoder.up_blocks.3.resnets.1.norm2.bias"> : tensor<128xf16>
  util.global private @_params.vae.decoder.up_blocks.3.resnets.1.conv2.weight {noinline} = #stream.parameter.named<"model"::"vae.decoder.up_blocks.3.resnets.1.conv2.weight"> : tensor<128x128x3x3xf16>
  util.global private @_params.vae.decoder.up_blocks.3.resnets.1.conv2.bias {noinline} = #stream.parameter.named<"model"::"vae.decoder.up_blocks.3.resnets.1.conv2.bias"> : tensor<128xf16>
  util.global private @_params.vae.decoder.up_blocks.3.resnets.2.norm1.weight {noinline} = #stream.parameter.named<"model"::"vae.decoder.up_blocks.3.resnets.2.norm1.weight"> : tensor<128xf16>
  util.global private @_params.vae.decoder.up_blocks.3.resnets.2.norm1.bias {noinline} = #stream.parameter.named<"model"::"vae.decoder.up_blocks.3.resnets.2.norm1.bias"> : tensor<128xf16>
  util.global private @_params.vae.decoder.up_blocks.3.resnets.2.conv1.weight {noinline} = #stream.parameter.named<"model"::"vae.decoder.up_blocks.3.resnets.2.conv1.weight"> : tensor<128x128x3x3xf16>
  util.global private @_params.vae.decoder.up_blocks.3.resnets.2.conv1.bias {noinline} = #stream.parameter.named<"model"::"vae.decoder.up_blocks.3.resnets.2.conv1.bias"> : tensor<128xf16>
  util.global private @_params.vae.decoder.up_blocks.3.resnets.2.norm2.weight {noinline} = #stream.parameter.named<"model"::"vae.decoder.up_blocks.3.resnets.2.norm2.weight"> : tensor<128xf16>
  util.global private @_params.vae.decoder.up_blocks.3.resnets.2.norm2.bias {noinline} = #stream.parameter.named<"model"::"vae.decoder.up_blocks.3.resnets.2.norm2.bias"> : tensor<128xf16>
  util.global private @_params.vae.decoder.up_blocks.3.resnets.2.conv2.weight {noinline} = #stream.parameter.named<"model"::"vae.decoder.up_blocks.3.resnets.2.conv2.weight"> : tensor<128x128x3x3xf16>
  util.global private @_params.vae.decoder.up_blocks.3.resnets.2.conv2.bias {noinline} = #stream.parameter.named<"model"::"vae.decoder.up_blocks.3.resnets.2.conv2.bias"> : tensor<128xf16>
  util.global private @_params.vae.decoder.mid_block.attentions.0.group_norm.weight {noinline} = #stream.parameter.named<"model"::"vae.decoder.mid_block.attentions.0.group_norm.weight"> : tensor<512xf16>
  util.global private @_params.vae.decoder.mid_block.attentions.0.group_norm.bias {noinline} = #stream.parameter.named<"model"::"vae.decoder.mid_block.attentions.0.group_norm.bias"> : tensor<512xf16>
  util.global private @_params.vae.decoder.mid_block.attentions.0.to_q.weight {noinline} = #stream.parameter.named<"model"::"vae.decoder.mid_block.attentions.0.to_q.weight"> : tensor<512x512xf16>
  util.global private @_params.vae.decoder.mid_block.attentions.0.to_q.bias {noinline} = #stream.parameter.named<"model"::"vae.decoder.mid_block.attentions.0.to_q.bias"> : tensor<512xf16>
  util.global private @_params.vae.decoder.mid_block.attentions.0.to_k.weight {noinline} = #stream.parameter.named<"model"::"vae.decoder.mid_block.attentions.0.to_k.weight"> : tensor<512x512xf16>
  util.global private @_params.vae.decoder.mid_block.attentions.0.to_k.bias {noinline} = #stream.parameter.named<"model"::"vae.decoder.mid_block.attentions.0.to_k.bias"> : tensor<512xf16>
  util.global private @_params.vae.decoder.mid_block.attentions.0.to_v.weight {noinline} = #stream.parameter.named<"model"::"vae.decoder.mid_block.attentions.0.to_v.weight"> : tensor<512x512xf16>
  util.global private @_params.vae.decoder.mid_block.attentions.0.to_v.bias {noinline} = #stream.parameter.named<"model"::"vae.decoder.mid_block.attentions.0.to_v.bias"> : tensor<512xf16>
  util.global private @_params.vae.decoder.mid_block.attentions.0.to_out.0.weight {noinline} = #stream.parameter.named<"model"::"vae.decoder.mid_block.attentions.0.to_out.0.weight"> : tensor<512x512xf16>
  util.global private @_params.vae.decoder.mid_block.attentions.0.to_out.0.bias {noinline} = #stream.parameter.named<"model"::"vae.decoder.mid_block.attentions.0.to_out.0.bias"> : tensor<512xf16>
  util.global private @_params.vae.decoder.mid_block.resnets.0.norm1.weight {noinline} = #stream.parameter.named<"model"::"vae.decoder.mid_block.resnets.0.norm1.weight"> : tensor<512xf16>
  util.global private @_params.vae.decoder.mid_block.resnets.0.norm1.bias {noinline} = #stream.parameter.named<"model"::"vae.decoder.mid_block.resnets.0.norm1.bias"> : tensor<512xf16>
  util.global private @_params.vae.decoder.mid_block.resnets.0.conv1.weight {noinline} = #stream.parameter.named<"model"::"vae.decoder.mid_block.resnets.0.conv1.weight"> : tensor<512x512x3x3xf16>
  util.global private @_params.vae.decoder.mid_block.resnets.0.conv1.bias {noinline} = #stream.parameter.named<"model"::"vae.decoder.mid_block.resnets.0.conv1.bias"> : tensor<512xf16>
  util.global private @_params.vae.decoder.mid_block.resnets.0.norm2.weight {noinline} = #stream.parameter.named<"model"::"vae.decoder.mid_block.resnets.0.norm2.weight"> : tensor<512xf16>
  util.global private @_params.vae.decoder.mid_block.resnets.0.norm2.bias {noinline} = #stream.parameter.named<"model"::"vae.decoder.mid_block.resnets.0.norm2.bias"> : tensor<512xf16>
  util.global private @_params.vae.decoder.mid_block.resnets.0.conv2.weight {noinline} = #stream.parameter.named<"model"::"vae.decoder.mid_block.resnets.0.conv2.weight"> : tensor<512x512x3x3xf16>
  util.global private @_params.vae.decoder.mid_block.resnets.0.conv2.bias {noinline} = #stream.parameter.named<"model"::"vae.decoder.mid_block.resnets.0.conv2.bias"> : tensor<512xf16>
  util.global private @_params.vae.decoder.mid_block.resnets.1.norm1.weight {noinline} = #stream.parameter.named<"model"::"vae.decoder.mid_block.resnets.1.norm1.weight"> : tensor<512xf16>
  util.global private @_params.vae.decoder.mid_block.resnets.1.norm1.bias {noinline} = #stream.parameter.named<"model"::"vae.decoder.mid_block.resnets.1.norm1.bias"> : tensor<512xf16>
  util.global private @_params.vae.decoder.mid_block.resnets.1.conv1.weight {noinline} = #stream.parameter.named<"model"::"vae.decoder.mid_block.resnets.1.conv1.weight"> : tensor<512x512x3x3xf16>
  util.global private @_params.vae.decoder.mid_block.resnets.1.conv1.bias {noinline} = #stream.parameter.named<"model"::"vae.decoder.mid_block.resnets.1.conv1.bias"> : tensor<512xf16>
  util.global private @_params.vae.decoder.mid_block.resnets.1.norm2.weight {noinline} = #stream.parameter.named<"model"::"vae.decoder.mid_block.resnets.1.norm2.weight"> : tensor<512xf16>
  util.global private @_params.vae.decoder.mid_block.resnets.1.norm2.bias {noinline} = #stream.parameter.named<"model"::"vae.decoder.mid_block.resnets.1.norm2.bias"> : tensor<512xf16>
  util.global private @_params.vae.decoder.mid_block.resnets.1.conv2.weight {noinline} = #stream.parameter.named<"model"::"vae.decoder.mid_block.resnets.1.conv2.weight"> : tensor<512x512x3x3xf16>
  util.global private @_params.vae.decoder.mid_block.resnets.1.conv2.bias {noinline} = #stream.parameter.named<"model"::"vae.decoder.mid_block.resnets.1.conv2.bias"> : tensor<512xf16>
  util.global private @_params.vae.decoder.conv_norm_out.weight {noinline} = #stream.parameter.named<"model"::"vae.decoder.conv_norm_out.weight"> : tensor<128xf16>
  util.global private @_params.vae.decoder.conv_norm_out.bias {noinline} = #stream.parameter.named<"model"::"vae.decoder.conv_norm_out.bias"> : tensor<128xf16>
  util.global private @_params.vae.decoder.conv_out.weight {noinline} = #stream.parameter.named<"model"::"vae.decoder.conv_out.weight"> : tensor<3x128x3x3xf16>
  util.global private @_params.vae.decoder.conv_out.bias {noinline} = #stream.parameter.named<"model"::"vae.decoder.conv_out.bias"> : tensor<3xf16>
  util.global private @_params.vae.quant_conv.weight {noinline} = #stream.parameter.named<"model"::"vae.quant_conv.weight"> : tensor<8x8x1x1xf16>
  util.global private @_params.vae.quant_conv.bias {noinline} = #stream.parameter.named<"model"::"vae.quant_conv.bias"> : tensor<8xf16>
  util.global private @_params.vae.post_quant_conv.weight {noinline} = #stream.parameter.named<"model"::"vae.post_quant_conv.weight"> : tensor<4x4x1x1xf16>
  util.global private @_params.vae.post_quant_conv.bias {noinline} = #stream.parameter.named<"model"::"vae.post_quant_conv.bias"> : tensor<4xf16>
  func.func @main(%arg0: tensor<1x4x128x128xf16>) -> tensor<1x3x1024x1024xf16> attributes {torch.args_schema = "[1, {\22type\22: \22builtins.tuple\22, \22context\22: \22null\22, \22children_spec\22: [{\22type\22: \22builtins.list\22, \22context\22: \22null\22, \22children_spec\22: [{\22type\22: null, \22context\22: null, \22children_spec\22: []}]}, {\22type\22: \22builtins.dict\22, \22context\22: \22[]\22, \22children_spec\22: []}]}]", torch.return_schema = "[1, {\22type\22: null, \22context\22: null, \22children_spec\22: []}]"} {
    %0 = torch_c.from_builtin_tensor %arg0 : tensor<1x4x128x128xf16> -> !torch.vtensor<[1,4,128,128],f16>
    %1 = call @decode_inp(%0) : (!torch.vtensor<[1,4,128,128],f16>) -> !torch.vtensor<[1,3,1024,1024],f16>
    %2 = torch_c.to_builtin_tensor %1 : !torch.vtensor<[1,3,1024,1024],f16> -> tensor<1x3x1024x1024xf16>
    return %2 : tensor<1x3x1024x1024xf16>
  }
  func.func private @decode_inp(%arg0: !torch.vtensor<[1,4,128,128],f16>) -> !torch.vtensor<[1,3,1024,1024],f16> {
    %float7.677540e00 = torch.constant.float 7.6775431861804221
    %0 = torch.aten.mul.Scalar %arg0, %float7.677540e00 : !torch.vtensor<[1,4,128,128],f16>, !torch.float -> !torch.vtensor<[1,4,128,128],f16>
    %_params.vae.post_quant_conv.weight = util.global.load @_params.vae.post_quant_conv.weight : tensor<4x4x1x1xf16>
    %1 = torch_c.from_builtin_tensor %_params.vae.post_quant_conv.weight : tensor<4x4x1x1xf16> -> !torch.vtensor<[4,4,1,1],f16>
    %_params.vae.post_quant_conv.bias = util.global.load @_params.vae.post_quant_conv.bias : tensor<4xf16>
    %2 = torch_c.from_builtin_tensor %_params.vae.post_quant_conv.bias : tensor<4xf16> -> !torch.vtensor<[4],f16>
    %int1 = torch.constant.int 1
    %int1_0 = torch.constant.int 1
    %3 = torch.prim.ListConstruct %int1, %int1_0 : (!torch.int, !torch.int) -> !torch.list<int>
    %int0 = torch.constant.int 0
    %int0_1 = torch.constant.int 0
    %4 = torch.prim.ListConstruct %int0, %int0_1 : (!torch.int, !torch.int) -> !torch.list<int>
    %int1_2 = torch.constant.int 1
    %int1_3 = torch.constant.int 1
    %5 = torch.prim.ListConstruct %int1_2, %int1_3 : (!torch.int, !torch.int) -> !torch.list<int>
    %false = torch.constant.bool false
    %int0_4 = torch.constant.int 0
    %int0_5 = torch.constant.int 0
    %6 = torch.prim.ListConstruct %int0_4, %int0_5 : (!torch.int, !torch.int) -> !torch.list<int>
    %int1_6 = torch.constant.int 1
    %7 = torch.aten.convolution %0, %1, %2, %3, %4, %5, %false, %6, %int1_6 : !torch.vtensor<[1,4,128,128],f16>, !torch.vtensor<[4,4,1,1],f16>, !torch.vtensor<[4],f16>, !torch.list<int>, !torch.list<int>, !torch.list<int>, !torch.bool, !torch.list<int>, !torch.int -> !torch.vtensor<[1,4,128,128],f16>
    %_params.vae.decoder.conv_in.weight = util.global.load @_params.vae.decoder.conv_in.weight : tensor<512x4x3x3xf16>
    %8 = torch_c.from_builtin_tensor %_params.vae.decoder.conv_in.weight : tensor<512x4x3x3xf16> -> !torch.vtensor<[512,4,3,3],f16>
    %_params.vae.decoder.conv_in.bias = util.global.load @_params.vae.decoder.conv_in.bias : tensor<512xf16>
    %9 = torch_c.from_builtin_tensor %_params.vae.decoder.conv_in.bias : tensor<512xf16> -> !torch.vtensor<[512],f16>
    %int1_7 = torch.constant.int 1
    %int1_8 = torch.constant.int 1
    %10 = torch.prim.ListConstruct %int1_7, %int1_8 : (!torch.int, !torch.int) -> !torch.list<int>
    %int1_9 = torch.constant.int 1
    %int1_10 = torch.constant.int 1
    %11 = torch.prim.ListConstruct %int1_9, %int1_10 : (!torch.int, !torch.int) -> !torch.list<int>
    %int1_11 = torch.constant.int 1
    %int1_12 = torch.constant.int 1
    %12 = torch.prim.ListConstruct %int1_11, %int1_12 : (!torch.int, !torch.int) -> !torch.list<int>
    %false_13 = torch.constant.bool false
    %int0_14 = torch.constant.int 0
    %int0_15 = torch.constant.int 0
    %13 = torch.prim.ListConstruct %int0_14, %int0_15 : (!torch.int, !torch.int) -> !torch.list<int>
    %int1_16 = torch.constant.int 1
    %14 = torch.aten.convolution %7, %8, %9, %10, %11, %12, %false_13, %13, %int1_16 : !torch.vtensor<[1,4,128,128],f16>, !torch.vtensor<[512,4,3,3],f16>, !torch.vtensor<[512],f16>, !torch.list<int>, !torch.list<int>, !torch.list<int>, !torch.bool, !torch.list<int>, !torch.int -> !torch.vtensor<[1,512,128,128],f16>
    %int1_17 = torch.constant.int 1
    %int32 = torch.constant.int 32
    %int16 = torch.constant.int 16
    %int16384 = torch.constant.int 16384
    %15 = torch.prim.ListConstruct %int1_17, %int32, %int16, %int16384 : (!torch.int, !torch.int, !torch.int, !torch.int) -> !torch.list<int>
    %16 = torch.aten.view %14, %15 : !torch.vtensor<[1,512,128,128],f16>, !torch.list<int> -> !torch.vtensor<[1,32,16,16384],f16>
    %int6 = torch.constant.int 6
    %17 = torch.prims.convert_element_type %16, %int6 : !torch.vtensor<[1,32,16,16384],f16>, !torch.int -> !torch.vtensor<[1,32,16,16384],f32>
    %int2 = torch.constant.int 2
    %int3 = torch.constant.int 3
    %18 = torch.prim.ListConstruct %int2, %int3 : (!torch.int, !torch.int) -> !torch.list<int>
    %int0_18 = torch.constant.int 0
    %true = torch.constant.bool true
    %result0, %result1 = torch.aten.var_mean.correction %17, %18, %int0_18, %true : !torch.vtensor<[1,32,16,16384],f32>, !torch.list<int>, !torch.int, !torch.bool -> !torch.vtensor<[1,32,1,1],f32>, !torch.vtensor<[1,32,1,1],f32>
    %float9.999990e-07 = torch.constant.float 9.9999999999999995E-7
    %int1_19 = torch.constant.int 1
    %19 = torch.aten.add.Scalar %result0, %float9.999990e-07, %int1_19 : !torch.vtensor<[1,32,1,1],f32>, !torch.float, !torch.int -> !torch.vtensor<[1,32,1,1],f32>
    %20 = torch.aten.rsqrt %19 : !torch.vtensor<[1,32,1,1],f32> -> !torch.vtensor<[1,32,1,1],f32>
    %int1_20 = torch.constant.int 1
    %21 = torch.aten.sub.Tensor %16, %result1, %int1_20 : !torch.vtensor<[1,32,16,16384],f16>, !torch.vtensor<[1,32,1,1],f32>, !torch.int -> !torch.vtensor<[1,32,16,16384],f32>
    %22 = torch.aten.mul.Tensor %21, %20 : !torch.vtensor<[1,32,16,16384],f32>, !torch.vtensor<[1,32,1,1],f32> -> !torch.vtensor<[1,32,16,16384],f32>
    %int1_21 = torch.constant.int 1
    %int512 = torch.constant.int 512
    %int128 = torch.constant.int 128
    %int128_22 = torch.constant.int 128
    %23 = torch.prim.ListConstruct %int1_21, %int512, %int128, %int128_22 : (!torch.int, !torch.int, !torch.int, !torch.int) -> !torch.list<int>
    %24 = torch.aten.view %22, %23 : !torch.vtensor<[1,32,16,16384],f32>, !torch.list<int> -> !torch.vtensor<[1,512,128,128],f32>
    %_params.vae.decoder.mid_block.resnets.0.norm1.bias = util.global.load @_params.vae.decoder.mid_block.resnets.0.norm1.bias : tensor<512xf16>
    %25 = torch_c.from_builtin_tensor %_params.vae.decoder.mid_block.resnets.0.norm1.bias : tensor<512xf16> -> !torch.vtensor<[512],f16>
    %int0_23 = torch.constant.int 0
    %26 = torch.aten.unsqueeze %25, %int0_23 : !torch.vtensor<[512],f16>, !torch.int -> !torch.vtensor<[1,512],f16>
    %int2_24 = torch.constant.int 2
    %27 = torch.aten.unsqueeze %26, %int2_24 : !torch.vtensor<[1,512],f16>, !torch.int -> !torch.vtensor<[1,512,1],f16>
    %int3_25 = torch.constant.int 3
    %28 = torch.aten.unsqueeze %27, %int3_25 : !torch.vtensor<[1,512,1],f16>, !torch.int -> !torch.vtensor<[1,512,1,1],f16>
    %_params.vae.decoder.mid_block.resnets.0.norm1.weight = util.global.load @_params.vae.decoder.mid_block.resnets.0.norm1.weight : tensor<512xf16>
    %29 = torch_c.from_builtin_tensor %_params.vae.decoder.mid_block.resnets.0.norm1.weight : tensor<512xf16> -> !torch.vtensor<[512],f16>
    %int0_26 = torch.constant.int 0
    %30 = torch.aten.unsqueeze %29, %int0_26 : !torch.vtensor<[512],f16>, !torch.int -> !torch.vtensor<[1,512],f16>
    %int2_27 = torch.constant.int 2
    %31 = torch.aten.unsqueeze %30, %int2_27 : !torch.vtensor<[1,512],f16>, !torch.int -> !torch.vtensor<[1,512,1],f16>
    %int3_28 = torch.constant.int 3
    %32 = torch.aten.unsqueeze %31, %int3_28 : !torch.vtensor<[1,512,1],f16>, !torch.int -> !torch.vtensor<[1,512,1,1],f16>
    %33 = torch.aten.mul.Tensor %24, %32 : !torch.vtensor<[1,512,128,128],f32>, !torch.vtensor<[1,512,1,1],f16> -> !torch.vtensor<[1,512,128,128],f32>
    %int1_29 = torch.constant.int 1
    %34 = torch.aten.add.Tensor %33, %28, %int1_29 : !torch.vtensor<[1,512,128,128],f32>, !torch.vtensor<[1,512,1,1],f16>, !torch.int -> !torch.vtensor<[1,512,128,128],f32>
    %int5 = torch.constant.int 5
    %35 = torch.prims.convert_element_type %34, %int5 : !torch.vtensor<[1,512,128,128],f32>, !torch.int -> !torch.vtensor<[1,512,128,128],f16>
    %int5_30 = torch.constant.int 5
    %36 = torch.prims.convert_element_type %result1, %int5_30 : !torch.vtensor<[1,32,1,1],f32>, !torch.int -> !torch.vtensor<[1,32,1,1],f16>
    %int5_31 = torch.constant.int 5
    %37 = torch.prims.convert_element_type %20, %int5_31 : !torch.vtensor<[1,32,1,1],f32>, !torch.int -> !torch.vtensor<[1,32,1,1],f16>
    %int3_32 = torch.constant.int 3
    %38 = torch.prim.ListConstruct %int3_32 : (!torch.int) -> !torch.list<int>
    %39 = torch.prims.squeeze %36, %38 : !torch.vtensor<[1,32,1,1],f16>, !torch.list<int> -> !torch.vtensor<[1,32,1],f16>
    %int2_33 = torch.constant.int 2
    %40 = torch.prim.ListConstruct %int2_33 : (!torch.int) -> !torch.list<int>
    %41 = torch.prims.squeeze %39, %40 : !torch.vtensor<[1,32,1],f16>, !torch.list<int> -> !torch.vtensor<[1,32],f16>
    %int3_34 = torch.constant.int 3
    %42 = torch.prim.ListConstruct %int3_34 : (!torch.int) -> !torch.list<int>
    %43 = torch.prims.squeeze %37, %42 : !torch.vtensor<[1,32,1,1],f16>, !torch.list<int> -> !torch.vtensor<[1,32,1],f16>
    %int2_35 = torch.constant.int 2
    %44 = torch.prim.ListConstruct %int2_35 : (!torch.int) -> !torch.list<int>
    %45 = torch.prims.squeeze %43, %44 : !torch.vtensor<[1,32,1],f16>, !torch.list<int> -> !torch.vtensor<[1,32],f16>
    %46 = torch.aten.detach %41 : !torch.vtensor<[1,32],f16> -> !torch.vtensor<[1,32],f16>
    %47 = torch.aten.detach %45 : !torch.vtensor<[1,32],f16> -> !torch.vtensor<[1,32],f16>
    %48 = torch.aten.silu %35 : !torch.vtensor<[1,512,128,128],f16> -> !torch.vtensor<[1,512,128,128],f16>
    %_params.vae.decoder.mid_block.resnets.0.conv1.weight = util.global.load @_params.vae.decoder.mid_block.resnets.0.conv1.weight : tensor<512x512x3x3xf16>
    %49 = torch_c.from_builtin_tensor %_params.vae.decoder.mid_block.resnets.0.conv1.weight : tensor<512x512x3x3xf16> -> !torch.vtensor<[512,512,3,3],f16>
    %_params.vae.decoder.mid_block.resnets.0.conv1.bias = util.global.load @_params.vae.decoder.mid_block.resnets.0.conv1.bias : tensor<512xf16>
    %50 = torch_c.from_builtin_tensor %_params.vae.decoder.mid_block.resnets.0.conv1.bias : tensor<512xf16> -> !torch.vtensor<[512],f16>
    %int1_36 = torch.constant.int 1
    %int1_37 = torch.constant.int 1
    %51 = torch.prim.ListConstruct %int1_36, %int1_37 : (!torch.int, !torch.int) -> !torch.list<int>
    %int1_38 = torch.constant.int 1
    %int1_39 = torch.constant.int 1
    %52 = torch.prim.ListConstruct %int1_38, %int1_39 : (!torch.int, !torch.int) -> !torch.list<int>
    %int1_40 = torch.constant.int 1
    %int1_41 = torch.constant.int 1
    %53 = torch.prim.ListConstruct %int1_40, %int1_41 : (!torch.int, !torch.int) -> !torch.list<int>
    %false_42 = torch.constant.bool false
    %int0_43 = torch.constant.int 0
    %int0_44 = torch.constant.int 0
    %54 = torch.prim.ListConstruct %int0_43, %int0_44 : (!torch.int, !torch.int) -> !torch.list<int>
    %int1_45 = torch.constant.int 1
    %55 = torch.aten.convolution %48, %49, %50, %51, %52, %53, %false_42, %54, %int1_45 : !torch.vtensor<[1,512,128,128],f16>, !torch.vtensor<[512,512,3,3],f16>, !torch.vtensor<[512],f16>, !torch.list<int>, !torch.list<int>, !torch.list<int>, !torch.bool, !torch.list<int>, !torch.int -> !torch.vtensor<[1,512,128,128],f16>
    %int1_46 = torch.constant.int 1
    %int32_47 = torch.constant.int 32
    %int16_48 = torch.constant.int 16
    %int16384_49 = torch.constant.int 16384
    %56 = torch.prim.ListConstruct %int1_46, %int32_47, %int16_48, %int16384_49 : (!torch.int, !torch.int, !torch.int, !torch.int) -> !torch.list<int>
    %57 = torch.aten.view %55, %56 : !torch.vtensor<[1,512,128,128],f16>, !torch.list<int> -> !torch.vtensor<[1,32,16,16384],f16>
    %int6_50 = torch.constant.int 6
    %58 = torch.prims.convert_element_type %57, %int6_50 : !torch.vtensor<[1,32,16,16384],f16>, !torch.int -> !torch.vtensor<[1,32,16,16384],f32>
    %int2_51 = torch.constant.int 2
    %int3_52 = torch.constant.int 3
    %59 = torch.prim.ListConstruct %int2_51, %int3_52 : (!torch.int, !torch.int) -> !torch.list<int>
    %int0_53 = torch.constant.int 0
    %true_54 = torch.constant.bool true
    %result0_55, %result1_56 = torch.aten.var_mean.correction %58, %59, %int0_53, %true_54 : !torch.vtensor<[1,32,16,16384],f32>, !torch.list<int>, !torch.int, !torch.bool -> !torch.vtensor<[1,32,1,1],f32>, !torch.vtensor<[1,32,1,1],f32>
    %float9.999990e-07_57 = torch.constant.float 9.9999999999999995E-7
    %int1_58 = torch.constant.int 1
    %60 = torch.aten.add.Scalar %result0_55, %float9.999990e-07_57, %int1_58 : !torch.vtensor<[1,32,1,1],f32>, !torch.float, !torch.int -> !torch.vtensor<[1,32,1,1],f32>
    %61 = torch.aten.rsqrt %60 : !torch.vtensor<[1,32,1,1],f32> -> !torch.vtensor<[1,32,1,1],f32>
    %int1_59 = torch.constant.int 1
    %62 = torch.aten.sub.Tensor %57, %result1_56, %int1_59 : !torch.vtensor<[1,32,16,16384],f16>, !torch.vtensor<[1,32,1,1],f32>, !torch.int -> !torch.vtensor<[1,32,16,16384],f32>
    %63 = torch.aten.mul.Tensor %62, %61 : !torch.vtensor<[1,32,16,16384],f32>, !torch.vtensor<[1,32,1,1],f32> -> !torch.vtensor<[1,32,16,16384],f32>
    %int1_60 = torch.constant.int 1
    %int512_61 = torch.constant.int 512
    %int128_62 = torch.constant.int 128
    %int128_63 = torch.constant.int 128
    %64 = torch.prim.ListConstruct %int1_60, %int512_61, %int128_62, %int128_63 : (!torch.int, !torch.int, !torch.int, !torch.int) -> !torch.list<int>
    %65 = torch.aten.view %63, %64 : !torch.vtensor<[1,32,16,16384],f32>, !torch.list<int> -> !torch.vtensor<[1,512,128,128],f32>
    %_params.vae.decoder.mid_block.resnets.0.norm2.bias = util.global.load @_params.vae.decoder.mid_block.resnets.0.norm2.bias : tensor<512xf16>
    %66 = torch_c.from_builtin_tensor %_params.vae.decoder.mid_block.resnets.0.norm2.bias : tensor<512xf16> -> !torch.vtensor<[512],f16>
    %int0_64 = torch.constant.int 0
    %67 = torch.aten.unsqueeze %66, %int0_64 : !torch.vtensor<[512],f16>, !torch.int -> !torch.vtensor<[1,512],f16>
    %int2_65 = torch.constant.int 2
    %68 = torch.aten.unsqueeze %67, %int2_65 : !torch.vtensor<[1,512],f16>, !torch.int -> !torch.vtensor<[1,512,1],f16>
    %int3_66 = torch.constant.int 3
    %69 = torch.aten.unsqueeze %68, %int3_66 : !torch.vtensor<[1,512,1],f16>, !torch.int -> !torch.vtensor<[1,512,1,1],f16>
    %_params.vae.decoder.mid_block.resnets.0.norm2.weight = util.global.load @_params.vae.decoder.mid_block.resnets.0.norm2.weight : tensor<512xf16>
    %70 = torch_c.from_builtin_tensor %_params.vae.decoder.mid_block.resnets.0.norm2.weight : tensor<512xf16> -> !torch.vtensor<[512],f16>
    %int0_67 = torch.constant.int 0
    %71 = torch.aten.unsqueeze %70, %int0_67 : !torch.vtensor<[512],f16>, !torch.int -> !torch.vtensor<[1,512],f16>
    %int2_68 = torch.constant.int 2
    %72 = torch.aten.unsqueeze %71, %int2_68 : !torch.vtensor<[1,512],f16>, !torch.int -> !torch.vtensor<[1,512,1],f16>
    %int3_69 = torch.constant.int 3
    %73 = torch.aten.unsqueeze %72, %int3_69 : !torch.vtensor<[1,512,1],f16>, !torch.int -> !torch.vtensor<[1,512,1,1],f16>
    %74 = torch.aten.mul.Tensor %65, %73 : !torch.vtensor<[1,512,128,128],f32>, !torch.vtensor<[1,512,1,1],f16> -> !torch.vtensor<[1,512,128,128],f32>
    %int1_70 = torch.constant.int 1
    %75 = torch.aten.add.Tensor %74, %69, %int1_70 : !torch.vtensor<[1,512,128,128],f32>, !torch.vtensor<[1,512,1,1],f16>, !torch.int -> !torch.vtensor<[1,512,128,128],f32>
    %int5_71 = torch.constant.int 5
    %76 = torch.prims.convert_element_type %75, %int5_71 : !torch.vtensor<[1,512,128,128],f32>, !torch.int -> !torch.vtensor<[1,512,128,128],f16>
    %int5_72 = torch.constant.int 5
    %77 = torch.prims.convert_element_type %result1_56, %int5_72 : !torch.vtensor<[1,32,1,1],f32>, !torch.int -> !torch.vtensor<[1,32,1,1],f16>
    %int5_73 = torch.constant.int 5
    %78 = torch.prims.convert_element_type %61, %int5_73 : !torch.vtensor<[1,32,1,1],f32>, !torch.int -> !torch.vtensor<[1,32,1,1],f16>
    %int3_74 = torch.constant.int 3
    %79 = torch.prim.ListConstruct %int3_74 : (!torch.int) -> !torch.list<int>
    %80 = torch.prims.squeeze %77, %79 : !torch.vtensor<[1,32,1,1],f16>, !torch.list<int> -> !torch.vtensor<[1,32,1],f16>
    %int2_75 = torch.constant.int 2
    %81 = torch.prim.ListConstruct %int2_75 : (!torch.int) -> !torch.list<int>
    %82 = torch.prims.squeeze %80, %81 : !torch.vtensor<[1,32,1],f16>, !torch.list<int> -> !torch.vtensor<[1,32],f16>
    %int3_76 = torch.constant.int 3
    %83 = torch.prim.ListConstruct %int3_76 : (!torch.int) -> !torch.list<int>
    %84 = torch.prims.squeeze %78, %83 : !torch.vtensor<[1,32,1,1],f16>, !torch.list<int> -> !torch.vtensor<[1,32,1],f16>
    %int2_77 = torch.constant.int 2
    %85 = torch.prim.ListConstruct %int2_77 : (!torch.int) -> !torch.list<int>
    %86 = torch.prims.squeeze %84, %85 : !torch.vtensor<[1,32,1],f16>, !torch.list<int> -> !torch.vtensor<[1,32],f16>
    %87 = torch.aten.detach %82 : !torch.vtensor<[1,32],f16> -> !torch.vtensor<[1,32],f16>
    %88 = torch.aten.detach %86 : !torch.vtensor<[1,32],f16> -> !torch.vtensor<[1,32],f16>
    %89 = torch.aten.silu %76 : !torch.vtensor<[1,512,128,128],f16> -> !torch.vtensor<[1,512,128,128],f16>
    %none = torch.constant.none
    %90 = torch.aten.clone %89, %none : !torch.vtensor<[1,512,128,128],f16>, !torch.none -> !torch.vtensor<[1,512,128,128],f16>
    %_params.vae.decoder.mid_block.resnets.0.conv2.weight = util.global.load @_params.vae.decoder.mid_block.resnets.0.conv2.weight : tensor<512x512x3x3xf16>
    %91 = torch_c.from_builtin_tensor %_params.vae.decoder.mid_block.resnets.0.conv2.weight : tensor<512x512x3x3xf16> -> !torch.vtensor<[512,512,3,3],f16>
    %_params.vae.decoder.mid_block.resnets.0.conv2.bias = util.global.load @_params.vae.decoder.mid_block.resnets.0.conv2.bias : tensor<512xf16>
    %92 = torch_c.from_builtin_tensor %_params.vae.decoder.mid_block.resnets.0.conv2.bias : tensor<512xf16> -> !torch.vtensor<[512],f16>
    %int1_78 = torch.constant.int 1
    %int1_79 = torch.constant.int 1
    %93 = torch.prim.ListConstruct %int1_78, %int1_79 : (!torch.int, !torch.int) -> !torch.list<int>
    %int1_80 = torch.constant.int 1
    %int1_81 = torch.constant.int 1
    %94 = torch.prim.ListConstruct %int1_80, %int1_81 : (!torch.int, !torch.int) -> !torch.list<int>
    %int1_82 = torch.constant.int 1
    %int1_83 = torch.constant.int 1
    %95 = torch.prim.ListConstruct %int1_82, %int1_83 : (!torch.int, !torch.int) -> !torch.list<int>
    %false_84 = torch.constant.bool false
    %int0_85 = torch.constant.int 0
    %int0_86 = torch.constant.int 0
    %96 = torch.prim.ListConstruct %int0_85, %int0_86 : (!torch.int, !torch.int) -> !torch.list<int>
    %int1_87 = torch.constant.int 1
    %97 = torch.aten.convolution %90, %91, %92, %93, %94, %95, %false_84, %96, %int1_87 : !torch.vtensor<[1,512,128,128],f16>, !torch.vtensor<[512,512,3,3],f16>, !torch.vtensor<[512],f16>, !torch.list<int>, !torch.list<int>, !torch.list<int>, !torch.bool, !torch.list<int>, !torch.int -> !torch.vtensor<[1,512,128,128],f16>
    %int1_88 = torch.constant.int 1
    %98 = torch.aten.add.Tensor %14, %97, %int1_88 : !torch.vtensor<[1,512,128,128],f16>, !torch.vtensor<[1,512,128,128],f16>, !torch.int -> !torch.vtensor<[1,512,128,128],f16>
    %int1_89 = torch.constant.int 1
    %99 = torch.aten.div.Scalar %98, %int1_89 : !torch.vtensor<[1,512,128,128],f16>, !torch.int -> !torch.vtensor<[1,512,128,128],f16>
    %int1_90 = torch.constant.int 1
    %int512_91 = torch.constant.int 512
    %int16384_92 = torch.constant.int 16384
    %100 = torch.prim.ListConstruct %int1_90, %int512_91, %int16384_92 : (!torch.int, !torch.int, !torch.int) -> !torch.list<int>
    %101 = torch.aten.view %99, %100 : !torch.vtensor<[1,512,128,128],f16>, !torch.list<int> -> !torch.vtensor<[1,512,16384],f16>
    %int1_93 = torch.constant.int 1
    %int2_94 = torch.constant.int 2
    %102 = torch.aten.transpose.int %101, %int1_93, %int2_94 : !torch.vtensor<[1,512,16384],f16>, !torch.int, !torch.int -> !torch.vtensor<[1,16384,512],f16>
    %int1_95 = torch.constant.int 1
    %int2_96 = torch.constant.int 2
    %103 = torch.aten.transpose.int %102, %int1_95, %int2_96 : !torch.vtensor<[1,16384,512],f16>, !torch.int, !torch.int -> !torch.vtensor<[1,512,16384],f16>
    %int1_97 = torch.constant.int 1
    %int32_98 = torch.constant.int 32
    %int16_99 = torch.constant.int 16
    %int16384_100 = torch.constant.int 16384
    %104 = torch.prim.ListConstruct %int1_97, %int32_98, %int16_99, %int16384_100 : (!torch.int, !torch.int, !torch.int, !torch.int) -> !torch.list<int>
    %105 = torch.aten.view %103, %104 : !torch.vtensor<[1,512,16384],f16>, !torch.list<int> -> !torch.vtensor<[1,32,16,16384],f16>
    %int6_101 = torch.constant.int 6
    %106 = torch.prims.convert_element_type %105, %int6_101 : !torch.vtensor<[1,32,16,16384],f16>, !torch.int -> !torch.vtensor<[1,32,16,16384],f32>
    %int2_102 = torch.constant.int 2
    %int3_103 = torch.constant.int 3
    %107 = torch.prim.ListConstruct %int2_102, %int3_103 : (!torch.int, !torch.int) -> !torch.list<int>
    %int0_104 = torch.constant.int 0
    %true_105 = torch.constant.bool true
    %result0_106, %result1_107 = torch.aten.var_mean.correction %106, %107, %int0_104, %true_105 : !torch.vtensor<[1,32,16,16384],f32>, !torch.list<int>, !torch.int, !torch.bool -> !torch.vtensor<[1,32,1,1],f32>, !torch.vtensor<[1,32,1,1],f32>
    %float9.999990e-07_108 = torch.constant.float 9.9999999999999995E-7
    %int1_109 = torch.constant.int 1
    %108 = torch.aten.add.Scalar %result0_106, %float9.999990e-07_108, %int1_109 : !torch.vtensor<[1,32,1,1],f32>, !torch.float, !torch.int -> !torch.vtensor<[1,32,1,1],f32>
    %109 = torch.aten.rsqrt %108 : !torch.vtensor<[1,32,1,1],f32> -> !torch.vtensor<[1,32,1,1],f32>
    %int1_110 = torch.constant.int 1
    %110 = torch.aten.sub.Tensor %105, %result1_107, %int1_110 : !torch.vtensor<[1,32,16,16384],f16>, !torch.vtensor<[1,32,1,1],f32>, !torch.int -> !torch.vtensor<[1,32,16,16384],f32>
    %111 = torch.aten.mul.Tensor %110, %109 : !torch.vtensor<[1,32,16,16384],f32>, !torch.vtensor<[1,32,1,1],f32> -> !torch.vtensor<[1,32,16,16384],f32>
    %int1_111 = torch.constant.int 1
    %int512_112 = torch.constant.int 512
    %int16384_113 = torch.constant.int 16384
    %112 = torch.prim.ListConstruct %int1_111, %int512_112, %int16384_113 : (!torch.int, !torch.int, !torch.int) -> !torch.list<int>
    %113 = torch.aten.view %111, %112 : !torch.vtensor<[1,32,16,16384],f32>, !torch.list<int> -> !torch.vtensor<[1,512,16384],f32>
    %_params.vae.decoder.mid_block.attentions.0.group_norm.bias = util.global.load @_params.vae.decoder.mid_block.attentions.0.group_norm.bias : tensor<512xf16>
    %114 = torch_c.from_builtin_tensor %_params.vae.decoder.mid_block.attentions.0.group_norm.bias : tensor<512xf16> -> !torch.vtensor<[512],f16>
    %int0_114 = torch.constant.int 0
    %115 = torch.aten.unsqueeze %114, %int0_114 : !torch.vtensor<[512],f16>, !torch.int -> !torch.vtensor<[1,512],f16>
    %int2_115 = torch.constant.int 2
    %116 = torch.aten.unsqueeze %115, %int2_115 : !torch.vtensor<[1,512],f16>, !torch.int -> !torch.vtensor<[1,512,1],f16>
    %_params.vae.decoder.mid_block.attentions.0.group_norm.weight = util.global.load @_params.vae.decoder.mid_block.attentions.0.group_norm.weight : tensor<512xf16>
    %117 = torch_c.from_builtin_tensor %_params.vae.decoder.mid_block.attentions.0.group_norm.weight : tensor<512xf16> -> !torch.vtensor<[512],f16>
    %int0_116 = torch.constant.int 0
    %118 = torch.aten.unsqueeze %117, %int0_116 : !torch.vtensor<[512],f16>, !torch.int -> !torch.vtensor<[1,512],f16>
    %int2_117 = torch.constant.int 2
    %119 = torch.aten.unsqueeze %118, %int2_117 : !torch.vtensor<[1,512],f16>, !torch.int -> !torch.vtensor<[1,512,1],f16>
    %120 = torch.aten.mul.Tensor %113, %119 : !torch.vtensor<[1,512,16384],f32>, !torch.vtensor<[1,512,1],f16> -> !torch.vtensor<[1,512,16384],f32>
    %int1_118 = torch.constant.int 1
    %121 = torch.aten.add.Tensor %120, %116, %int1_118 : !torch.vtensor<[1,512,16384],f32>, !torch.vtensor<[1,512,1],f16>, !torch.int -> !torch.vtensor<[1,512,16384],f32>
    %int5_119 = torch.constant.int 5
    %122 = torch.prims.convert_element_type %121, %int5_119 : !torch.vtensor<[1,512,16384],f32>, !torch.int -> !torch.vtensor<[1,512,16384],f16>
    %int5_120 = torch.constant.int 5
    %123 = torch.prims.convert_element_type %result1_107, %int5_120 : !torch.vtensor<[1,32,1,1],f32>, !torch.int -> !torch.vtensor<[1,32,1,1],f16>
    %int5_121 = torch.constant.int 5
    %124 = torch.prims.convert_element_type %109, %int5_121 : !torch.vtensor<[1,32,1,1],f32>, !torch.int -> !torch.vtensor<[1,32,1,1],f16>
    %int3_122 = torch.constant.int 3
    %125 = torch.prim.ListConstruct %int3_122 : (!torch.int) -> !torch.list<int>
    %126 = torch.prims.squeeze %123, %125 : !torch.vtensor<[1,32,1,1],f16>, !torch.list<int> -> !torch.vtensor<[1,32,1],f16>
    %int2_123 = torch.constant.int 2
    %127 = torch.prim.ListConstruct %int2_123 : (!torch.int) -> !torch.list<int>
    %128 = torch.prims.squeeze %126, %127 : !torch.vtensor<[1,32,1],f16>, !torch.list<int> -> !torch.vtensor<[1,32],f16>
    %int3_124 = torch.constant.int 3
    %129 = torch.prim.ListConstruct %int3_124 : (!torch.int) -> !torch.list<int>
    %130 = torch.prims.squeeze %124, %129 : !torch.vtensor<[1,32,1,1],f16>, !torch.list<int> -> !torch.vtensor<[1,32,1],f16>
    %int2_125 = torch.constant.int 2
    %131 = torch.prim.ListConstruct %int2_125 : (!torch.int) -> !torch.list<int>
    %132 = torch.prims.squeeze %130, %131 : !torch.vtensor<[1,32,1],f16>, !torch.list<int> -> !torch.vtensor<[1,32],f16>
    %133 = torch.aten.detach %128 : !torch.vtensor<[1,32],f16> -> !torch.vtensor<[1,32],f16>
    %134 = torch.aten.detach %132 : !torch.vtensor<[1,32],f16> -> !torch.vtensor<[1,32],f16>
    %int1_126 = torch.constant.int 1
    %int2_127 = torch.constant.int 2
    %135 = torch.aten.transpose.int %122, %int1_126, %int2_127 : !torch.vtensor<[1,512,16384],f16>, !torch.int, !torch.int -> !torch.vtensor<[1,16384,512],f16>
    %_params.vae.decoder.mid_block.attentions.0.to_q.weight = util.global.load @_params.vae.decoder.mid_block.attentions.0.to_q.weight : tensor<512x512xf16>
    %136 = torch_c.from_builtin_tensor %_params.vae.decoder.mid_block.attentions.0.to_q.weight : tensor<512x512xf16> -> !torch.vtensor<[512,512],f16>
    %int0_128 = torch.constant.int 0
    %int1_129 = torch.constant.int 1
    %137 = torch.aten.transpose.int %136, %int0_128, %int1_129 : !torch.vtensor<[512,512],f16>, !torch.int, !torch.int -> !torch.vtensor<[512,512],f16>
    %int16384_130 = torch.constant.int 16384
    %int512_131 = torch.constant.int 512
    %138 = torch.prim.ListConstruct %int16384_130, %int512_131 : (!torch.int, !torch.int) -> !torch.list<int>
    %139 = torch.aten.view %135, %138 : !torch.vtensor<[1,16384,512],f16>, !torch.list<int> -> !torch.vtensor<[16384,512],f16>
    %140 = torch.aten.mm %139, %137 : !torch.vtensor<[16384,512],f16>, !torch.vtensor<[512,512],f16> -> !torch.vtensor<[16384,512],f16>
    %int1_132 = torch.constant.int 1
    %int16384_133 = torch.constant.int 16384
    %int512_134 = torch.constant.int 512
    %141 = torch.prim.ListConstruct %int1_132, %int16384_133, %int512_134 : (!torch.int, !torch.int, !torch.int) -> !torch.list<int>
    %142 = torch.aten.view %140, %141 : !torch.vtensor<[16384,512],f16>, !torch.list<int> -> !torch.vtensor<[1,16384,512],f16>
    %_params.vae.decoder.mid_block.attentions.0.to_q.bias = util.global.load @_params.vae.decoder.mid_block.attentions.0.to_q.bias : tensor<512xf16>
    %143 = torch_c.from_builtin_tensor %_params.vae.decoder.mid_block.attentions.0.to_q.bias : tensor<512xf16> -> !torch.vtensor<[512],f16>
    %int1_135 = torch.constant.int 1
    %144 = torch.aten.add.Tensor %142, %143, %int1_135 : !torch.vtensor<[1,16384,512],f16>, !torch.vtensor<[512],f16>, !torch.int -> !torch.vtensor<[1,16384,512],f16>
    %_params.vae.decoder.mid_block.attentions.0.to_k.weight = util.global.load @_params.vae.decoder.mid_block.attentions.0.to_k.weight : tensor<512x512xf16>
    %145 = torch_c.from_builtin_tensor %_params.vae.decoder.mid_block.attentions.0.to_k.weight : tensor<512x512xf16> -> !torch.vtensor<[512,512],f16>
    %int0_136 = torch.constant.int 0
    %int1_137 = torch.constant.int 1
    %146 = torch.aten.transpose.int %145, %int0_136, %int1_137 : !torch.vtensor<[512,512],f16>, !torch.int, !torch.int -> !torch.vtensor<[512,512],f16>
    %int16384_138 = torch.constant.int 16384
    %int512_139 = torch.constant.int 512
    %147 = torch.prim.ListConstruct %int16384_138, %int512_139 : (!torch.int, !torch.int) -> !torch.list<int>
    %148 = torch.aten.view %135, %147 : !torch.vtensor<[1,16384,512],f16>, !torch.list<int> -> !torch.vtensor<[16384,512],f16>
    %149 = torch.aten.mm %148, %146 : !torch.vtensor<[16384,512],f16>, !torch.vtensor<[512,512],f16> -> !torch.vtensor<[16384,512],f16>
    %int1_140 = torch.constant.int 1
    %int16384_141 = torch.constant.int 16384
    %int512_142 = torch.constant.int 512
    %150 = torch.prim.ListConstruct %int1_140, %int16384_141, %int512_142 : (!torch.int, !torch.int, !torch.int) -> !torch.list<int>
    %151 = torch.aten.view %149, %150 : !torch.vtensor<[16384,512],f16>, !torch.list<int> -> !torch.vtensor<[1,16384,512],f16>
    %_params.vae.decoder.mid_block.attentions.0.to_k.bias = util.global.load @_params.vae.decoder.mid_block.attentions.0.to_k.bias : tensor<512xf16>
    %152 = torch_c.from_builtin_tensor %_params.vae.decoder.mid_block.attentions.0.to_k.bias : tensor<512xf16> -> !torch.vtensor<[512],f16>
    %int1_143 = torch.constant.int 1
    %153 = torch.aten.add.Tensor %151, %152, %int1_143 : !torch.vtensor<[1,16384,512],f16>, !torch.vtensor<[512],f16>, !torch.int -> !torch.vtensor<[1,16384,512],f16>
    %_params.vae.decoder.mid_block.attentions.0.to_v.weight = util.global.load @_params.vae.decoder.mid_block.attentions.0.to_v.weight : tensor<512x512xf16>
    %154 = torch_c.from_builtin_tensor %_params.vae.decoder.mid_block.attentions.0.to_v.weight : tensor<512x512xf16> -> !torch.vtensor<[512,512],f16>
    %int0_144 = torch.constant.int 0
    %int1_145 = torch.constant.int 1
    %155 = torch.aten.transpose.int %154, %int0_144, %int1_145 : !torch.vtensor<[512,512],f16>, !torch.int, !torch.int -> !torch.vtensor<[512,512],f16>
    %int16384_146 = torch.constant.int 16384
    %int512_147 = torch.constant.int 512
    %156 = torch.prim.ListConstruct %int16384_146, %int512_147 : (!torch.int, !torch.int) -> !torch.list<int>
    %157 = torch.aten.view %135, %156 : !torch.vtensor<[1,16384,512],f16>, !torch.list<int> -> !torch.vtensor<[16384,512],f16>
    %158 = torch.aten.mm %157, %155 : !torch.vtensor<[16384,512],f16>, !torch.vtensor<[512,512],f16> -> !torch.vtensor<[16384,512],f16>
    %int1_148 = torch.constant.int 1
    %int16384_149 = torch.constant.int 16384
    %int512_150 = torch.constant.int 512
    %159 = torch.prim.ListConstruct %int1_148, %int16384_149, %int512_150 : (!torch.int, !torch.int, !torch.int) -> !torch.list<int>
    %160 = torch.aten.view %158, %159 : !torch.vtensor<[16384,512],f16>, !torch.list<int> -> !torch.vtensor<[1,16384,512],f16>
    %_params.vae.decoder.mid_block.attentions.0.to_v.bias = util.global.load @_params.vae.decoder.mid_block.attentions.0.to_v.bias : tensor<512xf16>
    %161 = torch_c.from_builtin_tensor %_params.vae.decoder.mid_block.attentions.0.to_v.bias : tensor<512xf16> -> !torch.vtensor<[512],f16>
    %int1_151 = torch.constant.int 1
    %162 = torch.aten.add.Tensor %160, %161, %int1_151 : !torch.vtensor<[1,16384,512],f16>, !torch.vtensor<[512],f16>, !torch.int -> !torch.vtensor<[1,16384,512],f16>
    %int1_152 = torch.constant.int 1
    %int-1 = torch.constant.int -1
    %int1_153 = torch.constant.int 1
    %int512_154 = torch.constant.int 512
    %163 = torch.prim.ListConstruct %int1_152, %int-1, %int1_153, %int512_154 : (!torch.int, !torch.int, !torch.int, !torch.int) -> !torch.list<int>
    %164 = torch.aten.view %144, %163 : !torch.vtensor<[1,16384,512],f16>, !torch.list<int> -> !torch.vtensor<[1,16384,1,512],f16>
    %int1_155 = torch.constant.int 1
    %int2_156 = torch.constant.int 2
    %165 = torch.aten.transpose.int %164, %int1_155, %int2_156 : !torch.vtensor<[1,16384,1,512],f16>, !torch.int, !torch.int -> !torch.vtensor<[1,1,16384,512],f16>
    %int1_157 = torch.constant.int 1
    %int-1_158 = torch.constant.int -1
    %int1_159 = torch.constant.int 1
    %int512_160 = torch.constant.int 512
    %166 = torch.prim.ListConstruct %int1_157, %int-1_158, %int1_159, %int512_160 : (!torch.int, !torch.int, !torch.int, !torch.int) -> !torch.list<int>
    %167 = torch.aten.view %153, %166 : !torch.vtensor<[1,16384,512],f16>, !torch.list<int> -> !torch.vtensor<[1,16384,1,512],f16>
    %int1_161 = torch.constant.int 1
    %int2_162 = torch.constant.int 2
    %168 = torch.aten.transpose.int %167, %int1_161, %int2_162 : !torch.vtensor<[1,16384,1,512],f16>, !torch.int, !torch.int -> !torch.vtensor<[1,1,16384,512],f16>
    %int1_163 = torch.constant.int 1
    %int-1_164 = torch.constant.int -1
    %int1_165 = torch.constant.int 1
    %int512_166 = torch.constant.int 512
    %169 = torch.prim.ListConstruct %int1_163, %int-1_164, %int1_165, %int512_166 : (!torch.int, !torch.int, !torch.int, !torch.int) -> !torch.list<int>
    %170 = torch.aten.view %162, %169 : !torch.vtensor<[1,16384,512],f16>, !torch.list<int> -> !torch.vtensor<[1,16384,1,512],f16>
    %int1_167 = torch.constant.int 1
    %int2_168 = torch.constant.int 2
    %171 = torch.aten.transpose.int %170, %int1_167, %int2_168 : !torch.vtensor<[1,16384,1,512],f16>, !torch.int, !torch.int -> !torch.vtensor<[1,1,16384,512],f16>
    %float2.102240e-01 = torch.constant.float 0.21022410381342863
    %172 = torch.aten.mul.Scalar %165, %float2.102240e-01 : !torch.vtensor<[1,1,16384,512],f16>, !torch.float -> !torch.vtensor<[1,1,16384,512],f16>
    %int-2 = torch.constant.int -2
    %int-1_169 = torch.constant.int -1
    %173 = torch.aten.transpose.int %168, %int-2, %int-1_169 : !torch.vtensor<[1,1,16384,512],f16>, !torch.int, !torch.int -> !torch.vtensor<[1,1,512,16384],f16>
    %float2.102240e-01_170 = torch.constant.float 0.21022410381342863
    %174 = torch.aten.mul.Scalar %173, %float2.102240e-01_170 : !torch.vtensor<[1,1,512,16384],f16>, !torch.float -> !torch.vtensor<[1,1,512,16384],f16>
    %int1_171 = torch.constant.int 1
    %int1_172 = torch.constant.int 1
    %int16384_173 = torch.constant.int 16384
    %int512_174 = torch.constant.int 512
    %175 = torch.prim.ListConstruct %int1_171, %int1_172, %int16384_173, %int512_174 : (!torch.int, !torch.int, !torch.int, !torch.int) -> !torch.list<int>
    %false_175 = torch.constant.bool false
    %176 = torch.aten.expand %172, %175, %false_175 : !torch.vtensor<[1,1,16384,512],f16>, !torch.list<int>, !torch.bool -> !torch.vtensor<[1,1,16384,512],f16>
    %int1_176 = torch.constant.int 1
    %int16384_177 = torch.constant.int 16384
    %int512_178 = torch.constant.int 512
    %177 = torch.prim.ListConstruct %int1_176, %int16384_177, %int512_178 : (!torch.int, !torch.int, !torch.int) -> !torch.list<int>
    %178 = torch.aten.view %176, %177 : !torch.vtensor<[1,1,16384,512],f16>, !torch.list<int> -> !torch.vtensor<[1,16384,512],f16>
    %int1_179 = torch.constant.int 1
    %int1_180 = torch.constant.int 1
    %int512_181 = torch.constant.int 512
    %int16384_182 = torch.constant.int 16384
    %179 = torch.prim.ListConstruct %int1_179, %int1_180, %int512_181, %int16384_182 : (!torch.int, !torch.int, !torch.int, !torch.int) -> !torch.list<int>
    %false_183 = torch.constant.bool false
    %180 = torch.aten.expand %174, %179, %false_183 : !torch.vtensor<[1,1,512,16384],f16>, !torch.list<int>, !torch.bool -> !torch.vtensor<[1,1,512,16384],f16>
    %int1_184 = torch.constant.int 1
    %int512_185 = torch.constant.int 512
    %int16384_186 = torch.constant.int 16384
    %181 = torch.prim.ListConstruct %int1_184, %int512_185, %int16384_186 : (!torch.int, !torch.int, !torch.int) -> !torch.list<int>
    %182 = torch.aten.view %180, %181 : !torch.vtensor<[1,1,512,16384],f16>, !torch.list<int> -> !torch.vtensor<[1,512,16384],f16>
    %183 = torch.aten.bmm %178, %182 : !torch.vtensor<[1,16384,512],f16>, !torch.vtensor<[1,512,16384],f16> -> !torch.vtensor<[1,16384,16384],f16>
    %int1_187 = torch.constant.int 1
    %int1_188 = torch.constant.int 1
    %int16384_189 = torch.constant.int 16384
    %int16384_190 = torch.constant.int 16384
    %184 = torch.prim.ListConstruct %int1_187, %int1_188, %int16384_189, %int16384_190 : (!torch.int, !torch.int, !torch.int, !torch.int) -> !torch.list<int>
    %185 = torch.aten.view %183, %184 : !torch.vtensor<[1,16384,16384],f16>, !torch.list<int> -> !torch.vtensor<[1,1,16384,16384],f16>
    %int-1_191 = torch.constant.int -1
    %false_192 = torch.constant.bool false
    %186 = torch.aten._softmax %185, %int-1_191, %false_192 : !torch.vtensor<[1,1,16384,16384],f16>, !torch.int, !torch.bool -> !torch.vtensor<[1,1,16384,16384],f16>
    %int1_193 = torch.constant.int 1
    %int1_194 = torch.constant.int 1
    %int16384_195 = torch.constant.int 16384
    %int16384_196 = torch.constant.int 16384
    %187 = torch.prim.ListConstruct %int1_193, %int1_194, %int16384_195, %int16384_196 : (!torch.int, !torch.int, !torch.int, !torch.int) -> !torch.list<int>
    %false_197 = torch.constant.bool false
    %188 = torch.aten.expand %186, %187, %false_197 : !torch.vtensor<[1,1,16384,16384],f16>, !torch.list<int>, !torch.bool -> !torch.vtensor<[1,1,16384,16384],f16>
    %int1_198 = torch.constant.int 1
    %int16384_199 = torch.constant.int 16384
    %int16384_200 = torch.constant.int 16384
    %189 = torch.prim.ListConstruct %int1_198, %int16384_199, %int16384_200 : (!torch.int, !torch.int, !torch.int) -> !torch.list<int>
    %190 = torch.aten.view %188, %189 : !torch.vtensor<[1,1,16384,16384],f16>, !torch.list<int> -> !torch.vtensor<[1,16384,16384],f16>
    %int1_201 = torch.constant.int 1
    %int1_202 = torch.constant.int 1
    %int16384_203 = torch.constant.int 16384
    %int512_204 = torch.constant.int 512
    %191 = torch.prim.ListConstruct %int1_201, %int1_202, %int16384_203, %int512_204 : (!torch.int, !torch.int, !torch.int, !torch.int) -> !torch.list<int>
    %false_205 = torch.constant.bool false
    %192 = torch.aten.expand %171, %191, %false_205 : !torch.vtensor<[1,1,16384,512],f16>, !torch.list<int>, !torch.bool -> !torch.vtensor<[1,1,16384,512],f16>
    %int1_206 = torch.constant.int 1
    %int16384_207 = torch.constant.int 16384
    %int512_208 = torch.constant.int 512
    %193 = torch.prim.ListConstruct %int1_206, %int16384_207, %int512_208 : (!torch.int, !torch.int, !torch.int) -> !torch.list<int>
    %194 = torch.aten.view %192, %193 : !torch.vtensor<[1,1,16384,512],f16>, !torch.list<int> -> !torch.vtensor<[1,16384,512],f16>
    %195 = torch.aten.bmm %190, %194 : !torch.vtensor<[1,16384,16384],f16>, !torch.vtensor<[1,16384,512],f16> -> !torch.vtensor<[1,16384,512],f16>
    %int1_209 = torch.constant.int 1
    %int1_210 = torch.constant.int 1
    %int16384_211 = torch.constant.int 16384
    %int512_212 = torch.constant.int 512
    %196 = torch.prim.ListConstruct %int1_209, %int1_210, %int16384_211, %int512_212 : (!torch.int, !torch.int, !torch.int, !torch.int) -> !torch.list<int>
    %197 = torch.aten.view %195, %196 : !torch.vtensor<[1,16384,512],f16>, !torch.list<int> -> !torch.vtensor<[1,1,16384,512],f16>
    %int1_213 = torch.constant.int 1
    %int2_214 = torch.constant.int 2
    %198 = torch.aten.transpose.int %197, %int1_213, %int2_214 : !torch.vtensor<[1,1,16384,512],f16>, !torch.int, !torch.int -> !torch.vtensor<[1,16384,1,512],f16>
    %int1_215 = torch.constant.int 1
    %int2_216 = torch.constant.int 2
    %199 = torch.aten.transpose.int %198, %int1_215, %int2_216 : !torch.vtensor<[1,16384,1,512],f16>, !torch.int, !torch.int -> !torch.vtensor<[1,1,16384,512],f16>
    %200 = torch.aten.detach %199 : !torch.vtensor<[1,1,16384,512],f16> -> !torch.vtensor<[1,1,16384,512],f16>
    %int1_217 = torch.constant.int 1
    %int2_218 = torch.constant.int 2
    %201 = torch.aten.transpose.int %199, %int1_217, %int2_218 : !torch.vtensor<[1,1,16384,512],f16>, !torch.int, !torch.int -> !torch.vtensor<[1,16384,1,512],f16>
    %int1_219 = torch.constant.int 1
    %int-1_220 = torch.constant.int -1
    %int512_221 = torch.constant.int 512
    %202 = torch.prim.ListConstruct %int1_219, %int-1_220, %int512_221 : (!torch.int, !torch.int, !torch.int) -> !torch.list<int>
    %203 = torch.aten.view %201, %202 : !torch.vtensor<[1,16384,1,512],f16>, !torch.list<int> -> !torch.vtensor<[1,16384,512],f16>
    %int16384_222 = torch.constant.int 16384
    %int512_223 = torch.constant.int 512
    %204 = torch.prim.ListConstruct %int16384_222, %int512_223 : (!torch.int, !torch.int) -> !torch.list<int>
    %205 = torch.aten.view %203, %204 : !torch.vtensor<[1,16384,512],f16>, !torch.list<int> -> !torch.vtensor<[16384,512],f16>
    %_params.vae.decoder.mid_block.attentions.0.to_out.0.weight = util.global.load @_params.vae.decoder.mid_block.attentions.0.to_out.0.weight : tensor<512x512xf16>
    %206 = torch_c.from_builtin_tensor %_params.vae.decoder.mid_block.attentions.0.to_out.0.weight : tensor<512x512xf16> -> !torch.vtensor<[512,512],f16>
    %int0_224 = torch.constant.int 0
    %int1_225 = torch.constant.int 1
    %207 = torch.aten.transpose.int %206, %int0_224, %int1_225 : !torch.vtensor<[512,512],f16>, !torch.int, !torch.int -> !torch.vtensor<[512,512],f16>
    %_params.vae.decoder.mid_block.attentions.0.to_out.0.bias = util.global.load @_params.vae.decoder.mid_block.attentions.0.to_out.0.bias : tensor<512xf16>
    %208 = torch_c.from_builtin_tensor %_params.vae.decoder.mid_block.attentions.0.to_out.0.bias : tensor<512xf16> -> !torch.vtensor<[512],f16>
    %int6_226 = torch.constant.int 6
    %209 = torch.prims.convert_element_type %208, %int6_226 : !torch.vtensor<[512],f16>, !torch.int -> !torch.vtensor<[512],f32>
    %int6_227 = torch.constant.int 6
    %210 = torch.prims.convert_element_type %205, %int6_227 : !torch.vtensor<[16384,512],f16>, !torch.int -> !torch.vtensor<[16384,512],f32>
    %int6_228 = torch.constant.int 6
    %211 = torch.prims.convert_element_type %207, %int6_228 : !torch.vtensor<[512,512],f16>, !torch.int -> !torch.vtensor<[512,512],f32>
    %212 = torch.aten.mm %210, %211 : !torch.vtensor<[16384,512],f32>, !torch.vtensor<[512,512],f32> -> !torch.vtensor<[16384,512],f32>
    %int1_229 = torch.constant.int 1
    %213 = torch.aten.mul.Scalar %212, %int1_229 : !torch.vtensor<[16384,512],f32>, !torch.int -> !torch.vtensor<[16384,512],f32>
    %int1_230 = torch.constant.int 1
    %214 = torch.aten.mul.Scalar %209, %int1_230 : !torch.vtensor<[512],f32>, !torch.int -> !torch.vtensor<[512],f32>
    %int1_231 = torch.constant.int 1
    %215 = torch.aten.add.Tensor %213, %214, %int1_231 : !torch.vtensor<[16384,512],f32>, !torch.vtensor<[512],f32>, !torch.int -> !torch.vtensor<[16384,512],f32>
    %int5_232 = torch.constant.int 5
    %216 = torch.prims.convert_element_type %215, %int5_232 : !torch.vtensor<[16384,512],f32>, !torch.int -> !torch.vtensor<[16384,512],f16>
    %int1_233 = torch.constant.int 1
    %int16384_234 = torch.constant.int 16384
    %int512_235 = torch.constant.int 512
    %217 = torch.prim.ListConstruct %int1_233, %int16384_234, %int512_235 : (!torch.int, !torch.int, !torch.int) -> !torch.list<int>
    %218 = torch.aten.view %216, %217 : !torch.vtensor<[16384,512],f16>, !torch.list<int> -> !torch.vtensor<[1,16384,512],f16>
    %none_236 = torch.constant.none
    %219 = torch.aten.clone %218, %none_236 : !torch.vtensor<[1,16384,512],f16>, !torch.none -> !torch.vtensor<[1,16384,512],f16>
    %int-1_237 = torch.constant.int -1
    %int-2_238 = torch.constant.int -2
    %220 = torch.aten.transpose.int %219, %int-1_237, %int-2_238 : !torch.vtensor<[1,16384,512],f16>, !torch.int, !torch.int -> !torch.vtensor<[1,512,16384],f16>
    %int1_239 = torch.constant.int 1
    %int512_240 = torch.constant.int 512
    %int128_241 = torch.constant.int 128
    %int128_242 = torch.constant.int 128
    %221 = torch.prim.ListConstruct %int1_239, %int512_240, %int128_241, %int128_242 : (!torch.int, !torch.int, !torch.int, !torch.int) -> !torch.list<int>
    %222 = torch.aten.view %220, %221 : !torch.vtensor<[1,512,16384],f16>, !torch.list<int> -> !torch.vtensor<[1,512,128,128],f16>
    %int1_243 = torch.constant.int 1
    %223 = torch.aten.add.Tensor %222, %99, %int1_243 : !torch.vtensor<[1,512,128,128],f16>, !torch.vtensor<[1,512,128,128],f16>, !torch.int -> !torch.vtensor<[1,512,128,128],f16>
    %int1_244 = torch.constant.int 1
    %224 = torch.aten.div.Scalar %223, %int1_244 : !torch.vtensor<[1,512,128,128],f16>, !torch.int -> !torch.vtensor<[1,512,128,128],f16>
    %int2_245 = torch.constant.int 2
    %225 = torch.aten.clone %224, %int2_245 : !torch.vtensor<[1,512,128,128],f16>, !torch.int -> !torch.vtensor<[1,512,128,128],f16>
    %int1_246 = torch.constant.int 1
    %int32_247 = torch.constant.int 32
    %int16_248 = torch.constant.int 16
    %int16384_249 = torch.constant.int 16384
    %226 = torch.prim.ListConstruct %int1_246, %int32_247, %int16_248, %int16384_249 : (!torch.int, !torch.int, !torch.int, !torch.int) -> !torch.list<int>
    %227 = torch.aten.view %225, %226 : !torch.vtensor<[1,512,128,128],f16>, !torch.list<int> -> !torch.vtensor<[1,32,16,16384],f16>
    %int6_250 = torch.constant.int 6
    %228 = torch.prims.convert_element_type %227, %int6_250 : !torch.vtensor<[1,32,16,16384],f16>, !torch.int -> !torch.vtensor<[1,32,16,16384],f32>
    %int2_251 = torch.constant.int 2
    %int3_252 = torch.constant.int 3
    %229 = torch.prim.ListConstruct %int2_251, %int3_252 : (!torch.int, !torch.int) -> !torch.list<int>
    %int0_253 = torch.constant.int 0
    %true_254 = torch.constant.bool true
    %result0_255, %result1_256 = torch.aten.var_mean.correction %228, %229, %int0_253, %true_254 : !torch.vtensor<[1,32,16,16384],f32>, !torch.list<int>, !torch.int, !torch.bool -> !torch.vtensor<[1,32,1,1],f32>, !torch.vtensor<[1,32,1,1],f32>
    %float9.999990e-07_257 = torch.constant.float 9.9999999999999995E-7
    %int1_258 = torch.constant.int 1
    %230 = torch.aten.add.Scalar %result0_255, %float9.999990e-07_257, %int1_258 : !torch.vtensor<[1,32,1,1],f32>, !torch.float, !torch.int -> !torch.vtensor<[1,32,1,1],f32>
    %231 = torch.aten.rsqrt %230 : !torch.vtensor<[1,32,1,1],f32> -> !torch.vtensor<[1,32,1,1],f32>
    %int1_259 = torch.constant.int 1
    %232 = torch.aten.sub.Tensor %227, %result1_256, %int1_259 : !torch.vtensor<[1,32,16,16384],f16>, !torch.vtensor<[1,32,1,1],f32>, !torch.int -> !torch.vtensor<[1,32,16,16384],f32>
    %233 = torch.aten.mul.Tensor %232, %231 : !torch.vtensor<[1,32,16,16384],f32>, !torch.vtensor<[1,32,1,1],f32> -> !torch.vtensor<[1,32,16,16384],f32>
    %int1_260 = torch.constant.int 1
    %int512_261 = torch.constant.int 512
    %int128_262 = torch.constant.int 128
    %int128_263 = torch.constant.int 128
    %234 = torch.prim.ListConstruct %int1_260, %int512_261, %int128_262, %int128_263 : (!torch.int, !torch.int, !torch.int, !torch.int) -> !torch.list<int>
    %235 = torch.aten.view %233, %234 : !torch.vtensor<[1,32,16,16384],f32>, !torch.list<int> -> !torch.vtensor<[1,512,128,128],f32>
    %_params.vae.decoder.mid_block.resnets.1.norm1.bias = util.global.load @_params.vae.decoder.mid_block.resnets.1.norm1.bias : tensor<512xf16>
    %236 = torch_c.from_builtin_tensor %_params.vae.decoder.mid_block.resnets.1.norm1.bias : tensor<512xf16> -> !torch.vtensor<[512],f16>
    %int0_264 = torch.constant.int 0
    %237 = torch.aten.unsqueeze %236, %int0_264 : !torch.vtensor<[512],f16>, !torch.int -> !torch.vtensor<[1,512],f16>
    %int2_265 = torch.constant.int 2
    %238 = torch.aten.unsqueeze %237, %int2_265 : !torch.vtensor<[1,512],f16>, !torch.int -> !torch.vtensor<[1,512,1],f16>
    %int3_266 = torch.constant.int 3
    %239 = torch.aten.unsqueeze %238, %int3_266 : !torch.vtensor<[1,512,1],f16>, !torch.int -> !torch.vtensor<[1,512,1,1],f16>
    %_params.vae.decoder.mid_block.resnets.1.norm1.weight = util.global.load @_params.vae.decoder.mid_block.resnets.1.norm1.weight : tensor<512xf16>
    %240 = torch_c.from_builtin_tensor %_params.vae.decoder.mid_block.resnets.1.norm1.weight : tensor<512xf16> -> !torch.vtensor<[512],f16>
    %int0_267 = torch.constant.int 0
    %241 = torch.aten.unsqueeze %240, %int0_267 : !torch.vtensor<[512],f16>, !torch.int -> !torch.vtensor<[1,512],f16>
    %int2_268 = torch.constant.int 2
    %242 = torch.aten.unsqueeze %241, %int2_268 : !torch.vtensor<[1,512],f16>, !torch.int -> !torch.vtensor<[1,512,1],f16>
    %int3_269 = torch.constant.int 3
    %243 = torch.aten.unsqueeze %242, %int3_269 : !torch.vtensor<[1,512,1],f16>, !torch.int -> !torch.vtensor<[1,512,1,1],f16>
    %244 = torch.aten.mul.Tensor %235, %243 : !torch.vtensor<[1,512,128,128],f32>, !torch.vtensor<[1,512,1,1],f16> -> !torch.vtensor<[1,512,128,128],f32>
    %int1_270 = torch.constant.int 1
    %245 = torch.aten.add.Tensor %244, %239, %int1_270 : !torch.vtensor<[1,512,128,128],f32>, !torch.vtensor<[1,512,1,1],f16>, !torch.int -> !torch.vtensor<[1,512,128,128],f32>
    %int5_271 = torch.constant.int 5
    %246 = torch.prims.convert_element_type %245, %int5_271 : !torch.vtensor<[1,512,128,128],f32>, !torch.int -> !torch.vtensor<[1,512,128,128],f16>
    %int5_272 = torch.constant.int 5
    %247 = torch.prims.convert_element_type %result1_256, %int5_272 : !torch.vtensor<[1,32,1,1],f32>, !torch.int -> !torch.vtensor<[1,32,1,1],f16>
    %int5_273 = torch.constant.int 5
    %248 = torch.prims.convert_element_type %231, %int5_273 : !torch.vtensor<[1,32,1,1],f32>, !torch.int -> !torch.vtensor<[1,32,1,1],f16>
    %int3_274 = torch.constant.int 3
    %249 = torch.prim.ListConstruct %int3_274 : (!torch.int) -> !torch.list<int>
    %250 = torch.prims.squeeze %247, %249 : !torch.vtensor<[1,32,1,1],f16>, !torch.list<int> -> !torch.vtensor<[1,32,1],f16>
    %int2_275 = torch.constant.int 2
    %251 = torch.prim.ListConstruct %int2_275 : (!torch.int) -> !torch.list<int>
    %252 = torch.prims.squeeze %250, %251 : !torch.vtensor<[1,32,1],f16>, !torch.list<int> -> !torch.vtensor<[1,32],f16>
    %int3_276 = torch.constant.int 3
    %253 = torch.prim.ListConstruct %int3_276 : (!torch.int) -> !torch.list<int>
    %254 = torch.prims.squeeze %248, %253 : !torch.vtensor<[1,32,1,1],f16>, !torch.list<int> -> !torch.vtensor<[1,32,1],f16>
    %int2_277 = torch.constant.int 2
    %255 = torch.prim.ListConstruct %int2_277 : (!torch.int) -> !torch.list<int>
    %256 = torch.prims.squeeze %254, %255 : !torch.vtensor<[1,32,1],f16>, !torch.list<int> -> !torch.vtensor<[1,32],f16>
    %257 = torch.aten.detach %252 : !torch.vtensor<[1,32],f16> -> !torch.vtensor<[1,32],f16>
    %258 = torch.aten.detach %256 : !torch.vtensor<[1,32],f16> -> !torch.vtensor<[1,32],f16>
    %259 = torch.aten.silu %246 : !torch.vtensor<[1,512,128,128],f16> -> !torch.vtensor<[1,512,128,128],f16>
    %_params.vae.decoder.mid_block.resnets.1.conv1.weight = util.global.load @_params.vae.decoder.mid_block.resnets.1.conv1.weight : tensor<512x512x3x3xf16>
    %260 = torch_c.from_builtin_tensor %_params.vae.decoder.mid_block.resnets.1.conv1.weight : tensor<512x512x3x3xf16> -> !torch.vtensor<[512,512,3,3],f16>
    %_params.vae.decoder.mid_block.resnets.1.conv1.bias = util.global.load @_params.vae.decoder.mid_block.resnets.1.conv1.bias : tensor<512xf16>
    %261 = torch_c.from_builtin_tensor %_params.vae.decoder.mid_block.resnets.1.conv1.bias : tensor<512xf16> -> !torch.vtensor<[512],f16>
    %int1_278 = torch.constant.int 1
    %int1_279 = torch.constant.int 1
    %262 = torch.prim.ListConstruct %int1_278, %int1_279 : (!torch.int, !torch.int) -> !torch.list<int>
    %int1_280 = torch.constant.int 1
    %int1_281 = torch.constant.int 1
    %263 = torch.prim.ListConstruct %int1_280, %int1_281 : (!torch.int, !torch.int) -> !torch.list<int>
    %int1_282 = torch.constant.int 1
    %int1_283 = torch.constant.int 1
    %264 = torch.prim.ListConstruct %int1_282, %int1_283 : (!torch.int, !torch.int) -> !torch.list<int>
    %false_284 = torch.constant.bool false
    %int0_285 = torch.constant.int 0
    %int0_286 = torch.constant.int 0
    %265 = torch.prim.ListConstruct %int0_285, %int0_286 : (!torch.int, !torch.int) -> !torch.list<int>
    %int1_287 = torch.constant.int 1
    %266 = torch.aten.convolution %259, %260, %261, %262, %263, %264, %false_284, %265, %int1_287 : !torch.vtensor<[1,512,128,128],f16>, !torch.vtensor<[512,512,3,3],f16>, !torch.vtensor<[512],f16>, !torch.list<int>, !torch.list<int>, !torch.list<int>, !torch.bool, !torch.list<int>, !torch.int -> !torch.vtensor<[1,512,128,128],f16>
    %int2_288 = torch.constant.int 2
    %267 = torch.aten.clone %266, %int2_288 : !torch.vtensor<[1,512,128,128],f16>, !torch.int -> !torch.vtensor<[1,512,128,128],f16>
    %int1_289 = torch.constant.int 1
    %int32_290 = torch.constant.int 32
    %int16_291 = torch.constant.int 16
    %int16384_292 = torch.constant.int 16384
    %268 = torch.prim.ListConstruct %int1_289, %int32_290, %int16_291, %int16384_292 : (!torch.int, !torch.int, !torch.int, !torch.int) -> !torch.list<int>
    %269 = torch.aten.view %267, %268 : !torch.vtensor<[1,512,128,128],f16>, !torch.list<int> -> !torch.vtensor<[1,32,16,16384],f16>
    %int6_293 = torch.constant.int 6
    %270 = torch.prims.convert_element_type %269, %int6_293 : !torch.vtensor<[1,32,16,16384],f16>, !torch.int -> !torch.vtensor<[1,32,16,16384],f32>
    %int2_294 = torch.constant.int 2
    %int3_295 = torch.constant.int 3
    %271 = torch.prim.ListConstruct %int2_294, %int3_295 : (!torch.int, !torch.int) -> !torch.list<int>
    %int0_296 = torch.constant.int 0
    %true_297 = torch.constant.bool true
    %result0_298, %result1_299 = torch.aten.var_mean.correction %270, %271, %int0_296, %true_297 : !torch.vtensor<[1,32,16,16384],f32>, !torch.list<int>, !torch.int, !torch.bool -> !torch.vtensor<[1,32,1,1],f32>, !torch.vtensor<[1,32,1,1],f32>
    %float9.999990e-07_300 = torch.constant.float 9.9999999999999995E-7
    %int1_301 = torch.constant.int 1
    %272 = torch.aten.add.Scalar %result0_298, %float9.999990e-07_300, %int1_301 : !torch.vtensor<[1,32,1,1],f32>, !torch.float, !torch.int -> !torch.vtensor<[1,32,1,1],f32>
    %273 = torch.aten.rsqrt %272 : !torch.vtensor<[1,32,1,1],f32> -> !torch.vtensor<[1,32,1,1],f32>
    %int1_302 = torch.constant.int 1
    %274 = torch.aten.sub.Tensor %269, %result1_299, %int1_302 : !torch.vtensor<[1,32,16,16384],f16>, !torch.vtensor<[1,32,1,1],f32>, !torch.int -> !torch.vtensor<[1,32,16,16384],f32>
    %275 = torch.aten.mul.Tensor %274, %273 : !torch.vtensor<[1,32,16,16384],f32>, !torch.vtensor<[1,32,1,1],f32> -> !torch.vtensor<[1,32,16,16384],f32>
    %int1_303 = torch.constant.int 1
    %int512_304 = torch.constant.int 512
    %int128_305 = torch.constant.int 128
    %int128_306 = torch.constant.int 128
    %276 = torch.prim.ListConstruct %int1_303, %int512_304, %int128_305, %int128_306 : (!torch.int, !torch.int, !torch.int, !torch.int) -> !torch.list<int>
    %277 = torch.aten.view %275, %276 : !torch.vtensor<[1,32,16,16384],f32>, !torch.list<int> -> !torch.vtensor<[1,512,128,128],f32>
    %_params.vae.decoder.mid_block.resnets.1.norm2.bias = util.global.load @_params.vae.decoder.mid_block.resnets.1.norm2.bias : tensor<512xf16>
    %278 = torch_c.from_builtin_tensor %_params.vae.decoder.mid_block.resnets.1.norm2.bias : tensor<512xf16> -> !torch.vtensor<[512],f16>
    %int0_307 = torch.constant.int 0
    %279 = torch.aten.unsqueeze %278, %int0_307 : !torch.vtensor<[512],f16>, !torch.int -> !torch.vtensor<[1,512],f16>
    %int2_308 = torch.constant.int 2
    %280 = torch.aten.unsqueeze %279, %int2_308 : !torch.vtensor<[1,512],f16>, !torch.int -> !torch.vtensor<[1,512,1],f16>
    %int3_309 = torch.constant.int 3
    %281 = torch.aten.unsqueeze %280, %int3_309 : !torch.vtensor<[1,512,1],f16>, !torch.int -> !torch.vtensor<[1,512,1,1],f16>
    %_params.vae.decoder.mid_block.resnets.1.norm2.weight = util.global.load @_params.vae.decoder.mid_block.resnets.1.norm2.weight : tensor<512xf16>
    %282 = torch_c.from_builtin_tensor %_params.vae.decoder.mid_block.resnets.1.norm2.weight : tensor<512xf16> -> !torch.vtensor<[512],f16>
    %int0_310 = torch.constant.int 0
    %283 = torch.aten.unsqueeze %282, %int0_310 : !torch.vtensor<[512],f16>, !torch.int -> !torch.vtensor<[1,512],f16>
    %int2_311 = torch.constant.int 2
    %284 = torch.aten.unsqueeze %283, %int2_311 : !torch.vtensor<[1,512],f16>, !torch.int -> !torch.vtensor<[1,512,1],f16>
    %int3_312 = torch.constant.int 3
    %285 = torch.aten.unsqueeze %284, %int3_312 : !torch.vtensor<[1,512,1],f16>, !torch.int -> !torch.vtensor<[1,512,1,1],f16>
    %286 = torch.aten.mul.Tensor %277, %285 : !torch.vtensor<[1,512,128,128],f32>, !torch.vtensor<[1,512,1,1],f16> -> !torch.vtensor<[1,512,128,128],f32>
    %int1_313 = torch.constant.int 1
    %287 = torch.aten.add.Tensor %286, %281, %int1_313 : !torch.vtensor<[1,512,128,128],f32>, !torch.vtensor<[1,512,1,1],f16>, !torch.int -> !torch.vtensor<[1,512,128,128],f32>
    %int5_314 = torch.constant.int 5
    %288 = torch.prims.convert_element_type %287, %int5_314 : !torch.vtensor<[1,512,128,128],f32>, !torch.int -> !torch.vtensor<[1,512,128,128],f16>
    %int5_315 = torch.constant.int 5
    %289 = torch.prims.convert_element_type %result1_299, %int5_315 : !torch.vtensor<[1,32,1,1],f32>, !torch.int -> !torch.vtensor<[1,32,1,1],f16>
    %int5_316 = torch.constant.int 5
    %290 = torch.prims.convert_element_type %273, %int5_316 : !torch.vtensor<[1,32,1,1],f32>, !torch.int -> !torch.vtensor<[1,32,1,1],f16>
    %int3_317 = torch.constant.int 3
    %291 = torch.prim.ListConstruct %int3_317 : (!torch.int) -> !torch.list<int>
    %292 = torch.prims.squeeze %289, %291 : !torch.vtensor<[1,32,1,1],f16>, !torch.list<int> -> !torch.vtensor<[1,32,1],f16>
    %int2_318 = torch.constant.int 2
    %293 = torch.prim.ListConstruct %int2_318 : (!torch.int) -> !torch.list<int>
    %294 = torch.prims.squeeze %292, %293 : !torch.vtensor<[1,32,1],f16>, !torch.list<int> -> !torch.vtensor<[1,32],f16>
    %int3_319 = torch.constant.int 3
    %295 = torch.prim.ListConstruct %int3_319 : (!torch.int) -> !torch.list<int>
    %296 = torch.prims.squeeze %290, %295 : !torch.vtensor<[1,32,1,1],f16>, !torch.list<int> -> !torch.vtensor<[1,32,1],f16>
    %int2_320 = torch.constant.int 2
    %297 = torch.prim.ListConstruct %int2_320 : (!torch.int) -> !torch.list<int>
    %298 = torch.prims.squeeze %296, %297 : !torch.vtensor<[1,32,1],f16>, !torch.list<int> -> !torch.vtensor<[1,32],f16>
    %299 = torch.aten.detach %294 : !torch.vtensor<[1,32],f16> -> !torch.vtensor<[1,32],f16>
    %300 = torch.aten.detach %298 : !torch.vtensor<[1,32],f16> -> !torch.vtensor<[1,32],f16>
    %301 = torch.aten.silu %288 : !torch.vtensor<[1,512,128,128],f16> -> !torch.vtensor<[1,512,128,128],f16>
    %none_321 = torch.constant.none
    %302 = torch.aten.clone %301, %none_321 : !torch.vtensor<[1,512,128,128],f16>, !torch.none -> !torch.vtensor<[1,512,128,128],f16>
    %_params.vae.decoder.mid_block.resnets.1.conv2.weight = util.global.load @_params.vae.decoder.mid_block.resnets.1.conv2.weight : tensor<512x512x3x3xf16>
    %303 = torch_c.from_builtin_tensor %_params.vae.decoder.mid_block.resnets.1.conv2.weight : tensor<512x512x3x3xf16> -> !torch.vtensor<[512,512,3,3],f16>
    %_params.vae.decoder.mid_block.resnets.1.conv2.bias = util.global.load @_params.vae.decoder.mid_block.resnets.1.conv2.bias : tensor<512xf16>
    %304 = torch_c.from_builtin_tensor %_params.vae.decoder.mid_block.resnets.1.conv2.bias : tensor<512xf16> -> !torch.vtensor<[512],f16>
    %int1_322 = torch.constant.int 1
    %int1_323 = torch.constant.int 1
    %305 = torch.prim.ListConstruct %int1_322, %int1_323 : (!torch.int, !torch.int) -> !torch.list<int>
    %int1_324 = torch.constant.int 1
    %int1_325 = torch.constant.int 1
    %306 = torch.prim.ListConstruct %int1_324, %int1_325 : (!torch.int, !torch.int) -> !torch.list<int>
    %int1_326 = torch.constant.int 1
    %int1_327 = torch.constant.int 1
    %307 = torch.prim.ListConstruct %int1_326, %int1_327 : (!torch.int, !torch.int) -> !torch.list<int>
    %false_328 = torch.constant.bool false
    %int0_329 = torch.constant.int 0
    %int0_330 = torch.constant.int 0
    %308 = torch.prim.ListConstruct %int0_329, %int0_330 : (!torch.int, !torch.int) -> !torch.list<int>
    %int1_331 = torch.constant.int 1
    %309 = torch.aten.convolution %302, %303, %304, %305, %306, %307, %false_328, %308, %int1_331 : !torch.vtensor<[1,512,128,128],f16>, !torch.vtensor<[512,512,3,3],f16>, !torch.vtensor<[512],f16>, !torch.list<int>, !torch.list<int>, !torch.list<int>, !torch.bool, !torch.list<int>, !torch.int -> !torch.vtensor<[1,512,128,128],f16>
    %int1_332 = torch.constant.int 1
    %310 = torch.aten.add.Tensor %224, %309, %int1_332 : !torch.vtensor<[1,512,128,128],f16>, !torch.vtensor<[1,512,128,128],f16>, !torch.int -> !torch.vtensor<[1,512,128,128],f16>
    %int1_333 = torch.constant.int 1
    %311 = torch.aten.div.Scalar %310, %int1_333 : !torch.vtensor<[1,512,128,128],f16>, !torch.int -> !torch.vtensor<[1,512,128,128],f16>
    %int2_334 = torch.constant.int 2
    %312 = torch.aten.clone %311, %int2_334 : !torch.vtensor<[1,512,128,128],f16>, !torch.int -> !torch.vtensor<[1,512,128,128],f16>
    %int1_335 = torch.constant.int 1
    %int32_336 = torch.constant.int 32
    %int16_337 = torch.constant.int 16
    %int16384_338 = torch.constant.int 16384
    %313 = torch.prim.ListConstruct %int1_335, %int32_336, %int16_337, %int16384_338 : (!torch.int, !torch.int, !torch.int, !torch.int) -> !torch.list<int>
    %314 = torch.aten.view %312, %313 : !torch.vtensor<[1,512,128,128],f16>, !torch.list<int> -> !torch.vtensor<[1,32,16,16384],f16>
    %int6_339 = torch.constant.int 6
    %315 = torch.prims.convert_element_type %314, %int6_339 : !torch.vtensor<[1,32,16,16384],f16>, !torch.int -> !torch.vtensor<[1,32,16,16384],f32>
    %int2_340 = torch.constant.int 2
    %int3_341 = torch.constant.int 3
    %316 = torch.prim.ListConstruct %int2_340, %int3_341 : (!torch.int, !torch.int) -> !torch.list<int>
    %int0_342 = torch.constant.int 0
    %true_343 = torch.constant.bool true
    %result0_344, %result1_345 = torch.aten.var_mean.correction %315, %316, %int0_342, %true_343 : !torch.vtensor<[1,32,16,16384],f32>, !torch.list<int>, !torch.int, !torch.bool -> !torch.vtensor<[1,32,1,1],f32>, !torch.vtensor<[1,32,1,1],f32>
    %float9.999990e-07_346 = torch.constant.float 9.9999999999999995E-7
    %int1_347 = torch.constant.int 1
    %317 = torch.aten.add.Scalar %result0_344, %float9.999990e-07_346, %int1_347 : !torch.vtensor<[1,32,1,1],f32>, !torch.float, !torch.int -> !torch.vtensor<[1,32,1,1],f32>
    %318 = torch.aten.rsqrt %317 : !torch.vtensor<[1,32,1,1],f32> -> !torch.vtensor<[1,32,1,1],f32>
    %int1_348 = torch.constant.int 1
    %319 = torch.aten.sub.Tensor %314, %result1_345, %int1_348 : !torch.vtensor<[1,32,16,16384],f16>, !torch.vtensor<[1,32,1,1],f32>, !torch.int -> !torch.vtensor<[1,32,16,16384],f32>
    %320 = torch.aten.mul.Tensor %319, %318 : !torch.vtensor<[1,32,16,16384],f32>, !torch.vtensor<[1,32,1,1],f32> -> !torch.vtensor<[1,32,16,16384],f32>
    %int1_349 = torch.constant.int 1
    %int512_350 = torch.constant.int 512
    %int128_351 = torch.constant.int 128
    %int128_352 = torch.constant.int 128
    %321 = torch.prim.ListConstruct %int1_349, %int512_350, %int128_351, %int128_352 : (!torch.int, !torch.int, !torch.int, !torch.int) -> !torch.list<int>
    %322 = torch.aten.view %320, %321 : !torch.vtensor<[1,32,16,16384],f32>, !torch.list<int> -> !torch.vtensor<[1,512,128,128],f32>
    %_params.vae.decoder.up_blocks.0.resnets.0.norm1.bias = util.global.load @_params.vae.decoder.up_blocks.0.resnets.0.norm1.bias : tensor<512xf16>
    %323 = torch_c.from_builtin_tensor %_params.vae.decoder.up_blocks.0.resnets.0.norm1.bias : tensor<512xf16> -> !torch.vtensor<[512],f16>
    %int0_353 = torch.constant.int 0
    %324 = torch.aten.unsqueeze %323, %int0_353 : !torch.vtensor<[512],f16>, !torch.int -> !torch.vtensor<[1,512],f16>
    %int2_354 = torch.constant.int 2
    %325 = torch.aten.unsqueeze %324, %int2_354 : !torch.vtensor<[1,512],f16>, !torch.int -> !torch.vtensor<[1,512,1],f16>
    %int3_355 = torch.constant.int 3
    %326 = torch.aten.unsqueeze %325, %int3_355 : !torch.vtensor<[1,512,1],f16>, !torch.int -> !torch.vtensor<[1,512,1,1],f16>
    %_params.vae.decoder.up_blocks.0.resnets.0.norm1.weight = util.global.load @_params.vae.decoder.up_blocks.0.resnets.0.norm1.weight : tensor<512xf16>
    %327 = torch_c.from_builtin_tensor %_params.vae.decoder.up_blocks.0.resnets.0.norm1.weight : tensor<512xf16> -> !torch.vtensor<[512],f16>
    %int0_356 = torch.constant.int 0
    %328 = torch.aten.unsqueeze %327, %int0_356 : !torch.vtensor<[512],f16>, !torch.int -> !torch.vtensor<[1,512],f16>
    %int2_357 = torch.constant.int 2
    %329 = torch.aten.unsqueeze %328, %int2_357 : !torch.vtensor<[1,512],f16>, !torch.int -> !torch.vtensor<[1,512,1],f16>
    %int3_358 = torch.constant.int 3
    %330 = torch.aten.unsqueeze %329, %int3_358 : !torch.vtensor<[1,512,1],f16>, !torch.int -> !torch.vtensor<[1,512,1,1],f16>
    %331 = torch.aten.mul.Tensor %322, %330 : !torch.vtensor<[1,512,128,128],f32>, !torch.vtensor<[1,512,1,1],f16> -> !torch.vtensor<[1,512,128,128],f32>
    %int1_359 = torch.constant.int 1
    %332 = torch.aten.add.Tensor %331, %326, %int1_359 : !torch.vtensor<[1,512,128,128],f32>, !torch.vtensor<[1,512,1,1],f16>, !torch.int -> !torch.vtensor<[1,512,128,128],f32>
    %int5_360 = torch.constant.int 5
    %333 = torch.prims.convert_element_type %332, %int5_360 : !torch.vtensor<[1,512,128,128],f32>, !torch.int -> !torch.vtensor<[1,512,128,128],f16>
    %int5_361 = torch.constant.int 5
    %334 = torch.prims.convert_element_type %result1_345, %int5_361 : !torch.vtensor<[1,32,1,1],f32>, !torch.int -> !torch.vtensor<[1,32,1,1],f16>
    %int5_362 = torch.constant.int 5
    %335 = torch.prims.convert_element_type %318, %int5_362 : !torch.vtensor<[1,32,1,1],f32>, !torch.int -> !torch.vtensor<[1,32,1,1],f16>
    %int3_363 = torch.constant.int 3
    %336 = torch.prim.ListConstruct %int3_363 : (!torch.int) -> !torch.list<int>
    %337 = torch.prims.squeeze %334, %336 : !torch.vtensor<[1,32,1,1],f16>, !torch.list<int> -> !torch.vtensor<[1,32,1],f16>
    %int2_364 = torch.constant.int 2
    %338 = torch.prim.ListConstruct %int2_364 : (!torch.int) -> !torch.list<int>
    %339 = torch.prims.squeeze %337, %338 : !torch.vtensor<[1,32,1],f16>, !torch.list<int> -> !torch.vtensor<[1,32],f16>
    %int3_365 = torch.constant.int 3
    %340 = torch.prim.ListConstruct %int3_365 : (!torch.int) -> !torch.list<int>
    %341 = torch.prims.squeeze %335, %340 : !torch.vtensor<[1,32,1,1],f16>, !torch.list<int> -> !torch.vtensor<[1,32,1],f16>
    %int2_366 = torch.constant.int 2
    %342 = torch.prim.ListConstruct %int2_366 : (!torch.int) -> !torch.list<int>
    %343 = torch.prims.squeeze %341, %342 : !torch.vtensor<[1,32,1],f16>, !torch.list<int> -> !torch.vtensor<[1,32],f16>
    %344 = torch.aten.detach %339 : !torch.vtensor<[1,32],f16> -> !torch.vtensor<[1,32],f16>
    %345 = torch.aten.detach %343 : !torch.vtensor<[1,32],f16> -> !torch.vtensor<[1,32],f16>
    %346 = torch.aten.silu %333 : !torch.vtensor<[1,512,128,128],f16> -> !torch.vtensor<[1,512,128,128],f16>
    %_params.vae.decoder.up_blocks.0.resnets.0.conv1.weight = util.global.load @_params.vae.decoder.up_blocks.0.resnets.0.conv1.weight : tensor<512x512x3x3xf16>
    %347 = torch_c.from_builtin_tensor %_params.vae.decoder.up_blocks.0.resnets.0.conv1.weight : tensor<512x512x3x3xf16> -> !torch.vtensor<[512,512,3,3],f16>
    %_params.vae.decoder.up_blocks.0.resnets.0.conv1.bias = util.global.load @_params.vae.decoder.up_blocks.0.resnets.0.conv1.bias : tensor<512xf16>
    %348 = torch_c.from_builtin_tensor %_params.vae.decoder.up_blocks.0.resnets.0.conv1.bias : tensor<512xf16> -> !torch.vtensor<[512],f16>
    %int1_367 = torch.constant.int 1
    %int1_368 = torch.constant.int 1
    %349 = torch.prim.ListConstruct %int1_367, %int1_368 : (!torch.int, !torch.int) -> !torch.list<int>
    %int1_369 = torch.constant.int 1
    %int1_370 = torch.constant.int 1
    %350 = torch.prim.ListConstruct %int1_369, %int1_370 : (!torch.int, !torch.int) -> !torch.list<int>
    %int1_371 = torch.constant.int 1
    %int1_372 = torch.constant.int 1
    %351 = torch.prim.ListConstruct %int1_371, %int1_372 : (!torch.int, !torch.int) -> !torch.list<int>
    %false_373 = torch.constant.bool false
    %int0_374 = torch.constant.int 0
    %int0_375 = torch.constant.int 0
    %352 = torch.prim.ListConstruct %int0_374, %int0_375 : (!torch.int, !torch.int) -> !torch.list<int>
    %int1_376 = torch.constant.int 1
    %353 = torch.aten.convolution %346, %347, %348, %349, %350, %351, %false_373, %352, %int1_376 : !torch.vtensor<[1,512,128,128],f16>, !torch.vtensor<[512,512,3,3],f16>, !torch.vtensor<[512],f16>, !torch.list<int>, !torch.list<int>, !torch.list<int>, !torch.bool, !torch.list<int>, !torch.int -> !torch.vtensor<[1,512,128,128],f16>
    %int2_377 = torch.constant.int 2
    %354 = torch.aten.clone %353, %int2_377 : !torch.vtensor<[1,512,128,128],f16>, !torch.int -> !torch.vtensor<[1,512,128,128],f16>
    %int1_378 = torch.constant.int 1
    %int32_379 = torch.constant.int 32
    %int16_380 = torch.constant.int 16
    %int16384_381 = torch.constant.int 16384
    %355 = torch.prim.ListConstruct %int1_378, %int32_379, %int16_380, %int16384_381 : (!torch.int, !torch.int, !torch.int, !torch.int) -> !torch.list<int>
    %356 = torch.aten.view %354, %355 : !torch.vtensor<[1,512,128,128],f16>, !torch.list<int> -> !torch.vtensor<[1,32,16,16384],f16>
    %int6_382 = torch.constant.int 6
    %357 = torch.prims.convert_element_type %356, %int6_382 : !torch.vtensor<[1,32,16,16384],f16>, !torch.int -> !torch.vtensor<[1,32,16,16384],f32>
    %int2_383 = torch.constant.int 2
    %int3_384 = torch.constant.int 3
    %358 = torch.prim.ListConstruct %int2_383, %int3_384 : (!torch.int, !torch.int) -> !torch.list<int>
    %int0_385 = torch.constant.int 0
    %true_386 = torch.constant.bool true
    %result0_387, %result1_388 = torch.aten.var_mean.correction %357, %358, %int0_385, %true_386 : !torch.vtensor<[1,32,16,16384],f32>, !torch.list<int>, !torch.int, !torch.bool -> !torch.vtensor<[1,32,1,1],f32>, !torch.vtensor<[1,32,1,1],f32>
    %float9.999990e-07_389 = torch.constant.float 9.9999999999999995E-7
    %int1_390 = torch.constant.int 1
    %359 = torch.aten.add.Scalar %result0_387, %float9.999990e-07_389, %int1_390 : !torch.vtensor<[1,32,1,1],f32>, !torch.float, !torch.int -> !torch.vtensor<[1,32,1,1],f32>
    %360 = torch.aten.rsqrt %359 : !torch.vtensor<[1,32,1,1],f32> -> !torch.vtensor<[1,32,1,1],f32>
    %int1_391 = torch.constant.int 1
    %361 = torch.aten.sub.Tensor %356, %result1_388, %int1_391 : !torch.vtensor<[1,32,16,16384],f16>, !torch.vtensor<[1,32,1,1],f32>, !torch.int -> !torch.vtensor<[1,32,16,16384],f32>
    %362 = torch.aten.mul.Tensor %361, %360 : !torch.vtensor<[1,32,16,16384],f32>, !torch.vtensor<[1,32,1,1],f32> -> !torch.vtensor<[1,32,16,16384],f32>
    %int1_392 = torch.constant.int 1
    %int512_393 = torch.constant.int 512
    %int128_394 = torch.constant.int 128
    %int128_395 = torch.constant.int 128
    %363 = torch.prim.ListConstruct %int1_392, %int512_393, %int128_394, %int128_395 : (!torch.int, !torch.int, !torch.int, !torch.int) -> !torch.list<int>
    %364 = torch.aten.view %362, %363 : !torch.vtensor<[1,32,16,16384],f32>, !torch.list<int> -> !torch.vtensor<[1,512,128,128],f32>
    %_params.vae.decoder.up_blocks.0.resnets.0.norm2.bias = util.global.load @_params.vae.decoder.up_blocks.0.resnets.0.norm2.bias : tensor<512xf16>
    %365 = torch_c.from_builtin_tensor %_params.vae.decoder.up_blocks.0.resnets.0.norm2.bias : tensor<512xf16> -> !torch.vtensor<[512],f16>
    %int0_396 = torch.constant.int 0
    %366 = torch.aten.unsqueeze %365, %int0_396 : !torch.vtensor<[512],f16>, !torch.int -> !torch.vtensor<[1,512],f16>
    %int2_397 = torch.constant.int 2
    %367 = torch.aten.unsqueeze %366, %int2_397 : !torch.vtensor<[1,512],f16>, !torch.int -> !torch.vtensor<[1,512,1],f16>
    %int3_398 = torch.constant.int 3
    %368 = torch.aten.unsqueeze %367, %int3_398 : !torch.vtensor<[1,512,1],f16>, !torch.int -> !torch.vtensor<[1,512,1,1],f16>
    %_params.vae.decoder.up_blocks.0.resnets.0.norm2.weight = util.global.load @_params.vae.decoder.up_blocks.0.resnets.0.norm2.weight : tensor<512xf16>
    %369 = torch_c.from_builtin_tensor %_params.vae.decoder.up_blocks.0.resnets.0.norm2.weight : tensor<512xf16> -> !torch.vtensor<[512],f16>
    %int0_399 = torch.constant.int 0
    %370 = torch.aten.unsqueeze %369, %int0_399 : !torch.vtensor<[512],f16>, !torch.int -> !torch.vtensor<[1,512],f16>
    %int2_400 = torch.constant.int 2
    %371 = torch.aten.unsqueeze %370, %int2_400 : !torch.vtensor<[1,512],f16>, !torch.int -> !torch.vtensor<[1,512,1],f16>
    %int3_401 = torch.constant.int 3
    %372 = torch.aten.unsqueeze %371, %int3_401 : !torch.vtensor<[1,512,1],f16>, !torch.int -> !torch.vtensor<[1,512,1,1],f16>
    %373 = torch.aten.mul.Tensor %364, %372 : !torch.vtensor<[1,512,128,128],f32>, !torch.vtensor<[1,512,1,1],f16> -> !torch.vtensor<[1,512,128,128],f32>
    %int1_402 = torch.constant.int 1
    %374 = torch.aten.add.Tensor %373, %368, %int1_402 : !torch.vtensor<[1,512,128,128],f32>, !torch.vtensor<[1,512,1,1],f16>, !torch.int -> !torch.vtensor<[1,512,128,128],f32>
    %int5_403 = torch.constant.int 5
    %375 = torch.prims.convert_element_type %374, %int5_403 : !torch.vtensor<[1,512,128,128],f32>, !torch.int -> !torch.vtensor<[1,512,128,128],f16>
    %int5_404 = torch.constant.int 5
    %376 = torch.prims.convert_element_type %result1_388, %int5_404 : !torch.vtensor<[1,32,1,1],f32>, !torch.int -> !torch.vtensor<[1,32,1,1],f16>
    %int5_405 = torch.constant.int 5
    %377 = torch.prims.convert_element_type %360, %int5_405 : !torch.vtensor<[1,32,1,1],f32>, !torch.int -> !torch.vtensor<[1,32,1,1],f16>
    %int3_406 = torch.constant.int 3
    %378 = torch.prim.ListConstruct %int3_406 : (!torch.int) -> !torch.list<int>
    %379 = torch.prims.squeeze %376, %378 : !torch.vtensor<[1,32,1,1],f16>, !torch.list<int> -> !torch.vtensor<[1,32,1],f16>
    %int2_407 = torch.constant.int 2
    %380 = torch.prim.ListConstruct %int2_407 : (!torch.int) -> !torch.list<int>
    %381 = torch.prims.squeeze %379, %380 : !torch.vtensor<[1,32,1],f16>, !torch.list<int> -> !torch.vtensor<[1,32],f16>
    %int3_408 = torch.constant.int 3
    %382 = torch.prim.ListConstruct %int3_408 : (!torch.int) -> !torch.list<int>
    %383 = torch.prims.squeeze %377, %382 : !torch.vtensor<[1,32,1,1],f16>, !torch.list<int> -> !torch.vtensor<[1,32,1],f16>
    %int2_409 = torch.constant.int 2
    %384 = torch.prim.ListConstruct %int2_409 : (!torch.int) -> !torch.list<int>
    %385 = torch.prims.squeeze %383, %384 : !torch.vtensor<[1,32,1],f16>, !torch.list<int> -> !torch.vtensor<[1,32],f16>
    %386 = torch.aten.detach %381 : !torch.vtensor<[1,32],f16> -> !torch.vtensor<[1,32],f16>
    %387 = torch.aten.detach %385 : !torch.vtensor<[1,32],f16> -> !torch.vtensor<[1,32],f16>
    %388 = torch.aten.silu %375 : !torch.vtensor<[1,512,128,128],f16> -> !torch.vtensor<[1,512,128,128],f16>
    %none_410 = torch.constant.none
    %389 = torch.aten.clone %388, %none_410 : !torch.vtensor<[1,512,128,128],f16>, !torch.none -> !torch.vtensor<[1,512,128,128],f16>
    %_params.vae.decoder.up_blocks.0.resnets.0.conv2.weight = util.global.load @_params.vae.decoder.up_blocks.0.resnets.0.conv2.weight : tensor<512x512x3x3xf16>
    %390 = torch_c.from_builtin_tensor %_params.vae.decoder.up_blocks.0.resnets.0.conv2.weight : tensor<512x512x3x3xf16> -> !torch.vtensor<[512,512,3,3],f16>
    %_params.vae.decoder.up_blocks.0.resnets.0.conv2.bias = util.global.load @_params.vae.decoder.up_blocks.0.resnets.0.conv2.bias : tensor<512xf16>
    %391 = torch_c.from_builtin_tensor %_params.vae.decoder.up_blocks.0.resnets.0.conv2.bias : tensor<512xf16> -> !torch.vtensor<[512],f16>
    %int1_411 = torch.constant.int 1
    %int1_412 = torch.constant.int 1
    %392 = torch.prim.ListConstruct %int1_411, %int1_412 : (!torch.int, !torch.int) -> !torch.list<int>
    %int1_413 = torch.constant.int 1
    %int1_414 = torch.constant.int 1
    %393 = torch.prim.ListConstruct %int1_413, %int1_414 : (!torch.int, !torch.int) -> !torch.list<int>
    %int1_415 = torch.constant.int 1
    %int1_416 = torch.constant.int 1
    %394 = torch.prim.ListConstruct %int1_415, %int1_416 : (!torch.int, !torch.int) -> !torch.list<int>
    %false_417 = torch.constant.bool false
    %int0_418 = torch.constant.int 0
    %int0_419 = torch.constant.int 0
    %395 = torch.prim.ListConstruct %int0_418, %int0_419 : (!torch.int, !torch.int) -> !torch.list<int>
    %int1_420 = torch.constant.int 1
    %396 = torch.aten.convolution %389, %390, %391, %392, %393, %394, %false_417, %395, %int1_420 : !torch.vtensor<[1,512,128,128],f16>, !torch.vtensor<[512,512,3,3],f16>, !torch.vtensor<[512],f16>, !torch.list<int>, !torch.list<int>, !torch.list<int>, !torch.bool, !torch.list<int>, !torch.int -> !torch.vtensor<[1,512,128,128],f16>
    %int1_421 = torch.constant.int 1
    %397 = torch.aten.add.Tensor %311, %396, %int1_421 : !torch.vtensor<[1,512,128,128],f16>, !torch.vtensor<[1,512,128,128],f16>, !torch.int -> !torch.vtensor<[1,512,128,128],f16>
    %float1.000000e00 = torch.constant.float 1.000000e+00
    %398 = torch.aten.div.Scalar %397, %float1.000000e00 : !torch.vtensor<[1,512,128,128],f16>, !torch.float -> !torch.vtensor<[1,512,128,128],f16>
    %int2_422 = torch.constant.int 2
    %399 = torch.aten.clone %398, %int2_422 : !torch.vtensor<[1,512,128,128],f16>, !torch.int -> !torch.vtensor<[1,512,128,128],f16>
    %int1_423 = torch.constant.int 1
    %int32_424 = torch.constant.int 32
    %int16_425 = torch.constant.int 16
    %int16384_426 = torch.constant.int 16384
    %400 = torch.prim.ListConstruct %int1_423, %int32_424, %int16_425, %int16384_426 : (!torch.int, !torch.int, !torch.int, !torch.int) -> !torch.list<int>
    %401 = torch.aten.view %399, %400 : !torch.vtensor<[1,512,128,128],f16>, !torch.list<int> -> !torch.vtensor<[1,32,16,16384],f16>
    %int6_427 = torch.constant.int 6
    %402 = torch.prims.convert_element_type %401, %int6_427 : !torch.vtensor<[1,32,16,16384],f16>, !torch.int -> !torch.vtensor<[1,32,16,16384],f32>
    %int2_428 = torch.constant.int 2
    %int3_429 = torch.constant.int 3
    %403 = torch.prim.ListConstruct %int2_428, %int3_429 : (!torch.int, !torch.int) -> !torch.list<int>
    %int0_430 = torch.constant.int 0
    %true_431 = torch.constant.bool true
    %result0_432, %result1_433 = torch.aten.var_mean.correction %402, %403, %int0_430, %true_431 : !torch.vtensor<[1,32,16,16384],f32>, !torch.list<int>, !torch.int, !torch.bool -> !torch.vtensor<[1,32,1,1],f32>, !torch.vtensor<[1,32,1,1],f32>
    %float9.999990e-07_434 = torch.constant.float 9.9999999999999995E-7
    %int1_435 = torch.constant.int 1
    %404 = torch.aten.add.Scalar %result0_432, %float9.999990e-07_434, %int1_435 : !torch.vtensor<[1,32,1,1],f32>, !torch.float, !torch.int -> !torch.vtensor<[1,32,1,1],f32>
    %405 = torch.aten.rsqrt %404 : !torch.vtensor<[1,32,1,1],f32> -> !torch.vtensor<[1,32,1,1],f32>
    %int1_436 = torch.constant.int 1
    %406 = torch.aten.sub.Tensor %401, %result1_433, %int1_436 : !torch.vtensor<[1,32,16,16384],f16>, !torch.vtensor<[1,32,1,1],f32>, !torch.int -> !torch.vtensor<[1,32,16,16384],f32>
    %407 = torch.aten.mul.Tensor %406, %405 : !torch.vtensor<[1,32,16,16384],f32>, !torch.vtensor<[1,32,1,1],f32> -> !torch.vtensor<[1,32,16,16384],f32>
    %int1_437 = torch.constant.int 1
    %int512_438 = torch.constant.int 512
    %int128_439 = torch.constant.int 128
    %int128_440 = torch.constant.int 128
    %408 = torch.prim.ListConstruct %int1_437, %int512_438, %int128_439, %int128_440 : (!torch.int, !torch.int, !torch.int, !torch.int) -> !torch.list<int>
    %409 = torch.aten.view %407, %408 : !torch.vtensor<[1,32,16,16384],f32>, !torch.list<int> -> !torch.vtensor<[1,512,128,128],f32>
    %_params.vae.decoder.up_blocks.0.resnets.1.norm1.bias = util.global.load @_params.vae.decoder.up_blocks.0.resnets.1.norm1.bias : tensor<512xf16>
    %410 = torch_c.from_builtin_tensor %_params.vae.decoder.up_blocks.0.resnets.1.norm1.bias : tensor<512xf16> -> !torch.vtensor<[512],f16>
    %int0_441 = torch.constant.int 0
    %411 = torch.aten.unsqueeze %410, %int0_441 : !torch.vtensor<[512],f16>, !torch.int -> !torch.vtensor<[1,512],f16>
    %int2_442 = torch.constant.int 2
    %412 = torch.aten.unsqueeze %411, %int2_442 : !torch.vtensor<[1,512],f16>, !torch.int -> !torch.vtensor<[1,512,1],f16>
    %int3_443 = torch.constant.int 3
    %413 = torch.aten.unsqueeze %412, %int3_443 : !torch.vtensor<[1,512,1],f16>, !torch.int -> !torch.vtensor<[1,512,1,1],f16>
    %_params.vae.decoder.up_blocks.0.resnets.1.norm1.weight = util.global.load @_params.vae.decoder.up_blocks.0.resnets.1.norm1.weight : tensor<512xf16>
    %414 = torch_c.from_builtin_tensor %_params.vae.decoder.up_blocks.0.resnets.1.norm1.weight : tensor<512xf16> -> !torch.vtensor<[512],f16>
    %int0_444 = torch.constant.int 0
    %415 = torch.aten.unsqueeze %414, %int0_444 : !torch.vtensor<[512],f16>, !torch.int -> !torch.vtensor<[1,512],f16>
    %int2_445 = torch.constant.int 2
    %416 = torch.aten.unsqueeze %415, %int2_445 : !torch.vtensor<[1,512],f16>, !torch.int -> !torch.vtensor<[1,512,1],f16>
    %int3_446 = torch.constant.int 3
    %417 = torch.aten.unsqueeze %416, %int3_446 : !torch.vtensor<[1,512,1],f16>, !torch.int -> !torch.vtensor<[1,512,1,1],f16>
    %418 = torch.aten.mul.Tensor %409, %417 : !torch.vtensor<[1,512,128,128],f32>, !torch.vtensor<[1,512,1,1],f16> -> !torch.vtensor<[1,512,128,128],f32>
    %int1_447 = torch.constant.int 1
    %419 = torch.aten.add.Tensor %418, %413, %int1_447 : !torch.vtensor<[1,512,128,128],f32>, !torch.vtensor<[1,512,1,1],f16>, !torch.int -> !torch.vtensor<[1,512,128,128],f32>
    %int5_448 = torch.constant.int 5
    %420 = torch.prims.convert_element_type %419, %int5_448 : !torch.vtensor<[1,512,128,128],f32>, !torch.int -> !torch.vtensor<[1,512,128,128],f16>
    %int5_449 = torch.constant.int 5
    %421 = torch.prims.convert_element_type %result1_433, %int5_449 : !torch.vtensor<[1,32,1,1],f32>, !torch.int -> !torch.vtensor<[1,32,1,1],f16>
    %int5_450 = torch.constant.int 5
    %422 = torch.prims.convert_element_type %405, %int5_450 : !torch.vtensor<[1,32,1,1],f32>, !torch.int -> !torch.vtensor<[1,32,1,1],f16>
    %int3_451 = torch.constant.int 3
    %423 = torch.prim.ListConstruct %int3_451 : (!torch.int) -> !torch.list<int>
    %424 = torch.prims.squeeze %421, %423 : !torch.vtensor<[1,32,1,1],f16>, !torch.list<int> -> !torch.vtensor<[1,32,1],f16>
    %int2_452 = torch.constant.int 2
    %425 = torch.prim.ListConstruct %int2_452 : (!torch.int) -> !torch.list<int>
    %426 = torch.prims.squeeze %424, %425 : !torch.vtensor<[1,32,1],f16>, !torch.list<int> -> !torch.vtensor<[1,32],f16>
    %int3_453 = torch.constant.int 3
    %427 = torch.prim.ListConstruct %int3_453 : (!torch.int) -> !torch.list<int>
    %428 = torch.prims.squeeze %422, %427 : !torch.vtensor<[1,32,1,1],f16>, !torch.list<int> -> !torch.vtensor<[1,32,1],f16>
    %int2_454 = torch.constant.int 2
    %429 = torch.prim.ListConstruct %int2_454 : (!torch.int) -> !torch.list<int>
    %430 = torch.prims.squeeze %428, %429 : !torch.vtensor<[1,32,1],f16>, !torch.list<int> -> !torch.vtensor<[1,32],f16>
    %431 = torch.aten.detach %426 : !torch.vtensor<[1,32],f16> -> !torch.vtensor<[1,32],f16>
    %432 = torch.aten.detach %430 : !torch.vtensor<[1,32],f16> -> !torch.vtensor<[1,32],f16>
    %433 = torch.aten.silu %420 : !torch.vtensor<[1,512,128,128],f16> -> !torch.vtensor<[1,512,128,128],f16>
    %_params.vae.decoder.up_blocks.0.resnets.1.conv1.weight = util.global.load @_params.vae.decoder.up_blocks.0.resnets.1.conv1.weight : tensor<512x512x3x3xf16>
    %434 = torch_c.from_builtin_tensor %_params.vae.decoder.up_blocks.0.resnets.1.conv1.weight : tensor<512x512x3x3xf16> -> !torch.vtensor<[512,512,3,3],f16>
    %_params.vae.decoder.up_blocks.0.resnets.1.conv1.bias = util.global.load @_params.vae.decoder.up_blocks.0.resnets.1.conv1.bias : tensor<512xf16>
    %435 = torch_c.from_builtin_tensor %_params.vae.decoder.up_blocks.0.resnets.1.conv1.bias : tensor<512xf16> -> !torch.vtensor<[512],f16>
    %int1_455 = torch.constant.int 1
    %int1_456 = torch.constant.int 1
    %436 = torch.prim.ListConstruct %int1_455, %int1_456 : (!torch.int, !torch.int) -> !torch.list<int>
    %int1_457 = torch.constant.int 1
    %int1_458 = torch.constant.int 1
    %437 = torch.prim.ListConstruct %int1_457, %int1_458 : (!torch.int, !torch.int) -> !torch.list<int>
    %int1_459 = torch.constant.int 1
    %int1_460 = torch.constant.int 1
    %438 = torch.prim.ListConstruct %int1_459, %int1_460 : (!torch.int, !torch.int) -> !torch.list<int>
    %false_461 = torch.constant.bool false
    %int0_462 = torch.constant.int 0
    %int0_463 = torch.constant.int 0
    %439 = torch.prim.ListConstruct %int0_462, %int0_463 : (!torch.int, !torch.int) -> !torch.list<int>
    %int1_464 = torch.constant.int 1
    %440 = torch.aten.convolution %433, %434, %435, %436, %437, %438, %false_461, %439, %int1_464 : !torch.vtensor<[1,512,128,128],f16>, !torch.vtensor<[512,512,3,3],f16>, !torch.vtensor<[512],f16>, !torch.list<int>, !torch.list<int>, !torch.list<int>, !torch.bool, !torch.list<int>, !torch.int -> !torch.vtensor<[1,512,128,128],f16>
    %int2_465 = torch.constant.int 2
    %441 = torch.aten.clone %440, %int2_465 : !torch.vtensor<[1,512,128,128],f16>, !torch.int -> !torch.vtensor<[1,512,128,128],f16>
    %int1_466 = torch.constant.int 1
    %int32_467 = torch.constant.int 32
    %int16_468 = torch.constant.int 16
    %int16384_469 = torch.constant.int 16384
    %442 = torch.prim.ListConstruct %int1_466, %int32_467, %int16_468, %int16384_469 : (!torch.int, !torch.int, !torch.int, !torch.int) -> !torch.list<int>
    %443 = torch.aten.view %441, %442 : !torch.vtensor<[1,512,128,128],f16>, !torch.list<int> -> !torch.vtensor<[1,32,16,16384],f16>
    %int6_470 = torch.constant.int 6
    %444 = torch.prims.convert_element_type %443, %int6_470 : !torch.vtensor<[1,32,16,16384],f16>, !torch.int -> !torch.vtensor<[1,32,16,16384],f32>
    %int2_471 = torch.constant.int 2
    %int3_472 = torch.constant.int 3
    %445 = torch.prim.ListConstruct %int2_471, %int3_472 : (!torch.int, !torch.int) -> !torch.list<int>
    %int0_473 = torch.constant.int 0
    %true_474 = torch.constant.bool true
    %result0_475, %result1_476 = torch.aten.var_mean.correction %444, %445, %int0_473, %true_474 : !torch.vtensor<[1,32,16,16384],f32>, !torch.list<int>, !torch.int, !torch.bool -> !torch.vtensor<[1,32,1,1],f32>, !torch.vtensor<[1,32,1,1],f32>
    %float9.999990e-07_477 = torch.constant.float 9.9999999999999995E-7
    %int1_478 = torch.constant.int 1
    %446 = torch.aten.add.Scalar %result0_475, %float9.999990e-07_477, %int1_478 : !torch.vtensor<[1,32,1,1],f32>, !torch.float, !torch.int -> !torch.vtensor<[1,32,1,1],f32>
    %447 = torch.aten.rsqrt %446 : !torch.vtensor<[1,32,1,1],f32> -> !torch.vtensor<[1,32,1,1],f32>
    %int1_479 = torch.constant.int 1
    %448 = torch.aten.sub.Tensor %443, %result1_476, %int1_479 : !torch.vtensor<[1,32,16,16384],f16>, !torch.vtensor<[1,32,1,1],f32>, !torch.int -> !torch.vtensor<[1,32,16,16384],f32>
    %449 = torch.aten.mul.Tensor %448, %447 : !torch.vtensor<[1,32,16,16384],f32>, !torch.vtensor<[1,32,1,1],f32> -> !torch.vtensor<[1,32,16,16384],f32>
    %int1_480 = torch.constant.int 1
    %int512_481 = torch.constant.int 512
    %int128_482 = torch.constant.int 128
    %int128_483 = torch.constant.int 128
    %450 = torch.prim.ListConstruct %int1_480, %int512_481, %int128_482, %int128_483 : (!torch.int, !torch.int, !torch.int, !torch.int) -> !torch.list<int>
    %451 = torch.aten.view %449, %450 : !torch.vtensor<[1,32,16,16384],f32>, !torch.list<int> -> !torch.vtensor<[1,512,128,128],f32>
    %_params.vae.decoder.up_blocks.0.resnets.1.norm2.bias = util.global.load @_params.vae.decoder.up_blocks.0.resnets.1.norm2.bias : tensor<512xf16>
    %452 = torch_c.from_builtin_tensor %_params.vae.decoder.up_blocks.0.resnets.1.norm2.bias : tensor<512xf16> -> !torch.vtensor<[512],f16>
    %int0_484 = torch.constant.int 0
    %453 = torch.aten.unsqueeze %452, %int0_484 : !torch.vtensor<[512],f16>, !torch.int -> !torch.vtensor<[1,512],f16>
    %int2_485 = torch.constant.int 2
    %454 = torch.aten.unsqueeze %453, %int2_485 : !torch.vtensor<[1,512],f16>, !torch.int -> !torch.vtensor<[1,512,1],f16>
    %int3_486 = torch.constant.int 3
    %455 = torch.aten.unsqueeze %454, %int3_486 : !torch.vtensor<[1,512,1],f16>, !torch.int -> !torch.vtensor<[1,512,1,1],f16>
    %_params.vae.decoder.up_blocks.0.resnets.1.norm2.weight = util.global.load @_params.vae.decoder.up_blocks.0.resnets.1.norm2.weight : tensor<512xf16>
    %456 = torch_c.from_builtin_tensor %_params.vae.decoder.up_blocks.0.resnets.1.norm2.weight : tensor<512xf16> -> !torch.vtensor<[512],f16>
    %int0_487 = torch.constant.int 0
    %457 = torch.aten.unsqueeze %456, %int0_487 : !torch.vtensor<[512],f16>, !torch.int -> !torch.vtensor<[1,512],f16>
    %int2_488 = torch.constant.int 2
    %458 = torch.aten.unsqueeze %457, %int2_488 : !torch.vtensor<[1,512],f16>, !torch.int -> !torch.vtensor<[1,512,1],f16>
    %int3_489 = torch.constant.int 3
    %459 = torch.aten.unsqueeze %458, %int3_489 : !torch.vtensor<[1,512,1],f16>, !torch.int -> !torch.vtensor<[1,512,1,1],f16>
    %460 = torch.aten.mul.Tensor %451, %459 : !torch.vtensor<[1,512,128,128],f32>, !torch.vtensor<[1,512,1,1],f16> -> !torch.vtensor<[1,512,128,128],f32>
    %int1_490 = torch.constant.int 1
    %461 = torch.aten.add.Tensor %460, %455, %int1_490 : !torch.vtensor<[1,512,128,128],f32>, !torch.vtensor<[1,512,1,1],f16>, !torch.int -> !torch.vtensor<[1,512,128,128],f32>
    %int5_491 = torch.constant.int 5
    %462 = torch.prims.convert_element_type %461, %int5_491 : !torch.vtensor<[1,512,128,128],f32>, !torch.int -> !torch.vtensor<[1,512,128,128],f16>
    %int5_492 = torch.constant.int 5
    %463 = torch.prims.convert_element_type %result1_476, %int5_492 : !torch.vtensor<[1,32,1,1],f32>, !torch.int -> !torch.vtensor<[1,32,1,1],f16>
    %int5_493 = torch.constant.int 5
    %464 = torch.prims.convert_element_type %447, %int5_493 : !torch.vtensor<[1,32,1,1],f32>, !torch.int -> !torch.vtensor<[1,32,1,1],f16>
    %int3_494 = torch.constant.int 3
    %465 = torch.prim.ListConstruct %int3_494 : (!torch.int) -> !torch.list<int>
    %466 = torch.prims.squeeze %463, %465 : !torch.vtensor<[1,32,1,1],f16>, !torch.list<int> -> !torch.vtensor<[1,32,1],f16>
    %int2_495 = torch.constant.int 2
    %467 = torch.prim.ListConstruct %int2_495 : (!torch.int) -> !torch.list<int>
    %468 = torch.prims.squeeze %466, %467 : !torch.vtensor<[1,32,1],f16>, !torch.list<int> -> !torch.vtensor<[1,32],f16>
    %int3_496 = torch.constant.int 3
    %469 = torch.prim.ListConstruct %int3_496 : (!torch.int) -> !torch.list<int>
    %470 = torch.prims.squeeze %464, %469 : !torch.vtensor<[1,32,1,1],f16>, !torch.list<int> -> !torch.vtensor<[1,32,1],f16>
    %int2_497 = torch.constant.int 2
    %471 = torch.prim.ListConstruct %int2_497 : (!torch.int) -> !torch.list<int>
    %472 = torch.prims.squeeze %470, %471 : !torch.vtensor<[1,32,1],f16>, !torch.list<int> -> !torch.vtensor<[1,32],f16>
    %473 = torch.aten.detach %468 : !torch.vtensor<[1,32],f16> -> !torch.vtensor<[1,32],f16>
    %474 = torch.aten.detach %472 : !torch.vtensor<[1,32],f16> -> !torch.vtensor<[1,32],f16>
    %475 = torch.aten.silu %462 : !torch.vtensor<[1,512,128,128],f16> -> !torch.vtensor<[1,512,128,128],f16>
    %none_498 = torch.constant.none
    %476 = torch.aten.clone %475, %none_498 : !torch.vtensor<[1,512,128,128],f16>, !torch.none -> !torch.vtensor<[1,512,128,128],f16>
    %_params.vae.decoder.up_blocks.0.resnets.1.conv2.weight = util.global.load @_params.vae.decoder.up_blocks.0.resnets.1.conv2.weight : tensor<512x512x3x3xf16>
    %477 = torch_c.from_builtin_tensor %_params.vae.decoder.up_blocks.0.resnets.1.conv2.weight : tensor<512x512x3x3xf16> -> !torch.vtensor<[512,512,3,3],f16>
    %_params.vae.decoder.up_blocks.0.resnets.1.conv2.bias = util.global.load @_params.vae.decoder.up_blocks.0.resnets.1.conv2.bias : tensor<512xf16>
    %478 = torch_c.from_builtin_tensor %_params.vae.decoder.up_blocks.0.resnets.1.conv2.bias : tensor<512xf16> -> !torch.vtensor<[512],f16>
    %int1_499 = torch.constant.int 1
    %int1_500 = torch.constant.int 1
    %479 = torch.prim.ListConstruct %int1_499, %int1_500 : (!torch.int, !torch.int) -> !torch.list<int>
    %int1_501 = torch.constant.int 1
    %int1_502 = torch.constant.int 1
    %480 = torch.prim.ListConstruct %int1_501, %int1_502 : (!torch.int, !torch.int) -> !torch.list<int>
    %int1_503 = torch.constant.int 1
    %int1_504 = torch.constant.int 1
    %481 = torch.prim.ListConstruct %int1_503, %int1_504 : (!torch.int, !torch.int) -> !torch.list<int>
    %false_505 = torch.constant.bool false
    %int0_506 = torch.constant.int 0
    %int0_507 = torch.constant.int 0
    %482 = torch.prim.ListConstruct %int0_506, %int0_507 : (!torch.int, !torch.int) -> !torch.list<int>
    %int1_508 = torch.constant.int 1
    %483 = torch.aten.convolution %476, %477, %478, %479, %480, %481, %false_505, %482, %int1_508 : !torch.vtensor<[1,512,128,128],f16>, !torch.vtensor<[512,512,3,3],f16>, !torch.vtensor<[512],f16>, !torch.list<int>, !torch.list<int>, !torch.list<int>, !torch.bool, !torch.list<int>, !torch.int -> !torch.vtensor<[1,512,128,128],f16>
    %int1_509 = torch.constant.int 1
    %484 = torch.aten.add.Tensor %398, %483, %int1_509 : !torch.vtensor<[1,512,128,128],f16>, !torch.vtensor<[1,512,128,128],f16>, !torch.int -> !torch.vtensor<[1,512,128,128],f16>
    %float1.000000e00_510 = torch.constant.float 1.000000e+00
    %485 = torch.aten.div.Scalar %484, %float1.000000e00_510 : !torch.vtensor<[1,512,128,128],f16>, !torch.float -> !torch.vtensor<[1,512,128,128],f16>
    %int2_511 = torch.constant.int 2
    %486 = torch.aten.clone %485, %int2_511 : !torch.vtensor<[1,512,128,128],f16>, !torch.int -> !torch.vtensor<[1,512,128,128],f16>
    %int1_512 = torch.constant.int 1
    %int32_513 = torch.constant.int 32
    %int16_514 = torch.constant.int 16
    %int16384_515 = torch.constant.int 16384
    %487 = torch.prim.ListConstruct %int1_512, %int32_513, %int16_514, %int16384_515 : (!torch.int, !torch.int, !torch.int, !torch.int) -> !torch.list<int>
    %488 = torch.aten.view %486, %487 : !torch.vtensor<[1,512,128,128],f16>, !torch.list<int> -> !torch.vtensor<[1,32,16,16384],f16>
    %int6_516 = torch.constant.int 6
    %489 = torch.prims.convert_element_type %488, %int6_516 : !torch.vtensor<[1,32,16,16384],f16>, !torch.int -> !torch.vtensor<[1,32,16,16384],f32>
    %int2_517 = torch.constant.int 2
    %int3_518 = torch.constant.int 3
    %490 = torch.prim.ListConstruct %int2_517, %int3_518 : (!torch.int, !torch.int) -> !torch.list<int>
    %int0_519 = torch.constant.int 0
    %true_520 = torch.constant.bool true
    %result0_521, %result1_522 = torch.aten.var_mean.correction %489, %490, %int0_519, %true_520 : !torch.vtensor<[1,32,16,16384],f32>, !torch.list<int>, !torch.int, !torch.bool -> !torch.vtensor<[1,32,1,1],f32>, !torch.vtensor<[1,32,1,1],f32>
    %float9.999990e-07_523 = torch.constant.float 9.9999999999999995E-7
    %int1_524 = torch.constant.int 1
    %491 = torch.aten.add.Scalar %result0_521, %float9.999990e-07_523, %int1_524 : !torch.vtensor<[1,32,1,1],f32>, !torch.float, !torch.int -> !torch.vtensor<[1,32,1,1],f32>
    %492 = torch.aten.rsqrt %491 : !torch.vtensor<[1,32,1,1],f32> -> !torch.vtensor<[1,32,1,1],f32>
    %int1_525 = torch.constant.int 1
    %493 = torch.aten.sub.Tensor %488, %result1_522, %int1_525 : !torch.vtensor<[1,32,16,16384],f16>, !torch.vtensor<[1,32,1,1],f32>, !torch.int -> !torch.vtensor<[1,32,16,16384],f32>
    %494 = torch.aten.mul.Tensor %493, %492 : !torch.vtensor<[1,32,16,16384],f32>, !torch.vtensor<[1,32,1,1],f32> -> !torch.vtensor<[1,32,16,16384],f32>
    %int1_526 = torch.constant.int 1
    %int512_527 = torch.constant.int 512
    %int128_528 = torch.constant.int 128
    %int128_529 = torch.constant.int 128
    %495 = torch.prim.ListConstruct %int1_526, %int512_527, %int128_528, %int128_529 : (!torch.int, !torch.int, !torch.int, !torch.int) -> !torch.list<int>
    %496 = torch.aten.view %494, %495 : !torch.vtensor<[1,32,16,16384],f32>, !torch.list<int> -> !torch.vtensor<[1,512,128,128],f32>
    %_params.vae.decoder.up_blocks.0.resnets.2.norm1.bias = util.global.load @_params.vae.decoder.up_blocks.0.resnets.2.norm1.bias : tensor<512xf16>
    %497 = torch_c.from_builtin_tensor %_params.vae.decoder.up_blocks.0.resnets.2.norm1.bias : tensor<512xf16> -> !torch.vtensor<[512],f16>
    %int0_530 = torch.constant.int 0
    %498 = torch.aten.unsqueeze %497, %int0_530 : !torch.vtensor<[512],f16>, !torch.int -> !torch.vtensor<[1,512],f16>
    %int2_531 = torch.constant.int 2
    %499 = torch.aten.unsqueeze %498, %int2_531 : !torch.vtensor<[1,512],f16>, !torch.int -> !torch.vtensor<[1,512,1],f16>
    %int3_532 = torch.constant.int 3
    %500 = torch.aten.unsqueeze %499, %int3_532 : !torch.vtensor<[1,512,1],f16>, !torch.int -> !torch.vtensor<[1,512,1,1],f16>
    %_params.vae.decoder.up_blocks.0.resnets.2.norm1.weight = util.global.load @_params.vae.decoder.up_blocks.0.resnets.2.norm1.weight : tensor<512xf16>
    %501 = torch_c.from_builtin_tensor %_params.vae.decoder.up_blocks.0.resnets.2.norm1.weight : tensor<512xf16> -> !torch.vtensor<[512],f16>
    %int0_533 = torch.constant.int 0
    %502 = torch.aten.unsqueeze %501, %int0_533 : !torch.vtensor<[512],f16>, !torch.int -> !torch.vtensor<[1,512],f16>
    %int2_534 = torch.constant.int 2
    %503 = torch.aten.unsqueeze %502, %int2_534 : !torch.vtensor<[1,512],f16>, !torch.int -> !torch.vtensor<[1,512,1],f16>
    %int3_535 = torch.constant.int 3
    %504 = torch.aten.unsqueeze %503, %int3_535 : !torch.vtensor<[1,512,1],f16>, !torch.int -> !torch.vtensor<[1,512,1,1],f16>
    %505 = torch.aten.mul.Tensor %496, %504 : !torch.vtensor<[1,512,128,128],f32>, !torch.vtensor<[1,512,1,1],f16> -> !torch.vtensor<[1,512,128,128],f32>
    %int1_536 = torch.constant.int 1
    %506 = torch.aten.add.Tensor %505, %500, %int1_536 : !torch.vtensor<[1,512,128,128],f32>, !torch.vtensor<[1,512,1,1],f16>, !torch.int -> !torch.vtensor<[1,512,128,128],f32>
    %int5_537 = torch.constant.int 5
    %507 = torch.prims.convert_element_type %506, %int5_537 : !torch.vtensor<[1,512,128,128],f32>, !torch.int -> !torch.vtensor<[1,512,128,128],f16>
    %int5_538 = torch.constant.int 5
    %508 = torch.prims.convert_element_type %result1_522, %int5_538 : !torch.vtensor<[1,32,1,1],f32>, !torch.int -> !torch.vtensor<[1,32,1,1],f16>
    %int5_539 = torch.constant.int 5
    %509 = torch.prims.convert_element_type %492, %int5_539 : !torch.vtensor<[1,32,1,1],f32>, !torch.int -> !torch.vtensor<[1,32,1,1],f16>
    %int3_540 = torch.constant.int 3
    %510 = torch.prim.ListConstruct %int3_540 : (!torch.int) -> !torch.list<int>
    %511 = torch.prims.squeeze %508, %510 : !torch.vtensor<[1,32,1,1],f16>, !torch.list<int> -> !torch.vtensor<[1,32,1],f16>
    %int2_541 = torch.constant.int 2
    %512 = torch.prim.ListConstruct %int2_541 : (!torch.int) -> !torch.list<int>
    %513 = torch.prims.squeeze %511, %512 : !torch.vtensor<[1,32,1],f16>, !torch.list<int> -> !torch.vtensor<[1,32],f16>
    %int3_542 = torch.constant.int 3
    %514 = torch.prim.ListConstruct %int3_542 : (!torch.int) -> !torch.list<int>
    %515 = torch.prims.squeeze %509, %514 : !torch.vtensor<[1,32,1,1],f16>, !torch.list<int> -> !torch.vtensor<[1,32,1],f16>
    %int2_543 = torch.constant.int 2
    %516 = torch.prim.ListConstruct %int2_543 : (!torch.int) -> !torch.list<int>
    %517 = torch.prims.squeeze %515, %516 : !torch.vtensor<[1,32,1],f16>, !torch.list<int> -> !torch.vtensor<[1,32],f16>
    %518 = torch.aten.detach %513 : !torch.vtensor<[1,32],f16> -> !torch.vtensor<[1,32],f16>
    %519 = torch.aten.detach %517 : !torch.vtensor<[1,32],f16> -> !torch.vtensor<[1,32],f16>
    %520 = torch.aten.silu %507 : !torch.vtensor<[1,512,128,128],f16> -> !torch.vtensor<[1,512,128,128],f16>
    %_params.vae.decoder.up_blocks.0.resnets.2.conv1.weight = util.global.load @_params.vae.decoder.up_blocks.0.resnets.2.conv1.weight : tensor<512x512x3x3xf16>
    %521 = torch_c.from_builtin_tensor %_params.vae.decoder.up_blocks.0.resnets.2.conv1.weight : tensor<512x512x3x3xf16> -> !torch.vtensor<[512,512,3,3],f16>
    %_params.vae.decoder.up_blocks.0.resnets.2.conv1.bias = util.global.load @_params.vae.decoder.up_blocks.0.resnets.2.conv1.bias : tensor<512xf16>
    %522 = torch_c.from_builtin_tensor %_params.vae.decoder.up_blocks.0.resnets.2.conv1.bias : tensor<512xf16> -> !torch.vtensor<[512],f16>
    %int1_544 = torch.constant.int 1
    %int1_545 = torch.constant.int 1
    %523 = torch.prim.ListConstruct %int1_544, %int1_545 : (!torch.int, !torch.int) -> !torch.list<int>
    %int1_546 = torch.constant.int 1
    %int1_547 = torch.constant.int 1
    %524 = torch.prim.ListConstruct %int1_546, %int1_547 : (!torch.int, !torch.int) -> !torch.list<int>
    %int1_548 = torch.constant.int 1
    %int1_549 = torch.constant.int 1
    %525 = torch.prim.ListConstruct %int1_548, %int1_549 : (!torch.int, !torch.int) -> !torch.list<int>
    %false_550 = torch.constant.bool false
    %int0_551 = torch.constant.int 0
    %int0_552 = torch.constant.int 0
    %526 = torch.prim.ListConstruct %int0_551, %int0_552 : (!torch.int, !torch.int) -> !torch.list<int>
    %int1_553 = torch.constant.int 1
…
    %1221 = torch.aten.unsqueeze %1220, %int3_1300 : !torch.vtensor<[1,128,1],f16>, !torch.int -> !torch.vtensor<[1,128,1,1],f16>
    %_params.vae.decoder.up_blocks.3.resnets.0.norm2.weight = util.global.load @_params.vae.decoder.up_blocks.3.resnets.0.norm2.weight : tensor<128xf16>
    %1222 = torch_c.from_builtin_tensor %_params.vae.decoder.up_blocks.3.resnets.0.norm2.weight : tensor<128xf16> -> !torch.vtensor<[128],f16>
    %int0_1301 = torch.constant.int 0
    %1223 = torch.aten.unsqueeze %1222, %int0_1301 : !torch.vtensor<[128],f16>, !torch.int -> !torch.vtensor<[1,128],f16>
    %int2_1302 = torch.constant.int 2
    %1224 = torch.aten.unsqueeze %1223, %int2_1302 : !torch.vtensor<[1,128],f16>, !torch.int -> !torch.vtensor<[1,128,1],f16>
    %int3_1303 = torch.constant.int 3
    %1225 = torch.aten.unsqueeze %1224, %int3_1303 : !torch.vtensor<[1,128,1],f16>, !torch.int -> !torch.vtensor<[1,128,1,1],f16>
    %1226 = torch.aten.mul.Tensor %1217, %1225 : !torch.vtensor<[1,128,1024,1024],f32>, !torch.vtensor<[1,128,1,1],f16> -> !torch.vtensor<[1,128,1024,1024],f32>
    %int1_1304 = torch.constant.int 1
    %1227 = torch.aten.add.Tensor %1226, %1221, %int1_1304 : !torch.vtensor<[1,128,1024,1024],f32>, !torch.vtensor<[1,128,1,1],f16>, !torch.int -> !torch.vtensor<[1,128,1024,1024],f32>
    %int5_1305 = torch.constant.int 5
    %1228 = torch.prims.convert_element_type %1227, %int5_1305 : !torch.vtensor<[1,128,1024,1024],f32>, !torch.int -> !torch.vtensor<[1,128,1024,1024],f16>
    %int5_1306 = torch.constant.int 5
    %1229 = torch.prims.convert_element_type %result1_1290, %int5_1306 : !torch.vtensor<[1,32,1,1],f32>, !torch.int -> !torch.vtensor<[1,32,1,1],f16>
    %int5_1307 = torch.constant.int 5
    %1230 = torch.prims.convert_element_type %1213, %int5_1307 : !torch.vtensor<[1,32,1,1],f32>, !torch.int -> !torch.vtensor<[1,32,1,1],f16>
    %int3_1308 = torch.constant.int 3
    %1231 = torch.prim.ListConstruct %int3_1308 : (!torch.int) -> !torch.list<int>
    %1232 = torch.prims.squeeze %1229, %1231 : !torch.vtensor<[1,32,1,1],f16>, !torch.list<int> -> !torch.vtensor<[1,32,1],f16>
    %int2_1309 = torch.constant.int 2
    %1233 = torch.prim.ListConstruct %int2_1309 : (!torch.int) -> !torch.list<int>
    %1234 = torch.prims.squeeze %1232, %1233 : !torch.vtensor<[1,32,1],f16>, !torch.list<int> -> !torch.vtensor<[1,32],f16>
    %int3_1310 = torch.constant.int 3
    %1235 = torch.prim.ListConstruct %int3_1310 : (!torch.int) -> !torch.list<int>
    %1236 = torch.prims.squeeze %1230, %1235 : !torch.vtensor<[1,32,1,1],f16>, !torch.list<int> -> !torch.vtensor<[1,32,1],f16>
    %int2_1311 = torch.constant.int 2
    %1237 = torch.prim.ListConstruct %int2_1311 : (!torch.int) -> !torch.list<int>
    %1238 = torch.prims.squeeze %1236, %1237 : !torch.vtensor<[1,32,1],f16>, !torch.list<int> -> !torch.vtensor<[1,32],f16>
    %1239 = torch.aten.detach %1234 : !torch.vtensor<[1,32],f16> -> !torch.vtensor<[1,32],f16>
    %1240 = torch.aten.detach %1238 : !torch.vtensor<[1,32],f16> -> !torch.vtensor<[1,32],f16>
    %1241 = torch.aten.silu %1228 : !torch.vtensor<[1,128,1024,1024],f16> -> !torch.vtensor<[1,128,1024,1024],f16>
    %none_1312 = torch.constant.none
    %1242 = torch.aten.clone %1241, %none_1312 : !torch.vtensor<[1,128,1024,1024],f16>, !torch.none -> !torch.vtensor<[1,128,1024,1024],f16>
    %_params.vae.decoder.up_blocks.3.resnets.0.conv2.weight = util.global.load @_params.vae.decoder.up_blocks.3.resnets.0.conv2.weight : tensor<128x128x3x3xf16>
    %1243 = torch_c.from_builtin_tensor %_params.vae.decoder.up_blocks.3.resnets.0.conv2.weight : tensor<128x128x3x3xf16> -> !torch.vtensor<[128,128,3,3],f16>
    %_params.vae.decoder.up_blocks.3.resnets.0.conv2.bias = util.global.load @_params.vae.decoder.up_blocks.3.resnets.0.conv2.bias : tensor<128xf16>
    %1244 = torch_c.from_builtin_tensor %_params.vae.decoder.up_blocks.3.resnets.0.conv2.bias : tensor<128xf16> -> !torch.vtensor<[128],f16>
    %int1_1313 = torch.constant.int 1
    %int1_1314 = torch.constant.int 1
    %1245 = torch.prim.ListConstruct %int1_1313, %int1_1314 : (!torch.int, !torch.int) -> !torch.list<int>
    %int1_1315 = torch.constant.int 1
    %int1_1316 = torch.constant.int 1
    %1246 = torch.prim.ListConstruct %int1_1315, %int1_1316 : (!torch.int, !torch.int) -> !torch.list<int>
    %int1_1317 = torch.constant.int 1
    %int1_1318 = torch.constant.int 1
    %1247 = torch.prim.ListConstruct %int1_1317, %int1_1318 : (!torch.int, !torch.int) -> !torch.list<int>
    %false_1319 = torch.constant.bool false
    %int0_1320 = torch.constant.int 0
    %int0_1321 = torch.constant.int 0
    %1248 = torch.prim.ListConstruct %int0_1320, %int0_1321 : (!torch.int, !torch.int) -> !torch.list<int>
    %int1_1322 = torch.constant.int 1
    %1249 = torch.aten.convolution %1242, %1243, %1244, %1245, %1246, %1247, %false_1319, %1248, %int1_1322 : !torch.vtensor<[1,128,1024,1024],f16>, !torch.vtensor<[128,128,3,3],f16>, !torch.vtensor<[128],f16>, !torch.list<int>, !torch.list<int>, !torch.list<int>, !torch.bool, !torch.list<int>, !torch.int -> !torch.vtensor<[1,128,1024,1024],f16>
    %_params.vae.decoder.up_blocks.3.resnets.0.conv_shortcut.weight = util.global.load @_params.vae.decoder.up_blocks.3.resnets.0.conv_shortcut.weight : tensor<128x256x1x1xf16>
    %1250 = torch_c.from_builtin_tensor %_params.vae.decoder.up_blocks.3.resnets.0.conv_shortcut.weight : tensor<128x256x1x1xf16> -> !torch.vtensor<[128,256,1,1],f16>
    %_params.vae.decoder.up_blocks.3.resnets.0.conv_shortcut.bias = util.global.load @_params.vae.decoder.up_blocks.3.resnets.0.conv_shortcut.bias : tensor<128xf16>
    %1251 = torch_c.from_builtin_tensor %_params.vae.decoder.up_blocks.3.resnets.0.conv_shortcut.bias : tensor<128xf16> -> !torch.vtensor<[128],f16>
    %int1_1323 = torch.constant.int 1
    %int1_1324 = torch.constant.int 1
    %1252 = torch.prim.ListConstruct %int1_1323, %int1_1324 : (!torch.int, !torch.int) -> !torch.list<int>
    %int0_1325 = torch.constant.int 0
    %int0_1326 = torch.constant.int 0
    %1253 = torch.prim.ListConstruct %int0_1325, %int0_1326 : (!torch.int, !torch.int) -> !torch.list<int>
    %int1_1327 = torch.constant.int 1
    %int1_1328 = torch.constant.int 1
    %1254 = torch.prim.ListConstruct %int1_1327, %int1_1328 : (!torch.int, !torch.int) -> !torch.list<int>
    %false_1329 = torch.constant.bool false
    %int0_1330 = torch.constant.int 0
    %int0_1331 = torch.constant.int 0
    %1255 = torch.prim.ListConstruct %int0_1330, %int0_1331 : (!torch.int, !torch.int) -> !torch.list<int>
    %int1_1332 = torch.constant.int 1
    %1256 = torch.aten.convolution %1164, %1250, %1251, %1252, %1253, %1254, %false_1329, %1255, %int1_1332 : !torch.vtensor<[1,256,1024,1024],f16>, !torch.vtensor<[128,256,1,1],f16>, !torch.vtensor<[128],f16>, !torch.list<int>, !torch.list<int>, !torch.list<int>, !torch.bool, !torch.list<int>, !torch.int -> !torch.vtensor<[1,128,1024,1024],f16>
    %int1_1333 = torch.constant.int 1
    %1257 = torch.aten.add.Tensor %1256, %1249, %int1_1333 : !torch.vtensor<[1,128,1024,1024],f16>, !torch.vtensor<[1,128,1024,1024],f16>, !torch.int -> !torch.vtensor<[1,128,1024,1024],f16>
    %float1.000000e00_1334 = torch.constant.float 1.000000e+00
    %1258 = torch.aten.div.Scalar %1257, %float1.000000e00_1334 : !torch.vtensor<[1,128,1024,1024],f16>, !torch.float -> !torch.vtensor<[1,128,1024,1024],f16>
    %int2_1335 = torch.constant.int 2
    %1259 = torch.aten.clone %1258, %int2_1335 : !torch.vtensor<[1,128,1024,1024],f16>, !torch.int -> !torch.vtensor<[1,128,1024,1024],f16>
    %int1_1336 = torch.constant.int 1
    %int32_1337 = torch.constant.int 32
    %int4_1338 = torch.constant.int 4
    %int1048576_1339 = torch.constant.int 1048576
    %1260 = torch.prim.ListConstruct %int1_1336, %int32_1337, %int4_1338, %int1048576_1339 : (!torch.int, !torch.int, !torch.int, !torch.int) -> !torch.list<int>
    %1261 = torch.aten.view %1259, %1260 : !torch.vtensor<[1,128,1024,1024],f16>, !torch.list<int> -> !torch.vtensor<[1,32,4,1048576],f16>
    %int6_1340 = torch.constant.int 6
    %1262 = torch.prims.convert_element_type %1261, %int6_1340 : !torch.vtensor<[1,32,4,1048576],f16>, !torch.int -> !torch.vtensor<[1,32,4,1048576],f32>
    %int2_1341 = torch.constant.int 2
    %int3_1342 = torch.constant.int 3
    %1263 = torch.prim.ListConstruct %int2_1341, %int3_1342 : (!torch.int, !torch.int) -> !torch.list<int>
    %int0_1343 = torch.constant.int 0
    %true_1344 = torch.constant.bool true
    %result0_1345, %result1_1346 = torch.aten.var_mean.correction %1262, %1263, %int0_1343, %true_1344 : !torch.vtensor<[1,32,4,1048576],f32>, !torch.list<int>, !torch.int, !torch.bool -> !torch.vtensor<[1,32,1,1],f32>, !torch.vtensor<[1,32,1,1],f32>
    %float9.999990e-07_1347 = torch.constant.float 9.9999999999999995E-7
    %int1_1348 = torch.constant.int 1
    %1264 = torch.aten.add.Scalar %result0_1345, %float9.999990e-07_1347, %int1_1348 : !torch.vtensor<[1,32,1,1],f32>, !torch.float, !torch.int -> !torch.vtensor<[1,32,1,1],f32>
    %1265 = torch.aten.rsqrt %1264 : !torch.vtensor<[1,32,1,1],f32> -> !torch.vtensor<[1,32,1,1],f32>
    %int1_1349 = torch.constant.int 1
    %1266 = torch.aten.sub.Tensor %1261, %result1_1346, %int1_1349 : !torch.vtensor<[1,32,4,1048576],f16>, !torch.vtensor<[1,32,1,1],f32>, !torch.int -> !torch.vtensor<[1,32,4,1048576],f32>
    %1267 = torch.aten.mul.Tensor %1266, %1265 : !torch.vtensor<[1,32,4,1048576],f32>, !torch.vtensor<[1,32,1,1],f32> -> !torch.vtensor<[1,32,4,1048576],f32>
    %int1_1350 = torch.constant.int 1
    %int128_1351 = torch.constant.int 128
    %int1024_1352 = torch.constant.int 1024
    %int1024_1353 = torch.constant.int 1024
    %1268 = torch.prim.ListConstruct %int1_1350, %int128_1351, %int1024_1352, %int1024_1353 : (!torch.int, !torch.int, !torch.int, !torch.int) -> !torch.list<int>
    %1269 = torch.aten.view %1267, %1268 : !torch.vtensor<[1,32,4,1048576],f32>, !torch.list<int> -> !torch.vtensor<[1,128,1024,1024],f32>
    %_params.vae.decoder.up_blocks.3.resnets.1.norm1.bias = util.global.load @_params.vae.decoder.up_blocks.3.resnets.1.norm1.bias : tensor<128xf16>
    %1270 = torch_c.from_builtin_tensor %_params.vae.decoder.up_blocks.3.resnets.1.norm1.bias : tensor<128xf16> -> !torch.vtensor<[128],f16>
    %int0_1354 = torch.constant.int 0
    %1271 = torch.aten.unsqueeze %1270, %int0_1354 : !torch.vtensor<[128],f16>, !torch.int -> !torch.vtensor<[1,128],f16>
    %int2_1355 = torch.constant.int 2
    %1272 = torch.aten.unsqueeze %1271, %int2_1355 : !torch.vtensor<[1,128],f16>, !torch.int -> !torch.vtensor<[1,128,1],f16>
    %int3_1356 = torch.constant.int 3
    %1273 = torch.aten.unsqueeze %1272, %int3_1356 : !torch.vtensor<[1,128,1],f16>, !torch.int -> !torch.vtensor<[1,128,1,1],f16>
    %_params.vae.decoder.up_blocks.3.resnets.1.norm1.weight = util.global.load @_params.vae.decoder.up_blocks.3.resnets.1.norm1.weight : tensor<128xf16>
    %1274 = torch_c.from_builtin_tensor %_params.vae.decoder.up_blocks.3.resnets.1.norm1.weight : tensor<128xf16> -> !torch.vtensor<[128],f16>
    %int0_1357 = torch.constant.int 0
    %1275 = torch.aten.unsqueeze %1274, %int0_1357 : !torch.vtensor<[128],f16>, !torch.int -> !torch.vtensor<[1,128],f16>
    %int2_1358 = torch.constant.int 2
    %1276 = torch.aten.unsqueeze %1275, %int2_1358 : !torch.vtensor<[1,128],f16>, !torch.int -> !torch.vtensor<[1,128,1],f16>
    %int3_1359 = torch.constant.int 3
    %1277 = torch.aten.unsqueeze %1276, %int3_1359 : !torch.vtensor<[1,128,1],f16>, !torch.int -> !torch.vtensor<[1,128,1,1],f16>
    %1278 = torch.aten.mul.Tensor %1269, %1277 : !torch.vtensor<[1,128,1024,1024],f32>, !torch.vtensor<[1,128,1,1],f16> -> !torch.vtensor<[1,128,1024,1024],f32>
    %int1_1360 = torch.constant.int 1
    %1279 = torch.aten.add.Tensor %1278, %1273, %int1_1360 : !torch.vtensor<[1,128,1024,1024],f32>, !torch.vtensor<[1,128,1,1],f16>, !torch.int -> !torch.vtensor<[1,128,1024,1024],f32>
    %int5_1361 = torch.constant.int 5
    %1280 = torch.prims.convert_element_type %1279, %int5_1361 : !torch.vtensor<[1,128,1024,1024],f32>, !torch.int -> !torch.vtensor<[1,128,1024,1024],f16>
    %int5_1362 = torch.constant.int 5
    %1281 = torch.prims.convert_element_type %result1_1346, %int5_1362 : !torch.vtensor<[1,32,1,1],f32>, !torch.int -> !torch.vtensor<[1,32,1,1],f16>
    %int5_1363 = torch.constant.int 5
    %1282 = torch.prims.convert_element_type %1265, %int5_1363 : !torch.vtensor<[1,32,1,1],f32>, !torch.int -> !torch.vtensor<[1,32,1,1],f16>
    %int3_1364 = torch.constant.int 3
    %1283 = torch.prim.ListConstruct %int3_1364 : (!torch.int) -> !torch.list<int>
    %1284 = torch.prims.squeeze %1281, %1283 : !torch.vtensor<[1,32,1,1],f16>, !torch.list<int> -> !torch.vtensor<[1,32,1],f16>
    %int2_1365 = torch.constant.int 2
    %1285 = torch.prim.ListConstruct %int2_1365 : (!torch.int) -> !torch.list<int>
    %1286 = torch.prims.squeeze %1284, %1285 : !torch.vtensor<[1,32,1],f16>, !torch.list<int> -> !torch.vtensor<[1,32],f16>
    %int3_1366 = torch.constant.int 3
    %1287 = torch.prim.ListConstruct %int3_1366 : (!torch.int) -> !torch.list<int>
    %1288 = torch.prims.squeeze %1282, %1287 : !torch.vtensor<[1,32,1,1],f16>, !torch.list<int> -> !torch.vtensor<[1,32,1],f16>
    %int2_1367 = torch.constant.int 2
    %1289 = torch.prim.ListConstruct %int2_1367 : (!torch.int) -> !torch.list<int>
    %1290 = torch.prims.squeeze %1288, %1289 : !torch.vtensor<[1,32,1],f16>, !torch.list<int> -> !torch.vtensor<[1,32],f16>
    %1291 = torch.aten.detach %1286 : !torch.vtensor<[1,32],f16> -> !torch.vtensor<[1,32],f16>
    %1292 = torch.aten.detach %1290 : !torch.vtensor<[1,32],f16> -> !torch.vtensor<[1,32],f16>
    %1293 = torch.aten.silu %1280 : !torch.vtensor<[1,128,1024,1024],f16> -> !torch.vtensor<[1,128,1024,1024],f16>
    %_params.vae.decoder.up_blocks.3.resnets.1.conv1.weight = util.global.load @_params.vae.decoder.up_blocks.3.resnets.1.conv1.weight : tensor<128x128x3x3xf16>
    %1294 = torch_c.from_builtin_tensor %_params.vae.decoder.up_blocks.3.resnets.1.conv1.weight : tensor<128x128x3x3xf16> -> !torch.vtensor<[128,128,3,3],f16>
    %_params.vae.decoder.up_blocks.3.resnets.1.conv1.bias = util.global.load @_params.vae.decoder.up_blocks.3.resnets.1.conv1.bias : tensor<128xf16>
    %1295 = torch_c.from_builtin_tensor %_params.vae.decoder.up_blocks.3.resnets.1.conv1.bias : tensor<128xf16> -> !torch.vtensor<[128],f16>
    %int1_1368 = torch.constant.int 1
    %int1_1369 = torch.constant.int 1
    %1296 = torch.prim.ListConstruct %int1_1368, %int1_1369 : (!torch.int, !torch.int) -> !torch.list<int>
    %int1_1370 = torch.constant.int 1
    %int1_1371 = torch.constant.int 1
    %1297 = torch.prim.ListConstruct %int1_1370, %int1_1371 : (!torch.int, !torch.int) -> !torch.list<int>
    %int1_1372 = torch.constant.int 1
    %int1_1373 = torch.constant.int 1
    %1298 = torch.prim.ListConstruct %int1_1372, %int1_1373 : (!torch.int, !torch.int) -> !torch.list<int>
    %false_1374 = torch.constant.bool false
    %int0_1375 = torch.constant.int 0
    %int0_1376 = torch.constant.int 0
    %1299 = torch.prim.ListConstruct %int0_1375, %int0_1376 : (!torch.int, !torch.int) -> !torch.list<int>
    %int1_1377 = torch.constant.int 1
    %1300 = torch.aten.convolution %1293, %1294, %1295, %1296, %1297, %1298, %false_1374, %1299, %int1_1377 : !torch.vtensor<[1,128,1024,1024],f16>, !torch.vtensor<[128,128,3,3],f16>, !torch.vtensor<[128],f16>, !torch.list<int>, !torch.list<int>, !torch.list<int>, !torch.bool, !torch.list<int>, !torch.int -> !torch.vtensor<[1,128,1024,1024],f16>
    %int2_1378 = torch.constant.int 2
    %1301 = torch.aten.clone %1300, %int2_1378 : !torch.vtensor<[1,128,1024,1024],f16>, !torch.int -> !torch.vtensor<[1,128,1024,1024],f16>
    %int1_1379 = torch.constant.int 1
    %int32_1380 = torch.constant.int 32
    %int4_1381 = torch.constant.int 4
    %int1048576_1382 = torch.constant.int 1048576
    %1302 = torch.prim.ListConstruct %int1_1379, %int32_1380, %int4_1381, %int1048576_1382 : (!torch.int, !torch.int, !torch.int, !torch.int) -> !torch.list<int>
    %1303 = torch.aten.view %1301, %1302 : !torch.vtensor<[1,128,1024,1024],f16>, !torch.list<int> -> !torch.vtensor<[1,32,4,1048576],f16>
    %int6_1383 = torch.constant.int 6
    %1304 = torch.prims.convert_element_type %1303, %int6_1383 : !torch.vtensor<[1,32,4,1048576],f16>, !torch.int -> !torch.vtensor<[1,32,4,1048576],f32>
    %int2_1384 = torch.constant.int 2
    %int3_1385 = torch.constant.int 3
    %1305 = torch.prim.ListConstruct %int2_1384, %int3_1385 : (!torch.int, !torch.int) -> !torch.list<int>
    %int0_1386 = torch.constant.int 0
    %true_1387 = torch.constant.bool true
    %result0_1388, %result1_1389 = torch.aten.var_mean.correction %1304, %1305, %int0_1386, %true_1387 : !torch.vtensor<[1,32,4,1048576],f32>, !torch.list<int>, !torch.int, !torch.bool -> !torch.vtensor<[1,32,1,1],f32>, !torch.vtensor<[1,32,1,1],f32>
    %float9.999990e-07_1390 = torch.constant.float 9.9999999999999995E-7
    %int1_1391 = torch.constant.int 1
    %1306 = torch.aten.add.Scalar %result0_1388, %float9.999990e-07_1390, %int1_1391 : !torch.vtensor<[1,32,1,1],f32>, !torch.float, !torch.int -> !torch.vtensor<[1,32,1,1],f32>
    %1307 = torch.aten.rsqrt %1306 : !torch.vtensor<[1,32,1,1],f32> -> !torch.vtensor<[1,32,1,1],f32>
    %int1_1392 = torch.constant.int 1
    %1308 = torch.aten.sub.Tensor %1303, %result1_1389, %int1_1392 : !torch.vtensor<[1,32,4,1048576],f16>, !torch.vtensor<[1,32,1,1],f32>, !torch.int -> !torch.vtensor<[1,32,4,1048576],f32>
    %1309 = torch.aten.mul.Tensor %1308, %1307 : !torch.vtensor<[1,32,4,1048576],f32>, !torch.vtensor<[1,32,1,1],f32> -> !torch.vtensor<[1,32,4,1048576],f32>
    %int1_1393 = torch.constant.int 1
    %int128_1394 = torch.constant.int 128
    %int1024_1395 = torch.constant.int 1024
    %int1024_1396 = torch.constant.int 1024
    %1310 = torch.prim.ListConstruct %int1_1393, %int128_1394, %int1024_1395, %int1024_1396 : (!torch.int, !torch.int, !torch.int, !torch.int) -> !torch.list<int>
    %1311 = torch.aten.view %1309, %1310 : !torch.vtensor<[1,32,4,1048576],f32>, !torch.list<int> -> !torch.vtensor<[1,128,1024,1024],f32>
    %_params.vae.decoder.up_blocks.3.resnets.1.norm2.bias = util.global.load @_params.vae.decoder.up_blocks.3.resnets.1.norm2.bias : tensor<128xf16>
    %1312 = torch_c.from_builtin_tensor %_params.vae.decoder.up_blocks.3.resnets.1.norm2.bias : tensor<128xf16> -> !torch.vtensor<[128],f16>
    %int0_1397 = torch.constant.int 0
    %1313 = torch.aten.unsqueeze %1312, %int0_1397 : !torch.vtensor<[128],f16>, !torch.int -> !torch.vtensor<[1,128],f16>
    %int2_1398 = torch.constant.int 2
    %1314 = torch.aten.unsqueeze %1313, %int2_1398 : !torch.vtensor<[1,128],f16>, !torch.int -> !torch.vtensor<[1,128,1],f16>
    %int3_1399 = torch.constant.int 3
    %1315 = torch.aten.unsqueeze %1314, %int3_1399 : !torch.vtensor<[1,128,1],f16>, !torch.int -> !torch.vtensor<[1,128,1,1],f16>
    %_params.vae.decoder.up_blocks.3.resnets.1.norm2.weight = util.global.load @_params.vae.decoder.up_blocks.3.resnets.1.norm2.weight : tensor<128xf16>
    %1316 = torch_c.from_builtin_tensor %_params.vae.decoder.up_blocks.3.resnets.1.norm2.weight : tensor<128xf16> -> !torch.vtensor<[128],f16>
    %int0_1400 = torch.constant.int 0
    %1317 = torch.aten.unsqueeze %1316, %int0_1400 : !torch.vtensor<[128],f16>, !torch.int -> !torch.vtensor<[1,128],f16>
    %int2_1401 = torch.constant.int 2
    %1318 = torch.aten.unsqueeze %1317, %int2_1401 : !torch.vtensor<[1,128],f16>, !torch.int -> !torch.vtensor<[1,128,1],f16>
    %int3_1402 = torch.constant.int 3
    %1319 = torch.aten.unsqueeze %1318, %int3_1402 : !torch.vtensor<[1,128,1],f16>, !torch.int -> !torch.vtensor<[1,128,1,1],f16>
    %1320 = torch.aten.mul.Tensor %1311, %1319 : !torch.vtensor<[1,128,1024,1024],f32>, !torch.vtensor<[1,128,1,1],f16> -> !torch.vtensor<[1,128,1024,1024],f32>
    %int1_1403 = torch.constant.int 1
    %1321 = torch.aten.add.Tensor %1320, %1315, %int1_1403 : !torch.vtensor<[1,128,1024,1024],f32>, !torch.vtensor<[1,128,1,1],f16>, !torch.int -> !torch.vtensor<[1,128,1024,1024],f32>
    %int5_1404 = torch.constant.int 5
    %1322 = torch.prims.convert_element_type %1321, %int5_1404 : !torch.vtensor<[1,128,1024,1024],f32>, !torch.int -> !torch.vtensor<[1,128,1024,1024],f16>
    %int5_1405 = torch.constant.int 5
    %1323 = torch.prims.convert_element_type %result1_1389, %int5_1405 : !torch.vtensor<[1,32,1,1],f32>, !torch.int -> !torch.vtensor<[1,32,1,1],f16>
    %int5_1406 = torch.constant.int 5
    %1324 = torch.prims.convert_element_type %1307, %int5_1406 : !torch.vtensor<[1,32,1,1],f32>, !torch.int -> !torch.vtensor<[1,32,1,1],f16>
    %int3_1407 = torch.constant.int 3
    %1325 = torch.prim.ListConstruct %int3_1407 : (!torch.int) -> !torch.list<int>
    %1326 = torch.prims.squeeze %1323, %1325 : !torch.vtensor<[1,32,1,1],f16>, !torch.list<int> -> !torch.vtensor<[1,32,1],f16>
    %int2_1408 = torch.constant.int 2
    %1327 = torch.prim.ListConstruct %int2_1408 : (!torch.int) -> !torch.list<int>
    %1328 = torch.prims.squeeze %1326, %1327 : !torch.vtensor<[1,32,1],f16>, !torch.list<int> -> !torch.vtensor<[1,32],f16>
    %int3_1409 = torch.constant.int 3
    %1329 = torch.prim.ListConstruct %int3_1409 : (!torch.int) -> !torch.list<int>
    %1330 = torch.prims.squeeze %1324, %1329 : !torch.vtensor<[1,32,1,1],f16>, !torch.list<int> -> !torch.vtensor<[1,32,1],f16>
    %int2_1410 = torch.constant.int 2
    %1331 = torch.prim.ListConstruct %int2_1410 : (!torch.int) -> !torch.list<int>
    %1332 = torch.prims.squeeze %1330, %1331 : !torch.vtensor<[1,32,1],f16>, !torch.list<int> -> !torch.vtensor<[1,32],f16>
    %1333 = torch.aten.detach %1328 : !torch.vtensor<[1,32],f16> -> !torch.vtensor<[1,32],f16>
    %1334 = torch.aten.detach %1332 : !torch.vtensor<[1,32],f16> -> !torch.vtensor<[1,32],f16>
    %1335 = torch.aten.silu %1322 : !torch.vtensor<[1,128,1024,1024],f16> -> !torch.vtensor<[1,128,1024,1024],f16>
    %none_1411 = torch.constant.none
    %1336 = torch.aten.clone %1335, %none_1411 : !torch.vtensor<[1,128,1024,1024],f16>, !torch.none -> !torch.vtensor<[1,128,1024,1024],f16>
    %_params.vae.decoder.up_blocks.3.resnets.1.conv2.weight = util.global.load @_params.vae.decoder.up_blocks.3.resnets.1.conv2.weight : tensor<128x128x3x3xf16>
    %1337 = torch_c.from_builtin_tensor %_params.vae.decoder.up_blocks.3.resnets.1.conv2.weight : tensor<128x128x3x3xf16> -> !torch.vtensor<[128,128,3,3],f16>
    %_params.vae.decoder.up_blocks.3.resnets.1.conv2.bias = util.global.load @_params.vae.decoder.up_blocks.3.resnets.1.conv2.bias : tensor<128xf16>
    %1338 = torch_c.from_builtin_tensor %_params.vae.decoder.up_blocks.3.resnets.1.conv2.bias : tensor<128xf16> -> !torch.vtensor<[128],f16>
    %int1_1412 = torch.constant.int 1
    %int1_1413 = torch.constant.int 1
    %1339 = torch.prim.ListConstruct %int1_1412, %int1_1413 : (!torch.int, !torch.int) -> !torch.list<int>
    %int1_1414 = torch.constant.int 1
    %int1_1415 = torch.constant.int 1
    %1340 = torch.prim.ListConstruct %int1_1414, %int1_1415 : (!torch.int, !torch.int) -> !torch.list<int>
    %int1_1416 = torch.constant.int 1
    %int1_1417 = torch.constant.int 1
    %1341 = torch.prim.ListConstruct %int1_1416, %int1_1417 : (!torch.int, !torch.int) -> !torch.list<int>
    %false_1418 = torch.constant.bool false
    %int0_1419 = torch.constant.int 0
    %int0_1420 = torch.constant.int 0
    %1342 = torch.prim.ListConstruct %int0_1419, %int0_1420 : (!torch.int, !torch.int) -> !torch.list<int>
    %int1_1421 = torch.constant.int 1
    %1343 = torch.aten.convolution %1336, %1337, %1338, %1339, %1340, %1341, %false_1418, %1342, %int1_1421 : !torch.vtensor<[1,128,1024,1024],f16>, !torch.vtensor<[128,128,3,3],f16>, !torch.vtensor<[128],f16>, !torch.list<int>, !torch.list<int>, !torch.list<int>, !torch.bool, !torch.list<int>, !torch.int -> !torch.vtensor<[1,128,1024,1024],f16>
    %int1_1422 = torch.constant.int 1
    %1344 = torch.aten.add.Tensor %1258, %1343, %int1_1422 : !torch.vtensor<[1,128,1024,1024],f16>, !torch.vtensor<[1,128,1024,1024],f16>, !torch.int -> !torch.vtensor<[1,128,1024,1024],f16>
    %float1.000000e00_1423 = torch.constant.float 1.000000e+00
    %1345 = torch.aten.div.Scalar %1344, %float1.000000e00_1423 : !torch.vtensor<[1,128,1024,1024],f16>, !torch.float -> !torch.vtensor<[1,128,1024,1024],f16>
    %int2_1424 = torch.constant.int 2
    %1346 = torch.aten.clone %1345, %int2_1424 : !torch.vtensor<[1,128,1024,1024],f16>, !torch.int -> !torch.vtensor<[1,128,1024,1024],f16>
    %int1_1425 = torch.constant.int 1
    %int32_1426 = torch.constant.int 32
    %int4_1427 = torch.constant.int 4
    %int1048576_1428 = torch.constant.int 1048576
    %1347 = torch.prim.ListConstruct %int1_1425, %int32_1426, %int4_1427, %int1048576_1428 : (!torch.int, !torch.int, !torch.int, !torch.int) -> !torch.list<int>
    %1348 = torch.aten.view %1346, %1347 : !torch.vtensor<[1,128,1024,1024],f16>, !torch.list<int> -> !torch.vtensor<[1,32,4,1048576],f16>
    %int6_1429 = torch.constant.int 6
    %1349 = torch.prims.convert_element_type %1348, %int6_1429 : !torch.vtensor<[1,32,4,1048576],f16>, !torch.int -> !torch.vtensor<[1,32,4,1048576],f32>
    %int2_1430 = torch.constant.int 2
    %int3_1431 = torch.constant.int 3
    %1350 = torch.prim.ListConstruct %int2_1430, %int3_1431 : (!torch.int, !torch.int) -> !torch.list<int>
    %int0_1432 = torch.constant.int 0
    %true_1433 = torch.constant.bool true
    %result0_1434, %result1_1435 = torch.aten.var_mean.correction %1349, %1350, %int0_1432, %true_1433 : !torch.vtensor<[1,32,4,1048576],f32>, !torch.list<int>, !torch.int, !torch.bool -> !torch.vtensor<[1,32,1,1],f32>, !torch.vtensor<[1,32,1,1],f32>
    %float9.999990e-07_1436 = torch.constant.float 9.9999999999999995E-7
    %int1_1437 = torch.constant.int 1
    %1351 = torch.aten.add.Scalar %result0_1434, %float9.999990e-07_1436, %int1_1437 : !torch.vtensor<[1,32,1,1],f32>, !torch.float, !torch.int -> !torch.vtensor<[1,32,1,1],f32>
    %1352 = torch.aten.rsqrt %1351 : !torch.vtensor<[1,32,1,1],f32> -> !torch.vtensor<[1,32,1,1],f32>
    %int1_1438 = torch.constant.int 1
    %1353 = torch.aten.sub.Tensor %1348, %result1_1435, %int1_1438 : !torch.vtensor<[1,32,4,1048576],f16>, !torch.vtensor<[1,32,1,1],f32>, !torch.int -> !torch.vtensor<[1,32,4,1048576],f32>
    %1354 = torch.aten.mul.Tensor %1353, %1352 : !torch.vtensor<[1,32,4,1048576],f32>, !torch.vtensor<[1,32,1,1],f32> -> !torch.vtensor<[1,32,4,1048576],f32>
    %int1_1439 = torch.constant.int 1
    %int128_1440 = torch.constant.int 128
    %int1024_1441 = torch.constant.int 1024
    %int1024_1442 = torch.constant.int 1024
    %1355 = torch.prim.ListConstruct %int1_1439, %int128_1440, %int1024_1441, %int1024_1442 : (!torch.int, !torch.int, !torch.int, !torch.int) -> !torch.list<int>
    %1356 = torch.aten.view %1354, %1355 : !torch.vtensor<[1,32,4,1048576],f32>, !torch.list<int> -> !torch.vtensor<[1,128,1024,1024],f32>
    %_params.vae.decoder.up_blocks.3.resnets.2.norm1.bias = util.global.load @_params.vae.decoder.up_blocks.3.resnets.2.norm1.bias : tensor<128xf16>
    %1357 = torch_c.from_builtin_tensor %_params.vae.decoder.up_blocks.3.resnets.2.norm1.bias : tensor<128xf16> -> !torch.vtensor<[128],f16>
    %int0_1443 = torch.constant.int 0
    %1358 = torch.aten.unsqueeze %1357, %int0_1443 : !torch.vtensor<[128],f16>, !torch.int -> !torch.vtensor<[1,128],f16>
    %int2_1444 = torch.constant.int 2
    %1359 = torch.aten.unsqueeze %1358, %int2_1444 : !torch.vtensor<[1,128],f16>, !torch.int -> !torch.vtensor<[1,128,1],f16>
    %int3_1445 = torch.constant.int 3
    %1360 = torch.aten.unsqueeze %1359, %int3_1445 : !torch.vtensor<[1,128,1],f16>, !torch.int -> !torch.vtensor<[1,128,1,1],f16>
    %_params.vae.decoder.up_blocks.3.resnets.2.norm1.weight = util.global.load @_params.vae.decoder.up_blocks.3.resnets.2.norm1.weight : tensor<128xf16>
    %1361 = torch_c.from_builtin_tensor %_params.vae.decoder.up_blocks.3.resnets.2.norm1.weight : tensor<128xf16> -> !torch.vtensor<[128],f16>
    %int0_1446 = torch.constant.int 0
    %1362 = torch.aten.unsqueeze %1361, %int0_1446 : !torch.vtensor<[128],f16>, !torch.int -> !torch.vtensor<[1,128],f16>
    %int2_1447 = torch.constant.int 2
    %1363 = torch.aten.unsqueeze %1362, %int2_1447 : !torch.vtensor<[1,128],f16>, !torch.int -> !torch.vtensor<[1,128,1],f16>
    %int3_1448 = torch.constant.int 3
    %1364 = torch.aten.unsqueeze %1363, %int3_1448 : !torch.vtensor<[1,128,1],f16>, !torch.int -> !torch.vtensor<[1,128,1,1],f16>
    %1365 = torch.aten.mul.Tensor %1356, %1364 : !torch.vtensor<[1,128,1024,1024],f32>, !torch.vtensor<[1,128,1,1],f16> -> !torch.vtensor<[1,128,1024,1024],f32>
    %int1_1449 = torch.constant.int 1
    %1366 = torch.aten.add.Tensor %1365, %1360, %int1_1449 : !torch.vtensor<[1,128,1024,1024],f32>, !torch.vtensor<[1,128,1,1],f16>, !torch.int -> !torch.vtensor<[1,128,1024,1024],f32>
    %int5_1450 = torch.constant.int 5
    %1367 = torch.prims.convert_element_type %1366, %int5_1450 : !torch.vtensor<[1,128,1024,1024],f32>, !torch.int -> !torch.vtensor<[1,128,1024,1024],f16>
    %int5_1451 = torch.constant.int 5
    %1368 = torch.prims.convert_element_type %result1_1435, %int5_1451 : !torch.vtensor<[1,32,1,1],f32>, !torch.int -> !torch.vtensor<[1,32,1,1],f16>
    %int5_1452 = torch.constant.int 5
    %1369 = torch.prims.convert_element_type %1352, %int5_1452 : !torch.vtensor<[1,32,1,1],f32>, !torch.int -> !torch.vtensor<[1,32,1,1],f16>
    %int3_1453 = torch.constant.int 3
    %1370 = torch.prim.ListConstruct %int3_1453 : (!torch.int) -> !torch.list<int>
    %1371 = torch.prims.squeeze %1368, %1370 : !torch.vtensor<[1,32,1,1],f16>, !torch.list<int> -> !torch.vtensor<[1,32,1],f16>
    %int2_1454 = torch.constant.int 2
    %1372 = torch.prim.ListConstruct %int2_1454 : (!torch.int) -> !torch.list<int>
    %1373 = torch.prims.squeeze %1371, %1372 : !torch.vtensor<[1,32,1],f16>, !torch.list<int> -> !torch.vtensor<[1,32],f16>
    %int3_1455 = torch.constant.int 3
    %1374 = torch.prim.ListConstruct %int3_1455 : (!torch.int) -> !torch.list<int>
    %1375 = torch.prims.squeeze %1369, %1374 : !torch.vtensor<[1,32,1,1],f16>, !torch.list<int> -> !torch.vtensor<[1,32,1],f16>
    %int2_1456 = torch.constant.int 2
    %1376 = torch.prim.ListConstruct %int2_1456 : (!torch.int) -> !torch.list<int>
    %1377 = torch.prims.squeeze %1375, %1376 : !torch.vtensor<[1,32,1],f16>, !torch.list<int> -> !torch.vtensor<[1,32],f16>
    %1378 = torch.aten.detach %1373 : !torch.vtensor<[1,32],f16> -> !torch.vtensor<[1,32],f16>
    %1379 = torch.aten.detach %1377 : !torch.vtensor<[1,32],f16> -> !torch.vtensor<[1,32],f16>
    %1380 = torch.aten.silu %1367 : !torch.vtensor<[1,128,1024,1024],f16> -> !torch.vtensor<[1,128,1024,1024],f16>
    %_params.vae.decoder.up_blocks.3.resnets.2.conv1.weight = util.global.load @_params.vae.decoder.up_blocks.3.resnets.2.conv1.weight : tensor<128x128x3x3xf16>
    %1381 = torch_c.from_builtin_tensor %_params.vae.decoder.up_blocks.3.resnets.2.conv1.weight : tensor<128x128x3x3xf16> -> !torch.vtensor<[128,128,3,3],f16>
    %_params.vae.decoder.up_blocks.3.resnets.2.conv1.bias = util.global.load @_params.vae.decoder.up_blocks.3.resnets.2.conv1.bias : tensor<128xf16>
    %1382 = torch_c.from_builtin_tensor %_params.vae.decoder.up_blocks.3.resnets.2.conv1.bias : tensor<128xf16> -> !torch.vtensor<[128],f16>
    %int1_1457 = torch.constant.int 1
    %int1_1458 = torch.constant.int 1
    %1383 = torch.prim.ListConstruct %int1_1457, %int1_1458 : (!torch.int, !torch.int) -> !torch.list<int>
    %int1_1459 = torch.constant.int 1
    %int1_1460 = torch.constant.int 1
    %1384 = torch.prim.ListConstruct %int1_1459, %int1_1460 : (!torch.int, !torch.int) -> !torch.list<int>
    %int1_1461 = torch.constant.int 1
    %int1_1462 = torch.constant.int 1
    %1385 = torch.prim.ListConstruct %int1_1461, %int1_1462 : (!torch.int, !torch.int) -> !torch.list<int>
    %false_1463 = torch.constant.bool false
    %int0_1464 = torch.constant.int 0
    %int0_1465 = torch.constant.int 0
    %1386 = torch.prim.ListConstruct %int0_1464, %int0_1465 : (!torch.int, !torch.int) -> !torch.list<int>
    %int1_1466 = torch.constant.int 1
    %1387 = torch.aten.convolution %1380, %1381, %1382, %1383, %1384, %1385, %false_1463, %1386, %int1_1466 : !torch.vtensor<[1,128,1024,1024],f16>, !torch.vtensor<[128,128,3,3],f16>, !torch.vtensor<[128],f16>, !torch.list<int>, !torch.list<int>, !torch.list<int>, !torch.bool, !torch.list<int>, !torch.int -> !torch.vtensor<[1,128,1024,1024],f16>
    %int2_1467 = torch.constant.int 2
    %1388 = torch.aten.clone %1387, %int2_1467 : !torch.vtensor<[1,128,1024,1024],f16>, !torch.int -> !torch.vtensor<[1,128,1024,1024],f16>
    %int1_1468 = torch.constant.int 1
    %int32_1469 = torch.constant.int 32
    %int4_1470 = torch.constant.int 4
    %int1048576_1471 = torch.constant.int 1048576
    %1389 = torch.prim.ListConstruct %int1_1468, %int32_1469, %int4_1470, %int1048576_1471 : (!torch.int, !torch.int, !torch.int, !torch.int) -> !torch.list<int>
    %1390 = torch.aten.view %1388, %1389 : !torch.vtensor<[1,128,1024,1024],f16>, !torch.list<int> -> !torch.vtensor<[1,32,4,1048576],f16>
    %int6_1472 = torch.constant.int 6
    %1391 = torch.prims.convert_element_type %1390, %int6_1472 : !torch.vtensor<[1,32,4,1048576],f16>, !torch.int -> !torch.vtensor<[1,32,4,1048576],f32>
    %int2_1473 = torch.constant.int 2
    %int3_1474 = torch.constant.int 3
    %1392 = torch.prim.ListConstruct %int2_1473, %int3_1474 : (!torch.int, !torch.int) -> !torch.list<int>
    %int0_1475 = torch.constant.int 0
    %true_1476 = torch.constant.bool true
    %result0_1477, %result1_1478 = torch.aten.var_mean.correction %1391, %1392, %int0_1475, %true_1476 : !torch.vtensor<[1,32,4,1048576],f32>, !torch.list<int>, !torch.int, !torch.bool -> !torch.vtensor<[1,32,1,1],f32>, !torch.vtensor<[1,32,1,1],f32>
    %float9.999990e-07_1479 = torch.constant.float 9.9999999999999995E-7
    %int1_1480 = torch.constant.int 1
    %1393 = torch.aten.add.Scalar %result0_1477, %float9.999990e-07_1479, %int1_1480 : !torch.vtensor<[1,32,1,1],f32>, !torch.float, !torch.int -> !torch.vtensor<[1,32,1,1],f32>
    %1394 = torch.aten.rsqrt %1393 : !torch.vtensor<[1,32,1,1],f32> -> !torch.vtensor<[1,32,1,1],f32>
    %int1_1481 = torch.constant.int 1
    %1395 = torch.aten.sub.Tensor %1390, %result1_1478, %int1_1481 : !torch.vtensor<[1,32,4,1048576],f16>, !torch.vtensor<[1,32,1,1],f32>, !torch.int -> !torch.vtensor<[1,32,4,1048576],f32>
    %1396 = torch.aten.mul.Tensor %1395, %1394 : !torch.vtensor<[1,32,4,1048576],f32>, !torch.vtensor<[1,32,1,1],f32> -> !torch.vtensor<[1,32,4,1048576],f32>
    %int1_1482 = torch.constant.int 1
    %int128_1483 = torch.constant.int 128
    %int1024_1484 = torch.constant.int 1024
    %int1024_1485 = torch.constant.int 1024
    %1397 = torch.prim.ListConstruct %int1_1482, %int128_1483, %int1024_1484, %int1024_1485 : (!torch.int, !torch.int, !torch.int, !torch.int) -> !torch.list<int>
    %1398 = torch.aten.view %1396, %1397 : !torch.vtensor<[1,32,4,1048576],f32>, !torch.list<int> -> !torch.vtensor<[1,128,1024,1024],f32>
    %_params.vae.decoder.up_blocks.3.resnets.2.norm2.bias = util.global.load @_params.vae.decoder.up_blocks.3.resnets.2.norm2.bias : tensor<128xf16>
    %1399 = torch_c.from_builtin_tensor %_params.vae.decoder.up_blocks.3.resnets.2.norm2.bias : tensor<128xf16> -> !torch.vtensor<[128],f16>
    %int0_1486 = torch.constant.int 0
    %1400 = torch.aten.unsqueeze %1399, %int0_1486 : !torch.vtensor<[128],f16>, !torch.int -> !torch.vtensor<[1,128],f16>
    %int2_1487 = torch.constant.int 2
    %1401 = torch.aten.unsqueeze %1400, %int2_1487 : !torch.vtensor<[1,128],f16>, !torch.int -> !torch.vtensor<[1,128,1],f16>
    %int3_1488 = torch.constant.int 3
    %1402 = torch.aten.unsqueeze %1401, %int3_1488 : !torch.vtensor<[1,128,1],f16>, !torch.int -> !torch.vtensor<[1,128,1,1],f16>
    %_params.vae.decoder.up_blocks.3.resnets.2.norm2.weight = util.global.load @_params.vae.decoder.up_blocks.3.resnets.2.norm2.weight : tensor<128xf16>
    %1403 = torch_c.from_builtin_tensor %_params.vae.decoder.up_blocks.3.resnets.2.norm2.weight : tensor<128xf16> -> !torch.vtensor<[128],f16>
    %int0_1489 = torch.constant.int 0
    %1404 = torch.aten.unsqueeze %1403, %int0_1489 : !torch.vtensor<[128],f16>, !torch.int -> !torch.vtensor<[1,128],f16>
    %int2_1490 = torch.constant.int 2
    %1405 = torch.aten.unsqueeze %1404, %int2_1490 : !torch.vtensor<[1,128],f16>, !torch.int -> !torch.vtensor<[1,128,1],f16>
    %int3_1491 = torch.constant.int 3
    %1406 = torch.aten.unsqueeze %1405, %int3_1491 : !torch.vtensor<[1,128,1],f16>, !torch.int -> !torch.vtensor<[1,128,1,1],f16>
    %1407 = torch.aten.mul.Tensor %1398, %1406 : !torch.vtensor<[1,128,1024,1024],f32>, !torch.vtensor<[1,128,1,1],f16> -> !torch.vtensor<[1,128,1024,1024],f32>
    %int1_1492 = torch.constant.int 1
    %1408 = torch.aten.add.Tensor %1407, %1402, %int1_1492 : !torch.vtensor<[1,128,1024,1024],f32>, !torch.vtensor<[1,128,1,1],f16>, !torch.int -> !torch.vtensor<[1,128,1024,1024],f32>
    %int5_1493 = torch.constant.int 5
    %1409 = torch.prims.convert_element_type %1408, %int5_1493 : !torch.vtensor<[1,128,1024,1024],f32>, !torch.int -> !torch.vtensor<[1,128,1024,1024],f16>
    %int5_1494 = torch.constant.int 5
    %1410 = torch.prims.convert_element_type %result1_1478, %int5_1494 : !torch.vtensor<[1,32,1,1],f32>, !torch.int -> !torch.vtensor<[1,32,1,1],f16>
    %int5_1495 = torch.constant.int 5
    %1411 = torch.prims.convert_element_type %1394, %int5_1495 : !torch.vtensor<[1,32,1,1],f32>, !torch.int -> !torch.vtensor<[1,32,1,1],f16>
    %int3_1496 = torch.constant.int 3
    %1412 = torch.prim.ListConstruct %int3_1496 : (!torch.int) -> !torch.list<int>
    %1413 = torch.prims.squeeze %1410, %1412 : !torch.vtensor<[1,32,1,1],f16>, !torch.list<int> -> !torch.vtensor<[1,32,1],f16>
    %int2_1497 = torch.constant.int 2
    %1414 = torch.prim.ListConstruct %int2_1497 : (!torch.int) -> !torch.list<int>
    %1415 = torch.prims.squeeze %1413, %1414 : !torch.vtensor<[1,32,1],f16>, !torch.list<int> -> !torch.vtensor<[1,32],f16>
    %int3_1498 = torch.constant.int 3
    %1416 = torch.prim.ListConstruct %int3_1498 : (!torch.int) -> !torch.list<int>
    %1417 = torch.prims.squeeze %1411, %1416 : !torch.vtensor<[1,32,1,1],f16>, !torch.list<int> -> !torch.vtensor<[1,32,1],f16>
    %int2_1499 = torch.constant.int 2
    %1418 = torch.prim.ListConstruct %int2_1499 : (!torch.int) -> !torch.list<int>
    %1419 = torch.prims.squeeze %1417, %1418 : !torch.vtensor<[1,32,1],f16>, !torch.list<int> -> !torch.vtensor<[1,32],f16>
    %1420 = torch.aten.detach %1415 : !torch.vtensor<[1,32],f16> -> !torch.vtensor<[1,32],f16>
    %1421 = torch.aten.detach %1419 : !torch.vtensor<[1,32],f16> -> !torch.vtensor<[1,32],f16>
    %1422 = torch.aten.silu %1409 : !torch.vtensor<[1,128,1024,1024],f16> -> !torch.vtensor<[1,128,1024,1024],f16>
    %none_1500 = torch.constant.none
    %1423 = torch.aten.clone %1422, %none_1500 : !torch.vtensor<[1,128,1024,1024],f16>, !torch.none -> !torch.vtensor<[1,128,1024,1024],f16>
    %_params.vae.decoder.up_blocks.3.resnets.2.conv2.weight = util.global.load @_params.vae.decoder.up_blocks.3.resnets.2.conv2.weight : tensor<128x128x3x3xf16>
    %1424 = torch_c.from_builtin_tensor %_params.vae.decoder.up_blocks.3.resnets.2.conv2.weight : tensor<128x128x3x3xf16> -> !torch.vtensor<[128,128,3,3],f16>
    %_params.vae.decoder.up_blocks.3.resnets.2.conv2.bias = util.global.load @_params.vae.decoder.up_blocks.3.resnets.2.conv2.bias : tensor<128xf16>
    %1425 = torch_c.from_builtin_tensor %_params.vae.decoder.up_blocks.3.resnets.2.conv2.bias : tensor<128xf16> -> !torch.vtensor<[128],f16>
    %int1_1501 = torch.constant.int 1
    %int1_1502 = torch.constant.int 1
    %1426 = torch.prim.ListConstruct %int1_1501, %int1_1502 : (!torch.int, !torch.int) -> !torch.list<int>
    %int1_1503 = torch.constant.int 1
    %int1_1504 = torch.constant.int 1
    %1427 = torch.prim.ListConstruct %int1_1503, %int1_1504 : (!torch.int, !torch.int) -> !torch.list<int>
    %int1_1505 = torch.constant.int 1
    %int1_1506 = torch.constant.int 1
    %1428 = torch.prim.ListConstruct %int1_1505, %int1_1506 : (!torch.int, !torch.int) -> !torch.list<int>
    %false_1507 = torch.constant.bool false
    %int0_1508 = torch.constant.int 0
    %int0_1509 = torch.constant.int 0
    %1429 = torch.prim.ListConstruct %int0_1508, %int0_1509 : (!torch.int, !torch.int) -> !torch.list<int>
    %int1_1510 = torch.constant.int 1
    %1430 = torch.aten.convolution %1423, %1424, %1425, %1426, %1427, %1428, %false_1507, %1429, %int1_1510 : !torch.vtensor<[1,128,1024,1024],f16>, !torch.vtensor<[128,128,3,3],f16>, !torch.vtensor<[128],f16>, !torch.list<int>, !torch.list<int>, !torch.list<int>, !torch.bool, !torch.list<int>, !torch.int -> !torch.vtensor<[1,128,1024,1024],f16>
    %int1_1511 = torch.constant.int 1
    %1431 = torch.aten.add.Tensor %1345, %1430, %int1_1511 : !torch.vtensor<[1,128,1024,1024],f16>, !torch.vtensor<[1,128,1024,1024],f16>, !torch.int -> !torch.vtensor<[1,128,1024,1024],f16>
    %float1.000000e00_1512 = torch.constant.float 1.000000e+00
    %1432 = torch.aten.div.Scalar %1431, %float1.000000e00_1512 : !torch.vtensor<[1,128,1024,1024],f16>, !torch.float -> !torch.vtensor<[1,128,1024,1024],f16>
    %int2_1513 = torch.constant.int 2
    %1433 = torch.aten.clone %1432, %int2_1513 : !torch.vtensor<[1,128,1024,1024],f16>, !torch.int -> !torch.vtensor<[1,128,1024,1024],f16>
    %int1_1514 = torch.constant.int 1
    %int32_1515 = torch.constant.int 32
    %int4_1516 = torch.constant.int 4
    %int1048576_1517 = torch.constant.int 1048576
    %1434 = torch.prim.ListConstruct %int1_1514, %int32_1515, %int4_1516, %int1048576_1517 : (!torch.int, !torch.int, !torch.int, !torch.int) -> !torch.list<int>
    %1435 = torch.aten.view %1433, %1434 : !torch.vtensor<[1,128,1024,1024],f16>, !torch.list<int> -> !torch.vtensor<[1,32,4,1048576],f16>
    %int6_1518 = torch.constant.int 6
    %1436 = torch.prims.convert_element_type %1435, %int6_1518 : !torch.vtensor<[1,32,4,1048576],f16>, !torch.int -> !torch.vtensor<[1,32,4,1048576],f32>
    %int2_1519 = torch.constant.int 2
    %int3_1520 = torch.constant.int 3
    %1437 = torch.prim.ListConstruct %int2_1519, %int3_1520 : (!torch.int, !torch.int) -> !torch.list<int>
    %int0_1521 = torch.constant.int 0
    %true_1522 = torch.constant.bool true
    %result0_1523, %result1_1524 = torch.aten.var_mean.correction %1436, %1437, %int0_1521, %true_1522 : !torch.vtensor<[1,32,4,1048576],f32>, !torch.list<int>, !torch.int, !torch.bool -> !torch.vtensor<[1,32,1,1],f32>, !torch.vtensor<[1,32,1,1],f32>
    %float9.999990e-07_1525 = torch.constant.float 9.9999999999999995E-7
    %int1_1526 = torch.constant.int 1
    %1438 = torch.aten.add.Scalar %result0_1523, %float9.999990e-07_1525, %int1_1526 : !torch.vtensor<[1,32,1,1],f32>, !torch.float, !torch.int -> !torch.vtensor<[1,32,1,1],f32>
    %1439 = torch.aten.rsqrt %1438 : !torch.vtensor<[1,32,1,1],f32> -> !torch.vtensor<[1,32,1,1],f32>
    %int1_1527 = torch.constant.int 1
    %1440 = torch.aten.sub.Tensor %1435, %result1_1524, %int1_1527 : !torch.vtensor<[1,32,4,1048576],f16>, !torch.vtensor<[1,32,1,1],f32>, !torch.int -> !torch.vtensor<[1,32,4,1048576],f32>
    %1441 = torch.aten.mul.Tensor %1440, %1439 : !torch.vtensor<[1,32,4,1048576],f32>, !torch.vtensor<[1,32,1,1],f32> -> !torch.vtensor<[1,32,4,1048576],f32>
    %int1_1528 = torch.constant.int 1
    %int128_1529 = torch.constant.int 128
    %int1024_1530 = torch.constant.int 1024
    %int1024_1531 = torch.constant.int 1024
    %1442 = torch.prim.ListConstruct %int1_1528, %int128_1529, %int1024_1530, %int1024_1531 : (!torch.int, !torch.int, !torch.int, !torch.int) -> !torch.list<int>
    %1443 = torch.aten.view %1441, %1442 : !torch.vtensor<[1,32,4,1048576],f32>, !torch.list<int> -> !torch.vtensor<[1,128,1024,1024],f32>
    %_params.vae.decoder.conv_norm_out.bias = util.global.load @_params.vae.decoder.conv_norm_out.bias : tensor<128xf16>
    %1444 = torch_c.from_builtin_tensor %_params.vae.decoder.conv_norm_out.bias : tensor<128xf16> -> !torch.vtensor<[128],f16>
    %int0_1532 = torch.constant.int 0
    %1445 = torch.aten.unsqueeze %1444, %int0_1532 : !torch.vtensor<[128],f16>, !torch.int -> !torch.vtensor<[1,128],f16>
    %int2_1533 = torch.constant.int 2
    %1446 = torch.aten.unsqueeze %1445, %int2_1533 : !torch.vtensor<[1,128],f16>, !torch.int -> !torch.vtensor<[1,128,1],f16>
    %int3_1534 = torch.constant.int 3
    %1447 = torch.aten.unsqueeze %1446, %int3_1534 : !torch.vtensor<[1,128,1],f16>, !torch.int -> !torch.vtensor<[1,128,1,1],f16>
    %_params.vae.decoder.conv_norm_out.weight = util.global.load @_params.vae.decoder.conv_norm_out.weight : tensor<128xf16>
    %1448 = torch_c.from_builtin_tensor %_params.vae.decoder.conv_norm_out.weight : tensor<128xf16> -> !torch.vtensor<[128],f16>
    %int0_1535 = torch.constant.int 0
    %1449 = torch.aten.unsqueeze %1448, %int0_1535 : !torch.vtensor<[128],f16>, !torch.int -> !torch.vtensor<[1,128],f16>
    %int2_1536 = torch.constant.int 2
    %1450 = torch.aten.unsqueeze %1449, %int2_1536 : !torch.vtensor<[1,128],f16>, !torch.int -> !torch.vtensor<[1,128,1],f16>
    %int3_1537 = torch.constant.int 3
    %1451 = torch.aten.unsqueeze %1450, %int3_1537 : !torch.vtensor<[1,128,1],f16>, !torch.int -> !torch.vtensor<[1,128,1,1],f16>
    %1452 = torch.aten.mul.Tensor %1443, %1451 : !torch.vtensor<[1,128,1024,1024],f32>, !torch.vtensor<[1,128,1,1],f16> -> !torch.vtensor<[1,128,1024,1024],f32>
    %int1_1538 = torch.constant.int 1
    %1453 = torch.aten.add.Tensor %1452, %1447, %int1_1538 : !torch.vtensor<[1,128,1024,1024],f32>, !torch.vtensor<[1,128,1,1],f16>, !torch.int -> !torch.vtensor<[1,128,1024,1024],f32>
    %int5_1539 = torch.constant.int 5
    %1454 = torch.prims.convert_element_type %1453, %int5_1539 : !torch.vtensor<[1,128,1024,1024],f32>, !torch.int -> !torch.vtensor<[1,128,1024,1024],f16>
    %int5_1540 = torch.constant.int 5
    %1455 = torch.prims.convert_element_type %result1_1524, %int5_1540 : !torch.vtensor<[1,32,1,1],f32>, !torch.int -> !torch.vtensor<[1,32,1,1],f16>
    %int5_1541 = torch.constant.int 5
    %1456 = torch.prims.convert_element_type %1439, %int5_1541 : !torch.vtensor<[1,32,1,1],f32>, !torch.int -> !torch.vtensor<[1,32,1,1],f16>
    %int3_1542 = torch.constant.int 3
    %1457 = torch.prim.ListConstruct %int3_1542 : (!torch.int) -> !torch.list<int>
    %1458 = torch.prims.squeeze %1455, %1457 : !torch.vtensor<[1,32,1,1],f16>, !torch.list<int> -> !torch.vtensor<[1,32,1],f16>
    %int2_1543 = torch.constant.int 2
    %1459 = torch.prim.ListConstruct %int2_1543 : (!torch.int) -> !torch.list<int>
    %1460 = torch.prims.squeeze %1458, %1459 : !torch.vtensor<[1,32,1],f16>, !torch.list<int> -> !torch.vtensor<[1,32],f16>
    %int3_1544 = torch.constant.int 3
    %1461 = torch.prim.ListConstruct %int3_1544 : (!torch.int) -> !torch.list<int>
    %1462 = torch.prims.squeeze %1456, %1461 : !torch.vtensor<[1,32,1,1],f16>, !torch.list<int> -> !torch.vtensor<[1,32,1],f16>
    %int2_1545 = torch.constant.int 2
    %1463 = torch.prim.ListConstruct %int2_1545 : (!torch.int) -> !torch.list<int>
    %1464 = torch.prims.squeeze %1462, %1463 : !torch.vtensor<[1,32,1],f16>, !torch.list<int> -> !torch.vtensor<[1,32],f16>
    %1465 = torch.aten.detach %1460 : !torch.vtensor<[1,32],f16> -> !torch.vtensor<[1,32],f16>
    %1466 = torch.aten.detach %1464 : !torch.vtensor<[1,32],f16> -> !torch.vtensor<[1,32],f16>
    %1467 = torch.aten.silu %1454 : !torch.vtensor<[1,128,1024,1024],f16> -> !torch.vtensor<[1,128,1024,1024],f16>
    %_params.vae.decoder.conv_out.weight = util.global.load @_params.vae.decoder.conv_out.weight : tensor<3x128x3x3xf16>
    %1468 = torch_c.from_builtin_tensor %_params.vae.decoder.conv_out.weight : tensor<3x128x3x3xf16> -> !torch.vtensor<[3,128,3,3],f16>
    %_params.vae.decoder.conv_out.bias = util.global.load @_params.vae.decoder.conv_out.bias : tensor<3xf16>
    %1469 = torch_c.from_builtin_tensor %_params.vae.decoder.conv_out.bias : tensor<3xf16> -> !torch.vtensor<[3],f16>
    %int1_1546 = torch.constant.int 1
    %int1_1547 = torch.constant.int 1
    %1470 = torch.prim.ListConstruct %int1_1546, %int1_1547 : (!torch.int, !torch.int) -> !torch.list<int>
    %int1_1548 = torch.constant.int 1
    %int1_1549 = torch.constant.int 1
    %1471 = torch.prim.ListConstruct %int1_1548, %int1_1549 : (!torch.int, !torch.int) -> !torch.list<int>
    %int1_1550 = torch.constant.int 1
    %int1_1551 = torch.constant.int 1
    %1472 = torch.prim.ListConstruct %int1_1550, %int1_1551 : (!torch.int, !torch.int) -> !torch.list<int>
    %false_1552 = torch.constant.bool false
    %int0_1553 = torch.constant.int 0
    %int0_1554 = torch.constant.int 0
    %1473 = torch.prim.ListConstruct %int0_1553, %int0_1554 : (!torch.int, !torch.int) -> !torch.list<int>
    %int1_1555 = torch.constant.int 1
    %1474 = torch.aten.convolution %1467, %1468, %1469, %1470, %1471, %1472, %false_1552, %1473, %int1_1555 : !torch.vtensor<[1,128,1024,1024],f16>, !torch.vtensor<[3,128,3,3],f16>, !torch.vtensor<[3],f16>, !torch.list<int>, !torch.list<int>, !torch.list<int>, !torch.bool, !torch.list<int>, !torch.int -> !torch.vtensor<[1,3,1024,1024],f16>
    %int2_1556 = torch.constant.int 2
    %1475 = torch.aten.div.Scalar %1474, %int2_1556 : !torch.vtensor<[1,3,1024,1024],f16>, !torch.int -> !torch.vtensor<[1,3,1024,1024],f16>
    %float5.000000e-01_1557 = torch.constant.float 5.000000e-01
    %int1_1558 = torch.constant.int 1
    %1476 = torch.aten.add.Scalar %1475, %float5.000000e-01_1557, %int1_1558 : !torch.vtensor<[1,3,1024,1024],f16>, !torch.float, !torch.int -> !torch.vtensor<[1,3,1024,1024],f16>
    %int0_1559 = torch.constant.int 0
    %int1_1560 = torch.constant.int 1
    %1477 = torch.aten.clamp %1476, %int0_1559, %int1_1560 : !torch.vtensor<[1,3,1024,1024],f16>, !torch.int, !torch.int -> !torch.vtensor<[1,3,1024,1024],f16>
    return %1477 : !torch.vtensor<[1,3,1024,1024],f16>
  }
}
