module @compiled_vae {
  util.global private @__auto.vae.post_quant_conv.weight = #stream.parameter.named<"model"::"vae.post_quant_conv.weight"> : tensor<4x4x1x1xf16>
  util.global private @__auto.vae.post_quant_conv.bias = #stream.parameter.named<"model"::"vae.post_quant_conv.bias"> : tensor<4xf16>
  util.global private @__auto.vae.decoder.conv_in.weight = #stream.parameter.named<"model"::"vae.decoder.conv_in.weight"> : tensor<512x4x3x3xf16>
  util.global private @__auto.vae.decoder.conv_in.bias = #stream.parameter.named<"model"::"vae.decoder.conv_in.bias"> : tensor<512xf16>
  util.global private @__auto.vae.decoder.mid_block.resnets.0.norm1.bias = #stream.parameter.named<"model"::"vae.decoder.mid_block.resnets.0.norm1.bias"> : tensor<512xf16>
  util.global private @__auto.vae.decoder.mid_block.resnets.0.norm1.weight = #stream.parameter.named<"model"::"vae.decoder.mid_block.resnets.0.norm1.weight"> : tensor<512xf16>
  util.global private @__auto.vae.decoder.mid_block.resnets.0.conv1.weight = #stream.parameter.named<"model"::"vae.decoder.mid_block.resnets.0.conv1.weight"> : tensor<512x512x3x3xf16>
  util.global private @__auto.vae.decoder.mid_block.resnets.0.conv1.bias = #stream.parameter.named<"model"::"vae.decoder.mid_block.resnets.0.conv1.bias"> : tensor<512xf16>
  util.global private @__auto.vae.decoder.mid_block.resnets.0.norm2.bias = #stream.parameter.named<"model"::"vae.decoder.mid_block.resnets.0.norm2.bias"> : tensor<512xf16>
  util.global private @__auto.vae.decoder.mid_block.resnets.0.norm2.weight = #stream.parameter.named<"model"::"vae.decoder.mid_block.resnets.0.norm2.weight"> : tensor<512xf16>
  util.global private @__auto.vae.decoder.mid_block.resnets.0.conv2.weight = #stream.parameter.named<"model"::"vae.decoder.mid_block.resnets.0.conv2.weight"> : tensor<512x512x3x3xf16>
  util.global private @__auto.vae.decoder.mid_block.resnets.0.conv2.bias = #stream.parameter.named<"model"::"vae.decoder.mid_block.resnets.0.conv2.bias"> : tensor<512xf16>
  util.global private @__auto.vae.decoder.mid_block.attentions.0.group_norm.bias = #stream.parameter.named<"model"::"vae.decoder.mid_block.attentions.0.group_norm.bias"> : tensor<512xf16>
  util.global private @__auto.vae.decoder.mid_block.attentions.0.group_norm.weight = #stream.parameter.named<"model"::"vae.decoder.mid_block.attentions.0.group_norm.weight"> : tensor<512xf16>
  util.global private @__auto.vae.decoder.mid_block.attentions.0.to_q.weight = #stream.parameter.named<"model"::"vae.decoder.mid_block.attentions.0.to_q.weight"> : tensor<512x512xf16>
  util.global private @__auto.vae.decoder.mid_block.attentions.0.to_q.bias = #stream.parameter.named<"model"::"vae.decoder.mid_block.attentions.0.to_q.bias"> : tensor<512xf16>
  util.global private @__auto.vae.decoder.mid_block.attentions.0.to_k.weight = #stream.parameter.named<"model"::"vae.decoder.mid_block.attentions.0.to_k.weight"> : tensor<512x512xf16>
  util.global private @__auto.vae.decoder.mid_block.attentions.0.to_k.bias = #stream.parameter.named<"model"::"vae.decoder.mid_block.attentions.0.to_k.bias"> : tensor<512xf16>
  util.global private @__auto.vae.decoder.mid_block.attentions.0.to_v.weight = #stream.parameter.named<"model"::"vae.decoder.mid_block.attentions.0.to_v.weight"> : tensor<512x512xf16>
  util.global private @__auto.vae.decoder.mid_block.attentions.0.to_v.bias = #stream.parameter.named<"model"::"vae.decoder.mid_block.attentions.0.to_v.bias"> : tensor<512xf16>
  util.global private @__auto.vae.decoder.mid_block.attentions.0.to_out.0.weight = #stream.parameter.named<"model"::"vae.decoder.mid_block.attentions.0.to_out.0.weight"> : tensor<512x512xf16>
  util.global private @__auto.vae.decoder.mid_block.attentions.0.to_out.0.bias = #stream.parameter.named<"model"::"vae.decoder.mid_block.attentions.0.to_out.0.bias"> : tensor<512xf16>
  util.global private @__auto.vae.decoder.mid_block.resnets.1.norm1.bias = #stream.parameter.named<"model"::"vae.decoder.mid_block.resnets.1.norm1.bias"> : tensor<512xf16>
  util.global private @__auto.vae.decoder.mid_block.resnets.1.norm1.weight = #stream.parameter.named<"model"::"vae.decoder.mid_block.resnets.1.norm1.weight"> : tensor<512xf16>
  util.global private @__auto.vae.decoder.mid_block.resnets.1.conv1.weight = #stream.parameter.named<"model"::"vae.decoder.mid_block.resnets.1.conv1.weight"> : tensor<512x512x3x3xf16>
  util.global private @__auto.vae.decoder.mid_block.resnets.1.conv1.bias = #stream.parameter.named<"model"::"vae.decoder.mid_block.resnets.1.conv1.bias"> : tensor<512xf16>
  util.global private @__auto.vae.decoder.mid_block.resnets.1.norm2.bias = #stream.parameter.named<"model"::"vae.decoder.mid_block.resnets.1.norm2.bias"> : tensor<512xf16>
  util.global private @__auto.vae.decoder.mid_block.resnets.1.norm2.weight = #stream.parameter.named<"model"::"vae.decoder.mid_block.resnets.1.norm2.weight"> : tensor<512xf16>
  util.global private @__auto.vae.decoder.mid_block.resnets.1.conv2.weight = #stream.parameter.named<"model"::"vae.decoder.mid_block.resnets.1.conv2.weight"> : tensor<512x512x3x3xf16>
  util.global private @__auto.vae.decoder.mid_block.resnets.1.conv2.bias = #stream.parameter.named<"model"::"vae.decoder.mid_block.resnets.1.conv2.bias"> : tensor<512xf16>
  util.global private @__auto.vae.decoder.up_blocks.0.resnets.0.norm1.bias = #stream.parameter.named<"model"::"vae.decoder.up_blocks.0.resnets.0.norm1.bias"> : tensor<512xf16>
  util.global private @__auto.vae.decoder.up_blocks.0.resnets.0.norm1.weight = #stream.parameter.named<"model"::"vae.decoder.up_blocks.0.resnets.0.norm1.weight"> : tensor<512xf16>
  util.global private @__auto.vae.decoder.up_blocks.0.resnets.0.conv1.weight = #stream.parameter.named<"model"::"vae.decoder.up_blocks.0.resnets.0.conv1.weight"> : tensor<512x512x3x3xf16>
  util.global private @__auto.vae.decoder.up_blocks.0.resnets.0.conv1.bias = #stream.parameter.named<"model"::"vae.decoder.up_blocks.0.resnets.0.conv1.bias"> : tensor<512xf16>
  util.global private @__auto.vae.decoder.up_blocks.0.resnets.0.norm2.bias = #stream.parameter.named<"model"::"vae.decoder.up_blocks.0.resnets.0.norm2.bias"> : tensor<512xf16>
  util.global private @__auto.vae.decoder.up_blocks.0.resnets.0.norm2.weight = #stream.parameter.named<"model"::"vae.decoder.up_blocks.0.resnets.0.norm2.weight"> : tensor<512xf16>
  util.global private @__auto.vae.decoder.up_blocks.0.resnets.0.conv2.weight = #stream.parameter.named<"model"::"vae.decoder.up_blocks.0.resnets.0.conv2.weight"> : tensor<512x512x3x3xf16>
  util.global private @__auto.vae.decoder.up_blocks.0.resnets.0.conv2.bias = #stream.parameter.named<"model"::"vae.decoder.up_blocks.0.resnets.0.conv2.bias"> : tensor<512xf16>
  util.global private @__auto.vae.decoder.up_blocks.0.resnets.1.norm1.bias = #stream.parameter.named<"model"::"vae.decoder.up_blocks.0.resnets.1.norm1.bias"> : tensor<512xf16>
  util.global private @__auto.vae.decoder.up_blocks.0.resnets.1.norm1.weight = #stream.parameter.named<"model"::"vae.decoder.up_blocks.0.resnets.1.norm1.weight"> : tensor<512xf16>
  util.global private @__auto.vae.decoder.up_blocks.0.resnets.1.conv1.weight = #stream.parameter.named<"model"::"vae.decoder.up_blocks.0.resnets.1.conv1.weight"> : tensor<512x512x3x3xf16>
  util.global private @__auto.vae.decoder.up_blocks.0.resnets.1.conv1.bias = #stream.parameter.named<"model"::"vae.decoder.up_blocks.0.resnets.1.conv1.bias"> : tensor<512xf16>
  util.global private @__auto.vae.decoder.up_blocks.0.resnets.1.norm2.bias = #stream.parameter.named<"model"::"vae.decoder.up_blocks.0.resnets.1.norm2.bias"> : tensor<512xf16>
  util.global private @__auto.vae.decoder.up_blocks.0.resnets.1.norm2.weight = #stream.parameter.named<"model"::"vae.decoder.up_blocks.0.resnets.1.norm2.weight"> : tensor<512xf16>
  util.global private @__auto.vae.decoder.up_blocks.0.resnets.1.conv2.weight = #stream.parameter.named<"model"::"vae.decoder.up_blocks.0.resnets.1.conv2.weight"> : tensor<512x512x3x3xf16>
  util.global private @__auto.vae.decoder.up_blocks.0.resnets.1.conv2.bias = #stream.parameter.named<"model"::"vae.decoder.up_blocks.0.resnets.1.conv2.bias"> : tensor<512xf16>
  util.global private @__auto.vae.decoder.up_blocks.0.resnets.2.norm1.bias = #stream.parameter.named<"model"::"vae.decoder.up_blocks.0.resnets.2.norm1.bias"> : tensor<512xf16>
  util.global private @__auto.vae.decoder.up_blocks.0.resnets.2.norm1.weight = #stream.parameter.named<"model"::"vae.decoder.up_blocks.0.resnets.2.norm1.weight"> : tensor<512xf16>
  util.global private @__auto.vae.decoder.up_blocks.0.resnets.2.conv1.weight = #stream.parameter.named<"model"::"vae.decoder.up_blocks.0.resnets.2.conv1.weight"> : tensor<512x512x3x3xf16>
  util.global private @__auto.vae.decoder.up_blocks.0.resnets.2.conv1.bias = #stream.parameter.named<"model"::"vae.decoder.up_blocks.0.resnets.2.conv1.bias"> : tensor<512xf16>
  util.global private @__auto.vae.decoder.up_blocks.0.resnets.2.norm2.bias = #stream.parameter.named<"model"::"vae.decoder.up_blocks.0.resnets.2.norm2.bias"> : tensor<512xf16>
  util.global private @__auto.vae.decoder.up_blocks.0.resnets.2.norm2.weight = #stream.parameter.named<"model"::"vae.decoder.up_blocks.0.resnets.2.norm2.weight"> : tensor<512xf16>
  util.global private @__auto.vae.decoder.up_blocks.0.resnets.2.conv2.weight = #stream.parameter.named<"model"::"vae.decoder.up_blocks.0.resnets.2.conv2.weight"> : tensor<512x512x3x3xf16>
  util.global private @__auto.vae.decoder.up_blocks.0.resnets.2.conv2.bias = #stream.parameter.named<"model"::"vae.decoder.up_blocks.0.resnets.2.conv2.bias"> : tensor<512xf16>
  util.global private @__auto.vae.decoder.up_blocks.0.upsamplers.0.conv.weight = #stream.parameter.named<"model"::"vae.decoder.up_blocks.0.upsamplers.0.conv.weight"> : tensor<512x512x3x3xf16>
  util.global private @__auto.vae.decoder.up_blocks.0.upsamplers.0.conv.bias = #stream.parameter.named<"model"::"vae.decoder.up_blocks.0.upsamplers.0.conv.bias"> : tensor<512xf16>
  util.global private @__auto.vae.decoder.up_blocks.1.resnets.0.norm1.bias = #stream.parameter.named<"model"::"vae.decoder.up_blocks.1.resnets.0.norm1.bias"> : tensor<512xf16>
  util.global private @__auto.vae.decoder.up_blocks.1.resnets.0.norm1.weight = #stream.parameter.named<"model"::"vae.decoder.up_blocks.1.resnets.0.norm1.weight"> : tensor<512xf16>
  util.global private @__auto.vae.decoder.up_blocks.1.resnets.0.conv1.weight = #stream.parameter.named<"model"::"vae.decoder.up_blocks.1.resnets.0.conv1.weight"> : tensor<512x512x3x3xf16>
  util.global private @__auto.vae.decoder.up_blocks.1.resnets.0.conv1.bias = #stream.parameter.named<"model"::"vae.decoder.up_blocks.1.resnets.0.conv1.bias"> : tensor<512xf16>
  util.global private @__auto.vae.decoder.up_blocks.1.resnets.0.norm2.bias = #stream.parameter.named<"model"::"vae.decoder.up_blocks.1.resnets.0.norm2.bias"> : tensor<512xf16>
  util.global private @__auto.vae.decoder.up_blocks.1.resnets.0.norm2.weight = #stream.parameter.named<"model"::"vae.decoder.up_blocks.1.resnets.0.norm2.weight"> : tensor<512xf16>
  util.global private @__auto.vae.decoder.up_blocks.1.resnets.0.conv2.weight = #stream.parameter.named<"model"::"vae.decoder.up_blocks.1.resnets.0.conv2.weight"> : tensor<512x512x3x3xf16>
  util.global private @__auto.vae.decoder.up_blocks.1.resnets.0.conv2.bias = #stream.parameter.named<"model"::"vae.decoder.up_blocks.1.resnets.0.conv2.bias"> : tensor<512xf16>
  util.global private @__auto.vae.decoder.up_blocks.1.resnets.1.norm1.bias = #stream.parameter.named<"model"::"vae.decoder.up_blocks.1.resnets.1.norm1.bias"> : tensor<512xf16>
  util.global private @__auto.vae.decoder.up_blocks.1.resnets.1.norm1.weight = #stream.parameter.named<"model"::"vae.decoder.up_blocks.1.resnets.1.norm1.weight"> : tensor<512xf16>
  util.global private @__auto.vae.decoder.up_blocks.1.resnets.1.conv1.weight = #stream.parameter.named<"model"::"vae.decoder.up_blocks.1.resnets.1.conv1.weight"> : tensor<512x512x3x3xf16>
  util.global private @__auto.vae.decoder.up_blocks.1.resnets.1.conv1.bias = #stream.parameter.named<"model"::"vae.decoder.up_blocks.1.resnets.1.conv1.bias"> : tensor<512xf16>
  util.global private @__auto.vae.decoder.up_blocks.1.resnets.1.norm2.bias = #stream.parameter.named<"model"::"vae.decoder.up_blocks.1.resnets.1.norm2.bias"> : tensor<512xf16>
  util.global private @__auto.vae.decoder.up_blocks.1.resnets.1.norm2.weight = #stream.parameter.named<"model"::"vae.decoder.up_blocks.1.resnets.1.norm2.weight"> : tensor<512xf16>
  util.global private @__auto.vae.decoder.up_blocks.1.resnets.1.conv2.weight = #stream.parameter.named<"model"::"vae.decoder.up_blocks.1.resnets.1.conv2.weight"> : tensor<512x512x3x3xf16>
  util.global private @__auto.vae.decoder.up_blocks.1.resnets.1.conv2.bias = #stream.parameter.named<"model"::"vae.decoder.up_blocks.1.resnets.1.conv2.bias"> : tensor<512xf16>
  util.global private @__auto.vae.decoder.up_blocks.1.resnets.2.norm1.bias = #stream.parameter.named<"model"::"vae.decoder.up_blocks.1.resnets.2.norm1.bias"> : tensor<512xf16>
  util.global private @__auto.vae.decoder.up_blocks.1.resnets.2.norm1.weight = #stream.parameter.named<"model"::"vae.decoder.up_blocks.1.resnets.2.norm1.weight"> : tensor<512xf16>
  util.global private @__auto.vae.decoder.up_blocks.1.resnets.2.conv1.weight = #stream.parameter.named<"model"::"vae.decoder.up_blocks.1.resnets.2.conv1.weight"> : tensor<512x512x3x3xf16>
  util.global private @__auto.vae.decoder.up_blocks.1.resnets.2.conv1.bias = #stream.parameter.named<"model"::"vae.decoder.up_blocks.1.resnets.2.conv1.bias"> : tensor<512xf16>
  util.global private @__auto.vae.decoder.up_blocks.1.resnets.2.norm2.bias = #stream.parameter.named<"model"::"vae.decoder.up_blocks.1.resnets.2.norm2.bias"> : tensor<512xf16>
  util.global private @__auto.vae.decoder.up_blocks.1.resnets.2.norm2.weight = #stream.parameter.named<"model"::"vae.decoder.up_blocks.1.resnets.2.norm2.weight"> : tensor<512xf16>
  util.global private @__auto.vae.decoder.up_blocks.1.resnets.2.conv2.weight = #stream.parameter.named<"model"::"vae.decoder.up_blocks.1.resnets.2.conv2.weight"> : tensor<512x512x3x3xf16>
  util.global private @__auto.vae.decoder.up_blocks.1.resnets.2.conv2.bias = #stream.parameter.named<"model"::"vae.decoder.up_blocks.1.resnets.2.conv2.bias"> : tensor<512xf16>
  util.global private @__auto.vae.decoder.up_blocks.1.upsamplers.0.conv.weight = #stream.parameter.named<"model"::"vae.decoder.up_blocks.1.upsamplers.0.conv.weight"> : tensor<512x512x3x3xf16>
  util.global private @__auto.vae.decoder.up_blocks.1.upsamplers.0.conv.bias = #stream.parameter.named<"model"::"vae.decoder.up_blocks.1.upsamplers.0.conv.bias"> : tensor<512xf16>
  util.global private @__auto.vae.decoder.up_blocks.2.resnets.0.norm1.bias = #stream.parameter.named<"model"::"vae.decoder.up_blocks.2.resnets.0.norm1.bias"> : tensor<512xf16>
  util.global private @__auto.vae.decoder.up_blocks.2.resnets.0.norm1.weight = #stream.parameter.named<"model"::"vae.decoder.up_blocks.2.resnets.0.norm1.weight"> : tensor<512xf16>
  util.global private @__auto.vae.decoder.up_blocks.2.resnets.0.conv1.weight = #stream.parameter.named<"model"::"vae.decoder.up_blocks.2.resnets.0.conv1.weight"> : tensor<256x512x3x3xf16>
  util.global private @__auto.vae.decoder.up_blocks.2.resnets.0.conv1.bias = #stream.parameter.named<"model"::"vae.decoder.up_blocks.2.resnets.0.conv1.bias"> : tensor<256xf16>
  util.global private @__auto.vae.decoder.up_blocks.2.resnets.0.norm2.bias = #stream.parameter.named<"model"::"vae.decoder.up_blocks.2.resnets.0.norm2.bias"> : tensor<256xf16>
  util.global private @__auto.vae.decoder.up_blocks.2.resnets.0.norm2.weight = #stream.parameter.named<"model"::"vae.decoder.up_blocks.2.resnets.0.norm2.weight"> : tensor<256xf16>
  util.global private @__auto.vae.decoder.up_blocks.2.resnets.0.conv2.weight = #stream.parameter.named<"model"::"vae.decoder.up_blocks.2.resnets.0.conv2.weight"> : tensor<256x256x3x3xf16>
  util.global private @__auto.vae.decoder.up_blocks.2.resnets.0.conv2.bias = #stream.parameter.named<"model"::"vae.decoder.up_blocks.2.resnets.0.conv2.bias"> : tensor<256xf16>
  util.global private @__auto.vae.decoder.up_blocks.2.resnets.0.conv_shortcut.weight = #stream.parameter.named<"model"::"vae.decoder.up_blocks.2.resnets.0.conv_shortcut.weight"> : tensor<256x512x1x1xf16>
  util.global private @__auto.vae.decoder.up_blocks.2.resnets.0.conv_shortcut.bias = #stream.parameter.named<"model"::"vae.decoder.up_blocks.2.resnets.0.conv_shortcut.bias"> : tensor<256xf16>
  util.global private @__auto.vae.decoder.up_blocks.2.resnets.1.norm1.bias = #stream.parameter.named<"model"::"vae.decoder.up_blocks.2.resnets.1.norm1.bias"> : tensor<256xf16>
  util.global private @__auto.vae.decoder.up_blocks.2.resnets.1.norm1.weight = #stream.parameter.named<"model"::"vae.decoder.up_blocks.2.resnets.1.norm1.weight"> : tensor<256xf16>
  util.global private @__auto.vae.decoder.up_blocks.2.resnets.1.conv1.weight = #stream.parameter.named<"model"::"vae.decoder.up_blocks.2.resnets.1.conv1.weight"> : tensor<256x256x3x3xf16>
  util.global private @__auto.vae.decoder.up_blocks.2.resnets.1.conv1.bias = #stream.parameter.named<"model"::"vae.decoder.up_blocks.2.resnets.1.conv1.bias"> : tensor<256xf16>
  util.global private @__auto.vae.decoder.up_blocks.2.resnets.1.norm2.bias = #stream.parameter.named<"model"::"vae.decoder.up_blocks.2.resnets.1.norm2.bias"> : tensor<256xf16>
  util.global private @__auto.vae.decoder.up_blocks.2.resnets.1.norm2.weight = #stream.parameter.named<"model"::"vae.decoder.up_blocks.2.resnets.1.norm2.weight"> : tensor<256xf16>
  util.global private @__auto.vae.decoder.up_blocks.2.resnets.1.conv2.weight = #stream.parameter.named<"model"::"vae.decoder.up_blocks.2.resnets.1.conv2.weight"> : tensor<256x256x3x3xf16>
  util.global private @__auto.vae.decoder.up_blocks.2.resnets.1.conv2.bias = #stream.parameter.named<"model"::"vae.decoder.up_blocks.2.resnets.1.conv2.bias"> : tensor<256xf16>
  util.global private @__auto.vae.decoder.up_blocks.2.resnets.2.norm1.bias = #stream.parameter.named<"model"::"vae.decoder.up_blocks.2.resnets.2.norm1.bias"> : tensor<256xf16>
  util.global private @__auto.vae.decoder.up_blocks.2.resnets.2.norm1.weight = #stream.parameter.named<"model"::"vae.decoder.up_blocks.2.resnets.2.norm1.weight"> : tensor<256xf16>
  util.global private @__auto.vae.decoder.up_blocks.2.resnets.2.conv1.weight = #stream.parameter.named<"model"::"vae.decoder.up_blocks.2.resnets.2.conv1.weight"> : tensor<256x256x3x3xf16>
  util.global private @__auto.vae.decoder.up_blocks.2.resnets.2.conv1.bias = #stream.parameter.named<"model"::"vae.decoder.up_blocks.2.resnets.2.conv1.bias"> : tensor<256xf16>
  util.global private @__auto.vae.decoder.up_blocks.2.resnets.2.norm2.bias = #stream.parameter.named<"model"::"vae.decoder.up_blocks.2.resnets.2.norm2.bias"> : tensor<256xf16>
  util.global private @__auto.vae.decoder.up_blocks.2.resnets.2.norm2.weight = #stream.parameter.named<"model"::"vae.decoder.up_blocks.2.resnets.2.norm2.weight"> : tensor<256xf16>
  util.global private @__auto.vae.decoder.up_blocks.2.resnets.2.conv2.weight = #stream.parameter.named<"model"::"vae.decoder.up_blocks.2.resnets.2.conv2.weight"> : tensor<256x256x3x3xf16>
  util.global private @__auto.vae.decoder.up_blocks.2.resnets.2.conv2.bias = #stream.parameter.named<"model"::"vae.decoder.up_blocks.2.resnets.2.conv2.bias"> : tensor<256xf16>
  util.global private @__auto.vae.decoder.up_blocks.2.upsamplers.0.conv.weight = #stream.parameter.named<"model"::"vae.decoder.up_blocks.2.upsamplers.0.conv.weight"> : tensor<256x256x3x3xf16>
  util.global private @__auto.vae.decoder.up_blocks.2.upsamplers.0.conv.bias = #stream.parameter.named<"model"::"vae.decoder.up_blocks.2.upsamplers.0.conv.bias"> : tensor<256xf16>
  util.global private @__auto.vae.decoder.up_blocks.3.resnets.0.norm1.bias = #stream.parameter.named<"model"::"vae.decoder.up_blocks.3.resnets.0.norm1.bias"> : tensor<256xf16>
  util.global private @__auto.vae.decoder.up_blocks.3.resnets.0.norm1.weight = #stream.parameter.named<"model"::"vae.decoder.up_blocks.3.resnets.0.norm1.weight"> : tensor<256xf16>
  util.global private @__auto.vae.decoder.up_blocks.3.resnets.0.conv1.weight = #stream.parameter.named<"model"::"vae.decoder.up_blocks.3.resnets.0.conv1.weight"> : tensor<128x256x3x3xf16>
  util.global private @__auto.vae.decoder.up_blocks.3.resnets.0.conv1.bias = #stream.parameter.named<"model"::"vae.decoder.up_blocks.3.resnets.0.conv1.bias"> : tensor<128xf16>
  util.global private @__auto.vae.decoder.up_blocks.3.resnets.0.norm2.bias = #stream.parameter.named<"model"::"vae.decoder.up_blocks.3.resnets.0.norm2.bias"> : tensor<128xf16>
  util.global private @__auto.vae.decoder.up_blocks.3.resnets.0.norm2.weight = #stream.parameter.named<"model"::"vae.decoder.up_blocks.3.resnets.0.norm2.weight"> : tensor<128xf16>
  util.global private @__auto.vae.decoder.up_blocks.3.resnets.0.conv2.weight = #stream.parameter.named<"model"::"vae.decoder.up_blocks.3.resnets.0.conv2.weight"> : tensor<128x128x3x3xf16>
  util.global private @__auto.vae.decoder.up_blocks.3.resnets.0.conv2.bias = #stream.parameter.named<"model"::"vae.decoder.up_blocks.3.resnets.0.conv2.bias"> : tensor<128xf16>
  util.global private @__auto.vae.decoder.up_blocks.3.resnets.0.conv_shortcut.weight = #stream.parameter.named<"model"::"vae.decoder.up_blocks.3.resnets.0.conv_shortcut.weight"> : tensor<128x256x1x1xf16>
  util.global private @__auto.vae.decoder.up_blocks.3.resnets.0.conv_shortcut.bias = #stream.parameter.named<"model"::"vae.decoder.up_blocks.3.resnets.0.conv_shortcut.bias"> : tensor<128xf16>
  util.global private @__auto.vae.decoder.up_blocks.3.resnets.1.norm1.bias = #stream.parameter.named<"model"::"vae.decoder.up_blocks.3.resnets.1.norm1.bias"> : tensor<128xf16>
  util.global private @__auto.vae.decoder.up_blocks.3.resnets.1.norm1.weight = #stream.parameter.named<"model"::"vae.decoder.up_blocks.3.resnets.1.norm1.weight"> : tensor<128xf16>
  util.global private @__auto.vae.decoder.up_blocks.3.resnets.1.conv1.weight = #stream.parameter.named<"model"::"vae.decoder.up_blocks.3.resnets.1.conv1.weight"> : tensor<128x128x3x3xf16>
  util.global private @__auto.vae.decoder.up_blocks.3.resnets.1.conv1.bias = #stream.parameter.named<"model"::"vae.decoder.up_blocks.3.resnets.1.conv1.bias"> : tensor<128xf16>
  util.global private @__auto.vae.decoder.up_blocks.3.resnets.1.norm2.bias = #stream.parameter.named<"model"::"vae.decoder.up_blocks.3.resnets.1.norm2.bias"> : tensor<128xf16>
  util.global private @__auto.vae.decoder.up_blocks.3.resnets.1.norm2.weight = #stream.parameter.named<"model"::"vae.decoder.up_blocks.3.resnets.1.norm2.weight"> : tensor<128xf16>
  util.global private @__auto.vae.decoder.up_blocks.3.resnets.1.conv2.weight = #stream.parameter.named<"model"::"vae.decoder.up_blocks.3.resnets.1.conv2.weight"> : tensor<128x128x3x3xf16>
  util.global private @__auto.vae.decoder.up_blocks.3.resnets.1.conv2.bias = #stream.parameter.named<"model"::"vae.decoder.up_blocks.3.resnets.1.conv2.bias"> : tensor<128xf16>
  util.global private @__auto.vae.decoder.up_blocks.3.resnets.2.norm1.bias = #stream.parameter.named<"model"::"vae.decoder.up_blocks.3.resnets.2.norm1.bias"> : tensor<128xf16>
  util.global private @__auto.vae.decoder.up_blocks.3.resnets.2.norm1.weight = #stream.parameter.named<"model"::"vae.decoder.up_blocks.3.resnets.2.norm1.weight"> : tensor<128xf16>
  util.global private @__auto.vae.decoder.up_blocks.3.resnets.2.conv1.weight = #stream.parameter.named<"model"::"vae.decoder.up_blocks.3.resnets.2.conv1.weight"> : tensor<128x128x3x3xf16>
  util.global private @__auto.vae.decoder.up_blocks.3.resnets.2.conv1.bias = #stream.parameter.named<"model"::"vae.decoder.up_blocks.3.resnets.2.conv1.bias"> : tensor<128xf16>
  util.global private @__auto.vae.decoder.up_blocks.3.resnets.2.norm2.bias = #stream.parameter.named<"model"::"vae.decoder.up_blocks.3.resnets.2.norm2.bias"> : tensor<128xf16>
  util.global private @__auto.vae.decoder.up_blocks.3.resnets.2.norm2.weight = #stream.parameter.named<"model"::"vae.decoder.up_blocks.3.resnets.2.norm2.weight"> : tensor<128xf16>
  util.global private @__auto.vae.decoder.up_blocks.3.resnets.2.conv2.weight = #stream.parameter.named<"model"::"vae.decoder.up_blocks.3.resnets.2.conv2.weight"> : tensor<128x128x3x3xf16>
  util.global private @__auto.vae.decoder.up_blocks.3.resnets.2.conv2.bias = #stream.parameter.named<"model"::"vae.decoder.up_blocks.3.resnets.2.conv2.bias"> : tensor<128xf16>
  util.global private @__auto.vae.decoder.conv_norm_out.bias = #stream.parameter.named<"model"::"vae.decoder.conv_norm_out.bias"> : tensor<128xf16>
  util.global private @__auto.vae.decoder.conv_norm_out.weight = #stream.parameter.named<"model"::"vae.decoder.conv_norm_out.weight"> : tensor<128xf16>
  util.global private @__auto.vae.decoder.conv_out.weight = #stream.parameter.named<"model"::"vae.decoder.conv_out.weight"> : tensor<3x128x3x3xf16>
  util.global private @__auto.vae.decoder.conv_out.bias = #stream.parameter.named<"model"::"vae.decoder.conv_out.bias"> : tensor<3xf16>
  func.func @decode(%arg0: !torch.vtensor<[1,4,120,128],f16>) -> !torch.vtensor<[1,3,960,1024],f16> attributes {iree.reflection = {input_dtypes = "['float16']", input_shapes = "[(1, 4, 120, 128)]", model_name = "vae_decode", output_dtypes = "['float32']", output_shapes = "[(3, 1024, 960)]"}, torch.assume_strict_symbolic_shapes} {
    %float7.677540e00 = torch.constant.float 7.6775431861804221
    %0 = torch.aten.mul.Scalar %arg0, %float7.677540e00 : !torch.vtensor<[1,4,120,128],f16>, !torch.float -> !torch.vtensor<[1,4,120,128],f16>
    %__auto.vae.post_quant_conv.weight = util.global.load @__auto.vae.post_quant_conv.weight : tensor<4x4x1x1xf16>
    %1 = torch_c.from_builtin_tensor %__auto.vae.post_quant_conv.weight : tensor<4x4x1x1xf16> -> !torch.vtensor<[4,4,1,1],f16>
    %__auto.vae.post_quant_conv.bias = util.global.load @__auto.vae.post_quant_conv.bias : tensor<4xf16>
    %2 = torch_c.from_builtin_tensor %__auto.vae.post_quant_conv.bias : tensor<4xf16> -> !torch.vtensor<[4],f16>
    %int1 = torch.constant.int 1
    %int1_0 = torch.constant.int 1
    %3 = torch.prim.ListConstruct %int1, %int1_0 : (!torch.int, !torch.int) -> !torch.list<int>
    %int0 = torch.constant.int 0
    %int0_1 = torch.constant.int 0
    %4 = torch.prim.ListConstruct %int0, %int0_1 : (!torch.int, !torch.int) -> !torch.list<int>
    %int1_2 = torch.constant.int 1
    %int1_3 = torch.constant.int 1
    %5 = torch.prim.ListConstruct %int1_2, %int1_3 : (!torch.int, !torch.int) -> !torch.list<int>
    %false = torch.constant.bool false
    %int0_4 = torch.constant.int 0
    %int0_5 = torch.constant.int 0
    %6 = torch.prim.ListConstruct %int0_4, %int0_5 : (!torch.int, !torch.int) -> !torch.list<int>
    %int1_6 = torch.constant.int 1
    %7 = torch.aten.convolution %0, %1, %2, %3, %4, %5, %false, %6, %int1_6 : !torch.vtensor<[1,4,120,128],f16>, !torch.vtensor<[4,4,1,1],f16>, !torch.vtensor<[4],f16>, !torch.list<int>, !torch.list<int>, !torch.list<int>, !torch.bool, !torch.list<int>, !torch.int -> !torch.vtensor<[1,4,120,128],f16>
    %__auto.vae.decoder.conv_in.weight = util.global.load @__auto.vae.decoder.conv_in.weight : tensor<512x4x3x3xf16>
    %8 = torch_c.from_builtin_tensor %__auto.vae.decoder.conv_in.weight : tensor<512x4x3x3xf16> -> !torch.vtensor<[512,4,3,3],f16>
    %__auto.vae.decoder.conv_in.bias = util.global.load @__auto.vae.decoder.conv_in.bias : tensor<512xf16>
    %9 = torch_c.from_builtin_tensor %__auto.vae.decoder.conv_in.bias : tensor<512xf16> -> !torch.vtensor<[512],f16>
    %int1_7 = torch.constant.int 1
    %int1_8 = torch.constant.int 1
    %10 = torch.prim.ListConstruct %int1_7, %int1_8 : (!torch.int, !torch.int) -> !torch.list<int>
    %int1_9 = torch.constant.int 1
    %int1_10 = torch.constant.int 1
    %11 = torch.prim.ListConstruct %int1_9, %int1_10 : (!torch.int, !torch.int) -> !torch.list<int>
    %int1_11 = torch.constant.int 1
    %int1_12 = torch.constant.int 1
    %12 = torch.prim.ListConstruct %int1_11, %int1_12 : (!torch.int, !torch.int) -> !torch.list<int>
    %false_13 = torch.constant.bool false
    %int0_14 = torch.constant.int 0
    %int0_15 = torch.constant.int 0
    %13 = torch.prim.ListConstruct %int0_14, %int0_15 : (!torch.int, !torch.int) -> !torch.list<int>
    %int1_16 = torch.constant.int 1
    %14 = torch.aten.convolution %7, %8, %9, %10, %11, %12, %false_13, %13, %int1_16 : !torch.vtensor<[1,4,120,128],f16>, !torch.vtensor<[512,4,3,3],f16>, !torch.vtensor<[512],f16>, !torch.list<int>, !torch.list<int>, !torch.list<int>, !torch.bool, !torch.list<int>, !torch.int -> !torch.vtensor<[1,512,120,128],f16>
    %int1_17 = torch.constant.int 1
    %int32 = torch.constant.int 32
    %int16 = torch.constant.int 16
    %int15360 = torch.constant.int 15360
    %15 = torch.prim.ListConstruct %int1_17, %int32, %int16, %int15360 : (!torch.int, !torch.int, !torch.int, !torch.int) -> !torch.list<int>
    %16 = torch.aten.view %14, %15 : !torch.vtensor<[1,512,120,128],f16>, !torch.list<int> -> !torch.vtensor<[1,32,16,15360],f16>
    %int6 = torch.constant.int 6
    %17 = torch.prims.convert_element_type %16, %int6 : !torch.vtensor<[1,32,16,15360],f16>, !torch.int -> !torch.vtensor<[1,32,16,15360],f32>
    %int2 = torch.constant.int 2
    %int3 = torch.constant.int 3
    %18 = torch.prim.ListConstruct %int2, %int3 : (!torch.int, !torch.int) -> !torch.list<int>
    %int0_18 = torch.constant.int 0
    %true = torch.constant.bool true
    %result0, %result1 = torch.aten.var_mean.correction %17, %18, %int0_18, %true : !torch.vtensor<[1,32,16,15360],f32>, !torch.list<int>, !torch.int, !torch.bool -> !torch.vtensor<[1,32,1,1],f32>, !torch.vtensor<[1,32,1,1],f32>
    %float9.999990e-07 = torch.constant.float 9.9999999999999995E-7
    %int1_19 = torch.constant.int 1
    %19 = torch.aten.add.Scalar %result0, %float9.999990e-07, %int1_19 : !torch.vtensor<[1,32,1,1],f32>, !torch.float, !torch.int -> !torch.vtensor<[1,32,1,1],f32>
    %20 = torch.aten.rsqrt %19 : !torch.vtensor<[1,32,1,1],f32> -> !torch.vtensor<[1,32,1,1],f32>
    %int1_20 = torch.constant.int 1
    %21 = torch.aten.sub.Tensor %16, %result1, %int1_20 : !torch.vtensor<[1,32,16,15360],f16>, !torch.vtensor<[1,32,1,1],f32>, !torch.int -> !torch.vtensor<[1,32,16,15360],f32>
    %22 = torch.aten.mul.Tensor %21, %20 : !torch.vtensor<[1,32,16,15360],f32>, !torch.vtensor<[1,32,1,1],f32> -> !torch.vtensor<[1,32,16,15360],f32>
    %int1_21 = torch.constant.int 1
    %int512 = torch.constant.int 512
    %int120 = torch.constant.int 120
    %int128 = torch.constant.int 128
    %23 = torch.prim.ListConstruct %int1_21, %int512, %int120, %int128 : (!torch.int, !torch.int, !torch.int, !torch.int) -> !torch.list<int>
    %24 = torch.aten.view %22, %23 : !torch.vtensor<[1,32,16,15360],f32>, !torch.list<int> -> !torch.vtensor<[1,512,120,128],f32>
    %__auto.vae.decoder.mid_block.resnets.0.norm1.bias = util.global.load @__auto.vae.decoder.mid_block.resnets.0.norm1.bias : tensor<512xf16>
    %25 = torch_c.from_builtin_tensor %__auto.vae.decoder.mid_block.resnets.0.norm1.bias : tensor<512xf16> -> !torch.vtensor<[512],f16>
    %int0_22 = torch.constant.int 0
    %26 = torch.aten.unsqueeze %25, %int0_22 : !torch.vtensor<[512],f16>, !torch.int -> !torch.vtensor<[1,512],f16>
    %int2_23 = torch.constant.int 2
    %27 = torch.aten.unsqueeze %26, %int2_23 : !torch.vtensor<[1,512],f16>, !torch.int -> !torch.vtensor<[1,512,1],f16>
    %int3_24 = torch.constant.int 3
    %28 = torch.aten.unsqueeze %27, %int3_24 : !torch.vtensor<[1,512,1],f16>, !torch.int -> !torch.vtensor<[1,512,1,1],f16>
    %__auto.vae.decoder.mid_block.resnets.0.norm1.weight = util.global.load @__auto.vae.decoder.mid_block.resnets.0.norm1.weight : tensor<512xf16>
    %29 = torch_c.from_builtin_tensor %__auto.vae.decoder.mid_block.resnets.0.norm1.weight : tensor<512xf16> -> !torch.vtensor<[512],f16>
    %int0_25 = torch.constant.int 0
    %30 = torch.aten.unsqueeze %29, %int0_25 : !torch.vtensor<[512],f16>, !torch.int -> !torch.vtensor<[1,512],f16>
    %int2_26 = torch.constant.int 2
    %31 = torch.aten.unsqueeze %30, %int2_26 : !torch.vtensor<[1,512],f16>, !torch.int -> !torch.vtensor<[1,512,1],f16>
    %int3_27 = torch.constant.int 3
    %32 = torch.aten.unsqueeze %31, %int3_27 : !torch.vtensor<[1,512,1],f16>, !torch.int -> !torch.vtensor<[1,512,1,1],f16>
    %33 = torch.aten.mul.Tensor %24, %32 : !torch.vtensor<[1,512,120,128],f32>, !torch.vtensor<[1,512,1,1],f16> -> !torch.vtensor<[1,512,120,128],f32>
    %int1_28 = torch.constant.int 1
    %34 = torch.aten.add.Tensor %33, %28, %int1_28 : !torch.vtensor<[1,512,120,128],f32>, !torch.vtensor<[1,512,1,1],f16>, !torch.int -> !torch.vtensor<[1,512,120,128],f32>
    %int5 = torch.constant.int 5
    %35 = torch.prims.convert_element_type %34, %int5 : !torch.vtensor<[1,512,120,128],f32>, !torch.int -> !torch.vtensor<[1,512,120,128],f16>
    %36 = torch.aten.silu %35 : !torch.vtensor<[1,512,120,128],f16> -> !torch.vtensor<[1,512,120,128],f16>
    %__auto.vae.decoder.mid_block.resnets.0.conv1.weight = util.global.load @__auto.vae.decoder.mid_block.resnets.0.conv1.weight : tensor<512x512x3x3xf16>
    %37 = torch_c.from_builtin_tensor %__auto.vae.decoder.mid_block.resnets.0.conv1.weight : tensor<512x512x3x3xf16> -> !torch.vtensor<[512,512,3,3],f16>
    %__auto.vae.decoder.mid_block.resnets.0.conv1.bias = util.global.load @__auto.vae.decoder.mid_block.resnets.0.conv1.bias : tensor<512xf16>
    %38 = torch_c.from_builtin_tensor %__auto.vae.decoder.mid_block.resnets.0.conv1.bias : tensor<512xf16> -> !torch.vtensor<[512],f16>
    %int1_29 = torch.constant.int 1
    %int1_30 = torch.constant.int 1
    %39 = torch.prim.ListConstruct %int1_29, %int1_30 : (!torch.int, !torch.int) -> !torch.list<int>
    %int1_31 = torch.constant.int 1
    %int1_32 = torch.constant.int 1
    %40 = torch.prim.ListConstruct %int1_31, %int1_32 : (!torch.int, !torch.int) -> !torch.list<int>
    %int1_33 = torch.constant.int 1
    %int1_34 = torch.constant.int 1
    %41 = torch.prim.ListConstruct %int1_33, %int1_34 : (!torch.int, !torch.int) -> !torch.list<int>
    %false_35 = torch.constant.bool false
    %int0_36 = torch.constant.int 0
    %int0_37 = torch.constant.int 0
    %42 = torch.prim.ListConstruct %int0_36, %int0_37 : (!torch.int, !torch.int) -> !torch.list<int>
    %int1_38 = torch.constant.int 1
    %43 = torch.aten.convolution %36, %37, %38, %39, %40, %41, %false_35, %42, %int1_38 : !torch.vtensor<[1,512,120,128],f16>, !torch.vtensor<[512,512,3,3],f16>, !torch.vtensor<[512],f16>, !torch.list<int>, !torch.list<int>, !torch.list<int>, !torch.bool, !torch.list<int>, !torch.int -> !torch.vtensor<[1,512,120,128],f16>
    %int1_39 = torch.constant.int 1
    %int32_40 = torch.constant.int 32
    %int16_41 = torch.constant.int 16
    %int15360_42 = torch.constant.int 15360
    %44 = torch.prim.ListConstruct %int1_39, %int32_40, %int16_41, %int15360_42 : (!torch.int, !torch.int, !torch.int, !torch.int) -> !torch.list<int>
    %45 = torch.aten.view %43, %44 : !torch.vtensor<[1,512,120,128],f16>, !torch.list<int> -> !torch.vtensor<[1,32,16,15360],f16>
    %int6_43 = torch.constant.int 6
    %46 = torch.prims.convert_element_type %45, %int6_43 : !torch.vtensor<[1,32,16,15360],f16>, !torch.int -> !torch.vtensor<[1,32,16,15360],f32>
    %int2_44 = torch.constant.int 2
    %int3_45 = torch.constant.int 3
    %47 = torch.prim.ListConstruct %int2_44, %int3_45 : (!torch.int, !torch.int) -> !torch.list<int>
    %int0_46 = torch.constant.int 0
    %true_47 = torch.constant.bool true
    %result0_48, %result1_49 = torch.aten.var_mean.correction %46, %47, %int0_46, %true_47 : !torch.vtensor<[1,32,16,15360],f32>, !torch.list<int>, !torch.int, !torch.bool -> !torch.vtensor<[1,32,1,1],f32>, !torch.vtensor<[1,32,1,1],f32>
    %float9.999990e-07_50 = torch.constant.float 9.9999999999999995E-7
    %int1_51 = torch.constant.int 1
    %48 = torch.aten.add.Scalar %result0_48, %float9.999990e-07_50, %int1_51 : !torch.vtensor<[1,32,1,1],f32>, !torch.float, !torch.int -> !torch.vtensor<[1,32,1,1],f32>
    %49 = torch.aten.rsqrt %48 : !torch.vtensor<[1,32,1,1],f32> -> !torch.vtensor<[1,32,1,1],f32>
    %int1_52 = torch.constant.int 1
    %50 = torch.aten.sub.Tensor %45, %result1_49, %int1_52 : !torch.vtensor<[1,32,16,15360],f16>, !torch.vtensor<[1,32,1,1],f32>, !torch.int -> !torch.vtensor<[1,32,16,15360],f32>
    %51 = torch.aten.mul.Tensor %50, %49 : !torch.vtensor<[1,32,16,15360],f32>, !torch.vtensor<[1,32,1,1],f32> -> !torch.vtensor<[1,32,16,15360],f32>
    %int1_53 = torch.constant.int 1
    %int512_54 = torch.constant.int 512
    %int120_55 = torch.constant.int 120
    %int128_56 = torch.constant.int 128
    %52 = torch.prim.ListConstruct %int1_53, %int512_54, %int120_55, %int128_56 : (!torch.int, !torch.int, !torch.int, !torch.int) -> !torch.list<int>
    %53 = torch.aten.view %51, %52 : !torch.vtensor<[1,32,16,15360],f32>, !torch.list<int> -> !torch.vtensor<[1,512,120,128],f32>
    %__auto.vae.decoder.mid_block.resnets.0.norm2.bias = util.global.load @__auto.vae.decoder.mid_block.resnets.0.norm2.bias : tensor<512xf16>
    %54 = torch_c.from_builtin_tensor %__auto.vae.decoder.mid_block.resnets.0.norm2.bias : tensor<512xf16> -> !torch.vtensor<[512],f16>
    %int0_57 = torch.constant.int 0
    %55 = torch.aten.unsqueeze %54, %int0_57 : !torch.vtensor<[512],f16>, !torch.int -> !torch.vtensor<[1,512],f16>
    %int2_58 = torch.constant.int 2
    %56 = torch.aten.unsqueeze %55, %int2_58 : !torch.vtensor<[1,512],f16>, !torch.int -> !torch.vtensor<[1,512,1],f16>
    %int3_59 = torch.constant.int 3
    %57 = torch.aten.unsqueeze %56, %int3_59 : !torch.vtensor<[1,512,1],f16>, !torch.int -> !torch.vtensor<[1,512,1,1],f16>
    %__auto.vae.decoder.mid_block.resnets.0.norm2.weight = util.global.load @__auto.vae.decoder.mid_block.resnets.0.norm2.weight : tensor<512xf16>
    %58 = torch_c.from_builtin_tensor %__auto.vae.decoder.mid_block.resnets.0.norm2.weight : tensor<512xf16> -> !torch.vtensor<[512],f16>
    %int0_60 = torch.constant.int 0
    %59 = torch.aten.unsqueeze %58, %int0_60 : !torch.vtensor<[512],f16>, !torch.int -> !torch.vtensor<[1,512],f16>
    %int2_61 = torch.constant.int 2
    %60 = torch.aten.unsqueeze %59, %int2_61 : !torch.vtensor<[1,512],f16>, !torch.int -> !torch.vtensor<[1,512,1],f16>
    %int3_62 = torch.constant.int 3
    %61 = torch.aten.unsqueeze %60, %int3_62 : !torch.vtensor<[1,512,1],f16>, !torch.int -> !torch.vtensor<[1,512,1,1],f16>
    %62 = torch.aten.mul.Tensor %53, %61 : !torch.vtensor<[1,512,120,128],f32>, !torch.vtensor<[1,512,1,1],f16> -> !torch.vtensor<[1,512,120,128],f32>
    %int1_63 = torch.constant.int 1
    %63 = torch.aten.add.Tensor %62, %57, %int1_63 : !torch.vtensor<[1,512,120,128],f32>, !torch.vtensor<[1,512,1,1],f16>, !torch.int -> !torch.vtensor<[1,512,120,128],f32>
    %int5_64 = torch.constant.int 5
    %64 = torch.prims.convert_element_type %63, %int5_64 : !torch.vtensor<[1,512,120,128],f32>, !torch.int -> !torch.vtensor<[1,512,120,128],f16>
    %65 = torch.aten.silu %64 : !torch.vtensor<[1,512,120,128],f16> -> !torch.vtensor<[1,512,120,128],f16>
    %none = torch.constant.none
    %66 = torch.aten.clone %65, %none : !torch.vtensor<[1,512,120,128],f16>, !torch.none -> !torch.vtensor<[1,512,120,128],f16>
    %__auto.vae.decoder.mid_block.resnets.0.conv2.weight = util.global.load @__auto.vae.decoder.mid_block.resnets.0.conv2.weight : tensor<512x512x3x3xf16>
    %67 = torch_c.from_builtin_tensor %__auto.vae.decoder.mid_block.resnets.0.conv2.weight : tensor<512x512x3x3xf16> -> !torch.vtensor<[512,512,3,3],f16>
    %__auto.vae.decoder.mid_block.resnets.0.conv2.bias = util.global.load @__auto.vae.decoder.mid_block.resnets.0.conv2.bias : tensor<512xf16>
    %68 = torch_c.from_builtin_tensor %__auto.vae.decoder.mid_block.resnets.0.conv2.bias : tensor<512xf16> -> !torch.vtensor<[512],f16>
    %int1_65 = torch.constant.int 1
    %int1_66 = torch.constant.int 1
    %69 = torch.prim.ListConstruct %int1_65, %int1_66 : (!torch.int, !torch.int) -> !torch.list<int>
    %int1_67 = torch.constant.int 1
    %int1_68 = torch.constant.int 1
    %70 = torch.prim.ListConstruct %int1_67, %int1_68 : (!torch.int, !torch.int) -> !torch.list<int>
    %int1_69 = torch.constant.int 1
    %int1_70 = torch.constant.int 1
    %71 = torch.prim.ListConstruct %int1_69, %int1_70 : (!torch.int, !torch.int) -> !torch.list<int>
    %false_71 = torch.constant.bool false
    %int0_72 = torch.constant.int 0
    %int0_73 = torch.constant.int 0
    %72 = torch.prim.ListConstruct %int0_72, %int0_73 : (!torch.int, !torch.int) -> !torch.list<int>
    %int1_74 = torch.constant.int 1
    %73 = torch.aten.convolution %66, %67, %68, %69, %70, %71, %false_71, %72, %int1_74 : !torch.vtensor<[1,512,120,128],f16>, !torch.vtensor<[512,512,3,3],f16>, !torch.vtensor<[512],f16>, !torch.list<int>, !torch.list<int>, !torch.list<int>, !torch.bool, !torch.list<int>, !torch.int -> !torch.vtensor<[1,512,120,128],f16>
    %int1_75 = torch.constant.int 1
    %74 = torch.aten.add.Tensor %14, %73, %int1_75 : !torch.vtensor<[1,512,120,128],f16>, !torch.vtensor<[1,512,120,128],f16>, !torch.int -> !torch.vtensor<[1,512,120,128],f16>
    %int1_76 = torch.constant.int 1
    %75 = torch.aten.div.Scalar %74, %int1_76 : !torch.vtensor<[1,512,120,128],f16>, !torch.int -> !torch.vtensor<[1,512,120,128],f16>
    %int1_77 = torch.constant.int 1
    %int512_78 = torch.constant.int 512
    %int15360_79 = torch.constant.int 15360
    %76 = torch.prim.ListConstruct %int1_77, %int512_78, %int15360_79 : (!torch.int, !torch.int, !torch.int) -> !torch.list<int>
    %77 = torch.aten.view %75, %76 : !torch.vtensor<[1,512,120,128],f16>, !torch.list<int> -> !torch.vtensor<[1,512,15360],f16>
    %int1_80 = torch.constant.int 1
    %int2_81 = torch.constant.int 2
    %78 = torch.aten.transpose.int %77, %int1_80, %int2_81 : !torch.vtensor<[1,512,15360],f16>, !torch.int, !torch.int -> !torch.vtensor<[1,15360,512],f16>
    %int1_82 = torch.constant.int 1
    %int2_83 = torch.constant.int 2
    %79 = torch.aten.transpose.int %78, %int1_82, %int2_83 : !torch.vtensor<[1,15360,512],f16>, !torch.int, !torch.int -> !torch.vtensor<[1,512,15360],f16>
    %int1_84 = torch.constant.int 1
    %int32_85 = torch.constant.int 32
    %int16_86 = torch.constant.int 16
    %int15360_87 = torch.constant.int 15360
    %80 = torch.prim.ListConstruct %int1_84, %int32_85, %int16_86, %int15360_87 : (!torch.int, !torch.int, !torch.int, !torch.int) -> !torch.list<int>
    %81 = torch.aten.view %79, %80 : !torch.vtensor<[1,512,15360],f16>, !torch.list<int> -> !torch.vtensor<[1,32,16,15360],f16>
    %int6_88 = torch.constant.int 6
    %82 = torch.prims.convert_element_type %81, %int6_88 : !torch.vtensor<[1,32,16,15360],f16>, !torch.int -> !torch.vtensor<[1,32,16,15360],f32>
    %int2_89 = torch.constant.int 2
    %int3_90 = torch.constant.int 3
    %83 = torch.prim.ListConstruct %int2_89, %int3_90 : (!torch.int, !torch.int) -> !torch.list<int>
    %int0_91 = torch.constant.int 0
    %true_92 = torch.constant.bool true
    %result0_93, %result1_94 = torch.aten.var_mean.correction %82, %83, %int0_91, %true_92 : !torch.vtensor<[1,32,16,15360],f32>, !torch.list<int>, !torch.int, !torch.bool -> !torch.vtensor<[1,32,1,1],f32>, !torch.vtensor<[1,32,1,1],f32>
    %float9.999990e-07_95 = torch.constant.float 9.9999999999999995E-7
    %int1_96 = torch.constant.int 1
    %84 = torch.aten.add.Scalar %result0_93, %float9.999990e-07_95, %int1_96 : !torch.vtensor<[1,32,1,1],f32>, !torch.float, !torch.int -> !torch.vtensor<[1,32,1,1],f32>
    %85 = torch.aten.rsqrt %84 : !torch.vtensor<[1,32,1,1],f32> -> !torch.vtensor<[1,32,1,1],f32>
    %int1_97 = torch.constant.int 1
    %86 = torch.aten.sub.Tensor %81, %result1_94, %int1_97 : !torch.vtensor<[1,32,16,15360],f16>, !torch.vtensor<[1,32,1,1],f32>, !torch.int -> !torch.vtensor<[1,32,16,15360],f32>
    %87 = torch.aten.mul.Tensor %86, %85 : !torch.vtensor<[1,32,16,15360],f32>, !torch.vtensor<[1,32,1,1],f32> -> !torch.vtensor<[1,32,16,15360],f32>
    %int1_98 = torch.constant.int 1
    %int512_99 = torch.constant.int 512
    %int15360_100 = torch.constant.int 15360
    %88 = torch.prim.ListConstruct %int1_98, %int512_99, %int15360_100 : (!torch.int, !torch.int, !torch.int) -> !torch.list<int>
    %89 = torch.aten.view %87, %88 : !torch.vtensor<[1,32,16,15360],f32>, !torch.list<int> -> !torch.vtensor<[1,512,15360],f32>
    %__auto.vae.decoder.mid_block.attentions.0.group_norm.bias = util.global.load @__auto.vae.decoder.mid_block.attentions.0.group_norm.bias : tensor<512xf16>
    %90 = torch_c.from_builtin_tensor %__auto.vae.decoder.mid_block.attentions.0.group_norm.bias : tensor<512xf16> -> !torch.vtensor<[512],f16>
    %int0_101 = torch.constant.int 0
    %91 = torch.aten.unsqueeze %90, %int0_101 : !torch.vtensor<[512],f16>, !torch.int -> !torch.vtensor<[1,512],f16>
    %int2_102 = torch.constant.int 2
    %92 = torch.aten.unsqueeze %91, %int2_102 : !torch.vtensor<[1,512],f16>, !torch.int -> !torch.vtensor<[1,512,1],f16>
    %__auto.vae.decoder.mid_block.attentions.0.group_norm.weight = util.global.load @__auto.vae.decoder.mid_block.attentions.0.group_norm.weight : tensor<512xf16>
    %93 = torch_c.from_builtin_tensor %__auto.vae.decoder.mid_block.attentions.0.group_norm.weight : tensor<512xf16> -> !torch.vtensor<[512],f16>
    %int0_103 = torch.constant.int 0
    %94 = torch.aten.unsqueeze %93, %int0_103 : !torch.vtensor<[512],f16>, !torch.int -> !torch.vtensor<[1,512],f16>
    %int2_104 = torch.constant.int 2
    %95 = torch.aten.unsqueeze %94, %int2_104 : !torch.vtensor<[1,512],f16>, !torch.int -> !torch.vtensor<[1,512,1],f16>
    %96 = torch.aten.mul.Tensor %89, %95 : !torch.vtensor<[1,512,15360],f32>, !torch.vtensor<[1,512,1],f16> -> !torch.vtensor<[1,512,15360],f32>
    %int1_105 = torch.constant.int 1
    %97 = torch.aten.add.Tensor %96, %92, %int1_105 : !torch.vtensor<[1,512,15360],f32>, !torch.vtensor<[1,512,1],f16>, !torch.int -> !torch.vtensor<[1,512,15360],f32>
    %int5_106 = torch.constant.int 5
    %98 = torch.prims.convert_element_type %97, %int5_106 : !torch.vtensor<[1,512,15360],f32>, !torch.int -> !torch.vtensor<[1,512,15360],f16>
    %int1_107 = torch.constant.int 1
    %int2_108 = torch.constant.int 2
    %99 = torch.aten.transpose.int %98, %int1_107, %int2_108 : !torch.vtensor<[1,512,15360],f16>, !torch.int, !torch.int -> !torch.vtensor<[1,15360,512],f16>
    %__auto.vae.decoder.mid_block.attentions.0.to_q.weight = util.global.load @__auto.vae.decoder.mid_block.attentions.0.to_q.weight : tensor<512x512xf16>
    %100 = torch_c.from_builtin_tensor %__auto.vae.decoder.mid_block.attentions.0.to_q.weight : tensor<512x512xf16> -> !torch.vtensor<[512,512],f16>
    %int0_109 = torch.constant.int 0
    %int1_110 = torch.constant.int 1
    %101 = torch.aten.transpose.int %100, %int0_109, %int1_110 : !torch.vtensor<[512,512],f16>, !torch.int, !torch.int -> !torch.vtensor<[512,512],f16>
    %int15360_111 = torch.constant.int 15360
    %int512_112 = torch.constant.int 512
    %102 = torch.prim.ListConstruct %int15360_111, %int512_112 : (!torch.int, !torch.int) -> !torch.list<int>
    %103 = torch.aten.view %99, %102 : !torch.vtensor<[1,15360,512],f16>, !torch.list<int> -> !torch.vtensor<[15360,512],f16>
    %104 = torch.aten.mm %103, %101 : !torch.vtensor<[15360,512],f16>, !torch.vtensor<[512,512],f16> -> !torch.vtensor<[15360,512],f16>
    %int1_113 = torch.constant.int 1
    %int15360_114 = torch.constant.int 15360
    %int512_115 = torch.constant.int 512
    %105 = torch.prim.ListConstruct %int1_113, %int15360_114, %int512_115 : (!torch.int, !torch.int, !torch.int) -> !torch.list<int>
    %106 = torch.aten.view %104, %105 : !torch.vtensor<[15360,512],f16>, !torch.list<int> -> !torch.vtensor<[1,15360,512],f16>
    %__auto.vae.decoder.mid_block.attentions.0.to_q.bias = util.global.load @__auto.vae.decoder.mid_block.attentions.0.to_q.bias : tensor<512xf16>
    %107 = torch_c.from_builtin_tensor %__auto.vae.decoder.mid_block.attentions.0.to_q.bias : tensor<512xf16> -> !torch.vtensor<[512],f16>
    %int1_116 = torch.constant.int 1
    %108 = torch.aten.add.Tensor %106, %107, %int1_116 : !torch.vtensor<[1,15360,512],f16>, !torch.vtensor<[512],f16>, !torch.int -> !torch.vtensor<[1,15360,512],f16>
    %__auto.vae.decoder.mid_block.attentions.0.to_k.weight = util.global.load @__auto.vae.decoder.mid_block.attentions.0.to_k.weight : tensor<512x512xf16>
    %109 = torch_c.from_builtin_tensor %__auto.vae.decoder.mid_block.attentions.0.to_k.weight : tensor<512x512xf16> -> !torch.vtensor<[512,512],f16>
    %int0_117 = torch.constant.int 0
    %int1_118 = torch.constant.int 1
    %110 = torch.aten.transpose.int %109, %int0_117, %int1_118 : !torch.vtensor<[512,512],f16>, !torch.int, !torch.int -> !torch.vtensor<[512,512],f16>
    %int15360_119 = torch.constant.int 15360
    %int512_120 = torch.constant.int 512
    %111 = torch.prim.ListConstruct %int15360_119, %int512_120 : (!torch.int, !torch.int) -> !torch.list<int>
    %112 = torch.aten.view %99, %111 : !torch.vtensor<[1,15360,512],f16>, !torch.list<int> -> !torch.vtensor<[15360,512],f16>
    %113 = torch.aten.mm %112, %110 : !torch.vtensor<[15360,512],f16>, !torch.vtensor<[512,512],f16> -> !torch.vtensor<[15360,512],f16>
    %int1_121 = torch.constant.int 1
    %int15360_122 = torch.constant.int 15360
    %int512_123 = torch.constant.int 512
    %114 = torch.prim.ListConstruct %int1_121, %int15360_122, %int512_123 : (!torch.int, !torch.int, !torch.int) -> !torch.list<int>
    %115 = torch.aten.view %113, %114 : !torch.vtensor<[15360,512],f16>, !torch.list<int> -> !torch.vtensor<[1,15360,512],f16>
    %__auto.vae.decoder.mid_block.attentions.0.to_k.bias = util.global.load @__auto.vae.decoder.mid_block.attentions.0.to_k.bias : tensor<512xf16>
    %116 = torch_c.from_builtin_tensor %__auto.vae.decoder.mid_block.attentions.0.to_k.bias : tensor<512xf16> -> !torch.vtensor<[512],f16>
    %int1_124 = torch.constant.int 1
    %117 = torch.aten.add.Tensor %115, %116, %int1_124 : !torch.vtensor<[1,15360,512],f16>, !torch.vtensor<[512],f16>, !torch.int -> !torch.vtensor<[1,15360,512],f16>
    %__auto.vae.decoder.mid_block.attentions.0.to_v.weight = util.global.load @__auto.vae.decoder.mid_block.attentions.0.to_v.weight : tensor<512x512xf16>
    %118 = torch_c.from_builtin_tensor %__auto.vae.decoder.mid_block.attentions.0.to_v.weight : tensor<512x512xf16> -> !torch.vtensor<[512,512],f16>
    %int0_125 = torch.constant.int 0
    %int1_126 = torch.constant.int 1
    %119 = torch.aten.transpose.int %118, %int0_125, %int1_126 : !torch.vtensor<[512,512],f16>, !torch.int, !torch.int -> !torch.vtensor<[512,512],f16>
    %int15360_127 = torch.constant.int 15360
    %int512_128 = torch.constant.int 512
    %120 = torch.prim.ListConstruct %int15360_127, %int512_128 : (!torch.int, !torch.int) -> !torch.list<int>
    %121 = torch.aten.view %99, %120 : !torch.vtensor<[1,15360,512],f16>, !torch.list<int> -> !torch.vtensor<[15360,512],f16>
    %122 = torch.aten.mm %121, %119 : !torch.vtensor<[15360,512],f16>, !torch.vtensor<[512,512],f16> -> !torch.vtensor<[15360,512],f16>
    %int1_129 = torch.constant.int 1
    %int15360_130 = torch.constant.int 15360
    %int512_131 = torch.constant.int 512
    %123 = torch.prim.ListConstruct %int1_129, %int15360_130, %int512_131 : (!torch.int, !torch.int, !torch.int) -> !torch.list<int>
    %124 = torch.aten.view %122, %123 : !torch.vtensor<[15360,512],f16>, !torch.list<int> -> !torch.vtensor<[1,15360,512],f16>
    %__auto.vae.decoder.mid_block.attentions.0.to_v.bias = util.global.load @__auto.vae.decoder.mid_block.attentions.0.to_v.bias : tensor<512xf16>
    %125 = torch_c.from_builtin_tensor %__auto.vae.decoder.mid_block.attentions.0.to_v.bias : tensor<512xf16> -> !torch.vtensor<[512],f16>
    %int1_132 = torch.constant.int 1
    %126 = torch.aten.add.Tensor %124, %125, %int1_132 : !torch.vtensor<[1,15360,512],f16>, !torch.vtensor<[512],f16>, !torch.int -> !torch.vtensor<[1,15360,512],f16>
    %int1_133 = torch.constant.int 1
    %int-1 = torch.constant.int -1
    %int1_134 = torch.constant.int 1
    %int512_135 = torch.constant.int 512
    %127 = torch.prim.ListConstruct %int1_133, %int-1, %int1_134, %int512_135 : (!torch.int, !torch.int, !torch.int, !torch.int) -> !torch.list<int>
    %128 = torch.aten.view %108, %127 : !torch.vtensor<[1,15360,512],f16>, !torch.list<int> -> !torch.vtensor<[1,15360,1,512],f16>
    %int1_136 = torch.constant.int 1
    %int2_137 = torch.constant.int 2
    %129 = torch.aten.transpose.int %128, %int1_136, %int2_137 : !torch.vtensor<[1,15360,1,512],f16>, !torch.int, !torch.int -> !torch.vtensor<[1,1,15360,512],f16>
    %int1_138 = torch.constant.int 1
    %int-1_139 = torch.constant.int -1
    %int1_140 = torch.constant.int 1
    %int512_141 = torch.constant.int 512
    %130 = torch.prim.ListConstruct %int1_138, %int-1_139, %int1_140, %int512_141 : (!torch.int, !torch.int, !torch.int, !torch.int) -> !torch.list<int>
    %131 = torch.aten.view %117, %130 : !torch.vtensor<[1,15360,512],f16>, !torch.list<int> -> !torch.vtensor<[1,15360,1,512],f16>
    %int1_142 = torch.constant.int 1
    %int2_143 = torch.constant.int 2
    %132 = torch.aten.transpose.int %131, %int1_142, %int2_143 : !torch.vtensor<[1,15360,1,512],f16>, !torch.int, !torch.int -> !torch.vtensor<[1,1,15360,512],f16>
    %int1_144 = torch.constant.int 1
    %int-1_145 = torch.constant.int -1
    %int1_146 = torch.constant.int 1
    %int512_147 = torch.constant.int 512
    %133 = torch.prim.ListConstruct %int1_144, %int-1_145, %int1_146, %int512_147 : (!torch.int, !torch.int, !torch.int, !torch.int) -> !torch.list<int>
    %134 = torch.aten.view %126, %133 : !torch.vtensor<[1,15360,512],f16>, !torch.list<int> -> !torch.vtensor<[1,15360,1,512],f16>
    %int1_148 = torch.constant.int 1
    %int2_149 = torch.constant.int 2
    %135 = torch.aten.transpose.int %134, %int1_148, %int2_149 : !torch.vtensor<[1,15360,1,512],f16>, !torch.int, !torch.int -> !torch.vtensor<[1,1,15360,512],f16>
    %float2.102240e-01 = torch.constant.float 0.21022410381342863
    %136 = torch.aten.mul.Scalar %129, %float2.102240e-01 : !torch.vtensor<[1,1,15360,512],f16>, !torch.float -> !torch.vtensor<[1,1,15360,512],f16>
    %int-2 = torch.constant.int -2
    %int-1_150 = torch.constant.int -1
    %137 = torch.aten.transpose.int %132, %int-2, %int-1_150 : !torch.vtensor<[1,1,15360,512],f16>, !torch.int, !torch.int -> !torch.vtensor<[1,1,512,15360],f16>
    %float2.102240e-01_151 = torch.constant.float 0.21022410381342863
    %138 = torch.aten.mul.Scalar %137, %float2.102240e-01_151 : !torch.vtensor<[1,1,512,15360],f16>, !torch.float -> !torch.vtensor<[1,1,512,15360],f16>
    %int1_152 = torch.constant.int 1
    %int1_153 = torch.constant.int 1
    %int15360_154 = torch.constant.int 15360
    %int512_155 = torch.constant.int 512
    %139 = torch.prim.ListConstruct %int1_152, %int1_153, %int15360_154, %int512_155 : (!torch.int, !torch.int, !torch.int, !torch.int) -> !torch.list<int>
    %false_156 = torch.constant.bool false
    %140 = torch.aten.expand %136, %139, %false_156 : !torch.vtensor<[1,1,15360,512],f16>, !torch.list<int>, !torch.bool -> !torch.vtensor<[1,1,15360,512],f16>
    %int1_157 = torch.constant.int 1
    %int15360_158 = torch.constant.int 15360
    %int512_159 = torch.constant.int 512
    %141 = torch.prim.ListConstruct %int1_157, %int15360_158, %int512_159 : (!torch.int, !torch.int, !torch.int) -> !torch.list<int>
    %142 = torch.aten.view %140, %141 : !torch.vtensor<[1,1,15360,512],f16>, !torch.list<int> -> !torch.vtensor<[1,15360,512],f16>
    %int1_160 = torch.constant.int 1
    %int1_161 = torch.constant.int 1
    %int512_162 = torch.constant.int 512
    %int15360_163 = torch.constant.int 15360
    %143 = torch.prim.ListConstruct %int1_160, %int1_161, %int512_162, %int15360_163 : (!torch.int, !torch.int, !torch.int, !torch.int) -> !torch.list<int>
    %false_164 = torch.constant.bool false
    %144 = torch.aten.expand %138, %143, %false_164 : !torch.vtensor<[1,1,512,15360],f16>, !torch.list<int>, !torch.bool -> !torch.vtensor<[1,1,512,15360],f16>
    %int1_165 = torch.constant.int 1
    %int512_166 = torch.constant.int 512
    %int15360_167 = torch.constant.int 15360
    %145 = torch.prim.ListConstruct %int1_165, %int512_166, %int15360_167 : (!torch.int, !torch.int, !torch.int) -> !torch.list<int>
    %146 = torch.aten.view %144, %145 : !torch.vtensor<[1,1,512,15360],f16>, !torch.list<int> -> !torch.vtensor<[1,512,15360],f16>
    %147 = torch.aten.bmm %142, %146 : !torch.vtensor<[1,15360,512],f16>, !torch.vtensor<[1,512,15360],f16> -> !torch.vtensor<[1,15360,15360],f16>
    %int1_168 = torch.constant.int 1
    %int1_169 = torch.constant.int 1
    %int15360_170 = torch.constant.int 15360
    %int15360_171 = torch.constant.int 15360
    %148 = torch.prim.ListConstruct %int1_168, %int1_169, %int15360_170, %int15360_171 : (!torch.int, !torch.int, !torch.int, !torch.int) -> !torch.list<int>
    %149 = torch.aten.view %147, %148 : !torch.vtensor<[1,15360,15360],f16>, !torch.list<int> -> !torch.vtensor<[1,1,15360,15360],f16>
    %int-1_172 = torch.constant.int -1
    %false_173 = torch.constant.bool false
    %150 = torch.aten._softmax %149, %int-1_172, %false_173 : !torch.vtensor<[1,1,15360,15360],f16>, !torch.int, !torch.bool -> !torch.vtensor<[1,1,15360,15360],f16>
    %int1_174 = torch.constant.int 1
    %int1_175 = torch.constant.int 1
    %int15360_176 = torch.constant.int 15360
    %int15360_177 = torch.constant.int 15360
    %151 = torch.prim.ListConstruct %int1_174, %int1_175, %int15360_176, %int15360_177 : (!torch.int, !torch.int, !torch.int, !torch.int) -> !torch.list<int>
    %false_178 = torch.constant.bool false
    %152 = torch.aten.expand %150, %151, %false_178 : !torch.vtensor<[1,1,15360,15360],f16>, !torch.list<int>, !torch.bool -> !torch.vtensor<[1,1,15360,15360],f16>
    %int1_179 = torch.constant.int 1
    %int15360_180 = torch.constant.int 15360
    %int15360_181 = torch.constant.int 15360
    %153 = torch.prim.ListConstruct %int1_179, %int15360_180, %int15360_181 : (!torch.int, !torch.int, !torch.int) -> !torch.list<int>
    %154 = torch.aten.view %152, %153 : !torch.vtensor<[1,1,15360,15360],f16>, !torch.list<int> -> !torch.vtensor<[1,15360,15360],f16>
    %int1_182 = torch.constant.int 1
    %int1_183 = torch.constant.int 1
    %int15360_184 = torch.constant.int 15360
    %int512_185 = torch.constant.int 512
    %155 = torch.prim.ListConstruct %int1_182, %int1_183, %int15360_184, %int512_185 : (!torch.int, !torch.int, !torch.int, !torch.int) -> !torch.list<int>
    %false_186 = torch.constant.bool false
    %156 = torch.aten.expand %135, %155, %false_186 : !torch.vtensor<[1,1,15360,512],f16>, !torch.list<int>, !torch.bool -> !torch.vtensor<[1,1,15360,512],f16>
    %int1_187 = torch.constant.int 1
    %int15360_188 = torch.constant.int 15360
    %int512_189 = torch.constant.int 512
    %157 = torch.prim.ListConstruct %int1_187, %int15360_188, %int512_189 : (!torch.int, !torch.int, !torch.int) -> !torch.list<int>
    %158 = torch.aten.view %156, %157 : !torch.vtensor<[1,1,15360,512],f16>, !torch.list<int> -> !torch.vtensor<[1,15360,512],f16>
    %159 = torch.aten.bmm %154, %158 : !torch.vtensor<[1,15360,15360],f16>, !torch.vtensor<[1,15360,512],f16> -> !torch.vtensor<[1,15360,512],f16>
    %int1_190 = torch.constant.int 1
    %int1_191 = torch.constant.int 1
    %int15360_192 = torch.constant.int 15360
    %int512_193 = torch.constant.int 512
    %160 = torch.prim.ListConstruct %int1_190, %int1_191, %int15360_192, %int512_193 : (!torch.int, !torch.int, !torch.int, !torch.int) -> !torch.list<int>
    %161 = torch.aten.view %159, %160 : !torch.vtensor<[1,15360,512],f16>, !torch.list<int> -> !torch.vtensor<[1,1,15360,512],f16>
    %int1_194 = torch.constant.int 1
    %int2_195 = torch.constant.int 2
    %162 = torch.aten.transpose.int %161, %int1_194, %int2_195 : !torch.vtensor<[1,1,15360,512],f16>, !torch.int, !torch.int -> !torch.vtensor<[1,15360,1,512],f16>
    %int1_196 = torch.constant.int 1
    %int2_197 = torch.constant.int 2
    %163 = torch.aten.transpose.int %162, %int1_196, %int2_197 : !torch.vtensor<[1,15360,1,512],f16>, !torch.int, !torch.int -> !torch.vtensor<[1,1,15360,512],f16>
    %int1_198 = torch.constant.int 1
    %int2_199 = torch.constant.int 2
    %164 = torch.aten.transpose.int %163, %int1_198, %int2_199 : !torch.vtensor<[1,1,15360,512],f16>, !torch.int, !torch.int -> !torch.vtensor<[1,15360,1,512],f16>
    %int1_200 = torch.constant.int 1
    %int-1_201 = torch.constant.int -1
    %int512_202 = torch.constant.int 512
    %165 = torch.prim.ListConstruct %int1_200, %int-1_201, %int512_202 : (!torch.int, !torch.int, !torch.int) -> !torch.list<int>
    %166 = torch.aten.view %164, %165 : !torch.vtensor<[1,15360,1,512],f16>, !torch.list<int> -> !torch.vtensor<[1,15360,512],f16>
    %int5_203 = torch.constant.int 5
    %167 = torch.prims.convert_element_type %166, %int5_203 : !torch.vtensor<[1,15360,512],f16>, !torch.int -> !torch.vtensor<[1,15360,512],f16>
    %int15360_204 = torch.constant.int 15360
    %int512_205 = torch.constant.int 512
    %168 = torch.prim.ListConstruct %int15360_204, %int512_205 : (!torch.int, !torch.int) -> !torch.list<int>
    %169 = torch.aten.view %167, %168 : !torch.vtensor<[1,15360,512],f16>, !torch.list<int> -> !torch.vtensor<[15360,512],f16>
    %__auto.vae.decoder.mid_block.attentions.0.to_out.0.weight = util.global.load @__auto.vae.decoder.mid_block.attentions.0.to_out.0.weight : tensor<512x512xf16>
    %170 = torch_c.from_builtin_tensor %__auto.vae.decoder.mid_block.attentions.0.to_out.0.weight : tensor<512x512xf16> -> !torch.vtensor<[512,512],f16>
    %int0_206 = torch.constant.int 0
    %int1_207 = torch.constant.int 1
    %171 = torch.aten.transpose.int %170, %int0_206, %int1_207 : !torch.vtensor<[512,512],f16>, !torch.int, !torch.int -> !torch.vtensor<[512,512],f16>
    %__auto.vae.decoder.mid_block.attentions.0.to_out.0.bias = util.global.load @__auto.vae.decoder.mid_block.attentions.0.to_out.0.bias : tensor<512xf16>
    %172 = torch_c.from_builtin_tensor %__auto.vae.decoder.mid_block.attentions.0.to_out.0.bias : tensor<512xf16> -> !torch.vtensor<[512],f16>
    %int6_208 = torch.constant.int 6
    %173 = torch.prims.convert_element_type %172, %int6_208 : !torch.vtensor<[512],f16>, !torch.int -> !torch.vtensor<[512],f32>
    %int6_209 = torch.constant.int 6
    %174 = torch.prims.convert_element_type %169, %int6_209 : !torch.vtensor<[15360,512],f16>, !torch.int -> !torch.vtensor<[15360,512],f32>
    %int6_210 = torch.constant.int 6
    %175 = torch.prims.convert_element_type %171, %int6_210 : !torch.vtensor<[512,512],f16>, !torch.int -> !torch.vtensor<[512,512],f32>
    %176 = torch.aten.mm %174, %175 : !torch.vtensor<[15360,512],f32>, !torch.vtensor<[512,512],f32> -> !torch.vtensor<[15360,512],f32>
    %int1_211 = torch.constant.int 1
    %177 = torch.aten.mul.Scalar %176, %int1_211 : !torch.vtensor<[15360,512],f32>, !torch.int -> !torch.vtensor<[15360,512],f32>
    %int1_212 = torch.constant.int 1
    %178 = torch.aten.mul.Scalar %173, %int1_212 : !torch.vtensor<[512],f32>, !torch.int -> !torch.vtensor<[512],f32>
    %int1_213 = torch.constant.int 1
    %179 = torch.aten.add.Tensor %177, %178, %int1_213 : !torch.vtensor<[15360,512],f32>, !torch.vtensor<[512],f32>, !torch.int -> !torch.vtensor<[15360,512],f32>
    %int5_214 = torch.constant.int 5
    %180 = torch.prims.convert_element_type %179, %int5_214 : !torch.vtensor<[15360,512],f32>, !torch.int -> !torch.vtensor<[15360,512],f16>
    %int1_215 = torch.constant.int 1
    %int15360_216 = torch.constant.int 15360
    %int512_217 = torch.constant.int 512
    %181 = torch.prim.ListConstruct %int1_215, %int15360_216, %int512_217 : (!torch.int, !torch.int, !torch.int) -> !torch.list<int>
    %182 = torch.aten.view %180, %181 : !torch.vtensor<[15360,512],f16>, !torch.list<int> -> !torch.vtensor<[1,15360,512],f16>
    %none_218 = torch.constant.none
    %183 = torch.aten.clone %182, %none_218 : !torch.vtensor<[1,15360,512],f16>, !torch.none -> !torch.vtensor<[1,15360,512],f16>
    %int-1_219 = torch.constant.int -1
    %int-2_220 = torch.constant.int -2
    %184 = torch.aten.transpose.int %183, %int-1_219, %int-2_220 : !torch.vtensor<[1,15360,512],f16>, !torch.int, !torch.int -> !torch.vtensor<[1,512,15360],f16>
    %int1_221 = torch.constant.int 1
    %int512_222 = torch.constant.int 512
    %int120_223 = torch.constant.int 120
    %int128_224 = torch.constant.int 128
    %185 = torch.prim.ListConstruct %int1_221, %int512_222, %int120_223, %int128_224 : (!torch.int, !torch.int, !torch.int, !torch.int) -> !torch.list<int>
    %186 = torch.aten.view %184, %185 : !torch.vtensor<[1,512,15360],f16>, !torch.list<int> -> !torch.vtensor<[1,512,120,128],f16>
    %int1_225 = torch.constant.int 1
    %187 = torch.aten.add.Tensor %186, %75, %int1_225 : !torch.vtensor<[1,512,120,128],f16>, !torch.vtensor<[1,512,120,128],f16>, !torch.int -> !torch.vtensor<[1,512,120,128],f16>
    %int1_226 = torch.constant.int 1
    %188 = torch.aten.div.Scalar %187, %int1_226 : !torch.vtensor<[1,512,120,128],f16>, !torch.int -> !torch.vtensor<[1,512,120,128],f16>
    %int1_227 = torch.constant.int 1
    %int32_228 = torch.constant.int 32
    %int16_229 = torch.constant.int 16
    %int15360_230 = torch.constant.int 15360
    %189 = torch.prim.ListConstruct %int1_227, %int32_228, %int16_229, %int15360_230 : (!torch.int, !torch.int, !torch.int, !torch.int) -> !torch.list<int>
    %190 = torch.aten.view %188, %189 : !torch.vtensor<[1,512,120,128],f16>, !torch.list<int> -> !torch.vtensor<[1,32,16,15360],f16>
    %int6_231 = torch.constant.int 6
    %191 = torch.prims.convert_element_type %190, %int6_231 : !torch.vtensor<[1,32,16,15360],f16>, !torch.int -> !torch.vtensor<[1,32,16,15360],f32>
    %int2_232 = torch.constant.int 2
    %int3_233 = torch.constant.int 3
    %192 = torch.prim.ListConstruct %int2_232, %int3_233 : (!torch.int, !torch.int) -> !torch.list<int>
    %int0_234 = torch.constant.int 0
    %true_235 = torch.constant.bool true
    %result0_236, %result1_237 = torch.aten.var_mean.correction %191, %192, %int0_234, %true_235 : !torch.vtensor<[1,32,16,15360],f32>, !torch.list<int>, !torch.int, !torch.bool -> !torch.vtensor<[1,32,1,1],f32>, !torch.vtensor<[1,32,1,1],f32>
    %float9.999990e-07_238 = torch.constant.float 9.9999999999999995E-7
    %int1_239 = torch.constant.int 1
    %193 = torch.aten.add.Scalar %result0_236, %float9.999990e-07_238, %int1_239 : !torch.vtensor<[1,32,1,1],f32>, !torch.float, !torch.int -> !torch.vtensor<[1,32,1,1],f32>
    %194 = torch.aten.rsqrt %193 : !torch.vtensor<[1,32,1,1],f32> -> !torch.vtensor<[1,32,1,1],f32>
    %int1_240 = torch.constant.int 1
    %195 = torch.aten.sub.Tensor %190, %result1_237, %int1_240 : !torch.vtensor<[1,32,16,15360],f16>, !torch.vtensor<[1,32,1,1],f32>, !torch.int -> !torch.vtensor<[1,32,16,15360],f32>
    %196 = torch.aten.mul.Tensor %195, %194 : !torch.vtensor<[1,32,16,15360],f32>, !torch.vtensor<[1,32,1,1],f32> -> !torch.vtensor<[1,32,16,15360],f32>
    %int1_241 = torch.constant.int 1
    %int512_242 = torch.constant.int 512
    %int120_243 = torch.constant.int 120
    %int128_244 = torch.constant.int 128
    %197 = torch.prim.ListConstruct %int1_241, %int512_242, %int120_243, %int128_244 : (!torch.int, !torch.int, !torch.int, !torch.int) -> !torch.list<int>
    %198 = torch.aten.view %196, %197 : !torch.vtensor<[1,32,16,15360],f32>, !torch.list<int> -> !torch.vtensor<[1,512,120,128],f32>
    %__auto.vae.decoder.mid_block.resnets.1.norm1.bias = util.global.load @__auto.vae.decoder.mid_block.resnets.1.norm1.bias : tensor<512xf16>
    %199 = torch_c.from_builtin_tensor %__auto.vae.decoder.mid_block.resnets.1.norm1.bias : tensor<512xf16> -> !torch.vtensor<[512],f16>
    %int0_245 = torch.constant.int 0
    %200 = torch.aten.unsqueeze %199, %int0_245 : !torch.vtensor<[512],f16>, !torch.int -> !torch.vtensor<[1,512],f16>
    %int2_246 = torch.constant.int 2
    %201 = torch.aten.unsqueeze %200, %int2_246 : !torch.vtensor<[1,512],f16>, !torch.int -> !torch.vtensor<[1,512,1],f16>
    %int3_247 = torch.constant.int 3
    %202 = torch.aten.unsqueeze %201, %int3_247 : !torch.vtensor<[1,512,1],f16>, !torch.int -> !torch.vtensor<[1,512,1,1],f16>
    %__auto.vae.decoder.mid_block.resnets.1.norm1.weight = util.global.load @__auto.vae.decoder.mid_block.resnets.1.norm1.weight : tensor<512xf16>
    %203 = torch_c.from_builtin_tensor %__auto.vae.decoder.mid_block.resnets.1.norm1.weight : tensor<512xf16> -> !torch.vtensor<[512],f16>
    %int0_248 = torch.constant.int 0
    %204 = torch.aten.unsqueeze %203, %int0_248 : !torch.vtensor<[512],f16>, !torch.int -> !torch.vtensor<[1,512],f16>
    %int2_249 = torch.constant.int 2
    %205 = torch.aten.unsqueeze %204, %int2_249 : !torch.vtensor<[1,512],f16>, !torch.int -> !torch.vtensor<[1,512,1],f16>
    %int3_250 = torch.constant.int 3
    %206 = torch.aten.unsqueeze %205, %int3_250 : !torch.vtensor<[1,512,1],f16>, !torch.int -> !torch.vtensor<[1,512,1,1],f16>
    %207 = torch.aten.mul.Tensor %198, %206 : !torch.vtensor<[1,512,120,128],f32>, !torch.vtensor<[1,512,1,1],f16> -> !torch.vtensor<[1,512,120,128],f32>
    %int1_251 = torch.constant.int 1
    %208 = torch.aten.add.Tensor %207, %202, %int1_251 : !torch.vtensor<[1,512,120,128],f32>, !torch.vtensor<[1,512,1,1],f16>, !torch.int -> !torch.vtensor<[1,512,120,128],f32>
    %int5_252 = torch.constant.int 5
    %209 = torch.prims.convert_element_type %208, %int5_252 : !torch.vtensor<[1,512,120,128],f32>, !torch.int -> !torch.vtensor<[1,512,120,128],f16>
    %210 = torch.aten.silu %209 : !torch.vtensor<[1,512,120,128],f16> -> !torch.vtensor<[1,512,120,128],f16>
    %__auto.vae.decoder.mid_block.resnets.1.conv1.weight = util.global.load @__auto.vae.decoder.mid_block.resnets.1.conv1.weight : tensor<512x512x3x3xf16>
    %211 = torch_c.from_builtin_tensor %__auto.vae.decoder.mid_block.resnets.1.conv1.weight : tensor<512x512x3x3xf16> -> !torch.vtensor<[512,512,3,3],f16>
    %__auto.vae.decoder.mid_block.resnets.1.conv1.bias = util.global.load @__auto.vae.decoder.mid_block.resnets.1.conv1.bias : tensor<512xf16>
    %212 = torch_c.from_builtin_tensor %__auto.vae.decoder.mid_block.resnets.1.conv1.bias : tensor<512xf16> -> !torch.vtensor<[512],f16>
    %int1_253 = torch.constant.int 1
    %int1_254 = torch.constant.int 1
    %213 = torch.prim.ListConstruct %int1_253, %int1_254 : (!torch.int, !torch.int) -> !torch.list<int>
    %int1_255 = torch.constant.int 1
    %int1_256 = torch.constant.int 1
    %214 = torch.prim.ListConstruct %int1_255, %int1_256 : (!torch.int, !torch.int) -> !torch.list<int>
    %int1_257 = torch.constant.int 1
    %int1_258 = torch.constant.int 1
    %215 = torch.prim.ListConstruct %int1_257, %int1_258 : (!torch.int, !torch.int) -> !torch.list<int>
    %false_259 = torch.constant.bool false
    %int0_260 = torch.constant.int 0
    %int0_261 = torch.constant.int 0
    %216 = torch.prim.ListConstruct %int0_260, %int0_261 : (!torch.int, !torch.int) -> !torch.list<int>
    %int1_262 = torch.constant.int 1
    %217 = torch.aten.convolution %210, %211, %212, %213, %214, %215, %false_259, %216, %int1_262 : !torch.vtensor<[1,512,120,128],f16>, !torch.vtensor<[512,512,3,3],f16>, !torch.vtensor<[512],f16>, !torch.list<int>, !torch.list<int>, !torch.list<int>, !torch.bool, !torch.list<int>, !torch.int -> !torch.vtensor<[1,512,120,128],f16>
    %int1_263 = torch.constant.int 1
    %int32_264 = torch.constant.int 32
    %int16_265 = torch.constant.int 16
    %int15360_266 = torch.constant.int 15360
    %218 = torch.prim.ListConstruct %int1_263, %int32_264, %int16_265, %int15360_266 : (!torch.int, !torch.int, !torch.int, !torch.int) -> !torch.list<int>
    %219 = torch.aten.view %217, %218 : !torch.vtensor<[1,512,120,128],f16>, !torch.list<int> -> !torch.vtensor<[1,32,16,15360],f16>
    %int6_267 = torch.constant.int 6
    %220 = torch.prims.convert_element_type %219, %int6_267 : !torch.vtensor<[1,32,16,15360],f16>, !torch.int -> !torch.vtensor<[1,32,16,15360],f32>
    %int2_268 = torch.constant.int 2
    %int3_269 = torch.constant.int 3
    %221 = torch.prim.ListConstruct %int2_268, %int3_269 : (!torch.int, !torch.int) -> !torch.list<int>
    %int0_270 = torch.constant.int 0
    %true_271 = torch.constant.bool true
    %result0_272, %result1_273 = torch.aten.var_mean.correction %220, %221, %int0_270, %true_271 : !torch.vtensor<[1,32,16,15360],f32>, !torch.list<int>, !torch.int, !torch.bool -> !torch.vtensor<[1,32,1,1],f32>, !torch.vtensor<[1,32,1,1],f32>
    %float9.999990e-07_274 = torch.constant.float 9.9999999999999995E-7
    %int1_275 = torch.constant.int 1
    %222 = torch.aten.add.Scalar %result0_272, %float9.999990e-07_274, %int1_275 : !torch.vtensor<[1,32,1,1],f32>, !torch.float, !torch.int -> !torch.vtensor<[1,32,1,1],f32>
    %223 = torch.aten.rsqrt %222 : !torch.vtensor<[1,32,1,1],f32> -> !torch.vtensor<[1,32,1,1],f32>
    %int1_276 = torch.constant.int 1
    %224 = torch.aten.sub.Tensor %219, %result1_273, %int1_276 : !torch.vtensor<[1,32,16,15360],f16>, !torch.vtensor<[1,32,1,1],f32>, !torch.int -> !torch.vtensor<[1,32,16,15360],f32>
    %225 = torch.aten.mul.Tensor %224, %223 : !torch.vtensor<[1,32,16,15360],f32>, !torch.vtensor<[1,32,1,1],f32> -> !torch.vtensor<[1,32,16,15360],f32>
    %int1_277 = torch.constant.int 1
    %int512_278 = torch.constant.int 512
    %int120_279 = torch.constant.int 120
    %int128_280 = torch.constant.int 128
    %226 = torch.prim.ListConstruct %int1_277, %int512_278, %int120_279, %int128_280 : (!torch.int, !torch.int, !torch.int, !torch.int) -> !torch.list<int>
    %227 = torch.aten.view %225, %226 : !torch.vtensor<[1,32,16,15360],f32>, !torch.list<int> -> !torch.vtensor<[1,512,120,128],f32>
    %__auto.vae.decoder.mid_block.resnets.1.norm2.bias = util.global.load @__auto.vae.decoder.mid_block.resnets.1.norm2.bias : tensor<512xf16>
    %228 = torch_c.from_builtin_tensor %__auto.vae.decoder.mid_block.resnets.1.norm2.bias : tensor<512xf16> -> !torch.vtensor<[512],f16>
    %int0_281 = torch.constant.int 0
    %229 = torch.aten.unsqueeze %228, %int0_281 : !torch.vtensor<[512],f16>, !torch.int -> !torch.vtensor<[1,512],f16>
    %int2_282 = torch.constant.int 2
    %230 = torch.aten.unsqueeze %229, %int2_282 : !torch.vtensor<[1,512],f16>, !torch.int -> !torch.vtensor<[1,512,1],f16>
    %int3_283 = torch.constant.int 3
    %231 = torch.aten.unsqueeze %230, %int3_283 : !torch.vtensor<[1,512,1],f16>, !torch.int -> !torch.vtensor<[1,512,1,1],f16>
    %__auto.vae.decoder.mid_block.resnets.1.norm2.weight = util.global.load @__auto.vae.decoder.mid_block.resnets.1.norm2.weight : tensor<512xf16>
    %232 = torch_c.from_builtin_tensor %__auto.vae.decoder.mid_block.resnets.1.norm2.weight : tensor<512xf16> -> !torch.vtensor<[512],f16>
    %int0_284 = torch.constant.int 0
    %233 = torch.aten.unsqueeze %232, %int0_284 : !torch.vtensor<[512],f16>, !torch.int -> !torch.vtensor<[1,512],f16>
    %int2_285 = torch.constant.int 2
    %234 = torch.aten.unsqueeze %233, %int2_285 : !torch.vtensor<[1,512],f16>, !torch.int -> !torch.vtensor<[1,512,1],f16>
    %int3_286 = torch.constant.int 3
    %235 = torch.aten.unsqueeze %234, %int3_286 : !torch.vtensor<[1,512,1],f16>, !torch.int -> !torch.vtensor<[1,512,1,1],f16>
    %236 = torch.aten.mul.Tensor %227, %235 : !torch.vtensor<[1,512,120,128],f32>, !torch.vtensor<[1,512,1,1],f16> -> !torch.vtensor<[1,512,120,128],f32>
    %int1_287 = torch.constant.int 1
    %237 = torch.aten.add.Tensor %236, %231, %int1_287 : !torch.vtensor<[1,512,120,128],f32>, !torch.vtensor<[1,512,1,1],f16>, !torch.int -> !torch.vtensor<[1,512,120,128],f32>
    %int5_288 = torch.constant.int 5
    %238 = torch.prims.convert_element_type %237, %int5_288 : !torch.vtensor<[1,512,120,128],f32>, !torch.int -> !torch.vtensor<[1,512,120,128],f16>
    %239 = torch.aten.silu %238 : !torch.vtensor<[1,512,120,128],f16> -> !torch.vtensor<[1,512,120,128],f16>
    %none_289 = torch.constant.none
    %240 = torch.aten.clone %239, %none_289 : !torch.vtensor<[1,512,120,128],f16>, !torch.none -> !torch.vtensor<[1,512,120,128],f16>
    %__auto.vae.decoder.mid_block.resnets.1.conv2.weight = util.global.load @__auto.vae.decoder.mid_block.resnets.1.conv2.weight : tensor<512x512x3x3xf16>
    %241 = torch_c.from_builtin_tensor %__auto.vae.decoder.mid_block.resnets.1.conv2.weight : tensor<512x512x3x3xf16> -> !torch.vtensor<[512,512,3,3],f16>
    %__auto.vae.decoder.mid_block.resnets.1.conv2.bias = util.global.load @__auto.vae.decoder.mid_block.resnets.1.conv2.bias : tensor<512xf16>
    %242 = torch_c.from_builtin_tensor %__auto.vae.decoder.mid_block.resnets.1.conv2.bias : tensor<512xf16> -> !torch.vtensor<[512],f16>
    %int1_290 = torch.constant.int 1
    %int1_291 = torch.constant.int 1
    %243 = torch.prim.ListConstruct %int1_290, %int1_291 : (!torch.int, !torch.int) -> !torch.list<int>
    %int1_292 = torch.constant.int 1
    %int1_293 = torch.constant.int 1
    %244 = torch.prim.ListConstruct %int1_292, %int1_293 : (!torch.int, !torch.int) -> !torch.list<int>
    %int1_294 = torch.constant.int 1
    %int1_295 = torch.constant.int 1
    %245 = torch.prim.ListConstruct %int1_294, %int1_295 : (!torch.int, !torch.int) -> !torch.list<int>
    %false_296 = torch.constant.bool false
    %int0_297 = torch.constant.int 0
    %int0_298 = torch.constant.int 0
    %246 = torch.prim.ListConstruct %int0_297, %int0_298 : (!torch.int, !torch.int) -> !torch.list<int>
    %int1_299 = torch.constant.int 1
    %247 = torch.aten.convolution %240, %241, %242, %243, %244, %245, %false_296, %246, %int1_299 : !torch.vtensor<[1,512,120,128],f16>, !torch.vtensor<[512,512,3,3],f16>, !torch.vtensor<[512],f16>, !torch.list<int>, !torch.list<int>, !torch.list<int>, !torch.bool, !torch.list<int>, !torch.int -> !torch.vtensor<[1,512,120,128],f16>
    %int1_300 = torch.constant.int 1
    %248 = torch.aten.add.Tensor %188, %247, %int1_300 : !torch.vtensor<[1,512,120,128],f16>, !torch.vtensor<[1,512,120,128],f16>, !torch.int -> !torch.vtensor<[1,512,120,128],f16>
    %int1_301 = torch.constant.int 1
    %249 = torch.aten.div.Scalar %248, %int1_301 : !torch.vtensor<[1,512,120,128],f16>, !torch.int -> !torch.vtensor<[1,512,120,128],f16>
    %int5_302 = torch.constant.int 5
    %250 = torch.prims.convert_element_type %249, %int5_302 : !torch.vtensor<[1,512,120,128],f16>, !torch.int -> !torch.vtensor<[1,512,120,128],f16>
    %int1_303 = torch.constant.int 1
    %int32_304 = torch.constant.int 32
    %int16_305 = torch.constant.int 16
    %int15360_306 = torch.constant.int 15360
    %251 = torch.prim.ListConstruct %int1_303, %int32_304, %int16_305, %int15360_306 : (!torch.int, !torch.int, !torch.int, !torch.int) -> !torch.list<int>
    %252 = torch.aten.view %250, %251 : !torch.vtensor<[1,512,120,128],f16>, !torch.list<int> -> !torch.vtensor<[1,32,16,15360],f16>
    %int6_307 = torch.constant.int 6
    %253 = torch.prims.convert_element_type %252, %int6_307 : !torch.vtensor<[1,32,16,15360],f16>, !torch.int -> !torch.vtensor<[1,32,16,15360],f32>
    %int2_308 = torch.constant.int 2
    %int3_309 = torch.constant.int 3
    %254 = torch.prim.ListConstruct %int2_308, %int3_309 : (!torch.int, !torch.int) -> !torch.list<int>
    %int0_310 = torch.constant.int 0
    %true_311 = torch.constant.bool true
    %result0_312, %result1_313 = torch.aten.var_mean.correction %253, %254, %int0_310, %true_311 : !torch.vtensor<[1,32,16,15360],f32>, !torch.list<int>, !torch.int, !torch.bool -> !torch.vtensor<[1,32,1,1],f32>, !torch.vtensor<[1,32,1,1],f32>
    %float9.999990e-07_314 = torch.constant.float 9.9999999999999995E-7
    %int1_315 = torch.constant.int 1
    %255 = torch.aten.add.Scalar %result0_312, %float9.999990e-07_314, %int1_315 : !torch.vtensor<[1,32,1,1],f32>, !torch.float, !torch.int -> !torch.vtensor<[1,32,1,1],f32>
    %256 = torch.aten.rsqrt %255 : !torch.vtensor<[1,32,1,1],f32> -> !torch.vtensor<[1,32,1,1],f32>
    %int1_316 = torch.constant.int 1
    %257 = torch.aten.sub.Tensor %252, %result1_313, %int1_316 : !torch.vtensor<[1,32,16,15360],f16>, !torch.vtensor<[1,32,1,1],f32>, !torch.int -> !torch.vtensor<[1,32,16,15360],f32>
    %258 = torch.aten.mul.Tensor %257, %256 : !torch.vtensor<[1,32,16,15360],f32>, !torch.vtensor<[1,32,1,1],f32> -> !torch.vtensor<[1,32,16,15360],f32>
    %int1_317 = torch.constant.int 1
    %int512_318 = torch.constant.int 512
    %int120_319 = torch.constant.int 120
    %int128_320 = torch.constant.int 128
    %259 = torch.prim.ListConstruct %int1_317, %int512_318, %int120_319, %int128_320 : (!torch.int, !torch.int, !torch.int, !torch.int) -> !torch.list<int>
    %260 = torch.aten.view %258, %259 : !torch.vtensor<[1,32,16,15360],f32>, !torch.list<int> -> !torch.vtensor<[1,512,120,128],f32>
    %__auto.vae.decoder.up_blocks.0.resnets.0.norm1.bias = util.global.load @__auto.vae.decoder.up_blocks.0.resnets.0.norm1.bias : tensor<512xf16>
    %261 = torch_c.from_builtin_tensor %__auto.vae.decoder.up_blocks.0.resnets.0.norm1.bias : tensor<512xf16> -> !torch.vtensor<[512],f16>
    %int0_321 = torch.constant.int 0
    %262 = torch.aten.unsqueeze %261, %int0_321 : !torch.vtensor<[512],f16>, !torch.int -> !torch.vtensor<[1,512],f16>
    %int2_322 = torch.constant.int 2
    %263 = torch.aten.unsqueeze %262, %int2_322 : !torch.vtensor<[1,512],f16>, !torch.int -> !torch.vtensor<[1,512,1],f16>
    %int3_323 = torch.constant.int 3
    %264 = torch.aten.unsqueeze %263, %int3_323 : !torch.vtensor<[1,512,1],f16>, !torch.int -> !torch.vtensor<[1,512,1,1],f16>
    %__auto.vae.decoder.up_blocks.0.resnets.0.norm1.weight = util.global.load @__auto.vae.decoder.up_blocks.0.resnets.0.norm1.weight : tensor<512xf16>
    %265 = torch_c.from_builtin_tensor %__auto.vae.decoder.up_blocks.0.resnets.0.norm1.weight : tensor<512xf16> -> !torch.vtensor<[512],f16>
    %int0_324 = torch.constant.int 0
    %266 = torch.aten.unsqueeze %265, %int0_324 : !torch.vtensor<[512],f16>, !torch.int -> !torch.vtensor<[1,512],f16>
    %int2_325 = torch.constant.int 2
    %267 = torch.aten.unsqueeze %266, %int2_325 : !torch.vtensor<[1,512],f16>, !torch.int -> !torch.vtensor<[1,512,1],f16>
    %int3_326 = torch.constant.int 3
    %268 = torch.aten.unsqueeze %267, %int3_326 : !torch.vtensor<[1,512,1],f16>, !torch.int -> !torch.vtensor<[1,512,1,1],f16>
    %269 = torch.aten.mul.Tensor %260, %268 : !torch.vtensor<[1,512,120,128],f32>, !torch.vtensor<[1,512,1,1],f16> -> !torch.vtensor<[1,512,120,128],f32>
    %int1_327 = torch.constant.int 1
    %270 = torch.aten.add.Tensor %269, %264, %int1_327 : !torch.vtensor<[1,512,120,128],f32>, !torch.vtensor<[1,512,1,1],f16>, !torch.int -> !torch.vtensor<[1,512,120,128],f32>
    %int5_328 = torch.constant.int 5
    %271 = torch.prims.convert_element_type %270, %int5_328 : !torch.vtensor<[1,512,120,128],f32>, !torch.int -> !torch.vtensor<[1,512,120,128],f16>
    %272 = torch.aten.silu %271 : !torch.vtensor<[1,512,120,128],f16> -> !torch.vtensor<[1,512,120,128],f16>
    %__auto.vae.decoder.up_blocks.0.resnets.0.conv1.weight = util.global.load @__auto.vae.decoder.up_blocks.0.resnets.0.conv1.weight : tensor<512x512x3x3xf16>
    %273 = torch_c.from_builtin_tensor %__auto.vae.decoder.up_blocks.0.resnets.0.conv1.weight : tensor<512x512x3x3xf16> -> !torch.vtensor<[512,512,3,3],f16>
    %__auto.vae.decoder.up_blocks.0.resnets.0.conv1.bias = util.global.load @__auto.vae.decoder.up_blocks.0.resnets.0.conv1.bias : tensor<512xf16>
    %274 = torch_c.from_builtin_tensor %__auto.vae.decoder.up_blocks.0.resnets.0.conv1.bias : tensor<512xf16> -> !torch.vtensor<[512],f16>
    %int1_329 = torch.constant.int 1
    %int1_330 = torch.constant.int 1
    %275 = torch.prim.ListConstruct %int1_329, %int1_330 : (!torch.int, !torch.int) -> !torch.list<int>
    %int1_331 = torch.constant.int 1
    %int1_332 = torch.constant.int 1
    %276 = torch.prim.ListConstruct %int1_331, %int1_332 : (!torch.int, !torch.int) -> !torch.list<int>
    %int1_333 = torch.constant.int 1
    %int1_334 = torch.constant.int 1
    %277 = torch.prim.ListConstruct %int1_333, %int1_334 : (!torch.int, !torch.int) -> !torch.list<int>
    %false_335 = torch.constant.bool false
    %int0_336 = torch.constant.int 0
    %int0_337 = torch.constant.int 0
    %278 = torch.prim.ListConstruct %int0_336, %int0_337 : (!torch.int, !torch.int) -> !torch.list<int>
    %int1_338 = torch.constant.int 1
    %279 = torch.aten.convolution %272, %273, %274, %275, %276, %277, %false_335, %278, %int1_338 : !torch.vtensor<[1,512,120,128],f16>, !torch.vtensor<[512,512,3,3],f16>, !torch.vtensor<[512],f16>, !torch.list<int>, !torch.list<int>, !torch.list<int>, !torch.bool, !torch.list<int>, !torch.int -> !torch.vtensor<[1,512,120,128],f16>
    %int1_339 = torch.constant.int 1
    %int32_340 = torch.constant.int 32
    %int16_341 = torch.constant.int 16
    %int15360_342 = torch.constant.int 15360
    %280 = torch.prim.ListConstruct %int1_339, %int32_340, %int16_341, %int15360_342 : (!torch.int, !torch.int, !torch.int, !torch.int) -> !torch.list<int>
    %281 = torch.aten.view %279, %280 : !torch.vtensor<[1,512,120,128],f16>, !torch.list<int> -> !torch.vtensor<[1,32,16,15360],f16>
    %int6_343 = torch.constant.int 6
    %282 = torch.prims.convert_element_type %281, %int6_343 : !torch.vtensor<[1,32,16,15360],f16>, !torch.int -> !torch.vtensor<[1,32,16,15360],f32>
    %int2_344 = torch.constant.int 2
    %int3_345 = torch.constant.int 3
    %283 = torch.prim.ListConstruct %int2_344, %int3_345 : (!torch.int, !torch.int) -> !torch.list<int>
    %int0_346 = torch.constant.int 0
    %true_347 = torch.constant.bool true
    %result0_348, %result1_349 = torch.aten.var_mean.correction %282, %283, %int0_346, %true_347 : !torch.vtensor<[1,32,16,15360],f32>, !torch.list<int>, !torch.int, !torch.bool -> !torch.vtensor<[1,32,1,1],f32>, !torch.vtensor<[1,32,1,1],f32>
    %float9.999990e-07_350 = torch.constant.float 9.9999999999999995E-7
    %int1_351 = torch.constant.int 1
    %284 = torch.aten.add.Scalar %result0_348, %float9.999990e-07_350, %int1_351 : !torch.vtensor<[1,32,1,1],f32>, !torch.float, !torch.int -> !torch.vtensor<[1,32,1,1],f32>
    %285 = torch.aten.rsqrt %284 : !torch.vtensor<[1,32,1,1],f32> -> !torch.vtensor<[1,32,1,1],f32>
    %int1_352 = torch.constant.int 1
    %286 = torch.aten.sub.Tensor %281, %result1_349, %int1_352 : !torch.vtensor<[1,32,16,15360],f16>, !torch.vtensor<[1,32,1,1],f32>, !torch.int -> !torch.vtensor<[1,32,16,15360],f32>
    %287 = torch.aten.mul.Tensor %286, %285 : !torch.vtensor<[1,32,16,15360],f32>, !torch.vtensor<[1,32,1,1],f32> -> !torch.vtensor<[1,32,16,15360],f32>
    %int1_353 = torch.constant.int 1
    %int512_354 = torch.constant.int 512
    %int120_355 = torch.constant.int 120
    %int128_356 = torch.constant.int 128
    %288 = torch.prim.ListConstruct %int1_353, %int512_354, %int120_355, %int128_356 : (!torch.int, !torch.int, !torch.int, !torch.int) -> !torch.list<int>
    %289 = torch.aten.view %287, %288 : !torch.vtensor<[1,32,16,15360],f32>, !torch.list<int> -> !torch.vtensor<[1,512,120,128],f32>
    %__auto.vae.decoder.up_blocks.0.resnets.0.norm2.bias = util.global.load @__auto.vae.decoder.up_blocks.0.resnets.0.norm2.bias : tensor<512xf16>
    %290 = torch_c.from_builtin_tensor %__auto.vae.decoder.up_blocks.0.resnets.0.norm2.bias : tensor<512xf16> -> !torch.vtensor<[512],f16>
    %int0_357 = torch.constant.int 0
    %291 = torch.aten.unsqueeze %290, %int0_357 : !torch.vtensor<[512],f16>, !torch.int -> !torch.vtensor<[1,512],f16>
    %int2_358 = torch.constant.int 2
    %292 = torch.aten.unsqueeze %291, %int2_358 : !torch.vtensor<[1,512],f16>, !torch.int -> !torch.vtensor<[1,512,1],f16>
    %int3_359 = torch.constant.int 3
    %293 = torch.aten.unsqueeze %292, %int3_359 : !torch.vtensor<[1,512,1],f16>, !torch.int -> !torch.vtensor<[1,512,1,1],f16>
    %__auto.vae.decoder.up_blocks.0.resnets.0.norm2.weight = util.global.load @__auto.vae.decoder.up_blocks.0.resnets.0.norm2.weight : tensor<512xf16>
    %294 = torch_c.from_builtin_tensor %__auto.vae.decoder.up_blocks.0.resnets.0.norm2.weight : tensor<512xf16> -> !torch.vtensor<[512],f16>
    %int0_360 = torch.constant.int 0
    %295 = torch.aten.unsqueeze %294, %int0_360 : !torch.vtensor<[512],f16>, !torch.int -> !torch.vtensor<[1,512],f16>
    %int2_361 = torch.constant.int 2
    %296 = torch.aten.unsqueeze %295, %int2_361 : !torch.vtensor<[1,512],f16>, !torch.int -> !torch.vtensor<[1,512,1],f16>
    %int3_362 = torch.constant.int 3
    %297 = torch.aten.unsqueeze %296, %int3_362 : !torch.vtensor<[1,512,1],f16>, !torch.int -> !torch.vtensor<[1,512,1,1],f16>
    %298 = torch.aten.mul.Tensor %289, %297 : !torch.vtensor<[1,512,120,128],f32>, !torch.vtensor<[1,512,1,1],f16> -> !torch.vtensor<[1,512,120,128],f32>
    %int1_363 = torch.constant.int 1
    %299 = torch.aten.add.Tensor %298, %293, %int1_363 : !torch.vtensor<[1,512,120,128],f32>, !torch.vtensor<[1,512,1,1],f16>, !torch.int -> !torch.vtensor<[1,512,120,128],f32>
    %int5_364 = torch.constant.int 5
    %300 = torch.prims.convert_element_type %299, %int5_364 : !torch.vtensor<[1,512,120,128],f32>, !torch.int -> !torch.vtensor<[1,512,120,128],f16>
    %301 = torch.aten.silu %300 : !torch.vtensor<[1,512,120,128],f16> -> !torch.vtensor<[1,512,120,128],f16>
    %none_365 = torch.constant.none
    %302 = torch.aten.clone %301, %none_365 : !torch.vtensor<[1,512,120,128],f16>, !torch.none -> !torch.vtensor<[1,512,120,128],f16>
    %__auto.vae.decoder.up_blocks.0.resnets.0.conv2.weight = util.global.load @__auto.vae.decoder.up_blocks.0.resnets.0.conv2.weight : tensor<512x512x3x3xf16>
    %303 = torch_c.from_builtin_tensor %__auto.vae.decoder.up_blocks.0.resnets.0.conv2.weight : tensor<512x512x3x3xf16> -> !torch.vtensor<[512,512,3,3],f16>
    %__auto.vae.decoder.up_blocks.0.resnets.0.conv2.bias = util.global.load @__auto.vae.decoder.up_blocks.0.resnets.0.conv2.bias : tensor<512xf16>
    %304 = torch_c.from_builtin_tensor %__auto.vae.decoder.up_blocks.0.resnets.0.conv2.bias : tensor<512xf16> -> !torch.vtensor<[512],f16>
    %int1_366 = torch.constant.int 1
    %int1_367 = torch.constant.int 1
    %305 = torch.prim.ListConstruct %int1_366, %int1_367 : (!torch.int, !torch.int) -> !torch.list<int>
    %int1_368 = torch.constant.int 1
    %int1_369 = torch.constant.int 1
    %306 = torch.prim.ListConstruct %int1_368, %int1_369 : (!torch.int, !torch.int) -> !torch.list<int>
    %int1_370 = torch.constant.int 1
    %int1_371 = torch.constant.int 1
    %307 = torch.prim.ListConstruct %int1_370, %int1_371 : (!torch.int, !torch.int) -> !torch.list<int>
    %false_372 = torch.constant.bool false
    %int0_373 = torch.constant.int 0
    %int0_374 = torch.constant.int 0
    %308 = torch.prim.ListConstruct %int0_373, %int0_374 : (!torch.int, !torch.int) -> !torch.list<int>
    %int1_375 = torch.constant.int 1
    %309 = torch.aten.convolution %302, %303, %304, %305, %306, %307, %false_372, %308, %int1_375 : !torch.vtensor<[1,512,120,128],f16>, !torch.vtensor<[512,512,3,3],f16>, !torch.vtensor<[512],f16>, !torch.list<int>, !torch.list<int>, !torch.list<int>, !torch.bool, !torch.list<int>, !torch.int -> !torch.vtensor<[1,512,120,128],f16>
    %int1_376 = torch.constant.int 1
    %310 = torch.aten.add.Tensor %250, %309, %int1_376 : !torch.vtensor<[1,512,120,128],f16>, !torch.vtensor<[1,512,120,128],f16>, !torch.int -> !torch.vtensor<[1,512,120,128],f16>
    %float1.000000e00 = torch.constant.float 1.000000e+00
    %311 = torch.aten.div.Scalar %310, %float1.000000e00 : !torch.vtensor<[1,512,120,128],f16>, !torch.float -> !torch.vtensor<[1,512,120,128],f16>
    %int1_377 = torch.constant.int 1
    %int32_378 = torch.constant.int 32
    %int16_379 = torch.constant.int 16
    %int15360_380 = torch.constant.int 15360
    %312 = torch.prim.ListConstruct %int1_377, %int32_378, %int16_379, %int15360_380 : (!torch.int, !torch.int, !torch.int, !torch.int) -> !torch.list<int>
    %313 = torch.aten.view %311, %312 : !torch.vtensor<[1,512,120,128],f16>, !torch.list<int> -> !torch.vtensor<[1,32,16,15360],f16>
    %int6_381 = torch.constant.int 6
    %314 = torch.prims.convert_element_type %313, %int6_381 : !torch.vtensor<[1,32,16,15360],f16>, !torch.int -> !torch.vtensor<[1,32,16,15360],f32>
    %int2_382 = torch.constant.int 2
    %int3_383 = torch.constant.int 3
    %315 = torch.prim.ListConstruct %int2_382, %int3_383 : (!torch.int, !torch.int) -> !torch.list<int>
    %int0_384 = torch.constant.int 0
    %true_385 = torch.constant.bool true
    %result0_386, %result1_387 = torch.aten.var_mean.correction %314, %315, %int0_384, %true_385 : !torch.vtensor<[1,32,16,15360],f32>, !torch.list<int>, !torch.int, !torch.bool -> !torch.vtensor<[1,32,1,1],f32>, !torch.vtensor<[1,32,1,1],f32>
    %float9.999990e-07_388 = torch.constant.float 9.9999999999999995E-7
    %int1_389 = torch.constant.int 1
    %316 = torch.aten.add.Scalar %result0_386, %float9.999990e-07_388, %int1_389 : !torch.vtensor<[1,32,1,1],f32>, !torch.float, !torch.int -> !torch.vtensor<[1,32,1,1],f32>
    %317 = torch.aten.rsqrt %316 : !torch.vtensor<[1,32,1,1],f32> -> !torch.vtensor<[1,32,1,1],f32>
    %int1_390 = torch.constant.int 1
    %318 = torch.aten.sub.Tensor %313, %result1_387, %int1_390 : !torch.vtensor<[1,32,16,15360],f16>, !torch.vtensor<[1,32,1,1],f32>, !torch.int -> !torch.vtensor<[1,32,16,15360],f32>
    %319 = torch.aten.mul.Tensor %318, %317 : !torch.vtensor<[1,32,16,15360],f32>, !torch.vtensor<[1,32,1,1],f32> -> !torch.vtensor<[1,32,16,15360],f32>
    %int1_391 = torch.constant.int 1
    %int512_392 = torch.constant.int 512
    %int120_393 = torch.constant.int 120
    %int128_394 = torch.constant.int 128
    %320 = torch.prim.ListConstruct %int1_391, %int512_392, %int120_393, %int128_394 : (!torch.int, !torch.int, !torch.int, !torch.int) -> !torch.list<int>
    %321 = torch.aten.view %319, %320 : !torch.vtensor<[1,32,16,15360],f32>, !torch.list<int> -> !torch.vtensor<[1,512,120,128],f32>
    %__auto.vae.decoder.up_blocks.0.resnets.1.norm1.bias = util.global.load @__auto.vae.decoder.up_blocks.0.resnets.1.norm1.bias : tensor<512xf16>
    %322 = torch_c.from_builtin_tensor %__auto.vae.decoder.up_blocks.0.resnets.1.norm1.bias : tensor<512xf16> -> !torch.vtensor<[512],f16>
    %int0_395 = torch.constant.int 0
    %323 = torch.aten.unsqueeze %322, %int0_395 : !torch.vtensor<[512],f16>, !torch.int -> !torch.vtensor<[1,512],f16>
    %int2_396 = torch.constant.int 2
    %324 = torch.aten.unsqueeze %323, %int2_396 : !torch.vtensor<[1,512],f16>, !torch.int -> !torch.vtensor<[1,512,1],f16>
    %int3_397 = torch.constant.int 3
    %325 = torch.aten.unsqueeze %324, %int3_397 : !torch.vtensor<[1,512,1],f16>, !torch.int -> !torch.vtensor<[1,512,1,1],f16>
    %__auto.vae.decoder.up_blocks.0.resnets.1.norm1.weight = util.global.load @__auto.vae.decoder.up_blocks.0.resnets.1.norm1.weight : tensor<512xf16>
    %326 = torch_c.from_builtin_tensor %__auto.vae.decoder.up_blocks.0.resnets.1.norm1.weight : tensor<512xf16> -> !torch.vtensor<[512],f16>
    %int0_398 = torch.constant.int 0
    %327 = torch.aten.unsqueeze %326, %int0_398 : !torch.vtensor<[512],f16>, !torch.int -> !torch.vtensor<[1,512],f16>
    %int2_399 = torch.constant.int 2
    %328 = torch.aten.unsqueeze %327, %int2_399 : !torch.vtensor<[1,512],f16>, !torch.int -> !torch.vtensor<[1,512,1],f16>
    %int3_400 = torch.constant.int 3
    %329 = torch.aten.unsqueeze %328, %int3_400 : !torch.vtensor<[1,512,1],f16>, !torch.int -> !torch.vtensor<[1,512,1,1],f16>
    %330 = torch.aten.mul.Tensor %321, %329 : !torch.vtensor<[1,512,120,128],f32>, !torch.vtensor<[1,512,1,1],f16> -> !torch.vtensor<[1,512,120,128],f32>
    %int1_401 = torch.constant.int 1
    %331 = torch.aten.add.Tensor %330, %325, %int1_401 : !torch.vtensor<[1,512,120,128],f32>, !torch.vtensor<[1,512,1,1],f16>, !torch.int -> !torch.vtensor<[1,512,120,128],f32>
    %int5_402 = torch.constant.int 5
    %332 = torch.prims.convert_element_type %331, %int5_402 : !torch.vtensor<[1,512,120,128],f32>, !torch.int -> !torch.vtensor<[1,512,120,128],f16>
    %333 = torch.aten.silu %332 : !torch.vtensor<[1,512,120,128],f16> -> !torch.vtensor<[1,512,120,128],f16>
    %__auto.vae.decoder.up_blocks.0.resnets.1.conv1.weight = util.global.load @__auto.vae.decoder.up_blocks.0.resnets.1.conv1.weight : tensor<512x512x3x3xf16>
    %334 = torch_c.from_builtin_tensor %__auto.vae.decoder.up_blocks.0.resnets.1.conv1.weight : tensor<512x512x3x3xf16> -> !torch.vtensor<[512,512,3,3],f16>
    %__auto.vae.decoder.up_blocks.0.resnets.1.conv1.bias = util.global.load @__auto.vae.decoder.up_blocks.0.resnets.1.conv1.bias : tensor<512xf16>
    %335 = torch_c.from_builtin_tensor %__auto.vae.decoder.up_blocks.0.resnets.1.conv1.bias : tensor<512xf16> -> !torch.vtensor<[512],f16>
    %int1_403 = torch.constant.int 1
    %int1_404 = torch.constant.int 1
    %336 = torch.prim.ListConstruct %int1_403, %int1_404 : (!torch.int, !torch.int) -> !torch.list<int>
    %int1_405 = torch.constant.int 1
    %int1_406 = torch.constant.int 1
    %337 = torch.prim.ListConstruct %int1_405, %int1_406 : (!torch.int, !torch.int) -> !torch.list<int>
    %int1_407 = torch.constant.int 1
    %int1_408 = torch.constant.int 1
    %338 = torch.prim.ListConstruct %int1_407, %int1_408 : (!torch.int, !torch.int) -> !torch.list<int>
    %false_409 = torch.constant.bool false
    %int0_410 = torch.constant.int 0
    %int0_411 = torch.constant.int 0
    %339 = torch.prim.ListConstruct %int0_410, %int0_411 : (!torch.int, !torch.int) -> !torch.list<int>
    %int1_412 = torch.constant.int 1
    %340 = torch.aten.convolution %333, %334, %335, %336, %337, %338, %false_409, %339, %int1_412 : !torch.vtensor<[1,512,120,128],f16>, !torch.vtensor<[512,512,3,3],f16>, !torch.vtensor<[512],f16>, !torch.list<int>, !torch.list<int>, !torch.list<int>, !torch.bool, !torch.list<int>, !torch.int -> !torch.vtensor<[1,512,120,128],f16>
    %int1_413 = torch.constant.int 1
    %int32_414 = torch.constant.int 32
    %int16_415 = torch.constant.int 16
    %int15360_416 = torch.constant.int 15360
    %341 = torch.prim.ListConstruct %int1_413, %int32_414, %int16_415, %int15360_416 : (!torch.int, !torch.int, !torch.int, !torch.int) -> !torch.list<int>
    %342 = torch.aten.view %340, %341 : !torch.vtensor<[1,512,120,128],f16>, !torch.list<int> -> !torch.vtensor<[1,32,16,15360],f16>
    %int6_417 = torch.constant.int 6
    %343 = torch.prims.convert_element_type %342, %int6_417 : !torch.vtensor<[1,32,16,15360],f16>, !torch.int -> !torch.vtensor<[1,32,16,15360],f32>
    %int2_418 = torch.constant.int 2
    %int3_419 = torch.constant.int 3
    %344 = torch.prim.ListConstruct %int2_418, %int3_419 : (!torch.int, !torch.int) -> !torch.list<int>
    %int0_420 = torch.constant.int 0
    %true_421 = torch.constant.bool true
    %result0_422, %result1_423 = torch.aten.var_mean.correction %343, %344, %int0_420, %true_421 : !torch.vtensor<[1,32,16,15360],f32>, !torch.list<int>, !torch.int, !torch.bool -> !torch.vtensor<[1,32,1,1],f32>, !torch.vtensor<[1,32,1,1],f32>
    %float9.999990e-07_424 = torch.constant.float 9.9999999999999995E-7
    %int1_425 = torch.constant.int 1
    %345 = torch.aten.add.Scalar %result0_422, %float9.999990e-07_424, %int1_425 : !torch.vtensor<[1,32,1,1],f32>, !torch.float, !torch.int -> !torch.vtensor<[1,32,1,1],f32>
    %346 = torch.aten.rsqrt %345 : !torch.vtensor<[1,32,1,1],f32> -> !torch.vtensor<[1,32,1,1],f32>
    %int1_426 = torch.constant.int 1
    %347 = torch.aten.sub.Tensor %342, %result1_423, %int1_426 : !torch.vtensor<[1,32,16,15360],f16>, !torch.vtensor<[1,32,1,1],f32>, !torch.int -> !torch.vtensor<[1,32,16,15360],f32>
    %348 = torch.aten.mul.Tensor %347, %346 : !torch.vtensor<[1,32,16,15360],f32>, !torch.vtensor<[1,32,1,1],f32> -> !torch.vtensor<[1,32,16,15360],f32>
    %int1_427 = torch.constant.int 1
    %int512_428 = torch.constant.int 512
    %int120_429 = torch.constant.int 120
    %int128_430 = torch.constant.int 128
    %349 = torch.prim.ListConstruct %int1_427, %int512_428, %int120_429, %int128_430 : (!torch.int, !torch.int, !torch.int, !torch.int) -> !torch.list<int>
    %350 = torch.aten.view %348, %349 : !torch.vtensor<[1,32,16,15360],f32>, !torch.list<int> -> !torch.vtensor<[1,512,120,128],f32>
    %__auto.vae.decoder.up_blocks.0.resnets.1.norm2.bias = util.global.load @__auto.vae.decoder.up_blocks.0.resnets.1.norm2.bias : tensor<512xf16>
    %351 = torch_c.from_builtin_tensor %__auto.vae.decoder.up_blocks.0.resnets.1.norm2.bias : tensor<512xf16> -> !torch.vtensor<[512],f16>
    %int0_431 = torch.constant.int 0
    %352 = torch.aten.unsqueeze %351, %int0_431 : !torch.vtensor<[512],f16>, !torch.int -> !torch.vtensor<[1,512],f16>
    %int2_432 = torch.constant.int 2
    %353 = torch.aten.unsqueeze %352, %int2_432 : !torch.vtensor<[1,512],f16>, !torch.int -> !torch.vtensor<[1,512,1],f16>
    %int3_433 = torch.constant.int 3
    %354 = torch.aten.unsqueeze %353, %int3_433 : !torch.vtensor<[1,512,1],f16>, !torch.int -> !torch.vtensor<[1,512,1,1],f16>
    %__auto.vae.decoder.up_blocks.0.resnets.1.norm2.weight = util.global.load @__auto.vae.decoder.up_blocks.0.resnets.1.norm2.weight : tensor<512xf16>
    %355 = torch_c.from_builtin_tensor %__auto.vae.decoder.up_blocks.0.resnets.1.norm2.weight : tensor<512xf16> -> !torch.vtensor<[512],f16>
    %int0_434 = torch.constant.int 0
    %356 = torch.aten.unsqueeze %355, %int0_434 : !torch.vtensor<[512],f16>, !torch.int -> !torch.vtensor<[1,512],f16>
    %int2_435 = torch.constant.int 2
    %357 = torch.aten.unsqueeze %356, %int2_435 : !torch.vtensor<[1,512],f16>, !torch.int -> !torch.vtensor<[1,512,1],f16>
    %int3_436 = torch.constant.int 3
    %358 = torch.aten.unsqueeze %357, %int3_436 : !torch.vtensor<[1,512,1],f16>, !torch.int -> !torch.vtensor<[1,512,1,1],f16>
    %359 = torch.aten.mul.Tensor %350, %358 : !torch.vtensor<[1,512,120,128],f32>, !torch.vtensor<[1,512,1,1],f16> -> !torch.vtensor<[1,512,120,128],f32>
    %int1_437 = torch.constant.int 1
    %360 = torch.aten.add.Tensor %359, %354, %int1_437 : !torch.vtensor<[1,512,120,128],f32>, !torch.vtensor<[1,512,1,1],f16>, !torch.int -> !torch.vtensor<[1,512,120,128],f32>
    %int5_438 = torch.constant.int 5
    %361 = torch.prims.convert_element_type %360, %int5_438 : !torch.vtensor<[1,512,120,128],f32>, !torch.int -> !torch.vtensor<[1,512,120,128],f16>
    %362 = torch.aten.silu %361 : !torch.vtensor<[1,512,120,128],f16> -> !torch.vtensor<[1,512,120,128],f16>
    %none_439 = torch.constant.none
    %363 = torch.aten.clone %362, %none_439 : !torch.vtensor<[1,512,120,128],f16>, !torch.none -> !torch.vtensor<[1,512,120,128],f16>
    %__auto.vae.decoder.up_blocks.0.resnets.1.conv2.weight = util.global.load @__auto.vae.decoder.up_blocks.0.resnets.1.conv2.weight : tensor<512x512x3x3xf16>
    %364 = torch_c.from_builtin_tensor %__auto.vae.decoder.up_blocks.0.resnets.1.conv2.weight : tensor<512x512x3x3xf16> -> !torch.vtensor<[512,512,3,3],f16>
    %__auto.vae.decoder.up_blocks.0.resnets.1.conv2.bias = util.global.load @__auto.vae.decoder.up_blocks.0.resnets.1.conv2.bias : tensor<512xf16>
    %365 = torch_c.from_builtin_tensor %__auto.vae.decoder.up_blocks.0.resnets.1.conv2.bias : tensor<512xf16> -> !torch.vtensor<[512],f16>
    %int1_440 = torch.constant.int 1
    %int1_441 = torch.constant.int 1
    %366 = torch.prim.ListConstruct %int1_440, %int1_441 : (!torch.int, !torch.int) -> !torch.list<int>
    %int1_442 = torch.constant.int 1
    %int1_443 = torch.constant.int 1
    %367 = torch.prim.ListConstruct %int1_442, %int1_443 : (!torch.int, !torch.int) -> !torch.list<int>
    %int1_444 = torch.constant.int 1
    %int1_445 = torch.constant.int 1
    %368 = torch.prim.ListConstruct %int1_444, %int1_445 : (!torch.int, !torch.int) -> !torch.list<int>
    %false_446 = torch.constant.bool false
    %int0_447 = torch.constant.int 0
    %int0_448 = torch.constant.int 0
    %369 = torch.prim.ListConstruct %int0_447, %int0_448 : (!torch.int, !torch.int) -> !torch.list<int>
    %int1_449 = torch.constant.int 1
    %370 = torch.aten.convolution %363, %364, %365, %366, %367, %368, %false_446, %369, %int1_449 : !torch.vtensor<[1,512,120,128],f16>, !torch.vtensor<[512,512,3,3],f16>, !torch.vtensor<[512],f16>, !torch.list<int>, !torch.list<int>, !torch.list<int>, !torch.bool, !torch.list<int>, !torch.int -> !torch.vtensor<[1,512,120,128],f16>
    %int1_450 = torch.constant.int 1
    %371 = torch.aten.add.Tensor %311, %370, %int1_450 : !torch.vtensor<[1,512,120,128],f16>, !torch.vtensor<[1,512,120,128],f16>, !torch.int -> !torch.vtensor<[1,512,120,128],f16>
    %float1.000000e00_451 = torch.constant.float 1.000000e+00
    %372 = torch.aten.div.Scalar %371, %float1.000000e00_451 : !torch.vtensor<[1,512,120,128],f16>, !torch.float -> !torch.vtensor<[1,512,120,128],f16>
    %int1_452 = torch.constant.int 1
    %int32_453 = torch.constant.int 32
    %int16_454 = torch.constant.int 16
    %int15360_455 = torch.constant.int 15360
    %373 = torch.prim.ListConstruct %int1_452, %int32_453, %int16_454, %int15360_455 : (!torch.int, !torch.int, !torch.int, !torch.int) -> !torch.list<int>
    %374 = torch.aten.view %372, %373 : !torch.vtensor<[1,512,120,128],f16>, !torch.list<int> -> !torch.vtensor<[1,32,16,15360],f16>
    %int6_456 = torch.constant.int 6
    %375 = torch.prims.convert_element_type %374, %int6_456 : !torch.vtensor<[1,32,16,15360],f16>, !torch.int -> !torch.vtensor<[1,32,16,15360],f32>
    %int2_457 = torch.constant.int 2
    %int3_458 = torch.constant.int 3
    %376 = torch.prim.ListConstruct %int2_457, %int3_458 : (!torch.int, !torch.int) -> !torch.list<int>
    %int0_459 = torch.constant.int 0
    %true_460 = torch.constant.bool true
    %result0_461, %result1_462 = torch.aten.var_mean.correction %375, %376, %int0_459, %true_460 : !torch.vtensor<[1,32,16,15360],f32>, !torch.list<int>, !torch.int, !torch.bool -> !torch.vtensor<[1,32,1,1],f32>, !torch.vtensor<[1,32,1,1],f32>
    %float9.999990e-07_463 = torch.constant.float 9.9999999999999995E-7
    %int1_464 = torch.constant.int 1
    %377 = torch.aten.add.Scalar %result0_461, %float9.999990e-07_463, %int1_464 : !torch.vtensor<[1,32,1,1],f32>, !torch.float, !torch.int -> !torch.vtensor<[1,32,1,1],f32>
    %378 = torch.aten.rsqrt %377 : !torch.vtensor<[1,32,1,1],f32> -> !torch.vtensor<[1,32,1,1],f32>
    %int1_465 = torch.constant.int 1
    %379 = torch.aten.sub.Tensor %374, %result1_462, %int1_465 : !torch.vtensor<[1,32,16,15360],f16>, !torch.vtensor<[1,32,1,1],f32>, !torch.int -> !torch.vtensor<[1,32,16,15360],f32>
    %380 = torch.aten.mul.Tensor %379, %378 : !torch.vtensor<[1,32,16,15360],f32>, !torch.vtensor<[1,32,1,1],f32> -> !torch.vtensor<[1,32,16,15360],f32>
    %int1_466 = torch.constant.int 1
    %int512_467 = torch.constant.int 512
    %int120_468 = torch.constant.int 120
    %int128_469 = torch.constant.int 128
    %381 = torch.prim.ListConstruct %int1_466, %int512_467, %int120_468, %int128_469 : (!torch.int, !torch.int, !torch.int, !torch.int) -> !torch.list<int>
    %382 = torch.aten.view %380, %381 : !torch.vtensor<[1,32,16,15360],f32>, !torch.list<int> -> !torch.vtensor<[1,512,120,128],f32>
    %__auto.vae.decoder.up_blocks.0.resnets.2.norm1.bias = util.global.load @__auto.vae.decoder.up_blocks.0.resnets.2.norm1.bias : tensor<512xf16>
    %383 = torch_c.from_builtin_tensor %__auto.vae.decoder.up_blocks.0.resnets.2.norm1.bias : tensor<512xf16> -> !torch.vtensor<[512],f16>
    %int0_470 = torch.constant.int 0
    %384 = torch.aten.unsqueeze %383, %int0_470 : !torch.vtensor<[512],f16>, !torch.int -> !torch.vtensor<[1,512],f16>
    %int2_471 = torch.constant.int 2
    %385 = torch.aten.unsqueeze %384, %int2_471 : !torch.vtensor<[1,512],f16>, !torch.int -> !torch.vtensor<[1,512,1],f16>
    %int3_472 = torch.constant.int 3
    %386 = torch.aten.unsqueeze %385, %int3_472 : !torch.vtensor<[1,512,1],f16>, !torch.int -> !torch.vtensor<[1,512,1,1],f16>
    %__auto.vae.decoder.up_blocks.0.resnets.2.norm1.weight = util.global.load @__auto.vae.decoder.up_blocks.0.resnets.2.norm1.weight : tensor<512xf16>
    %387 = torch_c.from_builtin_tensor %__auto.vae.decoder.up_blocks.0.resnets.2.norm1.weight : tensor<512xf16> -> !torch.vtensor<[512],f16>
    %int0_473 = torch.constant.int 0
    %388 = torch.aten.unsqueeze %387, %int0_473 : !torch.vtensor<[512],f16>, !torch.int -> !torch.vtensor<[1,512],f16>
    %int2_474 = torch.constant.int 2
    %389 = torch.aten.unsqueeze %388, %int2_474 : !torch.vtensor<[1,512],f16>, !torch.int -> !torch.vtensor<[1,512,1],f16>
    %int3_475 = torch.constant.int 3
    %390 = torch.aten.unsqueeze %389, %int3_475 : !torch.vtensor<[1,512,1],f16>, !torch.int -> !torch.vtensor<[1,512,1,1],f16>
    %391 = torch.aten.mul.Tensor %382, %390 : !torch.vtensor<[1,512,120,128],f32>, !torch.vtensor<[1,512,1,1],f16> -> !torch.vtensor<[1,512,120,128],f32>
    %int1_476 = torch.constant.int 1
    %392 = torch.aten.add.Tensor %391, %386, %int1_476 : !torch.vtensor<[1,512,120,128],f32>, !torch.vtensor<[1,512,1,1],f16>, !torch.int -> !torch.vtensor<[1,512,120,128],f32>
    %int5_477 = torch.constant.int 5
    %393 = torch.prims.convert_element_type %392, %int5_477 : !torch.vtensor<[1,512,120,128],f32>, !torch.int -> !torch.vtensor<[1,512,120,128],f16>
    %394 = torch.aten.silu %393 : !torch.vtensor<[1,512,120,128],f16> -> !torch.vtensor<[1,512,120,128],f16>
    %__auto.vae.decoder.up_blocks.0.resnets.2.conv1.weight = util.global.load @__auto.vae.decoder.up_blocks.0.resnets.2.conv1.weight : tensor<512x512x3x3xf16>
    %395 = torch_c.from_builtin_tensor %__auto.vae.decoder.up_blocks.0.resnets.2.conv1.weight : tensor<512x512x3x3xf16> -> !torch.vtensor<[512,512,3,3],f16>
    %__auto.vae.decoder.up_blocks.0.resnets.2.conv1.bias = util.global.load @__auto.vae.decoder.up_blocks.0.resnets.2.conv1.bias : tensor<512xf16>
    %396 = torch_c.from_builtin_tensor %__auto.vae.decoder.up_blocks.0.resnets.2.conv1.bias : tensor<512xf16> -> !torch.vtensor<[512],f16>
    %int1_478 = torch.constant.int 1
    %int1_479 = torch.constant.int 1
    %397 = torch.prim.ListConstruct %int1_478, %int1_479 : (!torch.int, !torch.int) -> !torch.list<int>
    %int1_480 = torch.constant.int 1
    %int1_481 = torch.constant.int 1
    %398 = torch.prim.ListConstruct %int1_480, %int1_481 : (!torch.int, !torch.int) -> !torch.list<int>
    %int1_482 = torch.constant.int 1
    %int1_483 = torch.constant.int 1
    %399 = torch.prim.ListConstruct %int1_482, %int1_483 : (!torch.int, !torch.int) -> !torch.list<int>
    %false_484 = torch.constant.bool false
    %int0_485 = torch.constant.int 0
    %int0_486 = torch.constant.int 0
    %400 = torch.prim.ListConstruct %int0_485, %int0_486 : (!torch.int, !torch.int) -> !torch.list<int>
    %int1_487 = torch.constant.int 1
    %401 = torch.aten.convolution %394, %395, %396, %397, %398, %399, %false_484, %400, %int1_487 : !torch.vtensor<[1,512,120,128],f16>, !torch.vtensor<[512,512,3,3],f16>, !torch.vtensor<[512],f16>, !torch.list<int>, !torch.list<int>, !torch.list<int>, !torch.bool, !torch.list<int>, !torch.int -> !torch.vtensor<[1,512,120,128],f16>
    %int1_488 = torch.constant.int 1
    %int32_489 = torch.constant.int 32
    %int16_490 = torch.constant.int 16
    %int15360_491 = torch.constant.int 15360
    %402 = torch.prim.ListConstruct %int1_488, %int32_489, %int16_490, %int15360_491 : (!torch.int, !torch.int, !torch.int, !torch.int) -> !torch.list<int>
    %403 = torch.aten.view %401, %402 : !torch.vtensor<[1,512,120,128],f16>, !torch.list<int> -> !torch.vtensor<[1,32,16,15360],f16>
    %int6_492 = torch.constant.int 6
    %404 = torch.prims.convert_element_type %403, %int6_492 : !torch.vtensor<[1,32,16,15360],f16>, !torch.int -> !torch.vtensor<[1,32,16,15360],f32>
    %int2_493 = torch.constant.int 2
    %int3_494 = torch.constant.int 3
    %405 = torch.prim.ListConstruct %int2_493, %int3_494 : (!torch.int, !torch.int) -> !torch.list<int>
    %int0_495 = torch.constant.int 0
    %true_496 = torch.constant.bool true
    %result0_497, %result1_498 = torch.aten.var_mean.correction %404, %405, %int0_495, %true_496 : !torch.vtensor<[1,32,16,15360],f32>, !torch.list<int>, !torch.int, !torch.bool -> !torch.vtensor<[1,32,1,1],f32>, !torch.vtensor<[1,32,1,1],f32>
    %float9.999990e-07_499 = torch.constant.float 9.9999999999999995E-7
    %int1_500 = torch.constant.int 1
    %406 = torch.aten.add.Scalar %result0_497, %float9.999990e-07_499, %int1_500 : !torch.vtensor<[1,32,1,1],f32>, !torch.float, !torch.int -> !torch.vtensor<[1,32,1,1],f32>
    %407 = torch.aten.rsqrt %406 : !torch.vtensor<[1,32,1,1],f32> -> !torch.vtensor<[1,32,1,1],f32>
    %int1_501 = torch.constant.int 1
    %408 = torch.aten.sub.Tensor %403, %result1_498, %int1_501 : !torch.vtensor<[1,32,16,15360],f16>, !torch.vtensor<[1,32,1,1],f32>, !torch.int -> !torch.vtensor<[1,32,16,15360],f32>
    %409 = torch.aten.mul.Tensor %408, %407 : !torch.vtensor<[1,32,16,15360],f32>, !torch.vtensor<[1,32,1,1],f32> -> !torch.vtensor<[1,32,16,15360],f32>
    %int1_502 = torch.constant.int 1
    %int512_503 = torch.constant.int 512
    %int120_504 = torch.constant.int 120
    %int128_505 = torch.constant.int 128
    %410 = torch.prim.ListConstruct %int1_502, %int512_503, %int120_504, %int128_505 : (!torch.int, !torch.int, !torch.int, !torch.int) -> !torch.list<int>
    %411 = torch.aten.view %409, %410 : !torch.vtensor<[1,32,16,15360],f32>, !torch.list<int> -> !torch.vtensor<[1,512,120,128],f32>
    %__auto.vae.decoder.up_blocks.0.resnets.2.norm2.bias = util.global.load @__auto.vae.decoder.up_blocks.0.resnets.2.norm2.bias : tensor<512xf16>
    %412 = torch_c.from_builtin_tensor %__auto.vae.decoder.up_blocks.0.resnets.2.norm2.bias : tensor<512xf16> -> !torch.vtensor<[512],f16>
    %int0_506 = torch.constant.int 0
    %413 = torch.aten.unsqueeze %412, %int0_506 : !torch.vtensor<[512],f16>, !torch.int -> !torch.vtensor<[1,512],f16>
    %int2_507 = torch.constant.int 2
    %414 = torch.aten.unsqueeze %413, %int2_507 : !torch.vtensor<[1,512],f16>, !torch.int -> !torch.vtensor<[1,512,1],f16>
    %int3_508 = torch.constant.int 3
    %415 = torch.aten.unsqueeze %414, %int3_508 : !torch.vtensor<[1,512,1],f16>, !torch.int -> !torch.vtensor<[1,512,1,1],f16>
    %__auto.vae.decoder.up_blocks.0.resnets.2.norm2.weight = util.global.load @__auto.vae.decoder.up_blocks.0.resnets.2.norm2.weight : tensor<512xf16>
    %416 = torch_c.from_builtin_tensor %__auto.vae.decoder.up_blocks.0.resnets.2.norm2.weight : tensor<512xf16> -> !torch.vtensor<[512],f16>
    %int0_509 = torch.constant.int 0
    %417 = torch.aten.unsqueeze %416, %int0_509 : !torch.vtensor<[512],f16>, !torch.int -> !torch.vtensor<[1,512],f16>
    %int2_510 = torch.constant.int 2
    %418 = torch.aten.unsqueeze %417, %int2_510 : !torch.vtensor<[1,512],f16>, !torch.int -> !torch.vtensor<[1,512,1],f16>
    %int3_511 = torch.constant.int 3
    %419 = torch.aten.unsqueeze %418, %int3_511 : !torch.vtensor<[1,512,1],f16>, !torch.int -> !torch.vtensor<[1,512,1,1],f16>
    %420 = torch.aten.mul.Tensor %411, %419 : !torch.vtensor<[1,512,120,128],f32>, !torch.vtensor<[1,512,1,1],f16> -> !torch.vtensor<[1,512,120,128],f32>
    %int1_512 = torch.constant.int 1
    %421 = torch.aten.add.Tensor %420, %415, %int1_512 : !torch.vtensor<[1,512,120,128],f32>, !torch.vtensor<[1,512,1,1],f16>, !torch.int -> !torch.vtensor<[1,512,120,128],f32>
    %int5_513 = torch.constant.int 5
    %422 = torch.prims.convert_element_type %421, %int5_513 : !torch.vtensor<[1,512,120,128],f32>, !torch.int -> !torch.vtensor<[1,512,120,128],f16>
    %423 = torch.aten.silu %422 : !torch.vtensor<[1,512,120,128],f16> -> !torch.vtensor<[1,512,120,128],f16>
    %none_514 = torch.constant.none
    %424 = torch.aten.clone %423, %none_514 : !torch.vtensor<[1,512,120,128],f16>, !torch.none -> !torch.vtensor<[1,512,120,128],f16>
    %__auto.vae.decoder.up_blocks.0.resnets.2.conv2.weight = util.global.load @__auto.vae.decoder.up_blocks.0.resnets.2.conv2.weight : tensor<512x512x3x3xf16>
    %425 = torch_c.from_builtin_tensor %__auto.vae.decoder.up_blocks.0.resnets.2.conv2.weight : tensor<512x512x3x3xf16> -> !torch.vtensor<[512,512,3,3],f16>
    %__auto.vae.decoder.up_blocks.0.resnets.2.conv2.bias = util.global.load @__auto.vae.decoder.up_blocks.0.resnets.2.conv2.bias : tensor<512xf16>
    %426 = torch_c.from_builtin_tensor %__auto.vae.decoder.up_blocks.0.resnets.2.conv2.bias : tensor<512xf16> -> !torch.vtensor<[512],f16>
    %int1_515 = torch.constant.int 1
    %int1_516 = torch.constant.int 1
    %427 = torch.prim.ListConstruct %int1_515, %int1_516 : (!torch.int, !torch.int) -> !torch.list<int>
    %int1_517 = torch.constant.int 1
    %int1_518 = torch.constant.int 1
    %428 = torch.prim.ListConstruct %int1_517, %int1_518 : (!torch.int, !torch.int) -> !torch.list<int>
    %int1_519 = torch.constant.int 1
    %int1_520 = torch.constant.int 1
    %429 = torch.prim.ListConstruct %int1_519, %int1_520 : (!torch.int, !torch.int) -> !torch.list<int>
    %false_521 = torch.constant.bool false
    %int0_522 = torch.constant.int 0
    %int0_523 = torch.constant.int 0
    %430 = torch.prim.ListConstruct %int0_522, %int0_523 : (!torch.int, !torch.int) -> !torch.list<int>
    %int1_524 = torch.constant.int 1
    %431 = torch.aten.convolution %424, %425, %426, %427, %428, %429, %false_521, %430, %int1_524 : !torch.vtensor<[1,512,120,128],f16>, !torch.vtensor<[512,512,3,3],f16>, !torch.vtensor<[512],f16>, !torch.list<int>, !torch.list<int>, !torch.list<int>, !torch.bool, !torch.list<int>, !torch.int -> !torch.vtensor<[1,512,120,128],f16>
    %int1_525 = torch.constant.int 1
    %432 = torch.aten.add.Tensor %372, %431, %int1_525 : !torch.vtensor<[1,512,120,128],f16>, !torch.vtensor<[1,512,120,128],f16>, !torch.int -> !torch.vtensor<[1,512,120,128],f16>
    %float1.000000e00_526 = torch.constant.float 1.000000e+00
    %433 = torch.aten.div.Scalar %432, %float1.000000e00_526 : !torch.vtensor<[1,512,120,128],f16>, !torch.float -> !torch.vtensor<[1,512,120,128],f16>
    %int6_527 = torch.constant.int 6
    %434 = torch.prims.convert_element_type %433, %int6_527 : !torch.vtensor<[1,512,120,128],f16>, !torch.int -> !torch.vtensor<[1,512,120,128],f32>
    %int240 = torch.constant.int 240
    %int6_528 = torch.constant.int 6
    %none_529 = torch.constant.none
    %cpu = torch.constant.device "cpu"
    %false_530 = torch.constant.bool false
    %435 = torch.aten.arange %int240, %int6_528, %none_529, %cpu, %false_530 : !torch.int, !torch.int, !torch.none, !torch.Device, !torch.bool -> !torch.vtensor<[240],f32>
    %float0.000000e00 = torch.constant.float 0.000000e+00
    %int1_531 = torch.constant.int 1
    %436 = torch.aten.add.Scalar %435, %float0.000000e00, %int1_531 : !torch.vtensor<[240],f32>, !torch.float, !torch.int -> !torch.vtensor<[240],f32>
    %float5.000000e-01 = torch.constant.float 5.000000e-01
    %437 = torch.aten.mul.Scalar %436, %float5.000000e-01 : !torch.vtensor<[240],f32>, !torch.float -> !torch.vtensor<[240],f32>
    %int4 = torch.constant.int 4
    %438 = torch.prims.convert_element_type %437, %int4 : !torch.vtensor<[240],f32>, !torch.int -> !torch.vtensor<[240],si64>
    %int-1_532 = torch.constant.int -1
    %439 = torch.aten.unsqueeze %438, %int-1_532 : !torch.vtensor<[240],si64>, !torch.int -> !torch.vtensor<[240,1],si64>
    %int256 = torch.constant.int 256
    %int6_533 = torch.constant.int 6
    %none_534 = torch.constant.none
    %cpu_535 = torch.constant.device "cpu"
    %false_536 = torch.constant.bool false
    %440 = torch.aten.arange %int256, %int6_533, %none_534, %cpu_535, %false_536 : !torch.int, !torch.int, !torch.none, !torch.Device, !torch.bool -> !torch.vtensor<[256],f32>
    %float0.000000e00_537 = torch.constant.float 0.000000e+00
    %int1_538 = torch.constant.int 1
    %441 = torch.aten.add.Scalar %440, %float0.000000e00_537, %int1_538 : !torch.vtensor<[256],f32>, !torch.float, !torch.int -> !torch.vtensor<[256],f32>
    %float5.000000e-01_539 = torch.constant.float 5.000000e-01
    %442 = torch.aten.mul.Scalar %441, %float5.000000e-01_539 : !torch.vtensor<[256],f32>, !torch.float -> !torch.vtensor<[256],f32>
    %int4_540 = torch.constant.int 4
    %443 = torch.prims.convert_element_type %442, %int4_540 : !torch.vtensor<[256],f32>, !torch.int -> !torch.vtensor<[256],si64>
    %none_541 = torch.constant.none
    %none_542 = torch.constant.none
    %444 = torch.prim.ListConstruct %none_541, %none_542, %439, %443 : (!torch.none, !torch.none, !torch.vtensor<[240,1],si64>, !torch.vtensor<[256],si64>) -> !torch.list<optional<vtensor>>
    %445 = torch.aten.index.Tensor %434, %444 : !torch.vtensor<[1,512,120,128],f32>, !torch.list<optional<vtensor>> -> !torch.vtensor<[1,512,240,256],f32>
    %int2_543 = torch.constant.int 2
    %446 = torch.aten.clone %445, %int2_543 : !torch.vtensor<[1,512,240,256],f32>, !torch.int -> !torch.vtensor<[1,512,240,256],f32>
    %int5_544 = torch.constant.int 5
    %447 = torch.prims.convert_element_type %446, %int5_544 : !torch.vtensor<[1,512,240,256],f32>, !torch.int -> !torch.vtensor<[1,512,240,256],f16>
    %__auto.vae.decoder.up_blocks.0.upsamplers.0.conv.weight = util.global.load @__auto.vae.decoder.up_blocks.0.upsamplers.0.conv.weight : tensor<512x512x3x3xf16>
    %448 = torch_c.from_builtin_tensor %__auto.vae.decoder.up_blocks.0.upsamplers.0.conv.weight : tensor<512x512x3x3xf16> -> !torch.vtensor<[512,512,3,3],f16>
    %__auto.vae.decoder.up_blocks.0.upsamplers.0.conv.bias = util.global.load @__auto.vae.decoder.up_blocks.0.upsamplers.0.conv.bias : tensor<512xf16>
    %449 = torch_c.from_builtin_tensor %__auto.vae.decoder.up_blocks.0.upsamplers.0.conv.bias : tensor<512xf16> -> !torch.vtensor<[512],f16>
    %int1_545 = torch.constant.int 1
    %int1_546 = torch.constant.int 1
    %450 = torch.prim.ListConstruct %int1_545, %int1_546 : (!torch.int, !torch.int) -> !torch.list<int>
    %int1_547 = torch.constant.int 1
    %int1_548 = torch.constant.int 1
    %451 = torch.prim.ListConstruct %int1_547, %int1_548 : (!torch.int, !torch.int) -> !torch.list<int>
    %int1_549 = torch.constant.int 1
    %int1_550 = torch.constant.int 1
    %452 = torch.prim.ListConstruct %int1_549, %int1_550 : (!torch.int, !torch.int) -> !torch.list<int>
    %false_551 = torch.constant.bool false
    %int0_552 = torch.constant.int 0
    %int0_553 = torch.constant.int 0
    %453 = torch.prim.ListConstruct %int0_552, %int0_553 : (!torch.int, !torch.int) -> !torch.list<int>
    %int1_554 = torch.constant.int 1
    %454 = torch.aten.convolution %447, %448, %449, %450, %451, %452, %false_551, %453, %int1_554 : !torch.vtensor<[1,512,240,256],f16>, !torch.vtensor<[512,512,3,3],f16>, !torch.vtensor<[512],f16>, !torch.list<int>, !torch.list<int>, !torch.list<int>, !torch.bool, !torch.list<int>, !torch.int -> !torch.vtensor<[1,512,240,256],f16>
    %int1_555 = torch.constant.int 1
    %int32_556 = torch.constant.int 32
    %int16_557 = torch.constant.int 16
    %int61440 = torch.constant.int 61440
    %455 = torch.prim.ListConstruct %int1_555, %int32_556, %int16_557, %int61440 : (!torch.int, !torch.int, !torch.int, !torch.int) -> !torch.list<int>
    %456 = torch.aten.view %454, %455 : !torch.vtensor<[1,512,240,256],f16>, !torch.list<int> -> !torch.vtensor<[1,32,16,61440],f16>
    %int6_558 = torch.constant.int 6
    %457 = torch.prims.convert_element_type %456, %int6_558 : !torch.vtensor<[1,32,16,61440],f16>, !torch.int -> !torch.vtensor<[1,32,16,61440],f32>
    %int2_559 = torch.constant.int 2
    %int3_560 = torch.constant.int 3
    %458 = torch.prim.ListConstruct %int2_559, %int3_560 : (!torch.int, !torch.int) -> !torch.list<int>
    %int0_561 = torch.constant.int 0
    %true_562 = torch.constant.bool true
    %result0_563, %result1_564 = torch.aten.var_mean.correction %457, %458, %int0_561, %true_562 : !torch.vtensor<[1,32,16,61440],f32>, !torch.list<int>, !torch.int, !torch.bool -> !torch.vtensor<[1,32,1,1],f32>, !torch.vtensor<[1,32,1,1],f32>
    %float9.999990e-07_565 = torch.constant.float 9.9999999999999995E-7
    %int1_566 = torch.constant.int 1
    %459 = torch.aten.add.Scalar %result0_563, %float9.999990e-07_565, %int1_566 : !torch.vtensor<[1,32,1,1],f32>, !torch.float, !torch.int -> !torch.vtensor<[1,32,1,1],f32>
    %460 = torch.aten.rsqrt %459 : !torch.vtensor<[1,32,1,1],f32> -> !torch.vtensor<[1,32,1,1],f32>
    %int1_567 = torch.constant.int 1
    %461 = torch.aten.sub.Tensor %456, %result1_564, %int1_567 : !torch.vtensor<[1,32,16,61440],f16>, !torch.vtensor<[1,32,1,1],f32>, !torch.int -> !torch.vtensor<[1,32,16,61440],f32>
    %462 = torch.aten.mul.Tensor %461, %460 : !torch.vtensor<[1,32,16,61440],f32>, !torch.vtensor<[1,32,1,1],f32> -> !torch.vtensor<[1,32,16,61440],f32>
    %int1_568 = torch.constant.int 1
    %int512_569 = torch.constant.int 512
    %int240_570 = torch.constant.int 240
    %int256_571 = torch.constant.int 256
    %463 = torch.prim.ListConstruct %int1_568, %int512_569, %int240_570, %int256_571 : (!torch.int, !torch.int, !torch.int, !torch.int) -> !torch.list<int>
    %464 = torch.aten.view %462, %463 : !torch.vtensor<[1,32,16,61440],f32>, !torch.list<int> -> !torch.vtensor<[1,512,240,256],f32>
    %__auto.vae.decoder.up_blocks.1.resnets.0.norm1.bias = util.global.load @__auto.vae.decoder.up_blocks.1.resnets.0.norm1.bias : tensor<512xf16>
    %465 = torch_c.from_builtin_tensor %__auto.vae.decoder.up_blocks.1.resnets.0.norm1.bias : tensor<512xf16> -> !torch.vtensor<[512],f16>
    %int0_572 = torch.constant.int 0
    %466 = torch.aten.unsqueeze %465, %int0_572 : !torch.vtensor<[512],f16>, !torch.int -> !torch.vtensor<[1,512],f16>
    %int2_573 = torch.constant.int 2
    %467 = torch.aten.unsqueeze %466, %int2_573 : !torch.vtensor<[1,512],f16>, !torch.int -> !torch.vtensor<[1,512,1],f16>
    %int3_574 = torch.constant.int 3
    %468 = torch.aten.unsqueeze %467, %int3_574 : !torch.vtensor<[1,512,1],f16>, !torch.int -> !torch.vtensor<[1,512,1,1],f16>
    %__auto.vae.decoder.up_blocks.1.resnets.0.norm1.weight = util.global.load @__auto.vae.decoder.up_blocks.1.resnets.0.norm1.weight : tensor<512xf16>
    %469 = torch_c.from_builtin_tensor %__auto.vae.decoder.up_blocks.1.resnets.0.norm1.weight : tensor<512xf16> -> !torch.vtensor<[512],f16>
    %int0_575 = torch.constant.int 0
    %470 = torch.aten.unsqueeze %469, %int0_575 : !torch.vtensor<[512],f16>, !torch.int -> !torch.vtensor<[1,512],f16>
    %int2_576 = torch.constant.int 2
    %471 = torch.aten.unsqueeze %470, %int2_576 : !torch.vtensor<[1,512],f16>, !torch.int -> !torch.vtensor<[1,512,1],f16>
    %int3_577 = torch.constant.int 3
    %472 = torch.aten.unsqueeze %471, %int3_577 : !torch.vtensor<[1,512,1],f16>, !torch.int -> !torch.vtensor<[1,512,1,1],f16>
    %473 = torch.aten.mul.Tensor %464, %472 : !torch.vtensor<[1,512,240,256],f32>, !torch.vtensor<[1,512,1,1],f16> -> !torch.vtensor<[1,512,240,256],f32>
    %int1_578 = torch.constant.int 1
    %474 = torch.aten.add.Tensor %473, %468, %int1_578 : !torch.vtensor<[1,512,240,256],f32>, !torch.vtensor<[1,512,1,1],f16>, !torch.int -> !torch.vtensor<[1,512,240,256],f32>
    %int5_579 = torch.constant.int 5
    %475 = torch.prims.convert_element_type %474, %int5_579 : !torch.vtensor<[1,512,240,256],f32>, !torch.int -> !torch.vtensor<[1,512,240,256],f16>
    %476 = torch.aten.silu %475 : !torch.vtensor<[1,512,240,256],f16> -> !torch.vtensor<[1,512,240,256],f16>
    %__auto.vae.decoder.up_blocks.1.resnets.0.conv1.weight = util.global.load @__auto.vae.decoder.up_blocks.1.resnets.0.conv1.weight : tensor<512x512x3x3xf16>
    %477 = torch_c.from_builtin_tensor %__auto.vae.decoder.up_blocks.1.resnets.0.conv1.weight : tensor<512x512x3x3xf16> -> !torch.vtensor<[512,512,3,3],f16>
    %__auto.vae.decoder.up_blocks.1.resnets.0.conv1.bias = util.global.load @__auto.vae.decoder.up_blocks.1.resnets.0.conv1.bias : tensor<512xf16>
    %478 = torch_c.from_builtin_tensor %__auto.vae.decoder.up_blocks.1.resnets.0.conv1.bias : tensor<512xf16> -> !torch.vtensor<[512],f16>
    %int1_580 = torch.constant.int 1
    %int1_581 = torch.constant.int 1
    %479 = torch.prim.ListConstruct %int1_580, %int1_581 : (!torch.int, !torch.int) -> !torch.list<int>
    %int1_582 = torch.constant.int 1
    %int1_583 = torch.constant.int 1
    %480 = torch.prim.ListConstruct %int1_582, %int1_583 : (!torch.int, !torch.int) -> !torch.list<int>
    %int1_584 = torch.constant.int 1
    %int1_585 = torch.constant.int 1
    %481 = torch.prim.ListConstruct %int1_584, %int1_585 : (!torch.int, !torch.int) -> !torch.list<int>
    %false_586 = torch.constant.bool false
    %int0_587 = torch.constant.int 0
    %int0_588 = torch.constant.int 0
    %482 = torch.prim.ListConstruct %int0_587, %int0_588 : (!torch.int, !torch.int) -> !torch.list<int>
    %int1_589 = torch.constant.int 1
    %483 = torch.aten.convolution %476, %477, %478, %479, %480, %481, %false_586, %482, %int1_589 : !torch.vtensor<[1,512,240,256],f16>, !torch.vtensor<[512,512,3,3],f16>, !torch.vtensor<[512],f16>, !torch.list<int>, !torch.list<int>, !torch.list<int>, !torch.bool, !torch.list<int>, !torch.int -> !torch.vtensor<[1,512,240,256],f16>
    %int1_590 = torch.constant.int 1
    %int32_591 = torch.constant.int 32
    %int16_592 = torch.constant.int 16
    %int61440_593 = torch.constant.int 61440
    %484 = torch.prim.ListConstruct %int1_590, %int32_591, %int16_592, %int61440_593 : (!torch.int, !torch.int, !torch.int, !torch.int) -> !torch.list<int>
    %485 = torch.aten.view %483, %484 : !torch.vtensor<[1,512,240,256],f16>, !torch.list<int> -> !torch.vtensor<[1,32,16,61440],f16>
    %int6_594 = torch.constant.int 6
    %486 = torch.prims.convert_element_type %485, %int6_594 : !torch.vtensor<[1,32,16,61440],f16>, !torch.int -> !torch.vtensor<[1,32,16,61440],f32>
    %int2_595 = torch.constant.int 2
    %int3_596 = torch.constant.int 3
    %487 = torch.prim.ListConstruct %int2_595, %int3_596 : (!torch.int, !torch.int) -> !torch.list<int>
    %int0_597 = torch.constant.int 0
    %true_598 = torch.constant.bool true
    %result0_599, %result1_600 = torch.aten.var_mean.correction %486, %487, %int0_597, %true_598 : !torch.vtensor<[1,32,16,61440],f32>, !torch.list<int>, !torch.int, !torch.bool -> !torch.vtensor<[1,32,1,1],f32>, !torch.vtensor<[1,32,1,1],f32>
    %float9.999990e-07_601 = torch.constant.float 9.9999999999999995E-7
    %int1_602 = torch.constant.int 1
    %488 = torch.aten.add.Scalar %result0_599, %float9.999990e-07_601, %int1_602 : !torch.vtensor<[1,32,1,1],f32>, !torch.float, !torch.int -> !torch.vtensor<[1,32,1,1],f32>
    %489 = torch.aten.rsqrt %488 : !torch.vtensor<[1,32,1,1],f32> -> !torch.vtensor<[1,32,1,1],f32>
    %int1_603 = torch.constant.int 1
    %490 = torch.aten.sub.Tensor %485, %result1_600, %int1_603 : !torch.vtensor<[1,32,16,61440],f16>, !torch.vtensor<[1,32,1,1],f32>, !torch.int -> !torch.vtensor<[1,32,16,61440],f32>
    %491 = torch.aten.mul.Tensor %490, %489 : !torch.vtensor<[1,32,16,61440],f32>, !torch.vtensor<[1,32,1,1],f32> -> !torch.vtensor<[1,32,16,61440],f32>
    %int1_604 = torch.constant.int 1
    %int512_605 = torch.constant.int 512
    %int240_606 = torch.constant.int 240
    %int256_607 = torch.constant.int 256
    %492 = torch.prim.ListConstruct %int1_604, %int512_605, %int240_606, %int256_607 : (!torch.int, !torch.int, !torch.int, !torch.int) -> !torch.list<int>
    %493 = torch.aten.view %491, %492 : !torch.vtensor<[1,32,16,61440],f32>, !torch.list<int> -> !torch.vtensor<[1,512,240,256],f32>
    %__auto.vae.decoder.up_blocks.1.resnets.0.norm2.bias = util.global.load @__auto.vae.decoder.up_blocks.1.resnets.0.norm2.bias : tensor<512xf16>
    %494 = torch_c.from_builtin_tensor %__auto.vae.decoder.up_blocks.1.resnets.0.norm2.bias : tensor<512xf16> -> !torch.vtensor<[512],f16>
    %int0_608 = torch.constant.int 0
    %495 = torch.aten.unsqueeze %494, %int0_608 : !torch.vtensor<[512],f16>, !torch.int -> !torch.vtensor<[1,512],f16>
    %int2_609 = torch.constant.int 2
    %496 = torch.aten.unsqueeze %495, %int2_609 : !torch.vtensor<[1,512],f16>, !torch.int -> !torch.vtensor<[1,512,1],f16>
    %int3_610 = torch.constant.int 3
    %497 = torch.aten.unsqueeze %496, %int3_610 : !torch.vtensor<[1,512,1],f16>, !torch.int -> !torch.vtensor<[1,512,1,1],f16>
    %__auto.vae.decoder.up_blocks.1.resnets.0.norm2.weight = util.global.load @__auto.vae.decoder.up_blocks.1.resnets.0.norm2.weight : tensor<512xf16>
    %498 = torch_c.from_builtin_tensor %__auto.vae.decoder.up_blocks.1.resnets.0.norm2.weight : tensor<512xf16> -> !torch.vtensor<[512],f16>
    %int0_611 = torch.constant.int 0
    %499 = torch.aten.unsqueeze %498, %int0_611 : !torch.vtensor<[512],f16>, !torch.int -> !torch.vtensor<[1,512],f16>
    %int2_612 = torch.constant.int 2
    %500 = torch.aten.unsqueeze %499, %int2_612 : !torch.vtensor<[1,512],f16>, !torch.int -> !torch.vtensor<[1,512,1],f16>
    %int3_613 = torch.constant.int 3
    %501 = torch.aten.unsqueeze %500, %int3_613 : !torch.vtensor<[1,512,1],f16>, !torch.int -> !torch.vtensor<[1,512,1,1],f16>
    %502 = torch.aten.mul.Tensor %493, %501 : !torch.vtensor<[1,512,240,256],f32>, !torch.vtensor<[1,512,1,1],f16> -> !torch.vtensor<[1,512,240,256],f32>
    %int1_614 = torch.constant.int 1
    %503 = torch.aten.add.Tensor %502, %497, %int1_614 : !torch.vtensor<[1,512,240,256],f32>, !torch.vtensor<[1,512,1,1],f16>, !torch.int -> !torch.vtensor<[1,512,240,256],f32>
    %int5_615 = torch.constant.int 5
    %504 = torch.prims.convert_element_type %503, %int5_615 : !torch.vtensor<[1,512,240,256],f32>, !torch.int -> !torch.vtensor<[1,512,240,256],f16>
    %505 = torch.aten.silu %504 : !torch.vtensor<[1,512,240,256],f16> -> !torch.vtensor<[1,512,240,256],f16>
    %none_616 = torch.constant.none
    %506 = torch.aten.clone %505, %none_616 : !torch.vtensor<[1,512,240,256],f16>, !torch.none -> !torch.vtensor<[1,512,240,256],f16>
    %__auto.vae.decoder.up_blocks.1.resnets.0.conv2.weight = util.global.load @__auto.vae.decoder.up_blocks.1.resnets.0.conv2.weight : tensor<512x512x3x3xf16>
    %507 = torch_c.from_builtin_tensor %__auto.vae.decoder.up_blocks.1.resnets.0.conv2.weight : tensor<512x512x3x3xf16> -> !torch.vtensor<[512,512,3,3],f16>
    %__auto.vae.decoder.up_blocks.1.resnets.0.conv2.bias = util.global.load @__auto.vae.decoder.up_blocks.1.resnets.0.conv2.bias : tensor<512xf16>
    %508 = torch_c.from_builtin_tensor %__auto.vae.decoder.up_blocks.1.resnets.0.conv2.bias : tensor<512xf16> -> !torch.vtensor<[512],f16>
    %int1_617 = torch.constant.int 1
    %int1_618 = torch.constant.int 1
    %509 = torch.prim.ListConstruct %int1_617, %int1_618 : (!torch.int, !torch.int) -> !torch.list<int>
    %int1_619 = torch.constant.int 1
    %int1_620 = torch.constant.int 1
    %510 = torch.prim.ListConstruct %int1_619, %int1_620 : (!torch.int, !torch.int) -> !torch.list<int>
    %int1_621 = torch.constant.int 1
    %int1_622 = torch.constant.int 1
    %511 = torch.prim.ListConstruct %int1_621, %int1_622 : (!torch.int, !torch.int) -> !torch.list<int>
    %false_623 = torch.constant.bool false
    %int0_624 = torch.constant.int 0
    %int0_625 = torch.constant.int 0
    %512 = torch.prim.ListConstruct %int0_624, %int0_625 : (!torch.int, !torch.int) -> !torch.list<int>
    %int1_626 = torch.constant.int 1
    %513 = torch.aten.convolution %506, %507, %508, %509, %510, %511, %false_623, %512, %int1_626 : !torch.vtensor<[1,512,240,256],f16>, !torch.vtensor<[512,512,3,3],f16>, !torch.vtensor<[512],f16>, !torch.list<int>, !torch.list<int>, !torch.list<int>, !torch.bool, !torch.list<int>, !torch.int -> !torch.vtensor<[1,512,240,256],f16>
    %int1_627 = torch.constant.int 1
    %514 = torch.aten.add.Tensor %454, %513, %int1_627 : !torch.vtensor<[1,512,240,256],f16>, !torch.vtensor<[1,512,240,256],f16>, !torch.int -> !torch.vtensor<[1,512,240,256],f16>
    %float1.000000e00_628 = torch.constant.float 1.000000e+00
    %515 = torch.aten.div.Scalar %514, %float1.000000e00_628 : !torch.vtensor<[1,512,240,256],f16>, !torch.float -> !torch.vtensor<[1,512,240,256],f16>
    %int1_629 = torch.constant.int 1
    %int32_630 = torch.constant.int 32
    %int16_631 = torch.constant.int 16
    %int61440_632 = torch.constant.int 61440
    %516 = torch.prim.ListConstruct %int1_629, %int32_630, %int16_631, %int61440_632 : (!torch.int, !torch.int, !torch.int, !torch.int) -> !torch.list<int>
    %517 = torch.aten.view %515, %516 : !torch.vtensor<[1,512,240,256],f16>, !torch.list<int> -> !torch.vtensor<[1,32,16,61440],f16>
    %int6_633 = torch.constant.int 6
    %518 = torch.prims.convert_element_type %517, %int6_633 : !torch.vtensor<[1,32,16,61440],f16>, !torch.int -> !torch.vtensor<[1,32,16,61440],f32>
    %int2_634 = torch.constant.int 2
    %int3_635 = torch.constant.int 3
    %519 = torch.prim.ListConstruct %int2_634, %int3_635 : (!torch.int, !torch.int) -> !torch.list<int>
    %int0_636 = torch.constant.int 0
    %true_637 = torch.constant.bool true
    %result0_638, %result1_639 = torch.aten.var_mean.correction %518, %519, %int0_636, %true_637 : !torch.vtensor<[1,32,16,61440],f32>, !torch.list<int>, !torch.int, !torch.bool -> !torch.vtensor<[1,32,1,1],f32>, !torch.vtensor<[1,32,1,1],f32>
    %float9.999990e-07_640 = torch.constant.float 9.9999999999999995E-7
    %int1_641 = torch.constant.int 1
    %520 = torch.aten.add.Scalar %result0_638, %float9.999990e-07_640, %int1_641 : !torch.vtensor<[1,32,1,1],f32>, !torch.float, !torch.int -> !torch.vtensor<[1,32,1,1],f32>
    %521 = torch.aten.rsqrt %520 : !torch.vtensor<[1,32,1,1],f32> -> !torch.vtensor<[1,32,1,1],f32>
    %int1_642 = torch.constant.int 1
    %522 = torch.aten.sub.Tensor %517, %result1_639, %int1_642 : !torch.vtensor<[1,32,16,61440],f16>, !torch.vtensor<[1,32,1,1],f32>, !torch.int -> !torch.vtensor<[1,32,16,61440],f32>
    %523 = torch.aten.mul.Tensor %522, %521 : !torch.vtensor<[1,32,16,61440],f32>, !torch.vtensor<[1,32,1,1],f32> -> !torch.vtensor<[1,32,16,61440],f32>
    %int1_643 = torch.constant.int 1
    %int512_644 = torch.constant.int 512
    %int240_645 = torch.constant.int 240
    %int256_646 = torch.constant.int 256
    %524 = torch.prim.ListConstruct %int1_643, %int512_644, %int240_645, %int256_646 : (!torch.int, !torch.int, !torch.int, !torch.int) -> !torch.list<int>
    %525 = torch.aten.view %523, %524 : !torch.vtensor<[1,32,16,61440],f32>, !torch.list<int> -> !torch.vtensor<[1,512,240,256],f32>
    %__auto.vae.decoder.up_blocks.1.resnets.1.norm1.bias = util.global.load @__auto.vae.decoder.up_blocks.1.resnets.1.norm1.bias : tensor<512xf16>
    %526 = torch_c.from_builtin_tensor %__auto.vae.decoder.up_blocks.1.resnets.1.norm1.bias : tensor<512xf16> -> !torch.vtensor<[512],f16>
    %int0_647 = torch.constant.int 0
    %527 = torch.aten.unsqueeze %526, %int0_647 : !torch.vtensor<[512],f16>, !torch.int -> !torch.vtensor<[1,512],f16>
    %int2_648 = torch.constant.int 2
    %528 = torch.aten.unsqueeze %527, %int2_648 : !torch.vtensor<[1,512],f16>, !torch.int -> !torch.vtensor<[1,512,1],f16>
    %int3_649 = torch.constant.int 3
    %529 = torch.aten.unsqueeze %528, %int3_649 : !torch.vtensor<[1,512,1],f16>, !torch.int -> !torch.vtensor<[1,512,1,1],f16>
    %__auto.vae.decoder.up_blocks.1.resnets.1.norm1.weight = util.global.load @__auto.vae.decoder.up_blocks.1.resnets.1.norm1.weight : tensor<512xf16>
    %530 = torch_c.from_builtin_tensor %__auto.vae.decoder.up_blocks.1.resnets.1.norm1.weight : tensor<512xf16> -> !torch.vtensor<[512],f16>
    %int0_650 = torch.constant.int 0
    %531 = torch.aten.unsqueeze %530, %int0_650 : !torch.vtensor<[512],f16>, !torch.int -> !torch.vtensor<[1,512],f16>
    %int2_651 = torch.constant.int 2
    %532 = torch.aten.unsqueeze %531, %int2_651 : !torch.vtensor<[1,512],f16>, !torch.int -> !torch.vtensor<[1,512,1],f16>
    %int3_652 = torch.constant.int 3
    %533 = torch.aten.unsqueeze %532, %int3_652 : !torch.vtensor<[1,512,1],f16>, !torch.int -> !torch.vtensor<[1,512,1,1],f16>
    %534 = torch.aten.mul.Tensor %525, %533 : !torch.vtensor<[1,512,240,256],f32>, !torch.vtensor<[1,512,1,1],f16> -> !torch.vtensor<[1,512,240,256],f32>
    %int1_653 = torch.constant.int 1
    %535 = torch.aten.add.Tensor %534, %529, %int1_653 : !torch.vtensor<[1,512,240,256],f32>, !torch.vtensor<[1,512,1,1],f16>, !torch.int -> !torch.vtensor<[1,512,240,256],f32>
    %int5_654 = torch.constant.int 5
    %536 = torch.prims.convert_element_type %535, %int5_654 : !torch.vtensor<[1,512,240,256],f32>, !torch.int -> !torch.vtensor<[1,512,240,256],f16>
    %537 = torch.aten.silu %536 : !torch.vtensor<[1,512,240,256],f16> -> !torch.vtensor<[1,512,240,256],f16>
    %__auto.vae.decoder.up_blocks.1.resnets.1.conv1.weight = util.global.load @__auto.vae.decoder.up_blocks.1.resnets.1.conv1.weight : tensor<512x512x3x3xf16>
    %538 = torch_c.from_builtin_tensor %__auto.vae.decoder.up_blocks.1.resnets.1.conv1.weight : tensor<512x512x3x3xf16> -> !torch.vtensor<[512,512,3,3],f16>
    %__auto.vae.decoder.up_blocks.1.resnets.1.conv1.bias = util.global.load @__auto.vae.decoder.up_blocks.1.resnets.1.conv1.bias : tensor<512xf16>
    %539 = torch_c.from_builtin_tensor %__auto.vae.decoder.up_blocks.1.resnets.1.conv1.bias : tensor<512xf16> -> !torch.vtensor<[512],f16>
    %int1_655 = torch.constant.int 1
    %int1_656 = torch.constant.int 1
    %540 = torch.prim.ListConstruct %int1_655, %int1_656 : (!torch.int, !torch.int) -> !torch.list<int>
    %int1_657 = torch.constant.int 1
    %int1_658 = torch.constant.int 1
    %541 = torch.prim.ListConstruct %int1_657, %int1_658 : (!torch.int, !torch.int) -> !torch.list<int>
    %int1_659 = torch.constant.int 1
    %int1_660 = torch.constant.int 1
    %542 = torch.prim.ListConstruct %int1_659, %int1_660 : (!torch.int, !torch.int) -> !torch.list<int>
    %false_661 = torch.constant.bool false
    %int0_662 = torch.constant.int 0
    %int0_663 = torch.constant.int 0
    %543 = torch.prim.ListConstruct %int0_662, %int0_663 : (!torch.int, !torch.int) -> !torch.list<int>
    %int1_664 = torch.constant.int 1
    %544 = torch.aten.convolution %537, %538, %539, %540, %541, %542, %false_661, %543, %int1_664 : !torch.vtensor<[1,512,240,256],f16>, !torch.vtensor<[512,512,3,3],f16>, !torch.vtensor<[512],f16>, !torch.list<int>, !torch.list<int>, !torch.list<int>, !torch.bool, !torch.list<int>, !torch.int -> !torch.vtensor<[1,512,240,256],f16>
    %int1_665 = torch.constant.int 1
    %int32_666 = torch.constant.int 32
    %int16_667 = torch.constant.int 16
    %int61440_668 = torch.constant.int 61440
    %545 = torch.prim.ListConstruct %int1_665, %int32_666, %int16_667, %int61440_668 : (!torch.int, !torch.int, !torch.int, !torch.int) -> !torch.list<int>
    %546 = torch.aten.view %544, %545 : !torch.vtensor<[1,512,240,256],f16>, !torch.list<int> -> !torch.vtensor<[1,32,16,61440],f16>
    %int6_669 = torch.constant.int 6
    %547 = torch.prims.convert_element_type %546, %int6_669 : !torch.vtensor<[1,32,16,61440],f16>, !torch.int -> !torch.vtensor<[1,32,16,61440],f32>
    %int2_670 = torch.constant.int 2
    %int3_671 = torch.constant.int 3
    %548 = torch.prim.ListConstruct %int2_670, %int3_671 : (!torch.int, !torch.int) -> !torch.list<int>
    %int0_672 = torch.constant.int 0
    %true_673 = torch.constant.bool true
    %result0_674, %result1_675 = torch.aten.var_mean.correction %547, %548, %int0_672, %true_673 : !torch.vtensor<[1,32,16,61440],f32>, !torch.list<int>, !torch.int, !torch.bool -> !torch.vtensor<[1,32,1,1],f32>, !torch.vtensor<[1,32,1,1],f32>
    %float9.999990e-07_676 = torch.constant.float 9.9999999999999995E-7
    %int1_677 = torch.constant.int 1
    %549 = torch.aten.add.Scalar %result0_674, %float9.999990e-07_676, %int1_677 : !torch.vtensor<[1,32,1,1],f32>, !torch.float, !torch.int -> !torch.vtensor<[1,32,1,1],f32>
    %550 = torch.aten.rsqrt %549 : !torch.vtensor<[1,32,1,1],f32> -> !torch.vtensor<[1,32,1,1],f32>
    %int1_678 = torch.constant.int 1
    %551 = torch.aten.sub.Tensor %546, %result1_675, %int1_678 : !torch.vtensor<[1,32,16,61440],f16>, !torch.vtensor<[1,32,1,1],f32>, !torch.int -> !torch.vtensor<[1,32,16,61440],f32>
    %552 = torch.aten.mul.Tensor %551, %550 : !torch.vtensor<[1,32,16,61440],f32>, !torch.vtensor<[1,32,1,1],f32> -> !torch.vtensor<[1,32,16,61440],f32>
    %int1_679 = torch.constant.int 1
    %int512_680 = torch.constant.int 512
    %int240_681 = torch.constant.int 240
    %int256_682 = torch.constant.int 256
    %553 = torch.prim.ListConstruct %int1_679, %int512_680, %int240_681, %int256_682 : (!torch.int, !torch.int, !torch.int, !torch.int) -> !torch.list<int>
    %554 = torch.aten.view %552, %553 : !torch.vtensor<[1,32,16,61440],f32>, !torch.list<int> -> !torch.vtensor<[1,512,240,256],f32>
    %__auto.vae.decoder.up_blocks.1.resnets.1.norm2.bias = util.global.load @__auto.vae.decoder.up_blocks.1.resnets.1.norm2.bias : tensor<512xf16>
    %555 = torch_c.from_builtin_tensor %__auto.vae.decoder.up_blocks.1.resnets.1.norm2.bias : tensor<512xf16> -> !torch.vtensor<[512],f16>
    %int0_683 = torch.constant.int 0
    %556 = torch.aten.unsqueeze %555, %int0_683 : !torch.vtensor<[512],f16>, !torch.int -> !torch.vtensor<[1,512],f16>
    %int2_684 = torch.constant.int 2
    %557 = torch.aten.unsqueeze %556, %int2_684 : !torch.vtensor<[1,512],f16>, !torch.int -> !torch.vtensor<[1,512,1],f16>
    %int3_685 = torch.constant.int 3
    %558 = torch.aten.unsqueeze %557, %int3_685 : !torch.vtensor<[1,512,1],f16>, !torch.int -> !torch.vtensor<[1,512,1,1],f16>
    %__auto.vae.decoder.up_blocks.1.resnets.1.norm2.weight = util.global.load @__auto.vae.decoder.up_blocks.1.resnets.1.norm2.weight : tensor<512xf16>
    %559 = torch_c.from_builtin_tensor %__auto.vae.decoder.up_blocks.1.resnets.1.norm2.weight : tensor<512xf16> -> !torch.vtensor<[512],f16>
    %int0_686 = torch.constant.int 0
    %560 = torch.aten.unsqueeze %559, %int0_686 : !torch.vtensor<[512],f16>, !torch.int -> !torch.vtensor<[1,512],f16>
    %int2_687 = torch.constant.int 2
    %561 = torch.aten.unsqueeze %560, %int2_687 : !torch.vtensor<[1,512],f16>, !torch.int -> !torch.vtensor<[1,512,1],f16>
    %int3_688 = torch.constant.int 3
    %562 = torch.aten.unsqueeze %561, %int3_688 : !torch.vtensor<[1,512,1],f16>, !torch.int -> !torch.vtensor<[1,512,1,1],f16>
    %563 = torch.aten.mul.Tensor %554, %562 : !torch.vtensor<[1,512,240,256],f32>, !torch.vtensor<[1,512,1,1],f16> -> !torch.vtensor<[1,512,240,256],f32>
    %int1_689 = torch.constant.int 1
    %564 = torch.aten.add.Tensor %563, %558, %int1_689 : !torch.vtensor<[1,512,240,256],f32>, !torch.vtensor<[1,512,1,1],f16>, !torch.int -> !torch.vtensor<[1,512,240,256],f32>
    %int5_690 = torch.constant.int 5
    %565 = torch.prims.convert_element_type %564, %int5_690 : !torch.vtensor<[1,512,240,256],f32>, !torch.int -> !torch.vtensor<[1,512,240,256],f16>
    %566 = torch.aten.silu %565 : !torch.vtensor<[1,512,240,256],f16> -> !torch.vtensor<[1,512,240,256],f16>
    %none_691 = torch.constant.none
    %567 = torch.aten.clone %566, %none_691 : !torch.vtensor<[1,512,240,256],f16>, !torch.none -> !torch.vtensor<[1,512,240,256],f16>
    %__auto.vae.decoder.up_blocks.1.resnets.1.conv2.weight = util.global.load @__auto.vae.decoder.up_blocks.1.resnets.1.conv2.weight : tensor<512x512x3x3xf16>
    %568 = torch_c.from_builtin_tensor %__auto.vae.decoder.up_blocks.1.resnets.1.conv2.weight : tensor<512x512x3x3xf16> -> !torch.vtensor<[512,512,3,3],f16>
    %__auto.vae.decoder.up_blocks.1.resnets.1.conv2.bias = util.global.load @__auto.vae.decoder.up_blocks.1.resnets.1.conv2.bias : tensor<512xf16>
    %569 = torch_c.from_builtin_tensor %__auto.vae.decoder.up_blocks.1.resnets.1.conv2.bias : tensor<512xf16> -> !torch.vtensor<[512],f16>
    %int1_692 = torch.constant.int 1
    %int1_693 = torch.constant.int 1
    %570 = torch.prim.ListConstruct %int1_692, %int1_693 : (!torch.int, !torch.int) -> !torch.list<int>
    %int1_694 = torch.constant.int 1
    %int1_695 = torch.constant.int 1
    %571 = torch.prim.ListConstruct %int1_694, %int1_695 : (!torch.int, !torch.int) -> !torch.list<int>
    %int1_696 = torch.constant.int 1
    %int1_697 = torch.constant.int 1
    %572 = torch.prim.ListConstruct %int1_696, %int1_697 : (!torch.int, !torch.int) -> !torch.list<int>
    %false_698 = torch.constant.bool false
    %int0_699 = torch.constant.int 0
    %int0_700 = torch.constant.int 0
    %573 = torch.prim.ListConstruct %int0_699, %int0_700 : (!torch.int, !torch.int) -> !torch.list<int>
    %int1_701 = torch.constant.int 1
    %574 = torch.aten.convolution %567, %568, %569, %570, %571, %572, %false_698, %573, %int1_701 : !torch.vtensor<[1,512,240,256],f16>, !torch.vtensor<[512,512,3,3],f16>, !torch.vtensor<[512],f16>, !torch.list<int>, !torch.list<int>, !torch.list<int>, !torch.bool, !torch.list<int>, !torch.int -> !torch.vtensor<[1,512,240,256],f16>
    %int1_702 = torch.constant.int 1
    %575 = torch.aten.add.Tensor %515, %574, %int1_702 : !torch.vtensor<[1,512,240,256],f16>, !torch.vtensor<[1,512,240,256],f16>, !torch.int -> !torch.vtensor<[1,512,240,256],f16>
    %float1.000000e00_703 = torch.constant.float 1.000000e+00
    %576 = torch.aten.div.Scalar %575, %float1.000000e00_703 : !torch.vtensor<[1,512,240,256],f16>, !torch.float -> !torch.vtensor<[1,512,240,256],f16>
    %int1_704 = torch.constant.int 1
    %int32_705 = torch.constant.int 32
    %int16_706 = torch.constant.int 16
    %int61440_707 = torch.constant.int 61440
    %577 = torch.prim.ListConstruct %int1_704, %int32_705, %int16_706, %int61440_707 : (!torch.int, !torch.int, !torch.int, !torch.int) -> !torch.list<int>
    %578 = torch.aten.view %576, %577 : !torch.vtensor<[1,512,240,256],f16>, !torch.list<int> -> !torch.vtensor<[1,32,16,61440],f16>
    %int6_708 = torch.constant.int 6
    %579 = torch.prims.convert_element_type %578, %int6_708 : !torch.vtensor<[1,32,16,61440],f16>, !torch.int -> !torch.vtensor<[1,32,16,61440],f32>
    %int2_709 = torch.constant.int 2
    %int3_710 = torch.constant.int 3
    %580 = torch.prim.ListConstruct %int2_709, %int3_710 : (!torch.int, !torch.int) -> !torch.list<int>
    %int0_711 = torch.constant.int 0
    %true_712 = torch.constant.bool true
…
    %864 = torch_c.from_builtin_tensor %__auto.vae.decoder.up_blocks.2.upsamplers.0.conv.bias : tensor<256xf16> -> !torch.vtensor<[256],f16>
    %int1_1067 = torch.constant.int 1
    %int1_1068 = torch.constant.int 1
    %865 = torch.prim.ListConstruct %int1_1067, %int1_1068 : (!torch.int, !torch.int) -> !torch.list<int>
    %int1_1069 = torch.constant.int 1
    %int1_1070 = torch.constant.int 1
    %866 = torch.prim.ListConstruct %int1_1069, %int1_1070 : (!torch.int, !torch.int) -> !torch.list<int>
    %int1_1071 = torch.constant.int 1
    %int1_1072 = torch.constant.int 1
    %867 = torch.prim.ListConstruct %int1_1071, %int1_1072 : (!torch.int, !torch.int) -> !torch.list<int>
    %false_1073 = torch.constant.bool false
    %int0_1074 = torch.constant.int 0
    %int0_1075 = torch.constant.int 0
    %868 = torch.prim.ListConstruct %int0_1074, %int0_1075 : (!torch.int, !torch.int) -> !torch.list<int>
    %int1_1076 = torch.constant.int 1
    %869 = torch.aten.convolution %862, %863, %864, %865, %866, %867, %false_1073, %868, %int1_1076 : !torch.vtensor<[1,256,960,1024],f16>, !torch.vtensor<[256,256,3,3],f16>, !torch.vtensor<[256],f16>, !torch.list<int>, !torch.list<int>, !torch.list<int>, !torch.bool, !torch.list<int>, !torch.int -> !torch.vtensor<[1,256,960,1024],f16>
    %int1_1077 = torch.constant.int 1
    %int32_1078 = torch.constant.int 32
    %int8_1079 = torch.constant.int 8
    %int983040 = torch.constant.int 983040
    %870 = torch.prim.ListConstruct %int1_1077, %int32_1078, %int8_1079, %int983040 : (!torch.int, !torch.int, !torch.int, !torch.int) -> !torch.list<int>
    %871 = torch.aten.view %869, %870 : !torch.vtensor<[1,256,960,1024],f16>, !torch.list<int> -> !torch.vtensor<[1,32,8,983040],f16>
    %int6_1080 = torch.constant.int 6
    %872 = torch.prims.convert_element_type %871, %int6_1080 : !torch.vtensor<[1,32,8,983040],f16>, !torch.int -> !torch.vtensor<[1,32,8,983040],f32>
    %int2_1081 = torch.constant.int 2
    %int3_1082 = torch.constant.int 3
    %873 = torch.prim.ListConstruct %int2_1081, %int3_1082 : (!torch.int, !torch.int) -> !torch.list<int>
    %int0_1083 = torch.constant.int 0
    %true_1084 = torch.constant.bool true
    %result0_1085, %result1_1086 = torch.aten.var_mean.correction %872, %873, %int0_1083, %true_1084 : !torch.vtensor<[1,32,8,983040],f32>, !torch.list<int>, !torch.int, !torch.bool -> !torch.vtensor<[1,32,1,1],f32>, !torch.vtensor<[1,32,1,1],f32>
    %float9.999990e-07_1087 = torch.constant.float 9.9999999999999995E-7
    %int1_1088 = torch.constant.int 1
    %874 = torch.aten.add.Scalar %result0_1085, %float9.999990e-07_1087, %int1_1088 : !torch.vtensor<[1,32,1,1],f32>, !torch.float, !torch.int -> !torch.vtensor<[1,32,1,1],f32>
    %875 = torch.aten.rsqrt %874 : !torch.vtensor<[1,32,1,1],f32> -> !torch.vtensor<[1,32,1,1],f32>
    %int1_1089 = torch.constant.int 1
    %876 = torch.aten.sub.Tensor %871, %result1_1086, %int1_1089 : !torch.vtensor<[1,32,8,983040],f16>, !torch.vtensor<[1,32,1,1],f32>, !torch.int -> !torch.vtensor<[1,32,8,983040],f32>
    %877 = torch.aten.mul.Tensor %876, %875 : !torch.vtensor<[1,32,8,983040],f32>, !torch.vtensor<[1,32,1,1],f32> -> !torch.vtensor<[1,32,8,983040],f32>
    %int1_1090 = torch.constant.int 1
    %int256_1091 = torch.constant.int 256
    %int960_1092 = torch.constant.int 960
    %int1024_1093 = torch.constant.int 1024
    %878 = torch.prim.ListConstruct %int1_1090, %int256_1091, %int960_1092, %int1024_1093 : (!torch.int, !torch.int, !torch.int, !torch.int) -> !torch.list<int>
    %879 = torch.aten.view %877, %878 : !torch.vtensor<[1,32,8,983040],f32>, !torch.list<int> -> !torch.vtensor<[1,256,960,1024],f32>
    %__auto.vae.decoder.up_blocks.3.resnets.0.norm1.bias = util.global.load @__auto.vae.decoder.up_blocks.3.resnets.0.norm1.bias : tensor<256xf16>
    %880 = torch_c.from_builtin_tensor %__auto.vae.decoder.up_blocks.3.resnets.0.norm1.bias : tensor<256xf16> -> !torch.vtensor<[256],f16>
    %int0_1094 = torch.constant.int 0
    %881 = torch.aten.unsqueeze %880, %int0_1094 : !torch.vtensor<[256],f16>, !torch.int -> !torch.vtensor<[1,256],f16>
    %int2_1095 = torch.constant.int 2
    %882 = torch.aten.unsqueeze %881, %int2_1095 : !torch.vtensor<[1,256],f16>, !torch.int -> !torch.vtensor<[1,256,1],f16>
    %int3_1096 = torch.constant.int 3
    %883 = torch.aten.unsqueeze %882, %int3_1096 : !torch.vtensor<[1,256,1],f16>, !torch.int -> !torch.vtensor<[1,256,1,1],f16>
    %__auto.vae.decoder.up_blocks.3.resnets.0.norm1.weight = util.global.load @__auto.vae.decoder.up_blocks.3.resnets.0.norm1.weight : tensor<256xf16>
    %884 = torch_c.from_builtin_tensor %__auto.vae.decoder.up_blocks.3.resnets.0.norm1.weight : tensor<256xf16> -> !torch.vtensor<[256],f16>
    %int0_1097 = torch.constant.int 0
    %885 = torch.aten.unsqueeze %884, %int0_1097 : !torch.vtensor<[256],f16>, !torch.int -> !torch.vtensor<[1,256],f16>
    %int2_1098 = torch.constant.int 2
    %886 = torch.aten.unsqueeze %885, %int2_1098 : !torch.vtensor<[1,256],f16>, !torch.int -> !torch.vtensor<[1,256,1],f16>
    %int3_1099 = torch.constant.int 3
    %887 = torch.aten.unsqueeze %886, %int3_1099 : !torch.vtensor<[1,256,1],f16>, !torch.int -> !torch.vtensor<[1,256,1,1],f16>
    %888 = torch.aten.mul.Tensor %879, %887 : !torch.vtensor<[1,256,960,1024],f32>, !torch.vtensor<[1,256,1,1],f16> -> !torch.vtensor<[1,256,960,1024],f32>
    %int1_1100 = torch.constant.int 1
    %889 = torch.aten.add.Tensor %888, %883, %int1_1100 : !torch.vtensor<[1,256,960,1024],f32>, !torch.vtensor<[1,256,1,1],f16>, !torch.int -> !torch.vtensor<[1,256,960,1024],f32>
    %int5_1101 = torch.constant.int 5
    %890 = torch.prims.convert_element_type %889, %int5_1101 : !torch.vtensor<[1,256,960,1024],f32>, !torch.int -> !torch.vtensor<[1,256,960,1024],f16>
    %891 = torch.aten.silu %890 : !torch.vtensor<[1,256,960,1024],f16> -> !torch.vtensor<[1,256,960,1024],f16>
    %__auto.vae.decoder.up_blocks.3.resnets.0.conv1.weight = util.global.load @__auto.vae.decoder.up_blocks.3.resnets.0.conv1.weight : tensor<128x256x3x3xf16>
    %892 = torch_c.from_builtin_tensor %__auto.vae.decoder.up_blocks.3.resnets.0.conv1.weight : tensor<128x256x3x3xf16> -> !torch.vtensor<[128,256,3,3],f16>
    %__auto.vae.decoder.up_blocks.3.resnets.0.conv1.bias = util.global.load @__auto.vae.decoder.up_blocks.3.resnets.0.conv1.bias : tensor<128xf16>
    %893 = torch_c.from_builtin_tensor %__auto.vae.decoder.up_blocks.3.resnets.0.conv1.bias : tensor<128xf16> -> !torch.vtensor<[128],f16>
    %int1_1102 = torch.constant.int 1
    %int1_1103 = torch.constant.int 1
    %894 = torch.prim.ListConstruct %int1_1102, %int1_1103 : (!torch.int, !torch.int) -> !torch.list<int>
    %int1_1104 = torch.constant.int 1
    %int1_1105 = torch.constant.int 1
    %895 = torch.prim.ListConstruct %int1_1104, %int1_1105 : (!torch.int, !torch.int) -> !torch.list<int>
    %int1_1106 = torch.constant.int 1
    %int1_1107 = torch.constant.int 1
    %896 = torch.prim.ListConstruct %int1_1106, %int1_1107 : (!torch.int, !torch.int) -> !torch.list<int>
    %false_1108 = torch.constant.bool false
    %int0_1109 = torch.constant.int 0
    %int0_1110 = torch.constant.int 0
    %897 = torch.prim.ListConstruct %int0_1109, %int0_1110 : (!torch.int, !torch.int) -> !torch.list<int>
    %int1_1111 = torch.constant.int 1
    %898 = torch.aten.convolution %891, %892, %893, %894, %895, %896, %false_1108, %897, %int1_1111 : !torch.vtensor<[1,256,960,1024],f16>, !torch.vtensor<[128,256,3,3],f16>, !torch.vtensor<[128],f16>, !torch.list<int>, !torch.list<int>, !torch.list<int>, !torch.bool, !torch.list<int>, !torch.int -> !torch.vtensor<[1,128,960,1024],f16>
    %int1_1112 = torch.constant.int 1
    %int32_1113 = torch.constant.int 32
    %int4_1114 = torch.constant.int 4
    %int983040_1115 = torch.constant.int 983040
    %899 = torch.prim.ListConstruct %int1_1112, %int32_1113, %int4_1114, %int983040_1115 : (!torch.int, !torch.int, !torch.int, !torch.int) -> !torch.list<int>
    %900 = torch.aten.view %898, %899 : !torch.vtensor<[1,128,960,1024],f16>, !torch.list<int> -> !torch.vtensor<[1,32,4,983040],f16>
    %int6_1116 = torch.constant.int 6
    %901 = torch.prims.convert_element_type %900, %int6_1116 : !torch.vtensor<[1,32,4,983040],f16>, !torch.int -> !torch.vtensor<[1,32,4,983040],f32>
    %int2_1117 = torch.constant.int 2
    %int3_1118 = torch.constant.int 3
    %902 = torch.prim.ListConstruct %int2_1117, %int3_1118 : (!torch.int, !torch.int) -> !torch.list<int>
    %int0_1119 = torch.constant.int 0
    %true_1120 = torch.constant.bool true
    %result0_1121, %result1_1122 = torch.aten.var_mean.correction %901, %902, %int0_1119, %true_1120 : !torch.vtensor<[1,32,4,983040],f32>, !torch.list<int>, !torch.int, !torch.bool -> !torch.vtensor<[1,32,1,1],f32>, !torch.vtensor<[1,32,1,1],f32>
    %float9.999990e-07_1123 = torch.constant.float 9.9999999999999995E-7
    %int1_1124 = torch.constant.int 1
    %903 = torch.aten.add.Scalar %result0_1121, %float9.999990e-07_1123, %int1_1124 : !torch.vtensor<[1,32,1,1],f32>, !torch.float, !torch.int -> !torch.vtensor<[1,32,1,1],f32>
    %904 = torch.aten.rsqrt %903 : !torch.vtensor<[1,32,1,1],f32> -> !torch.vtensor<[1,32,1,1],f32>
    %int1_1125 = torch.constant.int 1
    %905 = torch.aten.sub.Tensor %900, %result1_1122, %int1_1125 : !torch.vtensor<[1,32,4,983040],f16>, !torch.vtensor<[1,32,1,1],f32>, !torch.int -> !torch.vtensor<[1,32,4,983040],f32>
    %906 = torch.aten.mul.Tensor %905, %904 : !torch.vtensor<[1,32,4,983040],f32>, !torch.vtensor<[1,32,1,1],f32> -> !torch.vtensor<[1,32,4,983040],f32>
    %int1_1126 = torch.constant.int 1
    %int128_1127 = torch.constant.int 128
    %int960_1128 = torch.constant.int 960
    %int1024_1129 = torch.constant.int 1024
    %907 = torch.prim.ListConstruct %int1_1126, %int128_1127, %int960_1128, %int1024_1129 : (!torch.int, !torch.int, !torch.int, !torch.int) -> !torch.list<int>
    %908 = torch.aten.view %906, %907 : !torch.vtensor<[1,32,4,983040],f32>, !torch.list<int> -> !torch.vtensor<[1,128,960,1024],f32>
    %__auto.vae.decoder.up_blocks.3.resnets.0.norm2.bias = util.global.load @__auto.vae.decoder.up_blocks.3.resnets.0.norm2.bias : tensor<128xf16>
    %909 = torch_c.from_builtin_tensor %__auto.vae.decoder.up_blocks.3.resnets.0.norm2.bias : tensor<128xf16> -> !torch.vtensor<[128],f16>
    %int0_1130 = torch.constant.int 0
    %910 = torch.aten.unsqueeze %909, %int0_1130 : !torch.vtensor<[128],f16>, !torch.int -> !torch.vtensor<[1,128],f16>
    %int2_1131 = torch.constant.int 2
    %911 = torch.aten.unsqueeze %910, %int2_1131 : !torch.vtensor<[1,128],f16>, !torch.int -> !torch.vtensor<[1,128,1],f16>
    %int3_1132 = torch.constant.int 3
    %912 = torch.aten.unsqueeze %911, %int3_1132 : !torch.vtensor<[1,128,1],f16>, !torch.int -> !torch.vtensor<[1,128,1,1],f16>
    %__auto.vae.decoder.up_blocks.3.resnets.0.norm2.weight = util.global.load @__auto.vae.decoder.up_blocks.3.resnets.0.norm2.weight : tensor<128xf16>
    %913 = torch_c.from_builtin_tensor %__auto.vae.decoder.up_blocks.3.resnets.0.norm2.weight : tensor<128xf16> -> !torch.vtensor<[128],f16>
    %int0_1133 = torch.constant.int 0
    %914 = torch.aten.unsqueeze %913, %int0_1133 : !torch.vtensor<[128],f16>, !torch.int -> !torch.vtensor<[1,128],f16>
    %int2_1134 = torch.constant.int 2
    %915 = torch.aten.unsqueeze %914, %int2_1134 : !torch.vtensor<[1,128],f16>, !torch.int -> !torch.vtensor<[1,128,1],f16>
    %int3_1135 = torch.constant.int 3
    %916 = torch.aten.unsqueeze %915, %int3_1135 : !torch.vtensor<[1,128,1],f16>, !torch.int -> !torch.vtensor<[1,128,1,1],f16>
    %917 = torch.aten.mul.Tensor %908, %916 : !torch.vtensor<[1,128,960,1024],f32>, !torch.vtensor<[1,128,1,1],f16> -> !torch.vtensor<[1,128,960,1024],f32>
    %int1_1136 = torch.constant.int 1
    %918 = torch.aten.add.Tensor %917, %912, %int1_1136 : !torch.vtensor<[1,128,960,1024],f32>, !torch.vtensor<[1,128,1,1],f16>, !torch.int -> !torch.vtensor<[1,128,960,1024],f32>
    %int5_1137 = torch.constant.int 5
    %919 = torch.prims.convert_element_type %918, %int5_1137 : !torch.vtensor<[1,128,960,1024],f32>, !torch.int -> !torch.vtensor<[1,128,960,1024],f16>
    %920 = torch.aten.silu %919 : !torch.vtensor<[1,128,960,1024],f16> -> !torch.vtensor<[1,128,960,1024],f16>
    %none_1138 = torch.constant.none
    %921 = torch.aten.clone %920, %none_1138 : !torch.vtensor<[1,128,960,1024],f16>, !torch.none -> !torch.vtensor<[1,128,960,1024],f16>
    %__auto.vae.decoder.up_blocks.3.resnets.0.conv2.weight = util.global.load @__auto.vae.decoder.up_blocks.3.resnets.0.conv2.weight : tensor<128x128x3x3xf16>
    %922 = torch_c.from_builtin_tensor %__auto.vae.decoder.up_blocks.3.resnets.0.conv2.weight : tensor<128x128x3x3xf16> -> !torch.vtensor<[128,128,3,3],f16>
    %__auto.vae.decoder.up_blocks.3.resnets.0.conv2.bias = util.global.load @__auto.vae.decoder.up_blocks.3.resnets.0.conv2.bias : tensor<128xf16>
    %923 = torch_c.from_builtin_tensor %__auto.vae.decoder.up_blocks.3.resnets.0.conv2.bias : tensor<128xf16> -> !torch.vtensor<[128],f16>
    %int1_1139 = torch.constant.int 1
    %int1_1140 = torch.constant.int 1
    %924 = torch.prim.ListConstruct %int1_1139, %int1_1140 : (!torch.int, !torch.int) -> !torch.list<int>
    %int1_1141 = torch.constant.int 1
    %int1_1142 = torch.constant.int 1
    %925 = torch.prim.ListConstruct %int1_1141, %int1_1142 : (!torch.int, !torch.int) -> !torch.list<int>
    %int1_1143 = torch.constant.int 1
    %int1_1144 = torch.constant.int 1
    %926 = torch.prim.ListConstruct %int1_1143, %int1_1144 : (!torch.int, !torch.int) -> !torch.list<int>
    %false_1145 = torch.constant.bool false
    %int0_1146 = torch.constant.int 0
    %int0_1147 = torch.constant.int 0
    %927 = torch.prim.ListConstruct %int0_1146, %int0_1147 : (!torch.int, !torch.int) -> !torch.list<int>
    %int1_1148 = torch.constant.int 1
    %928 = torch.aten.convolution %921, %922, %923, %924, %925, %926, %false_1145, %927, %int1_1148 : !torch.vtensor<[1,128,960,1024],f16>, !torch.vtensor<[128,128,3,3],f16>, !torch.vtensor<[128],f16>, !torch.list<int>, !torch.list<int>, !torch.list<int>, !torch.bool, !torch.list<int>, !torch.int -> !torch.vtensor<[1,128,960,1024],f16>
    %__auto.vae.decoder.up_blocks.3.resnets.0.conv_shortcut.weight = util.global.load @__auto.vae.decoder.up_blocks.3.resnets.0.conv_shortcut.weight : tensor<128x256x1x1xf16>
    %929 = torch_c.from_builtin_tensor %__auto.vae.decoder.up_blocks.3.resnets.0.conv_shortcut.weight : tensor<128x256x1x1xf16> -> !torch.vtensor<[128,256,1,1],f16>
    %__auto.vae.decoder.up_blocks.3.resnets.0.conv_shortcut.bias = util.global.load @__auto.vae.decoder.up_blocks.3.resnets.0.conv_shortcut.bias : tensor<128xf16>
    %930 = torch_c.from_builtin_tensor %__auto.vae.decoder.up_blocks.3.resnets.0.conv_shortcut.bias : tensor<128xf16> -> !torch.vtensor<[128],f16>
    %int1_1149 = torch.constant.int 1
    %int1_1150 = torch.constant.int 1
    %931 = torch.prim.ListConstruct %int1_1149, %int1_1150 : (!torch.int, !torch.int) -> !torch.list<int>
    %int0_1151 = torch.constant.int 0
    %int0_1152 = torch.constant.int 0
    %932 = torch.prim.ListConstruct %int0_1151, %int0_1152 : (!torch.int, !torch.int) -> !torch.list<int>
    %int1_1153 = torch.constant.int 1
    %int1_1154 = torch.constant.int 1
    %933 = torch.prim.ListConstruct %int1_1153, %int1_1154 : (!torch.int, !torch.int) -> !torch.list<int>
    %false_1155 = torch.constant.bool false
    %int0_1156 = torch.constant.int 0
    %int0_1157 = torch.constant.int 0
    %934 = torch.prim.ListConstruct %int0_1156, %int0_1157 : (!torch.int, !torch.int) -> !torch.list<int>
    %int1_1158 = torch.constant.int 1
    %935 = torch.aten.convolution %869, %929, %930, %931, %932, %933, %false_1155, %934, %int1_1158 : !torch.vtensor<[1,256,960,1024],f16>, !torch.vtensor<[128,256,1,1],f16>, !torch.vtensor<[128],f16>, !torch.list<int>, !torch.list<int>, !torch.list<int>, !torch.bool, !torch.list<int>, !torch.int -> !torch.vtensor<[1,128,960,1024],f16>
    %int1_1159 = torch.constant.int 1
    %936 = torch.aten.add.Tensor %935, %928, %int1_1159 : !torch.vtensor<[1,128,960,1024],f16>, !torch.vtensor<[1,128,960,1024],f16>, !torch.int -> !torch.vtensor<[1,128,960,1024],f16>
    %float1.000000e00_1160 = torch.constant.float 1.000000e+00
    %937 = torch.aten.div.Scalar %936, %float1.000000e00_1160 : !torch.vtensor<[1,128,960,1024],f16>, !torch.float -> !torch.vtensor<[1,128,960,1024],f16>
    %int1_1161 = torch.constant.int 1
    %int32_1162 = torch.constant.int 32
    %int4_1163 = torch.constant.int 4
    %int983040_1164 = torch.constant.int 983040
    %938 = torch.prim.ListConstruct %int1_1161, %int32_1162, %int4_1163, %int983040_1164 : (!torch.int, !torch.int, !torch.int, !torch.int) -> !torch.list<int>
    %939 = torch.aten.view %937, %938 : !torch.vtensor<[1,128,960,1024],f16>, !torch.list<int> -> !torch.vtensor<[1,32,4,983040],f16>
    %int6_1165 = torch.constant.int 6
    %940 = torch.prims.convert_element_type %939, %int6_1165 : !torch.vtensor<[1,32,4,983040],f16>, !torch.int -> !torch.vtensor<[1,32,4,983040],f32>
    %int2_1166 = torch.constant.int 2
    %int3_1167 = torch.constant.int 3
    %941 = torch.prim.ListConstruct %int2_1166, %int3_1167 : (!torch.int, !torch.int) -> !torch.list<int>
    %int0_1168 = torch.constant.int 0
    %true_1169 = torch.constant.bool true
    %result0_1170, %result1_1171 = torch.aten.var_mean.correction %940, %941, %int0_1168, %true_1169 : !torch.vtensor<[1,32,4,983040],f32>, !torch.list<int>, !torch.int, !torch.bool -> !torch.vtensor<[1,32,1,1],f32>, !torch.vtensor<[1,32,1,1],f32>
    %float9.999990e-07_1172 = torch.constant.float 9.9999999999999995E-7
    %int1_1173 = torch.constant.int 1
    %942 = torch.aten.add.Scalar %result0_1170, %float9.999990e-07_1172, %int1_1173 : !torch.vtensor<[1,32,1,1],f32>, !torch.float, !torch.int -> !torch.vtensor<[1,32,1,1],f32>
    %943 = torch.aten.rsqrt %942 : !torch.vtensor<[1,32,1,1],f32> -> !torch.vtensor<[1,32,1,1],f32>
    %int1_1174 = torch.constant.int 1
    %944 = torch.aten.sub.Tensor %939, %result1_1171, %int1_1174 : !torch.vtensor<[1,32,4,983040],f16>, !torch.vtensor<[1,32,1,1],f32>, !torch.int -> !torch.vtensor<[1,32,4,983040],f32>
    %945 = torch.aten.mul.Tensor %944, %943 : !torch.vtensor<[1,32,4,983040],f32>, !torch.vtensor<[1,32,1,1],f32> -> !torch.vtensor<[1,32,4,983040],f32>
    %int1_1175 = torch.constant.int 1
    %int128_1176 = torch.constant.int 128
    %int960_1177 = torch.constant.int 960
    %int1024_1178 = torch.constant.int 1024
    %946 = torch.prim.ListConstruct %int1_1175, %int128_1176, %int960_1177, %int1024_1178 : (!torch.int, !torch.int, !torch.int, !torch.int) -> !torch.list<int>
    %947 = torch.aten.view %945, %946 : !torch.vtensor<[1,32,4,983040],f32>, !torch.list<int> -> !torch.vtensor<[1,128,960,1024],f32>
    %__auto.vae.decoder.up_blocks.3.resnets.1.norm1.bias = util.global.load @__auto.vae.decoder.up_blocks.3.resnets.1.norm1.bias : tensor<128xf16>
    %948 = torch_c.from_builtin_tensor %__auto.vae.decoder.up_blocks.3.resnets.1.norm1.bias : tensor<128xf16> -> !torch.vtensor<[128],f16>
    %int0_1179 = torch.constant.int 0
    %949 = torch.aten.unsqueeze %948, %int0_1179 : !torch.vtensor<[128],f16>, !torch.int -> !torch.vtensor<[1,128],f16>
    %int2_1180 = torch.constant.int 2
    %950 = torch.aten.unsqueeze %949, %int2_1180 : !torch.vtensor<[1,128],f16>, !torch.int -> !torch.vtensor<[1,128,1],f16>
    %int3_1181 = torch.constant.int 3
    %951 = torch.aten.unsqueeze %950, %int3_1181 : !torch.vtensor<[1,128,1],f16>, !torch.int -> !torch.vtensor<[1,128,1,1],f16>
    %__auto.vae.decoder.up_blocks.3.resnets.1.norm1.weight = util.global.load @__auto.vae.decoder.up_blocks.3.resnets.1.norm1.weight : tensor<128xf16>
    %952 = torch_c.from_builtin_tensor %__auto.vae.decoder.up_blocks.3.resnets.1.norm1.weight : tensor<128xf16> -> !torch.vtensor<[128],f16>
    %int0_1182 = torch.constant.int 0
    %953 = torch.aten.unsqueeze %952, %int0_1182 : !torch.vtensor<[128],f16>, !torch.int -> !torch.vtensor<[1,128],f16>
    %int2_1183 = torch.constant.int 2
    %954 = torch.aten.unsqueeze %953, %int2_1183 : !torch.vtensor<[1,128],f16>, !torch.int -> !torch.vtensor<[1,128,1],f16>
    %int3_1184 = torch.constant.int 3
    %955 = torch.aten.unsqueeze %954, %int3_1184 : !torch.vtensor<[1,128,1],f16>, !torch.int -> !torch.vtensor<[1,128,1,1],f16>
    %956 = torch.aten.mul.Tensor %947, %955 : !torch.vtensor<[1,128,960,1024],f32>, !torch.vtensor<[1,128,1,1],f16> -> !torch.vtensor<[1,128,960,1024],f32>
    %int1_1185 = torch.constant.int 1
    %957 = torch.aten.add.Tensor %956, %951, %int1_1185 : !torch.vtensor<[1,128,960,1024],f32>, !torch.vtensor<[1,128,1,1],f16>, !torch.int -> !torch.vtensor<[1,128,960,1024],f32>
    %int5_1186 = torch.constant.int 5
    %958 = torch.prims.convert_element_type %957, %int5_1186 : !torch.vtensor<[1,128,960,1024],f32>, !torch.int -> !torch.vtensor<[1,128,960,1024],f16>
    %959 = torch.aten.silu %958 : !torch.vtensor<[1,128,960,1024],f16> -> !torch.vtensor<[1,128,960,1024],f16>
    %__auto.vae.decoder.up_blocks.3.resnets.1.conv1.weight = util.global.load @__auto.vae.decoder.up_blocks.3.resnets.1.conv1.weight : tensor<128x128x3x3xf16>
    %960 = torch_c.from_builtin_tensor %__auto.vae.decoder.up_blocks.3.resnets.1.conv1.weight : tensor<128x128x3x3xf16> -> !torch.vtensor<[128,128,3,3],f16>
    %__auto.vae.decoder.up_blocks.3.resnets.1.conv1.bias = util.global.load @__auto.vae.decoder.up_blocks.3.resnets.1.conv1.bias : tensor<128xf16>
    %961 = torch_c.from_builtin_tensor %__auto.vae.decoder.up_blocks.3.resnets.1.conv1.bias : tensor<128xf16> -> !torch.vtensor<[128],f16>
    %int1_1187 = torch.constant.int 1
    %int1_1188 = torch.constant.int 1
    %962 = torch.prim.ListConstruct %int1_1187, %int1_1188 : (!torch.int, !torch.int) -> !torch.list<int>
    %int1_1189 = torch.constant.int 1
    %int1_1190 = torch.constant.int 1
    %963 = torch.prim.ListConstruct %int1_1189, %int1_1190 : (!torch.int, !torch.int) -> !torch.list<int>
    %int1_1191 = torch.constant.int 1
    %int1_1192 = torch.constant.int 1
    %964 = torch.prim.ListConstruct %int1_1191, %int1_1192 : (!torch.int, !torch.int) -> !torch.list<int>
    %false_1193 = torch.constant.bool false
    %int0_1194 = torch.constant.int 0
    %int0_1195 = torch.constant.int 0
    %965 = torch.prim.ListConstruct %int0_1194, %int0_1195 : (!torch.int, !torch.int) -> !torch.list<int>
    %int1_1196 = torch.constant.int 1
    %966 = torch.aten.convolution %959, %960, %961, %962, %963, %964, %false_1193, %965, %int1_1196 : !torch.vtensor<[1,128,960,1024],f16>, !torch.vtensor<[128,128,3,3],f16>, !torch.vtensor<[128],f16>, !torch.list<int>, !torch.list<int>, !torch.list<int>, !torch.bool, !torch.list<int>, !torch.int -> !torch.vtensor<[1,128,960,1024],f16>
    %int1_1197 = torch.constant.int 1
    %int32_1198 = torch.constant.int 32
    %int4_1199 = torch.constant.int 4
    %int983040_1200 = torch.constant.int 983040
    %967 = torch.prim.ListConstruct %int1_1197, %int32_1198, %int4_1199, %int983040_1200 : (!torch.int, !torch.int, !torch.int, !torch.int) -> !torch.list<int>
    %968 = torch.aten.view %966, %967 : !torch.vtensor<[1,128,960,1024],f16>, !torch.list<int> -> !torch.vtensor<[1,32,4,983040],f16>
    %int6_1201 = torch.constant.int 6
    %969 = torch.prims.convert_element_type %968, %int6_1201 : !torch.vtensor<[1,32,4,983040],f16>, !torch.int -> !torch.vtensor<[1,32,4,983040],f32>
    %int2_1202 = torch.constant.int 2
    %int3_1203 = torch.constant.int 3
    %970 = torch.prim.ListConstruct %int2_1202, %int3_1203 : (!torch.int, !torch.int) -> !torch.list<int>
    %int0_1204 = torch.constant.int 0
    %true_1205 = torch.constant.bool true
    %result0_1206, %result1_1207 = torch.aten.var_mean.correction %969, %970, %int0_1204, %true_1205 : !torch.vtensor<[1,32,4,983040],f32>, !torch.list<int>, !torch.int, !torch.bool -> !torch.vtensor<[1,32,1,1],f32>, !torch.vtensor<[1,32,1,1],f32>
    %float9.999990e-07_1208 = torch.constant.float 9.9999999999999995E-7
    %int1_1209 = torch.constant.int 1
    %971 = torch.aten.add.Scalar %result0_1206, %float9.999990e-07_1208, %int1_1209 : !torch.vtensor<[1,32,1,1],f32>, !torch.float, !torch.int -> !torch.vtensor<[1,32,1,1],f32>
    %972 = torch.aten.rsqrt %971 : !torch.vtensor<[1,32,1,1],f32> -> !torch.vtensor<[1,32,1,1],f32>
    %int1_1210 = torch.constant.int 1
    %973 = torch.aten.sub.Tensor %968, %result1_1207, %int1_1210 : !torch.vtensor<[1,32,4,983040],f16>, !torch.vtensor<[1,32,1,1],f32>, !torch.int -> !torch.vtensor<[1,32,4,983040],f32>
    %974 = torch.aten.mul.Tensor %973, %972 : !torch.vtensor<[1,32,4,983040],f32>, !torch.vtensor<[1,32,1,1],f32> -> !torch.vtensor<[1,32,4,983040],f32>
    %int1_1211 = torch.constant.int 1
    %int128_1212 = torch.constant.int 128
    %int960_1213 = torch.constant.int 960
    %int1024_1214 = torch.constant.int 1024
    %975 = torch.prim.ListConstruct %int1_1211, %int128_1212, %int960_1213, %int1024_1214 : (!torch.int, !torch.int, !torch.int, !torch.int) -> !torch.list<int>
    %976 = torch.aten.view %974, %975 : !torch.vtensor<[1,32,4,983040],f32>, !torch.list<int> -> !torch.vtensor<[1,128,960,1024],f32>
    %__auto.vae.decoder.up_blocks.3.resnets.1.norm2.bias = util.global.load @__auto.vae.decoder.up_blocks.3.resnets.1.norm2.bias : tensor<128xf16>
    %977 = torch_c.from_builtin_tensor %__auto.vae.decoder.up_blocks.3.resnets.1.norm2.bias : tensor<128xf16> -> !torch.vtensor<[128],f16>
    %int0_1215 = torch.constant.int 0
    %978 = torch.aten.unsqueeze %977, %int0_1215 : !torch.vtensor<[128],f16>, !torch.int -> !torch.vtensor<[1,128],f16>
    %int2_1216 = torch.constant.int 2
    %979 = torch.aten.unsqueeze %978, %int2_1216 : !torch.vtensor<[1,128],f16>, !torch.int -> !torch.vtensor<[1,128,1],f16>
    %int3_1217 = torch.constant.int 3
    %980 = torch.aten.unsqueeze %979, %int3_1217 : !torch.vtensor<[1,128,1],f16>, !torch.int -> !torch.vtensor<[1,128,1,1],f16>
    %__auto.vae.decoder.up_blocks.3.resnets.1.norm2.weight = util.global.load @__auto.vae.decoder.up_blocks.3.resnets.1.norm2.weight : tensor<128xf16>
    %981 = torch_c.from_builtin_tensor %__auto.vae.decoder.up_blocks.3.resnets.1.norm2.weight : tensor<128xf16> -> !torch.vtensor<[128],f16>
    %int0_1218 = torch.constant.int 0
    %982 = torch.aten.unsqueeze %981, %int0_1218 : !torch.vtensor<[128],f16>, !torch.int -> !torch.vtensor<[1,128],f16>
    %int2_1219 = torch.constant.int 2
    %983 = torch.aten.unsqueeze %982, %int2_1219 : !torch.vtensor<[1,128],f16>, !torch.int -> !torch.vtensor<[1,128,1],f16>
    %int3_1220 = torch.constant.int 3
    %984 = torch.aten.unsqueeze %983, %int3_1220 : !torch.vtensor<[1,128,1],f16>, !torch.int -> !torch.vtensor<[1,128,1,1],f16>
    %985 = torch.aten.mul.Tensor %976, %984 : !torch.vtensor<[1,128,960,1024],f32>, !torch.vtensor<[1,128,1,1],f16> -> !torch.vtensor<[1,128,960,1024],f32>
    %int1_1221 = torch.constant.int 1
    %986 = torch.aten.add.Tensor %985, %980, %int1_1221 : !torch.vtensor<[1,128,960,1024],f32>, !torch.vtensor<[1,128,1,1],f16>, !torch.int -> !torch.vtensor<[1,128,960,1024],f32>
    %int5_1222 = torch.constant.int 5
    %987 = torch.prims.convert_element_type %986, %int5_1222 : !torch.vtensor<[1,128,960,1024],f32>, !torch.int -> !torch.vtensor<[1,128,960,1024],f16>
    %988 = torch.aten.silu %987 : !torch.vtensor<[1,128,960,1024],f16> -> !torch.vtensor<[1,128,960,1024],f16>
    %none_1223 = torch.constant.none
    %989 = torch.aten.clone %988, %none_1223 : !torch.vtensor<[1,128,960,1024],f16>, !torch.none -> !torch.vtensor<[1,128,960,1024],f16>
    %__auto.vae.decoder.up_blocks.3.resnets.1.conv2.weight = util.global.load @__auto.vae.decoder.up_blocks.3.resnets.1.conv2.weight : tensor<128x128x3x3xf16>
    %990 = torch_c.from_builtin_tensor %__auto.vae.decoder.up_blocks.3.resnets.1.conv2.weight : tensor<128x128x3x3xf16> -> !torch.vtensor<[128,128,3,3],f16>
    %__auto.vae.decoder.up_blocks.3.resnets.1.conv2.bias = util.global.load @__auto.vae.decoder.up_blocks.3.resnets.1.conv2.bias : tensor<128xf16>
    %991 = torch_c.from_builtin_tensor %__auto.vae.decoder.up_blocks.3.resnets.1.conv2.bias : tensor<128xf16> -> !torch.vtensor<[128],f16>
    %int1_1224 = torch.constant.int 1
    %int1_1225 = torch.constant.int 1
    %992 = torch.prim.ListConstruct %int1_1224, %int1_1225 : (!torch.int, !torch.int) -> !torch.list<int>
    %int1_1226 = torch.constant.int 1
    %int1_1227 = torch.constant.int 1
    %993 = torch.prim.ListConstruct %int1_1226, %int1_1227 : (!torch.int, !torch.int) -> !torch.list<int>
    %int1_1228 = torch.constant.int 1
    %int1_1229 = torch.constant.int 1
    %994 = torch.prim.ListConstruct %int1_1228, %int1_1229 : (!torch.int, !torch.int) -> !torch.list<int>
    %false_1230 = torch.constant.bool false
    %int0_1231 = torch.constant.int 0
    %int0_1232 = torch.constant.int 0
    %995 = torch.prim.ListConstruct %int0_1231, %int0_1232 : (!torch.int, !torch.int) -> !torch.list<int>
    %int1_1233 = torch.constant.int 1
    %996 = torch.aten.convolution %989, %990, %991, %992, %993, %994, %false_1230, %995, %int1_1233 : !torch.vtensor<[1,128,960,1024],f16>, !torch.vtensor<[128,128,3,3],f16>, !torch.vtensor<[128],f16>, !torch.list<int>, !torch.list<int>, !torch.list<int>, !torch.bool, !torch.list<int>, !torch.int -> !torch.vtensor<[1,128,960,1024],f16>
    %int1_1234 = torch.constant.int 1
    %997 = torch.aten.add.Tensor %937, %996, %int1_1234 : !torch.vtensor<[1,128,960,1024],f16>, !torch.vtensor<[1,128,960,1024],f16>, !torch.int -> !torch.vtensor<[1,128,960,1024],f16>
    %float1.000000e00_1235 = torch.constant.float 1.000000e+00
    %998 = torch.aten.div.Scalar %997, %float1.000000e00_1235 : !torch.vtensor<[1,128,960,1024],f16>, !torch.float -> !torch.vtensor<[1,128,960,1024],f16>
    %int1_1236 = torch.constant.int 1
    %int32_1237 = torch.constant.int 32
    %int4_1238 = torch.constant.int 4
    %int983040_1239 = torch.constant.int 983040
    %999 = torch.prim.ListConstruct %int1_1236, %int32_1237, %int4_1238, %int983040_1239 : (!torch.int, !torch.int, !torch.int, !torch.int) -> !torch.list<int>
    %1000 = torch.aten.view %998, %999 : !torch.vtensor<[1,128,960,1024],f16>, !torch.list<int> -> !torch.vtensor<[1,32,4,983040],f16>
    %int6_1240 = torch.constant.int 6
    %1001 = torch.prims.convert_element_type %1000, %int6_1240 : !torch.vtensor<[1,32,4,983040],f16>, !torch.int -> !torch.vtensor<[1,32,4,983040],f32>
    %int2_1241 = torch.constant.int 2
    %int3_1242 = torch.constant.int 3
    %1002 = torch.prim.ListConstruct %int2_1241, %int3_1242 : (!torch.int, !torch.int) -> !torch.list<int>
    %int0_1243 = torch.constant.int 0
    %true_1244 = torch.constant.bool true
    %result0_1245, %result1_1246 = torch.aten.var_mean.correction %1001, %1002, %int0_1243, %true_1244 : !torch.vtensor<[1,32,4,983040],f32>, !torch.list<int>, !torch.int, !torch.bool -> !torch.vtensor<[1,32,1,1],f32>, !torch.vtensor<[1,32,1,1],f32>
    %float9.999990e-07_1247 = torch.constant.float 9.9999999999999995E-7
    %int1_1248 = torch.constant.int 1
    %1003 = torch.aten.add.Scalar %result0_1245, %float9.999990e-07_1247, %int1_1248 : !torch.vtensor<[1,32,1,1],f32>, !torch.float, !torch.int -> !torch.vtensor<[1,32,1,1],f32>
    %1004 = torch.aten.rsqrt %1003 : !torch.vtensor<[1,32,1,1],f32> -> !torch.vtensor<[1,32,1,1],f32>
    %int1_1249 = torch.constant.int 1
    %1005 = torch.aten.sub.Tensor %1000, %result1_1246, %int1_1249 : !torch.vtensor<[1,32,4,983040],f16>, !torch.vtensor<[1,32,1,1],f32>, !torch.int -> !torch.vtensor<[1,32,4,983040],f32>
    %1006 = torch.aten.mul.Tensor %1005, %1004 : !torch.vtensor<[1,32,4,983040],f32>, !torch.vtensor<[1,32,1,1],f32> -> !torch.vtensor<[1,32,4,983040],f32>
    %int1_1250 = torch.constant.int 1
    %int128_1251 = torch.constant.int 128
    %int960_1252 = torch.constant.int 960
    %int1024_1253 = torch.constant.int 1024
    %1007 = torch.prim.ListConstruct %int1_1250, %int128_1251, %int960_1252, %int1024_1253 : (!torch.int, !torch.int, !torch.int, !torch.int) -> !torch.list<int>
    %1008 = torch.aten.view %1006, %1007 : !torch.vtensor<[1,32,4,983040],f32>, !torch.list<int> -> !torch.vtensor<[1,128,960,1024],f32>
    %__auto.vae.decoder.up_blocks.3.resnets.2.norm1.bias = util.global.load @__auto.vae.decoder.up_blocks.3.resnets.2.norm1.bias : tensor<128xf16>
    %1009 = torch_c.from_builtin_tensor %__auto.vae.decoder.up_blocks.3.resnets.2.norm1.bias : tensor<128xf16> -> !torch.vtensor<[128],f16>
    %int0_1254 = torch.constant.int 0
    %1010 = torch.aten.unsqueeze %1009, %int0_1254 : !torch.vtensor<[128],f16>, !torch.int -> !torch.vtensor<[1,128],f16>
    %int2_1255 = torch.constant.int 2
    %1011 = torch.aten.unsqueeze %1010, %int2_1255 : !torch.vtensor<[1,128],f16>, !torch.int -> !torch.vtensor<[1,128,1],f16>
    %int3_1256 = torch.constant.int 3
    %1012 = torch.aten.unsqueeze %1011, %int3_1256 : !torch.vtensor<[1,128,1],f16>, !torch.int -> !torch.vtensor<[1,128,1,1],f16>
    %__auto.vae.decoder.up_blocks.3.resnets.2.norm1.weight = util.global.load @__auto.vae.decoder.up_blocks.3.resnets.2.norm1.weight : tensor<128xf16>
    %1013 = torch_c.from_builtin_tensor %__auto.vae.decoder.up_blocks.3.resnets.2.norm1.weight : tensor<128xf16> -> !torch.vtensor<[128],f16>
    %int0_1257 = torch.constant.int 0
    %1014 = torch.aten.unsqueeze %1013, %int0_1257 : !torch.vtensor<[128],f16>, !torch.int -> !torch.vtensor<[1,128],f16>
    %int2_1258 = torch.constant.int 2
    %1015 = torch.aten.unsqueeze %1014, %int2_1258 : !torch.vtensor<[1,128],f16>, !torch.int -> !torch.vtensor<[1,128,1],f16>
    %int3_1259 = torch.constant.int 3
    %1016 = torch.aten.unsqueeze %1015, %int3_1259 : !torch.vtensor<[1,128,1],f16>, !torch.int -> !torch.vtensor<[1,128,1,1],f16>
    %1017 = torch.aten.mul.Tensor %1008, %1016 : !torch.vtensor<[1,128,960,1024],f32>, !torch.vtensor<[1,128,1,1],f16> -> !torch.vtensor<[1,128,960,1024],f32>
    %int1_1260 = torch.constant.int 1
    %1018 = torch.aten.add.Tensor %1017, %1012, %int1_1260 : !torch.vtensor<[1,128,960,1024],f32>, !torch.vtensor<[1,128,1,1],f16>, !torch.int -> !torch.vtensor<[1,128,960,1024],f32>
    %int5_1261 = torch.constant.int 5
    %1019 = torch.prims.convert_element_type %1018, %int5_1261 : !torch.vtensor<[1,128,960,1024],f32>, !torch.int -> !torch.vtensor<[1,128,960,1024],f16>
    %1020 = torch.aten.silu %1019 : !torch.vtensor<[1,128,960,1024],f16> -> !torch.vtensor<[1,128,960,1024],f16>
    %__auto.vae.decoder.up_blocks.3.resnets.2.conv1.weight = util.global.load @__auto.vae.decoder.up_blocks.3.resnets.2.conv1.weight : tensor<128x128x3x3xf16>
    %1021 = torch_c.from_builtin_tensor %__auto.vae.decoder.up_blocks.3.resnets.2.conv1.weight : tensor<128x128x3x3xf16> -> !torch.vtensor<[128,128,3,3],f16>
    %__auto.vae.decoder.up_blocks.3.resnets.2.conv1.bias = util.global.load @__auto.vae.decoder.up_blocks.3.resnets.2.conv1.bias : tensor<128xf16>
    %1022 = torch_c.from_builtin_tensor %__auto.vae.decoder.up_blocks.3.resnets.2.conv1.bias : tensor<128xf16> -> !torch.vtensor<[128],f16>
    %int1_1262 = torch.constant.int 1
    %int1_1263 = torch.constant.int 1
    %1023 = torch.prim.ListConstruct %int1_1262, %int1_1263 : (!torch.int, !torch.int) -> !torch.list<int>
    %int1_1264 = torch.constant.int 1
    %int1_1265 = torch.constant.int 1
    %1024 = torch.prim.ListConstruct %int1_1264, %int1_1265 : (!torch.int, !torch.int) -> !torch.list<int>
    %int1_1266 = torch.constant.int 1
    %int1_1267 = torch.constant.int 1
    %1025 = torch.prim.ListConstruct %int1_1266, %int1_1267 : (!torch.int, !torch.int) -> !torch.list<int>
    %false_1268 = torch.constant.bool false
    %int0_1269 = torch.constant.int 0
    %int0_1270 = torch.constant.int 0
    %1026 = torch.prim.ListConstruct %int0_1269, %int0_1270 : (!torch.int, !torch.int) -> !torch.list<int>
    %int1_1271 = torch.constant.int 1
    %1027 = torch.aten.convolution %1020, %1021, %1022, %1023, %1024, %1025, %false_1268, %1026, %int1_1271 : !torch.vtensor<[1,128,960,1024],f16>, !torch.vtensor<[128,128,3,3],f16>, !torch.vtensor<[128],f16>, !torch.list<int>, !torch.list<int>, !torch.list<int>, !torch.bool, !torch.list<int>, !torch.int -> !torch.vtensor<[1,128,960,1024],f16>
    %int1_1272 = torch.constant.int 1
    %int32_1273 = torch.constant.int 32
    %int4_1274 = torch.constant.int 4
    %int983040_1275 = torch.constant.int 983040
    %1028 = torch.prim.ListConstruct %int1_1272, %int32_1273, %int4_1274, %int983040_1275 : (!torch.int, !torch.int, !torch.int, !torch.int) -> !torch.list<int>
    %1029 = torch.aten.view %1027, %1028 : !torch.vtensor<[1,128,960,1024],f16>, !torch.list<int> -> !torch.vtensor<[1,32,4,983040],f16>
    %int6_1276 = torch.constant.int 6
    %1030 = torch.prims.convert_element_type %1029, %int6_1276 : !torch.vtensor<[1,32,4,983040],f16>, !torch.int -> !torch.vtensor<[1,32,4,983040],f32>
    %int2_1277 = torch.constant.int 2
    %int3_1278 = torch.constant.int 3
    %1031 = torch.prim.ListConstruct %int2_1277, %int3_1278 : (!torch.int, !torch.int) -> !torch.list<int>
    %int0_1279 = torch.constant.int 0
    %true_1280 = torch.constant.bool true
    %result0_1281, %result1_1282 = torch.aten.var_mean.correction %1030, %1031, %int0_1279, %true_1280 : !torch.vtensor<[1,32,4,983040],f32>, !torch.list<int>, !torch.int, !torch.bool -> !torch.vtensor<[1,32,1,1],f32>, !torch.vtensor<[1,32,1,1],f32>
    %float9.999990e-07_1283 = torch.constant.float 9.9999999999999995E-7
    %int1_1284 = torch.constant.int 1
    %1032 = torch.aten.add.Scalar %result0_1281, %float9.999990e-07_1283, %int1_1284 : !torch.vtensor<[1,32,1,1],f32>, !torch.float, !torch.int -> !torch.vtensor<[1,32,1,1],f32>
    %1033 = torch.aten.rsqrt %1032 : !torch.vtensor<[1,32,1,1],f32> -> !torch.vtensor<[1,32,1,1],f32>
    %int1_1285 = torch.constant.int 1
    %1034 = torch.aten.sub.Tensor %1029, %result1_1282, %int1_1285 : !torch.vtensor<[1,32,4,983040],f16>, !torch.vtensor<[1,32,1,1],f32>, !torch.int -> !torch.vtensor<[1,32,4,983040],f32>
    %1035 = torch.aten.mul.Tensor %1034, %1033 : !torch.vtensor<[1,32,4,983040],f32>, !torch.vtensor<[1,32,1,1],f32> -> !torch.vtensor<[1,32,4,983040],f32>
    %int1_1286 = torch.constant.int 1
    %int128_1287 = torch.constant.int 128
    %int960_1288 = torch.constant.int 960
    %int1024_1289 = torch.constant.int 1024
    %1036 = torch.prim.ListConstruct %int1_1286, %int128_1287, %int960_1288, %int1024_1289 : (!torch.int, !torch.int, !torch.int, !torch.int) -> !torch.list<int>
    %1037 = torch.aten.view %1035, %1036 : !torch.vtensor<[1,32,4,983040],f32>, !torch.list<int> -> !torch.vtensor<[1,128,960,1024],f32>
    %__auto.vae.decoder.up_blocks.3.resnets.2.norm2.bias = util.global.load @__auto.vae.decoder.up_blocks.3.resnets.2.norm2.bias : tensor<128xf16>
    %1038 = torch_c.from_builtin_tensor %__auto.vae.decoder.up_blocks.3.resnets.2.norm2.bias : tensor<128xf16> -> !torch.vtensor<[128],f16>
    %int0_1290 = torch.constant.int 0
    %1039 = torch.aten.unsqueeze %1038, %int0_1290 : !torch.vtensor<[128],f16>, !torch.int -> !torch.vtensor<[1,128],f16>
    %int2_1291 = torch.constant.int 2
    %1040 = torch.aten.unsqueeze %1039, %int2_1291 : !torch.vtensor<[1,128],f16>, !torch.int -> !torch.vtensor<[1,128,1],f16>
    %int3_1292 = torch.constant.int 3
    %1041 = torch.aten.unsqueeze %1040, %int3_1292 : !torch.vtensor<[1,128,1],f16>, !torch.int -> !torch.vtensor<[1,128,1,1],f16>
    %__auto.vae.decoder.up_blocks.3.resnets.2.norm2.weight = util.global.load @__auto.vae.decoder.up_blocks.3.resnets.2.norm2.weight : tensor<128xf16>
    %1042 = torch_c.from_builtin_tensor %__auto.vae.decoder.up_blocks.3.resnets.2.norm2.weight : tensor<128xf16> -> !torch.vtensor<[128],f16>
    %int0_1293 = torch.constant.int 0
    %1043 = torch.aten.unsqueeze %1042, %int0_1293 : !torch.vtensor<[128],f16>, !torch.int -> !torch.vtensor<[1,128],f16>
    %int2_1294 = torch.constant.int 2
    %1044 = torch.aten.unsqueeze %1043, %int2_1294 : !torch.vtensor<[1,128],f16>, !torch.int -> !torch.vtensor<[1,128,1],f16>
    %int3_1295 = torch.constant.int 3
    %1045 = torch.aten.unsqueeze %1044, %int3_1295 : !torch.vtensor<[1,128,1],f16>, !torch.int -> !torch.vtensor<[1,128,1,1],f16>
    %1046 = torch.aten.mul.Tensor %1037, %1045 : !torch.vtensor<[1,128,960,1024],f32>, !torch.vtensor<[1,128,1,1],f16> -> !torch.vtensor<[1,128,960,1024],f32>
    %int1_1296 = torch.constant.int 1
    %1047 = torch.aten.add.Tensor %1046, %1041, %int1_1296 : !torch.vtensor<[1,128,960,1024],f32>, !torch.vtensor<[1,128,1,1],f16>, !torch.int -> !torch.vtensor<[1,128,960,1024],f32>
    %int5_1297 = torch.constant.int 5
    %1048 = torch.prims.convert_element_type %1047, %int5_1297 : !torch.vtensor<[1,128,960,1024],f32>, !torch.int -> !torch.vtensor<[1,128,960,1024],f16>
    %1049 = torch.aten.silu %1048 : !torch.vtensor<[1,128,960,1024],f16> -> !torch.vtensor<[1,128,960,1024],f16>
    %none_1298 = torch.constant.none
    %1050 = torch.aten.clone %1049, %none_1298 : !torch.vtensor<[1,128,960,1024],f16>, !torch.none -> !torch.vtensor<[1,128,960,1024],f16>
    %__auto.vae.decoder.up_blocks.3.resnets.2.conv2.weight = util.global.load @__auto.vae.decoder.up_blocks.3.resnets.2.conv2.weight : tensor<128x128x3x3xf16>
    %1051 = torch_c.from_builtin_tensor %__auto.vae.decoder.up_blocks.3.resnets.2.conv2.weight : tensor<128x128x3x3xf16> -> !torch.vtensor<[128,128,3,3],f16>
    %__auto.vae.decoder.up_blocks.3.resnets.2.conv2.bias = util.global.load @__auto.vae.decoder.up_blocks.3.resnets.2.conv2.bias : tensor<128xf16>
    %1052 = torch_c.from_builtin_tensor %__auto.vae.decoder.up_blocks.3.resnets.2.conv2.bias : tensor<128xf16> -> !torch.vtensor<[128],f16>
    %int1_1299 = torch.constant.int 1
    %int1_1300 = torch.constant.int 1
    %1053 = torch.prim.ListConstruct %int1_1299, %int1_1300 : (!torch.int, !torch.int) -> !torch.list<int>
    %int1_1301 = torch.constant.int 1
    %int1_1302 = torch.constant.int 1
    %1054 = torch.prim.ListConstruct %int1_1301, %int1_1302 : (!torch.int, !torch.int) -> !torch.list<int>
    %int1_1303 = torch.constant.int 1
    %int1_1304 = torch.constant.int 1
    %1055 = torch.prim.ListConstruct %int1_1303, %int1_1304 : (!torch.int, !torch.int) -> !torch.list<int>
    %false_1305 = torch.constant.bool false
    %int0_1306 = torch.constant.int 0
    %int0_1307 = torch.constant.int 0
    %1056 = torch.prim.ListConstruct %int0_1306, %int0_1307 : (!torch.int, !torch.int) -> !torch.list<int>
    %int1_1308 = torch.constant.int 1
    %1057 = torch.aten.convolution %1050, %1051, %1052, %1053, %1054, %1055, %false_1305, %1056, %int1_1308 : !torch.vtensor<[1,128,960,1024],f16>, !torch.vtensor<[128,128,3,3],f16>, !torch.vtensor<[128],f16>, !torch.list<int>, !torch.list<int>, !torch.list<int>, !torch.bool, !torch.list<int>, !torch.int -> !torch.vtensor<[1,128,960,1024],f16>
    %int1_1309 = torch.constant.int 1
    %1058 = torch.aten.add.Tensor %998, %1057, %int1_1309 : !torch.vtensor<[1,128,960,1024],f16>, !torch.vtensor<[1,128,960,1024],f16>, !torch.int -> !torch.vtensor<[1,128,960,1024],f16>
    %float1.000000e00_1310 = torch.constant.float 1.000000e+00
    %1059 = torch.aten.div.Scalar %1058, %float1.000000e00_1310 : !torch.vtensor<[1,128,960,1024],f16>, !torch.float -> !torch.vtensor<[1,128,960,1024],f16>
    %int1_1311 = torch.constant.int 1
    %int32_1312 = torch.constant.int 32
    %int4_1313 = torch.constant.int 4
    %int983040_1314 = torch.constant.int 983040
    %1060 = torch.prim.ListConstruct %int1_1311, %int32_1312, %int4_1313, %int983040_1314 : (!torch.int, !torch.int, !torch.int, !torch.int) -> !torch.list<int>
    %1061 = torch.aten.view %1059, %1060 : !torch.vtensor<[1,128,960,1024],f16>, !torch.list<int> -> !torch.vtensor<[1,32,4,983040],f16>
    %int6_1315 = torch.constant.int 6
    %1062 = torch.prims.convert_element_type %1061, %int6_1315 : !torch.vtensor<[1,32,4,983040],f16>, !torch.int -> !torch.vtensor<[1,32,4,983040],f32>
    %int2_1316 = torch.constant.int 2
    %int3_1317 = torch.constant.int 3
    %1063 = torch.prim.ListConstruct %int2_1316, %int3_1317 : (!torch.int, !torch.int) -> !torch.list<int>
    %int0_1318 = torch.constant.int 0
    %true_1319 = torch.constant.bool true
    %result0_1320, %result1_1321 = torch.aten.var_mean.correction %1062, %1063, %int0_1318, %true_1319 : !torch.vtensor<[1,32,4,983040],f32>, !torch.list<int>, !torch.int, !torch.bool -> !torch.vtensor<[1,32,1,1],f32>, !torch.vtensor<[1,32,1,1],f32>
    %float9.999990e-07_1322 = torch.constant.float 9.9999999999999995E-7
    %int1_1323 = torch.constant.int 1
    %1064 = torch.aten.add.Scalar %result0_1320, %float9.999990e-07_1322, %int1_1323 : !torch.vtensor<[1,32,1,1],f32>, !torch.float, !torch.int -> !torch.vtensor<[1,32,1,1],f32>
    %1065 = torch.aten.rsqrt %1064 : !torch.vtensor<[1,32,1,1],f32> -> !torch.vtensor<[1,32,1,1],f32>
    %int1_1324 = torch.constant.int 1
    %1066 = torch.aten.sub.Tensor %1061, %result1_1321, %int1_1324 : !torch.vtensor<[1,32,4,983040],f16>, !torch.vtensor<[1,32,1,1],f32>, !torch.int -> !torch.vtensor<[1,32,4,983040],f32>
    %1067 = torch.aten.mul.Tensor %1066, %1065 : !torch.vtensor<[1,32,4,983040],f32>, !torch.vtensor<[1,32,1,1],f32> -> !torch.vtensor<[1,32,4,983040],f32>
    %int1_1325 = torch.constant.int 1
    %int128_1326 = torch.constant.int 128
    %int960_1327 = torch.constant.int 960
    %int1024_1328 = torch.constant.int 1024
    %1068 = torch.prim.ListConstruct %int1_1325, %int128_1326, %int960_1327, %int1024_1328 : (!torch.int, !torch.int, !torch.int, !torch.int) -> !torch.list<int>
    %1069 = torch.aten.view %1067, %1068 : !torch.vtensor<[1,32,4,983040],f32>, !torch.list<int> -> !torch.vtensor<[1,128,960,1024],f32>
    %__auto.vae.decoder.conv_norm_out.bias = util.global.load @__auto.vae.decoder.conv_norm_out.bias : tensor<128xf16>
    %1070 = torch_c.from_builtin_tensor %__auto.vae.decoder.conv_norm_out.bias : tensor<128xf16> -> !torch.vtensor<[128],f16>
    %int0_1329 = torch.constant.int 0
    %1071 = torch.aten.unsqueeze %1070, %int0_1329 : !torch.vtensor<[128],f16>, !torch.int -> !torch.vtensor<[1,128],f16>
    %int2_1330 = torch.constant.int 2
    %1072 = torch.aten.unsqueeze %1071, %int2_1330 : !torch.vtensor<[1,128],f16>, !torch.int -> !torch.vtensor<[1,128,1],f16>
    %int3_1331 = torch.constant.int 3
    %1073 = torch.aten.unsqueeze %1072, %int3_1331 : !torch.vtensor<[1,128,1],f16>, !torch.int -> !torch.vtensor<[1,128,1,1],f16>
    %__auto.vae.decoder.conv_norm_out.weight = util.global.load @__auto.vae.decoder.conv_norm_out.weight : tensor<128xf16>
    %1074 = torch_c.from_builtin_tensor %__auto.vae.decoder.conv_norm_out.weight : tensor<128xf16> -> !torch.vtensor<[128],f16>
    %int0_1332 = torch.constant.int 0
    %1075 = torch.aten.unsqueeze %1074, %int0_1332 : !torch.vtensor<[128],f16>, !torch.int -> !torch.vtensor<[1,128],f16>
    %int2_1333 = torch.constant.int 2
    %1076 = torch.aten.unsqueeze %1075, %int2_1333 : !torch.vtensor<[1,128],f16>, !torch.int -> !torch.vtensor<[1,128,1],f16>
    %int3_1334 = torch.constant.int 3
    %1077 = torch.aten.unsqueeze %1076, %int3_1334 : !torch.vtensor<[1,128,1],f16>, !torch.int -> !torch.vtensor<[1,128,1,1],f16>
    %1078 = torch.aten.mul.Tensor %1069, %1077 : !torch.vtensor<[1,128,960,1024],f32>, !torch.vtensor<[1,128,1,1],f16> -> !torch.vtensor<[1,128,960,1024],f32>
    %int1_1335 = torch.constant.int 1
    %1079 = torch.aten.add.Tensor %1078, %1073, %int1_1335 : !torch.vtensor<[1,128,960,1024],f32>, !torch.vtensor<[1,128,1,1],f16>, !torch.int -> !torch.vtensor<[1,128,960,1024],f32>
    %int5_1336 = torch.constant.int 5
    %1080 = torch.prims.convert_element_type %1079, %int5_1336 : !torch.vtensor<[1,128,960,1024],f32>, !torch.int -> !torch.vtensor<[1,128,960,1024],f16>
    %1081 = torch.aten.silu %1080 : !torch.vtensor<[1,128,960,1024],f16> -> !torch.vtensor<[1,128,960,1024],f16>
    %__auto.vae.decoder.conv_out.weight = util.global.load @__auto.vae.decoder.conv_out.weight : tensor<3x128x3x3xf16>
    %1082 = torch_c.from_builtin_tensor %__auto.vae.decoder.conv_out.weight : tensor<3x128x3x3xf16> -> !torch.vtensor<[3,128,3,3],f16>
    %__auto.vae.decoder.conv_out.bias = util.global.load @__auto.vae.decoder.conv_out.bias : tensor<3xf16>
    %1083 = torch_c.from_builtin_tensor %__auto.vae.decoder.conv_out.bias : tensor<3xf16> -> !torch.vtensor<[3],f16>
    %int1_1337 = torch.constant.int 1
    %int1_1338 = torch.constant.int 1
    %1084 = torch.prim.ListConstruct %int1_1337, %int1_1338 : (!torch.int, !torch.int) -> !torch.list<int>
    %int1_1339 = torch.constant.int 1
    %int1_1340 = torch.constant.int 1
    %1085 = torch.prim.ListConstruct %int1_1339, %int1_1340 : (!torch.int, !torch.int) -> !torch.list<int>
    %int1_1341 = torch.constant.int 1
    %int1_1342 = torch.constant.int 1
    %1086 = torch.prim.ListConstruct %int1_1341, %int1_1342 : (!torch.int, !torch.int) -> !torch.list<int>
    %false_1343 = torch.constant.bool false
    %int0_1344 = torch.constant.int 0
    %int0_1345 = torch.constant.int 0
    %1087 = torch.prim.ListConstruct %int0_1344, %int0_1345 : (!torch.int, !torch.int) -> !torch.list<int>
    %int1_1346 = torch.constant.int 1
    %1088 = torch.aten.convolution %1081, %1082, %1083, %1084, %1085, %1086, %false_1343, %1087, %int1_1346 : !torch.vtensor<[1,128,960,1024],f16>, !torch.vtensor<[3,128,3,3],f16>, !torch.vtensor<[3],f16>, !torch.list<int>, !torch.list<int>, !torch.list<int>, !torch.bool, !torch.list<int>, !torch.int -> !torch.vtensor<[1,3,960,1024],f16>
    %int2_1347 = torch.constant.int 2
    %1089 = torch.aten.div.Scalar %1088, %int2_1347 : !torch.vtensor<[1,3,960,1024],f16>, !torch.int -> !torch.vtensor<[1,3,960,1024],f16>
    %float5.000000e-01_1348 = torch.constant.float 5.000000e-01
    %int1_1349 = torch.constant.int 1
    %1090 = torch.aten.add.Scalar %1089, %float5.000000e-01_1348, %int1_1349 : !torch.vtensor<[1,3,960,1024],f16>, !torch.float, !torch.int -> !torch.vtensor<[1,3,960,1024],f16>
    %int0_1350 = torch.constant.int 0
    %int1_1351 = torch.constant.int 1
    %1091 = torch.aten.clamp %1090, %int0_1350, %int1_1351 : !torch.vtensor<[1,3,960,1024],f16>, !torch.int, !torch.int -> !torch.vtensor<[1,3,960,1024],f16>
    return %1091 : !torch.vtensor<[1,3,960,1024],f16>
  }
}
