module @compiled_unet {
  util.global private @_params.unet.conv_in.weight {noinline} = #stream.parameter.named<"model"::"unet.conv_in.weight"> : tensor<320x4x3x3xf16>
  util.global private @_params.unet.conv_in.bias {noinline} = #stream.parameter.named<"model"::"unet.conv_in.bias"> : tensor<320xf16>
  util.global private @_params.unet.time_embedding.linear_1.weight {noinline} = #stream.parameter.named<"model"::"unet.time_embedding.linear_1.weight"> : tensor<1280x320xf16>
  util.global private @_params.unet.time_embedding.linear_1.bias {noinline} = #stream.parameter.named<"model"::"unet.time_embedding.linear_1.bias"> : tensor<1280xf16>
  util.global private @_params.unet.time_embedding.linear_2.weight {noinline} = #stream.parameter.named<"model"::"unet.time_embedding.linear_2.weight"> : tensor<1280x1280xf16>
  util.global private @_params.unet.time_embedding.linear_2.bias {noinline} = #stream.parameter.named<"model"::"unet.time_embedding.linear_2.bias"> : tensor<1280xf16>
  util.global private @_params.unet.add_embedding.linear_1.weight {noinline} = #stream.parameter.named<"model"::"unet.add_embedding.linear_1.weight"> : tensor<1280x2816xf16>
  util.global private @_params.unet.add_embedding.linear_1.bias {noinline} = #stream.parameter.named<"model"::"unet.add_embedding.linear_1.bias"> : tensor<1280xf16>
  util.global private @_params.unet.add_embedding.linear_2.weight {noinline} = #stream.parameter.named<"model"::"unet.add_embedding.linear_2.weight"> : tensor<1280x1280xf16>
  util.global private @_params.unet.add_embedding.linear_2.bias {noinline} = #stream.parameter.named<"model"::"unet.add_embedding.linear_2.bias"> : tensor<1280xf16>
  util.global private @_params.unet.down_blocks.0.resnets.0.norm1.weight {noinline} = #stream.parameter.named<"model"::"unet.down_blocks.0.resnets.0.norm1.weight"> : tensor<320xf16>
  util.global private @_params.unet.down_blocks.0.resnets.0.norm1.bias {noinline} = #stream.parameter.named<"model"::"unet.down_blocks.0.resnets.0.norm1.bias"> : tensor<320xf16>
  util.global private @_params.unet.down_blocks.0.resnets.0.conv1.weight {noinline} = #stream.parameter.named<"model"::"unet.down_blocks.0.resnets.0.conv1.weight"> : tensor<320x320x3x3xf16>
  util.global private @_params.unet.down_blocks.0.resnets.0.conv1.bias {noinline} = #stream.parameter.named<"model"::"unet.down_blocks.0.resnets.0.conv1.bias"> : tensor<320xf16>
  util.global private @_params.unet.down_blocks.0.resnets.0.time_emb_proj.weight {noinline} = #stream.parameter.named<"model"::"unet.down_blocks.0.resnets.0.time_emb_proj.weight"> : tensor<320x1280xf16>
  util.global private @_params.unet.down_blocks.0.resnets.0.time_emb_proj.bias {noinline} = #stream.parameter.named<"model"::"unet.down_blocks.0.resnets.0.time_emb_proj.bias"> : tensor<320xf16>
  util.global private @_params.unet.down_blocks.0.resnets.0.norm2.weight {noinline} = #stream.parameter.named<"model"::"unet.down_blocks.0.resnets.0.norm2.weight"> : tensor<320xf16>
  util.global private @_params.unet.down_blocks.0.resnets.0.norm2.bias {noinline} = #stream.parameter.named<"model"::"unet.down_blocks.0.resnets.0.norm2.bias"> : tensor<320xf16>
  util.global private @_params.unet.down_blocks.0.resnets.0.conv2.weight {noinline} = #stream.parameter.named<"model"::"unet.down_blocks.0.resnets.0.conv2.weight"> : tensor<320x320x3x3xf16>
  util.global private @_params.unet.down_blocks.0.resnets.0.conv2.bias {noinline} = #stream.parameter.named<"model"::"unet.down_blocks.0.resnets.0.conv2.bias"> : tensor<320xf16>
  util.global private @_params.unet.down_blocks.0.resnets.1.norm1.weight {noinline} = #stream.parameter.named<"model"::"unet.down_blocks.0.resnets.1.norm1.weight"> : tensor<320xf16>
  util.global private @_params.unet.down_blocks.0.resnets.1.norm1.bias {noinline} = #stream.parameter.named<"model"::"unet.down_blocks.0.resnets.1.norm1.bias"> : tensor<320xf16>
  util.global private @_params.unet.down_blocks.0.resnets.1.conv1.weight {noinline} = #stream.parameter.named<"model"::"unet.down_blocks.0.resnets.1.conv1.weight"> : tensor<320x320x3x3xf16>
  util.global private @_params.unet.down_blocks.0.resnets.1.conv1.bias {noinline} = #stream.parameter.named<"model"::"unet.down_blocks.0.resnets.1.conv1.bias"> : tensor<320xf16>
  util.global private @_params.unet.down_blocks.0.resnets.1.time_emb_proj.weight {noinline} = #stream.parameter.named<"model"::"unet.down_blocks.0.resnets.1.time_emb_proj.weight"> : tensor<320x1280xf16>
  util.global private @_params.unet.down_blocks.0.resnets.1.time_emb_proj.bias {noinline} = #stream.parameter.named<"model"::"unet.down_blocks.0.resnets.1.time_emb_proj.bias"> : tensor<320xf16>
  util.global private @_params.unet.down_blocks.0.resnets.1.norm2.weight {noinline} = #stream.parameter.named<"model"::"unet.down_blocks.0.resnets.1.norm2.weight"> : tensor<320xf16>
  util.global private @_params.unet.down_blocks.0.resnets.1.norm2.bias {noinline} = #stream.parameter.named<"model"::"unet.down_blocks.0.resnets.1.norm2.bias"> : tensor<320xf16>
  util.global private @_params.unet.down_blocks.0.resnets.1.conv2.weight {noinline} = #stream.parameter.named<"model"::"unet.down_blocks.0.resnets.1.conv2.weight"> : tensor<320x320x3x3xf16>
  util.global private @_params.unet.down_blocks.0.resnets.1.conv2.bias {noinline} = #stream.parameter.named<"model"::"unet.down_blocks.0.resnets.1.conv2.bias"> : tensor<320xf16>
  util.global private @_params.unet.down_blocks.0.downsamplers.0.conv.weight {noinline} = #stream.parameter.named<"model"::"unet.down_blocks.0.downsamplers.0.conv.weight"> : tensor<320x320x3x3xf16>
  util.global private @_params.unet.down_blocks.0.downsamplers.0.conv.bias {noinline} = #stream.parameter.named<"model"::"unet.down_blocks.0.downsamplers.0.conv.bias"> : tensor<320xf16>
  util.global private @_params.unet.down_blocks.1.attentions.0.norm.weight {noinline} = #stream.parameter.named<"model"::"unet.down_blocks.1.attentions.0.norm.weight"> : tensor<640xf16>
  util.global private @_params.unet.down_blocks.1.attentions.0.norm.bias {noinline} = #stream.parameter.named<"model"::"unet.down_blocks.1.attentions.0.norm.bias"> : tensor<640xf16>
  util.global private @_params.unet.down_blocks.1.attentions.0.proj_in.weight {noinline} = #stream.parameter.named<"model"::"unet.down_blocks.1.attentions.0.proj_in.weight"> : tensor<640x640xf16>
  util.global private @_params.unet.down_blocks.1.attentions.0.proj_in.bias {noinline} = #stream.parameter.named<"model"::"unet.down_blocks.1.attentions.0.proj_in.bias"> : tensor<640xf16>
  util.global private @_params.unet.down_blocks.1.attentions.0.transformer_blocks.0.norm1.weight {noinline} = #stream.parameter.named<"model"::"unet.down_blocks.1.attentions.0.transformer_blocks.0.norm1.weight"> : tensor<640xf16>
  util.global private @_params.unet.down_blocks.1.attentions.0.transformer_blocks.0.norm1.bias {noinline} = #stream.parameter.named<"model"::"unet.down_blocks.1.attentions.0.transformer_blocks.0.norm1.bias"> : tensor<640xf16>
  util.global private @_params.unet.down_blocks.1.attentions.0.transformer_blocks.0.attn1.to_q.weight {noinline} = #stream.parameter.named<"model"::"unet.down_blocks.1.attentions.0.transformer_blocks.0.attn1.to_q.weight"> : tensor<640x640xf16>
  util.global private @_params.unet.down_blocks.1.attentions.0.transformer_blocks.0.attn1.to_k.weight {noinline} = #stream.parameter.named<"model"::"unet.down_blocks.1.attentions.0.transformer_blocks.0.attn1.to_k.weight"> : tensor<640x640xf16>
  util.global private @_params.unet.down_blocks.1.attentions.0.transformer_blocks.0.attn1.to_v.weight {noinline} = #stream.parameter.named<"model"::"unet.down_blocks.1.attentions.0.transformer_blocks.0.attn1.to_v.weight"> : tensor<640x640xf16>
  util.global private @_params.unet.down_blocks.1.attentions.0.transformer_blocks.0.attn1.to_out.0.weight {noinline} = #stream.parameter.named<"model"::"unet.down_blocks.1.attentions.0.transformer_blocks.0.attn1.to_out.0.weight"> : tensor<640x640xf16>
  util.global private @_params.unet.down_blocks.1.attentions.0.transformer_blocks.0.attn1.to_out.0.bias {noinline} = #stream.parameter.named<"model"::"unet.down_blocks.1.attentions.0.transformer_blocks.0.attn1.to_out.0.bias"> : tensor<640xf16>
  util.global private @_params.unet.down_blocks.1.attentions.0.transformer_blocks.0.norm2.weight {noinline} = #stream.parameter.named<"model"::"unet.down_blocks.1.attentions.0.transformer_blocks.0.norm2.weight"> : tensor<640xf16>
  util.global private @_params.unet.down_blocks.1.attentions.0.transformer_blocks.0.norm2.bias {noinline} = #stream.parameter.named<"model"::"unet.down_blocks.1.attentions.0.transformer_blocks.0.norm2.bias"> : tensor<640xf16>
  util.global private @_params.unet.down_blocks.1.attentions.0.transformer_blocks.0.attn2.to_q.weight {noinline} = #stream.parameter.named<"model"::"unet.down_blocks.1.attentions.0.transformer_blocks.0.attn2.to_q.weight"> : tensor<640x640xf16>
  util.global private @_params.unet.down_blocks.1.attentions.0.transformer_blocks.0.attn2.to_k.weight {noinline} = #stream.parameter.named<"model"::"unet.down_blocks.1.attentions.0.transformer_blocks.0.attn2.to_k.weight"> : tensor<640x2048xf16>
  util.global private @_params.unet.down_blocks.1.attentions.0.transformer_blocks.0.attn2.to_v.weight {noinline} = #stream.parameter.named<"model"::"unet.down_blocks.1.attentions.0.transformer_blocks.0.attn2.to_v.weight"> : tensor<640x2048xf16>
  util.global private @_params.unet.down_blocks.1.attentions.0.transformer_blocks.0.attn2.to_out.0.weight {noinline} = #stream.parameter.named<"model"::"unet.down_blocks.1.attentions.0.transformer_blocks.0.attn2.to_out.0.weight"> : tensor<640x640xf16>
  util.global private @_params.unet.down_blocks.1.attentions.0.transformer_blocks.0.attn2.to_out.0.bias {noinline} = #stream.parameter.named<"model"::"unet.down_blocks.1.attentions.0.transformer_blocks.0.attn2.to_out.0.bias"> : tensor<640xf16>
  util.global private @_params.unet.down_blocks.1.attentions.0.transformer_blocks.0.norm3.weight {noinline} = #stream.parameter.named<"model"::"unet.down_blocks.1.attentions.0.transformer_blocks.0.norm3.weight"> : tensor<640xf16>
  util.global private @_params.unet.down_blocks.1.attentions.0.transformer_blocks.0.norm3.bias {noinline} = #stream.parameter.named<"model"::"unet.down_blocks.1.attentions.0.transformer_blocks.0.norm3.bias"> : tensor<640xf16>
  util.global private @_params.unet.down_blocks.1.attentions.0.transformer_blocks.0.ff.net.0.proj.weight {noinline} = #stream.parameter.named<"model"::"unet.down_blocks.1.attentions.0.transformer_blocks.0.ff.net.0.proj.weight"> : tensor<5120x640xf16>
  util.global private @_params.unet.down_blocks.1.attentions.0.transformer_blocks.0.ff.net.0.proj.bias {noinline} = #stream.parameter.named<"model"::"unet.down_blocks.1.attentions.0.transformer_blocks.0.ff.net.0.proj.bias"> : tensor<5120xf16>
  util.global private @_params.unet.down_blocks.1.attentions.0.transformer_blocks.0.ff.net.2.weight {noinline} = #stream.parameter.named<"model"::"unet.down_blocks.1.attentions.0.transformer_blocks.0.ff.net.2.weight"> : tensor<640x2560xf16>
  util.global private @_params.unet.down_blocks.1.attentions.0.transformer_blocks.0.ff.net.2.bias {noinline} = #stream.parameter.named<"model"::"unet.down_blocks.1.attentions.0.transformer_blocks.0.ff.net.2.bias"> : tensor<640xf16>
  util.global private @_params.unet.down_blocks.1.attentions.0.transformer_blocks.1.norm1.weight {noinline} = #stream.parameter.named<"model"::"unet.down_blocks.1.attentions.0.transformer_blocks.1.norm1.weight"> : tensor<640xf16>
  util.global private @_params.unet.down_blocks.1.attentions.0.transformer_blocks.1.norm1.bias {noinline} = #stream.parameter.named<"model"::"unet.down_blocks.1.attentions.0.transformer_blocks.1.norm1.bias"> : tensor<640xf16>
  util.global private @_params.unet.down_blocks.1.attentions.0.transformer_blocks.1.attn1.to_q.weight {noinline} = #stream.parameter.named<"model"::"unet.down_blocks.1.attentions.0.transformer_blocks.1.attn1.to_q.weight"> : tensor<640x640xf16>
  util.global private @_params.unet.down_blocks.1.attentions.0.transformer_blocks.1.attn1.to_k.weight {noinline} = #stream.parameter.named<"model"::"unet.down_blocks.1.attentions.0.transformer_blocks.1.attn1.to_k.weight"> : tensor<640x640xf16>
  util.global private @_params.unet.down_blocks.1.attentions.0.transformer_blocks.1.attn1.to_v.weight {noinline} = #stream.parameter.named<"model"::"unet.down_blocks.1.attentions.0.transformer_blocks.1.attn1.to_v.weight"> : tensor<640x640xf16>
  util.global private @_params.unet.down_blocks.1.attentions.0.transformer_blocks.1.attn1.to_out.0.weight {noinline} = #stream.parameter.named<"model"::"unet.down_blocks.1.attentions.0.transformer_blocks.1.attn1.to_out.0.weight"> : tensor<640x640xf16>
  util.global private @_params.unet.down_blocks.1.attentions.0.transformer_blocks.1.attn1.to_out.0.bias {noinline} = #stream.parameter.named<"model"::"unet.down_blocks.1.attentions.0.transformer_blocks.1.attn1.to_out.0.bias"> : tensor<640xf16>
  util.global private @_params.unet.down_blocks.1.attentions.0.transformer_blocks.1.norm2.weight {noinline} = #stream.parameter.named<"model"::"unet.down_blocks.1.attentions.0.transformer_blocks.1.norm2.weight"> : tensor<640xf16>
  util.global private @_params.unet.down_blocks.1.attentions.0.transformer_blocks.1.norm2.bias {noinline} = #stream.parameter.named<"model"::"unet.down_blocks.1.attentions.0.transformer_blocks.1.norm2.bias"> : tensor<640xf16>
  util.global private @_params.unet.down_blocks.1.attentions.0.transformer_blocks.1.attn2.to_q.weight {noinline} = #stream.parameter.named<"model"::"unet.down_blocks.1.attentions.0.transformer_blocks.1.attn2.to_q.weight"> : tensor<640x640xf16>
  util.global private @_params.unet.down_blocks.1.attentions.0.transformer_blocks.1.attn2.to_k.weight {noinline} = #stream.parameter.named<"model"::"unet.down_blocks.1.attentions.0.transformer_blocks.1.attn2.to_k.weight"> : tensor<640x2048xf16>
  util.global private @_params.unet.down_blocks.1.attentions.0.transformer_blocks.1.attn2.to_v.weight {noinline} = #stream.parameter.named<"model"::"unet.down_blocks.1.attentions.0.transformer_blocks.1.attn2.to_v.weight"> : tensor<640x2048xf16>
  util.global private @_params.unet.down_blocks.1.attentions.0.transformer_blocks.1.attn2.to_out.0.weight {noinline} = #stream.parameter.named<"model"::"unet.down_blocks.1.attentions.0.transformer_blocks.1.attn2.to_out.0.weight"> : tensor<640x640xf16>
  util.global private @_params.unet.down_blocks.1.attentions.0.transformer_blocks.1.attn2.to_out.0.bias {noinline} = #stream.parameter.named<"model"::"unet.down_blocks.1.attentions.0.transformer_blocks.1.attn2.to_out.0.bias"> : tensor<640xf16>
  util.global private @_params.unet.down_blocks.1.attentions.0.transformer_blocks.1.norm3.weight {noinline} = #stream.parameter.named<"model"::"unet.down_blocks.1.attentions.0.transformer_blocks.1.norm3.weight"> : tensor<640xf16>
  util.global private @_params.unet.down_blocks.1.attentions.0.transformer_blocks.1.norm3.bias {noinline} = #stream.parameter.named<"model"::"unet.down_blocks.1.attentions.0.transformer_blocks.1.norm3.bias"> : tensor<640xf16>
  util.global private @_params.unet.down_blocks.1.attentions.0.transformer_blocks.1.ff.net.0.proj.weight {noinline} = #stream.parameter.named<"model"::"unet.down_blocks.1.attentions.0.transformer_blocks.1.ff.net.0.proj.weight"> : tensor<5120x640xf16>
  util.global private @_params.unet.down_blocks.1.attentions.0.transformer_blocks.1.ff.net.0.proj.bias {noinline} = #stream.parameter.named<"model"::"unet.down_blocks.1.attentions.0.transformer_blocks.1.ff.net.0.proj.bias"> : tensor<5120xf16>
  util.global private @_params.unet.down_blocks.1.attentions.0.transformer_blocks.1.ff.net.2.weight {noinline} = #stream.parameter.named<"model"::"unet.down_blocks.1.attentions.0.transformer_blocks.1.ff.net.2.weight"> : tensor<640x2560xf16>
  util.global private @_params.unet.down_blocks.1.attentions.0.transformer_blocks.1.ff.net.2.bias {noinline} = #stream.parameter.named<"model"::"unet.down_blocks.1.attentions.0.transformer_blocks.1.ff.net.2.bias"> : tensor<640xf16>
  util.global private @_params.unet.down_blocks.1.attentions.0.proj_out.weight {noinline} = #stream.parameter.named<"model"::"unet.down_blocks.1.attentions.0.proj_out.weight"> : tensor<640x640xf16>
  util.global private @_params.unet.down_blocks.1.attentions.0.proj_out.bias {noinline} = #stream.parameter.named<"model"::"unet.down_blocks.1.attentions.0.proj_out.bias"> : tensor<640xf16>
  util.global private @_params.unet.down_blocks.1.attentions.1.norm.weight {noinline} = #stream.parameter.named<"model"::"unet.down_blocks.1.attentions.1.norm.weight"> : tensor<640xf16>
  util.global private @_params.unet.down_blocks.1.attentions.1.norm.bias {noinline} = #stream.parameter.named<"model"::"unet.down_blocks.1.attentions.1.norm.bias"> : tensor<640xf16>
  util.global private @_params.unet.down_blocks.1.attentions.1.proj_in.weight {noinline} = #stream.parameter.named<"model"::"unet.down_blocks.1.attentions.1.proj_in.weight"> : tensor<640x640xf16>
  util.global private @_params.unet.down_blocks.1.attentions.1.proj_in.bias {noinline} = #stream.parameter.named<"model"::"unet.down_blocks.1.attentions.1.proj_in.bias"> : tensor<640xf16>
  util.global private @_params.unet.down_blocks.1.attentions.1.transformer_blocks.0.norm1.weight {noinline} = #stream.parameter.named<"model"::"unet.down_blocks.1.attentions.1.transformer_blocks.0.norm1.weight"> : tensor<640xf16>
  util.global private @_params.unet.down_blocks.1.attentions.1.transformer_blocks.0.norm1.bias {noinline} = #stream.parameter.named<"model"::"unet.down_blocks.1.attentions.1.transformer_blocks.0.norm1.bias"> : tensor<640xf16>
  util.global private @_params.unet.down_blocks.1.attentions.1.transformer_blocks.0.attn1.to_q.weight {noinline} = #stream.parameter.named<"model"::"unet.down_blocks.1.attentions.1.transformer_blocks.0.attn1.to_q.weight"> : tensor<640x640xf16>
  util.global private @_params.unet.down_blocks.1.attentions.1.transformer_blocks.0.attn1.to_k.weight {noinline} = #stream.parameter.named<"model"::"unet.down_blocks.1.attentions.1.transformer_blocks.0.attn1.to_k.weight"> : tensor<640x640xf16>
  util.global private @_params.unet.down_blocks.1.attentions.1.transformer_blocks.0.attn1.to_v.weight {noinline} = #stream.parameter.named<"model"::"unet.down_blocks.1.attentions.1.transformer_blocks.0.attn1.to_v.weight"> : tensor<640x640xf16>
  util.global private @_params.unet.down_blocks.1.attentions.1.transformer_blocks.0.attn1.to_out.0.weight {noinline} = #stream.parameter.named<"model"::"unet.down_blocks.1.attentions.1.transformer_blocks.0.attn1.to_out.0.weight"> : tensor<640x640xf16>
  util.global private @_params.unet.down_blocks.1.attentions.1.transformer_blocks.0.attn1.to_out.0.bias {noinline} = #stream.parameter.named<"model"::"unet.down_blocks.1.attentions.1.transformer_blocks.0.attn1.to_out.0.bias"> : tensor<640xf16>
  util.global private @_params.unet.down_blocks.1.attentions.1.transformer_blocks.0.norm2.weight {noinline} = #stream.parameter.named<"model"::"unet.down_blocks.1.attentions.1.transformer_blocks.0.norm2.weight"> : tensor<640xf16>
  util.global private @_params.unet.down_blocks.1.attentions.1.transformer_blocks.0.norm2.bias {noinline} = #stream.parameter.named<"model"::"unet.down_blocks.1.attentions.1.transformer_blocks.0.norm2.bias"> : tensor<640xf16>
  util.global private @_params.unet.down_blocks.1.attentions.1.transformer_blocks.0.attn2.to_q.weight {noinline} = #stream.parameter.named<"model"::"unet.down_blocks.1.attentions.1.transformer_blocks.0.attn2.to_q.weight"> : tensor<640x640xf16>
  util.global private @_params.unet.down_blocks.1.attentions.1.transformer_blocks.0.attn2.to_k.weight {noinline} = #stream.parameter.named<"model"::"unet.down_blocks.1.attentions.1.transformer_blocks.0.attn2.to_k.weight"> : tensor<640x2048xf16>
  util.global private @_params.unet.down_blocks.1.attentions.1.transformer_blocks.0.attn2.to_v.weight {noinline} = #stream.parameter.named<"model"::"unet.down_blocks.1.attentions.1.transformer_blocks.0.attn2.to_v.weight"> : tensor<640x2048xf16>
  util.global private @_params.unet.down_blocks.1.attentions.1.transformer_blocks.0.attn2.to_out.0.weight {noinline} = #stream.parameter.named<"model"::"unet.down_blocks.1.attentions.1.transformer_blocks.0.attn2.to_out.0.weight"> : tensor<640x640xf16>
  util.global private @_params.unet.down_blocks.1.attentions.1.transformer_blocks.0.attn2.to_out.0.bias {noinline} = #stream.parameter.named<"model"::"unet.down_blocks.1.attentions.1.transformer_blocks.0.attn2.to_out.0.bias"> : tensor<640xf16>
  util.global private @_params.unet.down_blocks.1.attentions.1.transformer_blocks.0.norm3.weight {noinline} = #stream.parameter.named<"model"::"unet.down_blocks.1.attentions.1.transformer_blocks.0.norm3.weight"> : tensor<640xf16>
  util.global private @_params.unet.down_blocks.1.attentions.1.transformer_blocks.0.norm3.bias {noinline} = #stream.parameter.named<"model"::"unet.down_blocks.1.attentions.1.transformer_blocks.0.norm3.bias"> : tensor<640xf16>
  util.global private @_params.unet.down_blocks.1.attentions.1.transformer_blocks.0.ff.net.0.proj.weight {noinline} = #stream.parameter.named<"model"::"unet.down_blocks.1.attentions.1.transformer_blocks.0.ff.net.0.proj.weight"> : tensor<5120x640xf16>
  util.global private @_params.unet.down_blocks.1.attentions.1.transformer_blocks.0.ff.net.0.proj.bias {noinline} = #stream.parameter.named<"model"::"unet.down_blocks.1.attentions.1.transformer_blocks.0.ff.net.0.proj.bias"> : tensor<5120xf16>
  util.global private @_params.unet.down_blocks.1.attentions.1.transformer_blocks.0.ff.net.2.weight {noinline} = #stream.parameter.named<"model"::"unet.down_blocks.1.attentions.1.transformer_blocks.0.ff.net.2.weight"> : tensor<640x2560xf16>
  util.global private @_params.unet.down_blocks.1.attentions.1.transformer_blocks.0.ff.net.2.bias {noinline} = #stream.parameter.named<"model"::"unet.down_blocks.1.attentions.1.transformer_blocks.0.ff.net.2.bias"> : tensor<640xf16>
  util.global private @_params.unet.down_blocks.1.attentions.1.transformer_blocks.1.norm1.weight {noinline} = #stream.parameter.named<"model"::"unet.down_blocks.1.attentions.1.transformer_blocks.1.norm1.weight"> : tensor<640xf16>
  util.global private @_params.unet.down_blocks.1.attentions.1.transformer_blocks.1.norm1.bias {noinline} = #stream.parameter.named<"model"::"unet.down_blocks.1.attentions.1.transformer_blocks.1.norm1.bias"> : tensor<640xf16>
  util.global private @_params.unet.down_blocks.1.attentions.1.transformer_blocks.1.attn1.to_q.weight {noinline} = #stream.parameter.named<"model"::"unet.down_blocks.1.attentions.1.transformer_blocks.1.attn1.to_q.weight"> : tensor<640x640xf16>
  util.global private @_params.unet.down_blocks.1.attentions.1.transformer_blocks.1.attn1.to_k.weight {noinline} = #stream.parameter.named<"model"::"unet.down_blocks.1.attentions.1.transformer_blocks.1.attn1.to_k.weight"> : tensor<640x640xf16>
  util.global private @_params.unet.down_blocks.1.attentions.1.transformer_blocks.1.attn1.to_v.weight {noinline} = #stream.parameter.named<"model"::"unet.down_blocks.1.attentions.1.transformer_blocks.1.attn1.to_v.weight"> : tensor<640x640xf16>
  util.global private @_params.unet.down_blocks.1.attentions.1.transformer_blocks.1.attn1.to_out.0.weight {noinline} = #stream.parameter.named<"model"::"unet.down_blocks.1.attentions.1.transformer_blocks.1.attn1.to_out.0.weight"> : tensor<640x640xf16>
  util.global private @_params.unet.down_blocks.1.attentions.1.transformer_blocks.1.attn1.to_out.0.bias {noinline} = #stream.parameter.named<"model"::"unet.down_blocks.1.attentions.1.transformer_blocks.1.attn1.to_out.0.bias"> : tensor<640xf16>
  util.global private @_params.unet.down_blocks.1.attentions.1.transformer_blocks.1.norm2.weight {noinline} = #stream.parameter.named<"model"::"unet.down_blocks.1.attentions.1.transformer_blocks.1.norm2.weight"> : tensor<640xf16>
  util.global private @_params.unet.down_blocks.1.attentions.1.transformer_blocks.1.norm2.bias {noinline} = #stream.parameter.named<"model"::"unet.down_blocks.1.attentions.1.transformer_blocks.1.norm2.bias"> : tensor<640xf16>
  util.global private @_params.unet.down_blocks.1.attentions.1.transformer_blocks.1.attn2.to_q.weight {noinline} = #stream.parameter.named<"model"::"unet.down_blocks.1.attentions.1.transformer_blocks.1.attn2.to_q.weight"> : tensor<640x640xf16>
  util.global private @_params.unet.down_blocks.1.attentions.1.transformer_blocks.1.attn2.to_k.weight {noinline} = #stream.parameter.named<"model"::"unet.down_blocks.1.attentions.1.transformer_blocks.1.attn2.to_k.weight"> : tensor<640x2048xf16>
  util.global private @_params.unet.down_blocks.1.attentions.1.transformer_blocks.1.attn2.to_v.weight {noinline} = #stream.parameter.named<"model"::"unet.down_blocks.1.attentions.1.transformer_blocks.1.attn2.to_v.weight"> : tensor<640x2048xf16>
  util.global private @_params.unet.down_blocks.1.attentions.1.transformer_blocks.1.attn2.to_out.0.weight {noinline} = #stream.parameter.named<"model"::"unet.down_blocks.1.attentions.1.transformer_blocks.1.attn2.to_out.0.weight"> : tensor<640x640xf16>
  util.global private @_params.unet.down_blocks.1.attentions.1.transformer_blocks.1.attn2.to_out.0.bias {noinline} = #stream.parameter.named<"model"::"unet.down_blocks.1.attentions.1.transformer_blocks.1.attn2.to_out.0.bias"> : tensor<640xf16>
  util.global private @_params.unet.down_blocks.1.attentions.1.transformer_blocks.1.norm3.weight {noinline} = #stream.parameter.named<"model"::"unet.down_blocks.1.attentions.1.transformer_blocks.1.norm3.weight"> : tensor<640xf16>
  util.global private @_params.unet.down_blocks.1.attentions.1.transformer_blocks.1.norm3.bias {noinline} = #stream.parameter.named<"model"::"unet.down_blocks.1.attentions.1.transformer_blocks.1.norm3.bias"> : tensor<640xf16>
  util.global private @_params.unet.down_blocks.1.attentions.1.transformer_blocks.1.ff.net.0.proj.weight {noinline} = #stream.parameter.named<"model"::"unet.down_blocks.1.attentions.1.transformer_blocks.1.ff.net.0.proj.weight"> : tensor<5120x640xf16>
  util.global private @_params.unet.down_blocks.1.attentions.1.transformer_blocks.1.ff.net.0.proj.bias {noinline} = #stream.parameter.named<"model"::"unet.down_blocks.1.attentions.1.transformer_blocks.1.ff.net.0.proj.bias"> : tensor<5120xf16>
  util.global private @_params.unet.down_blocks.1.attentions.1.transformer_blocks.1.ff.net.2.weight {noinline} = #stream.parameter.named<"model"::"unet.down_blocks.1.attentions.1.transformer_blocks.1.ff.net.2.weight"> : tensor<640x2560xf16>
  util.global private @_params.unet.down_blocks.1.attentions.1.transformer_blocks.1.ff.net.2.bias {noinline} = #stream.parameter.named<"model"::"unet.down_blocks.1.attentions.1.transformer_blocks.1.ff.net.2.bias"> : tensor<640xf16>
  util.global private @_params.unet.down_blocks.1.attentions.1.proj_out.weight {noinline} = #stream.parameter.named<"model"::"unet.down_blocks.1.attentions.1.proj_out.weight"> : tensor<640x640xf16>
  util.global private @_params.unet.down_blocks.1.attentions.1.proj_out.bias {noinline} = #stream.parameter.named<"model"::"unet.down_blocks.1.attentions.1.proj_out.bias"> : tensor<640xf16>
  util.global private @_params.unet.down_blocks.1.resnets.0.norm1.weight {noinline} = #stream.parameter.named<"model"::"unet.down_blocks.1.resnets.0.norm1.weight"> : tensor<320xf16>
  util.global private @_params.unet.down_blocks.1.resnets.0.norm1.bias {noinline} = #stream.parameter.named<"model"::"unet.down_blocks.1.resnets.0.norm1.bias"> : tensor<320xf16>
  util.global private @_params.unet.down_blocks.1.resnets.0.conv1.weight {noinline} = #stream.parameter.named<"model"::"unet.down_blocks.1.resnets.0.conv1.weight"> : tensor<640x320x3x3xf16>
  util.global private @_params.unet.down_blocks.1.resnets.0.conv1.bias {noinline} = #stream.parameter.named<"model"::"unet.down_blocks.1.resnets.0.conv1.bias"> : tensor<640xf16>
  util.global private @_params.unet.down_blocks.1.resnets.0.time_emb_proj.weight {noinline} = #stream.parameter.named<"model"::"unet.down_blocks.1.resnets.0.time_emb_proj.weight"> : tensor<640x1280xf16>
  util.global private @_params.unet.down_blocks.1.resnets.0.time_emb_proj.bias {noinline} = #stream.parameter.named<"model"::"unet.down_blocks.1.resnets.0.time_emb_proj.bias"> : tensor<640xf16>
  util.global private @_params.unet.down_blocks.1.resnets.0.norm2.weight {noinline} = #stream.parameter.named<"model"::"unet.down_blocks.1.resnets.0.norm2.weight"> : tensor<640xf16>
  util.global private @_params.unet.down_blocks.1.resnets.0.norm2.bias {noinline} = #stream.parameter.named<"model"::"unet.down_blocks.1.resnets.0.norm2.bias"> : tensor<640xf16>
  util.global private @_params.unet.down_blocks.1.resnets.0.conv2.weight {noinline} = #stream.parameter.named<"model"::"unet.down_blocks.1.resnets.0.conv2.weight"> : tensor<640x640x3x3xf16>
  util.global private @_params.unet.down_blocks.1.resnets.0.conv2.bias {noinline} = #stream.parameter.named<"model"::"unet.down_blocks.1.resnets.0.conv2.bias"> : tensor<640xf16>
  util.global private @_params.unet.down_blocks.1.resnets.0.conv_shortcut.weight {noinline} = #stream.parameter.named<"model"::"unet.down_blocks.1.resnets.0.conv_shortcut.weight"> : tensor<640x320x1x1xf16>
  util.global private @_params.unet.down_blocks.1.resnets.0.conv_shortcut.bias {noinline} = #stream.parameter.named<"model"::"unet.down_blocks.1.resnets.0.conv_shortcut.bias"> : tensor<640xf16>
  util.global private @_params.unet.down_blocks.1.resnets.1.norm1.weight {noinline} = #stream.parameter.named<"model"::"unet.down_blocks.1.resnets.1.norm1.weight"> : tensor<640xf16>
  util.global private @_params.unet.down_blocks.1.resnets.1.norm1.bias {noinline} = #stream.parameter.named<"model"::"unet.down_blocks.1.resnets.1.norm1.bias"> : tensor<640xf16>
  util.global private @_params.unet.down_blocks.1.resnets.1.conv1.weight {noinline} = #stream.parameter.named<"model"::"unet.down_blocks.1.resnets.1.conv1.weight"> : tensor<640x640x3x3xf16>
  util.global private @_params.unet.down_blocks.1.resnets.1.conv1.bias {noinline} = #stream.parameter.named<"model"::"unet.down_blocks.1.resnets.1.conv1.bias"> : tensor<640xf16>
  util.global private @_params.unet.down_blocks.1.resnets.1.time_emb_proj.weight {noinline} = #stream.parameter.named<"model"::"unet.down_blocks.1.resnets.1.time_emb_proj.weight"> : tensor<640x1280xf16>
  util.global private @_params.unet.down_blocks.1.resnets.1.time_emb_proj.bias {noinline} = #stream.parameter.named<"model"::"unet.down_blocks.1.resnets.1.time_emb_proj.bias"> : tensor<640xf16>
  util.global private @_params.unet.down_blocks.1.resnets.1.norm2.weight {noinline} = #stream.parameter.named<"model"::"unet.down_blocks.1.resnets.1.norm2.weight"> : tensor<640xf16>
  util.global private @_params.unet.down_blocks.1.resnets.1.norm2.bias {noinline} = #stream.parameter.named<"model"::"unet.down_blocks.1.resnets.1.norm2.bias"> : tensor<640xf16>
  util.global private @_params.unet.down_blocks.1.resnets.1.conv2.weight {noinline} = #stream.parameter.named<"model"::"unet.down_blocks.1.resnets.1.conv2.weight"> : tensor<640x640x3x3xf16>
  util.global private @_params.unet.down_blocks.1.resnets.1.conv2.bias {noinline} = #stream.parameter.named<"model"::"unet.down_blocks.1.resnets.1.conv2.bias"> : tensor<640xf16>
  util.global private @_params.unet.down_blocks.1.downsamplers.0.conv.weight {noinline} = #stream.parameter.named<"model"::"unet.down_blocks.1.downsamplers.0.conv.weight"> : tensor<640x640x3x3xf16>
  util.global private @_params.unet.down_blocks.1.downsamplers.0.conv.bias {noinline} = #stream.parameter.named<"model"::"unet.down_blocks.1.downsamplers.0.conv.bias"> : tensor<640xf16>
  util.global private @_params.unet.down_blocks.2.attentions.0.norm.weight {noinline} = #stream.parameter.named<"model"::"unet.down_blocks.2.attentions.0.norm.weight"> : tensor<1280xf16>
  util.global private @_params.unet.down_blocks.2.attentions.0.norm.bias {noinline} = #stream.parameter.named<"model"::"unet.down_blocks.2.attentions.0.norm.bias"> : tensor<1280xf16>
  util.global private @_params.unet.down_blocks.2.attentions.0.proj_in.weight {noinline} = #stream.parameter.named<"model"::"unet.down_blocks.2.attentions.0.proj_in.weight"> : tensor<1280x1280xf16>
  util.global private @_params.unet.down_blocks.2.attentions.0.proj_in.bias {noinline} = #stream.parameter.named<"model"::"unet.down_blocks.2.attentions.0.proj_in.bias"> : tensor<1280xf16>
  util.global private @_params.unet.down_blocks.2.attentions.0.transformer_blocks.0.norm1.weight {noinline} = #stream.parameter.named<"model"::"unet.down_blocks.2.attentions.0.transformer_blocks.0.norm1.weight"> : tensor<1280xf16>
  util.global private @_params.unet.down_blocks.2.attentions.0.transformer_blocks.0.norm1.bias {noinline} = #stream.parameter.named<"model"::"unet.down_blocks.2.attentions.0.transformer_blocks.0.norm1.bias"> : tensor<1280xf16>
  util.global private @_params.unet.down_blocks.2.attentions.0.transformer_blocks.0.attn1.to_q.weight {noinline} = #stream.parameter.named<"model"::"unet.down_blocks.2.attentions.0.transformer_blocks.0.attn1.to_q.weight"> : tensor<1280x1280xf16>
  util.global private @_params.unet.down_blocks.2.attentions.0.transformer_blocks.0.attn1.to_k.weight {noinline} = #stream.parameter.named<"model"::"unet.down_blocks.2.attentions.0.transformer_blocks.0.attn1.to_k.weight"> : tensor<1280x1280xf16>
  util.global private @_params.unet.down_blocks.2.attentions.0.transformer_blocks.0.attn1.to_v.weight {noinline} = #stream.parameter.named<"model"::"unet.down_blocks.2.attentions.0.transformer_blocks.0.attn1.to_v.weight"> : tensor<1280x1280xf16>
  util.global private @_params.unet.down_blocks.2.attentions.0.transformer_blocks.0.attn1.to_out.0.weight {noinline} = #stream.parameter.named<"model"::"unet.down_blocks.2.attentions.0.transformer_blocks.0.attn1.to_out.0.weight"> : tensor<1280x1280xf16>
  util.global private @_params.unet.down_blocks.2.attentions.0.transformer_blocks.0.attn1.to_out.0.bias {noinline} = #stream.parameter.named<"model"::"unet.down_blocks.2.attentions.0.transformer_blocks.0.attn1.to_out.0.bias"> : tensor<1280xf16>
  util.global private @_params.unet.down_blocks.2.attentions.0.transformer_blocks.0.norm2.weight {noinline} = #stream.parameter.named<"model"::"unet.down_blocks.2.attentions.0.transformer_blocks.0.norm2.weight"> : tensor<1280xf16>
  util.global private @_params.unet.down_blocks.2.attentions.0.transformer_blocks.0.norm2.bias {noinline} = #stream.parameter.named<"model"::"unet.down_blocks.2.attentions.0.transformer_blocks.0.norm2.bias"> : tensor<1280xf16>
  util.global private @_params.unet.down_blocks.2.attentions.0.transformer_blocks.0.attn2.to_q.weight {noinline} = #stream.parameter.named<"model"::"unet.down_blocks.2.attentions.0.transformer_blocks.0.attn2.to_q.weight"> : tensor<1280x1280xf16>
  util.global private @_params.unet.down_blocks.2.attentions.0.transformer_blocks.0.attn2.to_k.weight {noinline} = #stream.parameter.named<"model"::"unet.down_blocks.2.attentions.0.transformer_blocks.0.attn2.to_k.weight"> : tensor<1280x2048xf16>
  util.global private @_params.unet.down_blocks.2.attentions.0.transformer_blocks.0.attn2.to_v.weight {noinline} = #stream.parameter.named<"model"::"unet.down_blocks.2.attentions.0.transformer_blocks.0.attn2.to_v.weight"> : tensor<1280x2048xf16>
  util.global private @_params.unet.down_blocks.2.attentions.0.transformer_blocks.0.attn2.to_out.0.weight {noinline} = #stream.parameter.named<"model"::"unet.down_blocks.2.attentions.0.transformer_blocks.0.attn2.to_out.0.weight"> : tensor<1280x1280xf16>
  util.global private @_params.unet.down_blocks.2.attentions.0.transformer_blocks.0.attn2.to_out.0.bias {noinline} = #stream.parameter.named<"model"::"unet.down_blocks.2.attentions.0.transformer_blocks.0.attn2.to_out.0.bias"> : tensor<1280xf16>
  util.global private @_params.unet.down_blocks.2.attentions.0.transformer_blocks.0.norm3.weight {noinline} = #stream.parameter.named<"model"::"unet.down_blocks.2.attentions.0.transformer_blocks.0.norm3.weight"> : tensor<1280xf16>
  util.global private @_params.unet.down_blocks.2.attentions.0.transformer_blocks.0.norm3.bias {noinline} = #stream.parameter.named<"model"::"unet.down_blocks.2.attentions.0.transformer_blocks.0.norm3.bias"> : tensor<1280xf16>
  util.global private @_params.unet.down_blocks.2.attentions.0.transformer_blocks.0.ff.net.0.proj.weight {noinline} = #stream.parameter.named<"model"::"unet.down_blocks.2.attentions.0.transformer_blocks.0.ff.net.0.proj.weight"> : tensor<10240x1280xf16>
  util.global private @_params.unet.down_blocks.2.attentions.0.transformer_blocks.0.ff.net.0.proj.bias {noinline} = #stream.parameter.named<"model"::"unet.down_blocks.2.attentions.0.transformer_blocks.0.ff.net.0.proj.bias"> : tensor<10240xf16>
  util.global private @_params.unet.down_blocks.2.attentions.0.transformer_blocks.0.ff.net.2.weight {noinline} = #stream.parameter.named<"model"::"unet.down_blocks.2.attentions.0.transformer_blocks.0.ff.net.2.weight"> : tensor<1280x5120xf16>
  util.global private @_params.unet.down_blocks.2.attentions.0.transformer_blocks.0.ff.net.2.bias {noinline} = #stream.parameter.named<"model"::"unet.down_blocks.2.attentions.0.transformer_blocks.0.ff.net.2.bias"> : tensor<1280xf16>
  util.global private @_params.unet.down_blocks.2.attentions.0.transformer_blocks.1.norm1.weight {noinline} = #stream.parameter.named<"model"::"unet.down_blocks.2.attentions.0.transformer_blocks.1.norm1.weight"> : tensor<1280xf16>
  util.global private @_params.unet.down_blocks.2.attentions.0.transformer_blocks.1.norm1.bias {noinline} = #stream.parameter.named<"model"::"unet.down_blocks.2.attentions.0.transformer_blocks.1.norm1.bias"> : tensor<1280xf16>
  util.global private @_params.unet.down_blocks.2.attentions.0.transformer_blocks.1.attn1.to_q.weight {noinline} = #stream.parameter.named<"model"::"unet.down_blocks.2.attentions.0.transformer_blocks.1.attn1.to_q.weight"> : tensor<1280x1280xf16>
  util.global private @_params.unet.down_blocks.2.attentions.0.transformer_blocks.1.attn1.to_k.weight {noinline} = #stream.parameter.named<"model"::"unet.down_blocks.2.attentions.0.transformer_blocks.1.attn1.to_k.weight"> : tensor<1280x1280xf16>
  util.global private @_params.unet.down_blocks.2.attentions.0.transformer_blocks.1.attn1.to_v.weight {noinline} = #stream.parameter.named<"model"::"unet.down_blocks.2.attentions.0.transformer_blocks.1.attn1.to_v.weight"> : tensor<1280x1280xf16>
  util.global private @_params.unet.down_blocks.2.attentions.0.transformer_blocks.1.attn1.to_out.0.weight {noinline} = #stream.parameter.named<"model"::"unet.down_blocks.2.attentions.0.transformer_blocks.1.attn1.to_out.0.weight"> : tensor<1280x1280xf16>
  util.global private @_params.unet.down_blocks.2.attentions.0.transformer_blocks.1.attn1.to_out.0.bias {noinline} = #stream.parameter.named<"model"::"unet.down_blocks.2.attentions.0.transformer_blocks.1.attn1.to_out.0.bias"> : tensor<1280xf16>
  util.global private @_params.unet.down_blocks.2.attentions.0.transformer_blocks.1.norm2.weight {noinline} = #stream.parameter.named<"model"::"unet.down_blocks.2.attentions.0.transformer_blocks.1.norm2.weight"> : tensor<1280xf16>
  util.global private @_params.unet.down_blocks.2.attentions.0.transformer_blocks.1.norm2.bias {noinline} = #stream.parameter.named<"model"::"unet.down_blocks.2.attentions.0.transformer_blocks.1.norm2.bias"> : tensor<1280xf16>
  util.global private @_params.unet.down_blocks.2.attentions.0.transformer_blocks.1.attn2.to_q.weight {noinline} = #stream.parameter.named<"model"::"unet.down_blocks.2.attentions.0.transformer_blocks.1.attn2.to_q.weight"> : tensor<1280x1280xf16>
  util.global private @_params.unet.down_blocks.2.attentions.0.transformer_blocks.1.attn2.to_k.weight {noinline} = #stream.parameter.named<"model"::"unet.down_blocks.2.attentions.0.transformer_blocks.1.attn2.to_k.weight"> : tensor<1280x2048xf16>
  util.global private @_params.unet.down_blocks.2.attentions.0.transformer_blocks.1.attn2.to_v.weight {noinline} = #stream.parameter.named<"model"::"unet.down_blocks.2.attentions.0.transformer_blocks.1.attn2.to_v.weight"> : tensor<1280x2048xf16>
  util.global private @_params.unet.down_blocks.2.attentions.0.transformer_blocks.1.attn2.to_out.0.weight {noinline} = #stream.parameter.named<"model"::"unet.down_blocks.2.attentions.0.transformer_blocks.1.attn2.to_out.0.weight"> : tensor<1280x1280xf16>
  util.global private @_params.unet.down_blocks.2.attentions.0.transformer_blocks.1.attn2.to_out.0.bias {noinline} = #stream.parameter.named<"model"::"unet.down_blocks.2.attentions.0.transformer_blocks.1.attn2.to_out.0.bias"> : tensor<1280xf16>
  util.global private @_params.unet.down_blocks.2.attentions.0.transformer_blocks.1.norm3.weight {noinline} = #stream.parameter.named<"model"::"unet.down_blocks.2.attentions.0.transformer_blocks.1.norm3.weight"> : tensor<1280xf16>
  util.global private @_params.unet.down_blocks.2.attentions.0.transformer_blocks.1.norm3.bias {noinline} = #stream.parameter.named<"model"::"unet.down_blocks.2.attentions.0.transformer_blocks.1.norm3.bias"> : tensor<1280xf16>
  util.global private @_params.unet.down_blocks.2.attentions.0.transformer_blocks.1.ff.net.0.proj.weight {noinline} = #stream.parameter.named<"model"::"unet.down_blocks.2.attentions.0.transformer_blocks.1.ff.net.0.proj.weight"> : tensor<10240x1280xf16>
  util.global private @_params.unet.down_blocks.2.attentions.0.transformer_blocks.1.ff.net.0.proj.bias {noinline} = #stream.parameter.named<"model"::"unet.down_blocks.2.attentions.0.transformer_blocks.1.ff.net.0.proj.bias"> : tensor<10240xf16>
  util.global private @_params.unet.down_blocks.2.attentions.0.transformer_blocks.1.ff.net.2.weight {noinline} = #stream.parameter.named<"model"::"unet.down_blocks.2.attentions.0.transformer_blocks.1.ff.net.2.weight"> : tensor<1280x5120xf16>
  util.global private @_params.unet.down_blocks.2.attentions.0.transformer_blocks.1.ff.net.2.bias {noinline} = #stream.parameter.named<"model"::"unet.down_blocks.2.attentions.0.transformer_blocks.1.ff.net.2.bias"> : tensor<1280xf16>
  util.global private @_params.unet.down_blocks.2.attentions.0.transformer_blocks.2.norm1.weight {noinline} = #stream.parameter.named<"model"::"unet.down_blocks.2.attentions.0.transformer_blocks.2.norm1.weight"> : tensor<1280xf16>
  util.global private @_params.unet.down_blocks.2.attentions.0.transformer_blocks.2.norm1.bias {noinline} = #stream.parameter.named<"model"::"unet.down_blocks.2.attentions.0.transformer_blocks.2.norm1.bias"> : tensor<1280xf16>
  util.global private @_params.unet.down_blocks.2.attentions.0.transformer_blocks.2.attn1.to_q.weight {noinline} = #stream.parameter.named<"model"::"unet.down_blocks.2.attentions.0.transformer_blocks.2.attn1.to_q.weight"> : tensor<1280x1280xf16>
  util.global private @_params.unet.down_blocks.2.attentions.0.transformer_blocks.2.attn1.to_k.weight {noinline} = #stream.parameter.named<"model"::"unet.down_blocks.2.attentions.0.transformer_blocks.2.attn1.to_k.weight"> : tensor<1280x1280xf16>
  util.global private @_params.unet.down_blocks.2.attentions.0.transformer_blocks.2.attn1.to_v.weight {noinline} = #stream.parameter.named<"model"::"unet.down_blocks.2.attentions.0.transformer_blocks.2.attn1.to_v.weight"> : tensor<1280x1280xf16>
  util.global private @_params.unet.down_blocks.2.attentions.0.transformer_blocks.2.attn1.to_out.0.weight {noinline} = #stream.parameter.named<"model"::"unet.down_blocks.2.attentions.0.transformer_blocks.2.attn1.to_out.0.weight"> : tensor<1280x1280xf16>
  util.global private @_params.unet.down_blocks.2.attentions.0.transformer_blocks.2.attn1.to_out.0.bias {noinline} = #stream.parameter.named<"model"::"unet.down_blocks.2.attentions.0.transformer_blocks.2.attn1.to_out.0.bias"> : tensor<1280xf16>
  util.global private @_params.unet.down_blocks.2.attentions.0.transformer_blocks.2.norm2.weight {noinline} = #stream.parameter.named<"model"::"unet.down_blocks.2.attentions.0.transformer_blocks.2.norm2.weight"> : tensor<1280xf16>
  util.global private @_params.unet.down_blocks.2.attentions.0.transformer_blocks.2.norm2.bias {noinline} = #stream.parameter.named<"model"::"unet.down_blocks.2.attentions.0.transformer_blocks.2.norm2.bias"> : tensor<1280xf16>
  util.global private @_params.unet.down_blocks.2.attentions.0.transformer_blocks.2.attn2.to_q.weight {noinline} = #stream.parameter.named<"model"::"unet.down_blocks.2.attentions.0.transformer_blocks.2.attn2.to_q.weight"> : tensor<1280x1280xf16>
  util.global private @_params.unet.down_blocks.2.attentions.0.transformer_blocks.2.attn2.to_k.weight {noinline} = #stream.parameter.named<"model"::"unet.down_blocks.2.attentions.0.transformer_blocks.2.attn2.to_k.weight"> : tensor<1280x2048xf16>
  util.global private @_params.unet.down_blocks.2.attentions.0.transformer_blocks.2.attn2.to_v.weight {noinline} = #stream.parameter.named<"model"::"unet.down_blocks.2.attentions.0.transformer_blocks.2.attn2.to_v.weight"> : tensor<1280x2048xf16>
  util.global private @_params.unet.down_blocks.2.attentions.0.transformer_blocks.2.attn2.to_out.0.weight {noinline} = #stream.parameter.named<"model"::"unet.down_blocks.2.attentions.0.transformer_blocks.2.attn2.to_out.0.weight"> : tensor<1280x1280xf16>
  util.global private @_params.unet.down_blocks.2.attentions.0.transformer_blocks.2.attn2.to_out.0.bias {noinline} = #stream.parameter.named<"model"::"unet.down_blocks.2.attentions.0.transformer_blocks.2.attn2.to_out.0.bias"> : tensor<1280xf16>
  util.global private @_params.unet.down_blocks.2.attentions.0.transformer_blocks.2.norm3.weight {noinline} = #stream.parameter.named<"model"::"unet.down_blocks.2.attentions.0.transformer_blocks.2.norm3.weight"> : tensor<1280xf16>
  util.global private @_params.unet.down_blocks.2.attentions.0.transformer_blocks.2.norm3.bias {noinline} = #stream.parameter.named<"model"::"unet.down_blocks.2.attentions.0.transformer_blocks.2.norm3.bias"> : tensor<1280xf16>
  util.global private @_params.unet.down_blocks.2.attentions.0.transformer_blocks.2.ff.net.0.proj.weight {noinline} = #stream.parameter.named<"model"::"unet.down_blocks.2.attentions.0.transformer_blocks.2.ff.net.0.proj.weight"> : tensor<10240x1280xf16>
  util.global private @_params.unet.down_blocks.2.attentions.0.transformer_blocks.2.ff.net.0.proj.bias {noinline} = #stream.parameter.named<"model"::"unet.down_blocks.2.attentions.0.transformer_blocks.2.ff.net.0.proj.bias"> : tensor<10240xf16>
  util.global private @_params.unet.down_blocks.2.attentions.0.transformer_blocks.2.ff.net.2.weight {noinline} = #stream.parameter.named<"model"::"unet.down_blocks.2.attentions.0.transformer_blocks.2.ff.net.2.weight"> : tensor<1280x5120xf16>
  util.global private @_params.unet.down_blocks.2.attentions.0.transformer_blocks.2.ff.net.2.bias {noinline} = #stream.parameter.named<"model"::"unet.down_blocks.2.attentions.0.transformer_blocks.2.ff.net.2.bias"> : tensor<1280xf16>
  util.global private @_params.unet.down_blocks.2.attentions.0.transformer_blocks.3.norm1.weight {noinline} = #stream.parameter.named<"model"::"unet.down_blocks.2.attentions.0.transformer_blocks.3.norm1.weight"> : tensor<1280xf16>
  util.global private @_params.unet.down_blocks.2.attentions.0.transformer_blocks.3.norm1.bias {noinline} = #stream.parameter.named<"model"::"unet.down_blocks.2.attentions.0.transformer_blocks.3.norm1.bias"> : tensor<1280xf16>
  util.global private @_params.unet.down_blocks.2.attentions.0.transformer_blocks.3.attn1.to_q.weight {noinline} = #stream.parameter.named<"model"::"unet.down_blocks.2.attentions.0.transformer_blocks.3.attn1.to_q.weight"> : tensor<1280x1280xf16>
  util.global private @_params.unet.down_blocks.2.attentions.0.transformer_blocks.3.attn1.to_k.weight {noinline} = #stream.parameter.named<"model"::"unet.down_blocks.2.attentions.0.transformer_blocks.3.attn1.to_k.weight"> : tensor<1280x1280xf16>
  util.global private @_params.unet.down_blocks.2.attentions.0.transformer_blocks.3.attn1.to_v.weight {noinline} = #stream.parameter.named<"model"::"unet.down_blocks.2.attentions.0.transformer_blocks.3.attn1.to_v.weight"> : tensor<1280x1280xf16>
  util.global private @_params.unet.down_blocks.2.attentions.0.transformer_blocks.3.attn1.to_out.0.weight {noinline} = #stream.parameter.named<"model"::"unet.down_blocks.2.attentions.0.transformer_blocks.3.attn1.to_out.0.weight"> : tensor<1280x1280xf16>
  util.global private @_params.unet.down_blocks.2.attentions.0.transformer_blocks.3.attn1.to_out.0.bias {noinline} = #stream.parameter.named<"model"::"unet.down_blocks.2.attentions.0.transformer_blocks.3.attn1.to_out.0.bias"> : tensor<1280xf16>
  util.global private @_params.unet.down_blocks.2.attentions.0.transformer_blocks.3.norm2.weight {noinline} = #stream.parameter.named<"model"::"unet.down_blocks.2.attentions.0.transformer_blocks.3.norm2.weight"> : tensor<1280xf16>
  util.global private @_params.unet.down_blocks.2.attentions.0.transformer_blocks.3.norm2.bias {noinline} = #stream.parameter.named<"model"::"unet.down_blocks.2.attentions.0.transformer_blocks.3.norm2.bias"> : tensor<1280xf16>
  util.global private @_params.unet.down_blocks.2.attentions.0.transformer_blocks.3.attn2.to_q.weight {noinline} = #stream.parameter.named<"model"::"unet.down_blocks.2.attentions.0.transformer_blocks.3.attn2.to_q.weight"> : tensor<1280x1280xf16>
  util.global private @_params.unet.down_blocks.2.attentions.0.transformer_blocks.3.attn2.to_k.weight {noinline} = #stream.parameter.named<"model"::"unet.down_blocks.2.attentions.0.transformer_blocks.3.attn2.to_k.weight"> : tensor<1280x2048xf16>
  util.global private @_params.unet.down_blocks.2.attentions.0.transformer_blocks.3.attn2.to_v.weight {noinline} = #stream.parameter.named<"model"::"unet.down_blocks.2.attentions.0.transformer_blocks.3.attn2.to_v.weight"> : tensor<1280x2048xf16>
  util.global private @_params.unet.down_blocks.2.attentions.0.transformer_blocks.3.attn2.to_out.0.weight {noinline} = #stream.parameter.named<"model"::"unet.down_blocks.2.attentions.0.transformer_blocks.3.attn2.to_out.0.weight"> : tensor<1280x1280xf16>
  util.global private @_params.unet.down_blocks.2.attentions.0.transformer_blocks.3.attn2.to_out.0.bias {noinline} = #stream.parameter.named<"model"::"unet.down_blocks.2.attentions.0.transformer_blocks.3.attn2.to_out.0.bias"> : tensor<1280xf16>
  util.global private @_params.unet.down_blocks.2.attentions.0.transformer_blocks.3.norm3.weight {noinline} = #stream.parameter.named<"model"::"unet.down_blocks.2.attentions.0.transformer_blocks.3.norm3.weight"> : tensor<1280xf16>
  util.global private @_params.unet.down_blocks.2.attentions.0.transformer_blocks.3.norm3.bias {noinline} = #stream.parameter.named<"model"::"unet.down_blocks.2.attentions.0.transformer_blocks.3.norm3.bias"> : tensor<1280xf16>
  util.global private @_params.unet.down_blocks.2.attentions.0.transformer_blocks.3.ff.net.0.proj.weight {noinline} = #stream.parameter.named<"model"::"unet.down_blocks.2.attentions.0.transformer_blocks.3.ff.net.0.proj.weight"> : tensor<10240x1280xf16>
  util.global private @_params.unet.down_blocks.2.attentions.0.transformer_blocks.3.ff.net.0.proj.bias {noinline} = #stream.parameter.named<"model"::"unet.down_blocks.2.attentions.0.transformer_blocks.3.ff.net.0.proj.bias"> : tensor<10240xf16>
  util.global private @_params.unet.down_blocks.2.attentions.0.transformer_blocks.3.ff.net.2.weight {noinline} = #stream.parameter.named<"model"::"unet.down_blocks.2.attentions.0.transformer_blocks.3.ff.net.2.weight"> : tensor<1280x5120xf16>
  util.global private @_params.unet.down_blocks.2.attentions.0.transformer_blocks.3.ff.net.2.bias {noinline} = #stream.parameter.named<"model"::"unet.down_blocks.2.attentions.0.transformer_blocks.3.ff.net.2.bias"> : tensor<1280xf16>
  util.global private @_params.unet.down_blocks.2.attentions.0.transformer_blocks.4.norm1.weight {noinline} = #stream.parameter.named<"model"::"unet.down_blocks.2.attentions.0.transformer_blocks.4.norm1.weight"> : tensor<1280xf16>
  util.global private @_params.unet.down_blocks.2.attentions.0.transformer_blocks.4.norm1.bias {noinline} = #stream.parameter.named<"model"::"unet.down_blocks.2.attentions.0.transformer_blocks.4.norm1.bias"> : tensor<1280xf16>
  util.global private @_params.unet.down_blocks.2.attentions.0.transformer_blocks.4.attn1.to_q.weight {noinline} = #stream.parameter.named<"model"::"unet.down_blocks.2.attentions.0.transformer_blocks.4.attn1.to_q.weight"> : tensor<1280x1280xf16>
  util.global private @_params.unet.down_blocks.2.attentions.0.transformer_blocks.4.attn1.to_k.weight {noinline} = #stream.parameter.named<"model"::"unet.down_blocks.2.attentions.0.transformer_blocks.4.attn1.to_k.weight"> : tensor<1280x1280xf16>
  util.global private @_params.unet.down_blocks.2.attentions.0.transformer_blocks.4.attn1.to_v.weight {noinline} = #stream.parameter.named<"model"::"unet.down_blocks.2.attentions.0.transformer_blocks.4.attn1.to_v.weight"> : tensor<1280x1280xf16>
  util.global private @_params.unet.down_blocks.2.attentions.0.transformer_blocks.4.attn1.to_out.0.weight {noinline} = #stream.parameter.named<"model"::"unet.down_blocks.2.attentions.0.transformer_blocks.4.attn1.to_out.0.weight"> : tensor<1280x1280xf16>
  util.global private @_params.unet.down_blocks.2.attentions.0.transformer_blocks.4.attn1.to_out.0.bias {noinline} = #stream.parameter.named<"model"::"unet.down_blocks.2.attentions.0.transformer_blocks.4.attn1.to_out.0.bias"> : tensor<1280xf16>
  util.global private @_params.unet.down_blocks.2.attentions.0.transformer_blocks.4.norm2.weight {noinline} = #stream.parameter.named<"model"::"unet.down_blocks.2.attentions.0.transformer_blocks.4.norm2.weight"> : tensor<1280xf16>
  util.global private @_params.unet.down_blocks.2.attentions.0.transformer_blocks.4.norm2.bias {noinline} = #stream.parameter.named<"model"::"unet.down_blocks.2.attentions.0.transformer_blocks.4.norm2.bias"> : tensor<1280xf16>
  util.global private @_params.unet.down_blocks.2.attentions.0.transformer_blocks.4.attn2.to_q.weight {noinline} = #stream.parameter.named<"model"::"unet.down_blocks.2.attentions.0.transformer_blocks.4.attn2.to_q.weight"> : tensor<1280x1280xf16>
  util.global private @_params.unet.down_blocks.2.attentions.0.transformer_blocks.4.attn2.to_k.weight {noinline} = #stream.parameter.named<"model"::"unet.down_blocks.2.attentions.0.transformer_blocks.4.attn2.to_k.weight"> : tensor<1280x2048xf16>
  util.global private @_params.unet.down_blocks.2.attentions.0.transformer_blocks.4.attn2.to_v.weight {noinline} = #stream.parameter.named<"model"::"unet.down_blocks.2.attentions.0.transformer_blocks.4.attn2.to_v.weight"> : tensor<1280x2048xf16>
  util.global private @_params.unet.down_blocks.2.attentions.0.transformer_blocks.4.attn2.to_out.0.weight {noinline} = #stream.parameter.named<"model"::"unet.down_blocks.2.attentions.0.transformer_blocks.4.attn2.to_out.0.weight"> : tensor<1280x1280xf16>
  util.global private @_params.unet.down_blocks.2.attentions.0.transformer_blocks.4.attn2.to_out.0.bias {noinline} = #stream.parameter.named<"model"::"unet.down_blocks.2.attentions.0.transformer_blocks.4.attn2.to_out.0.bias"> : tensor<1280xf16>
  util.global private @_params.unet.down_blocks.2.attentions.0.transformer_blocks.4.norm3.weight {noinline} = #stream.parameter.named<"model"::"unet.down_blocks.2.attentions.0.transformer_blocks.4.norm3.weight"> : tensor<1280xf16>
  util.global private @_params.unet.down_blocks.2.attentions.0.transformer_blocks.4.norm3.bias {noinline} = #stream.parameter.named<"model"::"unet.down_blocks.2.attentions.0.transformer_blocks.4.norm3.bias"> : tensor<1280xf16>
  util.global private @_params.unet.down_blocks.2.attentions.0.transformer_blocks.4.ff.net.0.proj.weight {noinline} = #stream.parameter.named<"model"::"unet.down_blocks.2.attentions.0.transformer_blocks.4.ff.net.0.proj.weight"> : tensor<10240x1280xf16>
  util.global private @_params.unet.down_blocks.2.attentions.0.transformer_blocks.4.ff.net.0.proj.bias {noinline} = #stream.parameter.named<"model"::"unet.down_blocks.2.attentions.0.transformer_blocks.4.ff.net.0.proj.bias"> : tensor<10240xf16>
  util.global private @_params.unet.down_blocks.2.attentions.0.transformer_blocks.4.ff.net.2.weight {noinline} = #stream.parameter.named<"model"::"unet.down_blocks.2.attentions.0.transformer_blocks.4.ff.net.2.weight"> : tensor<1280x5120xf16>
  util.global private @_params.unet.down_blocks.2.attentions.0.transformer_blocks.4.ff.net.2.bias {noinline} = #stream.parameter.named<"model"::"unet.down_blocks.2.attentions.0.transformer_blocks.4.ff.net.2.bias"> : tensor<1280xf16>
  util.global private @_params.unet.down_blocks.2.attentions.0.transformer_blocks.5.norm1.weight {noinline} = #stream.parameter.named<"model"::"unet.down_blocks.2.attentions.0.transformer_blocks.5.norm1.weight"> : tensor<1280xf16>
  util.global private @_params.unet.down_blocks.2.attentions.0.transformer_blocks.5.norm1.bias {noinline} = #stream.parameter.named<"model"::"unet.down_blocks.2.attentions.0.transformer_blocks.5.norm1.bias"> : tensor<1280xf16>
  util.global private @_params.unet.down_blocks.2.attentions.0.transformer_blocks.5.attn1.to_q.weight {noinline} = #stream.parameter.named<"model"::"unet.down_blocks.2.attentions.0.transformer_blocks.5.attn1.to_q.weight"> : tensor<1280x1280xf16>
  util.global private @_params.unet.down_blocks.2.attentions.0.transformer_blocks.5.attn1.to_k.weight {noinline} = #stream.parameter.named<"model"::"unet.down_blocks.2.attentions.0.transformer_blocks.5.attn1.to_k.weight"> : tensor<1280x1280xf16>
  util.global private @_params.unet.down_blocks.2.attentions.0.transformer_blocks.5.attn1.to_v.weight {noinline} = #stream.parameter.named<"model"::"unet.down_blocks.2.attentions.0.transformer_blocks.5.attn1.to_v.weight"> : tensor<1280x1280xf16>
  util.global private @_params.unet.down_blocks.2.attentions.0.transformer_blocks.5.attn1.to_out.0.weight {noinline} = #stream.parameter.named<"model"::"unet.down_blocks.2.attentions.0.transformer_blocks.5.attn1.to_out.0.weight"> : tensor<1280x1280xf16>
  util.global private @_params.unet.down_blocks.2.attentions.0.transformer_blocks.5.attn1.to_out.0.bias {noinline} = #stream.parameter.named<"model"::"unet.down_blocks.2.attentions.0.transformer_blocks.5.attn1.to_out.0.bias"> : tensor<1280xf16>
  util.global private @_params.unet.down_blocks.2.attentions.0.transformer_blocks.5.norm2.weight {noinline} = #stream.parameter.named<"model"::"unet.down_blocks.2.attentions.0.transformer_blocks.5.norm2.weight"> : tensor<1280xf16>
  util.global private @_params.unet.down_blocks.2.attentions.0.transformer_blocks.5.norm2.bias {noinline} = #stream.parameter.named<"model"::"unet.down_blocks.2.attentions.0.transformer_blocks.5.norm2.bias"> : tensor<1280xf16>
  util.global private @_params.unet.down_blocks.2.attentions.0.transformer_blocks.5.attn2.to_q.weight {noinline} = #stream.parameter.named<"model"::"unet.down_blocks.2.attentions.0.transformer_blocks.5.attn2.to_q.weight"> : tensor<1280x1280xf16>
  util.global private @_params.unet.down_blocks.2.attentions.0.transformer_blocks.5.attn2.to_k.weight {noinline} = #stream.parameter.named<"model"::"unet.down_blocks.2.attentions.0.transformer_blocks.5.attn2.to_k.weight"> : tensor<1280x2048xf16>
  util.global private @_params.unet.down_blocks.2.attentions.0.transformer_blocks.5.attn2.to_v.weight {noinline} = #stream.parameter.named<"model"::"unet.down_blocks.2.attentions.0.transformer_blocks.5.attn2.to_v.weight"> : tensor<1280x2048xf16>
  util.global private @_params.unet.down_blocks.2.attentions.0.transformer_blocks.5.attn2.to_out.0.weight {noinline} = #stream.parameter.named<"model"::"unet.down_blocks.2.attentions.0.transformer_blocks.5.attn2.to_out.0.weight"> : tensor<1280x1280xf16>
  util.global private @_params.unet.down_blocks.2.attentions.0.transformer_blocks.5.attn2.to_out.0.bias {noinline} = #stream.parameter.named<"model"::"unet.down_blocks.2.attentions.0.transformer_blocks.5.attn2.to_out.0.bias"> : tensor<1280xf16>
  util.global private @_params.unet.down_blocks.2.attentions.0.transformer_blocks.5.norm3.weight {noinline} = #stream.parameter.named<"model"::"unet.down_blocks.2.attentions.0.transformer_blocks.5.norm3.weight"> : tensor<1280xf16>
  util.global private @_params.unet.down_blocks.2.attentions.0.transformer_blocks.5.norm3.bias {noinline} = #stream.parameter.named<"model"::"unet.down_blocks.2.attentions.0.transformer_blocks.5.norm3.bias"> : tensor<1280xf16>
  util.global private @_params.unet.down_blocks.2.attentions.0.transformer_blocks.5.ff.net.0.proj.weight {noinline} = #stream.parameter.named<"model"::"unet.down_blocks.2.attentions.0.transformer_blocks.5.ff.net.0.proj.weight"> : tensor<10240x1280xf16>
  util.global private @_params.unet.down_blocks.2.attentions.0.transformer_blocks.5.ff.net.0.proj.bias {noinline} = #stream.parameter.named<"model"::"unet.down_blocks.2.attentions.0.transformer_blocks.5.ff.net.0.proj.bias"> : tensor<10240xf16>
  util.global private @_params.unet.down_blocks.2.attentions.0.transformer_blocks.5.ff.net.2.weight {noinline} = #stream.parameter.named<"model"::"unet.down_blocks.2.attentions.0.transformer_blocks.5.ff.net.2.weight"> : tensor<1280x5120xf16>
  util.global private @_params.unet.down_blocks.2.attentions.0.transformer_blocks.5.ff.net.2.bias {noinline} = #stream.parameter.named<"model"::"unet.down_blocks.2.attentions.0.transformer_blocks.5.ff.net.2.bias"> : tensor<1280xf16>
  util.global private @_params.unet.down_blocks.2.attentions.0.transformer_blocks.6.norm1.weight {noinline} = #stream.parameter.named<"model"::"unet.down_blocks.2.attentions.0.transformer_blocks.6.norm1.weight"> : tensor<1280xf16>
  util.global private @_params.unet.down_blocks.2.attentions.0.transformer_blocks.6.norm1.bias {noinline} = #stream.parameter.named<"model"::"unet.down_blocks.2.attentions.0.transformer_blocks.6.norm1.bias"> : tensor<1280xf16>
  util.global private @_params.unet.down_blocks.2.attentions.0.transformer_blocks.6.attn1.to_q.weight {noinline} = #stream.parameter.named<"model"::"unet.down_blocks.2.attentions.0.transformer_blocks.6.attn1.to_q.weight"> : tensor<1280x1280xf16>
  util.global private @_params.unet.down_blocks.2.attentions.0.transformer_blocks.6.attn1.to_k.weight {noinline} = #stream.parameter.named<"model"::"unet.down_blocks.2.attentions.0.transformer_blocks.6.attn1.to_k.weight"> : tensor<1280x1280xf16>
  util.global private @_params.unet.down_blocks.2.attentions.0.transformer_blocks.6.attn1.to_v.weight {noinline} = #stream.parameter.named<"model"::"unet.down_blocks.2.attentions.0.transformer_blocks.6.attn1.to_v.weight"> : tensor<1280x1280xf16>
  util.global private @_params.unet.down_blocks.2.attentions.0.transformer_blocks.6.attn1.to_out.0.weight {noinline} = #stream.parameter.named<"model"::"unet.down_blocks.2.attentions.0.transformer_blocks.6.attn1.to_out.0.weight"> : tensor<1280x1280xf16>
  util.global private @_params.unet.down_blocks.2.attentions.0.transformer_blocks.6.attn1.to_out.0.bias {noinline} = #stream.parameter.named<"model"::"unet.down_blocks.2.attentions.0.transformer_blocks.6.attn1.to_out.0.bias"> : tensor<1280xf16>
  util.global private @_params.unet.down_blocks.2.attentions.0.transformer_blocks.6.norm2.weight {noinline} = #stream.parameter.named<"model"::"unet.down_blocks.2.attentions.0.transformer_blocks.6.norm2.weight"> : tensor<1280xf16>
  util.global private @_params.unet.down_blocks.2.attentions.0.transformer_blocks.6.norm2.bias {noinline} = #stream.parameter.named<"model"::"unet.down_blocks.2.attentions.0.transformer_blocks.6.norm2.bias"> : tensor<1280xf16>
  util.global private @_params.unet.down_blocks.2.attentions.0.transformer_blocks.6.attn2.to_q.weight {noinline} = #stream.parameter.named<"model"::"unet.down_blocks.2.attentions.0.transformer_blocks.6.attn2.to_q.weight"> : tensor<1280x1280xf16>
  util.global private @_params.unet.down_blocks.2.attentions.0.transformer_blocks.6.attn2.to_k.weight {noinline} = #stream.parameter.named<"model"::"unet.down_blocks.2.attentions.0.transformer_blocks.6.attn2.to_k.weight"> : tensor<1280x2048xf16>
  util.global private @_params.unet.down_blocks.2.attentions.0.transformer_blocks.6.attn2.to_v.weight {noinline} = #stream.parameter.named<"model"::"unet.down_blocks.2.attentions.0.transformer_blocks.6.attn2.to_v.weight"> : tensor<1280x2048xf16>
  util.global private @_params.unet.down_blocks.2.attentions.0.transformer_blocks.6.attn2.to_out.0.weight {noinline} = #stream.parameter.named<"model"::"unet.down_blocks.2.attentions.0.transformer_blocks.6.attn2.to_out.0.weight"> : tensor<1280x1280xf16>
  util.global private @_params.unet.down_blocks.2.attentions.0.transformer_blocks.6.attn2.to_out.0.bias {noinline} = #stream.parameter.named<"model"::"unet.down_blocks.2.attentions.0.transformer_blocks.6.attn2.to_out.0.bias"> : tensor<1280xf16>
  util.global private @_params.unet.down_blocks.2.attentions.0.transformer_blocks.6.norm3.weight {noinline} = #stream.parameter.named<"model"::"unet.down_blocks.2.attentions.0.transformer_blocks.6.norm3.weight"> : tensor<1280xf16>
  util.global private @_params.unet.down_blocks.2.attentions.0.transformer_blocks.6.norm3.bias {noinline} = #stream.parameter.named<"model"::"unet.down_blocks.2.attentions.0.transformer_blocks.6.norm3.bias"> : tensor<1280xf16>
  util.global private @_params.unet.down_blocks.2.attentions.0.transformer_blocks.6.ff.net.0.proj.weight {noinline} = #stream.parameter.named<"model"::"unet.down_blocks.2.attentions.0.transformer_blocks.6.ff.net.0.proj.weight"> : tensor<10240x1280xf16>
  util.global private @_params.unet.down_blocks.2.attentions.0.transformer_blocks.6.ff.net.0.proj.bias {noinline} = #stream.parameter.named<"model"::"unet.down_blocks.2.attentions.0.transformer_blocks.6.ff.net.0.proj.bias"> : tensor<10240xf16>
  util.global private @_params.unet.down_blocks.2.attentions.0.transformer_blocks.6.ff.net.2.weight {noinline} = #stream.parameter.named<"model"::"unet.down_blocks.2.attentions.0.transformer_blocks.6.ff.net.2.weight"> : tensor<1280x5120xf16>
  util.global private @_params.unet.down_blocks.2.attentions.0.transformer_blocks.6.ff.net.2.bias {noinline} = #stream.parameter.named<"model"::"unet.down_blocks.2.attentions.0.transformer_blocks.6.ff.net.2.bias"> : tensor<1280xf16>
  util.global private @_params.unet.down_blocks.2.attentions.0.transformer_blocks.7.norm1.weight {noinline} = #stream.parameter.named<"model"::"unet.down_blocks.2.attentions.0.transformer_blocks.7.norm1.weight"> : tensor<1280xf16>
  util.global private @_params.unet.down_blocks.2.attentions.0.transformer_blocks.7.norm1.bias {noinline} = #stream.parameter.named<"model"::"unet.down_blocks.2.attentions.0.transformer_blocks.7.norm1.bias"> : tensor<1280xf16>
  util.global private @_params.unet.down_blocks.2.attentions.0.transformer_blocks.7.attn1.to_q.weight {noinline} = #stream.parameter.named<"model"::"unet.down_blocks.2.attentions.0.transformer_blocks.7.attn1.to_q.weight"> : tensor<1280x1280xf16>
  util.global private @_params.unet.down_blocks.2.attentions.0.transformer_blocks.7.attn1.to_k.weight {noinline} = #stream.parameter.named<"model"::"unet.down_blocks.2.attentions.0.transformer_blocks.7.attn1.to_k.weight"> : tensor<1280x1280xf16>
  util.global private @_params.unet.down_blocks.2.attentions.0.transformer_blocks.7.attn1.to_v.weight {noinline} = #stream.parameter.named<"model"::"unet.down_blocks.2.attentions.0.transformer_blocks.7.attn1.to_v.weight"> : tensor<1280x1280xf16>
  util.global private @_params.unet.down_blocks.2.attentions.0.transformer_blocks.7.attn1.to_out.0.weight {noinline} = #stream.parameter.named<"model"::"unet.down_blocks.2.attentions.0.transformer_blocks.7.attn1.to_out.0.weight"> : tensor<1280x1280xf16>
  util.global private @_params.unet.down_blocks.2.attentions.0.transformer_blocks.7.attn1.to_out.0.bias {noinline} = #stream.parameter.named<"model"::"unet.down_blocks.2.attentions.0.transformer_blocks.7.attn1.to_out.0.bias"> : tensor<1280xf16>
  util.global private @_params.unet.down_blocks.2.attentions.0.transformer_blocks.7.norm2.weight {noinline} = #stream.parameter.named<"model"::"unet.down_blocks.2.attentions.0.transformer_blocks.7.norm2.weight"> : tensor<1280xf16>
  util.global private @_params.unet.down_blocks.2.attentions.0.transformer_blocks.7.norm2.bias {noinline} = #stream.parameter.named<"model"::"unet.down_blocks.2.attentions.0.transformer_blocks.7.norm2.bias"> : tensor<1280xf16>
  util.global private @_params.unet.down_blocks.2.attentions.0.transformer_blocks.7.attn2.to_q.weight {noinline} = #stream.parameter.named<"model"::"unet.down_blocks.2.attentions.0.transformer_blocks.7.attn2.to_q.weight"> : tensor<1280x1280xf16>
  util.global private @_params.unet.down_blocks.2.attentions.0.transformer_blocks.7.attn2.to_k.weight {noinline} = #stream.parameter.named<"model"::"unet.down_blocks.2.attentions.0.transformer_blocks.7.attn2.to_k.weight"> : tensor<1280x2048xf16>
  util.global private @_params.unet.down_blocks.2.attentions.0.transformer_blocks.7.attn2.to_v.weight {noinline} = #stream.parameter.named<"model"::"unet.down_blocks.2.attentions.0.transformer_blocks.7.attn2.to_v.weight"> : tensor<1280x2048xf16>
  util.global private @_params.unet.down_blocks.2.attentions.0.transformer_blocks.7.attn2.to_out.0.weight {noinline} = #stream.parameter.named<"model"::"unet.down_blocks.2.attentions.0.transformer_blocks.7.attn2.to_out.0.weight"> : tensor<1280x1280xf16>
  util.global private @_params.unet.down_blocks.2.attentions.0.transformer_blocks.7.attn2.to_out.0.bias {noinline} = #stream.parameter.named<"model"::"unet.down_blocks.2.attentions.0.transformer_blocks.7.attn2.to_out.0.bias"> : tensor<1280xf16>
  util.global private @_params.unet.down_blocks.2.attentions.0.transformer_blocks.7.norm3.weight {noinline} = #stream.parameter.named<"model"::"unet.down_blocks.2.attentions.0.transformer_blocks.7.norm3.weight"> : tensor<1280xf16>
  util.global private @_params.unet.down_blocks.2.attentions.0.transformer_blocks.7.norm3.bias {noinline} = #stream.parameter.named<"model"::"unet.down_blocks.2.attentions.0.transformer_blocks.7.norm3.bias"> : tensor<1280xf16>
  util.global private @_params.unet.down_blocks.2.attentions.0.transformer_blocks.7.ff.net.0.proj.weight {noinline} = #stream.parameter.named<"model"::"unet.down_blocks.2.attentions.0.transformer_blocks.7.ff.net.0.proj.weight"> : tensor<10240x1280xf16>
  util.global private @_params.unet.down_blocks.2.attentions.0.transformer_blocks.7.ff.net.0.proj.bias {noinline} = #stream.parameter.named<"model"::"unet.down_blocks.2.attentions.0.transformer_blocks.7.ff.net.0.proj.bias"> : tensor<10240xf16>
  util.global private @_params.unet.down_blocks.2.attentions.0.transformer_blocks.7.ff.net.2.weight {noinline} = #stream.parameter.named<"model"::"unet.down_blocks.2.attentions.0.transformer_blocks.7.ff.net.2.weight"> : tensor<1280x5120xf16>
  util.global private @_params.unet.down_blocks.2.attentions.0.transformer_blocks.7.ff.net.2.bias {noinline} = #stream.parameter.named<"model"::"unet.down_blocks.2.attentions.0.transformer_blocks.7.ff.net.2.bias"> : tensor<1280xf16>
  util.global private @_params.unet.down_blocks.2.attentions.0.transformer_blocks.8.norm1.weight {noinline} = #stream.parameter.named<"model"::"unet.down_blocks.2.attentions.0.transformer_blocks.8.norm1.weight"> : tensor<1280xf16>
  util.global private @_params.unet.down_blocks.2.attentions.0.transformer_blocks.8.norm1.bias {noinline} = #stream.parameter.named<"model"::"unet.down_blocks.2.attentions.0.transformer_blocks.8.norm1.bias"> : tensor<1280xf16>
  util.global private @_params.unet.down_blocks.2.attentions.0.transformer_blocks.8.attn1.to_q.weight {noinline} = #stream.parameter.named<"model"::"unet.down_blocks.2.attentions.0.transformer_blocks.8.attn1.to_q.weight"> : tensor<1280x1280xf16>
  util.global private @_params.unet.down_blocks.2.attentions.0.transformer_blocks.8.attn1.to_k.weight {noinline} = #stream.parameter.named<"model"::"unet.down_blocks.2.attentions.0.transformer_blocks.8.attn1.to_k.weight"> : tensor<1280x1280xf16>
  util.global private @_params.unet.down_blocks.2.attentions.0.transformer_blocks.8.attn1.to_v.weight {noinline} = #stream.parameter.named<"model"::"unet.down_blocks.2.attentions.0.transformer_blocks.8.attn1.to_v.weight"> : tensor<1280x1280xf16>
  util.global private @_params.unet.down_blocks.2.attentions.0.transformer_blocks.8.attn1.to_out.0.weight {noinline} = #stream.parameter.named<"model"::"unet.down_blocks.2.attentions.0.transformer_blocks.8.attn1.to_out.0.weight"> : tensor<1280x1280xf16>
  util.global private @_params.unet.down_blocks.2.attentions.0.transformer_blocks.8.attn1.to_out.0.bias {noinline} = #stream.parameter.named<"model"::"unet.down_blocks.2.attentions.0.transformer_blocks.8.attn1.to_out.0.bias"> : tensor<1280xf16>
  util.global private @_params.unet.down_blocks.2.attentions.0.transformer_blocks.8.norm2.weight {noinline} = #stream.parameter.named<"model"::"unet.down_blocks.2.attentions.0.transformer_blocks.8.norm2.weight"> : tensor<1280xf16>
  util.global private @_params.unet.down_blocks.2.attentions.0.transformer_blocks.8.norm2.bias {noinline} = #stream.parameter.named<"model"::"unet.down_blocks.2.attentions.0.transformer_blocks.8.norm2.bias"> : tensor<1280xf16>
  util.global private @_params.unet.down_blocks.2.attentions.0.transformer_blocks.8.attn2.to_q.weight {noinline} = #stream.parameter.named<"model"::"unet.down_blocks.2.attentions.0.transformer_blocks.8.attn2.to_q.weight"> : tensor<1280x1280xf16>
  util.global private @_params.unet.down_blocks.2.attentions.0.transformer_blocks.8.attn2.to_k.weight {noinline} = #stream.parameter.named<"model"::"unet.down_blocks.2.attentions.0.transformer_blocks.8.attn2.to_k.weight"> : tensor<1280x2048xf16>
  util.global private @_params.unet.down_blocks.2.attentions.0.transformer_blocks.8.attn2.to_v.weight {noinline} = #stream.parameter.named<"model"::"unet.down_blocks.2.attentions.0.transformer_blocks.8.attn2.to_v.weight"> : tensor<1280x2048xf16>
  util.global private @_params.unet.down_blocks.2.attentions.0.transformer_blocks.8.attn2.to_out.0.weight {noinline} = #stream.parameter.named<"model"::"unet.down_blocks.2.attentions.0.transformer_blocks.8.attn2.to_out.0.weight"> : tensor<1280x1280xf16>
  util.global private @_params.unet.down_blocks.2.attentions.0.transformer_blocks.8.attn2.to_out.0.bias {noinline} = #stream.parameter.named<"model"::"unet.down_blocks.2.attentions.0.transformer_blocks.8.attn2.to_out.0.bias"> : tensor<1280xf16>
  util.global private @_params.unet.down_blocks.2.attentions.0.transformer_blocks.8.norm3.weight {noinline} = #stream.parameter.named<"model"::"unet.down_blocks.2.attentions.0.transformer_blocks.8.norm3.weight"> : tensor<1280xf16>
  util.global private @_params.unet.down_blocks.2.attentions.0.transformer_blocks.8.norm3.bias {noinline} = #stream.parameter.named<"model"::"unet.down_blocks.2.attentions.0.transformer_blocks.8.norm3.bias"> : tensor<1280xf16>
  util.global private @_params.unet.down_blocks.2.attentions.0.transformer_blocks.8.ff.net.0.proj.weight {noinline} = #stream.parameter.named<"model"::"unet.down_blocks.2.attentions.0.transformer_blocks.8.ff.net.0.proj.weight"> : tensor<10240x1280xf16>
  util.global private @_params.unet.down_blocks.2.attentions.0.transformer_blocks.8.ff.net.0.proj.bias {noinline} = #stream.parameter.named<"model"::"unet.down_blocks.2.attentions.0.transformer_blocks.8.ff.net.0.proj.bias"> : tensor<10240xf16>
  util.global private @_params.unet.down_blocks.2.attentions.0.transformer_blocks.8.ff.net.2.weight {noinline} = #stream.parameter.named<"model"::"unet.down_blocks.2.attentions.0.transformer_blocks.8.ff.net.2.weight"> : tensor<1280x5120xf16>
  util.global private @_params.unet.down_blocks.2.attentions.0.transformer_blocks.8.ff.net.2.bias {noinline} = #stream.parameter.named<"model"::"unet.down_blocks.2.attentions.0.transformer_blocks.8.ff.net.2.bias"> : tensor<1280xf16>
  util.global private @_params.unet.down_blocks.2.attentions.0.transformer_blocks.9.norm1.weight {noinline} = #stream.parameter.named<"model"::"unet.down_blocks.2.attentions.0.transformer_blocks.9.norm1.weight"> : tensor<1280xf16>
  util.global private @_params.unet.down_blocks.2.attentions.0.transformer_blocks.9.norm1.bias {noinline} = #stream.parameter.named<"model"::"unet.down_blocks.2.attentions.0.transformer_blocks.9.norm1.bias"> : tensor<1280xf16>
  util.global private @_params.unet.down_blocks.2.attentions.0.transformer_blocks.9.attn1.to_q.weight {noinline} = #stream.parameter.named<"model"::"unet.down_blocks.2.attentions.0.transformer_blocks.9.attn1.to_q.weight"> : tensor<1280x1280xf16>
  util.global private @_params.unet.down_blocks.2.attentions.0.transformer_blocks.9.attn1.to_k.weight {noinline} = #stream.parameter.named<"model"::"unet.down_blocks.2.attentions.0.transformer_blocks.9.attn1.to_k.weight"> : tensor<1280x1280xf16>
  util.global private @_params.unet.down_blocks.2.attentions.0.transformer_blocks.9.attn1.to_v.weight {noinline} = #stream.parameter.named<"model"::"unet.down_blocks.2.attentions.0.transformer_blocks.9.attn1.to_v.weight"> : tensor<1280x1280xf16>
  util.global private @_params.unet.down_blocks.2.attentions.0.transformer_blocks.9.attn1.to_out.0.weight {noinline} = #stream.parameter.named<"model"::"unet.down_blocks.2.attentions.0.transformer_blocks.9.attn1.to_out.0.weight"> : tensor<1280x1280xf16>
  util.global private @_params.unet.down_blocks.2.attentions.0.transformer_blocks.9.attn1.to_out.0.bias {noinline} = #stream.parameter.named<"model"::"unet.down_blocks.2.attentions.0.transformer_blocks.9.attn1.to_out.0.bias"> : tensor<1280xf16>
  util.global private @_params.unet.down_blocks.2.attentions.0.transformer_blocks.9.norm2.weight {noinline} = #stream.parameter.named<"model"::"unet.down_blocks.2.attentions.0.transformer_blocks.9.norm2.weight"> : tensor<1280xf16>
  util.global private @_params.unet.down_blocks.2.attentions.0.transformer_blocks.9.norm2.bias {noinline} = #stream.parameter.named<"model"::"unet.down_blocks.2.attentions.0.transformer_blocks.9.norm2.bias"> : tensor<1280xf16>
  util.global private @_params.unet.down_blocks.2.attentions.0.transformer_blocks.9.attn2.to_q.weight {noinline} = #stream.parameter.named<"model"::"unet.down_blocks.2.attentions.0.transformer_blocks.9.attn2.to_q.weight"> : tensor<1280x1280xf16>
  util.global private @_params.unet.down_blocks.2.attentions.0.transformer_blocks.9.attn2.to_k.weight {noinline} = #stream.parameter.named<"model"::"unet.down_blocks.2.attentions.0.transformer_blocks.9.attn2.to_k.weight"> : tensor<1280x2048xf16>
  util.global private @_params.unet.down_blocks.2.attentions.0.transformer_blocks.9.attn2.to_v.weight {noinline} = #stream.parameter.named<"model"::"unet.down_blocks.2.attentions.0.transformer_blocks.9.attn2.to_v.weight"> : tensor<1280x2048xf16>
  util.global private @_params.unet.down_blocks.2.attentions.0.transformer_blocks.9.attn2.to_out.0.weight {noinline} = #stream.parameter.named<"model"::"unet.down_blocks.2.attentions.0.transformer_blocks.9.attn2.to_out.0.weight"> : tensor<1280x1280xf16>
  util.global private @_params.unet.down_blocks.2.attentions.0.transformer_blocks.9.attn2.to_out.0.bias {noinline} = #stream.parameter.named<"model"::"unet.down_blocks.2.attentions.0.transformer_blocks.9.attn2.to_out.0.bias"> : tensor<1280xf16>
  util.global private @_params.unet.down_blocks.2.attentions.0.transformer_blocks.9.norm3.weight {noinline} = #stream.parameter.named<"model"::"unet.down_blocks.2.attentions.0.transformer_blocks.9.norm3.weight"> : tensor<1280xf16>
  util.global private @_params.unet.down_blocks.2.attentions.0.transformer_blocks.9.norm3.bias {noinline} = #stream.parameter.named<"model"::"unet.down_blocks.2.attentions.0.transformer_blocks.9.norm3.bias"> : tensor<1280xf16>
  util.global private @_params.unet.down_blocks.2.attentions.0.transformer_blocks.9.ff.net.0.proj.weight {noinline} = #stream.parameter.named<"model"::"unet.down_blocks.2.attentions.0.transformer_blocks.9.ff.net.0.proj.weight"> : tensor<10240x1280xf16>
  util.global private @_params.unet.down_blocks.2.attentions.0.transformer_blocks.9.ff.net.0.proj.bias {noinline} = #stream.parameter.named<"model"::"unet.down_blocks.2.attentions.0.transformer_blocks.9.ff.net.0.proj.bias"> : tensor<10240xf16>
  util.global private @_params.unet.down_blocks.2.attentions.0.transformer_blocks.9.ff.net.2.weight {noinline} = #stream.parameter.named<"model"::"unet.down_blocks.2.attentions.0.transformer_blocks.9.ff.net.2.weight"> : tensor<1280x5120xf16>
  util.global private @_params.unet.down_blocks.2.attentions.0.transformer_blocks.9.ff.net.2.bias {noinline} = #stream.parameter.named<"model"::"unet.down_blocks.2.attentions.0.transformer_blocks.9.ff.net.2.bias"> : tensor<1280xf16>
  util.global private @_params.unet.down_blocks.2.attentions.0.proj_out.weight {noinline} = #stream.parameter.named<"model"::"unet.down_blocks.2.attentions.0.proj_out.weight"> : tensor<1280x1280xf16>
  util.global private @_params.unet.down_blocks.2.attentions.0.proj_out.bias {noinline} = #stream.parameter.named<"model"::"unet.down_blocks.2.attentions.0.proj_out.bias"> : tensor<1280xf16>
  util.global private @_params.unet.down_blocks.2.attentions.1.norm.weight {noinline} = #stream.parameter.named<"model"::"unet.down_blocks.2.attentions.1.norm.weight"> : tensor<1280xf16>
  util.global private @_params.unet.down_blocks.2.attentions.1.norm.bias {noinline} = #stream.parameter.named<"model"::"unet.down_blocks.2.attentions.1.norm.bias"> : tensor<1280xf16>
  util.global private @_params.unet.down_blocks.2.attentions.1.proj_in.weight {noinline} = #stream.parameter.named<"model"::"unet.down_blocks.2.attentions.1.proj_in.weight"> : tensor<1280x1280xf16>
  util.global private @_params.unet.down_blocks.2.attentions.1.proj_in.bias {noinline} = #stream.parameter.named<"model"::"unet.down_blocks.2.attentions.1.proj_in.bias"> : tensor<1280xf16>
  util.global private @_params.unet.down_blocks.2.attentions.1.transformer_blocks.0.norm1.weight {noinline} = #stream.parameter.named<"model"::"unet.down_blocks.2.attentions.1.transformer_blocks.0.norm1.weight"> : tensor<1280xf16>
  util.global private @_params.unet.down_blocks.2.attentions.1.transformer_blocks.0.norm1.bias {noinline} = #stream.parameter.named<"model"::"unet.down_blocks.2.attentions.1.transformer_blocks.0.norm1.bias"> : tensor<1280xf16>
  util.global private @_params.unet.down_blocks.2.attentions.1.transformer_blocks.0.attn1.to_q.weight {noinline} = #stream.parameter.named<"model"::"unet.down_blocks.2.attentions.1.transformer_blocks.0.attn1.to_q.weight"> : tensor<1280x1280xf16>
  util.global private @_params.unet.down_blocks.2.attentions.1.transformer_blocks.0.attn1.to_k.weight {noinline} = #stream.parameter.named<"model"::"unet.down_blocks.2.attentions.1.transformer_blocks.0.attn1.to_k.weight"> : tensor<1280x1280xf16>
  util.global private @_params.unet.down_blocks.2.attentions.1.transformer_blocks.0.attn1.to_v.weight {noinline} = #stream.parameter.named<"model"::"unet.down_blocks.2.attentions.1.transformer_blocks.0.attn1.to_v.weight"> : tensor<1280x1280xf16>
  util.global private @_params.unet.down_blocks.2.attentions.1.transformer_blocks.0.attn1.to_out.0.weight {noinline} = #stream.parameter.named<"model"::"unet.down_blocks.2.attentions.1.transformer_blocks.0.attn1.to_out.0.weight"> : tensor<1280x1280xf16>
  util.global private @_params.unet.down_blocks.2.attentions.1.transformer_blocks.0.attn1.to_out.0.bias {noinline} = #stream.parameter.named<"model"::"unet.down_blocks.2.attentions.1.transformer_blocks.0.attn1.to_out.0.bias"> : tensor<1280xf16>
  util.global private @_params.unet.down_blocks.2.attentions.1.transformer_blocks.0.norm2.weight {noinline} = #stream.parameter.named<"model"::"unet.down_blocks.2.attentions.1.transformer_blocks.0.norm2.weight"> : tensor<1280xf16>
  util.global private @_params.unet.down_blocks.2.attentions.1.transformer_blocks.0.norm2.bias {noinline} = #stream.parameter.named<"model"::"unet.down_blocks.2.attentions.1.transformer_blocks.0.norm2.bias"> : tensor<1280xf16>
  util.global private @_params.unet.down_blocks.2.attentions.1.transformer_blocks.0.attn2.to_q.weight {noinline} = #stream.parameter.named<"model"::"unet.down_blocks.2.attentions.1.transformer_blocks.0.attn2.to_q.weight"> : tensor<1280x1280xf16>
  util.global private @_params.unet.down_blocks.2.attentions.1.transformer_blocks.0.attn2.to_k.weight {noinline} = #stream.parameter.named<"model"::"unet.down_blocks.2.attentions.1.transformer_blocks.0.attn2.to_k.weight"> : tensor<1280x2048xf16>
  util.global private @_params.unet.down_blocks.2.attentions.1.transformer_blocks.0.attn2.to_v.weight {noinline} = #stream.parameter.named<"model"::"unet.down_blocks.2.attentions.1.transformer_blocks.0.attn2.to_v.weight"> : tensor<1280x2048xf16>
  util.global private @_params.unet.down_blocks.2.attentions.1.transformer_blocks.0.attn2.to_out.0.weight {noinline} = #stream.parameter.named<"model"::"unet.down_blocks.2.attentions.1.transformer_blocks.0.attn2.to_out.0.weight"> : tensor<1280x1280xf16>
  util.global private @_params.unet.down_blocks.2.attentions.1.transformer_blocks.0.attn2.to_out.0.bias {noinline} = #stream.parameter.named<"model"::"unet.down_blocks.2.attentions.1.transformer_blocks.0.attn2.to_out.0.bias"> : tensor<1280xf16>
  util.global private @_params.unet.down_blocks.2.attentions.1.transformer_blocks.0.norm3.weight {noinline} = #stream.parameter.named<"model"::"unet.down_blocks.2.attentions.1.transformer_blocks.0.norm3.weight"> : tensor<1280xf16>
  util.global private @_params.unet.down_blocks.2.attentions.1.transformer_blocks.0.norm3.bias {noinline} = #stream.parameter.named<"model"::"unet.down_blocks.2.attentions.1.transformer_blocks.0.norm3.bias"> : tensor<1280xf16>
  util.global private @_params.unet.down_blocks.2.attentions.1.transformer_blocks.0.ff.net.0.proj.weight {noinline} = #stream.parameter.named<"model"::"unet.down_blocks.2.attentions.1.transformer_blocks.0.ff.net.0.proj.weight"> : tensor<10240x1280xf16>
  util.global private @_params.unet.down_blocks.2.attentions.1.transformer_blocks.0.ff.net.0.proj.bias {noinline} = #stream.parameter.named<"model"::"unet.down_blocks.2.attentions.1.transformer_blocks.0.ff.net.0.proj.bias"> : tensor<10240xf16>
  util.global private @_params.unet.down_blocks.2.attentions.1.transformer_blocks.0.ff.net.2.weight {noinline} = #stream.parameter.named<"model"::"unet.down_blocks.2.attentions.1.transformer_blocks.0.ff.net.2.weight"> : tensor<1280x5120xf16>
  util.global private @_params.unet.down_blocks.2.attentions.1.transformer_blocks.0.ff.net.2.bias {noinline} = #stream.parameter.named<"model"::"unet.down_blocks.2.attentions.1.transformer_blocks.0.ff.net.2.bias"> : tensor<1280xf16>
  util.global private @_params.unet.down_blocks.2.attentions.1.transformer_blocks.1.norm1.weight {noinline} = #stream.parameter.named<"model"::"unet.down_blocks.2.attentions.1.transformer_blocks.1.norm1.weight"> : tensor<1280xf16>
  util.global private @_params.unet.down_blocks.2.attentions.1.transformer_blocks.1.norm1.bias {noinline} = #stream.parameter.named<"model"::"unet.down_blocks.2.attentions.1.transformer_blocks.1.norm1.bias"> : tensor<1280xf16>
  util.global private @_params.unet.down_blocks.2.attentions.1.transformer_blocks.1.attn1.to_q.weight {noinline} = #stream.parameter.named<"model"::"unet.down_blocks.2.attentions.1.transformer_blocks.1.attn1.to_q.weight"> : tensor<1280x1280xf16>
  util.global private @_params.unet.down_blocks.2.attentions.1.transformer_blocks.1.attn1.to_k.weight {noinline} = #stream.parameter.named<"model"::"unet.down_blocks.2.attentions.1.transformer_blocks.1.attn1.to_k.weight"> : tensor<1280x1280xf16>
  util.global private @_params.unet.down_blocks.2.attentions.1.transformer_blocks.1.attn1.to_v.weight {noinline} = #stream.parameter.named<"model"::"unet.down_blocks.2.attentions.1.transformer_blocks.1.attn1.to_v.weight"> : tensor<1280x1280xf16>
  util.global private @_params.unet.down_blocks.2.attentions.1.transformer_blocks.1.attn1.to_out.0.weight {noinline} = #stream.parameter.named<"model"::"unet.down_blocks.2.attentions.1.transformer_blocks.1.attn1.to_out.0.weight"> : tensor<1280x1280xf16>
  util.global private @_params.unet.down_blocks.2.attentions.1.transformer_blocks.1.attn1.to_out.0.bias {noinline} = #stream.parameter.named<"model"::"unet.down_blocks.2.attentions.1.transformer_blocks.1.attn1.to_out.0.bias"> : tensor<1280xf16>
  util.global private @_params.unet.down_blocks.2.attentions.1.transformer_blocks.1.norm2.weight {noinline} = #stream.parameter.named<"model"::"unet.down_blocks.2.attentions.1.transformer_blocks.1.norm2.weight"> : tensor<1280xf16>
  util.global private @_params.unet.down_blocks.2.attentions.1.transformer_blocks.1.norm2.bias {noinline} = #stream.parameter.named<"model"::"unet.down_blocks.2.attentions.1.transformer_blocks.1.norm2.bias"> : tensor<1280xf16>
  util.global private @_params.unet.down_blocks.2.attentions.1.transformer_blocks.1.attn2.to_q.weight {noinline} = #stream.parameter.named<"model"::"unet.down_blocks.2.attentions.1.transformer_blocks.1.attn2.to_q.weight"> : tensor<1280x1280xf16>
  util.global private @_params.unet.down_blocks.2.attentions.1.transformer_blocks.1.attn2.to_k.weight {noinline} = #stream.parameter.named<"model"::"unet.down_blocks.2.attentions.1.transformer_blocks.1.attn2.to_k.weight"> : tensor<1280x2048xf16>
  util.global private @_params.unet.down_blocks.2.attentions.1.transformer_blocks.1.attn2.to_v.weight {noinline} = #stream.parameter.named<"model"::"unet.down_blocks.2.attentions.1.transformer_blocks.1.attn2.to_v.weight"> : tensor<1280x2048xf16>
  util.global private @_params.unet.down_blocks.2.attentions.1.transformer_blocks.1.attn2.to_out.0.weight {noinline} = #stream.parameter.named<"model"::"unet.down_blocks.2.attentions.1.transformer_blocks.1.attn2.to_out.0.weight"> : tensor<1280x1280xf16>
  util.global private @_params.unet.down_blocks.2.attentions.1.transformer_blocks.1.attn2.to_out.0.bias {noinline} = #stream.parameter.named<"model"::"unet.down_blocks.2.attentions.1.transformer_blocks.1.attn2.to_out.0.bias"> : tensor<1280xf16>
  util.global private @_params.unet.down_blocks.2.attentions.1.transformer_blocks.1.norm3.weight {noinline} = #stream.parameter.named<"model"::"unet.down_blocks.2.attentions.1.transformer_blocks.1.norm3.weight"> : tensor<1280xf16>
  util.global private @_params.unet.down_blocks.2.attentions.1.transformer_blocks.1.norm3.bias {noinline} = #stream.parameter.named<"model"::"unet.down_blocks.2.attentions.1.transformer_blocks.1.norm3.bias"> : tensor<1280xf16>
  util.global private @_params.unet.down_blocks.2.attentions.1.transformer_blocks.1.ff.net.0.proj.weight {noinline} = #stream.parameter.named<"model"::"unet.down_blocks.2.attentions.1.transformer_blocks.1.ff.net.0.proj.weight"> : tensor<10240x1280xf16>
  util.global private @_params.unet.down_blocks.2.attentions.1.transformer_blocks.1.ff.net.0.proj.bias {noinline} = #stream.parameter.named<"model"::"unet.down_blocks.2.attentions.1.transformer_blocks.1.ff.net.0.proj.bias"> : tensor<10240xf16>
  util.global private @_params.unet.down_blocks.2.attentions.1.transformer_blocks.1.ff.net.2.weight {noinline} = #stream.parameter.named<"model"::"unet.down_blocks.2.attentions.1.transformer_blocks.1.ff.net.2.weight"> : tensor<1280x5120xf16>
  util.global private @_params.unet.down_blocks.2.attentions.1.transformer_blocks.1.ff.net.2.bias {noinline} = #stream.parameter.named<"model"::"unet.down_blocks.2.attentions.1.transformer_blocks.1.ff.net.2.bias"> : tensor<1280xf16>
  util.global private @_params.unet.down_blocks.2.attentions.1.transformer_blocks.2.norm1.weight {noinline} = #stream.parameter.named<"model"::"unet.down_blocks.2.attentions.1.transformer_blocks.2.norm1.weight"> : tensor<1280xf16>
  util.global private @_params.unet.down_blocks.2.attentions.1.transformer_blocks.2.norm1.bias {noinline} = #stream.parameter.named<"model"::"unet.down_blocks.2.attentions.1.transformer_blocks.2.norm1.bias"> : tensor<1280xf16>
  util.global private @_params.unet.down_blocks.2.attentions.1.transformer_blocks.2.attn1.to_q.weight {noinline} = #stream.parameter.named<"model"::"unet.down_blocks.2.attentions.1.transformer_blocks.2.attn1.to_q.weight"> : tensor<1280x1280xf16>
  util.global private @_params.unet.down_blocks.2.attentions.1.transformer_blocks.2.attn1.to_k.weight {noinline} = #stream.parameter.named<"model"::"unet.down_blocks.2.attentions.1.transformer_blocks.2.attn1.to_k.weight"> : tensor<1280x1280xf16>
  util.global private @_params.unet.down_blocks.2.attentions.1.transformer_blocks.2.attn1.to_v.weight {noinline} = #stream.parameter.named<"model"::"unet.down_blocks.2.attentions.1.transformer_blocks.2.attn1.to_v.weight"> : tensor<1280x1280xf16>
  util.global private @_params.unet.down_blocks.2.attentions.1.transformer_blocks.2.attn1.to_out.0.weight {noinline} = #stream.parameter.named<"model"::"unet.down_blocks.2.attentions.1.transformer_blocks.2.attn1.to_out.0.weight"> : tensor<1280x1280xf16>
  util.global private @_params.unet.down_blocks.2.attentions.1.transformer_blocks.2.attn1.to_out.0.bias {noinline} = #stream.parameter.named<"model"::"unet.down_blocks.2.attentions.1.transformer_blocks.2.attn1.to_out.0.bias"> : tensor<1280xf16>
  util.global private @_params.unet.down_blocks.2.attentions.1.transformer_blocks.2.norm2.weight {noinline} = #stream.parameter.named<"model"::"unet.down_blocks.2.attentions.1.transformer_blocks.2.norm2.weight"> : tensor<1280xf16>
  util.global private @_params.unet.down_blocks.2.attentions.1.transformer_blocks.2.norm2.bias {noinline} = #stream.parameter.named<"model"::"unet.down_blocks.2.attentions.1.transformer_blocks.2.norm2.bias"> : tensor<1280xf16>
  util.global private @_params.unet.down_blocks.2.attentions.1.transformer_blocks.2.attn2.to_q.weight {noinline} = #stream.parameter.named<"model"::"unet.down_blocks.2.attentions.1.transformer_blocks.2.attn2.to_q.weight"> : tensor<1280x1280xf16>
  util.global private @_params.unet.down_blocks.2.attentions.1.transformer_blocks.2.attn2.to_k.weight {noinline} = #stream.parameter.named<"model"::"unet.down_blocks.2.attentions.1.transformer_blocks.2.attn2.to_k.weight"> : tensor<1280x2048xf16>
  util.global private @_params.unet.down_blocks.2.attentions.1.transformer_blocks.2.attn2.to_v.weight {noinline} = #stream.parameter.named<"model"::"unet.down_blocks.2.attentions.1.transformer_blocks.2.attn2.to_v.weight"> : tensor<1280x2048xf16>
  util.global private @_params.unet.down_blocks.2.attentions.1.transformer_blocks.2.attn2.to_out.0.weight {noinline} = #stream.parameter.named<"model"::"unet.down_blocks.2.attentions.1.transformer_blocks.2.attn2.to_out.0.weight"> : tensor<1280x1280xf16>
  util.global private @_params.unet.down_blocks.2.attentions.1.transformer_blocks.2.attn2.to_out.0.bias {noinline} = #stream.parameter.named<"model"::"unet.down_blocks.2.attentions.1.transformer_blocks.2.attn2.to_out.0.bias"> : tensor<1280xf16>
  util.global private @_params.unet.down_blocks.2.attentions.1.transformer_blocks.2.norm3.weight {noinline} = #stream.parameter.named<"model"::"unet.down_blocks.2.attentions.1.transformer_blocks.2.norm3.weight"> : tensor<1280xf16>
  util.global private @_params.unet.down_blocks.2.attentions.1.transformer_blocks.2.norm3.bias {noinline} = #stream.parameter.named<"model"::"unet.down_blocks.2.attentions.1.transformer_blocks.2.norm3.bias"> : tensor<1280xf16>
  util.global private @_params.unet.down_blocks.2.attentions.1.transformer_blocks.2.ff.net.0.proj.weight {noinline} = #stream.parameter.named<"model"::"unet.down_blocks.2.attentions.1.transformer_blocks.2.ff.net.0.proj.weight"> : tensor<10240x1280xf16>
  util.global private @_params.unet.down_blocks.2.attentions.1.transformer_blocks.2.ff.net.0.proj.bias {noinline} = #stream.parameter.named<"model"::"unet.down_blocks.2.attentions.1.transformer_blocks.2.ff.net.0.proj.bias"> : tensor<10240xf16>
  util.global private @_params.unet.down_blocks.2.attentions.1.transformer_blocks.2.ff.net.2.weight {noinline} = #stream.parameter.named<"model"::"unet.down_blocks.2.attentions.1.transformer_blocks.2.ff.net.2.weight"> : tensor<1280x5120xf16>
  util.global private @_params.unet.down_blocks.2.attentions.1.transformer_blocks.2.ff.net.2.bias {noinline} = #stream.parameter.named<"model"::"unet.down_blocks.2.attentions.1.transformer_blocks.2.ff.net.2.bias"> : tensor<1280xf16>
  util.global private @_params.unet.down_blocks.2.attentions.1.transformer_blocks.3.norm1.weight {noinline} = #stream.parameter.named<"model"::"unet.down_blocks.2.attentions.1.transformer_blocks.3.norm1.weight"> : tensor<1280xf16>
  util.global private @_params.unet.down_blocks.2.attentions.1.transformer_blocks.3.norm1.bias {noinline} = #stream.parameter.named<"model"::"unet.down_blocks.2.attentions.1.transformer_blocks.3.norm1.bias"> : tensor<1280xf16>
  util.global private @_params.unet.down_blocks.2.attentions.1.transformer_blocks.3.attn1.to_q.weight {noinline} = #stream.parameter.named<"model"::"unet.down_blocks.2.attentions.1.transformer_blocks.3.attn1.to_q.weight"> : tensor<1280x1280xf16>
  util.global private @_params.unet.down_blocks.2.attentions.1.transformer_blocks.3.attn1.to_k.weight {noinline} = #stream.parameter.named<"model"::"unet.down_blocks.2.attentions.1.transformer_blocks.3.attn1.to_k.weight"> : tensor<1280x1280xf16>
  util.global private @_params.unet.down_blocks.2.attentions.1.transformer_blocks.3.attn1.to_v.weight {noinline} = #stream.parameter.named<"model"::"unet.down_blocks.2.attentions.1.transformer_blocks.3.attn1.to_v.weight"> : tensor<1280x1280xf16>
  util.global private @_params.unet.down_blocks.2.attentions.1.transformer_blocks.3.attn1.to_out.0.weight {noinline} = #stream.parameter.named<"model"::"unet.down_blocks.2.attentions.1.transformer_blocks.3.attn1.to_out.0.weight"> : tensor<1280x1280xf16>
  util.global private @_params.unet.down_blocks.2.attentions.1.transformer_blocks.3.attn1.to_out.0.bias {noinline} = #stream.parameter.named<"model"::"unet.down_blocks.2.attentions.1.transformer_blocks.3.attn1.to_out.0.bias"> : tensor<1280xf16>
  util.global private @_params.unet.down_blocks.2.attentions.1.transformer_blocks.3.norm2.weight {noinline} = #stream.parameter.named<"model"::"unet.down_blocks.2.attentions.1.transformer_blocks.3.norm2.weight"> : tensor<1280xf16>
  util.global private @_params.unet.down_blocks.2.attentions.1.transformer_blocks.3.norm2.bias {noinline} = #stream.parameter.named<"model"::"unet.down_blocks.2.attentions.1.transformer_blocks.3.norm2.bias"> : tensor<1280xf16>
  util.global private @_params.unet.down_blocks.2.attentions.1.transformer_blocks.3.attn2.to_q.weight {noinline} = #stream.parameter.named<"model"::"unet.down_blocks.2.attentions.1.transformer_blocks.3.attn2.to_q.weight"> : tensor<1280x1280xf16>
  util.global private @_params.unet.down_blocks.2.attentions.1.transformer_blocks.3.attn2.to_k.weight {noinline} = #stream.parameter.named<"model"::"unet.down_blocks.2.attentions.1.transformer_blocks.3.attn2.to_k.weight"> : tensor<1280x2048xf16>
  util.global private @_params.unet.down_blocks.2.attentions.1.transformer_blocks.3.attn2.to_v.weight {noinline} = #stream.parameter.named<"model"::"unet.down_blocks.2.attentions.1.transformer_blocks.3.attn2.to_v.weight"> : tensor<1280x2048xf16>
  util.global private @_params.unet.down_blocks.2.attentions.1.transformer_blocks.3.attn2.to_out.0.weight {noinline} = #stream.parameter.named<"model"::"unet.down_blocks.2.attentions.1.transformer_blocks.3.attn2.to_out.0.weight"> : tensor<1280x1280xf16>
  util.global private @_params.unet.down_blocks.2.attentions.1.transformer_blocks.3.attn2.to_out.0.bias {noinline} = #stream.parameter.named<"model"::"unet.down_blocks.2.attentions.1.transformer_blocks.3.attn2.to_out.0.bias"> : tensor<1280xf16>
  util.global private @_params.unet.down_blocks.2.attentions.1.transformer_blocks.3.norm3.weight {noinline} = #stream.parameter.named<"model"::"unet.down_blocks.2.attentions.1.transformer_blocks.3.norm3.weight"> : tensor<1280xf16>
  util.global private @_params.unet.down_blocks.2.attentions.1.transformer_blocks.3.norm3.bias {noinline} = #stream.parameter.named<"model"::"unet.down_blocks.2.attentions.1.transformer_blocks.3.norm3.bias"> : tensor<1280xf16>
  util.global private @_params.unet.down_blocks.2.attentions.1.transformer_blocks.3.ff.net.0.proj.weight {noinline} = #stream.parameter.named<"model"::"unet.down_blocks.2.attentions.1.transformer_blocks.3.ff.net.0.proj.weight"> : tensor<10240x1280xf16>
  util.global private @_params.unet.down_blocks.2.attentions.1.transformer_blocks.3.ff.net.0.proj.bias {noinline} = #stream.parameter.named<"model"::"unet.down_blocks.2.attentions.1.transformer_blocks.3.ff.net.0.proj.bias"> : tensor<10240xf16>
  util.global private @_params.unet.down_blocks.2.attentions.1.transformer_blocks.3.ff.net.2.weight {noinline} = #stream.parameter.named<"model"::"unet.down_blocks.2.attentions.1.transformer_blocks.3.ff.net.2.weight"> : tensor<1280x5120xf16>
  util.global private @_params.unet.down_blocks.2.attentions.1.transformer_blocks.3.ff.net.2.bias {noinline} = #stream.parameter.named<"model"::"unet.down_blocks.2.attentions.1.transformer_blocks.3.ff.net.2.bias"> : tensor<1280xf16>
  util.global private @_params.unet.down_blocks.2.attentions.1.transformer_blocks.4.norm1.weight {noinline} = #stream.parameter.named<"model"::"unet.down_blocks.2.attentions.1.transformer_blocks.4.norm1.weight"> : tensor<1280xf16>
  util.global private @_params.unet.down_blocks.2.attentions.1.transformer_blocks.4.norm1.bias {noinline} = #stream.parameter.named<"model"::"unet.down_blocks.2.attentions.1.transformer_blocks.4.norm1.bias"> : tensor<1280xf16>
  util.global private @_params.unet.down_blocks.2.attentions.1.transformer_blocks.4.attn1.to_q.weight {noinline} = #stream.parameter.named<"model"::"unet.down_blocks.2.attentions.1.transformer_blocks.4.attn1.to_q.weight"> : tensor<1280x1280xf16>
  util.global private @_params.unet.down_blocks.2.attentions.1.transformer_blocks.4.attn1.to_k.weight {noinline} = #stream.parameter.named<"model"::"unet.down_blocks.2.attentions.1.transformer_blocks.4.attn1.to_k.weight"> : tensor<1280x1280xf16>
  util.global private @_params.unet.down_blocks.2.attentions.1.transformer_blocks.4.attn1.to_v.weight {noinline} = #stream.parameter.named<"model"::"unet.down_blocks.2.attentions.1.transformer_blocks.4.attn1.to_v.weight"> : tensor<1280x1280xf16>
  util.global private @_params.unet.down_blocks.2.attentions.1.transformer_blocks.4.attn1.to_out.0.weight {noinline} = #stream.parameter.named<"model"::"unet.down_blocks.2.attentions.1.transformer_blocks.4.attn1.to_out.0.weight"> : tensor<1280x1280xf16>
  util.global private @_params.unet.down_blocks.2.attentions.1.transformer_blocks.4.attn1.to_out.0.bias {noinline} = #stream.parameter.named<"model"::"unet.down_blocks.2.attentions.1.transformer_blocks.4.attn1.to_out.0.bias"> : tensor<1280xf16>
  util.global private @_params.unet.down_blocks.2.attentions.1.transformer_blocks.4.norm2.weight {noinline} = #stream.parameter.named<"model"::"unet.down_blocks.2.attentions.1.transformer_blocks.4.norm2.weight"> : tensor<1280xf16>
  util.global private @_params.unet.down_blocks.2.attentions.1.transformer_blocks.4.norm2.bias {noinline} = #stream.parameter.named<"model"::"unet.down_blocks.2.attentions.1.transformer_blocks.4.norm2.bias"> : tensor<1280xf16>
  util.global private @_params.unet.down_blocks.2.attentions.1.transformer_blocks.4.attn2.to_q.weight {noinline} = #stream.parameter.named<"model"::"unet.down_blocks.2.attentions.1.transformer_blocks.4.attn2.to_q.weight"> : tensor<1280x1280xf16>
  util.global private @_params.unet.down_blocks.2.attentions.1.transformer_blocks.4.attn2.to_k.weight {noinline} = #stream.parameter.named<"model"::"unet.down_blocks.2.attentions.1.transformer_blocks.4.attn2.to_k.weight"> : tensor<1280x2048xf16>
  util.global private @_params.unet.down_blocks.2.attentions.1.transformer_blocks.4.attn2.to_v.weight {noinline} = #stream.parameter.named<"model"::"unet.down_blocks.2.attentions.1.transformer_blocks.4.attn2.to_v.weight"> : tensor<1280x2048xf16>
  util.global private @_params.unet.down_blocks.2.attentions.1.transformer_blocks.4.attn2.to_out.0.weight {noinline} = #stream.parameter.named<"model"::"unet.down_blocks.2.attentions.1.transformer_blocks.4.attn2.to_out.0.weight"> : tensor<1280x1280xf16>
  util.global private @_params.unet.down_blocks.2.attentions.1.transformer_blocks.4.attn2.to_out.0.bias {noinline} = #stream.parameter.named<"model"::"unet.down_blocks.2.attentions.1.transformer_blocks.4.attn2.to_out.0.bias"> : tensor<1280xf16>
  util.global private @_params.unet.down_blocks.2.attentions.1.transformer_blocks.4.norm3.weight {noinline} = #stream.parameter.named<"model"::"unet.down_blocks.2.attentions.1.transformer_blocks.4.norm3.weight"> : tensor<1280xf16>
  util.global private @_params.unet.down_blocks.2.attentions.1.transformer_blocks.4.norm3.bias {noinline} = #stream.parameter.named<"model"::"unet.down_blocks.2.attentions.1.transformer_blocks.4.norm3.bias"> : tensor<1280xf16>
  util.global private @_params.unet.down_blocks.2.attentions.1.transformer_blocks.4.ff.net.0.proj.weight {noinline} = #stream.parameter.named<"model"::"unet.down_blocks.2.attentions.1.transformer_blocks.4.ff.net.0.proj.weight"> : tensor<10240x1280xf16>
  util.global private @_params.unet.down_blocks.2.attentions.1.transformer_blocks.4.ff.net.0.proj.bias {noinline} = #stream.parameter.named<"model"::"unet.down_blocks.2.attentions.1.transformer_blocks.4.ff.net.0.proj.bias"> : tensor<10240xf16>
  util.global private @_params.unet.down_blocks.2.attentions.1.transformer_blocks.4.ff.net.2.weight {noinline} = #stream.parameter.named<"model"::"unet.down_blocks.2.attentions.1.transformer_blocks.4.ff.net.2.weight"> : tensor<1280x5120xf16>
  util.global private @_params.unet.down_blocks.2.attentions.1.transformer_blocks.4.ff.net.2.bias {noinline} = #stream.parameter.named<"model"::"unet.down_blocks.2.attentions.1.transformer_blocks.4.ff.net.2.bias"> : tensor<1280xf16>
  util.global private @_params.unet.down_blocks.2.attentions.1.transformer_blocks.5.norm1.weight {noinline} = #stream.parameter.named<"model"::"unet.down_blocks.2.attentions.1.transformer_blocks.5.norm1.weight"> : tensor<1280xf16>
  util.global private @_params.unet.down_blocks.2.attentions.1.transformer_blocks.5.norm1.bias {noinline} = #stream.parameter.named<"model"::"unet.down_blocks.2.attentions.1.transformer_blocks.5.norm1.bias"> : tensor<1280xf16>
  util.global private @_params.unet.down_blocks.2.attentions.1.transformer_blocks.5.attn1.to_q.weight {noinline} = #stream.parameter.named<"model"::"unet.down_blocks.2.attentions.1.transformer_blocks.5.attn1.to_q.weight"> : tensor<1280x1280xf16>
  util.global private @_params.unet.down_blocks.2.attentions.1.transformer_blocks.5.attn1.to_k.weight {noinline} = #stream.parameter.named<"model"::"unet.down_blocks.2.attentions.1.transformer_blocks.5.attn1.to_k.weight"> : tensor<1280x1280xf16>
  util.global private @_params.unet.down_blocks.2.attentions.1.transformer_blocks.5.attn1.to_v.weight {noinline} = #stream.parameter.named<"model"::"unet.down_blocks.2.attentions.1.transformer_blocks.5.attn1.to_v.weight"> : tensor<1280x1280xf16>
  util.global private @_params.unet.down_blocks.2.attentions.1.transformer_blocks.5.attn1.to_out.0.weight {noinline} = #stream.parameter.named<"model"::"unet.down_blocks.2.attentions.1.transformer_blocks.5.attn1.to_out.0.weight"> : tensor<1280x1280xf16>
  util.global private @_params.unet.down_blocks.2.attentions.1.transformer_blocks.5.attn1.to_out.0.bias {noinline} = #stream.parameter.named<"model"::"unet.down_blocks.2.attentions.1.transformer_blocks.5.attn1.to_out.0.bias"> : tensor<1280xf16>
  util.global private @_params.unet.down_blocks.2.attentions.1.transformer_blocks.5.norm2.weight {noinline} = #stream.parameter.named<"model"::"unet.down_blocks.2.attentions.1.transformer_blocks.5.norm2.weight"> : tensor<1280xf16>
  util.global private @_params.unet.down_blocks.2.attentions.1.transformer_blocks.5.norm2.bias {noinline} = #stream.parameter.named<"model"::"unet.down_blocks.2.attentions.1.transformer_blocks.5.norm2.bias"> : tensor<1280xf16>
  util.global private @_params.unet.down_blocks.2.attentions.1.transformer_blocks.5.attn2.to_q.weight {noinline} = #stream.parameter.named<"model"::"unet.down_blocks.2.attentions.1.transformer_blocks.5.attn2.to_q.weight"> : tensor<1280x1280xf16>
  util.global private @_params.unet.down_blocks.2.attentions.1.transformer_blocks.5.attn2.to_k.weight {noinline} = #stream.parameter.named<"model"::"unet.down_blocks.2.attentions.1.transformer_blocks.5.attn2.to_k.weight"> : tensor<1280x2048xf16>
  util.global private @_params.unet.down_blocks.2.attentions.1.transformer_blocks.5.attn2.to_v.weight {noinline} = #stream.parameter.named<"model"::"unet.down_blocks.2.attentions.1.transformer_blocks.5.attn2.to_v.weight"> : tensor<1280x2048xf16>
  util.global private @_params.unet.down_blocks.2.attentions.1.transformer_blocks.5.attn2.to_out.0.weight {noinline} = #stream.parameter.named<"model"::"unet.down_blocks.2.attentions.1.transformer_blocks.5.attn2.to_out.0.weight"> : tensor<1280x1280xf16>
  util.global private @_params.unet.down_blocks.2.attentions.1.transformer_blocks.5.attn2.to_out.0.bias {noinline} = #stream.parameter.named<"model"::"unet.down_blocks.2.attentions.1.transformer_blocks.5.attn2.to_out.0.bias"> : tensor<1280xf16>
  util.global private @_params.unet.down_blocks.2.attentions.1.transformer_blocks.5.norm3.weight {noinline} = #stream.parameter.named<"model"::"unet.down_blocks.2.attentions.1.transformer_blocks.5.norm3.weight"> : tensor<1280xf16>
  util.global private @_params.unet.down_blocks.2.attentions.1.transformer_blocks.5.norm3.bias {noinline} = #stream.parameter.named<"model"::"unet.down_blocks.2.attentions.1.transformer_blocks.5.norm3.bias"> : tensor<1280xf16>
  util.global private @_params.unet.down_blocks.2.attentions.1.transformer_blocks.5.ff.net.0.proj.weight {noinline} = #stream.parameter.named<"model"::"unet.down_blocks.2.attentions.1.transformer_blocks.5.ff.net.0.proj.weight"> : tensor<10240x1280xf16>
  util.global private @_params.unet.down_blocks.2.attentions.1.transformer_blocks.5.ff.net.0.proj.bias {noinline} = #stream.parameter.named<"model"::"unet.down_blocks.2.attentions.1.transformer_blocks.5.ff.net.0.proj.bias"> : tensor<10240xf16>
  util.global private @_params.unet.down_blocks.2.attentions.1.transformer_blocks.5.ff.net.2.weight {noinline} = #stream.parameter.named<"model"::"unet.down_blocks.2.attentions.1.transformer_blocks.5.ff.net.2.weight"> : tensor<1280x5120xf16>
  util.global private @_params.unet.down_blocks.2.attentions.1.transformer_blocks.5.ff.net.2.bias {noinline} = #stream.parameter.named<"model"::"unet.down_blocks.2.attentions.1.transformer_blocks.5.ff.net.2.bias"> : tensor<1280xf16>
  util.global private @_params.unet.down_blocks.2.attentions.1.transformer_blocks.6.norm1.weight {noinline} = #stream.parameter.named<"model"::"unet.down_blocks.2.attentions.1.transformer_blocks.6.norm1.weight"> : tensor<1280xf16>
  util.global private @_params.unet.down_blocks.2.attentions.1.transformer_blocks.6.norm1.bias {noinline} = #stream.parameter.named<"model"::"unet.down_blocks.2.attentions.1.transformer_blocks.6.norm1.bias"> : tensor<1280xf16>
  util.global private @_params.unet.down_blocks.2.attentions.1.transformer_blocks.6.attn1.to_q.weight {noinline} = #stream.parameter.named<"model"::"unet.down_blocks.2.attentions.1.transformer_blocks.6.attn1.to_q.weight"> : tensor<1280x1280xf16>
  util.global private @_params.unet.down_blocks.2.attentions.1.transformer_blocks.6.attn1.to_k.weight {noinline} = #stream.parameter.named<"model"::"unet.down_blocks.2.attentions.1.transformer_blocks.6.attn1.to_k.weight"> : tensor<1280x1280xf16>
  util.global private @_params.unet.down_blocks.2.attentions.1.transformer_blocks.6.attn1.to_v.weight {noinline} = #stream.parameter.named<"model"::"unet.down_blocks.2.attentions.1.transformer_blocks.6.attn1.to_v.weight"> : tensor<1280x1280xf16>
  util.global private @_params.unet.down_blocks.2.attentions.1.transformer_blocks.6.attn1.to_out.0.weight {noinline} = #stream.parameter.named<"model"::"unet.down_blocks.2.attentions.1.transformer_blocks.6.attn1.to_out.0.weight"> : tensor<1280x1280xf16>
  util.global private @_params.unet.down_blocks.2.attentions.1.transformer_blocks.6.attn1.to_out.0.bias {noinline} = #stream.parameter.named<"model"::"unet.down_blocks.2.attentions.1.transformer_blocks.6.attn1.to_out.0.bias"> : tensor<1280xf16>
  util.global private @_params.unet.down_blocks.2.attentions.1.transformer_blocks.6.norm2.weight {noinline} = #stream.parameter.named<"model"::"unet.down_blocks.2.attentions.1.transformer_blocks.6.norm2.weight"> : tensor<1280xf16>
  util.global private @_params.unet.down_blocks.2.attentions.1.transformer_blocks.6.norm2.bias {noinline} = #stream.parameter.named<"model"::"unet.down_blocks.2.attentions.1.transformer_blocks.6.norm2.bias"> : tensor<1280xf16>
  util.global private @_params.unet.down_blocks.2.attentions.1.transformer_blocks.6.attn2.to_q.weight {noinline} = #stream.parameter.named<"model"::"unet.down_blocks.2.attentions.1.transformer_blocks.6.attn2.to_q.weight"> : tensor<1280x1280xf16>
  util.global private @_params.unet.down_blocks.2.attentions.1.transformer_blocks.6.attn2.to_k.weight {noinline} = #stream.parameter.named<"model"::"unet.down_blocks.2.attentions.1.transformer_blocks.6.attn2.to_k.weight"> : tensor<1280x2048xf16>
  util.global private @_params.unet.down_blocks.2.attentions.1.transformer_blocks.6.attn2.to_v.weight {noinline} = #stream.parameter.named<"model"::"unet.down_blocks.2.attentions.1.transformer_blocks.6.attn2.to_v.weight"> : tensor<1280x2048xf16>
  util.global private @_params.unet.down_blocks.2.attentions.1.transformer_blocks.6.attn2.to_out.0.weight {noinline} = #stream.parameter.named<"model"::"unet.down_blocks.2.attentions.1.transformer_blocks.6.attn2.to_out.0.weight"> : tensor<1280x1280xf16>
  util.global private @_params.unet.down_blocks.2.attentions.1.transformer_blocks.6.attn2.to_out.0.bias {noinline} = #stream.parameter.named<"model"::"unet.down_blocks.2.attentions.1.transformer_blocks.6.attn2.to_out.0.bias"> : tensor<1280xf16>
  util.global private @_params.unet.down_blocks.2.attentions.1.transformer_blocks.6.norm3.weight {noinline} = #stream.parameter.named<"model"::"unet.down_blocks.2.attentions.1.transformer_blocks.6.norm3.weight"> : tensor<1280xf16>
  util.global private @_params.unet.down_blocks.2.attentions.1.transformer_blocks.6.norm3.bias {noinline} = #stream.parameter.named<"model"::"unet.down_blocks.2.attentions.1.transformer_blocks.6.norm3.bias"> : tensor<1280xf16>
  util.global private @_params.unet.down_blocks.2.attentions.1.transformer_blocks.6.ff.net.0.proj.weight {noinline} = #stream.parameter.named<"model"::"unet.down_blocks.2.attentions.1.transformer_blocks.6.ff.net.0.proj.weight"> : tensor<10240x1280xf16>
  util.global private @_params.unet.down_blocks.2.attentions.1.transformer_blocks.6.ff.net.0.proj.bias {noinline} = #stream.parameter.named<"model"::"unet.down_blocks.2.attentions.1.transformer_blocks.6.ff.net.0.proj.bias"> : tensor<10240xf16>
  util.global private @_params.unet.down_blocks.2.attentions.1.transformer_blocks.6.ff.net.2.weight {noinline} = #stream.parameter.named<"model"::"unet.down_blocks.2.attentions.1.transformer_blocks.6.ff.net.2.weight"> : tensor<1280x5120xf16>
  util.global private @_params.unet.down_blocks.2.attentions.1.transformer_blocks.6.ff.net.2.bias {noinline} = #stream.parameter.named<"model"::"unet.down_blocks.2.attentions.1.transformer_blocks.6.ff.net.2.bias"> : tensor<1280xf16>
  util.global private @_params.unet.down_blocks.2.attentions.1.transformer_blocks.7.norm1.weight {noinline} = #stream.parameter.named<"model"::"unet.down_blocks.2.attentions.1.transformer_blocks.7.norm1.weight"> : tensor<1280xf16>
  util.global private @_params.unet.down_blocks.2.attentions.1.transformer_blocks.7.norm1.bias {noinline} = #stream.parameter.named<"model"::"unet.down_blocks.2.attentions.1.transformer_blocks.7.norm1.bias"> : tensor<1280xf16>
  util.global private @_params.unet.down_blocks.2.attentions.1.transformer_blocks.7.attn1.to_q.weight {noinline} = #stream.parameter.named<"model"::"unet.down_blocks.2.attentions.1.transformer_blocks.7.attn1.to_q.weight"> : tensor<1280x1280xf16>
  util.global private @_params.unet.down_blocks.2.attentions.1.transformer_blocks.7.attn1.to_k.weight {noinline} = #stream.parameter.named<"model"::"unet.down_blocks.2.attentions.1.transformer_blocks.7.attn1.to_k.weight"> : tensor<1280x1280xf16>
  util.global private @_params.unet.down_blocks.2.attentions.1.transformer_blocks.7.attn1.to_v.weight {noinline} = #stream.parameter.named<"model"::"unet.down_blocks.2.attentions.1.transformer_blocks.7.attn1.to_v.weight"> : tensor<1280x1280xf16>
  util.global private @_params.unet.down_blocks.2.attentions.1.transformer_blocks.7.attn1.to_out.0.weight {noinline} = #stream.parameter.named<"model"::"unet.down_blocks.2.attentions.1.transformer_blocks.7.attn1.to_out.0.weight"> : tensor<1280x1280xf16>
  util.global private @_params.unet.down_blocks.2.attentions.1.transformer_blocks.7.attn1.to_out.0.bias {noinline} = #stream.parameter.named<"model"::"unet.down_blocks.2.attentions.1.transformer_blocks.7.attn1.to_out.0.bias"> : tensor<1280xf16>
  util.global private @_params.unet.down_blocks.2.attentions.1.transformer_blocks.7.norm2.weight {noinline} = #stream.parameter.named<"model"::"unet.down_blocks.2.attentions.1.transformer_blocks.7.norm2.weight"> : tensor<1280xf16>
  util.global private @_params.unet.down_blocks.2.attentions.1.transformer_blocks.7.norm2.bias {noinline} = #stream.parameter.named<"model"::"unet.down_blocks.2.attentions.1.transformer_blocks.7.norm2.bias"> : tensor<1280xf16>
  util.global private @_params.unet.down_blocks.2.attentions.1.transformer_blocks.7.attn2.to_q.weight {noinline} = #stream.parameter.named<"model"::"unet.down_blocks.2.attentions.1.transformer_blocks.7.attn2.to_q.weight"> : tensor<1280x1280xf16>
  util.global private @_params.unet.down_blocks.2.attentions.1.transformer_blocks.7.attn2.to_k.weight {noinline} = #stream.parameter.named<"model"::"unet.down_blocks.2.attentions.1.transformer_blocks.7.attn2.to_k.weight"> : tensor<1280x2048xf16>
  util.global private @_params.unet.down_blocks.2.attentions.1.transformer_blocks.7.attn2.to_v.weight {noinline} = #stream.parameter.named<"model"::"unet.down_blocks.2.attentions.1.transformer_blocks.7.attn2.to_v.weight"> : tensor<1280x2048xf16>
  util.global private @_params.unet.down_blocks.2.attentions.1.transformer_blocks.7.attn2.to_out.0.weight {noinline} = #stream.parameter.named<"model"::"unet.down_blocks.2.attentions.1.transformer_blocks.7.attn2.to_out.0.weight"> : tensor<1280x1280xf16>
  util.global private @_params.unet.down_blocks.2.attentions.1.transformer_blocks.7.attn2.to_out.0.bias {noinline} = #stream.parameter.named<"model"::"unet.down_blocks.2.attentions.1.transformer_blocks.7.attn2.to_out.0.bias"> : tensor<1280xf16>
  util.global private @_params.unet.down_blocks.2.attentions.1.transformer_blocks.7.norm3.weight {noinline} = #stream.parameter.named<"model"::"unet.down_blocks.2.attentions.1.transformer_blocks.7.norm3.weight"> : tensor<1280xf16>
  util.global private @_params.unet.down_blocks.2.attentions.1.transformer_blocks.7.norm3.bias {noinline} = #stream.parameter.named<"model"::"unet.down_blocks.2.attentions.1.transformer_blocks.7.norm3.bias"> : tensor<1280xf16>
  util.global private @_params.unet.down_blocks.2.attentions.1.transformer_blocks.7.ff.net.0.proj.weight {noinline} = #stream.parameter.named<"model"::"unet.down_blocks.2.attentions.1.transformer_blocks.7.ff.net.0.proj.weight"> : tensor<10240x1280xf16>
  util.global private @_params.unet.down_blocks.2.attentions.1.transformer_blocks.7.ff.net.0.proj.bias {noinline} = #stream.parameter.named<"model"::"unet.down_blocks.2.attentions.1.transformer_blocks.7.ff.net.0.proj.bias"> : tensor<10240xf16>
  util.global private @_params.unet.down_blocks.2.attentions.1.transformer_blocks.7.ff.net.2.weight {noinline} = #stream.parameter.named<"model"::"unet.down_blocks.2.attentions.1.transformer_blocks.7.ff.net.2.weight"> : tensor<1280x5120xf16>
  util.global private @_params.unet.down_blocks.2.attentions.1.transformer_blocks.7.ff.net.2.bias {noinline} = #stream.parameter.named<"model"::"unet.down_blocks.2.attentions.1.transformer_blocks.7.ff.net.2.bias"> : tensor<1280xf16>
  util.global private @_params.unet.down_blocks.2.attentions.1.transformer_blocks.8.norm1.weight {noinline} = #stream.parameter.named<"model"::"unet.down_blocks.2.attentions.1.transformer_blocks.8.norm1.weight"> : tensor<1280xf16>
  util.global private @_params.unet.down_blocks.2.attentions.1.transformer_blocks.8.norm1.bias {noinline} = #stream.parameter.named<"model"::"unet.down_blocks.2.attentions.1.transformer_blocks.8.norm1.bias"> : tensor<1280xf16>
  util.global private @_params.unet.down_blocks.2.attentions.1.transformer_blocks.8.attn1.to_q.weight {noinline} = #stream.parameter.named<"model"::"unet.down_blocks.2.attentions.1.transformer_blocks.8.attn1.to_q.weight"> : tensor<1280x1280xf16>
  util.global private @_params.unet.down_blocks.2.attentions.1.transformer_blocks.8.attn1.to_k.weight {noinline} = #stream.parameter.named<"model"::"unet.down_blocks.2.attentions.1.transformer_blocks.8.attn1.to_k.weight"> : tensor<1280x1280xf16>
  util.global private @_params.unet.down_blocks.2.attentions.1.transformer_blocks.8.attn1.to_v.weight {noinline} = #stream.parameter.named<"model"::"unet.down_blocks.2.attentions.1.transformer_blocks.8.attn1.to_v.weight"> : tensor<1280x1280xf16>
  util.global private @_params.unet.down_blocks.2.attentions.1.transformer_blocks.8.attn1.to_out.0.weight {noinline} = #stream.parameter.named<"model"::"unet.down_blocks.2.attentions.1.transformer_blocks.8.attn1.to_out.0.weight"> : tensor<1280x1280xf16>
  util.global private @_params.unet.down_blocks.2.attentions.1.transformer_blocks.8.attn1.to_out.0.bias {noinline} = #stream.parameter.named<"model"::"unet.down_blocks.2.attentions.1.transformer_blocks.8.attn1.to_out.0.bias"> : tensor<1280xf16>
  util.global private @_params.unet.down_blocks.2.attentions.1.transformer_blocks.8.norm2.weight {noinline} = #stream.parameter.named<"model"::"unet.down_blocks.2.attentions.1.transformer_blocks.8.norm2.weight"> : tensor<1280xf16>
  util.global private @_params.unet.down_blocks.2.attentions.1.transformer_blocks.8.norm2.bias {noinline} = #stream.parameter.named<"model"::"unet.down_blocks.2.attentions.1.transformer_blocks.8.norm2.bias"> : tensor<1280xf16>
  util.global private @_params.unet.down_blocks.2.attentions.1.transformer_blocks.8.attn2.to_q.weight {noinline} = #stream.parameter.named<"model"::"unet.down_blocks.2.attentions.1.transformer_blocks.8.attn2.to_q.weight"> : tensor<1280x1280xf16>
  util.global private @_params.unet.down_blocks.2.attentions.1.transformer_blocks.8.attn2.to_k.weight {noinline} = #stream.parameter.named<"model"::"unet.down_blocks.2.attentions.1.transformer_blocks.8.attn2.to_k.weight"> : tensor<1280x2048xf16>
  util.global private @_params.unet.down_blocks.2.attentions.1.transformer_blocks.8.attn2.to_v.weight {noinline} = #stream.parameter.named<"model"::"unet.down_blocks.2.attentions.1.transformer_blocks.8.attn2.to_v.weight"> : tensor<1280x2048xf16>
  util.global private @_params.unet.down_blocks.2.attentions.1.transformer_blocks.8.attn2.to_out.0.weight {noinline} = #stream.parameter.named<"model"::"unet.down_blocks.2.attentions.1.transformer_blocks.8.attn2.to_out.0.weight"> : tensor<1280x1280xf16>
  util.global private @_params.unet.down_blocks.2.attentions.1.transformer_blocks.8.attn2.to_out.0.bias {noinline} = #stream.parameter.named<"model"::"unet.down_blocks.2.attentions.1.transformer_blocks.8.attn2.to_out.0.bias"> : tensor<1280xf16>
  util.global private @_params.unet.down_blocks.2.attentions.1.transformer_blocks.8.norm3.weight {noinline} = #stream.parameter.named<"model"::"unet.down_blocks.2.attentions.1.transformer_blocks.8.norm3.weight"> : tensor<1280xf16>
  util.global private @_params.unet.down_blocks.2.attentions.1.transformer_blocks.8.norm3.bias {noinline} = #stream.parameter.named<"model"::"unet.down_blocks.2.attentions.1.transformer_blocks.8.norm3.bias"> : tensor<1280xf16>
  util.global private @_params.unet.down_blocks.2.attentions.1.transformer_blocks.8.ff.net.0.proj.weight {noinline} = #stream.parameter.named<"model"::"unet.down_blocks.2.attentions.1.transformer_blocks.8.ff.net.0.proj.weight"> : tensor<10240x1280xf16>
  util.global private @_params.unet.down_blocks.2.attentions.1.transformer_blocks.8.ff.net.0.proj.bias {noinline} = #stream.parameter.named<"model"::"unet.down_blocks.2.attentions.1.transformer_blocks.8.ff.net.0.proj.bias"> : tensor<10240xf16>
  util.global private @_params.unet.down_blocks.2.attentions.1.transformer_blocks.8.ff.net.2.weight {noinline} = #stream.parameter.named<"model"::"unet.down_blocks.2.attentions.1.transformer_blocks.8.ff.net.2.weight"> : tensor<1280x5120xf16>
  util.global private @_params.unet.down_blocks.2.attentions.1.transformer_blocks.8.ff.net.2.bias {noinline} = #stream.parameter.named<"model"::"unet.down_blocks.2.attentions.1.transformer_blocks.8.ff.net.2.bias"> : tensor<1280xf16>
  util.global private @_params.unet.down_blocks.2.attentions.1.transformer_blocks.9.norm1.weight {noinline} = #stream.parameter.named<"model"::"unet.down_blocks.2.attentions.1.transformer_blocks.9.norm1.weight"> : tensor<1280xf16>
  util.global private @_params.unet.down_blocks.2.attentions.1.transformer_blocks.9.norm1.bias {noinline} = #stream.parameter.named<"model"::"unet.down_blocks.2.attentions.1.transformer_blocks.9.norm1.bias"> : tensor<1280xf16>
  util.global private @_params.unet.down_blocks.2.attentions.1.transformer_blocks.9.attn1.to_q.weight {noinline} = #stream.parameter.named<"model"::"unet.down_blocks.2.attentions.1.transformer_blocks.9.attn1.to_q.weight"> : tensor<1280x1280xf16>
  util.global private @_params.unet.down_blocks.2.attentions.1.transformer_blocks.9.attn1.to_k.weight {noinline} = #stream.parameter.named<"model"::"unet.down_blocks.2.attentions.1.transformer_blocks.9.attn1.to_k.weight"> : tensor<1280x1280xf16>
  util.global private @_params.unet.down_blocks.2.attentions.1.transformer_blocks.9.attn1.to_v.weight {noinline} = #stream.parameter.named<"model"::"unet.down_blocks.2.attentions.1.transformer_blocks.9.attn1.to_v.weight"> : tensor<1280x1280xf16>
  util.global private @_params.unet.down_blocks.2.attentions.1.transformer_blocks.9.attn1.to_out.0.weight {noinline} = #stream.parameter.named<"model"::"unet.down_blocks.2.attentions.1.transformer_blocks.9.attn1.to_out.0.weight"> : tensor<1280x1280xf16>
  util.global private @_params.unet.down_blocks.2.attentions.1.transformer_blocks.9.attn1.to_out.0.bias {noinline} = #stream.parameter.named<"model"::"unet.down_blocks.2.attentions.1.transformer_blocks.9.attn1.to_out.0.bias"> : tensor<1280xf16>
  util.global private @_params.unet.down_blocks.2.attentions.1.transformer_blocks.9.norm2.weight {noinline} = #stream.parameter.named<"model"::"unet.down_blocks.2.attentions.1.transformer_blocks.9.norm2.weight"> : tensor<1280xf16>
  util.global private @_params.unet.down_blocks.2.attentions.1.transformer_blocks.9.norm2.bias {noinline} = #stream.parameter.named<"model"::"unet.down_blocks.2.attentions.1.transformer_blocks.9.norm2.bias"> : tensor<1280xf16>
  util.global private @_params.unet.down_blocks.2.attentions.1.transformer_blocks.9.attn2.to_q.weight {noinline} = #stream.parameter.named<"model"::"unet.down_blocks.2.attentions.1.transformer_blocks.9.attn2.to_q.weight"> : tensor<1280x1280xf16>
  util.global private @_params.unet.down_blocks.2.attentions.1.transformer_blocks.9.attn2.to_k.weight {noinline} = #stream.parameter.named<"model"::"unet.down_blocks.2.attentions.1.transformer_blocks.9.attn2.to_k.weight"> : tensor<1280x2048xf16>
  util.global private @_params.unet.down_blocks.2.attentions.1.transformer_blocks.9.attn2.to_v.weight {noinline} = #stream.parameter.named<"model"::"unet.down_blocks.2.attentions.1.transformer_blocks.9.attn2.to_v.weight"> : tensor<1280x2048xf16>
  util.global private @_params.unet.down_blocks.2.attentions.1.transformer_blocks.9.attn2.to_out.0.weight {noinline} = #stream.parameter.named<"model"::"unet.down_blocks.2.attentions.1.transformer_blocks.9.attn2.to_out.0.weight"> : tensor<1280x1280xf16>
  util.global private @_params.unet.down_blocks.2.attentions.1.transformer_blocks.9.attn2.to_out.0.bias {noinline} = #stream.parameter.named<"model"::"unet.down_blocks.2.attentions.1.transformer_blocks.9.attn2.to_out.0.bias"> : tensor<1280xf16>
  util.global private @_params.unet.down_blocks.2.attentions.1.transformer_blocks.9.norm3.weight {noinline} = #stream.parameter.named<"model"::"unet.down_blocks.2.attentions.1.transformer_blocks.9.norm3.weight"> : tensor<1280xf16>
  util.global private @_params.unet.down_blocks.2.attentions.1.transformer_blocks.9.norm3.bias {noinline} = #stream.parameter.named<"model"::"unet.down_blocks.2.attentions.1.transformer_blocks.9.norm3.bias"> : tensor<1280xf16>
  util.global private @_params.unet.down_blocks.2.attentions.1.transformer_blocks.9.ff.net.0.proj.weight {noinline} = #stream.parameter.named<"model"::"unet.down_blocks.2.attentions.1.transformer_blocks.9.ff.net.0.proj.weight"> : tensor<10240x1280xf16>
  util.global private @_params.unet.down_blocks.2.attentions.1.transformer_blocks.9.ff.net.0.proj.bias {noinline} = #stream.parameter.named<"model"::"unet.down_blocks.2.attentions.1.transformer_blocks.9.ff.net.0.proj.bias"> : tensor<10240xf16>
  util.global private @_params.unet.down_blocks.2.attentions.1.transformer_blocks.9.ff.net.2.weight {noinline} = #stream.parameter.named<"model"::"unet.down_blocks.2.attentions.1.transformer_blocks.9.ff.net.2.weight"> : tensor<1280x5120xf16>
  util.global private @_params.unet.down_blocks.2.attentions.1.transformer_blocks.9.ff.net.2.bias {noinline} = #stream.parameter.named<"model"::"unet.down_blocks.2.attentions.1.transformer_blocks.9.ff.net.2.bias"> : tensor<1280xf16>
  util.global private @_params.unet.down_blocks.2.attentions.1.proj_out.weight {noinline} = #stream.parameter.named<"model"::"unet.down_blocks.2.attentions.1.proj_out.weight"> : tensor<1280x1280xf16>
  util.global private @_params.unet.down_blocks.2.attentions.1.proj_out.bias {noinline} = #stream.parameter.named<"model"::"unet.down_blocks.2.attentions.1.proj_out.bias"> : tensor<1280xf16>
  util.global private @_params.unet.down_blocks.2.resnets.0.norm1.weight {noinline} = #stream.parameter.named<"model"::"unet.down_blocks.2.resnets.0.norm1.weight"> : tensor<640xf16>
  util.global private @_params.unet.down_blocks.2.resnets.0.norm1.bias {noinline} = #stream.parameter.named<"model"::"unet.down_blocks.2.resnets.0.norm1.bias"> : tensor<640xf16>
  util.global private @_params.unet.down_blocks.2.resnets.0.conv1.weight {noinline} = #stream.parameter.named<"model"::"unet.down_blocks.2.resnets.0.conv1.weight"> : tensor<1280x640x3x3xf16>
  util.global private @_params.unet.down_blocks.2.resnets.0.conv1.bias {noinline} = #stream.parameter.named<"model"::"unet.down_blocks.2.resnets.0.conv1.bias"> : tensor<1280xf16>
  util.global private @_params.unet.down_blocks.2.resnets.0.time_emb_proj.weight {noinline} = #stream.parameter.named<"model"::"unet.down_blocks.2.resnets.0.time_emb_proj.weight"> : tensor<1280x1280xf16>
  util.global private @_params.unet.down_blocks.2.resnets.0.time_emb_proj.bias {noinline} = #stream.parameter.named<"model"::"unet.down_blocks.2.resnets.0.time_emb_proj.bias"> : tensor<1280xf16>
  util.global private @_params.unet.down_blocks.2.resnets.0.norm2.weight {noinline} = #stream.parameter.named<"model"::"unet.down_blocks.2.resnets.0.norm2.weight"> : tensor<1280xf16>
  util.global private @_params.unet.down_blocks.2.resnets.0.norm2.bias {noinline} = #stream.parameter.named<"model"::"unet.down_blocks.2.resnets.0.norm2.bias"> : tensor<1280xf16>
  util.global private @_params.unet.down_blocks.2.resnets.0.conv2.weight {noinline} = #stream.parameter.named<"model"::"unet.down_blocks.2.resnets.0.conv2.weight"> : tensor<1280x1280x3x3xf16>
  util.global private @_params.unet.down_blocks.2.resnets.0.conv2.bias {noinline} = #stream.parameter.named<"model"::"unet.down_blocks.2.resnets.0.conv2.bias"> : tensor<1280xf16>
  util.global private @_params.unet.down_blocks.2.resnets.0.conv_shortcut.weight {noinline} = #stream.parameter.named<"model"::"unet.down_blocks.2.resnets.0.conv_shortcut.weight"> : tensor<1280x640x1x1xf16>
  util.global private @_params.unet.down_blocks.2.resnets.0.conv_shortcut.bias {noinline} = #stream.parameter.named<"model"::"unet.down_blocks.2.resnets.0.conv_shortcut.bias"> : tensor<1280xf16>
  util.global private @_params.unet.down_blocks.2.resnets.1.norm1.weight {noinline} = #stream.parameter.named<"model"::"unet.down_blocks.2.resnets.1.norm1.weight"> : tensor<1280xf16>
  util.global private @_params.unet.down_blocks.2.resnets.1.norm1.bias {noinline} = #stream.parameter.named<"model"::"unet.down_blocks.2.resnets.1.norm1.bias"> : tensor<1280xf16>
  util.global private @_params.unet.down_blocks.2.resnets.1.conv1.weight {noinline} = #stream.parameter.named<"model"::"unet.down_blocks.2.resnets.1.conv1.weight"> : tensor<1280x1280x3x3xf16>
  util.global private @_params.unet.down_blocks.2.resnets.1.conv1.bias {noinline} = #stream.parameter.named<"model"::"unet.down_blocks.2.resnets.1.conv1.bias"> : tensor<1280xf16>
  util.global private @_params.unet.down_blocks.2.resnets.1.time_emb_proj.weight {noinline} = #stream.parameter.named<"model"::"unet.down_blocks.2.resnets.1.time_emb_proj.weight"> : tensor<1280x1280xf16>
  util.global private @_params.unet.down_blocks.2.resnets.1.time_emb_proj.bias {noinline} = #stream.parameter.named<"model"::"unet.down_blocks.2.resnets.1.time_emb_proj.bias"> : tensor<1280xf16>
  util.global private @_params.unet.down_blocks.2.resnets.1.norm2.weight {noinline} = #stream.parameter.named<"model"::"unet.down_blocks.2.resnets.1.norm2.weight"> : tensor<1280xf16>
  util.global private @_params.unet.down_blocks.2.resnets.1.norm2.bias {noinline} = #stream.parameter.named<"model"::"unet.down_blocks.2.resnets.1.norm2.bias"> : tensor<1280xf16>
  util.global private @_params.unet.down_blocks.2.resnets.1.conv2.weight {noinline} = #stream.parameter.named<"model"::"unet.down_blocks.2.resnets.1.conv2.weight"> : tensor<1280x1280x3x3xf16>
  util.global private @_params.unet.down_blocks.2.resnets.1.conv2.bias {noinline} = #stream.parameter.named<"model"::"unet.down_blocks.2.resnets.1.conv2.bias"> : tensor<1280xf16>
  util.global private @_params.unet.up_blocks.0.attentions.0.norm.weight {noinline} = #stream.parameter.named<"model"::"unet.up_blocks.0.attentions.0.norm.weight"> : tensor<1280xf16>
  util.global private @_params.unet.up_blocks.0.attentions.0.norm.bias {noinline} = #stream.parameter.named<"model"::"unet.up_blocks.0.attentions.0.norm.bias"> : tensor<1280xf16>
  util.global private @_params.unet.up_blocks.0.attentions.0.proj_in.weight {noinline} = #stream.parameter.named<"model"::"unet.up_blocks.0.attentions.0.proj_in.weight"> : tensor<1280x1280xf16>
  util.global private @_params.unet.up_blocks.0.attentions.0.proj_in.bias {noinline} = #stream.parameter.named<"model"::"unet.up_blocks.0.attentions.0.proj_in.bias"> : tensor<1280xf16>
  util.global private @_params.unet.up_blocks.0.attentions.0.transformer_blocks.0.norm1.weight {noinline} = #stream.parameter.named<"model"::"unet.up_blocks.0.attentions.0.transformer_blocks.0.norm1.weight"> : tensor<1280xf16>
  util.global private @_params.unet.up_blocks.0.attentions.0.transformer_blocks.0.norm1.bias {noinline} = #stream.parameter.named<"model"::"unet.up_blocks.0.attentions.0.transformer_blocks.0.norm1.bias"> : tensor<1280xf16>
  util.global private @_params.unet.up_blocks.0.attentions.0.transformer_blocks.0.attn1.to_q.weight {noinline} = #stream.parameter.named<"model"::"unet.up_blocks.0.attentions.0.transformer_blocks.0.attn1.to_q.weight"> : tensor<1280x1280xf16>
  util.global private @_params.unet.up_blocks.0.attentions.0.transformer_blocks.0.attn1.to_k.weight {noinline} = #stream.parameter.named<"model"::"unet.up_blocks.0.attentions.0.transformer_blocks.0.attn1.to_k.weight"> : tensor<1280x1280xf16>
  util.global private @_params.unet.up_blocks.0.attentions.0.transformer_blocks.0.attn1.to_v.weight {noinline} = #stream.parameter.named<"model"::"unet.up_blocks.0.attentions.0.transformer_blocks.0.attn1.to_v.weight"> : tensor<1280x1280xf16>
  util.global private @_params.unet.up_blocks.0.attentions.0.transformer_blocks.0.attn1.to_out.0.weight {noinline} = #stream.parameter.named<"model"::"unet.up_blocks.0.attentions.0.transformer_blocks.0.attn1.to_out.0.weight"> : tensor<1280x1280xf16>
  util.global private @_params.unet.up_blocks.0.attentions.0.transformer_blocks.0.attn1.to_out.0.bias {noinline} = #stream.parameter.named<"model"::"unet.up_blocks.0.attentions.0.transformer_blocks.0.attn1.to_out.0.bias"> : tensor<1280xf16>
  util.global private @_params.unet.up_blocks.0.attentions.0.transformer_blocks.0.norm2.weight {noinline} = #stream.parameter.named<"model"::"unet.up_blocks.0.attentions.0.transformer_blocks.0.norm2.weight"> : tensor<1280xf16>
  util.global private @_params.unet.up_blocks.0.attentions.0.transformer_blocks.0.norm2.bias {noinline} = #stream.parameter.named<"model"::"unet.up_blocks.0.attentions.0.transformer_blocks.0.norm2.bias"> : tensor<1280xf16>
  util.global private @_params.unet.up_blocks.0.attentions.0.transformer_blocks.0.attn2.to_q.weight {noinline} = #stream.parameter.named<"model"::"unet.up_blocks.0.attentions.0.transformer_blocks.0.attn2.to_q.weight"> : tensor<1280x1280xf16>
  util.global private @_params.unet.up_blocks.0.attentions.0.transformer_blocks.0.attn2.to_k.weight {noinline} = #stream.parameter.named<"model"::"unet.up_blocks.0.attentions.0.transformer_blocks.0.attn2.to_k.weight"> : tensor<1280x2048xf16>
  util.global private @_params.unet.up_blocks.0.attentions.0.transformer_blocks.0.attn2.to_v.weight {noinline} = #stream.parameter.named<"model"::"unet.up_blocks.0.attentions.0.transformer_blocks.0.attn2.to_v.weight"> : tensor<1280x2048xf16>
  util.global private @_params.unet.up_blocks.0.attentions.0.transformer_blocks.0.attn2.to_out.0.weight {noinline} = #stream.parameter.named<"model"::"unet.up_blocks.0.attentions.0.transformer_blocks.0.attn2.to_out.0.weight"> : tensor<1280x1280xf16>
  util.global private @_params.unet.up_blocks.0.attentions.0.transformer_blocks.0.attn2.to_out.0.bias {noinline} = #stream.parameter.named<"model"::"unet.up_blocks.0.attentions.0.transformer_blocks.0.attn2.to_out.0.bias"> : tensor<1280xf16>
  util.global private @_params.unet.up_blocks.0.attentions.0.transformer_blocks.0.norm3.weight {noinline} = #stream.parameter.named<"model"::"unet.up_blocks.0.attentions.0.transformer_blocks.0.norm3.weight"> : tensor<1280xf16>
  util.global private @_params.unet.up_blocks.0.attentions.0.transformer_blocks.0.norm3.bias {noinline} = #stream.parameter.named<"model"::"unet.up_blocks.0.attentions.0.transformer_blocks.0.norm3.bias"> : tensor<1280xf16>
  util.global private @_params.unet.up_blocks.0.attentions.0.transformer_blocks.0.ff.net.0.proj.weight {noinline} = #stream.parameter.named<"model"::"unet.up_blocks.0.attentions.0.transformer_blocks.0.ff.net.0.proj.weight"> : tensor<10240x1280xf16>
  util.global private @_params.unet.up_blocks.0.attentions.0.transformer_blocks.0.ff.net.0.proj.bias {noinline} = #stream.parameter.named<"model"::"unet.up_blocks.0.attentions.0.transformer_blocks.0.ff.net.0.proj.bias"> : tensor<10240xf16>
  util.global private @_params.unet.up_blocks.0.attentions.0.transformer_blocks.0.ff.net.2.weight {noinline} = #stream.parameter.named<"model"::"unet.up_blocks.0.attentions.0.transformer_blocks.0.ff.net.2.weight"> : tensor<1280x5120xf16>
  util.global private @_params.unet.up_blocks.0.attentions.0.transformer_blocks.0.ff.net.2.bias {noinline} = #stream.parameter.named<"model"::"unet.up_blocks.0.attentions.0.transformer_blocks.0.ff.net.2.bias"> : tensor<1280xf16>
  util.global private @_params.unet.up_blocks.0.attentions.0.transformer_blocks.1.norm1.weight {noinline} = #stream.parameter.named<"model"::"unet.up_blocks.0.attentions.0.transformer_blocks.1.norm1.weight"> : tensor<1280xf16>
  util.global private @_params.unet.up_blocks.0.attentions.0.transformer_blocks.1.norm1.bias {noinline} = #stream.parameter.named<"model"::"unet.up_blocks.0.attentions.0.transformer_blocks.1.norm1.bias"> : tensor<1280xf16>
  util.global private @_params.unet.up_blocks.0.attentions.0.transformer_blocks.1.attn1.to_q.weight {noinline} = #stream.parameter.named<"model"::"unet.up_blocks.0.attentions.0.transformer_blocks.1.attn1.to_q.weight"> : tensor<1280x1280xf16>
  util.global private @_params.unet.up_blocks.0.attentions.0.transformer_blocks.1.attn1.to_k.weight {noinline} = #stream.parameter.named<"model"::"unet.up_blocks.0.attentions.0.transformer_blocks.1.attn1.to_k.weight"> : tensor<1280x1280xf16>
  util.global private @_params.unet.up_blocks.0.attentions.0.transformer_blocks.1.attn1.to_v.weight {noinline} = #stream.parameter.named<"model"::"unet.up_blocks.0.attentions.0.transformer_blocks.1.attn1.to_v.weight"> : tensor<1280x1280xf16>
  util.global private @_params.unet.up_blocks.0.attentions.0.transformer_blocks.1.attn1.to_out.0.weight {noinline} = #stream.parameter.named<"model"::"unet.up_blocks.0.attentions.0.transformer_blocks.1.attn1.to_out.0.weight"> : tensor<1280x1280xf16>
  util.global private @_params.unet.up_blocks.0.attentions.0.transformer_blocks.1.attn1.to_out.0.bias {noinline} = #stream.parameter.named<"model"::"unet.up_blocks.0.attentions.0.transformer_blocks.1.attn1.to_out.0.bias"> : tensor<1280xf16>
  util.global private @_params.unet.up_blocks.0.attentions.0.transformer_blocks.1.norm2.weight {noinline} = #stream.parameter.named<"model"::"unet.up_blocks.0.attentions.0.transformer_blocks.1.norm2.weight"> : tensor<1280xf16>
  util.global private @_params.unet.up_blocks.0.attentions.0.transformer_blocks.1.norm2.bias {noinline} = #stream.parameter.named<"model"::"unet.up_blocks.0.attentions.0.transformer_blocks.1.norm2.bias"> : tensor<1280xf16>
  util.global private @_params.unet.up_blocks.0.attentions.0.transformer_blocks.1.attn2.to_q.weight {noinline} = #stream.parameter.named<"model"::"unet.up_blocks.0.attentions.0.transformer_blocks.1.attn2.to_q.weight"> : tensor<1280x1280xf16>
  util.global private @_params.unet.up_blocks.0.attentions.0.transformer_blocks.1.attn2.to_k.weight {noinline} = #stream.parameter.named<"model"::"unet.up_blocks.0.attentions.0.transformer_blocks.1.attn2.to_k.weight"> : tensor<1280x2048xf16>
  util.global private @_params.unet.up_blocks.0.attentions.0.transformer_blocks.1.attn2.to_v.weight {noinline} = #stream.parameter.named<"model"::"unet.up_blocks.0.attentions.0.transformer_blocks.1.attn2.to_v.weight"> : tensor<1280x2048xf16>
  util.global private @_params.unet.up_blocks.0.attentions.0.transformer_blocks.1.attn2.to_out.0.weight {noinline} = #stream.parameter.named<"model"::"unet.up_blocks.0.attentions.0.transformer_blocks.1.attn2.to_out.0.weight"> : tensor<1280x1280xf16>
  util.global private @_params.unet.up_blocks.0.attentions.0.transformer_blocks.1.attn2.to_out.0.bias {noinline} = #stream.parameter.named<"model"::"unet.up_blocks.0.attentions.0.transformer_blocks.1.attn2.to_out.0.bias"> : tensor<1280xf16>
  util.global private @_params.unet.up_blocks.0.attentions.0.transformer_blocks.1.norm3.weight {noinline} = #stream.parameter.named<"model"::"unet.up_blocks.0.attentions.0.transformer_blocks.1.norm3.weight"> : tensor<1280xf16>
  util.global private @_params.unet.up_blocks.0.attentions.0.transformer_blocks.1.norm3.bias {noinline} = #stream.parameter.named<"model"::"unet.up_blocks.0.attentions.0.transformer_blocks.1.norm3.bias"> : tensor<1280xf16>
  util.global private @_params.unet.up_blocks.0.attentions.0.transformer_blocks.1.ff.net.0.proj.weight {noinline} = #stream.parameter.named<"model"::"unet.up_blocks.0.attentions.0.transformer_blocks.1.ff.net.0.proj.weight"> : tensor<10240x1280xf16>
  util.global private @_params.unet.up_blocks.0.attentions.0.transformer_blocks.1.ff.net.0.proj.bias {noinline} = #stream.parameter.named<"model"::"unet.up_blocks.0.attentions.0.transformer_blocks.1.ff.net.0.proj.bias"> : tensor<10240xf16>
  util.global private @_params.unet.up_blocks.0.attentions.0.transformer_blocks.1.ff.net.2.weight {noinline} = #stream.parameter.named<"model"::"unet.up_blocks.0.attentions.0.transformer_blocks.1.ff.net.2.weight"> : tensor<1280x5120xf16>
  util.global private @_params.unet.up_blocks.0.attentions.0.transformer_blocks.1.ff.net.2.bias {noinline} = #stream.parameter.named<"model"::"unet.up_blocks.0.attentions.0.transformer_blocks.1.ff.net.2.bias"> : tensor<1280xf16>
  util.global private @_params.unet.up_blocks.0.attentions.0.transformer_blocks.2.norm1.weight {noinline} = #stream.parameter.named<"model"::"unet.up_blocks.0.attentions.0.transformer_blocks.2.norm1.weight"> : tensor<1280xf16>
  util.global private @_params.unet.up_blocks.0.attentions.0.transformer_blocks.2.norm1.bias {noinline} = #stream.parameter.named<"model"::"unet.up_blocks.0.attentions.0.transformer_blocks.2.norm1.bias"> : tensor<1280xf16>
  util.global private @_params.unet.up_blocks.0.attentions.0.transformer_blocks.2.attn1.to_q.weight {noinline} = #stream.parameter.named<"model"::"unet.up_blocks.0.attentions.0.transformer_blocks.2.attn1.to_q.weight"> : tensor<1280x1280xf16>
  util.global private @_params.unet.up_blocks.0.attentions.0.transformer_blocks.2.attn1.to_k.weight {noinline} = #stream.parameter.named<"model"::"unet.up_blocks.0.attentions.0.transformer_blocks.2.attn1.to_k.weight"> : tensor<1280x1280xf16>
  util.global private @_params.unet.up_blocks.0.attentions.0.transformer_blocks.2.attn1.to_v.weight {noinline} = #stream.parameter.named<"model"::"unet.up_blocks.0.attentions.0.transformer_blocks.2.attn1.to_v.weight"> : tensor<1280x1280xf16>
  util.global private @_params.unet.up_blocks.0.attentions.0.transformer_blocks.2.attn1.to_out.0.weight {noinline} = #stream.parameter.named<"model"::"unet.up_blocks.0.attentions.0.transformer_blocks.2.attn1.to_out.0.weight"> : tensor<1280x1280xf16>
  util.global private @_params.unet.up_blocks.0.attentions.0.transformer_blocks.2.attn1.to_out.0.bias {noinline} = #stream.parameter.named<"model"::"unet.up_blocks.0.attentions.0.transformer_blocks.2.attn1.to_out.0.bias"> : tensor<1280xf16>
  util.global private @_params.unet.up_blocks.0.attentions.0.transformer_blocks.2.norm2.weight {noinline} = #stream.parameter.named<"model"::"unet.up_blocks.0.attentions.0.transformer_blocks.2.norm2.weight"> : tensor<1280xf16>
  util.global private @_params.unet.up_blocks.0.attentions.0.transformer_blocks.2.norm2.bias {noinline} = #stream.parameter.named<"model"::"unet.up_blocks.0.attentions.0.transformer_blocks.2.norm2.bias"> : tensor<1280xf16>
  util.global private @_params.unet.up_blocks.0.attentions.0.transformer_blocks.2.attn2.to_q.weight {noinline} = #stream.parameter.named<"model"::"unet.up_blocks.0.attentions.0.transformer_blocks.2.attn2.to_q.weight"> : tensor<1280x1280xf16>
  util.global private @_params.unet.up_blocks.0.attentions.0.transformer_blocks.2.attn2.to_k.weight {noinline} = #stream.parameter.named<"model"::"unet.up_blocks.0.attentions.0.transformer_blocks.2.attn2.to_k.weight"> : tensor<1280x2048xf16>
  util.global private @_params.unet.up_blocks.0.attentions.0.transformer_blocks.2.attn2.to_v.weight {noinline} = #stream.parameter.named<"model"::"unet.up_blocks.0.attentions.0.transformer_blocks.2.attn2.to_v.weight"> : tensor<1280x2048xf16>
  util.global private @_params.unet.up_blocks.0.attentions.0.transformer_blocks.2.attn2.to_out.0.weight {noinline} = #stream.parameter.named<"model"::"unet.up_blocks.0.attentions.0.transformer_blocks.2.attn2.to_out.0.weight"> : tensor<1280x1280xf16>
  util.global private @_params.unet.up_blocks.0.attentions.0.transformer_blocks.2.attn2.to_out.0.bias {noinline} = #stream.parameter.named<"model"::"unet.up_blocks.0.attentions.0.transformer_blocks.2.attn2.to_out.0.bias"> : tensor<1280xf16>
  util.global private @_params.unet.up_blocks.0.attentions.0.transformer_blocks.2.norm3.weight {noinline} = #stream.parameter.named<"model"::"unet.up_blocks.0.attentions.0.transformer_blocks.2.norm3.weight"> : tensor<1280xf16>
  util.global private @_params.unet.up_blocks.0.attentions.0.transformer_blocks.2.norm3.bias {noinline} = #stream.parameter.named<"model"::"unet.up_blocks.0.attentions.0.transformer_blocks.2.norm3.bias"> : tensor<1280xf16>
  util.global private @_params.unet.up_blocks.0.attentions.0.transformer_blocks.2.ff.net.0.proj.weight {noinline} = #stream.parameter.named<"model"::"unet.up_blocks.0.attentions.0.transformer_blocks.2.ff.net.0.proj.weight"> : tensor<10240x1280xf16>
  util.global private @_params.unet.up_blocks.0.attentions.0.transformer_blocks.2.ff.net.0.proj.bias {noinline} = #stream.parameter.named<"model"::"unet.up_blocks.0.attentions.0.transformer_blocks.2.ff.net.0.proj.bias"> : tensor<10240xf16>
  util.global private @_params.unet.up_blocks.0.attentions.0.transformer_blocks.2.ff.net.2.weight {noinline} = #stream.parameter.named<"model"::"unet.up_blocks.0.attentions.0.transformer_blocks.2.ff.net.2.weight"> : tensor<1280x5120xf16>
…
    %15209 = torch.prims.convert_element_type %15208, %int5_17252 : !torch.vtensor<[2,640,128,128],f32>, !torch.int -> !torch.vtensor<[2,640,128,128],f16>
    %int5_17253 = torch.constant.int 5
    %15210 = torch.prims.convert_element_type %result1_17237, %int5_17253 : !torch.vtensor<[2,32,1,1],f32>, !torch.int -> !torch.vtensor<[2,32,1,1],f16>
    %int5_17254 = torch.constant.int 5
    %15211 = torch.prims.convert_element_type %15194, %int5_17254 : !torch.vtensor<[2,32,1,1],f32>, !torch.int -> !torch.vtensor<[2,32,1,1],f16>
    %int3_17255 = torch.constant.int 3
    %15212 = torch.prim.ListConstruct %int3_17255 : (!torch.int) -> !torch.list<int>
    %15213 = torch.prims.squeeze %15210, %15212 : !torch.vtensor<[2,32,1,1],f16>, !torch.list<int> -> !torch.vtensor<[2,32,1],f16>
    %int2_17256 = torch.constant.int 2
    %15214 = torch.prim.ListConstruct %int2_17256 : (!torch.int) -> !torch.list<int>
    %15215 = torch.prims.squeeze %15213, %15214 : !torch.vtensor<[2,32,1],f16>, !torch.list<int> -> !torch.vtensor<[2,32],f16>
    %int3_17257 = torch.constant.int 3
    %15216 = torch.prim.ListConstruct %int3_17257 : (!torch.int) -> !torch.list<int>
    %15217 = torch.prims.squeeze %15211, %15216 : !torch.vtensor<[2,32,1,1],f16>, !torch.list<int> -> !torch.vtensor<[2,32,1],f16>
    %int2_17258 = torch.constant.int 2
    %15218 = torch.prim.ListConstruct %int2_17258 : (!torch.int) -> !torch.list<int>
    %15219 = torch.prims.squeeze %15217, %15218 : !torch.vtensor<[2,32,1],f16>, !torch.list<int> -> !torch.vtensor<[2,32],f16>
    %15220 = torch.aten.detach %15215 : !torch.vtensor<[2,32],f16> -> !torch.vtensor<[2,32],f16>
    %15221 = torch.aten.detach %15219 : !torch.vtensor<[2,32],f16> -> !torch.vtensor<[2,32],f16>
    %15222 = torch.aten.silu %15209 : !torch.vtensor<[2,640,128,128],f16> -> !torch.vtensor<[2,640,128,128],f16>
    %_params.unet.up_blocks.2.resnets.1.conv1.weight = util.global.load @_params.unet.up_blocks.2.resnets.1.conv1.weight : tensor<320x640x3x3xf16>
    %15223 = torch_c.from_builtin_tensor %_params.unet.up_blocks.2.resnets.1.conv1.weight : tensor<320x640x3x3xf16> -> !torch.vtensor<[320,640,3,3],f16>
    %_params.unet.up_blocks.2.resnets.1.conv1.bias = util.global.load @_params.unet.up_blocks.2.resnets.1.conv1.bias : tensor<320xf16>
    %15224 = torch_c.from_builtin_tensor %_params.unet.up_blocks.2.resnets.1.conv1.bias : tensor<320xf16> -> !torch.vtensor<[320],f16>
    %int1_17259 = torch.constant.int 1
    %int1_17260 = torch.constant.int 1
    %15225 = torch.prim.ListConstruct %int1_17259, %int1_17260 : (!torch.int, !torch.int) -> !torch.list<int>
    %int1_17261 = torch.constant.int 1
    %int1_17262 = torch.constant.int 1
    %15226 = torch.prim.ListConstruct %int1_17261, %int1_17262 : (!torch.int, !torch.int) -> !torch.list<int>
    %int1_17263 = torch.constant.int 1
    %int1_17264 = torch.constant.int 1
    %15227 = torch.prim.ListConstruct %int1_17263, %int1_17264 : (!torch.int, !torch.int) -> !torch.list<int>
    %false_17265 = torch.constant.bool false
    %int0_17266 = torch.constant.int 0
    %int0_17267 = torch.constant.int 0
    %15228 = torch.prim.ListConstruct %int0_17266, %int0_17267 : (!torch.int, !torch.int) -> !torch.list<int>
    %int1_17268 = torch.constant.int 1
    %15229 = torch.aten.convolution %15222, %15223, %15224, %15225, %15226, %15227, %false_17265, %15228, %int1_17268 : !torch.vtensor<[2,640,128,128],f16>, !torch.vtensor<[320,640,3,3],f16>, !torch.vtensor<[320],f16>, !torch.list<int>, !torch.list<int>, !torch.list<int>, !torch.bool, !torch.list<int>, !torch.int -> !torch.vtensor<[2,320,128,128],f16>
    %15230 = torch.aten.silu %100 : !torch.vtensor<[2,1280],f16> -> !torch.vtensor<[2,1280],f16>
    %_params.unet.up_blocks.2.resnets.1.time_emb_proj.weight = util.global.load @_params.unet.up_blocks.2.resnets.1.time_emb_proj.weight : tensor<320x1280xf16>
    %15231 = torch_c.from_builtin_tensor %_params.unet.up_blocks.2.resnets.1.time_emb_proj.weight : tensor<320x1280xf16> -> !torch.vtensor<[320,1280],f16>
    %int0_17269 = torch.constant.int 0
    %int1_17270 = torch.constant.int 1
    %15232 = torch.aten.transpose.int %15231, %int0_17269, %int1_17270 : !torch.vtensor<[320,1280],f16>, !torch.int, !torch.int -> !torch.vtensor<[1280,320],f16>
    %_params.unet.up_blocks.2.resnets.1.time_emb_proj.bias = util.global.load @_params.unet.up_blocks.2.resnets.1.time_emb_proj.bias : tensor<320xf16>
    %15233 = torch_c.from_builtin_tensor %_params.unet.up_blocks.2.resnets.1.time_emb_proj.bias : tensor<320xf16> -> !torch.vtensor<[320],f16>
    %int6_17271 = torch.constant.int 6
    %15234 = torch.prims.convert_element_type %15233, %int6_17271 : !torch.vtensor<[320],f16>, !torch.int -> !torch.vtensor<[320],f32>
    %int6_17272 = torch.constant.int 6
    %15235 = torch.prims.convert_element_type %15230, %int6_17272 : !torch.vtensor<[2,1280],f16>, !torch.int -> !torch.vtensor<[2,1280],f32>
    %int6_17273 = torch.constant.int 6
    %15236 = torch.prims.convert_element_type %15232, %int6_17273 : !torch.vtensor<[1280,320],f16>, !torch.int -> !torch.vtensor<[1280,320],f32>
    %15237 = torch.aten.mm %15235, %15236 : !torch.vtensor<[2,1280],f32>, !torch.vtensor<[1280,320],f32> -> !torch.vtensor<[2,320],f32>
    %int1_17274 = torch.constant.int 1
    %15238 = torch.aten.mul.Scalar %15237, %int1_17274 : !torch.vtensor<[2,320],f32>, !torch.int -> !torch.vtensor<[2,320],f32>
    %int1_17275 = torch.constant.int 1
    %15239 = torch.aten.mul.Scalar %15234, %int1_17275 : !torch.vtensor<[320],f32>, !torch.int -> !torch.vtensor<[320],f32>
    %int1_17276 = torch.constant.int 1
    %15240 = torch.aten.add.Tensor %15238, %15239, %int1_17276 : !torch.vtensor<[2,320],f32>, !torch.vtensor<[320],f32>, !torch.int -> !torch.vtensor<[2,320],f32>
    %int5_17277 = torch.constant.int 5
    %15241 = torch.prims.convert_element_type %15240, %int5_17277 : !torch.vtensor<[2,320],f32>, !torch.int -> !torch.vtensor<[2,320],f16>
    %int0_17278 = torch.constant.int 0
    %int0_17279 = torch.constant.int 0
    %int9223372036854775807_17280 = torch.constant.int 9223372036854775807
    %int1_17281 = torch.constant.int 1
    %15242 = torch.aten.slice.Tensor %15241, %int0_17278, %int0_17279, %int9223372036854775807_17280, %int1_17281 : !torch.vtensor<[2,320],f16>, !torch.int, !torch.int, !torch.int, !torch.int -> !torch.vtensor<[2,320],f16>
    %int1_17282 = torch.constant.int 1
    %int0_17283 = torch.constant.int 0
    %int9223372036854775807_17284 = torch.constant.int 9223372036854775807
    %int1_17285 = torch.constant.int 1
    %15243 = torch.aten.slice.Tensor %15242, %int1_17282, %int0_17283, %int9223372036854775807_17284, %int1_17285 : !torch.vtensor<[2,320],f16>, !torch.int, !torch.int, !torch.int, !torch.int -> !torch.vtensor<[2,320],f16>
    %int2_17286 = torch.constant.int 2
    %15244 = torch.aten.unsqueeze %15243, %int2_17286 : !torch.vtensor<[2,320],f16>, !torch.int -> !torch.vtensor<[2,320,1],f16>
    %int3_17287 = torch.constant.int 3
    %15245 = torch.aten.unsqueeze %15244, %int3_17287 : !torch.vtensor<[2,320,1],f16>, !torch.int -> !torch.vtensor<[2,320,1,1],f16>
    %int1_17288 = torch.constant.int 1
    %15246 = torch.aten.add.Tensor %15229, %15245, %int1_17288 : !torch.vtensor<[2,320,128,128],f16>, !torch.vtensor<[2,320,1,1],f16>, !torch.int -> !torch.vtensor<[2,320,128,128],f16>
    %int2_17289 = torch.constant.int 2
    %int32_17290 = torch.constant.int 32
    %int10_17291 = torch.constant.int 10
    %int16384_17292 = torch.constant.int 16384
    %15247 = torch.prim.ListConstruct %int2_17289, %int32_17290, %int10_17291, %int16384_17292 : (!torch.int, !torch.int, !torch.int, !torch.int) -> !torch.list<int>
    %15248 = torch.aten.view %15246, %15247 : !torch.vtensor<[2,320,128,128],f16>, !torch.list<int> -> !torch.vtensor<[2,32,10,16384],f16>
    %int6_17293 = torch.constant.int 6
    %15249 = torch.prims.convert_element_type %15248, %int6_17293 : !torch.vtensor<[2,32,10,16384],f16>, !torch.int -> !torch.vtensor<[2,32,10,16384],f32>
    %int2_17294 = torch.constant.int 2
    %int3_17295 = torch.constant.int 3
    %15250 = torch.prim.ListConstruct %int2_17294, %int3_17295 : (!torch.int, !torch.int) -> !torch.list<int>
    %int0_17296 = torch.constant.int 0
    %true_17297 = torch.constant.bool true
    %result0_17298, %result1_17299 = torch.aten.var_mean.correction %15249, %15250, %int0_17296, %true_17297 : !torch.vtensor<[2,32,10,16384],f32>, !torch.list<int>, !torch.int, !torch.bool -> !torch.vtensor<[2,32,1,1],f32>, !torch.vtensor<[2,32,1,1],f32>
    %float1.000000e-05_17300 = torch.constant.float 1.000000e-05
    %int1_17301 = torch.constant.int 1
    %15251 = torch.aten.add.Scalar %result0_17298, %float1.000000e-05_17300, %int1_17301 : !torch.vtensor<[2,32,1,1],f32>, !torch.float, !torch.int -> !torch.vtensor<[2,32,1,1],f32>
    %15252 = torch.aten.rsqrt %15251 : !torch.vtensor<[2,32,1,1],f32> -> !torch.vtensor<[2,32,1,1],f32>
    %int1_17302 = torch.constant.int 1
    %15253 = torch.aten.sub.Tensor %15248, %result1_17299, %int1_17302 : !torch.vtensor<[2,32,10,16384],f16>, !torch.vtensor<[2,32,1,1],f32>, !torch.int -> !torch.vtensor<[2,32,10,16384],f32>
    %15254 = torch.aten.mul.Tensor %15253, %15252 : !torch.vtensor<[2,32,10,16384],f32>, !torch.vtensor<[2,32,1,1],f32> -> !torch.vtensor<[2,32,10,16384],f32>
    %int2_17303 = torch.constant.int 2
    %int320_17304 = torch.constant.int 320
    %int128_17305 = torch.constant.int 128
    %int128_17306 = torch.constant.int 128
    %15255 = torch.prim.ListConstruct %int2_17303, %int320_17304, %int128_17305, %int128_17306 : (!torch.int, !torch.int, !torch.int, !torch.int) -> !torch.list<int>
    %15256 = torch.aten.view %15254, %15255 : !torch.vtensor<[2,32,10,16384],f32>, !torch.list<int> -> !torch.vtensor<[2,320,128,128],f32>
    %_params.unet.up_blocks.2.resnets.1.norm2.bias = util.global.load @_params.unet.up_blocks.2.resnets.1.norm2.bias : tensor<320xf16>
    %15257 = torch_c.from_builtin_tensor %_params.unet.up_blocks.2.resnets.1.norm2.bias : tensor<320xf16> -> !torch.vtensor<[320],f16>
    %int0_17307 = torch.constant.int 0
    %15258 = torch.aten.unsqueeze %15257, %int0_17307 : !torch.vtensor<[320],f16>, !torch.int -> !torch.vtensor<[1,320],f16>
    %int2_17308 = torch.constant.int 2
    %15259 = torch.aten.unsqueeze %15258, %int2_17308 : !torch.vtensor<[1,320],f16>, !torch.int -> !torch.vtensor<[1,320,1],f16>
    %int3_17309 = torch.constant.int 3
    %15260 = torch.aten.unsqueeze %15259, %int3_17309 : !torch.vtensor<[1,320,1],f16>, !torch.int -> !torch.vtensor<[1,320,1,1],f16>
    %_params.unet.up_blocks.2.resnets.1.norm2.weight = util.global.load @_params.unet.up_blocks.2.resnets.1.norm2.weight : tensor<320xf16>
    %15261 = torch_c.from_builtin_tensor %_params.unet.up_blocks.2.resnets.1.norm2.weight : tensor<320xf16> -> !torch.vtensor<[320],f16>
    %int0_17310 = torch.constant.int 0
    %15262 = torch.aten.unsqueeze %15261, %int0_17310 : !torch.vtensor<[320],f16>, !torch.int -> !torch.vtensor<[1,320],f16>
    %int2_17311 = torch.constant.int 2
    %15263 = torch.aten.unsqueeze %15262, %int2_17311 : !torch.vtensor<[1,320],f16>, !torch.int -> !torch.vtensor<[1,320,1],f16>
    %int3_17312 = torch.constant.int 3
    %15264 = torch.aten.unsqueeze %15263, %int3_17312 : !torch.vtensor<[1,320,1],f16>, !torch.int -> !torch.vtensor<[1,320,1,1],f16>
    %15265 = torch.aten.mul.Tensor %15256, %15264 : !torch.vtensor<[2,320,128,128],f32>, !torch.vtensor<[1,320,1,1],f16> -> !torch.vtensor<[2,320,128,128],f32>
    %int1_17313 = torch.constant.int 1
    %15266 = torch.aten.add.Tensor %15265, %15260, %int1_17313 : !torch.vtensor<[2,320,128,128],f32>, !torch.vtensor<[1,320,1,1],f16>, !torch.int -> !torch.vtensor<[2,320,128,128],f32>
    %int5_17314 = torch.constant.int 5
    %15267 = torch.prims.convert_element_type %15266, %int5_17314 : !torch.vtensor<[2,320,128,128],f32>, !torch.int -> !torch.vtensor<[2,320,128,128],f16>
    %int5_17315 = torch.constant.int 5
    %15268 = torch.prims.convert_element_type %result1_17299, %int5_17315 : !torch.vtensor<[2,32,1,1],f32>, !torch.int -> !torch.vtensor<[2,32,1,1],f16>
    %int5_17316 = torch.constant.int 5
    %15269 = torch.prims.convert_element_type %15252, %int5_17316 : !torch.vtensor<[2,32,1,1],f32>, !torch.int -> !torch.vtensor<[2,32,1,1],f16>
    %int3_17317 = torch.constant.int 3
    %15270 = torch.prim.ListConstruct %int3_17317 : (!torch.int) -> !torch.list<int>
    %15271 = torch.prims.squeeze %15268, %15270 : !torch.vtensor<[2,32,1,1],f16>, !torch.list<int> -> !torch.vtensor<[2,32,1],f16>
    %int2_17318 = torch.constant.int 2
    %15272 = torch.prim.ListConstruct %int2_17318 : (!torch.int) -> !torch.list<int>
    %15273 = torch.prims.squeeze %15271, %15272 : !torch.vtensor<[2,32,1],f16>, !torch.list<int> -> !torch.vtensor<[2,32],f16>
    %int3_17319 = torch.constant.int 3
    %15274 = torch.prim.ListConstruct %int3_17319 : (!torch.int) -> !torch.list<int>
    %15275 = torch.prims.squeeze %15269, %15274 : !torch.vtensor<[2,32,1,1],f16>, !torch.list<int> -> !torch.vtensor<[2,32,1],f16>
    %int2_17320 = torch.constant.int 2
    %15276 = torch.prim.ListConstruct %int2_17320 : (!torch.int) -> !torch.list<int>
    %15277 = torch.prims.squeeze %15275, %15276 : !torch.vtensor<[2,32,1],f16>, !torch.list<int> -> !torch.vtensor<[2,32],f16>
    %15278 = torch.aten.detach %15273 : !torch.vtensor<[2,32],f16> -> !torch.vtensor<[2,32],f16>
    %15279 = torch.aten.detach %15277 : !torch.vtensor<[2,32],f16> -> !torch.vtensor<[2,32],f16>
    %15280 = torch.aten.silu %15267 : !torch.vtensor<[2,320,128,128],f16> -> !torch.vtensor<[2,320,128,128],f16>
    %none_17321 = torch.constant.none
    %15281 = torch.aten.clone %15280, %none_17321 : !torch.vtensor<[2,320,128,128],f16>, !torch.none -> !torch.vtensor<[2,320,128,128],f16>
    %_params.unet.up_blocks.2.resnets.1.conv2.weight = util.global.load @_params.unet.up_blocks.2.resnets.1.conv2.weight : tensor<320x320x3x3xf16>
    %15282 = torch_c.from_builtin_tensor %_params.unet.up_blocks.2.resnets.1.conv2.weight : tensor<320x320x3x3xf16> -> !torch.vtensor<[320,320,3,3],f16>
    %_params.unet.up_blocks.2.resnets.1.conv2.bias = util.global.load @_params.unet.up_blocks.2.resnets.1.conv2.bias : tensor<320xf16>
    %15283 = torch_c.from_builtin_tensor %_params.unet.up_blocks.2.resnets.1.conv2.bias : tensor<320xf16> -> !torch.vtensor<[320],f16>
    %int1_17322 = torch.constant.int 1
    %int1_17323 = torch.constant.int 1
    %15284 = torch.prim.ListConstruct %int1_17322, %int1_17323 : (!torch.int, !torch.int) -> !torch.list<int>
    %int1_17324 = torch.constant.int 1
    %int1_17325 = torch.constant.int 1
    %15285 = torch.prim.ListConstruct %int1_17324, %int1_17325 : (!torch.int, !torch.int) -> !torch.list<int>
    %int1_17326 = torch.constant.int 1
    %int1_17327 = torch.constant.int 1
    %15286 = torch.prim.ListConstruct %int1_17326, %int1_17327 : (!torch.int, !torch.int) -> !torch.list<int>
    %false_17328 = torch.constant.bool false
    %int0_17329 = torch.constant.int 0
    %int0_17330 = torch.constant.int 0
    %15287 = torch.prim.ListConstruct %int0_17329, %int0_17330 : (!torch.int, !torch.int) -> !torch.list<int>
    %int1_17331 = torch.constant.int 1
    %15288 = torch.aten.convolution %15281, %15282, %15283, %15284, %15285, %15286, %false_17328, %15287, %int1_17331 : !torch.vtensor<[2,320,128,128],f16>, !torch.vtensor<[320,320,3,3],f16>, !torch.vtensor<[320],f16>, !torch.list<int>, !torch.list<int>, !torch.list<int>, !torch.bool, !torch.list<int>, !torch.int -> !torch.vtensor<[2,320,128,128],f16>
    %_params.unet.up_blocks.2.resnets.1.conv_shortcut.weight = util.global.load @_params.unet.up_blocks.2.resnets.1.conv_shortcut.weight : tensor<320x640x1x1xf16>
    %15289 = torch_c.from_builtin_tensor %_params.unet.up_blocks.2.resnets.1.conv_shortcut.weight : tensor<320x640x1x1xf16> -> !torch.vtensor<[320,640,1,1],f16>
    %_params.unet.up_blocks.2.resnets.1.conv_shortcut.bias = util.global.load @_params.unet.up_blocks.2.resnets.1.conv_shortcut.bias : tensor<320xf16>
    %15290 = torch_c.from_builtin_tensor %_params.unet.up_blocks.2.resnets.1.conv_shortcut.bias : tensor<320xf16> -> !torch.vtensor<[320],f16>
    %int1_17332 = torch.constant.int 1
    %int1_17333 = torch.constant.int 1
    %15291 = torch.prim.ListConstruct %int1_17332, %int1_17333 : (!torch.int, !torch.int) -> !torch.list<int>
    %int0_17334 = torch.constant.int 0
    %int0_17335 = torch.constant.int 0
    %15292 = torch.prim.ListConstruct %int0_17334, %int0_17335 : (!torch.int, !torch.int) -> !torch.list<int>
    %int1_17336 = torch.constant.int 1
    %int1_17337 = torch.constant.int 1
    %15293 = torch.prim.ListConstruct %int1_17336, %int1_17337 : (!torch.int, !torch.int) -> !torch.list<int>
    %false_17338 = torch.constant.bool false
    %int0_17339 = torch.constant.int 0
    %int0_17340 = torch.constant.int 0
    %15294 = torch.prim.ListConstruct %int0_17339, %int0_17340 : (!torch.int, !torch.int) -> !torch.list<int>
    %int1_17341 = torch.constant.int 1
    %15295 = torch.aten.convolution %15188, %15289, %15290, %15291, %15292, %15293, %false_17338, %15294, %int1_17341 : !torch.vtensor<[2,640,128,128],f16>, !torch.vtensor<[320,640,1,1],f16>, !torch.vtensor<[320],f16>, !torch.list<int>, !torch.list<int>, !torch.list<int>, !torch.bool, !torch.list<int>, !torch.int -> !torch.vtensor<[2,320,128,128],f16>
    %int1_17342 = torch.constant.int 1
    %15296 = torch.aten.add.Tensor %15295, %15288, %int1_17342 : !torch.vtensor<[2,320,128,128],f16>, !torch.vtensor<[2,320,128,128],f16>, !torch.int -> !torch.vtensor<[2,320,128,128],f16>
    %float1.000000e00_17343 = torch.constant.float 1.000000e+00
    %15297 = torch.aten.div.Scalar %15296, %float1.000000e00_17343 : !torch.vtensor<[2,320,128,128],f16>, !torch.float -> !torch.vtensor<[2,320,128,128],f16>
    %15298 = torch.prim.ListConstruct %15297, %107 : (!torch.vtensor<[2,320,128,128],f16>, !torch.vtensor<[2,320,128,128],f16>) -> !torch.list<vtensor>
    %int1_17344 = torch.constant.int 1
    %15299 = torch.aten.cat %15298, %int1_17344 : !torch.list<vtensor>, !torch.int -> !torch.vtensor<[2,640,128,128],f16>
    %int2_17345 = torch.constant.int 2
    %int32_17346 = torch.constant.int 32
    %int20_17347 = torch.constant.int 20
    %int16384_17348 = torch.constant.int 16384
    %15300 = torch.prim.ListConstruct %int2_17345, %int32_17346, %int20_17347, %int16384_17348 : (!torch.int, !torch.int, !torch.int, !torch.int) -> !torch.list<int>
    %15301 = torch.aten.view %15299, %15300 : !torch.vtensor<[2,640,128,128],f16>, !torch.list<int> -> !torch.vtensor<[2,32,20,16384],f16>
    %int6_17349 = torch.constant.int 6
    %15302 = torch.prims.convert_element_type %15301, %int6_17349 : !torch.vtensor<[2,32,20,16384],f16>, !torch.int -> !torch.vtensor<[2,32,20,16384],f32>
    %int2_17350 = torch.constant.int 2
    %int3_17351 = torch.constant.int 3
    %15303 = torch.prim.ListConstruct %int2_17350, %int3_17351 : (!torch.int, !torch.int) -> !torch.list<int>
    %int0_17352 = torch.constant.int 0
    %true_17353 = torch.constant.bool true
    %result0_17354, %result1_17355 = torch.aten.var_mean.correction %15302, %15303, %int0_17352, %true_17353 : !torch.vtensor<[2,32,20,16384],f32>, !torch.list<int>, !torch.int, !torch.bool -> !torch.vtensor<[2,32,1,1],f32>, !torch.vtensor<[2,32,1,1],f32>
    %float1.000000e-05_17356 = torch.constant.float 1.000000e-05
    %int1_17357 = torch.constant.int 1
    %15304 = torch.aten.add.Scalar %result0_17354, %float1.000000e-05_17356, %int1_17357 : !torch.vtensor<[2,32,1,1],f32>, !torch.float, !torch.int -> !torch.vtensor<[2,32,1,1],f32>
    %15305 = torch.aten.rsqrt %15304 : !torch.vtensor<[2,32,1,1],f32> -> !torch.vtensor<[2,32,1,1],f32>
    %int1_17358 = torch.constant.int 1
    %15306 = torch.aten.sub.Tensor %15301, %result1_17355, %int1_17358 : !torch.vtensor<[2,32,20,16384],f16>, !torch.vtensor<[2,32,1,1],f32>, !torch.int -> !torch.vtensor<[2,32,20,16384],f32>
    %15307 = torch.aten.mul.Tensor %15306, %15305 : !torch.vtensor<[2,32,20,16384],f32>, !torch.vtensor<[2,32,1,1],f32> -> !torch.vtensor<[2,32,20,16384],f32>
    %int2_17359 = torch.constant.int 2
    %int640_17360 = torch.constant.int 640
    %int128_17361 = torch.constant.int 128
    %int128_17362 = torch.constant.int 128
    %15308 = torch.prim.ListConstruct %int2_17359, %int640_17360, %int128_17361, %int128_17362 : (!torch.int, !torch.int, !torch.int, !torch.int) -> !torch.list<int>
    %15309 = torch.aten.view %15307, %15308 : !torch.vtensor<[2,32,20,16384],f32>, !torch.list<int> -> !torch.vtensor<[2,640,128,128],f32>
    %_params.unet.up_blocks.2.resnets.2.norm1.bias = util.global.load @_params.unet.up_blocks.2.resnets.2.norm1.bias : tensor<640xf16>
    %15310 = torch_c.from_builtin_tensor %_params.unet.up_blocks.2.resnets.2.norm1.bias : tensor<640xf16> -> !torch.vtensor<[640],f16>
    %int0_17363 = torch.constant.int 0
    %15311 = torch.aten.unsqueeze %15310, %int0_17363 : !torch.vtensor<[640],f16>, !torch.int -> !torch.vtensor<[1,640],f16>
    %int2_17364 = torch.constant.int 2
    %15312 = torch.aten.unsqueeze %15311, %int2_17364 : !torch.vtensor<[1,640],f16>, !torch.int -> !torch.vtensor<[1,640,1],f16>
    %int3_17365 = torch.constant.int 3
    %15313 = torch.aten.unsqueeze %15312, %int3_17365 : !torch.vtensor<[1,640,1],f16>, !torch.int -> !torch.vtensor<[1,640,1,1],f16>
    %_params.unet.up_blocks.2.resnets.2.norm1.weight = util.global.load @_params.unet.up_blocks.2.resnets.2.norm1.weight : tensor<640xf16>
    %15314 = torch_c.from_builtin_tensor %_params.unet.up_blocks.2.resnets.2.norm1.weight : tensor<640xf16> -> !torch.vtensor<[640],f16>
    %int0_17366 = torch.constant.int 0
    %15315 = torch.aten.unsqueeze %15314, %int0_17366 : !torch.vtensor<[640],f16>, !torch.int -> !torch.vtensor<[1,640],f16>
    %int2_17367 = torch.constant.int 2
    %15316 = torch.aten.unsqueeze %15315, %int2_17367 : !torch.vtensor<[1,640],f16>, !torch.int -> !torch.vtensor<[1,640,1],f16>
    %int3_17368 = torch.constant.int 3
    %15317 = torch.aten.unsqueeze %15316, %int3_17368 : !torch.vtensor<[1,640,1],f16>, !torch.int -> !torch.vtensor<[1,640,1,1],f16>
    %15318 = torch.aten.mul.Tensor %15309, %15317 : !torch.vtensor<[2,640,128,128],f32>, !torch.vtensor<[1,640,1,1],f16> -> !torch.vtensor<[2,640,128,128],f32>
    %int1_17369 = torch.constant.int 1
    %15319 = torch.aten.add.Tensor %15318, %15313, %int1_17369 : !torch.vtensor<[2,640,128,128],f32>, !torch.vtensor<[1,640,1,1],f16>, !torch.int -> !torch.vtensor<[2,640,128,128],f32>
    %int5_17370 = torch.constant.int 5
    %15320 = torch.prims.convert_element_type %15319, %int5_17370 : !torch.vtensor<[2,640,128,128],f32>, !torch.int -> !torch.vtensor<[2,640,128,128],f16>
    %int5_17371 = torch.constant.int 5
    %15321 = torch.prims.convert_element_type %result1_17355, %int5_17371 : !torch.vtensor<[2,32,1,1],f32>, !torch.int -> !torch.vtensor<[2,32,1,1],f16>
    %int5_17372 = torch.constant.int 5
    %15322 = torch.prims.convert_element_type %15305, %int5_17372 : !torch.vtensor<[2,32,1,1],f32>, !torch.int -> !torch.vtensor<[2,32,1,1],f16>
    %int3_17373 = torch.constant.int 3
    %15323 = torch.prim.ListConstruct %int3_17373 : (!torch.int) -> !torch.list<int>
    %15324 = torch.prims.squeeze %15321, %15323 : !torch.vtensor<[2,32,1,1],f16>, !torch.list<int> -> !torch.vtensor<[2,32,1],f16>
    %int2_17374 = torch.constant.int 2
    %15325 = torch.prim.ListConstruct %int2_17374 : (!torch.int) -> !torch.list<int>
    %15326 = torch.prims.squeeze %15324, %15325 : !torch.vtensor<[2,32,1],f16>, !torch.list<int> -> !torch.vtensor<[2,32],f16>
    %int3_17375 = torch.constant.int 3
    %15327 = torch.prim.ListConstruct %int3_17375 : (!torch.int) -> !torch.list<int>
    %15328 = torch.prims.squeeze %15322, %15327 : !torch.vtensor<[2,32,1,1],f16>, !torch.list<int> -> !torch.vtensor<[2,32,1],f16>
    %int2_17376 = torch.constant.int 2
    %15329 = torch.prim.ListConstruct %int2_17376 : (!torch.int) -> !torch.list<int>
    %15330 = torch.prims.squeeze %15328, %15329 : !torch.vtensor<[2,32,1],f16>, !torch.list<int> -> !torch.vtensor<[2,32],f16>
    %15331 = torch.aten.detach %15326 : !torch.vtensor<[2,32],f16> -> !torch.vtensor<[2,32],f16>
    %15332 = torch.aten.detach %15330 : !torch.vtensor<[2,32],f16> -> !torch.vtensor<[2,32],f16>
    %15333 = torch.aten.silu %15320 : !torch.vtensor<[2,640,128,128],f16> -> !torch.vtensor<[2,640,128,128],f16>
    %_params.unet.up_blocks.2.resnets.2.conv1.weight = util.global.load @_params.unet.up_blocks.2.resnets.2.conv1.weight : tensor<320x640x3x3xf16>
    %15334 = torch_c.from_builtin_tensor %_params.unet.up_blocks.2.resnets.2.conv1.weight : tensor<320x640x3x3xf16> -> !torch.vtensor<[320,640,3,3],f16>
    %_params.unet.up_blocks.2.resnets.2.conv1.bias = util.global.load @_params.unet.up_blocks.2.resnets.2.conv1.bias : tensor<320xf16>
    %15335 = torch_c.from_builtin_tensor %_params.unet.up_blocks.2.resnets.2.conv1.bias : tensor<320xf16> -> !torch.vtensor<[320],f16>
    %int1_17377 = torch.constant.int 1
    %int1_17378 = torch.constant.int 1
    %15336 = torch.prim.ListConstruct %int1_17377, %int1_17378 : (!torch.int, !torch.int) -> !torch.list<int>
    %int1_17379 = torch.constant.int 1
    %int1_17380 = torch.constant.int 1
    %15337 = torch.prim.ListConstruct %int1_17379, %int1_17380 : (!torch.int, !torch.int) -> !torch.list<int>
    %int1_17381 = torch.constant.int 1
    %int1_17382 = torch.constant.int 1
    %15338 = torch.prim.ListConstruct %int1_17381, %int1_17382 : (!torch.int, !torch.int) -> !torch.list<int>
    %false_17383 = torch.constant.bool false
    %int0_17384 = torch.constant.int 0
    %int0_17385 = torch.constant.int 0
    %15339 = torch.prim.ListConstruct %int0_17384, %int0_17385 : (!torch.int, !torch.int) -> !torch.list<int>
    %int1_17386 = torch.constant.int 1
    %15340 = torch.aten.convolution %15333, %15334, %15335, %15336, %15337, %15338, %false_17383, %15339, %int1_17386 : !torch.vtensor<[2,640,128,128],f16>, !torch.vtensor<[320,640,3,3],f16>, !torch.vtensor<[320],f16>, !torch.list<int>, !torch.list<int>, !torch.list<int>, !torch.bool, !torch.list<int>, !torch.int -> !torch.vtensor<[2,320,128,128],f16>
    %15341 = torch.aten.silu %100 : !torch.vtensor<[2,1280],f16> -> !torch.vtensor<[2,1280],f16>
    %_params.unet.up_blocks.2.resnets.2.time_emb_proj.weight = util.global.load @_params.unet.up_blocks.2.resnets.2.time_emb_proj.weight : tensor<320x1280xf16>
    %15342 = torch_c.from_builtin_tensor %_params.unet.up_blocks.2.resnets.2.time_emb_proj.weight : tensor<320x1280xf16> -> !torch.vtensor<[320,1280],f16>
    %int0_17387 = torch.constant.int 0
    %int1_17388 = torch.constant.int 1
    %15343 = torch.aten.transpose.int %15342, %int0_17387, %int1_17388 : !torch.vtensor<[320,1280],f16>, !torch.int, !torch.int -> !torch.vtensor<[1280,320],f16>
    %_params.unet.up_blocks.2.resnets.2.time_emb_proj.bias = util.global.load @_params.unet.up_blocks.2.resnets.2.time_emb_proj.bias : tensor<320xf16>
    %15344 = torch_c.from_builtin_tensor %_params.unet.up_blocks.2.resnets.2.time_emb_proj.bias : tensor<320xf16> -> !torch.vtensor<[320],f16>
    %int6_17389 = torch.constant.int 6
    %15345 = torch.prims.convert_element_type %15344, %int6_17389 : !torch.vtensor<[320],f16>, !torch.int -> !torch.vtensor<[320],f32>
    %int6_17390 = torch.constant.int 6
    %15346 = torch.prims.convert_element_type %15341, %int6_17390 : !torch.vtensor<[2,1280],f16>, !torch.int -> !torch.vtensor<[2,1280],f32>
    %int6_17391 = torch.constant.int 6
    %15347 = torch.prims.convert_element_type %15343, %int6_17391 : !torch.vtensor<[1280,320],f16>, !torch.int -> !torch.vtensor<[1280,320],f32>
    %15348 = torch.aten.mm %15346, %15347 : !torch.vtensor<[2,1280],f32>, !torch.vtensor<[1280,320],f32> -> !torch.vtensor<[2,320],f32>
    %int1_17392 = torch.constant.int 1
    %15349 = torch.aten.mul.Scalar %15348, %int1_17392 : !torch.vtensor<[2,320],f32>, !torch.int -> !torch.vtensor<[2,320],f32>
    %int1_17393 = torch.constant.int 1
    %15350 = torch.aten.mul.Scalar %15345, %int1_17393 : !torch.vtensor<[320],f32>, !torch.int -> !torch.vtensor<[320],f32>
    %int1_17394 = torch.constant.int 1
    %15351 = torch.aten.add.Tensor %15349, %15350, %int1_17394 : !torch.vtensor<[2,320],f32>, !torch.vtensor<[320],f32>, !torch.int -> !torch.vtensor<[2,320],f32>
    %int5_17395 = torch.constant.int 5
    %15352 = torch.prims.convert_element_type %15351, %int5_17395 : !torch.vtensor<[2,320],f32>, !torch.int -> !torch.vtensor<[2,320],f16>
    %int0_17396 = torch.constant.int 0
    %int0_17397 = torch.constant.int 0
    %int9223372036854775807_17398 = torch.constant.int 9223372036854775807
    %int1_17399 = torch.constant.int 1
    %15353 = torch.aten.slice.Tensor %15352, %int0_17396, %int0_17397, %int9223372036854775807_17398, %int1_17399 : !torch.vtensor<[2,320],f16>, !torch.int, !torch.int, !torch.int, !torch.int -> !torch.vtensor<[2,320],f16>
    %int1_17400 = torch.constant.int 1
    %int0_17401 = torch.constant.int 0
    %int9223372036854775807_17402 = torch.constant.int 9223372036854775807
    %int1_17403 = torch.constant.int 1
    %15354 = torch.aten.slice.Tensor %15353, %int1_17400, %int0_17401, %int9223372036854775807_17402, %int1_17403 : !torch.vtensor<[2,320],f16>, !torch.int, !torch.int, !torch.int, !torch.int -> !torch.vtensor<[2,320],f16>
    %int2_17404 = torch.constant.int 2
    %15355 = torch.aten.unsqueeze %15354, %int2_17404 : !torch.vtensor<[2,320],f16>, !torch.int -> !torch.vtensor<[2,320,1],f16>
    %int3_17405 = torch.constant.int 3
    %15356 = torch.aten.unsqueeze %15355, %int3_17405 : !torch.vtensor<[2,320,1],f16>, !torch.int -> !torch.vtensor<[2,320,1,1],f16>
    %int1_17406 = torch.constant.int 1
    %15357 = torch.aten.add.Tensor %15340, %15356, %int1_17406 : !torch.vtensor<[2,320,128,128],f16>, !torch.vtensor<[2,320,1,1],f16>, !torch.int -> !torch.vtensor<[2,320,128,128],f16>
    %int2_17407 = torch.constant.int 2
    %int32_17408 = torch.constant.int 32
    %int10_17409 = torch.constant.int 10
    %int16384_17410 = torch.constant.int 16384
    %15358 = torch.prim.ListConstruct %int2_17407, %int32_17408, %int10_17409, %int16384_17410 : (!torch.int, !torch.int, !torch.int, !torch.int) -> !torch.list<int>
    %15359 = torch.aten.view %15357, %15358 : !torch.vtensor<[2,320,128,128],f16>, !torch.list<int> -> !torch.vtensor<[2,32,10,16384],f16>
    %int6_17411 = torch.constant.int 6
    %15360 = torch.prims.convert_element_type %15359, %int6_17411 : !torch.vtensor<[2,32,10,16384],f16>, !torch.int -> !torch.vtensor<[2,32,10,16384],f32>
    %int2_17412 = torch.constant.int 2
    %int3_17413 = torch.constant.int 3
    %15361 = torch.prim.ListConstruct %int2_17412, %int3_17413 : (!torch.int, !torch.int) -> !torch.list<int>
    %int0_17414 = torch.constant.int 0
    %true_17415 = torch.constant.bool true
    %result0_17416, %result1_17417 = torch.aten.var_mean.correction %15360, %15361, %int0_17414, %true_17415 : !torch.vtensor<[2,32,10,16384],f32>, !torch.list<int>, !torch.int, !torch.bool -> !torch.vtensor<[2,32,1,1],f32>, !torch.vtensor<[2,32,1,1],f32>
    %float1.000000e-05_17418 = torch.constant.float 1.000000e-05
    %int1_17419 = torch.constant.int 1
    %15362 = torch.aten.add.Scalar %result0_17416, %float1.000000e-05_17418, %int1_17419 : !torch.vtensor<[2,32,1,1],f32>, !torch.float, !torch.int -> !torch.vtensor<[2,32,1,1],f32>
    %15363 = torch.aten.rsqrt %15362 : !torch.vtensor<[2,32,1,1],f32> -> !torch.vtensor<[2,32,1,1],f32>
    %int1_17420 = torch.constant.int 1
    %15364 = torch.aten.sub.Tensor %15359, %result1_17417, %int1_17420 : !torch.vtensor<[2,32,10,16384],f16>, !torch.vtensor<[2,32,1,1],f32>, !torch.int -> !torch.vtensor<[2,32,10,16384],f32>
    %15365 = torch.aten.mul.Tensor %15364, %15363 : !torch.vtensor<[2,32,10,16384],f32>, !torch.vtensor<[2,32,1,1],f32> -> !torch.vtensor<[2,32,10,16384],f32>
    %int2_17421 = torch.constant.int 2
    %int320_17422 = torch.constant.int 320
    %int128_17423 = torch.constant.int 128
    %int128_17424 = torch.constant.int 128
    %15366 = torch.prim.ListConstruct %int2_17421, %int320_17422, %int128_17423, %int128_17424 : (!torch.int, !torch.int, !torch.int, !torch.int) -> !torch.list<int>
    %15367 = torch.aten.view %15365, %15366 : !torch.vtensor<[2,32,10,16384],f32>, !torch.list<int> -> !torch.vtensor<[2,320,128,128],f32>
    %_params.unet.up_blocks.2.resnets.2.norm2.bias = util.global.load @_params.unet.up_blocks.2.resnets.2.norm2.bias : tensor<320xf16>
    %15368 = torch_c.from_builtin_tensor %_params.unet.up_blocks.2.resnets.2.norm2.bias : tensor<320xf16> -> !torch.vtensor<[320],f16>
    %int0_17425 = torch.constant.int 0
    %15369 = torch.aten.unsqueeze %15368, %int0_17425 : !torch.vtensor<[320],f16>, !torch.int -> !torch.vtensor<[1,320],f16>
    %int2_17426 = torch.constant.int 2
    %15370 = torch.aten.unsqueeze %15369, %int2_17426 : !torch.vtensor<[1,320],f16>, !torch.int -> !torch.vtensor<[1,320,1],f16>
    %int3_17427 = torch.constant.int 3
    %15371 = torch.aten.unsqueeze %15370, %int3_17427 : !torch.vtensor<[1,320,1],f16>, !torch.int -> !torch.vtensor<[1,320,1,1],f16>
    %_params.unet.up_blocks.2.resnets.2.norm2.weight = util.global.load @_params.unet.up_blocks.2.resnets.2.norm2.weight : tensor<320xf16>
    %15372 = torch_c.from_builtin_tensor %_params.unet.up_blocks.2.resnets.2.norm2.weight : tensor<320xf16> -> !torch.vtensor<[320],f16>
    %int0_17428 = torch.constant.int 0
    %15373 = torch.aten.unsqueeze %15372, %int0_17428 : !torch.vtensor<[320],f16>, !torch.int -> !torch.vtensor<[1,320],f16>
    %int2_17429 = torch.constant.int 2
    %15374 = torch.aten.unsqueeze %15373, %int2_17429 : !torch.vtensor<[1,320],f16>, !torch.int -> !torch.vtensor<[1,320,1],f16>
    %int3_17430 = torch.constant.int 3
    %15375 = torch.aten.unsqueeze %15374, %int3_17430 : !torch.vtensor<[1,320,1],f16>, !torch.int -> !torch.vtensor<[1,320,1,1],f16>
    %15376 = torch.aten.mul.Tensor %15367, %15375 : !torch.vtensor<[2,320,128,128],f32>, !torch.vtensor<[1,320,1,1],f16> -> !torch.vtensor<[2,320,128,128],f32>
    %int1_17431 = torch.constant.int 1
    %15377 = torch.aten.add.Tensor %15376, %15371, %int1_17431 : !torch.vtensor<[2,320,128,128],f32>, !torch.vtensor<[1,320,1,1],f16>, !torch.int -> !torch.vtensor<[2,320,128,128],f32>
    %int5_17432 = torch.constant.int 5
    %15378 = torch.prims.convert_element_type %15377, %int5_17432 : !torch.vtensor<[2,320,128,128],f32>, !torch.int -> !torch.vtensor<[2,320,128,128],f16>
    %int5_17433 = torch.constant.int 5
    %15379 = torch.prims.convert_element_type %result1_17417, %int5_17433 : !torch.vtensor<[2,32,1,1],f32>, !torch.int -> !torch.vtensor<[2,32,1,1],f16>
    %int5_17434 = torch.constant.int 5
    %15380 = torch.prims.convert_element_type %15363, %int5_17434 : !torch.vtensor<[2,32,1,1],f32>, !torch.int -> !torch.vtensor<[2,32,1,1],f16>
    %int3_17435 = torch.constant.int 3
    %15381 = torch.prim.ListConstruct %int3_17435 : (!torch.int) -> !torch.list<int>
    %15382 = torch.prims.squeeze %15379, %15381 : !torch.vtensor<[2,32,1,1],f16>, !torch.list<int> -> !torch.vtensor<[2,32,1],f16>
    %int2_17436 = torch.constant.int 2
    %15383 = torch.prim.ListConstruct %int2_17436 : (!torch.int) -> !torch.list<int>
    %15384 = torch.prims.squeeze %15382, %15383 : !torch.vtensor<[2,32,1],f16>, !torch.list<int> -> !torch.vtensor<[2,32],f16>
    %int3_17437 = torch.constant.int 3
    %15385 = torch.prim.ListConstruct %int3_17437 : (!torch.int) -> !torch.list<int>
    %15386 = torch.prims.squeeze %15380, %15385 : !torch.vtensor<[2,32,1,1],f16>, !torch.list<int> -> !torch.vtensor<[2,32,1],f16>
    %int2_17438 = torch.constant.int 2
    %15387 = torch.prim.ListConstruct %int2_17438 : (!torch.int) -> !torch.list<int>
    %15388 = torch.prims.squeeze %15386, %15387 : !torch.vtensor<[2,32,1],f16>, !torch.list<int> -> !torch.vtensor<[2,32],f16>
    %15389 = torch.aten.detach %15384 : !torch.vtensor<[2,32],f16> -> !torch.vtensor<[2,32],f16>
    %15390 = torch.aten.detach %15388 : !torch.vtensor<[2,32],f16> -> !torch.vtensor<[2,32],f16>
    %15391 = torch.aten.silu %15378 : !torch.vtensor<[2,320,128,128],f16> -> !torch.vtensor<[2,320,128,128],f16>
    %none_17439 = torch.constant.none
    %15392 = torch.aten.clone %15391, %none_17439 : !torch.vtensor<[2,320,128,128],f16>, !torch.none -> !torch.vtensor<[2,320,128,128],f16>
    %_params.unet.up_blocks.2.resnets.2.conv2.weight = util.global.load @_params.unet.up_blocks.2.resnets.2.conv2.weight : tensor<320x320x3x3xf16>
    %15393 = torch_c.from_builtin_tensor %_params.unet.up_blocks.2.resnets.2.conv2.weight : tensor<320x320x3x3xf16> -> !torch.vtensor<[320,320,3,3],f16>
    %_params.unet.up_blocks.2.resnets.2.conv2.bias = util.global.load @_params.unet.up_blocks.2.resnets.2.conv2.bias : tensor<320xf16>
    %15394 = torch_c.from_builtin_tensor %_params.unet.up_blocks.2.resnets.2.conv2.bias : tensor<320xf16> -> !torch.vtensor<[320],f16>
    %int1_17440 = torch.constant.int 1
    %int1_17441 = torch.constant.int 1
    %15395 = torch.prim.ListConstruct %int1_17440, %int1_17441 : (!torch.int, !torch.int) -> !torch.list<int>
    %int1_17442 = torch.constant.int 1
    %int1_17443 = torch.constant.int 1
    %15396 = torch.prim.ListConstruct %int1_17442, %int1_17443 : (!torch.int, !torch.int) -> !torch.list<int>
    %int1_17444 = torch.constant.int 1
    %int1_17445 = torch.constant.int 1
    %15397 = torch.prim.ListConstruct %int1_17444, %int1_17445 : (!torch.int, !torch.int) -> !torch.list<int>
    %false_17446 = torch.constant.bool false
    %int0_17447 = torch.constant.int 0
    %int0_17448 = torch.constant.int 0
    %15398 = torch.prim.ListConstruct %int0_17447, %int0_17448 : (!torch.int, !torch.int) -> !torch.list<int>
    %int1_17449 = torch.constant.int 1
    %15399 = torch.aten.convolution %15392, %15393, %15394, %15395, %15396, %15397, %false_17446, %15398, %int1_17449 : !torch.vtensor<[2,320,128,128],f16>, !torch.vtensor<[320,320,3,3],f16>, !torch.vtensor<[320],f16>, !torch.list<int>, !torch.list<int>, !torch.list<int>, !torch.bool, !torch.list<int>, !torch.int -> !torch.vtensor<[2,320,128,128],f16>
    %_params.unet.up_blocks.2.resnets.2.conv_shortcut.weight = util.global.load @_params.unet.up_blocks.2.resnets.2.conv_shortcut.weight : tensor<320x640x1x1xf16>
    %15400 = torch_c.from_builtin_tensor %_params.unet.up_blocks.2.resnets.2.conv_shortcut.weight : tensor<320x640x1x1xf16> -> !torch.vtensor<[320,640,1,1],f16>
    %_params.unet.up_blocks.2.resnets.2.conv_shortcut.bias = util.global.load @_params.unet.up_blocks.2.resnets.2.conv_shortcut.bias : tensor<320xf16>
    %15401 = torch_c.from_builtin_tensor %_params.unet.up_blocks.2.resnets.2.conv_shortcut.bias : tensor<320xf16> -> !torch.vtensor<[320],f16>
    %int1_17450 = torch.constant.int 1
    %int1_17451 = torch.constant.int 1
    %15402 = torch.prim.ListConstruct %int1_17450, %int1_17451 : (!torch.int, !torch.int) -> !torch.list<int>
    %int0_17452 = torch.constant.int 0
    %int0_17453 = torch.constant.int 0
    %15403 = torch.prim.ListConstruct %int0_17452, %int0_17453 : (!torch.int, !torch.int) -> !torch.list<int>
    %int1_17454 = torch.constant.int 1
    %int1_17455 = torch.constant.int 1
    %15404 = torch.prim.ListConstruct %int1_17454, %int1_17455 : (!torch.int, !torch.int) -> !torch.list<int>
    %false_17456 = torch.constant.bool false
    %int0_17457 = torch.constant.int 0
    %int0_17458 = torch.constant.int 0
    %15405 = torch.prim.ListConstruct %int0_17457, %int0_17458 : (!torch.int, !torch.int) -> !torch.list<int>
    %int1_17459 = torch.constant.int 1
    %15406 = torch.aten.convolution %15299, %15400, %15401, %15402, %15403, %15404, %false_17456, %15405, %int1_17459 : !torch.vtensor<[2,640,128,128],f16>, !torch.vtensor<[320,640,1,1],f16>, !torch.vtensor<[320],f16>, !torch.list<int>, !torch.list<int>, !torch.list<int>, !torch.bool, !torch.list<int>, !torch.int -> !torch.vtensor<[2,320,128,128],f16>
    %int1_17460 = torch.constant.int 1
    %15407 = torch.aten.add.Tensor %15406, %15399, %int1_17460 : !torch.vtensor<[2,320,128,128],f16>, !torch.vtensor<[2,320,128,128],f16>, !torch.int -> !torch.vtensor<[2,320,128,128],f16>
    %float1.000000e00_17461 = torch.constant.float 1.000000e+00
    %15408 = torch.aten.div.Scalar %15407, %float1.000000e00_17461 : !torch.vtensor<[2,320,128,128],f16>, !torch.float -> !torch.vtensor<[2,320,128,128],f16>
    %int2_17462 = torch.constant.int 2
    %int32_17463 = torch.constant.int 32
    %int10_17464 = torch.constant.int 10
    %int16384_17465 = torch.constant.int 16384
    %15409 = torch.prim.ListConstruct %int2_17462, %int32_17463, %int10_17464, %int16384_17465 : (!torch.int, !torch.int, !torch.int, !torch.int) -> !torch.list<int>
    %15410 = torch.aten.view %15408, %15409 : !torch.vtensor<[2,320,128,128],f16>, !torch.list<int> -> !torch.vtensor<[2,32,10,16384],f16>
    %int6_17466 = torch.constant.int 6
    %15411 = torch.prims.convert_element_type %15410, %int6_17466 : !torch.vtensor<[2,32,10,16384],f16>, !torch.int -> !torch.vtensor<[2,32,10,16384],f32>
    %int2_17467 = torch.constant.int 2
    %int3_17468 = torch.constant.int 3
    %15412 = torch.prim.ListConstruct %int2_17467, %int3_17468 : (!torch.int, !torch.int) -> !torch.list<int>
    %int0_17469 = torch.constant.int 0
    %true_17470 = torch.constant.bool true
    %result0_17471, %result1_17472 = torch.aten.var_mean.correction %15411, %15412, %int0_17469, %true_17470 : !torch.vtensor<[2,32,10,16384],f32>, !torch.list<int>, !torch.int, !torch.bool -> !torch.vtensor<[2,32,1,1],f32>, !torch.vtensor<[2,32,1,1],f32>
    %float1.000000e-05_17473 = torch.constant.float 1.000000e-05
    %int1_17474 = torch.constant.int 1
    %15413 = torch.aten.add.Scalar %result0_17471, %float1.000000e-05_17473, %int1_17474 : !torch.vtensor<[2,32,1,1],f32>, !torch.float, !torch.int -> !torch.vtensor<[2,32,1,1],f32>
    %15414 = torch.aten.rsqrt %15413 : !torch.vtensor<[2,32,1,1],f32> -> !torch.vtensor<[2,32,1,1],f32>
    %int1_17475 = torch.constant.int 1
    %15415 = torch.aten.sub.Tensor %15410, %result1_17472, %int1_17475 : !torch.vtensor<[2,32,10,16384],f16>, !torch.vtensor<[2,32,1,1],f32>, !torch.int -> !torch.vtensor<[2,32,10,16384],f32>
    %15416 = torch.aten.mul.Tensor %15415, %15414 : !torch.vtensor<[2,32,10,16384],f32>, !torch.vtensor<[2,32,1,1],f32> -> !torch.vtensor<[2,32,10,16384],f32>
    %int2_17476 = torch.constant.int 2
    %int320_17477 = torch.constant.int 320
    %int128_17478 = torch.constant.int 128
    %int128_17479 = torch.constant.int 128
    %15417 = torch.prim.ListConstruct %int2_17476, %int320_17477, %int128_17478, %int128_17479 : (!torch.int, !torch.int, !torch.int, !torch.int) -> !torch.list<int>
    %15418 = torch.aten.view %15416, %15417 : !torch.vtensor<[2,32,10,16384],f32>, !torch.list<int> -> !torch.vtensor<[2,320,128,128],f32>
    %_params.unet.conv_norm_out.bias = util.global.load @_params.unet.conv_norm_out.bias : tensor<320xf16>
    %15419 = torch_c.from_builtin_tensor %_params.unet.conv_norm_out.bias : tensor<320xf16> -> !torch.vtensor<[320],f16>
    %int0_17480 = torch.constant.int 0
    %15420 = torch.aten.unsqueeze %15419, %int0_17480 : !torch.vtensor<[320],f16>, !torch.int -> !torch.vtensor<[1,320],f16>
    %int2_17481 = torch.constant.int 2
    %15421 = torch.aten.unsqueeze %15420, %int2_17481 : !torch.vtensor<[1,320],f16>, !torch.int -> !torch.vtensor<[1,320,1],f16>
    %int3_17482 = torch.constant.int 3
    %15422 = torch.aten.unsqueeze %15421, %int3_17482 : !torch.vtensor<[1,320,1],f16>, !torch.int -> !torch.vtensor<[1,320,1,1],f16>
    %_params.unet.conv_norm_out.weight = util.global.load @_params.unet.conv_norm_out.weight : tensor<320xf16>
    %15423 = torch_c.from_builtin_tensor %_params.unet.conv_norm_out.weight : tensor<320xf16> -> !torch.vtensor<[320],f16>
    %int0_17483 = torch.constant.int 0
    %15424 = torch.aten.unsqueeze %15423, %int0_17483 : !torch.vtensor<[320],f16>, !torch.int -> !torch.vtensor<[1,320],f16>
    %int2_17484 = torch.constant.int 2
    %15425 = torch.aten.unsqueeze %15424, %int2_17484 : !torch.vtensor<[1,320],f16>, !torch.int -> !torch.vtensor<[1,320,1],f16>
    %int3_17485 = torch.constant.int 3
    %15426 = torch.aten.unsqueeze %15425, %int3_17485 : !torch.vtensor<[1,320,1],f16>, !torch.int -> !torch.vtensor<[1,320,1,1],f16>
    %15427 = torch.aten.mul.Tensor %15418, %15426 : !torch.vtensor<[2,320,128,128],f32>, !torch.vtensor<[1,320,1,1],f16> -> !torch.vtensor<[2,320,128,128],f32>
    %int1_17486 = torch.constant.int 1
    %15428 = torch.aten.add.Tensor %15427, %15422, %int1_17486 : !torch.vtensor<[2,320,128,128],f32>, !torch.vtensor<[1,320,1,1],f16>, !torch.int -> !torch.vtensor<[2,320,128,128],f32>
    %int5_17487 = torch.constant.int 5
    %15429 = torch.prims.convert_element_type %15428, %int5_17487 : !torch.vtensor<[2,320,128,128],f32>, !torch.int -> !torch.vtensor<[2,320,128,128],f16>
    %int5_17488 = torch.constant.int 5
    %15430 = torch.prims.convert_element_type %result1_17472, %int5_17488 : !torch.vtensor<[2,32,1,1],f32>, !torch.int -> !torch.vtensor<[2,32,1,1],f16>
    %int5_17489 = torch.constant.int 5
    %15431 = torch.prims.convert_element_type %15414, %int5_17489 : !torch.vtensor<[2,32,1,1],f32>, !torch.int -> !torch.vtensor<[2,32,1,1],f16>
    %int3_17490 = torch.constant.int 3
    %15432 = torch.prim.ListConstruct %int3_17490 : (!torch.int) -> !torch.list<int>
    %15433 = torch.prims.squeeze %15430, %15432 : !torch.vtensor<[2,32,1,1],f16>, !torch.list<int> -> !torch.vtensor<[2,32,1],f16>
    %int2_17491 = torch.constant.int 2
    %15434 = torch.prim.ListConstruct %int2_17491 : (!torch.int) -> !torch.list<int>
    %15435 = torch.prims.squeeze %15433, %15434 : !torch.vtensor<[2,32,1],f16>, !torch.list<int> -> !torch.vtensor<[2,32],f16>
    %int3_17492 = torch.constant.int 3
    %15436 = torch.prim.ListConstruct %int3_17492 : (!torch.int) -> !torch.list<int>
    %15437 = torch.prims.squeeze %15431, %15436 : !torch.vtensor<[2,32,1,1],f16>, !torch.list<int> -> !torch.vtensor<[2,32,1],f16>
    %int2_17493 = torch.constant.int 2
    %15438 = torch.prim.ListConstruct %int2_17493 : (!torch.int) -> !torch.list<int>
    %15439 = torch.prims.squeeze %15437, %15438 : !torch.vtensor<[2,32,1],f16>, !torch.list<int> -> !torch.vtensor<[2,32],f16>
    %15440 = torch.aten.detach %15435 : !torch.vtensor<[2,32],f16> -> !torch.vtensor<[2,32],f16>
    %15441 = torch.aten.detach %15439 : !torch.vtensor<[2,32],f16> -> !torch.vtensor<[2,32],f16>
    %15442 = torch.aten.silu %15429 : !torch.vtensor<[2,320,128,128],f16> -> !torch.vtensor<[2,320,128,128],f16>
    %_params.unet.conv_out.weight = util.global.load @_params.unet.conv_out.weight : tensor<4x320x3x3xf16>
    %15443 = torch_c.from_builtin_tensor %_params.unet.conv_out.weight : tensor<4x320x3x3xf16> -> !torch.vtensor<[4,320,3,3],f16>
    %_params.unet.conv_out.bias = util.global.load @_params.unet.conv_out.bias : tensor<4xf16>
    %15444 = torch_c.from_builtin_tensor %_params.unet.conv_out.bias : tensor<4xf16> -> !torch.vtensor<[4],f16>
    %int1_17494 = torch.constant.int 1
    %int1_17495 = torch.constant.int 1
    %15445 = torch.prim.ListConstruct %int1_17494, %int1_17495 : (!torch.int, !torch.int) -> !torch.list<int>
    %int1_17496 = torch.constant.int 1
    %int1_17497 = torch.constant.int 1
    %15446 = torch.prim.ListConstruct %int1_17496, %int1_17497 : (!torch.int, !torch.int) -> !torch.list<int>
    %int1_17498 = torch.constant.int 1
    %int1_17499 = torch.constant.int 1
    %15447 = torch.prim.ListConstruct %int1_17498, %int1_17499 : (!torch.int, !torch.int) -> !torch.list<int>
    %false_17500 = torch.constant.bool false
    %int0_17501 = torch.constant.int 0
    %int0_17502 = torch.constant.int 0
    %15448 = torch.prim.ListConstruct %int0_17501, %int0_17502 : (!torch.int, !torch.int) -> !torch.list<int>
    %int1_17503 = torch.constant.int 1
    %15449 = torch.aten.convolution %15442, %15443, %15444, %15445, %15446, %15447, %false_17500, %15448, %int1_17503 : !torch.vtensor<[2,320,128,128],f16>, !torch.vtensor<[4,320,3,3],f16>, !torch.vtensor<[4],f16>, !torch.list<int>, !torch.list<int>, !torch.list<int>, !torch.bool, !torch.list<int>, !torch.int -> !torch.vtensor<[2,4,128,128],f16>
    %int0_17504 = torch.constant.int 0
    %int0_17505 = torch.constant.int 0
    %int1_17506 = torch.constant.int 1
    %int1_17507 = torch.constant.int 1
    %15450 = torch.aten.slice.Tensor %15449, %int0_17504, %int0_17505, %int1_17506, %int1_17507 : !torch.vtensor<[2,4,128,128],f16>, !torch.int, !torch.int, !torch.int, !torch.int -> !torch.vtensor<[1,4,128,128],f16>
    %int0_17508 = torch.constant.int 0
    %int1_17509 = torch.constant.int 1
    %int2_17510 = torch.constant.int 2
    %int1_17511 = torch.constant.int 1
    %15451 = torch.aten.slice.Tensor %15449, %int0_17508, %int1_17509, %int2_17510, %int1_17511 : !torch.vtensor<[2,4,128,128],f16>, !torch.int, !torch.int, !torch.int, !torch.int -> !torch.vtensor<[1,4,128,128],f16>
    %int1_17512 = torch.constant.int 1
    %15452 = torch.aten.sub.Tensor %15451, %15450, %int1_17512 : !torch.vtensor<[1,4,128,128],f16>, !torch.vtensor<[1,4,128,128],f16>, !torch.int -> !torch.vtensor<[1,4,128,128],f16>
    %15453 = torch.aten.mul.Tensor %arg5, %15452 : !torch.vtensor<[1],f16>, !torch.vtensor<[1,4,128,128],f16> -> !torch.vtensor<[1,4,128,128],f16>
    %int1_17513 = torch.constant.int 1
    %15454 = torch.aten.add.Tensor %15450, %15453, %int1_17513 : !torch.vtensor<[1,4,128,128],f16>, !torch.vtensor<[1,4,128,128],f16>, !torch.int -> !torch.vtensor<[1,4,128,128],f16>
    return %15454 : !torch.vtensor<[1,4,128,128],f16>
  }
}
