module @compiled_controlnet {
  util.global private @__auto.controlnet.time_embedding.linear_1.weight = #stream.parameter.named<"model"::"controlnet.time_embedding.linear_1.weight"> : tensor<1280x320xf16>
  util.global private @__auto.controlnet.time_embedding.linear_1.bias = #stream.parameter.named<"model"::"controlnet.time_embedding.linear_1.bias"> : tensor<1280xf16>
  util.global private @__auto.controlnet.time_embedding.linear_2.weight = #stream.parameter.named<"model"::"controlnet.time_embedding.linear_2.weight"> : tensor<1280x1280xf16>
  util.global private @__auto.controlnet.time_embedding.linear_2.bias = #stream.parameter.named<"model"::"controlnet.time_embedding.linear_2.bias"> : tensor<1280xf16>
  util.global private @__auto.controlnet.add_embedding.linear_1.weight = #stream.parameter.named<"model"::"controlnet.add_embedding.linear_1.weight"> : tensor<1280x2816xf16>
  util.global private @__auto.controlnet.add_embedding.linear_1.bias = #stream.parameter.named<"model"::"controlnet.add_embedding.linear_1.bias"> : tensor<1280xf16>
  util.global private @__auto.controlnet.add_embedding.linear_2.weight = #stream.parameter.named<"model"::"controlnet.add_embedding.linear_2.weight"> : tensor<1280x1280xf16>
  util.global private @__auto.controlnet.add_embedding.linear_2.bias = #stream.parameter.named<"model"::"controlnet.add_embedding.linear_2.bias"> : tensor<1280xf16>
  util.global private @__auto.controlnet.conv_in.weight = #stream.parameter.named<"model"::"controlnet.conv_in.weight"> : tensor<320x4x3x3xf16>
  util.global private @__auto.controlnet.conv_in.bias = #stream.parameter.named<"model"::"controlnet.conv_in.bias"> : tensor<320xf16>
  util.global private @__auto.controlnet.controlnet_cond_embedding.conv_in.weight = #stream.parameter.named<"model"::"controlnet.controlnet_cond_embedding.conv_in.weight"> : tensor<16x3x3x3xf16>
  util.global private @__auto.controlnet.controlnet_cond_embedding.conv_in.bias = #stream.parameter.named<"model"::"controlnet.controlnet_cond_embedding.conv_in.bias"> : tensor<16xf16>
  util.global private @__auto.controlnet.controlnet_cond_embedding.blocks.0.weight = #stream.parameter.named<"model"::"controlnet.controlnet_cond_embedding.blocks.0.weight"> : tensor<16x16x3x3xf16>
  util.global private @__auto.controlnet.controlnet_cond_embedding.blocks.0.bias = #stream.parameter.named<"model"::"controlnet.controlnet_cond_embedding.blocks.0.bias"> : tensor<16xf16>
  util.global private @__auto.controlnet.controlnet_cond_embedding.blocks.1.weight = #stream.parameter.named<"model"::"controlnet.controlnet_cond_embedding.blocks.1.weight"> : tensor<32x16x3x3xf16>
  util.global private @__auto.controlnet.controlnet_cond_embedding.blocks.1.bias = #stream.parameter.named<"model"::"controlnet.controlnet_cond_embedding.blocks.1.bias"> : tensor<32xf16>
  util.global private @__auto.controlnet.controlnet_cond_embedding.blocks.2.weight = #stream.parameter.named<"model"::"controlnet.controlnet_cond_embedding.blocks.2.weight"> : tensor<32x32x3x3xf16>
  util.global private @__auto.controlnet.controlnet_cond_embedding.blocks.2.bias = #stream.parameter.named<"model"::"controlnet.controlnet_cond_embedding.blocks.2.bias"> : tensor<32xf16>
  util.global private @__auto.controlnet.controlnet_cond_embedding.blocks.3.weight = #stream.parameter.named<"model"::"controlnet.controlnet_cond_embedding.blocks.3.weight"> : tensor<96x32x3x3xf16>
  util.global private @__auto.controlnet.controlnet_cond_embedding.blocks.3.bias = #stream.parameter.named<"model"::"controlnet.controlnet_cond_embedding.blocks.3.bias"> : tensor<96xf16>
  util.global private @__auto.controlnet.controlnet_cond_embedding.blocks.4.weight = #stream.parameter.named<"model"::"controlnet.controlnet_cond_embedding.blocks.4.weight"> : tensor<96x96x3x3xf16>
  util.global private @__auto.controlnet.controlnet_cond_embedding.blocks.4.bias = #stream.parameter.named<"model"::"controlnet.controlnet_cond_embedding.blocks.4.bias"> : tensor<96xf16>
  util.global private @__auto.controlnet.controlnet_cond_embedding.blocks.5.weight = #stream.parameter.named<"model"::"controlnet.controlnet_cond_embedding.blocks.5.weight"> : tensor<256x96x3x3xf16>
  util.global private @__auto.controlnet.controlnet_cond_embedding.blocks.5.bias = #stream.parameter.named<"model"::"controlnet.controlnet_cond_embedding.blocks.5.bias"> : tensor<256xf16>
  util.global private @__auto.controlnet.controlnet_cond_embedding.conv_out.weight = #stream.parameter.named<"model"::"controlnet.controlnet_cond_embedding.conv_out.weight"> : tensor<320x256x3x3xf16>
  util.global private @__auto.controlnet.controlnet_cond_embedding.conv_out.bias = #stream.parameter.named<"model"::"controlnet.controlnet_cond_embedding.conv_out.bias"> : tensor<320xf16>
  util.global private @__auto.controlnet.down_blocks.0.resnets.0.norm1.bias = #stream.parameter.named<"model"::"controlnet.down_blocks.0.resnets.0.norm1.bias"> : tensor<320xf16>
  util.global private @__auto.controlnet.down_blocks.0.resnets.0.norm1.weight = #stream.parameter.named<"model"::"controlnet.down_blocks.0.resnets.0.norm1.weight"> : tensor<320xf16>
  util.global private @__auto.controlnet.down_blocks.0.resnets.0.conv1.weight = #stream.parameter.named<"model"::"controlnet.down_blocks.0.resnets.0.conv1.weight"> : tensor<320x320x3x3xf16>
  util.global private @__auto.controlnet.down_blocks.0.resnets.0.conv1.bias = #stream.parameter.named<"model"::"controlnet.down_blocks.0.resnets.0.conv1.bias"> : tensor<320xf16>
  util.global private @__auto.controlnet.down_blocks.0.resnets.0.time_emb_proj.weight = #stream.parameter.named<"model"::"controlnet.down_blocks.0.resnets.0.time_emb_proj.weight"> : tensor<320x1280xf16>
  util.global private @__auto.controlnet.down_blocks.0.resnets.0.time_emb_proj.bias = #stream.parameter.named<"model"::"controlnet.down_blocks.0.resnets.0.time_emb_proj.bias"> : tensor<320xf16>
  util.global private @__auto.controlnet.down_blocks.0.resnets.0.norm2.bias = #stream.parameter.named<"model"::"controlnet.down_blocks.0.resnets.0.norm2.bias"> : tensor<320xf16>
  util.global private @__auto.controlnet.down_blocks.0.resnets.0.norm2.weight = #stream.parameter.named<"model"::"controlnet.down_blocks.0.resnets.0.norm2.weight"> : tensor<320xf16>
  util.global private @__auto.controlnet.down_blocks.0.resnets.0.conv2.weight = #stream.parameter.named<"model"::"controlnet.down_blocks.0.resnets.0.conv2.weight"> : tensor<320x320x3x3xf16>
  util.global private @__auto.controlnet.down_blocks.0.resnets.0.conv2.bias = #stream.parameter.named<"model"::"controlnet.down_blocks.0.resnets.0.conv2.bias"> : tensor<320xf16>
  util.global private @__auto.controlnet.down_blocks.0.resnets.1.norm1.bias = #stream.parameter.named<"model"::"controlnet.down_blocks.0.resnets.1.norm1.bias"> : tensor<320xf16>
  util.global private @__auto.controlnet.down_blocks.0.resnets.1.norm1.weight = #stream.parameter.named<"model"::"controlnet.down_blocks.0.resnets.1.norm1.weight"> : tensor<320xf16>
  util.global private @__auto.controlnet.down_blocks.0.resnets.1.conv1.weight = #stream.parameter.named<"model"::"controlnet.down_blocks.0.resnets.1.conv1.weight"> : tensor<320x320x3x3xf16>
  util.global private @__auto.controlnet.down_blocks.0.resnets.1.conv1.bias = #stream.parameter.named<"model"::"controlnet.down_blocks.0.resnets.1.conv1.bias"> : tensor<320xf16>
  util.global private @__auto.controlnet.down_blocks.0.resnets.1.time_emb_proj.weight = #stream.parameter.named<"model"::"controlnet.down_blocks.0.resnets.1.time_emb_proj.weight"> : tensor<320x1280xf16>
  util.global private @__auto.controlnet.down_blocks.0.resnets.1.time_emb_proj.bias = #stream.parameter.named<"model"::"controlnet.down_blocks.0.resnets.1.time_emb_proj.bias"> : tensor<320xf16>
  util.global private @__auto.controlnet.down_blocks.0.resnets.1.norm2.bias = #stream.parameter.named<"model"::"controlnet.down_blocks.0.resnets.1.norm2.bias"> : tensor<320xf16>
  util.global private @__auto.controlnet.down_blocks.0.resnets.1.norm2.weight = #stream.parameter.named<"model"::"controlnet.down_blocks.0.resnets.1.norm2.weight"> : tensor<320xf16>
  util.global private @__auto.controlnet.down_blocks.0.resnets.1.conv2.weight = #stream.parameter.named<"model"::"controlnet.down_blocks.0.resnets.1.conv2.weight"> : tensor<320x320x3x3xf16>
  util.global private @__auto.controlnet.down_blocks.0.resnets.1.conv2.bias = #stream.parameter.named<"model"::"controlnet.down_blocks.0.resnets.1.conv2.bias"> : tensor<320xf16>
  util.global private @__auto.controlnet.down_blocks.0.downsamplers.0.conv.weight = #stream.parameter.named<"model"::"controlnet.down_blocks.0.downsamplers.0.conv.weight"> : tensor<320x320x3x3xf16>
  util.global private @__auto.controlnet.down_blocks.0.downsamplers.0.conv.bias = #stream.parameter.named<"model"::"controlnet.down_blocks.0.downsamplers.0.conv.bias"> : tensor<320xf16>
  util.global private @__auto.controlnet.down_blocks.1.resnets.0.norm1.bias = #stream.parameter.named<"model"::"controlnet.down_blocks.1.resnets.0.norm1.bias"> : tensor<320xf16>
  util.global private @__auto.controlnet.down_blocks.1.resnets.0.norm1.weight = #stream.parameter.named<"model"::"controlnet.down_blocks.1.resnets.0.norm1.weight"> : tensor<320xf16>
  util.global private @__auto.controlnet.down_blocks.1.resnets.0.conv1.weight = #stream.parameter.named<"model"::"controlnet.down_blocks.1.resnets.0.conv1.weight"> : tensor<640x320x3x3xf16>
  util.global private @__auto.controlnet.down_blocks.1.resnets.0.conv1.bias = #stream.parameter.named<"model"::"controlnet.down_blocks.1.resnets.0.conv1.bias"> : tensor<640xf16>
  util.global private @__auto.controlnet.down_blocks.1.resnets.0.time_emb_proj.weight = #stream.parameter.named<"model"::"controlnet.down_blocks.1.resnets.0.time_emb_proj.weight"> : tensor<640x1280xf16>
  util.global private @__auto.controlnet.down_blocks.1.resnets.0.time_emb_proj.bias = #stream.parameter.named<"model"::"controlnet.down_blocks.1.resnets.0.time_emb_proj.bias"> : tensor<640xf16>
  util.global private @__auto.controlnet.down_blocks.1.resnets.0.norm2.bias = #stream.parameter.named<"model"::"controlnet.down_blocks.1.resnets.0.norm2.bias"> : tensor<640xf16>
  util.global private @__auto.controlnet.down_blocks.1.resnets.0.norm2.weight = #stream.parameter.named<"model"::"controlnet.down_blocks.1.resnets.0.norm2.weight"> : tensor<640xf16>
  util.global private @__auto.controlnet.down_blocks.1.resnets.0.conv2.weight = #stream.parameter.named<"model"::"controlnet.down_blocks.1.resnets.0.conv2.weight"> : tensor<640x640x3x3xf16>
  util.global private @__auto.controlnet.down_blocks.1.resnets.0.conv2.bias = #stream.parameter.named<"model"::"controlnet.down_blocks.1.resnets.0.conv2.bias"> : tensor<640xf16>
  util.global private @__auto.controlnet.down_blocks.1.resnets.0.conv_shortcut.weight = #stream.parameter.named<"model"::"controlnet.down_blocks.1.resnets.0.conv_shortcut.weight"> : tensor<640x320x1x1xf16>
  util.global private @__auto.controlnet.down_blocks.1.resnets.0.conv_shortcut.bias = #stream.parameter.named<"model"::"controlnet.down_blocks.1.resnets.0.conv_shortcut.bias"> : tensor<640xf16>
  util.global private @__auto.controlnet.down_blocks.1.attentions.0.norm.bias = #stream.parameter.named<"model"::"controlnet.down_blocks.1.attentions.0.norm.bias"> : tensor<640xf16>
  util.global private @__auto.controlnet.down_blocks.1.attentions.0.norm.weight = #stream.parameter.named<"model"::"controlnet.down_blocks.1.attentions.0.norm.weight"> : tensor<640xf16>
  util.global private @__auto.controlnet.down_blocks.1.attentions.0.proj_in.weight = #stream.parameter.named<"model"::"controlnet.down_blocks.1.attentions.0.proj_in.weight"> : tensor<640x640xf16>
  util.global private @__auto.controlnet.down_blocks.1.attentions.0.proj_in.bias = #stream.parameter.named<"model"::"controlnet.down_blocks.1.attentions.0.proj_in.bias"> : tensor<640xf16>
  util.global private @__auto.controlnet.down_blocks.1.attentions.0.transformer_blocks.0.norm1.weight = #stream.parameter.named<"model"::"controlnet.down_blocks.1.attentions.0.transformer_blocks.0.norm1.weight"> : tensor<640xf16>
  util.global private @__auto.controlnet.down_blocks.1.attentions.0.transformer_blocks.0.norm1.bias = #stream.parameter.named<"model"::"controlnet.down_blocks.1.attentions.0.transformer_blocks.0.norm1.bias"> : tensor<640xf16>
  util.global private @__auto.controlnet.down_blocks.1.attentions.0.transformer_blocks.0.attn1.to_q.weight = #stream.parameter.named<"model"::"controlnet.down_blocks.1.attentions.0.transformer_blocks.0.attn1.to_q.weight"> : tensor<640x640xf16>
  util.global private @__auto.controlnet.down_blocks.1.attentions.0.transformer_blocks.0.attn1.to_k.weight = #stream.parameter.named<"model"::"controlnet.down_blocks.1.attentions.0.transformer_blocks.0.attn1.to_k.weight"> : tensor<640x640xf16>
  util.global private @__auto.controlnet.down_blocks.1.attentions.0.transformer_blocks.0.attn1.to_v.weight = #stream.parameter.named<"model"::"controlnet.down_blocks.1.attentions.0.transformer_blocks.0.attn1.to_v.weight"> : tensor<640x640xf16>
  util.global private @__auto.controlnet.down_blocks.1.attentions.0.transformer_blocks.0.attn1.to_out.0.weight = #stream.parameter.named<"model"::"controlnet.down_blocks.1.attentions.0.transformer_blocks.0.attn1.to_out.0.weight"> : tensor<640x640xf16>
  util.global private @__auto.controlnet.down_blocks.1.attentions.0.transformer_blocks.0.attn1.to_out.0.bias = #stream.parameter.named<"model"::"controlnet.down_blocks.1.attentions.0.transformer_blocks.0.attn1.to_out.0.bias"> : tensor<640xf16>
  util.global private @__auto.controlnet.down_blocks.1.attentions.0.transformer_blocks.0.norm2.weight = #stream.parameter.named<"model"::"controlnet.down_blocks.1.attentions.0.transformer_blocks.0.norm2.weight"> : tensor<640xf16>
  util.global private @__auto.controlnet.down_blocks.1.attentions.0.transformer_blocks.0.norm2.bias = #stream.parameter.named<"model"::"controlnet.down_blocks.1.attentions.0.transformer_blocks.0.norm2.bias"> : tensor<640xf16>
  util.global private @__auto.controlnet.down_blocks.1.attentions.0.transformer_blocks.0.attn2.to_q.weight = #stream.parameter.named<"model"::"controlnet.down_blocks.1.attentions.0.transformer_blocks.0.attn2.to_q.weight"> : tensor<640x640xf16>
  util.global private @__auto.controlnet.down_blocks.1.attentions.0.transformer_blocks.0.attn2.to_k.weight = #stream.parameter.named<"model"::"controlnet.down_blocks.1.attentions.0.transformer_blocks.0.attn2.to_k.weight"> : tensor<640x2048xf16>
  util.global private @__auto.controlnet.down_blocks.1.attentions.0.transformer_blocks.0.attn2.to_v.weight = #stream.parameter.named<"model"::"controlnet.down_blocks.1.attentions.0.transformer_blocks.0.attn2.to_v.weight"> : tensor<640x2048xf16>
  util.global private @__auto.controlnet.down_blocks.1.attentions.0.transformer_blocks.0.attn2.to_out.0.weight = #stream.parameter.named<"model"::"controlnet.down_blocks.1.attentions.0.transformer_blocks.0.attn2.to_out.0.weight"> : tensor<640x640xf16>
  util.global private @__auto.controlnet.down_blocks.1.attentions.0.transformer_blocks.0.attn2.to_out.0.bias = #stream.parameter.named<"model"::"controlnet.down_blocks.1.attentions.0.transformer_blocks.0.attn2.to_out.0.bias"> : tensor<640xf16>
  util.global private @__auto.controlnet.down_blocks.1.attentions.0.transformer_blocks.0.norm3.weight = #stream.parameter.named<"model"::"controlnet.down_blocks.1.attentions.0.transformer_blocks.0.norm3.weight"> : tensor<640xf16>
  util.global private @__auto.controlnet.down_blocks.1.attentions.0.transformer_blocks.0.norm3.bias = #stream.parameter.named<"model"::"controlnet.down_blocks.1.attentions.0.transformer_blocks.0.norm3.bias"> : tensor<640xf16>
  util.global private @__auto.controlnet.down_blocks.1.attentions.0.transformer_blocks.0.ff.net.0.proj.weight = #stream.parameter.named<"model"::"controlnet.down_blocks.1.attentions.0.transformer_blocks.0.ff.net.0.proj.weight"> : tensor<5120x640xf16>
  util.global private @__auto.controlnet.down_blocks.1.attentions.0.transformer_blocks.0.ff.net.0.proj.bias = #stream.parameter.named<"model"::"controlnet.down_blocks.1.attentions.0.transformer_blocks.0.ff.net.0.proj.bias"> : tensor<5120xf16>
  util.global private @__auto.controlnet.down_blocks.1.attentions.0.transformer_blocks.0.ff.net.2.weight = #stream.parameter.named<"model"::"controlnet.down_blocks.1.attentions.0.transformer_blocks.0.ff.net.2.weight"> : tensor<640x2560xf16>
  util.global private @__auto.controlnet.down_blocks.1.attentions.0.transformer_blocks.0.ff.net.2.bias = #stream.parameter.named<"model"::"controlnet.down_blocks.1.attentions.0.transformer_blocks.0.ff.net.2.bias"> : tensor<640xf16>
  util.global private @__auto.controlnet.down_blocks.1.attentions.0.transformer_blocks.1.norm1.weight = #stream.parameter.named<"model"::"controlnet.down_blocks.1.attentions.0.transformer_blocks.1.norm1.weight"> : tensor<640xf16>
  util.global private @__auto.controlnet.down_blocks.1.attentions.0.transformer_blocks.1.norm1.bias = #stream.parameter.named<"model"::"controlnet.down_blocks.1.attentions.0.transformer_blocks.1.norm1.bias"> : tensor<640xf16>
  util.global private @__auto.controlnet.down_blocks.1.attentions.0.transformer_blocks.1.attn1.to_q.weight = #stream.parameter.named<"model"::"controlnet.down_blocks.1.attentions.0.transformer_blocks.1.attn1.to_q.weight"> : tensor<640x640xf16>
  util.global private @__auto.controlnet.down_blocks.1.attentions.0.transformer_blocks.1.attn1.to_k.weight = #stream.parameter.named<"model"::"controlnet.down_blocks.1.attentions.0.transformer_blocks.1.attn1.to_k.weight"> : tensor<640x640xf16>
  util.global private @__auto.controlnet.down_blocks.1.attentions.0.transformer_blocks.1.attn1.to_v.weight = #stream.parameter.named<"model"::"controlnet.down_blocks.1.attentions.0.transformer_blocks.1.attn1.to_v.weight"> : tensor<640x640xf16>
  util.global private @__auto.controlnet.down_blocks.1.attentions.0.transformer_blocks.1.attn1.to_out.0.weight = #stream.parameter.named<"model"::"controlnet.down_blocks.1.attentions.0.transformer_blocks.1.attn1.to_out.0.weight"> : tensor<640x640xf16>
  util.global private @__auto.controlnet.down_blocks.1.attentions.0.transformer_blocks.1.attn1.to_out.0.bias = #stream.parameter.named<"model"::"controlnet.down_blocks.1.attentions.0.transformer_blocks.1.attn1.to_out.0.bias"> : tensor<640xf16>
  util.global private @__auto.controlnet.down_blocks.1.attentions.0.transformer_blocks.1.norm2.weight = #stream.parameter.named<"model"::"controlnet.down_blocks.1.attentions.0.transformer_blocks.1.norm2.weight"> : tensor<640xf16>
  util.global private @__auto.controlnet.down_blocks.1.attentions.0.transformer_blocks.1.norm2.bias = #stream.parameter.named<"model"::"controlnet.down_blocks.1.attentions.0.transformer_blocks.1.norm2.bias"> : tensor<640xf16>
  util.global private @__auto.controlnet.down_blocks.1.attentions.0.transformer_blocks.1.attn2.to_q.weight = #stream.parameter.named<"model"::"controlnet.down_blocks.1.attentions.0.transformer_blocks.1.attn2.to_q.weight"> : tensor<640x640xf16>
  util.global private @__auto.controlnet.down_blocks.1.attentions.0.transformer_blocks.1.attn2.to_k.weight = #stream.parameter.named<"model"::"controlnet.down_blocks.1.attentions.0.transformer_blocks.1.attn2.to_k.weight"> : tensor<640x2048xf16>
  util.global private @__auto.controlnet.down_blocks.1.attentions.0.transformer_blocks.1.attn2.to_v.weight = #stream.parameter.named<"model"::"controlnet.down_blocks.1.attentions.0.transformer_blocks.1.attn2.to_v.weight"> : tensor<640x2048xf16>
  util.global private @__auto.controlnet.down_blocks.1.attentions.0.transformer_blocks.1.attn2.to_out.0.weight = #stream.parameter.named<"model"::"controlnet.down_blocks.1.attentions.0.transformer_blocks.1.attn2.to_out.0.weight"> : tensor<640x640xf16>
  util.global private @__auto.controlnet.down_blocks.1.attentions.0.transformer_blocks.1.attn2.to_out.0.bias = #stream.parameter.named<"model"::"controlnet.down_blocks.1.attentions.0.transformer_blocks.1.attn2.to_out.0.bias"> : tensor<640xf16>
  util.global private @__auto.controlnet.down_blocks.1.attentions.0.transformer_blocks.1.norm3.weight = #stream.parameter.named<"model"::"controlnet.down_blocks.1.attentions.0.transformer_blocks.1.norm3.weight"> : tensor<640xf16>
  util.global private @__auto.controlnet.down_blocks.1.attentions.0.transformer_blocks.1.norm3.bias = #stream.parameter.named<"model"::"controlnet.down_blocks.1.attentions.0.transformer_blocks.1.norm3.bias"> : tensor<640xf16>
  util.global private @__auto.controlnet.down_blocks.1.attentions.0.transformer_blocks.1.ff.net.0.proj.weight = #stream.parameter.named<"model"::"controlnet.down_blocks.1.attentions.0.transformer_blocks.1.ff.net.0.proj.weight"> : tensor<5120x640xf16>
  util.global private @__auto.controlnet.down_blocks.1.attentions.0.transformer_blocks.1.ff.net.0.proj.bias = #stream.parameter.named<"model"::"controlnet.down_blocks.1.attentions.0.transformer_blocks.1.ff.net.0.proj.bias"> : tensor<5120xf16>
  util.global private @__auto.controlnet.down_blocks.1.attentions.0.transformer_blocks.1.ff.net.2.weight = #stream.parameter.named<"model"::"controlnet.down_blocks.1.attentions.0.transformer_blocks.1.ff.net.2.weight"> : tensor<640x2560xf16>
  util.global private @__auto.controlnet.down_blocks.1.attentions.0.transformer_blocks.1.ff.net.2.bias = #stream.parameter.named<"model"::"controlnet.down_blocks.1.attentions.0.transformer_blocks.1.ff.net.2.bias"> : tensor<640xf16>
  util.global private @__auto.controlnet.down_blocks.1.attentions.0.proj_out.weight = #stream.parameter.named<"model"::"controlnet.down_blocks.1.attentions.0.proj_out.weight"> : tensor<640x640xf16>
  util.global private @__auto.controlnet.down_blocks.1.attentions.0.proj_out.bias = #stream.parameter.named<"model"::"controlnet.down_blocks.1.attentions.0.proj_out.bias"> : tensor<640xf16>
  util.global private @__auto.controlnet.down_blocks.1.resnets.1.norm1.bias = #stream.parameter.named<"model"::"controlnet.down_blocks.1.resnets.1.norm1.bias"> : tensor<640xf16>
  util.global private @__auto.controlnet.down_blocks.1.resnets.1.norm1.weight = #stream.parameter.named<"model"::"controlnet.down_blocks.1.resnets.1.norm1.weight"> : tensor<640xf16>
  util.global private @__auto.controlnet.down_blocks.1.resnets.1.conv1.weight = #stream.parameter.named<"model"::"controlnet.down_blocks.1.resnets.1.conv1.weight"> : tensor<640x640x3x3xf16>
  util.global private @__auto.controlnet.down_blocks.1.resnets.1.conv1.bias = #stream.parameter.named<"model"::"controlnet.down_blocks.1.resnets.1.conv1.bias"> : tensor<640xf16>
  util.global private @__auto.controlnet.down_blocks.1.resnets.1.time_emb_proj.weight = #stream.parameter.named<"model"::"controlnet.down_blocks.1.resnets.1.time_emb_proj.weight"> : tensor<640x1280xf16>
  util.global private @__auto.controlnet.down_blocks.1.resnets.1.time_emb_proj.bias = #stream.parameter.named<"model"::"controlnet.down_blocks.1.resnets.1.time_emb_proj.bias"> : tensor<640xf16>
  util.global private @__auto.controlnet.down_blocks.1.resnets.1.norm2.bias = #stream.parameter.named<"model"::"controlnet.down_blocks.1.resnets.1.norm2.bias"> : tensor<640xf16>
  util.global private @__auto.controlnet.down_blocks.1.resnets.1.norm2.weight = #stream.parameter.named<"model"::"controlnet.down_blocks.1.resnets.1.norm2.weight"> : tensor<640xf16>
  util.global private @__auto.controlnet.down_blocks.1.resnets.1.conv2.weight = #stream.parameter.named<"model"::"controlnet.down_blocks.1.resnets.1.conv2.weight"> : tensor<640x640x3x3xf16>
  util.global private @__auto.controlnet.down_blocks.1.resnets.1.conv2.bias = #stream.parameter.named<"model"::"controlnet.down_blocks.1.resnets.1.conv2.bias"> : tensor<640xf16>
  util.global private @__auto.controlnet.down_blocks.1.attentions.1.norm.bias = #stream.parameter.named<"model"::"controlnet.down_blocks.1.attentions.1.norm.bias"> : tensor<640xf16>
  util.global private @__auto.controlnet.down_blocks.1.attentions.1.norm.weight = #stream.parameter.named<"model"::"controlnet.down_blocks.1.attentions.1.norm.weight"> : tensor<640xf16>
  util.global private @__auto.controlnet.down_blocks.1.attentions.1.proj_in.weight = #stream.parameter.named<"model"::"controlnet.down_blocks.1.attentions.1.proj_in.weight"> : tensor<640x640xf16>
  util.global private @__auto.controlnet.down_blocks.1.attentions.1.proj_in.bias = #stream.parameter.named<"model"::"controlnet.down_blocks.1.attentions.1.proj_in.bias"> : tensor<640xf16>
  util.global private @__auto.controlnet.down_blocks.1.attentions.1.transformer_blocks.0.norm1.weight = #stream.parameter.named<"model"::"controlnet.down_blocks.1.attentions.1.transformer_blocks.0.norm1.weight"> : tensor<640xf16>
  util.global private @__auto.controlnet.down_blocks.1.attentions.1.transformer_blocks.0.norm1.bias = #stream.parameter.named<"model"::"controlnet.down_blocks.1.attentions.1.transformer_blocks.0.norm1.bias"> : tensor<640xf16>
  util.global private @__auto.controlnet.down_blocks.1.attentions.1.transformer_blocks.0.attn1.to_q.weight = #stream.parameter.named<"model"::"controlnet.down_blocks.1.attentions.1.transformer_blocks.0.attn1.to_q.weight"> : tensor<640x640xf16>
  util.global private @__auto.controlnet.down_blocks.1.attentions.1.transformer_blocks.0.attn1.to_k.weight = #stream.parameter.named<"model"::"controlnet.down_blocks.1.attentions.1.transformer_blocks.0.attn1.to_k.weight"> : tensor<640x640xf16>
  util.global private @__auto.controlnet.down_blocks.1.attentions.1.transformer_blocks.0.attn1.to_v.weight = #stream.parameter.named<"model"::"controlnet.down_blocks.1.attentions.1.transformer_blocks.0.attn1.to_v.weight"> : tensor<640x640xf16>
  util.global private @__auto.controlnet.down_blocks.1.attentions.1.transformer_blocks.0.attn1.to_out.0.weight = #stream.parameter.named<"model"::"controlnet.down_blocks.1.attentions.1.transformer_blocks.0.attn1.to_out.0.weight"> : tensor<640x640xf16>
  util.global private @__auto.controlnet.down_blocks.1.attentions.1.transformer_blocks.0.attn1.to_out.0.bias = #stream.parameter.named<"model"::"controlnet.down_blocks.1.attentions.1.transformer_blocks.0.attn1.to_out.0.bias"> : tensor<640xf16>
  util.global private @__auto.controlnet.down_blocks.1.attentions.1.transformer_blocks.0.norm2.weight = #stream.parameter.named<"model"::"controlnet.down_blocks.1.attentions.1.transformer_blocks.0.norm2.weight"> : tensor<640xf16>
  util.global private @__auto.controlnet.down_blocks.1.attentions.1.transformer_blocks.0.norm2.bias = #stream.parameter.named<"model"::"controlnet.down_blocks.1.attentions.1.transformer_blocks.0.norm2.bias"> : tensor<640xf16>
  util.global private @__auto.controlnet.down_blocks.1.attentions.1.transformer_blocks.0.attn2.to_q.weight = #stream.parameter.named<"model"::"controlnet.down_blocks.1.attentions.1.transformer_blocks.0.attn2.to_q.weight"> : tensor<640x640xf16>
  util.global private @__auto.controlnet.down_blocks.1.attentions.1.transformer_blocks.0.attn2.to_k.weight = #stream.parameter.named<"model"::"controlnet.down_blocks.1.attentions.1.transformer_blocks.0.attn2.to_k.weight"> : tensor<640x2048xf16>
  util.global private @__auto.controlnet.down_blocks.1.attentions.1.transformer_blocks.0.attn2.to_v.weight = #stream.parameter.named<"model"::"controlnet.down_blocks.1.attentions.1.transformer_blocks.0.attn2.to_v.weight"> : tensor<640x2048xf16>
  util.global private @__auto.controlnet.down_blocks.1.attentions.1.transformer_blocks.0.attn2.to_out.0.weight = #stream.parameter.named<"model"::"controlnet.down_blocks.1.attentions.1.transformer_blocks.0.attn2.to_out.0.weight"> : tensor<640x640xf16>
  util.global private @__auto.controlnet.down_blocks.1.attentions.1.transformer_blocks.0.attn2.to_out.0.bias = #stream.parameter.named<"model"::"controlnet.down_blocks.1.attentions.1.transformer_blocks.0.attn2.to_out.0.bias"> : tensor<640xf16>
  util.global private @__auto.controlnet.down_blocks.1.attentions.1.transformer_blocks.0.norm3.weight = #stream.parameter.named<"model"::"controlnet.down_blocks.1.attentions.1.transformer_blocks.0.norm3.weight"> : tensor<640xf16>
  util.global private @__auto.controlnet.down_blocks.1.attentions.1.transformer_blocks.0.norm3.bias = #stream.parameter.named<"model"::"controlnet.down_blocks.1.attentions.1.transformer_blocks.0.norm3.bias"> : tensor<640xf16>
  util.global private @__auto.controlnet.down_blocks.1.attentions.1.transformer_blocks.0.ff.net.0.proj.weight = #stream.parameter.named<"model"::"controlnet.down_blocks.1.attentions.1.transformer_blocks.0.ff.net.0.proj.weight"> : tensor<5120x640xf16>
  util.global private @__auto.controlnet.down_blocks.1.attentions.1.transformer_blocks.0.ff.net.0.proj.bias = #stream.parameter.named<"model"::"controlnet.down_blocks.1.attentions.1.transformer_blocks.0.ff.net.0.proj.bias"> : tensor<5120xf16>
  util.global private @__auto.controlnet.down_blocks.1.attentions.1.transformer_blocks.0.ff.net.2.weight = #stream.parameter.named<"model"::"controlnet.down_blocks.1.attentions.1.transformer_blocks.0.ff.net.2.weight"> : tensor<640x2560xf16>
  util.global private @__auto.controlnet.down_blocks.1.attentions.1.transformer_blocks.0.ff.net.2.bias = #stream.parameter.named<"model"::"controlnet.down_blocks.1.attentions.1.transformer_blocks.0.ff.net.2.bias"> : tensor<640xf16>
  util.global private @__auto.controlnet.down_blocks.1.attentions.1.transformer_blocks.1.norm1.weight = #stream.parameter.named<"model"::"controlnet.down_blocks.1.attentions.1.transformer_blocks.1.norm1.weight"> : tensor<640xf16>
  util.global private @__auto.controlnet.down_blocks.1.attentions.1.transformer_blocks.1.norm1.bias = #stream.parameter.named<"model"::"controlnet.down_blocks.1.attentions.1.transformer_blocks.1.norm1.bias"> : tensor<640xf16>
  util.global private @__auto.controlnet.down_blocks.1.attentions.1.transformer_blocks.1.attn1.to_q.weight = #stream.parameter.named<"model"::"controlnet.down_blocks.1.attentions.1.transformer_blocks.1.attn1.to_q.weight"> : tensor<640x640xf16>
  util.global private @__auto.controlnet.down_blocks.1.attentions.1.transformer_blocks.1.attn1.to_k.weight = #stream.parameter.named<"model"::"controlnet.down_blocks.1.attentions.1.transformer_blocks.1.attn1.to_k.weight"> : tensor<640x640xf16>
  util.global private @__auto.controlnet.down_blocks.1.attentions.1.transformer_blocks.1.attn1.to_v.weight = #stream.parameter.named<"model"::"controlnet.down_blocks.1.attentions.1.transformer_blocks.1.attn1.to_v.weight"> : tensor<640x640xf16>
  util.global private @__auto.controlnet.down_blocks.1.attentions.1.transformer_blocks.1.attn1.to_out.0.weight = #stream.parameter.named<"model"::"controlnet.down_blocks.1.attentions.1.transformer_blocks.1.attn1.to_out.0.weight"> : tensor<640x640xf16>
  util.global private @__auto.controlnet.down_blocks.1.attentions.1.transformer_blocks.1.attn1.to_out.0.bias = #stream.parameter.named<"model"::"controlnet.down_blocks.1.attentions.1.transformer_blocks.1.attn1.to_out.0.bias"> : tensor<640xf16>
  util.global private @__auto.controlnet.down_blocks.1.attentions.1.transformer_blocks.1.norm2.weight = #stream.parameter.named<"model"::"controlnet.down_blocks.1.attentions.1.transformer_blocks.1.norm2.weight"> : tensor<640xf16>
  util.global private @__auto.controlnet.down_blocks.1.attentions.1.transformer_blocks.1.norm2.bias = #stream.parameter.named<"model"::"controlnet.down_blocks.1.attentions.1.transformer_blocks.1.norm2.bias"> : tensor<640xf16>
  util.global private @__auto.controlnet.down_blocks.1.attentions.1.transformer_blocks.1.attn2.to_q.weight = #stream.parameter.named<"model"::"controlnet.down_blocks.1.attentions.1.transformer_blocks.1.attn2.to_q.weight"> : tensor<640x640xf16>
  util.global private @__auto.controlnet.down_blocks.1.attentions.1.transformer_blocks.1.attn2.to_k.weight = #stream.parameter.named<"model"::"controlnet.down_blocks.1.attentions.1.transformer_blocks.1.attn2.to_k.weight"> : tensor<640x2048xf16>
  util.global private @__auto.controlnet.down_blocks.1.attentions.1.transformer_blocks.1.attn2.to_v.weight = #stream.parameter.named<"model"::"controlnet.down_blocks.1.attentions.1.transformer_blocks.1.attn2.to_v.weight"> : tensor<640x2048xf16>
  util.global private @__auto.controlnet.down_blocks.1.attentions.1.transformer_blocks.1.attn2.to_out.0.weight = #stream.parameter.named<"model"::"controlnet.down_blocks.1.attentions.1.transformer_blocks.1.attn2.to_out.0.weight"> : tensor<640x640xf16>
  util.global private @__auto.controlnet.down_blocks.1.attentions.1.transformer_blocks.1.attn2.to_out.0.bias = #stream.parameter.named<"model"::"controlnet.down_blocks.1.attentions.1.transformer_blocks.1.attn2.to_out.0.bias"> : tensor<640xf16>
  util.global private @__auto.controlnet.down_blocks.1.attentions.1.transformer_blocks.1.norm3.weight = #stream.parameter.named<"model"::"controlnet.down_blocks.1.attentions.1.transformer_blocks.1.norm3.weight"> : tensor<640xf16>
  util.global private @__auto.controlnet.down_blocks.1.attentions.1.transformer_blocks.1.norm3.bias = #stream.parameter.named<"model"::"controlnet.down_blocks.1.attentions.1.transformer_blocks.1.norm3.bias"> : tensor<640xf16>
  util.global private @__auto.controlnet.down_blocks.1.attentions.1.transformer_blocks.1.ff.net.0.proj.weight = #stream.parameter.named<"model"::"controlnet.down_blocks.1.attentions.1.transformer_blocks.1.ff.net.0.proj.weight"> : tensor<5120x640xf16>
  util.global private @__auto.controlnet.down_blocks.1.attentions.1.transformer_blocks.1.ff.net.0.proj.bias = #stream.parameter.named<"model"::"controlnet.down_blocks.1.attentions.1.transformer_blocks.1.ff.net.0.proj.bias"> : tensor<5120xf16>
  util.global private @__auto.controlnet.down_blocks.1.attentions.1.transformer_blocks.1.ff.net.2.weight = #stream.parameter.named<"model"::"controlnet.down_blocks.1.attentions.1.transformer_blocks.1.ff.net.2.weight"> : tensor<640x2560xf16>
  util.global private @__auto.controlnet.down_blocks.1.attentions.1.transformer_blocks.1.ff.net.2.bias = #stream.parameter.named<"model"::"controlnet.down_blocks.1.attentions.1.transformer_blocks.1.ff.net.2.bias"> : tensor<640xf16>
  util.global private @__auto.controlnet.down_blocks.1.attentions.1.proj_out.weight = #stream.parameter.named<"model"::"controlnet.down_blocks.1.attentions.1.proj_out.weight"> : tensor<640x640xf16>
  util.global private @__auto.controlnet.down_blocks.1.attentions.1.proj_out.bias = #stream.parameter.named<"model"::"controlnet.down_blocks.1.attentions.1.proj_out.bias"> : tensor<640xf16>
  util.global private @__auto.controlnet.down_blocks.1.downsamplers.0.conv.weight = #stream.parameter.named<"model"::"controlnet.down_blocks.1.downsamplers.0.conv.weight"> : tensor<640x640x3x3xf16>
  util.global private @__auto.controlnet.down_blocks.1.downsamplers.0.conv.bias = #stream.parameter.named<"model"::"controlnet.down_blocks.1.downsamplers.0.conv.bias"> : tensor<640xf16>
  util.global private @__auto.controlnet.down_blocks.2.resnets.0.norm1.bias = #stream.parameter.named<"model"::"controlnet.down_blocks.2.resnets.0.norm1.bias"> : tensor<640xf16>
  util.global private @__auto.controlnet.down_blocks.2.resnets.0.norm1.weight = #stream.parameter.named<"model"::"controlnet.down_blocks.2.resnets.0.norm1.weight"> : tensor<640xf16>
  util.global private @__auto.controlnet.down_blocks.2.resnets.0.conv1.weight = #stream.parameter.named<"model"::"controlnet.down_blocks.2.resnets.0.conv1.weight"> : tensor<1280x640x3x3xf16>
  util.global private @__auto.controlnet.down_blocks.2.resnets.0.conv1.bias = #stream.parameter.named<"model"::"controlnet.down_blocks.2.resnets.0.conv1.bias"> : tensor<1280xf16>
  util.global private @__auto.controlnet.down_blocks.2.resnets.0.time_emb_proj.weight = #stream.parameter.named<"model"::"controlnet.down_blocks.2.resnets.0.time_emb_proj.weight"> : tensor<1280x1280xf16>
  util.global private @__auto.controlnet.down_blocks.2.resnets.0.time_emb_proj.bias = #stream.parameter.named<"model"::"controlnet.down_blocks.2.resnets.0.time_emb_proj.bias"> : tensor<1280xf16>
  util.global private @__auto.controlnet.down_blocks.2.resnets.0.norm2.bias = #stream.parameter.named<"model"::"controlnet.down_blocks.2.resnets.0.norm2.bias"> : tensor<1280xf16>
  util.global private @__auto.controlnet.down_blocks.2.resnets.0.norm2.weight = #stream.parameter.named<"model"::"controlnet.down_blocks.2.resnets.0.norm2.weight"> : tensor<1280xf16>
  util.global private @__auto.controlnet.down_blocks.2.resnets.0.conv2.weight = #stream.parameter.named<"model"::"controlnet.down_blocks.2.resnets.0.conv2.weight"> : tensor<1280x1280x3x3xf16>
  util.global private @__auto.controlnet.down_blocks.2.resnets.0.conv2.bias = #stream.parameter.named<"model"::"controlnet.down_blocks.2.resnets.0.conv2.bias"> : tensor<1280xf16>
  util.global private @__auto.controlnet.down_blocks.2.resnets.0.conv_shortcut.weight = #stream.parameter.named<"model"::"controlnet.down_blocks.2.resnets.0.conv_shortcut.weight"> : tensor<1280x640x1x1xf16>
  util.global private @__auto.controlnet.down_blocks.2.resnets.0.conv_shortcut.bias = #stream.parameter.named<"model"::"controlnet.down_blocks.2.resnets.0.conv_shortcut.bias"> : tensor<1280xf16>
  util.global private @__auto.controlnet.down_blocks.2.attentions.0.norm.bias = #stream.parameter.named<"model"::"controlnet.down_blocks.2.attentions.0.norm.bias"> : tensor<1280xf16>
  util.global private @__auto.controlnet.down_blocks.2.attentions.0.norm.weight = #stream.parameter.named<"model"::"controlnet.down_blocks.2.attentions.0.norm.weight"> : tensor<1280xf16>
  util.global private @__auto.controlnet.down_blocks.2.attentions.0.proj_in.weight = #stream.parameter.named<"model"::"controlnet.down_blocks.2.attentions.0.proj_in.weight"> : tensor<1280x1280xf16>
  util.global private @__auto.controlnet.down_blocks.2.attentions.0.proj_in.bias = #stream.parameter.named<"model"::"controlnet.down_blocks.2.attentions.0.proj_in.bias"> : tensor<1280xf16>
  util.global private @__auto.controlnet.down_blocks.2.attentions.0.transformer_blocks.0.norm1.weight = #stream.parameter.named<"model"::"controlnet.down_blocks.2.attentions.0.transformer_blocks.0.norm1.weight"> : tensor<1280xf16>
  util.global private @__auto.controlnet.down_blocks.2.attentions.0.transformer_blocks.0.norm1.bias = #stream.parameter.named<"model"::"controlnet.down_blocks.2.attentions.0.transformer_blocks.0.norm1.bias"> : tensor<1280xf16>
  util.global private @__auto.controlnet.down_blocks.2.attentions.0.transformer_blocks.0.attn1.to_q.weight = #stream.parameter.named<"model"::"controlnet.down_blocks.2.attentions.0.transformer_blocks.0.attn1.to_q.weight"> : tensor<1280x1280xf16>
  util.global private @__auto.controlnet.down_blocks.2.attentions.0.transformer_blocks.0.attn1.to_k.weight = #stream.parameter.named<"model"::"controlnet.down_blocks.2.attentions.0.transformer_blocks.0.attn1.to_k.weight"> : tensor<1280x1280xf16>
  util.global private @__auto.controlnet.down_blocks.2.attentions.0.transformer_blocks.0.attn1.to_v.weight = #stream.parameter.named<"model"::"controlnet.down_blocks.2.attentions.0.transformer_blocks.0.attn1.to_v.weight"> : tensor<1280x1280xf16>
  util.global private @__auto.controlnet.down_blocks.2.attentions.0.transformer_blocks.0.attn1.to_out.0.weight = #stream.parameter.named<"model"::"controlnet.down_blocks.2.attentions.0.transformer_blocks.0.attn1.to_out.0.weight"> : tensor<1280x1280xf16>
  util.global private @__auto.controlnet.down_blocks.2.attentions.0.transformer_blocks.0.attn1.to_out.0.bias = #stream.parameter.named<"model"::"controlnet.down_blocks.2.attentions.0.transformer_blocks.0.attn1.to_out.0.bias"> : tensor<1280xf16>
  util.global private @__auto.controlnet.down_blocks.2.attentions.0.transformer_blocks.0.norm2.weight = #stream.parameter.named<"model"::"controlnet.down_blocks.2.attentions.0.transformer_blocks.0.norm2.weight"> : tensor<1280xf16>
  util.global private @__auto.controlnet.down_blocks.2.attentions.0.transformer_blocks.0.norm2.bias = #stream.parameter.named<"model"::"controlnet.down_blocks.2.attentions.0.transformer_blocks.0.norm2.bias"> : tensor<1280xf16>
  util.global private @__auto.controlnet.down_blocks.2.attentions.0.transformer_blocks.0.attn2.to_q.weight = #stream.parameter.named<"model"::"controlnet.down_blocks.2.attentions.0.transformer_blocks.0.attn2.to_q.weight"> : tensor<1280x1280xf16>
  util.global private @__auto.controlnet.down_blocks.2.attentions.0.transformer_blocks.0.attn2.to_k.weight = #stream.parameter.named<"model"::"controlnet.down_blocks.2.attentions.0.transformer_blocks.0.attn2.to_k.weight"> : tensor<1280x2048xf16>
  util.global private @__auto.controlnet.down_blocks.2.attentions.0.transformer_blocks.0.attn2.to_v.weight = #stream.parameter.named<"model"::"controlnet.down_blocks.2.attentions.0.transformer_blocks.0.attn2.to_v.weight"> : tensor<1280x2048xf16>
  util.global private @__auto.controlnet.down_blocks.2.attentions.0.transformer_blocks.0.attn2.to_out.0.weight = #stream.parameter.named<"model"::"controlnet.down_blocks.2.attentions.0.transformer_blocks.0.attn2.to_out.0.weight"> : tensor<1280x1280xf16>
  util.global private @__auto.controlnet.down_blocks.2.attentions.0.transformer_blocks.0.attn2.to_out.0.bias = #stream.parameter.named<"model"::"controlnet.down_blocks.2.attentions.0.transformer_blocks.0.attn2.to_out.0.bias"> : tensor<1280xf16>
  util.global private @__auto.controlnet.down_blocks.2.attentions.0.transformer_blocks.0.norm3.weight = #stream.parameter.named<"model"::"controlnet.down_blocks.2.attentions.0.transformer_blocks.0.norm3.weight"> : tensor<1280xf16>
  util.global private @__auto.controlnet.down_blocks.2.attentions.0.transformer_blocks.0.norm3.bias = #stream.parameter.named<"model"::"controlnet.down_blocks.2.attentions.0.transformer_blocks.0.norm3.bias"> : tensor<1280xf16>
  util.global private @__auto.controlnet.down_blocks.2.attentions.0.transformer_blocks.0.ff.net.0.proj.weight = #stream.parameter.named<"model"::"controlnet.down_blocks.2.attentions.0.transformer_blocks.0.ff.net.0.proj.weight"> : tensor<10240x1280xf16>
  util.global private @__auto.controlnet.down_blocks.2.attentions.0.transformer_blocks.0.ff.net.0.proj.bias = #stream.parameter.named<"model"::"controlnet.down_blocks.2.attentions.0.transformer_blocks.0.ff.net.0.proj.bias"> : tensor<10240xf16>
  util.global private @__auto.controlnet.down_blocks.2.attentions.0.transformer_blocks.0.ff.net.2.weight = #stream.parameter.named<"model"::"controlnet.down_blocks.2.attentions.0.transformer_blocks.0.ff.net.2.weight"> : tensor<1280x5120xf16>
  util.global private @__auto.controlnet.down_blocks.2.attentions.0.transformer_blocks.0.ff.net.2.bias = #stream.parameter.named<"model"::"controlnet.down_blocks.2.attentions.0.transformer_blocks.0.ff.net.2.bias"> : tensor<1280xf16>
  util.global private @__auto.controlnet.down_blocks.2.attentions.0.transformer_blocks.1.norm1.weight = #stream.parameter.named<"model"::"controlnet.down_blocks.2.attentions.0.transformer_blocks.1.norm1.weight"> : tensor<1280xf16>
  util.global private @__auto.controlnet.down_blocks.2.attentions.0.transformer_blocks.1.norm1.bias = #stream.parameter.named<"model"::"controlnet.down_blocks.2.attentions.0.transformer_blocks.1.norm1.bias"> : tensor<1280xf16>
  util.global private @__auto.controlnet.down_blocks.2.attentions.0.transformer_blocks.1.attn1.to_q.weight = #stream.parameter.named<"model"::"controlnet.down_blocks.2.attentions.0.transformer_blocks.1.attn1.to_q.weight"> : tensor<1280x1280xf16>
  util.global private @__auto.controlnet.down_blocks.2.attentions.0.transformer_blocks.1.attn1.to_k.weight = #stream.parameter.named<"model"::"controlnet.down_blocks.2.attentions.0.transformer_blocks.1.attn1.to_k.weight"> : tensor<1280x1280xf16>
  util.global private @__auto.controlnet.down_blocks.2.attentions.0.transformer_blocks.1.attn1.to_v.weight = #stream.parameter.named<"model"::"controlnet.down_blocks.2.attentions.0.transformer_blocks.1.attn1.to_v.weight"> : tensor<1280x1280xf16>
  util.global private @__auto.controlnet.down_blocks.2.attentions.0.transformer_blocks.1.attn1.to_out.0.weight = #stream.parameter.named<"model"::"controlnet.down_blocks.2.attentions.0.transformer_blocks.1.attn1.to_out.0.weight"> : tensor<1280x1280xf16>
  util.global private @__auto.controlnet.down_blocks.2.attentions.0.transformer_blocks.1.attn1.to_out.0.bias = #stream.parameter.named<"model"::"controlnet.down_blocks.2.attentions.0.transformer_blocks.1.attn1.to_out.0.bias"> : tensor<1280xf16>
  util.global private @__auto.controlnet.down_blocks.2.attentions.0.transformer_blocks.1.norm2.weight = #stream.parameter.named<"model"::"controlnet.down_blocks.2.attentions.0.transformer_blocks.1.norm2.weight"> : tensor<1280xf16>
  util.global private @__auto.controlnet.down_blocks.2.attentions.0.transformer_blocks.1.norm2.bias = #stream.parameter.named<"model"::"controlnet.down_blocks.2.attentions.0.transformer_blocks.1.norm2.bias"> : tensor<1280xf16>
  util.global private @__auto.controlnet.down_blocks.2.attentions.0.transformer_blocks.1.attn2.to_q.weight = #stream.parameter.named<"model"::"controlnet.down_blocks.2.attentions.0.transformer_blocks.1.attn2.to_q.weight"> : tensor<1280x1280xf16>
  util.global private @__auto.controlnet.down_blocks.2.attentions.0.transformer_blocks.1.attn2.to_k.weight = #stream.parameter.named<"model"::"controlnet.down_blocks.2.attentions.0.transformer_blocks.1.attn2.to_k.weight"> : tensor<1280x2048xf16>
  util.global private @__auto.controlnet.down_blocks.2.attentions.0.transformer_blocks.1.attn2.to_v.weight = #stream.parameter.named<"model"::"controlnet.down_blocks.2.attentions.0.transformer_blocks.1.attn2.to_v.weight"> : tensor<1280x2048xf16>
  util.global private @__auto.controlnet.down_blocks.2.attentions.0.transformer_blocks.1.attn2.to_out.0.weight = #stream.parameter.named<"model"::"controlnet.down_blocks.2.attentions.0.transformer_blocks.1.attn2.to_out.0.weight"> : tensor<1280x1280xf16>
  util.global private @__auto.controlnet.down_blocks.2.attentions.0.transformer_blocks.1.attn2.to_out.0.bias = #stream.parameter.named<"model"::"controlnet.down_blocks.2.attentions.0.transformer_blocks.1.attn2.to_out.0.bias"> : tensor<1280xf16>
  util.global private @__auto.controlnet.down_blocks.2.attentions.0.transformer_blocks.1.norm3.weight = #stream.parameter.named<"model"::"controlnet.down_blocks.2.attentions.0.transformer_blocks.1.norm3.weight"> : tensor<1280xf16>
  util.global private @__auto.controlnet.down_blocks.2.attentions.0.transformer_blocks.1.norm3.bias = #stream.parameter.named<"model"::"controlnet.down_blocks.2.attentions.0.transformer_blocks.1.norm3.bias"> : tensor<1280xf16>
  util.global private @__auto.controlnet.down_blocks.2.attentions.0.transformer_blocks.1.ff.net.0.proj.weight = #stream.parameter.named<"model"::"controlnet.down_blocks.2.attentions.0.transformer_blocks.1.ff.net.0.proj.weight"> : tensor<10240x1280xf16>
  util.global private @__auto.controlnet.down_blocks.2.attentions.0.transformer_blocks.1.ff.net.0.proj.bias = #stream.parameter.named<"model"::"controlnet.down_blocks.2.attentions.0.transformer_blocks.1.ff.net.0.proj.bias"> : tensor<10240xf16>
  util.global private @__auto.controlnet.down_blocks.2.attentions.0.transformer_blocks.1.ff.net.2.weight = #stream.parameter.named<"model"::"controlnet.down_blocks.2.attentions.0.transformer_blocks.1.ff.net.2.weight"> : tensor<1280x5120xf16>
  util.global private @__auto.controlnet.down_blocks.2.attentions.0.transformer_blocks.1.ff.net.2.bias = #stream.parameter.named<"model"::"controlnet.down_blocks.2.attentions.0.transformer_blocks.1.ff.net.2.bias"> : tensor<1280xf16>
  util.global private @__auto.controlnet.down_blocks.2.attentions.0.transformer_blocks.2.norm1.weight = #stream.parameter.named<"model"::"controlnet.down_blocks.2.attentions.0.transformer_blocks.2.norm1.weight"> : tensor<1280xf16>
  util.global private @__auto.controlnet.down_blocks.2.attentions.0.transformer_blocks.2.norm1.bias = #stream.parameter.named<"model"::"controlnet.down_blocks.2.attentions.0.transformer_blocks.2.norm1.bias"> : tensor<1280xf16>
  util.global private @__auto.controlnet.down_blocks.2.attentions.0.transformer_blocks.2.attn1.to_q.weight = #stream.parameter.named<"model"::"controlnet.down_blocks.2.attentions.0.transformer_blocks.2.attn1.to_q.weight"> : tensor<1280x1280xf16>
  util.global private @__auto.controlnet.down_blocks.2.attentions.0.transformer_blocks.2.attn1.to_k.weight = #stream.parameter.named<"model"::"controlnet.down_blocks.2.attentions.0.transformer_blocks.2.attn1.to_k.weight"> : tensor<1280x1280xf16>
  util.global private @__auto.controlnet.down_blocks.2.attentions.0.transformer_blocks.2.attn1.to_v.weight = #stream.parameter.named<"model"::"controlnet.down_blocks.2.attentions.0.transformer_blocks.2.attn1.to_v.weight"> : tensor<1280x1280xf16>
  util.global private @__auto.controlnet.down_blocks.2.attentions.0.transformer_blocks.2.attn1.to_out.0.weight = #stream.parameter.named<"model"::"controlnet.down_blocks.2.attentions.0.transformer_blocks.2.attn1.to_out.0.weight"> : tensor<1280x1280xf16>
  util.global private @__auto.controlnet.down_blocks.2.attentions.0.transformer_blocks.2.attn1.to_out.0.bias = #stream.parameter.named<"model"::"controlnet.down_blocks.2.attentions.0.transformer_blocks.2.attn1.to_out.0.bias"> : tensor<1280xf16>
  util.global private @__auto.controlnet.down_blocks.2.attentions.0.transformer_blocks.2.norm2.weight = #stream.parameter.named<"model"::"controlnet.down_blocks.2.attentions.0.transformer_blocks.2.norm2.weight"> : tensor<1280xf16>
  util.global private @__auto.controlnet.down_blocks.2.attentions.0.transformer_blocks.2.norm2.bias = #stream.parameter.named<"model"::"controlnet.down_blocks.2.attentions.0.transformer_blocks.2.norm2.bias"> : tensor<1280xf16>
  util.global private @__auto.controlnet.down_blocks.2.attentions.0.transformer_blocks.2.attn2.to_q.weight = #stream.parameter.named<"model"::"controlnet.down_blocks.2.attentions.0.transformer_blocks.2.attn2.to_q.weight"> : tensor<1280x1280xf16>
  util.global private @__auto.controlnet.down_blocks.2.attentions.0.transformer_blocks.2.attn2.to_k.weight = #stream.parameter.named<"model"::"controlnet.down_blocks.2.attentions.0.transformer_blocks.2.attn2.to_k.weight"> : tensor<1280x2048xf16>
  util.global private @__auto.controlnet.down_blocks.2.attentions.0.transformer_blocks.2.attn2.to_v.weight = #stream.parameter.named<"model"::"controlnet.down_blocks.2.attentions.0.transformer_blocks.2.attn2.to_v.weight"> : tensor<1280x2048xf16>
  util.global private @__auto.controlnet.down_blocks.2.attentions.0.transformer_blocks.2.attn2.to_out.0.weight = #stream.parameter.named<"model"::"controlnet.down_blocks.2.attentions.0.transformer_blocks.2.attn2.to_out.0.weight"> : tensor<1280x1280xf16>
  util.global private @__auto.controlnet.down_blocks.2.attentions.0.transformer_blocks.2.attn2.to_out.0.bias = #stream.parameter.named<"model"::"controlnet.down_blocks.2.attentions.0.transformer_blocks.2.attn2.to_out.0.bias"> : tensor<1280xf16>
  util.global private @__auto.controlnet.down_blocks.2.attentions.0.transformer_blocks.2.norm3.weight = #stream.parameter.named<"model"::"controlnet.down_blocks.2.attentions.0.transformer_blocks.2.norm3.weight"> : tensor<1280xf16>
  util.global private @__auto.controlnet.down_blocks.2.attentions.0.transformer_blocks.2.norm3.bias = #stream.parameter.named<"model"::"controlnet.down_blocks.2.attentions.0.transformer_blocks.2.norm3.bias"> : tensor<1280xf16>
  util.global private @__auto.controlnet.down_blocks.2.attentions.0.transformer_blocks.2.ff.net.0.proj.weight = #stream.parameter.named<"model"::"controlnet.down_blocks.2.attentions.0.transformer_blocks.2.ff.net.0.proj.weight"> : tensor<10240x1280xf16>
  util.global private @__auto.controlnet.down_blocks.2.attentions.0.transformer_blocks.2.ff.net.0.proj.bias = #stream.parameter.named<"model"::"controlnet.down_blocks.2.attentions.0.transformer_blocks.2.ff.net.0.proj.bias"> : tensor<10240xf16>
  util.global private @__auto.controlnet.down_blocks.2.attentions.0.transformer_blocks.2.ff.net.2.weight = #stream.parameter.named<"model"::"controlnet.down_blocks.2.attentions.0.transformer_blocks.2.ff.net.2.weight"> : tensor<1280x5120xf16>
  util.global private @__auto.controlnet.down_blocks.2.attentions.0.transformer_blocks.2.ff.net.2.bias = #stream.parameter.named<"model"::"controlnet.down_blocks.2.attentions.0.transformer_blocks.2.ff.net.2.bias"> : tensor<1280xf16>
  util.global private @__auto.controlnet.down_blocks.2.attentions.0.transformer_blocks.3.norm1.weight = #stream.parameter.named<"model"::"controlnet.down_blocks.2.attentions.0.transformer_blocks.3.norm1.weight"> : tensor<1280xf16>
  util.global private @__auto.controlnet.down_blocks.2.attentions.0.transformer_blocks.3.norm1.bias = #stream.parameter.named<"model"::"controlnet.down_blocks.2.attentions.0.transformer_blocks.3.norm1.bias"> : tensor<1280xf16>
  util.global private @__auto.controlnet.down_blocks.2.attentions.0.transformer_blocks.3.attn1.to_q.weight = #stream.parameter.named<"model"::"controlnet.down_blocks.2.attentions.0.transformer_blocks.3.attn1.to_q.weight"> : tensor<1280x1280xf16>
  util.global private @__auto.controlnet.down_blocks.2.attentions.0.transformer_blocks.3.attn1.to_k.weight = #stream.parameter.named<"model"::"controlnet.down_blocks.2.attentions.0.transformer_blocks.3.attn1.to_k.weight"> : tensor<1280x1280xf16>
  util.global private @__auto.controlnet.down_blocks.2.attentions.0.transformer_blocks.3.attn1.to_v.weight = #stream.parameter.named<"model"::"controlnet.down_blocks.2.attentions.0.transformer_blocks.3.attn1.to_v.weight"> : tensor<1280x1280xf16>
  util.global private @__auto.controlnet.down_blocks.2.attentions.0.transformer_blocks.3.attn1.to_out.0.weight = #stream.parameter.named<"model"::"controlnet.down_blocks.2.attentions.0.transformer_blocks.3.attn1.to_out.0.weight"> : tensor<1280x1280xf16>
  util.global private @__auto.controlnet.down_blocks.2.attentions.0.transformer_blocks.3.attn1.to_out.0.bias = #stream.parameter.named<"model"::"controlnet.down_blocks.2.attentions.0.transformer_blocks.3.attn1.to_out.0.bias"> : tensor<1280xf16>
  util.global private @__auto.controlnet.down_blocks.2.attentions.0.transformer_blocks.3.norm2.weight = #stream.parameter.named<"model"::"controlnet.down_blocks.2.attentions.0.transformer_blocks.3.norm2.weight"> : tensor<1280xf16>
  util.global private @__auto.controlnet.down_blocks.2.attentions.0.transformer_blocks.3.norm2.bias = #stream.parameter.named<"model"::"controlnet.down_blocks.2.attentions.0.transformer_blocks.3.norm2.bias"> : tensor<1280xf16>
  util.global private @__auto.controlnet.down_blocks.2.attentions.0.transformer_blocks.3.attn2.to_q.weight = #stream.parameter.named<"model"::"controlnet.down_blocks.2.attentions.0.transformer_blocks.3.attn2.to_q.weight"> : tensor<1280x1280xf16>
  util.global private @__auto.controlnet.down_blocks.2.attentions.0.transformer_blocks.3.attn2.to_k.weight = #stream.parameter.named<"model"::"controlnet.down_blocks.2.attentions.0.transformer_blocks.3.attn2.to_k.weight"> : tensor<1280x2048xf16>
  util.global private @__auto.controlnet.down_blocks.2.attentions.0.transformer_blocks.3.attn2.to_v.weight = #stream.parameter.named<"model"::"controlnet.down_blocks.2.attentions.0.transformer_blocks.3.attn2.to_v.weight"> : tensor<1280x2048xf16>
  util.global private @__auto.controlnet.down_blocks.2.attentions.0.transformer_blocks.3.attn2.to_out.0.weight = #stream.parameter.named<"model"::"controlnet.down_blocks.2.attentions.0.transformer_blocks.3.attn2.to_out.0.weight"> : tensor<1280x1280xf16>
  util.global private @__auto.controlnet.down_blocks.2.attentions.0.transformer_blocks.3.attn2.to_out.0.bias = #stream.parameter.named<"model"::"controlnet.down_blocks.2.attentions.0.transformer_blocks.3.attn2.to_out.0.bias"> : tensor<1280xf16>
  util.global private @__auto.controlnet.down_blocks.2.attentions.0.transformer_blocks.3.norm3.weight = #stream.parameter.named<"model"::"controlnet.down_blocks.2.attentions.0.transformer_blocks.3.norm3.weight"> : tensor<1280xf16>
  util.global private @__auto.controlnet.down_blocks.2.attentions.0.transformer_blocks.3.norm3.bias = #stream.parameter.named<"model"::"controlnet.down_blocks.2.attentions.0.transformer_blocks.3.norm3.bias"> : tensor<1280xf16>
  util.global private @__auto.controlnet.down_blocks.2.attentions.0.transformer_blocks.3.ff.net.0.proj.weight = #stream.parameter.named<"model"::"controlnet.down_blocks.2.attentions.0.transformer_blocks.3.ff.net.0.proj.weight"> : tensor<10240x1280xf16>
  util.global private @__auto.controlnet.down_blocks.2.attentions.0.transformer_blocks.3.ff.net.0.proj.bias = #stream.parameter.named<"model"::"controlnet.down_blocks.2.attentions.0.transformer_blocks.3.ff.net.0.proj.bias"> : tensor<10240xf16>
  util.global private @__auto.controlnet.down_blocks.2.attentions.0.transformer_blocks.3.ff.net.2.weight = #stream.parameter.named<"model"::"controlnet.down_blocks.2.attentions.0.transformer_blocks.3.ff.net.2.weight"> : tensor<1280x5120xf16>
  util.global private @__auto.controlnet.down_blocks.2.attentions.0.transformer_blocks.3.ff.net.2.bias = #stream.parameter.named<"model"::"controlnet.down_blocks.2.attentions.0.transformer_blocks.3.ff.net.2.bias"> : tensor<1280xf16>
  util.global private @__auto.controlnet.down_blocks.2.attentions.0.transformer_blocks.4.norm1.weight = #stream.parameter.named<"model"::"controlnet.down_blocks.2.attentions.0.transformer_blocks.4.norm1.weight"> : tensor<1280xf16>
  util.global private @__auto.controlnet.down_blocks.2.attentions.0.transformer_blocks.4.norm1.bias = #stream.parameter.named<"model"::"controlnet.down_blocks.2.attentions.0.transformer_blocks.4.norm1.bias"> : tensor<1280xf16>
  util.global private @__auto.controlnet.down_blocks.2.attentions.0.transformer_blocks.4.attn1.to_q.weight = #stream.parameter.named<"model"::"controlnet.down_blocks.2.attentions.0.transformer_blocks.4.attn1.to_q.weight"> : tensor<1280x1280xf16>
  util.global private @__auto.controlnet.down_blocks.2.attentions.0.transformer_blocks.4.attn1.to_k.weight = #stream.parameter.named<"model"::"controlnet.down_blocks.2.attentions.0.transformer_blocks.4.attn1.to_k.weight"> : tensor<1280x1280xf16>
  util.global private @__auto.controlnet.down_blocks.2.attentions.0.transformer_blocks.4.attn1.to_v.weight = #stream.parameter.named<"model"::"controlnet.down_blocks.2.attentions.0.transformer_blocks.4.attn1.to_v.weight"> : tensor<1280x1280xf16>
  util.global private @__auto.controlnet.down_blocks.2.attentions.0.transformer_blocks.4.attn1.to_out.0.weight = #stream.parameter.named<"model"::"controlnet.down_blocks.2.attentions.0.transformer_blocks.4.attn1.to_out.0.weight"> : tensor<1280x1280xf16>
  util.global private @__auto.controlnet.down_blocks.2.attentions.0.transformer_blocks.4.attn1.to_out.0.bias = #stream.parameter.named<"model"::"controlnet.down_blocks.2.attentions.0.transformer_blocks.4.attn1.to_out.0.bias"> : tensor<1280xf16>
  util.global private @__auto.controlnet.down_blocks.2.attentions.0.transformer_blocks.4.norm2.weight = #stream.parameter.named<"model"::"controlnet.down_blocks.2.attentions.0.transformer_blocks.4.norm2.weight"> : tensor<1280xf16>
  util.global private @__auto.controlnet.down_blocks.2.attentions.0.transformer_blocks.4.norm2.bias = #stream.parameter.named<"model"::"controlnet.down_blocks.2.attentions.0.transformer_blocks.4.norm2.bias"> : tensor<1280xf16>
  util.global private @__auto.controlnet.down_blocks.2.attentions.0.transformer_blocks.4.attn2.to_q.weight = #stream.parameter.named<"model"::"controlnet.down_blocks.2.attentions.0.transformer_blocks.4.attn2.to_q.weight"> : tensor<1280x1280xf16>
  util.global private @__auto.controlnet.down_blocks.2.attentions.0.transformer_blocks.4.attn2.to_k.weight = #stream.parameter.named<"model"::"controlnet.down_blocks.2.attentions.0.transformer_blocks.4.attn2.to_k.weight"> : tensor<1280x2048xf16>
  util.global private @__auto.controlnet.down_blocks.2.attentions.0.transformer_blocks.4.attn2.to_v.weight = #stream.parameter.named<"model"::"controlnet.down_blocks.2.attentions.0.transformer_blocks.4.attn2.to_v.weight"> : tensor<1280x2048xf16>
  util.global private @__auto.controlnet.down_blocks.2.attentions.0.transformer_blocks.4.attn2.to_out.0.weight = #stream.parameter.named<"model"::"controlnet.down_blocks.2.attentions.0.transformer_blocks.4.attn2.to_out.0.weight"> : tensor<1280x1280xf16>
  util.global private @__auto.controlnet.down_blocks.2.attentions.0.transformer_blocks.4.attn2.to_out.0.bias = #stream.parameter.named<"model"::"controlnet.down_blocks.2.attentions.0.transformer_blocks.4.attn2.to_out.0.bias"> : tensor<1280xf16>
  util.global private @__auto.controlnet.down_blocks.2.attentions.0.transformer_blocks.4.norm3.weight = #stream.parameter.named<"model"::"controlnet.down_blocks.2.attentions.0.transformer_blocks.4.norm3.weight"> : tensor<1280xf16>
  util.global private @__auto.controlnet.down_blocks.2.attentions.0.transformer_blocks.4.norm3.bias = #stream.parameter.named<"model"::"controlnet.down_blocks.2.attentions.0.transformer_blocks.4.norm3.bias"> : tensor<1280xf16>
  util.global private @__auto.controlnet.down_blocks.2.attentions.0.transformer_blocks.4.ff.net.0.proj.weight = #stream.parameter.named<"model"::"controlnet.down_blocks.2.attentions.0.transformer_blocks.4.ff.net.0.proj.weight"> : tensor<10240x1280xf16>
  util.global private @__auto.controlnet.down_blocks.2.attentions.0.transformer_blocks.4.ff.net.0.proj.bias = #stream.parameter.named<"model"::"controlnet.down_blocks.2.attentions.0.transformer_blocks.4.ff.net.0.proj.bias"> : tensor<10240xf16>
  util.global private @__auto.controlnet.down_blocks.2.attentions.0.transformer_blocks.4.ff.net.2.weight = #stream.parameter.named<"model"::"controlnet.down_blocks.2.attentions.0.transformer_blocks.4.ff.net.2.weight"> : tensor<1280x5120xf16>
  util.global private @__auto.controlnet.down_blocks.2.attentions.0.transformer_blocks.4.ff.net.2.bias = #stream.parameter.named<"model"::"controlnet.down_blocks.2.attentions.0.transformer_blocks.4.ff.net.2.bias"> : tensor<1280xf16>
  util.global private @__auto.controlnet.down_blocks.2.attentions.0.transformer_blocks.5.norm1.weight = #stream.parameter.named<"model"::"controlnet.down_blocks.2.attentions.0.transformer_blocks.5.norm1.weight"> : tensor<1280xf16>
  util.global private @__auto.controlnet.down_blocks.2.attentions.0.transformer_blocks.5.norm1.bias = #stream.parameter.named<"model"::"controlnet.down_blocks.2.attentions.0.transformer_blocks.5.norm1.bias"> : tensor<1280xf16>
  util.global private @__auto.controlnet.down_blocks.2.attentions.0.transformer_blocks.5.attn1.to_q.weight = #stream.parameter.named<"model"::"controlnet.down_blocks.2.attentions.0.transformer_blocks.5.attn1.to_q.weight"> : tensor<1280x1280xf16>
  util.global private @__auto.controlnet.down_blocks.2.attentions.0.transformer_blocks.5.attn1.to_k.weight = #stream.parameter.named<"model"::"controlnet.down_blocks.2.attentions.0.transformer_blocks.5.attn1.to_k.weight"> : tensor<1280x1280xf16>
  util.global private @__auto.controlnet.down_blocks.2.attentions.0.transformer_blocks.5.attn1.to_v.weight = #stream.parameter.named<"model"::"controlnet.down_blocks.2.attentions.0.transformer_blocks.5.attn1.to_v.weight"> : tensor<1280x1280xf16>
  util.global private @__auto.controlnet.down_blocks.2.attentions.0.transformer_blocks.5.attn1.to_out.0.weight = #stream.parameter.named<"model"::"controlnet.down_blocks.2.attentions.0.transformer_blocks.5.attn1.to_out.0.weight"> : tensor<1280x1280xf16>
  util.global private @__auto.controlnet.down_blocks.2.attentions.0.transformer_blocks.5.attn1.to_out.0.bias = #stream.parameter.named<"model"::"controlnet.down_blocks.2.attentions.0.transformer_blocks.5.attn1.to_out.0.bias"> : tensor<1280xf16>
  util.global private @__auto.controlnet.down_blocks.2.attentions.0.transformer_blocks.5.norm2.weight = #stream.parameter.named<"model"::"controlnet.down_blocks.2.attentions.0.transformer_blocks.5.norm2.weight"> : tensor<1280xf16>
  util.global private @__auto.controlnet.down_blocks.2.attentions.0.transformer_blocks.5.norm2.bias = #stream.parameter.named<"model"::"controlnet.down_blocks.2.attentions.0.transformer_blocks.5.norm2.bias"> : tensor<1280xf16>
  util.global private @__auto.controlnet.down_blocks.2.attentions.0.transformer_blocks.5.attn2.to_q.weight = #stream.parameter.named<"model"::"controlnet.down_blocks.2.attentions.0.transformer_blocks.5.attn2.to_q.weight"> : tensor<1280x1280xf16>
  util.global private @__auto.controlnet.down_blocks.2.attentions.0.transformer_blocks.5.attn2.to_k.weight = #stream.parameter.named<"model"::"controlnet.down_blocks.2.attentions.0.transformer_blocks.5.attn2.to_k.weight"> : tensor<1280x2048xf16>
  util.global private @__auto.controlnet.down_blocks.2.attentions.0.transformer_blocks.5.attn2.to_v.weight = #stream.parameter.named<"model"::"controlnet.down_blocks.2.attentions.0.transformer_blocks.5.attn2.to_v.weight"> : tensor<1280x2048xf16>
  util.global private @__auto.controlnet.down_blocks.2.attentions.0.transformer_blocks.5.attn2.to_out.0.weight = #stream.parameter.named<"model"::"controlnet.down_blocks.2.attentions.0.transformer_blocks.5.attn2.to_out.0.weight"> : tensor<1280x1280xf16>
  util.global private @__auto.controlnet.down_blocks.2.attentions.0.transformer_blocks.5.attn2.to_out.0.bias = #stream.parameter.named<"model"::"controlnet.down_blocks.2.attentions.0.transformer_blocks.5.attn2.to_out.0.bias"> : tensor<1280xf16>
  util.global private @__auto.controlnet.down_blocks.2.attentions.0.transformer_blocks.5.norm3.weight = #stream.parameter.named<"model"::"controlnet.down_blocks.2.attentions.0.transformer_blocks.5.norm3.weight"> : tensor<1280xf16>
  util.global private @__auto.controlnet.down_blocks.2.attentions.0.transformer_blocks.5.norm3.bias = #stream.parameter.named<"model"::"controlnet.down_blocks.2.attentions.0.transformer_blocks.5.norm3.bias"> : tensor<1280xf16>
  util.global private @__auto.controlnet.down_blocks.2.attentions.0.transformer_blocks.5.ff.net.0.proj.weight = #stream.parameter.named<"model"::"controlnet.down_blocks.2.attentions.0.transformer_blocks.5.ff.net.0.proj.weight"> : tensor<10240x1280xf16>
  util.global private @__auto.controlnet.down_blocks.2.attentions.0.transformer_blocks.5.ff.net.0.proj.bias = #stream.parameter.named<"model"::"controlnet.down_blocks.2.attentions.0.transformer_blocks.5.ff.net.0.proj.bias"> : tensor<10240xf16>
  util.global private @__auto.controlnet.down_blocks.2.attentions.0.transformer_blocks.5.ff.net.2.weight = #stream.parameter.named<"model"::"controlnet.down_blocks.2.attentions.0.transformer_blocks.5.ff.net.2.weight"> : tensor<1280x5120xf16>
  util.global private @__auto.controlnet.down_blocks.2.attentions.0.transformer_blocks.5.ff.net.2.bias = #stream.parameter.named<"model"::"controlnet.down_blocks.2.attentions.0.transformer_blocks.5.ff.net.2.bias"> : tensor<1280xf16>
  util.global private @__auto.controlnet.down_blocks.2.attentions.0.transformer_blocks.6.norm1.weight = #stream.parameter.named<"model"::"controlnet.down_blocks.2.attentions.0.transformer_blocks.6.norm1.weight"> : tensor<1280xf16>
  util.global private @__auto.controlnet.down_blocks.2.attentions.0.transformer_blocks.6.norm1.bias = #stream.parameter.named<"model"::"controlnet.down_blocks.2.attentions.0.transformer_blocks.6.norm1.bias"> : tensor<1280xf16>
  util.global private @__auto.controlnet.down_blocks.2.attentions.0.transformer_blocks.6.attn1.to_q.weight = #stream.parameter.named<"model"::"controlnet.down_blocks.2.attentions.0.transformer_blocks.6.attn1.to_q.weight"> : tensor<1280x1280xf16>
  util.global private @__auto.controlnet.down_blocks.2.attentions.0.transformer_blocks.6.attn1.to_k.weight = #stream.parameter.named<"model"::"controlnet.down_blocks.2.attentions.0.transformer_blocks.6.attn1.to_k.weight"> : tensor<1280x1280xf16>
  util.global private @__auto.controlnet.down_blocks.2.attentions.0.transformer_blocks.6.attn1.to_v.weight = #stream.parameter.named<"model"::"controlnet.down_blocks.2.attentions.0.transformer_blocks.6.attn1.to_v.weight"> : tensor<1280x1280xf16>
  util.global private @__auto.controlnet.down_blocks.2.attentions.0.transformer_blocks.6.attn1.to_out.0.weight = #stream.parameter.named<"model"::"controlnet.down_blocks.2.attentions.0.transformer_blocks.6.attn1.to_out.0.weight"> : tensor<1280x1280xf16>
  util.global private @__auto.controlnet.down_blocks.2.attentions.0.transformer_blocks.6.attn1.to_out.0.bias = #stream.parameter.named<"model"::"controlnet.down_blocks.2.attentions.0.transformer_blocks.6.attn1.to_out.0.bias"> : tensor<1280xf16>
  util.global private @__auto.controlnet.down_blocks.2.attentions.0.transformer_blocks.6.norm2.weight = #stream.parameter.named<"model"::"controlnet.down_blocks.2.attentions.0.transformer_blocks.6.norm2.weight"> : tensor<1280xf16>
  util.global private @__auto.controlnet.down_blocks.2.attentions.0.transformer_blocks.6.norm2.bias = #stream.parameter.named<"model"::"controlnet.down_blocks.2.attentions.0.transformer_blocks.6.norm2.bias"> : tensor<1280xf16>
  util.global private @__auto.controlnet.down_blocks.2.attentions.0.transformer_blocks.6.attn2.to_q.weight = #stream.parameter.named<"model"::"controlnet.down_blocks.2.attentions.0.transformer_blocks.6.attn2.to_q.weight"> : tensor<1280x1280xf16>
  util.global private @__auto.controlnet.down_blocks.2.attentions.0.transformer_blocks.6.attn2.to_k.weight = #stream.parameter.named<"model"::"controlnet.down_blocks.2.attentions.0.transformer_blocks.6.attn2.to_k.weight"> : tensor<1280x2048xf16>
  util.global private @__auto.controlnet.down_blocks.2.attentions.0.transformer_blocks.6.attn2.to_v.weight = #stream.parameter.named<"model"::"controlnet.down_blocks.2.attentions.0.transformer_blocks.6.attn2.to_v.weight"> : tensor<1280x2048xf16>
  util.global private @__auto.controlnet.down_blocks.2.attentions.0.transformer_blocks.6.attn2.to_out.0.weight = #stream.parameter.named<"model"::"controlnet.down_blocks.2.attentions.0.transformer_blocks.6.attn2.to_out.0.weight"> : tensor<1280x1280xf16>
  util.global private @__auto.controlnet.down_blocks.2.attentions.0.transformer_blocks.6.attn2.to_out.0.bias = #stream.parameter.named<"model"::"controlnet.down_blocks.2.attentions.0.transformer_blocks.6.attn2.to_out.0.bias"> : tensor<1280xf16>
  util.global private @__auto.controlnet.down_blocks.2.attentions.0.transformer_blocks.6.norm3.weight = #stream.parameter.named<"model"::"controlnet.down_blocks.2.attentions.0.transformer_blocks.6.norm3.weight"> : tensor<1280xf16>
  util.global private @__auto.controlnet.down_blocks.2.attentions.0.transformer_blocks.6.norm3.bias = #stream.parameter.named<"model"::"controlnet.down_blocks.2.attentions.0.transformer_blocks.6.norm3.bias"> : tensor<1280xf16>
  util.global private @__auto.controlnet.down_blocks.2.attentions.0.transformer_blocks.6.ff.net.0.proj.weight = #stream.parameter.named<"model"::"controlnet.down_blocks.2.attentions.0.transformer_blocks.6.ff.net.0.proj.weight"> : tensor<10240x1280xf16>
  util.global private @__auto.controlnet.down_blocks.2.attentions.0.transformer_blocks.6.ff.net.0.proj.bias = #stream.parameter.named<"model"::"controlnet.down_blocks.2.attentions.0.transformer_blocks.6.ff.net.0.proj.bias"> : tensor<10240xf16>
  util.global private @__auto.controlnet.down_blocks.2.attentions.0.transformer_blocks.6.ff.net.2.weight = #stream.parameter.named<"model"::"controlnet.down_blocks.2.attentions.0.transformer_blocks.6.ff.net.2.weight"> : tensor<1280x5120xf16>
  util.global private @__auto.controlnet.down_blocks.2.attentions.0.transformer_blocks.6.ff.net.2.bias = #stream.parameter.named<"model"::"controlnet.down_blocks.2.attentions.0.transformer_blocks.6.ff.net.2.bias"> : tensor<1280xf16>
  util.global private @__auto.controlnet.down_blocks.2.attentions.0.transformer_blocks.7.norm1.weight = #stream.parameter.named<"model"::"controlnet.down_blocks.2.attentions.0.transformer_blocks.7.norm1.weight"> : tensor<1280xf16>
  util.global private @__auto.controlnet.down_blocks.2.attentions.0.transformer_blocks.7.norm1.bias = #stream.parameter.named<"model"::"controlnet.down_blocks.2.attentions.0.transformer_blocks.7.norm1.bias"> : tensor<1280xf16>
  util.global private @__auto.controlnet.down_blocks.2.attentions.0.transformer_blocks.7.attn1.to_q.weight = #stream.parameter.named<"model"::"controlnet.down_blocks.2.attentions.0.transformer_blocks.7.attn1.to_q.weight"> : tensor<1280x1280xf16>
  util.global private @__auto.controlnet.down_blocks.2.attentions.0.transformer_blocks.7.attn1.to_k.weight = #stream.parameter.named<"model"::"controlnet.down_blocks.2.attentions.0.transformer_blocks.7.attn1.to_k.weight"> : tensor<1280x1280xf16>
  util.global private @__auto.controlnet.down_blocks.2.attentions.0.transformer_blocks.7.attn1.to_v.weight = #stream.parameter.named<"model"::"controlnet.down_blocks.2.attentions.0.transformer_blocks.7.attn1.to_v.weight"> : tensor<1280x1280xf16>
  util.global private @__auto.controlnet.down_blocks.2.attentions.0.transformer_blocks.7.attn1.to_out.0.weight = #stream.parameter.named<"model"::"controlnet.down_blocks.2.attentions.0.transformer_blocks.7.attn1.to_out.0.weight"> : tensor<1280x1280xf16>
  util.global private @__auto.controlnet.down_blocks.2.attentions.0.transformer_blocks.7.attn1.to_out.0.bias = #stream.parameter.named<"model"::"controlnet.down_blocks.2.attentions.0.transformer_blocks.7.attn1.to_out.0.bias"> : tensor<1280xf16>
  util.global private @__auto.controlnet.down_blocks.2.attentions.0.transformer_blocks.7.norm2.weight = #stream.parameter.named<"model"::"controlnet.down_blocks.2.attentions.0.transformer_blocks.7.norm2.weight"> : tensor<1280xf16>
  util.global private @__auto.controlnet.down_blocks.2.attentions.0.transformer_blocks.7.norm2.bias = #stream.parameter.named<"model"::"controlnet.down_blocks.2.attentions.0.transformer_blocks.7.norm2.bias"> : tensor<1280xf16>
  util.global private @__auto.controlnet.down_blocks.2.attentions.0.transformer_blocks.7.attn2.to_q.weight = #stream.parameter.named<"model"::"controlnet.down_blocks.2.attentions.0.transformer_blocks.7.attn2.to_q.weight"> : tensor<1280x1280xf16>
  util.global private @__auto.controlnet.down_blocks.2.attentions.0.transformer_blocks.7.attn2.to_k.weight = #stream.parameter.named<"model"::"controlnet.down_blocks.2.attentions.0.transformer_blocks.7.attn2.to_k.weight"> : tensor<1280x2048xf16>
  util.global private @__auto.controlnet.down_blocks.2.attentions.0.transformer_blocks.7.attn2.to_v.weight = #stream.parameter.named<"model"::"controlnet.down_blocks.2.attentions.0.transformer_blocks.7.attn2.to_v.weight"> : tensor<1280x2048xf16>
  util.global private @__auto.controlnet.down_blocks.2.attentions.0.transformer_blocks.7.attn2.to_out.0.weight = #stream.parameter.named<"model"::"controlnet.down_blocks.2.attentions.0.transformer_blocks.7.attn2.to_out.0.weight"> : tensor<1280x1280xf16>
  util.global private @__auto.controlnet.down_blocks.2.attentions.0.transformer_blocks.7.attn2.to_out.0.bias = #stream.parameter.named<"model"::"controlnet.down_blocks.2.attentions.0.transformer_blocks.7.attn2.to_out.0.bias"> : tensor<1280xf16>
  util.global private @__auto.controlnet.down_blocks.2.attentions.0.transformer_blocks.7.norm3.weight = #stream.parameter.named<"model"::"controlnet.down_blocks.2.attentions.0.transformer_blocks.7.norm3.weight"> : tensor<1280xf16>
  util.global private @__auto.controlnet.down_blocks.2.attentions.0.transformer_blocks.7.norm3.bias = #stream.parameter.named<"model"::"controlnet.down_blocks.2.attentions.0.transformer_blocks.7.norm3.bias"> : tensor<1280xf16>
  util.global private @__auto.controlnet.down_blocks.2.attentions.0.transformer_blocks.7.ff.net.0.proj.weight = #stream.parameter.named<"model"::"controlnet.down_blocks.2.attentions.0.transformer_blocks.7.ff.net.0.proj.weight"> : tensor<10240x1280xf16>
  util.global private @__auto.controlnet.down_blocks.2.attentions.0.transformer_blocks.7.ff.net.0.proj.bias = #stream.parameter.named<"model"::"controlnet.down_blocks.2.attentions.0.transformer_blocks.7.ff.net.0.proj.bias"> : tensor<10240xf16>
  util.global private @__auto.controlnet.down_blocks.2.attentions.0.transformer_blocks.7.ff.net.2.weight = #stream.parameter.named<"model"::"controlnet.down_blocks.2.attentions.0.transformer_blocks.7.ff.net.2.weight"> : tensor<1280x5120xf16>
  util.global private @__auto.controlnet.down_blocks.2.attentions.0.transformer_blocks.7.ff.net.2.bias = #stream.parameter.named<"model"::"controlnet.down_blocks.2.attentions.0.transformer_blocks.7.ff.net.2.bias"> : tensor<1280xf16>
  util.global private @__auto.controlnet.down_blocks.2.attentions.0.transformer_blocks.8.norm1.weight = #stream.parameter.named<"model"::"controlnet.down_blocks.2.attentions.0.transformer_blocks.8.norm1.weight"> : tensor<1280xf16>
  util.global private @__auto.controlnet.down_blocks.2.attentions.0.transformer_blocks.8.norm1.bias = #stream.parameter.named<"model"::"controlnet.down_blocks.2.attentions.0.transformer_blocks.8.norm1.bias"> : tensor<1280xf16>
  util.global private @__auto.controlnet.down_blocks.2.attentions.0.transformer_blocks.8.attn1.to_q.weight = #stream.parameter.named<"model"::"controlnet.down_blocks.2.attentions.0.transformer_blocks.8.attn1.to_q.weight"> : tensor<1280x1280xf16>
  util.global private @__auto.controlnet.down_blocks.2.attentions.0.transformer_blocks.8.attn1.to_k.weight = #stream.parameter.named<"model"::"controlnet.down_blocks.2.attentions.0.transformer_blocks.8.attn1.to_k.weight"> : tensor<1280x1280xf16>
  util.global private @__auto.controlnet.down_blocks.2.attentions.0.transformer_blocks.8.attn1.to_v.weight = #stream.parameter.named<"model"::"controlnet.down_blocks.2.attentions.0.transformer_blocks.8.attn1.to_v.weight"> : tensor<1280x1280xf16>
  util.global private @__auto.controlnet.down_blocks.2.attentions.0.transformer_blocks.8.attn1.to_out.0.weight = #stream.parameter.named<"model"::"controlnet.down_blocks.2.attentions.0.transformer_blocks.8.attn1.to_out.0.weight"> : tensor<1280x1280xf16>
  util.global private @__auto.controlnet.down_blocks.2.attentions.0.transformer_blocks.8.attn1.to_out.0.bias = #stream.parameter.named<"model"::"controlnet.down_blocks.2.attentions.0.transformer_blocks.8.attn1.to_out.0.bias"> : tensor<1280xf16>
  util.global private @__auto.controlnet.down_blocks.2.attentions.0.transformer_blocks.8.norm2.weight = #stream.parameter.named<"model"::"controlnet.down_blocks.2.attentions.0.transformer_blocks.8.norm2.weight"> : tensor<1280xf16>
  util.global private @__auto.controlnet.down_blocks.2.attentions.0.transformer_blocks.8.norm2.bias = #stream.parameter.named<"model"::"controlnet.down_blocks.2.attentions.0.transformer_blocks.8.norm2.bias"> : tensor<1280xf16>
  util.global private @__auto.controlnet.down_blocks.2.attentions.0.transformer_blocks.8.attn2.to_q.weight = #stream.parameter.named<"model"::"controlnet.down_blocks.2.attentions.0.transformer_blocks.8.attn2.to_q.weight"> : tensor<1280x1280xf16>
  util.global private @__auto.controlnet.down_blocks.2.attentions.0.transformer_blocks.8.attn2.to_k.weight = #stream.parameter.named<"model"::"controlnet.down_blocks.2.attentions.0.transformer_blocks.8.attn2.to_k.weight"> : tensor<1280x2048xf16>
  util.global private @__auto.controlnet.down_blocks.2.attentions.0.transformer_blocks.8.attn2.to_v.weight = #stream.parameter.named<"model"::"controlnet.down_blocks.2.attentions.0.transformer_blocks.8.attn2.to_v.weight"> : tensor<1280x2048xf16>
  util.global private @__auto.controlnet.down_blocks.2.attentions.0.transformer_blocks.8.attn2.to_out.0.weight = #stream.parameter.named<"model"::"controlnet.down_blocks.2.attentions.0.transformer_blocks.8.attn2.to_out.0.weight"> : tensor<1280x1280xf16>
  util.global private @__auto.controlnet.down_blocks.2.attentions.0.transformer_blocks.8.attn2.to_out.0.bias = #stream.parameter.named<"model"::"controlnet.down_blocks.2.attentions.0.transformer_blocks.8.attn2.to_out.0.bias"> : tensor<1280xf16>
  util.global private @__auto.controlnet.down_blocks.2.attentions.0.transformer_blocks.8.norm3.weight = #stream.parameter.named<"model"::"controlnet.down_blocks.2.attentions.0.transformer_blocks.8.norm3.weight"> : tensor<1280xf16>
  util.global private @__auto.controlnet.down_blocks.2.attentions.0.transformer_blocks.8.norm3.bias = #stream.parameter.named<"model"::"controlnet.down_blocks.2.attentions.0.transformer_blocks.8.norm3.bias"> : tensor<1280xf16>
  util.global private @__auto.controlnet.down_blocks.2.attentions.0.transformer_blocks.8.ff.net.0.proj.weight = #stream.parameter.named<"model"::"controlnet.down_blocks.2.attentions.0.transformer_blocks.8.ff.net.0.proj.weight"> : tensor<10240x1280xf16>
  util.global private @__auto.controlnet.down_blocks.2.attentions.0.transformer_blocks.8.ff.net.0.proj.bias = #stream.parameter.named<"model"::"controlnet.down_blocks.2.attentions.0.transformer_blocks.8.ff.net.0.proj.bias"> : tensor<10240xf16>
  util.global private @__auto.controlnet.down_blocks.2.attentions.0.transformer_blocks.8.ff.net.2.weight = #stream.parameter.named<"model"::"controlnet.down_blocks.2.attentions.0.transformer_blocks.8.ff.net.2.weight"> : tensor<1280x5120xf16>
  util.global private @__auto.controlnet.down_blocks.2.attentions.0.transformer_blocks.8.ff.net.2.bias = #stream.parameter.named<"model"::"controlnet.down_blocks.2.attentions.0.transformer_blocks.8.ff.net.2.bias"> : tensor<1280xf16>
  util.global private @__auto.controlnet.down_blocks.2.attentions.0.transformer_blocks.9.norm1.weight = #stream.parameter.named<"model"::"controlnet.down_blocks.2.attentions.0.transformer_blocks.9.norm1.weight"> : tensor<1280xf16>
  util.global private @__auto.controlnet.down_blocks.2.attentions.0.transformer_blocks.9.norm1.bias = #stream.parameter.named<"model"::"controlnet.down_blocks.2.attentions.0.transformer_blocks.9.norm1.bias"> : tensor<1280xf16>
  util.global private @__auto.controlnet.down_blocks.2.attentions.0.transformer_blocks.9.attn1.to_q.weight = #stream.parameter.named<"model"::"controlnet.down_blocks.2.attentions.0.transformer_blocks.9.attn1.to_q.weight"> : tensor<1280x1280xf16>
  util.global private @__auto.controlnet.down_blocks.2.attentions.0.transformer_blocks.9.attn1.to_k.weight = #stream.parameter.named<"model"::"controlnet.down_blocks.2.attentions.0.transformer_blocks.9.attn1.to_k.weight"> : tensor<1280x1280xf16>
  util.global private @__auto.controlnet.down_blocks.2.attentions.0.transformer_blocks.9.attn1.to_v.weight = #stream.parameter.named<"model"::"controlnet.down_blocks.2.attentions.0.transformer_blocks.9.attn1.to_v.weight"> : tensor<1280x1280xf16>
  util.global private @__auto.controlnet.down_blocks.2.attentions.0.transformer_blocks.9.attn1.to_out.0.weight = #stream.parameter.named<"model"::"controlnet.down_blocks.2.attentions.0.transformer_blocks.9.attn1.to_out.0.weight"> : tensor<1280x1280xf16>
  util.global private @__auto.controlnet.down_blocks.2.attentions.0.transformer_blocks.9.attn1.to_out.0.bias = #stream.parameter.named<"model"::"controlnet.down_blocks.2.attentions.0.transformer_blocks.9.attn1.to_out.0.bias"> : tensor<1280xf16>
  util.global private @__auto.controlnet.down_blocks.2.attentions.0.transformer_blocks.9.norm2.weight = #stream.parameter.named<"model"::"controlnet.down_blocks.2.attentions.0.transformer_blocks.9.norm2.weight"> : tensor<1280xf16>
  util.global private @__auto.controlnet.down_blocks.2.attentions.0.transformer_blocks.9.norm2.bias = #stream.parameter.named<"model"::"controlnet.down_blocks.2.attentions.0.transformer_blocks.9.norm2.bias"> : tensor<1280xf16>
  util.global private @__auto.controlnet.down_blocks.2.attentions.0.transformer_blocks.9.attn2.to_q.weight = #stream.parameter.named<"model"::"controlnet.down_blocks.2.attentions.0.transformer_blocks.9.attn2.to_q.weight"> : tensor<1280x1280xf16>
  util.global private @__auto.controlnet.down_blocks.2.attentions.0.transformer_blocks.9.attn2.to_k.weight = #stream.parameter.named<"model"::"controlnet.down_blocks.2.attentions.0.transformer_blocks.9.attn2.to_k.weight"> : tensor<1280x2048xf16>
  util.global private @__auto.controlnet.down_blocks.2.attentions.0.transformer_blocks.9.attn2.to_v.weight = #stream.parameter.named<"model"::"controlnet.down_blocks.2.attentions.0.transformer_blocks.9.attn2.to_v.weight"> : tensor<1280x2048xf16>
  util.global private @__auto.controlnet.down_blocks.2.attentions.0.transformer_blocks.9.attn2.to_out.0.weight = #stream.parameter.named<"model"::"controlnet.down_blocks.2.attentions.0.transformer_blocks.9.attn2.to_out.0.weight"> : tensor<1280x1280xf16>
  util.global private @__auto.controlnet.down_blocks.2.attentions.0.transformer_blocks.9.attn2.to_out.0.bias = #stream.parameter.named<"model"::"controlnet.down_blocks.2.attentions.0.transformer_blocks.9.attn2.to_out.0.bias"> : tensor<1280xf16>
  util.global private @__auto.controlnet.down_blocks.2.attentions.0.transformer_blocks.9.norm3.weight = #stream.parameter.named<"model"::"controlnet.down_blocks.2.attentions.0.transformer_blocks.9.norm3.weight"> : tensor<1280xf16>
  util.global private @__auto.controlnet.down_blocks.2.attentions.0.transformer_blocks.9.norm3.bias = #stream.parameter.named<"model"::"controlnet.down_blocks.2.attentions.0.transformer_blocks.9.norm3.bias"> : tensor<1280xf16>
  util.global private @__auto.controlnet.down_blocks.2.attentions.0.transformer_blocks.9.ff.net.0.proj.weight = #stream.parameter.named<"model"::"controlnet.down_blocks.2.attentions.0.transformer_blocks.9.ff.net.0.proj.weight"> : tensor<10240x1280xf16>
  util.global private @__auto.controlnet.down_blocks.2.attentions.0.transformer_blocks.9.ff.net.0.proj.bias = #stream.parameter.named<"model"::"controlnet.down_blocks.2.attentions.0.transformer_blocks.9.ff.net.0.proj.bias"> : tensor<10240xf16>
  util.global private @__auto.controlnet.down_blocks.2.attentions.0.transformer_blocks.9.ff.net.2.weight = #stream.parameter.named<"model"::"controlnet.down_blocks.2.attentions.0.transformer_blocks.9.ff.net.2.weight"> : tensor<1280x5120xf16>
  util.global private @__auto.controlnet.down_blocks.2.attentions.0.transformer_blocks.9.ff.net.2.bias = #stream.parameter.named<"model"::"controlnet.down_blocks.2.attentions.0.transformer_blocks.9.ff.net.2.bias"> : tensor<1280xf16>
  util.global private @__auto.controlnet.down_blocks.2.attentions.0.proj_out.weight = #stream.parameter.named<"model"::"controlnet.down_blocks.2.attentions.0.proj_out.weight"> : tensor<1280x1280xf16>
  util.global private @__auto.controlnet.down_blocks.2.attentions.0.proj_out.bias = #stream.parameter.named<"model"::"controlnet.down_blocks.2.attentions.0.proj_out.bias"> : tensor<1280xf16>
  util.global private @__auto.controlnet.down_blocks.2.resnets.1.norm1.bias = #stream.parameter.named<"model"::"controlnet.down_blocks.2.resnets.1.norm1.bias"> : tensor<1280xf16>
  util.global private @__auto.controlnet.down_blocks.2.resnets.1.norm1.weight = #stream.parameter.named<"model"::"controlnet.down_blocks.2.resnets.1.norm1.weight"> : tensor<1280xf16>
  util.global private @__auto.controlnet.down_blocks.2.resnets.1.conv1.weight = #stream.parameter.named<"model"::"controlnet.down_blocks.2.resnets.1.conv1.weight"> : tensor<1280x1280x3x3xf16>
  util.global private @__auto.controlnet.down_blocks.2.resnets.1.conv1.bias = #stream.parameter.named<"model"::"controlnet.down_blocks.2.resnets.1.conv1.bias"> : tensor<1280xf16>
  util.global private @__auto.controlnet.down_blocks.2.resnets.1.time_emb_proj.weight = #stream.parameter.named<"model"::"controlnet.down_blocks.2.resnets.1.time_emb_proj.weight"> : tensor<1280x1280xf16>
  util.global private @__auto.controlnet.down_blocks.2.resnets.1.time_emb_proj.bias = #stream.parameter.named<"model"::"controlnet.down_blocks.2.resnets.1.time_emb_proj.bias"> : tensor<1280xf16>
  util.global private @__auto.controlnet.down_blocks.2.resnets.1.norm2.bias = #stream.parameter.named<"model"::"controlnet.down_blocks.2.resnets.1.norm2.bias"> : tensor<1280xf16>
  util.global private @__auto.controlnet.down_blocks.2.resnets.1.norm2.weight = #stream.parameter.named<"model"::"controlnet.down_blocks.2.resnets.1.norm2.weight"> : tensor<1280xf16>
  util.global private @__auto.controlnet.down_blocks.2.resnets.1.conv2.weight = #stream.parameter.named<"model"::"controlnet.down_blocks.2.resnets.1.conv2.weight"> : tensor<1280x1280x3x3xf16>
  util.global private @__auto.controlnet.down_blocks.2.resnets.1.conv2.bias = #stream.parameter.named<"model"::"controlnet.down_blocks.2.resnets.1.conv2.bias"> : tensor<1280xf16>
  util.global private @__auto.controlnet.down_blocks.2.attentions.1.norm.bias = #stream.parameter.named<"model"::"controlnet.down_blocks.2.attentions.1.norm.bias"> : tensor<1280xf16>
  util.global private @__auto.controlnet.down_blocks.2.attentions.1.norm.weight = #stream.parameter.named<"model"::"controlnet.down_blocks.2.attentions.1.norm.weight"> : tensor<1280xf16>
  util.global private @__auto.controlnet.down_blocks.2.attentions.1.proj_in.weight = #stream.parameter.named<"model"::"controlnet.down_blocks.2.attentions.1.proj_in.weight"> : tensor<1280x1280xf16>
  util.global private @__auto.controlnet.down_blocks.2.attentions.1.proj_in.bias = #stream.parameter.named<"model"::"controlnet.down_blocks.2.attentions.1.proj_in.bias"> : tensor<1280xf16>
  util.global private @__auto.controlnet.down_blocks.2.attentions.1.transformer_blocks.0.norm1.weight = #stream.parameter.named<"model"::"controlnet.down_blocks.2.attentions.1.transformer_blocks.0.norm1.weight"> : tensor<1280xf16>
  util.global private @__auto.controlnet.down_blocks.2.attentions.1.transformer_blocks.0.norm1.bias = #stream.parameter.named<"model"::"controlnet.down_blocks.2.attentions.1.transformer_blocks.0.norm1.bias"> : tensor<1280xf16>
  util.global private @__auto.controlnet.down_blocks.2.attentions.1.transformer_blocks.0.attn1.to_q.weight = #stream.parameter.named<"model"::"controlnet.down_blocks.2.attentions.1.transformer_blocks.0.attn1.to_q.weight"> : tensor<1280x1280xf16>
  util.global private @__auto.controlnet.down_blocks.2.attentions.1.transformer_blocks.0.attn1.to_k.weight = #stream.parameter.named<"model"::"controlnet.down_blocks.2.attentions.1.transformer_blocks.0.attn1.to_k.weight"> : tensor<1280x1280xf16>
  util.global private @__auto.controlnet.down_blocks.2.attentions.1.transformer_blocks.0.attn1.to_v.weight = #stream.parameter.named<"model"::"controlnet.down_blocks.2.attentions.1.transformer_blocks.0.attn1.to_v.weight"> : tensor<1280x1280xf16>
  util.global private @__auto.controlnet.down_blocks.2.attentions.1.transformer_blocks.0.attn1.to_out.0.weight = #stream.parameter.named<"model"::"controlnet.down_blocks.2.attentions.1.transformer_blocks.0.attn1.to_out.0.weight"> : tensor<1280x1280xf16>
  util.global private @__auto.controlnet.down_blocks.2.attentions.1.transformer_blocks.0.attn1.to_out.0.bias = #stream.parameter.named<"model"::"controlnet.down_blocks.2.attentions.1.transformer_blocks.0.attn1.to_out.0.bias"> : tensor<1280xf16>
  util.global private @__auto.controlnet.down_blocks.2.attentions.1.transformer_blocks.0.norm2.weight = #stream.parameter.named<"model"::"controlnet.down_blocks.2.attentions.1.transformer_blocks.0.norm2.weight"> : tensor<1280xf16>
  util.global private @__auto.controlnet.down_blocks.2.attentions.1.transformer_blocks.0.norm2.bias = #stream.parameter.named<"model"::"controlnet.down_blocks.2.attentions.1.transformer_blocks.0.norm2.bias"> : tensor<1280xf16>
  util.global private @__auto.controlnet.down_blocks.2.attentions.1.transformer_blocks.0.attn2.to_q.weight = #stream.parameter.named<"model"::"controlnet.down_blocks.2.attentions.1.transformer_blocks.0.attn2.to_q.weight"> : tensor<1280x1280xf16>
  util.global private @__auto.controlnet.down_blocks.2.attentions.1.transformer_blocks.0.attn2.to_k.weight = #stream.parameter.named<"model"::"controlnet.down_blocks.2.attentions.1.transformer_blocks.0.attn2.to_k.weight"> : tensor<1280x2048xf16>
  util.global private @__auto.controlnet.down_blocks.2.attentions.1.transformer_blocks.0.attn2.to_v.weight = #stream.parameter.named<"model"::"controlnet.down_blocks.2.attentions.1.transformer_blocks.0.attn2.to_v.weight"> : tensor<1280x2048xf16>
  util.global private @__auto.controlnet.down_blocks.2.attentions.1.transformer_blocks.0.attn2.to_out.0.weight = #stream.parameter.named<"model"::"controlnet.down_blocks.2.attentions.1.transformer_blocks.0.attn2.to_out.0.weight"> : tensor<1280x1280xf16>
  util.global private @__auto.controlnet.down_blocks.2.attentions.1.transformer_blocks.0.attn2.to_out.0.bias = #stream.parameter.named<"model"::"controlnet.down_blocks.2.attentions.1.transformer_blocks.0.attn2.to_out.0.bias"> : tensor<1280xf16>
  util.global private @__auto.controlnet.down_blocks.2.attentions.1.transformer_blocks.0.norm3.weight = #stream.parameter.named<"model"::"controlnet.down_blocks.2.attentions.1.transformer_blocks.0.norm3.weight"> : tensor<1280xf16>
  util.global private @__auto.controlnet.down_blocks.2.attentions.1.transformer_blocks.0.norm3.bias = #stream.parameter.named<"model"::"controlnet.down_blocks.2.attentions.1.transformer_blocks.0.norm3.bias"> : tensor<1280xf16>
  util.global private @__auto.controlnet.down_blocks.2.attentions.1.transformer_blocks.0.ff.net.0.proj.weight = #stream.parameter.named<"model"::"controlnet.down_blocks.2.attentions.1.transformer_blocks.0.ff.net.0.proj.weight"> : tensor<10240x1280xf16>
  util.global private @__auto.controlnet.down_blocks.2.attentions.1.transformer_blocks.0.ff.net.0.proj.bias = #stream.parameter.named<"model"::"controlnet.down_blocks.2.attentions.1.transformer_blocks.0.ff.net.0.proj.bias"> : tensor<10240xf16>
  util.global private @__auto.controlnet.down_blocks.2.attentions.1.transformer_blocks.0.ff.net.2.weight = #stream.parameter.named<"model"::"controlnet.down_blocks.2.attentions.1.transformer_blocks.0.ff.net.2.weight"> : tensor<1280x5120xf16>
  util.global private @__auto.controlnet.down_blocks.2.attentions.1.transformer_blocks.0.ff.net.2.bias = #stream.parameter.named<"model"::"controlnet.down_blocks.2.attentions.1.transformer_blocks.0.ff.net.2.bias"> : tensor<1280xf16>
  util.global private @__auto.controlnet.down_blocks.2.attentions.1.transformer_blocks.1.norm1.weight = #stream.parameter.named<"model"::"controlnet.down_blocks.2.attentions.1.transformer_blocks.1.norm1.weight"> : tensor<1280xf16>
  util.global private @__auto.controlnet.down_blocks.2.attentions.1.transformer_blocks.1.norm1.bias = #stream.parameter.named<"model"::"controlnet.down_blocks.2.attentions.1.transformer_blocks.1.norm1.bias"> : tensor<1280xf16>
  util.global private @__auto.controlnet.down_blocks.2.attentions.1.transformer_blocks.1.attn1.to_q.weight = #stream.parameter.named<"model"::"controlnet.down_blocks.2.attentions.1.transformer_blocks.1.attn1.to_q.weight"> : tensor<1280x1280xf16>
  util.global private @__auto.controlnet.down_blocks.2.attentions.1.transformer_blocks.1.attn1.to_k.weight = #stream.parameter.named<"model"::"controlnet.down_blocks.2.attentions.1.transformer_blocks.1.attn1.to_k.weight"> : tensor<1280x1280xf16>
  util.global private @__auto.controlnet.down_blocks.2.attentions.1.transformer_blocks.1.attn1.to_v.weight = #stream.parameter.named<"model"::"controlnet.down_blocks.2.attentions.1.transformer_blocks.1.attn1.to_v.weight"> : tensor<1280x1280xf16>
  util.global private @__auto.controlnet.down_blocks.2.attentions.1.transformer_blocks.1.attn1.to_out.0.weight = #stream.parameter.named<"model"::"controlnet.down_blocks.2.attentions.1.transformer_blocks.1.attn1.to_out.0.weight"> : tensor<1280x1280xf16>
  util.global private @__auto.controlnet.down_blocks.2.attentions.1.transformer_blocks.1.attn1.to_out.0.bias = #stream.parameter.named<"model"::"controlnet.down_blocks.2.attentions.1.transformer_blocks.1.attn1.to_out.0.bias"> : tensor<1280xf16>
  util.global private @__auto.controlnet.down_blocks.2.attentions.1.transformer_blocks.1.norm2.weight = #stream.parameter.named<"model"::"controlnet.down_blocks.2.attentions.1.transformer_blocks.1.norm2.weight"> : tensor<1280xf16>
  util.global private @__auto.controlnet.down_blocks.2.attentions.1.transformer_blocks.1.norm2.bias = #stream.parameter.named<"model"::"controlnet.down_blocks.2.attentions.1.transformer_blocks.1.norm2.bias"> : tensor<1280xf16>
  util.global private @__auto.controlnet.down_blocks.2.attentions.1.transformer_blocks.1.attn2.to_q.weight = #stream.parameter.named<"model"::"controlnet.down_blocks.2.attentions.1.transformer_blocks.1.attn2.to_q.weight"> : tensor<1280x1280xf16>
  util.global private @__auto.controlnet.down_blocks.2.attentions.1.transformer_blocks.1.attn2.to_k.weight = #stream.parameter.named<"model"::"controlnet.down_blocks.2.attentions.1.transformer_blocks.1.attn2.to_k.weight"> : tensor<1280x2048xf16>
  util.global private @__auto.controlnet.down_blocks.2.attentions.1.transformer_blocks.1.attn2.to_v.weight = #stream.parameter.named<"model"::"controlnet.down_blocks.2.attentions.1.transformer_blocks.1.attn2.to_v.weight"> : tensor<1280x2048xf16>
  util.global private @__auto.controlnet.down_blocks.2.attentions.1.transformer_blocks.1.attn2.to_out.0.weight = #stream.parameter.named<"model"::"controlnet.down_blocks.2.attentions.1.transformer_blocks.1.attn2.to_out.0.weight"> : tensor<1280x1280xf16>
  util.global private @__auto.controlnet.down_blocks.2.attentions.1.transformer_blocks.1.attn2.to_out.0.bias = #stream.parameter.named<"model"::"controlnet.down_blocks.2.attentions.1.transformer_blocks.1.attn2.to_out.0.bias"> : tensor<1280xf16>
  util.global private @__auto.controlnet.down_blocks.2.attentions.1.transformer_blocks.1.norm3.weight = #stream.parameter.named<"model"::"controlnet.down_blocks.2.attentions.1.transformer_blocks.1.norm3.weight"> : tensor<1280xf16>
  util.global private @__auto.controlnet.down_blocks.2.attentions.1.transformer_blocks.1.norm3.bias = #stream.parameter.named<"model"::"controlnet.down_blocks.2.attentions.1.transformer_blocks.1.norm3.bias"> : tensor<1280xf16>
  util.global private @__auto.controlnet.down_blocks.2.attentions.1.transformer_blocks.1.ff.net.0.proj.weight = #stream.parameter.named<"model"::"controlnet.down_blocks.2.attentions.1.transformer_blocks.1.ff.net.0.proj.weight"> : tensor<10240x1280xf16>
  util.global private @__auto.controlnet.down_blocks.2.attentions.1.transformer_blocks.1.ff.net.0.proj.bias = #stream.parameter.named<"model"::"controlnet.down_blocks.2.attentions.1.transformer_blocks.1.ff.net.0.proj.bias"> : tensor<10240xf16>
  util.global private @__auto.controlnet.down_blocks.2.attentions.1.transformer_blocks.1.ff.net.2.weight = #stream.parameter.named<"model"::"controlnet.down_blocks.2.attentions.1.transformer_blocks.1.ff.net.2.weight"> : tensor<1280x5120xf16>
  util.global private @__auto.controlnet.down_blocks.2.attentions.1.transformer_blocks.1.ff.net.2.bias = #stream.parameter.named<"model"::"controlnet.down_blocks.2.attentions.1.transformer_blocks.1.ff.net.2.bias"> : tensor<1280xf16>
  util.global private @__auto.controlnet.down_blocks.2.attentions.1.transformer_blocks.2.norm1.weight = #stream.parameter.named<"model"::"controlnet.down_blocks.2.attentions.1.transformer_blocks.2.norm1.weight"> : tensor<1280xf16>
  util.global private @__auto.controlnet.down_blocks.2.attentions.1.transformer_blocks.2.norm1.bias = #stream.parameter.named<"model"::"controlnet.down_blocks.2.attentions.1.transformer_blocks.2.norm1.bias"> : tensor<1280xf16>
  util.global private @__auto.controlnet.down_blocks.2.attentions.1.transformer_blocks.2.attn1.to_q.weight = #stream.parameter.named<"model"::"controlnet.down_blocks.2.attentions.1.transformer_blocks.2.attn1.to_q.weight"> : tensor<1280x1280xf16>
  util.global private @__auto.controlnet.down_blocks.2.attentions.1.transformer_blocks.2.attn1.to_k.weight = #stream.parameter.named<"model"::"controlnet.down_blocks.2.attentions.1.transformer_blocks.2.attn1.to_k.weight"> : tensor<1280x1280xf16>
  util.global private @__auto.controlnet.down_blocks.2.attentions.1.transformer_blocks.2.attn1.to_v.weight = #stream.parameter.named<"model"::"controlnet.down_blocks.2.attentions.1.transformer_blocks.2.attn1.to_v.weight"> : tensor<1280x1280xf16>
  util.global private @__auto.controlnet.down_blocks.2.attentions.1.transformer_blocks.2.attn1.to_out.0.weight = #stream.parameter.named<"model"::"controlnet.down_blocks.2.attentions.1.transformer_blocks.2.attn1.to_out.0.weight"> : tensor<1280x1280xf16>
  util.global private @__auto.controlnet.down_blocks.2.attentions.1.transformer_blocks.2.attn1.to_out.0.bias = #stream.parameter.named<"model"::"controlnet.down_blocks.2.attentions.1.transformer_blocks.2.attn1.to_out.0.bias"> : tensor<1280xf16>
  util.global private @__auto.controlnet.down_blocks.2.attentions.1.transformer_blocks.2.norm2.weight = #stream.parameter.named<"model"::"controlnet.down_blocks.2.attentions.1.transformer_blocks.2.norm2.weight"> : tensor<1280xf16>
  util.global private @__auto.controlnet.down_blocks.2.attentions.1.transformer_blocks.2.norm2.bias = #stream.parameter.named<"model"::"controlnet.down_blocks.2.attentions.1.transformer_blocks.2.norm2.bias"> : tensor<1280xf16>
  util.global private @__auto.controlnet.down_blocks.2.attentions.1.transformer_blocks.2.attn2.to_q.weight = #stream.parameter.named<"model"::"controlnet.down_blocks.2.attentions.1.transformer_blocks.2.attn2.to_q.weight"> : tensor<1280x1280xf16>
  util.global private @__auto.controlnet.down_blocks.2.attentions.1.transformer_blocks.2.attn2.to_k.weight = #stream.parameter.named<"model"::"controlnet.down_blocks.2.attentions.1.transformer_blocks.2.attn2.to_k.weight"> : tensor<1280x2048xf16>
  util.global private @__auto.controlnet.down_blocks.2.attentions.1.transformer_blocks.2.attn2.to_v.weight = #stream.parameter.named<"model"::"controlnet.down_blocks.2.attentions.1.transformer_blocks.2.attn2.to_v.weight"> : tensor<1280x2048xf16>
  util.global private @__auto.controlnet.down_blocks.2.attentions.1.transformer_blocks.2.attn2.to_out.0.weight = #stream.parameter.named<"model"::"controlnet.down_blocks.2.attentions.1.transformer_blocks.2.attn2.to_out.0.weight"> : tensor<1280x1280xf16>
  util.global private @__auto.controlnet.down_blocks.2.attentions.1.transformer_blocks.2.attn2.to_out.0.bias = #stream.parameter.named<"model"::"controlnet.down_blocks.2.attentions.1.transformer_blocks.2.attn2.to_out.0.bias"> : tensor<1280xf16>
  util.global private @__auto.controlnet.down_blocks.2.attentions.1.transformer_blocks.2.norm3.weight = #stream.parameter.named<"model"::"controlnet.down_blocks.2.attentions.1.transformer_blocks.2.norm3.weight"> : tensor<1280xf16>
  util.global private @__auto.controlnet.down_blocks.2.attentions.1.transformer_blocks.2.norm3.bias = #stream.parameter.named<"model"::"controlnet.down_blocks.2.attentions.1.transformer_blocks.2.norm3.bias"> : tensor<1280xf16>
  util.global private @__auto.controlnet.down_blocks.2.attentions.1.transformer_blocks.2.ff.net.0.proj.weight = #stream.parameter.named<"model"::"controlnet.down_blocks.2.attentions.1.transformer_blocks.2.ff.net.0.proj.weight"> : tensor<10240x1280xf16>
  util.global private @__auto.controlnet.down_blocks.2.attentions.1.transformer_blocks.2.ff.net.0.proj.bias = #stream.parameter.named<"model"::"controlnet.down_blocks.2.attentions.1.transformer_blocks.2.ff.net.0.proj.bias"> : tensor<10240xf16>
  util.global private @__auto.controlnet.down_blocks.2.attentions.1.transformer_blocks.2.ff.net.2.weight = #stream.parameter.named<"model"::"controlnet.down_blocks.2.attentions.1.transformer_blocks.2.ff.net.2.weight"> : tensor<1280x5120xf16>
  util.global private @__auto.controlnet.down_blocks.2.attentions.1.transformer_blocks.2.ff.net.2.bias = #stream.parameter.named<"model"::"controlnet.down_blocks.2.attentions.1.transformer_blocks.2.ff.net.2.bias"> : tensor<1280xf16>
  util.global private @__auto.controlnet.down_blocks.2.attentions.1.transformer_blocks.3.norm1.weight = #stream.parameter.named<"model"::"controlnet.down_blocks.2.attentions.1.transformer_blocks.3.norm1.weight"> : tensor<1280xf16>
  util.global private @__auto.controlnet.down_blocks.2.attentions.1.transformer_blocks.3.norm1.bias = #stream.parameter.named<"model"::"controlnet.down_blocks.2.attentions.1.transformer_blocks.3.norm1.bias"> : tensor<1280xf16>
  util.global private @__auto.controlnet.down_blocks.2.attentions.1.transformer_blocks.3.attn1.to_q.weight = #stream.parameter.named<"model"::"controlnet.down_blocks.2.attentions.1.transformer_blocks.3.attn1.to_q.weight"> : tensor<1280x1280xf16>
  util.global private @__auto.controlnet.down_blocks.2.attentions.1.transformer_blocks.3.attn1.to_k.weight = #stream.parameter.named<"model"::"controlnet.down_blocks.2.attentions.1.transformer_blocks.3.attn1.to_k.weight"> : tensor<1280x1280xf16>
  util.global private @__auto.controlnet.down_blocks.2.attentions.1.transformer_blocks.3.attn1.to_v.weight = #stream.parameter.named<"model"::"controlnet.down_blocks.2.attentions.1.transformer_blocks.3.attn1.to_v.weight"> : tensor<1280x1280xf16>
  util.global private @__auto.controlnet.down_blocks.2.attentions.1.transformer_blocks.3.attn1.to_out.0.weight = #stream.parameter.named<"model"::"controlnet.down_blocks.2.attentions.1.transformer_blocks.3.attn1.to_out.0.weight"> : tensor<1280x1280xf16>
  util.global private @__auto.controlnet.down_blocks.2.attentions.1.transformer_blocks.3.attn1.to_out.0.bias = #stream.parameter.named<"model"::"controlnet.down_blocks.2.attentions.1.transformer_blocks.3.attn1.to_out.0.bias"> : tensor<1280xf16>
  util.global private @__auto.controlnet.down_blocks.2.attentions.1.transformer_blocks.3.norm2.weight = #stream.parameter.named<"model"::"controlnet.down_blocks.2.attentions.1.transformer_blocks.3.norm2.weight"> : tensor<1280xf16>
  util.global private @__auto.controlnet.down_blocks.2.attentions.1.transformer_blocks.3.norm2.bias = #stream.parameter.named<"model"::"controlnet.down_blocks.2.attentions.1.transformer_blocks.3.norm2.bias"> : tensor<1280xf16>
  util.global private @__auto.controlnet.down_blocks.2.attentions.1.transformer_blocks.3.attn2.to_q.weight = #stream.parameter.named<"model"::"controlnet.down_blocks.2.attentions.1.transformer_blocks.3.attn2.to_q.weight"> : tensor<1280x1280xf16>
  util.global private @__auto.controlnet.down_blocks.2.attentions.1.transformer_blocks.3.attn2.to_k.weight = #stream.parameter.named<"model"::"controlnet.down_blocks.2.attentions.1.transformer_blocks.3.attn2.to_k.weight"> : tensor<1280x2048xf16>
  util.global private @__auto.controlnet.down_blocks.2.attentions.1.transformer_blocks.3.attn2.to_v.weight = #stream.parameter.named<"model"::"controlnet.down_blocks.2.attentions.1.transformer_blocks.3.attn2.to_v.weight"> : tensor<1280x2048xf16>
  util.global private @__auto.controlnet.down_blocks.2.attentions.1.transformer_blocks.3.attn2.to_out.0.weight = #stream.parameter.named<"model"::"controlnet.down_blocks.2.attentions.1.transformer_blocks.3.attn2.to_out.0.weight"> : tensor<1280x1280xf16>
  util.global private @__auto.controlnet.down_blocks.2.attentions.1.transformer_blocks.3.attn2.to_out.0.bias = #stream.parameter.named<"model"::"controlnet.down_blocks.2.attentions.1.transformer_blocks.3.attn2.to_out.0.bias"> : tensor<1280xf16>
  util.global private @__auto.controlnet.down_blocks.2.attentions.1.transformer_blocks.3.norm3.weight = #stream.parameter.named<"model"::"controlnet.down_blocks.2.attentions.1.transformer_blocks.3.norm3.weight"> : tensor<1280xf16>
  util.global private @__auto.controlnet.down_blocks.2.attentions.1.transformer_blocks.3.norm3.bias = #stream.parameter.named<"model"::"controlnet.down_blocks.2.attentions.1.transformer_blocks.3.norm3.bias"> : tensor<1280xf16>
  util.global private @__auto.controlnet.down_blocks.2.attentions.1.transformer_blocks.3.ff.net.0.proj.weight = #stream.parameter.named<"model"::"controlnet.down_blocks.2.attentions.1.transformer_blocks.3.ff.net.0.proj.weight"> : tensor<10240x1280xf16>
  util.global private @__auto.controlnet.down_blocks.2.attentions.1.transformer_blocks.3.ff.net.0.proj.bias = #stream.parameter.named<"model"::"controlnet.down_blocks.2.attentions.1.transformer_blocks.3.ff.net.0.proj.bias"> : tensor<10240xf16>
  util.global private @__auto.controlnet.down_blocks.2.attentions.1.transformer_blocks.3.ff.net.2.weight = #stream.parameter.named<"model"::"controlnet.down_blocks.2.attentions.1.transformer_blocks.3.ff.net.2.weight"> : tensor<1280x5120xf16>
  util.global private @__auto.controlnet.down_blocks.2.attentions.1.transformer_blocks.3.ff.net.2.bias = #stream.parameter.named<"model"::"controlnet.down_blocks.2.attentions.1.transformer_blocks.3.ff.net.2.bias"> : tensor<1280xf16>
  util.global private @__auto.controlnet.down_blocks.2.attentions.1.transformer_blocks.4.norm1.weight = #stream.parameter.named<"model"::"controlnet.down_blocks.2.attentions.1.transformer_blocks.4.norm1.weight"> : tensor<1280xf16>
  util.global private @__auto.controlnet.down_blocks.2.attentions.1.transformer_blocks.4.norm1.bias = #stream.parameter.named<"model"::"controlnet.down_blocks.2.attentions.1.transformer_blocks.4.norm1.bias"> : tensor<1280xf16>
  util.global private @__auto.controlnet.down_blocks.2.attentions.1.transformer_blocks.4.attn1.to_q.weight = #stream.parameter.named<"model"::"controlnet.down_blocks.2.attentions.1.transformer_blocks.4.attn1.to_q.weight"> : tensor<1280x1280xf16>
  util.global private @__auto.controlnet.down_blocks.2.attentions.1.transformer_blocks.4.attn1.to_k.weight = #stream.parameter.named<"model"::"controlnet.down_blocks.2.attentions.1.transformer_blocks.4.attn1.to_k.weight"> : tensor<1280x1280xf16>
  util.global private @__auto.controlnet.down_blocks.2.attentions.1.transformer_blocks.4.attn1.to_v.weight = #stream.parameter.named<"model"::"controlnet.down_blocks.2.attentions.1.transformer_blocks.4.attn1.to_v.weight"> : tensor<1280x1280xf16>
  util.global private @__auto.controlnet.down_blocks.2.attentions.1.transformer_blocks.4.attn1.to_out.0.weight = #stream.parameter.named<"model"::"controlnet.down_blocks.2.attentions.1.transformer_blocks.4.attn1.to_out.0.weight"> : tensor<1280x1280xf16>
  util.global private @__auto.controlnet.down_blocks.2.attentions.1.transformer_blocks.4.attn1.to_out.0.bias = #stream.parameter.named<"model"::"controlnet.down_blocks.2.attentions.1.transformer_blocks.4.attn1.to_out.0.bias"> : tensor<1280xf16>
  util.global private @__auto.controlnet.down_blocks.2.attentions.1.transformer_blocks.4.norm2.weight = #stream.parameter.named<"model"::"controlnet.down_blocks.2.attentions.1.transformer_blocks.4.norm2.weight"> : tensor<1280xf16>
  util.global private @__auto.controlnet.down_blocks.2.attentions.1.transformer_blocks.4.norm2.bias = #stream.parameter.named<"model"::"controlnet.down_blocks.2.attentions.1.transformer_blocks.4.norm2.bias"> : tensor<1280xf16>
  util.global private @__auto.controlnet.down_blocks.2.attentions.1.transformer_blocks.4.attn2.to_q.weight = #stream.parameter.named<"model"::"controlnet.down_blocks.2.attentions.1.transformer_blocks.4.attn2.to_q.weight"> : tensor<1280x1280xf16>
  util.global private @__auto.controlnet.down_blocks.2.attentions.1.transformer_blocks.4.attn2.to_k.weight = #stream.parameter.named<"model"::"controlnet.down_blocks.2.attentions.1.transformer_blocks.4.attn2.to_k.weight"> : tensor<1280x2048xf16>
  util.global private @__auto.controlnet.down_blocks.2.attentions.1.transformer_blocks.4.attn2.to_v.weight = #stream.parameter.named<"model"::"controlnet.down_blocks.2.attentions.1.transformer_blocks.4.attn2.to_v.weight"> : tensor<1280x2048xf16>
  util.global private @__auto.controlnet.down_blocks.2.attentions.1.transformer_blocks.4.attn2.to_out.0.weight = #stream.parameter.named<"model"::"controlnet.down_blocks.2.attentions.1.transformer_blocks.4.attn2.to_out.0.weight"> : tensor<1280x1280xf16>
  util.global private @__auto.controlnet.down_blocks.2.attentions.1.transformer_blocks.4.attn2.to_out.0.bias = #stream.parameter.named<"model"::"controlnet.down_blocks.2.attentions.1.transformer_blocks.4.attn2.to_out.0.bias"> : tensor<1280xf16>
  util.global private @__auto.controlnet.down_blocks.2.attentions.1.transformer_blocks.4.norm3.weight = #stream.parameter.named<"model"::"controlnet.down_blocks.2.attentions.1.transformer_blocks.4.norm3.weight"> : tensor<1280xf16>
  util.global private @__auto.controlnet.down_blocks.2.attentions.1.transformer_blocks.4.norm3.bias = #stream.parameter.named<"model"::"controlnet.down_blocks.2.attentions.1.transformer_blocks.4.norm3.bias"> : tensor<1280xf16>
  util.global private @__auto.controlnet.down_blocks.2.attentions.1.transformer_blocks.4.ff.net.0.proj.weight = #stream.parameter.named<"model"::"controlnet.down_blocks.2.attentions.1.transformer_blocks.4.ff.net.0.proj.weight"> : tensor<10240x1280xf16>
  util.global private @__auto.controlnet.down_blocks.2.attentions.1.transformer_blocks.4.ff.net.0.proj.bias = #stream.parameter.named<"model"::"controlnet.down_blocks.2.attentions.1.transformer_blocks.4.ff.net.0.proj.bias"> : tensor<10240xf16>
  util.global private @__auto.controlnet.down_blocks.2.attentions.1.transformer_blocks.4.ff.net.2.weight = #stream.parameter.named<"model"::"controlnet.down_blocks.2.attentions.1.transformer_blocks.4.ff.net.2.weight"> : tensor<1280x5120xf16>
  util.global private @__auto.controlnet.down_blocks.2.attentions.1.transformer_blocks.4.ff.net.2.bias = #stream.parameter.named<"model"::"controlnet.down_blocks.2.attentions.1.transformer_blocks.4.ff.net.2.bias"> : tensor<1280xf16>
  util.global private @__auto.controlnet.down_blocks.2.attentions.1.transformer_blocks.5.norm1.weight = #stream.parameter.named<"model"::"controlnet.down_blocks.2.attentions.1.transformer_blocks.5.norm1.weight"> : tensor<1280xf16>
  util.global private @__auto.controlnet.down_blocks.2.attentions.1.transformer_blocks.5.norm1.bias = #stream.parameter.named<"model"::"controlnet.down_blocks.2.attentions.1.transformer_blocks.5.norm1.bias"> : tensor<1280xf16>
  util.global private @__auto.controlnet.down_blocks.2.attentions.1.transformer_blocks.5.attn1.to_q.weight = #stream.parameter.named<"model"::"controlnet.down_blocks.2.attentions.1.transformer_blocks.5.attn1.to_q.weight"> : tensor<1280x1280xf16>
  util.global private @__auto.controlnet.down_blocks.2.attentions.1.transformer_blocks.5.attn1.to_k.weight = #stream.parameter.named<"model"::"controlnet.down_blocks.2.attentions.1.transformer_blocks.5.attn1.to_k.weight"> : tensor<1280x1280xf16>
  util.global private @__auto.controlnet.down_blocks.2.attentions.1.transformer_blocks.5.attn1.to_v.weight = #stream.parameter.named<"model"::"controlnet.down_blocks.2.attentions.1.transformer_blocks.5.attn1.to_v.weight"> : tensor<1280x1280xf16>
  util.global private @__auto.controlnet.down_blocks.2.attentions.1.transformer_blocks.5.attn1.to_out.0.weight = #stream.parameter.named<"model"::"controlnet.down_blocks.2.attentions.1.transformer_blocks.5.attn1.to_out.0.weight"> : tensor<1280x1280xf16>
  util.global private @__auto.controlnet.down_blocks.2.attentions.1.transformer_blocks.5.attn1.to_out.0.bias = #stream.parameter.named<"model"::"controlnet.down_blocks.2.attentions.1.transformer_blocks.5.attn1.to_out.0.bias"> : tensor<1280xf16>
  util.global private @__auto.controlnet.down_blocks.2.attentions.1.transformer_blocks.5.norm2.weight = #stream.parameter.named<"model"::"controlnet.down_blocks.2.attentions.1.transformer_blocks.5.norm2.weight"> : tensor<1280xf16>
  util.global private @__auto.controlnet.down_blocks.2.attentions.1.transformer_blocks.5.norm2.bias = #stream.parameter.named<"model"::"controlnet.down_blocks.2.attentions.1.transformer_blocks.5.norm2.bias"> : tensor<1280xf16>
  util.global private @__auto.controlnet.down_blocks.2.attentions.1.transformer_blocks.5.attn2.to_q.weight = #stream.parameter.named<"model"::"controlnet.down_blocks.2.attentions.1.transformer_blocks.5.attn2.to_q.weight"> : tensor<1280x1280xf16>
  util.global private @__auto.controlnet.down_blocks.2.attentions.1.transformer_blocks.5.attn2.to_k.weight = #stream.parameter.named<"model"::"controlnet.down_blocks.2.attentions.1.transformer_blocks.5.attn2.to_k.weight"> : tensor<1280x2048xf16>
  util.global private @__auto.controlnet.down_blocks.2.attentions.1.transformer_blocks.5.attn2.to_v.weight = #stream.parameter.named<"model"::"controlnet.down_blocks.2.attentions.1.transformer_blocks.5.attn2.to_v.weight"> : tensor<1280x2048xf16>
  util.global private @__auto.controlnet.down_blocks.2.attentions.1.transformer_blocks.5.attn2.to_out.0.weight = #stream.parameter.named<"model"::"controlnet.down_blocks.2.attentions.1.transformer_blocks.5.attn2.to_out.0.weight"> : tensor<1280x1280xf16>
  util.global private @__auto.controlnet.down_blocks.2.attentions.1.transformer_blocks.5.attn2.to_out.0.bias = #stream.parameter.named<"model"::"controlnet.down_blocks.2.attentions.1.transformer_blocks.5.attn2.to_out.0.bias"> : tensor<1280xf16>
  util.global private @__auto.controlnet.down_blocks.2.attentions.1.transformer_blocks.5.norm3.weight = #stream.parameter.named<"model"::"controlnet.down_blocks.2.attentions.1.transformer_blocks.5.norm3.weight"> : tensor<1280xf16>
  util.global private @__auto.controlnet.down_blocks.2.attentions.1.transformer_blocks.5.norm3.bias = #stream.parameter.named<"model"::"controlnet.down_blocks.2.attentions.1.transformer_blocks.5.norm3.bias"> : tensor<1280xf16>
  util.global private @__auto.controlnet.down_blocks.2.attentions.1.transformer_blocks.5.ff.net.0.proj.weight = #stream.parameter.named<"model"::"controlnet.down_blocks.2.attentions.1.transformer_blocks.5.ff.net.0.proj.weight"> : tensor<10240x1280xf16>
  util.global private @__auto.controlnet.down_blocks.2.attentions.1.transformer_blocks.5.ff.net.0.proj.bias = #stream.parameter.named<"model"::"controlnet.down_blocks.2.attentions.1.transformer_blocks.5.ff.net.0.proj.bias"> : tensor<10240xf16>
  util.global private @__auto.controlnet.down_blocks.2.attentions.1.transformer_blocks.5.ff.net.2.weight = #stream.parameter.named<"model"::"controlnet.down_blocks.2.attentions.1.transformer_blocks.5.ff.net.2.weight"> : tensor<1280x5120xf16>
  util.global private @__auto.controlnet.down_blocks.2.attentions.1.transformer_blocks.5.ff.net.2.bias = #stream.parameter.named<"model"::"controlnet.down_blocks.2.attentions.1.transformer_blocks.5.ff.net.2.bias"> : tensor<1280xf16>
  util.global private @__auto.controlnet.down_blocks.2.attentions.1.transformer_blocks.6.norm1.weight = #stream.parameter.named<"model"::"controlnet.down_blocks.2.attentions.1.transformer_blocks.6.norm1.weight"> : tensor<1280xf16>
  util.global private @__auto.controlnet.down_blocks.2.attentions.1.transformer_blocks.6.norm1.bias = #stream.parameter.named<"model"::"controlnet.down_blocks.2.attentions.1.transformer_blocks.6.norm1.bias"> : tensor<1280xf16>
  util.global private @__auto.controlnet.down_blocks.2.attentions.1.transformer_blocks.6.attn1.to_q.weight = #stream.parameter.named<"model"::"controlnet.down_blocks.2.attentions.1.transformer_blocks.6.attn1.to_q.weight"> : tensor<1280x1280xf16>
  util.global private @__auto.controlnet.down_blocks.2.attentions.1.transformer_blocks.6.attn1.to_k.weight = #stream.parameter.named<"model"::"controlnet.down_blocks.2.attentions.1.transformer_blocks.6.attn1.to_k.weight"> : tensor<1280x1280xf16>
  util.global private @__auto.controlnet.down_blocks.2.attentions.1.transformer_blocks.6.attn1.to_v.weight = #stream.parameter.named<"model"::"controlnet.down_blocks.2.attentions.1.transformer_blocks.6.attn1.to_v.weight"> : tensor<1280x1280xf16>
  util.global private @__auto.controlnet.down_blocks.2.attentions.1.transformer_blocks.6.attn1.to_out.0.weight = #stream.parameter.named<"model"::"controlnet.down_blocks.2.attentions.1.transformer_blocks.6.attn1.to_out.0.weight"> : tensor<1280x1280xf16>
  util.global private @__auto.controlnet.down_blocks.2.attentions.1.transformer_blocks.6.attn1.to_out.0.bias = #stream.parameter.named<"model"::"controlnet.down_blocks.2.attentions.1.transformer_blocks.6.attn1.to_out.0.bias"> : tensor<1280xf16>
  util.global private @__auto.controlnet.down_blocks.2.attentions.1.transformer_blocks.6.norm2.weight = #stream.parameter.named<"model"::"controlnet.down_blocks.2.attentions.1.transformer_blocks.6.norm2.weight"> : tensor<1280xf16>
  util.global private @__auto.controlnet.down_blocks.2.attentions.1.transformer_blocks.6.norm2.bias = #stream.parameter.named<"model"::"controlnet.down_blocks.2.attentions.1.transformer_blocks.6.norm2.bias"> : tensor<1280xf16>
  util.global private @__auto.controlnet.down_blocks.2.attentions.1.transformer_blocks.6.attn2.to_q.weight = #stream.parameter.named<"model"::"controlnet.down_blocks.2.attentions.1.transformer_blocks.6.attn2.to_q.weight"> : tensor<1280x1280xf16>
  util.global private @__auto.controlnet.down_blocks.2.attentions.1.transformer_blocks.6.attn2.to_k.weight = #stream.parameter.named<"model"::"controlnet.down_blocks.2.attentions.1.transformer_blocks.6.attn2.to_k.weight"> : tensor<1280x2048xf16>
  util.global private @__auto.controlnet.down_blocks.2.attentions.1.transformer_blocks.6.attn2.to_v.weight = #stream.parameter.named<"model"::"controlnet.down_blocks.2.attentions.1.transformer_blocks.6.attn2.to_v.weight"> : tensor<1280x2048xf16>
  util.global private @__auto.controlnet.down_blocks.2.attentions.1.transformer_blocks.6.attn2.to_out.0.weight = #stream.parameter.named<"model"::"controlnet.down_blocks.2.attentions.1.transformer_blocks.6.attn2.to_out.0.weight"> : tensor<1280x1280xf16>
  util.global private @__auto.controlnet.down_blocks.2.attentions.1.transformer_blocks.6.attn2.to_out.0.bias = #stream.parameter.named<"model"::"controlnet.down_blocks.2.attentions.1.transformer_blocks.6.attn2.to_out.0.bias"> : tensor<1280xf16>
  util.global private @__auto.controlnet.down_blocks.2.attentions.1.transformer_blocks.6.norm3.weight = #stream.parameter.named<"model"::"controlnet.down_blocks.2.attentions.1.transformer_blocks.6.norm3.weight"> : tensor<1280xf16>
  util.global private @__auto.controlnet.down_blocks.2.attentions.1.transformer_blocks.6.norm3.bias = #stream.parameter.named<"model"::"controlnet.down_blocks.2.attentions.1.transformer_blocks.6.norm3.bias"> : tensor<1280xf16>
  util.global private @__auto.controlnet.down_blocks.2.attentions.1.transformer_blocks.6.ff.net.0.proj.weight = #stream.parameter.named<"model"::"controlnet.down_blocks.2.attentions.1.transformer_blocks.6.ff.net.0.proj.weight"> : tensor<10240x1280xf16>
  util.global private @__auto.controlnet.down_blocks.2.attentions.1.transformer_blocks.6.ff.net.0.proj.bias = #stream.parameter.named<"model"::"controlnet.down_blocks.2.attentions.1.transformer_blocks.6.ff.net.0.proj.bias"> : tensor<10240xf16>
  util.global private @__auto.controlnet.down_blocks.2.attentions.1.transformer_blocks.6.ff.net.2.weight = #stream.parameter.named<"model"::"controlnet.down_blocks.2.attentions.1.transformer_blocks.6.ff.net.2.weight"> : tensor<1280x5120xf16>
  util.global private @__auto.controlnet.down_blocks.2.attentions.1.transformer_blocks.6.ff.net.2.bias = #stream.parameter.named<"model"::"controlnet.down_blocks.2.attentions.1.transformer_blocks.6.ff.net.2.bias"> : tensor<1280xf16>
  util.global private @__auto.controlnet.down_blocks.2.attentions.1.transformer_blocks.7.norm1.weight = #stream.parameter.named<"model"::"controlnet.down_blocks.2.attentions.1.transformer_blocks.7.norm1.weight"> : tensor<1280xf16>
  util.global private @__auto.controlnet.down_blocks.2.attentions.1.transformer_blocks.7.norm1.bias = #stream.parameter.named<"model"::"controlnet.down_blocks.2.attentions.1.transformer_blocks.7.norm1.bias"> : tensor<1280xf16>
  util.global private @__auto.controlnet.down_blocks.2.attentions.1.transformer_blocks.7.attn1.to_q.weight = #stream.parameter.named<"model"::"controlnet.down_blocks.2.attentions.1.transformer_blocks.7.attn1.to_q.weight"> : tensor<1280x1280xf16>
  util.global private @__auto.controlnet.down_blocks.2.attentions.1.transformer_blocks.7.attn1.to_k.weight = #stream.parameter.named<"model"::"controlnet.down_blocks.2.attentions.1.transformer_blocks.7.attn1.to_k.weight"> : tensor<1280x1280xf16>
  util.global private @__auto.controlnet.down_blocks.2.attentions.1.transformer_blocks.7.attn1.to_v.weight = #stream.parameter.named<"model"::"controlnet.down_blocks.2.attentions.1.transformer_blocks.7.attn1.to_v.weight"> : tensor<1280x1280xf16>
  util.global private @__auto.controlnet.down_blocks.2.attentions.1.transformer_blocks.7.attn1.to_out.0.weight = #stream.parameter.named<"model"::"controlnet.down_blocks.2.attentions.1.transformer_blocks.7.attn1.to_out.0.weight"> : tensor<1280x1280xf16>
  util.global private @__auto.controlnet.down_blocks.2.attentions.1.transformer_blocks.7.attn1.to_out.0.bias = #stream.parameter.named<"model"::"controlnet.down_blocks.2.attentions.1.transformer_blocks.7.attn1.to_out.0.bias"> : tensor<1280xf16>
  util.global private @__auto.controlnet.down_blocks.2.attentions.1.transformer_blocks.7.norm2.weight = #stream.parameter.named<"model"::"controlnet.down_blocks.2.attentions.1.transformer_blocks.7.norm2.weight"> : tensor<1280xf16>
  util.global private @__auto.controlnet.down_blocks.2.attentions.1.transformer_blocks.7.norm2.bias = #stream.parameter.named<"model"::"controlnet.down_blocks.2.attentions.1.transformer_blocks.7.norm2.bias"> : tensor<1280xf16>
  util.global private @__auto.controlnet.down_blocks.2.attentions.1.transformer_blocks.7.attn2.to_q.weight = #stream.parameter.named<"model"::"controlnet.down_blocks.2.attentions.1.transformer_blocks.7.attn2.to_q.weight"> : tensor<1280x1280xf16>
  util.global private @__auto.controlnet.down_blocks.2.attentions.1.transformer_blocks.7.attn2.to_k.weight = #stream.parameter.named<"model"::"controlnet.down_blocks.2.attentions.1.transformer_blocks.7.attn2.to_k.weight"> : tensor<1280x2048xf16>
  util.global private @__auto.controlnet.down_blocks.2.attentions.1.transformer_blocks.7.attn2.to_v.weight = #stream.parameter.named<"model"::"controlnet.down_blocks.2.attentions.1.transformer_blocks.7.attn2.to_v.weight"> : tensor<1280x2048xf16>
  util.global private @__auto.controlnet.down_blocks.2.attentions.1.transformer_blocks.7.attn2.to_out.0.weight = #stream.parameter.named<"model"::"controlnet.down_blocks.2.attentions.1.transformer_blocks.7.attn2.to_out.0.weight"> : tensor<1280x1280xf16>
  util.global private @__auto.controlnet.down_blocks.2.attentions.1.transformer_blocks.7.attn2.to_out.0.bias = #stream.parameter.named<"model"::"controlnet.down_blocks.2.attentions.1.transformer_blocks.7.attn2.to_out.0.bias"> : tensor<1280xf16>
  util.global private @__auto.controlnet.down_blocks.2.attentions.1.transformer_blocks.7.norm3.weight = #stream.parameter.named<"model"::"controlnet.down_blocks.2.attentions.1.transformer_blocks.7.norm3.weight"> : tensor<1280xf16>
  util.global private @__auto.controlnet.down_blocks.2.attentions.1.transformer_blocks.7.norm3.bias = #stream.parameter.named<"model"::"controlnet.down_blocks.2.attentions.1.transformer_blocks.7.norm3.bias"> : tensor<1280xf16>
  util.global private @__auto.controlnet.down_blocks.2.attentions.1.transformer_blocks.7.ff.net.0.proj.weight = #stream.parameter.named<"model"::"controlnet.down_blocks.2.attentions.1.transformer_blocks.7.ff.net.0.proj.weight"> : tensor<10240x1280xf16>
  util.global private @__auto.controlnet.down_blocks.2.attentions.1.transformer_blocks.7.ff.net.0.proj.bias = #stream.parameter.named<"model"::"controlnet.down_blocks.2.attentions.1.transformer_blocks.7.ff.net.0.proj.bias"> : tensor<10240xf16>
  util.global private @__auto.controlnet.down_blocks.2.attentions.1.transformer_blocks.7.ff.net.2.weight = #stream.parameter.named<"model"::"controlnet.down_blocks.2.attentions.1.transformer_blocks.7.ff.net.2.weight"> : tensor<1280x5120xf16>
  util.global private @__auto.controlnet.down_blocks.2.attentions.1.transformer_blocks.7.ff.net.2.bias = #stream.parameter.named<"model"::"controlnet.down_blocks.2.attentions.1.transformer_blocks.7.ff.net.2.bias"> : tensor<1280xf16>
  util.global private @__auto.controlnet.down_blocks.2.attentions.1.transformer_blocks.8.norm1.weight = #stream.parameter.named<"model"::"controlnet.down_blocks.2.attentions.1.transformer_blocks.8.norm1.weight"> : tensor<1280xf16>
  util.global private @__auto.controlnet.down_blocks.2.attentions.1.transformer_blocks.8.norm1.bias = #stream.parameter.named<"model"::"controlnet.down_blocks.2.attentions.1.transformer_blocks.8.norm1.bias"> : tensor<1280xf16>
  util.global private @__auto.controlnet.down_blocks.2.attentions.1.transformer_blocks.8.attn1.to_q.weight = #stream.parameter.named<"model"::"controlnet.down_blocks.2.attentions.1.transformer_blocks.8.attn1.to_q.weight"> : tensor<1280x1280xf16>
  util.global private @__auto.controlnet.down_blocks.2.attentions.1.transformer_blocks.8.attn1.to_k.weight = #stream.parameter.named<"model"::"controlnet.down_blocks.2.attentions.1.transformer_blocks.8.attn1.to_k.weight"> : tensor<1280x1280xf16>
  util.global private @__auto.controlnet.down_blocks.2.attentions.1.transformer_blocks.8.attn1.to_v.weight = #stream.parameter.named<"model"::"controlnet.down_blocks.2.attentions.1.transformer_blocks.8.attn1.to_v.weight"> : tensor<1280x1280xf16>
  util.global private @__auto.controlnet.down_blocks.2.attentions.1.transformer_blocks.8.attn1.to_out.0.weight = #stream.parameter.named<"model"::"controlnet.down_blocks.2.attentions.1.transformer_blocks.8.attn1.to_out.0.weight"> : tensor<1280x1280xf16>
  util.global private @__auto.controlnet.down_blocks.2.attentions.1.transformer_blocks.8.attn1.to_out.0.bias = #stream.parameter.named<"model"::"controlnet.down_blocks.2.attentions.1.transformer_blocks.8.attn1.to_out.0.bias"> : tensor<1280xf16>
  util.global private @__auto.controlnet.down_blocks.2.attentions.1.transformer_blocks.8.norm2.weight = #stream.parameter.named<"model"::"controlnet.down_blocks.2.attentions.1.transformer_blocks.8.norm2.weight"> : tensor<1280xf16>
  util.global private @__auto.controlnet.down_blocks.2.attentions.1.transformer_blocks.8.norm2.bias = #stream.parameter.named<"model"::"controlnet.down_blocks.2.attentions.1.transformer_blocks.8.norm2.bias"> : tensor<1280xf16>
  util.global private @__auto.controlnet.down_blocks.2.attentions.1.transformer_blocks.8.attn2.to_q.weight = #stream.parameter.named<"model"::"controlnet.down_blocks.2.attentions.1.transformer_blocks.8.attn2.to_q.weight"> : tensor<1280x1280xf16>
  util.global private @__auto.controlnet.down_blocks.2.attentions.1.transformer_blocks.8.attn2.to_k.weight = #stream.parameter.named<"model"::"controlnet.down_blocks.2.attentions.1.transformer_blocks.8.attn2.to_k.weight"> : tensor<1280x2048xf16>
  util.global private @__auto.controlnet.down_blocks.2.attentions.1.transformer_blocks.8.attn2.to_v.weight = #stream.parameter.named<"model"::"controlnet.down_blocks.2.attentions.1.transformer_blocks.8.attn2.to_v.weight"> : tensor<1280x2048xf16>
  util.global private @__auto.controlnet.down_blocks.2.attentions.1.transformer_blocks.8.attn2.to_out.0.weight = #stream.parameter.named<"model"::"controlnet.down_blocks.2.attentions.1.transformer_blocks.8.attn2.to_out.0.weight"> : tensor<1280x1280xf16>
  util.global private @__auto.controlnet.down_blocks.2.attentions.1.transformer_blocks.8.attn2.to_out.0.bias = #stream.parameter.named<"model"::"controlnet.down_blocks.2.attentions.1.transformer_blocks.8.attn2.to_out.0.bias"> : tensor<1280xf16>
  util.global private @__auto.controlnet.down_blocks.2.attentions.1.transformer_blocks.8.norm3.weight = #stream.parameter.named<"model"::"controlnet.down_blocks.2.attentions.1.transformer_blocks.8.norm3.weight"> : tensor<1280xf16>
  util.global private @__auto.controlnet.down_blocks.2.attentions.1.transformer_blocks.8.norm3.bias = #stream.parameter.named<"model"::"controlnet.down_blocks.2.attentions.1.transformer_blocks.8.norm3.bias"> : tensor<1280xf16>
  util.global private @__auto.controlnet.down_blocks.2.attentions.1.transformer_blocks.8.ff.net.0.proj.weight = #stream.parameter.named<"model"::"controlnet.down_blocks.2.attentions.1.transformer_blocks.8.ff.net.0.proj.weight"> : tensor<10240x1280xf16>
  util.global private @__auto.controlnet.down_blocks.2.attentions.1.transformer_blocks.8.ff.net.0.proj.bias = #stream.parameter.named<"model"::"controlnet.down_blocks.2.attentions.1.transformer_blocks.8.ff.net.0.proj.bias"> : tensor<10240xf16>
  util.global private @__auto.controlnet.down_blocks.2.attentions.1.transformer_blocks.8.ff.net.2.weight = #stream.parameter.named<"model"::"controlnet.down_blocks.2.attentions.1.transformer_blocks.8.ff.net.2.weight"> : tensor<1280x5120xf16>
  util.global private @__auto.controlnet.down_blocks.2.attentions.1.transformer_blocks.8.ff.net.2.bias = #stream.parameter.named<"model"::"controlnet.down_blocks.2.attentions.1.transformer_blocks.8.ff.net.2.bias"> : tensor<1280xf16>
  util.global private @__auto.controlnet.down_blocks.2.attentions.1.transformer_blocks.9.norm1.weight = #stream.parameter.named<"model"::"controlnet.down_blocks.2.attentions.1.transformer_blocks.9.norm1.weight"> : tensor<1280xf16>
  util.global private @__auto.controlnet.down_blocks.2.attentions.1.transformer_blocks.9.norm1.bias = #stream.parameter.named<"model"::"controlnet.down_blocks.2.attentions.1.transformer_blocks.9.norm1.bias"> : tensor<1280xf16>
  util.global private @__auto.controlnet.down_blocks.2.attentions.1.transformer_blocks.9.attn1.to_q.weight = #stream.parameter.named<"model"::"controlnet.down_blocks.2.attentions.1.transformer_blocks.9.attn1.to_q.weight"> : tensor<1280x1280xf16>
  util.global private @__auto.controlnet.down_blocks.2.attentions.1.transformer_blocks.9.attn1.to_k.weight = #stream.parameter.named<"model"::"controlnet.down_blocks.2.attentions.1.transformer_blocks.9.attn1.to_k.weight"> : tensor<1280x1280xf16>
  util.global private @__auto.controlnet.down_blocks.2.attentions.1.transformer_blocks.9.attn1.to_v.weight = #stream.parameter.named<"model"::"controlnet.down_blocks.2.attentions.1.transformer_blocks.9.attn1.to_v.weight"> : tensor<1280x1280xf16>
  util.global private @__auto.controlnet.down_blocks.2.attentions.1.transformer_blocks.9.attn1.to_out.0.weight = #stream.parameter.named<"model"::"controlnet.down_blocks.2.attentions.1.transformer_blocks.9.attn1.to_out.0.weight"> : tensor<1280x1280xf16>
  util.global private @__auto.controlnet.down_blocks.2.attentions.1.transformer_blocks.9.attn1.to_out.0.bias = #stream.parameter.named<"model"::"controlnet.down_blocks.2.attentions.1.transformer_blocks.9.attn1.to_out.0.bias"> : tensor<1280xf16>
  util.global private @__auto.controlnet.down_blocks.2.attentions.1.transformer_blocks.9.norm2.weight = #stream.parameter.named<"model"::"controlnet.down_blocks.2.attentions.1.transformer_blocks.9.norm2.weight"> : tensor<1280xf16>
  util.global private @__auto.controlnet.down_blocks.2.attentions.1.transformer_blocks.9.norm2.bias = #stream.parameter.named<"model"::"controlnet.down_blocks.2.attentions.1.transformer_blocks.9.norm2.bias"> : tensor<1280xf16>
  util.global private @__auto.controlnet.down_blocks.2.attentions.1.transformer_blocks.9.attn2.to_q.weight = #stream.parameter.named<"model"::"controlnet.down_blocks.2.attentions.1.transformer_blocks.9.attn2.to_q.weight"> : tensor<1280x1280xf16>
  util.global private @__auto.controlnet.down_blocks.2.attentions.1.transformer_blocks.9.attn2.to_k.weight = #stream.parameter.named<"model"::"controlnet.down_blocks.2.attentions.1.transformer_blocks.9.attn2.to_k.weight"> : tensor<1280x2048xf16>
  util.global private @__auto.controlnet.down_blocks.2.attentions.1.transformer_blocks.9.attn2.to_v.weight = #stream.parameter.named<"model"::"controlnet.down_blocks.2.attentions.1.transformer_blocks.9.attn2.to_v.weight"> : tensor<1280x2048xf16>
  util.global private @__auto.controlnet.down_blocks.2.attentions.1.transformer_blocks.9.attn2.to_out.0.weight = #stream.parameter.named<"model"::"controlnet.down_blocks.2.attentions.1.transformer_blocks.9.attn2.to_out.0.weight"> : tensor<1280x1280xf16>
  util.global private @__auto.controlnet.down_blocks.2.attentions.1.transformer_blocks.9.attn2.to_out.0.bias = #stream.parameter.named<"model"::"controlnet.down_blocks.2.attentions.1.transformer_blocks.9.attn2.to_out.0.bias"> : tensor<1280xf16>
  util.global private @__auto.controlnet.down_blocks.2.attentions.1.transformer_blocks.9.norm3.weight = #stream.parameter.named<"model"::"controlnet.down_blocks.2.attentions.1.transformer_blocks.9.norm3.weight"> : tensor<1280xf16>
  util.global private @__auto.controlnet.down_blocks.2.attentions.1.transformer_blocks.9.norm3.bias = #stream.parameter.named<"model"::"controlnet.down_blocks.2.attentions.1.transformer_blocks.9.norm3.bias"> : tensor<1280xf16>
  util.global private @__auto.controlnet.down_blocks.2.attentions.1.transformer_blocks.9.ff.net.0.proj.weight = #stream.parameter.named<"model"::"controlnet.down_blocks.2.attentions.1.transformer_blocks.9.ff.net.0.proj.weight"> : tensor<10240x1280xf16>
  util.global private @__auto.controlnet.down_blocks.2.attentions.1.transformer_blocks.9.ff.net.0.proj.bias = #stream.parameter.named<"model"::"controlnet.down_blocks.2.attentions.1.transformer_blocks.9.ff.net.0.proj.bias"> : tensor<10240xf16>
  util.global private @__auto.controlnet.down_blocks.2.attentions.1.transformer_blocks.9.ff.net.2.weight = #stream.parameter.named<"model"::"controlnet.down_blocks.2.attentions.1.transformer_blocks.9.ff.net.2.weight"> : tensor<1280x5120xf16>
  util.global private @__auto.controlnet.down_blocks.2.attentions.1.transformer_blocks.9.ff.net.2.bias = #stream.parameter.named<"model"::"controlnet.down_blocks.2.attentions.1.transformer_blocks.9.ff.net.2.bias"> : tensor<1280xf16>
  util.global private @__auto.controlnet.down_blocks.2.attentions.1.proj_out.weight = #stream.parameter.named<"model"::"controlnet.down_blocks.2.attentions.1.proj_out.weight"> : tensor<1280x1280xf16>
  util.global private @__auto.controlnet.down_blocks.2.attentions.1.proj_out.bias = #stream.parameter.named<"model"::"controlnet.down_blocks.2.attentions.1.proj_out.bias"> : tensor<1280xf16>
  util.global private @__auto.controlnet.mid_block.resnets.0.norm1.bias = #stream.parameter.named<"model"::"controlnet.mid_block.resnets.0.norm1.bias"> : tensor<1280xf16>
  util.global private @__auto.controlnet.mid_block.resnets.0.norm1.weight = #stream.parameter.named<"model"::"controlnet.mid_block.resnets.0.norm1.weight"> : tensor<1280xf16>
  util.global private @__auto.controlnet.mid_block.resnets.0.conv1.weight = #stream.parameter.named<"model"::"controlnet.mid_block.resnets.0.conv1.weight"> : tensor<1280x1280x3x3xf16>
  util.global private @__auto.controlnet.mid_block.resnets.0.conv1.bias = #stream.parameter.named<"model"::"controlnet.mid_block.resnets.0.conv1.bias"> : tensor<1280xf16>
  util.global private @__auto.controlnet.mid_block.resnets.0.time_emb_proj.weight = #stream.parameter.named<"model"::"controlnet.mid_block.resnets.0.time_emb_proj.weight"> : tensor<1280x1280xf16>
  util.global private @__auto.controlnet.mid_block.resnets.0.time_emb_proj.bias = #stream.parameter.named<"model"::"controlnet.mid_block.resnets.0.time_emb_proj.bias"> : tensor<1280xf16>
  util.global private @__auto.controlnet.mid_block.resnets.0.norm2.bias = #stream.parameter.named<"model"::"controlnet.mid_block.resnets.0.norm2.bias"> : tensor<1280xf16>
  util.global private @__auto.controlnet.mid_block.resnets.0.norm2.weight = #stream.parameter.named<"model"::"controlnet.mid_block.resnets.0.norm2.weight"> : tensor<1280xf16>
  util.global private @__auto.controlnet.mid_block.resnets.0.conv2.weight = #stream.parameter.named<"model"::"controlnet.mid_block.resnets.0.conv2.weight"> : tensor<1280x1280x3x3xf16>
  util.global private @__auto.controlnet.mid_block.resnets.0.conv2.bias = #stream.parameter.named<"model"::"controlnet.mid_block.resnets.0.conv2.bias"> : tensor<1280xf16>
  util.global private @__auto.controlnet.mid_block.attentions.0.norm.bias = #stream.parameter.named<"model"::"controlnet.mid_block.attentions.0.norm.bias"> : tensor<1280xf16>
  util.global private @__auto.controlnet.mid_block.attentions.0.norm.weight = #stream.parameter.named<"model"::"controlnet.mid_block.attentions.0.norm.weight"> : tensor<1280xf16>
  util.global private @__auto.controlnet.mid_block.attentions.0.proj_in.weight = #stream.parameter.named<"model"::"controlnet.mid_block.attentions.0.proj_in.weight"> : tensor<1280x1280xf16>
  util.global private @__auto.controlnet.mid_block.attentions.0.proj_in.bias = #stream.parameter.named<"model"::"controlnet.mid_block.attentions.0.proj_in.bias"> : tensor<1280xf16>
  util.global private @__auto.controlnet.mid_block.attentions.0.transformer_blocks.0.norm1.weight = #stream.parameter.named<"model"::"controlnet.mid_block.attentions.0.transformer_blocks.0.norm1.weight"> : tensor<1280xf16>
  util.global private @__auto.controlnet.mid_block.attentions.0.transformer_blocks.0.norm1.bias = #stream.parameter.named<"model"::"controlnet.mid_block.attentions.0.transformer_blocks.0.norm1.bias"> : tensor<1280xf16>
  util.global private @__auto.controlnet.mid_block.attentions.0.transformer_blocks.0.attn1.to_q.weight = #stream.parameter.named<"model"::"controlnet.mid_block.attentions.0.transformer_blocks.0.attn1.to_q.weight"> : tensor<1280x1280xf16>
  util.global private @__auto.controlnet.mid_block.attentions.0.transformer_blocks.0.attn1.to_k.weight = #stream.parameter.named<"model"::"controlnet.mid_block.attentions.0.transformer_blocks.0.attn1.to_k.weight"> : tensor<1280x1280xf16>
  util.global private @__auto.controlnet.mid_block.attentions.0.transformer_blocks.0.attn1.to_v.weight = #stream.parameter.named<"model"::"controlnet.mid_block.attentions.0.transformer_blocks.0.attn1.to_v.weight"> : tensor<1280x1280xf16>
  util.global private @__auto.controlnet.mid_block.attentions.0.transformer_blocks.0.attn1.to_out.0.weight = #stream.parameter.named<"model"::"controlnet.mid_block.attentions.0.transformer_blocks.0.attn1.to_out.0.weight"> : tensor<1280x1280xf16>
  util.global private @__auto.controlnet.mid_block.attentions.0.transformer_blocks.0.attn1.to_out.0.bias = #stream.parameter.named<"model"::"controlnet.mid_block.attentions.0.transformer_blocks.0.attn1.to_out.0.bias"> : tensor<1280xf16>
  util.global private @__auto.controlnet.mid_block.attentions.0.transformer_blocks.0.norm2.weight = #stream.parameter.named<"model"::"controlnet.mid_block.attentions.0.transformer_blocks.0.norm2.weight"> : tensor<1280xf16>
  util.global private @__auto.controlnet.mid_block.attentions.0.transformer_blocks.0.norm2.bias = #stream.parameter.named<"model"::"controlnet.mid_block.attentions.0.transformer_blocks.0.norm2.bias"> : tensor<1280xf16>
  util.global private @__auto.controlnet.mid_block.attentions.0.transformer_blocks.0.attn2.to_q.weight = #stream.parameter.named<"model"::"controlnet.mid_block.attentions.0.transformer_blocks.0.attn2.to_q.weight"> : tensor<1280x1280xf16>
  util.global private @__auto.controlnet.mid_block.attentions.0.transformer_blocks.0.attn2.to_k.weight = #stream.parameter.named<"model"::"controlnet.mid_block.attentions.0.transformer_blocks.0.attn2.to_k.weight"> : tensor<1280x2048xf16>
  util.global private @__auto.controlnet.mid_block.attentions.0.transformer_blocks.0.attn2.to_v.weight = #stream.parameter.named<"model"::"controlnet.mid_block.attentions.0.transformer_blocks.0.attn2.to_v.weight"> : tensor<1280x2048xf16>
  util.global private @__auto.controlnet.mid_block.attentions.0.transformer_blocks.0.attn2.to_out.0.weight = #stream.parameter.named<"model"::"controlnet.mid_block.attentions.0.transformer_blocks.0.attn2.to_out.0.weight"> : tensor<1280x1280xf16>
  util.global private @__auto.controlnet.mid_block.attentions.0.transformer_blocks.0.attn2.to_out.0.bias = #stream.parameter.named<"model"::"controlnet.mid_block.attentions.0.transformer_blocks.0.attn2.to_out.0.bias"> : tensor<1280xf16>
  util.global private @__auto.controlnet.mid_block.attentions.0.transformer_blocks.0.norm3.weight = #stream.parameter.named<"model"::"controlnet.mid_block.attentions.0.transformer_blocks.0.norm3.weight"> : tensor<1280xf16>
  util.global private @__auto.controlnet.mid_block.attentions.0.transformer_blocks.0.norm3.bias = #stream.parameter.named<"model"::"controlnet.mid_block.attentions.0.transformer_blocks.0.norm3.bias"> : tensor<1280xf16>
  util.global private @__auto.controlnet.mid_block.attentions.0.transformer_blocks.0.ff.net.0.proj.weight = #stream.parameter.named<"model"::"controlnet.mid_block.attentions.0.transformer_blocks.0.ff.net.0.proj.weight"> : tensor<10240x1280xf16>
  util.global private @__auto.controlnet.mid_block.attentions.0.transformer_blocks.0.ff.net.0.proj.bias = #stream.parameter.named<"model"::"controlnet.mid_block.attentions.0.transformer_blocks.0.ff.net.0.proj.bias"> : tensor<10240xf16>
  util.global private @__auto.controlnet.mid_block.attentions.0.transformer_blocks.0.ff.net.2.weight = #stream.parameter.named<"model"::"controlnet.mid_block.attentions.0.transformer_blocks.0.ff.net.2.weight"> : tensor<1280x5120xf16>
  util.global private @__auto.controlnet.mid_block.attentions.0.transformer_blocks.0.ff.net.2.bias = #stream.parameter.named<"model"::"controlnet.mid_block.attentions.0.transformer_blocks.0.ff.net.2.bias"> : tensor<1280xf16>
  util.global private @__auto.controlnet.mid_block.attentions.0.transformer_blocks.1.norm1.weight = #stream.parameter.named<"model"::"controlnet.mid_block.attentions.0.transformer_blocks.1.norm1.weight"> : tensor<1280xf16>
  util.global private @__auto.controlnet.mid_block.attentions.0.transformer_blocks.1.norm1.bias = #stream.parameter.named<"model"::"controlnet.mid_block.attentions.0.transformer_blocks.1.norm1.bias"> : tensor<1280xf16>
  util.global private @__auto.controlnet.mid_block.attentions.0.transformer_blocks.1.attn1.to_q.weight = #stream.parameter.named<"model"::"controlnet.mid_block.attentions.0.transformer_blocks.1.attn1.to_q.weight"> : tensor<1280x1280xf16>
  util.global private @__auto.controlnet.mid_block.attentions.0.transformer_blocks.1.attn1.to_k.weight = #stream.parameter.named<"model"::"controlnet.mid_block.attentions.0.transformer_blocks.1.attn1.to_k.weight"> : tensor<1280x1280xf16>
  util.global private @__auto.controlnet.mid_block.attentions.0.transformer_blocks.1.attn1.to_v.weight = #stream.parameter.named<"model"::"controlnet.mid_block.attentions.0.transformer_blocks.1.attn1.to_v.weight"> : tensor<1280x1280xf16>
  util.global private @__auto.controlnet.mid_block.attentions.0.transformer_blocks.1.attn1.to_out.0.weight = #stream.parameter.named<"model"::"controlnet.mid_block.attentions.0.transformer_blocks.1.attn1.to_out.0.weight"> : tensor<1280x1280xf16>
  util.global private @__auto.controlnet.mid_block.attentions.0.transformer_blocks.1.attn1.to_out.0.bias = #stream.parameter.named<"model"::"controlnet.mid_block.attentions.0.transformer_blocks.1.attn1.to_out.0.bias"> : tensor<1280xf16>
  util.global private @__auto.controlnet.mid_block.attentions.0.transformer_blocks.1.norm2.weight = #stream.parameter.named<"model"::"controlnet.mid_block.attentions.0.transformer_blocks.1.norm2.weight"> : tensor<1280xf16>
  util.global private @__auto.controlnet.mid_block.attentions.0.transformer_blocks.1.norm2.bias = #stream.parameter.named<"model"::"controlnet.mid_block.attentions.0.transformer_blocks.1.norm2.bias"> : tensor<1280xf16>
  util.global private @__auto.controlnet.mid_block.attentions.0.transformer_blocks.1.attn2.to_q.weight = #stream.parameter.named<"model"::"controlnet.mid_block.attentions.0.transformer_blocks.1.attn2.to_q.weight"> : tensor<1280x1280xf16>
  util.global private @__auto.controlnet.mid_block.attentions.0.transformer_blocks.1.attn2.to_k.weight = #stream.parameter.named<"model"::"controlnet.mid_block.attentions.0.transformer_blocks.1.attn2.to_k.weight"> : tensor<1280x2048xf16>
  util.global private @__auto.controlnet.mid_block.attentions.0.transformer_blocks.1.attn2.to_v.weight = #stream.parameter.named<"model"::"controlnet.mid_block.attentions.0.transformer_blocks.1.attn2.to_v.weight"> : tensor<1280x2048xf16>
  util.global private @__auto.controlnet.mid_block.attentions.0.transformer_blocks.1.attn2.to_out.0.weight = #stream.parameter.named<"model"::"controlnet.mid_block.attentions.0.transformer_blocks.1.attn2.to_out.0.weight"> : tensor<1280x1280xf16>
  util.global private @__auto.controlnet.mid_block.attentions.0.transformer_blocks.1.attn2.to_out.0.bias = #stream.parameter.named<"model"::"controlnet.mid_block.attentions.0.transformer_blocks.1.attn2.to_out.0.bias"> : tensor<1280xf16>
  util.global private @__auto.controlnet.mid_block.attentions.0.transformer_blocks.1.norm3.weight = #stream.parameter.named<"model"::"controlnet.mid_block.attentions.0.transformer_blocks.1.norm3.weight"> : tensor<1280xf16>
  util.global private @__auto.controlnet.mid_block.attentions.0.transformer_blocks.1.norm3.bias = #stream.parameter.named<"model"::"controlnet.mid_block.attentions.0.transformer_blocks.1.norm3.bias"> : tensor<1280xf16>
  util.global private @__auto.controlnet.mid_block.attentions.0.transformer_blocks.1.ff.net.0.proj.weight = #stream.parameter.named<"model"::"controlnet.mid_block.attentions.0.transformer_blocks.1.ff.net.0.proj.weight"> : tensor<10240x1280xf16>
  util.global private @__auto.controlnet.mid_block.attentions.0.transformer_blocks.1.ff.net.0.proj.bias = #stream.parameter.named<"model"::"controlnet.mid_block.attentions.0.transformer_blocks.1.ff.net.0.proj.bias"> : tensor<10240xf16>
  util.global private @__auto.controlnet.mid_block.attentions.0.transformer_blocks.1.ff.net.2.weight = #stream.parameter.named<"model"::"controlnet.mid_block.attentions.0.transformer_blocks.1.ff.net.2.weight"> : tensor<1280x5120xf16>
  util.global private @__auto.controlnet.mid_block.attentions.0.transformer_blocks.1.ff.net.2.bias = #stream.parameter.named<"model"::"controlnet.mid_block.attentions.0.transformer_blocks.1.ff.net.2.bias"> : tensor<1280xf16>
  util.global private @__auto.controlnet.mid_block.attentions.0.transformer_blocks.2.norm1.weight = #stream.parameter.named<"model"::"controlnet.mid_block.attentions.0.transformer_blocks.2.norm1.weight"> : tensor<1280xf16>
  util.global private @__auto.controlnet.mid_block.attentions.0.transformer_blocks.2.norm1.bias = #stream.parameter.named<"model"::"controlnet.mid_block.attentions.0.transformer_blocks.2.norm1.bias"> : tensor<1280xf16>
…
    %6910 = torch.aten.add.Scalar %result0_8070, %float1.000000e-05_8072, %int1_8073 : !torch.vtensor<[2,960,1],f32>, !torch.float, !torch.int -> !torch.vtensor<[2,960,1],f32>
    %6911 = torch.aten.rsqrt %6910 : !torch.vtensor<[2,960,1],f32> -> !torch.vtensor<[2,960,1],f32>
    %int1_8074 = torch.constant.int 1
    %6912 = torch.aten.sub.Tensor %6907, %result1_8071, %int1_8074 : !torch.vtensor<[2,960,1280],f16>, !torch.vtensor<[2,960,1],f32>, !torch.int -> !torch.vtensor<[2,960,1280],f32>
    %6913 = torch.aten.mul.Tensor %6912, %6911 : !torch.vtensor<[2,960,1280],f32>, !torch.vtensor<[2,960,1],f32> -> !torch.vtensor<[2,960,1280],f32>
    %__auto.controlnet.mid_block.attentions.0.transformer_blocks.9.norm3.weight = util.global.load @__auto.controlnet.mid_block.attentions.0.transformer_blocks.9.norm3.weight : tensor<1280xf16>
    %6914 = torch_c.from_builtin_tensor %__auto.controlnet.mid_block.attentions.0.transformer_blocks.9.norm3.weight : tensor<1280xf16> -> !torch.vtensor<[1280],f16>
    %6915 = torch.aten.mul.Tensor %6913, %6914 : !torch.vtensor<[2,960,1280],f32>, !torch.vtensor<[1280],f16> -> !torch.vtensor<[2,960,1280],f32>
    %__auto.controlnet.mid_block.attentions.0.transformer_blocks.9.norm3.bias = util.global.load @__auto.controlnet.mid_block.attentions.0.transformer_blocks.9.norm3.bias : tensor<1280xf16>
    %6916 = torch_c.from_builtin_tensor %__auto.controlnet.mid_block.attentions.0.transformer_blocks.9.norm3.bias : tensor<1280xf16> -> !torch.vtensor<[1280],f16>
    %int1_8075 = torch.constant.int 1
    %6917 = torch.aten.add.Tensor %6915, %6916, %int1_8075 : !torch.vtensor<[2,960,1280],f32>, !torch.vtensor<[1280],f16>, !torch.int -> !torch.vtensor<[2,960,1280],f32>
    %int5_8076 = torch.constant.int 5
    %6918 = torch.prims.convert_element_type %6917, %int5_8076 : !torch.vtensor<[2,960,1280],f32>, !torch.int -> !torch.vtensor<[2,960,1280],f16>
    %int1920_8077 = torch.constant.int 1920
    %int1280_8078 = torch.constant.int 1280
    %6919 = torch.prim.ListConstruct %int1920_8077, %int1280_8078 : (!torch.int, !torch.int) -> !torch.list<int>
    %6920 = torch.aten.view %6918, %6919 : !torch.vtensor<[2,960,1280],f16>, !torch.list<int> -> !torch.vtensor<[1920,1280],f16>
    %__auto.controlnet.mid_block.attentions.0.transformer_blocks.9.ff.net.0.proj.weight = util.global.load @__auto.controlnet.mid_block.attentions.0.transformer_blocks.9.ff.net.0.proj.weight : tensor<10240x1280xf16>
    %6921 = torch_c.from_builtin_tensor %__auto.controlnet.mid_block.attentions.0.transformer_blocks.9.ff.net.0.proj.weight : tensor<10240x1280xf16> -> !torch.vtensor<[10240,1280],f16>
    %int0_8079 = torch.constant.int 0
    %int1_8080 = torch.constant.int 1
    %6922 = torch.aten.transpose.int %6921, %int0_8079, %int1_8080 : !torch.vtensor<[10240,1280],f16>, !torch.int, !torch.int -> !torch.vtensor<[1280,10240],f16>
    %__auto.controlnet.mid_block.attentions.0.transformer_blocks.9.ff.net.0.proj.bias = util.global.load @__auto.controlnet.mid_block.attentions.0.transformer_blocks.9.ff.net.0.proj.bias : tensor<10240xf16>
    %6923 = torch_c.from_builtin_tensor %__auto.controlnet.mid_block.attentions.0.transformer_blocks.9.ff.net.0.proj.bias : tensor<10240xf16> -> !torch.vtensor<[10240],f16>
    %int6_8081 = torch.constant.int 6
    %6924 = torch.prims.convert_element_type %6923, %int6_8081 : !torch.vtensor<[10240],f16>, !torch.int -> !torch.vtensor<[10240],f32>
    %int6_8082 = torch.constant.int 6
    %6925 = torch.prims.convert_element_type %6920, %int6_8082 : !torch.vtensor<[1920,1280],f16>, !torch.int -> !torch.vtensor<[1920,1280],f32>
    %int6_8083 = torch.constant.int 6
    %6926 = torch.prims.convert_element_type %6922, %int6_8083 : !torch.vtensor<[1280,10240],f16>, !torch.int -> !torch.vtensor<[1280,10240],f32>
    %6927 = torch.aten.mm %6925, %6926 : !torch.vtensor<[1920,1280],f32>, !torch.vtensor<[1280,10240],f32> -> !torch.vtensor<[1920,10240],f32>
    %int1_8084 = torch.constant.int 1
    %6928 = torch.aten.mul.Scalar %6927, %int1_8084 : !torch.vtensor<[1920,10240],f32>, !torch.int -> !torch.vtensor<[1920,10240],f32>
    %int1_8085 = torch.constant.int 1
    %6929 = torch.aten.mul.Scalar %6924, %int1_8085 : !torch.vtensor<[10240],f32>, !torch.int -> !torch.vtensor<[10240],f32>
    %int1_8086 = torch.constant.int 1
    %6930 = torch.aten.add.Tensor %6928, %6929, %int1_8086 : !torch.vtensor<[1920,10240],f32>, !torch.vtensor<[10240],f32>, !torch.int -> !torch.vtensor<[1920,10240],f32>
    %int5_8087 = torch.constant.int 5
    %6931 = torch.prims.convert_element_type %6930, %int5_8087 : !torch.vtensor<[1920,10240],f32>, !torch.int -> !torch.vtensor<[1920,10240],f16>
    %int2_8088 = torch.constant.int 2
    %int960_8089 = torch.constant.int 960
    %int10240_8090 = torch.constant.int 10240
    %6932 = torch.prim.ListConstruct %int2_8088, %int960_8089, %int10240_8090 : (!torch.int, !torch.int, !torch.int) -> !torch.list<int>
    %6933 = torch.aten.view %6931, %6932 : !torch.vtensor<[1920,10240],f16>, !torch.list<int> -> !torch.vtensor<[2,960,10240],f16>
    %int-1_8091 = torch.constant.int -1
    %int0_8092 = torch.constant.int 0
    %int5120_8093 = torch.constant.int 5120
    %int1_8094 = torch.constant.int 1
    %6934 = torch.aten.slice.Tensor %6933, %int-1_8091, %int0_8092, %int5120_8093, %int1_8094 : !torch.vtensor<[2,960,10240],f16>, !torch.int, !torch.int, !torch.int, !torch.int -> !torch.vtensor<[2,960,5120],f16>
    %int-1_8095 = torch.constant.int -1
    %int5120_8096 = torch.constant.int 5120
    %int10240_8097 = torch.constant.int 10240
    %int1_8098 = torch.constant.int 1
    %6935 = torch.aten.slice.Tensor %6933, %int-1_8095, %int5120_8096, %int10240_8097, %int1_8098 : !torch.vtensor<[2,960,10240],f16>, !torch.int, !torch.int, !torch.int, !torch.int -> !torch.vtensor<[2,960,5120],f16>
    %str_8099 = torch.constant.str "none"
    %6936 = torch.aten.gelu %6935, %str_8099 : !torch.vtensor<[2,960,5120],f16>, !torch.str -> !torch.vtensor<[2,960,5120],f16>
    %6937 = torch.aten.mul.Tensor %6934, %6936 : !torch.vtensor<[2,960,5120],f16>, !torch.vtensor<[2,960,5120],f16> -> !torch.vtensor<[2,960,5120],f16>
    %none_8100 = torch.constant.none
    %6938 = torch.aten.clone %6937, %none_8100 : !torch.vtensor<[2,960,5120],f16>, !torch.none -> !torch.vtensor<[2,960,5120],f16>
    %int1920_8101 = torch.constant.int 1920
    %int5120_8102 = torch.constant.int 5120
    %6939 = torch.prim.ListConstruct %int1920_8101, %int5120_8102 : (!torch.int, !torch.int) -> !torch.list<int>
    %6940 = torch.aten.view %6938, %6939 : !torch.vtensor<[2,960,5120],f16>, !torch.list<int> -> !torch.vtensor<[1920,5120],f16>
    %__auto.controlnet.mid_block.attentions.0.transformer_blocks.9.ff.net.2.weight = util.global.load @__auto.controlnet.mid_block.attentions.0.transformer_blocks.9.ff.net.2.weight : tensor<1280x5120xf16>
    %6941 = torch_c.from_builtin_tensor %__auto.controlnet.mid_block.attentions.0.transformer_blocks.9.ff.net.2.weight : tensor<1280x5120xf16> -> !torch.vtensor<[1280,5120],f16>
    %int0_8103 = torch.constant.int 0
    %int1_8104 = torch.constant.int 1
    %6942 = torch.aten.transpose.int %6941, %int0_8103, %int1_8104 : !torch.vtensor<[1280,5120],f16>, !torch.int, !torch.int -> !torch.vtensor<[5120,1280],f16>
    %__auto.controlnet.mid_block.attentions.0.transformer_blocks.9.ff.net.2.bias = util.global.load @__auto.controlnet.mid_block.attentions.0.transformer_blocks.9.ff.net.2.bias : tensor<1280xf16>
    %6943 = torch_c.from_builtin_tensor %__auto.controlnet.mid_block.attentions.0.transformer_blocks.9.ff.net.2.bias : tensor<1280xf16> -> !torch.vtensor<[1280],f16>
    %int6_8105 = torch.constant.int 6
    %6944 = torch.prims.convert_element_type %6943, %int6_8105 : !torch.vtensor<[1280],f16>, !torch.int -> !torch.vtensor<[1280],f32>
    %int6_8106 = torch.constant.int 6
    %6945 = torch.prims.convert_element_type %6940, %int6_8106 : !torch.vtensor<[1920,5120],f16>, !torch.int -> !torch.vtensor<[1920,5120],f32>
    %int6_8107 = torch.constant.int 6
    %6946 = torch.prims.convert_element_type %6942, %int6_8107 : !torch.vtensor<[5120,1280],f16>, !torch.int -> !torch.vtensor<[5120,1280],f32>
    %6947 = torch.aten.mm %6945, %6946 : !torch.vtensor<[1920,5120],f32>, !torch.vtensor<[5120,1280],f32> -> !torch.vtensor<[1920,1280],f32>
    %int1_8108 = torch.constant.int 1
    %6948 = torch.aten.mul.Scalar %6947, %int1_8108 : !torch.vtensor<[1920,1280],f32>, !torch.int -> !torch.vtensor<[1920,1280],f32>
    %int1_8109 = torch.constant.int 1
    %6949 = torch.aten.mul.Scalar %6944, %int1_8109 : !torch.vtensor<[1280],f32>, !torch.int -> !torch.vtensor<[1280],f32>
    %int1_8110 = torch.constant.int 1
    %6950 = torch.aten.add.Tensor %6948, %6949, %int1_8110 : !torch.vtensor<[1920,1280],f32>, !torch.vtensor<[1280],f32>, !torch.int -> !torch.vtensor<[1920,1280],f32>
    %int5_8111 = torch.constant.int 5
    %6951 = torch.prims.convert_element_type %6950, %int5_8111 : !torch.vtensor<[1920,1280],f32>, !torch.int -> !torch.vtensor<[1920,1280],f16>
    %int2_8112 = torch.constant.int 2
    %int960_8113 = torch.constant.int 960
    %int1280_8114 = torch.constant.int 1280
    %6952 = torch.prim.ListConstruct %int2_8112, %int960_8113, %int1280_8114 : (!torch.int, !torch.int, !torch.int) -> !torch.list<int>
    %6953 = torch.aten.view %6951, %6952 : !torch.vtensor<[1920,1280],f16>, !torch.list<int> -> !torch.vtensor<[2,960,1280],f16>
    %int1_8115 = torch.constant.int 1
    %6954 = torch.aten.add.Tensor %6953, %6907, %int1_8115 : !torch.vtensor<[2,960,1280],f16>, !torch.vtensor<[2,960,1280],f16>, !torch.int -> !torch.vtensor<[2,960,1280],f16>
    %int1920_8116 = torch.constant.int 1920
    %int1280_8117 = torch.constant.int 1280
    %6955 = torch.prim.ListConstruct %int1920_8116, %int1280_8117 : (!torch.int, !torch.int) -> !torch.list<int>
    %6956 = torch.aten.view %6954, %6955 : !torch.vtensor<[2,960,1280],f16>, !torch.list<int> -> !torch.vtensor<[1920,1280],f16>
    %__auto.controlnet.mid_block.attentions.0.proj_out.weight = util.global.load @__auto.controlnet.mid_block.attentions.0.proj_out.weight : tensor<1280x1280xf16>
    %6957 = torch_c.from_builtin_tensor %__auto.controlnet.mid_block.attentions.0.proj_out.weight : tensor<1280x1280xf16> -> !torch.vtensor<[1280,1280],f16>
    %int0_8118 = torch.constant.int 0
    %int1_8119 = torch.constant.int 1
    %6958 = torch.aten.transpose.int %6957, %int0_8118, %int1_8119 : !torch.vtensor<[1280,1280],f16>, !torch.int, !torch.int -> !torch.vtensor<[1280,1280],f16>
    %__auto.controlnet.mid_block.attentions.0.proj_out.bias = util.global.load @__auto.controlnet.mid_block.attentions.0.proj_out.bias : tensor<1280xf16>
    %6959 = torch_c.from_builtin_tensor %__auto.controlnet.mid_block.attentions.0.proj_out.bias : tensor<1280xf16> -> !torch.vtensor<[1280],f16>
    %int6_8120 = torch.constant.int 6
    %6960 = torch.prims.convert_element_type %6959, %int6_8120 : !torch.vtensor<[1280],f16>, !torch.int -> !torch.vtensor<[1280],f32>
    %int6_8121 = torch.constant.int 6
    %6961 = torch.prims.convert_element_type %6956, %int6_8121 : !torch.vtensor<[1920,1280],f16>, !torch.int -> !torch.vtensor<[1920,1280],f32>
    %int6_8122 = torch.constant.int 6
    %6962 = torch.prims.convert_element_type %6958, %int6_8122 : !torch.vtensor<[1280,1280],f16>, !torch.int -> !torch.vtensor<[1280,1280],f32>
    %6963 = torch.aten.mm %6961, %6962 : !torch.vtensor<[1920,1280],f32>, !torch.vtensor<[1280,1280],f32> -> !torch.vtensor<[1920,1280],f32>
    %int1_8123 = torch.constant.int 1
    %6964 = torch.aten.mul.Scalar %6963, %int1_8123 : !torch.vtensor<[1920,1280],f32>, !torch.int -> !torch.vtensor<[1920,1280],f32>
    %int1_8124 = torch.constant.int 1
    %6965 = torch.aten.mul.Scalar %6960, %int1_8124 : !torch.vtensor<[1280],f32>, !torch.int -> !torch.vtensor<[1280],f32>
    %int1_8125 = torch.constant.int 1
    %6966 = torch.aten.add.Tensor %6964, %6965, %int1_8125 : !torch.vtensor<[1920,1280],f32>, !torch.vtensor<[1280],f32>, !torch.int -> !torch.vtensor<[1920,1280],f32>
    %int5_8126 = torch.constant.int 5
    %6967 = torch.prims.convert_element_type %6966, %int5_8126 : !torch.vtensor<[1920,1280],f32>, !torch.int -> !torch.vtensor<[1920,1280],f16>
    %int2_8127 = torch.constant.int 2
    %int960_8128 = torch.constant.int 960
    %int1280_8129 = torch.constant.int 1280
    %6968 = torch.prim.ListConstruct %int2_8127, %int960_8128, %int1280_8129 : (!torch.int, !torch.int, !torch.int) -> !torch.list<int>
    %6969 = torch.aten.view %6967, %6968 : !torch.vtensor<[1920,1280],f16>, !torch.list<int> -> !torch.vtensor<[2,960,1280],f16>
    %int2_8130 = torch.constant.int 2
    %int30_8131 = torch.constant.int 30
    %int32_8132 = torch.constant.int 32
    %int1280_8133 = torch.constant.int 1280
    %6970 = torch.prim.ListConstruct %int2_8130, %int30_8131, %int32_8132, %int1280_8133 : (!torch.int, !torch.int, !torch.int, !torch.int) -> !torch.list<int>
    %6971 = torch.aten.view %6969, %6970 : !torch.vtensor<[2,960,1280],f16>, !torch.list<int> -> !torch.vtensor<[2,30,32,1280],f16>
    %int0_8134 = torch.constant.int 0
    %int3_8135 = torch.constant.int 3
    %int1_8136 = torch.constant.int 1
    %int2_8137 = torch.constant.int 2
    %6972 = torch.prim.ListConstruct %int0_8134, %int3_8135, %int1_8136, %int2_8137 : (!torch.int, !torch.int, !torch.int, !torch.int) -> !torch.list<int>
    %6973 = torch.aten.permute %6971, %6972 : !torch.vtensor<[2,30,32,1280],f16>, !torch.list<int> -> !torch.vtensor<[2,1280,30,32],f16>
    %int0_8138 = torch.constant.int 0
    %6974 = torch.aten.clone %6973, %int0_8138 : !torch.vtensor<[2,1280,30,32],f16>, !torch.int -> !torch.vtensor<[2,1280,30,32],f16>
    %int1_8139 = torch.constant.int 1
    %6975 = torch.aten.add.Tensor %6974, %5169, %int1_8139 : !torch.vtensor<[2,1280,30,32],f16>, !torch.vtensor<[2,1280,30,32],f16>, !torch.int -> !torch.vtensor<[2,1280,30,32],f16>
    %int2_8140 = torch.constant.int 2
    %int32_8141 = torch.constant.int 32
    %int40_8142 = torch.constant.int 40
    %int960_8143 = torch.constant.int 960
    %6976 = torch.prim.ListConstruct %int2_8140, %int32_8141, %int40_8142, %int960_8143 : (!torch.int, !torch.int, !torch.int, !torch.int) -> !torch.list<int>
    %6977 = torch.aten.view %6975, %6976 : !torch.vtensor<[2,1280,30,32],f16>, !torch.list<int> -> !torch.vtensor<[2,32,40,960],f16>
    %int6_8144 = torch.constant.int 6
    %6978 = torch.prims.convert_element_type %6977, %int6_8144 : !torch.vtensor<[2,32,40,960],f16>, !torch.int -> !torch.vtensor<[2,32,40,960],f32>
    %int2_8145 = torch.constant.int 2
    %int3_8146 = torch.constant.int 3
    %6979 = torch.prim.ListConstruct %int2_8145, %int3_8146 : (!torch.int, !torch.int) -> !torch.list<int>
    %int0_8147 = torch.constant.int 0
    %true_8148 = torch.constant.bool true
    %result0_8149, %result1_8150 = torch.aten.var_mean.correction %6978, %6979, %int0_8147, %true_8148 : !torch.vtensor<[2,32,40,960],f32>, !torch.list<int>, !torch.int, !torch.bool -> !torch.vtensor<[2,32,1,1],f32>, !torch.vtensor<[2,32,1,1],f32>
    %float1.000000e-05_8151 = torch.constant.float 1.000000e-05
    %int1_8152 = torch.constant.int 1
    %6980 = torch.aten.add.Scalar %result0_8149, %float1.000000e-05_8151, %int1_8152 : !torch.vtensor<[2,32,1,1],f32>, !torch.float, !torch.int -> !torch.vtensor<[2,32,1,1],f32>
    %6981 = torch.aten.rsqrt %6980 : !torch.vtensor<[2,32,1,1],f32> -> !torch.vtensor<[2,32,1,1],f32>
    %int1_8153 = torch.constant.int 1
    %6982 = torch.aten.sub.Tensor %6977, %result1_8150, %int1_8153 : !torch.vtensor<[2,32,40,960],f16>, !torch.vtensor<[2,32,1,1],f32>, !torch.int -> !torch.vtensor<[2,32,40,960],f32>
    %6983 = torch.aten.mul.Tensor %6982, %6981 : !torch.vtensor<[2,32,40,960],f32>, !torch.vtensor<[2,32,1,1],f32> -> !torch.vtensor<[2,32,40,960],f32>
    %int2_8154 = torch.constant.int 2
    %int1280_8155 = torch.constant.int 1280
    %int30_8156 = torch.constant.int 30
    %int32_8157 = torch.constant.int 32
    %6984 = torch.prim.ListConstruct %int2_8154, %int1280_8155, %int30_8156, %int32_8157 : (!torch.int, !torch.int, !torch.int, !torch.int) -> !torch.list<int>
    %6985 = torch.aten.view %6983, %6984 : !torch.vtensor<[2,32,40,960],f32>, !torch.list<int> -> !torch.vtensor<[2,1280,30,32],f32>
    %__auto.controlnet.mid_block.resnets.1.norm1.bias = util.global.load @__auto.controlnet.mid_block.resnets.1.norm1.bias : tensor<1280xf16>
    %6986 = torch_c.from_builtin_tensor %__auto.controlnet.mid_block.resnets.1.norm1.bias : tensor<1280xf16> -> !torch.vtensor<[1280],f16>
    %int0_8158 = torch.constant.int 0
    %6987 = torch.aten.unsqueeze %6986, %int0_8158 : !torch.vtensor<[1280],f16>, !torch.int -> !torch.vtensor<[1,1280],f16>
    %int2_8159 = torch.constant.int 2
    %6988 = torch.aten.unsqueeze %6987, %int2_8159 : !torch.vtensor<[1,1280],f16>, !torch.int -> !torch.vtensor<[1,1280,1],f16>
    %int3_8160 = torch.constant.int 3
    %6989 = torch.aten.unsqueeze %6988, %int3_8160 : !torch.vtensor<[1,1280,1],f16>, !torch.int -> !torch.vtensor<[1,1280,1,1],f16>
    %__auto.controlnet.mid_block.resnets.1.norm1.weight = util.global.load @__auto.controlnet.mid_block.resnets.1.norm1.weight : tensor<1280xf16>
    %6990 = torch_c.from_builtin_tensor %__auto.controlnet.mid_block.resnets.1.norm1.weight : tensor<1280xf16> -> !torch.vtensor<[1280],f16>
    %int0_8161 = torch.constant.int 0
    %6991 = torch.aten.unsqueeze %6990, %int0_8161 : !torch.vtensor<[1280],f16>, !torch.int -> !torch.vtensor<[1,1280],f16>
    %int2_8162 = torch.constant.int 2
    %6992 = torch.aten.unsqueeze %6991, %int2_8162 : !torch.vtensor<[1,1280],f16>, !torch.int -> !torch.vtensor<[1,1280,1],f16>
    %int3_8163 = torch.constant.int 3
    %6993 = torch.aten.unsqueeze %6992, %int3_8163 : !torch.vtensor<[1,1280,1],f16>, !torch.int -> !torch.vtensor<[1,1280,1,1],f16>
    %6994 = torch.aten.mul.Tensor %6985, %6993 : !torch.vtensor<[2,1280,30,32],f32>, !torch.vtensor<[1,1280,1,1],f16> -> !torch.vtensor<[2,1280,30,32],f32>
    %int1_8164 = torch.constant.int 1
    %6995 = torch.aten.add.Tensor %6994, %6989, %int1_8164 : !torch.vtensor<[2,1280,30,32],f32>, !torch.vtensor<[1,1280,1,1],f16>, !torch.int -> !torch.vtensor<[2,1280,30,32],f32>
    %int5_8165 = torch.constant.int 5
    %6996 = torch.prims.convert_element_type %6995, %int5_8165 : !torch.vtensor<[2,1280,30,32],f32>, !torch.int -> !torch.vtensor<[2,1280,30,32],f16>
    %6997 = torch.aten.silu %6996 : !torch.vtensor<[2,1280,30,32],f16> -> !torch.vtensor<[2,1280,30,32],f16>
    %__auto.controlnet.mid_block.resnets.1.conv1.weight = util.global.load @__auto.controlnet.mid_block.resnets.1.conv1.weight : tensor<1280x1280x3x3xf16>
    %6998 = torch_c.from_builtin_tensor %__auto.controlnet.mid_block.resnets.1.conv1.weight : tensor<1280x1280x3x3xf16> -> !torch.vtensor<[1280,1280,3,3],f16>
    %__auto.controlnet.mid_block.resnets.1.conv1.bias = util.global.load @__auto.controlnet.mid_block.resnets.1.conv1.bias : tensor<1280xf16>
    %6999 = torch_c.from_builtin_tensor %__auto.controlnet.mid_block.resnets.1.conv1.bias : tensor<1280xf16> -> !torch.vtensor<[1280],f16>
    %int1_8166 = torch.constant.int 1
    %int1_8167 = torch.constant.int 1
    %7000 = torch.prim.ListConstruct %int1_8166, %int1_8167 : (!torch.int, !torch.int) -> !torch.list<int>
    %int1_8168 = torch.constant.int 1
    %int1_8169 = torch.constant.int 1
    %7001 = torch.prim.ListConstruct %int1_8168, %int1_8169 : (!torch.int, !torch.int) -> !torch.list<int>
    %int1_8170 = torch.constant.int 1
    %int1_8171 = torch.constant.int 1
    %7002 = torch.prim.ListConstruct %int1_8170, %int1_8171 : (!torch.int, !torch.int) -> !torch.list<int>
    %false_8172 = torch.constant.bool false
    %int0_8173 = torch.constant.int 0
    %int0_8174 = torch.constant.int 0
    %7003 = torch.prim.ListConstruct %int0_8173, %int0_8174 : (!torch.int, !torch.int) -> !torch.list<int>
    %int1_8175 = torch.constant.int 1
    %7004 = torch.aten.convolution %6997, %6998, %6999, %7000, %7001, %7002, %false_8172, %7003, %int1_8175 : !torch.vtensor<[2,1280,30,32],f16>, !torch.vtensor<[1280,1280,3,3],f16>, !torch.vtensor<[1280],f16>, !torch.list<int>, !torch.list<int>, !torch.list<int>, !torch.bool, !torch.list<int>, !torch.int -> !torch.vtensor<[2,1280,30,32],f16>
    %7005 = torch.aten.silu %100 : !torch.vtensor<[2,1280],f16> -> !torch.vtensor<[2,1280],f16>
    %__auto.controlnet.mid_block.resnets.1.time_emb_proj.weight = util.global.load @__auto.controlnet.mid_block.resnets.1.time_emb_proj.weight : tensor<1280x1280xf16>
    %7006 = torch_c.from_builtin_tensor %__auto.controlnet.mid_block.resnets.1.time_emb_proj.weight : tensor<1280x1280xf16> -> !torch.vtensor<[1280,1280],f16>
    %int0_8176 = torch.constant.int 0
    %int1_8177 = torch.constant.int 1
    %7007 = torch.aten.transpose.int %7006, %int0_8176, %int1_8177 : !torch.vtensor<[1280,1280],f16>, !torch.int, !torch.int -> !torch.vtensor<[1280,1280],f16>
    %__auto.controlnet.mid_block.resnets.1.time_emb_proj.bias = util.global.load @__auto.controlnet.mid_block.resnets.1.time_emb_proj.bias : tensor<1280xf16>
    %7008 = torch_c.from_builtin_tensor %__auto.controlnet.mid_block.resnets.1.time_emb_proj.bias : tensor<1280xf16> -> !torch.vtensor<[1280],f16>
    %int6_8178 = torch.constant.int 6
    %7009 = torch.prims.convert_element_type %7008, %int6_8178 : !torch.vtensor<[1280],f16>, !torch.int -> !torch.vtensor<[1280],f32>
    %int6_8179 = torch.constant.int 6
    %7010 = torch.prims.convert_element_type %7005, %int6_8179 : !torch.vtensor<[2,1280],f16>, !torch.int -> !torch.vtensor<[2,1280],f32>
    %int6_8180 = torch.constant.int 6
    %7011 = torch.prims.convert_element_type %7007, %int6_8180 : !torch.vtensor<[1280,1280],f16>, !torch.int -> !torch.vtensor<[1280,1280],f32>
    %7012 = torch.aten.mm %7010, %7011 : !torch.vtensor<[2,1280],f32>, !torch.vtensor<[1280,1280],f32> -> !torch.vtensor<[2,1280],f32>
    %int1_8181 = torch.constant.int 1
    %7013 = torch.aten.mul.Scalar %7012, %int1_8181 : !torch.vtensor<[2,1280],f32>, !torch.int -> !torch.vtensor<[2,1280],f32>
    %int1_8182 = torch.constant.int 1
    %7014 = torch.aten.mul.Scalar %7009, %int1_8182 : !torch.vtensor<[1280],f32>, !torch.int -> !torch.vtensor<[1280],f32>
    %int1_8183 = torch.constant.int 1
    %7015 = torch.aten.add.Tensor %7013, %7014, %int1_8183 : !torch.vtensor<[2,1280],f32>, !torch.vtensor<[1280],f32>, !torch.int -> !torch.vtensor<[2,1280],f32>
    %int5_8184 = torch.constant.int 5
    %7016 = torch.prims.convert_element_type %7015, %int5_8184 : !torch.vtensor<[2,1280],f32>, !torch.int -> !torch.vtensor<[2,1280],f16>
    %int0_8185 = torch.constant.int 0
    %int0_8186 = torch.constant.int 0
    %int9223372036854775807_8187 = torch.constant.int 9223372036854775807
    %int1_8188 = torch.constant.int 1
    %7017 = torch.aten.slice.Tensor %7016, %int0_8185, %int0_8186, %int9223372036854775807_8187, %int1_8188 : !torch.vtensor<[2,1280],f16>, !torch.int, !torch.int, !torch.int, !torch.int -> !torch.vtensor<[2,1280],f16>
    %int1_8189 = torch.constant.int 1
    %int0_8190 = torch.constant.int 0
    %int9223372036854775807_8191 = torch.constant.int 9223372036854775807
    %int1_8192 = torch.constant.int 1
    %7018 = torch.aten.slice.Tensor %7017, %int1_8189, %int0_8190, %int9223372036854775807_8191, %int1_8192 : !torch.vtensor<[2,1280],f16>, !torch.int, !torch.int, !torch.int, !torch.int -> !torch.vtensor<[2,1280],f16>
    %int2_8193 = torch.constant.int 2
    %7019 = torch.aten.unsqueeze %7018, %int2_8193 : !torch.vtensor<[2,1280],f16>, !torch.int -> !torch.vtensor<[2,1280,1],f16>
    %int3_8194 = torch.constant.int 3
    %7020 = torch.aten.unsqueeze %7019, %int3_8194 : !torch.vtensor<[2,1280,1],f16>, !torch.int -> !torch.vtensor<[2,1280,1,1],f16>
    %int1_8195 = torch.constant.int 1
    %7021 = torch.aten.add.Tensor %7004, %7020, %int1_8195 : !torch.vtensor<[2,1280,30,32],f16>, !torch.vtensor<[2,1280,1,1],f16>, !torch.int -> !torch.vtensor<[2,1280,30,32],f16>
    %int2_8196 = torch.constant.int 2
    %int32_8197 = torch.constant.int 32
    %int40_8198 = torch.constant.int 40
    %int960_8199 = torch.constant.int 960
    %7022 = torch.prim.ListConstruct %int2_8196, %int32_8197, %int40_8198, %int960_8199 : (!torch.int, !torch.int, !torch.int, !torch.int) -> !torch.list<int>
    %7023 = torch.aten.view %7021, %7022 : !torch.vtensor<[2,1280,30,32],f16>, !torch.list<int> -> !torch.vtensor<[2,32,40,960],f16>
    %int6_8200 = torch.constant.int 6
    %7024 = torch.prims.convert_element_type %7023, %int6_8200 : !torch.vtensor<[2,32,40,960],f16>, !torch.int -> !torch.vtensor<[2,32,40,960],f32>
    %int2_8201 = torch.constant.int 2
    %int3_8202 = torch.constant.int 3
    %7025 = torch.prim.ListConstruct %int2_8201, %int3_8202 : (!torch.int, !torch.int) -> !torch.list<int>
    %int0_8203 = torch.constant.int 0
    %true_8204 = torch.constant.bool true
    %result0_8205, %result1_8206 = torch.aten.var_mean.correction %7024, %7025, %int0_8203, %true_8204 : !torch.vtensor<[2,32,40,960],f32>, !torch.list<int>, !torch.int, !torch.bool -> !torch.vtensor<[2,32,1,1],f32>, !torch.vtensor<[2,32,1,1],f32>
    %float1.000000e-05_8207 = torch.constant.float 1.000000e-05
    %int1_8208 = torch.constant.int 1
    %7026 = torch.aten.add.Scalar %result0_8205, %float1.000000e-05_8207, %int1_8208 : !torch.vtensor<[2,32,1,1],f32>, !torch.float, !torch.int -> !torch.vtensor<[2,32,1,1],f32>
    %7027 = torch.aten.rsqrt %7026 : !torch.vtensor<[2,32,1,1],f32> -> !torch.vtensor<[2,32,1,1],f32>
    %int1_8209 = torch.constant.int 1
    %7028 = torch.aten.sub.Tensor %7023, %result1_8206, %int1_8209 : !torch.vtensor<[2,32,40,960],f16>, !torch.vtensor<[2,32,1,1],f32>, !torch.int -> !torch.vtensor<[2,32,40,960],f32>
    %7029 = torch.aten.mul.Tensor %7028, %7027 : !torch.vtensor<[2,32,40,960],f32>, !torch.vtensor<[2,32,1,1],f32> -> !torch.vtensor<[2,32,40,960],f32>
    %int2_8210 = torch.constant.int 2
    %int1280_8211 = torch.constant.int 1280
    %int30_8212 = torch.constant.int 30
    %int32_8213 = torch.constant.int 32
    %7030 = torch.prim.ListConstruct %int2_8210, %int1280_8211, %int30_8212, %int32_8213 : (!torch.int, !torch.int, !torch.int, !torch.int) -> !torch.list<int>
    %7031 = torch.aten.view %7029, %7030 : !torch.vtensor<[2,32,40,960],f32>, !torch.list<int> -> !torch.vtensor<[2,1280,30,32],f32>
    %__auto.controlnet.mid_block.resnets.1.norm2.bias = util.global.load @__auto.controlnet.mid_block.resnets.1.norm2.bias : tensor<1280xf16>
    %7032 = torch_c.from_builtin_tensor %__auto.controlnet.mid_block.resnets.1.norm2.bias : tensor<1280xf16> -> !torch.vtensor<[1280],f16>
    %int0_8214 = torch.constant.int 0
    %7033 = torch.aten.unsqueeze %7032, %int0_8214 : !torch.vtensor<[1280],f16>, !torch.int -> !torch.vtensor<[1,1280],f16>
    %int2_8215 = torch.constant.int 2
    %7034 = torch.aten.unsqueeze %7033, %int2_8215 : !torch.vtensor<[1,1280],f16>, !torch.int -> !torch.vtensor<[1,1280,1],f16>
    %int3_8216 = torch.constant.int 3
    %7035 = torch.aten.unsqueeze %7034, %int3_8216 : !torch.vtensor<[1,1280,1],f16>, !torch.int -> !torch.vtensor<[1,1280,1,1],f16>
    %__auto.controlnet.mid_block.resnets.1.norm2.weight = util.global.load @__auto.controlnet.mid_block.resnets.1.norm2.weight : tensor<1280xf16>
    %7036 = torch_c.from_builtin_tensor %__auto.controlnet.mid_block.resnets.1.norm2.weight : tensor<1280xf16> -> !torch.vtensor<[1280],f16>
    %int0_8217 = torch.constant.int 0
    %7037 = torch.aten.unsqueeze %7036, %int0_8217 : !torch.vtensor<[1280],f16>, !torch.int -> !torch.vtensor<[1,1280],f16>
    %int2_8218 = torch.constant.int 2
    %7038 = torch.aten.unsqueeze %7037, %int2_8218 : !torch.vtensor<[1,1280],f16>, !torch.int -> !torch.vtensor<[1,1280,1],f16>
    %int3_8219 = torch.constant.int 3
    %7039 = torch.aten.unsqueeze %7038, %int3_8219 : !torch.vtensor<[1,1280,1],f16>, !torch.int -> !torch.vtensor<[1,1280,1,1],f16>
    %7040 = torch.aten.mul.Tensor %7031, %7039 : !torch.vtensor<[2,1280,30,32],f32>, !torch.vtensor<[1,1280,1,1],f16> -> !torch.vtensor<[2,1280,30,32],f32>
    %int1_8220 = torch.constant.int 1
    %7041 = torch.aten.add.Tensor %7040, %7035, %int1_8220 : !torch.vtensor<[2,1280,30,32],f32>, !torch.vtensor<[1,1280,1,1],f16>, !torch.int -> !torch.vtensor<[2,1280,30,32],f32>
    %int5_8221 = torch.constant.int 5
    %7042 = torch.prims.convert_element_type %7041, %int5_8221 : !torch.vtensor<[2,1280,30,32],f32>, !torch.int -> !torch.vtensor<[2,1280,30,32],f16>
    %7043 = torch.aten.silu %7042 : !torch.vtensor<[2,1280,30,32],f16> -> !torch.vtensor<[2,1280,30,32],f16>
    %none_8222 = torch.constant.none
    %7044 = torch.aten.clone %7043, %none_8222 : !torch.vtensor<[2,1280,30,32],f16>, !torch.none -> !torch.vtensor<[2,1280,30,32],f16>
    %__auto.controlnet.mid_block.resnets.1.conv2.weight = util.global.load @__auto.controlnet.mid_block.resnets.1.conv2.weight : tensor<1280x1280x3x3xf16>
    %7045 = torch_c.from_builtin_tensor %__auto.controlnet.mid_block.resnets.1.conv2.weight : tensor<1280x1280x3x3xf16> -> !torch.vtensor<[1280,1280,3,3],f16>
    %__auto.controlnet.mid_block.resnets.1.conv2.bias = util.global.load @__auto.controlnet.mid_block.resnets.1.conv2.bias : tensor<1280xf16>
    %7046 = torch_c.from_builtin_tensor %__auto.controlnet.mid_block.resnets.1.conv2.bias : tensor<1280xf16> -> !torch.vtensor<[1280],f16>
    %int1_8223 = torch.constant.int 1
    %int1_8224 = torch.constant.int 1
    %7047 = torch.prim.ListConstruct %int1_8223, %int1_8224 : (!torch.int, !torch.int) -> !torch.list<int>
    %int1_8225 = torch.constant.int 1
    %int1_8226 = torch.constant.int 1
    %7048 = torch.prim.ListConstruct %int1_8225, %int1_8226 : (!torch.int, !torch.int) -> !torch.list<int>
    %int1_8227 = torch.constant.int 1
    %int1_8228 = torch.constant.int 1
    %7049 = torch.prim.ListConstruct %int1_8227, %int1_8228 : (!torch.int, !torch.int) -> !torch.list<int>
    %false_8229 = torch.constant.bool false
    %int0_8230 = torch.constant.int 0
    %int0_8231 = torch.constant.int 0
    %7050 = torch.prim.ListConstruct %int0_8230, %int0_8231 : (!torch.int, !torch.int) -> !torch.list<int>
    %int1_8232 = torch.constant.int 1
    %7051 = torch.aten.convolution %7044, %7045, %7046, %7047, %7048, %7049, %false_8229, %7050, %int1_8232 : !torch.vtensor<[2,1280,30,32],f16>, !torch.vtensor<[1280,1280,3,3],f16>, !torch.vtensor<[1280],f16>, !torch.list<int>, !torch.list<int>, !torch.list<int>, !torch.bool, !torch.list<int>, !torch.int -> !torch.vtensor<[2,1280,30,32],f16>
    %int1_8233 = torch.constant.int 1
    %7052 = torch.aten.add.Tensor %6975, %7051, %int1_8233 : !torch.vtensor<[2,1280,30,32],f16>, !torch.vtensor<[2,1280,30,32],f16>, !torch.int -> !torch.vtensor<[2,1280,30,32],f16>
    %int1_8234 = torch.constant.int 1
    %7053 = torch.aten.div.Scalar %7052, %int1_8234 : !torch.vtensor<[2,1280,30,32],f16>, !torch.int -> !torch.vtensor<[2,1280,30,32],f16>
    %__auto.controlnet.controlnet_down_blocks.0.weight = util.global.load @__auto.controlnet.controlnet_down_blocks.0.weight : tensor<320x320x1x1xf16>
    %7054 = torch_c.from_builtin_tensor %__auto.controlnet.controlnet_down_blocks.0.weight : tensor<320x320x1x1xf16> -> !torch.vtensor<[320,320,1,1],f16>
    %__auto.controlnet.controlnet_down_blocks.0.bias = util.global.load @__auto.controlnet.controlnet_down_blocks.0.bias : tensor<320xf16>
    %7055 = torch_c.from_builtin_tensor %__auto.controlnet.controlnet_down_blocks.0.bias : tensor<320xf16> -> !torch.vtensor<[320],f16>
    %int1_8235 = torch.constant.int 1
    %int1_8236 = torch.constant.int 1
    %7056 = torch.prim.ListConstruct %int1_8235, %int1_8236 : (!torch.int, !torch.int) -> !torch.list<int>
    %int0_8237 = torch.constant.int 0
    %int0_8238 = torch.constant.int 0
    %7057 = torch.prim.ListConstruct %int0_8237, %int0_8238 : (!torch.int, !torch.int) -> !torch.list<int>
    %int1_8239 = torch.constant.int 1
    %int1_8240 = torch.constant.int 1
    %7058 = torch.prim.ListConstruct %int1_8239, %int1_8240 : (!torch.int, !torch.int) -> !torch.list<int>
    %false_8241 = torch.constant.bool false
    %int0_8242 = torch.constant.int 0
    %int0_8243 = torch.constant.int 0
    %7059 = torch.prim.ListConstruct %int0_8242, %int0_8243 : (!torch.int, !torch.int) -> !torch.list<int>
    %int1_8244 = torch.constant.int 1
    %7060 = torch.aten.convolution %171, %7054, %7055, %7056, %7057, %7058, %false_8241, %7059, %int1_8244 : !torch.vtensor<[2,320,120,128],f16>, !torch.vtensor<[320,320,1,1],f16>, !torch.vtensor<[320],f16>, !torch.list<int>, !torch.list<int>, !torch.list<int>, !torch.bool, !torch.list<int>, !torch.int -> !torch.vtensor<[2,320,120,128],f16>
    %__auto.controlnet.controlnet_down_blocks.1.weight = util.global.load @__auto.controlnet.controlnet_down_blocks.1.weight : tensor<320x320x1x1xf16>
    %7061 = torch_c.from_builtin_tensor %__auto.controlnet.controlnet_down_blocks.1.weight : tensor<320x320x1x1xf16> -> !torch.vtensor<[320,320,1,1],f16>
    %__auto.controlnet.controlnet_down_blocks.1.bias = util.global.load @__auto.controlnet.controlnet_down_blocks.1.bias : tensor<320xf16>
    %7062 = torch_c.from_builtin_tensor %__auto.controlnet.controlnet_down_blocks.1.bias : tensor<320xf16> -> !torch.vtensor<[320],f16>
    %int1_8245 = torch.constant.int 1
    %int1_8246 = torch.constant.int 1
    %7063 = torch.prim.ListConstruct %int1_8245, %int1_8246 : (!torch.int, !torch.int) -> !torch.list<int>
    %int0_8247 = torch.constant.int 0
    %int0_8248 = torch.constant.int 0
    %7064 = torch.prim.ListConstruct %int0_8247, %int0_8248 : (!torch.int, !torch.int) -> !torch.list<int>
    %int1_8249 = torch.constant.int 1
    %int1_8250 = torch.constant.int 1
    %7065 = torch.prim.ListConstruct %int1_8249, %int1_8250 : (!torch.int, !torch.int) -> !torch.list<int>
    %false_8251 = torch.constant.bool false
    %int0_8252 = torch.constant.int 0
    %int0_8253 = torch.constant.int 0
    %7066 = torch.prim.ListConstruct %int0_8252, %int0_8253 : (!torch.int, !torch.int) -> !torch.list<int>
    %int1_8254 = torch.constant.int 1
    %7067 = torch.aten.convolution %249, %7061, %7062, %7063, %7064, %7065, %false_8251, %7066, %int1_8254 : !torch.vtensor<[2,320,120,128],f16>, !torch.vtensor<[320,320,1,1],f16>, !torch.vtensor<[320],f16>, !torch.list<int>, !torch.list<int>, !torch.list<int>, !torch.bool, !torch.list<int>, !torch.int -> !torch.vtensor<[2,320,120,128],f16>
    %__auto.controlnet.controlnet_down_blocks.2.weight = util.global.load @__auto.controlnet.controlnet_down_blocks.2.weight : tensor<320x320x1x1xf16>
    %7068 = torch_c.from_builtin_tensor %__auto.controlnet.controlnet_down_blocks.2.weight : tensor<320x320x1x1xf16> -> !torch.vtensor<[320,320,1,1],f16>
    %__auto.controlnet.controlnet_down_blocks.2.bias = util.global.load @__auto.controlnet.controlnet_down_blocks.2.bias : tensor<320xf16>
    %7069 = torch_c.from_builtin_tensor %__auto.controlnet.controlnet_down_blocks.2.bias : tensor<320xf16> -> !torch.vtensor<[320],f16>
    %int1_8255 = torch.constant.int 1
    %int1_8256 = torch.constant.int 1
    %7070 = torch.prim.ListConstruct %int1_8255, %int1_8256 : (!torch.int, !torch.int) -> !torch.list<int>
    %int0_8257 = torch.constant.int 0
    %int0_8258 = torch.constant.int 0
    %7071 = torch.prim.ListConstruct %int0_8257, %int0_8258 : (!torch.int, !torch.int) -> !torch.list<int>
    %int1_8259 = torch.constant.int 1
    %int1_8260 = torch.constant.int 1
    %7072 = torch.prim.ListConstruct %int1_8259, %int1_8260 : (!torch.int, !torch.int) -> !torch.list<int>
    %false_8261 = torch.constant.bool false
    %int0_8262 = torch.constant.int 0
    %int0_8263 = torch.constant.int 0
    %7073 = torch.prim.ListConstruct %int0_8262, %int0_8263 : (!torch.int, !torch.int) -> !torch.list<int>
    %int1_8264 = torch.constant.int 1
    %7074 = torch.aten.convolution %327, %7068, %7069, %7070, %7071, %7072, %false_8261, %7073, %int1_8264 : !torch.vtensor<[2,320,120,128],f16>, !torch.vtensor<[320,320,1,1],f16>, !torch.vtensor<[320],f16>, !torch.list<int>, !torch.list<int>, !torch.list<int>, !torch.bool, !torch.list<int>, !torch.int -> !torch.vtensor<[2,320,120,128],f16>
    %__auto.controlnet.controlnet_down_blocks.3.weight = util.global.load @__auto.controlnet.controlnet_down_blocks.3.weight : tensor<320x320x1x1xf16>
    %7075 = torch_c.from_builtin_tensor %__auto.controlnet.controlnet_down_blocks.3.weight : tensor<320x320x1x1xf16> -> !torch.vtensor<[320,320,1,1],f16>
    %__auto.controlnet.controlnet_down_blocks.3.bias = util.global.load @__auto.controlnet.controlnet_down_blocks.3.bias : tensor<320xf16>
    %7076 = torch_c.from_builtin_tensor %__auto.controlnet.controlnet_down_blocks.3.bias : tensor<320xf16> -> !torch.vtensor<[320],f16>
    %int1_8265 = torch.constant.int 1
    %int1_8266 = torch.constant.int 1
    %7077 = torch.prim.ListConstruct %int1_8265, %int1_8266 : (!torch.int, !torch.int) -> !torch.list<int>
    %int0_8267 = torch.constant.int 0
    %int0_8268 = torch.constant.int 0
    %7078 = torch.prim.ListConstruct %int0_8267, %int0_8268 : (!torch.int, !torch.int) -> !torch.list<int>
    %int1_8269 = torch.constant.int 1
    %int1_8270 = torch.constant.int 1
    %7079 = torch.prim.ListConstruct %int1_8269, %int1_8270 : (!torch.int, !torch.int) -> !torch.list<int>
    %false_8271 = torch.constant.bool false
    %int0_8272 = torch.constant.int 0
    %int0_8273 = torch.constant.int 0
    %7080 = torch.prim.ListConstruct %int0_8272, %int0_8273 : (!torch.int, !torch.int) -> !torch.list<int>
    %int1_8274 = torch.constant.int 1
    %7081 = torch.aten.convolution %334, %7075, %7076, %7077, %7078, %7079, %false_8271, %7080, %int1_8274 : !torch.vtensor<[2,320,60,64],f16>, !torch.vtensor<[320,320,1,1],f16>, !torch.vtensor<[320],f16>, !torch.list<int>, !torch.list<int>, !torch.list<int>, !torch.bool, !torch.list<int>, !torch.int -> !torch.vtensor<[2,320,60,64],f16>
    %__auto.controlnet.controlnet_down_blocks.4.weight = util.global.load @__auto.controlnet.controlnet_down_blocks.4.weight : tensor<640x640x1x1xf16>
    %7082 = torch_c.from_builtin_tensor %__auto.controlnet.controlnet_down_blocks.4.weight : tensor<640x640x1x1xf16> -> !torch.vtensor<[640,640,1,1],f16>
    %__auto.controlnet.controlnet_down_blocks.4.bias = util.global.load @__auto.controlnet.controlnet_down_blocks.4.bias : tensor<640xf16>
    %7083 = torch_c.from_builtin_tensor %__auto.controlnet.controlnet_down_blocks.4.bias : tensor<640xf16> -> !torch.vtensor<[640],f16>
    %int1_8275 = torch.constant.int 1
    %int1_8276 = torch.constant.int 1
    %7084 = torch.prim.ListConstruct %int1_8275, %int1_8276 : (!torch.int, !torch.int) -> !torch.list<int>
    %int0_8277 = torch.constant.int 0
    %int0_8278 = torch.constant.int 0
    %7085 = torch.prim.ListConstruct %int0_8277, %int0_8278 : (!torch.int, !torch.int) -> !torch.list<int>
    %int1_8279 = torch.constant.int 1
    %int1_8280 = torch.constant.int 1
    %7086 = torch.prim.ListConstruct %int1_8279, %int1_8280 : (!torch.int, !torch.int) -> !torch.list<int>
    %false_8281 = torch.constant.bool false
    %int0_8282 = torch.constant.int 0
    %int0_8283 = torch.constant.int 0
    %7087 = torch.prim.ListConstruct %int0_8282, %int0_8283 : (!torch.int, !torch.int) -> !torch.list<int>
    %int1_8284 = torch.constant.int 1
    %7088 = torch.aten.convolution %825, %7082, %7083, %7084, %7085, %7086, %false_8281, %7087, %int1_8284 : !torch.vtensor<[2,640,60,64],f16>, !torch.vtensor<[640,640,1,1],f16>, !torch.vtensor<[640],f16>, !torch.list<int>, !torch.list<int>, !torch.list<int>, !torch.bool, !torch.list<int>, !torch.int -> !torch.vtensor<[2,640,60,64],f16>
    %__auto.controlnet.controlnet_down_blocks.5.weight = util.global.load @__auto.controlnet.controlnet_down_blocks.5.weight : tensor<640x640x1x1xf16>
    %7089 = torch_c.from_builtin_tensor %__auto.controlnet.controlnet_down_blocks.5.weight : tensor<640x640x1x1xf16> -> !torch.vtensor<[640,640,1,1],f16>
    %__auto.controlnet.controlnet_down_blocks.5.bias = util.global.load @__auto.controlnet.controlnet_down_blocks.5.bias : tensor<640xf16>
    %7090 = torch_c.from_builtin_tensor %__auto.controlnet.controlnet_down_blocks.5.bias : tensor<640xf16> -> !torch.vtensor<[640],f16>
    %int1_8285 = torch.constant.int 1
    %int1_8286 = torch.constant.int 1
    %7091 = torch.prim.ListConstruct %int1_8285, %int1_8286 : (!torch.int, !torch.int) -> !torch.list<int>
    %int0_8287 = torch.constant.int 0
    %int0_8288 = torch.constant.int 0
    %7092 = torch.prim.ListConstruct %int0_8287, %int0_8288 : (!torch.int, !torch.int) -> !torch.list<int>
    %int1_8289 = torch.constant.int 1
    %int1_8290 = torch.constant.int 1
    %7093 = torch.prim.ListConstruct %int1_8289, %int1_8290 : (!torch.int, !torch.int) -> !torch.list<int>
    %false_8291 = torch.constant.bool false
    %int0_8292 = torch.constant.int 0
    %int0_8293 = torch.constant.int 0
    %7094 = torch.prim.ListConstruct %int0_8292, %int0_8293 : (!torch.int, !torch.int) -> !torch.list<int>
    %int1_8294 = torch.constant.int 1
    %7095 = torch.aten.convolution %1309, %7089, %7090, %7091, %7092, %7093, %false_8291, %7094, %int1_8294 : !torch.vtensor<[2,640,60,64],f16>, !torch.vtensor<[640,640,1,1],f16>, !torch.vtensor<[640],f16>, !torch.list<int>, !torch.list<int>, !torch.list<int>, !torch.bool, !torch.list<int>, !torch.int -> !torch.vtensor<[2,640,60,64],f16>
    %__auto.controlnet.controlnet_down_blocks.6.weight = util.global.load @__auto.controlnet.controlnet_down_blocks.6.weight : tensor<640x640x1x1xf16>
    %7096 = torch_c.from_builtin_tensor %__auto.controlnet.controlnet_down_blocks.6.weight : tensor<640x640x1x1xf16> -> !torch.vtensor<[640,640,1,1],f16>
    %__auto.controlnet.controlnet_down_blocks.6.bias = util.global.load @__auto.controlnet.controlnet_down_blocks.6.bias : tensor<640xf16>
    %7097 = torch_c.from_builtin_tensor %__auto.controlnet.controlnet_down_blocks.6.bias : tensor<640xf16> -> !torch.vtensor<[640],f16>
    %int1_8295 = torch.constant.int 1
    %int1_8296 = torch.constant.int 1
    %7098 = torch.prim.ListConstruct %int1_8295, %int1_8296 : (!torch.int, !torch.int) -> !torch.list<int>
    %int0_8297 = torch.constant.int 0
    %int0_8298 = torch.constant.int 0
    %7099 = torch.prim.ListConstruct %int0_8297, %int0_8298 : (!torch.int, !torch.int) -> !torch.list<int>
    %int1_8299 = torch.constant.int 1
    %int1_8300 = torch.constant.int 1
    %7100 = torch.prim.ListConstruct %int1_8299, %int1_8300 : (!torch.int, !torch.int) -> !torch.list<int>
    %false_8301 = torch.constant.bool false
    %int0_8302 = torch.constant.int 0
    %int0_8303 = torch.constant.int 0
    %7101 = torch.prim.ListConstruct %int0_8302, %int0_8303 : (!torch.int, !torch.int) -> !torch.list<int>
    %int1_8304 = torch.constant.int 1
    %7102 = torch.aten.convolution %1316, %7096, %7097, %7098, %7099, %7100, %false_8301, %7101, %int1_8304 : !torch.vtensor<[2,640,30,32],f16>, !torch.vtensor<[640,640,1,1],f16>, !torch.vtensor<[640],f16>, !torch.list<int>, !torch.list<int>, !torch.list<int>, !torch.bool, !torch.list<int>, !torch.int -> !torch.vtensor<[2,640,30,32],f16>
    %__auto.controlnet.controlnet_down_blocks.7.weight = util.global.load @__auto.controlnet.controlnet_down_blocks.7.weight : tensor<1280x1280x1x1xf16>
    %7103 = torch_c.from_builtin_tensor %__auto.controlnet.controlnet_down_blocks.7.weight : tensor<1280x1280x1x1xf16> -> !torch.vtensor<[1280,1280,1,1],f16>
    %__auto.controlnet.controlnet_down_blocks.7.bias = util.global.load @__auto.controlnet.controlnet_down_blocks.7.bias : tensor<1280xf16>
    %7104 = torch_c.from_builtin_tensor %__auto.controlnet.controlnet_down_blocks.7.bias : tensor<1280xf16> -> !torch.vtensor<[1280],f16>
    %int1_8305 = torch.constant.int 1
    %int1_8306 = torch.constant.int 1
    %7105 = torch.prim.ListConstruct %int1_8305, %int1_8306 : (!torch.int, !torch.int) -> !torch.list<int>
    %int0_8307 = torch.constant.int 0
    %int0_8308 = torch.constant.int 0
    %7106 = torch.prim.ListConstruct %int0_8307, %int0_8308 : (!torch.int, !torch.int) -> !torch.list<int>
    %int1_8309 = torch.constant.int 1
    %int1_8310 = torch.constant.int 1
    %7107 = torch.prim.ListConstruct %int1_8309, %int1_8310 : (!torch.int, !torch.int) -> !torch.list<int>
    %false_8311 = torch.constant.bool false
    %int0_8312 = torch.constant.int 0
    %int0_8313 = torch.constant.int 0
    %7108 = torch.prim.ListConstruct %int0_8312, %int0_8313 : (!torch.int, !torch.int) -> !torch.list<int>
    %int1_8314 = torch.constant.int 1
    %7109 = torch.aten.convolution %3207, %7103, %7104, %7105, %7106, %7107, %false_8311, %7108, %int1_8314 : !torch.vtensor<[2,1280,30,32],f16>, !torch.vtensor<[1280,1280,1,1],f16>, !torch.vtensor<[1280],f16>, !torch.list<int>, !torch.list<int>, !torch.list<int>, !torch.bool, !torch.list<int>, !torch.int -> !torch.vtensor<[2,1280,30,32],f16>
    %__auto.controlnet.controlnet_down_blocks.8.weight = util.global.load @__auto.controlnet.controlnet_down_blocks.8.weight : tensor<1280x1280x1x1xf16>
    %7110 = torch_c.from_builtin_tensor %__auto.controlnet.controlnet_down_blocks.8.weight : tensor<1280x1280x1x1xf16> -> !torch.vtensor<[1280,1280,1,1],f16>
    %__auto.controlnet.controlnet_down_blocks.8.bias = util.global.load @__auto.controlnet.controlnet_down_blocks.8.bias : tensor<1280xf16>
    %7111 = torch_c.from_builtin_tensor %__auto.controlnet.controlnet_down_blocks.8.bias : tensor<1280xf16> -> !torch.vtensor<[1280],f16>
    %int1_8315 = torch.constant.int 1
    %int1_8316 = torch.constant.int 1
    %7112 = torch.prim.ListConstruct %int1_8315, %int1_8316 : (!torch.int, !torch.int) -> !torch.list<int>
    %int0_8317 = torch.constant.int 0
    %int0_8318 = torch.constant.int 0
    %7113 = torch.prim.ListConstruct %int0_8317, %int0_8318 : (!torch.int, !torch.int) -> !torch.list<int>
    %int1_8319 = torch.constant.int 1
    %int1_8320 = torch.constant.int 1
    %7114 = torch.prim.ListConstruct %int1_8319, %int1_8320 : (!torch.int, !torch.int) -> !torch.list<int>
    %false_8321 = torch.constant.bool false
    %int0_8322 = torch.constant.int 0
    %int0_8323 = torch.constant.int 0
    %7115 = torch.prim.ListConstruct %int0_8322, %int0_8323 : (!torch.int, !torch.int) -> !torch.list<int>
    %int1_8324 = torch.constant.int 1
    %7116 = torch.aten.convolution %5091, %7110, %7111, %7112, %7113, %7114, %false_8321, %7115, %int1_8324 : !torch.vtensor<[2,1280,30,32],f16>, !torch.vtensor<[1280,1280,1,1],f16>, !torch.vtensor<[1280],f16>, !torch.list<int>, !torch.list<int>, !torch.list<int>, !torch.bool, !torch.list<int>, !torch.int -> !torch.vtensor<[2,1280,30,32],f16>
    %__auto.controlnet.controlnet_mid_block.weight = util.global.load @__auto.controlnet.controlnet_mid_block.weight : tensor<1280x1280x1x1xf16>
    %7117 = torch_c.from_builtin_tensor %__auto.controlnet.controlnet_mid_block.weight : tensor<1280x1280x1x1xf16> -> !torch.vtensor<[1280,1280,1,1],f16>
    %__auto.controlnet.controlnet_mid_block.bias = util.global.load @__auto.controlnet.controlnet_mid_block.bias : tensor<1280xf16>
    %7118 = torch_c.from_builtin_tensor %__auto.controlnet.controlnet_mid_block.bias : tensor<1280xf16> -> !torch.vtensor<[1280],f16>
    %int1_8325 = torch.constant.int 1
    %int1_8326 = torch.constant.int 1
    %7119 = torch.prim.ListConstruct %int1_8325, %int1_8326 : (!torch.int, !torch.int) -> !torch.list<int>
    %int0_8327 = torch.constant.int 0
    %int0_8328 = torch.constant.int 0
    %7120 = torch.prim.ListConstruct %int0_8327, %int0_8328 : (!torch.int, !torch.int) -> !torch.list<int>
    %int1_8329 = torch.constant.int 1
    %int1_8330 = torch.constant.int 1
    %7121 = torch.prim.ListConstruct %int1_8329, %int1_8330 : (!torch.int, !torch.int) -> !torch.list<int>
    %false_8331 = torch.constant.bool false
    %int0_8332 = torch.constant.int 0
    %int0_8333 = torch.constant.int 0
    %7122 = torch.prim.ListConstruct %int0_8332, %int0_8333 : (!torch.int, !torch.int) -> !torch.list<int>
    %int1_8334 = torch.constant.int 1
    %7123 = torch.aten.convolution %7053, %7117, %7118, %7119, %7120, %7121, %false_8331, %7122, %int1_8334 : !torch.vtensor<[2,1280,30,32],f16>, !torch.vtensor<[1280,1280,1,1],f16>, !torch.vtensor<[1280],f16>, !torch.list<int>, !torch.list<int>, !torch.list<int>, !torch.bool, !torch.list<int>, !torch.int -> !torch.vtensor<[2,1280,30,32],f16>
    %7124 = torch.aten.mul.Tensor %7060, %arg7 : !torch.vtensor<[2,320,120,128],f16>, !torch.vtensor<[1],f16> -> !torch.vtensor<[2,320,120,128],f16>
    %7125 = torch.aten.mul.Tensor %7067, %arg7 : !torch.vtensor<[2,320,120,128],f16>, !torch.vtensor<[1],f16> -> !torch.vtensor<[2,320,120,128],f16>
    %7126 = torch.aten.mul.Tensor %7074, %arg7 : !torch.vtensor<[2,320,120,128],f16>, !torch.vtensor<[1],f16> -> !torch.vtensor<[2,320,120,128],f16>
    %7127 = torch.aten.mul.Tensor %7081, %arg7 : !torch.vtensor<[2,320,60,64],f16>, !torch.vtensor<[1],f16> -> !torch.vtensor<[2,320,60,64],f16>
    %7128 = torch.aten.mul.Tensor %7088, %arg7 : !torch.vtensor<[2,640,60,64],f16>, !torch.vtensor<[1],f16> -> !torch.vtensor<[2,640,60,64],f16>
    %7129 = torch.aten.mul.Tensor %7095, %arg7 : !torch.vtensor<[2,640,60,64],f16>, !torch.vtensor<[1],f16> -> !torch.vtensor<[2,640,60,64],f16>
    %7130 = torch.aten.mul.Tensor %7102, %arg7 : !torch.vtensor<[2,640,30,32],f16>, !torch.vtensor<[1],f16> -> !torch.vtensor<[2,640,30,32],f16>
    %7131 = torch.aten.mul.Tensor %7109, %arg7 : !torch.vtensor<[2,1280,30,32],f16>, !torch.vtensor<[1],f16> -> !torch.vtensor<[2,1280,30,32],f16>
    %7132 = torch.aten.mul.Tensor %7116, %arg7 : !torch.vtensor<[2,1280,30,32],f16>, !torch.vtensor<[1],f16> -> !torch.vtensor<[2,1280,30,32],f16>
    %7133 = torch.aten.mul.Tensor %7123, %arg7 : !torch.vtensor<[2,1280,30,32],f16>, !torch.vtensor<[1],f16> -> !torch.vtensor<[2,1280,30,32],f16>
    return %7124, %7125, %7126, %7127, %7128, %7129, %7130, %7131, %7132, %7133 : !torch.vtensor<[2,320,120,128],f16>, !torch.vtensor<[2,320,120,128],f16>, !torch.vtensor<[2,320,120,128],f16>, !torch.vtensor<[2,320,60,64],f16>, !torch.vtensor<[2,640,60,64],f16>, !torch.vtensor<[2,640,60,64],f16>, !torch.vtensor<[2,640,30,32],f16>, !torch.vtensor<[2,1280,30,32],f16>, !torch.vtensor<[2,1280,30,32],f16>, !torch.vtensor<[2,1280,30,32],f16>
  }
}
