module @compiled_unet {
  util.global private @__auto.unet.time_embedding.linear_1.weight = #stream.parameter.named<"model"::"unet.time_embedding.linear_1.weight"> : tensor<1280x320xf16>
  util.global private @__auto.unet.time_embedding.linear_1.bias = #stream.parameter.named<"model"::"unet.time_embedding.linear_1.bias"> : tensor<1280xf16>
  util.global private @__auto.unet.time_embedding.linear_2.weight = #stream.parameter.named<"model"::"unet.time_embedding.linear_2.weight"> : tensor<1280x1280xf16>
  util.global private @__auto.unet.time_embedding.linear_2.bias = #stream.parameter.named<"model"::"unet.time_embedding.linear_2.bias"> : tensor<1280xf16>
  util.global private @__auto.unet.add_embedding.linear_1.weight = #stream.parameter.named<"model"::"unet.add_embedding.linear_1.weight"> : tensor<1280x2816xf16>
  util.global private @__auto.unet.add_embedding.linear_1.bias = #stream.parameter.named<"model"::"unet.add_embedding.linear_1.bias"> : tensor<1280xf16>
  util.global private @__auto.unet.add_embedding.linear_2.weight = #stream.parameter.named<"model"::"unet.add_embedding.linear_2.weight"> : tensor<1280x1280xf16>
  util.global private @__auto.unet.add_embedding.linear_2.bias = #stream.parameter.named<"model"::"unet.add_embedding.linear_2.bias"> : tensor<1280xf16>
  util.global private @__auto.unet.conv_in.weight = #stream.parameter.named<"model"::"unet.conv_in.weight"> : tensor<320x4x3x3xf16>
  util.global private @__auto.unet.conv_in.bias = #stream.parameter.named<"model"::"unet.conv_in.bias"> : tensor<320xf16>
  util.global private @__auto.unet.down_blocks.0.resnets.0.norm1.bias = #stream.parameter.named<"model"::"unet.down_blocks.0.resnets.0.norm1.bias"> : tensor<320xf16>
  util.global private @__auto.unet.down_blocks.0.resnets.0.norm1.weight = #stream.parameter.named<"model"::"unet.down_blocks.0.resnets.0.norm1.weight"> : tensor<320xf16>
  util.global private @__auto.unet.down_blocks.0.resnets.0.conv1.weight = #stream.parameter.named<"model"::"unet.down_blocks.0.resnets.0.conv1.weight"> : tensor<320x320x3x3xf16>
  util.global private @__auto.unet.down_blocks.0.resnets.0.conv1.bias = #stream.parameter.named<"model"::"unet.down_blocks.0.resnets.0.conv1.bias"> : tensor<320xf16>
  util.global private @__auto.unet.down_blocks.0.resnets.0.time_emb_proj.weight = #stream.parameter.named<"model"::"unet.down_blocks.0.resnets.0.time_emb_proj.weight"> : tensor<320x1280xf16>
  util.global private @__auto.unet.down_blocks.0.resnets.0.time_emb_proj.bias = #stream.parameter.named<"model"::"unet.down_blocks.0.resnets.0.time_emb_proj.bias"> : tensor<320xf16>
  util.global private @__auto.unet.down_blocks.0.resnets.0.norm2.bias = #stream.parameter.named<"model"::"unet.down_blocks.0.resnets.0.norm2.bias"> : tensor<320xf16>
  util.global private @__auto.unet.down_blocks.0.resnets.0.norm2.weight = #stream.parameter.named<"model"::"unet.down_blocks.0.resnets.0.norm2.weight"> : tensor<320xf16>
  util.global private @__auto.unet.down_blocks.0.resnets.0.conv2.weight = #stream.parameter.named<"model"::"unet.down_blocks.0.resnets.0.conv2.weight"> : tensor<320x320x3x3xf16>
  util.global private @__auto.unet.down_blocks.0.resnets.0.conv2.bias = #stream.parameter.named<"model"::"unet.down_blocks.0.resnets.0.conv2.bias"> : tensor<320xf16>
  util.global private @__auto.unet.down_blocks.0.resnets.1.norm1.bias = #stream.parameter.named<"model"::"unet.down_blocks.0.resnets.1.norm1.bias"> : tensor<320xf16>
  util.global private @__auto.unet.down_blocks.0.resnets.1.norm1.weight = #stream.parameter.named<"model"::"unet.down_blocks.0.resnets.1.norm1.weight"> : tensor<320xf16>
  util.global private @__auto.unet.down_blocks.0.resnets.1.conv1.weight = #stream.parameter.named<"model"::"unet.down_blocks.0.resnets.1.conv1.weight"> : tensor<320x320x3x3xf16>
  util.global private @__auto.unet.down_blocks.0.resnets.1.conv1.bias = #stream.parameter.named<"model"::"unet.down_blocks.0.resnets.1.conv1.bias"> : tensor<320xf16>
  util.global private @__auto.unet.down_blocks.0.resnets.1.time_emb_proj.weight = #stream.parameter.named<"model"::"unet.down_blocks.0.resnets.1.time_emb_proj.weight"> : tensor<320x1280xf16>
  util.global private @__auto.unet.down_blocks.0.resnets.1.time_emb_proj.bias = #stream.parameter.named<"model"::"unet.down_blocks.0.resnets.1.time_emb_proj.bias"> : tensor<320xf16>
  util.global private @__auto.unet.down_blocks.0.resnets.1.norm2.bias = #stream.parameter.named<"model"::"unet.down_blocks.0.resnets.1.norm2.bias"> : tensor<320xf16>
  util.global private @__auto.unet.down_blocks.0.resnets.1.norm2.weight = #stream.parameter.named<"model"::"unet.down_blocks.0.resnets.1.norm2.weight"> : tensor<320xf16>
  util.global private @__auto.unet.down_blocks.0.resnets.1.conv2.weight = #stream.parameter.named<"model"::"unet.down_blocks.0.resnets.1.conv2.weight"> : tensor<320x320x3x3xf16>
  util.global private @__auto.unet.down_blocks.0.resnets.1.conv2.bias = #stream.parameter.named<"model"::"unet.down_blocks.0.resnets.1.conv2.bias"> : tensor<320xf16>
  util.global private @__auto.unet.down_blocks.0.downsamplers.0.conv.weight = #stream.parameter.named<"model"::"unet.down_blocks.0.downsamplers.0.conv.weight"> : tensor<320x320x3x3xf16>
  util.global private @__auto.unet.down_blocks.0.downsamplers.0.conv.bias = #stream.parameter.named<"model"::"unet.down_blocks.0.downsamplers.0.conv.bias"> : tensor<320xf16>
  util.global private @__auto.unet.down_blocks.1.resnets.0.norm1.bias = #stream.parameter.named<"model"::"unet.down_blocks.1.resnets.0.norm1.bias"> : tensor<320xf16>
  util.global private @__auto.unet.down_blocks.1.resnets.0.norm1.weight = #stream.parameter.named<"model"::"unet.down_blocks.1.resnets.0.norm1.weight"> : tensor<320xf16>
  util.global private @__auto.unet.down_blocks.1.resnets.0.conv1.weight = #stream.parameter.named<"model"::"unet.down_blocks.1.resnets.0.conv1.weight"> : tensor<640x320x3x3xf16>
  util.global private @__auto.unet.down_blocks.1.resnets.0.conv1.bias = #stream.parameter.named<"model"::"unet.down_blocks.1.resnets.0.conv1.bias"> : tensor<640xf16>
  util.global private @__auto.unet.down_blocks.1.resnets.0.time_emb_proj.weight = #stream.parameter.named<"model"::"unet.down_blocks.1.resnets.0.time_emb_proj.weight"> : tensor<640x1280xf16>
  util.global private @__auto.unet.down_blocks.1.resnets.0.time_emb_proj.bias = #stream.parameter.named<"model"::"unet.down_blocks.1.resnets.0.time_emb_proj.bias"> : tensor<640xf16>
  util.global private @__auto.unet.down_blocks.1.resnets.0.norm2.bias = #stream.parameter.named<"model"::"unet.down_blocks.1.resnets.0.norm2.bias"> : tensor<640xf16>
  util.global private @__auto.unet.down_blocks.1.resnets.0.norm2.weight = #stream.parameter.named<"model"::"unet.down_blocks.1.resnets.0.norm2.weight"> : tensor<640xf16>
  util.global private @__auto.unet.down_blocks.1.resnets.0.conv2.weight = #stream.parameter.named<"model"::"unet.down_blocks.1.resnets.0.conv2.weight"> : tensor<640x640x3x3xf16>
  util.global private @__auto.unet.down_blocks.1.resnets.0.conv2.bias = #stream.parameter.named<"model"::"unet.down_blocks.1.resnets.0.conv2.bias"> : tensor<640xf16>
  util.global private @__auto.unet.down_blocks.1.resnets.0.conv_shortcut.weight = #stream.parameter.named<"model"::"unet.down_blocks.1.resnets.0.conv_shortcut.weight"> : tensor<640x320x1x1xf16>
  util.global private @__auto.unet.down_blocks.1.resnets.0.conv_shortcut.bias = #stream.parameter.named<"model"::"unet.down_blocks.1.resnets.0.conv_shortcut.bias"> : tensor<640xf16>
  util.global private @__auto.unet.down_blocks.1.attentions.0.norm.bias = #stream.parameter.named<"model"::"unet.down_blocks.1.attentions.0.norm.bias"> : tensor<640xf16>
  util.global private @__auto.unet.down_blocks.1.attentions.0.norm.weight = #stream.parameter.named<"model"::"unet.down_blocks.1.attentions.0.norm.weight"> : tensor<640xf16>
  util.global private @__auto.unet.down_blocks.1.attentions.0.proj_in.weight = #stream.parameter.named<"model"::"unet.down_blocks.1.attentions.0.proj_in.weight"> : tensor<640x640xf16>
  util.global private @__auto.unet.down_blocks.1.attentions.0.proj_in.bias = #stream.parameter.named<"model"::"unet.down_blocks.1.attentions.0.proj_in.bias"> : tensor<640xf16>
  util.global private @__auto.unet.down_blocks.1.attentions.0.transformer_blocks.0.norm1.weight = #stream.parameter.named<"model"::"unet.down_blocks.1.attentions.0.transformer_blocks.0.norm1.weight"> : tensor<640xf16>
  util.global private @__auto.unet.down_blocks.1.attentions.0.transformer_blocks.0.norm1.bias = #stream.parameter.named<"model"::"unet.down_blocks.1.attentions.0.transformer_blocks.0.norm1.bias"> : tensor<640xf16>
  util.global private @__auto.unet.down_blocks.1.attentions.0.transformer_blocks.0.attn1.to_q.weight = #stream.parameter.named<"model"::"unet.down_blocks.1.attentions.0.transformer_blocks.0.attn1.to_q.weight"> : tensor<640x640xf16>
  util.global private @__auto.unet.down_blocks.1.attentions.0.transformer_blocks.0.attn1.to_k.weight = #stream.parameter.named<"model"::"unet.down_blocks.1.attentions.0.transformer_blocks.0.attn1.to_k.weight"> : tensor<640x640xf16>
  util.global private @__auto.unet.down_blocks.1.attentions.0.transformer_blocks.0.attn1.to_v.weight = #stream.parameter.named<"model"::"unet.down_blocks.1.attentions.0.transformer_blocks.0.attn1.to_v.weight"> : tensor<640x640xf16>
  util.global private @__auto.unet.down_blocks.1.attentions.0.transformer_blocks.0.attn1.to_out.0.weight = #stream.parameter.named<"model"::"unet.down_blocks.1.attentions.0.transformer_blocks.0.attn1.to_out.0.weight"> : tensor<640x640xf16>
  util.global private @__auto.unet.down_blocks.1.attentions.0.transformer_blocks.0.attn1.to_out.0.bias = #stream.parameter.named<"model"::"unet.down_blocks.1.attentions.0.transformer_blocks.0.attn1.to_out.0.bias"> : tensor<640xf16>
  util.global private @__auto.unet.down_blocks.1.attentions.0.transformer_blocks.0.norm2.weight = #stream.parameter.named<"model"::"unet.down_blocks.1.attentions.0.transformer_blocks.0.norm2.weight"> : tensor<640xf16>
  util.global private @__auto.unet.down_blocks.1.attentions.0.transformer_blocks.0.norm2.bias = #stream.parameter.named<"model"::"unet.down_blocks.1.attentions.0.transformer_blocks.0.norm2.bias"> : tensor<640xf16>
  util.global private @__auto.unet.down_blocks.1.attentions.0.transformer_blocks.0.attn2.to_q.weight = #stream.parameter.named<"model"::"unet.down_blocks.1.attentions.0.transformer_blocks.0.attn2.to_q.weight"> : tensor<640x640xf16>
  util.global private @__auto.unet.down_blocks.1.attentions.0.transformer_blocks.0.attn2.to_k.weight = #stream.parameter.named<"model"::"unet.down_blocks.1.attentions.0.transformer_blocks.0.attn2.to_k.weight"> : tensor<640x2048xf16>
  util.global private @__auto.unet.down_blocks.1.attentions.0.transformer_blocks.0.attn2.to_v.weight = #stream.parameter.named<"model"::"unet.down_blocks.1.attentions.0.transformer_blocks.0.attn2.to_v.weight"> : tensor<640x2048xf16>
  util.global private @__auto.unet.down_blocks.1.attentions.0.transformer_blocks.0.attn2.to_out.0.weight = #stream.parameter.named<"model"::"unet.down_blocks.1.attentions.0.transformer_blocks.0.attn2.to_out.0.weight"> : tensor<640x640xf16>
  util.global private @__auto.unet.down_blocks.1.attentions.0.transformer_blocks.0.attn2.to_out.0.bias = #stream.parameter.named<"model"::"unet.down_blocks.1.attentions.0.transformer_blocks.0.attn2.to_out.0.bias"> : tensor<640xf16>
  util.global private @__auto.unet.down_blocks.1.attentions.0.transformer_blocks.0.norm3.weight = #stream.parameter.named<"model"::"unet.down_blocks.1.attentions.0.transformer_blocks.0.norm3.weight"> : tensor<640xf16>
  util.global private @__auto.unet.down_blocks.1.attentions.0.transformer_blocks.0.norm3.bias = #stream.parameter.named<"model"::"unet.down_blocks.1.attentions.0.transformer_blocks.0.norm3.bias"> : tensor<640xf16>
  util.global private @__auto.unet.down_blocks.1.attentions.0.transformer_blocks.0.ff.net.0.proj.weight = #stream.parameter.named<"model"::"unet.down_blocks.1.attentions.0.transformer_blocks.0.ff.net.0.proj.weight"> : tensor<5120x640xf16>
  util.global private @__auto.unet.down_blocks.1.attentions.0.transformer_blocks.0.ff.net.0.proj.bias = #stream.parameter.named<"model"::"unet.down_blocks.1.attentions.0.transformer_blocks.0.ff.net.0.proj.bias"> : tensor<5120xf16>
  util.global private @__auto.unet.down_blocks.1.attentions.0.transformer_blocks.0.ff.net.2.weight = #stream.parameter.named<"model"::"unet.down_blocks.1.attentions.0.transformer_blocks.0.ff.net.2.weight"> : tensor<640x2560xf16>
  util.global private @__auto.unet.down_blocks.1.attentions.0.transformer_blocks.0.ff.net.2.bias = #stream.parameter.named<"model"::"unet.down_blocks.1.attentions.0.transformer_blocks.0.ff.net.2.bias"> : tensor<640xf16>
  util.global private @__auto.unet.down_blocks.1.attentions.0.transformer_blocks.1.norm1.weight = #stream.parameter.named<"model"::"unet.down_blocks.1.attentions.0.transformer_blocks.1.norm1.weight"> : tensor<640xf16>
  util.global private @__auto.unet.down_blocks.1.attentions.0.transformer_blocks.1.norm1.bias = #stream.parameter.named<"model"::"unet.down_blocks.1.attentions.0.transformer_blocks.1.norm1.bias"> : tensor<640xf16>
  util.global private @__auto.unet.down_blocks.1.attentions.0.transformer_blocks.1.attn1.to_q.weight = #stream.parameter.named<"model"::"unet.down_blocks.1.attentions.0.transformer_blocks.1.attn1.to_q.weight"> : tensor<640x640xf16>
  util.global private @__auto.unet.down_blocks.1.attentions.0.transformer_blocks.1.attn1.to_k.weight = #stream.parameter.named<"model"::"unet.down_blocks.1.attentions.0.transformer_blocks.1.attn1.to_k.weight"> : tensor<640x640xf16>
  util.global private @__auto.unet.down_blocks.1.attentions.0.transformer_blocks.1.attn1.to_v.weight = #stream.parameter.named<"model"::"unet.down_blocks.1.attentions.0.transformer_blocks.1.attn1.to_v.weight"> : tensor<640x640xf16>
  util.global private @__auto.unet.down_blocks.1.attentions.0.transformer_blocks.1.attn1.to_out.0.weight = #stream.parameter.named<"model"::"unet.down_blocks.1.attentions.0.transformer_blocks.1.attn1.to_out.0.weight"> : tensor<640x640xf16>
  util.global private @__auto.unet.down_blocks.1.attentions.0.transformer_blocks.1.attn1.to_out.0.bias = #stream.parameter.named<"model"::"unet.down_blocks.1.attentions.0.transformer_blocks.1.attn1.to_out.0.bias"> : tensor<640xf16>
  util.global private @__auto.unet.down_blocks.1.attentions.0.transformer_blocks.1.norm2.weight = #stream.parameter.named<"model"::"unet.down_blocks.1.attentions.0.transformer_blocks.1.norm2.weight"> : tensor<640xf16>
  util.global private @__auto.unet.down_blocks.1.attentions.0.transformer_blocks.1.norm2.bias = #stream.parameter.named<"model"::"unet.down_blocks.1.attentions.0.transformer_blocks.1.norm2.bias"> : tensor<640xf16>
  util.global private @__auto.unet.down_blocks.1.attentions.0.transformer_blocks.1.attn2.to_q.weight = #stream.parameter.named<"model"::"unet.down_blocks.1.attentions.0.transformer_blocks.1.attn2.to_q.weight"> : tensor<640x640xf16>
  util.global private @__auto.unet.down_blocks.1.attentions.0.transformer_blocks.1.attn2.to_k.weight = #stream.parameter.named<"model"::"unet.down_blocks.1.attentions.0.transformer_blocks.1.attn2.to_k.weight"> : tensor<640x2048xf16>
  util.global private @__auto.unet.down_blocks.1.attentions.0.transformer_blocks.1.attn2.to_v.weight = #stream.parameter.named<"model"::"unet.down_blocks.1.attentions.0.transformer_blocks.1.attn2.to_v.weight"> : tensor<640x2048xf16>
  util.global private @__auto.unet.down_blocks.1.attentions.0.transformer_blocks.1.attn2.to_out.0.weight = #stream.parameter.named<"model"::"unet.down_blocks.1.attentions.0.transformer_blocks.1.attn2.to_out.0.weight"> : tensor<640x640xf16>
  util.global private @__auto.unet.down_blocks.1.attentions.0.transformer_blocks.1.attn2.to_out.0.bias = #stream.parameter.named<"model"::"unet.down_blocks.1.attentions.0.transformer_blocks.1.attn2.to_out.0.bias"> : tensor<640xf16>
  util.global private @__auto.unet.down_blocks.1.attentions.0.transformer_blocks.1.norm3.weight = #stream.parameter.named<"model"::"unet.down_blocks.1.attentions.0.transformer_blocks.1.norm3.weight"> : tensor<640xf16>
  util.global private @__auto.unet.down_blocks.1.attentions.0.transformer_blocks.1.norm3.bias = #stream.parameter.named<"model"::"unet.down_blocks.1.attentions.0.transformer_blocks.1.norm3.bias"> : tensor<640xf16>
  util.global private @__auto.unet.down_blocks.1.attentions.0.transformer_blocks.1.ff.net.0.proj.weight = #stream.parameter.named<"model"::"unet.down_blocks.1.attentions.0.transformer_blocks.1.ff.net.0.proj.weight"> : tensor<5120x640xf16>
  util.global private @__auto.unet.down_blocks.1.attentions.0.transformer_blocks.1.ff.net.0.proj.bias = #stream.parameter.named<"model"::"unet.down_blocks.1.attentions.0.transformer_blocks.1.ff.net.0.proj.bias"> : tensor<5120xf16>
  util.global private @__auto.unet.down_blocks.1.attentions.0.transformer_blocks.1.ff.net.2.weight = #stream.parameter.named<"model"::"unet.down_blocks.1.attentions.0.transformer_blocks.1.ff.net.2.weight"> : tensor<640x2560xf16>
  util.global private @__auto.unet.down_blocks.1.attentions.0.transformer_blocks.1.ff.net.2.bias = #stream.parameter.named<"model"::"unet.down_blocks.1.attentions.0.transformer_blocks.1.ff.net.2.bias"> : tensor<640xf16>
  util.global private @__auto.unet.down_blocks.1.attentions.0.proj_out.weight = #stream.parameter.named<"model"::"unet.down_blocks.1.attentions.0.proj_out.weight"> : tensor<640x640xf16>
  util.global private @__auto.unet.down_blocks.1.attentions.0.proj_out.bias = #stream.parameter.named<"model"::"unet.down_blocks.1.attentions.0.proj_out.bias"> : tensor<640xf16>
  util.global private @__auto.unet.down_blocks.1.resnets.1.norm1.bias = #stream.parameter.named<"model"::"unet.down_blocks.1.resnets.1.norm1.bias"> : tensor<640xf16>
  util.global private @__auto.unet.down_blocks.1.resnets.1.norm1.weight = #stream.parameter.named<"model"::"unet.down_blocks.1.resnets.1.norm1.weight"> : tensor<640xf16>
  util.global private @__auto.unet.down_blocks.1.resnets.1.conv1.weight = #stream.parameter.named<"model"::"unet.down_blocks.1.resnets.1.conv1.weight"> : tensor<640x640x3x3xf16>
  util.global private @__auto.unet.down_blocks.1.resnets.1.conv1.bias = #stream.parameter.named<"model"::"unet.down_blocks.1.resnets.1.conv1.bias"> : tensor<640xf16>
  util.global private @__auto.unet.down_blocks.1.resnets.1.time_emb_proj.weight = #stream.parameter.named<"model"::"unet.down_blocks.1.resnets.1.time_emb_proj.weight"> : tensor<640x1280xf16>
  util.global private @__auto.unet.down_blocks.1.resnets.1.time_emb_proj.bias = #stream.parameter.named<"model"::"unet.down_blocks.1.resnets.1.time_emb_proj.bias"> : tensor<640xf16>
  util.global private @__auto.unet.down_blocks.1.resnets.1.norm2.bias = #stream.parameter.named<"model"::"unet.down_blocks.1.resnets.1.norm2.bias"> : tensor<640xf16>
  util.global private @__auto.unet.down_blocks.1.resnets.1.norm2.weight = #stream.parameter.named<"model"::"unet.down_blocks.1.resnets.1.norm2.weight"> : tensor<640xf16>
  util.global private @__auto.unet.down_blocks.1.resnets.1.conv2.weight = #stream.parameter.named<"model"::"unet.down_blocks.1.resnets.1.conv2.weight"> : tensor<640x640x3x3xf16>
  util.global private @__auto.unet.down_blocks.1.resnets.1.conv2.bias = #stream.parameter.named<"model"::"unet.down_blocks.1.resnets.1.conv2.bias"> : tensor<640xf16>
  util.global private @__auto.unet.down_blocks.1.attentions.1.norm.bias = #stream.parameter.named<"model"::"unet.down_blocks.1.attentions.1.norm.bias"> : tensor<640xf16>
  util.global private @__auto.unet.down_blocks.1.attentions.1.norm.weight = #stream.parameter.named<"model"::"unet.down_blocks.1.attentions.1.norm.weight"> : tensor<640xf16>
  util.global private @__auto.unet.down_blocks.1.attentions.1.proj_in.weight = #stream.parameter.named<"model"::"unet.down_blocks.1.attentions.1.proj_in.weight"> : tensor<640x640xf16>
  util.global private @__auto.unet.down_blocks.1.attentions.1.proj_in.bias = #stream.parameter.named<"model"::"unet.down_blocks.1.attentions.1.proj_in.bias"> : tensor<640xf16>
  util.global private @__auto.unet.down_blocks.1.attentions.1.transformer_blocks.0.norm1.weight = #stream.parameter.named<"model"::"unet.down_blocks.1.attentions.1.transformer_blocks.0.norm1.weight"> : tensor<640xf16>
  util.global private @__auto.unet.down_blocks.1.attentions.1.transformer_blocks.0.norm1.bias = #stream.parameter.named<"model"::"unet.down_blocks.1.attentions.1.transformer_blocks.0.norm1.bias"> : tensor<640xf16>
  util.global private @__auto.unet.down_blocks.1.attentions.1.transformer_blocks.0.attn1.to_q.weight = #stream.parameter.named<"model"::"unet.down_blocks.1.attentions.1.transformer_blocks.0.attn1.to_q.weight"> : tensor<640x640xf16>
  util.global private @__auto.unet.down_blocks.1.attentions.1.transformer_blocks.0.attn1.to_k.weight = #stream.parameter.named<"model"::"unet.down_blocks.1.attentions.1.transformer_blocks.0.attn1.to_k.weight"> : tensor<640x640xf16>
  util.global private @__auto.unet.down_blocks.1.attentions.1.transformer_blocks.0.attn1.to_v.weight = #stream.parameter.named<"model"::"unet.down_blocks.1.attentions.1.transformer_blocks.0.attn1.to_v.weight"> : tensor<640x640xf16>
  util.global private @__auto.unet.down_blocks.1.attentions.1.transformer_blocks.0.attn1.to_out.0.weight = #stream.parameter.named<"model"::"unet.down_blocks.1.attentions.1.transformer_blocks.0.attn1.to_out.0.weight"> : tensor<640x640xf16>
  util.global private @__auto.unet.down_blocks.1.attentions.1.transformer_blocks.0.attn1.to_out.0.bias = #stream.parameter.named<"model"::"unet.down_blocks.1.attentions.1.transformer_blocks.0.attn1.to_out.0.bias"> : tensor<640xf16>
  util.global private @__auto.unet.down_blocks.1.attentions.1.transformer_blocks.0.norm2.weight = #stream.parameter.named<"model"::"unet.down_blocks.1.attentions.1.transformer_blocks.0.norm2.weight"> : tensor<640xf16>
  util.global private @__auto.unet.down_blocks.1.attentions.1.transformer_blocks.0.norm2.bias = #stream.parameter.named<"model"::"unet.down_blocks.1.attentions.1.transformer_blocks.0.norm2.bias"> : tensor<640xf16>
  util.global private @__auto.unet.down_blocks.1.attentions.1.transformer_blocks.0.attn2.to_q.weight = #stream.parameter.named<"model"::"unet.down_blocks.1.attentions.1.transformer_blocks.0.attn2.to_q.weight"> : tensor<640x640xf16>
  util.global private @__auto.unet.down_blocks.1.attentions.1.transformer_blocks.0.attn2.to_k.weight = #stream.parameter.named<"model"::"unet.down_blocks.1.attentions.1.transformer_blocks.0.attn2.to_k.weight"> : tensor<640x2048xf16>
  util.global private @__auto.unet.down_blocks.1.attentions.1.transformer_blocks.0.attn2.to_v.weight = #stream.parameter.named<"model"::"unet.down_blocks.1.attentions.1.transformer_blocks.0.attn2.to_v.weight"> : tensor<640x2048xf16>
  util.global private @__auto.unet.down_blocks.1.attentions.1.transformer_blocks.0.attn2.to_out.0.weight = #stream.parameter.named<"model"::"unet.down_blocks.1.attentions.1.transformer_blocks.0.attn2.to_out.0.weight"> : tensor<640x640xf16>
  util.global private @__auto.unet.down_blocks.1.attentions.1.transformer_blocks.0.attn2.to_out.0.bias = #stream.parameter.named<"model"::"unet.down_blocks.1.attentions.1.transformer_blocks.0.attn2.to_out.0.bias"> : tensor<640xf16>
  util.global private @__auto.unet.down_blocks.1.attentions.1.transformer_blocks.0.norm3.weight = #stream.parameter.named<"model"::"unet.down_blocks.1.attentions.1.transformer_blocks.0.norm3.weight"> : tensor<640xf16>
  util.global private @__auto.unet.down_blocks.1.attentions.1.transformer_blocks.0.norm3.bias = #stream.parameter.named<"model"::"unet.down_blocks.1.attentions.1.transformer_blocks.0.norm3.bias"> : tensor<640xf16>
  util.global private @__auto.unet.down_blocks.1.attentions.1.transformer_blocks.0.ff.net.0.proj.weight = #stream.parameter.named<"model"::"unet.down_blocks.1.attentions.1.transformer_blocks.0.ff.net.0.proj.weight"> : tensor<5120x640xf16>
  util.global private @__auto.unet.down_blocks.1.attentions.1.transformer_blocks.0.ff.net.0.proj.bias = #stream.parameter.named<"model"::"unet.down_blocks.1.attentions.1.transformer_blocks.0.ff.net.0.proj.bias"> : tensor<5120xf16>
  util.global private @__auto.unet.down_blocks.1.attentions.1.transformer_blocks.0.ff.net.2.weight = #stream.parameter.named<"model"::"unet.down_blocks.1.attentions.1.transformer_blocks.0.ff.net.2.weight"> : tensor<640x2560xf16>
  util.global private @__auto.unet.down_blocks.1.attentions.1.transformer_blocks.0.ff.net.2.bias = #stream.parameter.named<"model"::"unet.down_blocks.1.attentions.1.transformer_blocks.0.ff.net.2.bias"> : tensor<640xf16>
  util.global private @__auto.unet.down_blocks.1.attentions.1.transformer_blocks.1.norm1.weight = #stream.parameter.named<"model"::"unet.down_blocks.1.attentions.1.transformer_blocks.1.norm1.weight"> : tensor<640xf16>
  util.global private @__auto.unet.down_blocks.1.attentions.1.transformer_blocks.1.norm1.bias = #stream.parameter.named<"model"::"unet.down_blocks.1.attentions.1.transformer_blocks.1.norm1.bias"> : tensor<640xf16>
  util.global private @__auto.unet.down_blocks.1.attentions.1.transformer_blocks.1.attn1.to_q.weight = #stream.parameter.named<"model"::"unet.down_blocks.1.attentions.1.transformer_blocks.1.attn1.to_q.weight"> : tensor<640x640xf16>
  util.global private @__auto.unet.down_blocks.1.attentions.1.transformer_blocks.1.attn1.to_k.weight = #stream.parameter.named<"model"::"unet.down_blocks.1.attentions.1.transformer_blocks.1.attn1.to_k.weight"> : tensor<640x640xf16>
  util.global private @__auto.unet.down_blocks.1.attentions.1.transformer_blocks.1.attn1.to_v.weight = #stream.parameter.named<"model"::"unet.down_blocks.1.attentions.1.transformer_blocks.1.attn1.to_v.weight"> : tensor<640x640xf16>
  util.global private @__auto.unet.down_blocks.1.attentions.1.transformer_blocks.1.attn1.to_out.0.weight = #stream.parameter.named<"model"::"unet.down_blocks.1.attentions.1.transformer_blocks.1.attn1.to_out.0.weight"> : tensor<640x640xf16>
  util.global private @__auto.unet.down_blocks.1.attentions.1.transformer_blocks.1.attn1.to_out.0.bias = #stream.parameter.named<"model"::"unet.down_blocks.1.attentions.1.transformer_blocks.1.attn1.to_out.0.bias"> : tensor<640xf16>
  util.global private @__auto.unet.down_blocks.1.attentions.1.transformer_blocks.1.norm2.weight = #stream.parameter.named<"model"::"unet.down_blocks.1.attentions.1.transformer_blocks.1.norm2.weight"> : tensor<640xf16>
  util.global private @__auto.unet.down_blocks.1.attentions.1.transformer_blocks.1.norm2.bias = #stream.parameter.named<"model"::"unet.down_blocks.1.attentions.1.transformer_blocks.1.norm2.bias"> : tensor<640xf16>
  util.global private @__auto.unet.down_blocks.1.attentions.1.transformer_blocks.1.attn2.to_q.weight = #stream.parameter.named<"model"::"unet.down_blocks.1.attentions.1.transformer_blocks.1.attn2.to_q.weight"> : tensor<640x640xf16>
  util.global private @__auto.unet.down_blocks.1.attentions.1.transformer_blocks.1.attn2.to_k.weight = #stream.parameter.named<"model"::"unet.down_blocks.1.attentions.1.transformer_blocks.1.attn2.to_k.weight"> : tensor<640x2048xf16>
  util.global private @__auto.unet.down_blocks.1.attentions.1.transformer_blocks.1.attn2.to_v.weight = #stream.parameter.named<"model"::"unet.down_blocks.1.attentions.1.transformer_blocks.1.attn2.to_v.weight"> : tensor<640x2048xf16>
  util.global private @__auto.unet.down_blocks.1.attentions.1.transformer_blocks.1.attn2.to_out.0.weight = #stream.parameter.named<"model"::"unet.down_blocks.1.attentions.1.transformer_blocks.1.attn2.to_out.0.weight"> : tensor<640x640xf16>
  util.global private @__auto.unet.down_blocks.1.attentions.1.transformer_blocks.1.attn2.to_out.0.bias = #stream.parameter.named<"model"::"unet.down_blocks.1.attentions.1.transformer_blocks.1.attn2.to_out.0.bias"> : tensor<640xf16>
  util.global private @__auto.unet.down_blocks.1.attentions.1.transformer_blocks.1.norm3.weight = #stream.parameter.named<"model"::"unet.down_blocks.1.attentions.1.transformer_blocks.1.norm3.weight"> : tensor<640xf16>
  util.global private @__auto.unet.down_blocks.1.attentions.1.transformer_blocks.1.norm3.bias = #stream.parameter.named<"model"::"unet.down_blocks.1.attentions.1.transformer_blocks.1.norm3.bias"> : tensor<640xf16>
  util.global private @__auto.unet.down_blocks.1.attentions.1.transformer_blocks.1.ff.net.0.proj.weight = #stream.parameter.named<"model"::"unet.down_blocks.1.attentions.1.transformer_blocks.1.ff.net.0.proj.weight"> : tensor<5120x640xf16>
  util.global private @__auto.unet.down_blocks.1.attentions.1.transformer_blocks.1.ff.net.0.proj.bias = #stream.parameter.named<"model"::"unet.down_blocks.1.attentions.1.transformer_blocks.1.ff.net.0.proj.bias"> : tensor<5120xf16>
  util.global private @__auto.unet.down_blocks.1.attentions.1.transformer_blocks.1.ff.net.2.weight = #stream.parameter.named<"model"::"unet.down_blocks.1.attentions.1.transformer_blocks.1.ff.net.2.weight"> : tensor<640x2560xf16>
  util.global private @__auto.unet.down_blocks.1.attentions.1.transformer_blocks.1.ff.net.2.bias = #stream.parameter.named<"model"::"unet.down_blocks.1.attentions.1.transformer_blocks.1.ff.net.2.bias"> : tensor<640xf16>
  util.global private @__auto.unet.down_blocks.1.attentions.1.proj_out.weight = #stream.parameter.named<"model"::"unet.down_blocks.1.attentions.1.proj_out.weight"> : tensor<640x640xf16>
  util.global private @__auto.unet.down_blocks.1.attentions.1.proj_out.bias = #stream.parameter.named<"model"::"unet.down_blocks.1.attentions.1.proj_out.bias"> : tensor<640xf16>
  util.global private @__auto.unet.down_blocks.1.downsamplers.0.conv.weight = #stream.parameter.named<"model"::"unet.down_blocks.1.downsamplers.0.conv.weight"> : tensor<640x640x3x3xf16>
  util.global private @__auto.unet.down_blocks.1.downsamplers.0.conv.bias = #stream.parameter.named<"model"::"unet.down_blocks.1.downsamplers.0.conv.bias"> : tensor<640xf16>
  util.global private @__auto.unet.down_blocks.2.resnets.0.norm1.bias = #stream.parameter.named<"model"::"unet.down_blocks.2.resnets.0.norm1.bias"> : tensor<640xf16>
  util.global private @__auto.unet.down_blocks.2.resnets.0.norm1.weight = #stream.parameter.named<"model"::"unet.down_blocks.2.resnets.0.norm1.weight"> : tensor<640xf16>
  util.global private @__auto.unet.down_blocks.2.resnets.0.conv1.weight = #stream.parameter.named<"model"::"unet.down_blocks.2.resnets.0.conv1.weight"> : tensor<1280x640x3x3xf16>
  util.global private @__auto.unet.down_blocks.2.resnets.0.conv1.bias = #stream.parameter.named<"model"::"unet.down_blocks.2.resnets.0.conv1.bias"> : tensor<1280xf16>
  util.global private @__auto.unet.down_blocks.2.resnets.0.time_emb_proj.weight = #stream.parameter.named<"model"::"unet.down_blocks.2.resnets.0.time_emb_proj.weight"> : tensor<1280x1280xf16>
  util.global private @__auto.unet.down_blocks.2.resnets.0.time_emb_proj.bias = #stream.parameter.named<"model"::"unet.down_blocks.2.resnets.0.time_emb_proj.bias"> : tensor<1280xf16>
  util.global private @__auto.unet.down_blocks.2.resnets.0.norm2.bias = #stream.parameter.named<"model"::"unet.down_blocks.2.resnets.0.norm2.bias"> : tensor<1280xf16>
  util.global private @__auto.unet.down_blocks.2.resnets.0.norm2.weight = #stream.parameter.named<"model"::"unet.down_blocks.2.resnets.0.norm2.weight"> : tensor<1280xf16>
  util.global private @__auto.unet.down_blocks.2.resnets.0.conv2.weight = #stream.parameter.named<"model"::"unet.down_blocks.2.resnets.0.conv2.weight"> : tensor<1280x1280x3x3xf16>
  util.global private @__auto.unet.down_blocks.2.resnets.0.conv2.bias = #stream.parameter.named<"model"::"unet.down_blocks.2.resnets.0.conv2.bias"> : tensor<1280xf16>
  util.global private @__auto.unet.down_blocks.2.resnets.0.conv_shortcut.weight = #stream.parameter.named<"model"::"unet.down_blocks.2.resnets.0.conv_shortcut.weight"> : tensor<1280x640x1x1xf16>
  util.global private @__auto.unet.down_blocks.2.resnets.0.conv_shortcut.bias = #stream.parameter.named<"model"::"unet.down_blocks.2.resnets.0.conv_shortcut.bias"> : tensor<1280xf16>
  util.global private @__auto.unet.down_blocks.2.attentions.0.norm.bias = #stream.parameter.named<"model"::"unet.down_blocks.2.attentions.0.norm.bias"> : tensor<1280xf16>
  util.global private @__auto.unet.down_blocks.2.attentions.0.norm.weight = #stream.parameter.named<"model"::"unet.down_blocks.2.attentions.0.norm.weight"> : tensor<1280xf16>
  util.global private @__auto.unet.down_blocks.2.attentions.0.proj_in.weight = #stream.parameter.named<"model"::"unet.down_blocks.2.attentions.0.proj_in.weight"> : tensor<1280x1280xf16>
  util.global private @__auto.unet.down_blocks.2.attentions.0.proj_in.bias = #stream.parameter.named<"model"::"unet.down_blocks.2.attentions.0.proj_in.bias"> : tensor<1280xf16>
  util.global private @__auto.unet.down_blocks.2.attentions.0.transformer_blocks.0.norm1.weight = #stream.parameter.named<"model"::"unet.down_blocks.2.attentions.0.transformer_blocks.0.norm1.weight"> : tensor<1280xf16>
  util.global private @__auto.unet.down_blocks.2.attentions.0.transformer_blocks.0.norm1.bias = #stream.parameter.named<"model"::"unet.down_blocks.2.attentions.0.transformer_blocks.0.norm1.bias"> : tensor<1280xf16>
  util.global private @__auto.unet.down_blocks.2.attentions.0.transformer_blocks.0.attn1.to_q.weight = #stream.parameter.named<"model"::"unet.down_blocks.2.attentions.0.transformer_blocks.0.attn1.to_q.weight"> : tensor<1280x1280xf16>
  util.global private @__auto.unet.down_blocks.2.attentions.0.transformer_blocks.0.attn1.to_k.weight = #stream.parameter.named<"model"::"unet.down_blocks.2.attentions.0.transformer_blocks.0.attn1.to_k.weight"> : tensor<1280x1280xf16>
  util.global private @__auto.unet.down_blocks.2.attentions.0.transformer_blocks.0.attn1.to_v.weight = #stream.parameter.named<"model"::"unet.down_blocks.2.attentions.0.transformer_blocks.0.attn1.to_v.weight"> : tensor<1280x1280xf16>
  util.global private @__auto.unet.down_blocks.2.attentions.0.transformer_blocks.0.attn1.to_out.0.weight = #stream.parameter.named<"model"::"unet.down_blocks.2.attentions.0.transformer_blocks.0.attn1.to_out.0.weight"> : tensor<1280x1280xf16>
  util.global private @__auto.unet.down_blocks.2.attentions.0.transformer_blocks.0.attn1.to_out.0.bias = #stream.parameter.named<"model"::"unet.down_blocks.2.attentions.0.transformer_blocks.0.attn1.to_out.0.bias"> : tensor<1280xf16>
  util.global private @__auto.unet.down_blocks.2.attentions.0.transformer_blocks.0.norm2.weight = #stream.parameter.named<"model"::"unet.down_blocks.2.attentions.0.transformer_blocks.0.norm2.weight"> : tensor<1280xf16>
  util.global private @__auto.unet.down_blocks.2.attentions.0.transformer_blocks.0.norm2.bias = #stream.parameter.named<"model"::"unet.down_blocks.2.attentions.0.transformer_blocks.0.norm2.bias"> : tensor<1280xf16>
  util.global private @__auto.unet.down_blocks.2.attentions.0.transformer_blocks.0.attn2.to_q.weight = #stream.parameter.named<"model"::"unet.down_blocks.2.attentions.0.transformer_blocks.0.attn2.to_q.weight"> : tensor<1280x1280xf16>
  util.global private @__auto.unet.down_blocks.2.attentions.0.transformer_blocks.0.attn2.to_k.weight = #stream.parameter.named<"model"::"unet.down_blocks.2.attentions.0.transformer_blocks.0.attn2.to_k.weight"> : tensor<1280x2048xf16>
  util.global private @__auto.unet.down_blocks.2.attentions.0.transformer_blocks.0.attn2.to_v.weight = #stream.parameter.named<"model"::"unet.down_blocks.2.attentions.0.transformer_blocks.0.attn2.to_v.weight"> : tensor<1280x2048xf16>
  util.global private @__auto.unet.down_blocks.2.attentions.0.transformer_blocks.0.attn2.to_out.0.weight = #stream.parameter.named<"model"::"unet.down_blocks.2.attentions.0.transformer_blocks.0.attn2.to_out.0.weight"> : tensor<1280x1280xf16>
  util.global private @__auto.unet.down_blocks.2.attentions.0.transformer_blocks.0.attn2.to_out.0.bias = #stream.parameter.named<"model"::"unet.down_blocks.2.attentions.0.transformer_blocks.0.attn2.to_out.0.bias"> : tensor<1280xf16>
  util.global private @__auto.unet.down_blocks.2.attentions.0.transformer_blocks.0.norm3.weight = #stream.parameter.named<"model"::"unet.down_blocks.2.attentions.0.transformer_blocks.0.norm3.weight"> : tensor<1280xf16>
  util.global private @__auto.unet.down_blocks.2.attentions.0.transformer_blocks.0.norm3.bias = #stream.parameter.named<"model"::"unet.down_blocks.2.attentions.0.transformer_blocks.0.norm3.bias"> : tensor<1280xf16>
  util.global private @__auto.unet.down_blocks.2.attentions.0.transformer_blocks.0.ff.net.0.proj.weight = #stream.parameter.named<"model"::"unet.down_blocks.2.attentions.0.transformer_blocks.0.ff.net.0.proj.weight"> : tensor<10240x1280xf16>
  util.global private @__auto.unet.down_blocks.2.attentions.0.transformer_blocks.0.ff.net.0.proj.bias = #stream.parameter.named<"model"::"unet.down_blocks.2.attentions.0.transformer_blocks.0.ff.net.0.proj.bias"> : tensor<10240xf16>
  util.global private @__auto.unet.down_blocks.2.attentions.0.transformer_blocks.0.ff.net.2.weight = #stream.parameter.named<"model"::"unet.down_blocks.2.attentions.0.transformer_blocks.0.ff.net.2.weight"> : tensor<1280x5120xf16>
  util.global private @__auto.unet.down_blocks.2.attentions.0.transformer_blocks.0.ff.net.2.bias = #stream.parameter.named<"model"::"unet.down_blocks.2.attentions.0.transformer_blocks.0.ff.net.2.bias"> : tensor<1280xf16>
  util.global private @__auto.unet.down_blocks.2.attentions.0.transformer_blocks.1.norm1.weight = #stream.parameter.named<"model"::"unet.down_blocks.2.attentions.0.transformer_blocks.1.norm1.weight"> : tensor<1280xf16>
  util.global private @__auto.unet.down_blocks.2.attentions.0.transformer_blocks.1.norm1.bias = #stream.parameter.named<"model"::"unet.down_blocks.2.attentions.0.transformer_blocks.1.norm1.bias"> : tensor<1280xf16>
  util.global private @__auto.unet.down_blocks.2.attentions.0.transformer_blocks.1.attn1.to_q.weight = #stream.parameter.named<"model"::"unet.down_blocks.2.attentions.0.transformer_blocks.1.attn1.to_q.weight"> : tensor<1280x1280xf16>
  util.global private @__auto.unet.down_blocks.2.attentions.0.transformer_blocks.1.attn1.to_k.weight = #stream.parameter.named<"model"::"unet.down_blocks.2.attentions.0.transformer_blocks.1.attn1.to_k.weight"> : tensor<1280x1280xf16>
  util.global private @__auto.unet.down_blocks.2.attentions.0.transformer_blocks.1.attn1.to_v.weight = #stream.parameter.named<"model"::"unet.down_blocks.2.attentions.0.transformer_blocks.1.attn1.to_v.weight"> : tensor<1280x1280xf16>
  util.global private @__auto.unet.down_blocks.2.attentions.0.transformer_blocks.1.attn1.to_out.0.weight = #stream.parameter.named<"model"::"unet.down_blocks.2.attentions.0.transformer_blocks.1.attn1.to_out.0.weight"> : tensor<1280x1280xf16>
  util.global private @__auto.unet.down_blocks.2.attentions.0.transformer_blocks.1.attn1.to_out.0.bias = #stream.parameter.named<"model"::"unet.down_blocks.2.attentions.0.transformer_blocks.1.attn1.to_out.0.bias"> : tensor<1280xf16>
  util.global private @__auto.unet.down_blocks.2.attentions.0.transformer_blocks.1.norm2.weight = #stream.parameter.named<"model"::"unet.down_blocks.2.attentions.0.transformer_blocks.1.norm2.weight"> : tensor<1280xf16>
  util.global private @__auto.unet.down_blocks.2.attentions.0.transformer_blocks.1.norm2.bias = #stream.parameter.named<"model"::"unet.down_blocks.2.attentions.0.transformer_blocks.1.norm2.bias"> : tensor<1280xf16>
  util.global private @__auto.unet.down_blocks.2.attentions.0.transformer_blocks.1.attn2.to_q.weight = #stream.parameter.named<"model"::"unet.down_blocks.2.attentions.0.transformer_blocks.1.attn2.to_q.weight"> : tensor<1280x1280xf16>
  util.global private @__auto.unet.down_blocks.2.attentions.0.transformer_blocks.1.attn2.to_k.weight = #stream.parameter.named<"model"::"unet.down_blocks.2.attentions.0.transformer_blocks.1.attn2.to_k.weight"> : tensor<1280x2048xf16>
  util.global private @__auto.unet.down_blocks.2.attentions.0.transformer_blocks.1.attn2.to_v.weight = #stream.parameter.named<"model"::"unet.down_blocks.2.attentions.0.transformer_blocks.1.attn2.to_v.weight"> : tensor<1280x2048xf16>
  util.global private @__auto.unet.down_blocks.2.attentions.0.transformer_blocks.1.attn2.to_out.0.weight = #stream.parameter.named<"model"::"unet.down_blocks.2.attentions.0.transformer_blocks.1.attn2.to_out.0.weight"> : tensor<1280x1280xf16>
  util.global private @__auto.unet.down_blocks.2.attentions.0.transformer_blocks.1.attn2.to_out.0.bias = #stream.parameter.named<"model"::"unet.down_blocks.2.attentions.0.transformer_blocks.1.attn2.to_out.0.bias"> : tensor<1280xf16>
  util.global private @__auto.unet.down_blocks.2.attentions.0.transformer_blocks.1.norm3.weight = #stream.parameter.named<"model"::"unet.down_blocks.2.attentions.0.transformer_blocks.1.norm3.weight"> : tensor<1280xf16>
  util.global private @__auto.unet.down_blocks.2.attentions.0.transformer_blocks.1.norm3.bias = #stream.parameter.named<"model"::"unet.down_blocks.2.attentions.0.transformer_blocks.1.norm3.bias"> : tensor<1280xf16>
  util.global private @__auto.unet.down_blocks.2.attentions.0.transformer_blocks.1.ff.net.0.proj.weight = #stream.parameter.named<"model"::"unet.down_blocks.2.attentions.0.transformer_blocks.1.ff.net.0.proj.weight"> : tensor<10240x1280xf16>
  util.global private @__auto.unet.down_blocks.2.attentions.0.transformer_blocks.1.ff.net.0.proj.bias = #stream.parameter.named<"model"::"unet.down_blocks.2.attentions.0.transformer_blocks.1.ff.net.0.proj.bias"> : tensor<10240xf16>
  util.global private @__auto.unet.down_blocks.2.attentions.0.transformer_blocks.1.ff.net.2.weight = #stream.parameter.named<"model"::"unet.down_blocks.2.attentions.0.transformer_blocks.1.ff.net.2.weight"> : tensor<1280x5120xf16>
  util.global private @__auto.unet.down_blocks.2.attentions.0.transformer_blocks.1.ff.net.2.bias = #stream.parameter.named<"model"::"unet.down_blocks.2.attentions.0.transformer_blocks.1.ff.net.2.bias"> : tensor<1280xf16>
  util.global private @__auto.unet.down_blocks.2.attentions.0.transformer_blocks.2.norm1.weight = #stream.parameter.named<"model"::"unet.down_blocks.2.attentions.0.transformer_blocks.2.norm1.weight"> : tensor<1280xf16>
  util.global private @__auto.unet.down_blocks.2.attentions.0.transformer_blocks.2.norm1.bias = #stream.parameter.named<"model"::"unet.down_blocks.2.attentions.0.transformer_blocks.2.norm1.bias"> : tensor<1280xf16>
  util.global private @__auto.unet.down_blocks.2.attentions.0.transformer_blocks.2.attn1.to_q.weight = #stream.parameter.named<"model"::"unet.down_blocks.2.attentions.0.transformer_blocks.2.attn1.to_q.weight"> : tensor<1280x1280xf16>
  util.global private @__auto.unet.down_blocks.2.attentions.0.transformer_blocks.2.attn1.to_k.weight = #stream.parameter.named<"model"::"unet.down_blocks.2.attentions.0.transformer_blocks.2.attn1.to_k.weight"> : tensor<1280x1280xf16>
  util.global private @__auto.unet.down_blocks.2.attentions.0.transformer_blocks.2.attn1.to_v.weight = #stream.parameter.named<"model"::"unet.down_blocks.2.attentions.0.transformer_blocks.2.attn1.to_v.weight"> : tensor<1280x1280xf16>
  util.global private @__auto.unet.down_blocks.2.attentions.0.transformer_blocks.2.attn1.to_out.0.weight = #stream.parameter.named<"model"::"unet.down_blocks.2.attentions.0.transformer_blocks.2.attn1.to_out.0.weight"> : tensor<1280x1280xf16>
  util.global private @__auto.unet.down_blocks.2.attentions.0.transformer_blocks.2.attn1.to_out.0.bias = #stream.parameter.named<"model"::"unet.down_blocks.2.attentions.0.transformer_blocks.2.attn1.to_out.0.bias"> : tensor<1280xf16>
  util.global private @__auto.unet.down_blocks.2.attentions.0.transformer_blocks.2.norm2.weight = #stream.parameter.named<"model"::"unet.down_blocks.2.attentions.0.transformer_blocks.2.norm2.weight"> : tensor<1280xf16>
  util.global private @__auto.unet.down_blocks.2.attentions.0.transformer_blocks.2.norm2.bias = #stream.parameter.named<"model"::"unet.down_blocks.2.attentions.0.transformer_blocks.2.norm2.bias"> : tensor<1280xf16>
  util.global private @__auto.unet.down_blocks.2.attentions.0.transformer_blocks.2.attn2.to_q.weight = #stream.parameter.named<"model"::"unet.down_blocks.2.attentions.0.transformer_blocks.2.attn2.to_q.weight"> : tensor<1280x1280xf16>
  util.global private @__auto.unet.down_blocks.2.attentions.0.transformer_blocks.2.attn2.to_k.weight = #stream.parameter.named<"model"::"unet.down_blocks.2.attentions.0.transformer_blocks.2.attn2.to_k.weight"> : tensor<1280x2048xf16>
  util.global private @__auto.unet.down_blocks.2.attentions.0.transformer_blocks.2.attn2.to_v.weight = #stream.parameter.named<"model"::"unet.down_blocks.2.attentions.0.transformer_blocks.2.attn2.to_v.weight"> : tensor<1280x2048xf16>
  util.global private @__auto.unet.down_blocks.2.attentions.0.transformer_blocks.2.attn2.to_out.0.weight = #stream.parameter.named<"model"::"unet.down_blocks.2.attentions.0.transformer_blocks.2.attn2.to_out.0.weight"> : tensor<1280x1280xf16>
  util.global private @__auto.unet.down_blocks.2.attentions.0.transformer_blocks.2.attn2.to_out.0.bias = #stream.parameter.named<"model"::"unet.down_blocks.2.attentions.0.transformer_blocks.2.attn2.to_out.0.bias"> : tensor<1280xf16>
  util.global private @__auto.unet.down_blocks.2.attentions.0.transformer_blocks.2.norm3.weight = #stream.parameter.named<"model"::"unet.down_blocks.2.attentions.0.transformer_blocks.2.norm3.weight"> : tensor<1280xf16>
  util.global private @__auto.unet.down_blocks.2.attentions.0.transformer_blocks.2.norm3.bias = #stream.parameter.named<"model"::"unet.down_blocks.2.attentions.0.transformer_blocks.2.norm3.bias"> : tensor<1280xf16>
  util.global private @__auto.unet.down_blocks.2.attentions.0.transformer_blocks.2.ff.net.0.proj.weight = #stream.parameter.named<"model"::"unet.down_blocks.2.attentions.0.transformer_blocks.2.ff.net.0.proj.weight"> : tensor<10240x1280xf16>
  util.global private @__auto.unet.down_blocks.2.attentions.0.transformer_blocks.2.ff.net.0.proj.bias = #stream.parameter.named<"model"::"unet.down_blocks.2.attentions.0.transformer_blocks.2.ff.net.0.proj.bias"> : tensor<10240xf16>
  util.global private @__auto.unet.down_blocks.2.attentions.0.transformer_blocks.2.ff.net.2.weight = #stream.parameter.named<"model"::"unet.down_blocks.2.attentions.0.transformer_blocks.2.ff.net.2.weight"> : tensor<1280x5120xf16>
  util.global private @__auto.unet.down_blocks.2.attentions.0.transformer_blocks.2.ff.net.2.bias = #stream.parameter.named<"model"::"unet.down_blocks.2.attentions.0.transformer_blocks.2.ff.net.2.bias"> : tensor<1280xf16>
  util.global private @__auto.unet.down_blocks.2.attentions.0.transformer_blocks.3.norm1.weight = #stream.parameter.named<"model"::"unet.down_blocks.2.attentions.0.transformer_blocks.3.norm1.weight"> : tensor<1280xf16>
  util.global private @__auto.unet.down_blocks.2.attentions.0.transformer_blocks.3.norm1.bias = #stream.parameter.named<"model"::"unet.down_blocks.2.attentions.0.transformer_blocks.3.norm1.bias"> : tensor<1280xf16>
  util.global private @__auto.unet.down_blocks.2.attentions.0.transformer_blocks.3.attn1.to_q.weight = #stream.parameter.named<"model"::"unet.down_blocks.2.attentions.0.transformer_blocks.3.attn1.to_q.weight"> : tensor<1280x1280xf16>
  util.global private @__auto.unet.down_blocks.2.attentions.0.transformer_blocks.3.attn1.to_k.weight = #stream.parameter.named<"model"::"unet.down_blocks.2.attentions.0.transformer_blocks.3.attn1.to_k.weight"> : tensor<1280x1280xf16>
  util.global private @__auto.unet.down_blocks.2.attentions.0.transformer_blocks.3.attn1.to_v.weight = #stream.parameter.named<"model"::"unet.down_blocks.2.attentions.0.transformer_blocks.3.attn1.to_v.weight"> : tensor<1280x1280xf16>
  util.global private @__auto.unet.down_blocks.2.attentions.0.transformer_blocks.3.attn1.to_out.0.weight = #stream.parameter.named<"model"::"unet.down_blocks.2.attentions.0.transformer_blocks.3.attn1.to_out.0.weight"> : tensor<1280x1280xf16>
  util.global private @__auto.unet.down_blocks.2.attentions.0.transformer_blocks.3.attn1.to_out.0.bias = #stream.parameter.named<"model"::"unet.down_blocks.2.attentions.0.transformer_blocks.3.attn1.to_out.0.bias"> : tensor<1280xf16>
  util.global private @__auto.unet.down_blocks.2.attentions.0.transformer_blocks.3.norm2.weight = #stream.parameter.named<"model"::"unet.down_blocks.2.attentions.0.transformer_blocks.3.norm2.weight"> : tensor<1280xf16>
  util.global private @__auto.unet.down_blocks.2.attentions.0.transformer_blocks.3.norm2.bias = #stream.parameter.named<"model"::"unet.down_blocks.2.attentions.0.transformer_blocks.3.norm2.bias"> : tensor<1280xf16>
  util.global private @__auto.unet.down_blocks.2.attentions.0.transformer_blocks.3.attn2.to_q.weight = #stream.parameter.named<"model"::"unet.down_blocks.2.attentions.0.transformer_blocks.3.attn2.to_q.weight"> : tensor<1280x1280xf16>
  util.global private @__auto.unet.down_blocks.2.attentions.0.transformer_blocks.3.attn2.to_k.weight = #stream.parameter.named<"model"::"unet.down_blocks.2.attentions.0.transformer_blocks.3.attn2.to_k.weight"> : tensor<1280x2048xf16>
  util.global private @__auto.unet.down_blocks.2.attentions.0.transformer_blocks.3.attn2.to_v.weight = #stream.parameter.named<"model"::"unet.down_blocks.2.attentions.0.transformer_blocks.3.attn2.to_v.weight"> : tensor<1280x2048xf16>
  util.global private @__auto.unet.down_blocks.2.attentions.0.transformer_blocks.3.attn2.to_out.0.weight = #stream.parameter.named<"model"::"unet.down_blocks.2.attentions.0.transformer_blocks.3.attn2.to_out.0.weight"> : tensor<1280x1280xf16>
  util.global private @__auto.unet.down_blocks.2.attentions.0.transformer_blocks.3.attn2.to_out.0.bias = #stream.parameter.named<"model"::"unet.down_blocks.2.attentions.0.transformer_blocks.3.attn2.to_out.0.bias"> : tensor<1280xf16>
  util.global private @__auto.unet.down_blocks.2.attentions.0.transformer_blocks.3.norm3.weight = #stream.parameter.named<"model"::"unet.down_blocks.2.attentions.0.transformer_blocks.3.norm3.weight"> : tensor<1280xf16>
  util.global private @__auto.unet.down_blocks.2.attentions.0.transformer_blocks.3.norm3.bias = #stream.parameter.named<"model"::"unet.down_blocks.2.attentions.0.transformer_blocks.3.norm3.bias"> : tensor<1280xf16>
  util.global private @__auto.unet.down_blocks.2.attentions.0.transformer_blocks.3.ff.net.0.proj.weight = #stream.parameter.named<"model"::"unet.down_blocks.2.attentions.0.transformer_blocks.3.ff.net.0.proj.weight"> : tensor<10240x1280xf16>
  util.global private @__auto.unet.down_blocks.2.attentions.0.transformer_blocks.3.ff.net.0.proj.bias = #stream.parameter.named<"model"::"unet.down_blocks.2.attentions.0.transformer_blocks.3.ff.net.0.proj.bias"> : tensor<10240xf16>
  util.global private @__auto.unet.down_blocks.2.attentions.0.transformer_blocks.3.ff.net.2.weight = #stream.parameter.named<"model"::"unet.down_blocks.2.attentions.0.transformer_blocks.3.ff.net.2.weight"> : tensor<1280x5120xf16>
  util.global private @__auto.unet.down_blocks.2.attentions.0.transformer_blocks.3.ff.net.2.bias = #stream.parameter.named<"model"::"unet.down_blocks.2.attentions.0.transformer_blocks.3.ff.net.2.bias"> : tensor<1280xf16>
  util.global private @__auto.unet.down_blocks.2.attentions.0.transformer_blocks.4.norm1.weight = #stream.parameter.named<"model"::"unet.down_blocks.2.attentions.0.transformer_blocks.4.norm1.weight"> : tensor<1280xf16>
  util.global private @__auto.unet.down_blocks.2.attentions.0.transformer_blocks.4.norm1.bias = #stream.parameter.named<"model"::"unet.down_blocks.2.attentions.0.transformer_blocks.4.norm1.bias"> : tensor<1280xf16>
  util.global private @__auto.unet.down_blocks.2.attentions.0.transformer_blocks.4.attn1.to_q.weight = #stream.parameter.named<"model"::"unet.down_blocks.2.attentions.0.transformer_blocks.4.attn1.to_q.weight"> : tensor<1280x1280xf16>
  util.global private @__auto.unet.down_blocks.2.attentions.0.transformer_blocks.4.attn1.to_k.weight = #stream.parameter.named<"model"::"unet.down_blocks.2.attentions.0.transformer_blocks.4.attn1.to_k.weight"> : tensor<1280x1280xf16>
  util.global private @__auto.unet.down_blocks.2.attentions.0.transformer_blocks.4.attn1.to_v.weight = #stream.parameter.named<"model"::"unet.down_blocks.2.attentions.0.transformer_blocks.4.attn1.to_v.weight"> : tensor<1280x1280xf16>
  util.global private @__auto.unet.down_blocks.2.attentions.0.transformer_blocks.4.attn1.to_out.0.weight = #stream.parameter.named<"model"::"unet.down_blocks.2.attentions.0.transformer_blocks.4.attn1.to_out.0.weight"> : tensor<1280x1280xf16>
  util.global private @__auto.unet.down_blocks.2.attentions.0.transformer_blocks.4.attn1.to_out.0.bias = #stream.parameter.named<"model"::"unet.down_blocks.2.attentions.0.transformer_blocks.4.attn1.to_out.0.bias"> : tensor<1280xf16>
  util.global private @__auto.unet.down_blocks.2.attentions.0.transformer_blocks.4.norm2.weight = #stream.parameter.named<"model"::"unet.down_blocks.2.attentions.0.transformer_blocks.4.norm2.weight"> : tensor<1280xf16>
  util.global private @__auto.unet.down_blocks.2.attentions.0.transformer_blocks.4.norm2.bias = #stream.parameter.named<"model"::"unet.down_blocks.2.attentions.0.transformer_blocks.4.norm2.bias"> : tensor<1280xf16>
  util.global private @__auto.unet.down_blocks.2.attentions.0.transformer_blocks.4.attn2.to_q.weight = #stream.parameter.named<"model"::"unet.down_blocks.2.attentions.0.transformer_blocks.4.attn2.to_q.weight"> : tensor<1280x1280xf16>
  util.global private @__auto.unet.down_blocks.2.attentions.0.transformer_blocks.4.attn2.to_k.weight = #stream.parameter.named<"model"::"unet.down_blocks.2.attentions.0.transformer_blocks.4.attn2.to_k.weight"> : tensor<1280x2048xf16>
  util.global private @__auto.unet.down_blocks.2.attentions.0.transformer_blocks.4.attn2.to_v.weight = #stream.parameter.named<"model"::"unet.down_blocks.2.attentions.0.transformer_blocks.4.attn2.to_v.weight"> : tensor<1280x2048xf16>
  util.global private @__auto.unet.down_blocks.2.attentions.0.transformer_blocks.4.attn2.to_out.0.weight = #stream.parameter.named<"model"::"unet.down_blocks.2.attentions.0.transformer_blocks.4.attn2.to_out.0.weight"> : tensor<1280x1280xf16>
  util.global private @__auto.unet.down_blocks.2.attentions.0.transformer_blocks.4.attn2.to_out.0.bias = #stream.parameter.named<"model"::"unet.down_blocks.2.attentions.0.transformer_blocks.4.attn2.to_out.0.bias"> : tensor<1280xf16>
  util.global private @__auto.unet.down_blocks.2.attentions.0.transformer_blocks.4.norm3.weight = #stream.parameter.named<"model"::"unet.down_blocks.2.attentions.0.transformer_blocks.4.norm3.weight"> : tensor<1280xf16>
  util.global private @__auto.unet.down_blocks.2.attentions.0.transformer_blocks.4.norm3.bias = #stream.parameter.named<"model"::"unet.down_blocks.2.attentions.0.transformer_blocks.4.norm3.bias"> : tensor<1280xf16>
  util.global private @__auto.unet.down_blocks.2.attentions.0.transformer_blocks.4.ff.net.0.proj.weight = #stream.parameter.named<"model"::"unet.down_blocks.2.attentions.0.transformer_blocks.4.ff.net.0.proj.weight"> : tensor<10240x1280xf16>
  util.global private @__auto.unet.down_blocks.2.attentions.0.transformer_blocks.4.ff.net.0.proj.bias = #stream.parameter.named<"model"::"unet.down_blocks.2.attentions.0.transformer_blocks.4.ff.net.0.proj.bias"> : tensor<10240xf16>
  util.global private @__auto.unet.down_blocks.2.attentions.0.transformer_blocks.4.ff.net.2.weight = #stream.parameter.named<"model"::"unet.down_blocks.2.attentions.0.transformer_blocks.4.ff.net.2.weight"> : tensor<1280x5120xf16>
  util.global private @__auto.unet.down_blocks.2.attentions.0.transformer_blocks.4.ff.net.2.bias = #stream.parameter.named<"model"::"unet.down_blocks.2.attentions.0.transformer_blocks.4.ff.net.2.bias"> : tensor<1280xf16>
  util.global private @__auto.unet.down_blocks.2.attentions.0.transformer_blocks.5.norm1.weight = #stream.parameter.named<"model"::"unet.down_blocks.2.attentions.0.transformer_blocks.5.norm1.weight"> : tensor<1280xf16>
  util.global private @__auto.unet.down_blocks.2.attentions.0.transformer_blocks.5.norm1.bias = #stream.parameter.named<"model"::"unet.down_blocks.2.attentions.0.transformer_blocks.5.norm1.bias"> : tensor<1280xf16>
  util.global private @__auto.unet.down_blocks.2.attentions.0.transformer_blocks.5.attn1.to_q.weight = #stream.parameter.named<"model"::"unet.down_blocks.2.attentions.0.transformer_blocks.5.attn1.to_q.weight"> : tensor<1280x1280xf16>
  util.global private @__auto.unet.down_blocks.2.attentions.0.transformer_blocks.5.attn1.to_k.weight = #stream.parameter.named<"model"::"unet.down_blocks.2.attentions.0.transformer_blocks.5.attn1.to_k.weight"> : tensor<1280x1280xf16>
  util.global private @__auto.unet.down_blocks.2.attentions.0.transformer_blocks.5.attn1.to_v.weight = #stream.parameter.named<"model"::"unet.down_blocks.2.attentions.0.transformer_blocks.5.attn1.to_v.weight"> : tensor<1280x1280xf16>
  util.global private @__auto.unet.down_blocks.2.attentions.0.transformer_blocks.5.attn1.to_out.0.weight = #stream.parameter.named<"model"::"unet.down_blocks.2.attentions.0.transformer_blocks.5.attn1.to_out.0.weight"> : tensor<1280x1280xf16>
  util.global private @__auto.unet.down_blocks.2.attentions.0.transformer_blocks.5.attn1.to_out.0.bias = #stream.parameter.named<"model"::"unet.down_blocks.2.attentions.0.transformer_blocks.5.attn1.to_out.0.bias"> : tensor<1280xf16>
  util.global private @__auto.unet.down_blocks.2.attentions.0.transformer_blocks.5.norm2.weight = #stream.parameter.named<"model"::"unet.down_blocks.2.attentions.0.transformer_blocks.5.norm2.weight"> : tensor<1280xf16>
  util.global private @__auto.unet.down_blocks.2.attentions.0.transformer_blocks.5.norm2.bias = #stream.parameter.named<"model"::"unet.down_blocks.2.attentions.0.transformer_blocks.5.norm2.bias"> : tensor<1280xf16>
  util.global private @__auto.unet.down_blocks.2.attentions.0.transformer_blocks.5.attn2.to_q.weight = #stream.parameter.named<"model"::"unet.down_blocks.2.attentions.0.transformer_blocks.5.attn2.to_q.weight"> : tensor<1280x1280xf16>
  util.global private @__auto.unet.down_blocks.2.attentions.0.transformer_blocks.5.attn2.to_k.weight = #stream.parameter.named<"model"::"unet.down_blocks.2.attentions.0.transformer_blocks.5.attn2.to_k.weight"> : tensor<1280x2048xf16>
  util.global private @__auto.unet.down_blocks.2.attentions.0.transformer_blocks.5.attn2.to_v.weight = #stream.parameter.named<"model"::"unet.down_blocks.2.attentions.0.transformer_blocks.5.attn2.to_v.weight"> : tensor<1280x2048xf16>
  util.global private @__auto.unet.down_blocks.2.attentions.0.transformer_blocks.5.attn2.to_out.0.weight = #stream.parameter.named<"model"::"unet.down_blocks.2.attentions.0.transformer_blocks.5.attn2.to_out.0.weight"> : tensor<1280x1280xf16>
  util.global private @__auto.unet.down_blocks.2.attentions.0.transformer_blocks.5.attn2.to_out.0.bias = #stream.parameter.named<"model"::"unet.down_blocks.2.attentions.0.transformer_blocks.5.attn2.to_out.0.bias"> : tensor<1280xf16>
  util.global private @__auto.unet.down_blocks.2.attentions.0.transformer_blocks.5.norm3.weight = #stream.parameter.named<"model"::"unet.down_blocks.2.attentions.0.transformer_blocks.5.norm3.weight"> : tensor<1280xf16>
  util.global private @__auto.unet.down_blocks.2.attentions.0.transformer_blocks.5.norm3.bias = #stream.parameter.named<"model"::"unet.down_blocks.2.attentions.0.transformer_blocks.5.norm3.bias"> : tensor<1280xf16>
  util.global private @__auto.unet.down_blocks.2.attentions.0.transformer_blocks.5.ff.net.0.proj.weight = #stream.parameter.named<"model"::"unet.down_blocks.2.attentions.0.transformer_blocks.5.ff.net.0.proj.weight"> : tensor<10240x1280xf16>
  util.global private @__auto.unet.down_blocks.2.attentions.0.transformer_blocks.5.ff.net.0.proj.bias = #stream.parameter.named<"model"::"unet.down_blocks.2.attentions.0.transformer_blocks.5.ff.net.0.proj.bias"> : tensor<10240xf16>
  util.global private @__auto.unet.down_blocks.2.attentions.0.transformer_blocks.5.ff.net.2.weight = #stream.parameter.named<"model"::"unet.down_blocks.2.attentions.0.transformer_blocks.5.ff.net.2.weight"> : tensor<1280x5120xf16>
  util.global private @__auto.unet.down_blocks.2.attentions.0.transformer_blocks.5.ff.net.2.bias = #stream.parameter.named<"model"::"unet.down_blocks.2.attentions.0.transformer_blocks.5.ff.net.2.bias"> : tensor<1280xf16>
  util.global private @__auto.unet.down_blocks.2.attentions.0.transformer_blocks.6.norm1.weight = #stream.parameter.named<"model"::"unet.down_blocks.2.attentions.0.transformer_blocks.6.norm1.weight"> : tensor<1280xf16>
  util.global private @__auto.unet.down_blocks.2.attentions.0.transformer_blocks.6.norm1.bias = #stream.parameter.named<"model"::"unet.down_blocks.2.attentions.0.transformer_blocks.6.norm1.bias"> : tensor<1280xf16>
  util.global private @__auto.unet.down_blocks.2.attentions.0.transformer_blocks.6.attn1.to_q.weight = #stream.parameter.named<"model"::"unet.down_blocks.2.attentions.0.transformer_blocks.6.attn1.to_q.weight"> : tensor<1280x1280xf16>
  util.global private @__auto.unet.down_blocks.2.attentions.0.transformer_blocks.6.attn1.to_k.weight = #stream.parameter.named<"model"::"unet.down_blocks.2.attentions.0.transformer_blocks.6.attn1.to_k.weight"> : tensor<1280x1280xf16>
  util.global private @__auto.unet.down_blocks.2.attentions.0.transformer_blocks.6.attn1.to_v.weight = #stream.parameter.named<"model"::"unet.down_blocks.2.attentions.0.transformer_blocks.6.attn1.to_v.weight"> : tensor<1280x1280xf16>
  util.global private @__auto.unet.down_blocks.2.attentions.0.transformer_blocks.6.attn1.to_out.0.weight = #stream.parameter.named<"model"::"unet.down_blocks.2.attentions.0.transformer_blocks.6.attn1.to_out.0.weight"> : tensor<1280x1280xf16>
  util.global private @__auto.unet.down_blocks.2.attentions.0.transformer_blocks.6.attn1.to_out.0.bias = #stream.parameter.named<"model"::"unet.down_blocks.2.attentions.0.transformer_blocks.6.attn1.to_out.0.bias"> : tensor<1280xf16>
  util.global private @__auto.unet.down_blocks.2.attentions.0.transformer_blocks.6.norm2.weight = #stream.parameter.named<"model"::"unet.down_blocks.2.attentions.0.transformer_blocks.6.norm2.weight"> : tensor<1280xf16>
  util.global private @__auto.unet.down_blocks.2.attentions.0.transformer_blocks.6.norm2.bias = #stream.parameter.named<"model"::"unet.down_blocks.2.attentions.0.transformer_blocks.6.norm2.bias"> : tensor<1280xf16>
  util.global private @__auto.unet.down_blocks.2.attentions.0.transformer_blocks.6.attn2.to_q.weight = #stream.parameter.named<"model"::"unet.down_blocks.2.attentions.0.transformer_blocks.6.attn2.to_q.weight"> : tensor<1280x1280xf16>
  util.global private @__auto.unet.down_blocks.2.attentions.0.transformer_blocks.6.attn2.to_k.weight = #stream.parameter.named<"model"::"unet.down_blocks.2.attentions.0.transformer_blocks.6.attn2.to_k.weight"> : tensor<1280x2048xf16>
  util.global private @__auto.unet.down_blocks.2.attentions.0.transformer_blocks.6.attn2.to_v.weight = #stream.parameter.named<"model"::"unet.down_blocks.2.attentions.0.transformer_blocks.6.attn2.to_v.weight"> : tensor<1280x2048xf16>
  util.global private @__auto.unet.down_blocks.2.attentions.0.transformer_blocks.6.attn2.to_out.0.weight = #stream.parameter.named<"model"::"unet.down_blocks.2.attentions.0.transformer_blocks.6.attn2.to_out.0.weight"> : tensor<1280x1280xf16>
  util.global private @__auto.unet.down_blocks.2.attentions.0.transformer_blocks.6.attn2.to_out.0.bias = #stream.parameter.named<"model"::"unet.down_blocks.2.attentions.0.transformer_blocks.6.attn2.to_out.0.bias"> : tensor<1280xf16>
  util.global private @__auto.unet.down_blocks.2.attentions.0.transformer_blocks.6.norm3.weight = #stream.parameter.named<"model"::"unet.down_blocks.2.attentions.0.transformer_blocks.6.norm3.weight"> : tensor<1280xf16>
  util.global private @__auto.unet.down_blocks.2.attentions.0.transformer_blocks.6.norm3.bias = #stream.parameter.named<"model"::"unet.down_blocks.2.attentions.0.transformer_blocks.6.norm3.bias"> : tensor<1280xf16>
  util.global private @__auto.unet.down_blocks.2.attentions.0.transformer_blocks.6.ff.net.0.proj.weight = #stream.parameter.named<"model"::"unet.down_blocks.2.attentions.0.transformer_blocks.6.ff.net.0.proj.weight"> : tensor<10240x1280xf16>
  util.global private @__auto.unet.down_blocks.2.attentions.0.transformer_blocks.6.ff.net.0.proj.bias = #stream.parameter.named<"model"::"unet.down_blocks.2.attentions.0.transformer_blocks.6.ff.net.0.proj.bias"> : tensor<10240xf16>
  util.global private @__auto.unet.down_blocks.2.attentions.0.transformer_blocks.6.ff.net.2.weight = #stream.parameter.named<"model"::"unet.down_blocks.2.attentions.0.transformer_blocks.6.ff.net.2.weight"> : tensor<1280x5120xf16>
  util.global private @__auto.unet.down_blocks.2.attentions.0.transformer_blocks.6.ff.net.2.bias = #stream.parameter.named<"model"::"unet.down_blocks.2.attentions.0.transformer_blocks.6.ff.net.2.bias"> : tensor<1280xf16>
  util.global private @__auto.unet.down_blocks.2.attentions.0.transformer_blocks.7.norm1.weight = #stream.parameter.named<"model"::"unet.down_blocks.2.attentions.0.transformer_blocks.7.norm1.weight"> : tensor<1280xf16>
  util.global private @__auto.unet.down_blocks.2.attentions.0.transformer_blocks.7.norm1.bias = #stream.parameter.named<"model"::"unet.down_blocks.2.attentions.0.transformer_blocks.7.norm1.bias"> : tensor<1280xf16>
  util.global private @__auto.unet.down_blocks.2.attentions.0.transformer_blocks.7.attn1.to_q.weight = #stream.parameter.named<"model"::"unet.down_blocks.2.attentions.0.transformer_blocks.7.attn1.to_q.weight"> : tensor<1280x1280xf16>
  util.global private @__auto.unet.down_blocks.2.attentions.0.transformer_blocks.7.attn1.to_k.weight = #stream.parameter.named<"model"::"unet.down_blocks.2.attentions.0.transformer_blocks.7.attn1.to_k.weight"> : tensor<1280x1280xf16>
  util.global private @__auto.unet.down_blocks.2.attentions.0.transformer_blocks.7.attn1.to_v.weight = #stream.parameter.named<"model"::"unet.down_blocks.2.attentions.0.transformer_blocks.7.attn1.to_v.weight"> : tensor<1280x1280xf16>
  util.global private @__auto.unet.down_blocks.2.attentions.0.transformer_blocks.7.attn1.to_out.0.weight = #stream.parameter.named<"model"::"unet.down_blocks.2.attentions.0.transformer_blocks.7.attn1.to_out.0.weight"> : tensor<1280x1280xf16>
  util.global private @__auto.unet.down_blocks.2.attentions.0.transformer_blocks.7.attn1.to_out.0.bias = #stream.parameter.named<"model"::"unet.down_blocks.2.attentions.0.transformer_blocks.7.attn1.to_out.0.bias"> : tensor<1280xf16>
  util.global private @__auto.unet.down_blocks.2.attentions.0.transformer_blocks.7.norm2.weight = #stream.parameter.named<"model"::"unet.down_blocks.2.attentions.0.transformer_blocks.7.norm2.weight"> : tensor<1280xf16>
  util.global private @__auto.unet.down_blocks.2.attentions.0.transformer_blocks.7.norm2.bias = #stream.parameter.named<"model"::"unet.down_blocks.2.attentions.0.transformer_blocks.7.norm2.bias"> : tensor<1280xf16>
  util.global private @__auto.unet.down_blocks.2.attentions.0.transformer_blocks.7.attn2.to_q.weight = #stream.parameter.named<"model"::"unet.down_blocks.2.attentions.0.transformer_blocks.7.attn2.to_q.weight"> : tensor<1280x1280xf16>
  util.global private @__auto.unet.down_blocks.2.attentions.0.transformer_blocks.7.attn2.to_k.weight = #stream.parameter.named<"model"::"unet.down_blocks.2.attentions.0.transformer_blocks.7.attn2.to_k.weight"> : tensor<1280x2048xf16>
  util.global private @__auto.unet.down_blocks.2.attentions.0.transformer_blocks.7.attn2.to_v.weight = #stream.parameter.named<"model"::"unet.down_blocks.2.attentions.0.transformer_blocks.7.attn2.to_v.weight"> : tensor<1280x2048xf16>
  util.global private @__auto.unet.down_blocks.2.attentions.0.transformer_blocks.7.attn2.to_out.0.weight = #stream.parameter.named<"model"::"unet.down_blocks.2.attentions.0.transformer_blocks.7.attn2.to_out.0.weight"> : tensor<1280x1280xf16>
  util.global private @__auto.unet.down_blocks.2.attentions.0.transformer_blocks.7.attn2.to_out.0.bias = #stream.parameter.named<"model"::"unet.down_blocks.2.attentions.0.transformer_blocks.7.attn2.to_out.0.bias"> : tensor<1280xf16>
  util.global private @__auto.unet.down_blocks.2.attentions.0.transformer_blocks.7.norm3.weight = #stream.parameter.named<"model"::"unet.down_blocks.2.attentions.0.transformer_blocks.7.norm3.weight"> : tensor<1280xf16>
  util.global private @__auto.unet.down_blocks.2.attentions.0.transformer_blocks.7.norm3.bias = #stream.parameter.named<"model"::"unet.down_blocks.2.attentions.0.transformer_blocks.7.norm3.bias"> : tensor<1280xf16>
  util.global private @__auto.unet.down_blocks.2.attentions.0.transformer_blocks.7.ff.net.0.proj.weight = #stream.parameter.named<"model"::"unet.down_blocks.2.attentions.0.transformer_blocks.7.ff.net.0.proj.weight"> : tensor<10240x1280xf16>
  util.global private @__auto.unet.down_blocks.2.attentions.0.transformer_blocks.7.ff.net.0.proj.bias = #stream.parameter.named<"model"::"unet.down_blocks.2.attentions.0.transformer_blocks.7.ff.net.0.proj.bias"> : tensor<10240xf16>
  util.global private @__auto.unet.down_blocks.2.attentions.0.transformer_blocks.7.ff.net.2.weight = #stream.parameter.named<"model"::"unet.down_blocks.2.attentions.0.transformer_blocks.7.ff.net.2.weight"> : tensor<1280x5120xf16>
  util.global private @__auto.unet.down_blocks.2.attentions.0.transformer_blocks.7.ff.net.2.bias = #stream.parameter.named<"model"::"unet.down_blocks.2.attentions.0.transformer_blocks.7.ff.net.2.bias"> : tensor<1280xf16>
  util.global private @__auto.unet.down_blocks.2.attentions.0.transformer_blocks.8.norm1.weight = #stream.parameter.named<"model"::"unet.down_blocks.2.attentions.0.transformer_blocks.8.norm1.weight"> : tensor<1280xf16>
  util.global private @__auto.unet.down_blocks.2.attentions.0.transformer_blocks.8.norm1.bias = #stream.parameter.named<"model"::"unet.down_blocks.2.attentions.0.transformer_blocks.8.norm1.bias"> : tensor<1280xf16>
  util.global private @__auto.unet.down_blocks.2.attentions.0.transformer_blocks.8.attn1.to_q.weight = #stream.parameter.named<"model"::"unet.down_blocks.2.attentions.0.transformer_blocks.8.attn1.to_q.weight"> : tensor<1280x1280xf16>
  util.global private @__auto.unet.down_blocks.2.attentions.0.transformer_blocks.8.attn1.to_k.weight = #stream.parameter.named<"model"::"unet.down_blocks.2.attentions.0.transformer_blocks.8.attn1.to_k.weight"> : tensor<1280x1280xf16>
  util.global private @__auto.unet.down_blocks.2.attentions.0.transformer_blocks.8.attn1.to_v.weight = #stream.parameter.named<"model"::"unet.down_blocks.2.attentions.0.transformer_blocks.8.attn1.to_v.weight"> : tensor<1280x1280xf16>
  util.global private @__auto.unet.down_blocks.2.attentions.0.transformer_blocks.8.attn1.to_out.0.weight = #stream.parameter.named<"model"::"unet.down_blocks.2.attentions.0.transformer_blocks.8.attn1.to_out.0.weight"> : tensor<1280x1280xf16>
  util.global private @__auto.unet.down_blocks.2.attentions.0.transformer_blocks.8.attn1.to_out.0.bias = #stream.parameter.named<"model"::"unet.down_blocks.2.attentions.0.transformer_blocks.8.attn1.to_out.0.bias"> : tensor<1280xf16>
  util.global private @__auto.unet.down_blocks.2.attentions.0.transformer_blocks.8.norm2.weight = #stream.parameter.named<"model"::"unet.down_blocks.2.attentions.0.transformer_blocks.8.norm2.weight"> : tensor<1280xf16>
  util.global private @__auto.unet.down_blocks.2.attentions.0.transformer_blocks.8.norm2.bias = #stream.parameter.named<"model"::"unet.down_blocks.2.attentions.0.transformer_blocks.8.norm2.bias"> : tensor<1280xf16>
  util.global private @__auto.unet.down_blocks.2.attentions.0.transformer_blocks.8.attn2.to_q.weight = #stream.parameter.named<"model"::"unet.down_blocks.2.attentions.0.transformer_blocks.8.attn2.to_q.weight"> : tensor<1280x1280xf16>
  util.global private @__auto.unet.down_blocks.2.attentions.0.transformer_blocks.8.attn2.to_k.weight = #stream.parameter.named<"model"::"unet.down_blocks.2.attentions.0.transformer_blocks.8.attn2.to_k.weight"> : tensor<1280x2048xf16>
  util.global private @__auto.unet.down_blocks.2.attentions.0.transformer_blocks.8.attn2.to_v.weight = #stream.parameter.named<"model"::"unet.down_blocks.2.attentions.0.transformer_blocks.8.attn2.to_v.weight"> : tensor<1280x2048xf16>
  util.global private @__auto.unet.down_blocks.2.attentions.0.transformer_blocks.8.attn2.to_out.0.weight = #stream.parameter.named<"model"::"unet.down_blocks.2.attentions.0.transformer_blocks.8.attn2.to_out.0.weight"> : tensor<1280x1280xf16>
  util.global private @__auto.unet.down_blocks.2.attentions.0.transformer_blocks.8.attn2.to_out.0.bias = #stream.parameter.named<"model"::"unet.down_blocks.2.attentions.0.transformer_blocks.8.attn2.to_out.0.bias"> : tensor<1280xf16>
  util.global private @__auto.unet.down_blocks.2.attentions.0.transformer_blocks.8.norm3.weight = #stream.parameter.named<"model"::"unet.down_blocks.2.attentions.0.transformer_blocks.8.norm3.weight"> : tensor<1280xf16>
  util.global private @__auto.unet.down_blocks.2.attentions.0.transformer_blocks.8.norm3.bias = #stream.parameter.named<"model"::"unet.down_blocks.2.attentions.0.transformer_blocks.8.norm3.bias"> : tensor<1280xf16>
  util.global private @__auto.unet.down_blocks.2.attentions.0.transformer_blocks.8.ff.net.0.proj.weight = #stream.parameter.named<"model"::"unet.down_blocks.2.attentions.0.transformer_blocks.8.ff.net.0.proj.weight"> : tensor<10240x1280xf16>
  util.global private @__auto.unet.down_blocks.2.attentions.0.transformer_blocks.8.ff.net.0.proj.bias = #stream.parameter.named<"model"::"unet.down_blocks.2.attentions.0.transformer_blocks.8.ff.net.0.proj.bias"> : tensor<10240xf16>
  util.global private @__auto.unet.down_blocks.2.attentions.0.transformer_blocks.8.ff.net.2.weight = #stream.parameter.named<"model"::"unet.down_blocks.2.attentions.0.transformer_blocks.8.ff.net.2.weight"> : tensor<1280x5120xf16>
  util.global private @__auto.unet.down_blocks.2.attentions.0.transformer_blocks.8.ff.net.2.bias = #stream.parameter.named<"model"::"unet.down_blocks.2.attentions.0.transformer_blocks.8.ff.net.2.bias"> : tensor<1280xf16>
  util.global private @__auto.unet.down_blocks.2.attentions.0.transformer_blocks.9.norm1.weight = #stream.parameter.named<"model"::"unet.down_blocks.2.attentions.0.transformer_blocks.9.norm1.weight"> : tensor<1280xf16>
  util.global private @__auto.unet.down_blocks.2.attentions.0.transformer_blocks.9.norm1.bias = #stream.parameter.named<"model"::"unet.down_blocks.2.attentions.0.transformer_blocks.9.norm1.bias"> : tensor<1280xf16>
  util.global private @__auto.unet.down_blocks.2.attentions.0.transformer_blocks.9.attn1.to_q.weight = #stream.parameter.named<"model"::"unet.down_blocks.2.attentions.0.transformer_blocks.9.attn1.to_q.weight"> : tensor<1280x1280xf16>
  util.global private @__auto.unet.down_blocks.2.attentions.0.transformer_blocks.9.attn1.to_k.weight = #stream.parameter.named<"model"::"unet.down_blocks.2.attentions.0.transformer_blocks.9.attn1.to_k.weight"> : tensor<1280x1280xf16>
  util.global private @__auto.unet.down_blocks.2.attentions.0.transformer_blocks.9.attn1.to_v.weight = #stream.parameter.named<"model"::"unet.down_blocks.2.attentions.0.transformer_blocks.9.attn1.to_v.weight"> : tensor<1280x1280xf16>
  util.global private @__auto.unet.down_blocks.2.attentions.0.transformer_blocks.9.attn1.to_out.0.weight = #stream.parameter.named<"model"::"unet.down_blocks.2.attentions.0.transformer_blocks.9.attn1.to_out.0.weight"> : tensor<1280x1280xf16>
  util.global private @__auto.unet.down_blocks.2.attentions.0.transformer_blocks.9.attn1.to_out.0.bias = #stream.parameter.named<"model"::"unet.down_blocks.2.attentions.0.transformer_blocks.9.attn1.to_out.0.bias"> : tensor<1280xf16>
  util.global private @__auto.unet.down_blocks.2.attentions.0.transformer_blocks.9.norm2.weight = #stream.parameter.named<"model"::"unet.down_blocks.2.attentions.0.transformer_blocks.9.norm2.weight"> : tensor<1280xf16>
  util.global private @__auto.unet.down_blocks.2.attentions.0.transformer_blocks.9.norm2.bias = #stream.parameter.named<"model"::"unet.down_blocks.2.attentions.0.transformer_blocks.9.norm2.bias"> : tensor<1280xf16>
  util.global private @__auto.unet.down_blocks.2.attentions.0.transformer_blocks.9.attn2.to_q.weight = #stream.parameter.named<"model"::"unet.down_blocks.2.attentions.0.transformer_blocks.9.attn2.to_q.weight"> : tensor<1280x1280xf16>
  util.global private @__auto.unet.down_blocks.2.attentions.0.transformer_blocks.9.attn2.to_k.weight = #stream.parameter.named<"model"::"unet.down_blocks.2.attentions.0.transformer_blocks.9.attn2.to_k.weight"> : tensor<1280x2048xf16>
  util.global private @__auto.unet.down_blocks.2.attentions.0.transformer_blocks.9.attn2.to_v.weight = #stream.parameter.named<"model"::"unet.down_blocks.2.attentions.0.transformer_blocks.9.attn2.to_v.weight"> : tensor<1280x2048xf16>
  util.global private @__auto.unet.down_blocks.2.attentions.0.transformer_blocks.9.attn2.to_out.0.weight = #stream.parameter.named<"model"::"unet.down_blocks.2.attentions.0.transformer_blocks.9.attn2.to_out.0.weight"> : tensor<1280x1280xf16>
  util.global private @__auto.unet.down_blocks.2.attentions.0.transformer_blocks.9.attn2.to_out.0.bias = #stream.parameter.named<"model"::"unet.down_blocks.2.attentions.0.transformer_blocks.9.attn2.to_out.0.bias"> : tensor<1280xf16>
  util.global private @__auto.unet.down_blocks.2.attentions.0.transformer_blocks.9.norm3.weight = #stream.parameter.named<"model"::"unet.down_blocks.2.attentions.0.transformer_blocks.9.norm3.weight"> : tensor<1280xf16>
  util.global private @__auto.unet.down_blocks.2.attentions.0.transformer_blocks.9.norm3.bias = #stream.parameter.named<"model"::"unet.down_blocks.2.attentions.0.transformer_blocks.9.norm3.bias"> : tensor<1280xf16>
  util.global private @__auto.unet.down_blocks.2.attentions.0.transformer_blocks.9.ff.net.0.proj.weight = #stream.parameter.named<"model"::"unet.down_blocks.2.attentions.0.transformer_blocks.9.ff.net.0.proj.weight"> : tensor<10240x1280xf16>
  util.global private @__auto.unet.down_blocks.2.attentions.0.transformer_blocks.9.ff.net.0.proj.bias = #stream.parameter.named<"model"::"unet.down_blocks.2.attentions.0.transformer_blocks.9.ff.net.0.proj.bias"> : tensor<10240xf16>
  util.global private @__auto.unet.down_blocks.2.attentions.0.transformer_blocks.9.ff.net.2.weight = #stream.parameter.named<"model"::"unet.down_blocks.2.attentions.0.transformer_blocks.9.ff.net.2.weight"> : tensor<1280x5120xf16>
  util.global private @__auto.unet.down_blocks.2.attentions.0.transformer_blocks.9.ff.net.2.bias = #stream.parameter.named<"model"::"unet.down_blocks.2.attentions.0.transformer_blocks.9.ff.net.2.bias"> : tensor<1280xf16>
  util.global private @__auto.unet.down_blocks.2.attentions.0.proj_out.weight = #stream.parameter.named<"model"::"unet.down_blocks.2.attentions.0.proj_out.weight"> : tensor<1280x1280xf16>
  util.global private @__auto.unet.down_blocks.2.attentions.0.proj_out.bias = #stream.parameter.named<"model"::"unet.down_blocks.2.attentions.0.proj_out.bias"> : tensor<1280xf16>
  util.global private @__auto.unet.down_blocks.2.resnets.1.norm1.bias = #stream.parameter.named<"model"::"unet.down_blocks.2.resnets.1.norm1.bias"> : tensor<1280xf16>
  util.global private @__auto.unet.down_blocks.2.resnets.1.norm1.weight = #stream.parameter.named<"model"::"unet.down_blocks.2.resnets.1.norm1.weight"> : tensor<1280xf16>
  util.global private @__auto.unet.down_blocks.2.resnets.1.conv1.weight = #stream.parameter.named<"model"::"unet.down_blocks.2.resnets.1.conv1.weight"> : tensor<1280x1280x3x3xf16>
  util.global private @__auto.unet.down_blocks.2.resnets.1.conv1.bias = #stream.parameter.named<"model"::"unet.down_blocks.2.resnets.1.conv1.bias"> : tensor<1280xf16>
  util.global private @__auto.unet.down_blocks.2.resnets.1.time_emb_proj.weight = #stream.parameter.named<"model"::"unet.down_blocks.2.resnets.1.time_emb_proj.weight"> : tensor<1280x1280xf16>
  util.global private @__auto.unet.down_blocks.2.resnets.1.time_emb_proj.bias = #stream.parameter.named<"model"::"unet.down_blocks.2.resnets.1.time_emb_proj.bias"> : tensor<1280xf16>
  util.global private @__auto.unet.down_blocks.2.resnets.1.norm2.bias = #stream.parameter.named<"model"::"unet.down_blocks.2.resnets.1.norm2.bias"> : tensor<1280xf16>
  util.global private @__auto.unet.down_blocks.2.resnets.1.norm2.weight = #stream.parameter.named<"model"::"unet.down_blocks.2.resnets.1.norm2.weight"> : tensor<1280xf16>
  util.global private @__auto.unet.down_blocks.2.resnets.1.conv2.weight = #stream.parameter.named<"model"::"unet.down_blocks.2.resnets.1.conv2.weight"> : tensor<1280x1280x3x3xf16>
  util.global private @__auto.unet.down_blocks.2.resnets.1.conv2.bias = #stream.parameter.named<"model"::"unet.down_blocks.2.resnets.1.conv2.bias"> : tensor<1280xf16>
  util.global private @__auto.unet.down_blocks.2.attentions.1.norm.bias = #stream.parameter.named<"model"::"unet.down_blocks.2.attentions.1.norm.bias"> : tensor<1280xf16>
  util.global private @__auto.unet.down_blocks.2.attentions.1.norm.weight = #stream.parameter.named<"model"::"unet.down_blocks.2.attentions.1.norm.weight"> : tensor<1280xf16>
  util.global private @__auto.unet.down_blocks.2.attentions.1.proj_in.weight = #stream.parameter.named<"model"::"unet.down_blocks.2.attentions.1.proj_in.weight"> : tensor<1280x1280xf16>
  util.global private @__auto.unet.down_blocks.2.attentions.1.proj_in.bias = #stream.parameter.named<"model"::"unet.down_blocks.2.attentions.1.proj_in.bias"> : tensor<1280xf16>
  util.global private @__auto.unet.down_blocks.2.attentions.1.transformer_blocks.0.norm1.weight = #stream.parameter.named<"model"::"unet.down_blocks.2.attentions.1.transformer_blocks.0.norm1.weight"> : tensor<1280xf16>
  util.global private @__auto.unet.down_blocks.2.attentions.1.transformer_blocks.0.norm1.bias = #stream.parameter.named<"model"::"unet.down_blocks.2.attentions.1.transformer_blocks.0.norm1.bias"> : tensor<1280xf16>
  util.global private @__auto.unet.down_blocks.2.attentions.1.transformer_blocks.0.attn1.to_q.weight = #stream.parameter.named<"model"::"unet.down_blocks.2.attentions.1.transformer_blocks.0.attn1.to_q.weight"> : tensor<1280x1280xf16>
  util.global private @__auto.unet.down_blocks.2.attentions.1.transformer_blocks.0.attn1.to_k.weight = #stream.parameter.named<"model"::"unet.down_blocks.2.attentions.1.transformer_blocks.0.attn1.to_k.weight"> : tensor<1280x1280xf16>
  util.global private @__auto.unet.down_blocks.2.attentions.1.transformer_blocks.0.attn1.to_v.weight = #stream.parameter.named<"model"::"unet.down_blocks.2.attentions.1.transformer_blocks.0.attn1.to_v.weight"> : tensor<1280x1280xf16>
  util.global private @__auto.unet.down_blocks.2.attentions.1.transformer_blocks.0.attn1.to_out.0.weight = #stream.parameter.named<"model"::"unet.down_blocks.2.attentions.1.transformer_blocks.0.attn1.to_out.0.weight"> : tensor<1280x1280xf16>
  util.global private @__auto.unet.down_blocks.2.attentions.1.transformer_blocks.0.attn1.to_out.0.bias = #stream.parameter.named<"model"::"unet.down_blocks.2.attentions.1.transformer_blocks.0.attn1.to_out.0.bias"> : tensor<1280xf16>
  util.global private @__auto.unet.down_blocks.2.attentions.1.transformer_blocks.0.norm2.weight = #stream.parameter.named<"model"::"unet.down_blocks.2.attentions.1.transformer_blocks.0.norm2.weight"> : tensor<1280xf16>
  util.global private @__auto.unet.down_blocks.2.attentions.1.transformer_blocks.0.norm2.bias = #stream.parameter.named<"model"::"unet.down_blocks.2.attentions.1.transformer_blocks.0.norm2.bias"> : tensor<1280xf16>
  util.global private @__auto.unet.down_blocks.2.attentions.1.transformer_blocks.0.attn2.to_q.weight = #stream.parameter.named<"model"::"unet.down_blocks.2.attentions.1.transformer_blocks.0.attn2.to_q.weight"> : tensor<1280x1280xf16>
  util.global private @__auto.unet.down_blocks.2.attentions.1.transformer_blocks.0.attn2.to_k.weight = #stream.parameter.named<"model"::"unet.down_blocks.2.attentions.1.transformer_blocks.0.attn2.to_k.weight"> : tensor<1280x2048xf16>
  util.global private @__auto.unet.down_blocks.2.attentions.1.transformer_blocks.0.attn2.to_v.weight = #stream.parameter.named<"model"::"unet.down_blocks.2.attentions.1.transformer_blocks.0.attn2.to_v.weight"> : tensor<1280x2048xf16>
  util.global private @__auto.unet.down_blocks.2.attentions.1.transformer_blocks.0.attn2.to_out.0.weight = #stream.parameter.named<"model"::"unet.down_blocks.2.attentions.1.transformer_blocks.0.attn2.to_out.0.weight"> : tensor<1280x1280xf16>
  util.global private @__auto.unet.down_blocks.2.attentions.1.transformer_blocks.0.attn2.to_out.0.bias = #stream.parameter.named<"model"::"unet.down_blocks.2.attentions.1.transformer_blocks.0.attn2.to_out.0.bias"> : tensor<1280xf16>
  util.global private @__auto.unet.down_blocks.2.attentions.1.transformer_blocks.0.norm3.weight = #stream.parameter.named<"model"::"unet.down_blocks.2.attentions.1.transformer_blocks.0.norm3.weight"> : tensor<1280xf16>
  util.global private @__auto.unet.down_blocks.2.attentions.1.transformer_blocks.0.norm3.bias = #stream.parameter.named<"model"::"unet.down_blocks.2.attentions.1.transformer_blocks.0.norm3.bias"> : tensor<1280xf16>
  util.global private @__auto.unet.down_blocks.2.attentions.1.transformer_blocks.0.ff.net.0.proj.weight = #stream.parameter.named<"model"::"unet.down_blocks.2.attentions.1.transformer_blocks.0.ff.net.0.proj.weight"> : tensor<10240x1280xf16>
  util.global private @__auto.unet.down_blocks.2.attentions.1.transformer_blocks.0.ff.net.0.proj.bias = #stream.parameter.named<"model"::"unet.down_blocks.2.attentions.1.transformer_blocks.0.ff.net.0.proj.bias"> : tensor<10240xf16>
  util.global private @__auto.unet.down_blocks.2.attentions.1.transformer_blocks.0.ff.net.2.weight = #stream.parameter.named<"model"::"unet.down_blocks.2.attentions.1.transformer_blocks.0.ff.net.2.weight"> : tensor<1280x5120xf16>
  util.global private @__auto.unet.down_blocks.2.attentions.1.transformer_blocks.0.ff.net.2.bias = #stream.parameter.named<"model"::"unet.down_blocks.2.attentions.1.transformer_blocks.0.ff.net.2.bias"> : tensor<1280xf16>
  util.global private @__auto.unet.down_blocks.2.attentions.1.transformer_blocks.1.norm1.weight = #stream.parameter.named<"model"::"unet.down_blocks.2.attentions.1.transformer_blocks.1.norm1.weight"> : tensor<1280xf16>
  util.global private @__auto.unet.down_blocks.2.attentions.1.transformer_blocks.1.norm1.bias = #stream.parameter.named<"model"::"unet.down_blocks.2.attentions.1.transformer_blocks.1.norm1.bias"> : tensor<1280xf16>
  util.global private @__auto.unet.down_blocks.2.attentions.1.transformer_blocks.1.attn1.to_q.weight = #stream.parameter.named<"model"::"unet.down_blocks.2.attentions.1.transformer_blocks.1.attn1.to_q.weight"> : tensor<1280x1280xf16>
  util.global private @__auto.unet.down_blocks.2.attentions.1.transformer_blocks.1.attn1.to_k.weight = #stream.parameter.named<"model"::"unet.down_blocks.2.attentions.1.transformer_blocks.1.attn1.to_k.weight"> : tensor<1280x1280xf16>
  util.global private @__auto.unet.down_blocks.2.attentions.1.transformer_blocks.1.attn1.to_v.weight = #stream.parameter.named<"model"::"unet.down_blocks.2.attentions.1.transformer_blocks.1.attn1.to_v.weight"> : tensor<1280x1280xf16>
  util.global private @__auto.unet.down_blocks.2.attentions.1.transformer_blocks.1.attn1.to_out.0.weight = #stream.parameter.named<"model"::"unet.down_blocks.2.attentions.1.transformer_blocks.1.attn1.to_out.0.weight"> : tensor<1280x1280xf16>
  util.global private @__auto.unet.down_blocks.2.attentions.1.transformer_blocks.1.attn1.to_out.0.bias = #stream.parameter.named<"model"::"unet.down_blocks.2.attentions.1.transformer_blocks.1.attn1.to_out.0.bias"> : tensor<1280xf16>
  util.global private @__auto.unet.down_blocks.2.attentions.1.transformer_blocks.1.norm2.weight = #stream.parameter.named<"model"::"unet.down_blocks.2.attentions.1.transformer_blocks.1.norm2.weight"> : tensor<1280xf16>
  util.global private @__auto.unet.down_blocks.2.attentions.1.transformer_blocks.1.norm2.bias = #stream.parameter.named<"model"::"unet.down_blocks.2.attentions.1.transformer_blocks.1.norm2.bias"> : tensor<1280xf16>
  util.global private @__auto.unet.down_blocks.2.attentions.1.transformer_blocks.1.attn2.to_q.weight = #stream.parameter.named<"model"::"unet.down_blocks.2.attentions.1.transformer_blocks.1.attn2.to_q.weight"> : tensor<1280x1280xf16>
  util.global private @__auto.unet.down_blocks.2.attentions.1.transformer_blocks.1.attn2.to_k.weight = #stream.parameter.named<"model"::"unet.down_blocks.2.attentions.1.transformer_blocks.1.attn2.to_k.weight"> : tensor<1280x2048xf16>
  util.global private @__auto.unet.down_blocks.2.attentions.1.transformer_blocks.1.attn2.to_v.weight = #stream.parameter.named<"model"::"unet.down_blocks.2.attentions.1.transformer_blocks.1.attn2.to_v.weight"> : tensor<1280x2048xf16>
  util.global private @__auto.unet.down_blocks.2.attentions.1.transformer_blocks.1.attn2.to_out.0.weight = #stream.parameter.named<"model"::"unet.down_blocks.2.attentions.1.transformer_blocks.1.attn2.to_out.0.weight"> : tensor<1280x1280xf16>
  util.global private @__auto.unet.down_blocks.2.attentions.1.transformer_blocks.1.attn2.to_out.0.bias = #stream.parameter.named<"model"::"unet.down_blocks.2.attentions.1.transformer_blocks.1.attn2.to_out.0.bias"> : tensor<1280xf16>
  util.global private @__auto.unet.down_blocks.2.attentions.1.transformer_blocks.1.norm3.weight = #stream.parameter.named<"model"::"unet.down_blocks.2.attentions.1.transformer_blocks.1.norm3.weight"> : tensor<1280xf16>
  util.global private @__auto.unet.down_blocks.2.attentions.1.transformer_blocks.1.norm3.bias = #stream.parameter.named<"model"::"unet.down_blocks.2.attentions.1.transformer_blocks.1.norm3.bias"> : tensor<1280xf16>
  util.global private @__auto.unet.down_blocks.2.attentions.1.transformer_blocks.1.ff.net.0.proj.weight = #stream.parameter.named<"model"::"unet.down_blocks.2.attentions.1.transformer_blocks.1.ff.net.0.proj.weight"> : tensor<10240x1280xf16>
  util.global private @__auto.unet.down_blocks.2.attentions.1.transformer_blocks.1.ff.net.0.proj.bias = #stream.parameter.named<"model"::"unet.down_blocks.2.attentions.1.transformer_blocks.1.ff.net.0.proj.bias"> : tensor<10240xf16>
  util.global private @__auto.unet.down_blocks.2.attentions.1.transformer_blocks.1.ff.net.2.weight = #stream.parameter.named<"model"::"unet.down_blocks.2.attentions.1.transformer_blocks.1.ff.net.2.weight"> : tensor<1280x5120xf16>
  util.global private @__auto.unet.down_blocks.2.attentions.1.transformer_blocks.1.ff.net.2.bias = #stream.parameter.named<"model"::"unet.down_blocks.2.attentions.1.transformer_blocks.1.ff.net.2.bias"> : tensor<1280xf16>
  util.global private @__auto.unet.down_blocks.2.attentions.1.transformer_blocks.2.norm1.weight = #stream.parameter.named<"model"::"unet.down_blocks.2.attentions.1.transformer_blocks.2.norm1.weight"> : tensor<1280xf16>
  util.global private @__auto.unet.down_blocks.2.attentions.1.transformer_blocks.2.norm1.bias = #stream.parameter.named<"model"::"unet.down_blocks.2.attentions.1.transformer_blocks.2.norm1.bias"> : tensor<1280xf16>
  util.global private @__auto.unet.down_blocks.2.attentions.1.transformer_blocks.2.attn1.to_q.weight = #stream.parameter.named<"model"::"unet.down_blocks.2.attentions.1.transformer_blocks.2.attn1.to_q.weight"> : tensor<1280x1280xf16>
  util.global private @__auto.unet.down_blocks.2.attentions.1.transformer_blocks.2.attn1.to_k.weight = #stream.parameter.named<"model"::"unet.down_blocks.2.attentions.1.transformer_blocks.2.attn1.to_k.weight"> : tensor<1280x1280xf16>
  util.global private @__auto.unet.down_blocks.2.attentions.1.transformer_blocks.2.attn1.to_v.weight = #stream.parameter.named<"model"::"unet.down_blocks.2.attentions.1.transformer_blocks.2.attn1.to_v.weight"> : tensor<1280x1280xf16>
  util.global private @__auto.unet.down_blocks.2.attentions.1.transformer_blocks.2.attn1.to_out.0.weight = #stream.parameter.named<"model"::"unet.down_blocks.2.attentions.1.transformer_blocks.2.attn1.to_out.0.weight"> : tensor<1280x1280xf16>
  util.global private @__auto.unet.down_blocks.2.attentions.1.transformer_blocks.2.attn1.to_out.0.bias = #stream.parameter.named<"model"::"unet.down_blocks.2.attentions.1.transformer_blocks.2.attn1.to_out.0.bias"> : tensor<1280xf16>
  util.global private @__auto.unet.down_blocks.2.attentions.1.transformer_blocks.2.norm2.weight = #stream.parameter.named<"model"::"unet.down_blocks.2.attentions.1.transformer_blocks.2.norm2.weight"> : tensor<1280xf16>
  util.global private @__auto.unet.down_blocks.2.attentions.1.transformer_blocks.2.norm2.bias = #stream.parameter.named<"model"::"unet.down_blocks.2.attentions.1.transformer_blocks.2.norm2.bias"> : tensor<1280xf16>
  util.global private @__auto.unet.down_blocks.2.attentions.1.transformer_blocks.2.attn2.to_q.weight = #stream.parameter.named<"model"::"unet.down_blocks.2.attentions.1.transformer_blocks.2.attn2.to_q.weight"> : tensor<1280x1280xf16>
  util.global private @__auto.unet.down_blocks.2.attentions.1.transformer_blocks.2.attn2.to_k.weight = #stream.parameter.named<"model"::"unet.down_blocks.2.attentions.1.transformer_blocks.2.attn2.to_k.weight"> : tensor<1280x2048xf16>
  util.global private @__auto.unet.down_blocks.2.attentions.1.transformer_blocks.2.attn2.to_v.weight = #stream.parameter.named<"model"::"unet.down_blocks.2.attentions.1.transformer_blocks.2.attn2.to_v.weight"> : tensor<1280x2048xf16>
  util.global private @__auto.unet.down_blocks.2.attentions.1.transformer_blocks.2.attn2.to_out.0.weight = #stream.parameter.named<"model"::"unet.down_blocks.2.attentions.1.transformer_blocks.2.attn2.to_out.0.weight"> : tensor<1280x1280xf16>
  util.global private @__auto.unet.down_blocks.2.attentions.1.transformer_blocks.2.attn2.to_out.0.bias = #stream.parameter.named<"model"::"unet.down_blocks.2.attentions.1.transformer_blocks.2.attn2.to_out.0.bias"> : tensor<1280xf16>
  util.global private @__auto.unet.down_blocks.2.attentions.1.transformer_blocks.2.norm3.weight = #stream.parameter.named<"model"::"unet.down_blocks.2.attentions.1.transformer_blocks.2.norm3.weight"> : tensor<1280xf16>
  util.global private @__auto.unet.down_blocks.2.attentions.1.transformer_blocks.2.norm3.bias = #stream.parameter.named<"model"::"unet.down_blocks.2.attentions.1.transformer_blocks.2.norm3.bias"> : tensor<1280xf16>
  util.global private @__auto.unet.down_blocks.2.attentions.1.transformer_blocks.2.ff.net.0.proj.weight = #stream.parameter.named<"model"::"unet.down_blocks.2.attentions.1.transformer_blocks.2.ff.net.0.proj.weight"> : tensor<10240x1280xf16>
  util.global private @__auto.unet.down_blocks.2.attentions.1.transformer_blocks.2.ff.net.0.proj.bias = #stream.parameter.named<"model"::"unet.down_blocks.2.attentions.1.transformer_blocks.2.ff.net.0.proj.bias"> : tensor<10240xf16>
  util.global private @__auto.unet.down_blocks.2.attentions.1.transformer_blocks.2.ff.net.2.weight = #stream.parameter.named<"model"::"unet.down_blocks.2.attentions.1.transformer_blocks.2.ff.net.2.weight"> : tensor<1280x5120xf16>
  util.global private @__auto.unet.down_blocks.2.attentions.1.transformer_blocks.2.ff.net.2.bias = #stream.parameter.named<"model"::"unet.down_blocks.2.attentions.1.transformer_blocks.2.ff.net.2.bias"> : tensor<1280xf16>
  util.global private @__auto.unet.down_blocks.2.attentions.1.transformer_blocks.3.norm1.weight = #stream.parameter.named<"model"::"unet.down_blocks.2.attentions.1.transformer_blocks.3.norm1.weight"> : tensor<1280xf16>
  util.global private @__auto.unet.down_blocks.2.attentions.1.transformer_blocks.3.norm1.bias = #stream.parameter.named<"model"::"unet.down_blocks.2.attentions.1.transformer_blocks.3.norm1.bias"> : tensor<1280xf16>
  util.global private @__auto.unet.down_blocks.2.attentions.1.transformer_blocks.3.attn1.to_q.weight = #stream.parameter.named<"model"::"unet.down_blocks.2.attentions.1.transformer_blocks.3.attn1.to_q.weight"> : tensor<1280x1280xf16>
  util.global private @__auto.unet.down_blocks.2.attentions.1.transformer_blocks.3.attn1.to_k.weight = #stream.parameter.named<"model"::"unet.down_blocks.2.attentions.1.transformer_blocks.3.attn1.to_k.weight"> : tensor<1280x1280xf16>
  util.global private @__auto.unet.down_blocks.2.attentions.1.transformer_blocks.3.attn1.to_v.weight = #stream.parameter.named<"model"::"unet.down_blocks.2.attentions.1.transformer_blocks.3.attn1.to_v.weight"> : tensor<1280x1280xf16>
  util.global private @__auto.unet.down_blocks.2.attentions.1.transformer_blocks.3.attn1.to_out.0.weight = #stream.parameter.named<"model"::"unet.down_blocks.2.attentions.1.transformer_blocks.3.attn1.to_out.0.weight"> : tensor<1280x1280xf16>
  util.global private @__auto.unet.down_blocks.2.attentions.1.transformer_blocks.3.attn1.to_out.0.bias = #stream.parameter.named<"model"::"unet.down_blocks.2.attentions.1.transformer_blocks.3.attn1.to_out.0.bias"> : tensor<1280xf16>
  util.global private @__auto.unet.down_blocks.2.attentions.1.transformer_blocks.3.norm2.weight = #stream.parameter.named<"model"::"unet.down_blocks.2.attentions.1.transformer_blocks.3.norm2.weight"> : tensor<1280xf16>
  util.global private @__auto.unet.down_blocks.2.attentions.1.transformer_blocks.3.norm2.bias = #stream.parameter.named<"model"::"unet.down_blocks.2.attentions.1.transformer_blocks.3.norm2.bias"> : tensor<1280xf16>
  util.global private @__auto.unet.down_blocks.2.attentions.1.transformer_blocks.3.attn2.to_q.weight = #stream.parameter.named<"model"::"unet.down_blocks.2.attentions.1.transformer_blocks.3.attn2.to_q.weight"> : tensor<1280x1280xf16>
  util.global private @__auto.unet.down_blocks.2.attentions.1.transformer_blocks.3.attn2.to_k.weight = #stream.parameter.named<"model"::"unet.down_blocks.2.attentions.1.transformer_blocks.3.attn2.to_k.weight"> : tensor<1280x2048xf16>
  util.global private @__auto.unet.down_blocks.2.attentions.1.transformer_blocks.3.attn2.to_v.weight = #stream.parameter.named<"model"::"unet.down_blocks.2.attentions.1.transformer_blocks.3.attn2.to_v.weight"> : tensor<1280x2048xf16>
  util.global private @__auto.unet.down_blocks.2.attentions.1.transformer_blocks.3.attn2.to_out.0.weight = #stream.parameter.named<"model"::"unet.down_blocks.2.attentions.1.transformer_blocks.3.attn2.to_out.0.weight"> : tensor<1280x1280xf16>
  util.global private @__auto.unet.down_blocks.2.attentions.1.transformer_blocks.3.attn2.to_out.0.bias = #stream.parameter.named<"model"::"unet.down_blocks.2.attentions.1.transformer_blocks.3.attn2.to_out.0.bias"> : tensor<1280xf16>
  util.global private @__auto.unet.down_blocks.2.attentions.1.transformer_blocks.3.norm3.weight = #stream.parameter.named<"model"::"unet.down_blocks.2.attentions.1.transformer_blocks.3.norm3.weight"> : tensor<1280xf16>
  util.global private @__auto.unet.down_blocks.2.attentions.1.transformer_blocks.3.norm3.bias = #stream.parameter.named<"model"::"unet.down_blocks.2.attentions.1.transformer_blocks.3.norm3.bias"> : tensor<1280xf16>
  util.global private @__auto.unet.down_blocks.2.attentions.1.transformer_blocks.3.ff.net.0.proj.weight = #stream.parameter.named<"model"::"unet.down_blocks.2.attentions.1.transformer_blocks.3.ff.net.0.proj.weight"> : tensor<10240x1280xf16>
  util.global private @__auto.unet.down_blocks.2.attentions.1.transformer_blocks.3.ff.net.0.proj.bias = #stream.parameter.named<"model"::"unet.down_blocks.2.attentions.1.transformer_blocks.3.ff.net.0.proj.bias"> : tensor<10240xf16>
  util.global private @__auto.unet.down_blocks.2.attentions.1.transformer_blocks.3.ff.net.2.weight = #stream.parameter.named<"model"::"unet.down_blocks.2.attentions.1.transformer_blocks.3.ff.net.2.weight"> : tensor<1280x5120xf16>
  util.global private @__auto.unet.down_blocks.2.attentions.1.transformer_blocks.3.ff.net.2.bias = #stream.parameter.named<"model"::"unet.down_blocks.2.attentions.1.transformer_blocks.3.ff.net.2.bias"> : tensor<1280xf16>
  util.global private @__auto.unet.down_blocks.2.attentions.1.transformer_blocks.4.norm1.weight = #stream.parameter.named<"model"::"unet.down_blocks.2.attentions.1.transformer_blocks.4.norm1.weight"> : tensor<1280xf16>
  util.global private @__auto.unet.down_blocks.2.attentions.1.transformer_blocks.4.norm1.bias = #stream.parameter.named<"model"::"unet.down_blocks.2.attentions.1.transformer_blocks.4.norm1.bias"> : tensor<1280xf16>
  util.global private @__auto.unet.down_blocks.2.attentions.1.transformer_blocks.4.attn1.to_q.weight = #stream.parameter.named<"model"::"unet.down_blocks.2.attentions.1.transformer_blocks.4.attn1.to_q.weight"> : tensor<1280x1280xf16>
  util.global private @__auto.unet.down_blocks.2.attentions.1.transformer_blocks.4.attn1.to_k.weight = #stream.parameter.named<"model"::"unet.down_blocks.2.attentions.1.transformer_blocks.4.attn1.to_k.weight"> : tensor<1280x1280xf16>
  util.global private @__auto.unet.down_blocks.2.attentions.1.transformer_blocks.4.attn1.to_v.weight = #stream.parameter.named<"model"::"unet.down_blocks.2.attentions.1.transformer_blocks.4.attn1.to_v.weight"> : tensor<1280x1280xf16>
  util.global private @__auto.unet.down_blocks.2.attentions.1.transformer_blocks.4.attn1.to_out.0.weight = #stream.parameter.named<"model"::"unet.down_blocks.2.attentions.1.transformer_blocks.4.attn1.to_out.0.weight"> : tensor<1280x1280xf16>
  util.global private @__auto.unet.down_blocks.2.attentions.1.transformer_blocks.4.attn1.to_out.0.bias = #stream.parameter.named<"model"::"unet.down_blocks.2.attentions.1.transformer_blocks.4.attn1.to_out.0.bias"> : tensor<1280xf16>
  util.global private @__auto.unet.down_blocks.2.attentions.1.transformer_blocks.4.norm2.weight = #stream.parameter.named<"model"::"unet.down_blocks.2.attentions.1.transformer_blocks.4.norm2.weight"> : tensor<1280xf16>
  util.global private @__auto.unet.down_blocks.2.attentions.1.transformer_blocks.4.norm2.bias = #stream.parameter.named<"model"::"unet.down_blocks.2.attentions.1.transformer_blocks.4.norm2.bias"> : tensor<1280xf16>
  util.global private @__auto.unet.down_blocks.2.attentions.1.transformer_blocks.4.attn2.to_q.weight = #stream.parameter.named<"model"::"unet.down_blocks.2.attentions.1.transformer_blocks.4.attn2.to_q.weight"> : tensor<1280x1280xf16>
  util.global private @__auto.unet.down_blocks.2.attentions.1.transformer_blocks.4.attn2.to_k.weight = #stream.parameter.named<"model"::"unet.down_blocks.2.attentions.1.transformer_blocks.4.attn2.to_k.weight"> : tensor<1280x2048xf16>
  util.global private @__auto.unet.down_blocks.2.attentions.1.transformer_blocks.4.attn2.to_v.weight = #stream.parameter.named<"model"::"unet.down_blocks.2.attentions.1.transformer_blocks.4.attn2.to_v.weight"> : tensor<1280x2048xf16>
  util.global private @__auto.unet.down_blocks.2.attentions.1.transformer_blocks.4.attn2.to_out.0.weight = #stream.parameter.named<"model"::"unet.down_blocks.2.attentions.1.transformer_blocks.4.attn2.to_out.0.weight"> : tensor<1280x1280xf16>
  util.global private @__auto.unet.down_blocks.2.attentions.1.transformer_blocks.4.attn2.to_out.0.bias = #stream.parameter.named<"model"::"unet.down_blocks.2.attentions.1.transformer_blocks.4.attn2.to_out.0.bias"> : tensor<1280xf16>
  util.global private @__auto.unet.down_blocks.2.attentions.1.transformer_blocks.4.norm3.weight = #stream.parameter.named<"model"::"unet.down_blocks.2.attentions.1.transformer_blocks.4.norm3.weight"> : tensor<1280xf16>
  util.global private @__auto.unet.down_blocks.2.attentions.1.transformer_blocks.4.norm3.bias = #stream.parameter.named<"model"::"unet.down_blocks.2.attentions.1.transformer_blocks.4.norm3.bias"> : tensor<1280xf16>
  util.global private @__auto.unet.down_blocks.2.attentions.1.transformer_blocks.4.ff.net.0.proj.weight = #stream.parameter.named<"model"::"unet.down_blocks.2.attentions.1.transformer_blocks.4.ff.net.0.proj.weight"> : tensor<10240x1280xf16>
  util.global private @__auto.unet.down_blocks.2.attentions.1.transformer_blocks.4.ff.net.0.proj.bias = #stream.parameter.named<"model"::"unet.down_blocks.2.attentions.1.transformer_blocks.4.ff.net.0.proj.bias"> : tensor<10240xf16>
  util.global private @__auto.unet.down_blocks.2.attentions.1.transformer_blocks.4.ff.net.2.weight = #stream.parameter.named<"model"::"unet.down_blocks.2.attentions.1.transformer_blocks.4.ff.net.2.weight"> : tensor<1280x5120xf16>
  util.global private @__auto.unet.down_blocks.2.attentions.1.transformer_blocks.4.ff.net.2.bias = #stream.parameter.named<"model"::"unet.down_blocks.2.attentions.1.transformer_blocks.4.ff.net.2.bias"> : tensor<1280xf16>
  util.global private @__auto.unet.down_blocks.2.attentions.1.transformer_blocks.5.norm1.weight = #stream.parameter.named<"model"::"unet.down_blocks.2.attentions.1.transformer_blocks.5.norm1.weight"> : tensor<1280xf16>
  util.global private @__auto.unet.down_blocks.2.attentions.1.transformer_blocks.5.norm1.bias = #stream.parameter.named<"model"::"unet.down_blocks.2.attentions.1.transformer_blocks.5.norm1.bias"> : tensor<1280xf16>
  util.global private @__auto.unet.down_blocks.2.attentions.1.transformer_blocks.5.attn1.to_q.weight = #stream.parameter.named<"model"::"unet.down_blocks.2.attentions.1.transformer_blocks.5.attn1.to_q.weight"> : tensor<1280x1280xf16>
  util.global private @__auto.unet.down_blocks.2.attentions.1.transformer_blocks.5.attn1.to_k.weight = #stream.parameter.named<"model"::"unet.down_blocks.2.attentions.1.transformer_blocks.5.attn1.to_k.weight"> : tensor<1280x1280xf16>
  util.global private @__auto.unet.down_blocks.2.attentions.1.transformer_blocks.5.attn1.to_v.weight = #stream.parameter.named<"model"::"unet.down_blocks.2.attentions.1.transformer_blocks.5.attn1.to_v.weight"> : tensor<1280x1280xf16>
  util.global private @__auto.unet.down_blocks.2.attentions.1.transformer_blocks.5.attn1.to_out.0.weight = #stream.parameter.named<"model"::"unet.down_blocks.2.attentions.1.transformer_blocks.5.attn1.to_out.0.weight"> : tensor<1280x1280xf16>
  util.global private @__auto.unet.down_blocks.2.attentions.1.transformer_blocks.5.attn1.to_out.0.bias = #stream.parameter.named<"model"::"unet.down_blocks.2.attentions.1.transformer_blocks.5.attn1.to_out.0.bias"> : tensor<1280xf16>
  util.global private @__auto.unet.down_blocks.2.attentions.1.transformer_blocks.5.norm2.weight = #stream.parameter.named<"model"::"unet.down_blocks.2.attentions.1.transformer_blocks.5.norm2.weight"> : tensor<1280xf16>
  util.global private @__auto.unet.down_blocks.2.attentions.1.transformer_blocks.5.norm2.bias = #stream.parameter.named<"model"::"unet.down_blocks.2.attentions.1.transformer_blocks.5.norm2.bias"> : tensor<1280xf16>
  util.global private @__auto.unet.down_blocks.2.attentions.1.transformer_blocks.5.attn2.to_q.weight = #stream.parameter.named<"model"::"unet.down_blocks.2.attentions.1.transformer_blocks.5.attn2.to_q.weight"> : tensor<1280x1280xf16>
  util.global private @__auto.unet.down_blocks.2.attentions.1.transformer_blocks.5.attn2.to_k.weight = #stream.parameter.named<"model"::"unet.down_blocks.2.attentions.1.transformer_blocks.5.attn2.to_k.weight"> : tensor<1280x2048xf16>
  util.global private @__auto.unet.down_blocks.2.attentions.1.transformer_blocks.5.attn2.to_v.weight = #stream.parameter.named<"model"::"unet.down_blocks.2.attentions.1.transformer_blocks.5.attn2.to_v.weight"> : tensor<1280x2048xf16>
  util.global private @__auto.unet.down_blocks.2.attentions.1.transformer_blocks.5.attn2.to_out.0.weight = #stream.parameter.named<"model"::"unet.down_blocks.2.attentions.1.transformer_blocks.5.attn2.to_out.0.weight"> : tensor<1280x1280xf16>
  util.global private @__auto.unet.down_blocks.2.attentions.1.transformer_blocks.5.attn2.to_out.0.bias = #stream.parameter.named<"model"::"unet.down_blocks.2.attentions.1.transformer_blocks.5.attn2.to_out.0.bias"> : tensor<1280xf16>
  util.global private @__auto.unet.down_blocks.2.attentions.1.transformer_blocks.5.norm3.weight = #stream.parameter.named<"model"::"unet.down_blocks.2.attentions.1.transformer_blocks.5.norm3.weight"> : tensor<1280xf16>
  util.global private @__auto.unet.down_blocks.2.attentions.1.transformer_blocks.5.norm3.bias = #stream.parameter.named<"model"::"unet.down_blocks.2.attentions.1.transformer_blocks.5.norm3.bias"> : tensor<1280xf16>
  util.global private @__auto.unet.down_blocks.2.attentions.1.transformer_blocks.5.ff.net.0.proj.weight = #stream.parameter.named<"model"::"unet.down_blocks.2.attentions.1.transformer_blocks.5.ff.net.0.proj.weight"> : tensor<10240x1280xf16>
  util.global private @__auto.unet.down_blocks.2.attentions.1.transformer_blocks.5.ff.net.0.proj.bias = #stream.parameter.named<"model"::"unet.down_blocks.2.attentions.1.transformer_blocks.5.ff.net.0.proj.bias"> : tensor<10240xf16>
  util.global private @__auto.unet.down_blocks.2.attentions.1.transformer_blocks.5.ff.net.2.weight = #stream.parameter.named<"model"::"unet.down_blocks.2.attentions.1.transformer_blocks.5.ff.net.2.weight"> : tensor<1280x5120xf16>
  util.global private @__auto.unet.down_blocks.2.attentions.1.transformer_blocks.5.ff.net.2.bias = #stream.parameter.named<"model"::"unet.down_blocks.2.attentions.1.transformer_blocks.5.ff.net.2.bias"> : tensor<1280xf16>
  util.global private @__auto.unet.down_blocks.2.attentions.1.transformer_blocks.6.norm1.weight = #stream.parameter.named<"model"::"unet.down_blocks.2.attentions.1.transformer_blocks.6.norm1.weight"> : tensor<1280xf16>
  util.global private @__auto.unet.down_blocks.2.attentions.1.transformer_blocks.6.norm1.bias = #stream.parameter.named<"model"::"unet.down_blocks.2.attentions.1.transformer_blocks.6.norm1.bias"> : tensor<1280xf16>
  util.global private @__auto.unet.down_blocks.2.attentions.1.transformer_blocks.6.attn1.to_q.weight = #stream.parameter.named<"model"::"unet.down_blocks.2.attentions.1.transformer_blocks.6.attn1.to_q.weight"> : tensor<1280x1280xf16>
  util.global private @__auto.unet.down_blocks.2.attentions.1.transformer_blocks.6.attn1.to_k.weight = #stream.parameter.named<"model"::"unet.down_blocks.2.attentions.1.transformer_blocks.6.attn1.to_k.weight"> : tensor<1280x1280xf16>
  util.global private @__auto.unet.down_blocks.2.attentions.1.transformer_blocks.6.attn1.to_v.weight = #stream.parameter.named<"model"::"unet.down_blocks.2.attentions.1.transformer_blocks.6.attn1.to_v.weight"> : tensor<1280x1280xf16>
  util.global private @__auto.unet.down_blocks.2.attentions.1.transformer_blocks.6.attn1.to_out.0.weight = #stream.parameter.named<"model"::"unet.down_blocks.2.attentions.1.transformer_blocks.6.attn1.to_out.0.weight"> : tensor<1280x1280xf16>
  util.global private @__auto.unet.down_blocks.2.attentions.1.transformer_blocks.6.attn1.to_out.0.bias = #stream.parameter.named<"model"::"unet.down_blocks.2.attentions.1.transformer_blocks.6.attn1.to_out.0.bias"> : tensor<1280xf16>
  util.global private @__auto.unet.down_blocks.2.attentions.1.transformer_blocks.6.norm2.weight = #stream.parameter.named<"model"::"unet.down_blocks.2.attentions.1.transformer_blocks.6.norm2.weight"> : tensor<1280xf16>
  util.global private @__auto.unet.down_blocks.2.attentions.1.transformer_blocks.6.norm2.bias = #stream.parameter.named<"model"::"unet.down_blocks.2.attentions.1.transformer_blocks.6.norm2.bias"> : tensor<1280xf16>
  util.global private @__auto.unet.down_blocks.2.attentions.1.transformer_blocks.6.attn2.to_q.weight = #stream.parameter.named<"model"::"unet.down_blocks.2.attentions.1.transformer_blocks.6.attn2.to_q.weight"> : tensor<1280x1280xf16>
  util.global private @__auto.unet.down_blocks.2.attentions.1.transformer_blocks.6.attn2.to_k.weight = #stream.parameter.named<"model"::"unet.down_blocks.2.attentions.1.transformer_blocks.6.attn2.to_k.weight"> : tensor<1280x2048xf16>
  util.global private @__auto.unet.down_blocks.2.attentions.1.transformer_blocks.6.attn2.to_v.weight = #stream.parameter.named<"model"::"unet.down_blocks.2.attentions.1.transformer_blocks.6.attn2.to_v.weight"> : tensor<1280x2048xf16>
  util.global private @__auto.unet.down_blocks.2.attentions.1.transformer_blocks.6.attn2.to_out.0.weight = #stream.parameter.named<"model"::"unet.down_blocks.2.attentions.1.transformer_blocks.6.attn2.to_out.0.weight"> : tensor<1280x1280xf16>
  util.global private @__auto.unet.down_blocks.2.attentions.1.transformer_blocks.6.attn2.to_out.0.bias = #stream.parameter.named<"model"::"unet.down_blocks.2.attentions.1.transformer_blocks.6.attn2.to_out.0.bias"> : tensor<1280xf16>
  util.global private @__auto.unet.down_blocks.2.attentions.1.transformer_blocks.6.norm3.weight = #stream.parameter.named<"model"::"unet.down_blocks.2.attentions.1.transformer_blocks.6.norm3.weight"> : tensor<1280xf16>
  util.global private @__auto.unet.down_blocks.2.attentions.1.transformer_blocks.6.norm3.bias = #stream.parameter.named<"model"::"unet.down_blocks.2.attentions.1.transformer_blocks.6.norm3.bias"> : tensor<1280xf16>
  util.global private @__auto.unet.down_blocks.2.attentions.1.transformer_blocks.6.ff.net.0.proj.weight = #stream.parameter.named<"model"::"unet.down_blocks.2.attentions.1.transformer_blocks.6.ff.net.0.proj.weight"> : tensor<10240x1280xf16>
  util.global private @__auto.unet.down_blocks.2.attentions.1.transformer_blocks.6.ff.net.0.proj.bias = #stream.parameter.named<"model"::"unet.down_blocks.2.attentions.1.transformer_blocks.6.ff.net.0.proj.bias"> : tensor<10240xf16>
  util.global private @__auto.unet.down_blocks.2.attentions.1.transformer_blocks.6.ff.net.2.weight = #stream.parameter.named<"model"::"unet.down_blocks.2.attentions.1.transformer_blocks.6.ff.net.2.weight"> : tensor<1280x5120xf16>
  util.global private @__auto.unet.down_blocks.2.attentions.1.transformer_blocks.6.ff.net.2.bias = #stream.parameter.named<"model"::"unet.down_blocks.2.attentions.1.transformer_blocks.6.ff.net.2.bias"> : tensor<1280xf16>
  util.global private @__auto.unet.down_blocks.2.attentions.1.transformer_blocks.7.norm1.weight = #stream.parameter.named<"model"::"unet.down_blocks.2.attentions.1.transformer_blocks.7.norm1.weight"> : tensor<1280xf16>
  util.global private @__auto.unet.down_blocks.2.attentions.1.transformer_blocks.7.norm1.bias = #stream.parameter.named<"model"::"unet.down_blocks.2.attentions.1.transformer_blocks.7.norm1.bias"> : tensor<1280xf16>
  util.global private @__auto.unet.down_blocks.2.attentions.1.transformer_blocks.7.attn1.to_q.weight = #stream.parameter.named<"model"::"unet.down_blocks.2.attentions.1.transformer_blocks.7.attn1.to_q.weight"> : tensor<1280x1280xf16>
  util.global private @__auto.unet.down_blocks.2.attentions.1.transformer_blocks.7.attn1.to_k.weight = #stream.parameter.named<"model"::"unet.down_blocks.2.attentions.1.transformer_blocks.7.attn1.to_k.weight"> : tensor<1280x1280xf16>
  util.global private @__auto.unet.down_blocks.2.attentions.1.transformer_blocks.7.attn1.to_v.weight = #stream.parameter.named<"model"::"unet.down_blocks.2.attentions.1.transformer_blocks.7.attn1.to_v.weight"> : tensor<1280x1280xf16>
  util.global private @__auto.unet.down_blocks.2.attentions.1.transformer_blocks.7.attn1.to_out.0.weight = #stream.parameter.named<"model"::"unet.down_blocks.2.attentions.1.transformer_blocks.7.attn1.to_out.0.weight"> : tensor<1280x1280xf16>
  util.global private @__auto.unet.down_blocks.2.attentions.1.transformer_blocks.7.attn1.to_out.0.bias = #stream.parameter.named<"model"::"unet.down_blocks.2.attentions.1.transformer_blocks.7.attn1.to_out.0.bias"> : tensor<1280xf16>
  util.global private @__auto.unet.down_blocks.2.attentions.1.transformer_blocks.7.norm2.weight = #stream.parameter.named<"model"::"unet.down_blocks.2.attentions.1.transformer_blocks.7.norm2.weight"> : tensor<1280xf16>
  util.global private @__auto.unet.down_blocks.2.attentions.1.transformer_blocks.7.norm2.bias = #stream.parameter.named<"model"::"unet.down_blocks.2.attentions.1.transformer_blocks.7.norm2.bias"> : tensor<1280xf16>
  util.global private @__auto.unet.down_blocks.2.attentions.1.transformer_blocks.7.attn2.to_q.weight = #stream.parameter.named<"model"::"unet.down_blocks.2.attentions.1.transformer_blocks.7.attn2.to_q.weight"> : tensor<1280x1280xf16>
  util.global private @__auto.unet.down_blocks.2.attentions.1.transformer_blocks.7.attn2.to_k.weight = #stream.parameter.named<"model"::"unet.down_blocks.2.attentions.1.transformer_blocks.7.attn2.to_k.weight"> : tensor<1280x2048xf16>
  util.global private @__auto.unet.down_blocks.2.attentions.1.transformer_blocks.7.attn2.to_v.weight = #stream.parameter.named<"model"::"unet.down_blocks.2.attentions.1.transformer_blocks.7.attn2.to_v.weight"> : tensor<1280x2048xf16>
  util.global private @__auto.unet.down_blocks.2.attentions.1.transformer_blocks.7.attn2.to_out.0.weight = #stream.parameter.named<"model"::"unet.down_blocks.2.attentions.1.transformer_blocks.7.attn2.to_out.0.weight"> : tensor<1280x1280xf16>
  util.global private @__auto.unet.down_blocks.2.attentions.1.transformer_blocks.7.attn2.to_out.0.bias = #stream.parameter.named<"model"::"unet.down_blocks.2.attentions.1.transformer_blocks.7.attn2.to_out.0.bias"> : tensor<1280xf16>
  util.global private @__auto.unet.down_blocks.2.attentions.1.transformer_blocks.7.norm3.weight = #stream.parameter.named<"model"::"unet.down_blocks.2.attentions.1.transformer_blocks.7.norm3.weight"> : tensor<1280xf16>
  util.global private @__auto.unet.down_blocks.2.attentions.1.transformer_blocks.7.norm3.bias = #stream.parameter.named<"model"::"unet.down_blocks.2.attentions.1.transformer_blocks.7.norm3.bias"> : tensor<1280xf16>
  util.global private @__auto.unet.down_blocks.2.attentions.1.transformer_blocks.7.ff.net.0.proj.weight = #stream.parameter.named<"model"::"unet.down_blocks.2.attentions.1.transformer_blocks.7.ff.net.0.proj.weight"> : tensor<10240x1280xf16>
  util.global private @__auto.unet.down_blocks.2.attentions.1.transformer_blocks.7.ff.net.0.proj.bias = #stream.parameter.named<"model"::"unet.down_blocks.2.attentions.1.transformer_blocks.7.ff.net.0.proj.bias"> : tensor<10240xf16>
  util.global private @__auto.unet.down_blocks.2.attentions.1.transformer_blocks.7.ff.net.2.weight = #stream.parameter.named<"model"::"unet.down_blocks.2.attentions.1.transformer_blocks.7.ff.net.2.weight"> : tensor<1280x5120xf16>
  util.global private @__auto.unet.down_blocks.2.attentions.1.transformer_blocks.7.ff.net.2.bias = #stream.parameter.named<"model"::"unet.down_blocks.2.attentions.1.transformer_blocks.7.ff.net.2.bias"> : tensor<1280xf16>
  util.global private @__auto.unet.down_blocks.2.attentions.1.transformer_blocks.8.norm1.weight = #stream.parameter.named<"model"::"unet.down_blocks.2.attentions.1.transformer_blocks.8.norm1.weight"> : tensor<1280xf16>
  util.global private @__auto.unet.down_blocks.2.attentions.1.transformer_blocks.8.norm1.bias = #stream.parameter.named<"model"::"unet.down_blocks.2.attentions.1.transformer_blocks.8.norm1.bias"> : tensor<1280xf16>
  util.global private @__auto.unet.down_blocks.2.attentions.1.transformer_blocks.8.attn1.to_q.weight = #stream.parameter.named<"model"::"unet.down_blocks.2.attentions.1.transformer_blocks.8.attn1.to_q.weight"> : tensor<1280x1280xf16>
  util.global private @__auto.unet.down_blocks.2.attentions.1.transformer_blocks.8.attn1.to_k.weight = #stream.parameter.named<"model"::"unet.down_blocks.2.attentions.1.transformer_blocks.8.attn1.to_k.weight"> : tensor<1280x1280xf16>
  util.global private @__auto.unet.down_blocks.2.attentions.1.transformer_blocks.8.attn1.to_v.weight = #stream.parameter.named<"model"::"unet.down_blocks.2.attentions.1.transformer_blocks.8.attn1.to_v.weight"> : tensor<1280x1280xf16>
  util.global private @__auto.unet.down_blocks.2.attentions.1.transformer_blocks.8.attn1.to_out.0.weight = #stream.parameter.named<"model"::"unet.down_blocks.2.attentions.1.transformer_blocks.8.attn1.to_out.0.weight"> : tensor<1280x1280xf16>
  util.global private @__auto.unet.down_blocks.2.attentions.1.transformer_blocks.8.attn1.to_out.0.bias = #stream.parameter.named<"model"::"unet.down_blocks.2.attentions.1.transformer_blocks.8.attn1.to_out.0.bias"> : tensor<1280xf16>
  util.global private @__auto.unet.down_blocks.2.attentions.1.transformer_blocks.8.norm2.weight = #stream.parameter.named<"model"::"unet.down_blocks.2.attentions.1.transformer_blocks.8.norm2.weight"> : tensor<1280xf16>
  util.global private @__auto.unet.down_blocks.2.attentions.1.transformer_blocks.8.norm2.bias = #stream.parameter.named<"model"::"unet.down_blocks.2.attentions.1.transformer_blocks.8.norm2.bias"> : tensor<1280xf16>
  util.global private @__auto.unet.down_blocks.2.attentions.1.transformer_blocks.8.attn2.to_q.weight = #stream.parameter.named<"model"::"unet.down_blocks.2.attentions.1.transformer_blocks.8.attn2.to_q.weight"> : tensor<1280x1280xf16>
  util.global private @__auto.unet.down_blocks.2.attentions.1.transformer_blocks.8.attn2.to_k.weight = #stream.parameter.named<"model"::"unet.down_blocks.2.attentions.1.transformer_blocks.8.attn2.to_k.weight"> : tensor<1280x2048xf16>
  util.global private @__auto.unet.down_blocks.2.attentions.1.transformer_blocks.8.attn2.to_v.weight = #stream.parameter.named<"model"::"unet.down_blocks.2.attentions.1.transformer_blocks.8.attn2.to_v.weight"> : tensor<1280x2048xf16>
  util.global private @__auto.unet.down_blocks.2.attentions.1.transformer_blocks.8.attn2.to_out.0.weight = #stream.parameter.named<"model"::"unet.down_blocks.2.attentions.1.transformer_blocks.8.attn2.to_out.0.weight"> : tensor<1280x1280xf16>
  util.global private @__auto.unet.down_blocks.2.attentions.1.transformer_blocks.8.attn2.to_out.0.bias = #stream.parameter.named<"model"::"unet.down_blocks.2.attentions.1.transformer_blocks.8.attn2.to_out.0.bias"> : tensor<1280xf16>
  util.global private @__auto.unet.down_blocks.2.attentions.1.transformer_blocks.8.norm3.weight = #stream.parameter.named<"model"::"unet.down_blocks.2.attentions.1.transformer_blocks.8.norm3.weight"> : tensor<1280xf16>
  util.global private @__auto.unet.down_blocks.2.attentions.1.transformer_blocks.8.norm3.bias = #stream.parameter.named<"model"::"unet.down_blocks.2.attentions.1.transformer_blocks.8.norm3.bias"> : tensor<1280xf16>
  util.global private @__auto.unet.down_blocks.2.attentions.1.transformer_blocks.8.ff.net.0.proj.weight = #stream.parameter.named<"model"::"unet.down_blocks.2.attentions.1.transformer_blocks.8.ff.net.0.proj.weight"> : tensor<10240x1280xf16>
  util.global private @__auto.unet.down_blocks.2.attentions.1.transformer_blocks.8.ff.net.0.proj.bias = #stream.parameter.named<"model"::"unet.down_blocks.2.attentions.1.transformer_blocks.8.ff.net.0.proj.bias"> : tensor<10240xf16>
  util.global private @__auto.unet.down_blocks.2.attentions.1.transformer_blocks.8.ff.net.2.weight = #stream.parameter.named<"model"::"unet.down_blocks.2.attentions.1.transformer_blocks.8.ff.net.2.weight"> : tensor<1280x5120xf16>
  util.global private @__auto.unet.down_blocks.2.attentions.1.transformer_blocks.8.ff.net.2.bias = #stream.parameter.named<"model"::"unet.down_blocks.2.attentions.1.transformer_blocks.8.ff.net.2.bias"> : tensor<1280xf16>
  util.global private @__auto.unet.down_blocks.2.attentions.1.transformer_blocks.9.norm1.weight = #stream.parameter.named<"model"::"unet.down_blocks.2.attentions.1.transformer_blocks.9.norm1.weight"> : tensor<1280xf16>
  util.global private @__auto.unet.down_blocks.2.attentions.1.transformer_blocks.9.norm1.bias = #stream.parameter.named<"model"::"unet.down_blocks.2.attentions.1.transformer_blocks.9.norm1.bias"> : tensor<1280xf16>
  util.global private @__auto.unet.down_blocks.2.attentions.1.transformer_blocks.9.attn1.to_q.weight = #stream.parameter.named<"model"::"unet.down_blocks.2.attentions.1.transformer_blocks.9.attn1.to_q.weight"> : tensor<1280x1280xf16>
  util.global private @__auto.unet.down_blocks.2.attentions.1.transformer_blocks.9.attn1.to_k.weight = #stream.parameter.named<"model"::"unet.down_blocks.2.attentions.1.transformer_blocks.9.attn1.to_k.weight"> : tensor<1280x1280xf16>
  util.global private @__auto.unet.down_blocks.2.attentions.1.transformer_blocks.9.attn1.to_v.weight = #stream.parameter.named<"model"::"unet.down_blocks.2.attentions.1.transformer_blocks.9.attn1.to_v.weight"> : tensor<1280x1280xf16>
  util.global private @__auto.unet.down_blocks.2.attentions.1.transformer_blocks.9.attn1.to_out.0.weight = #stream.parameter.named<"model"::"unet.down_blocks.2.attentions.1.transformer_blocks.9.attn1.to_out.0.weight"> : tensor<1280x1280xf16>
  util.global private @__auto.unet.down_blocks.2.attentions.1.transformer_blocks.9.attn1.to_out.0.bias = #stream.parameter.named<"model"::"unet.down_blocks.2.attentions.1.transformer_blocks.9.attn1.to_out.0.bias"> : tensor<1280xf16>
  util.global private @__auto.unet.down_blocks.2.attentions.1.transformer_blocks.9.norm2.weight = #stream.parameter.named<"model"::"unet.down_blocks.2.attentions.1.transformer_blocks.9.norm2.weight"> : tensor<1280xf16>
  util.global private @__auto.unet.down_blocks.2.attentions.1.transformer_blocks.9.norm2.bias = #stream.parameter.named<"model"::"unet.down_blocks.2.attentions.1.transformer_blocks.9.norm2.bias"> : tensor<1280xf16>
  util.global private @__auto.unet.down_blocks.2.attentions.1.transformer_blocks.9.attn2.to_q.weight = #stream.parameter.named<"model"::"unet.down_blocks.2.attentions.1.transformer_blocks.9.attn2.to_q.weight"> : tensor<1280x1280xf16>
  util.global private @__auto.unet.down_blocks.2.attentions.1.transformer_blocks.9.attn2.to_k.weight = #stream.parameter.named<"model"::"unet.down_blocks.2.attentions.1.transformer_blocks.9.attn2.to_k.weight"> : tensor<1280x2048xf16>
  util.global private @__auto.unet.down_blocks.2.attentions.1.transformer_blocks.9.attn2.to_v.weight = #stream.parameter.named<"model"::"unet.down_blocks.2.attentions.1.transformer_blocks.9.attn2.to_v.weight"> : tensor<1280x2048xf16>
  util.global private @__auto.unet.down_blocks.2.attentions.1.transformer_blocks.9.attn2.to_out.0.weight = #stream.parameter.named<"model"::"unet.down_blocks.2.attentions.1.transformer_blocks.9.attn2.to_out.0.weight"> : tensor<1280x1280xf16>
  util.global private @__auto.unet.down_blocks.2.attentions.1.transformer_blocks.9.attn2.to_out.0.bias = #stream.parameter.named<"model"::"unet.down_blocks.2.attentions.1.transformer_blocks.9.attn2.to_out.0.bias"> : tensor<1280xf16>
  util.global private @__auto.unet.down_blocks.2.attentions.1.transformer_blocks.9.norm3.weight = #stream.parameter.named<"model"::"unet.down_blocks.2.attentions.1.transformer_blocks.9.norm3.weight"> : tensor<1280xf16>
  util.global private @__auto.unet.down_blocks.2.attentions.1.transformer_blocks.9.norm3.bias = #stream.parameter.named<"model"::"unet.down_blocks.2.attentions.1.transformer_blocks.9.norm3.bias"> : tensor<1280xf16>
  util.global private @__auto.unet.down_blocks.2.attentions.1.transformer_blocks.9.ff.net.0.proj.weight = #stream.parameter.named<"model"::"unet.down_blocks.2.attentions.1.transformer_blocks.9.ff.net.0.proj.weight"> : tensor<10240x1280xf16>
  util.global private @__auto.unet.down_blocks.2.attentions.1.transformer_blocks.9.ff.net.0.proj.bias = #stream.parameter.named<"model"::"unet.down_blocks.2.attentions.1.transformer_blocks.9.ff.net.0.proj.bias"> : tensor<10240xf16>
  util.global private @__auto.unet.down_blocks.2.attentions.1.transformer_blocks.9.ff.net.2.weight = #stream.parameter.named<"model"::"unet.down_blocks.2.attentions.1.transformer_blocks.9.ff.net.2.weight"> : tensor<1280x5120xf16>
  util.global private @__auto.unet.down_blocks.2.attentions.1.transformer_blocks.9.ff.net.2.bias = #stream.parameter.named<"model"::"unet.down_blocks.2.attentions.1.transformer_blocks.9.ff.net.2.bias"> : tensor<1280xf16>
  util.global private @__auto.unet.down_blocks.2.attentions.1.proj_out.weight = #stream.parameter.named<"model"::"unet.down_blocks.2.attentions.1.proj_out.weight"> : tensor<1280x1280xf16>
  util.global private @__auto.unet.down_blocks.2.attentions.1.proj_out.bias = #stream.parameter.named<"model"::"unet.down_blocks.2.attentions.1.proj_out.bias"> : tensor<1280xf16>
  util.global private @__auto.unet.mid_block.resnets.0.norm1.bias = #stream.parameter.named<"model"::"unet.mid_block.resnets.0.norm1.bias"> : tensor<1280xf16>
  util.global private @__auto.unet.mid_block.resnets.0.norm1.weight = #stream.parameter.named<"model"::"unet.mid_block.resnets.0.norm1.weight"> : tensor<1280xf16>
  util.global private @__auto.unet.mid_block.resnets.0.conv1.weight = #stream.parameter.named<"model"::"unet.mid_block.resnets.0.conv1.weight"> : tensor<1280x1280x3x3xf16>
  util.global private @__auto.unet.mid_block.resnets.0.conv1.bias = #stream.parameter.named<"model"::"unet.mid_block.resnets.0.conv1.bias"> : tensor<1280xf16>
  util.global private @__auto.unet.mid_block.resnets.0.time_emb_proj.weight = #stream.parameter.named<"model"::"unet.mid_block.resnets.0.time_emb_proj.weight"> : tensor<1280x1280xf16>
  util.global private @__auto.unet.mid_block.resnets.0.time_emb_proj.bias = #stream.parameter.named<"model"::"unet.mid_block.resnets.0.time_emb_proj.bias"> : tensor<1280xf16>
  util.global private @__auto.unet.mid_block.resnets.0.norm2.bias = #stream.parameter.named<"model"::"unet.mid_block.resnets.0.norm2.bias"> : tensor<1280xf16>
  util.global private @__auto.unet.mid_block.resnets.0.norm2.weight = #stream.parameter.named<"model"::"unet.mid_block.resnets.0.norm2.weight"> : tensor<1280xf16>
  util.global private @__auto.unet.mid_block.resnets.0.conv2.weight = #stream.parameter.named<"model"::"unet.mid_block.resnets.0.conv2.weight"> : tensor<1280x1280x3x3xf16>
  util.global private @__auto.unet.mid_block.resnets.0.conv2.bias = #stream.parameter.named<"model"::"unet.mid_block.resnets.0.conv2.bias"> : tensor<1280xf16>
  util.global private @__auto.unet.mid_block.attentions.0.norm.bias = #stream.parameter.named<"model"::"unet.mid_block.attentions.0.norm.bias"> : tensor<1280xf16>
  util.global private @__auto.unet.mid_block.attentions.0.norm.weight = #stream.parameter.named<"model"::"unet.mid_block.attentions.0.norm.weight"> : tensor<1280xf16>
  util.global private @__auto.unet.mid_block.attentions.0.proj_in.weight = #stream.parameter.named<"model"::"unet.mid_block.attentions.0.proj_in.weight"> : tensor<1280x1280xf16>
  util.global private @__auto.unet.mid_block.attentions.0.proj_in.bias = #stream.parameter.named<"model"::"unet.mid_block.attentions.0.proj_in.bias"> : tensor<1280xf16>
  util.global private @__auto.unet.mid_block.attentions.0.transformer_blocks.0.norm1.weight = #stream.parameter.named<"model"::"unet.mid_block.attentions.0.transformer_blocks.0.norm1.weight"> : tensor<1280xf16>
  util.global private @__auto.unet.mid_block.attentions.0.transformer_blocks.0.norm1.bias = #stream.parameter.named<"model"::"unet.mid_block.attentions.0.transformer_blocks.0.norm1.bias"> : tensor<1280xf16>
  util.global private @__auto.unet.mid_block.attentions.0.transformer_blocks.0.attn1.to_q.weight = #stream.parameter.named<"model"::"unet.mid_block.attentions.0.transformer_blocks.0.attn1.to_q.weight"> : tensor<1280x1280xf16>
  util.global private @__auto.unet.mid_block.attentions.0.transformer_blocks.0.attn1.to_k.weight = #stream.parameter.named<"model"::"unet.mid_block.attentions.0.transformer_blocks.0.attn1.to_k.weight"> : tensor<1280x1280xf16>
  util.global private @__auto.unet.mid_block.attentions.0.transformer_blocks.0.attn1.to_v.weight = #stream.parameter.named<"model"::"unet.mid_block.attentions.0.transformer_blocks.0.attn1.to_v.weight"> : tensor<1280x1280xf16>
  util.global private @__auto.unet.mid_block.attentions.0.transformer_blocks.0.attn1.to_out.0.weight = #stream.parameter.named<"model"::"unet.mid_block.attentions.0.transformer_blocks.0.attn1.to_out.0.weight"> : tensor<1280x1280xf16>
  util.global private @__auto.unet.mid_block.attentions.0.transformer_blocks.0.attn1.to_out.0.bias = #stream.parameter.named<"model"::"unet.mid_block.attentions.0.transformer_blocks.0.attn1.to_out.0.bias"> : tensor<1280xf16>
  util.global private @__auto.unet.mid_block.attentions.0.transformer_blocks.0.norm2.weight = #stream.parameter.named<"model"::"unet.mid_block.attentions.0.transformer_blocks.0.norm2.weight"> : tensor<1280xf16>
  util.global private @__auto.unet.mid_block.attentions.0.transformer_blocks.0.norm2.bias = #stream.parameter.named<"model"::"unet.mid_block.attentions.0.transformer_blocks.0.norm2.bias"> : tensor<1280xf16>
  util.global private @__auto.unet.mid_block.attentions.0.transformer_blocks.0.attn2.to_q.weight = #stream.parameter.named<"model"::"unet.mid_block.attentions.0.transformer_blocks.0.attn2.to_q.weight"> : tensor<1280x1280xf16>
  util.global private @__auto.unet.mid_block.attentions.0.transformer_blocks.0.attn2.to_k.weight = #stream.parameter.named<"model"::"unet.mid_block.attentions.0.transformer_blocks.0.attn2.to_k.weight"> : tensor<1280x2048xf16>
  util.global private @__auto.unet.mid_block.attentions.0.transformer_blocks.0.attn2.to_v.weight = #stream.parameter.named<"model"::"unet.mid_block.attentions.0.transformer_blocks.0.attn2.to_v.weight"> : tensor<1280x2048xf16>
  util.global private @__auto.unet.mid_block.attentions.0.transformer_blocks.0.attn2.to_out.0.weight = #stream.parameter.named<"model"::"unet.mid_block.attentions.0.transformer_blocks.0.attn2.to_out.0.weight"> : tensor<1280x1280xf16>
  util.global private @__auto.unet.mid_block.attentions.0.transformer_blocks.0.attn2.to_out.0.bias = #stream.parameter.named<"model"::"unet.mid_block.attentions.0.transformer_blocks.0.attn2.to_out.0.bias"> : tensor<1280xf16>
  util.global private @__auto.unet.mid_block.attentions.0.transformer_blocks.0.norm3.weight = #stream.parameter.named<"model"::"unet.mid_block.attentions.0.transformer_blocks.0.norm3.weight"> : tensor<1280xf16>
  util.global private @__auto.unet.mid_block.attentions.0.transformer_blocks.0.norm3.bias = #stream.parameter.named<"model"::"unet.mid_block.attentions.0.transformer_blocks.0.norm3.bias"> : tensor<1280xf16>
  util.global private @__auto.unet.mid_block.attentions.0.transformer_blocks.0.ff.net.0.proj.weight = #stream.parameter.named<"model"::"unet.mid_block.attentions.0.transformer_blocks.0.ff.net.0.proj.weight"> : tensor<10240x1280xf16>
  util.global private @__auto.unet.mid_block.attentions.0.transformer_blocks.0.ff.net.0.proj.bias = #stream.parameter.named<"model"::"unet.mid_block.attentions.0.transformer_blocks.0.ff.net.0.proj.bias"> : tensor<10240xf16>
  util.global private @__auto.unet.mid_block.attentions.0.transformer_blocks.0.ff.net.2.weight = #stream.parameter.named<"model"::"unet.mid_block.attentions.0.transformer_blocks.0.ff.net.2.weight"> : tensor<1280x5120xf16>
  util.global private @__auto.unet.mid_block.attentions.0.transformer_blocks.0.ff.net.2.bias = #stream.parameter.named<"model"::"unet.mid_block.attentions.0.transformer_blocks.0.ff.net.2.bias"> : tensor<1280xf16>
  util.global private @__auto.unet.mid_block.attentions.0.transformer_blocks.1.norm1.weight = #stream.parameter.named<"model"::"unet.mid_block.attentions.0.transformer_blocks.1.norm1.weight"> : tensor<1280xf16>
  util.global private @__auto.unet.mid_block.attentions.0.transformer_blocks.1.norm1.bias = #stream.parameter.named<"model"::"unet.mid_block.attentions.0.transformer_blocks.1.norm1.bias"> : tensor<1280xf16>
  util.global private @__auto.unet.mid_block.attentions.0.transformer_blocks.1.attn1.to_q.weight = #stream.parameter.named<"model"::"unet.mid_block.attentions.0.transformer_blocks.1.attn1.to_q.weight"> : tensor<1280x1280xf16>
  util.global private @__auto.unet.mid_block.attentions.0.transformer_blocks.1.attn1.to_k.weight = #stream.parameter.named<"model"::"unet.mid_block.attentions.0.transformer_blocks.1.attn1.to_k.weight"> : tensor<1280x1280xf16>
  util.global private @__auto.unet.mid_block.attentions.0.transformer_blocks.1.attn1.to_v.weight = #stream.parameter.named<"model"::"unet.mid_block.attentions.0.transformer_blocks.1.attn1.to_v.weight"> : tensor<1280x1280xf16>
  util.global private @__auto.unet.mid_block.attentions.0.transformer_blocks.1.attn1.to_out.0.weight = #stream.parameter.named<"model"::"unet.mid_block.attentions.0.transformer_blocks.1.attn1.to_out.0.weight"> : tensor<1280x1280xf16>
  util.global private @__auto.unet.mid_block.attentions.0.transformer_blocks.1.attn1.to_out.0.bias = #stream.parameter.named<"model"::"unet.mid_block.attentions.0.transformer_blocks.1.attn1.to_out.0.bias"> : tensor<1280xf16>
  util.global private @__auto.unet.mid_block.attentions.0.transformer_blocks.1.norm2.weight = #stream.parameter.named<"model"::"unet.mid_block.attentions.0.transformer_blocks.1.norm2.weight"> : tensor<1280xf16>
  util.global private @__auto.unet.mid_block.attentions.0.transformer_blocks.1.norm2.bias = #stream.parameter.named<"model"::"unet.mid_block.attentions.0.transformer_blocks.1.norm2.bias"> : tensor<1280xf16>
  util.global private @__auto.unet.mid_block.attentions.0.transformer_blocks.1.attn2.to_q.weight = #stream.parameter.named<"model"::"unet.mid_block.attentions.0.transformer_blocks.1.attn2.to_q.weight"> : tensor<1280x1280xf16>
  util.global private @__auto.unet.mid_block.attentions.0.transformer_blocks.1.attn2.to_k.weight = #stream.parameter.named<"model"::"unet.mid_block.attentions.0.transformer_blocks.1.attn2.to_k.weight"> : tensor<1280x2048xf16>
  util.global private @__auto.unet.mid_block.attentions.0.transformer_blocks.1.attn2.to_v.weight = #stream.parameter.named<"model"::"unet.mid_block.attentions.0.transformer_blocks.1.attn2.to_v.weight"> : tensor<1280x2048xf16>
  util.global private @__auto.unet.mid_block.attentions.0.transformer_blocks.1.attn2.to_out.0.weight = #stream.parameter.named<"model"::"unet.mid_block.attentions.0.transformer_blocks.1.attn2.to_out.0.weight"> : tensor<1280x1280xf16>
  util.global private @__auto.unet.mid_block.attentions.0.transformer_blocks.1.attn2.to_out.0.bias = #stream.parameter.named<"model"::"unet.mid_block.attentions.0.transformer_blocks.1.attn2.to_out.0.bias"> : tensor<1280xf16>
  util.global private @__auto.unet.mid_block.attentions.0.transformer_blocks.1.norm3.weight = #stream.parameter.named<"model"::"unet.mid_block.attentions.0.transformer_blocks.1.norm3.weight"> : tensor<1280xf16>
  util.global private @__auto.unet.mid_block.attentions.0.transformer_blocks.1.norm3.bias = #stream.parameter.named<"model"::"unet.mid_block.attentions.0.transformer_blocks.1.norm3.bias"> : tensor<1280xf16>
  util.global private @__auto.unet.mid_block.attentions.0.transformer_blocks.1.ff.net.0.proj.weight = #stream.parameter.named<"model"::"unet.mid_block.attentions.0.transformer_blocks.1.ff.net.0.proj.weight"> : tensor<10240x1280xf16>
  util.global private @__auto.unet.mid_block.attentions.0.transformer_blocks.1.ff.net.0.proj.bias = #stream.parameter.named<"model"::"unet.mid_block.attentions.0.transformer_blocks.1.ff.net.0.proj.bias"> : tensor<10240xf16>
  util.global private @__auto.unet.mid_block.attentions.0.transformer_blocks.1.ff.net.2.weight = #stream.parameter.named<"model"::"unet.mid_block.attentions.0.transformer_blocks.1.ff.net.2.weight"> : tensor<1280x5120xf16>
  util.global private @__auto.unet.mid_block.attentions.0.transformer_blocks.1.ff.net.2.bias = #stream.parameter.named<"model"::"unet.mid_block.attentions.0.transformer_blocks.1.ff.net.2.bias"> : tensor<1280xf16>
  util.global private @__auto.unet.mid_block.attentions.0.transformer_blocks.2.norm1.weight = #stream.parameter.named<"model"::"unet.mid_block.attentions.0.transformer_blocks.2.norm1.weight"> : tensor<1280xf16>
  util.global private @__auto.unet.mid_block.attentions.0.transformer_blocks.2.norm1.bias = #stream.parameter.named<"model"::"unet.mid_block.attentions.0.transformer_blocks.2.norm1.bias"> : tensor<1280xf16>
  util.global private @__auto.unet.mid_block.attentions.0.transformer_blocks.2.attn1.to_q.weight = #stream.parameter.named<"model"::"unet.mid_block.attentions.0.transformer_blocks.2.attn1.to_q.weight"> : tensor<1280x1280xf16>
  util.global private @__auto.unet.mid_block.attentions.0.transformer_blocks.2.attn1.to_k.weight = #stream.parameter.named<"model"::"unet.mid_block.attentions.0.transformer_blocks.2.attn1.to_k.weight"> : tensor<1280x1280xf16>
  util.global private @__auto.unet.mid_block.attentions.0.transformer_blocks.2.attn1.to_v.weight = #stream.parameter.named<"model"::"unet.mid_block.attentions.0.transformer_blocks.2.attn1.to_v.weight"> : tensor<1280x1280xf16>
  util.global private @__auto.unet.mid_block.attentions.0.transformer_blocks.2.attn1.to_out.0.weight = #stream.parameter.named<"model"::"unet.mid_block.attentions.0.transformer_blocks.2.attn1.to_out.0.weight"> : tensor<1280x1280xf16>
  util.global private @__auto.unet.mid_block.attentions.0.transformer_blocks.2.attn1.to_out.0.bias = #stream.parameter.named<"model"::"unet.mid_block.attentions.0.transformer_blocks.2.attn1.to_out.0.bias"> : tensor<1280xf16>
  util.global private @__auto.unet.mid_block.attentions.0.transformer_blocks.2.norm2.weight = #stream.parameter.named<"model"::"unet.mid_block.attentions.0.transformer_blocks.2.norm2.weight"> : tensor<1280xf16>
  util.global private @__auto.unet.mid_block.attentions.0.transformer_blocks.2.norm2.bias = #stream.parameter.named<"model"::"unet.mid_block.attentions.0.transformer_blocks.2.norm2.bias"> : tensor<1280xf16>
  util.global private @__auto.unet.mid_block.attentions.0.transformer_blocks.2.attn2.to_q.weight = #stream.parameter.named<"model"::"unet.mid_block.attentions.0.transformer_blocks.2.attn2.to_q.weight"> : tensor<1280x1280xf16>
  util.global private @__auto.unet.mid_block.attentions.0.transformer_blocks.2.attn2.to_k.weight = #stream.parameter.named<"model"::"unet.mid_block.attentions.0.transformer_blocks.2.attn2.to_k.weight"> : tensor<1280x2048xf16>
  util.global private @__auto.unet.mid_block.attentions.0.transformer_blocks.2.attn2.to_v.weight = #stream.parameter.named<"model"::"unet.mid_block.attentions.0.transformer_blocks.2.attn2.to_v.weight"> : tensor<1280x2048xf16>
  util.global private @__auto.unet.mid_block.attentions.0.transformer_blocks.2.attn2.to_out.0.weight = #stream.parameter.named<"model"::"unet.mid_block.attentions.0.transformer_blocks.2.attn2.to_out.0.weight"> : tensor<1280x1280xf16>
  util.global private @__auto.unet.mid_block.attentions.0.transformer_blocks.2.attn2.to_out.0.bias = #stream.parameter.named<"model"::"unet.mid_block.attentions.0.transformer_blocks.2.attn2.to_out.0.bias"> : tensor<1280xf16>
  util.global private @__auto.unet.mid_block.attentions.0.transformer_blocks.2.norm3.weight = #stream.parameter.named<"model"::"unet.mid_block.attentions.0.transformer_blocks.2.norm3.weight"> : tensor<1280xf16>
  util.global private @__auto.unet.mid_block.attentions.0.transformer_blocks.2.norm3.bias = #stream.parameter.named<"model"::"unet.mid_block.attentions.0.transformer_blocks.2.norm3.bias"> : tensor<1280xf16>
  util.global private @__auto.unet.mid_block.attentions.0.transformer_blocks.2.ff.net.0.proj.weight = #stream.parameter.named<"model"::"unet.mid_block.attentions.0.transformer_blocks.2.ff.net.0.proj.weight"> : tensor<10240x1280xf16>
  util.global private @__auto.unet.mid_block.attentions.0.transformer_blocks.2.ff.net.0.proj.bias = #stream.parameter.named<"model"::"unet.mid_block.attentions.0.transformer_blocks.2.ff.net.0.proj.bias"> : tensor<10240xf16>
  util.global private @__auto.unet.mid_block.attentions.0.transformer_blocks.2.ff.net.2.weight = #stream.parameter.named<"model"::"unet.mid_block.attentions.0.transformer_blocks.2.ff.net.2.weight"> : tensor<1280x5120xf16>
  util.global private @__auto.unet.mid_block.attentions.0.transformer_blocks.2.ff.net.2.bias = #stream.parameter.named<"model"::"unet.mid_block.attentions.0.transformer_blocks.2.ff.net.2.bias"> : tensor<1280xf16>
  util.global private @__auto.unet.mid_block.attentions.0.transformer_blocks.3.norm1.weight = #stream.parameter.named<"model"::"unet.mid_block.attentions.0.transformer_blocks.3.norm1.weight"> : tensor<1280xf16>
  util.global private @__auto.unet.mid_block.attentions.0.transformer_blocks.3.norm1.bias = #stream.parameter.named<"model"::"unet.mid_block.attentions.0.transformer_blocks.3.norm1.bias"> : tensor<1280xf16>
  util.global private @__auto.unet.mid_block.attentions.0.transformer_blocks.3.attn1.to_q.weight = #stream.parameter.named<"model"::"unet.mid_block.attentions.0.transformer_blocks.3.attn1.to_q.weight"> : tensor<1280x1280xf16>
  util.global private @__auto.unet.mid_block.attentions.0.transformer_blocks.3.attn1.to_k.weight = #stream.parameter.named<"model"::"unet.mid_block.attentions.0.transformer_blocks.3.attn1.to_k.weight"> : tensor<1280x1280xf16>
  util.global private @__auto.unet.mid_block.attentions.0.transformer_blocks.3.attn1.to_v.weight = #stream.parameter.named<"model"::"unet.mid_block.attentions.0.transformer_blocks.3.attn1.to_v.weight"> : tensor<1280x1280xf16>
  util.global private @__auto.unet.mid_block.attentions.0.transformer_blocks.3.attn1.to_out.0.weight = #stream.parameter.named<"model"::"unet.mid_block.attentions.0.transformer_blocks.3.attn1.to_out.0.weight"> : tensor<1280x1280xf16>
  util.global private @__auto.unet.mid_block.attentions.0.transformer_blocks.3.attn1.to_out.0.bias = #stream.parameter.named<"model"::"unet.mid_block.attentions.0.transformer_blocks.3.attn1.to_out.0.bias"> : tensor<1280xf16>
  util.global private @__auto.unet.mid_block.attentions.0.transformer_blocks.3.norm2.weight = #stream.parameter.named<"model"::"unet.mid_block.attentions.0.transformer_blocks.3.norm2.weight"> : tensor<1280xf16>
  util.global private @__auto.unet.mid_block.attentions.0.transformer_blocks.3.norm2.bias = #stream.parameter.named<"model"::"unet.mid_block.attentions.0.transformer_blocks.3.norm2.bias"> : tensor<1280xf16>
  util.global private @__auto.unet.mid_block.attentions.0.transformer_blocks.3.attn2.to_q.weight = #stream.parameter.named<"model"::"unet.mid_block.attentions.0.transformer_blocks.3.attn2.to_q.weight"> : tensor<1280x1280xf16>
  util.global private @__auto.unet.mid_block.attentions.0.transformer_blocks.3.attn2.to_k.weight = #stream.parameter.named<"model"::"unet.mid_block.attentions.0.transformer_blocks.3.attn2.to_k.weight"> : tensor<1280x2048xf16>
  util.global private @__auto.unet.mid_block.attentions.0.transformer_blocks.3.attn2.to_v.weight = #stream.parameter.named<"model"::"unet.mid_block.attentions.0.transformer_blocks.3.attn2.to_v.weight"> : tensor<1280x2048xf16>
  util.global private @__auto.unet.mid_block.attentions.0.transformer_blocks.3.attn2.to_out.0.weight = #stream.parameter.named<"model"::"unet.mid_block.attentions.0.transformer_blocks.3.attn2.to_out.0.weight"> : tensor<1280x1280xf16>
  util.global private @__auto.unet.mid_block.attentions.0.transformer_blocks.3.attn2.to_out.0.bias = #stream.parameter.named<"model"::"unet.mid_block.attentions.0.transformer_blocks.3.attn2.to_out.0.bias"> : tensor<1280xf16>
  util.global private @__auto.unet.mid_block.attentions.0.transformer_blocks.3.norm3.weight = #stream.parameter.named<"model"::"unet.mid_block.attentions.0.transformer_blocks.3.norm3.weight"> : tensor<1280xf16>
  util.global private @__auto.unet.mid_block.attentions.0.transformer_blocks.3.norm3.bias = #stream.parameter.named<"model"::"unet.mid_block.attentions.0.transformer_blocks.3.norm3.bias"> : tensor<1280xf16>
  util.global private @__auto.unet.mid_block.attentions.0.transformer_blocks.3.ff.net.0.proj.weight = #stream.parameter.named<"model"::"unet.mid_block.attentions.0.transformer_blocks.3.ff.net.0.proj.weight"> : tensor<10240x1280xf16>
  util.global private @__auto.unet.mid_block.attentions.0.transformer_blocks.3.ff.net.0.proj.bias = #stream.parameter.named<"model"::"unet.mid_block.attentions.0.transformer_blocks.3.ff.net.0.proj.bias"> : tensor<10240xf16>
  util.global private @__auto.unet.mid_block.attentions.0.transformer_blocks.3.ff.net.2.weight = #stream.parameter.named<"model"::"unet.mid_block.attentions.0.transformer_blocks.3.ff.net.2.weight"> : tensor<1280x5120xf16>
  util.global private @__auto.unet.mid_block.attentions.0.transformer_blocks.3.ff.net.2.bias = #stream.parameter.named<"model"::"unet.mid_block.attentions.0.transformer_blocks.3.ff.net.2.bias"> : tensor<1280xf16>
  util.global private @__auto.unet.mid_block.attentions.0.transformer_blocks.4.norm1.weight = #stream.parameter.named<"model"::"unet.mid_block.attentions.0.transformer_blocks.4.norm1.weight"> : tensor<1280xf16>
  util.global private @__auto.unet.mid_block.attentions.0.transformer_blocks.4.norm1.bias = #stream.parameter.named<"model"::"unet.mid_block.attentions.0.transformer_blocks.4.norm1.bias"> : tensor<1280xf16>
  util.global private @__auto.unet.mid_block.attentions.0.transformer_blocks.4.attn1.to_q.weight = #stream.parameter.named<"model"::"unet.mid_block.attentions.0.transformer_blocks.4.attn1.to_q.weight"> : tensor<1280x1280xf16>
  util.global private @__auto.unet.mid_block.attentions.0.transformer_blocks.4.attn1.to_k.weight = #stream.parameter.named<"model"::"unet.mid_block.attentions.0.transformer_blocks.4.attn1.to_k.weight"> : tensor<1280x1280xf16>
  util.global private @__auto.unet.mid_block.attentions.0.transformer_blocks.4.attn1.to_v.weight = #stream.parameter.named<"model"::"unet.mid_block.attentions.0.transformer_blocks.4.attn1.to_v.weight"> : tensor<1280x1280xf16>
  util.global private @__auto.unet.mid_block.attentions.0.transformer_blocks.4.attn1.to_out.0.weight = #stream.parameter.named<"model"::"unet.mid_block.attentions.0.transformer_blocks.4.attn1.to_out.0.weight"> : tensor<1280x1280xf16>
  util.global private @__auto.unet.mid_block.attentions.0.transformer_blocks.4.attn1.to_out.0.bias = #stream.parameter.named<"model"::"unet.mid_block.attentions.0.transformer_blocks.4.attn1.to_out.0.bias"> : tensor<1280xf16>
  util.global private @__auto.unet.mid_block.attentions.0.transformer_blocks.4.norm2.weight = #stream.parameter.named<"model"::"unet.mid_block.attentions.0.transformer_blocks.4.norm2.weight"> : tensor<1280xf16>
  util.global private @__auto.unet.mid_block.attentions.0.transformer_blocks.4.norm2.bias = #stream.parameter.named<"model"::"unet.mid_block.attentions.0.transformer_blocks.4.norm2.bias"> : tensor<1280xf16>
  util.global private @__auto.unet.mid_block.attentions.0.transformer_blocks.4.attn2.to_q.weight = #stream.parameter.named<"model"::"unet.mid_block.attentions.0.transformer_blocks.4.attn2.to_q.weight"> : tensor<1280x1280xf16>
  util.global private @__auto.unet.mid_block.attentions.0.transformer_blocks.4.attn2.to_k.weight = #stream.parameter.named<"model"::"unet.mid_block.attentions.0.transformer_blocks.4.attn2.to_k.weight"> : tensor<1280x2048xf16>
…
    %__auto.unet.up_blocks.2.resnets.0.conv2.bias = util.global.load @__auto.unet.up_blocks.2.resnets.0.conv2.bias : tensor<320xf16>
    %14260 = torch_c.from_builtin_tensor %__auto.unet.up_blocks.2.resnets.0.conv2.bias : tensor<320xf16> -> !torch.vtensor<[320],f16>
    %int1_16678 = torch.constant.int 1
    %int1_16679 = torch.constant.int 1
    %14261 = torch.prim.ListConstruct %int1_16678, %int1_16679 : (!torch.int, !torch.int) -> !torch.list<int>
    %int1_16680 = torch.constant.int 1
    %int1_16681 = torch.constant.int 1
    %14262 = torch.prim.ListConstruct %int1_16680, %int1_16681 : (!torch.int, !torch.int) -> !torch.list<int>
    %int1_16682 = torch.constant.int 1
    %int1_16683 = torch.constant.int 1
    %14263 = torch.prim.ListConstruct %int1_16682, %int1_16683 : (!torch.int, !torch.int) -> !torch.list<int>
    %false_16684 = torch.constant.bool false
    %int0_16685 = torch.constant.int 0
    %int0_16686 = torch.constant.int 0
    %14264 = torch.prim.ListConstruct %int0_16685, %int0_16686 : (!torch.int, !torch.int) -> !torch.list<int>
    %int1_16687 = torch.constant.int 1
    %14265 = torch.aten.convolution %14258, %14259, %14260, %14261, %14262, %14263, %false_16684, %14264, %int1_16687 : !torch.vtensor<[2,320,120,128],f16>, !torch.vtensor<[320,320,3,3],f16>, !torch.vtensor<[320],f16>, !torch.list<int>, !torch.list<int>, !torch.list<int>, !torch.bool, !torch.list<int>, !torch.int -> !torch.vtensor<[2,320,120,128],f16>
    %__auto.unet.up_blocks.2.resnets.0.conv_shortcut.weight = util.global.load @__auto.unet.up_blocks.2.resnets.0.conv_shortcut.weight : tensor<320x960x1x1xf16>
    %14266 = torch_c.from_builtin_tensor %__auto.unet.up_blocks.2.resnets.0.conv_shortcut.weight : tensor<320x960x1x1xf16> -> !torch.vtensor<[320,960,1,1],f16>
    %__auto.unet.up_blocks.2.resnets.0.conv_shortcut.bias = util.global.load @__auto.unet.up_blocks.2.resnets.0.conv_shortcut.bias : tensor<320xf16>
    %14267 = torch_c.from_builtin_tensor %__auto.unet.up_blocks.2.resnets.0.conv_shortcut.bias : tensor<320xf16> -> !torch.vtensor<[320],f16>
    %int1_16688 = torch.constant.int 1
    %int1_16689 = torch.constant.int 1
    %14268 = torch.prim.ListConstruct %int1_16688, %int1_16689 : (!torch.int, !torch.int) -> !torch.list<int>
    %int0_16690 = torch.constant.int 0
    %int0_16691 = torch.constant.int 0
    %14269 = torch.prim.ListConstruct %int0_16690, %int0_16691 : (!torch.int, !torch.int) -> !torch.list<int>
    %int1_16692 = torch.constant.int 1
    %int1_16693 = torch.constant.int 1
    %14270 = torch.prim.ListConstruct %int1_16692, %int1_16693 : (!torch.int, !torch.int) -> !torch.list<int>
    %false_16694 = torch.constant.bool false
    %int0_16695 = torch.constant.int 0
    %int0_16696 = torch.constant.int 0
    %14271 = torch.prim.ListConstruct %int0_16695, %int0_16696 : (!torch.int, !torch.int) -> !torch.list<int>
    %int1_16697 = torch.constant.int 1
    %14272 = torch.aten.convolution %14189, %14266, %14267, %14268, %14269, %14270, %false_16694, %14271, %int1_16697 : !torch.vtensor<[2,960,120,128],f16>, !torch.vtensor<[320,960,1,1],f16>, !torch.vtensor<[320],f16>, !torch.list<int>, !torch.list<int>, !torch.list<int>, !torch.bool, !torch.list<int>, !torch.int -> !torch.vtensor<[2,320,120,128],f16>
    %int1_16698 = torch.constant.int 1
    %14273 = torch.aten.add.Tensor %14272, %14265, %int1_16698 : !torch.vtensor<[2,320,120,128],f16>, !torch.vtensor<[2,320,120,128],f16>, !torch.int -> !torch.vtensor<[2,320,120,128],f16>
    %float1.000000e00_16699 = torch.constant.float 1.000000e+00
    %14274 = torch.aten.div.Scalar %14273, %float1.000000e00_16699 : !torch.vtensor<[2,320,120,128],f16>, !torch.float -> !torch.vtensor<[2,320,120,128],f16>
    %14275 = torch.prim.ListConstruct %14274, %185 : (!torch.vtensor<[2,320,120,128],f16>, !torch.vtensor<[2,320,120,128],f16>) -> !torch.list<vtensor>
    %int1_16700 = torch.constant.int 1
    %14276 = torch.aten.cat %14275, %int1_16700 : !torch.list<vtensor>, !torch.int -> !torch.vtensor<[2,640,120,128],f16>
    %int2_16701 = torch.constant.int 2
    %int32_16702 = torch.constant.int 32
    %int20_16703 = torch.constant.int 20
    %int15360_16704 = torch.constant.int 15360
    %14277 = torch.prim.ListConstruct %int2_16701, %int32_16702, %int20_16703, %int15360_16704 : (!torch.int, !torch.int, !torch.int, !torch.int) -> !torch.list<int>
    %14278 = torch.aten.view %14276, %14277 : !torch.vtensor<[2,640,120,128],f16>, !torch.list<int> -> !torch.vtensor<[2,32,20,15360],f16>
    %int6_16705 = torch.constant.int 6
    %14279 = torch.prims.convert_element_type %14278, %int6_16705 : !torch.vtensor<[2,32,20,15360],f16>, !torch.int -> !torch.vtensor<[2,32,20,15360],f32>
    %int2_16706 = torch.constant.int 2
    %int3_16707 = torch.constant.int 3
    %14280 = torch.prim.ListConstruct %int2_16706, %int3_16707 : (!torch.int, !torch.int) -> !torch.list<int>
    %int0_16708 = torch.constant.int 0
    %true_16709 = torch.constant.bool true
    %result0_16710, %result1_16711 = torch.aten.var_mean.correction %14279, %14280, %int0_16708, %true_16709 : !torch.vtensor<[2,32,20,15360],f32>, !torch.list<int>, !torch.int, !torch.bool -> !torch.vtensor<[2,32,1,1],f32>, !torch.vtensor<[2,32,1,1],f32>
    %float1.000000e-05_16712 = torch.constant.float 1.000000e-05
    %int1_16713 = torch.constant.int 1
    %14281 = torch.aten.add.Scalar %result0_16710, %float1.000000e-05_16712, %int1_16713 : !torch.vtensor<[2,32,1,1],f32>, !torch.float, !torch.int -> !torch.vtensor<[2,32,1,1],f32>
    %14282 = torch.aten.rsqrt %14281 : !torch.vtensor<[2,32,1,1],f32> -> !torch.vtensor<[2,32,1,1],f32>
    %int1_16714 = torch.constant.int 1
    %14283 = torch.aten.sub.Tensor %14278, %result1_16711, %int1_16714 : !torch.vtensor<[2,32,20,15360],f16>, !torch.vtensor<[2,32,1,1],f32>, !torch.int -> !torch.vtensor<[2,32,20,15360],f32>
    %14284 = torch.aten.mul.Tensor %14283, %14282 : !torch.vtensor<[2,32,20,15360],f32>, !torch.vtensor<[2,32,1,1],f32> -> !torch.vtensor<[2,32,20,15360],f32>
    %int2_16715 = torch.constant.int 2
    %int640_16716 = torch.constant.int 640
    %int120_16717 = torch.constant.int 120
    %int128_16718 = torch.constant.int 128
    %14285 = torch.prim.ListConstruct %int2_16715, %int640_16716, %int120_16717, %int128_16718 : (!torch.int, !torch.int, !torch.int, !torch.int) -> !torch.list<int>
    %14286 = torch.aten.view %14284, %14285 : !torch.vtensor<[2,32,20,15360],f32>, !torch.list<int> -> !torch.vtensor<[2,640,120,128],f32>
    %__auto.unet.up_blocks.2.resnets.1.norm1.bias = util.global.load @__auto.unet.up_blocks.2.resnets.1.norm1.bias : tensor<640xf16>
    %14287 = torch_c.from_builtin_tensor %__auto.unet.up_blocks.2.resnets.1.norm1.bias : tensor<640xf16> -> !torch.vtensor<[640],f16>
    %int0_16719 = torch.constant.int 0
    %14288 = torch.aten.unsqueeze %14287, %int0_16719 : !torch.vtensor<[640],f16>, !torch.int -> !torch.vtensor<[1,640],f16>
    %int2_16720 = torch.constant.int 2
    %14289 = torch.aten.unsqueeze %14288, %int2_16720 : !torch.vtensor<[1,640],f16>, !torch.int -> !torch.vtensor<[1,640,1],f16>
    %int3_16721 = torch.constant.int 3
    %14290 = torch.aten.unsqueeze %14289, %int3_16721 : !torch.vtensor<[1,640,1],f16>, !torch.int -> !torch.vtensor<[1,640,1,1],f16>
    %__auto.unet.up_blocks.2.resnets.1.norm1.weight = util.global.load @__auto.unet.up_blocks.2.resnets.1.norm1.weight : tensor<640xf16>
    %14291 = torch_c.from_builtin_tensor %__auto.unet.up_blocks.2.resnets.1.norm1.weight : tensor<640xf16> -> !torch.vtensor<[640],f16>
    %int0_16722 = torch.constant.int 0
    %14292 = torch.aten.unsqueeze %14291, %int0_16722 : !torch.vtensor<[640],f16>, !torch.int -> !torch.vtensor<[1,640],f16>
    %int2_16723 = torch.constant.int 2
    %14293 = torch.aten.unsqueeze %14292, %int2_16723 : !torch.vtensor<[1,640],f16>, !torch.int -> !torch.vtensor<[1,640,1],f16>
    %int3_16724 = torch.constant.int 3
    %14294 = torch.aten.unsqueeze %14293, %int3_16724 : !torch.vtensor<[1,640,1],f16>, !torch.int -> !torch.vtensor<[1,640,1,1],f16>
    %14295 = torch.aten.mul.Tensor %14286, %14294 : !torch.vtensor<[2,640,120,128],f32>, !torch.vtensor<[1,640,1,1],f16> -> !torch.vtensor<[2,640,120,128],f32>
    %int1_16725 = torch.constant.int 1
    %14296 = torch.aten.add.Tensor %14295, %14290, %int1_16725 : !torch.vtensor<[2,640,120,128],f32>, !torch.vtensor<[1,640,1,1],f16>, !torch.int -> !torch.vtensor<[2,640,120,128],f32>
    %int5_16726 = torch.constant.int 5
    %14297 = torch.prims.convert_element_type %14296, %int5_16726 : !torch.vtensor<[2,640,120,128],f32>, !torch.int -> !torch.vtensor<[2,640,120,128],f16>
    %14298 = torch.aten.silu %14297 : !torch.vtensor<[2,640,120,128],f16> -> !torch.vtensor<[2,640,120,128],f16>
    %__auto.unet.up_blocks.2.resnets.1.conv1.weight = util.global.load @__auto.unet.up_blocks.2.resnets.1.conv1.weight : tensor<320x640x3x3xf16>
    %14299 = torch_c.from_builtin_tensor %__auto.unet.up_blocks.2.resnets.1.conv1.weight : tensor<320x640x3x3xf16> -> !torch.vtensor<[320,640,3,3],f16>
    %__auto.unet.up_blocks.2.resnets.1.conv1.bias = util.global.load @__auto.unet.up_blocks.2.resnets.1.conv1.bias : tensor<320xf16>
    %14300 = torch_c.from_builtin_tensor %__auto.unet.up_blocks.2.resnets.1.conv1.bias : tensor<320xf16> -> !torch.vtensor<[320],f16>
    %int1_16727 = torch.constant.int 1
    %int1_16728 = torch.constant.int 1
    %14301 = torch.prim.ListConstruct %int1_16727, %int1_16728 : (!torch.int, !torch.int) -> !torch.list<int>
    %int1_16729 = torch.constant.int 1
    %int1_16730 = torch.constant.int 1
    %14302 = torch.prim.ListConstruct %int1_16729, %int1_16730 : (!torch.int, !torch.int) -> !torch.list<int>
    %int1_16731 = torch.constant.int 1
    %int1_16732 = torch.constant.int 1
    %14303 = torch.prim.ListConstruct %int1_16731, %int1_16732 : (!torch.int, !torch.int) -> !torch.list<int>
    %false_16733 = torch.constant.bool false
    %int0_16734 = torch.constant.int 0
    %int0_16735 = torch.constant.int 0
    %14304 = torch.prim.ListConstruct %int0_16734, %int0_16735 : (!torch.int, !torch.int) -> !torch.list<int>
    %int1_16736 = torch.constant.int 1
    %14305 = torch.aten.convolution %14298, %14299, %14300, %14301, %14302, %14303, %false_16733, %14304, %int1_16736 : !torch.vtensor<[2,640,120,128],f16>, !torch.vtensor<[320,640,3,3],f16>, !torch.vtensor<[320],f16>, !torch.list<int>, !torch.list<int>, !torch.list<int>, !torch.bool, !torch.list<int>, !torch.int -> !torch.vtensor<[2,320,120,128],f16>
    %14306 = torch.aten.silu %100 : !torch.vtensor<[2,1280],f16> -> !torch.vtensor<[2,1280],f16>
    %__auto.unet.up_blocks.2.resnets.1.time_emb_proj.weight = util.global.load @__auto.unet.up_blocks.2.resnets.1.time_emb_proj.weight : tensor<320x1280xf16>
    %14307 = torch_c.from_builtin_tensor %__auto.unet.up_blocks.2.resnets.1.time_emb_proj.weight : tensor<320x1280xf16> -> !torch.vtensor<[320,1280],f16>
    %int0_16737 = torch.constant.int 0
    %int1_16738 = torch.constant.int 1
    %14308 = torch.aten.transpose.int %14307, %int0_16737, %int1_16738 : !torch.vtensor<[320,1280],f16>, !torch.int, !torch.int -> !torch.vtensor<[1280,320],f16>
    %__auto.unet.up_blocks.2.resnets.1.time_emb_proj.bias = util.global.load @__auto.unet.up_blocks.2.resnets.1.time_emb_proj.bias : tensor<320xf16>
    %14309 = torch_c.from_builtin_tensor %__auto.unet.up_blocks.2.resnets.1.time_emb_proj.bias : tensor<320xf16> -> !torch.vtensor<[320],f16>
    %int6_16739 = torch.constant.int 6
    %14310 = torch.prims.convert_element_type %14309, %int6_16739 : !torch.vtensor<[320],f16>, !torch.int -> !torch.vtensor<[320],f32>
    %int6_16740 = torch.constant.int 6
    %14311 = torch.prims.convert_element_type %14306, %int6_16740 : !torch.vtensor<[2,1280],f16>, !torch.int -> !torch.vtensor<[2,1280],f32>
    %int6_16741 = torch.constant.int 6
    %14312 = torch.prims.convert_element_type %14308, %int6_16741 : !torch.vtensor<[1280,320],f16>, !torch.int -> !torch.vtensor<[1280,320],f32>
    %14313 = torch.aten.mm %14311, %14312 : !torch.vtensor<[2,1280],f32>, !torch.vtensor<[1280,320],f32> -> !torch.vtensor<[2,320],f32>
    %int1_16742 = torch.constant.int 1
    %14314 = torch.aten.mul.Scalar %14313, %int1_16742 : !torch.vtensor<[2,320],f32>, !torch.int -> !torch.vtensor<[2,320],f32>
    %int1_16743 = torch.constant.int 1
    %14315 = torch.aten.mul.Scalar %14310, %int1_16743 : !torch.vtensor<[320],f32>, !torch.int -> !torch.vtensor<[320],f32>
    %int1_16744 = torch.constant.int 1
    %14316 = torch.aten.add.Tensor %14314, %14315, %int1_16744 : !torch.vtensor<[2,320],f32>, !torch.vtensor<[320],f32>, !torch.int -> !torch.vtensor<[2,320],f32>
    %int5_16745 = torch.constant.int 5
    %14317 = torch.prims.convert_element_type %14316, %int5_16745 : !torch.vtensor<[2,320],f32>, !torch.int -> !torch.vtensor<[2,320],f16>
    %int0_16746 = torch.constant.int 0
    %int0_16747 = torch.constant.int 0
    %int9223372036854775807_16748 = torch.constant.int 9223372036854775807
    %int1_16749 = torch.constant.int 1
    %14318 = torch.aten.slice.Tensor %14317, %int0_16746, %int0_16747, %int9223372036854775807_16748, %int1_16749 : !torch.vtensor<[2,320],f16>, !torch.int, !torch.int, !torch.int, !torch.int -> !torch.vtensor<[2,320],f16>
    %int1_16750 = torch.constant.int 1
    %int0_16751 = torch.constant.int 0
    %int9223372036854775807_16752 = torch.constant.int 9223372036854775807
    %int1_16753 = torch.constant.int 1
    %14319 = torch.aten.slice.Tensor %14318, %int1_16750, %int0_16751, %int9223372036854775807_16752, %int1_16753 : !torch.vtensor<[2,320],f16>, !torch.int, !torch.int, !torch.int, !torch.int -> !torch.vtensor<[2,320],f16>
    %int2_16754 = torch.constant.int 2
    %14320 = torch.aten.unsqueeze %14319, %int2_16754 : !torch.vtensor<[2,320],f16>, !torch.int -> !torch.vtensor<[2,320,1],f16>
    %int3_16755 = torch.constant.int 3
    %14321 = torch.aten.unsqueeze %14320, %int3_16755 : !torch.vtensor<[2,320,1],f16>, !torch.int -> !torch.vtensor<[2,320,1,1],f16>
    %int1_16756 = torch.constant.int 1
    %14322 = torch.aten.add.Tensor %14305, %14321, %int1_16756 : !torch.vtensor<[2,320,120,128],f16>, !torch.vtensor<[2,320,1,1],f16>, !torch.int -> !torch.vtensor<[2,320,120,128],f16>
    %int2_16757 = torch.constant.int 2
    %int32_16758 = torch.constant.int 32
    %int10_16759 = torch.constant.int 10
    %int15360_16760 = torch.constant.int 15360
    %14323 = torch.prim.ListConstruct %int2_16757, %int32_16758, %int10_16759, %int15360_16760 : (!torch.int, !torch.int, !torch.int, !torch.int) -> !torch.list<int>
    %14324 = torch.aten.view %14322, %14323 : !torch.vtensor<[2,320,120,128],f16>, !torch.list<int> -> !torch.vtensor<[2,32,10,15360],f16>
    %int6_16761 = torch.constant.int 6
    %14325 = torch.prims.convert_element_type %14324, %int6_16761 : !torch.vtensor<[2,32,10,15360],f16>, !torch.int -> !torch.vtensor<[2,32,10,15360],f32>
    %int2_16762 = torch.constant.int 2
    %int3_16763 = torch.constant.int 3
    %14326 = torch.prim.ListConstruct %int2_16762, %int3_16763 : (!torch.int, !torch.int) -> !torch.list<int>
    %int0_16764 = torch.constant.int 0
    %true_16765 = torch.constant.bool true
    %result0_16766, %result1_16767 = torch.aten.var_mean.correction %14325, %14326, %int0_16764, %true_16765 : !torch.vtensor<[2,32,10,15360],f32>, !torch.list<int>, !torch.int, !torch.bool -> !torch.vtensor<[2,32,1,1],f32>, !torch.vtensor<[2,32,1,1],f32>
    %float1.000000e-05_16768 = torch.constant.float 1.000000e-05
    %int1_16769 = torch.constant.int 1
    %14327 = torch.aten.add.Scalar %result0_16766, %float1.000000e-05_16768, %int1_16769 : !torch.vtensor<[2,32,1,1],f32>, !torch.float, !torch.int -> !torch.vtensor<[2,32,1,1],f32>
    %14328 = torch.aten.rsqrt %14327 : !torch.vtensor<[2,32,1,1],f32> -> !torch.vtensor<[2,32,1,1],f32>
    %int1_16770 = torch.constant.int 1
    %14329 = torch.aten.sub.Tensor %14324, %result1_16767, %int1_16770 : !torch.vtensor<[2,32,10,15360],f16>, !torch.vtensor<[2,32,1,1],f32>, !torch.int -> !torch.vtensor<[2,32,10,15360],f32>
    %14330 = torch.aten.mul.Tensor %14329, %14328 : !torch.vtensor<[2,32,10,15360],f32>, !torch.vtensor<[2,32,1,1],f32> -> !torch.vtensor<[2,32,10,15360],f32>
    %int2_16771 = torch.constant.int 2
    %int320_16772 = torch.constant.int 320
    %int120_16773 = torch.constant.int 120
    %int128_16774 = torch.constant.int 128
    %14331 = torch.prim.ListConstruct %int2_16771, %int320_16772, %int120_16773, %int128_16774 : (!torch.int, !torch.int, !torch.int, !torch.int) -> !torch.list<int>
    %14332 = torch.aten.view %14330, %14331 : !torch.vtensor<[2,32,10,15360],f32>, !torch.list<int> -> !torch.vtensor<[2,320,120,128],f32>
    %__auto.unet.up_blocks.2.resnets.1.norm2.bias = util.global.load @__auto.unet.up_blocks.2.resnets.1.norm2.bias : tensor<320xf16>
    %14333 = torch_c.from_builtin_tensor %__auto.unet.up_blocks.2.resnets.1.norm2.bias : tensor<320xf16> -> !torch.vtensor<[320],f16>
    %int0_16775 = torch.constant.int 0
    %14334 = torch.aten.unsqueeze %14333, %int0_16775 : !torch.vtensor<[320],f16>, !torch.int -> !torch.vtensor<[1,320],f16>
    %int2_16776 = torch.constant.int 2
    %14335 = torch.aten.unsqueeze %14334, %int2_16776 : !torch.vtensor<[1,320],f16>, !torch.int -> !torch.vtensor<[1,320,1],f16>
    %int3_16777 = torch.constant.int 3
    %14336 = torch.aten.unsqueeze %14335, %int3_16777 : !torch.vtensor<[1,320,1],f16>, !torch.int -> !torch.vtensor<[1,320,1,1],f16>
    %__auto.unet.up_blocks.2.resnets.1.norm2.weight = util.global.load @__auto.unet.up_blocks.2.resnets.1.norm2.weight : tensor<320xf16>
    %14337 = torch_c.from_builtin_tensor %__auto.unet.up_blocks.2.resnets.1.norm2.weight : tensor<320xf16> -> !torch.vtensor<[320],f16>
    %int0_16778 = torch.constant.int 0
    %14338 = torch.aten.unsqueeze %14337, %int0_16778 : !torch.vtensor<[320],f16>, !torch.int -> !torch.vtensor<[1,320],f16>
    %int2_16779 = torch.constant.int 2
    %14339 = torch.aten.unsqueeze %14338, %int2_16779 : !torch.vtensor<[1,320],f16>, !torch.int -> !torch.vtensor<[1,320,1],f16>
    %int3_16780 = torch.constant.int 3
    %14340 = torch.aten.unsqueeze %14339, %int3_16780 : !torch.vtensor<[1,320,1],f16>, !torch.int -> !torch.vtensor<[1,320,1,1],f16>
    %14341 = torch.aten.mul.Tensor %14332, %14340 : !torch.vtensor<[2,320,120,128],f32>, !torch.vtensor<[1,320,1,1],f16> -> !torch.vtensor<[2,320,120,128],f32>
    %int1_16781 = torch.constant.int 1
    %14342 = torch.aten.add.Tensor %14341, %14336, %int1_16781 : !torch.vtensor<[2,320,120,128],f32>, !torch.vtensor<[1,320,1,1],f16>, !torch.int -> !torch.vtensor<[2,320,120,128],f32>
    %int5_16782 = torch.constant.int 5
    %14343 = torch.prims.convert_element_type %14342, %int5_16782 : !torch.vtensor<[2,320,120,128],f32>, !torch.int -> !torch.vtensor<[2,320,120,128],f16>
    %14344 = torch.aten.silu %14343 : !torch.vtensor<[2,320,120,128],f16> -> !torch.vtensor<[2,320,120,128],f16>
    %none_16783 = torch.constant.none
    %14345 = torch.aten.clone %14344, %none_16783 : !torch.vtensor<[2,320,120,128],f16>, !torch.none -> !torch.vtensor<[2,320,120,128],f16>
    %__auto.unet.up_blocks.2.resnets.1.conv2.weight = util.global.load @__auto.unet.up_blocks.2.resnets.1.conv2.weight : tensor<320x320x3x3xf16>
    %14346 = torch_c.from_builtin_tensor %__auto.unet.up_blocks.2.resnets.1.conv2.weight : tensor<320x320x3x3xf16> -> !torch.vtensor<[320,320,3,3],f16>
    %__auto.unet.up_blocks.2.resnets.1.conv2.bias = util.global.load @__auto.unet.up_blocks.2.resnets.1.conv2.bias : tensor<320xf16>
    %14347 = torch_c.from_builtin_tensor %__auto.unet.up_blocks.2.resnets.1.conv2.bias : tensor<320xf16> -> !torch.vtensor<[320],f16>
    %int1_16784 = torch.constant.int 1
    %int1_16785 = torch.constant.int 1
    %14348 = torch.prim.ListConstruct %int1_16784, %int1_16785 : (!torch.int, !torch.int) -> !torch.list<int>
    %int1_16786 = torch.constant.int 1
    %int1_16787 = torch.constant.int 1
    %14349 = torch.prim.ListConstruct %int1_16786, %int1_16787 : (!torch.int, !torch.int) -> !torch.list<int>
    %int1_16788 = torch.constant.int 1
    %int1_16789 = torch.constant.int 1
    %14350 = torch.prim.ListConstruct %int1_16788, %int1_16789 : (!torch.int, !torch.int) -> !torch.list<int>
    %false_16790 = torch.constant.bool false
    %int0_16791 = torch.constant.int 0
    %int0_16792 = torch.constant.int 0
    %14351 = torch.prim.ListConstruct %int0_16791, %int0_16792 : (!torch.int, !torch.int) -> !torch.list<int>
    %int1_16793 = torch.constant.int 1
    %14352 = torch.aten.convolution %14345, %14346, %14347, %14348, %14349, %14350, %false_16790, %14351, %int1_16793 : !torch.vtensor<[2,320,120,128],f16>, !torch.vtensor<[320,320,3,3],f16>, !torch.vtensor<[320],f16>, !torch.list<int>, !torch.list<int>, !torch.list<int>, !torch.bool, !torch.list<int>, !torch.int -> !torch.vtensor<[2,320,120,128],f16>
    %__auto.unet.up_blocks.2.resnets.1.conv_shortcut.weight = util.global.load @__auto.unet.up_blocks.2.resnets.1.conv_shortcut.weight : tensor<320x640x1x1xf16>
    %14353 = torch_c.from_builtin_tensor %__auto.unet.up_blocks.2.resnets.1.conv_shortcut.weight : tensor<320x640x1x1xf16> -> !torch.vtensor<[320,640,1,1],f16>
    %__auto.unet.up_blocks.2.resnets.1.conv_shortcut.bias = util.global.load @__auto.unet.up_blocks.2.resnets.1.conv_shortcut.bias : tensor<320xf16>
    %14354 = torch_c.from_builtin_tensor %__auto.unet.up_blocks.2.resnets.1.conv_shortcut.bias : tensor<320xf16> -> !torch.vtensor<[320],f16>
    %int1_16794 = torch.constant.int 1
    %int1_16795 = torch.constant.int 1
    %14355 = torch.prim.ListConstruct %int1_16794, %int1_16795 : (!torch.int, !torch.int) -> !torch.list<int>
    %int0_16796 = torch.constant.int 0
    %int0_16797 = torch.constant.int 0
    %14356 = torch.prim.ListConstruct %int0_16796, %int0_16797 : (!torch.int, !torch.int) -> !torch.list<int>
    %int1_16798 = torch.constant.int 1
    %int1_16799 = torch.constant.int 1
    %14357 = torch.prim.ListConstruct %int1_16798, %int1_16799 : (!torch.int, !torch.int) -> !torch.list<int>
    %false_16800 = torch.constant.bool false
    %int0_16801 = torch.constant.int 0
    %int0_16802 = torch.constant.int 0
    %14358 = torch.prim.ListConstruct %int0_16801, %int0_16802 : (!torch.int, !torch.int) -> !torch.list<int>
    %int1_16803 = torch.constant.int 1
    %14359 = torch.aten.convolution %14276, %14353, %14354, %14355, %14356, %14357, %false_16800, %14358, %int1_16803 : !torch.vtensor<[2,640,120,128],f16>, !torch.vtensor<[320,640,1,1],f16>, !torch.vtensor<[320],f16>, !torch.list<int>, !torch.list<int>, !torch.list<int>, !torch.bool, !torch.list<int>, !torch.int -> !torch.vtensor<[2,320,120,128],f16>
    %int1_16804 = torch.constant.int 1
    %14360 = torch.aten.add.Tensor %14359, %14352, %int1_16804 : !torch.vtensor<[2,320,120,128],f16>, !torch.vtensor<[2,320,120,128],f16>, !torch.int -> !torch.vtensor<[2,320,120,128],f16>
    %float1.000000e00_16805 = torch.constant.float 1.000000e+00
    %14361 = torch.aten.div.Scalar %14360, %float1.000000e00_16805 : !torch.vtensor<[2,320,120,128],f16>, !torch.float -> !torch.vtensor<[2,320,120,128],f16>
    %14362 = torch.prim.ListConstruct %14361, %107 : (!torch.vtensor<[2,320,120,128],f16>, !torch.vtensor<[2,320,120,128],f16>) -> !torch.list<vtensor>
    %int1_16806 = torch.constant.int 1
    %14363 = torch.aten.cat %14362, %int1_16806 : !torch.list<vtensor>, !torch.int -> !torch.vtensor<[2,640,120,128],f16>
    %int2_16807 = torch.constant.int 2
    %int32_16808 = torch.constant.int 32
    %int20_16809 = torch.constant.int 20
    %int15360_16810 = torch.constant.int 15360
    %14364 = torch.prim.ListConstruct %int2_16807, %int32_16808, %int20_16809, %int15360_16810 : (!torch.int, !torch.int, !torch.int, !torch.int) -> !torch.list<int>
    %14365 = torch.aten.view %14363, %14364 : !torch.vtensor<[2,640,120,128],f16>, !torch.list<int> -> !torch.vtensor<[2,32,20,15360],f16>
    %int6_16811 = torch.constant.int 6
    %14366 = torch.prims.convert_element_type %14365, %int6_16811 : !torch.vtensor<[2,32,20,15360],f16>, !torch.int -> !torch.vtensor<[2,32,20,15360],f32>
    %int2_16812 = torch.constant.int 2
    %int3_16813 = torch.constant.int 3
    %14367 = torch.prim.ListConstruct %int2_16812, %int3_16813 : (!torch.int, !torch.int) -> !torch.list<int>
    %int0_16814 = torch.constant.int 0
    %true_16815 = torch.constant.bool true
    %result0_16816, %result1_16817 = torch.aten.var_mean.correction %14366, %14367, %int0_16814, %true_16815 : !torch.vtensor<[2,32,20,15360],f32>, !torch.list<int>, !torch.int, !torch.bool -> !torch.vtensor<[2,32,1,1],f32>, !torch.vtensor<[2,32,1,1],f32>
    %float1.000000e-05_16818 = torch.constant.float 1.000000e-05
    %int1_16819 = torch.constant.int 1
    %14368 = torch.aten.add.Scalar %result0_16816, %float1.000000e-05_16818, %int1_16819 : !torch.vtensor<[2,32,1,1],f32>, !torch.float, !torch.int -> !torch.vtensor<[2,32,1,1],f32>
    %14369 = torch.aten.rsqrt %14368 : !torch.vtensor<[2,32,1,1],f32> -> !torch.vtensor<[2,32,1,1],f32>
    %int1_16820 = torch.constant.int 1
    %14370 = torch.aten.sub.Tensor %14365, %result1_16817, %int1_16820 : !torch.vtensor<[2,32,20,15360],f16>, !torch.vtensor<[2,32,1,1],f32>, !torch.int -> !torch.vtensor<[2,32,20,15360],f32>
    %14371 = torch.aten.mul.Tensor %14370, %14369 : !torch.vtensor<[2,32,20,15360],f32>, !torch.vtensor<[2,32,1,1],f32> -> !torch.vtensor<[2,32,20,15360],f32>
    %int2_16821 = torch.constant.int 2
    %int640_16822 = torch.constant.int 640
    %int120_16823 = torch.constant.int 120
    %int128_16824 = torch.constant.int 128
    %14372 = torch.prim.ListConstruct %int2_16821, %int640_16822, %int120_16823, %int128_16824 : (!torch.int, !torch.int, !torch.int, !torch.int) -> !torch.list<int>
    %14373 = torch.aten.view %14371, %14372 : !torch.vtensor<[2,32,20,15360],f32>, !torch.list<int> -> !torch.vtensor<[2,640,120,128],f32>
    %__auto.unet.up_blocks.2.resnets.2.norm1.bias = util.global.load @__auto.unet.up_blocks.2.resnets.2.norm1.bias : tensor<640xf16>
    %14374 = torch_c.from_builtin_tensor %__auto.unet.up_blocks.2.resnets.2.norm1.bias : tensor<640xf16> -> !torch.vtensor<[640],f16>
    %int0_16825 = torch.constant.int 0
    %14375 = torch.aten.unsqueeze %14374, %int0_16825 : !torch.vtensor<[640],f16>, !torch.int -> !torch.vtensor<[1,640],f16>
    %int2_16826 = torch.constant.int 2
    %14376 = torch.aten.unsqueeze %14375, %int2_16826 : !torch.vtensor<[1,640],f16>, !torch.int -> !torch.vtensor<[1,640,1],f16>
    %int3_16827 = torch.constant.int 3
    %14377 = torch.aten.unsqueeze %14376, %int3_16827 : !torch.vtensor<[1,640,1],f16>, !torch.int -> !torch.vtensor<[1,640,1,1],f16>
    %__auto.unet.up_blocks.2.resnets.2.norm1.weight = util.global.load @__auto.unet.up_blocks.2.resnets.2.norm1.weight : tensor<640xf16>
    %14378 = torch_c.from_builtin_tensor %__auto.unet.up_blocks.2.resnets.2.norm1.weight : tensor<640xf16> -> !torch.vtensor<[640],f16>
    %int0_16828 = torch.constant.int 0
    %14379 = torch.aten.unsqueeze %14378, %int0_16828 : !torch.vtensor<[640],f16>, !torch.int -> !torch.vtensor<[1,640],f16>
    %int2_16829 = torch.constant.int 2
    %14380 = torch.aten.unsqueeze %14379, %int2_16829 : !torch.vtensor<[1,640],f16>, !torch.int -> !torch.vtensor<[1,640,1],f16>
    %int3_16830 = torch.constant.int 3
    %14381 = torch.aten.unsqueeze %14380, %int3_16830 : !torch.vtensor<[1,640,1],f16>, !torch.int -> !torch.vtensor<[1,640,1,1],f16>
    %14382 = torch.aten.mul.Tensor %14373, %14381 : !torch.vtensor<[2,640,120,128],f32>, !torch.vtensor<[1,640,1,1],f16> -> !torch.vtensor<[2,640,120,128],f32>
    %int1_16831 = torch.constant.int 1
    %14383 = torch.aten.add.Tensor %14382, %14377, %int1_16831 : !torch.vtensor<[2,640,120,128],f32>, !torch.vtensor<[1,640,1,1],f16>, !torch.int -> !torch.vtensor<[2,640,120,128],f32>
    %int5_16832 = torch.constant.int 5
    %14384 = torch.prims.convert_element_type %14383, %int5_16832 : !torch.vtensor<[2,640,120,128],f32>, !torch.int -> !torch.vtensor<[2,640,120,128],f16>
    %14385 = torch.aten.silu %14384 : !torch.vtensor<[2,640,120,128],f16> -> !torch.vtensor<[2,640,120,128],f16>
    %__auto.unet.up_blocks.2.resnets.2.conv1.weight = util.global.load @__auto.unet.up_blocks.2.resnets.2.conv1.weight : tensor<320x640x3x3xf16>
    %14386 = torch_c.from_builtin_tensor %__auto.unet.up_blocks.2.resnets.2.conv1.weight : tensor<320x640x3x3xf16> -> !torch.vtensor<[320,640,3,3],f16>
    %__auto.unet.up_blocks.2.resnets.2.conv1.bias = util.global.load @__auto.unet.up_blocks.2.resnets.2.conv1.bias : tensor<320xf16>
    %14387 = torch_c.from_builtin_tensor %__auto.unet.up_blocks.2.resnets.2.conv1.bias : tensor<320xf16> -> !torch.vtensor<[320],f16>
    %int1_16833 = torch.constant.int 1
    %int1_16834 = torch.constant.int 1
    %14388 = torch.prim.ListConstruct %int1_16833, %int1_16834 : (!torch.int, !torch.int) -> !torch.list<int>
    %int1_16835 = torch.constant.int 1
    %int1_16836 = torch.constant.int 1
    %14389 = torch.prim.ListConstruct %int1_16835, %int1_16836 : (!torch.int, !torch.int) -> !torch.list<int>
    %int1_16837 = torch.constant.int 1
    %int1_16838 = torch.constant.int 1
    %14390 = torch.prim.ListConstruct %int1_16837, %int1_16838 : (!torch.int, !torch.int) -> !torch.list<int>
    %false_16839 = torch.constant.bool false
    %int0_16840 = torch.constant.int 0
    %int0_16841 = torch.constant.int 0
    %14391 = torch.prim.ListConstruct %int0_16840, %int0_16841 : (!torch.int, !torch.int) -> !torch.list<int>
    %int1_16842 = torch.constant.int 1
    %14392 = torch.aten.convolution %14385, %14386, %14387, %14388, %14389, %14390, %false_16839, %14391, %int1_16842 : !torch.vtensor<[2,640,120,128],f16>, !torch.vtensor<[320,640,3,3],f16>, !torch.vtensor<[320],f16>, !torch.list<int>, !torch.list<int>, !torch.list<int>, !torch.bool, !torch.list<int>, !torch.int -> !torch.vtensor<[2,320,120,128],f16>
    %14393 = torch.aten.silu %100 : !torch.vtensor<[2,1280],f16> -> !torch.vtensor<[2,1280],f16>
    %__auto.unet.up_blocks.2.resnets.2.time_emb_proj.weight = util.global.load @__auto.unet.up_blocks.2.resnets.2.time_emb_proj.weight : tensor<320x1280xf16>
    %14394 = torch_c.from_builtin_tensor %__auto.unet.up_blocks.2.resnets.2.time_emb_proj.weight : tensor<320x1280xf16> -> !torch.vtensor<[320,1280],f16>
    %int0_16843 = torch.constant.int 0
    %int1_16844 = torch.constant.int 1
    %14395 = torch.aten.transpose.int %14394, %int0_16843, %int1_16844 : !torch.vtensor<[320,1280],f16>, !torch.int, !torch.int -> !torch.vtensor<[1280,320],f16>
    %__auto.unet.up_blocks.2.resnets.2.time_emb_proj.bias = util.global.load @__auto.unet.up_blocks.2.resnets.2.time_emb_proj.bias : tensor<320xf16>
    %14396 = torch_c.from_builtin_tensor %__auto.unet.up_blocks.2.resnets.2.time_emb_proj.bias : tensor<320xf16> -> !torch.vtensor<[320],f16>
    %int6_16845 = torch.constant.int 6
    %14397 = torch.prims.convert_element_type %14396, %int6_16845 : !torch.vtensor<[320],f16>, !torch.int -> !torch.vtensor<[320],f32>
    %int6_16846 = torch.constant.int 6
    %14398 = torch.prims.convert_element_type %14393, %int6_16846 : !torch.vtensor<[2,1280],f16>, !torch.int -> !torch.vtensor<[2,1280],f32>
    %int6_16847 = torch.constant.int 6
    %14399 = torch.prims.convert_element_type %14395, %int6_16847 : !torch.vtensor<[1280,320],f16>, !torch.int -> !torch.vtensor<[1280,320],f32>
    %14400 = torch.aten.mm %14398, %14399 : !torch.vtensor<[2,1280],f32>, !torch.vtensor<[1280,320],f32> -> !torch.vtensor<[2,320],f32>
    %int1_16848 = torch.constant.int 1
    %14401 = torch.aten.mul.Scalar %14400, %int1_16848 : !torch.vtensor<[2,320],f32>, !torch.int -> !torch.vtensor<[2,320],f32>
    %int1_16849 = torch.constant.int 1
    %14402 = torch.aten.mul.Scalar %14397, %int1_16849 : !torch.vtensor<[320],f32>, !torch.int -> !torch.vtensor<[320],f32>
    %int1_16850 = torch.constant.int 1
    %14403 = torch.aten.add.Tensor %14401, %14402, %int1_16850 : !torch.vtensor<[2,320],f32>, !torch.vtensor<[320],f32>, !torch.int -> !torch.vtensor<[2,320],f32>
    %int5_16851 = torch.constant.int 5
    %14404 = torch.prims.convert_element_type %14403, %int5_16851 : !torch.vtensor<[2,320],f32>, !torch.int -> !torch.vtensor<[2,320],f16>
    %int0_16852 = torch.constant.int 0
    %int0_16853 = torch.constant.int 0
    %int9223372036854775807_16854 = torch.constant.int 9223372036854775807
    %int1_16855 = torch.constant.int 1
    %14405 = torch.aten.slice.Tensor %14404, %int0_16852, %int0_16853, %int9223372036854775807_16854, %int1_16855 : !torch.vtensor<[2,320],f16>, !torch.int, !torch.int, !torch.int, !torch.int -> !torch.vtensor<[2,320],f16>
    %int1_16856 = torch.constant.int 1
    %int0_16857 = torch.constant.int 0
    %int9223372036854775807_16858 = torch.constant.int 9223372036854775807
    %int1_16859 = torch.constant.int 1
    %14406 = torch.aten.slice.Tensor %14405, %int1_16856, %int0_16857, %int9223372036854775807_16858, %int1_16859 : !torch.vtensor<[2,320],f16>, !torch.int, !torch.int, !torch.int, !torch.int -> !torch.vtensor<[2,320],f16>
    %int2_16860 = torch.constant.int 2
    %14407 = torch.aten.unsqueeze %14406, %int2_16860 : !torch.vtensor<[2,320],f16>, !torch.int -> !torch.vtensor<[2,320,1],f16>
    %int3_16861 = torch.constant.int 3
    %14408 = torch.aten.unsqueeze %14407, %int3_16861 : !torch.vtensor<[2,320,1],f16>, !torch.int -> !torch.vtensor<[2,320,1,1],f16>
    %int1_16862 = torch.constant.int 1
    %14409 = torch.aten.add.Tensor %14392, %14408, %int1_16862 : !torch.vtensor<[2,320,120,128],f16>, !torch.vtensor<[2,320,1,1],f16>, !torch.int -> !torch.vtensor<[2,320,120,128],f16>
    %int2_16863 = torch.constant.int 2
    %int32_16864 = torch.constant.int 32
    %int10_16865 = torch.constant.int 10
    %int15360_16866 = torch.constant.int 15360
    %14410 = torch.prim.ListConstruct %int2_16863, %int32_16864, %int10_16865, %int15360_16866 : (!torch.int, !torch.int, !torch.int, !torch.int) -> !torch.list<int>
    %14411 = torch.aten.view %14409, %14410 : !torch.vtensor<[2,320,120,128],f16>, !torch.list<int> -> !torch.vtensor<[2,32,10,15360],f16>
    %int6_16867 = torch.constant.int 6
    %14412 = torch.prims.convert_element_type %14411, %int6_16867 : !torch.vtensor<[2,32,10,15360],f16>, !torch.int -> !torch.vtensor<[2,32,10,15360],f32>
    %int2_16868 = torch.constant.int 2
    %int3_16869 = torch.constant.int 3
    %14413 = torch.prim.ListConstruct %int2_16868, %int3_16869 : (!torch.int, !torch.int) -> !torch.list<int>
    %int0_16870 = torch.constant.int 0
    %true_16871 = torch.constant.bool true
    %result0_16872, %result1_16873 = torch.aten.var_mean.correction %14412, %14413, %int0_16870, %true_16871 : !torch.vtensor<[2,32,10,15360],f32>, !torch.list<int>, !torch.int, !torch.bool -> !torch.vtensor<[2,32,1,1],f32>, !torch.vtensor<[2,32,1,1],f32>
    %float1.000000e-05_16874 = torch.constant.float 1.000000e-05
    %int1_16875 = torch.constant.int 1
    %14414 = torch.aten.add.Scalar %result0_16872, %float1.000000e-05_16874, %int1_16875 : !torch.vtensor<[2,32,1,1],f32>, !torch.float, !torch.int -> !torch.vtensor<[2,32,1,1],f32>
    %14415 = torch.aten.rsqrt %14414 : !torch.vtensor<[2,32,1,1],f32> -> !torch.vtensor<[2,32,1,1],f32>
    %int1_16876 = torch.constant.int 1
    %14416 = torch.aten.sub.Tensor %14411, %result1_16873, %int1_16876 : !torch.vtensor<[2,32,10,15360],f16>, !torch.vtensor<[2,32,1,1],f32>, !torch.int -> !torch.vtensor<[2,32,10,15360],f32>
    %14417 = torch.aten.mul.Tensor %14416, %14415 : !torch.vtensor<[2,32,10,15360],f32>, !torch.vtensor<[2,32,1,1],f32> -> !torch.vtensor<[2,32,10,15360],f32>
    %int2_16877 = torch.constant.int 2
    %int320_16878 = torch.constant.int 320
    %int120_16879 = torch.constant.int 120
    %int128_16880 = torch.constant.int 128
    %14418 = torch.prim.ListConstruct %int2_16877, %int320_16878, %int120_16879, %int128_16880 : (!torch.int, !torch.int, !torch.int, !torch.int) -> !torch.list<int>
    %14419 = torch.aten.view %14417, %14418 : !torch.vtensor<[2,32,10,15360],f32>, !torch.list<int> -> !torch.vtensor<[2,320,120,128],f32>
    %__auto.unet.up_blocks.2.resnets.2.norm2.bias = util.global.load @__auto.unet.up_blocks.2.resnets.2.norm2.bias : tensor<320xf16>
    %14420 = torch_c.from_builtin_tensor %__auto.unet.up_blocks.2.resnets.2.norm2.bias : tensor<320xf16> -> !torch.vtensor<[320],f16>
    %int0_16881 = torch.constant.int 0
    %14421 = torch.aten.unsqueeze %14420, %int0_16881 : !torch.vtensor<[320],f16>, !torch.int -> !torch.vtensor<[1,320],f16>
    %int2_16882 = torch.constant.int 2
    %14422 = torch.aten.unsqueeze %14421, %int2_16882 : !torch.vtensor<[1,320],f16>, !torch.int -> !torch.vtensor<[1,320,1],f16>
    %int3_16883 = torch.constant.int 3
    %14423 = torch.aten.unsqueeze %14422, %int3_16883 : !torch.vtensor<[1,320,1],f16>, !torch.int -> !torch.vtensor<[1,320,1,1],f16>
    %__auto.unet.up_blocks.2.resnets.2.norm2.weight = util.global.load @__auto.unet.up_blocks.2.resnets.2.norm2.weight : tensor<320xf16>
    %14424 = torch_c.from_builtin_tensor %__auto.unet.up_blocks.2.resnets.2.norm2.weight : tensor<320xf16> -> !torch.vtensor<[320],f16>
    %int0_16884 = torch.constant.int 0
    %14425 = torch.aten.unsqueeze %14424, %int0_16884 : !torch.vtensor<[320],f16>, !torch.int -> !torch.vtensor<[1,320],f16>
    %int2_16885 = torch.constant.int 2
    %14426 = torch.aten.unsqueeze %14425, %int2_16885 : !torch.vtensor<[1,320],f16>, !torch.int -> !torch.vtensor<[1,320,1],f16>
    %int3_16886 = torch.constant.int 3
    %14427 = torch.aten.unsqueeze %14426, %int3_16886 : !torch.vtensor<[1,320,1],f16>, !torch.int -> !torch.vtensor<[1,320,1,1],f16>
    %14428 = torch.aten.mul.Tensor %14419, %14427 : !torch.vtensor<[2,320,120,128],f32>, !torch.vtensor<[1,320,1,1],f16> -> !torch.vtensor<[2,320,120,128],f32>
    %int1_16887 = torch.constant.int 1
    %14429 = torch.aten.add.Tensor %14428, %14423, %int1_16887 : !torch.vtensor<[2,320,120,128],f32>, !torch.vtensor<[1,320,1,1],f16>, !torch.int -> !torch.vtensor<[2,320,120,128],f32>
    %int5_16888 = torch.constant.int 5
    %14430 = torch.prims.convert_element_type %14429, %int5_16888 : !torch.vtensor<[2,320,120,128],f32>, !torch.int -> !torch.vtensor<[2,320,120,128],f16>
    %14431 = torch.aten.silu %14430 : !torch.vtensor<[2,320,120,128],f16> -> !torch.vtensor<[2,320,120,128],f16>
    %none_16889 = torch.constant.none
    %14432 = torch.aten.clone %14431, %none_16889 : !torch.vtensor<[2,320,120,128],f16>, !torch.none -> !torch.vtensor<[2,320,120,128],f16>
    %__auto.unet.up_blocks.2.resnets.2.conv2.weight = util.global.load @__auto.unet.up_blocks.2.resnets.2.conv2.weight : tensor<320x320x3x3xf16>
    %14433 = torch_c.from_builtin_tensor %__auto.unet.up_blocks.2.resnets.2.conv2.weight : tensor<320x320x3x3xf16> -> !torch.vtensor<[320,320,3,3],f16>
    %__auto.unet.up_blocks.2.resnets.2.conv2.bias = util.global.load @__auto.unet.up_blocks.2.resnets.2.conv2.bias : tensor<320xf16>
    %14434 = torch_c.from_builtin_tensor %__auto.unet.up_blocks.2.resnets.2.conv2.bias : tensor<320xf16> -> !torch.vtensor<[320],f16>
    %int1_16890 = torch.constant.int 1
    %int1_16891 = torch.constant.int 1
    %14435 = torch.prim.ListConstruct %int1_16890, %int1_16891 : (!torch.int, !torch.int) -> !torch.list<int>
    %int1_16892 = torch.constant.int 1
    %int1_16893 = torch.constant.int 1
    %14436 = torch.prim.ListConstruct %int1_16892, %int1_16893 : (!torch.int, !torch.int) -> !torch.list<int>
    %int1_16894 = torch.constant.int 1
    %int1_16895 = torch.constant.int 1
    %14437 = torch.prim.ListConstruct %int1_16894, %int1_16895 : (!torch.int, !torch.int) -> !torch.list<int>
    %false_16896 = torch.constant.bool false
    %int0_16897 = torch.constant.int 0
    %int0_16898 = torch.constant.int 0
    %14438 = torch.prim.ListConstruct %int0_16897, %int0_16898 : (!torch.int, !torch.int) -> !torch.list<int>
    %int1_16899 = torch.constant.int 1
    %14439 = torch.aten.convolution %14432, %14433, %14434, %14435, %14436, %14437, %false_16896, %14438, %int1_16899 : !torch.vtensor<[2,320,120,128],f16>, !torch.vtensor<[320,320,3,3],f16>, !torch.vtensor<[320],f16>, !torch.list<int>, !torch.list<int>, !torch.list<int>, !torch.bool, !torch.list<int>, !torch.int -> !torch.vtensor<[2,320,120,128],f16>
    %__auto.unet.up_blocks.2.resnets.2.conv_shortcut.weight = util.global.load @__auto.unet.up_blocks.2.resnets.2.conv_shortcut.weight : tensor<320x640x1x1xf16>
    %14440 = torch_c.from_builtin_tensor %__auto.unet.up_blocks.2.resnets.2.conv_shortcut.weight : tensor<320x640x1x1xf16> -> !torch.vtensor<[320,640,1,1],f16>
    %__auto.unet.up_blocks.2.resnets.2.conv_shortcut.bias = util.global.load @__auto.unet.up_blocks.2.resnets.2.conv_shortcut.bias : tensor<320xf16>
    %14441 = torch_c.from_builtin_tensor %__auto.unet.up_blocks.2.resnets.2.conv_shortcut.bias : tensor<320xf16> -> !torch.vtensor<[320],f16>
    %int1_16900 = torch.constant.int 1
    %int1_16901 = torch.constant.int 1
    %14442 = torch.prim.ListConstruct %int1_16900, %int1_16901 : (!torch.int, !torch.int) -> !torch.list<int>
    %int0_16902 = torch.constant.int 0
    %int0_16903 = torch.constant.int 0
    %14443 = torch.prim.ListConstruct %int0_16902, %int0_16903 : (!torch.int, !torch.int) -> !torch.list<int>
    %int1_16904 = torch.constant.int 1
    %int1_16905 = torch.constant.int 1
    %14444 = torch.prim.ListConstruct %int1_16904, %int1_16905 : (!torch.int, !torch.int) -> !torch.list<int>
    %false_16906 = torch.constant.bool false
    %int0_16907 = torch.constant.int 0
    %int0_16908 = torch.constant.int 0
    %14445 = torch.prim.ListConstruct %int0_16907, %int0_16908 : (!torch.int, !torch.int) -> !torch.list<int>
    %int1_16909 = torch.constant.int 1
    %14446 = torch.aten.convolution %14363, %14440, %14441, %14442, %14443, %14444, %false_16906, %14445, %int1_16909 : !torch.vtensor<[2,640,120,128],f16>, !torch.vtensor<[320,640,1,1],f16>, !torch.vtensor<[320],f16>, !torch.list<int>, !torch.list<int>, !torch.list<int>, !torch.bool, !torch.list<int>, !torch.int -> !torch.vtensor<[2,320,120,128],f16>
    %int1_16910 = torch.constant.int 1
    %14447 = torch.aten.add.Tensor %14446, %14439, %int1_16910 : !torch.vtensor<[2,320,120,128],f16>, !torch.vtensor<[2,320,120,128],f16>, !torch.int -> !torch.vtensor<[2,320,120,128],f16>
    %float1.000000e00_16911 = torch.constant.float 1.000000e+00
    %14448 = torch.aten.div.Scalar %14447, %float1.000000e00_16911 : !torch.vtensor<[2,320,120,128],f16>, !torch.float -> !torch.vtensor<[2,320,120,128],f16>
    %int2_16912 = torch.constant.int 2
    %int32_16913 = torch.constant.int 32
    %int10_16914 = torch.constant.int 10
    %int15360_16915 = torch.constant.int 15360
    %14449 = torch.prim.ListConstruct %int2_16912, %int32_16913, %int10_16914, %int15360_16915 : (!torch.int, !torch.int, !torch.int, !torch.int) -> !torch.list<int>
    %14450 = torch.aten.view %14448, %14449 : !torch.vtensor<[2,320,120,128],f16>, !torch.list<int> -> !torch.vtensor<[2,32,10,15360],f16>
    %int6_16916 = torch.constant.int 6
    %14451 = torch.prims.convert_element_type %14450, %int6_16916 : !torch.vtensor<[2,32,10,15360],f16>, !torch.int -> !torch.vtensor<[2,32,10,15360],f32>
    %int2_16917 = torch.constant.int 2
    %int3_16918 = torch.constant.int 3
    %14452 = torch.prim.ListConstruct %int2_16917, %int3_16918 : (!torch.int, !torch.int) -> !torch.list<int>
    %int0_16919 = torch.constant.int 0
    %true_16920 = torch.constant.bool true
    %result0_16921, %result1_16922 = torch.aten.var_mean.correction %14451, %14452, %int0_16919, %true_16920 : !torch.vtensor<[2,32,10,15360],f32>, !torch.list<int>, !torch.int, !torch.bool -> !torch.vtensor<[2,32,1,1],f32>, !torch.vtensor<[2,32,1,1],f32>
    %float1.000000e-05_16923 = torch.constant.float 1.000000e-05
    %int1_16924 = torch.constant.int 1
    %14453 = torch.aten.add.Scalar %result0_16921, %float1.000000e-05_16923, %int1_16924 : !torch.vtensor<[2,32,1,1],f32>, !torch.float, !torch.int -> !torch.vtensor<[2,32,1,1],f32>
    %14454 = torch.aten.rsqrt %14453 : !torch.vtensor<[2,32,1,1],f32> -> !torch.vtensor<[2,32,1,1],f32>
    %int1_16925 = torch.constant.int 1
    %14455 = torch.aten.sub.Tensor %14450, %result1_16922, %int1_16925 : !torch.vtensor<[2,32,10,15360],f16>, !torch.vtensor<[2,32,1,1],f32>, !torch.int -> !torch.vtensor<[2,32,10,15360],f32>
    %14456 = torch.aten.mul.Tensor %14455, %14454 : !torch.vtensor<[2,32,10,15360],f32>, !torch.vtensor<[2,32,1,1],f32> -> !torch.vtensor<[2,32,10,15360],f32>
    %int2_16926 = torch.constant.int 2
    %int320_16927 = torch.constant.int 320
    %int120_16928 = torch.constant.int 120
    %int128_16929 = torch.constant.int 128
    %14457 = torch.prim.ListConstruct %int2_16926, %int320_16927, %int120_16928, %int128_16929 : (!torch.int, !torch.int, !torch.int, !torch.int) -> !torch.list<int>
    %14458 = torch.aten.view %14456, %14457 : !torch.vtensor<[2,32,10,15360],f32>, !torch.list<int> -> !torch.vtensor<[2,320,120,128],f32>
    %__auto.unet.conv_norm_out.bias = util.global.load @__auto.unet.conv_norm_out.bias : tensor<320xf16>
    %14459 = torch_c.from_builtin_tensor %__auto.unet.conv_norm_out.bias : tensor<320xf16> -> !torch.vtensor<[320],f16>
    %int0_16930 = torch.constant.int 0
    %14460 = torch.aten.unsqueeze %14459, %int0_16930 : !torch.vtensor<[320],f16>, !torch.int -> !torch.vtensor<[1,320],f16>
    %int2_16931 = torch.constant.int 2
    %14461 = torch.aten.unsqueeze %14460, %int2_16931 : !torch.vtensor<[1,320],f16>, !torch.int -> !torch.vtensor<[1,320,1],f16>
    %int3_16932 = torch.constant.int 3
    %14462 = torch.aten.unsqueeze %14461, %int3_16932 : !torch.vtensor<[1,320,1],f16>, !torch.int -> !torch.vtensor<[1,320,1,1],f16>
    %__auto.unet.conv_norm_out.weight = util.global.load @__auto.unet.conv_norm_out.weight : tensor<320xf16>
    %14463 = torch_c.from_builtin_tensor %__auto.unet.conv_norm_out.weight : tensor<320xf16> -> !torch.vtensor<[320],f16>
    %int0_16933 = torch.constant.int 0
    %14464 = torch.aten.unsqueeze %14463, %int0_16933 : !torch.vtensor<[320],f16>, !torch.int -> !torch.vtensor<[1,320],f16>
    %int2_16934 = torch.constant.int 2
    %14465 = torch.aten.unsqueeze %14464, %int2_16934 : !torch.vtensor<[1,320],f16>, !torch.int -> !torch.vtensor<[1,320,1],f16>
    %int3_16935 = torch.constant.int 3
    %14466 = torch.aten.unsqueeze %14465, %int3_16935 : !torch.vtensor<[1,320,1],f16>, !torch.int -> !torch.vtensor<[1,320,1,1],f16>
    %14467 = torch.aten.mul.Tensor %14458, %14466 : !torch.vtensor<[2,320,120,128],f32>, !torch.vtensor<[1,320,1,1],f16> -> !torch.vtensor<[2,320,120,128],f32>
    %int1_16936 = torch.constant.int 1
    %14468 = torch.aten.add.Tensor %14467, %14462, %int1_16936 : !torch.vtensor<[2,320,120,128],f32>, !torch.vtensor<[1,320,1,1],f16>, !torch.int -> !torch.vtensor<[2,320,120,128],f32>
    %int5_16937 = torch.constant.int 5
    %14469 = torch.prims.convert_element_type %14468, %int5_16937 : !torch.vtensor<[2,320,120,128],f32>, !torch.int -> !torch.vtensor<[2,320,120,128],f16>
    %14470 = torch.aten.silu %14469 : !torch.vtensor<[2,320,120,128],f16> -> !torch.vtensor<[2,320,120,128],f16>
    %__auto.unet.conv_out.weight = util.global.load @__auto.unet.conv_out.weight : tensor<4x320x3x3xf16>
    %14471 = torch_c.from_builtin_tensor %__auto.unet.conv_out.weight : tensor<4x320x3x3xf16> -> !torch.vtensor<[4,320,3,3],f16>
    %__auto.unet.conv_out.bias = util.global.load @__auto.unet.conv_out.bias : tensor<4xf16>
    %14472 = torch_c.from_builtin_tensor %__auto.unet.conv_out.bias : tensor<4xf16> -> !torch.vtensor<[4],f16>
    %int1_16938 = torch.constant.int 1
    %int1_16939 = torch.constant.int 1
    %14473 = torch.prim.ListConstruct %int1_16938, %int1_16939 : (!torch.int, !torch.int) -> !torch.list<int>
    %int1_16940 = torch.constant.int 1
    %int1_16941 = torch.constant.int 1
    %14474 = torch.prim.ListConstruct %int1_16940, %int1_16941 : (!torch.int, !torch.int) -> !torch.list<int>
    %int1_16942 = torch.constant.int 1
    %int1_16943 = torch.constant.int 1
    %14475 = torch.prim.ListConstruct %int1_16942, %int1_16943 : (!torch.int, !torch.int) -> !torch.list<int>
    %false_16944 = torch.constant.bool false
    %int0_16945 = torch.constant.int 0
    %int0_16946 = torch.constant.int 0
    %14476 = torch.prim.ListConstruct %int0_16945, %int0_16946 : (!torch.int, !torch.int) -> !torch.list<int>
    %int1_16947 = torch.constant.int 1
    %14477 = torch.aten.convolution %14470, %14471, %14472, %14473, %14474, %14475, %false_16944, %14476, %int1_16947 : !torch.vtensor<[2,320,120,128],f16>, !torch.vtensor<[4,320,3,3],f16>, !torch.vtensor<[4],f16>, !torch.list<int>, !torch.list<int>, !torch.list<int>, !torch.bool, !torch.list<int>, !torch.int -> !torch.vtensor<[2,4,120,128],f16>
    %int0_16948 = torch.constant.int 0
    %int0_16949 = torch.constant.int 0
    %int1_16950 = torch.constant.int 1
    %int1_16951 = torch.constant.int 1
    %14478 = torch.aten.slice.Tensor %14477, %int0_16948, %int0_16949, %int1_16950, %int1_16951 : !torch.vtensor<[2,4,120,128],f16>, !torch.int, !torch.int, !torch.int, !torch.int -> !torch.vtensor<[1,4,120,128],f16>
    %int0_16952 = torch.constant.int 0
    %int1_16953 = torch.constant.int 1
    %int2_16954 = torch.constant.int 2
    %int1_16955 = torch.constant.int 1
    %14479 = torch.aten.slice.Tensor %14477, %int0_16952, %int1_16953, %int2_16954, %int1_16955 : !torch.vtensor<[2,4,120,128],f16>, !torch.int, !torch.int, !torch.int, !torch.int -> !torch.vtensor<[1,4,120,128],f16>
    %int1_16956 = torch.constant.int 1
    %14480 = torch.aten.sub.Tensor %14479, %14478, %int1_16956 : !torch.vtensor<[1,4,120,128],f16>, !torch.vtensor<[1,4,120,128],f16>, !torch.int -> !torch.vtensor<[1,4,120,128],f16>
    %14481 = torch.aten.mul.Tensor %arg5, %14480 : !torch.vtensor<[1],f16>, !torch.vtensor<[1,4,120,128],f16> -> !torch.vtensor<[1,4,120,128],f16>
    %int1_16957 = torch.constant.int 1
    %14482 = torch.aten.add.Tensor %14478, %14481, %int1_16957 : !torch.vtensor<[1,4,120,128],f16>, !torch.vtensor<[1,4,120,128],f16>, !torch.int -> !torch.vtensor<[1,4,120,128],f16>
    return %14482 : !torch.vtensor<[1,4,120,128],f16>
  }
}
